baseline/DLPL-CAP/models_dlpl-cap-classifier/sandwich+ultra8t_to_ssram+digtime+timing_ctrl+array_128_32_8t/dlpl-cap-classifier_nh_2_tsk_regression_ngl_4_nhl_4_hd_32_us_1_bn_0_dp_0.0_epoch_1_20250402_110456.pth (torch, 63106 bytes, 24 tensors)

net_attr_layers.weight f4 [16, 17]
00000000: 455c b1bb 5406 463c f720 6fbe a024 643e
00000010: 11c8 93be 76fd 1bbe c3d3 f1bd ffda 113e
00000020: d8ef 5a3e 8933 36be d9de 573e cced 393d
00000030: eb7c 373e 4d8a 063d 5382 ef3d 709b 03bf
00000040: 34dd fa3d aafb 863d 2bc9 8dbd c292 0f3d
00000050: 96da e4bd 5104 5abd 4df9 5cbd a2c0 243e
00000060: 920b 44be 64fd e4bd 5a42 8cbd 7554 15be
00000070: 7886 bb3c e84b 75be 014b 603e 8ff8 52be
00000080: 8d1b 0f3f c619 973e c9e2 6bbe 69ac 8b3c
00000090: fda5 2bbe b6a9 483e 84b8 6fbe f58a 5fbe
000000a0: 6b75 853d c6b2 86bd 9f0b d13d f8bc 5d3e
000000b0: 9990 0f3e 3626 d9bd 0f5e 0f3e fdbf 313d
000000c0: 8c3f fc3d 4c04 20bf f776 19bf b731 233d
000000d0: 1297 73bc ec6c 393e a311 8f3d f797 d83d
000000e0: a4df 803e bd40 8abb a75d 423e ed75 30be
000000f0: fd32 7a3c 6683 29be 9529 993d 240f abbd
00000100: 7033 983d c9f8 4ebd 0528 123f 2f37 1cbe
00000110: 8555 bbbd 0df6 9fbd db4a 5a3e b887 a53d
00000120: 79b2 6d3e 3c97 06be bf56 76be 1c4e 42be
00000130: 1311 27be 4e30 c93d 65dc b13d 8e5d 4e3e
00000140: f141 00be bb4e 29be c4c5 033e 3c3a 303e
00000150: 7e60 a33e b25d 5abe 8473 60bc 30be afbe
00000160: 84aa fabd e952 01be 2a9b ddbd 5a48 7dbd
00000170: a709 143e c4d5 283e fc19 34be f296 04be
00000180: 1b69 633e 6b9b a7bd c717 b0bd f34e 70be
00000190: 0f46 17bf b2bb e5bd 2d4f 983e ba52 243e
000001a0: 996c 833e d1a5 29be e566 a83d cd64 593e
000001b0: 565d 59be 5523 1ebe 6442 783e 1ea2 3b3d
000001c0: 2211 993d 60a3 67be 311d 23be 7455 a5bd
000001d0: d757 1b3d a62f f73c b380 593c 1981 14be
000001e0: a7dc eabc b2e6 d23c 30ae 89bc 93d9 7fbd
000001f0: f0da 44be 41e4 10be 0906 aabd e505 44be
00000200: 4b3d 503e c928 45bd 63af 553e 51c4 9a3d
00000210: b94e 52be 16df 2b3e 0390 623c 5dd3 90be
00000220: c792 86be 300e 89be 4c0a febd ff01 59bd
00000230: 332e 1bbe 0985 6ebe 1863 383e 974e 36be
00000240: c689 2bbd 1f7f 4f3d e836 003e 3180 483e
00000250: 1d3e 623e 67ed 44be 4503 7a3d eb87 15bf
00000260: 9d77 d6be f87e 48bc c981 ce3e ac39 b7bd
00000270: 03bc 043e 5571 6a3e 08aa 893e e245 06be
00000280: 77be 613e 454e 5a3d b796 ff3c 87dd 5abe
00000290: ae83 d03d cb08 15bd 678e e3bd 2f53 553e
000002a0: 9082 fa3e f28d 54b9 5acf af3d cc0e 473e
000002b0: cc44 ab3e 9ada 7dbd 5b91 f83d 0bbb 093e
000002c0: 778a 39be db24 b13d e73c 403e 14d0 69be
000002d0: 4eb9 663d 864c 003e 2623 343d 48e4 b0bd
000002e0: b2a0 013e 400f 133f 8ee9 1c3d 7fd1 413d
000002f0: b1c9 343d eeaf 1e3d 257e 2fbd d71c c33c
00000300: 681f 8c3e fc6f 553e 6db1 c4bc c96c 5ebd
00000310: 16f1 673b 4943 6dbc afd4 6e3d 1732 8b3d
00000320: 4b92 61be 4b4e b7bd 37d0 a13e f991 1b3d
00000330: e1a5 813d 5a10 01bd da4d 7ebe 3178 5ebe
00000340: a60f 4fbe 4b39 473e 835b 1e3e c054 e53d
00000350: 8188 5bbe 2e5a 15be 76c7 1cbd 5d3f 703e
00000360: ddb4 0f3d 56a2 80bd 6b7f cd3d 049f c8be
00000370: b297 cebe 149a 11be 3877 c6be c1f6 ecbe
00000380: eb10 77be 8ac1 8cbe 72ba d1bd b106 b53d
00000390: 2d2c 2dbe e81c 75be bcb5 49be 1133 393e
000003a0: 8979 ee3d 3bfe 503e 421b 023e a66d 7b3d
000003b0: 17e1 01be 3375 4ebd 35fd c0be a415 b6be
000003c0: 4cde 63be c3de f3bd 3578 d3be 3b8c 8ebe
000003d0: 8e06 35bd 4dcd 2ebe af47 22be dbc3 a43d
000003e0: 0d9f 93bd 3952 193e 9159 9fbd a92f 36be
000003f0: 6d47 2fbd b1b8 12bf ebef 3ebe e6b8 a7be
-0.0054126107 0.01208647 -0.23352419 0.22279596 -0.28863576 -0.15233406 -0.118079685 0.14243697
0.21380556 -0.17793097 0.21081103 0.045392796 0.17918746 0.032846738 0.11694779 -0.51409054
0.122492224 0.0659097 -0.06923135 0.03505207 -0.111745045 -0.053226773 -0.05394869 0.16089109
-0.19145039 -0.11181143 -0.06848593 -0.14582999 0.022891268 -0.23954737 0.21903612 -0.2060263
0.55901414 0.2951185 -0.2303573 0.017049985 -0.16762538 0.1959599 -0.23410231 -0.21830352
0.06516536 -0.06577067 0.10207295 0.21654117 0.14020003 -0.10602991 0.14000724 0.043395985
0.12316808 -0.62506557 -0.5994715 0.039842334 -0.014867561 0.18107957 0.06985786 0.1057586
0.25170624 -0.004219143 0.18981038 -0.17232485 0.015270946 -0.16554031 0.07478634 -0.08352497
0.07431686 -0.05053023 0.57092315 -0.15255426 -0.09147171 -0.07810602 0.21317618 0.08082527
0.23212613 -0.13143629 -0.24056529 -0.18975109 -0.16315107 0.098236665 0.08684615 0.20152876
-0.12525155 -0.1653394 0.1286841 0.17209715 0.31909555 -0.21324804 -0.013699416 -0.3432479
-0.122395545 -0.12629284 -0.10820611 -0.061836578 0.14456807 0.16487795 -0.17588037 -0.12948206
0.22208063 -0.081839405 -0.08598285 -0.23467617 -0.59091276 -0.11217441 0.29747906 0.16047183
0.2566879 -0.1656716 0.082227506 0.21229859 -0.21227011 -0.15443166 0.24244076 0.045808904
0.07473971 -0.22620916 -0.15929104 -0.080729395 0.037925567 0.030174088 0.013275313 -0.14502372
-0.028669668 0.02574477 -0.016806692 -0.062463354 -0.19224143 -0.14149572 -0.08301932 -0.19142874
0.20335881 -0.0481346 0.20867686 0.07556976 -0.20537843 0.1678432 0.01382828 -0.28286257
-0.26283857 -0.26768637 -0.12404308 -0.05298042 -0.15154342 -0.23292936 0.18006551 -0.17803417
-0.041879438 0.05065834 0.12520945 0.19580151 0.22094007 -0.19231187 0.061038274 -0.5841052
-0.41888133 -0.012237303 0.40333393 -0.08946547 0.12962346 0.22894795 0.26887536 -0.13112596
0.22045313 0.0532973 0.031199796 -0.21373568 0.10181366 -0.03638534 -0.111111455 0.20832513
0.48927736 -0.00020270774 0.08584471 0.19439238 0.33450925 -0.061976053 0.12137099 0.13450257
-0.18119226 0.08649608 0.18773232 -0.22833282 0.056329064 0.12529191 0.043978833 -0.08637291
0.12658957 0.57445145 0.038308673 0.04731893 0.04413766 0.038742 -0.04284491 0.023817463
0.2736771 0.208435 -0.024010384 -0.054302964 0.00353915 -0.014481374 0.0583083 0.06796663
-0.22028463 -0.0895048 0.31604168 0.037981007 0.06330467 -0.031509735 -0.24834386 -0.21725537
-0.20220813 0.1945545 0.15464596 0.111978054 -0.21438791 -0.14585182 -0.03827616 0.23461671
0.035084594 -0.06280963 0.10034069 -0.3918382 -0.4035011 -0.14218932 -0.38762832 -0.46282008
-0.24127547 -0.2749141 -0.1024064 0.08839167 -0.16911383 -0.23936808 -0.19698232 0.18085887
0.11644275 0.20409481 0.1270571 0.061383866 -0.12683521 -0.05040474 -0.37693182 -0.35563385
-0.22252768 -0.11907723 -0.41302648 -0.27841362 -0.044195704 -0.17070504 -0.15847658 0.08045169
-0.07208071 0.14972772 -0.07780755 -0.17791618 -0.042792726 -0.57313067 -0.18646209 -0.32758254

net_attr_layers.bias f4 [16]
00000000: 1567 123e febd c23d 0d5b 803e 9b33 3cbd
00000010: 31d0 80be c65c f23d 9480 1e3e 4f27 76be
00000020: 2192 853d 16fe 1bbe a664 e1bc b1a6 13bd
00000030: 10e8 70bd 17ac e2bd 7e3b 4dbe e40c 6f3e
0.14297135 0.095088944 0.25069466 -0.045947652 -0.25158837 0.118341014 0.15478736 -0.24038433
0.065220125 -0.15233645 -0.027513813 -0.03604764 -0.058815062 -0.1106798 -0.20042226 0.23344761

dev_attr_layers.weight f4 [16, 17]
00000000: 8613 473e f0cf cdbe 1828 663e a9e8 39bf
00000010: 8485 3fbf cdaf 71be 899b b83d f35b 08be
00000020: a4a9 1fbe 4105 9bbc 3469 a5bd 6cb2 a0bd
00000030: 155c ff3b cdb7 52bd 69c0 ebbd 2e03 42bf
00000040: 8b1e 4abe cbdd 783e 9fd7 0dbd 5d03 2bbd
00000050: d2c6 02bc 6dcb f13d f88a 673e d0d8 e43d
00000060: c439 57be 9225 c53d 28c0 6b3e 49ad 823d
00000070: 1b81 263e ffd9 743e be38 18bd 6142 c23d
00000080: a26c e1be eab8 4cbd 8efe e43d 574b 1dbe
00000090: 4d4b 2dbd 1921 16bf 3a9b 05bf f318 75be
000000a0: 3ca4 3fbe f1ab 75bd 309c 273e 2848 263d
000000b0: bbe6 3cbe cd3c 47be 371a f73d e1bc 38be
000000c0: cfdf ddbd dcf9 6e3c 7fe2 e5bd 6222 4cbd
000000d0: becf 203e 3691 94be a260 703e ac1b ad3d
000000e0: bdc2 48be 41fc 04be 3fdf 6f3e 6feb efbd
000000f0: 40c7 26be facc 703d 33e6 883d b213 083e
00000100: e4c7 3c3e f5ee 053e 5e18 e2bc 0d36 b03c
00000110: 5774 173e 59ad a0bd 6eb6 d5bd 137b a73d
00000120: 1cea 38be 8166 0dbe 34e8 5fbe a87f 313c
00000130: 261c dc3d 56e8 5b3d 2073 443d b659 3cbe
00000140: dcef 67be e0f2 8b3b f19f 603e 77db 44be
00000150: 069a 10be 4051 32bd 760c 0ebf 7bb2 aebd
00000160: f067 e4be 61ad 93be 1abb 4d3e 8104 64be
00000170: 0f0e 263e f329 2fbe b300 ba3d a62b 523e
00000180: 7433 5f3b fbf4 613e cd9c 53be 1faf debd
00000190: ab04 873d 816f 58bd 2829 d7bc 630d 5fbd
000001a0: c038 3dbe 6ed7 ea3e 82e8 b73e 3c91 0bbe
000001b0: 709a 49be 2ce6 d63c 602a 933d 9956 e5bd
000001c0: a8fa 8abd 61bb 273e a345 9e3c 7149 333c
000001d0: 9026 debb ad95 7a3e df84 69be c35c c9bd
000001e0: 4d84 2bbd 7ed4 d33e b8a6 96be 83ba 88be
000001f0: 5cca 6c3e 3804 ad3d cd0d 313e 0f77 f0bd
00000200: 09e4 cabd e78f b63d 4779 25be 055a 22be
00000210: b7ed 3fbc 49c4 cbbd e022 1bbf 9b50 133e
00000220: e14a 053e 6a18 b0be f59e dbbd 60de 12bf
00000230: 4813 cbbe 76e9 7c3d 2c37 ea3d 412c fbbc
00000240: 7b60 c4bd 0564 0a3e 81ca 45be 3cf7 1c3e
00000250: c3b3 c0bd c846 733b 6890 e4bd 3e29 443e
00000260: 1a1b 96bd ed6e 253e 8b19 6b3e 71b2 18bd
00000270: 6f85 283f 870e 753e a62d 35be c441 473e
00000280: 979d 423e c5a1 3dbe 1697 99bc 2ee9 74be
00000290: ec4d 4bbe 70df 3f3d 9124 843d 3ebf 5e3d
000002a0: ecf8 ba3e cf20 653e 4b8b 54bc a093 fd3d
000002b0: 0a04 72be c8be 0c3f 0d7c f43e ad9b 2fbe
000002c0: b029 ba3d f4c2 fdbd 925e 4ebe 76a7 07be
000002d0: 6e84 6f3e 3a4f 543e 3d66 5e3e bdc9 113e
000002e0: 8102 1f3e 990e fa3e 15a7 08be 7fbc 0a3d
000002f0: 03c0 7cbe ba43 c8be 1022 b33d 9c5e 133e
00000300: c6b4 ff3d 84ed c0bd 9c2c 12be 9a01 063d
00000310: ba63 12be 00b2 21be cf74 013e 59e1 26bd
00000320: c5f1 623e 534f 2c3e b412 0c3f 95f2 aa3d
00000330: cc46 0dbc f2ef 97bc 6ede 3abe 7fe3 303e
00000340: 17b4 4b3e 24ea 663e 49ba 80bd e9f7 d1bd
00000350: a592 70bd 5df9 efbd bdeb 283d a362 393e
00000360: 8b35 423e b80d e43d de8c 69be 9209 873e
00000370: 5b44 5abd c16c 293a fdd3 30bd 86cd bbbe
00000380: 58c6 253d a034 2fbe 7025 1dbe af7a 4ebe
00000390: db65 583e bb2d 6bbe 145a 3b3e 6795 05bc
000003a0: 8711 e7bc 7657 1b3e d5a3 b7bc 0ea3 533e
000003b0: 3b54 c3bc 27a0 57be aadb d03d 28ee 94be
000003c0: ef92 5abc bb20 ccbe 3642 81be bef3 eebd
000003d0: 3833 febc ecf7 6b3e b1db 263e 3049 15bc
000003e0: 4296 69be 9828 2e3c cb1f 29be 1df6 493e
000003f0: 7e24 0cbe 32b9 d0be cd7b 5cbd 63ca 863c
0.19441041 -0.40197706 0.22476232 -0.72620636 -0.74813104 -0.23602219 0.09014041 -0.13316326
-0.15592057 -0.018923404 -0.080767065 -0.07846531 0.0077929595 -0.051444817 -0.11511309 -0.757861
-0.19738214 0.24303357 -0.03462946 -0.041751254 -0.007981973 0.118063785 0.22611606 0.11174166
-0.2101813 0.096263066 0.2302252 0.06380708 0.16260187 0.23911284 -0.03716349 0.09485317
-0.44028193 -0.049981035 0.11181365 -0.15360771 -0.04230814 -0.58644253 -0.5218998 -0.23935299
-0.18714994 -0.05997843 0.16368175 0.040596157 -0.18447392 -0.19456787 0.12065547 -0.18040802
-0.10833704 0.014585938 -0.11224841 -0.049837478 0.15704247 -0.29017037 0.23474362 0.084525436
-0.19605537 -0.12986852 0.23425005 -0.11714827 -0.16286945 0.05878923 0.06684532 0.13288763
0.18435627 0.13079436 -0.02759951 0.021510148 0.14790474 -0.078455634 -0.10435186 0.081777714
-0.18058056 -0.13808633 -0.21865922 0.010833658 0.107475564 0.05368837 0.047961354 -0.18393597
-0.22650093 0.0042708963 0.21936013 -0.19224344 -0.14121255 -0.043534517 -0.55487764 -0.08530136
-0.44610548 -0.28843215 0.20090905 -0.22267343 0.162163 -0.17105846 0.090821646 0.20524463
0.0034057768 0.22066109 -0.20665284 -0.108732454 0.06592687 -0.052840713 -0.026264742 -0.054456126
-0.1847868 0.45867485 0.35919577 -0.13629621 -0.1968782 0.026232801 0.07185817 -0.11198158
-0.0678609 0.16380073 0.019320315 0.010942803 -0.0067794994 0.2447116 -0.22804593 -0.09832146
-0.04187422 0.41373056 -0.2942407 -0.26704797 0.23124069 0.0844807 0.17290421 -0.117414586
-0.099067755 0.08914166 -0.16159545 -0.15854652 -0.0117143905 -0.09949548 -0.6060009 0.14386217
0.13016845 -0.34393626 -0.10723678 -0.5737057 -0.39663148 0.061746083 0.114363045 -0.03066075
-0.09588715 0.13514717 -0.1931553 0.15328687 -0.09409287 0.0037121046 -0.11160356 0.19156358
-0.07329388 0.16155596 0.22958963 -0.03727955 0.65828604 0.23931323 -0.17693195 0.19458681
0.19005428 -0.18518741 -0.018748801 -0.23917076 -0.19853944 0.046843946 0.06452287 0.0543816
0.36518037 0.22375797 -0.012972663 0.12381673 -0.23634353 0.5497861 0.47750893 -0.1714923
0.090899825 -0.123907 -0.20153263 -0.13247475 0.23390362 0.20733348 0.21718688 0.14237113
0.15528299 0.48839262 -0.13344987 0.03387117 -0.24682622 -0.3911417 0.08746731 0.1439156
0.12485652 -0.094203025 -0.1427483 0.03271637 -0.14295855 -0.15790558 0.12642215 -0.040742252
0.2216254 0.16827135 0.5471604 0.0834705 -0.008622836 -0.018547032 -0.18248913 0.17274283
0.19892918 0.22550255 -0.06285531 -0.10252363 -0.0587336 -0.11717484 0.041240443 0.18104033
0.18965738 0.11135429 -0.22807643 0.2637449 -0.053287845 0.0006463044 -0.043170918 -0.3668024
0.04047236 -0.17109919 -0.15346313 -0.20163988 0.21132605 -0.22966664 0.18296081 -0.008153296
-0.0282066 0.15170082 -0.022416988 0.20667669 -0.023843875 -0.21057187 0.101981476 -0.2908795
-0.013340696 -0.3986872 -0.25245827 -0.11667584 -0.031030282 0.23043793 0.16294743 -0.009111688
-0.22811225 0.0106297955 -0.16516034 0.19722791 -0.13685796 -0.40766293 -0.053829003 0.016453927

dev_attr_layers.bias f4 [16]
00000000: 7863 203e 7e07 8a3e b0eb 61bd 7eaa 6dbe
00000010: 553f 2dbe 0ca5 26be 7752 43be fbd9 d4bd
00000020: fd84 93be 1e4d 74be 7042 45be 7245 a7be
00000030: 6c82 5abe f34b 0d3e f7fd 573e 1782 cabd
0.15662944 0.2695884 -0.05515641 -0.23209569 -0.1691869 -0.16273898 -0.19074427 -0.10393139
-0.288124 -0.23857543 -0.19263625 -0.3267017 -0.21338814 0.13798504 0.21092974 -0.09888094

pin_attr_layers.weight f4 [17, 16]
00000000: 1ddc 62bf 03a3 96bf 3b6d 623e 7c13 65bf
00000010: d18a efbf 840a 74be 1a37 32bf d443 2140
00000020: 2838 08bf a9a0 b0bf d4e1 433f e6e0 8fbd
00000030: 1974 f0be a714 eebe c2fa b4bf 6952 87bf
00000040: 2b85 9b3e 4e81 c63c a52a 643f 5f6a 7cbe
00000050: e252 6fbf 7e5f e73e a755 733f ed42 a5bf
00000060: f959 323f f5e6 a8bf 3c04 63bd 3997 193f
00000070: 82a6 273f 4986 f83d 87da f33f 4f62 2b3f
00000080: 8e7b 04c0 6828 2440 6b72 8ebf 39cb 6a3f
00000090: 816e a0be 5303 22c0 cd62 9d3f d530 993e
000000a0: d1cd 85bf 4834 eb3f a543 dc3f 81b3 95be
000000b0: 313d d93e 2d7d 183f da65 423f acb6 a03f
000000c0: c9db d3be 71b6 043f ea97 33bf c95b ddbe
000000d0: 5cdf 103e c79e 913d e837 103f 7921 14bf
000000e0: 57ba 8abf 4f21 c7be 3f07 503f 5bc2 bf3f
000000f0: 62cc 333d 96df b83f fd98 6d3e e0a9 013f
00000100: 55ac a3bf 1f66 1dbd 6ef7 f43f f8f9 ac3e
00000110: b60e 003e 5c1c 43bf 4564 98bf 348e 463f
00000120: 1f54 e93e 4c2b 803e 6e38 aebf 80a2 e63f
00000130: 9740 98bd a566 20be bbef 5ebf f31e 24bf
00000140: 9541 d4be 71b3 30bf a379 6bbe b306 0bc0
00000150: 4593 b33d 2201 8c3f 7d17 f1bd c4e7 98be
00000160: 7b20 74bf 5e62 bdbd bd21 82bf 5a84 fbbb
00000170: 1faa 04bf 43ec 563f 77b5 6f3d 2789 d5bf
00000180: c64b 0840 a552 c2bf ca0e 0e3e 4602 97bf
00000190: 1e9d 07bf 6f67 763f 8912 8f3e bd62 12bf
000001a0: d1ca 32c0 390e 36bf 8905 063f 4ef3 dabf
000001b0: faa6 563f 2c29 8abe b607 fc3d 3a31 603f
000001c0: 3ff6 1a3e e348 3d3f 2dd4 8b3e 7dcc 2e40
000001d0: ca2f dd3e 204d 9ebe 63cc c5bd cd5d c53f
000001e0: 95b5 debd a17a d6be c11e b83f a4f3 34bf
000001f0: f23f a0bf 659a 4140 3752 ac3f 0f09 5b3f
00000200: 0ae1 a43e 8961 e43e 54f0 c23f 18e7 a33f
00000210: 85e5 edbd bc6d af3f 863d f6be 6188 7dbf
00000220: 7e9d aebf 0071 063c e8cc cfbe bb09 36bf
00000230: 11fc b2be 706e c23e 64d2 7f3f 4639 a33f
00000240: 51a1 753f 0dfd d33d a33b 543f 73e5 0540
00000250: 6899 4b3f 6afe 8e3e 2fec 3e3e fb9c b53e
00000260: aea0 b93d 3902 df3f 540c a2bf 1640 c73e
00000270: 528d af3e 9ac2 babf 2030 bfbf ceb2 62be
00000280: 05a4 663e d332 9ebd 7a56 7c3f 87a0 a33f
00000290: a588 933e 097a 5e3f e148 4fbf ab05 b7bf
000002a0: 2404 eb3e 37eb 073f fc44 aebf 5f66 fa3f
000002b0: e05d e23f 4b5d 7cbf 8058 9ebf ec51 13c0
000002c0: 5c36 84ba f673 59bf f666 d4bf 1fd2 9c3e
000002d0: 3c4d 973f 01ed a63e 9865 c7be 2cae 3640
000002e0: 9709 533f 7960 4c3f 7bcb f13f 2eed 173f
000002f0: fda6 8e3d 523d cdbf 9b11 dcbe 247f 133f
00000300: 5e50 b03e b680 46c0 6cb7 babf 1146 b7bf
00000310: ab6c 1bbf 5dfc 84be 9a11 38bf a38b c5be
00000320: 6efa 053f a538 52bf bb15 f1be 3b05 1a3f
00000330: 51a5 90be bfee 443f 1053 44bf 8f11 73bf
00000340: 5b96 8a3c 7b68 a43d ebad 3e3f da38 ac3f
00000350: 99dd 013e beee 1cc0 d3fa d43e 4a86 f33f
00000360: 5513 3cbf 66ea 363d 0eb4 c2bf c517 b23e
00000370: 427c 3d3f 0746 b53f 2bf3 2e3f e391 0dbe
00000380: 49da 6b3f 063b 073f 5bd0 06bc b683 b9bf
00000390: 3ced 1abf 088c 37be 1e59 4c3e 4f83 9fbf
000003a0: 5f46 d4be f359 ba3f 7ace a93e 4e03 80bf
000003b0: cc23 31bf c6a8 f1be 2f0c a5bf 94c3 893f
000003c0: 078b 88bf c8a2 febf 6a39 983e 5571 de3e
000003d0: 7862 5e3b e912 83bf bd6c 653e 0a67 41bf
000003e0: e50c af3f 6ab4 a3be 6dc0 69bf a7a8 f53f
000003f0: ed63 d3bf 5574 0940 db10 29bf 3c80 e83d
-0.88617116 -1.1768497 0.2211198 -0.89482856 -1.8714238 -0.23832136 -0.6961533 2.519765
-0.5321069 -1.379903 0.7651646 -0.07025318 -0.46963575 -0.4650013 -1.4139025 -1.0572025
0.30375037 0.02423158 0.8912757 -0.24649952 -0.93485844 0.45190042 0.9505257 -1.2911049
0.6966854 -1.3195482 -0.05542396 0.5999637 0.65488446 0.12134988 1.9051064 0.6694688
-2.0700412 2.5649662 -1.1128668 0.91716343 -0.31334308 -2.531453 1.2295777 0.29920068
-1.0453435 1.837533 1.7208143 -0.29238513 0.42429498 0.59566003 0.75936663 1.2555747
-0.4137862 0.51840883 -0.7015368 -0.4323409 0.14147705 0.071103625 0.56335306 -0.57863575
-1.0838116 -0.388926 0.81261057 1.4981188 0.043896087 1.4443233 0.23202892 0.50649834
-1.2786967 -0.03842747 1.913801 0.3378446 0.12505612 -0.7621515 -1.19056 0.77560735
0.45571992 0.25033033 -1.3610971 1.8018341 -0.074341945 -0.15664156 -0.8708455 -0.64109725
-0.41456285 -0.69023806 -0.2299562 -2.172284 0.08768324 1.0937846 -0.11772058 -0.29864323
-0.9536206 -0.09247278 -1.0166546 -0.0076756896 -0.51822084 0.83954257 0.058522668 -1.668248
2.1296248 -1.5181471 0.13872829 -1.1797569 -0.52974117 0.9625158 0.2794383 -0.5718191
-2.793629 -0.7111545 0.52352196 -1.7105501 0.83848536 -0.26984537 0.12306158 0.87575114
0.15132998 0.7393934 0.27310315 2.731231 0.43200523 -0.30918217 -0.09658124 1.5419251
-0.10874478 -0.41890433 1.4384385 -0.70684266 -1.2519515 3.0250485 1.346259 0.855607
0.3220294 0.44605663 1.5229592 1.2804899 -0.11616043 1.3705363 -0.48093814 -0.9903622
-1.3641813 0.008205652 -0.4058602 -0.711086 -0.34957936 0.37974882 0.99930406 1.2751853
0.95949274 0.10351 0.829035 2.0921295 0.79530954 0.27928478 0.18644784 0.3547133
0.0906385 1.7422553 -1.2660012 0.3891608 0.34287506 -1.4590638 -1.4936562 -0.22138521
0.22523506 -0.07724538 0.9856945 1.2783364 0.2881519 0.8690496 -0.8097058 -1.4298605
0.45901597 0.53093284 -1.3614802 1.9562491 1.7684898 -0.98579854 -1.2370758 -2.301875
-0.0010087001 -0.8494257 -1.6593921 0.3062906 1.1820445 0.32602695 -0.38944697 2.8543806
0.8243651 0.79834706 1.8890222 0.5934628 0.06965444 -1.6034338 -0.42982182 0.57615876
0.34436315 -3.101606 -1.4587226 -1.4318258 -0.6071269 -0.25973788 -0.7190186 -0.38583097
0.5233525 -0.8211768 -0.47086892 0.6016423 -0.28251126 0.769268 -0.76689243 -0.9494867
0.016917398 0.080277406 0.7448413 1.345485 0.12682189 -2.4520717 0.41597614 1.9025357
-0.73467 0.044657134 -1.5211198 0.3478376 0.7401773 1.4161996 0.68339795 -0.13825183
0.9212995 0.5282444 -0.008228387 -1.449332 -0.6051824 -0.17924511 0.1995587 -1.2461947
-0.4145994 1.45587 0.33165342 -1.0001009 -0.69195247 -0.47199076 -1.2894343 1.0762811
-1.0667428 -1.9893427 0.29731303 0.4344584 0.0033933204 -1.0240146 0.22404762 -0.7554785
1.367581 -0.31973583 -0.91309243 1.9192094 -1.651487 2.1477253 -0.66041344 0.11352584

node_encoder.weight f4 [4, 16]
00000000: 1709 5e3f 79ac 50bf 68d8 c23f 5a25 573f
00000010: 965d 63be c786 7a3f ab5c 383f 4193 80bd
00000020: 248a 9dbf 8be2 13c0 9f24 a7be 70cd 61be
00000030: cfcb d6bd 3e3f 923f 2dbf 45be aacb c83f
00000040: 7d93 24bf df3e 08c0 d3c9 ddbf a428 49bf
00000050: c0bc e33e 9de4 05bf 4570 f63e 0538 18c0
00000060: 8c44 18bf 4057 0fbf 79ba a63f 53e6 ac3f
00000070: 6668 9fbf b31a 49be d861 81bf d792 bd3f
00000080: 9752 a93f eabd a3bf 8a3e 98bf 02fe 97bf
00000090: 432f c9bf 9457 19c0 b04b ac3f 28c2 d1be
000000a0: af25 393f e2f1 55bf 0b21 57bb 3127 a73f
000000b0: 8d8b 613f 70f9 bbbe f811 c1bf cad1 4dbf
000000c0: 380b 36bf 2ef9 c5be 7134 753f 6291 52bf
000000d0: f302 19c0 a7fd a43e bd0c f03f ab59 8d3f
000000e0: 6dba 05bf 767c 3dbf cd40 263e 80af 72be
000000f0: 158b 023f 09d7 d53f 19ca cb3f 2217 d5be
0.8673262 -0.8151317 1.5222292 0.8404137 -0.22203669 0.97861904 0.720164 -0.062780865
-1.2307782 -2.310702 -0.32645127 -0.22051024 -0.10488092 1.142555 -0.19311209 1.5687153
-0.6428755 -2.1288373 -1.7327217 -0.7857764 0.44479942 -0.5230196 0.4813253 -2.3784192
-0.59479594 -0.5599251 1.3025657 1.3507789 -1.2453735 -0.19639091 -1.0107985 1.4810437
1.322833 -1.2792332 -1.1894085 -1.1874392 -1.5717548 -2.3959703 1.3460598 -0.40968442
0.72323126 -0.8357221 -0.0032826092 1.3058835 0.8810356 -0.36713743 -1.5083609 -0.8039824
-0.7111087 -0.38666672 0.95783144 -0.82253087 -2.390805 0.3222477 1.8753887 1.104299
-0.5223759 -0.7401804 0.16235657 -0.2369976 0.5099347 1.6706249 1.592105 -0.4161921

gnn_layers.0.lin_l.weight f4 [32, 32]
00000000: 9f33 413c 6dd3 7c3c aad9 853d 654f 08be
00000010: 0c33 a5bd 70a5 e93d 9324 5fbe a32d b43d
00000020: f7ac 203e bbf6 2b3e 76d5 043d 653e 37be
00000030: c031 823d 613f 90bd 84f3 c63b 3799 e13d
00000040: 14ed fabc 3eae 2fbe 1772 03be 5443 143e
00000050: 62e1 26bc 6cc1 503e 7c43 983c 7f2b edbd
00000060: 5b9d 833d ebfb 7b3e 17a6 bc3d d24b 803d
00000070: a35d d6bd bf65 02be 8cc9 033e 71be eabd
00000080: 02f7 553d 7cbd 9dbc 9f95 d43d 4e1c 1f3d
00000090: 8371 09be 04cd 62bd 6cb7 1a3e d03b 1c3d
000000a0: 5afe ae3d 2dd8 0dbe a783 a23d 50e5 82bd
000000b0: e377 20bd 881e 7e3d 74e8 43bd d55f a2bd
000000c0: f56f 533d 72dd 68bd 0ed3 cc3d f0b8 553d
000000d0: 49c7 18be 4305 6d3e b69d 733e f5ba 34be
000000e0: 0a79 373e ef2f 62be a95c 713c 6251 913e
000000f0: 212d 773e 61dd be3d b46f 313e 0b58 9d3e
00000100: 8066 3e3e b131 c6bd 8a52 623d a4f7 873e
00000110: e8ae 30bd 1f27 8d3e 95a6 49bd 2410 b93d
00000120: 3ab4 e0bd b5c0 d4bd a225 403d 6620 4cbe
00000130: 0e95 0d3e e68c 2a3e 572c dabd c246 013e
00000140: 9e25 c0bd 066b 6fbc 35ed 123d 298c 8abe
00000150: 709a 99bd 4966 d33e 0c16 eabb 5f8b 17be
00000160: cee2 0c3d eeda 13bd 82c8 8fbd cb36 cebd
00000170: c195 06be 398c 3d3a 1a6a 43bd e363 943e
00000180: 7c6d 073d 8b38 13bc bdb7 173d 5038 01be
00000190: 6c5b babd 4151 9b3d 16c0 2f3e 1017 bcbd
000001a0: 1b05 e2bd 7e99 5a3d dcb2 ccbc 0130 173e
000001b0: 44c5 173d 792c 7a3c 96b4 64be b91b 9abd
000001c0: 1386 c4bd 54a0 c93e eac7 bcbe ba08 c03e
000001d0: ce22 47bd 83fc a2be deba f5bb 22da ee3d
000001e0: 50e5 96be 7bbb b63e 4836 263d b872 4dbe
000001f0: a843 4cbe ca6e da3e 71e7 d7bd 4300 ef3b
00000200: 5062 843b b6e0 4fbc fa1b 143d fd09 04bd
00000210: f54c c93d d2eb 97bd 8ccf 25bd b294 66bd
00000220: 42bf 323d 8d07 053e 8c4f 8f3e 69fa 173e
00000230: 9267 1b3e 96fb dbbd 325c e2bc 3e22 c6bd
00000240: 7749 673e ec1a 7abe ec1a af3e f122 44be
00000250: b419 10be 9624 bf3d a131 21be 0905 b4be
00000260: 2317 bb3e 698f 58be c766 a93c 2cd8 d53c
00000270: d292 933d a75b 5abe b961 e93d d1b2 6d3d
00000280: 46ea bfbe f6cc d33d d584 8fbe 6337 ca3c
00000290: ddc2 333e 86cd 983d b23a 1d3e 81a5 21be
000002a0: 745d 84bd 00a0 d43d 3dbc c6bb c883 473e
000002b0: f091 61be beaa 013e f4bb 1ebe 25d0 01bd
000002c0: 515d 4e3e b218 6dbd 8518 0a3e ef0f 113e
000002d0: fb42 493e cb1d 73be 37c0 2ebe b82d 003d
000002e0: 0453 ed3c 37c7 bdbd e847 753b c628 8fbe
000002f0: fbcd cabd a154 45bd 8d5e 053e d99b e3bd
00000300: 7591 1f3e c759 e43c ace7 4a3d f7db 1cbd
00000310: 9858 3dbd ee3f 9cbd 8c6c 0bbe a16c 0e3e
00000320: c5c8 b2bd 354a a83d dcdd 77be bfec f43d
00000330: 76b2 3a3e a911 f8bd 7c25 083e aa76 dabc
00000340: a190 a1bd 1223 d23d f513 833e 1b2c 423e
00000350: e04e 2abe 60e3 643e 67ea 683e b0a1 96bd
00000360: 6f0c ac3e b2cb 15be 814e c53d 8536 8b3e
00000370: a914 783d d30c 9a3d 51e8 913e 1288 8e3e
00000380: e29e fe3d ad3f c53d 904d 3abe e20b c4bd
00000390: 5f54 c2bd 9133 283d 56f2 913d a825 4bbe
000003a0: e966 563d 4f4c 0fbe 149e 7fbd 3ed5 593e
000003b0: 9501 d4bd dc75 96bd eb68 a5bd 321b 77bd
000003c0: d415 09be 1cfe 663e 64c0 79be e2c5 413e
000003d0: cf9e 8d3d aab6 17bd 65e4 43be 74b5 683e
000003e0: f62f b7be 6262 8f3d 8582 8c3d 9906 3bbe
000003f0: 1a9f 693d aafb 243e 2505 4abe 0af3 03be
0.011792093 0.015431267 0.06535657 -0.13311537 -0.08066377 0.11408508 -0.21791296 0.08797767
0.15690981 0.16793339 0.032430135 -0.17894895 0.06357145 -0.070433386 0.00607151 0.110155515
-0.030630626 -0.17156312 -0.1283649 0.14478809 -0.010185571 0.20386285 0.018586867 -0.11580562
0.064264975 0.24607818 0.092113666 0.062644616 -0.104670785 -0.12734126 0.12869853 -0.11462105
0.052237518 -0.019255392 0.103801005 0.038845353 -0.13422208 -0.0553713 0.15109032 0.03814298
0.085446075 -0.13851996 0.07935267 -0.06391394 -0.039176833 0.062040836 -0.047829106 -0.07928435
0.051620442 -0.05685181 0.10001193 0.052178323 -0.14919771 0.23146538 0.2379063 -0.17649443
0.17917266 -0.22088598 0.014731565 0.28382403 0.24138309 0.093195684 0.17327768 0.30731234
0.18593788 -0.09677447 0.055254497 0.26556122 -0.043135554 0.2756891 -0.04923113 0.09036282
-0.109718755 -0.103883184 0.04691089 -0.19934234 0.13826391 0.16655311 -0.106529884 0.12624648
-0.09382175 -0.014612919 0.03587075 -0.2706006 -0.0750016 0.41288975 -0.0071437415 -0.1479926
0.034395985 -0.03609746 -0.07020666 -0.10069045 -0.13143064 0.00072306726 -0.04770861 0.28982458
0.033063397 -0.008985649 0.03704046 -0.12619138 -0.090994686 0.07583857 0.17163119 -0.09184086
-0.1103613 0.053369038 -0.02498763 0.14764406 0.03705336 0.015269392 -0.22334513 -0.07524819
-0.09595885 0.39380133 -0.36871272 0.37506658 -0.048617177 -0.31833276 -0.007499083 0.11662699
-0.29471827 0.3568991 0.04057911 -0.20063293 -0.19947684 0.4266265 -0.10542191 0.0072937324
0.00404004 -0.012687853 0.036159493 -0.032236088 0.098291315 -0.07418026 -0.040481135 -0.05629415
0.04363943 0.12991162 0.27990377 0.14841618 0.15176228 -0.107413456 -0.027631853 -0.096745
0.22586618 -0.24424332 0.34200227 -0.19153954 -0.14072305 0.0933315 -0.15741588 -0.35160092
0.3654109 -0.21148457 0.02067889 0.026104055 0.07205738 -0.21324025 0.11395592 0.05803186
-0.37483424 0.103418276 -0.2803103 0.024684614 0.17554803 0.074610755 0.15354422 -0.15785791
-0.06463137 0.1038208 -0.00606492 0.19483864 -0.22028327 0.12662789 -0.15501386 -0.031692643
0.20152785 -0.05788488 0.13485916 0.14166234 0.19654457 -0.23741834 -0.17065512 0.0312936
0.028970249 -0.09266513 0.0037426893 -0.27960795 -0.09902569 -0.04817641 0.1302435 -0.1111371
0.15582831 0.02787484 0.049537346 -0.038295712 -0.046227068 -0.07629381 -0.13615626 0.13908626
-0.087297 0.08217279 -0.24205726 0.11959218 0.1823214 -0.121127434 0.13295549 -0.026667912
-0.07888914 0.102605954 0.25601164 0.18962137 -0.16631651 0.22352362 0.22745667 -0.07355058
0.33603236 -0.14628485 0.09634114 0.27190033 0.060566578 0.07521977 0.28497556 0.27838188
0.12432648 0.09631286 -0.1819365 -0.09572579 -0.09488749 0.041064803 0.071263 -0.19838583
0.052344237 -0.13993953 -0.062406614 0.21272752 -0.10351864 -0.07346699 -0.08076652 -0.06032867
-0.13387233 0.22557873 -0.24389797 0.18923143 0.06915056 -0.037039436 -0.19130094 0.22725469
-0.3577878 0.07001187 0.06860832 -0.18264236 0.057036497 0.16111627 -0.19728525 -0.12885681

gnn_layers.0.lin_l.bias f4 [32]
00000000: 1f86 113d eb26 1ebe e131 153e 6b64 933c
00000010: 1953 4e3d 3a55 283e 43b1 1abe 1e5a 9a3d
00000020: 49a5 23be 0cfc 343e 04a3 ae3d 7336 f73d
00000030: 5178 f7bc 09fe 1b3d 195d aabd 202d 643d
00000040: 03a0 4f3e d3f6 e9bd 5e94 fcbc 381a 763d
00000050: d206 913a 7d3c 993c 1904 3d3e ee32 883c
00000060: 1627 3a3d efab bb3d a9b4 b4bb d054 083e
00000070: 800c 073e 5e2c c23d a8a3 163c b366 733e
0.0355283 -0.15444534 0.14569809 0.017992219 0.050372217 0.16438761 -0.15106682 0.0753672
-0.1598102 0.17674273 0.085271865 0.12070932 -0.030208739 0.038084064 -0.08318538 0.055707097
0.20275883 -0.11424031 -0.030832466 0.060083598 0.0011064655 0.0187056 0.18458594 0.016625848
0.04544743 0.09163653 -0.0055147004 0.13313603 0.13188362 0.094811186 0.009194292 0.23769645

gnn_layers.0.lin_r.weight f4 [32, 32]
00000000: 760a 17be a39b cd3d 0422 833d 6b3c 1b3e
00000010: c7d6 cfbd b107 653d 9222 16be 6b9e 0c3e
00000020: 0bc2 ff3c 113c b7bd 5c2d c93a 4542 c93c
00000030: 1114 503d 3407 3f3e 9903 fb3d c86a 813d
00000040: 9e1a f23d e7b5 12be ae98 913d 2b1d b93c
00000050: a40b 133e 2477 9b3d 60c1 613c 1978 cd3d
00000060: c7d9 72bd cee5 be3d 2eff 143d 4da7 04bd
00000070: f6ed db3d c97e 07be 7f54 3fbd ed76 e13d
00000080: db90 c63d 8fad 38be 5108 bfbc edc6 14bd
00000090: 3374 1c3e e400 58be ae1c a6bc c54e 04be
000000a0: 38b4 d1bd b881 ebbb a9ab debd 5370 3e3e
000000b0: 968d aebd 589d 113d a054 10be a57c 8f39
000000c0: 72dd 12bd b744 d03c dead 773e eede a4bc
000000d0: edcd 06be 5881 0f3e 1ee6 8dbe 0ebe 763e
000000e0: 2260 0fbd 6814 91be b251 38be f8ad 81be
000000f0: 7f9f e4bc 51c7 bbbd bf08 dbbd 153f 6bbd
00000100: 2f6e 88bc a174 f63c 977a 63bd 3152 9d3d
00000110: 7d97 8e3c 3a70 a43d 4493 a33d 5a31 5bbd
00000120: 5b94 403e 364a 55bd f7d5 10be e4b3 ac3d
00000130: 76da 8b3c 63ed 1dbe 86c1 0bbc 21ce 99bd
00000140: ca7c 80be 3347 b3bd b722 69be 7cb8 e7bd
00000150: 05ff 43bd c182 91bb 174c 3cbe 48df 5d3e
00000160: 2db3 d5be 4773 273d 4870 1d3e d192 7cbe
00000170: bcf0 6ebd 96b5 90be 7030 04bd 185a d8bd
00000180: 42a8 1f3c 0084 efbd 0bb0 12bd dcc8 8f3c
00000190: 4b9a 11be b088 02be 2916 523e 1aed 96bd
000001a0: 7aa0 10be ae49 b0bd 2027 353d 1eb0 483d
000001b0: c81b 14be 0613 0cbe e37f 12bd 8a46 173e
000001c0: 4160 bf3e 8833 873d 2f91 c63c 72f3 4bbe
000001d0: fb1d d73d b486 ff3d c77f 5e3d 3250 e3bd
000001e0: 230a d13d da14 adbe 2b8c b3bd c805 a8bc
000001f0: ab06 8abe abac 62bd 61f0 cabd faad 15be
00000200: bc94 35bd de75 9c3d d488 a3bd f20b de3d
00000210: 85a8 003d 1f98 0c3e 0a70 1f3e 560b 08be
00000220: bb1e 07be 3400 c13d 71a7 163e 27d5 37be
00000230: c59d 533c 8af2 79bd 16c1 2e3e 5397 233e
00000240: 54bb 403e 4e19 233d 30e8 3f3e 00d0 263e
00000250: 85b2 3bbe a0e4 da3d c3a3 bdbd a573 c1bd
00000260: 8dfd ec3d 1b6a d1ba d083 0fbe 3db5 46be
00000270: 00c0 ad3d bbc2 aa3d e602 633d 1be0 623e
00000280: 0bf7 dcbd 3012 5fbc baf4 24be f952 3fbe
00000290: a90e 7fbd 56c7 013e 46ef 4a3e 6490 c83d
000002a0: 48a9 3b3e 162b f9bd 784c 98bc 505e 043e
000002b0: 7bb8 edbd 5b4b 2abe e043 4a3d 7233 2cbd
000002c0: 9059 be3d cff3 39be 07a3 a73e c2f7 09bd
000002d0: 5568 7abc 9c87 103d e3e4 7e3e f10b c3be
000002e0: 3141 b33e 5ca9 22be 47f1 00be 3852 7a3e
000002f0: 7d85 b53d 6216 893c 26db 9b3e 74f0 1abd
00000300: d96e 983c f2aa 72bd 0efb ffbd 827a cf3d
00000310: d586 743d 20cf 0ebe 57bc 203e 9b7e d1bd
00000320: dea1 063e 3781 81bd 2344 403e 4f1e 4c3d
00000330: a787 18bd 138a a23d 4f20 c7bb 04fe 86bd
00000340: 2be3 c83e 1524 363e c011 343e a0ca 423e
00000350: eec6 273a 5631 45bd 58bd 38be 7a3b 6e3e
00000360: c232 5e3d edd0 5ebb dd62 d4be bcbe 95be
00000370: 6a41 d7bd a1bf 0e3e 63a8 913e 73f5 46bd
00000380: 8925 68bd 35ad 43be 487b f0bd 48d8 f8bd
00000390: a3ef 293e 081b d6bd 194e b33d 5a34 f43d
000003a0: d55f 743d b7c0 36be f7bd 943c 3c8a 0abd
000003b0: 79cb 323d 48c1 75bd fe0a e2bc 9747 493e
000003c0: f26a e63c 30db 613e 3905 6cbe 1dd9 173e
000003d0: b440 7d3d 60ea efbd 0343 9b3d 3486 62be
000003e0: a0b1 e5bd e692 013e 7947 04be 3b98 c6bd
000003f0: 79f7 4cbc 3a0e 7b3d 51b0 d63c a4ec 2e3d
-0.14750084 0.10039451 0.06402972 0.15159766 -0.101483874 0.05591554 -0.14661625 0.13732307
0.031220457 -0.08947004 0.0015348601 0.024567733 0.050800387 0.18655092 0.122565456 0.06319195
0.11821483 -0.14327203 0.071091995 0.022596916 0.1435991 0.07591084 0.013779014 0.100326724
-0.05928972 0.093211755 0.03637617 -0.032386113 0.10738747 -0.13231958 -0.04671144 0.110090114
0.09695598 -0.18034957 -0.023319395 -0.036322523 0.15278701 -0.2109409 -0.020277347 -0.12920673
-0.10239452 -0.0071870945 -0.10872585 0.18597536 -0.08523099 0.035550445 -0.14094782 0.00027367953
-0.035855718 0.02542339 0.24187419 -0.020125832 -0.13164492 0.14014184 -0.27714628 0.24095938
-0.03500379 -0.2833588 -0.17999914 -0.2532804 -0.027908085 -0.09168876 -0.106950276 -0.057433207
-0.016654102 0.03008491 -0.055536833 0.076816924 0.01740622 0.08029218 0.07987073 -0.053513862
0.18806593 -0.052072726 -0.14144121 0.08432749 0.017071944 -0.15422587 -0.008530026 -0.07510019
-0.25095206 -0.087538145 -0.22767149 -0.113144845 -0.047850627 -0.004440636 -0.18388401 0.21667206
-0.41738263 0.04088142 0.15374863 -0.24665381 -0.05833505 -0.2826354 -0.032272756 -0.10564059
0.009744706 -0.11695099 -0.03581242 0.017551832 -0.14219014 -0.12747455 0.20516266 -0.07369442
-0.14123717 -0.08607803 0.044226766 0.048996083 -0.14463723 -0.13679132 -0.035766494 0.14773002
0.37378123 0.06601626 0.02423915 -0.19917086 0.10503765 0.124768645 0.054321077 -0.110992804
0.102070116 -0.3380497 -0.08766969 -0.02051057 -0.26958212 -0.05534045 -0.0990913 -0.14617148
-0.044331297 0.07639669 -0.07985082 0.10842122 0.031410713 0.13729905 0.15570083 -0.13285574
-0.13195316 0.09423867 0.14712311 -0.17952405 0.012916033 -0.06102232 0.17065844 0.15975694
0.1882146 0.039819054 0.18740916 0.16290283 -0.18329819 0.10688138 -0.09259751 -0.094458856
0.115717985 -0.0015977056 -0.14015126 -0.19405074 0.08483887 0.08337923 0.055422686 0.22155802
-0.10789307 -0.013615176 -0.16108981 -0.18683995 -0.06226984 0.12673697 0.19817838 0.09793165
0.18326294 -0.12166421 -0.01859115 0.12926602 -0.116074525 -0.16630308 0.049381137 -0.04204125
0.092944264 -0.18159412 0.32741567 -0.033683546 -0.015283664 0.035285577 0.24892001 -0.38095048
0.35010675 -0.15884918 -0.1259204 0.24445426 0.088633515 0.016734306 0.30440634 -0.03782697
0.018607544 -0.059245057 -0.12499057 0.101307884 0.0596989 -0.139462 0.15696846 -0.10229226
0.13147685 -0.06323474 0.18775992 0.049833592 -0.037238743 0.07936492 -0.0060768495 -0.065914184
0.39235815 0.17787202 0.17584896 0.19022608 0.0006400187 -0.048142754 -0.18040979 0.23264876
0.054247625 -0.0033999041 -0.41481677 -0.2924708 -0.105105236 0.13940288 0.2844878 -0.048573922
-0.05667642 -0.19109042 -0.11742264 -0.121506274 0.1659532 -0.104543746 0.0875513 0.11924048
0.059661705 -0.17846952 0.018156989 -0.033823237 0.043651078 -0.05999878 -0.027593132 0.19656216
0.028127167 0.2205627 -0.23048867 0.14828916 0.061829284 -0.11714625 0.07581141 -0.22121507
-0.1121552 0.12653694 -0.1291789 -0.096970044 -0.012510174 0.061292864 0.026207121 0.042706147

gnn_layers.1.lin_l.weight f4 [32, 32]
00000000: a63b 5e3e a7d2 cd3d 78ee 1cbe a001 8a3d
00000010: 1eea 493d 8e37 663e a7c3 26be 4a2f 87bd
00000020: 40b0 8c3d 7c63 743e b755 de3d 20e3 6bbe
00000030: e183 b6be c60a 323e caae 76be 64d8 873e
00000040: eecf b0bc 58d2 043b 5d97 ddbe 6d3d d43d
00000050: aeab 01be 4229 073e 57e4 4ebc 6e10 a8bd
00000060: 26d3 46bd 7f55 bbbd 2690 22be 7497 2a3e
00000070: 0677 dfbd 6006 84bc b68b d73d 78d2 a4be
00000080: 786d 9cbc 9dfb da3d 605f b93d e1ca 27bd
00000090: 970b 333c 8ae0 51bb beaa 2abd 73ac edbd
000000a0: 8807 f33d 10bd 3ebd 3c3f 4c3c a856 7e3e
000000b0: 7670 80bb 0d47 5b3e e89b 463d db5c 483b
000000c0: fa7b 8abe e0f9 a43d dbf2 91bd 76c0 623e
000000d0: 7a78 89bc f04f 2ebe 1935 b5bd 821a 513e
000000e0: e2eb 8c3e 1b78 fc3d 8d5c d63d c2bd bfbd
000000f0: 6db0 033d fac0 9ebd 0d4b 2e3d 33e6 aa3e
00000100: de8e d5bc f6ba ff3d 2f47 f73d 8850 73bd
00000110: f3e8 08be 7abe 0ebe 5ce8 b7bc 6441 1abe
00000120: 5826 0b3e 1ab9 c53d 063b aabd 7774 323e
00000130: 1be3 86be fe8e 323e c634 5b3b 6448 e5bb
00000140: 4629 8b3b b5f2 4b3e b256 103d 2f39 093e
00000150: 2436 923d 479e 19bc e8e6 0c3e b1ec 4abe
00000160: e535 08be 6ac4 0ebd 5d27 3b3d 8e05 093e
00000170: 562c 733e eb97 a2bd 96c4 c63e a7f0 a73e
00000180: 969c 133e 3b81 ec3d f1db 79bd d62f 39bd
00000190: 5cb1 e8bd eff3 8e3d aa37 083e 681c 153d
000001a0: cc5c 123e 3556 69bb b831 853d 8c99 3d3e
000001b0: 8a12 2fbe 39e5 eabc 3dcb 403e c822 bb3d
000001c0: 8b90 19be 9f1b 583e e12d 363e b620 16be
000001d0: aeaf 14be 3b82 8abd a689 dfba afb0 2c3d
000001e0: c8c5 363d cb36 e23d d41f c8bd 4f1f 1c3e
000001f0: 1ad5 ff3d 9014 1ebe 868c 85bd 0a0e 9d3e
00000200: 8aa3 053e 1d37 c8bd c964 bfbd 7da6 2cbe
00000210: a8ae 373e 14ff 3c3d 5c9d 0a3c 8b17 123e
00000220: e225 963d 8527 2d3e 2f8a f13c e4dc 41bd
00000230: 69e4 a63e 0cf8 9f3d d561 0bbe dde3 25be
00000240: 0c5d a63d 6501 22be b554 423e 74b6 cb3b
00000250: e34e 363e 4b8a 1bbe 40d8 c93d b3a2 4b3d
00000260: bf72 273e 32f7 083e 5622 d43d e877 c53c
00000270: e61b 503d d9c4 75bd 3ea1 53be 9470 54bc
00000280: 6f91 cbbd 6ce3 8e3d 8a95 863d 4264 f3bd
00000290: 0061 c43c 1513 e23c dc90 97bd ca7c fc3d
000002a0: 990f 033c 1918 c9bd 3171 10bd 1b27 153e
000002b0: ed2d b73d 3654 173c 6991 433e 6694 dcbd
000002c0: 77dc 3cbe c14b 57bb b91c e8bd 86a7 eb3d
000002d0: 932a bf3d 4613 45be 2065 30be f7e7 673e
000002e0: 6edc babd e5b7 573e c1f8 073e caf3 82bd
000002f0: e025 063e b8c7 52be 88a3 153e 1d20 4d3d
00000300: 862d 383d 2995 703e 3a38 763d 80e6 c7bd
00000310: db70 0c3e 15cd 583d cc07 573e 30d6 0abe
00000320: a137 f6bc a24f 2cbe 5f08 c63c 0d0d 193e
00000330: 358d 73be 3126 9ebd 0b06 1e3d 4fd6 90bd
00000340: 0fb2 9dbe b347 113e 2114 04be fbb9 203e
00000350: 0a37 fc3d 90e2 4a3e 2f3b fd3d 56ea 0c3d
00000360: 9f89 233d f4e5 c2bc 7b79 be3d e630 5e3e
00000370: 6b47 733e 258d 66bc fecb 12bd 434d ab3e
00000380: a87a 073e d2f6 443d 8675 533e 2d8b 533e
00000390: 0e2d 253e 0fa6 803c d95e f03c 53ff e33c
000003a0: f05a 59bc 33da 753d d576 12be 55bb 92bc
000003b0: 8ed8 f63d 5d58 4e3e c494 1a3e 04af 2dbe
000003c0: 6562 88bd 88ef 07bc 2402 943e 3793 023e
000003d0: 342f 063e 7e6f 06be 2158 1b3e 1196 9b3e
000003e0: 61ee 50b9 94fa c5bb 7c35 083e 3869 72bd
000003f0: 917a a9bc f75e c23d dcb3 64bc 2ac6 613e
0.21702442 0.10049944 -0.15325344 0.06738591 0.049295537 0.2248213 -0.16285573 -0.066008165
0.068695545 0.23866075 0.108561926 -0.2303586 -0.3564749 0.17386922 -0.24090114 0.2653228
-0.021583524 0.0020266976 -0.43279544 0.103632785 -0.12663147 0.13199332 -0.012627683 -0.08206259
-0.04854121 -0.091471665 -0.15875301 0.16659337 -0.10911374 -0.016116321 0.105246946 -0.32191825
-0.019095168 0.10692523 0.090513945 -0.040964965 0.010928056 -0.0032024705 -0.04166674 -0.11605158
0.11866671 -0.046567023 0.012466248 0.24837744 -0.0039196564 0.21413822 0.048488528 0.0030572924
-0.27047712 0.080554724 -0.07126399 0.2214373 -0.01678108 -0.17022681 -0.08848018 0.20420268
0.27523714 0.12327596 0.104668714 -0.09362365 0.032150675 -0.07751651 0.042552043 0.33378753
-0.026069101 0.12486832 0.12074124 -0.059402972 -0.13370113 -0.13939849 -0.022449665 -0.15064007
0.13588846 0.09654446 -0.08312039 0.1742724 -0.26345143 0.1743736 0.0033448203 -0.006997155
0.0042468635 0.19916804 0.03523893 0.1340072 0.07139233 -0.009376115 0.13759959 -0.19816853
-0.13301809 -0.034855284 0.045691837 0.13381025 0.23747382 -0.07939132 0.38821858 0.3280079
0.14415202 0.11548086 -0.061000768 -0.045211636 -0.113619536 0.069801204 0.13302484 0.036404043
0.14293212 -0.0035604362 0.06503624 0.18515605 -0.17096916 -0.028673755 0.18827529 0.09137493
-0.14996545 0.21104287 0.17790939 -0.14660916 -0.14520141 -0.06763121 -0.0017054572 0.042160686
0.044622213 0.11045607 -0.09771696 0.15246318 0.12491818 -0.15437531 -0.06520943 0.30674773
0.13050666 -0.09776137 -0.09345395 -0.16860385 0.1793772 0.0461417 0.008460369 0.14266793
0.07331444 0.16909607 0.029484836 -0.0473298 0.32596138 0.07810983 -0.13611539 -0.16200204
0.08123216 -0.15820844 0.18977626 0.0062168185 0.1780353 -0.15189473 0.098556995 0.04971571
0.16352366 0.13375548 0.103581116 0.024105027 0.050807856 -0.06000218 -0.20666978 -0.012966294
-0.09939849 0.06976971 0.06571491 -0.11884357 0.023972034 0.02759699 -0.074006766 0.12328489
0.007999324 -0.098190494 -0.035264198 0.14565699 0.089443065 0.009236386 0.19098438 -0.10770492
-0.18443476 -0.003285155 -0.113336034 0.11506562 0.09334292 -0.19245633 -0.17226076 0.22647081
-0.09124075 0.21066244 0.13278486 -0.06394155 0.13100386 -0.20583999 0.14613163 0.050079454
0.04496529 0.234944 0.060112216 -0.09760761 0.13714926 0.052929956 0.20999068 -0.13558269
-0.030055823 -0.16827253 0.024173914 0.14946385 -0.23784335 -0.07722128 0.03857998 -0.07072126
-0.3079991 0.14187507 -0.12898304 0.15695946 0.12315185 0.19812989 0.12364804 0.034403168
0.039926168 -0.02379129 0.09300514 0.21698341 0.23757713 -0.014071737 -0.035839073 0.33457384
0.13230383 0.04808695 0.206503 0.2065856 0.16130468 0.015704183 0.029342102 0.027831709
-0.01326631 0.060022544 -0.14303143 -0.017911592 0.12053023 0.20150895 0.15095812 -0.16961294
-0.06659392 -0.008296855 0.28907883 0.1275147 0.13103944 -0.13128468 0.15170337 0.3038793
-0.00019925229 -0.006041834 0.13301653 -0.059182376 -0.020688327 0.09490769 -0.013958897 0.2204825

gnn_layers.1.lin_l.bias f4 [32]
00000000: 6b46 f0bc be2b cd3d c211 973d 3d7b 26be
00000010: 2de2 2d3e faaf a4bd 2f4d 44bb e4c4 633e
00000020: cfe0 a53b b19b cfbd ab48 a43d 47ee 11bd
00000030: a630 533e ac21 b9bc 37da 89bd 794a c0bd
00000040: 44ae 77bc 5558 233d c864 103e 9119 22bb
00000050: df9f d9bd 44b3 943c 7ecf b3bd 483c 983d
00000060: 18c2 943c ecd0 4fbe 7f6d 25be 1810 5dbd
00000070: 2998 2bbd 922f 78bd 77f3 9e3d ae27 00be
-0.029330453 0.10018109 0.07376434 -0.16257949 0.1698081 -0.08041377 -0.0029953232 0.22243077
0.0050621997 -0.10137118 0.08021673 -0.03562763 0.20624027 -0.022599064 -0.06731074 -0.093892045
-0.015117232 0.039879162 0.14100945 -0.0024734477 -0.10626196 0.018151887 -0.0877981 0.07433373
0.018158957 -0.20294541 -0.1615505 -0.053970426 -0.041893158 -0.06059224 0.07761281 -0.12515137

gnn_layers.1.lin_r.weight f4 [32, 32]
00000000: 6fbb d03d 6110 8cbd 43a8 883e ca51 8abe
00000010: 501f 95bd d6df 8b3d 8581 503e 3c1a 13be
00000020: 6ab6 1e3e d161 2abd f5c6 163e b643 f33d
00000030: d731 1cbe 46b0 48bd ddd4 07be 0dc4 403e
00000040: e2cd f1bd 94e5 ec3d 8fc7 47be 3b6a 453e
00000050: cd31 023e fcb3 303c 3f08 77bd 7da6 833e
00000060: 2bcd 7a3e c287 163e 5c86 17be 13bf ea3d
00000070: 1d46 863c 68d0 30be 51ae 203e 7e7c 953e
00000080: ae39 20be fbad 23be c844 7cbe 5747 6e3e
00000090: 9cf2 a03c 9992 4c3e fc3e bcbd b3cc b0bd
000000a0: a0e8 d93d b7fb 823e 4364 813d 118e 67be
000000b0: 2e4d 71be 756f f8bc 9c66 0cbe 8d4b a43e
000000c0: 4e37 6c3e ceed 773e 601d 58be b1f6 213c
000000d0: ed27 7c3d a6d4 b23e f648 983e aab5 24be
000000e0: df22 9e3d d744 eebc b3c3 8dbd 58eb 413e
000000f0: 3138 323e a480 e53c 02ed 00be ca2a cdbd
00000100: 54a4 c1bc 16db 71bd 026f 4a3e 6b58 10be
00000110: 4035 bcbc d60b b6bd 1e98 00be 67f7 293e
00000120: a423 ad3d fae8 24be ff91 b43d c53e ac3c
00000130: 9724 7bbd ceba ee3c 251b 393e e0c8 c43d
00000140: 107f 68be a8e3 0e3e 1fd7 b9bd dc4e 1a3c
00000150: b379 3c3a cff1 093e ca47 673e e31d a3be
00000160: cc02 9e3d 9aca 023e ac55 203d 753c 193d
00000170: a262 ec3c a215 e4bd 8be3 7bbe 2aac 9a3d
00000180: ee7c 23bd 04fb 2f3d 6a4c f1bd 5ed0 063e
00000190: db4e 91bd cc91 2e3e 9d5d 7fbd 68d7 123d
000001a0: d8c2 84bd ddd6 923c a6cd 393e f562 8f3e
000001b0: 8dcf fbbd 2bd6 d63d 3e65 0f3e 8464 84be
000001c0: cbba d9bc 079c 7d3d a82f fa3d 62b2 193e
000001d0: b53b e73c 3061 9bbd 01fc 88bd f4ee e0bc
000001e0: 43ea d4bc d8e9 c3bd 4ff9 273c 5831 e63d
000001f0: 2cf7 833d c91b c73d 250d 9cbd 44df 983e
00000200: 12ed fd3c 7916 9dbd 1995 323d ed32 2c3e
00000210: 0293 30be 4699 04bb 7a0e 873d 2dbf 11be
00000220: e0f1 893d b999 da3d a3f2 67be 17f6 edbd
00000230: dda9 e23d 0765 ba3d 6e9c 1d3e 914e 07be
00000240: a548 873d 9ef6 ad3d 7f93 7c3e 1f84 003e
00000250: b2d9 bf3d 3336 4c3e fab9 bbbd 5efe 94bc
00000260: ba31 82be 3c70 2bbe fa11 96bd 2b72 59be
00000270: a379 423d 443e 763d a155 2b3e cbcc e43d
00000280: 05ef 25be 9850 aebd a5f4 f33d f97d 5ebe
00000290: b9a2 f73d 3906 a73d 2dd1 53be 5a5d ab3d
000002a0: f81b ba3b d80a abbd fbc7 3dbd 9e8b fe3d
000002b0: 9c16 983e f286 773d 76c7 2e3d 0273 70be
000002c0: 2c76 6e3e 96a4 853d 6d31 6b3e 8c56 833c
000002d0: 81ac cd3c 510a 073e 3d73 2a3e 76eb efbd
000002e0: 350a c63d 5a09 7fbd 1492 2b3e 8280 5a3d
000002f0: 5121 4d3d dd2a 413e f78d 223e b31f 663e
00000300: 85ce 6f3d 16ca 9d3d 7749 dbbd 486e b83d
00000310: e630 b7bd cba4 d0bd a590 a63d 07d9 0fbe
00000320: c8d8 663d 1ca7 36be 0fbd 2f3e 1714 143e
00000330: 6b7b c33d 3bce ecbd befe c93d 8f56 01bd
00000340: 0e72 46be e5ed 3b3e e81d 853d c05b e3bd
00000350: ac16 27be 2900 023e 4cdd 703e 42bb c6bd
00000360: 475f 333e c8f0 16be 9dfa 153e f724 d23c
00000370: 6169 e73b 6978 c83d 6a03 423e d902 a33e
00000380: 127c 9d3c 4a4a 453e 67df 6d3c 46a8 d73d
00000390: 8d8d 703b 050d 10be cc47 7e3d 9499 733b
000003a0: 2a83 d13d 3f39 35be 389f 75be bfed 0f3e
000003b0: 9c1c e13e fb7e f9bd ab54 4a3d 0acb 59be
000003c0: 935b 343d ddb3 bb3d 6e48 a53e b222 033e
000003d0: 00d5 c9bc b0eb 1bbe e938 15be be68 1bbd
000003e0: f5e0 ddbd cddf f6bd d7c2 0f3e b5e4 0ebe
000003f0: 38c4 363e 901f 95bd 26c7 a93d 576b 013e
0.10192 -0.068390615 0.26690874 -0.27015525 -0.07281363 0.06829803 0.20361908 -0.14365476
0.15499273 -0.04159719 0.14724334 0.11878149 -0.15253387 -0.048996232 -0.13264795 0.18824787
-0.11806847 0.11567226 -0.1950972 0.19278805 0.1271431 0.010785099 -0.0603106 0.25712958
0.24492328 0.14700225 -0.14797348 0.11462226 0.016390854 -0.17267 0.15691496 0.29196543
-0.15647003 -0.15984337 -0.24635613 0.23269401 0.019646935 0.19977798 -0.09191701 -0.08632793
0.10640073 0.25582668 0.063179515 -0.22612788 -0.23564598 -0.030326584 -0.13711017 0.3208889
0.23067972 0.24211809 -0.21104956 0.009885476 0.061561514 0.34927863 0.29743165 -0.16084924
0.07721495 -0.02908556 -0.06922092 0.18937433 0.17404248 0.028015442 -0.12590411 -0.10017927
-0.023637928 -0.059046827 0.19768909 -0.14096229 -0.02297461 -0.08888976 -0.12558028 0.16598283
0.084540635 -0.16104499 0.08816909 0.021026025 -0.06131419 0.02914181 0.18076761 0.09608626
-0.2270472 0.13954031 -0.09074234 0.009418216 0.00071897655 0.13471149 0.22585979 -0.3185874
0.07715377 0.12772599 0.039144203 0.037411172 0.028855626 -0.11136939 -0.2459852 0.07552369
-0.039914064 0.042963997 -0.11782153 0.13165423 -0.070951186 0.17047805 -0.062345136 0.03584996
-0.06482476 0.01792472 0.18144855 0.28005186 -0.122954465 0.10490068 0.14003465 -0.25857937
-0.026578328 0.061916377 0.12216121 0.15009454 0.028226713 -0.075868964 -0.06688691 -0.027457692
-0.025990611 -0.095660865 0.010252311 0.1123988 0.06443629 0.097220965 -0.076196946 0.29857838
0.030996833 -0.07670302 0.04359922 0.16816302 -0.17243579 -0.002023296 0.06594558 -0.14233084
0.06735587 0.106738515 -0.22651152 -0.116192035 0.11067555 0.09101301 0.15391704 -0.13213564
0.06605653 0.08494304 0.2466564 0.125504 0.09367694 0.1994255 -0.091663316 -0.018187698
-0.25428563 -0.16742033 -0.073276475 -0.21234958 0.047479283 0.060117975 0.16731884 0.11171874
-0.1620446 -0.08511466 0.119118966 -0.21727742 0.12091584 0.08155484 -0.20685263 0.08367415
0.0056796037 -0.08351678 -0.046333294 0.124289736 0.2970475 0.06043143 0.04267069 -0.23481372
0.23287266 0.06525533 0.22968073 0.01603248 0.02510667 0.13187529 0.16645522 -0.117148325
0.096699156 -0.062264778 0.16754943 0.05334521 0.0500806 0.18864007 0.15874468 0.2247303
0.05854656 0.077045605 -0.10707372 0.090054095 -0.089448735 -0.10187682 0.081330575 -0.14047633
0.056359082 -0.17837185 0.17161964 0.14460789 0.095450245 -0.11562773 0.09863041 -0.03157669
-0.19379446 0.18352468 0.06499845 -0.11101484 -0.16317242 0.12695374 0.23521918 -0.09703685
0.17516814 -0.14740288 0.14646383 0.025652392 0.0070621227 0.097885914 0.18946615 0.3183811
0.0192242 0.1926662 0.014518595 0.105301425 0.0036705465 -0.14067467 0.06208019 0.0037170397
0.10230096 -0.17697619 -0.23986518 0.14055537 0.4396714 -0.12182423 0.049397152 -0.2126886
0.044032644 0.091651656 0.32281822 0.12806204 -0.0246377 -0.15226626 -0.14572491 -0.037941687
-0.10833923 -0.12054405 0.14039169 -0.13954432 0.17848289 -0.07281411 0.08289938 0.12638603
