baseline/DLPL-CAP/models_dlpl-cap-classifier/sandwich+ultra8t_to_ssram+digtime+timing_ctrl+array_128_32_8t/dlpl-cap-classifier_nh_2_tsk_regression_ngl_4_nhl_4_hd_32_us_1_bn_0_dp_0.0_epoch_10_20250402_152130.pth (torch, 63134 bytes, 24 tensors)

net_attr_layers.weight f4 [16, 17]
0.005843574 0.020546978 -0.22973925 0.22279596 -0.37561747 -0.1372953 -0.118079685 0.14243697
0.21380556 -0.17793097 0.21081103 0.045392796 0.17918746 0.032846738 0.11694779 -0.21968979
-0.7345585 0.111482106 0.02082375 -0.07470771 -0.111745045 -0.07335962 0.044420272 0.16089109
-0.19145039 -0.11181143 -0.06848593 -0.14582999 0.022891268 -0.23954737 0.21903612 -0.2060263
-0.07178921 0.7348354 -0.23167841 -0.045840304 0.047611002 0.1959599 -0.10124029 -0.2789077
0.06516536 -0.06577067 0.10207295 0.21654117 0.14020003 -0.10602991 0.14000724 0.043395985
0.12316808 -0.005462165 -1.362302 0.03544839 0.031353038 0.02008408 0.06985786 0.06125279
0.30535764 -0.004219143 0.18981038 -0.17232485 0.015270946 -0.16554031 0.07478634 -0.08352497
0.07431686 -0.05053023 -0.012932388 0.5437701 -0.20422907 -0.13161099 -0.08045314 0.08082527
0.0032090216 -0.17971177 -0.24056529 -0.18975109 -0.16315107 0.098236665 0.08684615 0.20152876
-0.12525155 -0.1653394 0.1286841 -0.50742745 0.8179289 -0.31559533 -0.17081966 -0.26562497
-0.122395545 0.056632876 -0.22225687 -0.061836578 0.14456807 0.16487795 -0.17588037 -0.12948206
0.22208063 -0.081839405 -0.08598285 -0.23467617 -0.11688673 -0.8854847 0.32575917 0.20859341
0.20294748 -0.1656716 0.4190208 0.3043255 -0.21227011 -0.15443166 0.24244076 0.045808904
0.07473971 -0.22620916 -0.15929104 -0.080729395 0.037925567 -0.5024348 0.26320976 -0.07180115
0.012211767 0.2319598 -0.016806692 -0.2576467 -0.20040266 -0.14149572 -0.08301932 -0.19142874
0.20335881 -0.0481346 0.20867686 0.07556976 -0.20537843 0.1678432 0.4091306 -0.18597591
-0.32848507 -0.39322677 0.017880227 -0.05298042 0.07136723 -0.3271022 0.18006551 -0.17803417
-0.041879438 0.05065834 0.12520945 0.19580151 0.22094007 -0.19231187 0.061038274 -0.05239509
-1.1335368 -0.0073921164 0.45762497 -0.24657506 0.12962346 0.26626167 0.33675563 -0.13112596
0.22045313 0.0532973 0.031199796 -0.21373568 0.10181366 -0.03638534 -0.111111455 0.20832513
-0.044333383 0.76628226 0.0835621 0.18608764 0.36450082 -0.061976053 0.21333621 0.11942487
-0.18119226 0.08649608 0.18773232 -0.22833282 0.056329064 0.12529191 0.043978833 -0.08637291
0.12658957 0.3048687 0.85000896 0.1420813 0.07439401 0.38019887 -0.04284491 0.7257031
0.35505012 0.208435 -0.024010384 -0.054302964 0.00353915 -0.014481374 0.0583083 0.06796663
-0.22028463 -0.0895048 0.41381013 -0.3953276 -0.09014843 -0.22704963 -0.20740777 -0.21725537
0.1564663 0.06443551 0.15464596 0.111978054 -0.21438791 -0.14585182 -0.03827616 0.23461671
0.035084594 -0.06280963 0.10034069 -0.0081937825 -0.87701166 -0.20519176 -0.41140345 -0.64987034
-0.24127547 -0.4136236 -0.1151028 0.08839167 -0.16911383 -0.23936808 -0.19698232 0.18085887
0.11644275 0.20409481 0.1270571 0.061383866 -0.2664554 0.22756526 -0.3552249 -0.34078443
-0.18016042 -0.11907723 -0.30275604 -0.2439574 -0.044195704 -0.17070504 -0.15847658 0.08045169
-0.07208071 0.14972772 -0.07780755 -0.17791618 -0.042792726 -0.32379037 -0.91401047 -0.41681397
00000000: 747b bf3b 2352 a83c c440 6bbe a024 643e
00000010: ef50 c0be 2497 0cbe c3d3 f1bd ffda 113e
00000020: d8ef 5a3e 8933 36be d9de 573e cced 393d
00000030: eb7c 373e 4d8a 063d 5382 ef3d 5cf6 60be
00000040: 070c 3cbf bb50 e43d 9296 aa3c 5b00 99bd
00000050: 96da e4bd 923d 96bd 08f2 353d a2c0 243e
00000060: 920b 44be 64fd e4bd 5a42 8cbd 7554 15be
00000070: 7886 bb3c e84b 75be 014b 603e 8ff8 52be
00000080: 3906 93bd 2c1e 3c3f 1b3d 6dbe 0bc3 3bbd
00000090: c103 433d b6a9 483e 1257 cfbd fdcc 8ebe
000000a0: 6b75 853d c6b2 86bd 9f0b d13d f8bc 5d3e
000000b0: 9990 0f3e 3626 d9bd 0f5e 0f3e fdbf 313d
000000c0: 8c3f fc3d f6fb b2bb e95f aebf 5532 113d
000000d0: 0b6c 003d 5e87 a43c a311 8f3d 35e4 7a3d
000000e0: d657 9c3e bd40 8abb a75d 423e ed75 30be
000000f0: fd32 7a3c 6683 29be 9529 993d 240f abbd
00000100: 7033 983d c9f8 4ebd 5ee2 53bc 8434 0b3f
00000110: 6d21 51be 08c5 06be 9ec4 a4bd b887 a53d
00000120: 734e 523b 5d06 38be bf56 76be 1c4e 42be
00000130: 1311 27be 4e30 c93d 65dc b13d 8e5d 4e3e
00000140: f141 00be bb4e 29be c4c5 033e c4e6 01bf
00000150: ca63 513f b695 a1be 59eb 2ebe ffff 87be
00000160: 84aa fabd e0f7 673d 4e97 63be 5a48 7dbd
00000170: a709 143e c4d5 283e fc19 34be f296 04be
00000180: 1b69 633e 6b9b a7bd c717 b0bd f34e 70be
00000190: 4f62 efbd 20af 62bf e8c9 a63e 8399 553e
000001a0: 77d1 4f3e d1a5 29be e589 d63e 8dd0 9b3e
000001b0: 565d 59be 5523 1ebe 6442 783e 1ea2 3b3d
000001c0: 2211 993d 60a3 67be 311d 23be 7455 a5bd
000001d0: d757 1b3d 919f 00bf 6ec3 863e 7b0c 93bd
000001e0: dd13 483c df86 6d3e 30ae 89bc 45ea 83be
000001f0: 5b36 4dbe 41e4 10be 0906 aabd e505 44be
00000200: 4b3d 503e c928 45bd 63af 553e 51c4 9a3d
00000210: b94e 52be 16df 2b3e 9179 d13e 7870 3ebe
00000220: 322f a8be 0555 c9be 8e79 923c ff01 59bd
00000230: fb28 923d f179 a7be 1863 383e 974e 36be
00000240: c689 2bbd 1f7f 4f3d e836 003e 3180 483e
00000250: 1d3e 623e 67ed 44be 4503 7a3d 3c9c 56bd
00000260: bc17 91bf 9139 f2bb d24d ea3e 2c7e 7cbe
00000270: 03bc 043e 7353 883e 3c6b ac3e e245 06be
00000280: 77be 613e 454e 5a3d b796 ff3c 87dd 5abe
00000290: ae83 d03d cb08 15bd 678e e3bd 2f53 553e
000002a0: ec96 35bd 132b 443f 9b22 ab3d c28d 3e3e
000002b0: da9f ba3e 9ada 7dbd cf74 5a3e 0795 f43d
000002c0: 778a 39be db24 b13d e73c 403e 14d0 69be
000002d0: 4eb9 663d 864c 003e 2623 343d 48e4 b0bd
000002e0: b2a0 013e c017 9c3e 309a 593f c37d 113e
000002f0: e35b 983d 6da9 c23e 257e 2fbd aec7 393f
00000300: 21c9 b53e fc6f 553e 6db1 c4bc c96c 5ebd
00000310: 16f1 673b 4943 6dbc afd4 6e3d 1732 8b3d
00000320: 4b92 61be 4b4e b7bd ecde d33e 6168 cabe
00000330: bd9f b8bd b37f 68be b462 54be 3178 5ebe
00000340: b438 203e c4f6 833d 835b 1e3e c054 e53d
00000350: 8188 5bbe 2e5a 15be 76c7 1cbd 5d3f 703e
00000360: ddb4 0f3d 56a2 80bd 6b7f cd3d 373f 06bc
00000370: d683 60bf ca1d 52be 79a3 d2be e75d 26bf
00000380: eb10 77be 79c6 d3be 04bb ebbd b106 b53d
00000390: 2d2c 2dbe e81c 75be bcb5 49be 1133 393e
000003a0: 8979 ee3d 3bfe 503e 421b 023e a66d 7b3d
000003b0: d86c 88be de06 693e 0ae0 b5be 4c7b aebe
000003c0: f97b 38be c3de f3bd d702 9bbe f8cf 79be
000003d0: 8e06 35bd 4dcd 2ebe af47 22be dbc3 a43d
000003e0: 0d9f 93bd 3952 193e 9159 9fbd a92f 36be
000003f0: 6d47 2fbd dac7 a5be 97fc 69bf a468 d5be

net_attr_layers.bias f4 [16]
0.13257554 0.07369816 0.22368625 -0.004748693 -0.19817717 0.11275448 0.14309551 -0.22993572
0.059265785 -0.10400099 -0.01731207 -0.035361867 -0.010799496 -0.13137078 -0.18609433 0.1841394
00000000: e2c1 073e 10ef 963d 020e 653e ed9a 9bbb
00000010: f5ee 4abe d2eb e63d a187 123e 4574 6bbe
00000020: aec0 723d 79fe d4bd 0bd2 8dbc 9bd7 10bd
00000030: 5ff0 30bc 1086 06be 838f 3ebe 0a8f 3c3e

dev_attr_layers.weight f4 [16, 17]
0.26549625 -1.3592865 1.8869749 -1.5542473 -1.3580172 -0.23602219 0.09014041 -0.13316326
-0.15592057 -0.018923404 -0.080767065 -0.07846531 0.0077929595 -0.051444817 -0.041357502 -1.03714
-0.19738214 0.18906327 1.4880643 -1.8852097 1.4019567 1.1449364 0.22611606 0.11174166
-0.2101813 0.096263066 0.2302252 0.06380708 0.16260187 0.23911284 -0.03716349 0.038452398
-0.64036316 -0.049981035 0.1656573 -1.7584804 1.9042681 -1.9810644 -1.5397612 -0.23935299
-0.18714994 -0.05997843 0.16368175 0.040596157 -0.18447392 -0.19456787 0.12065547 -0.18040802
-0.046579726 0.09027035 -0.11224841 -0.08017923 1.4589254 -2.4646525 1.4495008 0.9935941
-0.19605537 -0.12986852 0.23425005 -0.11714827 -0.16286945 0.05878923 0.06684532 0.13288763
0.18435627 0.104211636 -0.035075728 0.021510148 0.13653323 1.347376 -2.1819682 1.4090371
0.80275124 -0.13808633 -0.21865922 0.010833658 0.107475564 0.05368837 0.047961354 -0.18393597
-0.22650093 0.0042708963 0.20511563 -0.39261493 -0.14121255 0.02196499 -2.2519896 1.4165399
-1.857118 -1.3104247 0.20090905 -0.22267343 0.162163 -0.17105846 0.090821646 0.20524463
0.0034057768 0.22066109 -0.20665284 -0.026172018 0.1537083 -0.052840713 -0.05523694 0.5100935
-2.3937075 1.2294842 0.9397797 -0.13629621 -0.1968782 0.026232801 0.07185817 -0.11198158
-0.0678609 0.16380073 0.019320315 0.010942803 -0.013249829 0.5075543 -0.22804593 -0.04934466
0.15535389 2.4093919 -0.6611851 -0.55882865 0.23124069 0.0844807 0.17290421 -0.117414586
-0.099067755 0.08914166 -0.16159545 -0.15854652 -0.0117143905 -0.10123336 -0.8188177 0.14386217
0.20110115 -2.2573018 1.5644478 -2.1906638 -1.5201485 0.061746083 0.114363045 -0.03066075
-0.09588715 0.13514717 -0.1931553 0.15328687 -0.09409287 0.0037121046 -0.024215467 0.38356265
-0.07329388 0.132823 1.4161582 -2.1573894 1.7334304 1.0534194 -0.17693195 0.19458681
0.19005428 -0.18518741 -0.018748801 -0.23917076 -0.19853944 0.046843946 0.06452287 0.026095795
0.50856906 0.22375797 -0.09043164 0.9122467 -1.8671299 1.2767603 1.0060313 -0.1714923
0.090899825 -0.123907 -0.20153263 -0.13247475 0.23390362 0.20733348 0.21718688 0.14237113
0.0793904 0.80358285 -0.13344987 0.053944286 -1.5504564 0.8420251 -0.81165206 -0.52253807
0.12485652 -0.094203025 -0.1427483 0.03271637 -0.14295855 -0.15790558 0.12642215 -0.040742252
0.2216254 0.21862797 0.84151053 0.0834705 0.09795935 -1.5266674 1.1122726 -0.679432
-0.37938005 0.22550255 -0.06285531 -0.10252363 -0.0587336 -0.11717484 0.041240443 0.18104033
0.18965738 0.11135429 -0.073907234 0.45565018 -0.053287845 -0.06479162 0.24814613 -3.305159
0.72145647 0.39444262 -0.15346313 -0.20163988 0.21132605 -0.22966664 0.18296081 -0.008153296
-0.0282066 0.15170082 -0.022416988 0.1844333 -0.35500023 -0.21057187 0.20901099 -1.2942321
0.9394623 -0.8808163 -0.5314098 -0.11667584 -0.031030282 0.23043793 0.16294743 -0.009111688
-0.22811225 0.0106297955 -0.16516034 0.19722791 0.011225384 -0.68389004 -0.053829003 -0.059290085
00000000: 20ef 873e 1afd adbf 6588 f13f 93f1 c6bf
00000010: 82d3 adbf cdaf 71be 899b b83d f35b 08be
00000020: a4a9 1fbe 4105 9bbc 3469 a5bd 6cb2 a0bd
00000030: 155c ff3b cdb7 52bd 7c66 29bd 01c1 84bf
00000040: 8b1e 4abe cd99 413e e478 be3f 8d4e f1bf
00000050: 5173 b33f 478d 923f f88a 673e d0d8 e43d
00000060: c439 57be 9225 c53d 28c0 6b3e 49ad 823d
00000070: 1b81 263e ffd9 743e be38 18bd 4380 1d3d
00000080: d7ee 23bf eab8 4cbd 11a2 293e e315 e1bf
00000090: 0fbf f33f 8593 fdbf e516 c5bf f318 75be
000000a0: 3ca4 3fbe f1ab 75bd 309c 273e 2848 263d
000000b0: bbe6 3cbe cd3c 47be 371a f73d e1bc 38be
000000c0: 62ca 3ebd a9df b83d 7fe2 e5bd 0235 a4bd
000000d0: 11be ba3f debc 1dc0 3e89 b93f 2f5c 7e3f
000000e0: bdc2 48be 41fc 04be 3fdf 6f3e 6feb efbd
000000f0: 40c7 26be facc 703d 33e6 883d b213 083e
00000100: e4c7 3c3e e96c d53d 91ab 0fbd 0d36 b03c
00000110: 5ecf 0b3e d176 ac3f 5ea5 0bc0 545b b43f
00000120: 1b81 4d3f 8166 0dbe 34e8 5fbe a87f 313c
00000130: 261c dc3d 56e8 5b3d 2073 443d b659 3cbe
00000140: dcef 67be e0f2 8b3b d509 523e d304 c9be
00000150: 069a 10be ecef b33c 9920 10c0 2e51 b53f
00000160: 0bb6 edbf ffbb a7bf 1abb 4d3e 8104 64be
00000170: 0f0e 263e f329 2fbe b300 ba3d a62b 523e
00000180: 7433 5f3b fbf4 613e cd9c 53be b366 d6bc
00000190: b565 1d3e 816f 58bd 2140 62bd 7d95 023f
000001a0: 8132 19c0 bd5f 9d3f 6795 703f 3c91 0bbe
000001b0: 709a 49be 2ce6 d63c 602a 933d 9956 e5bd
000001c0: a8fa 8abd 61bb 273e a345 9e3c 7149 333c
000001d0: d015 59bc 14ef 013f df84 69be a01d 4abd
000001e0: 1715 1f3e 7a33 1a40 6d43 29bf 650f 0fbf
000001f0: 5cca 6c3e 3804 ad3d cd0d 313e 0f77 f0bd
00000200: 09e4 cabd e78f b63d 4779 25be 055a 22be
00000210: b7ed 3fbc 7053 cfbd 099e 51bf 9b50 133e
00000220: 76ed 4d3e a277 10c0 d33f c83f d633 0cc0
00000230: 3a94 c2bf 76e9 7c3d 2c37 ea3d 412c fbbc
00000240: 7b60 c4bd 0564 0a3e 81ca 45be 3cf7 1c3e
00000250: c3b3 c0bd c846 733b 845f c6bc 5362 c43e
00000260: 1a1b 96bd c102 083e ac44 b53f ab12 0ac0
00000270: 0ce1 dd3f 72d6 863f a62d 35be c441 473e
00000280: 979d 423e c5a1 3dbe 1697 99bc 2ee9 74be
00000290: ec4d 4bbe 70df 3f3d 9124 843d d9c6 d53c
000002a0: 9531 023f cf20 653e 3934 b9bd 0089 693f
000002b0: 1dfe eebf e26c a33f a2c5 803f ad9b 2fbe
000002c0: b029 ba3d f4c2 fdbd 925e 4ebe 76a7 07be
000002d0: 6e84 6f3e 3a4f 543e 3d66 5e3e bdc9 113e
000002e0: 6f97 a23d 9bb7 4d3f 15a7 08be aff4 5c3d
000002f0: 5b75 c6bf f58e 573f 6ec8 4fbf 0ec5 05bf
00000300: c6b4 ff3d 84ed c0bd 9c2c 12be 9a01 063d
00000310: ba63 12be 00b2 21be cf74 013e 59e1 26bd
00000320: c5f1 623e 03e0 5f3e 3c6d 573f 95f2 aa3d
00000330: e99e c83d d669 c3bf f35e 8e3f 41ef 2dbf
00000340: 1a3e c2be 24ea 663e 49ba 80bd e9f7 d1bd
00000350: a592 70bd 5df9 efbd bdeb 283d a362 393e
00000360: 8b35 423e b80d e43d ad5c 97bd fb4a e93e
00000370: 5b44 5abd 78b1 84bd 051a 7e3e ba87 53c0
00000380: 5fb1 383f 62f4 c93e 7025 1dbe af7a 4ebe
00000390: db65 583e bb2d 6bbe 145a 3b3e 6795 05bc
000003a0: 8711 e7bc 7657 1b3e d5a3 b7bc 15dc 3c3e
000003b0: 97c2 b5be 27a0 57be fa06 563e 66a9 a5bf
000003c0: 9a80 703f 2d7d 61bf 790a 08bf bef3 eebd
000003d0: 3833 febc ecf7 6b3e b1db 263e 3049 15bc
000003e0: 4296 69be 9828 2e3c cb1f 29be 1df6 493e
000003f0: acea 373c 6b13 2fbf cd7b 5cbd 29da 72bd

dev_attr_layers.bias f4 [16]
0.22773421 0.21560425 -0.0012950683 -0.26244777 -0.18056586 -0.09721993 -0.219723 -0.0549387
-0.2171781 -0.26732036 -0.27011195 -0.30662677 -0.10677171 0.07252064 0.31801453 -0.17464495
00000000: 2833 693e 5cc7 5c3e 48bf a9ba 8e5f 86be
00000010: 42e6 38be 3e1b c7bd 11ff 60be 6707 61bd
00000020: f063 5ebe 37de 88be 1d4c 8abe 2ffe 9cbe
00000030: 20ab dabd b485 943d cdd2 a23e 20d6 32be

pin_attr_layers.weight f4 [17, 16]
-0.86053056 -1.1931121 0.19525291 -0.8439543 -1.7491425 -0.21305674 -0.69109666 2.4281487
-0.5142328 -1.2951568 0.7360308 -0.06525133 -0.44810024 -0.3953054 -1.4562746 -1.023797
0.24850455 0.06940917 0.8410261 -0.16499595 -0.77790195 0.37796047 0.9539426 -1.3530927
0.6696429 -1.2278035 -0.032781884 0.58516645 0.572302 0.051935334 1.84739 0.7037569
-1.8558859 2.4141164 -1.0027701 0.81854033 -0.3138656 -2.3717933 1.0350939 0.31323293
-0.9144085 1.7511089 1.4812084 -0.1869334 0.45227033 0.44688487 0.6715504 1.1176428
-0.4137862 0.51840883 -0.7015368 -0.4323409 0.14147705 0.071103625 0.56335306 -0.57863575
-1.0838116 -0.388926 0.81261057 1.4981188 0.043896087 1.4443233 0.23202892 0.50649834
-1.2786967 -0.03842747 1.913801 0.3378446 0.12505612 -0.7621515 -1.19056 0.77560735
0.45571992 0.25033033 -1.3610971 1.8018341 -0.074341945 -0.15664156 -0.8708455 -0.64109725
-0.41456285 -0.69023806 -0.2299562 -2.172284 0.08768324 1.0937846 -0.11772058 -0.29864323
-0.9536206 -0.09247278 -1.0166546 -0.0076756896 -0.51822084 0.83954257 0.058522668 -1.668248
2.1296248 -1.5181471 0.13872829 -1.1797569 -0.52974117 0.9625158 0.2794383 -0.5718191
-2.793629 -0.7111545 0.52352196 -1.7105501 0.83848536 -0.26984537 0.12306158 0.87575114
0.15132998 0.7393934 0.27310315 2.731231 0.43200523 -0.30918217 -0.09658124 1.5419251
-0.10874478 -0.41890433 1.4384385 -0.70684266 -1.2519515 3.0250485 1.346259 0.855607
0.3220294 0.44605663 1.5229592 1.2804899 -0.11616043 1.3705363 -0.48093814 -0.9903622
-1.3641813 0.008205652 -0.4058602 -0.711086 -0.34957936 0.37974882 0.99930406 1.2751853
0.95949274 0.10351 0.829035 2.0921295 0.79530954 0.27928478 0.18644784 0.3547133
0.0906385 1.7422553 -1.2660012 0.3891608 0.34287506 -1.4590638 -1.4936562 -0.22138521
0.22523506 -0.07724538 0.9856945 1.2783364 0.2881519 0.8690496 -0.8097058 -1.4298605
0.45901597 0.53093284 -1.3614802 1.9562491 1.7684898 -0.98579854 -1.2370758 -2.301875
-0.0010087001 -0.8494257 -1.6593921 0.3062906 1.1820445 0.32602695 -0.38944697 2.8543806
0.8243651 0.79834706 1.8890222 0.5934628 0.06965444 -1.6034338 -0.42982182 0.57615876
0.34436315 -3.101606 -1.4587226 -1.4318258 -0.6071269 -0.25973788 -0.7190186 -0.38583097
0.5233525 -0.8211768 -0.47086892 0.6016423 -0.28251126 0.769268 -0.76689243 -0.9494867
0.016917398 0.080277406 0.7448413 1.345485 0.12682189 -2.4520717 0.41597614 1.9025357
-0.73467 0.044657134 -1.5211198 0.3478376 0.7401773 1.4161996 0.68339795 -0.13825183
0.9212995 0.5282444 -0.008228387 -1.449332 -0.6051824 -0.17924511 0.1995587 -1.2461947
-0.4145994 1.45587 0.33165342 -1.0001009 -0.69195247 -0.47199076 -1.2894343 1.0762811
-1.0667428 -1.9893427 0.29731303 0.4344584 0.0033933204 -1.0240146 0.22404762 -0.7554785
1.367581 -0.31973583 -0.91309243 1.9192094 -1.651487 2.1477253 -0.66041344 0.11352584
00000000: bb4b 5cbf e6b7 98bf 61f0 473e 640d 58bf
00000010: e7e3 dfbf 8c2b 5abe b6eb 30bf ca66 1b40
00000020: c3a4 03bf b3c7 a5bf 846c 3c3f 7da2 85bd
00000030: 656d e5be 7865 cabe 3567 babf c80b 83bf
00000040: fa77 7e3e 6526 8e3d 7d4d 573f b3f4 28be
00000050: 9524 47bf 0984 c13e 9535 743f 2432 adbf
00000060: b86d 2b3f aa28 9dbf 4c46 06bd 78cd 153f
00000070: 6282 123f 25ba 543d 4777 ec3f 6a29 343f
00000080: ab8d edbf e280 1a40 c55a 80bf dc8b 513f
00000090: feb2 a0be 76cb 17c0 f57d 843f 1160 a03e
000000a0: ad16 6abf 5624 e03f 3d98 bd3f 786b 3fbe
000000b0: fa8f e73e 18ce e43e baea 2b3f eb0e 8f3f
000000c0: c9db d3be 71b6 043f ea97 33bf c95b ddbe
000000d0: 5cdf 103e c79e 913d e837 103f 7921 14bf
000000e0: 57ba 8abf 4f21 c7be 3f07 503f 5bc2 bf3f
000000f0: 62cc 333d 96df b83f fd98 6d3e e0a9 013f
00000100: 55ac a3bf 1f66 1dbd 6ef7 f43f f8f9 ac3e
00000110: b60e 003e 5c1c 43bf 4564 98bf 348e 463f
00000120: 1f54 e93e 4c2b 803e 6e38 aebf 80a2 e63f
00000130: 9740 98bd a566 20be bbef 5ebf f31e 24bf
00000140: 9541 d4be 71b3 30bf a379 6bbe b306 0bc0
00000150: 4593 b33d 2201 8c3f 7d17 f1bd c4e7 98be
00000160: 7b20 74bf 5e62 bdbd bd21 82bf 5a84 fbbb
00000170: 1faa 04bf 43ec 563f 77b5 6f3d 2789 d5bf
00000180: c64b 0840 a552 c2bf ca0e 0e3e 4602 97bf
00000190: 1e9d 07bf 6f67 763f 8912 8f3e bd62 12bf
000001a0: d1ca 32c0 390e 36bf 8905 063f 4ef3 dabf
000001b0: faa6 563f 2c29 8abe b607 fc3d 3a31 603f
000001c0: 3ff6 1a3e e348 3d3f 2dd4 8b3e 7dcc 2e40
000001d0: ca2f dd3e 204d 9ebe 63cc c5bd cd5d c53f
000001e0: 95b5 debd a17a d6be c11e b83f a4f3 34bf
000001f0: f23f a0bf 659a 4140 3752 ac3f 0f09 5b3f
00000200: 0ae1 a43e 8961 e43e 54f0 c23f 18e7 a33f
00000210: 85e5 edbd bc6d af3f 863d f6be 6188 7dbf
00000220: 7e9d aebf 0071 063c e8cc cfbe bb09 36bf
00000230: 11fc b2be 706e c23e 64d2 7f3f 4639 a33f
00000240: 51a1 753f 0dfd d33d a33b 543f 73e5 0540
00000250: 6899 4b3f 6afe 8e3e 2fec 3e3e fb9c b53e
00000260: aea0 b93d 3902 df3f 540c a2bf 1640 c73e
00000270: 528d af3e 9ac2 babf 2030 bfbf ceb2 62be
00000280: 05a4 663e d332 9ebd 7a56 7c3f 87a0 a33f
00000290: a588 933e 097a 5e3f e148 4fbf ab05 b7bf
000002a0: 2404 eb3e 37eb 073f fc44 aebf 5f66 fa3f
000002b0: e05d e23f 4b5d 7cbf 8058 9ebf ec51 13c0
000002c0: 5c36 84ba f673 59bf f666 d4bf 1fd2 9c3e
000002d0: 3c4d 973f 01ed a63e 9865 c7be 2cae 3640
000002e0: 9709 533f 7960 4c3f 7bcb f13f 2eed 173f
000002f0: fda6 8e3d 523d cdbf 9b11 dcbe 247f 133f
00000300: 5e50 b03e b680 46c0 6cb7 babf 1146 b7bf
00000310: ab6c 1bbf 5dfc 84be 9a11 38bf a38b c5be
00000320: 6efa 053f a538 52bf bb15 f1be 3b05 1a3f
00000330: 51a5 90be bfee 443f 1053 44bf 8f11 73bf
00000340: 5b96 8a3c 7b68 a43d ebad 3e3f da38 ac3f
00000350: 99dd 013e beee 1cc0 d3fa d43e 4a86 f33f
00000360: 5513 3cbf 66ea 363d 0eb4 c2bf c517 b23e
00000370: 427c 3d3f 0746 b53f 2bf3 2e3f e391 0dbe
00000380: 49da 6b3f 063b 073f 5bd0 06bc b683 b9bf
00000390: 3ced 1abf 088c 37be 1e59 4c3e 4f83 9fbf
000003a0: 5f46 d4be f359 ba3f 7ace a93e 4e03 80bf
000003b0: cc23 31bf c6a8 f1be 2f0c a5bf 94c3 893f
000003c0: 078b 88bf c8a2 febf 6a39 983e 5571 de3e
000003d0: 7862 5e3b e912 83bf bd6c 653e 0a67 41bf
000003e0: e50c af3f 6ab4 a3be 6dc0 69bf a7a8 f53f
000003f0: ed63 d3bf 5574 0940 db10 29bf 3c80 e83d

node_encoder.weight f4 [4, 16]
0.80443245 -0.39565337 1.5657592 0.95364344 -0.19883622 0.9407324 0.28576228 0.14174499
-0.8971054 -1.9510485 -0.48812664 -0.42090258 0.12705182 1.0092984 0.045138545 1.268494
-0.6974693 -1.9011908 -1.5921844 -0.6913859 0.45331863 -0.28896633 -0.031115862 -2.1602323
-0.34161994 -0.33972976 1.0450243 1.0155412 -1.0875351 -0.2714398 -0.8557744 1.0068884
0.9786425 -1.0005178 -0.77087116 -0.5461428 -1.2259909 -1.7524098 0.76702183 -0.14969869
0.5106646 -0.51865023 -0.06043699 0.4552334 0.5998081 -0.1067911 -1.0968298 -0.6480235
-0.7111087 -0.38666672 0.95783144 -0.82253087 -2.390805 0.3222477 1.8753887 1.104299
-0.5223759 -0.7401804 0.16235657 -0.2369976 0.5099347 1.6706249 1.592105 -0.4161921
00000000: 49ef 4d3f 1493 cabe cc6a c83f fa21 743f
00000010: b99b 4bbe d7d3 703f 6f4f 923e 9925 113e
00000020: b3a8 65bf f5bb f9bf bceb f9be 8b80 d7be
00000030: df19 023e b130 813f 32e3 383d 035e a23f
00000040: 598d 32bf 385a f3bf b3cc cbbf abfe 30bf
00000050: 6119 e83e 65f3 93be b1e6 febc 3f41 0ac0
00000060: cfe8 aebe 0ff1 adbe 5bc3 853f 41fd 813f
00000070: 5a34 8bbf 28fa 8abe 0814 5bbf b8e1 803f
00000080: 5188 7a3f f810 80bf d057 45bf 04d0 0bbf
00000090: 45ed 9cbf f74e e0bf 8b5b 443f 9d4a 19be
000000a0: eaba 023f 43c6 04bf c78c 77bd 5a14 e93e
000000b0: 068d 193f 4bb5 dabd eb64 8cbf dee4 25bf
000000c0: 380b 36bf 2ef9 c5be 7134 753f 6291 52bf
000000d0: f302 19c0 a7fd a43e bd0c f03f ab59 8d3f
000000e0: 6dba 05bf 767c 3dbf cd40 263e 80af 72be
000000f0: 158b 023f 09d7 d53f 19ca cb3f 2217 d5be

gnn_layers.0.lin_l.weight f4 [32, 32]
0.006643451 0.020592388 0.06970552 -0.12966307 -0.07444549 0.12229279 -0.22260703 0.08910703
0.15401384 0.17104498 0.03263293 -0.18273047 0.06014649 -0.06957849 0.011813251 0.113756604
-0.03207555 -0.1718782 -0.13258934 0.14583361 -0.006103861 0.20175956 0.013911911 -0.10964545
0.06084118 0.2519804 0.09235207 0.05962943 -0.10768913 -0.12771186 0.120732166 -0.11810253
-0.05460517 0.05106669 0.05653818 0.019247632 -0.06715032 -0.04457145 0.06788043 0.066892736
0.13190977 0.0049841953 0.1293644 -0.086178534 -0.07300238 -0.08119344 0.0056512835 -0.13029402
0.14272632 -0.24149726 0.3778848 -0.1749627 -0.16752677 0.39826837 0.05281432 -0.06527109
0.5039225 -0.26388872 -0.07661113 0.49773788 0.31773394 0.014303574 0.16995358 0.11155463
0.3564734 0.055206407 0.34292412 0.5001767 -0.21472058 0.43292302 -0.08372692 0.3169617
-0.103296086 -0.114721626 -0.27485013 -0.50765955 0.32930997 0.24746446 0.11142342 0.07745847
-0.20941181 0.07270493 -0.055577535 0.21851577 0.19962975 0.42392159 0.20496424 -0.1327329
0.038821302 0.18874033 0.018811172 -0.1073467 -0.1278946 0.31441405 -0.09184252 0.4134384
-0.0854162 0.040643558 0.07344744 -0.06997688 0.016307004 0.17405795 0.07612951 -0.110708795
-0.12847051 0.13798383 0.034493603 0.09072723 -0.041844554 -0.009456113 -0.14914785 -0.0579029
-0.11790824 0.3949816 -0.7415768 0.7628326 0.15850233 -0.33760706 0.09357981 -0.11949873
-0.48957363 0.5976335 0.048723247 -0.41129425 -0.44472736 0.69586736 -0.25224185 0.112305485
-0.0038195907 0.016033601 0.06320735 -0.011785061 0.10697492 -0.061851185 -0.055145606 -0.009760166
0.033827838 0.15252066 0.3542453 0.12123956 0.14911516 -0.08677773 -0.0068814047 -0.095388144
0.41540977 -0.30073267 0.6877783 -0.25709456 -0.120203905 0.29330662 -0.06963724 -0.66386706
0.8343248 -0.3535519 -0.12712377 0.30470374 0.24168351 -0.19540371 0.31013975 0.15591379
-0.4760952 0.08840805 -0.37697697 -0.06120947 0.31183985 0.02623557 0.11273118 -0.1970102
-0.05276306 0.13441756 0.05804189 0.24224778 -0.26285607 0.08469432 -0.16920249 -0.035949416
0.02919868 -0.07023777 0.058838002 0.16960464 0.232912 -0.38069615 -0.2206561 0.017784378
-0.058524683 0.05662116 0.0680356 -0.66656065 -0.078142785 -0.09099909 0.08993257 0.094910234
0.20089771 0.063856356 0.084836155 -0.03236728 -0.08429108 -0.10047393 -0.113075964 0.34300885
-0.04806649 0.07308305 -0.5370927 0.10150296 0.2605806 -0.09097057 0.13204324 -0.092459425
-0.10459076 0.21521722 0.28011113 0.38685083 -0.17229417 0.18482491 0.33571595 -0.15726669
0.412112 -0.07486023 0.122719586 0.32266206 0.21382862 0.12817475 0.40970638 0.4269784
0.04234774 0.23857011 -0.052435793 0.015712947 -0.009379381 0.14086974 -0.03380313 -0.01910598
0.015278748 -0.0209637 -0.190037 0.08005633 -0.1400515 -0.014824118 0.03949652 -0.05354057
0.030911127 0.11070306 -0.1949203 0.22211081 0.17254356 0.09498575 -0.21479245 0.107571304
-0.29522598 -0.0016297768 -0.07860002 -0.12435237 -0.016276298 -0.09720721 -0.19083378 -0.25887814
00000000: 4eb1 d93b 5eb1 a83c c5c1 8e3d 65c6 04be
00000010: e176 98bd a474 fa3d 19f3 63be bf7d b63d
00000020: ceb5 1d3e 6a26 2f3e 1baa 053d b21d 3bbe
00000030: 2a5c 763d 2b7f 8ebd 5e8c 413c 39f9 e83d
00000040: a761 03bd d700 30be 80c5 07be 6855 153e
00000050: e602 c8bb 0f9a 4e3e c9ee 633c cb8d e0bd
00000060: 9a34 793d 9303 813e 1523 bd3d fd3d 743d
00000070: 1e8c dcbd e6c6 02be 6d42 f73d bddf f1bd
00000080: aca9 5fbd 4e2b 513d 9494 673d 36ad 9d3c
00000090: 1b86 89bd 8e90 36bd e504 8b3d 0fff 883d
000000a0: 5b13 073e 7652 a33b 1a78 043e 5f7e b0bd
000000b0: 4682 95bd bf48 a6bd 672e b93b cc6b 05be
000000c0: d926 123e 0f4b 77be 1e7a c13e 6c29 33be
000000d0: 238c 2bbe d5e9 cb3e d453 583d d9ac 85bd
000000e0: 1101 013f 6c1c 87be 4ce6 9cbd 80d7 fe3e
000000f0: 06ae a23e 8a59 6a3c 5008 2e3e c176 e43d
00000100: ae83 b63e 1d20 623d c093 af3e 950b 003f
00000110: b6df 5bbe 16a8 dd3e 0579 abbd ce48 a23e
00000120: e68c d3bd 2cf3 eabd 28b9 8cbe faf5 01bf
00000130: 519b a83e 5367 7d3e f631 e43d 8ca2 9e3d
00000140: 0d70 56be 53e6 943d 45a5 63bd 99c2 5f3e
00000150: be6b 4c3e 400c d93e 25e2 513e 22eb 07be
00000160: 1603 1f3d 2545 413e e319 9a3c 96d8 dbbd
00000170: cdf6 02be e1fa a03e ee17 bcbd 33ae d33e
00000180: b0ee aebd dc79 263d 9d6b 963d 0a50 8fbd
00000190: 4496 853c 3f3c 323e cae9 9b3d 4bbb e2bd
000001a0: c68d 03be a24b 0d3e 2a49 0d3d 33cf b93d
000001b0: 3265 2bbd d0ed 1abc 37ba 18be 972b 6dbd
000001c0: e079 f1bd 073b ca3e fad7 3dbf ff48 433f
000001d0: 6f4e 223e d5da acbe c5a6 bf3d c0bb f4bd
000001e0: 65a9 fabe 82fe 183f 0792 473d 2995 d2be
000001f0: 4eb3 e3be 5d24 323f d825 81be 6b00 e63d
00000200: 1952 7abb e658 833c db72 813d 2116 41bc
00000210: ab15 db3d ab57 7dbd 5ce0 61bd 1ae9 1fbc
00000220: 0f8f 0a3d 602e 1c3e a45f b53e 724c f83d
00000230: a5b1 183e 86b8 b1bd 687d e1bb dc5a c3bd
00000240: 97b0 d43e a2f9 99be 3d12 303f e6a1 83be
00000250: 772d f6bd 492c 963e f89d 8ebd 31f3 29bf
00000260: 4f96 553f c104 b5be bc2c 02be 2102 9c3e
00000270: e27b 773e e917 48be a3ca 9e3e dda7 1f3e
00000280: c0c2 f3be 480f b53d 2003 c1be c8b6 7abd
00000290: 79a9 9f3e faeb d63c 9bdf e63d 0bbd 49be
000002a0: 141e 58bd c2a4 093e 55bd 6d3d cd0f 783e
000002b0: 1295 86be 3774 ad3d 6b43 2dbe b23f 13bd
000002c0: 1232 ef3c d2d8 8fbd 1e00 713d d7ac 2d3e
000002d0: 7c80 6e3e 9bea c2be acf3 61be 8bb0 913c
000002e0: 94b7 6fbd 97eb 673d 4056 8b3d b8a3 2abf
000002f0: 5309 a0bd bb5d babd 912e b83d 4c60 c23d
00000300: 21b8 4d3e 1fc7 823d 94be ad3d 8e93 04bd
00000310: cda0 acbd 47c5 cdbd 5f94 e7bd db9e af3e
00000320: 5ee1 44bd 91ac 953d e87e 09bf c9e0 cf3d
00000330: d26a 853e c74e babd 5836 073e 5e5b bdbd
00000340: ae33 d6bd e761 5c3e ba6a 8f3e 5011 c63e
00000350: e26d 30be be42 3d3e f6e2 ab3e 850a 21be
00000360: 5800 d33e 5250 99bd 6854 fb3d f633 a53e
00000370: e4f5 5a3e 3e40 033e 09c5 d13e ea9c da3e
00000380: d374 2d3d b94b 743e eac6 56bd 70b8 803c
00000390: faab 19bc 2840 103e 2775 0abd 2584 9cbc
000003a0: b753 7a3c 11bc abbc 0f99 42be 93f4 a33d
000003b0: a969 0fbe dce0 72bc 1ac7 213d 5b4d 5bbd
000003c0: 5539 fd3c 49b8 e23d 3099 47be 0471 633e
000003d0: 42af 303e e487 c23d 8df2 5bbe 584e dc3d
000003e0: dc27 97be 3c9e d5ba 0cf9 a0bd 75ac febd
000003f0: df55 85bc 9314 c7bd ee69 43be ad8b 84be

gnn_layers.0.lin_l.bias f4 [32]
0.030633232 -0.24527651 0.0701151 -0.058248773 0.028321933 0.15488964 -0.15533665 -0.057018697
-0.1598102 0.11542031 0.112492695 0.10105828 -0.05132569 -0.005177093 -0.19422552 0.033330817
0.17095731 -0.1628587 -0.1191531 -0.067430146 -0.04909376 -0.004990254 0.17495197 -0.025795504
0.037426155 0.066622026 -0.10211794 0.08828082 0.10990169 0.046970475 -0.06506875 0.25268695
00000000: 8bf2 fa3c c429 7bbe 8198 8f3d 4496 6ebd
00000010: 6603 e83c 649b 1e3e 9210 1fbe 708c 69bd
00000020: 49a5 23be 7c61 ec3d 9262 e63d a5f7 ce3d
00000030: e33a 52bd 9ba4 a9bb 0ee3 46be e585 083d
00000040: 6f0f 2f3e 6ec4 26be 8a06 f4bd d118 8abd
00000050: 8a16 49bd 4985 a3bb 9c26 333e 1851 d3bc
00000060: 2b4c 193d 2171 883d 3623 d1bd 93cc b43d
00000070: 2314 e13d 1d64 403d c442 85bd 2f60 813e

gnn_layers.0.lin_r.weight f4 [32, 32]
-0.15168384 0.10290843 0.056974128 0.14696221 -0.10033045 0.0512762 -0.14904322 0.13673185
0.036040854 -0.08084311 0.004018576 0.026532358 0.050302424 0.18141915 0.12247199 0.056923356
0.11850153 -0.14484416 0.07208143 0.021886917 0.14344928 0.07659694 0.012670524 0.10200229
-0.05781551 0.09262902 0.035264157 -0.031666737 0.10885563 -0.13182782 -0.04438523 0.10939348
-0.047149483 -0.121419385 -0.025188651 -0.027575804 0.258446 -0.16689052 -0.13841632 -0.12233514
-0.1033689 0.13201241 -0.06816868 0.14825852 -0.16216531 -0.033776976 -0.06953442 -0.0045351125
0.2911161 0.01641028 0.5840138 -0.078603 -0.10496368 0.4545487 -0.41449347 0.21152395
0.23528539 -0.29408696 -0.4593424 -0.07082277 0.124938756 -0.23733938 0.049104117 -0.111542635
-0.08989474 0.0947259 -0.020146174 0.11481498 0.08067656 0.13611172 0.012051766 -0.030325986
0.15447998 0.0466915 0.026554111 0.02985244 -0.046297807 -0.18422465 0.05215821 -0.03767527
-0.21459356 -0.13818239 -0.26255342 -0.10034736 0.008300625 0.03957973 -0.24768654 0.20732167
-0.44338396 0.040140282 0.102369376 -0.41746885 -0.14057988 -0.2469226 -0.083971225 -0.1274916
0.040235125 -0.024740776 0.025836682 0.06264253 -0.15671661 -0.08704895 0.16898762 0.036810912
-0.08128151 -0.040261388 -0.037155505 -0.04711009 -0.08170703 -0.15860716 0.03548395 0.063714445
0.37362167 0.21242833 -0.14690582 -3.6407066e-05 0.20627126 -0.029502572 0.139131 -0.13601197
-0.012824061 -0.23311903 -0.09655693 -0.13198392 -0.18661897 -0.042875465 -0.077782385 -0.08111165
-0.02355745 0.14674222 -0.023962956 0.15297963 0.0053998153 0.16926299 0.13541907 0.05098567
-0.1414976 0.090204 0.050173443 -0.27845702 0.1143316 -0.03576821 0.28937542 0.15369338
0.30488512 0.076555006 0.24863507 0.22955272 -0.055270955 0.20257795 -0.13296531 -0.017777756
0.22474377 -0.001121785 -0.38441113 -0.39566755 0.15124835 0.21277004 0.122246996 0.2886881
-0.1086648 0.00033784535 -0.1487308 -0.17567961 -0.058830824 0.13021079 0.19210055 0.14004482
0.17746499 -0.10834271 -0.2732117 0.116560295 -0.11171864 -0.15615901 0.058250196 -0.046161775
0.3264909 -0.19596723 0.4084398 -0.036988642 0.014542414 0.21518615 0.3027397 -0.50980425
0.47520465 -0.21086182 -0.41091862 0.31205198 0.15122981 0.04784006 0.3805107 0.028839502
-0.053187255 -0.06355399 -0.13611689 0.103823364 0.15558703 -0.08459233 0.08681878 -0.12647055
0.070948556 -0.05757763 0.22025359 0.052562855 -0.091567725 0.08316334 0.018194966 -0.017029084
0.8777904 -0.1368406 0.5975693 -0.4192911 -0.19049408 0.35474712 -0.56529766 0.41602346
0.39036813 -0.21184592 -0.99832684 -0.18705337 0.013644579 -0.008084547 0.3455446 -0.33820063
-0.13760664 -0.05882615 -0.04587114 -0.061006274 0.26477984 -0.024002716 -0.050404012 0.23646715
0.10854373 -0.09294404 -0.06941315 -0.15023261 0.08405928 -0.06962134 0.115000084 0.12303296
0.12353048 0.08297303 -0.2996545 0.22486581 0.40516287 0.010222875 0.033587243 -0.37024653
-0.14095639 0.05784391 -0.24744138 -0.19997121 -0.048530966 0.2376047 -0.018330097 0.045028053
00000000: 0253 1bbe a8c1 d23d b45d 693d 437d 163e
00000010: 0d7a cdbd fe06 523d c99e 18be 6f03 0c3e
00000020: 939f 133d 1391 a5bd 42ae 833b 635a d93c
00000030: ea09 4e3d f1c5 393e 98d2 fa3d 7728 693d
00000040: eeb0 f23d 0752 14be 6e9f 933d 314c b33c
00000050: 5ee4 123e dbde 9c3d 0898 4f3c 94e6 d03d
00000060: f5cf 6cbd 49b4 bd3d 2671 103d fbb4 01bd
00000070: b3ef de3d dffd 06be 49cd 35bd b009 e03d
00000080: d11f 41bd baaa f8bd 6e58 cebc a7e6 e1bc
00000090: 0953 843e 59e5 2abe 02bd 0dbe d98a fabd
000000a0: 13b3 d3bd 432e 073e 059c 8bbd 15d1 173e
000000b0: aa0e 26be ba59 0abd 1068 8ebd 489b 94bb
000000c0: 2b0d 953e da6e 863c ee81 153f 9cfa a0bd
000000d0: 33f7 d6bd 9bba e83e 7d38 d4be bc99 583e
000000e0: a7ee 703e 9192 96be ed2e ebbe 870b 91bd
000000f0: e4df ff3d 1809 73be 6621 493d 7770 e4bd
00000100: bc1a b8bd a7ff c13d 9709 a5bc 1e24 eb3d
00000110: c139 a53d df60 0b3e c574 453c 346e f8bc
00000120: 0030 1e3e 963f 3f3d 0288 d93c 1b8d f43c
00000130: c5a2 3dbd 63a5 3cbe d9a3 553d 6251 1abd
00000140: 6abe 5bbe af7f 0dbe 676d 86be eb82 cdbd
00000150: 58ff 073c 5b1e 223d 8aa1 7dbe 224c 543e
00000160: 3903 e3be 236a 243d 09a7 d13d 7abe d5be
00000170: 2cf4 0fbe 47d9 7cbe 1bf9 abbd 288d 02be
00000180: 96cd 243d 2bad cabc 73a7 d33c ba4a 803d
00000190: 527a 20be b846 b2bd 170b 2d3e 0ac7 163d
000001a0: ec76 a6bd 20e9 24bd 5f30 18bd 82f6 40bd
000001b0: 0456 a7bd ea69 22be 9e57 113d b87c 823d
000001c0: 574b bf3e d086 593e 7b6e 16be cab3 18b8
000001d0: c638 533e 61af f1bc 5b78 0e3e b946 0bbe
000001e0: 031c 52bc c1b6 6ebe a4bf c5bd cb26 07be
000001f0: 0b19 3fbe 2f9e 2fbd 5f4c 9fbd dd1d a6bd
00000200: 8efb c0bc 9843 163e f64d c4bc b1a6 1c3e
00000210: eff0 b03b 4753 2d3e 4cab 0a3e 5ad6 503d
00000220: bfe4 10be e0bc b83d ab82 4d3d eb91 8ebe
00000230: b026 ea3d b081 12bd 0429 943e cc61 1d3e
00000240: e719 9c3e dfc8 9c3d 319a 7e3e de0f 6b3e
00000250: cc63 62bd 9870 4f3e 0f28 08be a8a2 91bc
00000260: 3b23 663e dc08 93ba 89d1 c4be f094 cabe
00000270: d9e0 1a3e 64e0 593e a25c fa3d edce 933e
00000280: a78b debd d620 b139 e34c 18be 5be5 33be
00000290: 97f8 70bd fa55 053e 02b6 443e e967 0f3e
000002a0: 62b9 353e c8e2 ddbd 67e2 8bbe 2ab7 ee3d
000002b0: becc e4bd 26e8 1fbe c297 6e3d 2114 3dbd
000002c0: d129 a73e a2ab 48be 051f d13e 6781 17bd
000002d0: 4e43 6e3c c259 5c3e b300 9b3e 8882 02bf
000002e0: 064e f33e 29ec 57be ed63 d2be 47c5 9f3e
000002f0: fddb 1a3e f0f3 433d 4cd2 c23e d240 ec3c
00000300: e1da 59bd 9828 82bd 3a62 0bbe 58a1 d43d
00000310: 3552 1f3e be3e adbd 0bce b13d 7f81 01be
00000320: 7a4d 913d 85d6 6bbd 288a 613e 264c 573d
00000330: dc87 bbbd 8b51 aa3d 9c0d 953c 9480 8bbc
00000340: dfb6 603f f11f 0cbe 4dfa 183f 53ad d6be
00000350: e110 43be 6aa1 b53e 59b7 10bf 0701 d53e
00000360: 55de c73e 23ee 58be 5992 7fbf eb8a 3fbe
00000370: 838d 5f3c 0c75 04bc 39eb b03e a228 adbe
00000380: c1e8 0cbe b0f3 70bd 60e3 3bbd b7e1 79bd
00000390: 3991 873e 58a1 c4bc 7074 4ebd 7224 723e
000003a0: 2d4c de3d 7259 bebd 7b28 8ebd 94d6 19be
000003b0: 4627 ac3d a295 8ebd 2a85 eb3d b4f8 fb3d
000003c0: 8cfd fc3d c4ed a93d 516c 99be 3943 663e
000003d0: 8271 cf3e d87d 273c c792 093d f490 bdbe
000003e0: df56 10be bced 6c3d 4661 7dbe 41c5 4cbe
000003f0: 68c8 46bd a54e 733e 0029 96bc 566f 383d

gnn_layers.1.lin_l.weight f4 [32, 32]
0.21702442 0.19566427 -0.34567493 -0.0711797 0.16443996 0.16522445 -0.12240266 -0.09450069
0.068695545 0.20803814 0.28164002 -0.32788163 -0.7679114 0.058443878 -0.2234312 0.32035363
-0.115809456 0.013028921 -0.37298316 -0.017526353 -0.11240143 0.10256937 0.08738594 -0.058511637
0.20192824 0.17446043 -0.10499923 0.36254263 -0.16502944 0.015780212 -0.08321904 -0.47913262
-0.019092014 0.07081398 0.0659553 -0.076022774 -0.04583813 0.056969434 -0.07328075 -0.040566206
0.11866671 -0.072286636 0.09516406 0.30282643 0.0060389424 0.24913387 0.12505166 -0.017621057
-0.29558867 -0.02002861 -0.23264965 0.15139848 6.039466e-05 -0.093370594 -0.056514263 0.26696253
0.21581231 0.07643087 0.13498281 -0.07418142 0.07215465 -0.012253917 -0.004329989 0.49222153
-0.026068605 0.26860157 0.11735184 -0.078535445 -0.24102473 -0.13320912 0.13812466 -0.09591109
0.13588846 0.08782016 -0.032094065 0.28591987 -0.32706967 0.039166853 0.08040881 -0.25963587
-0.041290373 0.35329577 0.024681745 0.1831722 0.1269756 0.017037079 0.17700413 -0.06810185
-0.2561188 0.46708903 0.08207169 0.34482265 0.17884132 0.0092373425 0.4455249 0.47604328
0.14415531 0.0017804055 -0.13363777 -0.15641107 -0.30866846 0.075244255 -0.037629865 0.00017891533
0.14293212 -0.06422428 0.07372536 0.20094414 -0.19416064 -0.046379507 0.25737974 -0.0036925443
-0.20318301 0.20265701 0.08755589 -0.2636818 -0.111931995 -0.03316206 -0.03396853 0.078938484
-0.09523284 0.1792647 -0.065469556 0.130991 0.055860963 -0.08958329 -0.08356942 0.4286138
0.13050492 -0.24183023 -0.10357788 -0.2525837 0.42313546 -0.004176224 -0.29727232 0.0695914
0.07331444 0.015888503 -0.10885587 -0.11980327 0.42784536 0.13759783 -0.2175086 -0.10657042
-0.060507808 -0.31335962 0.076957725 -0.044854566 0.07896917 -0.13012233 -0.018043945 0.14834313
0.33703014 -0.33352515 0.0010598231 -0.30996826 0.100481436 -0.21609843 -0.4175467 -0.12989995
-0.09939849 -0.12870003 0.09053747 -0.17469738 -0.09442053 0.04650953 -0.20573598 -0.025570769
0.007999324 -0.109532155 -0.07955515 0.10191508 0.1345546 0.18415835 0.16276297 0.06795699
-0.2964447 -0.19916181 -0.5149982 0.006540594 0.09116774 -0.23240972 -0.30587074 0.29149646
-0.2688288 0.08144413 0.11241498 -0.22944306 0.030146537 -0.24845457 0.1531093 0.13273096
0.04496787 0.08857938 0.019430216 -0.18192314 -0.15492032 0.07347732 0.11226864 -0.024218898
-0.030055823 -0.23471269 0.1293118 0.12573569 -0.2441103 -0.22011933 0.11738496 -0.02465403
-0.34079236 0.18180527 -0.26604208 0.05602547 0.097199515 0.2803081 0.22391856 -0.0359829
-0.14691368 0.1019792 0.15792978 0.3004252 0.27290007 0.11131686 -0.089950316 0.42209834
0.13230383 -0.05865558 0.19416225 0.14089993 0.3598234 0.016606225 -0.08908361 -0.14308053
-0.01326631 -0.013511321 -0.21269737 0.03665179 0.17773135 0.121148065 0.13025357 -0.05813743
-0.113112114 -0.13563755 0.2550333 0.15159763 0.05438854 -0.15542339 0.028828127 0.35198522
0.07250207 -0.37417984 0.101081 -0.21704385 -0.038978294 0.011570485 0.002255225 0.2621968
00000000: a63b 5e3e 375c 483e 4efc b0be aac6 91bd
00000010: f362 283e 9930 293e 3fae fabd 9489 c1bd
00000020: 40b0 8c3d f307 553e 1f33 903e 1ae0 a7be
00000030: d795 44bf d962 6f3d 26cb 64be 6405 a43e
00000040: 822d edbd 4177 553c a6f7 bebe 6d93 8fbc
00000050: b932 e6bd e40f d23d 66f7 b23d e6a9 6fbd
00000060: 47c6 4e3e c1a5 323e d609 d7bd 309f b93e
00000070: 7afd 28be 8145 813c be6e aabd df50 f5be
00000080: db66 9cbc ec06 913d 9313 873d d4b1 9bbd
00000090: c3c0 3bbd c858 693d 3814 96bd c028 26bd
000000a0: 8807 f33d 040b 94bd 60e5 c23d 110c 9b3e
000000b0: 52e2 c53b f31c 7f3e 8b0d 003e 095a 90bc
000000c0: 6657 97be 0a13 a4bc b63b 6ebe 3408 1b3e
000000d0: 4650 7d38 1539 bfbd 807b 67bd 50af 883e
000000e0: e7fd 5c3e ca87 9c3d ef38 0a3e 6eec 97bd
000000f0: d1c5 933d a7c4 48bc 95e2 8dbb 7604 fc3e
00000100: d48d d5bc 2586 893e 2956 f03d 31d7 a0bd
00000110: 30cf 76be f967 08be 8d70 0d3e 096d c4bd
00000120: 5826 0b3e 0edb b33d 1175 03bd 1764 923e
00000130: ad75 a7be 6c6d 203d 60ad a43d feee 84be
00000140: 1820 29bd 2fe3 b43e 5f31 ca3c 7e91 3b3e
00000150: e405 023e 5891 8b3c 9240 353e fc78 8bbd
00000160: 0122 83be 4b26 ef3e 3415 a83d 988c b03e
00000170: 2e22 373e 3958 173c d71b e43e f2bb f33e
00000180: 739d 133e 7f5c e93a 57d8 08be 392a 20be
00000190: cb09 9ebe a919 9a3d c621 1abd 389b 3b39
000001a0: cc5c 123e 0588 83bd 52fd 963d 4dc4 4d3e
000001b0: 0cd2 46be 70f8 3dbd 47c7 833e 9dfe 71bb
000001c0: 350f 50be 5285 4f3e 8150 b33d 4d01 87be
000001d0: 9a3c e5bd f1d4 07bd 9622 0bbd 80aa a13d
000001e0: 6f09 c3bd 2a91 373e e714 86bd 8122 063e
000001f0: 77ce 643d 7277 b7bd 7226 abbd 4573 db3e
00000200: 15a3 053e 58a2 77be a420 d4bd a752 81be
00000210: 36a5 d83e b5d8 88bb 1434 98be f085 8e3d
00000220: e225 963d 9b28 823c d4ef debd 6b5b f5bd
00000230: 8c0e db3e 72e6 0c3e 93ba 5ebe 9841 dabd
00000240: 09d7 77bd ac70 a0be 039c 9d3d 6cb9 37bd
00000250: 97ba a13d ca3e 05be e5d0 93bc 43e7 173e
00000260: 378f ac3e cfc3 aabe c3e9 8a3a 29b4 9ebe
00000270: 36c9 cd3d e848 5dbe aec8 d5be 7e04 05be
00000280: 6f91 cbbd f1c9 03be b66b b93d dfe3 32be
00000290: 8d5f c1bd c780 3e3d 74ac 52be ca79 d1bc
000002a0: 990f 033c 6552 e0bd cfed a2bd dab8 d03d
000002b0: aec8 093e 0294 3c3e 56ab 263e 092d 8b3d
000002c0: 9ac7 97be 13f1 4bbe ecd6 03bf 7b52 d63b
000002d0: 27b6 ba3d d0fc 6dbe 179b 9cbe 063f 953e
000002e0: eea3 89be 2ecc a63d d339 e63d 1ff3 6abe
000002f0: dff5 f63c e06a 7ebe afc8 1c3e a0ea 073e
00000300: 3b30 383d 1b69 b53d 1e2c 9f3c 0f4a 3abe
00000310: 6fa3 1ebe 477b 963d 1aed e53d b666 c6bc
00000320: a137 f6bc 8658 70be 506a 043e dbc0 003e
00000330: 0df8 79be f666 61be 8767 f03d 40f7 c9bc
00000340: 567c aebe 292b 3a3e ab36 88be f77a 653d
00000350: 8a10 c73d 8b84 8f3e e84a 653e ce62 13bd
00000360: 8a70 16be 79da d03d 58b8 213e 55d1 993e
00000370: 8fb9 8b3e 18fa e33d df37 b8bd 461d d83e
00000380: a87a 073e d540 70bd 78d2 463e 1248 103e
00000390: c63a b83e c709 883c 7871 b6bd b483 12be
000003a0: f05a 59bc 965e 5dbc 57cd 59be 3020 163d
000003b0: 35ff 353e 7a1c f83d 3161 053e 8421 6ebd
000003c0: 53a7 e7bd 92e4 0abe ba93 823e 693c 1b3e
000003d0: 85c6 5e3d 4f27 1fbe f728 ec3c 6837 b43e
000003e0: f77b 943d 8094 bfbe 8e03 cf3d be40 5ebe
000003f0: b4a7 1fbd 2292 3d3c 66cc 133b a93e 863e

gnn_layers.1.lin_l.bias f4 [32]
-0.065857224 0.12804194 0.061869256 -0.19220795 0.18611996 0.0044179196 -0.014669036 0.2818476
-0.03759909 -0.07715525 0.033866305 -0.023941604 0.20461914 -0.008237641 -0.13178487 -0.18245251
-0.089218214 0.064204276 0.083989784 -0.0024734477 -0.14251645 0.05351918 0.01959899 0.14228338
-0.012562001 -0.20294541 -0.18944143 -0.0154435625 -0.019843468 -0.09092845 0.011261834 -0.12632656
00000000: 27e0 86bd 6d1d 033e 9e6a 7d3d 29d2 44be
00000010: 3b96 3e3e 32c4 903b 6556 70bc 544e 903e
00000020: 8101 1abd 9203 9ebd 65b7 0a3d 2f21 c4bc
00000030: ae87 513e 2cf7 06bc 9df2 06be d5d4 3abe
00000040: 0ab8 b6bd 887d 833d d602 ac3d 9119 22bb
00000050: d5ef 11be ed36 5b3d 108e a03c bcb2 113e
00000060: dad0 4dbc ecd0 4fbe effc 41be ff06 7dbc
00000070: c58e a2bc b238 babd 8e83 383c c05b 01be

gnn_layers.1.lin_r.weight f4 [32, 32]
0.10191206 0.055543113 0.33289793 -0.6676362 0.06775149 -0.118435346 0.32498536 -0.35055226
0.15499273 -0.038436767 0.23624337 0.17043756 -0.6953248 -0.064870924 -0.079364076 0.2406166
-0.3447044 0.066148475 -0.4510246 0.27391413 0.13117768 -0.24139494 -0.091957174 0.06599581
0.37004787 -0.2789735 -0.24214089 0.27260956 0.023881283 -0.30412698 0.21057485 0.3891357
-0.15647003 -0.11379722 -0.07857494 0.2513102 -0.19549154 0.2700058 0.05576808 -0.11036594
0.10640073 0.32688248 0.078066304 -0.24918593 -0.6462867 0.12689383 0.032063827 0.24232969
0.31663725 0.41560403 -0.17137422 0.10485045 0.051672887 0.38607228 0.41059574 -0.07968229
-0.22687225 0.300156 0.00713622 0.24833612 0.11742838 0.039427184 -0.1769716 -0.26394093
-0.023637928 0.0358585 0.13710247 -0.06888436 -0.16034374 -0.12534468 -0.2012701 0.12161957
0.084540635 -0.1114321 0.21340007 0.10019048 -0.4298067 0.35153788 0.31001544 -0.046595212
-0.1473248 0.35990402 -0.18556969 0.11623903 -0.023214063 0.15158993 0.33640218 -0.38684052
-0.09324887 0.29169783 0.029640505 0.15988906 0.14636993 -0.16627672 -0.201295 0.2041061
-0.039914064 -0.015036636 -0.17610875 0.17423886 -0.1988743 0.16445775 -0.18722767 0.0074678455
-0.06482476 0.1211445 0.20761152 0.21028256 -0.4279612 0.08697549 0.06610064 -0.5210694
0.0902115 0.13313742 -0.0063725957 0.05175009 0.009201095 -0.09616884 0.0076828953 -0.02101175
-0.19881487 0.02774837 -0.05622028 0.12850742 -0.010445514 0.05896733 -0.15319441 0.24926282
0.030996833 -0.099428155 0.057257757 0.27840292 0.026120503 0.16288699 -0.18686241 -0.18783092
0.06735587 0.023559721 -0.70138645 -0.048087727 0.1389448 -0.19221511 0.19291052 -0.61640763
0.14688241 0.07190637 0.5972513 0.14550762 0.0976027 0.31264138 -0.36224878 -0.041251697
-0.63067585 -0.16048245 -0.061367806 -0.66432595 0.02143117 0.047975667 0.32562163 0.05325412
-0.1620446 -0.16150467 0.10527913 -0.1712475 0.107752 0.07358323 -0.48964128 0.108732566
0.0056796037 -0.119807854 -0.1193932 0.1290354 0.3622614 -0.033867557 0.019868989 -0.4031081
0.4022665 -0.03632241 0.39089993 0.010812148 0.051066823 0.15164472 0.13289113 -0.05890101
0.0740926 -0.056309544 0.19599806 -0.10127591 -0.05944631 0.21881725 0.13336846 0.16422987
0.05855181 0.02664317 -0.041165587 0.12117882 -0.112871975 -0.25796187 0.29624367 -0.04120028
0.056359082 -0.10712987 0.1439501 0.056955174 0.052785873 0.102524675 0.06531445 -0.1498982
-0.16013604 0.21265914 0.058960766 -0.0818643 -0.13802554 0.052308794 0.27710316 -0.009563345
0.12453931 0.20688234 0.13839172 0.013630611 -0.069075264 0.09859585 0.17054045 0.27838182
0.0192242 0.16909301 0.016026372 0.06896928 0.061770253 -0.4862407 -0.29552016 -0.14208385
0.10230096 -0.50506186 -0.30069804 0.260572 0.4363555 -0.26934394 0.044289198 -0.342272
0.012749084 0.02553812 0.41736484 0.18182284 -0.064543106 -0.3955796 -0.23891911 -0.025571875
-0.119659945 -0.5118653 0.08496693 -0.24212033 0.22607492 -0.13469267 0.17317481 0.12919918
00000000: 45b7 d03d 2d81 633d 9971 aa3e 35ea 2abf
00000010: 4bc1 8a3d 3b8e f2bd 7b64 a63e 967b b3be
00000020: 6ab6 1e3e df6f 1dbd c8e9 713e 2f87 2e3e
00000030: ce00 32bf 0cdb 84bd a289 a2bd 3364 763e
00000040: 187d b0be da78 873d b2ec e6be 793e 8c3e
00000050: 7153 063e 3c30 77be 0b54 bcbd d028 873d
00000060: ea76 bd3e 9dd5 8ebe c8f3 77be 7b93 8b3e
00000070: aea2 c33c 88b6 9bbe efa0 573e cb3c c73e
00000080: ae39 20be 840e e9bd e6eb a0bd bbab 803e
00000090: ef2e 48be 333e 8a3e 126d 643d 8a07 e2bd
000000a0: a0e8 d93d 245d a73e 3ae1 9f3d 992a 7fbe
000000b0: 0c73 25bf 75f0 013e 5c55 033d 4625 783e
000000c0: 471e a23e 0dca d43e b97c 2fbe d5bb d63d
000000d0: f3a6 533d 44ab c53e 9b39 d23e 7830 a3bd
000000e0: 3351 68be 0cae 993e f4d6 e93b d34b 7e3e
000000f0: 4a7e f03d 667e 213d 0b38 35be 4423 87be
00000100: 54a4 c1bc 5de0 123d 9764 0c3e 3e13 8dbd
00000110: 2631 24be 5b5a 00be c019 4ebe ae13 f93d
00000120: a423 ad3d 8336 e4bd 8c85 5a3e ab30 cd3d
00000130: a00f dcbe c6fc b33e 58ba 9e3e 9fda 3ebd
00000140: 50dc 16be 5745 b83e fb05 3ebe bb0e ee3d
00000150: 6b2b bebc 643a 1b3e e83c ac3e f60f c6be
00000160: 43f9 bebd 6b59 953e a5d0 f23c f5b9 233e
00000170: 00e2 153e 7244 2abe 4720 4ebe 3101 513e
00000180: ee7c 23bd 395c 76bc da55 34be ac6b 323e
00000190: b4a5 4bbe 9d67 283e 9cb8 3fbe d4b4 f43b
000001a0: d8c2 84bd 9c1a f83d 1d98 543e 5054 573e
000001b0: bb1d dbbe 3520 b23d c65f 873d ce64 05bf
000001c0: cfc0 b83d 2d55 083e 35d1 d0bb e7f7 533d
000001d0: 31c0 163c 2bf4 c4bd ccc0 fb3b d520 acbc
000001e0: 2096 4bbe 8d50 e33c 3c47 66bd 7397 033e
000001f0: a923 2bbc ba87 713d ffde 1cbe c13e 7f3e
00000200: 12ed fd3c fda0 cbbd 1c87 6a3d d48a 8e3e
00000210: aafa d53c d9cb 263e dc58 3fbe c056 40be
00000220: e0f1 893d 5100 c13c 108e 33bf a3f7 44bd
00000230: 8c47 0e3e 0ad4 44be 568a 453e e4cc 1dbf
00000240: 5868 163e a643 933d 76e5 183f f3ff 143e
00000250: ede3 c73d 8812 a03e ac78 b9be 8af7 28bd
00000260: f973 21bf 8355 24be cf5c 7bbd 4411 2abf
00000270: 6c90 af3c 2282 443d e1b7 a63e fe20 5a3d
00000280: 05ef 25be 7b61 25be 969c d73d 815b 2fbe
00000290: 15ad dc3d ceb2 963d 43b2 fabe 2eaf de3d
000002a0: f81b ba3b d25d f5bd 6c84 f4bd db21 043e
000002b0: 547a b93e b5b8 0abd 4ac4 a23c 2f64 cebe
000002c0: e0f5 cd3e cfc6 14bd 0924 c83e 7025 313c
000002d0: 722b 513d c148 1b3e 9d14 083e 2f42 71bd
000002e0: dcbd 973d d6a4 66bd b7b3 483e bf69 cfbd
000002f0: f97d 73bd a111 603e be91 083e e02b 283e
00000300: 06d4 6f3d c742 da3c 3f9d 28bd 9a2c f83d
00000310: 6c29 e7bd 9413 84be 40ad 973e a0c1 28bd
00000320: c8d8 663d e866 dbbd a867 133e d449 693d
00000330: 0036 583d 75f8 d13d 95c3 853d ea7e 19be
00000340: b4fa 23be 51c3 593e d880 713d 78a8 a7bd
00000350: 9156 0dbe bf41 563d 77e0 8d3e 94af 1cbc
00000360: 770e ff3d f7d8 533e 8fb6 0d3e ed52 5f3c
00000370: 5577 8dbd 9fec c93d 28a2 2e3e 1088 8e3e
00000380: 127c 9d3c b826 2d3e bd49 833c c43f 8d3d
00000390: ce02 7d3d 8bf4 f8be 6b4e 97be 6e7e 11be
000003a0: 2a83 d13d bc4b 01bf 18f5 99be b169 853e
000003b0: fd69 df3e 73e7 89be 9768 353d 473e afbe
000003c0: 89e1 503c 5235 d13c d8b0 d53e c42f 3a3e
000003d0: 2d2f 84bd 6989 cabe 36a7 74be 1c7c d1bc
000003e0: 4610 f5bd 9b09 03bf 2403 ae3d 64ee 77be
000003f0: 2f80 673e e0ec 09be bd54 313e ca4c 043e
