baseline/DLPL-CAP/models_dlpl-cap-classifier/sandwich+ultra8t_to_ssram+digtime+timing_ctrl+array_128_32_8t/dlpl-cap-classifier_nh_2_tsk_regression_ngl_4_nhl_4_hd_32_us_1_bn_0_dp_0.0_epoch_1_20250402_121006.pth (torch, 63106 bytes, 24 tensors)

net_attr_layers.weight f4 [16, 17]
00000000: 67d6 d6bc 8fc8 b0ba 469c 93be a024 643e
00000010: 9b17 efbe c40d 36be c3d3 f1bd ffda 113e
00000020: d8ef 5a3e 8933 36be d9de 573e cced 393d
00000030: eb7c 373e 4d8a 063d 5382 ef3d 2f85 02bf
00000040: ddd1 cdbc 69ce b63d 4172 51bd 23e7 a23d
00000050: 96da e4bd 565e 46bc 2f5d 12bd a2c0 243e
00000060: 920b 44be 64fd e4bd 5a42 8cbd 7554 15be
00000070: 7886 bb3c e84b 75be 014b 603e 8ff8 52be
00000080: bf54 043f 9542 ba3e 4a67 7fbe 6b77 5cbb
00000090: e87f 38be b6a9 483e 451b aebe c812 7cbe
000000a0: 6b75 853d c6b2 86bd 9f0b d13d f8bc 5d3e
000000b0: 9990 0f3e 3626 d9bd 0f5e 0f3e fdbf 313d
000000c0: 8c3f fc3d e381 1bbf a081 41bf 1c9c 643d
000000d0: 99bd 12bc e169 773e a311 8f3d 1da9 583e
000000e0: ac27 863e bd40 8abb a75d 423e ed75 30be
000000f0: fd32 7a3c 6683 29be 9529 993d 240f abbd
00000100: 7033 983d c9f8 4ebd c48e 063f a0d3 a2bc
00000110: be6f dcbd 8921 bfbd cbe6 463e b887 a53d
00000120: 42ef 543e 6231 16be bf56 76be 1c4e 42be
00000130: 1311 27be 4e30 c93d 65dc b13d 8e5d 4e3e
00000140: f141 00be bb4e 29be c4c5 033e e60e 673d
00000150: de5e ca3e 4390 9abe 1de1 d2bd ad46 d7be
00000160: 84aa fabd 16c2 68be 7ef0 48be 5a48 7dbd
00000170: a709 143e c4d5 283e fc19 34be f296 04be
00000180: 1b69 633e 6b9b a7bd c717 b0bd f34e 70be
00000190: 011e 19bf 20af 92be d7f8 673e 3ff8 9c3d
000001a0: d8b5 7f3e d1a5 29be f9dd 3d3e 8b12 113e
000001b0: 565d 59be 5523 1ebe 6442 783e 1ea2 3b3d
000001c0: 2211 993d 60a3 67be 311d 23be 7455 a5bd
000001d0: d757 1b3d afe2 48bd a132 843c 73e5 4dbd
000001e0: 98ac 8f3d 8509 bf3d 30ae 89bc 1403 a3bd
000001f0: a49b d7bd 41e4 10be 0906 aabd e505 44be
00000200: 4b3d 503e c928 45bd 63af 553e 51c4 9a3d
00000210: b94e 52be 16df 2b3e a149 f03d 6ec8 54be
00000220: d151 a7be 727e acbe 8da5 23be ff01 59bd
00000230: c4bc 6cbe 8e39 9bbe 1863 383e 974e 36be
00000240: c689 2bbd 1f7f 4f3d e836 003e 3180 483e
00000250: 1d3e 623e 67ed 44be 4503 7a3d 0283 1abf
00000260: 2555 14bf 2368 11bc 35ed cc3e fe65 5ebd
00000270: 03bc 043e a116 b93e 7f54 8c3e e245 06be
00000280: 77be 613e 454e 5a3d b796 ff3c 87dd 5abe
00000290: ae83 d03d cb08 15bd 678e e3bd 2f53 553e
000002a0: 9b09 e83e c99d 123e fe46 ab3d 2e24 423e
000002b0: 91db b03e 9ada 7dbd eb53 833e 66f9 103e
000002c0: 778a 39be db24 b13d e73c 403e 14d0 69be
000002d0: 4eb9 663d 864c 003e 2623 343d 48e4 b0bd
000002e0: b2a0 013e 2c4a 0d3f 5a44 1c3e 64c4 b2bb
000002f0: aa05 b3bc 2202 533d 257e 2fbd a357 4e3e
00000300: 2c16 683e fc6f 553e 6db1 c4bc c96c 5ebd
00000310: 16f1 673b 4943 6dbc afd4 6e3d 1732 8b3d
00000320: 4b92 61be 4b4e b7bd f839 803e 864c 383c
00000330: 3039 3bbd 5c29 18be 1b87 9dbe 3178 5ebe
00000340: 9cf6 86be d360 a63d 835b 1e3e c054 e53d
00000350: 8188 5bbe 2e5a 15be 76c7 1cbd 5d3f 703e
00000360: ddb4 0f3d 56a2 80bd 6b7f cd3d ed20 eabe
00000370: 88a0 00bf 148b 36be fa10 debe 3e97 e7be
00000380: eb10 77be d38d 9ebe dbb6 19be b106 b53d
00000390: 2d2c 2dbe e81c 75be bcb5 49be 1133 393e
000003a0: 8979 ee3d 3bfe 503e 421b 023e a66d 7b3d
000003b0: a37f 2dbe e896 b2bd 75a3 d0be cb32 c9be
000003c0: 2115 63be c3de f3bd 0d7d fabe 99ba a4be
000003d0: 8e06 35bd 4dcd 2ebe af47 22be dbc3 a43d
000003e0: 0d9f 93bd 3952 193e 9159 9fbd a92f 36be
000003f0: 6d47 2fbd ba5e 1dbf 592f 9bbe 6084 cabe
-0.026225282 -0.0013487505 -0.28830165 0.22279596 -0.46697697 -0.17778689 -0.118079685 0.14243697
0.21380556 -0.17793097 0.21081103 0.045392796 0.17918746 0.032846738 0.11694779 -0.5098447
-0.025124485 0.08926088 -0.05113435 0.07954242 -0.111745045 -0.012107452 -0.035733398 0.16089109
-0.19145039 -0.11181143 -0.06848593 -0.14582999 0.022891268 -0.23954737 0.21903612 -0.2060263
0.5169181 0.36378923 -0.24941745 -0.0033640515 -0.18017542 0.1959599 -0.3400518 -0.2461654
0.06516536 -0.06577067 0.10207295 0.21654117 0.14020003 -0.10602991 0.14000724 0.043395985
0.12316808 -0.60745066 -0.7558842 0.05581294 -0.008956336 0.24161483 0.06985786 0.21158262
0.26202142 -0.004219143 0.18981038 -0.17232485 0.015270946 -0.16554031 0.07478634 -0.08352497
0.07431686 -0.05053023 0.52561593 -0.019876301 -0.10763501 -0.09332568 0.19423978 0.08082527
0.20794395 -0.14667276 -0.24056529 -0.18975109 -0.16315107 0.098236665 0.08684615 0.20152876
-0.12525155 -0.1653394 0.1286841 0.056410693 0.39525503 -0.30188188 -0.10296843 -0.4204611
-0.122395545 -0.22730288 -0.1962299 -0.061836578 0.14456807 0.16487795 -0.17588037 -0.12948206
0.22208063 -0.081839405 -0.08598285 -0.23467617 -0.5981141 -0.28649235 0.22653519 0.07664537
0.24971712 -0.1656716 0.18541707 0.1416723 -0.21227011 -0.15443166 0.24244076 0.045808904
0.07473971 -0.22620916 -0.15929104 -0.080729395 0.037925567 -0.049044307 0.016137423 -0.050267648
0.070153415 0.093279876 -0.016806692 -0.079595715 -0.10527733 -0.14149572 -0.08301932 -0.19142874
0.20335881 -0.0481346 0.20867686 0.07556976 -0.20537843 0.1678432 0.117327936 -0.20779583
-0.32679608 -0.3369022 -0.15981121 -0.05298042 -0.23118883 -0.30317348 0.18006551 -0.17803417
-0.041879438 0.05065834 0.12520945 0.19580151 0.22094007 -0.19231187 0.061038274 -0.6035615
-0.5794242 -0.008874926 0.40024725 -0.054296486 0.12962346 0.36150077 0.27408215 -0.13112596
0.22045313 0.0532973 0.031199796 -0.21373568 0.10181366 -0.03638534 -0.111111455 0.20832513
0.45319828 0.14318003 0.0836315 0.18959114 0.34542516 -0.061976053 0.25649962 0.14157638
-0.18119226 0.08649608 0.18773232 -0.22833282 0.056329064 0.12529191 0.043978833 -0.08637291
0.12658957 0.551913 0.15260449 -0.0054555405 -0.021853287 0.051515706 -0.04284491 0.20150618
0.22664708 0.208435 -0.024010384 -0.054302964 0.00353915 -0.014481374 0.0583083 0.06796663
-0.22028463 -0.0895048 0.25044227 0.011248713 -0.045708835 -0.14859527 -0.3076714 -0.21725537
-0.26360023 0.081239365 0.15464596 0.111978054 -0.21438791 -0.14585182 -0.03827616 0.23461671
0.035084594 -0.06280963 0.10034069 -0.45728245 -0.5024495 -0.17826492 -0.43372327 -0.45232576
-0.24127547 -0.30967578 -0.1501116 0.08839167 -0.16911383 -0.23936808 -0.19698232 0.18085887
0.11644275 0.20409481 0.1270571 0.061383866 -0.16943221 -0.08720189 -0.40749708 -0.39296564
-0.22176029 -0.11907723 -0.4892353 -0.32173613 -0.044195704 -0.17070504 -0.15847658 0.08045169
-0.07208071 0.14972772 -0.07780755 -0.17791618 -0.042792726 -0.61472666 -0.3030956 -0.3955412

net_attr_layers.bias f4 [16]
00000000: a083 053e 7be9 b73d 4748 6f3e bbef f5bc
00000010: e403 70be 44cd ec3d 8411 173e 01b6 6dbe
00000020: a8f5 6a3d 3a07 0cbe a43b 85bc 6600 31bd
00000030: 1cd7 6cbd 94dd 08be addf 5ebe 7a5a 663e
0.13038492 0.0898008 0.23367415 -0.030021539 -0.23438984 0.11562589 0.14752775 -0.2321396
0.057363182 -0.13674632 -0.01626379 -0.04321327 -0.05782233 -0.13365775 -0.21765013 0.22495452

dev_attr_layers.weight f4 [16, 17]
00000000: 96d8 553e 0e56 1fbf d555 9c3e b8fd 82bf
00000010: 232f 7ebf cdaf 71be 899b b83d f35b 08be
00000020: a4a9 1fbe 4105 9bbc 3469 a5bd 6cb2 a0bd
00000030: 155c ff3b cdb7 52bd 2351 e6bd 09c9 5cbf
00000040: 8b1e 4abe b2d7 5d3e 1a5f 403f aabe 40be
00000050: 1f1c 473f ddbe 383f f88a 673e d0d8 e43d
00000060: c439 57be 9225 c53d 28c0 6b3e 49ad 823d
00000070: 1b81 263e ffd9 743e be38 18bd df6b 903d
00000080: 2cb2 24bf eab8 4cbd 992c 0e3e 68c7 66bf
00000090: ae11 bb3d 89ee acbf 2abc 8ebf f318 75be
000000a0: 3ca4 3fbe f1ab 75bd 309c 273e 2848 263d
000000b0: bbe6 3cbe cd3c 47be 371a f73d e1bc 38be
000000c0: 2b6b b1bd b4a3 193e 7fe2 e5bd 7c16 84bd
000000d0: 1214 2a3f 8371 fcbe 7704 4a3f dd99 093f
000000e0: bdc2 48be 41fc 04be 3fdf 6f3e 6feb efbd
000000f0: 40c7 26be facc 703d 33e6 883d b213 083e
00000100: e4c7 3c3e a883 013e de61 b2bd 0d36 b03c
00000110: c7f2 123e 0d06 333f b202 58be 6bc8 553f
00000120: 64cd c93e 8166 0dbe 34e8 5fbe a87f 313c
00000130: 261c dc3d 56e8 5b3d 2073 443d b659 3cbe
00000140: dcef 67be e0f2 8b3b c0ab 5b3e 2d3b c3be
00000150: 069a 10be 9847 84bc 8de0 acbf ecf1 c3bd
00000160: 7af1 9bbf 562f 63bf 1abb 4d3e 8104 64be
00000170: 0f0e 263e f329 2fbe b300 ba3d a62b 523e
00000180: 7433 5f3b fbf4 613e cd9c 53be 90eb a2bd
00000190: ccd5 6a3e 816f 58bd f164 c1bc 7082 8a3d
000001a0: 2893 c6be 2cab 393f bba7 143f 3c91 0bbe
000001b0: 709a 49be 2ce6 d63c 602a 933d 9956 e5bd
000001c0: a8fa 8abd 61bb 273e a345 9e3c 7149 333c
000001d0: aa1c 423c 7a8f c83e df84 69be 4cf4 bdbd
000001e0: 01b0 c43d f754 183f 94dc abbe 50e3 9bbe
000001f0: 5cca 6c3e 3804 ad3d cd0d 313e 0f77 f0bd
00000200: 09e4 cabd e78f b63d 4779 25be 055a 22be
00000210: b7ed 3fbc b385 e1bd a4c0 4dbf 9b50 133e
00000220: 4ea6 283e f40b acbf fc61 15bd f492 c7bf
00000230: f067 8dbf 76e9 7c3d 2c37 ea3d 412c fbbc
00000240: 7b60 c4bd 0564 0a3e 81ca 45be 3cf7 1c3e
00000250: c3b3 c0bd c846 733b 92f6 9dbd 87d3 df3e
00000260: 1a1b 96bd bfe6 183e 6dd3 233f e605 33be
00000270: 7cf3 8e3f 11c0 1e3f a62d 35be c441 473e
00000280: 979d 423e c5a1 3dbe 1697 99bc 2ee9 74be
00000290: ec4d 4bbe 70df 3f3d 9124 843d 775f 543d
000002a0: 16da cd3e cf20 653e 6be0 bbbc 5c0a 7f3e
000002b0: a515 acbe 4f58 493f 5ce7 2b3f ad9b 2fbe
000002c0: b029 ba3d f4c2 fdbd 925e 4ebe 76a7 07be
000002d0: 6e84 6f3e 3a4f 543e 3d66 5e3e bdc9 113e
000002e0: d1ed 223e 6233 1e3f 15a7 08be 8c1f 3f3d
000002f0: 0da9 53bf 8a75 f6be 1517 a6be 1781 33be
00000300: c6b4 ff3d 84ed c0bd 9c2c 12be 9a01 063d
00000310: ba63 12be 00b2 21be cf74 013e 59e1 26bd
00000320: c5f1 623e d040 493e a5ee 473f 95f2 aa3d
00000330: 5244 e13c 4bf9 07bf a4f8 7cbe 6dd0 3abe
00000340: badc 8cbd 24ea 663e 49ba 80bd e9f7 d1bd
00000350: a592 70bd 5df9 efbd bdeb 283d a362 393e
00000360: 8b35 423e b80d e43d 5fd3 36be ab4b 003f
00000370: 5b44 5abd 8620 8ebc f40f d53d 4d19 42bf
00000380: de18 863e 799d 1f3d 7025 1dbe af7a 4ebe
00000390: db65 583e bb2d 6bbe 145a 3b3e 6795 05bc
000003a0: 8711 e7bc 7657 1b3e d5a3 b7bc 3cfd 4e3e
000003b0: 0998 acbd 27a0 57be 42c1 083e 54c6 b3be
000003c0: 5cc6 54bd 028d f9be 71c4 9ebe bef3 eebd
000003d0: 3833 febc ecf7 6b3e b1db 263e 3049 15bc
000003e0: 4296 69be 9828 2e3c cb1f 29be 1df6 493e
000003f0: cf2c e1bd 3db0 c6be cd7b 5cbd b6da 323b
0.20883402 -0.62240684 0.30534235 -1.0233679 -0.99290675 -0.23602219 0.09014041 -0.13316326
-0.15592057 -0.018923404 -0.080767065 -0.07846531 0.0077929595 -0.051444817 -0.11245944 -0.86244255
-0.19738214 0.21664312 0.75145113 -0.18822733 0.77777284 0.72166234 0.22611606 0.11174166
-0.2101813 0.096263066 0.2302252 0.06380708 0.16260187 0.23911284 -0.03716349 0.07051825
-0.6433437 -0.049981035 0.138842 -0.9014802 0.091342315 -1.3510295 -1.1151173 -0.23935299
-0.18714994 -0.05997843 0.16368175 0.040596157 -0.18447392 -0.19456787 0.12065547 -0.18040802
-0.08663019 0.15003854 -0.11224841 -0.06449601 0.66436875 -0.49305353 0.7891306 0.537504
-0.19605537 -0.12986852 0.23425005 -0.11714827 -0.16286945 0.05878923 0.06684532 0.13288763
0.18435627 0.12647879 -0.08710073 0.021510148 0.14350425 0.6993111 -0.21094778 0.8350894
0.39414513 -0.13808633 -0.21865922 0.010833658 0.107475564 0.05368837 0.047961354 -0.18393597
-0.22650093 0.0042708963 0.21452236 -0.38131085 -0.14121255 -0.01614742 -1.3506027 -0.09567627
-1.2183068 -0.88744104 0.20090905 -0.22267343 0.162163 -0.17105846 0.090821646 0.20524463
0.0034057768 0.22066109 -0.20665284 -0.07955086 0.2293312 -0.052840713 -0.023607703 0.0676316
-0.38784146 0.7252681 0.58068436 -0.13629621 -0.1968782 0.026232801 0.07185817 -0.11198158
-0.0678609 0.16380073 0.019320315 0.010942803 0.011847654 0.39171964 -0.22804593 -0.092751116
0.096038826 0.59504646 -0.33566725 -0.30446863 0.23124069 0.0844807 0.17290421 -0.117414586
-0.099067755 0.08914166 -0.16159545 -0.15854652 -0.0117143905 -0.11011829 -0.8037207 0.14386217
0.1646969 -1.3441148 -0.0364704 -1.5591722 -1.1047344 0.061746083 0.114363045 -0.03066075
-0.09588715 0.13514717 -0.1931553 0.15328687 -0.09409287 0.0037121046 -0.07713045 0.4371607
-0.07329388 0.14931773 0.63994485 -0.17482719 1.1168056 0.6201182 -0.17693195 0.19458681
0.19005428 -0.18518741 -0.018748801 -0.23917076 -0.19853944 0.046843946 0.06452287 0.051848855
0.4020545 0.22375797 -0.02293416 0.24906296 -0.33610263 0.78650373 0.671499 -0.1714923
0.090899825 -0.123907 -0.20153263 -0.13247475 0.23390362 0.20733348 0.21718688 0.14237113
0.15911032 0.61797154 -0.13344987 0.046660945 -0.82679826 -0.4813655 -0.32439485 -0.17529713
0.12485652 -0.094203025 -0.1427483 0.03271637 -0.14295855 -0.15790558 0.12642215 -0.040742252
0.2216254 0.1965363 0.7809852 0.0834705 0.027498398 -0.53114766 -0.24704224 -0.1824357
-0.06878038 0.22550255 -0.06285531 -0.10252363 -0.0587336 -0.11717484 0.041240443 0.18104033
0.18965738 0.11135429 -0.17854069 0.5011546 -0.053287845 -0.017349493 0.104034334 -0.75819856
0.26190847 0.038968537 -0.15346313 -0.20163988 0.21132605 -0.22966664 0.18296081 -0.008153296
-0.0282066 0.15170082 -0.022416988 0.20213789 -0.08427436 -0.21057187 0.13354972 -0.3511225
-0.051946983 -0.48740393 -0.31009248 -0.11667584 -0.031030282 0.23043793 0.16294743 -0.009111688
-0.22811225 0.0106297955 -0.16516034 0.19722791 -0.10994875 -0.38806334 -0.053829003 0.0027291006

dev_attr_layers.bias f4 [16]
00000000: 1e2a 2f3e ba05 793e 5450 e6bc abae 7cbe
00000010: 19c2 31be e295 0abe 9e99 40be 8a70 c9bd
00000020: fbd5 81be 906b 80be 0f77 4fbe a1b8 a0be
00000030: 3380 35be eaba f53d a859 783e 86a0 e6bd
0.1710591 0.24318591 -0.028114475 -0.24676006 -0.17359199 -0.13533738 -0.188086 -0.09835918
-0.25358567 -0.25082064 -0.20260261 -0.3139086 -0.17724685 0.11998542 0.24252951 -0.11261086

pin_attr_layers.weight f4 [17, 16]
00000000: 47d1 61bf 3510 99bf 26d6 603e d30a 64bf
00000010: e48f ebbf e082 66be 27ff 36bf 7cc7 2040
00000020: 66d1 04bf d7b1 aebf 91f6 413f 1eaa 85bd
00000030: bb5d eebe 2654 efbe afee b7bf 71ee 87bf
00000040: 645d 9c3e 1dad 1d3d a94c 603f 90ad 6bbe
00000050: 5b22 63bf 90bc de3e b5fd 703f b011 a6bf
00000060: af0f 303f d7d2 a6bf abb1 98bd 6a2f 163f
00000070: 76f6 1e3f d562 d03d edca f23f 6fef 283f
00000080: f1f5 03c0 3605 2340 19b5 8dbf ae5b 6a3f
00000090: 0380 92be b56d 21c0 45bd 963f bf98 983e
000000a0: d7f8 84bf 190e ec3f 4f7d db3f 956c 93be
000000b0: e9b6 d03e f018 153f 6467 343f 9fb9 9d3f
000000c0: c9db d3be 71b6 043f ea97 33bf c95b ddbe
000000d0: 5cdf 103e c79e 913d e837 103f 7921 14bf
000000e0: 57ba 8abf 4f21 c7be 3f07 503f 5bc2 bf3f
000000f0: 62cc 333d 96df b83f fd98 6d3e e0a9 013f
00000100: 55ac a3bf 1f66 1dbd 6ef7 f43f f8f9 ac3e
00000110: b60e 003e 5c1c 43bf 4564 98bf 348e 463f
00000120: 1f54 e93e 4c2b 803e 6e38 aebf 80a2 e63f
00000130: 9740 98bd a566 20be bbef 5ebf f31e 24bf
00000140: 9541 d4be 71b3 30bf a379 6bbe b306 0bc0
00000150: 4593 b33d 2201 8c3f 7d17 f1bd c4e7 98be
00000160: 7b20 74bf 5e62 bdbd bd21 82bf 5a84 fbbb
00000170: 1faa 04bf 43ec 563f 77b5 6f3d 2789 d5bf
00000180: c64b 0840 a552 c2bf ca0e 0e3e 4602 97bf
00000190: 1e9d 07bf 6f67 763f 8912 8f3e bd62 12bf
000001a0: d1ca 32c0 390e 36bf 8905 063f 4ef3 dabf
000001b0: faa6 563f 2c29 8abe b607 fc3d 3a31 603f
000001c0: 3ff6 1a3e e348 3d3f 2dd4 8b3e 7dcc 2e40
000001d0: ca2f dd3e 204d 9ebe 63cc c5bd cd5d c53f
000001e0: 95b5 debd a17a d6be c11e b83f a4f3 34bf
000001f0: f23f a0bf 659a 4140 3752 ac3f 0f09 5b3f
00000200: 0ae1 a43e 8961 e43e 54f0 c23f 18e7 a33f
00000210: 85e5 edbd bc6d af3f 863d f6be 6188 7dbf
00000220: 7e9d aebf 0071 063c e8cc cfbe bb09 36bf
00000230: 11fc b2be 706e c23e 64d2 7f3f 4639 a33f
00000240: 51a1 753f 0dfd d33d a33b 543f 73e5 0540
00000250: 6899 4b3f 6afe 8e3e 2fec 3e3e fb9c b53e
00000260: aea0 b93d 3902 df3f 540c a2bf 1640 c73e
00000270: 528d af3e 9ac2 babf 2030 bfbf ceb2 62be
00000280: 05a4 663e d332 9ebd 7a56 7c3f 87a0 a33f
00000290: a588 933e 097a 5e3f e148 4fbf ab05 b7bf
000002a0: 2404 eb3e 37eb 073f fc44 aebf 5f66 fa3f
000002b0: e05d e23f 4b5d 7cbf 8058 9ebf ec51 13c0
000002c0: 5c36 84ba f673 59bf f666 d4bf 1fd2 9c3e
000002d0: 3c4d 973f 01ed a63e 9865 c7be 2cae 3640
000002e0: 9709 533f 7960 4c3f 7bcb f13f 2eed 173f
000002f0: fda6 8e3d 523d cdbf 9b11 dcbe 247f 133f
00000300: 5e50 b03e b680 46c0 6cb7 babf 1146 b7bf
00000310: ab6c 1bbf 5dfc 84be 9a11 38bf a38b c5be
00000320: 6efa 053f a538 52bf bb15 f1be 3b05 1a3f
00000330: 51a5 90be bfee 443f 1053 44bf 8f11 73bf
00000340: 5b96 8a3c 7b68 a43d ebad 3e3f da38 ac3f
00000350: 99dd 013e beee 1cc0 d3fa d43e 4a86 f33f
00000360: 5513 3cbf 66ea 363d 0eb4 c2bf c517 b23e
00000370: 427c 3d3f 0746 b53f 2bf3 2e3f e391 0dbe
00000380: 49da 6b3f 063b 073f 5bd0 06bc b683 b9bf
00000390: 3ced 1abf 088c 37be 1e59 4c3e 4f83 9fbf
000003a0: 5f46 d4be f359 ba3f 7ace a93e 4e03 80bf
000003b0: cc23 31bf c6a8 f1be 2f0c a5bf 94c3 893f
000003c0: 078b 88bf c8a2 febf 6a39 983e 5571 de3e
000003d0: 7862 5e3b e912 83bf bd6c 653e 0a67 41bf
000003e0: e50c af3f 6ab4 a3be 6dc0 69bf a7a8 f53f
000003f0: ed63 d3bf 5574 0940 db10 29bf 3c80 e83d
-0.88209957 -1.1958071 0.21956691 -0.89079016 -1.8403287 -0.22510862 -0.7148308 2.5121756
-0.51882017 -1.3648022 0.75766855 -0.06526588 -0.46555886 -0.46743888 -1.4369715 -1.0619642
0.3054 0.03849517 0.87616974 -0.23015428 -0.887243 0.43503237 0.94137126 -1.2974148
0.6877393 -1.3033093 -0.074557625 0.586661 0.6209482 0.10175101 1.8968178 0.65990347
-2.061886 2.547193 -1.1070892 0.9154614 -0.2861329 -2.522321 1.177651 0.29804036
-1.038844 1.8441802 1.7147616 -0.2879378 0.4076455 0.58241177 0.7047026 1.2322272
-0.4137862 0.51840883 -0.7015368 -0.4323409 0.14147705 0.071103625 0.56335306 -0.57863575
-1.0838116 -0.388926 0.81261057 1.4981188 0.043896087 1.4443233 0.23202892 0.50649834
-1.2786967 -0.03842747 1.913801 0.3378446 0.12505612 -0.7621515 -1.19056 0.77560735
0.45571992 0.25033033 -1.3610971 1.8018341 -0.074341945 -0.15664156 -0.8708455 -0.64109725
-0.41456285 -0.69023806 -0.2299562 -2.172284 0.08768324 1.0937846 -0.11772058 -0.29864323
-0.9536206 -0.09247278 -1.0166546 -0.0076756896 -0.51822084 0.83954257 0.058522668 -1.668248
2.1296248 -1.5181471 0.13872829 -1.1797569 -0.52974117 0.9625158 0.2794383 -0.5718191
-2.793629 -0.7111545 0.52352196 -1.7105501 0.83848536 -0.26984537 0.12306158 0.87575114
0.15132998 0.7393934 0.27310315 2.731231 0.43200523 -0.30918217 -0.09658124 1.5419251
-0.10874478 -0.41890433 1.4384385 -0.70684266 -1.2519515 3.0250485 1.346259 0.855607
0.3220294 0.44605663 1.5229592 1.2804899 -0.11616043 1.3705363 -0.48093814 -0.9903622
-1.3641813 0.008205652 -0.4058602 -0.711086 -0.34957936 0.37974882 0.99930406 1.2751853
0.95949274 0.10351 0.829035 2.0921295 0.79530954 0.27928478 0.18644784 0.3547133
0.0906385 1.7422553 -1.2660012 0.3891608 0.34287506 -1.4590638 -1.4936562 -0.22138521
0.22523506 -0.07724538 0.9856945 1.2783364 0.2881519 0.8690496 -0.8097058 -1.4298605
0.45901597 0.53093284 -1.3614802 1.9562491 1.7684898 -0.98579854 -1.2370758 -2.301875
-0.0010087001 -0.8494257 -1.6593921 0.3062906 1.1820445 0.32602695 -0.38944697 2.8543806
0.8243651 0.79834706 1.8890222 0.5934628 0.06965444 -1.6034338 -0.42982182 0.57615876
0.34436315 -3.101606 -1.4587226 -1.4318258 -0.6071269 -0.25973788 -0.7190186 -0.38583097
0.5233525 -0.8211768 -0.47086892 0.6016423 -0.28251126 0.769268 -0.76689243 -0.9494867
0.016917398 0.080277406 0.7448413 1.345485 0.12682189 -2.4520717 0.41597614 1.9025357
-0.73467 0.044657134 -1.5211198 0.3478376 0.7401773 1.4161996 0.68339795 -0.13825183
0.9212995 0.5282444 -0.008228387 -1.449332 -0.6051824 -0.17924511 0.1995587 -1.2461947
-0.4145994 1.45587 0.33165342 -1.0001009 -0.69195247 -0.47199076 -1.2894343 1.0762811
-1.0667428 -1.9893427 0.29731303 0.4344584 0.0033933204 -1.0240146 0.22404762 -0.7554785
1.367581 -0.31973583 -0.91309243 1.9192094 -1.651487 2.1477253 -0.66041344 0.11352584

node_encoder.weight f4 [4, 16]
00000000: 5b46 5b3f 1bdd 38bf 7718 c43f 6ef0 5c3f
00000010: 9266 62be 7eb3 733f ccd1 2e3f 9b75 1e3c
00000020: 19f7 94bf bc49 0fc0 eb12 bebe a1b3 83be
00000030: 7b3c 6dbd 204a 8e3f 6d57 fdbd d0ce bf3f
00000040: 621c 26bf b3bd 03c0 65ac dabf a442 4bbf
00000050: a5e1 df3e 9f6d f5be 3a1e ad3e 3949 16c0
00000060: e267 02bf 1957 fabe 3043 a13f 975d a73f
00000070: 76ee 9cbf ea5c 64be 2139 7fbf 34ae ad3f
00000080: 3fe3 a03f 9dd3 9abf 3a15 8cbf a092 80bf
00000090: fe0e c3bf 52c8 0fc0 2b65 9f3f 61f9 bfbe
000000a0: f21c 2b3f b2ba 47bf 261d b4bb 4b1d 973f
000000b0: f015 513f 7365 8abe 07de b3bf 5342 40bf
000000c0: 380b 36bf 2ef9 c5be 7134 753f 6291 52bf
000000d0: f302 19c0 a7fd a43e bd0c f03f ab59 8d3f
000000e0: 6dba 05bf 767c 3dbf cd40 263e 80af 72be
000000f0: 158b 023f 09d7 d53f 19ca cb3f 2217 d5be
0.8565423 -0.7221238 1.5319966 0.86304367 -0.2210944 0.9519576 0.68288875 0.009671594
-1.1637908 -2.2388754 -0.37123808 -0.25722983 -0.057919007 1.1116371 -0.12370191 1.4984989
-0.6488706 -2.0584533 -1.7083861 -0.7939856 0.4372684 -0.47935197 0.33812124 -2.3482192
-0.5093976 -0.48894575 1.2598629 1.3075436 -1.2260273 -0.22301069 -0.99696547 1.3568788
1.256935 -1.2095829 -1.0943978 -1.0044746 -1.523895 -2.2466016 1.2452749 -0.37494949
0.6684104 -0.7801925 -0.005496639 1.1805815 0.816741 -0.27030525 -1.4052132 -0.751012
-0.7111087 -0.38666672 0.95783144 -0.82253087 -2.390805 0.3222477 1.8753887 1.104299
-0.5223759 -0.7401804 0.16235657 -0.2369976 0.5099347 1.6706249 1.592105 -0.4161921

gnn_layers.0.lin_l.weight f4 [32, 32]
00000000: 9f33 413c 6dd3 7c3c aad9 853d 654f 08be
00000010: 0c33 a5bd 70a5 e93d 9324 5fbe a32d b43d
00000020: f7ac 203e bbf6 2b3e 76d5 043d 653e 37be
00000030: c031 823d 613f 90bd 84f3 c63b 3799 e13d
00000040: 14ed fabc 3eae 2fbe 1772 03be 5443 143e
00000050: 62e1 26bc 6cc1 503e 7c43 983c 7f2b edbd
00000060: 5b9d 833d ebfb 7b3e 17a6 bc3d d24b 803d
00000070: a35d d6bd bf65 02be 8cc9 033e 71be eabd
00000080: 3b2d 223d e4b3 0ebc f1e3 d73d 8fcc 393d
00000090: a518 fcbd df0c 44bd c314 113e d990 273d
000000a0: 59eb a03d 282c febd 2e3d ae3d fe3b 8cbd
000000b0: 2484 4abd a48d 7a3d a48c 28bd c4db 96bd
000000c0: 57e1 833d 3258 cdbd 9bac 353e 4197 9a3c
000000d0: 7a68 19be ba86 903e 588c 683e 9873 3abe
000000e0: 3e25 9e3e 4a23 66be dfeb 383c e2ea d03e
000000f0: c2f1 773e e912 8a3d 2e00 273e a277 8a3e
00000100: 6b54 8a3e fac0 5fbd 2106 1d3e 8dfb b03e
00000110: 4545 1abe ad28 a13e dcc1 4cbd 30ed 273e
00000120: 56d5 d9bd 1486 eabd ce08 75bd c0c5 92be
00000130: a41c 563e 7e8d 4c3e eed3 63bd cbfb db3d
00000140: dfd5 06be 0b61 31bd 1407 9e3d fa74 1ebe
00000150: 46f0 81bd f527 ee3e d6eb b93d 5e80 1bbe
00000160: d0b5 963d bf28 28bd 3f0f 75bd d51f a0bc
00000170: 5ebf a1bd 6eac 15bd d7b4 0fbd dc25 ba3e
00000180: 8b56 9d3c 0b38 21bc 2583 913c c3f4 08be
00000190: 5333 aabd 8ef7 993d b101 283e 9ba8 fdbd
000001a0: a48a d7bd a015 b13d 5bff b63c 43c6 1c3e
000001b0: 0b0c d03c a9b7 bfbb 464e 64be 870e 9bbd
000001c0: 0fe5 bfbd 83d5 ce3e d7da d4be 45de cb3e
000001d0: de54 eebc 00b9 a5be 265f 073c a998 a43d
000001e0: 8394 a2be a262 b93e 6786 223d cd50 24be
000001f0: d58a 66be c091 ca3e fa15 c9bd d767 8abb
00000200: f432 d7bb a304 99bb 2833 303d fd4b ccbc
00000210: e7b2 dc3d 9357 87bd f1ce 4bbd 9759 66bd
00000220: 28e2 093d 061c 103e a593 d43e eb8d 0f3e
00000230: 92c4 0f3e 3ada d5bd e4a7 9abc e5c4 afbd
00000240: ce82 893e 759e 9cbe 1ad3 f33e 0b59 87be
00000250: 34ef 18be f5b6 233e 6a3f 3bbe ec4b c7be
00000260: 0854 fd3e a1fa 8abe 3784 75bc 3c2b e03d
00000270: afae a03d 83ce 7dbe f9f4 ea3d 27f7 003d
00000280: a8a5 e5be 9634 c03d 0410 b8be f4f1 48bd
00000290: 3303 843e ddff e73c 34e2 103e fa7f 3abe
000002a0: 7af4 5fbd 8a7d f83d 1238 253d 09e4 6a3e
000002b0: 67f5 79be da54 c13d 30d4 2cbe ab3e 0cbd
000002c0: 0aa8 3a3e a7e9 97bd 41ba 0c3e 6797 f23d
000002d0: f0e9 1d3e ba19 8bbe c266 3fbe 25c9 c43c
000002e0: 4085 dd3c 49e1 8cbd 3fa9 fd3b a93b 98be
000002f0: 7f94 b2bd b0bd 3dbd 13b0 123e 24c9 f5bd
00000300: 78d1 173e f247 543d ec39 b93d ca7a 04bc
00000310: 2b90 00bd 5ce3 59bd b022 1abe 5d7e 423e
00000320: c958 ebbd df3f 963d 9e71 a1be 3857 bd3d
00000330: 5875 303e 0b44 a0bd 275c 1e3e 1fe2 94bb
00000340: 1fef 75bd d36f aa3d 0c7d 853e 7cd8 4c3e
00000350: 2598 1abe 3461 7e3e c8e9 5c3e 9c45 b9bd
00000360: 3f1c bc3e 6a46 07be 1303 a23d fd15 8a3e
00000370: f08c 453d 8461 043c f2de 873e d6b0 883e
00000380: f44a d73d c124 f73d d232 2bbe b6a7 a0bd
00000390: 1e22 9ebd 9c2d 693d 7bfa 443d c21d 36be
000003a0: 8464 573d 6a7f ebbd 9968 9abd 8402 433e
000003b0: 4a23 e5bd fef4 90bd 10a3 69bd bcae 82bd
000003c0: d2cf 9dbd 74b4 583e 7a00 6bbe 3611 423e
000003d0: 4c53 c53d 5fa3 0bbc 3707 4abe d9a6 453e
000003e0: 69cc b3be ddb6 013d 460f b23c 9254 53be
000003f0: 9131 153d aa42 cd3d e8c8 32be 81d7 2ebe
0.011792093 0.015431267 0.06535657 -0.13311537 -0.08066377 0.11408508 -0.21791296 0.08797767
0.15690981 0.16793339 0.032430135 -0.17894895 0.06357145 -0.070433386 0.00607151 0.110155515
-0.030630626 -0.17156312 -0.1283649 0.14478809 -0.010185571 0.20386285 0.018586867 -0.11580562
0.064264975 0.24607818 0.092113666 0.062644616 -0.104670785 -0.12734126 0.12869853 -0.11462105
0.039593916 -0.008709881 0.10541523 0.045361098 -0.12309388 -0.047863837 0.14168076 0.040909622
0.07857389 -0.12410766 0.08507763 -0.0684738 -0.049442425 0.061170235 -0.04114975 -0.07366136
0.064394645 -0.100265875 0.17741625 0.018870952 -0.14981261 0.28227788 0.22709787 -0.18208158
0.3088779 -0.22474399 0.011286705 0.408042 0.24213317 0.06741888 0.16308662 0.27044398
0.2701753 -0.054627396 0.15334369 0.34566918 -0.15065487 0.31476346 -0.049989566 0.16399074
-0.10636394 -0.114513546 -0.05982285 -0.28666496 0.20909363 0.1997585 -0.055622034 0.10741385
-0.13167523 -0.043305438 0.07716194 -0.1547431 -0.06344657 0.4651486 0.09078185 -0.15185687
0.07358897 -0.041054484 -0.059828993 -0.019546429 -0.078978285 -0.036541395 -0.03508457 0.3635701
0.019206306 -0.009840022 0.01776273 -0.13374619 -0.083105706 0.075179204 0.16406895 -0.123856746
-0.105244905 0.08646703 0.02233856 0.15310006 0.025396368 -0.0058507514 -0.22295484 -0.0757113
-0.09369861 0.40397272 -0.41573212 0.39818016 -0.029093202 -0.32367706 0.008262431 0.0803693
-0.3175393 0.36208063 0.039678957 -0.16046448 -0.22513898 0.39564323 -0.09818645 -0.0042238045
-0.0065673534 -0.004669742 0.043017536 -0.024938578 0.107763104 -0.066085 -0.0497579 -0.056237783
0.033662945 0.1407319 0.41518894 0.14018981 0.1403983 -0.10442014 -0.018878885 -0.085824765
0.2685761 -0.30589643 0.47621995 -0.26435122 -0.14934999 0.15987761 -0.1828591 -0.3892511
0.49478173 -0.2714434 -0.014985136 0.10945746 0.07845818 -0.24785809 0.11472506 0.031485703
-0.44852948 0.0938503 -0.3594972 -0.04905887 0.2578369 0.028320247 0.1414879 -0.18212882
-0.05467651 0.1213332 0.040336676 0.22938551 -0.2441002 0.09440012 -0.16877818 -0.034239452
0.18228164 -0.074176125 0.13742925 0.11845284 0.15421271 -0.27168065 -0.18691543 0.024021694
0.027041078 -0.06878907 0.007741123 -0.29733017 -0.0871973 -0.04632348 0.1432498 -0.12001255
0.14826 0.051826425 0.09044251 -0.008085916 -0.03138749 -0.053195342 -0.15052295 0.18993516
-0.11491544 0.07336401 -0.31531996 0.09245151 0.17232263 -0.07825478 0.15464841 -0.0045435573
-0.060042497 0.0832211 0.26071966 0.20004457 -0.15097101 0.24841768 0.21573555 -0.0904648
0.367403 -0.13210455 0.079107426 0.269699 0.04823011 0.00807989 0.2653728 0.26697415
0.10512343 0.12067557 -0.16718605 -0.07844488 -0.07721351 0.056928262 0.04809044 -0.17784789
0.052586094 -0.11498912 -0.07539482 0.19043928 -0.111883715 -0.070779786 -0.057040274 -0.06380984
-0.07705654 0.21162587 -0.229494 0.18951878 0.09635028 -0.008522837 -0.19729315 0.19301929
-0.3511689 0.031668533 0.021735799 -0.2063773 0.036424223 0.10022481 -0.17459452 -0.17074396

gnn_layers.0.lin_l.bias f4 [32]
00000000: 1f86 113d 0926 29be 5984 033e b2d8 113c
00000010: 1504 2c3d 9d95 243e 4ed9 28be 1b2f 503d
00000020: 49a5 23be 8bb5 223e e888 bf3d 7a8f 053e
00000030: 44c1 0ebd 2cb2 bb3c c08e cabd 80d1 793d
00000040: 1ccb 443e a2e3 09be b887 57bd 7198 043d
00000050: 564a 01bd d56f a83c d6a7 3b3e 62ea 4d3c
00000060: 19b6 133d e167 913d b174 19bc bc9c 043e
00000070: db1b f23d 26e6 a63d 0f23 893a a87d 6a3e
0.0355283 -0.16518416 0.12843455 0.008901762 0.04199608 0.16072698 -0.16489145 0.050826173
-0.1598102 0.15889566 0.09352285 0.13043013 -0.03485228 0.022912107 -0.09890509 0.06099081
0.19218105 -0.13465741 -0.052619666 0.032371942 -0.031565033 0.020561138 0.18325743 0.012568088
0.036062334 0.070998915 -0.0093662 0.12950414 0.11821719 0.08149366 0.0010462719 0.22899497

gnn_layers.0.lin_r.weight f4 [32, 32]
00000000: 760a 17be a39b cd3d 0422 833d 6b3c 1b3e
00000010: c7d6 cfbd b107 653d 9222 16be 6b9e 0c3e
00000020: 0bc2 ff3c 113c b7bd 5c2d c93a 4542 c93c
00000030: 1114 503d 3407 3f3e 9903 fb3d c86a 813d
00000040: 9e1a f23d e7b5 12be ae98 913d 2b1d b93c
00000050: a40b 133e 2477 9b3d 60c1 613c 1978 cd3d
00000060: c7d9 72bd cee5 be3d 2eff 143d 4da7 04bd
00000070: f6ed db3d c97e 07be 7f54 3fbd ed76 e13d
00000080: c4ab c83d e3c5 28be 7f16 9bbb b912 e2bc
00000090: 7c75 1a3e c69b 56be 7a5e f4bc 5732 e4bd
000000a0: ad1a c7bd 804f b0ba 07b7 febd 6744 2d3e
000000b0: 6270 9bbd e423 273d 7a06 04be 688e 05bc
000000c0: bbd5 e33d 88a9 2e3d fe49 903e b139 90bc
000000d0: 70f9 02be 5384 4a3e f345 8ebe 13f9 753e
000000e0: 6de6 9a3c acbb 98be 91d7 8bbe 0d43 97be
000000f0: d9fb 1ebc ccf7 c7bd 199a 43bd 5105 b1bd
00000100: 03ff 0cbd fec0 453d 1313 04bd c641 c83d
00000110: fbef 143d 3d34 ce3d d780 7c3d 7529 0cbd
00000120: c0cc 293e 7783 25bd 5bda d4bd 5920 833d
00000130: d8fd 08bb f2ae 00be 4194 353c 7c64 52bd
00000140: e90b 5ebe 57ea c9bd c0c1 53be ed4e dabd
00000150: 301a 00bd 530a ff3c b44a 2fbe 40fb 3c3e
00000160: 446f c3be a51c 1b3d 1e1a fb3d 957c 3cbe
00000170: d439 24bd 63a6 94be 0928 43bc d075 c2bd
00000180: 8292 c63c 7422 ccbd a382 4bbc f0c6 273d
00000190: 254e 17be 544b e0bd ebb7 4a3e 9981 5cbd
000001a0: 0fe8 13be f11f bebd 96a7 af3c 7988 aa3c
000001b0: 64a1 05be 2b1a f7bd 07fb 4fbc a56c 143e
000001c0: d98b c93e 7156 2b3e e209 b2bd 0185 aabd
000001d0: 99aa 2d3e fe38 e93a e212 e33d 178a 0abe
000001e0: 77cd 9dbb 4983 9dbe 8313 e4bd b355 08be
000001f0: 5c2e 8dbe 629e 43bd d398 a5bd a2ff e8bd
00000200: 7859 f9bc 824b cf3d ec3f 73bd 8076 fc3d
00000210: e046 38bb f0c4 123e 9acd 1a3e be06 74bd
00000220: 1f27 04be d876 c03d 46ec d03d a739 64be
00000230: 346d 853d aecb 63bd 14e3 4b3e ec7b 1a3e
00000240: 9b9a 6c3e 39f7 d93c a2a9 7f3e 6e8d 343e
00000250: 7f25 52be cab5 1f3e 1f0f a3bd 4fb7 96bd
00000260: 31f1 4b3e fcab cdbc ea4e 82be 90a3 66be
00000270: 717c 173e 658b ac3d e1ee bd3d e5b6 7a3e
00000280: 075a e1bd cbec 0dbc e1f9 20be 8e84 3bbe
00000290: b26a 75bd 6134 043e 9bb2 473e e1a8 da3d
000002a0: df88 383e 94b4 efbd 7c57 24be eca8 003e
000002b0: af91 efbd 6e05 29be 18e3 583d 87b2 2abd
000002c0: 0b44 093e ee94 65be 79fd b03e 8499 77bd
000002d0: 4248 85bc a5f7 9e3d 538f 773e 3e81 c6be
000002e0: f6ee bd3e e5ae 35be 4af3 29be ff29 823e
000002f0: 1e4f af3d d3b3 29bc a32e 9c3e d584 4bbd
00000300: 87dc 023d 44d3 29bd 5d40 f9bd 7275 c43d
00000310: b4ba 233d edb1 1cbe d23e 1b3e 58d6 a8bd
00000320: 7db4 153e 1df0 66bd b5bd 2e3e efd3 273d
00000330: 8e82 6cbc d299 9f3d a113 733b 2af0 adbd
00000340: 003e 1a3f 684a 143e 1498 923e c924 d43d
00000350: 9b1b 0cbd 92ae 913d 6203 4cbe cbe9 813e
00000360: a962 253e 54e5 95bd c9a4 2abf 7edf 99be
00000370: f912 8bbd c341 183e a25e b03e c6ff d4bd
00000380: 0242 1ebd 6d51 19be e986 53bd d9f0 88bd
00000390: f1c3 293e 79cc 8bbd bb05 903d 0149 3a3e
000003a0: 81d9 543d 3b37 3bbe 1f79 79bd 8b4d b2bd
000003b0: bc77 a33d 3832 9dbc 693f 3e3c 7228 3f3e
000003c0: d2d5 793d 5a42 3c3e 5f5b 84be d27b 2d3e
000003d0: 671b d23d 5ef2 afbd 1b92 b73d 2df9 8cbe
000003e0: 72b5 1cbe 4321 af3d b880 2ebe 911d 02be
000003f0: efe4 bdbb 80d1 c8bb 934d 923c dfb1 6c3d
-0.14750084 0.10039451 0.06402972 0.15159766 -0.101483874 0.05591554 -0.14661625 0.13732307
0.031220457 -0.08947004 0.0015348601 0.024567733 0.050800387 0.18655092 0.122565456 0.06319195
0.11821483 -0.14327203 0.071091995 0.022596916 0.1435991 0.07591084 0.013779014 0.100326724
-0.05928972 0.093211755 0.03637617 -0.032386113 0.10738747 -0.13231958 -0.04671144 0.110090114
0.09798387 -0.16481738 -0.0047329064 -0.027596818 0.15083879 -0.2095786 -0.029830206 -0.11142414
-0.09721885 -0.0013451427 -0.124372534 0.16920625 -0.07589795 0.040805712 -0.12893096 -0.008151628
0.1112475 0.042642146 0.28181452 -0.017605634 -0.12790465 0.1977704 -0.27787742 0.24020796
0.018908704 -0.29830682 -0.27312902 -0.29543343 -0.0097036 -0.097640604 -0.04775438 -0.08643592
-0.034422886 0.048279755 -0.032244753 0.0977817 0.036361676 0.100685574 0.06164631 -0.034219224
0.16582012 -0.040408578 -0.103932105 0.06402654 -0.0020903256 -0.12566736 0.01108271 -0.05136536
-0.21684231 -0.0985915 -0.20679379 -0.10659585 -0.031274974 0.031132853 -0.1711834 0.1845522
-0.38170826 0.037869114 0.12260841 -0.184069 -0.04009421 -0.29033193 -0.011911401 -0.09495127
0.024239782 -0.09967509 -0.012421283 0.040961206 -0.14775904 -0.10951868 0.19796722 -0.05383453
-0.14443992 -0.09283436 0.021442216 0.020817028 -0.13049847 -0.12065538 -0.012694127 0.1449457
0.39364508 0.16732194 -0.08693291 -0.0832615 0.16959609 0.0017793474 0.11087586 -0.1352924
-0.004815753 -0.30764225 -0.11136534 -0.13313942 -0.27574432 -0.047758467 -0.080857895 -0.11376883
-0.03043817 0.10121824 -0.059387133 0.123272896 -0.0028118417 0.14332938 0.15117493 -0.059576742
-0.12905549 0.09397668 0.102013156 -0.22287618 0.065149695 -0.055614166 0.19910842 0.15086335
0.23105852 0.026607143 0.24967054 0.17632076 -0.20522116 0.15596691 -0.079618685 -0.07359182
0.19916226 -0.025106423 -0.25450832 -0.22523332 0.14793564 0.08425025 0.09274078 0.24483831
-0.110034995 -0.008662413 -0.15720321 -0.18312284 -0.059916206 0.12910606 0.19501726 0.10676742
0.18020962 -0.117043644 -0.16048998 0.12564439 -0.11697709 -0.16505978 0.05295095 -0.041674163
0.13404863 -0.22420093 0.34568384 -0.06044914 -0.016269807 0.07762078 0.24175768 -0.3877048
0.37096375 -0.17742498 -0.16596714 0.25422665 0.08560012 -0.010357815 0.3050433 -0.049687225
0.031948593 -0.041461244 -0.121704794 0.095927134 0.039972976 -0.15302248 0.15160683 -0.08244008
0.14619632 -0.056381334 0.17064555 0.0409736 -0.014435424 0.07793011 0.0037090557 -0.08493073
0.60250854 0.14481509 0.2863165 0.10358579 -0.034206014 0.07113375 -0.19923165 0.25373682
0.16150917 -0.073191315 -0.6665769 -0.30053324 -0.06790728 0.14868836 0.344472 -0.104003474
-0.03863717 -0.14972468 -0.051642332 -0.06686563 0.16578652 -0.068261094 0.07032343 0.18191911
0.05196524 -0.18282788 -0.060906526 -0.087061964 0.07981822 -0.019188985 0.011611798 0.18667772
0.06099493 0.18384686 -0.2585096 0.16941765 0.10259133 -0.0859115 0.08963414 -0.27533856
-0.15303591 0.08551266 -0.1704129 -0.12706591 -0.0057951133 -0.00612849 0.017859256 0.05778682

gnn_layers.1.lin_l.weight f4 [32, 32]
00000000: a63b 5e3e aa43 c03d 301d 3bbe 4632 783d
00000010: c5d1 303d 0b47 5f3e da6a 1cbe 18eb a5bd
00000020: 40b0 8c3d ad13 803e 8710 e53d 82d5 75be
00000030: 4cc6 f6be f4a8 2d3e 09eb 68be 8a49 853e
00000040: 41e2 8dbc 405a 0f3c aa01 e8be b226 af3d
00000050: 1839 e6bd 947d ff3d 7c5d 1abc fafb f5bd
00000060: 9281 78bd 03f9 19be 451b 3fbe 069e 313e
00000070: 1675 c3bd f9c0 2bbd d2d4 c83d 6af0 aabe
00000080: 786d 9cbc fefa f03d c49e b53d 8d63 b4bd
00000090: ec12 163c f866 a0bc e03e ccbd 9b2b e5bd
000000a0: 8807 f33d 4561 d8bd 6b8b 223d 3ff3 943e
000000b0: 6a3f 893c 696b 533e 798a 963d 4f8e 55bc
000000c0: 3e5e a7be 43b0 a23d cc11 c8bd 3663 603e
000000d0: 3830 e53c bcde 32be 25f5 adbd d10c 543e
000000e0: 9168 963e 051b e03d fa4d de3d 3d7f a8bd
000000f0: e62c 803d 7c70 64bd aef4 363d 1323 ca3e
00000100: de8e d5bc 4271 3a3e 9403 3a3e b3e3 81bd
00000110: 319b 7dbe 9107 1abe 7a2c 9a3d 907c 14be
00000120: 5826 0b3e 8b3e cb3d 578c c2bd b00e 5b3e
00000130: adc3 87be 498d 393e 185c 213d ed33 aabc
00000140: 6680 9cbc 1c80 7a3e b37c 363d ac74 433e
00000150: 9403 023e 794c 90bc 74b3 173e 5ac0 29be
00000160: 14fc 78be 7563 9b3d 4458 943d 98f2 353e
00000170: 2387 733e ac1c 0dbd 320c e83e c00b bb3e
00000180: 969c 133e 5be6 ae3d c1a1 97bd 0c74 b7bd
00000190: 808b 53be 96ab b33d d08a 953d 2ab8 7a3c
000001a0: cc5c 123e 8df4 16bd 1a12 743d 6750 443e
000001b0: 0323 39be ff5d 97bd 1793 413e 3ce4 973d
000001c0: 0284 34be 26c9 533e 4f94 2c3e 57d5 3bbe
000001d0: b002 e7bd 0b1a 32bd 59c7 90ba 5800 6ebc
000001e0: 1195 34bc 7696 843d 7250 c0bd e1c6 113e
000001f0: 6e7d 0b3e 5c19 00be a960 6cbd 83b3 a63e
00000200: 8aa3 053e eaf9 f0bd f4f0 52bd f993 46be
00000210: 1695 823e 767d fa3c 005d a1bd 09a2 0d3e
00000220: e225 963d c8f3 f43d 348b 9cbd 99cc 85bd
00000230: cd50 bf3e 9da3 e33d c529 26be dda0 18be
00000240: b678 243d 8707 64be d075 1f3e a2c1 4c3c
00000250: 5309 d83d f71e 2bbe 7e6e 923c 4fc5 683d
00000260: 50fc 533e d472 c43d 0f3a cc3d f840 d6bd
00000270: da24 05bb bd65 c9bd b4f3 90be 5d34 7cbd
00000280: 6f91 cbbd 7ae5 2b3d a7af 8f3d 0df5 14be
00000290: df1e 9b3b bbd0 263d 7d77 14be 3522 eb3d
000002a0: 990f 033c b34f e2bd 7bab 20bd 0447 1c3e
000002b0: 36bd b43d 90af 413c e53f 2f3e f20c cbbd
000002c0: 5bd8 64be 8660 adbb 7f5c 1ebe 59a4 b53d
000002d0: 85fd f23d f630 33be 1c31 32be d686 763e
000002e0: a829 c7bd 9ba0 563e 86d9 063e adb0 9cbd
000002f0: 4da5 023e d9c4 56be 31ae 1f3e 52cd 653d
00000300: 862d 383d 9188 613e 200f 563d fef6 e5bd
00000310: 8f90 e23d e4a6 6e3d 0d58 563e 556c 03be
00000320: a137 f6bc e1d3 40be 8253 9e3d 48cd 193e
00000330: bda8 81be 28f3 dfbd 3401 823d 9039 91bd
00000340: fa37 a6be d512 2c3e a527 06be bdac 0c3e
00000350: 0d75 0c3e b15f 5e3e 8951 323e f455 643c
00000360: 8801 eb3c c5d5 483b c1d0 ce3d be49 813e
00000370: 46e6 893e f856 c03c dc94 30bd fedb b73e
00000380: a87a 073e 0158 fc3c 7ad9 373e bf16 4f3e
00000390: dc5d 673e ab0a 433d ea73 7bbd 008d b43c
000003a0: f05a 59bc f893 713d 2c93 2fbe 17c3 38bc
000003b0: ac85 133e b16f 003e 3d47 123e aa17 2bbe
000003c0: 260f 5fbd 82a5 02bd fa05 943e 41a6 ec3d
000003d0: 1870 ae3d 5397 dbbd 09c1 ff3d d0be 9a3e
000003e0: e573 323d dd23 64bd 8256 0e3e 8a70 dfbd
000003f0: 2135 0abd f8b0 873d ddee 9dbc 525e 553e
0.21702442 0.09387906 -0.18272853 0.06059482 0.0431688 0.21804444 -0.15275136 -0.08101481
0.068695545 0.2501501 0.11184793 -0.24007228 -0.48198164 0.16958982 -0.22745909 0.26032668
-0.0173198 0.008749545 -0.4531377 0.085523024 -0.112413585 0.12475124 -0.0094217025 -0.12010951
-0.060670443 -0.15036397 -0.18662746 0.17345437 -0.09543817 -0.04193208 0.09806217 -0.33386546
-0.019095168 0.11766623 0.08868173 -0.0880805 0.009159785 -0.01958035 -0.0997293 -0.11189958
0.11866671 -0.10565428 0.03968374 0.29091832 0.016753871 0.20646442 0.0735063 -0.013034417
-0.3268909 0.079437755 -0.097690195 0.21912846 0.027977094 -0.17467779 -0.08494023 0.20708014
0.29376653 0.109426536 0.108547166 -0.08227394 0.06258564 -0.055771336 0.04466694 0.39479885
-0.026069101 0.18207267 0.18165427 -0.06342258 -0.24766232 -0.15041949 0.075280145 -0.14500642
0.13588846 0.099240385 -0.09499424 0.21392322 -0.26516476 0.18120302 0.039394468 -0.020776713
-0.019104194 0.24462932 0.044552516 0.19087476 0.12696677 -0.01761459 0.1481455 -0.16577283
-0.2431491 0.07587329 0.07243398 0.17768323 0.2378202 -0.03445117 0.45321804 0.36532402
0.14415202 0.085400306 -0.07403899 -0.08957681 -0.20658684 0.08772962 0.07301867 0.015302697
0.14293212 -0.036854316 0.059587575 0.19171296 -0.18079762 -0.07390975 0.18903767 0.07416579
-0.17628482 0.20682201 0.1685345 -0.18343101 -0.112798095 -0.043481868 -0.0011045738 -0.014526449
-0.011021868 0.06474011 -0.09390344 0.14236023 0.13622066 -0.12509674 -0.05770937 0.32558832
0.13050666 -0.11766417 -0.051499322 -0.19392385 0.2550437 0.030577403 -0.078790665 0.13831343
0.07331444 0.1196056 -0.076437384 -0.065331645 0.37366334 0.11115191 -0.16226871 -0.14905114
0.04015418 -0.22268496 0.15572286 0.012497338 0.105486535 -0.16711031 0.017874952 0.056828793
0.20701718 0.09592214 0.09972011 -0.104616106 -0.0020316155 -0.09833858 -0.2831093 -0.061573375
-0.09939849 0.041966893 0.07015925 -0.14546604 0.0047339047 0.040726405 -0.14498706 0.11481134
0.007999324 -0.11050358 -0.039226037 0.15261465 0.088251516 0.0118216425 0.17114218 -0.099145785
-0.22348158 -0.0052910475 -0.15464972 0.088692375 0.11864761 -0.17499146 -0.17401546 0.24074873
-0.09724742 0.20959704 0.13168916 -0.07650886 0.1275837 -0.20973529 0.15593792 0.05610401
0.04496529 0.22024752 0.052260518 -0.11228751 0.110627286 0.058264628 0.20932026 -0.12834294
-0.030055823 -0.18830825 0.077307716 0.15019715 -0.2532405 -0.1093505 0.06347886 -0.07091057
-0.32464582 0.16804059 -0.1310106 0.1373777 0.13716526 0.21716191 0.17413916 0.013936508
0.028687254 0.0030644995 0.100984104 0.25251573 0.26933497 0.02347897 -0.043110713 0.35910028
0.13230383 0.030803682 0.17954054 0.2022352 0.22594398 0.047617596 -0.06138984 0.02203989
-0.01326631 0.058979005 -0.17145985 -0.011276982 0.1440646 0.12542607 0.14284988 -0.16708246
-0.054457806 -0.03189612 0.2891081 0.11555148 0.08517474 -0.10722222 0.124879904 0.30223703
0.043567557 -0.055698264 0.13900188 -0.10910137 -0.033742074 0.06625551 -0.019278938 0.20836762

gnn_layers.1.lin_l.bias f4 [32]
00000000: 1c4b 46bd 93de e93d 3585 c23d 53ae 37be
00000010: dae0 2c3e b9a4 97bd 71df a33b bf39 673e
00000020: 6e5a c1bc 5435 95bd 3dcf 993d d6b0 0dbd
00000030: 346c 4f3e 9ebb 6fbb 7a2b 77bd 77da c6bd
00000040: 7ee4 0cbd a5d4 2a3d 3d5b 0d3e 9119 22bb
00000050: df9f d9bd 95a7 c93c 26b3 9dbd 00e4 ac3d
00000060: 094d 593c ecd0 4fbe 7f6d 25be f644 5fbd
00000070: 7204 06bd 922f 78bd 17f4 893d 3625 08be
-0.048411474 0.11419406 0.094980635 -0.17937593 0.16882649 -0.07404465 0.0050010015 0.22580622
-0.02360269 -0.07285562 0.07510231 -0.034592472 0.2025612 -0.0036580334 -0.060344197 -0.097096376
-0.034397595 0.0417067 0.13804336 -0.0024734477 -0.10626196 0.024616042 -0.077001855 0.08441925
0.0132629955 -0.20294541 -0.1615505 -0.054509126 -0.032719083 -0.06059224 0.067360096 -0.13295445

gnn_layers.1.lin_r.weight f4 [32, 32]
00000000: 6fbb d03d 5241 73bd e085 883e 9763 b4be
00000010: a1fe dabc fd4e 2c3d 1174 543e 5c1f 4dbe
00000020: 6ab6 1e3e 9039 6ebd 6ce7 2f3e 0885 f63d
00000030: 7114 74be 0862 f73b a6a6 12be 5701 5b3e
00000040: 5fb2 6fbe 1bae c63d 5892 63be 06ef 433e
00000050: 7153 063e f3df 73bc 1da8 4ebd 6ac0 663e
00000060: e8de 913e 625f aa3d 64b5 39be afa3 1a3e
00000070: ee04 1e3c e8da 3ebe a542 073e 1ae0 9a3e
00000080: ae39 20be 188a 22be 7ca4 24be 926e 883e
00000090: e7f3 89bd 0d95 523e a631 95bd 690d 95bd
000000a0: a0e8 d93d 032a 913e 906f 4d3d af76 88be
000000b0: 4d47 acbe 9880 b73d d08c 13be 1bfb a53e
000000c0: 174d 883e bb3b 933e ca00 83be 414c a33b
000000d0: c8a6 533d 121d b23e 4825 9f3e 2c45 2dbe
000000e0: deff 20bd 99df f3ba 6bcd c1bd 0c66 513e
000000f0: 849d 3a3e de53 903c 9af5 03be 47ad 29be
00000100: 54a4 c1bc 172d 27bd 6e1e 3a3e 579e b3bd
00000110: 757d 05bd 16f9 b8bd defd 3cbe 8089 483e
00000120: a423 ad3d 0420 10be 22ea 043e 7f16 733d
00000130: ae93 1fbe 9b5b 823d 0af4 6f3e 7b6a 453d
00000140: ef96 38be f3b3 313e ac77 b5bd ba5d 133d
00000150: c8c7 bcbc 93fc 0d3e e704 8b3e 701c b4be
00000160: 0178 023d 452c c43d 765e 443c 108b 943d
00000170: a7ad a03d c16f 02be 8f56 67be d63b f23d
00000180: ee7c 23bd 5d70 ab3c a144 27be 21da 043e
00000190: a510 a2bd 8827 0c3e 4be1 a6bd d0aa ba3c
000001a0: d8c2 84bd 5fe8 993c c544 403e 844f 813e
000001b0: 20fb 84be bbc7 833d b86d d13d 0f36 a5be
000001c0: 2df0 f4bc a879 2b3d 41c3 233d 6f47 043e
000001d0: e3b5 163c 8bc2 e5bd e167 77bd 48e3 66bd
000001e0: dacb 5fbd d163 80bd 1279 a5bd 2a1f e13d
000001f0: 9924 1c3d 7e42 0b3d 1785 eabd f1b6 8c3e
00000200: 12ed fd3c f5ff dabd 5f00 233d 92fc 413e
00000210: ea26 8abe 247b 543d 4ecb a3bc e519 01be
00000220: e0f1 893d d66c fb3d ab41 d9be 0db1 0cbe
00000230: 4a87 013e 8bfe d83c 5cb7 0f3e 64fd 4bbe
00000240: 030b 0d3e f682 573d e138 8c3e 36fc cb3d
00000250: ab5e 6b3d 1aba 783e 8975 39be a4a3 b6bc
00000260: df8a adbe 9701 5abe 8a6d 5ebd e35e c5be
00000270: a440 bb3c 23e3 5c3d baee 573e becf 893d
00000280: 05ef 25be 8471 b6bd 76d8 053e 031e 5dbe
00000290: 9859 1b3e dffb a73d d8c5 78be d635 d83d
000002a0: f81b ba3b 41a2 bbbd 09ba 51bd b8f0 043e
000002b0: 8f35 a43e 6557 813c 82c4 4b3c e7c7 89be
000002c0: 358a 933e ded2 433c d88e 823e fe57 9d3c
000002d0: 66c7 fa3c 29b4 fb3d 9d11 1a3e d747 0abe
000002e0: c3b9 f03d df61 f0bd bc8d 323e 94f6 f93c
000002f0: f289 b43c 12ff 403e ba45 0e3e 36c1 673e
00000300: 85ce 6f3d 1260 aa3d 27a9 b1bd 3a3f cb3d
00000310: a596 fcbd ae95 d5bd b26d 163e 7a12 01be
00000320: c8d8 663d 298d 1ebe cd4f 4f3e b902 f03d
00000330: 1485 903d 5558 00be 198d a33d a9c0 04bd
00000340: 9ae3 3cbe 2363 273e c4a5 233d 8baf d1bd
00000350: fe56 0dbe 886f 003e 59ba 813e 055d babd
00000360: ab7b 1e3e b06f d2bd 20a5 043e ffa2 5b3d
00000370: 26dc 14bd 566a e73d 4a17 2a3e 1099 983e
00000380: 127c 9d3c 80ad 483e 6d0f c33c df77 ba3d
00000390: 8923 0b3d 369e 43be 962d 0d3c 6b23 843b
000003a0: 2a83 d13d a7f9 85be 7a06 90be 5f4f 2c3e
000003b0: 76cb e03e c4e7 17be 06e4 3d3d c0ba 91be
000003c0: 5f18 603d 3eef b73d e869 a73e b15b 0c3e
000003d0: 08ad 25bd 7b46 66be 085a 41be 0a47 60bd
000003e0: c93b 95bd 1445 47be aebf 003e 4389 35be
000003f0: f7e3 423e a9a7 edbd 8599 e43d 6a43 143e
0.10192 -0.059388466 0.2666464 -0.3523223 -0.026732745 0.042067517 0.20747401 -0.20031494
0.15499273 -0.058160365 0.17178124 0.120370924 -0.23835923 0.007549528 -0.14321384 0.2138723
-0.23407887 0.09701177 -0.22223794 0.19134149 0.13117768 -0.014884937 -0.050453294 0.22534338
0.28490376 0.08318974 -0.18135601 0.15101503 0.00964473 -0.18638194 0.13209017 0.302491
-0.15647003 -0.15872991 -0.16078371 0.26646858 -0.06735974 0.20564671 -0.0728486 -0.072779484
0.10640073 0.28352365 0.050155222 -0.26653048 -0.33648148 0.08960074 -0.14409184 0.3241814
0.26621315 0.28756508 -0.2558654 0.0049834554 0.051672727 0.34787804 0.3108313 -0.16920918
-0.039306514 -0.0018606066 -0.094630085 0.20449084 0.1822415 0.017618116 -0.12886658 -0.16570006
-0.023637928 -0.040814485 0.1817567 -0.08770435 -0.03259035 -0.09031884 -0.18456218 0.19583702
0.084540635 -0.14074713 0.1297994 0.059347626 -0.15583679 0.063651286 0.23432937 0.04819725
-0.18026327 0.17353801 -0.08860716 0.035978056 -0.023044482 0.1386588 0.27152178 -0.35177946
0.031852726 0.09578756 0.011985412 0.072530866 0.078456216 -0.12737943 -0.22591613 0.11827819
-0.039914064 0.020927602 -0.16334774 0.12973835 -0.07913331 0.13686955 -0.0814844 0.022786528
-0.06482476 0.018787561 0.18776233 0.25255978 -0.25972843 0.0643458 0.10226005 -0.32267806
-0.029899681 0.041864067 0.03998113 0.12917875 0.009198639 -0.11218747 -0.0604018 -0.056369096
-0.054637767 -0.062690385 -0.08079733 0.10992272 0.03812084 0.03399896 -0.11451166 0.27483323
0.030996833 -0.10693351 0.039795276 0.18944004 -0.26982814 0.05187525 -0.019994404 -0.12607534
0.06735587 0.12276618 -0.42432913 -0.13739415 0.12649265 0.026488563 0.1403479 -0.1992088
0.13773732 0.05261513 0.27387145 0.09960215 0.05746333 0.24289742 -0.18111242 -0.022294827
-0.33895013 -0.21289669 -0.054303683 -0.38548955 0.022857971 0.053927552 0.2108716 0.06729077
-0.1620446 -0.0890837 0.13070855 -0.2159348 0.15170896 0.082023375 -0.24294221 0.105571434
0.0056796037 -0.09161807 -0.051202808 0.12982452 0.32072112 0.015788743 0.012436988 -0.26910326
0.2881638 0.01195213 0.25499606 0.019206997 0.030612659 0.12290222 0.15045781 -0.13503967
0.11754181 -0.117374174 0.1743688 0.030513085 0.022038434 0.18847302 0.13893786 0.22632298
0.05854656 0.08319105 -0.086748414 0.09924169 -0.12333421 -0.1042894 0.14690283 -0.12604704
0.056359082 -0.15483536 0.20245285 0.11719269 0.07056633 -0.12533696 0.079858966 -0.032410298
-0.18446198 0.16346411 0.03995301 -0.1023856 -0.13802716 0.12542546 0.25337484 -0.09099773
0.15476863 -0.10275209 0.12953615 0.053622242 -0.036342762 0.11299579 0.16610447 0.29804277
0.0192242 0.19597435 0.023811067 0.09104895 0.033969436 -0.19103321 0.008616826 0.0040325425
0.10230096 -0.26167032 -0.2812994 0.16827153 0.43905228 -0.14834505 0.04636004 -0.2846279
0.054710742 0.08981179 0.32697988 0.13706852 -0.04044822 -0.22487824 -0.18882 -0.054755248
-0.07286794 -0.19459945 0.1257312 -0.17728142 0.19032274 -0.11604244 0.11162094 0.14478841
