baseline/DLPL-CAP/models_dlpl-cap-classifier/sandwich+ultra8t_to_ssram+digtime+timing_ctrl+array_128_32_8t/dlpl-cap-classifier_nh_2_tsk_regression_ngl_4_nhl_4_hd_32_us_1_bn_0_dp_0.0_epoch_16_20250402_172512.pth (torch, 63134 bytes, 24 tensors)

net_attr_layers.weight f4 [16, 17]
000000 37 ee a3 3d 8d 48 c5 3d 45 a8 36 be a0 24 64 3e
       0.0800442 0.096329786 -0.17837627 0.22279596
000010 26 a7 85 be 37 e8 71 bd c3 d3 f1 bd ff da 11 3e
       -0.26104087 -0.059059348 -0.118079685 0.14243697
000020 d8 ef 5a 3e 89 33 36 be d9 de 57 3e cc ed 39 3d
       0.21380556 -0.17793097 0.21081103 0.045392796
000030 eb 7c 37 3e 4d 8a 06 3d 53 82 ef 3d 84 dd 94 be
       0.17918746 0.032846738 0.11694779 -0.29075253
000040 68 d0 69 bf 79 79 17 3e 44 9f db 3d 2c f1 37 be
       -0.9133363 0.14792432 0.10723737 -0.17963094
000050 96 da e4 bd 0e e2 21 be 1b e9 09 3e a2 c0 24 3e
       -0.111745045 -0.1580889 0.13467829 0.16089109
000060 92 0b 44 be 64 fd e4 bd 5a 42 8c bd 75 54 15 be
       -0.19145039 -0.11181143 -0.06848593 -0.14582999
000070 78 86 bb 3c e8 4b 75 be 01 4b 60 3e 8f f8 52 be
       0.022891268 -0.23954737 0.21903612 -0.2060263
000080 0a 6c e7 bd e0 84 56 3f e3 97 75 be b4 be b3 bd
       -0.11299904 0.837965 -0.23983721 -0.08776608
000090 80 80 13 3e b6 a9 48 3e 18 fe 69 3c 16 eb a3 be
       0.14404488 0.1959599 0.014281772 -0.32015294
0000a0 6b 75 85 3d c6 b2 86 bd 9f 0b d1 3d f8 bc 5d 3e
       0.06516536 -0.06577067 0.10207295 0.21654117
0000b0 99 90 0f 3e 36 26 d9 bd 0f 5e 0f 3e fd bf 31 3d
       0.14020003 -0.10602991 0.14000724 0.043395985
0000c0 8c 3f fc 3d 6e d2 88 3d 3d 80 bd bf 2b a2 39 3d
       0.12316808 0.06680761 -1.480476 0.04532067
0000d0 29 07 9b 3d fb ee 94 bd a3 11 8f 3d 22 bf 81 bc
       0.07569725 -0.072721444 0.06985786 -0.01583821
0000e0 0c ca b4 3e bd 40 8a bb a7 5d 42 3e ed 75 30 be
       0.353104 -0.004219143 0.18981038 -0.17232485
0000f0 fd 32 7a 3c 66 83 29 be 95 29 99 3d 24 0f ab bd
       0.015270946 -0.16554031 0.07478634 -0.08352497
000100 70 33 98 3d c9 f8 4e bd 1b 69 cc bd 08 50 24 3f
       0.07431686 -0.05053023 -0.09980985 0.6418462
000110 31 d3 52 be 5e 09 ce bd b8 96 34 be b8 87 a5 3d
       -0.20588376 -0.100603804 -0.1763562 0.08082527
000120 95 a4 a7 bd 8f 18 16 be bf 56 76 be 1c 4e 42 be
       -0.081856884 -0.14657806 -0.24056529 -0.18975109
000130 13 11 27 be 4e 30 c9 3d 65 dc b1 3d 8e 5d 4e 3e
       -0.16315107 0.098236665 0.08684615 0.20152876
000140 f1 41 00 be bb 4e 29 be c4 c5 03 3e 68 dc 32 bf
       -0.12525155 -0.1653394 0.1286841 -0.69867563
000150 8f 74 5f 3f 70 5e a8 be 6a e1 58 be 8b 6a 35 be
       0.8728723 -0.3288455 -0.21179739 -0.17716424
000160 84 aa fa bd f4 36 4e 3e 95 8d 84 be 5a 48 7d bd
       -0.122395545 0.2013815 -0.2588927 -0.061836578
000170 a7 09 14 3e c4 d5 28 3e fc 19 34 be f2 96 04 be
       0.14456807 0.16487795 -0.17588037 -0.12948206
000180 1b 69 63 3e 6b 9b a7 bd c7 17 b0 bd f3 4e 70 be
       0.22208063 -0.081839405 -0.08598285 -0.23467617
000190 20 01 eb bd 39 90 86 bf 34 17 b6 3e 83 8b 8a 3e
       -0.11474824 -1.0512763 0.35564578 0.27059564
0001a0 d3 77 f4 3d d1 a5 29 be da 2f c9 3e 6e 6e bf 3e
       0.11936917 -0.1656716 0.3929432 0.3738894
0001b0 56 5d 59 be 55 23 1e be 64 42 78 3e 1e a2 3b 3d
       -0.21227011 -0.15443166 0.24244076 0.045808904
0001c0 22 11 99 3d 60 a3 67 be 31 1d 23 be 74 55 a5 bd
       0.07473971 -0.22620916 -0.15929104 -0.080729395
0001d0 d7 57 1b 3d ef 50 af be d0 37 be 3e 9d e8 b2 bd
       0.037925567 -0.34241435 0.37151957 -0.08735774
0001e0 3f 37 14 bd 5b 80 ac 3e 30 ae 89 bc 68 e4 7d be
       -0.0361855 0.33691677 -0.016806692 -0.24794161
0001f0 89 f8 83 be 41 e4 10 be 09 06 aa bd e5 05 44 be
       -0.25775555 -0.14149572 -0.08301932 -0.19142874
000200 4b 3d 50 3e c9 28 45 bd 63 af 55 3e 51 c4 9a 3d
       0.20335881 -0.0481346 0.20867686 0.07556976
000210 b9 4e 52 be 16 df 2b 3e b8 ae 81 3e fb ae 0f be
       -0.20537843 0.1678432 0.25328612 -0.14031594
000220 e7 d9 af be f0 21 e1 be a4 8a d8 3d ff 01 59 bd
       -0.34345934 -0.43971205 0.105733186 -0.05298042
000230 05 71 4e 3e 18 9c bd be 18 63 38 3e 97 4e 36 be
       0.20160301 -0.37033153 0.18006551 -0.17803417
000240 c6 89 2b bd 1f 7f 4f 3d e8 36 00 3e 31 80 48 3e
       -0.041879438 0.05065834 0.12520945 0.19580151
000250 1d 3e 62 3e 67 ed 44 be 45 03 7a 3d 94 b5 47 3d
       0.22094007 -0.19231187 0.061038274 0.04875715
000260 ee fd a0 bf ec 5f bc bc 7e 97 f1 3e 12 b9 b2 be
       -1.2577493 -0.022994958 0.47185892 -0.34906822
000270 03 bc 04 3e 73 e6 36 3e 6a 40 b5 3e e2 45 06 be
       0.12962346 0.17861347 0.35400707 -0.13112596
000280 77 be 61 3e 45 4e 5a 3d b7 96 ff 3c 87 dd 5a be
       0.22045313 0.0532973 0.031199796 -0.21373568
000290 ae 83 d0 3d cb 08 15 bd 67 8e e3 bd 2f 53 55 3e
       0.10181366 -0.03638534 -0.111111455 0.20832513
0002a0 a7 1f 51 bd d7 e9 59 3f 06 0e 59 bc 03 ec a2 3d
       -0.051055577 0.85122436 -0.013247972 0.07955172
0002b0 4f 40 a5 3e 9a da 7d bd 85 3c f1 3d 9a 0e 77 3c
       0.32275626 -0.061976053 0.11779121 0.015079165
0002c0 77 8a 39 be db 24 b1 3d e7 3c 40 3e 14 d0 69 be
       -0.18119226 0.08649608 0.18773232 -0.22833282
0002d0 4e b9 66 3d 86 4c 00 3e 26 23 34 3d 48 e4 b0 bd
       0.056329064 0.12529191 0.043978833 -0.08637291
0002e0 b2 a0 01 3e 28 7b d2 3e 8a 0b 86 3f cb 4e 0c 3e
       0.12658957 0.41109586 1.0472271 0.13701932
0002f0 97 1c 40 3d c5 13 e9 3e 25 7e 2f bd ba 8b 54 3f
       0.046902265 0.45522895 -0.04284491 0.83025706
000300 64 e6 a8 3e fc 6f 55 3e 6d b1 c4 bc c9 6c 5e bd
       0.32988274 0.208435 -0.024010384 -0.054302964
000310 16 f1 67 3b 49 43 6d bc af d4 6e 3d 17 32 8b 3d
       0.00353915 -0.014481374 0.0583083 0.06796663
000320 4b 92 61 be 4b 4e b7 bd 57 57 2b 3f a0 f8 e8 be
       -0.22028463 -0.0895048 0.66930145 -0.45502186
000330 82 a7 b1 bd 0b 84 7e be cb c7 e9 bd 31 78 5e be
       -0.08674528 -0.24855058 -0.114150606 -0.21725537
000340 c5 d0 96 3e d7 09 49 3d 83 5b 1e 3e c0 54 e5 3d
       0.29456154 0.04908165 0.15464596 0.111978054
000350 81 88 5b be 2e 5a 15 be 76 c7 1c bd 5d 3f 70 3e
       -0.21438791 -0.14585182 -0.03827616 0.23461671
000360 dd b4 0f 3d 56 a2 80 bd 6b 7f cd 3d aa 73 0e 3e
       0.035084594 -0.06280963 0.10034069 0.1391131
000370 fb 8c 77 bf e5 d1 55 be 31 75 bc be a3 f8 44 bf
       -0.96699494 -0.2088085 -0.3680816 -0.7694189
000380 eb 10 77 be ce 73 ff be dd 0d 88 bd b1 06 b5 3d
       -0.24127547 -0.4989304 -0.06643269 0.08839167
000390 2d 2c 2d be e8 1c 75 be bc b5 49 be 11 33 39 3e
       -0.16911383 -0.23936808 -0.19698232 0.18085887
0003a0 89 79 ee 3d 3b fe 50 3e 42 1b 02 3e a6 6d 7b 3d
       0.11644275 0.20409481 0.1270571 0.061383866
0003b0 49 32 c2 be b7 dd 8f 3e b8 d6 78 be 32 e4 5e be
       -0.3792899 0.28098843 -0.24300659 -0.21766737
0003c0 fc a3 0a be c3 de f3 bd fe 18 68 be c3 ca f6 bd
       -0.13539118 -0.11907723 -0.22665784 -0.120503925
0003d0 8e 06 35 bd 4d cd 2e be af 47 22 be db c3 a4 3d
       -0.044195704 -0.17070504 -0.15847658 0.08045169
0003e0 0d 9f 93 bd 39 52 19 3e 91 59 9f bd a9 2f 36 be
       -0.07208071 0.14972772 -0.07780755 -0.17791618
0003f0 6d 47 2f bd ad 44 6a be 8e 16 86 bf 54 6d d0 be
       -0.042792726 -0.2287776 -1.0475633 -0.4070841

net_attr_layers.bias f4 [16]
000000 d7 f7 1a 3e b3 a0 6d 3d dc 70 6f 3e c0 a3 4f bc
       0.15133606 0.058014583 0.23382896 -0.012673318
000010 5a 75 49 be aa 5f 01 3e de 9d fc 3d 3b 5e 54 be
       -0.19673672 0.12634149 0.12334798 -0.20739071
000020 f0 f3 93 3d 19 40 e6 bd c7 05 33 bd 96 50 cd bc
       0.07224262 -0.112426944 -0.04370668 -0.02506284
000030 c4 2e 38 3c 19 9a 0a be 6f f3 23 be af 08 1e 3e
       0.011241619 -0.13535346 -0.16010831 0.15433

dev_attr_layers.weight f4 [16, 17]
000000 92 d4 90 3e 77 c8 d3 bf 37 ed 1c 40 d9 20 da bf
       0.28287178 -1.6545552 2.4519784 -1.7041274
000010 c7 94 b9 bf cd af 71 be 89 9b b8 3d f3 5b 08 be
       -1.4498528 -0.23602219 0.09014041 -0.13316326
000020 a4 a9 1f be 41 05 9b bc 34 69 a5 bd 6c b2 a0 bd
       -0.15592057 -0.018923404 -0.080767065 -0.07846531
000030 15 5c ff 3b cd b7 52 bd 45 43 97 bc f1 d4 85 bf
       0.0077929595 -0.051444817 -0.018464694 -1.045561
000040 8b 1e 4a be 65 f0 35 3e d1 e3 dd 3f 75 b4 15 c0
       -0.19738214 0.17767484 1.7335149 -2.3391392
000050 ee 5a c5 3f c6 b0 9d 3f f8 8a 67 3e d0 d8 e4 3d
       1.5418375 1.2319572 0.22611606 0.11174166
000060 c4 39 57 be 92 25 c5 3d 28 c0 6b 3e 49 ad 82 3d
       -0.2101813 0.096263066 0.2302252 0.06380708
000070 1b 81 26 3e ff d9 74 3e be 38 18 bd 89 72 c1 3c
       0.16260187 0.23911284 -0.03716349 0.023614185
000080 95 a2 22 bf ea b8 4c bd d5 67 34 3e 5b 88 00 c0
       -0.6352933 -0.049981035 0.17617734 -2.0083225
000090 93 cc 1d 40 8f ea 07 c0 68 84 d0 bf f3 18 75 be
       2.4656112 -2.1236913 -1.6290407 -0.23935299
0000a0 3c a4 3f be f1 ab 75 bd 30 9c 27 3e 28 48 26 3d
       -0.18714994 -0.05997843 0.16368175 0.040596157
0000b0 bb e6 3c be cd 3c 47 be 37 1a f7 3d e1 bc 38 be
       -0.18447392 -0.19456787 0.12065547 -0.18040802
0000c0 13 30 05 bd 26 61 a6 3d 7f e2 e5 bd 2a 6b b1 bd
       -0.03251655 0.08123998 -0.11224841 -0.08663018
0000d0 c6 c6 d9 3f 92 5a 44 c0 01 5b cb 3f ee 8f 8a 3f
       1.7013786 -3.068028 1.5887147 1.0825174
0000e0 bd c2 48 be 41 fc 04 be 3f df 6f 3e 6f eb ef bd
       -0.19605537 -0.12986852 0.23425005 -0.11714827
0000f0 40 c7 26 be fa cc 70 3d 33 e6 88 3d b2 13 08 3e
       -0.16286945 0.05878923 0.06684532 0.13288763
000100 e4 c7 3c 3e 44 86 c1 3d e9 80 b6 bc 0d 36 b0 3c
       0.18435627 0.09449437 -0.022278266 0.021510148
000110 ac ec 0a 3e 9f e7 c0 3f 40 9b 32 c0 07 d6 c3 3f
       0.13566846 1.5070685 -2.7907257 1.5299691
000120 b9 92 62 3f 81 66 0d be 34 e8 5f be a8 7f 31 3c
       0.8850513 -0.13808633 -0.21865922 0.010833658
000130 26 1c dc 3d 56 e8 5b 3d 20 73 44 3d b6 59 3c be
       0.107475564 0.05368837 0.047961354 -0.18393597
000140 dc ef 67 be e0 f2 8b 3b 12 ea 4f 3e 6a 12 c2 be
       -0.22650093 0.0042708963 0.20304134 -0.37904674
000150 06 9a 10 be bf fe 18 3d d2 81 23 c0 b8 a0 ef 3f
       -0.14121255 0.03735232 -2.5547986 1.8720922
000160 d8 dc 00 c0 9e e9 b3 bf 1a bb 4d 3e 81 04 64 be
       -2.0134792 -1.4055669 0.20090905 -0.22267343
000170 0f 0e 26 3e f3 29 2f be b3 00 ba 3d a6 2b 52 3e
       0.162163 -0.17105846 0.090821646 0.20524463
000180 74 33 5f 3b fb f4 61 3e cd 9c 53 be a0 b9 b2 bb
       0.0034057768 0.22066109 -0.20665284 -0.005454257
000190 56 38 16 3e 81 6f 58 bd a9 9f 8a bd 54 72 46 3f
       0.14669928 -0.052840713 -0.06768734 0.775182
0001a0 b6 ad 43 c0 d1 50 af 3f bf 6e 83 3f 3c 91 0b be
       -3.0574775 1.3696538 1.0268172 -0.13629621
0001b0 70 9a 49 be 2c e6 d6 3c 60 2a 93 3d 99 56 e5 bd
       -0.1968782 0.026232801 0.07185817 -0.11198158
0001c0 a8 fa 8a bd 61 bb 27 3e a3 45 9e 3c 71 49 33 3c
       -0.0678609 0.16380073 0.019320315 0.010942803
0001d0 c6 2d f5 bc 55 03 03 3f df 84 69 be c3 e2 da bc
       -0.029929053 0.5117696 -0.22804593 -0.026719457
0001e0 d8 96 96 bc 9f 31 43 40 0c 7e 44 bf 0e 06 20 bf
       -0.018382475 3.0499036 -0.7675483 -0.6250924
0001f0 5c ca 6c 3e 38 04 ad 3d cd 0d 31 3e 0f 77 f0 bd
       0.23124069 0.0844807 0.17290421 -0.117414586
000200 09 e4 ca bd e7 8f b6 3d 47 79 25 be 05 5a 22 be
       -0.099067755 0.08914166 -0.16159545 -0.15854652
000210 b7 ed 3f bc 97 c6 9e bd 1d 3c 4d bf 9b 50 13 3e
       -0.0117143905 -0.07752722 -0.8016985 0.14386217
000220 13 da 5a 3e e5 92 21 c0 77 54 04 40 36 91 15 c0
       0.21372251 -2.5245907 2.0676553 -2.336988
000230 d3 1e ce bf 76 e9 7c 3d 2c 37 ea 3d 41 2c fb bc
       -1.6103157 0.061746083 0.114363045 -0.03066075
000240 7b 60 c4 bd 05 64 0a 3e 81 ca 45 be 3c f7 1c 3e
       -0.09588715 0.13514717 -0.1931553 0.15328687
000250 c3 b3 c0 bd c8 46 73 3b d7 ce ec bb bc 4e bf 3e
       -0.09409287 0.0037121046 -0.0072268057 0.37364757
000260 1a 1b 96 bd 3d e8 fc 3d c0 e0 d3 3f 7f 29 32 c0
       -0.07329388 0.123489834 1.6552963 -2.7837827
000270 fe 52 ef 3f 0e de 91 3f a6 2d 35 be c4 41 47 3e
       1.8697202 1.1395891 -0.17693195 0.19458681
000280 97 9d 42 3e c5 a1 3d be 16 97 99 bc 2e e9 74 be
       0.19005428 -0.18518741 -0.018748801 -0.23917076
000290 ec 4d 4b be 70 df 3f 3d 91 24 84 3d ab 84 5d 3c
       -0.19853944 0.046843946 0.06452287 0.0135204
0002a0 f9 0f 05 3f cf 20 65 3e 10 47 e2 bd 17 72 9a 3f
       0.519775 0.22375797 -0.1104871 1.2066067
0002b0 87 df 1c c0 6d fd b5 3f 5e 01 8c 3f ad 9b 2f be
       -2.451143 1.4217964 1.0937917 -0.1714923
0002c0 b0 29 ba 3d f4 c2 fd bd 92 5e 4e be 76 a7 07 be
       0.090899825 -0.123907 -0.20153263 -0.13247475
0002d0 6e 84 6f 3e 3a 4f 54 3e 3d 66 5e 3e bd c9 11 3e
       0.23390362 0.20733348 0.21718688 0.14237113
0002e0 36 7d 5b 3d 6d 1b 4f 3f 15 a7 08 be 84 c1 5d 3d
       0.053586207 0.80901223 -0.13344987 0.05413963
0002f0 b5 fa d0 bf 31 e5 9b 3f 9f 5a 68 bf c8 7f 17 bf
       -1.632651 1.2179319 -0.90763277 -0.59179354
000300 c6 b4 ff 3d 84 ed c0 bd 9c 2c 12 be 9a 01 06 3d
       0.12485652 -0.094203025 -0.1427483 0.03271637
000310 ba 63 12 be 00 b2 21 be cf 74 01 3e 59 e1 26 bd
       -0.14295855 -0.15790558 0.12642215 -0.040742252
000320 c5 f1 62 3e be 9d 5f 3e e9 97 53 3f 95 f2 aa 3d
       0.2216254 0.21837518 0.8265367 0.0834705
000330 bd 1b f0 3d 2b 5f e1 bf 75 35 d6 3f 7a 52 4e bf
       0.11724041 -1.7607168 1.6735064 -0.805946
000340 dc 03 e9 be 24 ea 66 3e 49 ba 80 bd e9 f7 d1 bd
       -0.45510757 0.22550255 -0.06285531 -0.10252363
000350 a5 92 70 bd 5d f9 ef bd bd eb 28 3d a3 62 39 3e
       -0.0587336 -0.11717484 0.041240443 0.18104033
000360 8b 35 42 3e b8 0d e4 3d eb 61 4f bd bd 65 e8 3e
       0.18965738 0.11135429 -0.05063049 0.4539012
000370 5b 44 5a bd 39 85 a4 bd 65 e9 cd 3e 52 6b 80 c0
       -0.053287845 -0.08033223 0.40217128 -4.0131006
000380 90 4d 51 3f 80 de e8 3e 70 25 1d be af 7a 4e be
       0.81758976 0.45482254 -0.15346313 -0.20163988
000390 db 65 58 3e bb 2d 6b be 14 5a 3b 3e 67 95 05 bc
       0.21132605 -0.22966664 0.18296081 -0.008153296
0003a0 87 11 e7 bc 76 57 1b 3e d5 a3 b7 bc b3 dc 2b 3e
       -0.0282066 0.15170082 -0.022416988 0.16783409
0003b0 9c 20 b6 be 27 a0 57 be 89 f4 68 3e 6b df c3 bf
       -0.35571754 -0.21057187 0.22749533 -1.5302557
0003c0 1f f2 ce 3f 1e 89 80 bf fa e2 1a bf be f3 ee bd
       1.616764 -1.0041845 -0.6050259 -0.11667584
0003d0 38 33 fe bc ec f7 6b 3e b1 db 26 3e 30 49 15 bc
       -0.031030282 0.23043793 0.16294743 -0.009111688
0003e0 42 96 69 be 98 28 2e 3c cb 1f 29 be 1d f6 49 3e
       -0.22811225 0.0106297955 -0.16516034 0.19722791
0003f0 0a 5f 0c 3d 52 ec 30 bf cd 7b 5c bd eb 11 a9 bd
       0.034270324 -0.69110596 -0.053829003 -0.08255371

dev_attr_layers.bias f4 [16]
000000 a5 fe 7a 3e 33 1e 51 3e d5 26 17 3c 29 ad 89 be
       0.24511202 0.20421676 0.009225567 -0.26889923
000010 d5 c8 39 be b1 96 a7 bd d9 bf 6d be 30 58 04 bd
       -0.18143018 -0.08183039 -0.23217715 -0.032310665
000020 a5 77 51 be c1 a5 8d be 55 91 94 be db e4 9c be
       -0.20455797 -0.27665523 -0.2901713 -0.30643353
000030 ce 2c b3 bd 33 64 69 3d fb 49 ac 3e bd a9 4a be
       -0.0874878 0.056980323 0.33650193 -0.19791313

pin_attr_layers.weight f4 [17, 16]
000000 29 36 5a bf ce ed 96 bf 69 3c 3d 3e f2 68 4f bf
       -0.8523889 -1.1791322 0.18480076 -0.8101951
000010 83 dd d9 bf 5f f2 53 be 47 f7 27 bf 03 be 16 40
       -1.7020725 -0.20697926 -0.6561169 2.3553474
000020 5c 21 02 bf b5 9b 9f bf 8e ef 39 3f 48 cb 5d bd
       -0.5083215 -1.2469393 0.72631156 -0.054148942
000030 a6 6c e0 be 3e 8b a7 be 5c b1 ba bf b9 0c 77 bf
       -0.43832892 -0.3272342 -1.4585376 -0.9650379
000040 5c f5 42 3e 46 62 ac 3d 5d 46 4d 3f cb c9 f0 bd
       0.1903891 0.08417182 0.8018549 -0.11757239
000050 f6 dc 3f bf b5 81 ab 3e be 80 76 3f d6 aa ac bf
       -0.74946535 0.33497396 0.96290195 -1.3489635
000060 21 4d 26 3f c1 13 95 bf 09 85 59 3c 25 ec 15 3f
       0.6496144 -1.1646653 0.013276347 0.5856345
000070 75 1b 06 3f 8d e6 50 3d 50 59 e5 3f 20 8c 3b 3f
       0.52385646 0.05100112 1.7917881 0.7326069
000080 bb 30 d7 bf 85 2b 16 40 f6 d8 75 bf d9 06 46 3f
       -1.6811746 2.3464062 -0.9603418 0.773542
000090 b9 ce a3 be 60 38 11 c0 57 3f 79 3f 79 ed 93 3e
       -0.31993654 -2.2690659 0.97362274 0.28892115
0000a0 e0 4b 5a bf 86 66 da 3f b5 24 a5 3f 37 b2 12 be
       -0.85272026 1.7062538 1.2901827 -0.14325796
0000b0 b0 ae ef 3e 8d 68 cb 3e 33 d0 35 3f 08 0f 88 3f
       0.46812963 0.39728203 0.7102081 1.0629587
0000c0 c9 db d3 be 71 b6 04 3f ea 97 33 bf c9 5b dd be
       -0.4137862 0.51840883 -0.7015368 -0.4323409
0000d0 5c df 10 3e c7 9e 91 3d e8 37 10 3f 79 21 14 bf
       0.14147705 0.071103625 0.56335306 -0.57863575
0000e0 57 ba 8a bf 4f 21 c7 be 3f 07 50 3f 5b c2 bf 3f
       -1.0838116 -0.388926 0.81261057 1.4981188
0000f0 62 cc 33 3d 96 df b8 3f fd 98 6d 3e e0 a9 01 3f
       0.043896087 1.4443233 0.23202892 0.50649834
000100 55 ac a3 bf 1f 66 1d bd 6e f7 f4 3f f8 f9 ac 3e
       -1.2786967 -0.03842747 1.913801 0.3378446
000110 b6 0e 00 3e 5c 1c 43 bf 45 64 98 bf 34 8e 46 3f
       0.12505612 -0.7621515 -1.19056 0.77560735
000120 1f 54 e9 3e 4c 2b 80 3e 6e 38 ae bf 80 a2 e6 3f
       0.45571992 0.25033033 -1.3610971 1.8018341
000130 97 40 98 bd a5 66 20 be bb ef 5e bf f3 1e 24 bf
       -0.074341945 -0.15664156 -0.8708455 -0.64109725
000140 95 41 d4 be 71 b3 30 bf a3 79 6b be b3 06 0b c0
       -0.41456285 -0.69023806 -0.2299562 -2.172284
000150 45 93 b3 3d 22 01 8c 3f 7d 17 f1 bd c4 e7 98 be
       0.08768324 1.0937846 -0.11772058 -0.29864323
000160 7b 20 74 bf 5e 62 bd bd bd 21 82 bf 5a 84 fb bb
       -0.9536206 -0.09247278 -1.0166546 -0.0076756896
000170 1f aa 04 bf 43 ec 56 3f 77 b5 6f 3d 27 89 d5 bf
       -0.51822084 0.83954257 0.058522668 -1.668248
000180 c6 4b 08 40 a5 52 c2 bf ca 0e 0e 3e 46 02 97 bf
       2.1296248 -1.5181471 0.13872829 -1.1797569
000190 1e 9d 07 bf 6f 67 76 3f 89 12 8f 3e bd 62 12 bf
       -0.52974117 0.9625158 0.2794383 -0.5718191
0001a0 d1 ca 32 c0 39 0e 36 bf 89 05 06 3f 4e f3 da bf
       -2.793629 -0.7111545 0.52352196 -1.7105501
0001b0 fa a6 56 3f 2c 29 8a be b6 07 fc 3d 3a 31 60 3f
       0.83848536 -0.26984537 0.12306158 0.87575114
0001c0 3f f6 1a 3e e3 48 3d 3f 2d d4 8b 3e 7d cc 2e 40
       0.15132998 0.7393934 0.27310315 2.731231
0001d0 ca 2f dd 3e 20 4d 9e be 63 cc c5 bd cd 5d c5 3f
       0.43200523 -0.30918217 -0.09658124 1.5419251
0001e0 95 b5 de bd a1 7a d6 be c1 1e b8 3f a4 f3 34 bf
       -0.10874478 -0.41890433 1.4384385 -0.70684266
0001f0 f2 3f a0 bf 65 9a 41 40 37 52 ac 3f 0f 09 5b 3f
       -1.2519515 3.0250485 1.346259 0.855607
000200 0a e1 a4 3e 89 61 e4 3e 54 f0 c2 3f 18 e7 a3 3f
       0.3220294 0.44605663 1.5229592 1.2804899
000210 85 e5 ed bd bc 6d af 3f 86 3d f6 be 61 88 7d bf
       -0.11616043 1.3705363 -0.48093814 -0.9903622
000220 7e 9d ae bf 00 71 06 3c e8 cc cf be bb 09 36 bf
       -1.3641813 0.008205652 -0.4058602 -0.711086
000230 11 fc b2 be 70 6e c2 3e 64 d2 7f 3f 46 39 a3 3f
       -0.34957936 0.37974882 0.99930406 1.2751853
000240 51 a1 75 3f 0d fd d3 3d a3 3b 54 3f 73 e5 05 40
       0.95949274 0.10351 0.829035 2.0921295
000250 68 99 4b 3f 6a fe 8e 3e 2f ec 3e 3e fb 9c b5 3e
       0.79530954 0.27928478 0.18644784 0.3547133
000260 ae a0 b9 3d 39 02 df 3f 54 0c a2 bf 16 40 c7 3e
       0.0906385 1.7422553 -1.2660012 0.3891608
000270 52 8d af 3e 9a c2 ba bf 20 30 bf bf ce b2 62 be
       0.34287506 -1.4590638 -1.4936562 -0.22138521
000280 05 a4 66 3e d3 32 9e bd 7a 56 7c 3f 87 a0 a3 3f
       0.22523506 -0.07724538 0.9856945 1.2783364
000290 a5 88 93 3e 09 7a 5e 3f e1 48 4f bf ab 05 b7 bf
       0.2881519 0.8690496 -0.8097058 -1.4298605
0002a0 24 04 eb 3e 37 eb 07 3f fc 44 ae bf 5f 66 fa 3f
       0.45901597 0.53093284 -1.3614802 1.9562491
0002b0 e0 5d e2 3f 4b 5d 7c bf 80 58 9e bf ec 51 13 c0
       1.7684898 -0.98579854 -1.2370758 -2.301875
0002c0 5c 36 84 ba f6 73 59 bf f6 66 d4 bf 1f d2 9c 3e
       -0.0010087001 -0.8494257 -1.6593921 0.3062906
0002d0 3c 4d 97 3f 01 ed a6 3e 98 65 c7 be 2c ae 36 40
       1.1820445 0.32602695 -0.38944697 2.8543806
0002e0 97 09 53 3f 79 60 4c 3f 7b cb f1 3f 2e ed 17 3f
       0.8243651 0.79834706 1.8890222 0.5934628
0002f0 fd a6 8e 3d 52 3d cd bf 9b 11 dc be 24 7f 13 3f
       0.06965444 -1.6034338 -0.42982182 0.57615876
000300 5e 50 b0 3e b6 80 46 c0 6c b7 ba bf 11 46 b7 bf
       0.34436315 -3.101606 -1.4587226 -1.4318258
000310 ab 6c 1b bf 5d fc 84 be 9a 11 38 bf a3 8b c5 be
       -0.6071269 -0.25973788 -0.7190186 -0.38583097
000320 6e fa 05 3f a5 38 52 bf bb 15 f1 be 3b 05 1a 3f
       0.5233525 -0.8211768 -0.47086892 0.6016423
000330 51 a5 90 be bf ee 44 3f 10 53 44 bf 8f 11 73 bf
       -0.28251126 0.769268 -0.76689243 -0.9494867
000340 5b 96 8a 3c 7b 68 a4 3d eb ad 3e 3f da 38 ac 3f
       0.016917398 0.080277406 0.7448413 1.345485
000350 99 dd 01 3e be ee 1c c0 d3 fa d4 3e 4a 86 f3 3f
       0.12682189 -2.4520717 0.41597614 1.9025357
000360 55 13 3c bf 66 ea 36 3d 0e b4 c2 bf c5 17 b2 3e
       -0.73467 0.044657134 -1.5211198 0.3478376
000370 42 7c 3d 3f 07 46 b5 3f 2b f3 2e 3f e3 91 0d be
       0.7401773 1.4161996 0.68339795 -0.13825183
000380 49 da 6b 3f 06 3b 07 3f 5b d0 06 bc b6 83 b9 bf
       0.9212995 0.5282444 -0.008228387 -1.449332
000390 3c ed 1a bf 08 8c 37 be 1e 59 4c 3e 4f 83 9f bf
       -0.6051824 -0.17924511 0.1995587 -1.2461947
0003a0 5f 46 d4 be f3 59 ba 3f 7a ce a9 3e 4e 03 80 bf
       -0.4145994 1.45587 0.33165342 -1.0001009
0003b0 cc 23 31 bf c6 a8 f1 be 2f 0c a5 bf 94 c3 89 3f
       -0.69195247 -0.47199076 -1.2894343 1.0762811
0003c0 07 8b 88 bf c8 a2 fe bf 6a 39 98 3e 55 71 de 3e
       -1.0667428 -1.9893427 0.29731303 0.4344584
0003d0 78 62 5e 3b e9 12 83 bf bd 6c 65 3e 0a 67 41 bf
       0.0033933204 -1.0240146 0.22404762 -0.7554785
0003e0 e5 0c af 3f 6a b4 a3 be 6d c0 69 bf a7 a8 f5 3f
       1.367581 -0.31973583 -0.91309243 1.9192094
0003f0 ed 63 d3 bf 55 74 09 40 db 10 29 bf 3c 80 e8 3d
       -1.651487 2.1477253 -0.66041344 0.11352584

node_encoder.weight f4 [4, 16]
000000 66 24 38 3f 25 c2 95 be 53 bf c7 3f 0d 6b 67 3f
       0.7193054 -0.29249683 1.5605263 0.9039772
000010 d2 54 28 be d0 20 6f 3f f9 b0 f3 3d 9b bb 2d 3e
       -0.16438606 0.9340944 0.11898989 0.16966097
000020 73 f7 37 bf 01 6b e5 bf e8 b0 f9 be 1e 3d dc be
       -0.7186195 -1.792328 -0.4876778 -0.4301538
000030 0a 75 1e 3e 90 82 5f 3f a3 a6 b9 3d 9e 4a 8d 3f
       0.15474334 0.873086 0.090649866 1.1038396
000040 da dd 30 bf 55 12 ea bf d8 77 bf bf bc ec 16 bf
       -0.6908852 -1.8286844 -1.4958448 -0.5895498
000050 ce c6 e4 3e 27 c8 72 be 5c 30 1b be 6e 89 fc bf
       0.44682926 -0.23709165 -0.15155166 -1.972944
000060 48 57 54 be fb 26 63 be 06 1d 65 3f ba 1c 4f 3f
       -0.2073642 -0.22182839 0.8949741 0.8090321
000070 ce 5c 80 bf c6 84 8b be b8 c1 3f bf b5 a5 48 3f
       -1.0028322 -0.27249736 -0.74904966 0.7837785
000080 a6 df 51 3f c0 ae 62 bf d4 3c 22 bf 02 84 d8 be
       0.81981885 -0.885479 -0.63374066 -0.42288214
000090 b3 b2 80 bf f4 7e b9 bf 2c d7 06 3f 12 ef 27 bd
       -1.0054535 -1.4491868 0.52672076 -0.04099948
0000a0 c3 75 e9 3e 7c 82 c8 be 47 37 e3 bc 16 43 ef 3d
       0.45597658 -0.39162052 -0.02773632 0.116827175
0000b0 7d 23 f4 3e 16 26 86 bd 20 b0 65 bf 8e 8f 14 bf
       0.47683325 -0.06550233 -0.8972187 -0.5803155
0000c0 38 0b 36 bf 2e f9 c5 be 71 34 75 3f 62 91 52 bf
       -0.7111087 -0.38666672 0.95783144 -0.82253087
0000d0 f3 02 19 c0 a7 fd a4 3e bd 0c f0 3f ab 59 8d 3f
       -2.390805 0.3222477 1.8753887 1.104299
0000e0 6d ba 05 bf 76 7c 3d bf cd 40 26 3e 80 af 72 be
       -0.5223759 -0.7401804 0.16235657 -0.2369976
0000f0 15 8b 02 3f 09 d7 d5 3f 19 ca cb 3f 22 17 d5 be
       0.5099347 1.6706249 1.592105 -0.4161921

gnn_layers.0.lin_l.weight f4 [32, 32]
000000 84 74 2f bc 17 ff 10 3d 19 0e 90 3d cb 78 03 be
       -0.010708932 0.035399523 0.07033939 -0.12839048
000010 05 20 73 bd a1 44 08 3e 73 ce 6f be f7 75 b8 3d
       -0.059356708 0.1330743 -0.23418598 0.09006875
000020 e9 f6 1b 3e f9 4f 42 3e ef f0 1a 3d e7 b2 3d be
       0.15230907 0.1897582 0.03782743 -0.18525277
000030 9c 6b 4e 3d 2f cd 98 bd a8 23 c6 3c b1 85 eb 3d
       0.050395593 -0.07461011 0.024186924 0.11500109
000040 f4 88 e2 bc f6 f6 37 be 2a 5a 08 be 91 e9 10 3e
       -0.027653195 -0.17965302 -0.13315645 0.14151599
000050 07 32 90 3b b4 38 53 3e d7 18 19 bc 1d 76 b9 bd
       0.004400495 0.206271 -0.009344301 -0.090557314
000060 d6 28 81 3d 52 9d 83 3e e9 4f a8 3d 3e 09 2f 3d
       0.06306617 0.25705963 0.08218367 0.042733423
000070 70 60 dd bd d6 05 f2 bd 74 be ec 3d 61 47 fd bd
       -0.108094096 -0.11817519 0.115597636 -0.1236713
000080 5c 10 ea bc 0d aa a2 3d cc a3 b1 3d b9 cf 19 3d
       -0.028572254 0.07942591 0.0867382 0.037551615
000090 38 ba b5 bd bf 13 63 bd eb 27 aa 3d c6 d0 41 3e
       -0.08873409 -0.055438753 0.08308395 0.18927297
0000a0 92 2e 1e 3e 0c 3d 43 3c bd 16 6f b9 cc 3f 03 be
       0.15447453 0.01191641 -0.00022801287 -0.12817305
0000b0 12 c0 84 bc f1 d7 4c bd 85 67 4f 3c 94 31 2b be
       -0.016204868 -0.050010625 0.012658958 -0.16718131
0000c0 62 6d 1e 3e e8 b8 40 be 82 94 cd 3e bb d0 0e be
       0.15471414 -0.18820536 0.40152365 -0.13946812
0000d0 51 1a 26 be b6 d9 c1 3e 1a 95 ef 3d f6 17 bf bd
       -0.16220976 0.37861413 0.11698361 -0.09330742
0000e0 84 e2 0c 3f 31 aa 80 be 83 59 a8 bd a8 8a fc 3e
       0.55033135 -0.25129846 -0.08220198 0.49324536
0000f0 37 d4 c5 3e 51 20 9d 3d d1 72 6f 3e fa 85 29 3e
       0.3863847 0.076721795 0.23383643 0.16555014
000100 41 56 a7 3e 40 70 02 3e a9 72 b7 3e 8b c2 00 3f
       0.32682994 0.12738132 0.35829666 0.5029685
000110 ac 55 33 be 60 5c e7 3e 11 e3 03 be 75 5d bf 3e
       -0.1751315 0.45187664 -0.12879588 0.3737599
000120 64 e0 a1 bd f2 46 a4 bd 71 c6 98 be 0d dd 0b bf
       -0.07904127 -0.08021344 -0.298389 -0.5463417
000130 2b d7 b1 3e e2 11 68 3e 4a 6e 49 3e ec ef 40 3d
       0.34734473 0.22663072 0.19670978 0.047103807
000140 04 d1 39 be c4 c5 6f 3d 0a 39 a6 bd 38 8f 8d 3e
       -0.1814614 0.058538213 -0.08116348 0.2764833
000150 39 c7 90 3e 1f 74 e8 3e 90 4f 6e 3e dc 3a 16 be
       0.28276995 0.45401093 0.23272538 -0.1467089
000160 42 3b 39 3d 78 3f 6e 3e 3f 15 50 ba 9f c6 95 bd
       0.04522253 0.23266399 -0.0007937736 -0.073132746
000170 05 35 0e be 22 59 be 3e 41 de d7 bd 43 a1 c0 3e
       -0.13887413 0.37177378 -0.105404384 0.37623033
000180 8c 87 7d bd fc 52 5b 3d 53 5e 21 3e eb 95 80 3c
       -0.061896846 0.053545937 0.15758638 0.015696486
000190 cf e4 50 3c 0e 73 71 3e 76 c2 88 3d 78 6a bc bd
       0.012749865 0.23579046 0.066777155 -0.09199995
0001a0 96 e7 0b be 61 f8 00 3e 44 92 f0 bb f5 73 5e 3d
       -0.13662562 0.12594749 -0.007341655 0.054309804
0001b0 ec 4e db bc 8f a5 e6 3c 65 b0 06 be 63 94 68 bd
       -0.026771031 0.028155116 -0.13153227 -0.056782138
0001c0 f8 01 13 be 9e c7 db 3e 92 49 55 bf e4 41 82 3f
       -0.1435622 0.42925733 -0.83315384 1.0176358
0001d0 91 80 69 3e 24 0d b6 be 1d 13 59 3e 6d 1e 5f be
       0.2280295 -0.355569 0.21198697 -0.2178895
0001e0 06 8c 07 bf b7 2e 41 3f 03 e3 a3 3d 43 a6 05 bf
       -0.52948034 0.75461906 0.080022834 -0.5220682
0001f0 94 b7 04 bf 62 b8 6e 3f 6d 52 99 be a1 20 5d 3e
       -0.5184262 0.93250096 -0.29945698 0.21594478
000200 f4 33 7f bc 35 f3 da 3c f5 cf 96 3d 15 0f 43 bb
       -0.015576351 0.026727298 0.073638834 -0.0029763628
000210 9f 0d f1 3d ec cc 56 bd c0 37 85 bd 9d d4 52 3b
       0.11770176 -0.052441522 -0.06504774 0.0032170184
000220 83 45 af 3c 6d be 26 3e 03 ca b8 3e 1a 0f d5 3d
       0.02139545 0.16283579 0.36091623 0.10403271
000230 1f c4 0b 3e f8 b5 a0 bd f2 66 60 3b 33 0d ae bd
       0.13649033 -0.07847208 0.0034241048 -0.08498611
000240 14 0f d7 3e 09 48 62 be 28 27 2b 3f 8f a9 51 be
       0.4200369 -0.22097792 0.6685662 -0.20474838
000250 98 df bf bd b4 7e 6c 3e e6 96 a5 bc a3 4a 3c bf
       -0.09368819 0.23095208 -0.020213556 -0.73551387
000260 56 c3 59 3f 14 dd a4 be b5 3e 08 be ca 6f 9c 3e
       0.85063684 -0.3219992 -0.13305171 0.30554038
000270 e7 50 95 3e c5 82 07 be db ed b6 3e 70 c1 71 3e
       0.29163286 -0.13233478 0.35728344 0.23608947
000280 52 92 f9 be 7a c7 e7 3d 01 a5 bd be d5 04 6c bd
       -0.48744446 0.11317344 -0.3703995 -0.057621796
000290 5f 6c ad 3e e2 2a 1b 3d 3b a2 90 3d 55 77 34 be
       0.33871743 0.037882693 0.07062193 -0.17623647
0002a0 41 a1 46 bd 7d d7 17 3e 48 1f 2b 3d 63 9d 64 3e
       -0.048493627 0.14828296 0.04177788 0.22325663
0002b0 ac b7 80 be 2a 85 a5 3d e4 00 02 be c1 92 39 bd
       -0.2514013 0.0808204 -0.12695652 -0.04530597
0002c0 91 77 0f bd cf 96 ef bd 02 2b cc 3b 3b bb 41 3e
       -0.035026137 -0.11698686 0.006230713 0.18919079
0002d0 58 48 7d 3e d9 66 d8 be 27 88 41 be 40 f0 b1 3c
       0.24734628 -0.42265967 -0.18899594 0.021721005
0002e0 ca 62 ec bd 20 00 da 3d 8e 19 f2 3d 3a a7 29 bf
       -0.1154228 0.10644555 0.118212804 -0.6627079
0002f0 87 fc 03 be e1 45 91 be 1a e0 60 bc ed be 9a 3d
       -0.128893 -0.28373626 -0.013725305 0.075559475
000300 5a 3e 53 3e 4d 7e 96 3d 47 85 b0 3d c9 9b 0d bd
       0.20629254 0.07348309 0.08619171 -0.034572396
000310 8d 4a be bd ae bc df bd 39 67 d7 bd 99 16 d4 3e
       -0.09291563 -0.1092466 -0.10517735 0.4142349
000320 9f 73 0a bd 89 03 a7 3d 86 e7 0d bf 0e 13 d0 3d
       -0.03380167 0.08154971 -0.554314 0.101598844
000330 5a f0 8c 3e 99 44 b8 bd b9 df 06 3e de 20 e7 bd
       0.27527124 -0.08997459 0.13171281 -0.11285566
000340 17 3f ad bd 63 36 59 3e 32 f9 b4 3e cc 32 be 3e
       -0.08459299 0.21212153 0.3534637 0.3714813
000350 da 99 37 be e3 38 51 3e 71 f5 b7 3e 79 42 4f be
       -0.17929783 0.20431857 0.35929444 -0.20240201
000360 b0 fa f4 3e 23 b6 dd bd be 15 d5 3d 96 f3 b6 3e
       0.4784751 -0.108257554 0.104045376 0.35732716
000370 2d 79 8c 3e 96 27 12 3e 0f bc f0 3e 38 58 eb 3e
       0.274362 0.14272913 0.47018477 0.45965743
000380 1c b5 91 3c 8a 1b 8c 3e 8b 9f 06 bd 01 d1 04 3d
       0.017786555 0.2736476 -0.032866996 0.032425884
000390 36 87 4f 3c 1e 2d 25 3e f7 e9 66 bd bd 31 95 3c
       0.012666514 0.16130492 -0.05637547 0.018212194
0003a0 c7 41 db 3b e9 ad c3 3c b9 d3 45 be 9d 39 74 3d
       0.006691191 0.023886638 -0.19319047 0.059625257
0003b0 38 cd 1d be 44 d7 08 bd c2 5f 87 3d ee f7 50 bd
       -0.15410316 -0.03340842 0.06610061 -0.051017694
0003c0 99 86 8e 3d dc d4 b2 3d 0e 8f 17 be 2c f4 51 3e
       0.06959266 0.08732006 -0.14800665 0.205033
0003d0 ce e8 3c 3e 24 d2 0e 3e 49 fe 82 be a9 1f c4 3d
       0.18448183 0.1394735 -0.2558463 0.09576351
0003e0 55 6d 7c be 2b f4 31 bc 7f 0e f6 bd 24 b9 e2 bd
       -0.24651082 -0.010861437 -0.12014484 -0.11070469
0003f0 92 f4 f5 3c 81 82 a9 bd 83 af 21 be d3 7b 85 be
       0.030023847 -0.08276845 -0.15789609 -0.26071033

gnn_layers.0.lin_l.bias f4 [32]
000000 06 6c 3d 3c 42 e5 81 be d8 b5 38 3c c0 85 85 bd
       0.011561399 -0.25370222 0.011273824 -0.065196514
000010 b4 0f 91 3c 0d 40 07 3e 7b 03 22 be ab 47 bf bd
       0.017707683 0.13208027 -0.1582164 -0.093398415
000020 1a 25 27 be fc 05 70 3d b6 f7 c5 3d 1d c1 95 3d
       -0.16322747 0.058599457 0.09666388 0.07312224
000030 7e 13 97 bd bb 23 c6 bc 4e a2 4f be 37 ec b0 3c
       -0.07376765 -0.02418696 -0.20276758 0.021597011
000040 a4 d4 23 3e 0d 98 24 be 98 1e 0a be 33 3c ce bd
       0.15999085 -0.16073628 -0.13488233 -0.10070076
000050 4a 96 8c bd f5 55 d1 bc 76 b2 2b 3e 5a c0 81 bd
       -0.06864603 -0.025553683 0.16767296 -0.06335516
000060 31 a0 0c 3d e5 3f 83 3d 06 0b 42 be 16 f3 a6 3d
       0.034332458 0.06408671 -0.18949518 0.08151834
000070 92 c8 b5 3d ad de 06 bd 6d 73 c8 bd 5e 1c 87 3e
       0.088761464 -0.032927204 -0.09787641 0.2638883

gnn_layers.0.lin_r.weight f4 [32, 32]
000000 9c cc 2c be 90 07 ed 3d ac 2d 3a 3d 7f 9c 0d 3e
       -0.16874927 0.11573708 0.045453712 0.1382923
000010 c9 11 b6 bd ac 69 48 3d 42 4b 22 be 6f f6 09 3e
       -0.08890111 0.0489289 -0.15849021 0.13472913
000020 36 c2 33 3d e8 0c 77 bd 43 1a 4c 3c 9c 2b fe 3c
       0.043886386 -0.060315043 0.012457433 0.031026654
000030 0b d1 30 3d b6 a7 2d 3e 23 a3 03 3e 7c 82 40 3d
       0.04316811 0.16958508 0.128552 0.04699944
000040 cd 27 02 3e 13 c0 11 be 72 f8 98 3d 1d b2 c9 3c
       0.12710495 -0.14233427 0.07469262 0.024621064
000050 93 29 1c 3e 45 d0 a7 3d 1a ec 5d 3c 68 5b c0 3d
       0.15250234 0.08194021 0.0135450605 0.09392434
000060 7e e5 45 bd d9 0c c9 3d 41 1e cc 3c ff 78 e6 bc
       -0.048314564 0.098169036 0.02491677 -0.028133867
000070 db de f0 3d da a1 02 be b1 9c e0 bc b8 42 e9 3d
       0.11761256 -0.12757054 -0.027418466 0.11389679
000080 e9 9f ad bd 9e 4d f2 bd 6d 30 96 bc 48 9b 4e bc
       -0.08477766 -0.118312106 -0.018333638 -0.012610264
000090 e2 1f 9e 3e c4 26 07 be ef 77 33 be 33 a5 05 be
       0.308837 -0.13198382 -0.1752622 -0.130513
0000a0 a2 3f 17 be 51 1e 12 3e 49 5d 76 bd ad eb 13 3e
       -0.14770368 0.14269377 -0.060147557 0.14445372
0000b0 f7 dd 3e be f5 6e e9 bc 88 7f 4b bd 39 4b eb 3c
       -0.1863936 -0.028495291 -0.04968217 0.028722392
0000c0 14 24 c5 3e 1d 1f a7 bd e9 04 4f 3f 28 1a 6b be
       0.38504088 -0.08160231 0.8086687 -0.22959197
0000d0 b4 0c 20 be 3b 57 1e 3f be aa 1e bf 76 20 80 3e
       -0.15629846 0.61851853 -0.6197928 0.25024766
0000e0 5f 9a b7 3e 65 30 bc be 9f 4c 12 bf ee 6f d1 3d
       0.35859963 -0.36755672 -0.57148165 0.10226427
0000f0 af c8 7b 3e 48 e9 e7 be 6a bc 8a 3d 01 fa 5f be
       0.24588273 -0.45295167 0.067742184 -0.21872713
000100 bb 09 05 be c9 81 1c 3e 52 15 92 3c 53 a1 17 3e
       -0.12991993 0.15283884 0.017832432 0.14807634
000110 c9 98 f2 3d 2d e3 32 3e f7 91 eb bc 91 ad 9f 3b
       0.11845548 0.17469473 -0.028756125 0.0048729856
000120 89 c3 0a 3e 5a dd dd 3d a1 0b 02 3d 0a 7d 41 bc
       0.13551153 0.10833235 0.03174937 -0.011809597
000130 59 53 8e bd 21 4b 47 be 12 19 cc 3d 80 45 e6 bc
       -0.06949491 -0.19462253 0.09965719 -0.028109312
000140 e8 f3 44 be 6e 99 fd bd 73 5d 99 be 8b 36 70 bd
       -0.19233668 -0.1238278 -0.2995411 -0.058645766
000150 4d 8e 63 3d 55 66 1b 3d cb 1c 67 be 92 13 36 3e
       0.05555563 0.03793939 -0.22569577 0.17780903
000160 4b 91 ec be 7f 05 89 3d 69 f1 91 3d 18 5d fe be
       -0.462046 0.066905014 0.071261235 -0.496804
000170 ed 91 1e be f3 b6 4c be 23 a9 a1 bd 67 26 d7 bd
       -0.15485354 -0.19991665 -0.078935884 -0.105053715
000180 01 e1 35 3d 95 99 83 bc e2 f3 31 3d f7 a7 89 3d
       0.044404034 -0.016064445 0.043445475 0.0672149
000190 89 8d 23 be 99 76 ac bd 2d 2e 2f 3e 3a 0d 34 3e
       -0.1597196 -0.08421058 0.17107458 0.1758317
0001a0 81 34 88 bd 1e 9e 29 bd a2 35 56 bd 33 5e c5 bd
       -0.06650639 -0.041410558 -0.052297242 -0.09637108
0001b0 1b 06 90 bd f6 18 27 be 14 c2 1b 3d a9 58 3b 3d
       -0.070324145 -0.16318116 0.038026884 0.04573885
0001c0 74 03 ba 3e 46 5f 57 3e 24 c4 3b be bd e8 71 bc
       0.3633076 0.21032438 -0.1833654 -0.014764962
0001d0 e4 0c 4d 3e 15 71 3f bd 26 e0 b5 3d f4 af e8 bd
       0.20024449 -0.046738703 0.088806435 -0.113616854
0001e0 86 b5 d0 bc 5b 84 61 be a5 04 b5 bd 5a 9e 1b be
       -0.025477182 -0.22023146 -0.088387765 -0.15197125
0001f0 9b f9 41 be cf 21 9d bd b9 e1 cf bd 8a ae e7 bd
       -0.18942873 -0.07672464 -0.10150475 -0.113125876
000200 6d 66 ba bc 32 12 30 3e d3 9a bf bc ae db 17 3e
       -0.022753919 0.17194441 -0.023389256 0.14829895
000210 85 f8 f3 bb 3a a5 27 3e 60 91 0b 3e 19 74 b7 3d
       -0.0074453973 0.16371623 0.13629675 0.08957691
000220 20 82 09 be 20 94 c5 3d d5 5d 2a 3d 28 ed 8e be
       -0.13428545 0.09647393 0.04159339 -0.2791531
000230 98 e2 18 3e f0 08 21 bd 5b cb a5 3e df 0a 12 3e
       0.14930189 -0.039315164 0.3238171 0.1426196
000240 d3 6c 82 3e 3b f9 15 3e e6 4d fe 3d 6e 49 ab 3e
       0.2547365 0.14645855 0.12417202 0.3345446
000250 1b 72 8e 3e 87 5d 02 3e 82 22 84 bd c2 54 ee bc
       0.2782143 0.1273099 -0.06451894 -0.02909315
000260 50 81 1f 3e 7d e9 e5 3d de 9c b8 be 0d d0 08 bf
       0.15576673 0.11226175 -0.3605718 -0.5344246
000270 8d 2e a3 3d 08 bd b2 3e d1 97 de 3d b8 a4 96 3e
       0.07967863 0.34909844 0.108688004 0.29422545
000280 57 73 f0 bd d0 78 ef 3c 66 85 f5 bd e2 d0 1b be
       -0.11740749 0.029232413 -0.11988334 -0.15216401
000290 68 7c 3f bd 3b 05 14 3e d0 67 36 3e df db 85 3e
       -0.046749502 0.1445512 0.17813039 0.2614431
0002a0 ff f3 2a 3e 13 ae ae bd 3c cc ba be 11 60 a6 3d
       0.1669464 -0.08529296 -0.36483943 0.08123792
0002b0 d5 8d e4 bd 3f f0 02 be f8 3f a1 3d 01 e8 31 bd
       -0.11159865 -0.12786959 0.07873529 -0.043434147
0002c0 9a d4 d8 3e 8a 1a 24 be 5f 46 d6 3e fb 0e 90 3c
       0.42349702 -0.16025749 0.41850564 0.017585268
0002d0 98 e7 3b 3d d1 8d 87 3e 45 ca a0 3e 9d d0 0a bf
       0.045875162 0.26475385 0.3140432 -0.5422457
0002e0 d2 f8 00 3f 68 af 52 be 4d d4 1c bf f8 61 a3 3e
       0.5037967 -0.20574725 -0.61261445 0.31910682
0002f0 12 63 2b 3e 41 85 89 3d 01 8d cb 3e bc e7 41 3d
       0.16737011 0.06714869 0.39756015 0.04734014
000300 12 27 52 bd 15 6d 61 bd 39 b5 f5 bd fe 98 fc 3d
       -0.05130679 -0.05503567 -0.11997456 0.123338684
000310 17 aa 2e 3e 44 45 65 bd ca f7 98 3d af ea f7 bd
       0.17057072 -0.05597426 0.07469137 -0.12105309
000320 8b 6a 1a 3d a6 f0 8c bd 1f 6e 57 3e 4c d5 26 3d
       0.037699264 -0.068818375 0.21038102 0.04073076
000330 ea 8b b9 bd ae d4 cd 3d d3 64 15 3d 1e 55 42 3b
       -0.090598896 0.10050331 0.036473107 0.0029652785
000340 25 3f 7c 3f bc b6 5e be 01 bc 47 3f 33 ae 09 bf
       0.9853385 -0.21749395 0.78021246 -0.5378143
000350 4f 8a 67 be a3 29 08 3f ec cb 2e bf 84 a9 d9 3e
       -0.22611354 0.5318853 -0.6827991 0.42512143
000360 36 32 07 3f a1 39 8f be 38 7e 8d bf ba f4 97 bd
       0.5281099 -0.27973655 -1.1054144 -0.07419725
000370 5b a1 e8 3d 2b e2 0e bd aa fd c8 3e 45 e8 d1 be
       0.11358901 -0.03488366 0.3925603 -0.4099752
000380 44 9e 10 be 42 92 3f bc 2c ec 02 bc ea f9 00 bd
       -0.14122874 -0.011692585 -0.007990878 -0.031488337
000390 5f 5d 93 3e b9 81 11 3c 22 2a a3 bd 9e 66 8f 3e
       0.28782174 0.008881026 -0.079670206 0.28007978
0003a0 dc d7 e9 3d e2 48 a0 bd 08 12 e0 bd d0 15 4f be
       0.11418125 -0.07826401 -0.10940939 -0.20223165
0003b0 1e b5 e1 3d 3d 47 86 bd 59 81 37 3e 60 0a df 3d
       0.110208735 -0.065565564 0.17920436 0.10890651
0003c0 37 40 62 3e 7e ca 05 bc 7b 5b 51 be 6e 5c ec 3d
       0.22094809 -0.008165954 -0.20445053 0.11541067
0003d0 92 23 a6 3e f8 57 d8 3d 1c aa be bd ee 35 8d be
       0.32449013 0.10563654 -0.093097895 -0.27580208
0003e0 5f c4 33 bd ba 74 3f bc c9 ef b0 be 0d 6b 14 be
       -0.043888446 -0.011685545 -0.34557942 -0.14493962
0003f0 8a a7 09 3d d3 64 37 3e 5a 09 b2 3c 4c fa 4b bd
       0.033607043 0.17909555 0.021732975 -0.04979925

gnn_layers.1.lin_l.weight f4 [32, 32]
000000 a6 3b 5e 3e 9b 63 47 3e a4 fd be be 96 b6 31 be
       0.21702442 0.1947159 -0.37302887 -0.17354807
000010 3f 78 32 3e 53 92 2e 3e d0 10 13 be 1e 60 c1 bd
       0.17428683 0.17048006 -0.14361882 -0.09442161
000020 16 23 08 3d e8 e5 35 3e 2e 04 a8 3e 8f a2 ad be
       0.033236586 0.17763484 0.3281569 -0.33913085
000030 f6 5d 69 bf ef 7e 89 3d aa 23 82 be 7f 6b cb 3e
       -0.91159 0.06713664 -0.25417835 0.3973045
000040 96 d9 41 be eb 8d c5 3d 65 df bb be 8d dd 4e bd
       -0.18930659 0.09646209 -0.36693874 -0.050504256
000050 b9 32 e6 bd e5 bc b9 3d d7 42 0b 3e d0 7f a8 3d
       -0.11240143 0.09069232 0.13599716 0.08227503
000060 d0 ae 8f 3e bc e6 26 3f a9 af 28 be 5c 6e ff 3e
       0.2806306 0.6519582 -0.16473259 0.49888885
000070 e8 5d 2b be da 41 41 bc 8e f7 05 be 02 75 0a bf
       -0.16735041 -0.011795485 -0.13082716 -0.5408479
000080 22 32 9f bc d4 ce 2a 3e 30 17 d0 3d 7f e5 a4 ba
       -0.019433085 0.16680461 0.10160673 -0.0012580602
000090 bb c9 94 bc 75 6e 1b 3d b2 3f 64 3d 63 69 6d bd
       -0.018162599 0.037947137 0.055724807 -0.057961833
0000a0 16 7b 25 3e 28 07 02 3d 3e bc b6 3d 09 9e 8a 3e
       0.16160235 0.031745106 0.08922623 0.27073696
0000b0 96 35 95 bb e5 d1 b8 3e 67 1d b0 3d ac 49 62 3d
       -0.004553507 0.36097637 0.08599358 0.05524604
0000c0 95 80 9c be da eb 81 be 22 ef 86 be bf d2 3e 3e
       -0.3056685 -0.25375253 -0.2635432 0.18635081
0000d0 46 50 7d 38 15 f7 25 be c8 08 07 be 95 6b 96 3e
       6.039466e-05 -0.16207536 -0.13186944 0.29378954
0000e0 5e 22 4d 3e 7a e1 8b 3e bd cb 24 3e c7 15 c3 bd
       0.20032641 0.27320462 0.16093345 -0.09525638
0000f0 bc fa 20 bc bd 6b d9 3b 25 f9 ac bc 26 3c fd 3e
       -0.009825405 0.006635158 -0.021114895 0.49459952
000100 ef a2 d6 bc a3 db 9f 3e b4 80 b1 3d fa 8c a0 bd
       -0.02620074 0.31222257 0.08667126 -0.07839389
000110 79 76 87 be 06 a3 03 be 0c e5 5e 3d 85 8f c3 bd
       -0.26457575 -0.12855157 0.054417655 -0.095488586
000120 2a 06 f9 3d a1 68 d9 3d 80 08 55 bd 4a 8c 91 3e
       0.12159379 0.106156595 -0.05201006 0.28427345
000130 e8 33 ac be ba be 6c 3d c8 ef 27 3d 51 67 96 be
       -0.3363335 0.05779908 0.041000158 -0.293757
000140 e7 b4 4e bd af b9 e2 3e 0f f1 81 3d 6f 8d 0c 3e
       -0.05046549 0.4428229 0.063448064 0.13725828
000150 e4 05 02 3e 55 e9 84 3c 4e 2c 39 3e 16 df a1 bd
       0.1269756 0.016224543 0.18083307 -0.079038784
000160 0c 1c ab be 47 03 32 3f 02 ae ac 3d fe 87 f1 3e
       -0.33419836 0.6953625 0.08431627 0.47174066
000170 d1 8c 5c 3e 42 d2 31 3c 93 37 e0 3e 1e 46 ea 3e
       0.21538092 0.010853352 0.437924 0.4575662
000180 19 a0 13 3e 02 2f d1 bd 66 39 12 be d6 a1 7a be
       0.14416541 -0.10214044 -0.14279708 -0.24475798
000190 c8 7c 96 be 81 e0 9c 3d dd f8 01 be 98 fd f2 bb
       -0.29392076 0.07660008 -0.1269259 -0.0074154846
0001a0 3a 1b 48 3e 77 71 99 bd b0 4e 76 3d 8a d2 55 3e
       0.19541636 -0.07492345 0.060133636 0.20881096
0001b0 09 2f 51 be c8 e3 83 bd 9e 66 82 3e e2 df f5 bc
       -0.20428099 -0.0643993 0.25468916 -0.030013982
0001c0 d5 ae 54 be 1e dd 51 3e fc e5 82 3d 1f 9c 8b be
       -0.20769818 0.20494506 0.06391522 -0.27267548
0001d0 9a 3c e5 bd 52 91 83 bc 0c 49 a9 bd ed e1 ff 3d
       -0.111931995 -0.016060505 -0.08265886 0.12494264
0001e0 7e 46 e9 bd 61 0a 9d 3e 8a 50 30 bd 1e f3 68 3c
       -0.113903984 0.3067198 -0.043045558 0.01421812
0001f0 13 a3 2d 3d c4 d4 82 bd 36 0e ec bd 19 6f f3 3e
       0.042391848 -0.06388238 -0.11526148 0.47545698
000200 50 b5 06 3e a7 36 82 be ff 09 54 bd 5f c5 52 be
       0.13155103 -0.2543232 -0.051767346 -0.20583104
000210 76 68 b6 3e 97 1f 7d bc 79 e0 b8 be ef 28 62 3d
       0.35626572 -0.015449426 -0.3610876 0.05521482
000220 b5 ee af 3d 2a 9f 06 3d c5 7d 2a be c8 78 82 be
       0.08590452 0.032866634 -0.1664954 -0.25482774
000230 30 19 c6 3e 1f 75 1a 3e a3 6f 07 bf 20 01 4d bd
       0.38691092 0.1508374 -0.5290472 -0.0500499
000240 1f 1b 95 bc 3b 65 d4 be d9 88 95 3d 34 1d 2f 3d
       -0.018201409 -0.41483483 0.07301492 0.04275246
000250 97 ba a1 3d 2e b6 38 be b2 07 91 bd 74 b9 d5 3d
       0.07896917 -0.18038246 -0.07081546 0.10435763
000260 d8 01 a0 3e b2 0a 53 bf 37 07 09 be 6f a9 f7 be
       0.31251407 -0.82438195 -0.13381658 -0.48371455
000270 05 19 c4 3d d1 82 af be ae 60 e0 be 82 ff 4e be
       0.095750846 -0.34279492 -0.4382376 -0.20214656
000280 0e 01 cb bd 56 2d ac bd ce 53 a9 3d d6 ea ff bd
       -0.099123105 -0.08407085 0.082679376 -0.12495963
000290 0d 37 b1 bd 10 24 60 3d 24 d6 2d be 3d 91 57 bd
       -0.08653078 0.054721892 -0.1697622 -0.052628744
0002a0 e8 f1 eb 3c f2 b7 ba bd 85 02 9c bd f8 f9 bd 3d
       0.028801873 -0.09117116 -0.07617668 0.092761934
0002b0 b0 bc db 3d 19 62 82 3e c8 46 1f 3e 6d 20 bc 3d
       0.10729349 0.25465468 0.15554345 0.09185872
0002c0 ed f5 97 be d4 28 8b be 63 1c 18 bf 5c 5e 5f bd
       -0.29679814 -0.27179587 -0.59418315 -0.054533347
0002d0 9b a9 ba 3d 89 43 8f be 70 b8 b1 be 67 6a 87 3e
       0.09114381 -0.27981213 -0.34711027 0.26448366
0002e0 eb 30 a1 be 0f b3 7c bd c6 d1 e8 3d 6e 88 02 bf
       -0.31482634 -0.0616942 0.11368136 -0.50989425
0002f0 84 72 88 3b 3c eb 72 be e0 5a 13 3e 62 2c 2f 3e
       0.004164042 -0.23722547 0.14390135 0.17106774
000300 7a da 37 3d ea db 2d 3d 9d 02 67 3d ed af d0 be
       0.04488609 0.042446055 0.056398977 -0.4075922
000310 d6 3c 2f be a6 7e 54 3d 75 7a f5 3d 05 3f ce bc
       -0.17113051 0.051878594 0.119862475 -0.025176534
000320 8d 9d 86 3c 5e 22 b9 be b6 ee 33 3e 49 6b 10 3e
       0.016432548 -0.36159033 0.1757153 0.14103426
000330 06 32 5f be 70 19 5f be 33 aa 04 3e 80 0f d6 3c
       -0.21796426 -0.21787047 0.12955551 0.026130438
000340 bb bc b1 be a2 1a 18 3e 4f fa b8 be 63 2c 0b 3e
       -0.34714302 0.1485391 -0.3612847 0.13591151
000350 8a 10 c7 3d 5b 74 94 3e be 0d 5c 3e f0 b4 a5 bd
       0.097199515 0.28995022 0.21489617 -0.08091152
000360 95 bf c1 bd 66 27 8f 3d a3 32 56 3e 56 4e cc 3e
       -0.094603695 0.069899365 0.20917754 0.39903516
000370 11 6a 81 3e ff 94 2b 3e 1c ec 91 bd a9 16 fc 3e
       0.25276235 0.16756056 -0.071251124 0.49236038
000380 60 7d 07 3e 79 cc 24 be fb 9e 02 3e 76 8a aa 3d
       0.1323142 -0.16093625 0.12755959 0.083271906
000390 e2 05 d9 3e 96 65 15 bd a0 1e 9c bd 93 4e 1f be
       0.423873 -0.036473833 -0.07623029 -0.15557317
0003a0 96 a6 b3 3b a0 17 5b bd 48 b8 68 be 98 cb 30 3d
       0.005482505 -0.053489327 -0.22726548 0.043162912
0003b0 2c ec 3a 3e 52 7e e1 3d a1 a1 30 3e 56 05 8a bc
       0.18254155 0.11010422 0.17249157 -0.016848247
0003c0 98 01 e7 bd 59 a3 71 be 3f bb 4d 3e 08 d6 dd 3d
       -0.11279601 -0.23597468 0.2009096 0.10831839
0003d0 ec c1 5e 3d d7 20 44 be 54 fb 38 bd b8 50 a9 3e
       0.054384157 -0.19153152 -0.04516156 0.33069396
0003e0 65 a6 ed 3d 1b 11 28 bf c5 d9 b3 3d b5 fd fa be
       0.11604003 -0.656511 0.087817706 -0.49021688
0003f0 5b 3a 95 bd a1 0d 24 3d c6 2e a6 bc 0a 34 a9 3e
       -0.07286521 0.04005206 -0.020285975 0.33047515

gnn_layers.1.lin_l.bias f4 [32]
000000 80 2f 96 bd 51 65 fd 3d 00 f1 00 3d 32 b0 4a be
       -0.07333279 0.1237284 0.031479836 -0.19793776
000010 db b1 3b 3e f6 8a aa 3d fc d7 cc bc af 0b a4 3e
       0.18329565 0.08327286 -0.025005333 0.32040164
000020 77 c9 30 bd 07 5e ab bd 9d a2 d1 bc 94 01 0d bd
       -0.04316088 -0.08367544 -0.025590235 -0.034425333
000030 4d 7e 31 3e e5 8a 93 3c ae 86 1e be 35 ba 4c be
       0.17333336 0.018010566 -0.15481064 -0.19992907
000040 19 30 d8 bd 9a a7 78 3d 1a 64 b4 3d eb d6 0b bd
       -0.10556049 0.060706712 0.08808155 -0.03414051
000050 d5 ef 11 be 48 42 be 3d 48 1c 56 3d 37 80 2b 3e
       -0.14251645 0.09289986 0.052273065 0.16748129
000060 01 bc ed bc ec d0 4f be ef fc 41 be 7a e1 43 3c
       -0.029020311 -0.20294541 -0.18944143 0.011955613
000070 fa e8 11 bb b2 38 ba bd ac 6f 7a bc cb fe 16 be
       -0.002226411 -0.09092845 -0.015285414 -0.14745633
