baseline/DLPL-CAP/models_dlpl-cap-classifier/sandwich+ultra8t_to_ssram+digtime+timing_ctrl+array_128_32_8t/dlpl-cap-classifier_nh_2_tsk_regression_ngl_4_nhl_4_hd_32_us_1_bn_0_dp_0.0_epoch_1_20250402_083115.pth (torch, 63106 bytes, 24 tensors)

net_attr_layers.weight f4 [16, 17]
-0.04450534 -0.027335422 -0.26963753 0.22279596 -0.26635748 -0.1861504 -0.118079685 0.14243697
0.21380556 -0.17793097 0.21081103 0.045392796 0.17918746 0.032846738 0.11694779 -0.40875682
0.20195408 0.071182705 -0.077730596 0.09462459 -0.111745045 0.012222074 -0.06119823 0.16089109
-0.19145039 -0.11181143 -0.06848593 -0.14582999 0.022891268 -0.23954737 0.21903612 -0.2060263
0.47259447 0.23767945 -0.24558762 0.0044800746 -0.19509743 0.1959599 -0.21248439 -0.2271099
0.06516536 -0.06577067 0.10207295 0.21654117 0.14020003 -0.10602991 0.14000724 0.043395985
0.12316808 -0.5120625 -0.47942153 0.065219924 0.0035264771 0.23197381 0.06985786 0.1406667
0.26891604 -0.004219143 0.18981038 -0.17232485 0.015270946 -0.16554031 0.07478634 -0.08352497
0.07431686 -0.05053023 0.48550892 -0.25686944 -0.08949836 -0.09089184 0.2717551 0.08082527
0.2936601 -0.14383432 -0.24056529 -0.18975109 -0.16315107 0.098236665 0.08684615 0.20152876
-0.12525155 -0.1653394 0.1286841 0.124320544 0.22964124 -0.20549963 -0.0021609277 -0.35368758
-0.122395545 -0.09275569 -0.09362414 -0.061836578 0.14456807 0.16487795 -0.17588037 -0.12948206
0.22208063 -0.081839405 -0.08598285 -0.23467617 -0.4716444 0.004832469 0.34432557 0.20791829
0.29112154 -0.1656716 0.10410373 0.25808662 -0.21227011 -0.15443166 0.24244076 0.045808904
0.07473971 -0.22620916 -0.15929104 -0.080729395 0.037925567 0.008062585 -0.0283727 -0.1806557
-0.06193747 -0.014047602 -0.016806692 -0.113287695 -0.2257743 -0.14149572 -0.08301932 -0.19142874
0.20335881 -0.0481346 0.20867686 0.07556976 -0.20537843 0.1678432 -0.032657996 -0.29102814
-0.2632513 -0.26571918 -0.13490812 -0.05298042 -0.11645673 -0.22746283 0.18006551 -0.17803417
-0.041879438 0.05065834 0.12520945 0.19580151 0.22094007 -0.19231187 0.061038274 -0.45907453
-0.3186324 0.035306122 0.44629377 -0.021098725 0.12962346 0.2542047 0.30848178 -0.13112596
0.22045313 0.0532973 0.031199796 -0.21373568 0.10181366 -0.03638534 -0.111111455 0.20832513
0.3967299 -0.10737189 0.15349068 0.26335776 0.39218843 -0.061976053 0.11983753 0.19746666
-0.18119226 0.08649608 0.18773232 -0.22833282 0.056329064 0.12529191 0.043978833 -0.08637291
0.12658957 0.47083423 -0.02628375 0.11342854 0.12055303 0.05276696 -0.04284491 -0.028742665
0.3422466 0.208435 -0.024010384 -0.054302964 0.00353915 -0.014481374 0.0583083 0.06796663
-0.22028463 -0.0895048 0.28059167 0.043048766 0.09527341 -0.0021092321 -0.20975769 -0.21725537
-0.13656738 0.22544968 0.15464596 0.111978054 -0.21438791 -0.14585182 -0.03827616 0.23461671
0.035084594 -0.06280963 0.10034069 -0.28920227 -0.34866324 -0.11560947 -0.37864935 -0.39362365
-0.24127547 -0.16660848 -0.08866934 0.08839167 -0.16911383 -0.23936808 -0.19698232 0.18085887
0.11644275 0.20409481 0.1270571 0.061383866 -0.13708684 -0.038894545 -0.40918788 -0.39328837
-0.22580896 -0.11907723 -0.364705 -0.31067678 -0.044195704 -0.17070504 -0.15847658 0.08045169
-0.07208071 0.14972772 -0.07780755 -0.17791618 -0.042792726 -0.44936013 -0.14541186 -0.26929566
00000000: 3b4b 36bd 89ee dfbc ee0d 8abe a024 643e
00000010: 0260 88be 369e 3ebe c3d3 f1bd ffda 113e
00000020: d8ef 5a3e 8933 36be d9de 573e cced 393d
00000030: eb7c 373e 4d8a 063d 5382 ef3d 9348 d1be
00000040: 0dcd 4e3e 3dc8 913d 3831 9fbd 89ca c13d
00000050: 96da e4bd 183f 483c ffaa 7abd a2c0 243e
00000060: 920b 44be 64fd e4bd 5a42 8cbd 7554 15be
00000070: 7886 bb3c e84b 75be 014b 603e 8ff8 52be
00000080: e7f7 f13e 3e62 733e 527b 7bbe 97cd 923b
00000090: 9fc7 47be b6a9 483e 8295 59be 7f8f 68be
000000a0: 6b75 853d c6b2 86bd 9f0b d13d f8bc 5d3e
000000b0: 9990 0f3e 3626 d9bd 0f5e 0f3e fdbf 313d
000000c0: 8c3f fc3d 8716 03bf bd76 f5be 0692 853d
000000d0: 781c 673b 8b8a 6d3e a311 8f3d ee0a 103e
000000e0: 5daf 893e bd40 8abb a75d 423e ed75 30be
000000f0: fd32 7a3c 6683 29be 9529 993d 240f abbd
00000100: 7033 983d c9f8 4ebd a094 f83e 6484 83be
00000110: eb4a b7bd 8025 babd 7c23 8b3e b887 a53d
00000120: 9e5a 963e 4e49 13be bf56 76be 1c4e 42be
00000130: 1311 27be 4e30 c93d 65dc b13d 8e5d 4e3e
00000140: f141 00be bb4e 29be c4c5 033e c59b fe3d
00000150: 1327 6b3e 7f6e 52be 5a9e 0dbb 8a16 b5be
00000160: 84aa fabd b2f6 bdbd 03be bfbd 5a48 7dbd
00000170: a709 143e c4d5 283e fc19 34be f296 04be
00000180: 1b69 633e 6b9b a7bd c717 b0bd f34e 70be
00000190: 607b f1be b059 9e3b 714b b03e 88e8 543e
000001a0: e20d 953e d1a5 29be 5634 d53d ee23 843e
000001b0: 565d 59be 5523 1ebe 6442 783e 1ea2 3b3d
000001c0: 2211 993d 60a3 67be 311d 23be 7455 a5bd
000001d0: d757 1b3d ef18 043c dd6d e8bc cffd 38be
000001e0: 25b2 7dbd ea27 66bc 30ae 89bc 6103 e8bd
000001f0: 6131 67be 41e4 10be 0906 aabd e505 44be
00000200: 4b3d 503e c928 45bd 63af 553e 51c4 9a3d
00000210: b94e 52be 16df 2b3e 64c4 05bd a401 95be
00000220: e0c8 86be 580c 88be 5b25 0abe ff01 59bd
00000230: de80 eebd 04ec 68be 1863 383e 974e 36be
00000240: c689 2bbd 1f7f 4f3d e836 003e 3180 483e
00000250: 1d3e 623e 67ed 44be 4503 7a3d d10b ebbe
00000260: c923 a3be 279d 103d 9e80 e43e 3cd7 acbc
00000270: 03bc 043e 1e27 823e 53f1 9d3e e245 06be
00000280: 77be 613e 454e 5a3d b796 ff3c 87dd 5abe
00000290: ae83 d03d cb08 15bd 678e e3bd 2f53 553e
000002a0: 2e20 cb3e cbe5 dbbd a92c 1d3e d4d6 863e
000002b0: eccc c83e 9ada 7dbd 616d f53d b334 4a3e
000002c0: 778a 39be db24 b13d e73c 403e 14d0 69be
000002d0: 4eb9 663d 864c 003e 2623 343d 48e4 b0bd
000002e0: b2a0 013e 2f11 f13e 0551 d7bc 394d e83d
000002f0: 82e4 f63d 2b22 583d 257e 2fbd bd75 ebbc
00000300: f23a af3e fc6f 553e 6db1 c4bc c96c 5ebd
00000310: 16f1 673b 4943 6dbc afd4 6e3d 1732 8b3d
00000320: 4b92 61be 4b4e b7bd b6a9 8f3e e753 303d
00000330: b51e c33d 0b3b 0abb b8ca 56be 3178 5ebe
00000340: 52d8 0bbe 48dc 663e 835b 1e3e c054 e53d
00000350: 8188 5bbe 2e5a 15be 76c7 1cbd 5d3f 703e
00000360: ddb4 0f3d 56a2 80bd 6b7f cd3d 5212 94be
00000370: fd83 b2be a8c4 ecbd 54de c1be 0a89 c9be
00000380: eb10 77be 6a9b 2abe 4598 b5bd b106 b53d
00000390: 2d2c 2dbe e81c 75be bcb5 49be 1133 393e
000003a0: 8979 ee3d 3bfe 503e 421b 023e a66d 7b3d
000003b0: 7e60 0cbe e34f 1fbd 1381 d1be 185d c9be
000003c0: 773a 67be c3de f3bd 9dba babe 0711 9fbe
000003d0: 8e06 35bd 4dcd 2ebe af47 22be dbc3 a43d
000003e0: 0d9f 93bd 3952 193e 9159 9fbd a92f 36be
000003f0: 6d47 2fbd 8812 e6be d9e6 14be 1fe1 89be

net_attr_layers.bias f4 [16]
0.14700715 0.096731424 0.25471452 -0.05992383 -0.2572218 0.110844724 0.16155292 -0.24238159
0.062111773 -0.15809071 -0.032848235 -0.041263163 -0.063669205 -0.10669837 -0.20018779 0.23323251
00000000: 0b89 163e 201b c63d f169 823e b172 75bd
00000010: 93b2 83be 8f02 e33d 216e 253e e132 78be
00000020: ea68 7e3d 88e2 21be df8b 06bd 9003 29bd
00000030: 0065 82bd ad84 dabd 07fe 4cbe 81d4 6e3e

dev_attr_layers.weight f4 [16, 17]
0.19009139 -0.35259372 0.14194913 -0.6332 -0.6617969 -0.23602219 0.09014041 -0.13316326
-0.15592057 -0.018923404 -0.080767065 -0.07846531 0.0077929595 -0.051444817 -0.11159865 -0.56845653
-0.19738214 0.25568634 -0.16954337 -0.022797829 -0.14689735 -0.004513028 0.22611606 0.11174166
-0.2101813 0.096263066 0.2302252 0.06380708 0.16260187 0.23911284 -0.03716349 0.106896915
-0.37711743 -0.049981035 0.10573729 0.0015840179 -0.0723564 -0.41089442 -0.36052293 -0.23935299
-0.18714994 -0.05997843 0.16368175 0.040596157 -0.18447392 -0.19456787 0.12065547 -0.18040802
-0.111380525 0.051472884 -0.11224841 -0.04608297 0.12553956 -0.21073946 0.16246733 0.015309883
-0.19605537 -0.12986852 0.23425005 -0.11714827 -0.16286945 0.05878923 0.06684532 0.13288763
0.18435627 0.12749244 -0.16102836 0.021510148 0.14160892 -0.18171455 -0.17271414 0.013599055
-0.23805983 -0.13808633 -0.21865922 0.010833658 0.107475564 0.05368837 0.047961354 -0.18393597
-0.22650093 0.0042708963 0.21639425 -0.13957112 -0.14121255 -0.038517933 -0.38659325 -0.00010045843
-0.2882388 -0.13930026 0.20090905 -0.22267343 0.162163 -0.17105846 0.090821646 0.20524463
0.0034057768 0.22066109 -0.20665284 -0.10782446 0.11072747 -0.052840713 -0.010396496 0.041287836
0.036035992 0.44581142 0.34811276 -0.13629621 -0.1968782 0.026232801 0.07185817 -0.11198158
-0.0678609 0.16380073 0.019320315 0.010942803 -0.005645011 0.0717518 -0.22804593 -0.122534156
-0.2228374 0.16372588 -0.32310975 -0.29417655 0.23124069 0.0844807 0.17290421 -0.117414586
-0.099067755 0.08914166 -0.16159545 -0.15854652 -0.0117143905 -0.10650609 -0.44419202 0.14386217
0.1275715 -0.013234814 -0.027400192 -0.27658272 -0.15345195 0.061746083 0.114363045 -0.03066075
-0.09588715 0.13514717 -0.1931553 0.15328687 -0.09409287 0.0037121046 -0.11801346 0.112452805
-0.07329388 0.16242425 0.19241434 0.026677623 0.58218664 0.1673618 -0.17693195 0.19458681
0.19005428 -0.18518741 -0.018748801 -0.23917076 -0.19853944 0.046843946 0.06452287 0.049362168
0.16822056 0.22375797 -0.009283912 0.10960681 -0.11350267 0.46960345 0.40432727 -0.1714923
0.090899825 -0.123907 -0.20153263 -0.13247475 0.23390362 0.20733348 0.21718688 0.14237113
0.14838949 0.30354005 -0.13344987 0.038548827 -0.02330805 -0.21847172 0.16121452 0.20599374
0.12485652 -0.094203025 -0.1427483 0.03271637 -0.14295855 -0.15790558 0.12642215 -0.040742252
0.2216254 0.15762387 0.3772276 0.0834705 -0.009233634 0.12877926 -0.06864042 0.22597252
0.24793287 0.22550255 -0.06285531 -0.10252363 -0.0587336 -0.11717484 0.041240443 0.18104033
0.18965738 0.11135429 -0.2383338 0.073431365 -0.053287845 0.010508122 -0.09009842 -0.27705655
-0.035053533 -0.24240854 -0.15346313 -0.20163988 0.21132605 -0.22966664 0.18296081 -0.008153296
-0.0282066 0.15170082 -0.022416988 0.21086173 -0.007628326 -0.21057187 0.105761565 -0.1822511
0.03662137 -0.30233943 -0.17236666 -0.11667584 -0.031030282 0.23043793 0.16294743 -0.009111688
-0.22811225 0.0106297955 -0.16516034 0.19722791 -0.13546912 -0.37573192 -0.053829003 0.0330239
00000000: 51a7 423e 2a87 b4be 1d5b 113e 6519 22bf
00000010: 866b 29bf cdaf 71be 899b b83d f35b 08be
00000020: a4a9 1fbe 4105 9bbc 3469 a5bd 6cb2 a0bd
00000030: 155c ff3b cdb7 52bd d58d e4bd 5e86 11bf
00000040: 8b1e 4abe 52e9 823e c79c 2dbe 83c2 babc
00000050: 426c 16be 06e2 93bb f88a 673e d0d8 e43d
00000060: c439 57be 9225 c53d 28c0 6b3e 49ad 823d
00000070: 1b81 263e ffd9 743e be38 18bd c5ec da3d
00000080: 8915 c1be eab8 4cbd cb8c d83d d29e cf3a
00000090: 982f 94bd c160 d2be 7696 b8be f318 75be
000000a0: 3ca4 3fbe f1ab 75bd 309c 273e 2848 263d
000000b0: bbe6 3cbe cd3c 47be 371a f73d e1bc 38be
000000c0: 791b e4bd 3bd5 523d 7fe2 e5bd 7fc1 3cbd
000000d0: 718d 003e 16cc 57be d65d 263e 4ed6 7a3c
000000e0: bdc2 48be 41fc 04be 3fdf 6f3e 6feb efbd
000000f0: 40c7 26be facc 703d 33e6 883d b213 083e
00000100: e4c7 3c3e 618d 023e 9ee4 24be 0d36 b03c
00000110: ee01 113e 6113 3abe fadb 30be 92ce 5e3c
00000120: f5c5 73be 8166 0dbe 34e8 5fbe a87f 313c
00000130: 261c dc3d 56e8 5b3d 2073 443d b659 3cbe
00000140: dcef 67be e0f2 8b3b 7496 5d3e bbeb 0ebe
00000150: 069a 10be fbc4 1dbd 8def c5be 35ad d2b8
00000160: 0994 93be baa4 0ebe 1abb 4d3e 8104 64be
00000170: 0f0e 263e f329 2fbe b300 ba3d a62b 523e
00000180: 7433 5f3b fbf4 613e cd9c 53be 12d3 dcbd
00000190: 15c5 e23d 816f 58bd 1156 2abc 6f1d 293d
000001a0: 7a9a 133d 6541 e43e d63b b23e 3c91 0bbe
000001b0: 709a 49be 2ce6 d63c 602a 933d 9956 e5bd
000001c0: a8fa 8abd 61bb 273e a345 9e3c 7149 333c
000001d0: c9f9 b8bb 9cf2 923d df84 69be 30f3 fabd
000001e0: 7d2f 64be c2a7 273e a46e a5be 4f9e 96be
000001f0: 5cca 6c3e 3804 ad3d cd0d 313e 0f77 f0bd
00000200: 09e4 cabd e78f b63d 4779 25be 055a 22be
00000210: b7ed 3fbc dd1f dabd 236d e3be 9b50 133e
00000220: 1aa2 023e d5d6 58bc 5e76 e0bc 409c 8dbe
00000230: 8222 1dbe 76e9 7c3d 2c37 ea3d 412c fbbc
00000240: 7b60 c4bd 0564 0a3e 81ca 45be 3cf7 1c3e
00000250: c3b3 c0bd c846 733b 0ab1 f1bd a84d e63d
00000260: 1a1b 96bd 8b52 263e 4408 453e 088b da3c
00000270: 2f0a 153f e460 2b3e a62d 35be c441 473e
00000280: 979d 423e c5a1 3dbe 1697 99bc 2ee9 74be
00000290: ec4d 4bbe 70df 3f3d 9124 843d fc2f 4a3d
000002a0: 0342 2c3e cf20 653e 8d1b 18bc 8979 e03d
000002b0: 1674 e8bd dd6f f03e fc03 cf3e ad9b 2fbe
000002c0: b029 ba3d f4c2 fdbd 925e 4ebe 76a7 07be
000002d0: 6e84 6f3e 3a4f 543e 3d66 5e3e bdc9 113e
000002e0: 6af3 173e 9a69 9b3e 15a7 08be 60e5 1d3d
000002f0: 86f0 bebc 0db7 5fbe 6b15 253e 06f0 523e
00000300: c6b4 ff3d 84ed c0bd 9c2c 12be 9a01 063d
00000310: ba63 12be 00b2 21be cf74 013e 59e1 26bd
00000320: c5f1 623e 2768 213e fa23 c13e 95f2 aa3d
00000330: ab48 17bc b6de 033e 5993 8cbd 5765 673e
00000340: 1de2 7d3e 24ea 663e 49ba 80bd e9f7 d1bd
00000350: a592 70bd 5df9 efbd bdeb 283d a362 393e
00000360: 8b35 423e b80d e43d c70d 74be 2f63 963d
00000370: 5b44 5abd 422a 2c3c 8585 b8bd 5bda 8dbe
00000380: 4b94 0fbd f239 78be 7025 1dbe af7a 4ebe
00000390: db65 583e bb2d 6bbe 145a 3b3e 6795 05bc
000003a0: 8711 e7bc 7657 1b3e d5a3 b7bc 23ec 573e
000003b0: 09f7 f9bb 27a0 57be 8599 d83d 08a0 3abe
000003c0: 4a00 163d 3ccc 9abe e380 30be bef3 eebd
000003d0: 3833 febc ecf7 6b3e b1db 263e 3049 15bc
000003e0: 4296 69be 9828 2e3c cb1f 29be 1df6 493e
000003f0: 6bb8 0abe ef5f c0be cd7b 5cbd 1244 073d

dev_attr_layers.bias f4 [16]
0.15230857 0.28224617 -0.06123531 -0.22833931 -0.1754865 -0.15771915 -0.17486463 -0.12825641
-0.29072213 -0.23770577 -0.1889456 -0.32202157 -0.21400115 0.14785461 0.21471459 -0.0823053
00000000: c7f6 1b3e 9282 903e e0d1 7abd c8d1 69be
00000010: bcb2 33be 2181 21be b70f 33be a655 03be
00000020: 88d9 94be 2469 73be f57a 41be 03e0 a4be
00000030: 1e23 5bbe 3367 173e 24de 5b3e ae8f a8bd

pin_attr_layers.weight f4 [17, 16]
-0.88106483 -1.1613783 0.22603695 -0.88835526 -1.8823487 -0.23812518 -0.65932333 2.4872391
-0.5206171 -1.379853 0.75945896 -0.04515706 -0.4284278 -0.43838316 -1.3686497 -1.0260876
0.27747023 0.037581414 0.87516916 -0.237366 -0.93765134 0.43225187 0.94706273 -1.2644883
0.67137164 -1.3076084 -0.024017112 0.57701945 0.66288286 0.14041951 1.890713 0.67004704
-2.053428 2.5430312 -1.0901039 0.8885553 -0.36147067 -2.5150013 1.2320038 0.29749286
-1.0248978 1.8108976 1.707423 -0.2671398 0.42622027 0.5720301 0.76640797 1.2537506
-0.4137862 0.51840883 -0.7015368 -0.4323409 0.14147705 0.071103625 0.56335306 -0.57863575
-1.0838116 -0.388926 0.81261057 1.4981188 0.043896087 1.4443233 0.23202892 0.50649834
-1.2786967 -0.03842747 1.913801 0.3378446 0.12505612 -0.7621515 -1.19056 0.77560735
0.45571992 0.25033033 -1.3610971 1.8018341 -0.074341945 -0.15664156 -0.8708455 -0.64109725
-0.41456285 -0.69023806 -0.2299562 -2.172284 0.08768324 1.0937846 -0.11772058 -0.29864323
-0.9536206 -0.09247278 -1.0166546 -0.0076756896 -0.51822084 0.83954257 0.058522668 -1.668248
2.1296248 -1.5181471 0.13872829 -1.1797569 -0.52974117 0.9625158 0.2794383 -0.5718191
-2.793629 -0.7111545 0.52352196 -1.7105501 0.83848536 -0.26984537 0.12306158 0.87575114
0.15132998 0.7393934 0.27310315 2.731231 0.43200523 -0.30918217 -0.09658124 1.5419251
-0.10874478 -0.41890433 1.4384385 -0.70684266 -1.2519515 3.0250485 1.346259 0.855607
0.3220294 0.44605663 1.5229592 1.2804899 -0.11616043 1.3705363 -0.48093814 -0.9903622
-1.3641813 0.008205652 -0.4058602 -0.711086 -0.34957936 0.37974882 0.99930406 1.2751853
0.95949274 0.10351 0.829035 2.0921295 0.79530954 0.27928478 0.18644784 0.3547133
0.0906385 1.7422553 -1.2660012 0.3891608 0.34287506 -1.4590638 -1.4936562 -0.22138521
0.22523506 -0.07724538 0.9856945 1.2783364 0.2881519 0.8690496 -0.8097058 -1.4298605
0.45901597 0.53093284 -1.3614802 1.9562491 1.7684898 -0.98579854 -1.2370758 -2.301875
-0.0010087001 -0.8494257 -1.6593921 0.3062906 1.1820445 0.32602695 -0.38944697 2.8543806
0.8243651 0.79834706 1.8890222 0.5934628 0.06965444 -1.6034338 -0.42982182 0.57615876
0.34436315 -3.101606 -1.4587226 -1.4318258 -0.6071269 -0.25973788 -0.7190186 -0.38583097
0.5233525 -0.8211768 -0.47086892 0.6016423 -0.28251126 0.769268 -0.76689243 -0.9494867
0.016917398 0.080277406 0.7448413 1.345485 0.12682189 -2.4520717 0.41597614 1.9025357
-0.73467 0.044657134 -1.5211198 0.3478376 0.7401773 1.4161996 0.68339795 -0.13825183
0.9212995 0.5282444 -0.008228387 -1.449332 -0.6051824 -0.17924511 0.1995587 -1.2461947
-0.4145994 1.45587 0.33165342 -1.0001009 -0.69195247 -0.47199076 -1.2894343 1.0762811
-1.0667428 -1.9893427 0.29731303 0.4344584 0.0033933204 -1.0240146 0.22404762 -0.7554785
1.367581 -0.31973583 -0.91309243 1.9192094 -1.651487 2.1477253 -0.66041344 0.11352584
00000000: 778d 61bf 0ba8 94bf 3b76 673e 406b 63bf
00000010: cdf0 f0bf 16d7 73be 6ac9 28bf ed2e 1f40
00000020: 2a47 05bf 069f b0bf e76b 423f 9cf6 38bd
00000030: e35a dbbe c273 e0be ea2f afbf d756 83bf
00000040: 9410 8e3e f8ee 193d 160b 603f 1310 73be
00000050: eb09 70bf 1e50 dd3e b472 723f c1da a1bf
00000060: 03df 2b3f b65f a7bf 89bf c4bc 8cb7 133f
00000070: b1b2 293f 22ca 0f3e e202 f23f 3488 2b3f
00000080: 5d6b 03c0 06c1 2240 8688 8bbf 5c78 633f
00000090: af12 b9be c8f5 20c0 4db2 9d3f fc50 983e
000000a0: da2f 83bf 7ecb e73f d68c da3f 8cc6 88be
000000b0: 8b39 da3e 9170 123f 5033 443f e67a a03f
000000c0: c9db d3be 71b6 043f ea97 33bf c95b ddbe
000000d0: 5cdf 103e c79e 913d e837 103f 7921 14bf
000000e0: 57ba 8abf 4f21 c7be 3f07 503f 5bc2 bf3f
000000f0: 62cc 333d 96df b83f fd98 6d3e e0a9 013f
00000100: 55ac a3bf 1f66 1dbd 6ef7 f43f f8f9 ac3e
00000110: b60e 003e 5c1c 43bf 4564 98bf 348e 463f
00000120: 1f54 e93e 4c2b 803e 6e38 aebf 80a2 e63f
00000130: 9740 98bd a566 20be bbef 5ebf f31e 24bf
00000140: 9541 d4be 71b3 30bf a379 6bbe b306 0bc0
00000150: 4593 b33d 2201 8c3f 7d17 f1bd c4e7 98be
00000160: 7b20 74bf 5e62 bdbd bd21 82bf 5a84 fbbb
00000170: 1faa 04bf 43ec 563f 77b5 6f3d 2789 d5bf
00000180: c64b 0840 a552 c2bf ca0e 0e3e 4602 97bf
00000190: 1e9d 07bf 6f67 763f 8912 8f3e bd62 12bf
000001a0: d1ca 32c0 390e 36bf 8905 063f 4ef3 dabf
000001b0: faa6 563f 2c29 8abe b607 fc3d 3a31 603f
000001c0: 3ff6 1a3e e348 3d3f 2dd4 8b3e 7dcc 2e40
000001d0: ca2f dd3e 204d 9ebe 63cc c5bd cd5d c53f
000001e0: 95b5 debd a17a d6be c11e b83f a4f3 34bf
000001f0: f23f a0bf 659a 4140 3752 ac3f 0f09 5b3f
00000200: 0ae1 a43e 8961 e43e 54f0 c23f 18e7 a33f
00000210: 85e5 edbd bc6d af3f 863d f6be 6188 7dbf
00000220: 7e9d aebf 0071 063c e8cc cfbe bb09 36bf
00000230: 11fc b2be 706e c23e 64d2 7f3f 4639 a33f
00000240: 51a1 753f 0dfd d33d a33b 543f 73e5 0540
00000250: 6899 4b3f 6afe 8e3e 2fec 3e3e fb9c b53e
00000260: aea0 b93d 3902 df3f 540c a2bf 1640 c73e
00000270: 528d af3e 9ac2 babf 2030 bfbf ceb2 62be
00000280: 05a4 663e d332 9ebd 7a56 7c3f 87a0 a33f
00000290: a588 933e 097a 5e3f e148 4fbf ab05 b7bf
000002a0: 2404 eb3e 37eb 073f fc44 aebf 5f66 fa3f
000002b0: e05d e23f 4b5d 7cbf 8058 9ebf ec51 13c0
000002c0: 5c36 84ba f673 59bf f666 d4bf 1fd2 9c3e
000002d0: 3c4d 973f 01ed a63e 9865 c7be 2cae 3640
000002e0: 9709 533f 7960 4c3f 7bcb f13f 2eed 173f
000002f0: fda6 8e3d 523d cdbf 9b11 dcbe 247f 133f
00000300: 5e50 b03e b680 46c0 6cb7 babf 1146 b7bf
00000310: ab6c 1bbf 5dfc 84be 9a11 38bf a38b c5be
00000320: 6efa 053f a538 52bf bb15 f1be 3b05 1a3f
00000330: 51a5 90be bfee 443f 1053 44bf 8f11 73bf
00000340: 5b96 8a3c 7b68 a43d ebad 3e3f da38 ac3f
00000350: 99dd 013e beee 1cc0 d3fa d43e 4a86 f33f
00000360: 5513 3cbf 66ea 363d 0eb4 c2bf c517 b23e
00000370: 427c 3d3f 0746 b53f 2bf3 2e3f e391 0dbe
00000380: 49da 6b3f 063b 073f 5bd0 06bc b683 b9bf
00000390: 3ced 1abf 088c 37be 1e59 4c3e 4f83 9fbf
000003a0: 5f46 d4be f359 ba3f 7ace a93e 4e03 80bf
000003b0: cc23 31bf c6a8 f1be 2f0c a5bf 94c3 893f
000003c0: 078b 88bf c8a2 febf 6a39 983e 5571 de3e
000003d0: 7862 5e3b e912 83bf bd6c 653e 0a67 41bf
000003e0: e50c af3f 6ab4 a3be 6dc0 69bf a7a8 f53f
000003f0: ed63 d3bf 5574 0940 db10 29bf 3c80 e83d

node_encoder.weight f4 [4, 16]
0.8717945 -0.8516335 1.5238837 0.8319348 -0.21547511 1.0034844 0.72599745 -0.10443334
-1.3064773 -2.3423638 -0.31912738 -0.20285621 -0.11943692 1.1662098 -0.22578862 1.6083878
-0.6362073 -2.1626713 -1.72407 -0.76971394 0.4403224 -0.5167342 0.5207099 -2.3897436
-0.6159264 -0.60410476 1.3179177 1.3510293 -1.2475026 -0.17487463 -1.0108945 1.5169804
1.3639659 -1.3086565 -1.2641997 -1.2465769 -1.6008104 -2.467674 1.3742867 -0.45479748
0.74566394 -0.858366 0.0036698657 1.3359604 0.9221147 -0.3942966 -1.546278 -0.82519096
-0.7111087 -0.38666672 0.95783144 -0.82253087 -2.390805 0.3222477 1.8753887 1.104299
-0.5223759 -0.7401804 0.16235657 -0.2369976 0.5099347 1.6706249 1.592105 -0.4161921
00000000: ed2d 5f3f a704 5abf 9f0e c33f aef9 543f
00000010: 82a5 5cbe 2d72 803f f8da 393f 26e1 d5bd
00000020: a63a a7bf 4ae9 15c0 aa64 a3be 8ab9 4fbe
00000030: 589b f4bd 5d46 953f 2235 67be a7df cd3f
00000040: 7bde 22bf 3569 0ac0 53ae dcbf f90b 45bf
00000050: f071 e13e b148 04bf 3e4d 053f 8ff1 18c0
00000060: 5aad 1dbf 9ca6 1abf 87b1 a83f 87ee ac3f
00000070: 2aae 9fbf 5612 33be fe64 81bf 6a2c c23f
00000080: 6f96 ae3f 0e82 a7bf 4cd1 a1bf d58f 9fbf
00000090: 5be7 ccbf 5fee 1dc0 a0e8 af3f 37db e8be
000000a0: d5e3 3e3f e0bd 5bbf 2182 703b c000 ab3f
000000b0: b50f 6c3f 3ee1 c9be 70ec c5bf b73f 53bf
000000c0: 380b 36bf 2ef9 c5be 7134 753f 6291 52bf
000000d0: f302 19c0 a7fd a43e bd0c f03f ab59 8d3f
000000e0: 6dba 05bf 767c 3dbf cd40 263e 80af 72be
000000f0: 158b 023f 09d7 d53f 19ca cb3f 2217 d5be

gnn_layers.0.lin_l.weight f4 [32, 32]
0.032105613 -0.0048934515 0.085583575 -0.1127948 -0.10149118 0.13437498 -0.19755957 0.0662367
0.13665596 0.14774698 0.011811345 -0.19978316 0.04221043 -0.050168343 -0.014819407 0.1303788
-0.049288068 -0.14966118 -0.14723733 0.14849101 0.013351132 0.18516847 0.035706386 -0.13454616
0.047017515 0.1913844 0.10998257 0.068796165 -0.12571204 -0.14569569 0.11093982 -0.13468386
0.048728395 -0.03511111 0.07915887 0.023815252 -0.13611618 -0.064504825 0.15828674 0.01516446
0.09078336 -0.1377437 0.11186642 -0.04686458 -0.044884115 0.04783846 -0.059852414 -0.07948419
0.031761754 -0.07203687 0.06348389 0.0027965298 -0.16609485 0.21021764 0.2140198 -0.12994042
0.12122526 -0.22946818 0.029869657 0.24982236 0.21324961 0.055336863 0.13823247 0.26952356
0.1749346 -0.10084515 0.027514601 0.23903227 -0.039920364 0.2543205 -0.049624156 0.0814537
-0.10316906 -0.097310565 0.06401797 -0.1817143 0.13357222 0.1537347 -0.11571 0.12260898
-0.13308607 -0.0053128093 -0.03004594 -0.26608256 -0.084279254 0.3429939 0.05749164 -0.16636942
-0.02269752 -0.0007724761 0.017959671 -0.03866428 -0.13635324 -0.07686505 -0.081122234 0.2563201
0.029630376 0.00095957407 0.05180342 -0.11560514 -0.085883714 0.08422104 0.16537856 -0.07067826
-0.11827845 0.050644696 -0.040067717 0.13652343 0.0340275 0.027352331 -0.21464367 -0.06977226
-0.06870874 0.36108062 -0.32070896 0.33614048 -0.04690231 -0.28723347 -0.01979594 0.10813009
-0.2558596 0.31166616 0.019268833 -0.19006775 -0.20929554 0.3810266 -0.110806264 -0.022692153
0.0013424389 -0.010107036 0.038984995 -0.029240116 0.10139361 -0.0711332 -0.04317922 -0.053309172
0.04101843 0.13231295 0.066065595 0.14579938 0.14868228 -0.10276413 -0.024960421 -0.093248844
0.19557297 -0.22383551 0.23970124 -0.14569515 -0.13823341 0.05772794 -0.1692503 -0.26949668
0.28767747 -0.13997087 0.04348495 -0.036132023 0.04604177 -0.2137812 0.07757284 0.04683677
-0.29078302 0.11539283 -0.17914978 0.11380528 0.08427155 0.12544525 0.16149782 -0.13020971
-0.072952725 0.08693395 -0.05599868 0.15635283 -0.19312748 0.15926948 -0.13901986 -0.03153302
0.2303304 -0.064380795 0.18282822 0.120862745 0.18379945 -0.15833353 -0.17893027 0.030260438
0.06592959 -0.1276536 -0.01496717 -0.23531197 -0.09303893 -0.037617054 0.13687253 -0.077915646
0.15001057 0.030381098 0.044795748 -0.040205117 -0.04311144 -0.07617969 -0.14028615 0.13504165
-0.08288979 0.096272364 -0.19188559 0.11952174 0.17901242 -0.13048686 0.13480745 -0.030190647
-0.08244664 0.08817592 0.24562962 0.17598818 -0.16764215 0.22323695 0.21171027 -0.04108181
0.31152967 -0.14694114 0.09868538 0.2627444 0.044300746 0.062264465 0.2682761 0.2557814
0.13246171 0.099407695 -0.16487972 -0.0871505 -0.0993328 0.044702005 0.07336681 -0.18636893
0.043077927 -0.15149185 -0.08652768 0.20758052 -0.09302046 -0.051592138 -0.078032486 -0.055489942
-0.11081351 0.20860288 -0.18967724 0.15667212 0.06763425 -0.0024431732 -0.18748066 0.17879058
-0.30698794 0.032966662 0.050858185 -0.12683722 0.06688876 0.1678614 -0.1770699 -0.1248341
00000000: 2d81 033d 3f59 a0bb 7146 af3d f600 e7bd
00000010: 9cda cfbd 9899 093e 0e4d 4abe 1ba7 873d
00000020: 8aef 0b3e fc4a 173e 5f84 413c f593 4cbe
00000030: d8e4 2c3d 527d 4dbd 19cd 72bc 0582 053e
00000040: 49e2 49bd c840 19be 62c5 16be 070e 183e
00000050: b5be 5a3c ce9c 3d3e dc40 123d 78c6 09be
00000060: 7095 403d 46fa 433e 8b3e e13d 01e5 8c3d
00000070: a8ba 00be 4031 15be 6b34 e33d 91ea 09be
00000080: 6d97 473d abd0 0fbd 0c1e a23d 3418 c33c
00000090: 0a62 0bbe 1b1b 84bd eb15 223e 5b74 783c
000000a0: a0ec b93d af0c 0dbe 391a e53d 13f5 3fbd
000000b0: 68d8 37bd 43f2 433d ce27 75bd 9bc8 a2bd
000000c0: 9d18 023d 1188 93bd d703 823d fc45 373b
000000d0: c514 2abe 4b43 573e 0228 5b3e 1a0f 05be
000000e0: f344 f83d b5f9 6abe 36b1 f43c 6fd1 7f3e
000000f0: 1b5e 5a3e e8a8 623d d08c 0d3e fefe 893e
00000100: 0e22 333e e787 cebd 4d66 e13c e0c4 743e
00000110: 8983 23bd 4c36 823e b342 4bbd 33d1 a63d
00000120: 4d4a d3bd c34a c7bd da1b 833d 5013 3abe
00000130: 28c7 083e a16c 1d3e 5df9 ecbd 6b1a fb3d
00000140: b747 08be 1317 aebb e722 f6bc f93b 88be
00000150: 9a9a acbd e59c af3e 5b7c 6b3d bf5c 2abe
00000160: 26f0 b9bc fe7f 4aba 2920 933c 705e 1ebd
00000170: 2fa0 0bbe 6c6b 9dbd 6a23 a6bd 633c 833e
00000180: 67bb f23c ed8b 7b3a d32f 543d 63c2 ecbd
00000190: cde3 afbd 157c ac3d ff58 293e c3bf 90bd
000001a0: f93b f2bd d070 4f3d 0c1e 24bd cccc 0b3e
000001b0: 6b60 0b3d ff11 e03c 8dcb 5bbe c2e4 8ebd
000001c0: 2bb7 8cbd 8fdf b83e f733 a4be 9b1a ac3e
000001d0: a31c 40bd 4410 93be 182b a2bc 4f73 dd3d
000001e0: 0800 83be b592 9f3e acd9 9d3c 1fa1 42be
000001f0: 9251 56be eb15 c33e 65ee e2bd e5e4 b9bc
00000200: c6f4 af3a fb97 25bc bbae 1f3d f888 efbc
00000210: 74a7 cf3d 48ae 91bd b2dc 30bd b85a 5abd
00000220: f102 283d 0c7d 073e 664d 873d 6f4c 153e
00000230: 2b40 183e 0076 d2bd cc79 ccbc 40f9 bebd
00000240: 4844 483e 2335 65be 3e74 753e 1c31 15be
00000250: 0f8d 0dbe 2274 6c3d f34f 2dbe 78fb 89be
00000260: 764a 933e 8654 0fbe 461d 323d 2cff 13bd
00000270: 4c96 3c3d 75e9 5abe 82de 9e3d ead7 3f3d
00000280: 83e1 94be 1353 ec3d 0a73 37be be12 e93d
00000290: 9096 ac3d b874 003e af5f 253e b255 05be
000002a0: 3d68 95bd 6d0a b23d df5e 65bd f51a 203e
000002b0: 36c3 45be 8a17 233e 395b 0ebe c528 01bd
000002c0: bbdb 6b3e 14da 83bd 5237 3b3e e386 f73d
000002d0: ec35 3c3e 2f22 22be 7f39 37be bde4 f73c
000002e0: 1806 873d a0b7 02be dc38 75bc 9ff5 70be
000002f0: 328b bebd 5714 1abd 5028 0c3e 3d92 9fbd
00000300: 5f9c 193e c8e1 f83c bf7b 373d 1fae 24bd
00000310: 9f95 30bd 1904 9cbd 2ca7 0fbe 5c48 0a3e
00000320: 1fc2 a9bd 722a c53d a87d 44be d0c7 f43d
00000330: 084f 373e 599e 05be f70a 0a3e 6052 f7bc
00000340: c9d9 a8bd 9495 b43d 5586 7b3e 3f36 343e
00000350: 62aa 2bbe 3a98 643e 94ca 583e 6645 28bd
00000360: d180 9f3e bd77 16be 8f1b ca3d 6f86 863e
00000370: b374 353d 0609 7f3d 7c5b 893e c8f5 823e
00000380: 0ba4 073e 4396 cb3d 3bd6 28be f67b b2bd
00000390: ff6e cbbd 7319 373d 5741 963d 7fd7 3ebe
000003a0: 7b72 303d ae20 1bbe 6d35 b1bd fd8f 543e
000003b0: 8381 bebd 4752 53bd 7fcf 9fbd 6c49 63bd
000003c0: 32f2 e2bd fe9b 553e c03a 42be a86e 203e
000003d0: d383 8a3d a51d 20bb eefa 3fbe e114 373e
000003e0: 862d 9dbe 0d08 073d ac50 503d 9ee1 01be
000003f0: f9fc 883d dce3 2b3e d051 35be 05a9 ffbd

gnn_layers.0.lin_l.bias f4 [32]
0.055815887 -0.14525057 0.14510061 0.012101837 0.04724986 0.16554019 -0.15651268 0.077741444
-0.1598102 0.17523947 0.08419732 0.11087406 -0.03659757 0.07012574 -0.0702468 0.066237055
0.20984985 -0.106898695 -0.024785781 0.05968046 0.0011064655 0.021460889 0.19363548 0.008457561
0.034533527 0.101258926 -0.012406554 0.13535668 0.13263111 0.09536607 0.011290324 0.22883159
00000000: 339f 643d 91bc 14be 4195 143e c946 463c
00000010: 1289 413d 5e83 293e dc44 20be e836 9f3d
00000020: 49a5 23be fa71 333e a56f ac3d f011 e33d
00000030: 55e7 15bd 159e 8f3d 8edd 8fbd 4ba7 873d
00000040: e1e2 563e b4ed dabd 8d0b cbbc 7f73 743d
00000050: d206 913a bfce af3c 6148 463e 9591 0a3c
00000060: 0773 0d3d d760 cf3d dc44 4bbc f19a 0a3e
00000070: 73d0 073e 494f c33d 0dfb 383c d452 6a3e

gnn_layers.0.lin_r.weight f4 [32, 32]
-0.1272568 0.08014588 0.04377097 0.13133895 -0.12170695 0.035731994 -0.12637405 0.11680495
0.051571846 -0.109790705 -0.0043192836 0.044814225 0.071110204 0.16598704 0.10233775 0.04286237
0.09790458 -0.16353329 0.09190887 0.002289159 0.12339426 0.05512644 -0.006585108 0.12050694
-0.0797277 0.072972864 0.05671707 -0.054206274 0.08690738 -0.15280133 -0.06694827 0.08981147
0.103189014 -0.18937925 -0.024634073 -0.038313027 0.14872764 -0.21350086 -0.011855729 -0.13318905
-0.10421287 -0.016956195 -0.10902652 0.19288836 -0.08493904 0.039629724 -0.14863582 0.0028725576
-0.072917864 0.022913659 0.24366252 -0.030221263 -0.13335848 0.15887272 -0.2523869 0.205878
-0.012094826 -0.28254974 -0.15722878 -0.19745608 -0.014900597 -0.07089525 -0.098596424 -0.0054182727
-0.021440806 0.028287387 -0.059085045 0.07669845 0.021010304 0.08169606 0.07794532 -0.06645235
0.18485354 -0.04835368 -0.11624323 0.08522384 0.010351102 -0.15700723 -0.0079296045 -0.06974148
-0.2490727 -0.042149857 -0.23625015 -0.07657473 -0.030017175 -0.018925115 -0.14376357 0.17632218
-0.3963952 0.06398891 0.1519291 -0.2410094 -0.01609714 -0.22553623 0.017071703 -0.05091766
-0.01719729 -0.12289996 -0.056103773 0.00069427514 -0.13524812 -0.13930207 0.19804887 -0.09258431
-0.13169421 -0.0718678 0.073694535 0.06809691 -0.15305819 -0.15272652 -0.04628406 0.14128543
0.2726246 0.018962996 0.013815377 -0.23105195 0.084650226 0.09754907 0.01363856 -0.08206409
0.08428581 -0.328364 -0.0143083045 0.0045108222 -0.27653372 -0.04235785 -0.12951912 -0.15075813
-0.061277747 0.07016248 -0.101070166 0.08993937 0.05335425 0.12214761 0.15123565 -0.15872358
-0.12472074 0.10303079 0.18170427 -0.14157309 -0.0069682314 -0.07322006 0.1569314 0.15636106
0.18549661 0.073601596 0.12286555 0.14835659 -0.15169534 0.061633863 -0.11815644 -0.097415596
0.03397677 9.1927126e-05 -0.131272 -0.2438 0.041034583 0.099985704 0.052889396 0.18903732
-0.1082333 -0.015708761 -0.16256654 -0.18772154 -0.062053565 0.12653972 0.19870706 0.092463985
0.18311036 -0.12302003 0.022962535 0.130514 -0.11743583 -0.16618362 0.048471034 -0.03984628
0.057413395 -0.15942302 0.3179046 -0.0279269 -0.016293313 0.006761617 0.24540916 -0.36889127
0.33597997 -0.15123288 -0.09412682 0.23770171 0.08305485 0.016559273 0.29732543 -0.040869985
-0.0058020833 -0.059657976 -0.14270367 0.09090326 0.0877614 -0.140859 0.14688273 -0.112029605
0.13513447 -0.054527465 0.2067532 0.06054712 -0.049314573 0.069848344 -0.0041069267 -0.06677139
0.26597485 0.13969721 0.08786888 0.17657946 0.024136791 -0.071934454 -0.18007107 0.19180116
0.018086156 0.058090895 -0.2839811 -0.16324608 -0.11751148 0.14261885 0.22998649 -0.0038589893
-0.064823665 -0.20165235 -0.13741004 -0.1390996 0.16706783 -0.116640344 0.088757955 0.0910894
0.06389034 -0.171484 0.053071592 -0.016699977 0.03317454 -0.07177413 -0.03722884 0.19694124
0.022034384 0.22613184 -0.22071402 0.15948048 0.062226914 -0.12614593 0.07745906 -0.22280082
-0.10984427 0.12491285 -0.12559132 -0.0977697 -0.010429171 0.08308107 0.037761945 0.042722706
00000000: 9b4f 02be 8623 a43d 3049 333d b87d 063e
00000010: 7e41 f9bd b65b 123d 3368 01be 6f37 ef3d
00000020: 003d 533d f3d9 e0bd c788 8dbb 1f8f 373d
00000030: 3aa2 913d 82f8 293e 7496 d13d 7490 2f3d
00000040: 3282 c83d 4575 27be b83a bc3d b705 163b
00000050: 21b6 fc3d 43cc 613d e4c7 d7bb 58cc f63d
00000060: 4748 a3bd cc72 953d 2950 683d 6607 5ebd
00000070: 7ffc b13d f477 1cbe 2d1c 89bd 13ef b73d
00000080: c354 d33d a2ec 41be 65cd c9bc 1fee 1cbd
00000090: 0f4c 183e f89f 5abe 883e 42bc b662 08be
000000a0: 8f6d d5bd b8e7 8abc 4c49 dfbd 8784 453e
000000b0: 85f4 adbd c752 223d fd33 18be 8541 3c3b
000000c0: f655 95bd 6db5 bb3c ab82 793e 9592 f7bc
000000d0: 208f 08be 88af 223e db38 81be afd1 523e
000000e0: 6129 46bc 5caa 90be 9500 21be ed31 4abe
000000f0: a221 74bc 8731 91bd ecec c9bd c48b b1bb
00000100: a1a4 afbc f3ba e73c 2903 72bd 1414 9d3d
00000110: cd1d ac3c 4450 a73d cca1 9f3d 2b18 88bd
00000120: 3f4a 3d3e 820e 46bd ee10 eebd d689 ae3d
00000130: ab97 293c 81c6 20be 2ceb 01bc 9fd4 8ebd
00000140: ea0c 7fbe 54a5 2cbd 8feb 71be 36d3 9cbd
00000150: 94e6 f5bc d808 9bbc c236 13be cd8d 343e
00000160: 50f4 cabe 9e0c 833d 4d93 1b3e 2bcb 76be
00000170: 26de 83bc f8f2 66be f5d9 8b3c 098f 50bd
00000180: 55e1 8cbc f9b2 fbbd 12cd 65bd 0400 363a
00000190: 7c7e 0abe 34a5 0ebe 53cd 4a3e d89c bdbd
000001a0: d9da 06be 6d2f 93bd 29ed 963d 6576 8b3d
000001b0: 49bb 1cbe 5764 1cbe 5b94 3dbd 21ad 103e
000001c0: 7495 8b3e 4958 9b3c e459 623c e298 6cbe
000001d0: 195d ad3d cfc7 c73d 4474 5f3c 3811 a8bd
000001e0: 0a9e ac3d 541f a8be 616d 6abc 85cf 933b
000001f0: d495 8dbe 6d7f 2dbd a9a0 04be 5760 1abe
00000200: 60fe 7abd 59b1 8f3d e0fd cebd 2232 b83d
00000210: fc89 5a3d 8728 fa3d 85dd 1a3e 6f88 22be
00000220: 966d ffbd cf01 d33d af10 3a3e 89f8 10be
00000230: c355 e4bb 66f4 95bd a0b2 203e 1d1d 203e
00000240: d3f2 3d3e 6fbc 963d efa0 fb3d caea 173e
00000250: 0656 1bbe ca73 7c3d 01fc f1bd d481 c7bd
00000260: 3a2b 0b3d 00c9 c038 2b6c 06be b5a6 79be
00000270: e113 283d 4ec5 cc3d 8da2 583d 0093 413e
00000280: 6ca9 ddbd a9af 80bc d877 26be 133a 40be
00000290: e12b 7ebd a193 013e dd79 4b3e c25d bd3d
000002a0: 4881 3b3e edf1 fbbd ed1b bc3c 76a5 053e
000002b0: 3282 f0bd 0a2c 2abe 9089 463d da35 23bd
000002c0: 4f2a 6b3d ca3f 23be 64c4 a23e f4c6 e4bc
000002d0: 8e79 85bc 8e90 dd3b 8a4c 7b3e 51df bcbe
000002e0: 9105 ac3e cbdc 1abe 90c5 c0bd 1468 733e
000002f0: a918 aa3d 50a7 873c 0a3b 983e 4967 27bd
00000300: 671f bebb ec5b 74bd e920 12be 7d2b ba3d
00000310: 40bc b33d 573d 10be 6d68 163e c76f e5bd
00000320: b160 0a3e 3158 5fbd 1cb7 533e 4200 783d
00000330: 14fe 49bd a60c 8f3d 6693 86bb 70bf 88bd
00000340: db2d 883e c90c 0f3e 99f4 b33d 3fd1 343e
00000350: 85ba c53c 5f52 93bd 8d64 38be 8667 443e
00000360: 6b29 943c b8f0 6d3d f965 91be fb29 27be
00000370: dca9 f0bd ad0a 123e 9481 6b3e 19e7 7cbb
00000380: 45c2 84bd f47d 4ebe 38b5 0cbe 2070 0ebe
00000390: d413 2b3e 22e1 eebd bbc6 b53d 148d ba3d
000003a0: f0d8 823d 8099 2fbe 9961 593d 64ce 88bc
000003b0: 07e2 073d 51fe 92bd 457d 18bd f7aa 493e
000003c0: 7481 b43c 1b8f 673e db02 62be da4e 233e
000003d0: a6e1 7e3d 662c 01be dba2 9e3d e625 64be
000003e0: 08f6 e0bd 4fd2 ff3d 039b 00be 7b3b c8bd
000003f0: 1ddf 2abc 6826 aa3d 45ac 1a3d 01fe 2e3d

gnn_layers.1.lin_l.weight f4 [32, 32]
0.18552752 0.108859226 -0.14959913 0.03567788 0.10467007 0.22339213 -0.16118342 -0.0761684
0.068695545 0.21312892 0.123854995 -0.2049961 -0.31421 0.17949256 -0.23661318 0.25902066
-0.056781035 0.0010250515 -0.40692735 0.1153539 -0.12663147 0.13304472 -0.0064933035 -0.08271106
-0.019065974 -0.0839819 -0.14533803 0.1767225 -0.103930235 -0.0010696829 0.085767716 -0.2880674
-0.047665305 0.082823455 0.07381535 -0.036875945 0.00044771805 0.022721514 -0.058771066 -0.11589964
0.11866671 -0.027630867 0.03300368 0.21852687 -0.017995175 0.18886194 0.04007537 0.029597472
-0.25176898 0.09204091 -0.069641665 0.19250822 -0.01678108 -0.14656252 -0.05708969 0.1758575
0.2744195 0.10281934 0.10917555 -0.08040307 0.021476906 -0.08497619 0.020701451 0.30422583
-0.049733195 0.10448957 0.054794475 -0.061996195 -0.08135437 -0.13481838 0.012318429 -0.15539256
0.13588846 0.099063806 -0.060663007 0.13212405 -0.3053456 0.17726097 -0.018421337 -0.009699566
-0.000652924 0.19081247 -0.02076886 0.1177211 0.07139233 -0.006205658 0.15177019 -0.18448839
-0.08086679 -0.009448702 -0.0019675747 0.1310853 0.21302241 -0.11764989 0.3273515 0.28630126
0.16067533 0.11825559 -0.06399851 -0.04015856 -0.09015697 0.065146916 0.1504846 0.041263927
0.14293212 0.0042225337 0.07605453 0.16608186 -0.17180552 -0.022888023 0.18819766 0.10491372
-0.15176484 0.2126295 0.17267019 -0.14264527 -0.14520141 -0.07702604 0.0065737693 0.05037706
0.06729442 0.114579014 -0.09572113 0.15997875 0.10983992 -0.1563752 -0.07900211 0.29327285
0.13050666 -0.09127767 -0.08767945 -0.15710227 0.18039782 0.051061165 0.03525141 0.1534313
0.07331444 0.1808672 0.038776 -0.031639587 0.32888347 0.08689012 -0.13257949 -0.14503379
0.09024089 -0.15359807 0.19178165 0.013623066 0.1780353 -0.14582199 0.10488111 0.068969086
0.17514256 0.15426826 0.102541186 0.03575354 0.075790636 -0.052503265 -0.19584785 0.00088908576
-0.120801315 0.061347764 0.072097756 -0.09976516 0.03391813 0.041216627 -0.066752814 0.13168548
0.007999324 -0.086757846 -0.020117862 0.11711244 0.08444537 0.014349824 0.18538602 -0.08457386
-0.16607393 0.0040317047 -0.12342023 0.11392781 0.09334292 -0.18424353 -0.15685138 0.20511484
-0.05474176 0.20319891 0.12969433 -0.05216037 0.13424586 -0.20415726 0.13588427 0.033274487
0.020466398 0.22645223 0.054505445 -0.09281724 0.14532015 0.056271713 0.2103638 -0.13695423
-0.030055823 -0.15310203 0.023000171 0.116462424 -0.22976485 -0.06752232 0.021720834 -0.056561243
-0.288913 0.13012198 -0.13662168 0.1477729 0.12315185 0.19666709 0.11948518 0.035557132
0.054013435 -0.050604675 0.091966525 0.21350034 0.21326193 -0.017413449 -0.043261554 0.30714527
0.1622694 0.029446023 0.2074997 0.21307836 0.13049288 -0.00205796 0.022359218 0.03185233
-0.01326631 0.04482438 -0.15930977 -0.03158871 0.09305498 0.2006183 0.14929366 -0.18293342
-0.076911464 -0.0020944255 0.2612659 0.115153834 0.13103944 -0.15040933 0.1529858 0.27331203
-0.019718101 -0.014831813 0.10905066 -0.067825645 0.0064109643 0.08100176 -0.01941181 0.20657873
00000000: edfa 3d3e 96f1 de3d 8430 19be f822 123d
00000010: 435d d63d e8c0 643e 440d 25be 2efe 9bbd
00000020: 40b0 8c3d 783e 5a3e b0a7 fd3d 7fea 51be
00000030: 22e0 a0be e6cc 373e ba4a 72be 5b9e 843e
00000040: 3b93 68bd 055b 863a c858 d0be aa3e ec3d
00000050: aeab 01be e03c 083e c7c5 d4bb 6b64 a9bd
00000060: 3f30 9cbc b4fe abbd 7ed3 14be bef6 343e
00000070: 60d9 d4bd 9a34 8cba fca6 af3d 927d 93be
00000080: b23c 43bd 589f a93d 812c 973d 3b0b 17bd
00000090: b3bb ea39 7822 ba3c eeb9 70bd ca5c edbd
000000a0: 8807 f33d 215a e2bc de2e 073d 82c5 5f3e
000000b0: 9e6a 93bc 0665 413e 1226 243d 6676 f23c
000000c0: dde7 80be f27f bc3d 4aa0 8ebd e020 453e
000000d0: 7a78 89bc 7c14 16be e1d6 69bd fd13 343e
000000e0: b680 8c3e f292 d23d 6e97 df3d 5daa a4bd
000000f0: 56f0 af3c ff07 aebd 1796 a93c 7dc3 9b3e
00000100: 09b5 4bbd a1fe d53d 2c70 603d b9ef 7dbd
00000110: 1f9d a6bd d40d 0abe 3cd3 493c 3a1f 1fbe
00000120: 5826 0b3e f7e1 ca3d c679 78bd 874b 073e
00000130: 4256 9cbe e683 353e 58e8 96bc eeea 1ebc
00000140: fd28 2bba 5864 433e 7523 aabc c317 f13d
00000150: 2436 923d d558 cbbb a569 1b3e 86ea 3cbe
00000160: 7d9d a5bd bbce 1abc 6df2 00bb 3a3b 063e
00000170: 8c22 5a3e 6df2 f0bd 9e9a a73e 1496 923e
00000180: 1388 243e fd2f f23d a711 83bd 4d7d 24bd
00000190: 38a4 b8bd bf6b 853d a318 1a3e 5d04 293d
000001a0: cc5c 123e 2e5d 8a3b 7ac2 9b3d 5d11 2a3e
000001b0: c9ed 2fbe aa7f bbbc e3b6 403e 01dd d63d
000001c0: 3e68 1bbe 8cbb 593e 74d0 303e 9a11 12be
000001d0: aeaf 14be d4bf 9dbd c668 d73b 2d58 4e3d
000001e0: a8d1 893d 67a8 ea3d 7109 c4bd 78d1 233e
000001f0: c1f3 e03d d220 20be dccb a1bd dc27 963e
00000200: 8aa3 053e c9ef babd 4991 b3bd 6bdf 20be
00000210: 35ba 383e 8325 513d c863 103d 181d 1d3e
00000220: e225 963d 4035 393e 95d3 1e3d 8398 01bd
00000230: 6a63 a83e 72f3 b13d ebc2 07be bd83 14be
00000240: 37d0 b83d d048 1dbe 6962 443e 4833 5f3c
00000250: e34e 363e 5c52 15be e8cb d63d aa3f 8d3d
00000260: 9258 333e 80f8 1d3e 1d01 d23d 4e72 123d
00000270: 1f38 9b3d aa0d 57bd 578c 48be 8911 693a
00000280: ae66 f7bd cb47 7b3d fda7 933d ad51 ccbd
00000290: bded 0a3d c4d2 283d b3b5 88bd 8fd8 063e
000002a0: 990f 033c 19ae b1bd 37ce a4bc a6d8 ef3d
000002b0: b2f1 ac3d 861b 6b3c d5d5 3d3e 0f35 adbd
000002c0: 490f 2abe 641c 843b bfc3 fcbd fc52 e93d
000002d0: 932a bf3d 56aa 3cbe a69d 20be a009 523e
000002e0: e538 60bd 6013 503e 97ce 043e 1da6 55bd
000002f0: bf77 093e 9a0e 51be 3f25 0b3e d44a 083d
00000300: 26a9 a73c 18e3 673e 1a41 5f3d f716 bebd
00000310: cece 143e 2b7d 663d 9c69 573e bb3d 0cbe
00000320: a137 f6bc c7c6 1cbe db6a bc3c da83 ee3d
00000330: 7a47 6bbe 2449 8abd e4ef b13c c3ac 67bd
00000340: 68ec 93be b23e 053e 8ee6 0bbe c751 173e
00000350: 0a37 fc3d 1963 493e a5b4 f43d 5ba4 113d
00000360: 313d 5d3d d946 4fbd f258 bc3d d59f 5a3e
00000370: 5661 5a3e a6a6 8ebc 0733 31bd 2542 9d3e
00000380: f329 263e c938 f13c cd7a 543e 3731 5a3e
00000390: ed9f 053e d7de 06bb ae2a b73c 9777 023d
000003a0: f05a 59bc c599 373d 1a22 23be 2a63 01bd
000003b0: 9c93 be3d e26e 4d3e 70e0 183e e652 3bbe
000003c0: c283 9dbd a142 09bb a5c4 853e c6d5 eb3d
000003d0: 342f 063e e704 1abe 4fa8 1c3e 8eef 8b3e
000003e0: db87 a1bc 2201 73bc f455 df3d 2ce8 8abd
000003f0: 1113 d23b 40e4 a53d 8405 9fbc 6089 533e

gnn_layers.1.lin_l.bias f4 [32]
-0.028739234 0.09475676 0.054902304 -0.15858738 0.1765021 -0.07251201 -0.0073506185 0.2158215
0.02121842 -0.112019725 0.09385548 -0.039848752 0.20312084 -0.080555946 -0.07450866 -0.08939288
-0.010638483 0.02745192 0.17376514 -0.0024734477 -0.10626196 0.031430047 -0.09593896 0.06380816
0.033790458 -0.18073915 -0.13696948 -0.062328532 -0.052956033 -0.06059224 0.0870337 -0.12849312
00000000: 8b6e ebbc d50f c23d 3de1 603d bb64 22be
00000010: f7bc 343e 2d81 94bd 75dd f0bb 5000 5d3e
00000020: 40d2 ad3c 996a e5bd 4d37 c03d 7238 23bd
00000030: e9fe 4f3e 84fa a4bd ff97 98bd 9d13 b7bd
00000040: 084d 2ebc d9e2 e03c 7def 313e 9119 22bb
00000050: df9f d9bd cbbc 003d a57b c4bd daad 823d
00000060: dd67 0a3d af13 39be ba41 0cbe 344c 7fbd
00000070: 6de8 58bd 922f 78bd b93e b23d b393 03be

gnn_layers.1.lin_r.weight f4 [32, 32]
0.075068325 -0.07878811 0.25869453 -0.2609361 -0.085843086 0.08011995 0.19990735 -0.12669453
0.15499273 -0.039537475 0.13920765 0.10665328 -0.12894186 -0.06435976 -0.14280325 0.19094603
-0.075021386 0.1041275 -0.20669954 0.18560545 0.1271431 0.023293389 -0.06314987 0.25192934
0.23491244 0.15071669 -0.15038922 0.100295424 0.008371004 -0.16399267 0.14714459 0.27981266
-0.13182886 -0.13731778 -0.15283975 0.21550581 0.04911427 0.18142623 -0.04948501 -0.09096138
0.10640073 0.24181354 0.063523956 -0.20204954 -0.13402592 -0.023606539 -0.14154898 0.31266168
0.20919532 0.21365766 -0.19937086 0.05118909 0.061561514 0.32957286 0.2799944 -0.107304566
0.09892203 -0.015699985 -0.08360097 0.18562599 0.15247221 0.019624248 -0.13826701 -0.08080741
-2.1458738e-05 -0.061200704 0.2224506 -0.19135787 -0.035904292 -0.07564757 -0.09871371 0.12999403
0.084540635 -0.17955248 0.084570915 0.025418999 -0.012734805 0.051953904 0.16483505 0.11699678
-0.26834193 0.11284195 -0.059537776 0.011485195 0.00071897655 0.14712997 0.20517194 -0.2945058
0.08094905 0.12742327 0.07546902 0.03346558 0.000109956505 -0.070763275 -0.258556 0.08226696
-0.04884616 0.06388114 -0.088061616 0.14173046 -0.06675 0.16069548 -0.044229414 0.0200345
-0.06482476 0.019561334 0.17890751 0.301607 -0.1359375 0.12814985 0.15052257 -0.2487354
-0.029218817 0.07832857 0.13414526 0.17040578 0.028226713 -0.08738148 -0.06729029 -0.010128739
-0.023017304 -0.10386511 0.005979422 0.12150952 0.07221276 0.082588136 -0.032061752 0.32414183
0.056189787 -0.07036454 0.057216525 0.17944118 -0.14818306 0.0040989104 0.09619321 -0.1316864
0.06735587 0.11934905 -0.20821893 -0.10453695 0.1284934 0.11543057 0.16533484 -0.12704343
0.066708855 0.09567277 0.26965544 0.14261453 0.09367694 0.20701778 -0.09074827 0.003034358
-0.22332656 -0.1368479 -0.056409426 -0.19865115 0.061306287 0.08373647 0.17034534 0.12515424
-0.13774319 -0.067227714 0.12363553 -0.21762644 0.10392216 0.07467983 -0.18190068 0.08662066
0.0056796037 -0.0647137 -0.056524396 0.118481785 0.2926514 0.07839266 0.044366576 -0.22501588
0.21126668 0.057194006 0.22709724 0.037471946 0.02510667 0.12571919 0.16606128 -0.08419275
0.06631875 -0.037956197 0.1673987 0.062170938 0.030623492 0.19549543 0.16738147 0.21678127
0.04673176 0.09296789 -0.0990602 0.08969378 -0.09554239 -0.12422246 0.080262564 -0.15812322
0.056359082 -0.17611492 0.14591193 0.16127479 0.08988489 -0.09289153 0.099112906 -0.043135982
-0.19981821 0.19139664 0.06446313 -0.097526 -0.16317242 0.1059053 0.22408332 -0.07544272
0.13037647 -0.15023066 0.13164997 0.018361935 0.0038495762 0.06612239 0.2190974 0.32998452
0.04445717 0.18511623 0.033787645 0.09228007 -0.0053525246 -0.13881823 0.051306132 -0.0034447566
0.10230096 -0.16468039 -0.2329798 0.12348406 0.4373493 -0.12515138 0.0441289 -0.18691167
0.017394915 0.090254255 0.32493135 0.12536691 -0.0246377 -0.15471737 -0.14399144 -0.046786238
-0.11643654 -0.114591666 0.15006949 -0.12666793 0.1729941 -0.04613416 0.06980713 0.110689074
00000000: 6cbd 993d a95b a1bd 9c73 843e 6b99 85be
00000010: 80ce afbd ee15 a43d 83b4 4c3e 36bc 01be
00000020: 6ab6 1e3e 0cf2 21bd 738c 0e3e 096d da3d
00000030: 5609 04be 0dcf 83bd 043b 12be 5b87 433e
00000040: d0a4 99bd cc40 d53d 0ba9 53be 5b0f 3e3e
00000050: cd31 023e c7d1 be3c b854 81bd e2fc 803e
00000060: e38c 703e 7a55 1a3e a2ff 19be b067 cd3d
00000070: 8926 093c b2ed 27be 12ad 163e 9b43 8f3e
00000080: 25fe 06be 089d 0cbe 0682 1cbe 8ead 5c3e
00000090: 0b2c 493d ccc7 393e cbb0 4abd f649 babd
000000a0: a0e8 d93d f89d 773e d918 823d 13e6 4ebe
000000b0: 173e 09be 8062 c1bc 37f2 10be 3115 a03e
000000c0: 4c37 563e 13c9 5a3e e027 4cbe a7ab 513d
000000d0: ed27 7c3d c6bd a83e 6d5b 8f3e 7fc2 dbbd
000000e0: a297 ca3d 419d 80bc fc36 abbd bd14 3e3e
000000f0: ad21 1c3e 08c3 a03c de95 0dbe 5b7e a5bd
00000100: 4a02 b4b7 97ad 7abd 17ca 633e 51f3 43be
00000110: 6110 13bd 1ded 9abd 6a2a cabd 281d 053e
00000120: a423 ad3d 9bdc 37be 8433 ad3d 813b d03c
00000130: a5a5 50bc 9ecd 543d 85ca 283e 029c ef3d
00000140: 1d64 89be ae19 e73d e2dd 73bd 662c 3c3c
00000150: b379 3c3a 3da9 163e 9818 523e 77c9 96be
00000160: 9ec8 a53d 3f7b 023e 808f 9a3d 3413 093d
00000170: 7398 e638 56ec 90bd 7461 84be 947b a83d
00000180: e912 48bd 1dd4 823d a659 b4bd ca21 113e
00000190: 39b4 88bd 5b8d 243e e729 35bd 641f a43c
000001a0: d8c2 84bd 173f a03c 8833 373e 3c6c 9a3e
000001b0: 3333 0bbe b739 033e 9722 1a3e 7eb4 7ebe
000001c0: 4d5c efbc bb6a a03d 605d 093e da7e 2e3e
000001d0: b53b e73c 10f5 b2bd 7ecf 89bd 03f3 25bc
000001e0: c98e bcbc 3bb7 d4bd 07ef c33b fcd9 f83d
000001f0: 49e4 933d f823 a93d 2f53 03bd ebf5 a53e
00000200: 4327 663d 491b 90bd e05b 6a3d 6ebf 373e
00000210: 4dbd 17be 2750 863b f200 c53d cdd8 06be
00000220: e0f1 893d 466d f43d 5837 55be 7817 d6bd
00000230: c693 033e dd66 ec3d 894d 293e ac17 02be
00000240: a79e 883d 16f0 c33d 4710 8a3e 8b09 123e
00000250: b2d9 bf3d 78fc 533e 3bda b9bd 14dc 463b
00000260: b8af 64be db21 0cbe 920d 67bd 356b 4bbe
00000270: 4d1c 7b3d 077e ab3d 026f 2e3e 6f28 003e
00000280: 8d0c 0dbe afae 89bd a034 fd3d 77d9 5ebe
00000290: 24d5 d43d bdf1 983d 2c44 3abe 2c66 b13d
000002a0: f81b ba3b 9e88 84bd 2086 67bd 94a6 f23d
000002b0: 68d6 953e 558c a03d bab9 353d 906a 66be
000002c0: 4b56 583e 4344 6a3d 2e8c 683e 2f7c 193d
000002d0: 81ac cd3c 88bc 003e f80b 2a3e 406d acbd
000002e0: 20d2 873d f577 1bbd 916a 2b3e f4a6 7e3d
000002f0: 1ede fa3c f42f 483e 0c66 2b3e e9fb 5d3e
00000300: cd69 3f3d f365 be3d 13e0 cabd 5fb1 b73d
00000310: bbab c3bd 5868 febd b360 a43d 0eeb 21be
00000320: c8d8 663d 7857 34be f069 153e 3825 253e
00000330: 9215 b83d ea3d bebd b5fb ca3d 5baf 30bd
00000340: 259d 4cbe 7bfd 433e 3f05 843d b6bb c7bd
00000350: ac16 27be e1e4 d83d 1976 653e b681 9abd
00000360: 6981 053e 11d6 19be 40cf 063e c56b 963c
00000370: 2c49 7c3b 2d6b 873d 125b 603e bbf3 a83e
00000380: b918 363d 1c8f 3d3e ea64 0a3d 55fd bc3d
00000390: 3b64 afbb 5e26 0ebe 6126 523d 6dc1 61bb
000003a0: 2a83 d13d faa1 28be 4292 6ebe 36e5 fc3d
000003b0: 3fec df3e af27 00be 81c0 343d c665 3fbe
000003c0: c87f 8e3c 39d7 b83d 675d a63e 2f60 003e
000003d0: 00d5 c9bc 3b6e 1ebe 7e72 13be eda2 3fbd
000003e0: 4876 eebd 09af eabd d1ab 193e 3db5 01be
000003f0: 5e25 313e 2cf7 3cbd 0af7 8e3d f4b0 e23d
