baseline/DLPL-CAP/models_dlpl-cap-classifier/sandwich+ultra8t_to_ssram+digtime+timing_ctrl+array_128_32_8t/dlpl-cap-classifier_nh_2_tsk_regression_ngl_4_nhl_4_hd_32_us_1_bn_0_dp_0.0_epoch_18_20250402_180407.pth (torch, 63134 bytes, 24 tensors)

net_attr_layers.weight f4 [16, 17]
0	0x3d5d1c18	0.05398187
1	0x3d8b596c	0.06804165
2	0xbe463744	-0.1935702
3	0x3e6424a0	0.22279596
4	0xbe6fe535	-0.2342728
5	0xbdac34a7	-0.0840848
6	0xbdf1d3c3	-0.118079685
7	0x3e11daff	0.14243697
8	0x3e5aefd8	0.21380556
9	0xbe363389	-0.17793097
10	0x3e57ded9	0.21081103
11	0x3d39edcc	0.045392796
12	0x3e377ceb	0.17918746
13	0x3d068a4d	0.032846738
14	0x3def8253	0.11694779
15	0xbe9cd773	-0.30633125
16	0xbf75d1e7	-0.9602341
17	0x3e2c80e1	0.16846038
18	0x3e152898	0.14566267
19	0xbe570dc6	-0.21001348
20	0xbde4da96	-0.111745045
21	0xbe4e8ee4	-0.20171696
22	0x3e30e835	0.1727608
23	0x3e24c0a2	0.16089109
24	0xbe440b92	-0.19145039
25	0xbde4fd64	-0.11181143
26	0xbd8c425a	-0.06848593
27	0xbe155475	-0.14582999
28	0x3cbb8678	0.022891268
29	0xbe754be8	-0.23954737
30	0x3e604b01	0.21903612
31	0xbe52f88f	-0.2060263
32	0xbe18ace7	-0.14909707
33	0x3f5f9d8d	0.8734978
34	0xbe89e5c2	-0.26933104
35	0xbdfe8c5b	-0.124291144
36	0x3e1263be	0.14295861
37	0x3e48a9b6	0.1959599
38	0x3d12c4b4	0.035832122
39	0xbeb613ff	-0.3556213
40	0x3d85756b	0.06516536
41	0xbd86b2c6	-0.06577067
42	0x3dd10b9f	0.10207295
43	0x3e5dbcf8	0.21654117
44	0x3e0f9099	0.14020003
45	0xbdd92636	-0.10602991
46	0x3e0f5e0f	0.14000724
47	0x3d31bffd	0.043395985
48	0x3dfc3f8c	0.12316808
49	0x3db410f7	0.08792298
50	0xbfc2cb84	-1.5218358
51	0x3d8d9383	0.06912901
52	0x3ddd335b	0.10800811
53	0xbd9fc1e4	-0.078006536
54	0x3d8f11a3	0.06985786
55	0xbd0a6f46	-0.033797525
56	0x3ec51790	0.3849454
57	0xbb8a40bd	-0.004219143
58	0x3e425da7	0.18981038
59	0xbe3075ed	-0.17232485
60	0x3c7a32fd	0.015270946
61	0xbe298366	-0.16554031
62	0x3d992995	0.07478634
63	0xbdab0f24	-0.08352497
64	0x3d983370	0.07431686
65	0xbd4ef8c9	-0.05053023
66	0xbdf04130	-0.117311835
67	0x3f2cd48f	0.6751184
68	0xbe41bddb	-0.1892008
69	0xbda13998	-0.07872313
70	0xbe352200	-0.17688751
71	0x3da587b8	0.08082527
72	0xbdaa6fe9	-0.083221264
73	0xbdfdc9b8	-0.123919904
74	0xbe7656bf	-0.24056529
75	0xbe424e1c	-0.18975109
76	0xbe271113	-0.16315107
77	0x3dc9304e	0.098236665
78	0x3db1dc65	0.08684615
79	0x3e4e5d8e	0.20152876
80	0xbe0041f1	-0.12525155
81	0xbe294ebb	-0.1653394
82	0x3e03c5c4	0.1286841
83	0xbf30d608	-0.69076586
84	0x3f65dd8d	0.89791185
85	0xbeb2a7ec	-0.3489374
86	0xbe73d552	-0.23811844
87	0xbe2ec843	-0.17068581
88	0xbdfaaa84	-0.122395545
89	0x3e7c0ac6	0.24613485
90	0xbe912c62	-0.28354174
91	0xbd7d485a	-0.061836578
92	0x3e1409a7	0.14456807
93	0x3e28d5c4	0.16487795
94	0xbe3419fc	-0.17588037
95	0xbe0496f2	-0.12948206
96	0x3e63691b	0.22208063
97	0xbda79b6b	-0.081839405
98	0xbdb017c7	-0.08598285
99	0xbe704ef3	-0.23467617
100	0xbdbf6385	-0.09345154
101	0xbf8c6f84	-1.0971532
102	0x3ed35138	0.41272902
103	0x3eaee6eb	0.3416055
104	0x3df7761b	0.12083074
105	0xbe29a5d1	-0.1656716
106	0x3ece4839	0.40289477
107	0x3ee4c503	0.44681558
108	0xbe595d56	-0.21227011
109	0xbe1e2355	-0.15443166
110	0x3e784264	0.24244076
111	0x3d3ba21e	0.045808904
112	0x3d991122	0.07473971
113	0xbe67a360	-0.22620916
114	0xbe231d31	-0.15929104
115	0xbda55574	-0.080729395
116	0x3d1b57d7	0.037925567
117	0xbeb5eba5	-0.35531345
118	0x3ed46424	0.4148265
119	0xbe029787	-0.12753116
120	0xbdbc76fa	-0.092023805
121	0x3eb457a3	0.35223112
122	0xbc89ae30	-0.016806692
123	0xbe778151	-0.24170424
124	0xbea10600	-0.3144989
125	0xbe10e441	-0.14149572
126	0xbdaa0609	-0.08301932
127	0xbe4405e5	-0.19142874
128	0x3e503d4b	0.20335881
129	0xbd4528c9	-0.0481346
130	0x3e55af63	0.20867686
131	0x3d9ac451	0.07556976
132	0xbe524eb9	-0.20537843
133	0x3e2bdf16	0.1678432
134	0x3e8ee342	0.2790776
135	0xbe23dfe2	-0.16003373
136	0xbebba0f9	-0.3664625
137	0xbeeff971	-0.46869996
138	0x3ddc55eb	0.10758575
139	0xbd5901ff	-0.05298042
140	0x3e6efdd8	0.23339021
141	0xbecbba2f	-0.39790484
142	0x3e386318	0.18006551
143	0xbe364e97	-0.17803417
144	0xbd2b89c6	-0.041879438
145	0x3d4f7f1f	0.05065834
146	0x3e0036e8	0.12520945
147	0x3e488031	0.19580151
148	0x3e623e1d	0.22094007
149	0xbe44ed67	-0.19231187
150	0x3d7a0345	0.061038274
151	0x3d95167b	0.072796784
152	0xbfa5ade8	-1.2943697
153	0x3bcca1cc	0.0062448736
154	0x3f027e16	0.5097364
155	0xbeb41cf9	-0.35178354
156	0x3e04bc03	0.12962346
157	0x3e23d7b1	0.16000248
158	0x3ec829d0	0.390944
159	0xbe0645e2	-0.13112596
160	0x3e61be77	0.22045313
161	0x3d5a4e45	0.0532973
162	0x3cff96b7	0.031199796
163	0xbe5add87	-0.21373568
164	0x3dd083ae	0.10181366
165	0xbd1508cb	-0.03638534
166	0xbde38e67	-0.111111455
167	0x3e55532f	0.20832513
168	0xbd7bd1fc	-0.061479554
169	0x3f61343e	0.8797034
170	0x3cc5aa7c	0.024129145
171	0x3dea28a2	0.11433531
172	0x3ebc16fc	0.36736286
173	0xbd7dda9a	-0.061976053
174	0x3de3f5aa	0.11130841
175	0x3d4007c8	0.04688242
176	0xbe398a77	-0.18119226
177	0x3db124db	0.08649608
178	0x3e403ce7	0.18773232
179	0xbe69d014	-0.22833282
180	0x3d66b94e	0.056329064
181	0x3e004c86	0.12529191
182	0x3d342326	0.043978833
183	0xbdb0e448	-0.08637291
184	0x3e01a0b2	0.12658957
185	0x3edd7ed2	0.4326082
186	0x3f8d255f	1.102703
187	0x3e0c1e0e	0.1368334
188	0x3d3caf36	0.04606553
189	0x3ee99f06	0.45629138
190	0xbd2f7e25	-0.04284491
191	0x3f59ccb5	0.85077983
192	0x3ea8ee40	0.3299427
193	0x3e556ffc	0.208435
194	0xbcc4b16d	-0.024010384
195	0xbd5e6cc9	-0.054302964
196	0x3b67f116	0.00353915
197	0xbc6d4349	-0.014481374
198	0x3d6ed4af	0.0583083
199	0x3d8b3217	0.06796663
200	0xbe61924b	-0.22028463
201	0xbdb74e4b	-0.0895048
202	0x3f2a3c43	0.664982
203	0xbef36261	-0.47535995
204	0xbdc9aab2	-0.09847011
205	0xbe8680ed	-0.26270238
206	0xbdeda234	-0.116032034
207	0xbe5e7831	-0.21725537
208	0x3e9e0919	0.30866316
209	0x3d12feae	0.035887413
210	0x3e1e5b83	0.15464596
211	0x3de554c0	0.111978054
212	0xbe5b8881	-0.21438791
213	0xbe155a2e	-0.14585182
214	0xbd1cc776	-0.03827616
215	0x3e703f5d	0.23461671
216	0x3d0fb4dd	0.035084594
217	0xbd80a256	-0.06280963
218	0x3dcd7f6b	0.10034069
219	0x3e2f7eb0	0.17138171
220	0xbf7f19e9	-0.9964891
221	0xbe46fd21	-0.19432499
222	0xbeae3489	-0.34024456
223	0xbf4a41e9	-0.7900682
224	0xbe7710eb	-0.24127547
225	0xbf07ae62	-0.5300046
226	0xbd2164a6	-0.039402626
227	0x3db506b1	0.08839167
228	0xbe2d2c2d	-0.16911383
229	0xbe751ce8	-0.23936808
230	0xbe49b5bc	-0.19698232
231	0x3e393311	0.18085887
232	0x3dee7989	0.11644275
233	0x3e50fe3b	0.20409481
234	0x3e021b42	0.1270571
235	0x3d7b6da6	0.061383866
236	0xbec18e7b	-0.37804016
237	0x3e9ffbcc	0.31246793
238	0xbe744e40	-0.23857975
239	0xbe53b0fc	-0.20672983
240	0xbe22e5ed	-0.15908022
241	0xbdf3dec3	-0.11907723
242	0xbe70e16c	-0.23523492
243	0xbdde89ae	-0.10866104
244	0xbd35068e	-0.044195704
245	0xbe2ecd4d	-0.17070504
246	0xbe2247af	-0.15847658
247	0x3da4c3db	0.08045169
248	0xbd939f0d	-0.07208071
249	0x3e195239	0.14972772
250	0xbd9f5991	-0.07780755
251	0xbe362fa9	-0.17791618
252	0xbd2f476d	-0.042792726
253	0xbe734eaf	-0.23760484
254	0xbf8a9db2	-1.0829375
255	0xbec8cae7	-0.39217302

net_attr_layers.bias f4 [16]
0	0x3e1ff3cc	0.15620345
1	0x3d470b43	0.048594724
2	0x3e73a5b5	0.23793681
3	0xbc8f3111	-0.017479451
4	0xbe4aabfb	-0.19792168
5	0x3e087933	0.13327484
6	0x3deaa074	0.11456385
7	0xbe493b88	-0.19651616
8	0x3da01c9a	0.07817955
9	0xbdee41da	-0.11633654
10	0xbd4fc1b0	-0.050721824
11	0xbca66502	-0.020311836
12	0x3ca5d602	0.020243648
13	0xbe096261	-0.13416435
14	0xbe1c2964	-0.15250164
15	0x3e12380b	0.14279191

dev_attr_layers.weight f4 [16, 17]
0	0x3e92a251	0.28639463
1	0xbfdc812c	-1.722692
2	0x4023fc2e	2.5622668
3	0xbfe03209	-1.751527
4	0xbfbd7293	-1.480059
5	0xbe71afcd	-0.23602219
6	0x3db89b89	0.09014041
7	0xbe085bf3	-0.13316326
8	0xbe1fa9a4	-0.15592057
9	0xbc9b0541	-0.018923404
10	0xbda56934	-0.080767065
11	0xbda0b26c	-0.07846531
12	0x3bff5c15	0.0077929595
13	0xbd52b7cd	-0.051444817
14	0xbc6f3e59	-0.014602267
15	0xbf8568c6	-1.0422599
16	0xbe4a1e8b	-0.19738214
17	0x3e326036	0.17419514
18	0x3fe51a72	1.7898695
19	0xc01ade21	-2.4198077
20	0x3fcb8d41	1.5902482
21	0x3fa1a22c	1.2627616
22	0x3e678af8	0.22611606
23	0x3de4d8d0	0.11174166
24	0xbe5739c4	-0.2101813
25	0x3dc52592	0.096263066
26	0x3e6bc028	0.2302252
27	0x3d82ad49	0.06380708
28	0x3e26811b	0.16260187
29	0x3e74d9ff	0.23911284
30	0xbd1838be	-0.03716349
31	0x3ca3d626	0.019999575
32	0xbf244c78	-0.6417918
33	0xbd4cb8ea	-0.049981035
34	0x3e36e018	0.17858922
35	0xc0048ceb	-2.071101
36	0x4023c358	2.5587978
37	0xc00b0a88	-2.1725178
38	0xbfd4873b	-1.6603769
39	0xbe7518f3	-0.23935299
40	0xbe3fa43c	-0.18714994
41	0xbd75abf1	-0.05997843
42	0x3e279c30	0.16368175
43	0x3d264828	0.040596157
44	0xbe3ce6bb	-0.18447392
45	0xbe473ccd	-0.19456787
46	0x3df71a37	0.12065547
47	0xbe38bce1	-0.18040802
48	0xbcf4c613	-0.029879605
49	0x3dae6351	0.08515037
50	0xbde5e27f	-0.11224841
51	0xbdb3147f	-0.08744144
52	0x3fe18217	1.7617825
53	0xc04b5a75	-3.177396
54	0x3fd19d6a	1.6376164
55	0x3f8ead52	1.1146643
56	0xbe48c2bd	-0.19605537
57	0xbe04fc41	-0.12986852
58	0x3e6fdf3f	0.23425005
59	0xbdefeb6f	-0.11714827
60	0xbe26c740	-0.16286945
61	0x3d70ccfa	0.05878923
62	0x3d88e633	0.06684532
63	0x3e0813b2	0.13288763
64	0x3e3cc7e4	0.18435627
65	0x3dbfb2dd	0.09360287
66	0xbccb9a79	-0.024853932
67	0x3cb0360d	0.021510148
68	0x3e0a7bbb	0.13523762
69	0x3fc5e218	1.5459623
70	0xc039e1ab	-2.9043987
71	0x3fc9de07	1.5770882
72	0x3f6abc41	0.916935
73	0xbe0d6681	-0.13808633
74	0xbe5fe834	-0.21865922
75	0x3c317fa8	0.010833658
76	0x3ddc1c26	0.107475564
77	0x3d5be856	0.05368837
78	0x3d447320	0.047961354
79	0xbe3c59b6	-0.18393597
80	0xbe67efdc	-0.22650093
81	0x3b8bf2e0	0.0042708963
82	0x3e4fe6a5	0.20302828
83	0xbec3f7d9	-0.3827503
84	0xbe109a06	-0.14121255
85	0x3d27a60b	0.040929835
86	0xc02800e8	-2.6250553
87	0x3ffa41b5	1.9551302
88	0xc00402fd	-2.0626824
89	0xbfb7e45a	-1.4366562
90	0x3e4dbb1a	0.20090905
91	0xbe640481	-0.22267343
92	0x3e260e0f	0.162163
93	0xbe2f29f3	-0.17105846
94	0x3dba00b3	0.090821646
95	0x3e522ba6	0.20524463
96	0x3b5f3374	0.0034057768
97	0x3e61f4fb	0.22066109
98	0xbe539ccd	-0.20665284
99	0xbab4823b	-0.0013771722
100	0x3e1adabc	0.15122503
101	0xbd586f81	-0.052840713
102	0xbd8e5b54	-0.06951013
103	0x3f56c154	0.83888745
104	0xc04be2a9	-3.1857092
105	0x3fb57ec2	1.4179308
106	0x3f876e09	1.0580455
107	0xbe0b913c	-0.13629621
108	0xbe499a70	-0.1968782
109	0x3cd6e62c	0.026232801
110	0x3d932a60	0.07185817
111	0xbde55699	-0.11198158
112	0xbd8afaa8	-0.0678609
113	0x3e27bb61	0.16380073
114	0x3c9e45a3	0.019320315
115	0x3c334971	0.010942803
116	0xbd02c8d9	-0.031929825
117	0x3f022cf7	0.5084986
118	0xbe6984df	-0.22804593
119	0xbcb0c0ae	-0.021576252
120	0xbd8bf509	-0.06833846
121	0x404a672d	3.1625473
122	0xbf4e8ace	-0.8068055
123	0xbf267de7	-0.6503586
124	0x3e6cca5c	0.23124069
125	0x3dad0438	0.0844807
126	0x3e310dcd	0.17290421
127	0xbdf0770f	-0.117414586
128	0xbdcae409	-0.099067755
129	0x3db68fe7	0.08914166
130	0xbe257947	-0.16159545
131	0xbe225a05	-0.15854652
132	0xbc3fedb7	-0.0117143905
133	0xbd93e183	-0.07220747
134	0xbf4ba2d4	-0.7954533
135	0x3e13509b	0.14386217
136	0x3e5ec14b	0.21753423
137	0xc025a717	-2.5883234
138	0x4009ed78	2.155119
139	0xc0188d61	-2.383629
140	0xbfd1df6c	-1.6396308
141	0x3d7ce976	0.061746083
142	0x3dea372c	0.114363045
143	0xbcfb2c41	-0.03066075
144	0xbdc4607b	-0.09588715
145	0x3e0a6405	0.13514717
146	0xbe45ca81	-0.1931553
147	0x3e1cf73c	0.15328687
148	0xbdc0b3c3	-0.09409287
149	0x3b7346c8	0.0037121046
150	0xbb448119	-0.0029984175
151	0x3ec17527	0.37784693
152	0xbd961b1a	-0.07329388
153	0x3df86220	0.12128091
154	0x3fdb3eab	1.71285
155	0xc039ae7e	-2.9012752
156	0x3ff533be	1.9156415
157	0x3f95ad5c	1.169353
158	0xbe352da6	-0.17693195
159	0x3e4741c4	0.19458681
160	0x3e429d97	0.19005428
161	0xbe3da1c5	-0.18518741
162	0xbc999716	-0.018748801
163	0xbe74e92e	-0.23917076
164	0xbe4b4dec	-0.19853944
165	0x3d3fdf70	0.046843946
166	0x3d842491	0.06452287
167	0x3c38b352	0.011273222
168	0x3f043314	0.5164044
169	0x3e6520cf	0.22375797
170	0xbdea9bc1	-0.11455489
171	0x3fa39810	1.2780781
172	0xc023f96d	-2.5620987
173	0x3fbc2944	1.4700093
174	0x3f8fe614	1.1242089
175	0xbe2f9bad	-0.1714923
176	0x3dba29b0	0.090899825
177	0xbdfdc2f4	-0.123907
178	0xbe4e5e92	-0.20153263
179	0xbe07a776	-0.13247475
180	0x3e6f846e	0.23390362
181	0x3e544f3a	0.20733348
182	0x3e5e663d	0.21718688
183	0x3e11c9bd	0.14237113
184	0x3d492b6a	0.04911367
185	0x3f4e3965	0.8055633
186	0xbe08a715	-0.13344987
187	0x3d672bb0	0.056438148
188	0xbfd373d2	-1.651972
189	0x3f9f9f2d	1.2470452
190	0xbf716a52	-0.94302857
191	0xbf1dd77e	-0.6165694
192	0x3dffb4c6	0.12485652
193	0xbdc0ed84	-0.094203025
194	0xbe122c9c	-0.1427483
195	0x3d06019a	0.03271637
196	0xbe1263ba	-0.14295855
197	0xbe21b200	-0.15790558
198	0x3e0174cf	0.12642215
199	0xbd26e159	-0.040742252
200	0x3e62f1c5	0.2216254
201	0x3e61638e	0.22010633
202	0x3f556690	0.8335962
203	0x3daaf295	0.0834705
204	0x3df83258	0.12118977
205	0xbfea23d5	-1.8292185
206	0x3fe1e402	1.7647707
207	0xbf5a4be2	-0.8527204
208	0xbef7f997	-0.4843261
209	0x3e66ea24	0.22550255
210	0xbd80ba49	-0.06285531
211	0xbdd1f7e9	-0.10252363
212	0xbd7092a5	-0.0587336
213	0xbdeff95d	-0.11717484
214	0x3d28ebbd	0.041240443
215	0x3e3962a3	0.18104033
216	0x3e42358b	0.18965738
217	0x3de40db8	0.11135429
218	0xbd3d0839	-0.04615042
219	0x3eeaafe0	0.45837307
220	0xbd5a445b	-0.053287845
221	0xbdaca47b	-0.0842981
222	0x3ee44587	0.44584295
223	0xc0845250	-4.135048
224	0x3f5ca0a2	0.86182606
225	0x3ef769ea	0.48322994
226	0xbe1d2570	-0.15346313
227	0xbe4e7aaf	-0.20163988
228	0x3e5865db	0.21132605
229	0xbe6b2dbb	-0.22966664
230	0x3e3b5a14	0.18296081
231	0xbc059567	-0.008153296
232	0xbce71187	-0.0282066
233	0x3e1b5776	0.15170082
234	0xbcb7a3d5	-0.022416988
235	0x3e28269a	0.16420975
236	0xbeba1587	-0.3634455
237	0xbe57a027	-0.21057187
238	0x3e6c1024	0.23053032
239	0xbfcbfab7	-1.5935887
240	0x3fdf6856	1.7453716
241	0xbf8681fe	-1.050842
242	0xbf227b2a	-0.63469183
243	0xbdeef3be	-0.11667584
244	0xbcfe3338	-0.031030282
245	0x3e6bf7ec	0.23043793
246	0x3e26dbb1	0.16294743
247	0xbc154930	-0.009111688
248	0xbe699642	-0.22811225
249	0x3c2e2898	0.0106297955
250	0xbe291fcb	-0.16516034
251	0x3e49f61d	0.19722791
252	0x3d19783d	0.037468184
253	0xbf3039c5	-0.6883815
254	0xbd5c7bcd	-0.053829003
255	0xbdb2890f	-0.08717548

dev_attr_layers.bias f4 [16]
0	0x3e7e9a52	0.24863556
1	0x3e4d8de4	0.20073658
2	0x3c3eaa31	0.0116372565
3	0xbe8a176b	-0.26970991
4	0xbe3a3996	-0.1818603
5	0xbda042b1	-0.078252204
6	0xbe6f9de9	-0.23400082
7	0xbcde8dc5	-0.02716721
8	0xbe4d904a	-0.20074573
9	0xbe8ec754	-0.2788645
10	0xbe96a69c	-0.29423988
11	0xbe9bb7b4	-0.30413592
12	0xbdab1685	-0.08353905
13	0x3d5925f5	0.053014714
14	0x3eadd7e4	0.33953774
15	0xbe4f658f	-0.20253585

pin_attr_layers.weight f4 [17, 16]
0	0xbf5869dc	-0.8453653
1	0xbf96c264	-1.1778073
2	0x3e3b3714	0.1828273
3	0xbf4c6da6	-0.7985481
4	0xbfd7ee4f	-1.6869601
5	0xbe4db21f	-0.20087479
6	0xbf24d19b	-0.6438233
7	0x40157520	2.3352737
8	0xbf00ff74	-0.5038979
9	0xbf9d3d41	-1.2284318
10	0x3f381bc8	0.7191739
11	0xbd4e5bc3	-0.05038048
12	0xbedd9c7b	-0.43283448
13	0xbe9f0320	-0.31057072
14	0xbfbb8aa6	-1.4651687
15	0xbf6ff5ef	-0.9373464
16	0x3e2fd585	0.17171295
17	0x3dbf5ff7	0.09344476
18	0x3f4ae7fe	0.7926024
19	0xbdd375a4	-0.103251725
20	0xbf3cb1e3	-0.73708934
21	0x3ea4a188	0.3215449
22	0x3f790948	0.9727979
23	0xbfabf64a	-1.3434536
24	0x3f24a649	0.6431623
25	0xbf91df70	-1.1396313
26	0x3d02e674	0.03195806
27	0x3f16a46d	0.58844644
28	0x3f02387b	0.5086743
29	0x3d58a9f7	0.052896466
30	0x3fe20199	1.7656738
31	0x3f3d2883	0.7388994
32	0xbfd03e77	-1.6269063
33	0x401456a5	2.3177884
34	0xbf71988b	-0.9437339
35	0x3f4075f6	0.75179994
36	0xbea5ea4a	-0.3240531
37	0xc00e9a6b	-2.228175
38	0x3f702744	0.93809915
39	0x3e9721b7	0.2951791
40	0xbf55c2a8	-0.83500147
41	0x3fd7c904	1.685822
42	0x3f9e05f6	1.2345569
43	0xbe09d9c5	-0.13461979
44	0x3ef27a7f	0.47359082
45	0x3ebad13f	0.36487767
46	0x3f39b906	0.7254795
47	0x3f837f36	1.0273197
48	0xbed3dbc9	-0.4137862
49	0x3f04b671	0.51840883
50	0xbf3397ea	-0.7015368
51	0xbedd5bc9	-0.4323409
52	0x3e10df5c	0.14147705
53	0x3d919ec7	0.071103625
54	0x3f1037e8	0.56335306
55	0xbf142179	-0.57863575
56	0xbf8aba57	-1.0838116
57	0xbec7214f	-0.388926
58	0x3f50073f	0.81261057
59	0x3fbfc25b	1.4981188
60	0x3d33cc62	0.043896087
61	0x3fb8df96	1.4443233
62	0x3e6d98fd	0.23202892
63	0x3f01a9e0	0.50649834
64	0xbfa3ac55	-1.2786967
65	0xbd1d661f	-0.03842747
66	0x3ff4f76e	1.913801
67	0x3eacf9f8	0.3378446
68	0x3e000eb6	0.12505612
69	0xbf431c5c	-0.7621515
70	0xbf986445	-1.19056
71	0x3f468e34	0.77560735
72	0x3ee9541f	0.45571992
73	0x3e802b4c	0.25033033
74	0xbfae386e	-1.3610971
75	0x3fe6a280	1.8018341
76	0xbd984097	-0.074341945
77	0xbe2066a5	-0.15664156
78	0xbf5eefbb	-0.8708455
79	0xbf241ef3	-0.64109725
80	0xbed44195	-0.41456285
81	0xbf30b371	-0.69023806
82	0xbe6b79a3	-0.2299562
83	0xc00b06b3	-2.172284
84	0x3db39345	0.08768324
85	0x3f8c0122	1.0937846
86	0xbdf1177d	-0.11772058
87	0xbe98e7c4	-0.29864323
88	0xbf74207b	-0.9536206
89	0xbdbd625e	-0.09247278
90	0xbf8221bd	-1.0166546
91	0xbbfb845a	-0.0076756896
92	0xbf04aa1f	-0.51822084
93	0x3f56ec43	0.83954257
94	0x3d6fb577	0.058522668
95	0xbfd58927	-1.668248
96	0x40084bc6	2.1296248
97	0xbfc252a5	-1.5181471
98	0x3e0e0eca	0.13872829
99	0xbf970246	-1.1797569
100	0xbf079d1e	-0.52974117
101	0x3f76676f	0.9625158
102	0x3e8f1289	0.2794383
103	0xbf1262bd	-0.5718191
104	0xc032cad1	-2.793629
105	0xbf360e39	-0.7111545
106	0x3f060589	0.52352196
107	0xbfdaf34e	-1.7105501
108	0x3f56a6fa	0.83848536
109	0xbe8a292c	-0.26984537
110	0x3dfc07b6	0.12306158
111	0x3f60313a	0.87575114
112	0x3e1af63f	0.15132998
113	0x3f3d48e3	0.7393934
114	0x3e8bd42d	0.27310315
115	0x402ecc7d	2.731231
116	0x3edd2fca	0.43200523
117	0xbe9e4d20	-0.30918217
118	0xbdc5cc63	-0.09658124
119	0x3fc55dcd	1.5419251
120	0xbddeb595	-0.10874478
121	0xbed67aa1	-0.41890433
122	0x3fb81ec1	1.4384385
123	0xbf34f3a4	-0.70684266
124	0xbfa03ff2	-1.2519515
125	0x40419a65	3.0250485
126	0x3fac5237	1.346259
127	0x3f5b090f	0.855607
128	0x3ea4e10a	0.3220294
129	0x3ee46189	0.44605663
130	0x3fc2f054	1.5229592
131	0x3fa3e718	1.2804899
132	0xbdede585	-0.11616043
133	0x3faf6dbc	1.3705363
134	0xbef63d86	-0.48093814
135	0xbf7d8861	-0.9903622
136	0xbfae9d7e	-1.3641813
137	0x3c067100	0.008205652
138	0xbecfcce8	-0.4058602
139	0xbf3609bb	-0.711086
140	0xbeb2fc11	-0.34957936
141	0x3ec26e70	0.37974882
142	0x3f7fd264	0.99930406
143	0x3fa33946	1.2751853
144	0x3f75a151	0.95949274
145	0x3dd3fd0d	0.10351
146	0x3f543ba3	0.829035
147	0x4005e573	2.0921295
148	0x3f4b9968	0.79530954
149	0x3e8efe6a	0.27928478
150	0x3e3eec2f	0.18644784
151	0x3eb59cfb	0.3547133
152	0x3db9a0ae	0.0906385
153	0x3fdf0239	1.7422553
154	0xbfa20c54	-1.2660012
155	0x3ec74016	0.3891608
156	0x3eaf8d52	0.34287506
157	0xbfbac29a	-1.4590638
158	0xbfbf3020	-1.4936562
159	0xbe62b2ce	-0.22138521
160	0x3e66a405	0.22523506
161	0xbd9e32d3	-0.07724538
162	0x3f7c567a	0.9856945
163	0x3fa3a087	1.2783364
164	0x3e9388a5	0.2881519
165	0x3f5e7a09	0.8690496
166	0xbf4f48e1	-0.8097058
167	0xbfb705ab	-1.4298605
168	0x3eeb0424	0.45901597
169	0x3f07eb37	0.53093284
170	0xbfae44fc	-1.3614802
171	0x3ffa665f	1.9562491
172	0x3fe25de0	1.7684898
173	0xbf7c5d4b	-0.98579854
174	0xbf9e5880	-1.2370758
175	0xc01351ec	-2.301875
176	0xba84365c	-0.0010087001
177	0xbf5973f6	-0.8494257
178	0xbfd466f6	-1.6593921
179	0x3e9cd21f	0.3062906
180	0x3f974d3c	1.1820445
181	0x3ea6ed01	0.32602695
182	0xbec76598	-0.38944697
183	0x4036ae2c	2.8543806
184	0x3f530997	0.8243651
185	0x3f4c6079	0.79834706
186	0x3ff1cb7b	1.8890222
187	0x3f17ed2e	0.5934628
188	0x3d8ea6fd	0.06965444
189	0xbfcd3d52	-1.6034338
190	0xbedc119b	-0.42982182
191	0x3f137f24	0.57615876
192	0x3eb0505e	0.34436315
193	0xc04680b6	-3.101606
194	0xbfbab76c	-1.4587226
195	0xbfb74611	-1.4318258
196	0xbf1b6cab	-0.6071269
197	0xbe84fc5d	-0.25973788
198	0xbf38119a	-0.7190186
199	0xbec58ba3	-0.38583097
200	0x3f05fa6e	0.5233525
201	0xbf5238a5	-0.8211768
202	0xbef115bb	-0.47086892
203	0x3f1a053b	0.6016423
204	0xbe90a551	-0.28251126
205	0x3f44eebf	0.769268
206	0xbf445310	-0.76689243
207	0xbf73118f	-0.9494867
208	0x3c8a965b	0.016917398
209	0x3da4687b	0.080277406
210	0x3f3eadeb	0.7448413
211	0x3fac38da	1.345485
212	0x3e01dd99	0.12682189
213	0xc01ceebe	-2.4520717
214	0x3ed4fad3	0.41597614
215	0x3ff3864a	1.9025357
216	0xbf3c1355	-0.73467
217	0x3d36ea66	0.044657134
218	0xbfc2b40e	-1.5211198
219	0x3eb217c5	0.3478376
220	0x3f3d7c42	0.7401773
221	0x3fb54607	1.4161996
222	0x3f2ef32b	0.68339795
223	0xbe0d91e3	-0.13825183
224	0x3f6bda49	0.9212995
225	0x3f073b06	0.5282444
226	0xbc06d05b	-0.008228387
227	0xbfb983b6	-1.449332
228	0xbf1aed3c	-0.6051824
229	0xbe378c08	-0.17924511
230	0x3e4c591e	0.1995587
231	0xbf9f834f	-1.2461947
232	0xbed4465f	-0.4145994
233	0x3fba59f3	1.45587
234	0x3ea9ce7a	0.33165342
235	0xbf80034e	-1.0001009
236	0xbf3123cc	-0.69195247
237	0xbef1a8c6	-0.47199076
238	0xbfa50c2f	-1.2894343
239	0x3f89c394	1.0762811
240	0xbf888b07	-1.0667428
241	0xbffea2c8	-1.9893427
242	0x3e98396a	0.29731303
243	0x3ede7155	0.4344584
244	0x3b5e6278	0.0033933204
245	0xbf8312e9	-1.0240146
246	0x3e656cbd	0.22404762
247	0xbf41670a	-0.7554785
248	0x3faf0ce5	1.367581
249	0xbea3b46a	-0.31973583
250	0xbf69c06d	-0.91309243
251	0x3ff5a8a7	1.9192094
252	0xbfd363ed	-1.651487
253	0x40097455	2.1477253
254	0xbf2910db	-0.66041344
255	0x3de8803c	0.11352584

node_encoder.weight f4 [4, 16]
0	0x3f3350e6	0.70045316
1	0xbe8547c6	-0.2603132
2	0x3fc60c3a	1.5472481
3	0x3f5e9958	0.86952734
4	0xbe274d96	-0.1633819
5	0x3f6bf150	0.9216509
6	0x3dad0202	0.084476486
7	0x3e24c318	0.16090047
8	0xbf2200c7	-0.63282436
9	0xbfdf1109	-1.7427074
10	0xbef405b4	-0.476606
11	0xbed16940	-0.40900612
12	0x3e24f640	0.16109562
13	0x3f55ad8e	0.8346795
14	0x3dd3026c	0.10303196
15	0x3f86236f	1.0479563
16	0xbf2eea52	-0.68326294
17	0xbfe6da77	-1.803542
18	0xbfbc0993	-1.4690422
19	0xbf1096d7	-0.56480163
20	0x3edf4722	0.43608958
21	0xbe6dda02	-0.23227695
22	0xbe0c9ea6	-0.13732395
23	0xbff37eff	-1.9023131
24	0xbe14cf06	-0.14532098
25	0xbe387f04	-0.18017203
26	0x3f5cd632	0.86264336
27	0x3f421dfb	0.75826997
28	0xbf7b562b	-0.98178357
29	0xbe8b1fcf	-0.27172706
30	0xbf345951	-0.70448786
31	0x3f301a6a	0.68790305
32	0x3f44bac1	0.76847464
33	0xbf5905a6	-0.84774244
34	0xbf194941	-0.598774
35	0xbec8ef8e	-0.39245266
36	0xbf6fc75d	-0.9366358
37	0xbfb0c2f9	-1.3809501
38	0x3ef04a81	0.46931842
39	0xbcdd541a	-0.027017642
40	0x3edd9fb9	0.4328592
41	0xbeacc668	-0.33745122
42	0xbc78f6ef	-0.015195592
43	0x3d256bf7	0.040386166
44	0x3ee03eb7	0.43797848
45	0xbd5d7c03	-0.054073345
46	0xbf512bc7	-0.81707424
47	0xbf0e22c9	-0.5552183
48	0xbf360b38	-0.7111087
49	0xbec5f92e	-0.38666672
50	0x3f753471	0.95783144
51	0xbf529162	-0.82253087
52	0xc01902f3	-2.390805
53	0x3ea4fda7	0.3222477
54	0x3ff00cbd	1.8753887
55	0x3f8d59ab	1.104299
56	0xbf05ba6d	-0.5223759
57	0xbf3d7c76	-0.7401804
58	0x3e2640cd	0.16235657
59	0xbe72af80	-0.2369976
60	0x3f028b15	0.5099347
61	0x3fd5d709	1.6706249
62	0x3fcbca19	1.592105
63	0xbed51722	-0.4161921

gnn_layers.0.lin_l.weight f4 [32, 32]
0	0xbc2f7484	-0.010708932
1	0x3d10ff17	0.035399523
2	0x3d900e19	0.07033939
3	0xbe0378cb	-0.12839048
4	0xbd732005	-0.059356708
5	0x3e0844a1	0.1330743
6	0xbe6fce73	-0.23418598
7	0x3db875f7	0.09006875
8	0x3e1bf6e9	0.15230907
9	0x3e424ff9	0.1897582
10	0x3d1af0ef	0.03782743
11	0xbe3db2e7	-0.18525277
12	0x3d4e6b9c	0.050395593
13	0xbd98cd2f	-0.07461011
14	0x3cc623a8	0.024186924
15	0x3deb85b1	0.11500109
16	0xbce288f4	-0.027653195
17	0xbe37f6f6	-0.17965302
18	0xbe085a2a	-0.13315645
19	0x3e10e991	0.14151599
20	0x3b903207	0.004400495
21	0x3e5338b4	0.206271
22	0xbc1918d7	-0.009344301
23	0xbdb9761d	-0.090557314
24	0x3d8128d6	0.06306617
25	0x3e839d52	0.25705963
26	0x3da84fe9	0.08218367
27	0x3d2f093e	0.042733423
28	0xbddd6070	-0.108094096
29	0xbdf205d6	-0.11817519
30	0x3decbe74	0.115597636
31	0xbdfd4761	-0.1236713
32	0xbd422377	-0.047397103
33	0x3dcdf0f8	0.10055727
34	0x3d9b4178	0.075808465
35	0x3cdda802	0.027057651
36	0xbd9def99	-0.07711715
37	0xbd60c385	-0.054873962
38	0x3d92ac91	0.07161821
39	0x3e45f8b5	0.19333155
40	0x3e28af77	0.16473185
41	0x3d125487	0.035725143
42	0x3c776e71	0.015102015
43	0xbdf72b54	-0.12068811
44	0xbcc93372	-0.024560664
45	0xbd8dc7df	-0.06922888
46	0x3cc49d46	0.024000775
47	0xbe3933ff	-0.18086241
48	0x3e335c4c	0.17515677
49	0xbe36fe48	-0.17870438
50	0x3ecef8f5	0.40424314
51	0xbe0137b5	-0.12618907
52	0xbe16737e	-0.14692494
53	0x3ec6a93d	0.38800994
54	0x3df01ece	0.117246255
55	0xbde969a9	-0.11397106
56	0x3f131910	0.5746012
57	0xbe78d542	-0.24300101
58	0xbddb71b3	-0.10715046
59	0x3efd9886	0.4953043
60	0x3ed0958c	0.40739095
61	0x3ddf25df	0.10895895
62	0x3e807c6d	0.2509493
63	0x3e342a81	0.17594339
64	0x3e9a5d44	0.3014928
65	0x3e0e0e5a	0.13872662
66	0x3eb40f51	0.35167935
67	0x3efe506d	0.49670735
68	0xbe0d6eb0	-0.13811755
69	0x3eeb04fc	0.4590224
70	0xbe242dff	-0.16033171
71	0x3ebccd0f	0.36875197
72	0xbd9bb903	-0.076036476
73	0xbd8c76df	-0.0685861
74	0xbe9165a5	-0.2839786
75	0xbf08c559	-0.5342613
76	0x3ea73f65	0.32665554
77	0x3e5cfbfb	0.21580498
78	0x3e5ead75	0.21745856
79	0x3d3535f2	0.0442409
80	0xbe2da6f6	-0.16958222
81	0x3d423952	0.047417946
82	0xbdbaf6de	-0.091291174
83	0x3e910ba3	0.2832919
84	0x3e9dd41a	0.30825883
85	0x3eef4b56	0.46737164
86	0x3e7618a6	0.2403284
87	0xbe2dccc3	-0.16972642
88	0x3d36a939	0.044594977
89	0x3e731c39	0.23741235
90	0xbc031258	-0.007999979
91	0xbd26e90e	-0.040749602
92	0xbe18cbf4	-0.14921552
93	0x3eb440e0	0.35205746
94	0xbdec2dbd	-0.115321614
95	0x3eb5c2b6	0.35500115
96	0xbdb23574	-0.087016016
97	0x3d777fd1	0.06042463
98	0x3e2867da	0.16445866
99	0x3cc251ee	0.023720708
100	0x3d4fae3e	0.05070328
101	0x3e8c3274	0.27382243
102	0x3cdd30df	0.027000843
103	0xbdb9b939	-0.090685315
104	0xbe137313	-0.14399366
105	0x3e04fb44	0.12986475
106	0xbba51d7a	-0.0050389143
107	0x3d5c7a9c	0.053827867
108	0xbd13fa82	-0.036127575
109	0x3ce83ee4	0.028350301
110	0xbdf09ae6	-0.117482945
111	0xbd5fdc7f	-0.05465364
112	0xbe0e642a	-0.13905397
113	0x3ee0a2fe	0.43874353
114	0xbf5f4b93	-0.8722469
115	0x3f8ce75d	1.1008106
116	0x3e8febcd	0.2810959
117	0xbeb74de4	-0.35801613
118	0x3e671016	0.2256473
119	0xbe7fa18e	-0.24963972
120	0xbf0b99b6	-0.5453142
121	0x3f51ecbd	0.8200186
122	0x3d998b18	0.07497233
123	0xbf112279	-0.56693226
124	0xbf0e243c	-0.5552404
125	0x3f73fc43	0.95306796
126	0xbea134ed	-0.31485692
127	0x3e67e529	0.22646011
128	0xbcb110ec	-0.021614514
129	0x3d0606c3	0.032721292
130	0x3da2cda8	0.07949382
131	0x3b3bb795	0.002864336
132	0x3dfceb3d	0.12349556
133	0xbd3eae71	-0.04655308
134	0xbd90fac6	-0.07079081
135	0x3c4135b5	0.01179259
136	0x3c77e345	0.015129869
137	0x3e2c6e52	0.16838959
138	0x3eb0af5f	0.34508798
139	0x3dbe0929	0.09279091
140	0x3e056fb1	0.13030888
141	0xbd957fd5	-0.07299773
142	0x3c18ef9f	0.009334474
143	0xbda2674d	-0.07929859
144	0x3ed149d8	0.4087665
145	0xbe77c548	-0.2419635
146	0x3f288992	0.65834916
147	0xbe5ce6e9	-0.2157246
148	0xbdc1fa40	-0.094715595
149	0x3e69ec81	0.22844125
150	0xbd54a088	-0.051910907
151	0xbf32d11b	-0.6985032
152	0x3f521bc7	0.82073635
153	0xbea3de85	-0.32005706
154	0xbe030fed	-0.12799044
155	0x3e9342c5	0.2876188
156	0x3e837471	0.25674775
157	0xbe22e416	-0.1590732
158	0x3ea5109c	0.32239234
159	0x3e481e33	0.1954277
160	0xbf0338d4	-0.5125859
161	0x3dea3118	0.11435145
162	0xbecaecbb	-0.39633736
163	0xbda7e2da	-0.081975654
164	0x3eb4bbe6	0.35299605
165	0x3c818b4c	0.015813492
166	0x3d410452	0.04712326
167	0xbe39403e	-0.18090913
168	0xbd081da0	-0.033231378
169	0x3e2aa154	0.16663104
170	0x3d78863c	0.06067489
171	0x3e79f249	0.2440883
172	0xbe84b6a4	-0.25920594
173	0x3d750a82	0.059824474
174	0xbe07e0a2	-0.13269284
175	0xbd718436	-0.058963977
176	0xbd03ba3c	-0.03216003
177	0xbe0a8620	-0.13527727
178	0x3c4c5a62	0.012472721
179	0x3e30af92	0.17254475
180	0x3e6add53	0.22935991
181	0xbed9d4d9	-0.42545202
182	0xbe57cc27	-0.21073972
183	0x3d321e58	0.04348597
184	0xbde8a331	-0.11359251
185	0x3dcb0b3f	0.099142544
186	0x3dd5b710	0.10435307
187	0xbf272287	-0.6528706
188	0xbdf1c730	-0.1180557
189	0xbea698e5	-0.32538524
190	0xb93351e1	-0.00017101273
191	0x3d5072ab	0.050890606
192	0x3e549a65	0.20762022
193	0x3d973c42	0.0738454
194	0x3da9303f	0.08261155
195	0xbd1b9f72	-0.037993856
196	0xbdc47897	-0.09593313
197	0xbde72ec0	-0.11288214
198	0xbdd22e03	-0.10262682
199	0x3ed2b59f	0.4115419
200	0xbcec0f1b	-0.028815797
201	0x3dae4659	0.085095115
202	0xbf0caf23	-0.5495474
203	0x3ddf2aba	0.10896821
204	0x3e8e3731	0.27776483
205	0xbdbbf047	-0.09176689
206	0x3e04cf57	0.12969719
207	0xbdf366c9	-0.11884839
208	0xbda1bb76	-0.078970835
209	0x3e4fe97e	0.20303914
210	0x3ebeef12	0.3729177
211	0x3eb642bd	0.35597792
212	0xbe3b23ce	-0.18275377
213	0x3e5a048a	0.21290794
214	0x3ebb57b4	0.3659035
215	0xbe5b007e	-0.21386907
216	0x3efd2169	0.49439552
217	0xbe000897	-0.12503277
218	0x3dcc2511	0.09968007
219	0x3ebec52d	0.37259808
220	0x3e905b16	0.28194493
221	0x3e032338	0.12806404
222	0x3ef6987d	0.48163214
223	0x3eecc34f	0.4624276
224	0x3c91b51c	0.017786555
225	0x3e8c1b8a	0.2736476
226	0xbd069f8b	-0.032866996
227	0x3d04d101	0.032425884
228	0x3c4f8736	0.012666514
229	0x3e252d1e	0.16130492
230	0xbd66e9f7	-0.05637547
231	0x3c9531bd	0.018212194
232	0x3bdb41c7	0.006691191
233	0x3cc3ade9	0.023886638
234	0xbe45d3b9	-0.19319047
235	0x3d74399d	0.059625257
236	0xbe1dcd38	-0.15410316
237	0xbd08d744	-0.03340842
238	0x3d875fc2	0.06610061
239	0xbd50f7ee	-0.051017694
240	0x3d8e8699	0.06959266
241	0x3db2d4dc	0.08732006
242	0xbe178f0e	-0.14800665
243	0x3e51f42c	0.205033
244	0x3e3ce8ce	0.18448183
245	0x3e0ed224	0.1394735
246	0xbe82fe49	-0.2558463
247	0x3dc41fa9	0.09576351
248	0xbe7c6d55	-0.24651082
249	0xbc31f42b	-0.010861437
250	0xbdf60e7f	-0.12014484
251	0xbde2b924	-0.11070469
252	0x3cf5f492	0.030023847
253	0xbda98281	-0.08276845
254	0xbe21af83	-0.15789609
255	0xbe857bd3	-0.26071033

gnn_layers.0.lin_l.bias f4 [32]
0	0x3c3d6c06	0.011561399
1	0xbe8e8e98	-0.27843165
2	0xbb9c06ed	-0.004761568
3	0xbd99dba2	-0.07512595
4	0x3c3f2ba9	0.011668124
5	0x3df5a17f	0.119936936
6	0xbe21b2d0	-0.15790868
7	0xbdbf47ab	-0.093398415
8	0xbe27251a	-0.16322747
9	0x3d310382	0.043216236
10	0x3dc40c49	0.09572656
11	0x3d7dd7ea	0.06197349
12	0xbda8c68c	-0.08240995
13	0xbd023803	-0.0317917
14	0xbe5fa3cf	-0.21839832
15	0x3c2207c8	0.0098895505
16	0x3e1be300	0.15223312
17	0xbe23c514	-0.15993148
18	0xbe104ded	-0.14092226
19	0xbdc0e878	-0.0941934
20	0xbd9bef24	-0.07613972
21	0xbd12d380	-0.035846233
22	0x3e2c6a03	0.16837315
23	0xbd865ad9	-0.065602966
24	0x3d14058e	0.03613811
25	0x3d727314	0.05919178
26	0xbe383dc9	-0.17992319
27	0x3dab0bbc	0.083518475
28	0x3dc97e07	0.09838491
29	0xbcda9a77	-0.026684983
30	0xbdf34bb2	-0.11879672
31	0x3e8750d3	0.2642885

gnn_layers.0.lin_r.weight f4 [32, 32]
0	0xbe2ccc9c	-0.16874927
1	0x3ded0790	0.11573708
2	0x3d3a2dac	0.045453712
3	0x3e0d9c7f	0.1382923
4	0xbdb611c9	-0.08890111
5	0x3d4869ac	0.0489289
6	0xbe224b42	-0.15849021
7	0x3e09f66f	0.13472913
8	0x3d33c236	0.043886386
9	0xbd770ce8	-0.060315043
10	0x3c4c1a43	0.012457433
11	0x3cfe2b9c	0.031026654
12	0x3d30d10b	0.04316811
13	0x3e2da7b6	0.16958508
14	0x3e03a323	0.128552
15	0x3d40827c	0.04699944
16	0x3e0227cd	0.12710495
17	0xbe11c013	-0.14233427
18	0x3d98f872	0.07469262
19	0x3cc9b21d	0.024621064
20	0x3e1c2993	0.15250234
21	0x3da7d045	0.08194021
22	0x3c5dec1a	0.0135450605
23	0x3dc05b68	0.09392434
24	0xbd45e57e	-0.048314564
25	0x3dc90cd9	0.098169036
26	0x3ccc1e41	0.02491677
27	0xbce678ff	-0.028133867
28	0x3df0dedb	0.11761256
29	0xbe02a1da	-0.12757054
30	0xbce09cb1	-0.027418466
31	0x3de942b8	0.11389679
32	0xbdca31f7	-0.09872811
33	0xbdcc45e0	-0.09974265
34	0xbc2b777b	-0.010465498
35	0xb939cf89	-0.00017720288
36	0x3ea687aa	0.32525378
37	0xbdda4bf9	-0.10659022
38	0xbe472bfc	-0.19450372
39	0xbe037b4f	-0.12840007
40	0xbe22c6ad	-0.15896101
41	0x3e187bac	0.14890927
42	0xbd68b648	-0.056814462
43	0x3e11ed65	0.14250715
44	0xbe47f8d5	-0.19528516
45	0xbcb7b463	-0.022424882
46	0xbcbec124	-0.023285456
47	0x3cff4a8f	0.031163482
48	0x3ed41c75	0.4142796
49	0xbd9ca4e4	-0.07648638
50	0x3f52bfd7	0.82323974
51	0xbe63cfad	-0.22247191
52	0xbe1193b5	-0.14216502
53	0x3f29ff14	0.66404843
54	0xbf1fe2c4	-0.6245539
55	0x3e786290	0.24256349
56	0x3ec84d82	0.39121634
57	0xbeb4ad46	-0.35288447
58	0xbf19c746	-0.6006969
59	0x3ded6155	0.1159083
60	0x3e89d450	0.26919794
61	0xbee201a1	-0.44141868
62	0x3d9a5943	0.075365566
63	0xbe5d1dbc	-0.21593374
64	0xbe0ced3b	-0.13762371
65	0x3e2d937e	0.16950795
66	0x3cba29db	0.022725036
67	0x3e197764	0.1498695
68	0x3dfe73ef	0.12424456
69	0x3e376832	0.17910841
70	0xbd1051ad	-0.035234142
71	0x3ccd1879	0.025036084
72	0x3e0cbe96	0.13744578
73	0x3e0789f8	0.13236225
74	0x3ccfbeea	0.02535959
75	0xbc9d7c8a	-0.019224424
76	0xbd8e1158	-0.06936902
77	0xbe584ca0	-0.2112298
78	0x3de04c12	0.10952009
79	0xbd0f4369	-0.034976397
80	0xbe55125c	-0.20807785
81	0xbdd59d05	-0.1043034
82	0xbea52388	-0.3225367
83	0xbd5c2ad2	-0.053751774
84	0x3d6b3d87	0.057431724
85	0x3b7d98e6	0.003869587
86	0xbe7f753e	-0.24947068
87	0x3e4ccffb	0.20001213
88	0xbef34a04	-0.47517407
89	0x3dc86205	0.09784321
90	0x3da0206b	0.07818683
91	0xbf068858	-0.52551794
92	0xbe15b5b8	-0.14620101
93	0xbe47accc	-0.1949951
94	0xbdbe700c	-0.09298715
95	0xbde731ee	-0.1128882
96	0x3d1a5c7d	0.03768586
97	0xbc33860b	-0.010957251
98	0x3cb39b69	0.021924691
99	0x3d408b6d	0.047007967
100	0xbe20bb0b	-0.15696351
101	0xbdb2df19	-0.08733959
102	0x3e2d0318	0.16895711
103	0x3e3969e4	0.181068
104	0xbd54a06a	-0.051910795
105	0xbcb6a0d7	-0.022293491
106	0xbcf0a205	-0.029374132
107	0xbd9f342c	-0.07773623
108	0xbd930ed2	-0.07180561
109	0xbe516f82	-0.20452693
110	0x3d1f9619	0.038961504
111	0x3cdeaddb	0.02718251
112	0x3eba7327	0.3641598
113	0x3e4b3363	0.19843821
114	0xbe3ebf8a	-0.18627754
115	0xbcad7539	-0.02117406
116	0x3e4dcc0c	0.20097369
117	0xbd2d3822	-0.04228986
118	0x3d958734	0.073011786
119	0xbde1322d	-0.109958984
120	0xbccd58ce	-0.02506676
121	0xbe645ea1	-0.22301723
122	0xbdb7c18e	-0.089724645
123	0xbe1372eb	-0.14399306
124	0xbe4614eb	-0.19343917
125	0xbdabef3c	-0.0839524
126	0xbdd836cc	-0.10557327
127	0xbdff315f	-0.12460589
128	0xbb71c174	-0.0036888989
129	0x3e5ef659	0.21773662
130	0xbb8c99fd	-0.004290818
131	0x3e261d50	0.1622212
132	0xbd44af39	-0.048018668
133	0x3e313c47	0.1730815
134	0x3e243902	0.16037372
135	0x3e28d513	0.16487531
136	0xbe0c17af	-0.1368091
137	0x3dbb3db9	0.09142632
138	0x3c3b333e	0.011425791
139	0xbe9d7dac	-0.30759943
140	0x3e5cbf70	0.21557403
141	0xbce9dbef	-0.028547255
142	0x3ec8b12c	0.3919767
143	0x3e0f00ce	0.1396515
144	0x3e929fcd	0.28637543
145	0x3e14ee5c	0.14544052
146	0x3e06f13f	0.13177966
147	0x3eac20a0	0.3361864
148	0x3e9a42b9	0.3012903
149	0x3e14b300	0.14521408
150	0xbd9ccff1	-0.07656849
151	0xbba5ba66	-0.005057621
152	0x3e2dc551	0.16969801
153	0x3dcc8ca9	0.09987766
154	0xbebec2e4	-0.37258065
155	0xbf14eb7d	-0.58171827
156	0x3d96e108	0.0736714
157	0x3ebe692e	0.3718962
158	0x3de3a160	0.11114764
159	0x3e93901c	0.28820884
160	0xbe03c0cd	-0.12866516
161	0x3d28d098	0.041214556
162	0xbddcf17a	-0.107882455
163	0xbe0f58f4	-0.13998777
164	0xbd104ea4	-0.035231248
165	0x3e1fc3a7	0.15601979
166	0x3e2aa33a	0.16663828
167	0x3e8675f2	0.2626186
168	0x3e1ed1b1	0.15509678
169	0xbd9487e7	-0.07252484
170	0xbeb34d1b	-0.35019764
171	0x3d9b7bf1	0.07591999
172	0xbdfb0a87	-0.12257867
173	0xbdf05f85	-0.11736969
174	0x3db90cf1	0.090356715
175	0xbd035e86	-0.032072566
176	0x3ee59f10	0.44847918
177	0xbe426dd1	-0.18987204
178	0x3ed4db15	0.41573396
179	0x3c7eba73	0.015547383
180	0x3d743877	0.05962416
181	0x3e8ec46d	0.27884236
182	0x3e9ddeb2	0.30833966
183	0xbf0b3df2	-0.54391396
184	0x3f016704	0.50547814
185	0xbe4c3765	-0.19943006
186	0xbf2770b3	-0.6540634
187	0x3ea1413b	0.3149508
188	0x3e27ea31	0.1639793
189	0x3d3940e6	0.045227908
190	0x3eca0d14	0.39463103
191	0x3d2ff7a5	0.04296078
192	0xbd648cb9	-0.055798266
193	0xbd63950d	-0.055562068
194	0xbdf84836	-0.12123148
195	0x3dfb1e6a	0.122616604
196	0x3e349de0	0.1763835
197	0xbd5c339e	-0.053760163
198	0x3d89eb75	0.06734363
199	0xbdfc850a	-0.12330063
200	0x3d07fa7c	0.033197865
201	0xbd8c5489	-0.06852061
202	0x3e58d9b6	0.211768
203	0x3d2c049b	0.04199658
204	0xbdbfe4a1	-0.093697794
205	0x3dcbe342	0.09955455
206	0x3d1c7763	0.038199794
207	0x3c0e9d29	0.008704462
208	0x3f824e64	1.0180173
209	0xbe6fc556	-0.23415121
210	0x3f53c3f2	0.82720864
211	0xbf11f6b8	-0.5701709
212	0xbe6dafac	-0.23211545
213	0x3f14d1f2	0.5813285
214	0xbf378b85	-0.71697265
215	0x3ed99f5a	0.42504388
216	0x3f10d2c9	0.5657163
217	0xbe99268b	-0.29912218
218	0xbf91dfa8	-1.139638
219	0xbd5d1aba	-0.053980567
220	0x3e0e3193	0.13886099
221	0xbcb61ad5	-0.022229591
222	0x3ed32310	0.41237688
223	0xbedcdc25	-0.43136707
224	0xbe109e44	-0.14122874
225	0xbc3f9242	-0.011692585
226	0xbc02ec2c	-0.007990878
227	0xbd00f9ea	-0.031488337
228	0x3e935d5f	0.28782174
229	0x3c1181b9	0.008881026
230	0xbda32a22	-0.079670206
231	0x3e8f669e	0.28007978
232	0x3de9d7dc	0.11418125
233	0xbda048e2	-0.07826401
234	0xbde01208	-0.10940939
235	0xbe4f15d0	-0.20223165
236	0x3de1b51e	0.110208735
237	0xbd86473d	-0.065565564
238	0x3e378159	0.17920436
239	0x3ddf0a60	0.10890651
240	0x3e624037	0.22094809
241	0xbc05ca7e	-0.008165954
242	0xbe515b7b	-0.20445053
243	0x3dec5c6e	0.11541067
244	0x3ea62392	0.32449013
245	0x3dd857f8	0.10563654
246	0xbdbeaa1c	-0.093097895
247	0xbe8d35ee	-0.27580208
248	0xbd33c45f	-0.043888446
249	0xbc3f74ba	-0.011685545
250	0xbeb0efc9	-0.34557942
251	0xbe146b0d	-0.14493962
252	0x3d09a78a	0.033607043
253	0x3e3764d3	0.17909555
254	0x3cb2095a	0.021732975
255	0xbd4bfa4c	-0.04979925

gnn_layers.1.lin_l.weight f4 [32, 32]
0	0x3e5e3ba6	0.21702442
1	0x3e10365e	0.1408324
2	0xbeca36fa	-0.3949507
3	0xbe31077e	-0.17288014
4	0x3e52c4a2	0.20582822
5	0x3e34f78e	0.1767256
6	0xbe13edd0	-0.14446187
7	0xbdc1601e	-0.09442161
8	0x3d082316	0.033236586
9	0x3e3f8235	0.18702014
10	0x3ea35b8e	0.31905788
11	0xbeb0f128	-0.34558988
12	0xbf67420d	-0.9033516
13	0x3da97815	0.08274857
14	0xbe8f37a7	-0.27972147
15	0x3edc1dbc	0.42991436
16	0xbe525b7d	-0.20542713
17	0x3dec810d	0.11548052
18	0xbeb51cad	-0.3537344
19	0xbdd92e39	-0.106045194
20	0xbde632b9	-0.11240143
21	0x3d90d821	0.07072473
22	0x3e0f740d	0.14009114
23	0x3da3e3f5	0.08002464
24	0x3ea845bd	0.32865706
25	0x3f3cbef4	0.7372887
26	0xbe1e9d8a	-0.15489784
27	0x3eea9a34	0.45820773
28	0xbe21a868	-0.15786898
29	0x3c298c86	0.010348445
30	0xbe10cb3f	-0.14140032
31	0xbf0fb95a	-0.561422
32	0xbc9f3222	-0.019433085
33	0x3e258dca	0.1616737
34	0x3dd3a646	0.103344485
35	0x3bc613b3	0.006044829
36	0xbcd24ea4	-0.025672264
37	0x3c927634	0.01787863
38	0x3da93d81	0.08263684
39	0xbd6d6963	-0.057961833
40	0x3e257b16	0.16160235
41	0x3d7ffeb0	0.06249875
42	0x3d90723d	0.07053039
43	0x3e844b1b	0.2583855
44	0xbc0d8018	-0.008636497
45	0x3ec15b77	0.37765095
46	0x3dbe260a	0.09284599
47	0x3db9395c	0.090441436
48	0xbeace3fa	-0.33767682
49	0xbe8a5ed3	-0.2702547
50	0xbe8bceff	-0.27306363
51	0x3e264f66	0.16241226
52	0x3b9f38cd	0.004859066
53	0xbe481bcc	-0.19541854
54	0xbe20c810	-0.15701318
55	0x3e9a4cfb	0.30136856
56	0x3e35d36e	0.17756435
57	0x3ec81577	0.39078876
58	0x3e2514f5	0.16121276
59	0xbe024aed	-0.12723894
60	0x3bed2195	0.0072366693
61	0x3bce7225	0.006300228
62	0xbd307a4f	-0.043085393
63	0x3efbc5c7	0.4917433
64	0xbcd6a2ef	-0.02620074
65	0x3e94d241	0.2906666
66	0x3ddb06fe	0.10694693
67	0xbe1595d9	-0.14607944
68	0xbe87359b	-0.26408085
69	0xbe02de0e	-0.1278002
70	0x3ccf90de	0.025337633
71	0xbdc38f85	-0.095488586
72	0x3df9062a	0.12159379
73	0x3d956267	0.072941594
74	0xbd4b85e4	-0.049688235
75	0x3e9e708a	0.30945235
76	0xbeaac717	-0.33355018
77	0x3d6a0f0d	0.05714326
78	0x3cfa1834	0.03052912
79	0xbe80f64d	-0.25187913
80	0xbda2d04c	-0.07949886
81	0x3ee49137	0.4464204
82	0xbbdeca27	-0.006799001
83	0x3e08a0ac	0.13342541
84	0x3e0205e4	0.1269756
85	0x3c739b23	0.01486853
86	0x3e31a671	0.17348649
87	0xbdddd361	-0.10831333
88	0xbeb11d35	-0.34592596
89	0x3f35482f	0.7081327
90	0x3df2cb2c	0.11855158
91	0x3eff8730	0.49907827
92	0x3e643669	0.22286381
93	0x3d0d6b18	0.03452596
94	0x3edb7efa	0.42870313
95	0x3ef4a9c2	0.47785765
96	0x3e13a019	0.14416541
97	0xbe0dfad3	-0.13865213
98	0xbe2b8cd7	-0.16752945
99	0xbe803c7c	-0.25046146
100	0xbe95a9a9	-0.29231003
101	0x3da06ca6	0.07833223
102	0xbe14dffd	-0.1453857
103	0xbbf2fd98	-0.0074154846
104	0x3e481b3a	0.19541636
105	0xbda5bbf5	-0.080924906
106	0x3d460787	0.048347022
107	0x3e3ba3cc	0.18324202
108	0xbe6deb9f	-0.23234414
109	0xbddb03ca	-0.10694082
110	0x3e639020	0.22222948
111	0xbd036e43	-0.032087576
112	0xbe59d038	-0.21270835
113	0x3e453fff	0.19262694
114	0x3d3dccf2	0.04633803
115	0xbea0d8aa	-0.31415302
116	0xbdd4d96c	-0.103930324
117	0xbca73b87	-0.020414127
118	0xbdcf6b86	-0.1012793
119	0x3e0fe283	0.14051251
120	0xbdfdd033	-0.123932265
121	0x3eb08da5	0.34483066
122	0xbd708088	-0.058716327
123	0xbd008771	-0.031379167
124	0x3cecfd39	0.02892934
125	0xbdba36bf	-0.09092473
126	0xbe1185c6	-0.14211187
127	0x3ee8748c	0.45401418
128	0x3e06b550	0.13155103
129	0xbe47cd1d	-0.19511838
130	0xbc01d86c	-0.007925134
131	0xbe57b265	-0.21064146
132	0x3ea583b6	0.3232705
133	0xbd440fb0	-0.047866523
134	0xbeb76073	-0.35815772
135	0x3d6228ef	0.05521482
136	0x3dafeeb5	0.08590452
137	0x3ccdf4ad	0.025141085
138	0xbe43d1de	-0.19123027
139	0xbe8e8810	-0.27838182
140	0x3ecaa211	0.39576772
141	0x3e3a90fd	0.18219371
142	0xbf353ec8	-0.7079892
143	0xbc87ef6b	-0.016593656
144	0xbc00b6ed	-0.007856113
145	0xbeec76bf	-0.46184346
146	0x3d42e611	0.04758269
147	0x3e0962b2	0.13416556
148	0x3db16298	0.086613834
149	0xbe154ed8	-0.14580858
150	0xbdcf4576	-0.101206705
151	0x3dc191ae	0.09451614
152	0x3e9bf99d	0.30463877
153	0xbf7b2452	-0.98102295
154	0xbe08307d	-0.13299747
155	0xbf0751e6	-0.5285934
156	0x3dcff573	0.101542376
157	0xbea609ae	-0.3242926
158	0xbed0731c	-0.4071282
159	0xbe5bd451	-0.21467711
160	0xbdcb010e	-0.099123105
161	0xbdcab0cf	-0.09897005
162	0x3d897556	0.06711833
163	0xbe0ce406	-0.13758859
164	0xbda301b5	-0.0795931
165	0x3d217cf5	0.03942581
166	0xbe3537ac	-0.17697018
167	0xbd57913d	-0.052628744
168	0x3cebf1e8	0.028801873
169	0xbde213b6	-0.11038916
170	0xbd90eaaf	-0.07076012
171	0x3da46729	0.08027489
172	0x3de21c4d	0.11040554
173	0x3e6757b8	0.22592056
174	0x3e78cd01	0.24296953
175	0x3dc93d6f	0.09826171
176	0xbe953ad3	-0.29146442
177	0xbe95f3f0	-0.29287672
178	0xbf20ca46	-0.62808645
179	0xbdd8f28f	-0.105931394
180	0x3dbdb38a	0.0926276
181	0xbe8f7d4b	-0.28025278
182	0xbeb3e4e3	-0.35135564
183	0x3e76fc13	0.24119596
184	0xbea22ce8	-0.31674886
185	0xbd8f2924	-0.06990269
186	0x3e051f5b	0.13000242
187	0xbf11da5b	-0.5697381
188	0xbbbbdb6d	-0.0057329447
189	0xbe598e2c	-0.2124564
190	0x3e00c16c	0.12573785
191	0x3e2f1831	0.17099072
192	0x3d37da7a	0.04488609
193	0x3d28882f	0.0411455
194	0x3d38040d	0.044925738
195	0xbef0e227	-0.4704754
196	0xbe3aa630	-0.18227458
197	0x3d2019e3	0.039087187
198	0x3de7eecd	0.113248445
199	0xbcce3f05	-0.025176534
200	0x3c869d8d	0.016432548
201	0xbed7caa8	-0.42146802
202	0x3e3cd666	0.18441162
203	0x3e112b34	0.14176637
204	0xbe5e07f6	-0.21682724
205	0xbe7c0cc2	-0.24614242
206	0x3e05f7b6	0.13082775
207	0x3c8d26a2	0.017230336
208	0xbeaf38f4	-0.3422314
209	0x3de819a7	0.11333018
210	0xbec50592	-0.38480812
211	0x3e05e2e2	0.1307483
212	0x3dc7108a	0.097199515
213	0x3e90bcea	0.2826913
214	0x3e4cf6d5	0.20016034
215	0xbdce04f9	-0.10059542
216	0xbdb498dd	-0.08818219
217	0x3d9169e9	0.07100279
218	0x3e4a8822	0.19778493
219	0x3ed4a1be	0.4152965
220	0x3e73d187	0.23810397
221	0x3e2cc403	0.16871648
222	0xbd91f526	-0.071268365
223	0x3f019b19	0.50627285
224	0x3e077d60	0.1323142
225	0xbe2ec955	-0.1706899
226	0x3d9d433a	0.07678838
227	0x3d8f2d09	0.06991012
228	0x3ede0d17	0.43369362
229	0xbd4eb604	-0.050466552
230	0xbd9ec8b3	-0.07753124
231	0xbe1f4e93	-0.15557317
232	0x3bb3a696	0.005482505
233	0xbd883bfc	-0.06652066
234	0xbe73f3e2	-0.23823503
235	0x3d2effbe	0.042724364
236	0x3e30e00a	0.17272964
237	0x3d92ad39	0.07161946
238	0x3e23f035	0.160096
239	0xbd0730a8	-0.033005387
240	0xbde980aa	-0.11401494
241	0xbe825e64	-0.2546264
242	0x3e41537e	0.18879506
243	0x3d59024c	0.052980706
244	0x3d595e25	0.0530683
245	0xbe4bf039	-0.19915856
246	0xbd80c4ee	-0.06287561
247	0x3eaa6d3a	0.33286458
248	0x3dff2224	0.12457684
249	0xbf2b2cd2	-0.66865265
250	0x3d46963e	0.048483126
251	0xbf13f03b	-0.5778844
252	0xbd9d022d	-0.076664306
253	0x3ca62963	0.020283407
254	0xbcde082c	-0.027103506
255	0x3eafba66	0.34321898

gnn_layers.1.lin_l.bias f4 [32]
0	0xbd97a1a4	-0.074038774
1	0x3df1c505	0.118051566
2	0x3d03c404	0.032169357
3	0xbe593853	-0.21212892
4	0x3e44c8f5	0.19217284
5	0x3ddbc679	0.10731215
6	0xbcf5168c	-0.029917978
7	0x3ea92dcc	0.33042753
8	0xbd36a5b4	-0.04459162
9	0xbdc7d9eb	-0.097583614
10	0xbd144896	-0.036202036
11	0xbd3e42e6	-0.046450518
12	0x3e23417f	0.15942954
13	0x3b8282e5	0.003982889
14	0xbe218ac0	-0.15775585
15	0xbe4b95e0	-0.19881392
16	0xbde6e11b	-0.11273404
17	0x3d71479e	0.05890619
18	0x3db310f5	0.08743469
19	0xbd0bd6eb	-0.03414051
20	0xbe11efd5	-0.14251645
21	0x3daf9e4f	0.08575117
22	0x3d87dedd	0.06634305
23	0x3e3d2daf	0.18474458
24	0xbcedbc01	-0.029020311
25	0xbe4fd0ec	-0.20294541
26	0xbe41fcef	-0.18944143
27	0x3d282b30	0.04105681
28	0x3ad17951	0.001598159
29	0xbdba38b2	-0.09092845
30	0xbcb5a7a5	-0.022174666
31	0xbe244a15	-0.16043885
