baseline/DLPL-CAP/models_dlpl-cap-classifier/sandwich+ultra8t_to_ssram+digtime+timing_ctrl+array_128_32_8t/dlpl-cap-classifier_nh_2_tsk_regression_ngl_4_nhl_4_hd_32_us_1_bn_0_dp_0.0_epoch_4_20250402_130651.pth (torch, 63106 bytes, 24 tensors)

net_attr_layers.weight f4 [16, 17]
-0.043662556 -0.015770884 -0.32409886 0.22279596 -0.5901399 -0.20096974 -0.118079685 0.14243697
0.21380556 -0.17793097 0.21081103 0.045392796 0.17918746 0.032846738 0.11694779 -0.3189673
-0.2235074 0.08301461 -0.04477997 0.030831032 -0.111745045 -0.06703715 -0.031380236 0.16089109
-0.19145039 -0.11181143 -0.06848593 -0.14582999 0.022891268 -0.23954737 0.21903612 -0.2060263
0.33685952 0.45142257 -0.2415927 -0.014925985 -0.10934363 0.1959599 -0.2861919 -0.25629085
0.06516536 -0.06577067 0.10207295 0.21654117 0.14020003 -0.10602991 0.14000724 0.043395985
0.12316808 -0.34325826 -0.9296657 0.046039533 -0.0020504354 0.18132286 0.06985786 0.18149419
0.27047858 -0.004219143 0.18981038 -0.17232485 0.015270946 -0.16554031 0.07478634 -0.08352497
0.07431686 -0.05053023 0.30858448 0.1416763 -0.1661909 -0.13816589 0.10127729 0.08082527
0.10727702 -0.19349189 -0.24056529 -0.18975109 -0.16315107 0.098236665 0.08684615 0.20152876
-0.12525155 -0.1653394 0.1286841 -0.16867708 0.5076212 -0.33417025 -0.15053819 -0.41855395
-0.122395545 -0.15843323 -0.22505906 -0.061836578 0.14456807 0.16487795 -0.17588037 -0.12948206
0.22208063 -0.081839405 -0.08598285 -0.23467617 -0.36215603 -0.44400135 0.21256685 0.072850585
0.19239795 -0.1656716 0.28371224 0.15640458 -0.21227011 -0.15443166 0.24244076 0.045808904
0.07473971 -0.22620916 -0.15929104 -0.080729395 0.037925567 -0.17845315 0.0061623035 -0.002657164
0.104758814 0.19579095 -0.016806692 -0.14865541 -0.09241453 -0.14149572 -0.08301932 -0.19142874
0.20335881 -0.0481346 0.20867686 0.07556976 -0.20537843 0.1678432 0.17888634 -0.15060274
-0.3367549 -0.36212286 -0.12881099 -0.05298042 -0.13741095 -0.31240085 0.18006551 -0.17803417
-0.041879438 0.05065834 0.12520945 0.19580151 0.22094007 -0.19231187 0.061038274 -0.3754006
-0.7344091 -0.0053132987 0.42025822 -0.101615846 0.12962346 0.3863571 0.30064368 -0.13112596
0.22045313 0.0532973 0.031199796 -0.21373568 0.10181366 -0.03638534 -0.111111455 0.20832513
0.24965975 0.31746274 0.095758006 0.19597189 0.38485593 -0.061976053 0.3862325 0.15767206
-0.18119226 0.08649608 0.18773232 -0.22833282 0.056329064 0.12529191 0.043978833 -0.08637291
0.12658957 0.3735153 0.34780473 0.033222932 0.0015719014 0.14945677 -0.04284491 0.45569387
0.27427813 0.208435 -0.024010384 -0.054302964 0.00353915 -0.014481374 0.0583083 0.06796663
-0.22028463 -0.0895048 0.27168852 -0.10898708 -0.106957 -0.21370414 -0.34255812 -0.21725537
-0.1662181 0.04468869 0.15464596 0.111978054 -0.21438791 -0.14585182 -0.03827616 0.23461671
0.035084594 -0.06280963 0.10034069 -0.30364612 -0.57831436 -0.19667238 -0.43974277 -0.5156911
-0.24127547 -0.36807525 -0.15401374 0.08839167 -0.16911383 -0.23936808 -0.19698232 0.18085887
0.11644275 0.20409481 0.1270571 0.061383866 -0.095813595 -0.023688471 -0.42437816 -0.4042754
-0.25844777 -0.11907723 -0.5388162 -0.33216417 -0.044195704 -0.17070504 -0.15847658 0.08045169
-0.07208071 0.14972772 -0.07780755 -0.17791618 -0.042792726 -0.43120202 -0.47571695 -0.4274774
00000000: 82d7 32bd f131 81bc 49f0 a5be a024 643e
00000010: 6913 17bf 03cb 4dbe c3d3 f1bd ffda 113e
00000020: d8ef 5a3e 8933 36be d9de 573e cced 393d
00000030: eb7c 373e 4d8a 063d 5382 ef3d af4f a3be
00000040: 20df 64be 9003 aa3d 346b 37bd 5c91 fc3c
00000050: 96da e4bd c64a 89bd 9088 00bd a2c0 243e
00000060: 920b 44be 64fd e4bd 5a42 8cbd 7554 15be
00000070: 7886 bb3c e84b 75be 014b 603e 8ff8 52be
00000080: da78 ac3e dc20 e73e 1464 77be 1e8c 74bc
00000090: 8eef dfbd b6a9 483e bf87 92be 8e38 83be
000000a0: 6b75 853d c6b2 86bd 9f0b d13d f8bc 5d3e
000000b0: 9990 0f3e 3626 d9bd 0f5e 0f3e fdbf 313d
000000c0: 8c3f fc3d 8cbf afbe 92fe 6dbf f393 3c3d
000000d0: 9960 06bb b3ac 393e a311 8f3d 9dd9 393e
000000e0: 2b7c 8a3e bd40 8abb a75d 423e ed75 30be
000000f0: fd32 7a3c 6683 29be 9529 993d 240f abbd
00000100: 7033 983d c9f8 4ebd c9fe 9d3e 9813 113e
00000110: f32d 2abe 5c7b 0dbe 786a cf3d b887 a53d
00000120: 0eb4 db3d bd22 46be bf56 76be 1c4e 42be
00000130: 1311 27be 4e30 c93d 65dc b13d 8e5d 4e3e
00000140: f141 00be bb4e 29be c4c5 033e afb9 2cbe
00000150: 77f3 013f 5d18 abbe af26 1abe b44c d6be
00000160: 84aa fabd 523c 22be e275 66be 5a48 7dbd
00000170: a709 143e c4d5 283e fc19 34be f296 04be
00000180: 1b69 633e 6b9b a7bd c717 b0bd f34e 70be
00000190: 846c b9be 2554 e3be 20ab 593e b032 953d
000001a0: f803 453e d1a5 29be bb42 913e 8628 203e
000001b0: 565d 59be 5523 1ebe 6442 783e 1ea2 3b3d
000001c0: 2211 993d 60a3 67be 311d 23be 7455 a5bd
000001d0: d757 1b3d 6cbc 36be 26ed c93b d023 2ebb
000001e0: ca8b d63d 6c7d 483e 30ae 89bc 2039 18be
000001f0: d443 bdbd 41e4 10be 0906 aabd e505 44be
00000200: 4b3d 503e c928 45bd 63af 553e 51c4 9a3d
00000210: b94e 52be 16df 2b3e fb2d 373e 9b37 1abe
00000220: 236b acbe 2b68 b9be 07e7 03be ff01 59bd
00000230: 75b5 0cbe 01f3 9fbe 1863 383e 974e 36be
00000240: c689 2bbd 1f7f 4f3d e836 003e 3180 483e
00000250: 1d3e 623e 67ed 44be 4503 7a3d 8234 c0be
00000260: 3c02 3cbf 2e1b aebb 162c d73e f81b d0bd
00000270: 03bc 043e 99d0 c53e f8ed 993e e245 06be
00000280: 77be 613e 454e 5a3d b796 ff3c 87dd 5abe
00000290: ae83 d03d cb08 15bd 678e e3bd 2f53 553e
000002a0: cea6 7f3e 7a8a a23e c61c c43d dbac 483e
000002b0: d60b c53e 9ada 7dbd 44c0 c53e c974 213e
000002c0: 778a 39be db24 b13d e73c 403e 14d0 69be
000002d0: 4eb9 663d 864c 003e 2623 343d 48e4 b0bd
000002e0: b2a0 013e 663d bf3e 7613 b23e c514 083d
000002f0: 4208 ce3a 320b 193e 257e 2fbd b550 e93e
00000300: 2f6e 8c3e fc6f 553e 6db1 c4bc c96c 5ebd
00000310: 16f1 673b 4943 6dbc afd4 6e3d 1732 8b3d
00000320: 4b92 61be 4b4e b7bd c21a 8b3e 9e34 dfbd
00000330: 460c dbbd 42d5 5abe c763 afbe 3178 5ebe
00000340: 1435 2abe 7d0b 373d 835b 1e3e c054 e53d
00000350: 8188 5bbe 2e5a 15be 76c7 1cbd 5d3f 703e
00000360: ddb4 0f3d 56a2 80bd 6b7f cd3d 8177 9bbe
00000370: 690c 14bf 7c64 49be f725 e1be 5504 04bf
00000380: eb10 77be 5c74 bcbe c7b5 1dbe b106 b53d
00000390: 2d2c 2dbe e81c 75be bcb5 49be 1133 393e
000003a0: 8979 ee3d 3bfe 503e 421b 023e a66d 7b3d
000003b0: eb39 c4bd 530e c2bc 1848 d9be 2ffd cebe
000003c0: 4453 84be c3de f3bd dcef 09bf 6c11 aabe
000003d0: 8e06 35bd 4dcd 2ebe af47 22be dbc3 a43d
000003e0: 0d9f 93bd 3952 193e 9159 9fbd a92f 36be
000003f0: 6d47 2fbd 83c6 dcbe 2c91 f3be 51de dabe

net_attr_layers.bias f4 [16]
0.12608734 0.093021676 0.21718264 -0.0008698431 -0.20990302 0.10443412 0.14833616 -0.2351306
0.047165837 -0.10241821 -0.008872971 -0.051497377 -0.049140576 -0.12601502 -0.21371427 0.21626586
00000000: 0a1d 013e 2682 be3d 2065 5e3e 2f06 64ba
00000010: d1f0 56be 8ee1 d53d 6fe5 173e 13c6 70be
00000020: f730 413d a3c0 d1bd f05f 11bc eaee 52bd
00000030: a147 49bd 150a 01be ead7 5abe cc74 5d3e

dev_attr_layers.weight f4 [16, 17]
0.23282623 -0.97008395 0.54627097 -1.3273019 -1.2074783 -0.23602219 0.09014041 -0.13316326
-0.15592057 -0.018923404 -0.080767065 -0.07846531 0.0077929595 -0.051444817 -0.084532686 -0.96345335
-0.19738214 0.19870844 1.1709917 -0.6590528 1.1673774 0.98645085 0.22611606 0.11174166
-0.2101813 0.096263066 0.2302252 0.06380708 0.16260187 0.23911284 -0.03716349 0.05164151
-0.6777058 -0.049981035 0.15427463 -1.375299 0.46030417 -1.7434702 -1.3818603 -0.23935299
-0.18714994 -0.05997843 0.16368175 0.040596157 -0.18447392 -0.19456787 0.12065547 -0.18040802
-0.06604019 0.14702277 -0.11224841 -0.075545385 1.0944188 -0.95532936 1.1901737 0.8168974
-0.19605537 -0.12986852 0.23425005 -0.11714827 -0.16286945 0.05878923 0.06684532 0.13288763
0.18435627 0.114067785 -0.08914062 0.021510148 0.1341137 1.0950111 -0.738351 1.2141786
0.66095865 -0.13808633 -0.21865922 0.010833658 0.107475564 0.05368837 0.047961354 -0.18393597
-0.22650093 0.0042708963 0.20554872 -0.43076456 -0.14121255 0.0040816325 -1.8347019 0.24621175
-1.6182563 -1.1560872 0.20090905 -0.22267343 0.162163 -0.17105846 0.090821646 0.20524463
0.0034057768 0.22066109 -0.20665284 -0.05396298 0.21877451 -0.052840713 -0.03872548 0.26897135
-0.8362818 1.0049702 0.7831326 -0.13629621 -0.1968782 0.026232801 0.07185817 -0.11198158
-0.0678609 0.16380073 0.019320315 0.010942803 0.0025563505 0.4577774 -0.22804593 -0.07089121
0.15619543 1.0101469 -0.47810882 -0.41648778 0.23124069 0.0844807 0.17290421 -0.117414586
-0.099067755 0.08914166 -0.16159545 -0.15854652 -0.0117143905 -0.10462933 -0.8489649 0.14386217
0.18477082 -1.8516854 0.2973896 -1.9605266 -1.3715417 0.061746083 0.114363045 -0.03066075
-0.09588715 0.13514717 -0.1931553 0.15328687 -0.09409287 0.0037121046 -0.0505277 0.44159156
-0.07329388 0.14096169 1.0355141 -0.5621541 1.4779471 0.8785619 -0.17693195 0.19458681
0.19005428 -0.18518741 -0.018748801 -0.23917076 -0.19853944 0.046843946 0.06452287 0.041356333
0.43993187 0.22375797 -0.052233208 0.552939 -0.5307693 1.0629578 0.86481494 -0.1714923
0.090899825 -0.123907 -0.20153263 -0.13247475 0.23390362 0.20733348 0.21718688 0.14237113
0.12699638 0.7323869 -0.13344987 0.056028333 -1.294305 -0.17866468 -0.661958 -0.41288772
0.12485652 -0.094203025 -0.1427483 0.03271637 -0.14295855 -0.15790558 0.12642215 -0.040742252
0.2216254 0.21323118 0.8737685 0.0834705 0.061854925 -1.1160886 -0.12353728 -0.51179326
-0.2802864 0.22550255 -0.06285531 -0.10252363 -0.0587336 -0.11717484 0.041240443 0.18104033
0.18965738 0.11135429 -0.12637584 0.50769085 -0.053287845 -0.053074934 0.19470857 -1.546204
0.52627593 0.24554542 -0.15346313 -0.20163988 0.21132605 -0.22966664 0.18296081 -0.008153296
-0.0282066 0.15170082 -0.022416988 0.1833001 -0.30717695 -0.21057187 0.1595661 -0.820912
-0.3147804 -0.70145494 -0.4362836 -0.11667584 -0.031030282 0.23043793 0.16294743 -0.009111688
-0.22811225 0.0106297955 -0.16516034 0.19722791 -0.060994104 -0.5753307 -0.053829003 -0.023129907
00000000: 006a 6e3e 6c57 78bf 6ad8 0b3f 07e5 a9bf
00000010: a68e 9abf cdaf 71be 899b b83d f35b 08be
00000020: a4a9 1fbe 4105 9bbc 3469 a5bd 6cb2 a0bd
00000030: 155c ff3b cdb7 52bd 791f adbd e1a4 76bf
00000040: 8b1e 4abe 3a7a 4b3e 0ee3 953f afb7 28bf
00000050: 9f6c 953f 0b88 7c3f f88a 673e d0d8 e43d
00000060: c439 57be 9225 c53d 28c0 6b3e 49ad 823d
00000070: 1b81 263e ffd9 743e be38 18bd 0c86 533d
00000080: 217e 2dbf eab8 4cbd 2bfa 1d3e cc09 b0bf
00000090: fdac eb3e 082a dfbf cce0 b0bf f318 75be
000000a0: 3ca4 3fbe f1ab 75bd 309c 273e 2848 263d
000000b0: bbe6 3cbe cd3c 47be 371a f73d e1bc 38be
000000c0: 1440 87bd 238d 163e 7fe2 e5bd 8ab7 9abd
000000d0: ea15 8c3f 7790 74bf 9d57 983f 3020 513f
000000e0: bdc2 48be 41fc 04be 3fdf 6f3e 6feb efbd
000000f0: 40c7 26be facc 703d 33e6 883d b213 083e
00000100: e4c7 3c3e 5f9c e93d 5b8f b6bd 0d36 b03c
00000110: 1a55 093e 5329 8c3f 9204 3dbf 346a 9b3f
00000120: 9634 293f 8166 0dbe 34e8 5fbe a87f 313c
00000130: 261c dc3d 56e8 5b3d 2073 443d b659 3cbe
00000140: dcef 67be e0f2 8b3b 5d7b 523e 2c8d dcbe
00000150: 069a 10be 37bf 853b 83d7 eabf ef1e 7c3e
00000160: 0623 cfbf aafa 93bf 1abb 4d3e 8104 64be
00000170: 0f0e 263e f329 2fbe b300 ba3d a62b 523e
00000180: 7433 5f3b fbf4 613e cd9c 53be 4908 5dbd
00000190: 6d06 603e 816f 58bd 9c9e 1ebd 9db6 893e
000001a0: 9016 56bf dda2 803f 617b 483f 3c91 0bbe
000001b0: 709a 49be 2ce6 d63c 602a 933d 9956 e5bd
000001c0: a8fa 8abd 61bb 273e a345 9e3c 7149 333c
000001d0: 7288 273b cd61 ea3e df84 69be 692f 91bd
000001e0: b2f1 1f3e 7e4c 813f aeca f4be e33d d5be
000001f0: 5cca 6c3e 3804 ad3d cd0d 313e 0f77 f0bd
00000200: 09e4 cabd e78f b63d 4779 25be 055a 22be
00000210: b7ed 3fbc e747 d6bd c455 59bf 9b50 133e
00000220: 9034 3d3e 0704 edbf 7343 983e 89f2 fabf
00000230: ae8e afbf 76e9 7c3d 2c37 ea3d 412c fbbc
00000240: 7b60 c4bd 0564 0a3e 81ca 45be 3cf7 1c3e
00000250: c3b3 c0bd c846 733b 22f6 4ebd 4a18 e23e
00000260: 1a1b 96bd 4358 103e ba8b 843f 55e9 0fbf
00000270: 5f2d bd3f 6fe9 603f a62d 35be c441 473e
00000280: 979d 423e c5a1 3dbe 1697 99bc 2ee9 74be
00000290: ec4d 4bbe 70df 3f3d 9124 843d 4265 293d
000002a0: c03e e13e cf20 653e 7df2 55bd 698d 0d3f
000002b0: 7fe0 07bf 000f 883f 8364 5d3f ad9b 2fbe
000002c0: b029 ba3d f4c2 fdbd 925e 4ebe 76a7 07be
000002d0: 6e84 6f3e 3a4f 543e 3d66 5e3e bdc9 113e
000002e0: 570b 023e b57d 3b3f 15a7 08be f77d 653d
000002f0: c9ab a5bf e0f3 36be 1476 29bf 0566 d3be
00000300: c6b4 ff3d 84ed c0bd 9c2c 12be 9a01 063d
00000310: ba63 12be 00b2 21be cf74 013e 59e1 26bd
00000320: c5f1 623e 4659 5a3e 4baf 5f3f 95f2 aa3d
00000330: 975b 7d3d fedb 8ebf 1d01 fdbd e204 03bf
00000340: b381 8fbe 24ea 663e 49ba 80bd e9f7 d1bd
00000350: a592 70bd 5df9 efbd bdeb 283d a362 393e
00000360: 8b35 423e b80d e43d ab68 01be 07f8 013f
00000370: 5b44 5abd 1a65 59bd af61 473e 03ea c5bf
00000380: 05ba 063f 4270 7b3e 7025 1dbe af7a 4ebe
00000390: db65 583e bb2d 6bbe 145a 3b3e 6795 05bc
000003a0: 8711 e7bc 7657 1b3e d5a3 b7bc 05b3 3b3e
000003b0: 4c46 9dbe 27a0 57be 4c65 233e 4a27 52bf
000003c0: e62a a1be 8d92 33bf 9060 dfbe bef3 eebd
000003d0: 3833 febc ecf7 6b3e b1db 263e 3049 15bc
000003e0: 4296 69be 9828 2e3c cb1f 29be 1df6 493e
000003f0: f4d4 79bd df48 13bf cd7b 5cbd ee7a bdbc

dev_attr_layers.bias f4 [16]
0.19505684 0.22524905 -0.012678942 -0.25781232 -0.18298458 -0.11510546 -0.20320806 -0.07649196
-0.23350976 -0.25918034 -0.23190758 -0.3045402 -0.14288148 0.084241726 0.26855782 -0.13847578
00000000: fbbc 473e b0a7 663e 56bb 4fbc faff 83be
00000010: 4f60 3bbe 69bc ebbd c615 50be d1a7 9cbd
00000020: 2f1d 6fbe 49b3 84be 2e79 6dbe b1ec 9bbe
00000030: 864f 12be ed86 ac3d 6980 893e 98cc 0dbe

pin_attr_layers.weight f4 [17, 16]
-0.8769953 -1.2059854 0.21771091 -0.8819438 -1.8136506 -0.21485575 -0.72357905 2.5015132
-0.5116609 -1.3438708 0.75191003 -0.06177897 -0.459319 -0.47131494 -1.4646229 -1.0603688
0.2926959 0.054484993 0.8651168 -0.20730573 -0.8396398 0.4142507 0.9585111 -1.3354875
0.6810202 -1.2886863 -0.06649872 0.5835898 0.60371196 0.0685348 1.8885059 0.6687687
-2.0244138 2.5066175 -1.075822 0.88831174 -0.28762615 -2.4804325 1.1248037 0.30840114
-1.0035967 1.8238634 1.6838514 -0.25795835 0.41297626 0.5407616 0.6445458 1.1941088
-0.4137862 0.51840883 -0.7015368 -0.4323409 0.14147705 0.071103625 0.56335306 -0.57863575
-1.0838116 -0.388926 0.81261057 1.4981188 0.043896087 1.4443233 0.23202892 0.50649834
-1.2786967 -0.03842747 1.913801 0.3378446 0.12505612 -0.7621515 -1.19056 0.77560735
0.45571992 0.25033033 -1.3610971 1.8018341 -0.074341945 -0.15664156 -0.8708455 -0.64109725
-0.41456285 -0.69023806 -0.2299562 -2.172284 0.08768324 1.0937846 -0.11772058 -0.29864323
-0.9536206 -0.09247278 -1.0166546 -0.0076756896 -0.51822084 0.83954257 0.058522668 -1.668248
2.1296248 -1.5181471 0.13872829 -1.1797569 -0.52974117 0.9625158 0.2794383 -0.5718191
-2.793629 -0.7111545 0.52352196 -1.7105501 0.83848536 -0.26984537 0.12306158 0.87575114
0.15132998 0.7393934 0.27310315 2.731231 0.43200523 -0.30918217 -0.09658124 1.5419251
-0.10874478 -0.41890433 1.4384385 -0.70684266 -1.2519515 3.0250485 1.346259 0.855607
0.3220294 0.44605663 1.5229592 1.2804899 -0.11616043 1.3705363 -0.48093814 -0.9903622
-1.3641813 0.008205652 -0.4058602 -0.711086 -0.34957936 0.37974882 0.99930406 1.2751853
0.95949274 0.10351 0.829035 2.0921295 0.79530954 0.27928478 0.18644784 0.3547133
0.0906385 1.7422553 -1.2660012 0.3891608 0.34287506 -1.4590638 -1.4936562 -0.22138521
0.22523506 -0.07724538 0.9856945 1.2783364 0.2881519 0.8690496 -0.8097058 -1.4298605
0.45901597 0.53093284 -1.3614802 1.9562491 1.7684898 -0.98579854 -1.2370758 -2.301875
-0.0010087001 -0.8494257 -1.6593921 0.3062906 1.1820445 0.32602695 -0.38944697 2.8543806
0.8243651 0.79834706 1.8890222 0.5934628 0.06965444 -1.6034338 -0.42982182 0.57615876
0.34436315 -3.101606 -1.4587226 -1.4318258 -0.6071269 -0.25973788 -0.7190186 -0.38583097
0.5233525 -0.8211768 -0.47086892 0.6016423 -0.28251126 0.769268 -0.76689243 -0.9494867
0.016917398 0.080277406 0.7448413 1.345485 0.12682189 -2.4520717 0.41597614 1.9025357
-0.73467 0.044657134 -1.5211198 0.3478376 0.7401773 1.4161996 0.68339795 -0.13825183
0.9212995 0.5282444 -0.008228387 -1.449332 -0.6051824 -0.17924511 0.1995587 -1.2461947
-0.4145994 1.45587 0.33165342 -1.0001009 -0.69195247 -0.47199076 -1.2894343 1.0762811
-1.0667428 -1.9893427 0.29731303 0.4344584 0.0033933204 -1.0240146 0.22404762 -0.7554785
1.367581 -0.31973583 -0.91309243 1.9192094 -1.651487 2.1477253 -0.66041344 0.11352584
00000000: c482 60bf bb5d 9abf 9cef 5e3e 12c7 61bf
00000010: b425 e8bf 2503 5cbe 7a3c 39bf cb18 2040
00000020: 35fc 02bf f503 acbf 2d7d 403f f20b 7dbd
00000030: dc2b ebbe 3150 f1be c378 bbbf 2aba 87bf
00000040: 3ddc 953e a82b 5f3d 4b78 5d3f f447 54be
00000050: a2f2 56bf ab18 d43e fc60 753f 41f1 aabf
00000060: 5757 2e3f acf3 a4bf 7b30 88bd 2466 153f
00000070: de8c 1a3f f95b 8c3d 90ba f13f 6d34 2b3f
00000080: ff8f 01c0 6c6c 2040 89b4 89bf 6668 633f
00000090: bc43 93be 68bf 1ec0 91f9 8f3f c1e6 9d3e
000000a0: db75 80bf 5b74 e93f 7188 d73f 1e13 84be
000000b0: a071 d33e 5a6f 0a3f f400 253f 8fd8 983f
000000c0: c9db d3be 71b6 043f ea97 33bf c95b ddbe
000000d0: 5cdf 103e c79e 913d e837 103f 7921 14bf
000000e0: 57ba 8abf 4f21 c7be 3f07 503f 5bc2 bf3f
000000f0: 62cc 333d 96df b83f fd98 6d3e e0a9 013f
00000100: 55ac a3bf 1f66 1dbd 6ef7 f43f f8f9 ac3e
00000110: b60e 003e 5c1c 43bf 4564 98bf 348e 463f
00000120: 1f54 e93e 4c2b 803e 6e38 aebf 80a2 e63f
00000130: 9740 98bd a566 20be bbef 5ebf f31e 24bf
00000140: 9541 d4be 71b3 30bf a379 6bbe b306 0bc0
00000150: 4593 b33d 2201 8c3f 7d17 f1bd c4e7 98be
00000160: 7b20 74bf 5e62 bdbd bd21 82bf 5a84 fbbb
00000170: 1faa 04bf 43ec 563f 77b5 6f3d 2789 d5bf
00000180: c64b 0840 a552 c2bf ca0e 0e3e 4602 97bf
00000190: 1e9d 07bf 6f67 763f 8912 8f3e bd62 12bf
000001a0: d1ca 32c0 390e 36bf 8905 063f 4ef3 dabf
000001b0: faa6 563f 2c29 8abe b607 fc3d 3a31 603f
000001c0: 3ff6 1a3e e348 3d3f 2dd4 8b3e 7dcc 2e40
000001d0: ca2f dd3e 204d 9ebe 63cc c5bd cd5d c53f
000001e0: 95b5 debd a17a d6be c11e b83f a4f3 34bf
000001f0: f23f a0bf 659a 4140 3752 ac3f 0f09 5b3f
00000200: 0ae1 a43e 8961 e43e 54f0 c23f 18e7 a33f
00000210: 85e5 edbd bc6d af3f 863d f6be 6188 7dbf
00000220: 7e9d aebf 0071 063c e8cc cfbe bb09 36bf
00000230: 11fc b2be 706e c23e 64d2 7f3f 4639 a33f
00000240: 51a1 753f 0dfd d33d a33b 543f 73e5 0540
00000250: 6899 4b3f 6afe 8e3e 2fec 3e3e fb9c b53e
00000260: aea0 b93d 3902 df3f 540c a2bf 1640 c73e
00000270: 528d af3e 9ac2 babf 2030 bfbf ceb2 62be
00000280: 05a4 663e d332 9ebd 7a56 7c3f 87a0 a33f
00000290: a588 933e 097a 5e3f e148 4fbf ab05 b7bf
000002a0: 2404 eb3e 37eb 073f fc44 aebf 5f66 fa3f
000002b0: e05d e23f 4b5d 7cbf 8058 9ebf ec51 13c0
000002c0: 5c36 84ba f673 59bf f666 d4bf 1fd2 9c3e
000002d0: 3c4d 973f 01ed a63e 9865 c7be 2cae 3640
000002e0: 9709 533f 7960 4c3f 7bcb f13f 2eed 173f
000002f0: fda6 8e3d 523d cdbf 9b11 dcbe 247f 133f
00000300: 5e50 b03e b680 46c0 6cb7 babf 1146 b7bf
00000310: ab6c 1bbf 5dfc 84be 9a11 38bf a38b c5be
00000320: 6efa 053f a538 52bf bb15 f1be 3b05 1a3f
00000330: 51a5 90be bfee 443f 1053 44bf 8f11 73bf
00000340: 5b96 8a3c 7b68 a43d ebad 3e3f da38 ac3f
00000350: 99dd 013e beee 1cc0 d3fa d43e 4a86 f33f
00000360: 5513 3cbf 66ea 363d 0eb4 c2bf c517 b23e
00000370: 427c 3d3f 0746 b53f 2bf3 2e3f e391 0dbe
00000380: 49da 6b3f 063b 073f 5bd0 06bc b683 b9bf
00000390: 3ced 1abf 088c 37be 1e59 4c3e 4f83 9fbf
000003a0: 5f46 d4be f359 ba3f 7ace a93e 4e03 80bf
000003b0: cc23 31bf c6a8 f1be 2f0c a5bf 94c3 893f
000003c0: 078b 88bf c8a2 febf 6a39 983e 5571 de3e
000003d0: 7862 5e3b e912 83bf bd6c 653e 0a67 41bf
000003e0: e50c af3f 6ab4 a3be 6dc0 69bf a7a8 f53f
000003f0: ed63 d3bf 5574 0940 db10 29bf 3c80 e83d

node_encoder.weight f4 [4, 16]
0.85942626 -0.5868405 1.5580148 0.9263543 -0.21794792 0.94847345 0.58382815 0.058453497
-1.0683345 -2.1364195 -0.42979985 -0.30573273 0.02997108 1.1119764 -0.030144718 1.4222859
-0.6624181 -2.007383 -1.6680534 -0.7718203 0.439496 -0.42259097 0.17953956 -2.289215
-0.4333351 -0.4422096 1.1883215 1.2240348 -1.1721395 -0.23240829 -0.96996224 1.2120727
1.1788131 -1.1344752 -0.9564396 -0.78653216 -1.4404233 -2.0705512 1.118022 -0.27408794
0.603703 -0.69191015 -0.045247212 0.9659232 0.7517894 -0.17355677 -1.3053617 -0.7349446
-0.7111087 -0.38666672 0.95783144 -0.82253087 -2.390805 0.3222477 1.8753887 1.104299
-0.5223759 -0.7401804 0.16235657 -0.2369976 0.5099347 1.6706249 1.592105 -0.4161921
00000000: 5c03 5c3f 2e3b 16bf 076d c73f 8e25 6d3f
00000010: bd2d 5fbe 28cf 723f c375 153f ef6c 6f3d
00000020: 2fbf 88bf 19bb 08c0 ba0e dcbe 0089 9cbe
00000030: e985 f53c 3e55 8e3f 0ef2 f6bc 770d b63f
00000040: 3c94 29bf f778 00c0 c682 d5bf 0496 45bf
00000050: 9f05 e13e d85d d8be 38d9 373e 8082 12c0
00000060: 19de ddbe 4c69 e2be eb1a 983f 2cad 9c3f
00000070: ab08 96bf 70fc 6dbe 724f 78bf 3325 9b3f
00000080: 59e3 963f 7c36 91bf 3ad9 74bf 2c5a 49bf
00000090: ca5f b8bf e983 04c0 581b 8f3f 4155 8cbe
000000a0: 488c 1a3f 0621 31bf 2455 39bd be46 773f
000000b0: 4575 403f deb8 31be 1816 a7bf 5425 3cbf
000000c0: 380b 36bf 2ef9 c5be 7134 753f 6291 52bf
000000d0: f302 19c0 a7fd a43e bd0c f03f ab59 8d3f
000000e0: 6dba 05bf 767c 3dbf cd40 263e 80af 72be
000000f0: 158b 023f 09d7 d53f 19ca cb3f 2217 d5be

gnn_layers.0.lin_l.weight f4 [32, 32]
0.011792093 0.015431267 0.06535657 -0.13311537 -0.08066377 0.11408508 -0.21791296 0.08797767
0.15690981 0.16793339 0.032430135 -0.17894895 0.06357145 -0.070433386 0.00607151 0.110155515
-0.030630626 -0.17156312 -0.1283649 0.14478809 -0.010185571 0.20386285 0.018586867 -0.11580562
0.064264975 0.24607818 0.092113666 0.062644616 -0.104670785 -0.12734126 0.12869853 -0.11462105
-0.0016340028 0.0054335464 0.068224475 0.023270357 -0.10355823 -0.054478437 0.11412326 0.034330115
0.10314351 -0.06808854 0.12262752 -0.06520308 -0.06404859 -0.0061147506 -0.031951267 -0.093756326
0.09217169 -0.19626851 0.2927768 -0.11783388 -0.16623734 0.34925327 0.16850235 -0.14535388
0.42436707 -0.2629901 -0.016459802 0.54743856 0.27176344 0.035704594 0.1592292 0.20162115
0.34876126 -0.020806057 0.26766303 0.44676042 -0.21182717 0.38673562 -0.037298243 0.23056193
-0.1273487 -0.14155965 -0.17202532 -0.3890072 0.2629901 0.25060388 0.0054684626 0.11265224
-0.22977912 -0.017473644 0.017605271 0.02173426 0.0057383217 0.4491603 0.18741895 -0.16311634
0.06835463 0.06630474 0.0327711 0.10940139 -0.09666674 -0.07278451 -0.10321708 0.39028063
0.00039976556 0.0059315604 0.037619263 -0.11400672 -0.063512325 0.09689448 0.14471899 -0.11677719
-0.11722369 0.09862096 0.01841267 0.1336328 0.010542294 0.007890697 -0.20306107 -0.065928146
-0.1073143 0.43638235 -0.5531824 0.518511 0.027701702 -0.35042194 0.0717886 -0.006670751
-0.40435126 0.42516682 0.04618473 -0.20601262 -0.27656496 0.3639816 -0.11148121 0.052308887
0.005799113 0.0036746853 0.050803855 -0.022907456 0.09730852 -0.07146288 -0.04546036 -0.033834115
0.045736227 0.14106004 0.38774887 0.13479054 0.15808874 -0.10088253 -0.018258994 -0.10359309
0.35767356 -0.33333012 0.6477936 -0.28816667 -0.14746793 0.2578739 -0.12925462 -0.53522986
0.7130357 -0.3499042 -0.082731076 0.25603333 0.17298023 -0.24191111 0.2274583 0.0794101
-0.43265784 0.10883684 -0.32993674 -0.02075875 0.24814661 0.05249043 0.1343762 -0.16261905
-0.056675296 0.12125892 0.014193691 0.20143439 -0.22752859 0.10580616 -0.14394894 -0.03819046
0.14219439 -0.058386683 0.09585807 0.19188178 0.20585962 -0.31404075 -0.16090211 0.017852956
-0.012565567 -0.0007156209 0.034882892 -0.46414384 -0.08157401 -0.048597977 0.118402295 -0.05067108
0.17634025 0.05542856 0.086895294 -0.020771183 -0.05802586 -0.07543929 -0.1321366 0.24187963
-0.0848017 0.069558516 -0.4316618 0.1001278 0.21444182 -0.08871041 0.14224754 -0.04456131
-0.083660714 0.1256616 0.27291292 0.2595376 -0.16693662 0.22273679 0.26079342 -0.09777713
0.38035494 -0.12203974 0.102951385 0.29186678 0.10066729 0.026205344 0.30987608 0.31854013
0.07991311 0.15978648 -0.12877943 -0.044799365 -0.05029015 0.08915334 0.016329847 -0.13382252
0.03986965 -0.08237024 -0.120916896 0.15236823 -0.12345418 -0.053855535 -0.02187756 -0.063041225
-0.03671391 0.17608519 -0.244637 0.21390387 0.13235454 0.023216391 -0.21384688 0.15243196
-0.34986514 0.022204129 -0.015559577 -0.22389564 -0.01400764 -0.00062717573 -0.20147565 -0.21576168
00000000: 9f33 413c 6dd3 7c3c aad9 853d 654f 08be
00000010: 0c33 a5bd 70a5 e93d 9324 5fbe a32d b43d
00000020: f7ac 203e bbf6 2b3e 76d5 043d 653e 37be
00000030: c031 823d 613f 90bd 84f3 c63b 3799 e13d
00000040: 14ed fabc 3eae 2fbe 1772 03be 5443 143e
00000050: 62e1 26bc 6cc1 503e 7c43 983c 7f2b edbd
00000060: 5b9d 833d ebfb 7b3e 17a6 bc3d d24b 803d
00000070: a35d d6bd bf65 02be 8cc9 033e 71be eabd
00000080: 092c d6ba e40b b23b 46b9 8b3d 7aa1 be3c
00000090: 5616 d4bd c824 5fbd 75b9 e93d bc9d 0c3d
000000a0: e83c d33d 0172 8bbd 2324 fb3d 3189 85bd
000000b0: e82b 83bd 3f5e c8bb 55df 02bd 5103 c0bd
000000c0: 83c4 bc3d 9dfa 48be d7e6 953e e452 f1bd
000000d0: 1f3a 2abe 53d1 b23e e18b 2c3e a6d7 14be
000000e0: a446 d93e a3a6 86be b5d6 86bc ef24 0c3f
000000f0: 9424 8b3e fb3e 123d fb0c 233e c675 4e3e
00000100: d690 b23e 7771 aabc 210b 893e c8bd e43e
00000110: 39e9 58be 3602 c63e 0bc6 18bd 6d18 6c3e
00000120: b367 02be 03f5 10be 6827 30be f42b c7be
00000130: a3a6 863e 274f 803e ca30 b33b 38b6 e63d
00000140: 384b 6bbe e324 8fbc ee38 903c 0c0c b23c
00000150: 8808 bc3b 57f8 e53e c1ea 3f3e f807 27be
00000160: 83fd 8b3d c8ca 873d fd3a 063d d60d e03d
00000170: 36f9 c5bd 0c10 95bd 7a63 d3bd ddd2 c73e
00000180: a097 d139 895d c23b a816 1a3d 5b7c e9bd
00000190: c012 82bd 9d70 c63d 3731 143e e128 efbd
000001a0: f912 f0bd c9f9 c93d 2bd6 963c 09d7 083e
000001b0: 96b9 2c3c fb47 013c 3eef 4fbe 5605 87bd
000001c0: 9ac7 dbbd 826d df3e 5d9d 0dbf 23bd 043f
000001d0: aeee e23c 816a b3be e705 933d 5196 dabb
000001e0: 2107 cfbe 77af d93e 332c 3d3d f9f4 52be
000001f0: ec99 8dbe cc5b ba3e 4350 e4bd d841 563d
00000200: 7c06 be3b fdd2 703b b417 503d 6ba8 bbbc
00000210: b049 c73d 215b 92bd a434 3abd a495 0abd
00000220: e955 3b3d 0b72 103e 0587 c63e 8806 0a3e
00000230: 04e2 213e 809b cebd e393 95bc 9d28 d4bd
00000240: fd20 b73e 3faa aabe cdd5 253f 958a 93be
00000250: d501 17be 0c08 843e 535b 04be d304 09bf
00000260: 8289 363f a526 b3be e96e a9bd cd16 833e
00000270: bb21 313e 8cb7 77be d4ea 683e c3a1 a23d
00000280: 5485 ddbe d9e5 de3d 78ed a8be 410e aabc
00000290: 251a 7e3e 3500 573d ea99 093e 9c85 26be
000002a0: 5b24 68bd 9956 f83d a88c 683c d144 4e3e
000002b0: 41fd 68be e6b0 d83d 5a67 13be 9a6d 1cbd
000002c0: 689b 113e e026 6fbd 3c51 c43d a87c 443e
000002d0: ddcc 523e f3c9 a0be 86c3 24be 5d40 923c
000002e0: cfdf 4dbc 8198 3bba 5de1 0e3d 43a4 edbe
000002f0: 4610 a7bd ac0e 47bd e77c f23d 7a8c 4fbd
00000300: 8a92 343e 0f09 633d 29f6 b13d 5428 aabc
00000310: 86ac 6dbd ea7f 9abd d14e 07be 4baf 773e
00000320: 84ac adbd b274 8e3d c702 ddbe ce0f cd3d
00000330: a396 5b3e cead b5bd 57a9 113e ec85 36bd
00000340: 4f56 abbd 6fad 003e 3ebb 8b3e 1de2 843e
00000350: 6ff1 2abe 1d15 643e b786 853e 603f c8bd
00000360: e2bd c23e f9ef f9bd 2dd8 d23d 906f 953e
00000370: a72a ce3d 97ac d63c 14a8 9e3e b117 a33e
00000380: 7ca9 a33d 119f 233e c1de 03be 8a7f 37bd
00000390: 0bfd 4dbd 0796 b63d 2cc6 853c c508 09be
000003a0: 5c4e 233d bab1 a8bd 47a3 f7bd 6b06 1c3e
000003b0: 8cd5 fcbd 9f97 5cbd 9238 b3bc c21b 81bd
000003c0: 5361 16bd ad4f 343e 1f82 7abe 9e09 5b3e
000003d0: f387 073e 4d30 be3c adfa 5abe 2017 1c3e
000003e0: 8621 b3be 6fe5 b53c 99ed 7ebc e644 65be
000003f0: 4d80 65bc 0d69 24ba a24f 4ebe a1f0 5cbe

gnn_layers.0.lin_l.bias f4 [32]
0.0355283 -0.19293937 0.12550983 -0.009702246 0.03948819 0.1525577 -0.15840656 0.012776932
-0.1598102 0.14403683 0.09720686 0.13037345 -0.04468376 0.008387124 -0.1516208 0.050382603
0.18835786 -0.14909747 -0.09110208 0.014317166 -0.034221675 0.020661272 0.17624234 -0.0018780283
0.03179489 0.06728248 -0.03893482 0.12238202 0.115830645 0.07157553 -0.00055739196 0.23873411
00000000: 1f86 113d e691 45be a685 003e 2bf6 1ebc
00000010: 5ebe 213d 1638 1c3e 5435 22be 5656 513c
00000020: 49a5 23be 647e 133e 6414 c73d 9e80 053e
00000030: 5106 37bd 266a 093c 7c42 1bbe fd5d 4e3d
00000040: e2e0 403e 02ad 18be ba93 babd 8c92 6a3c
00000050: 072c 0cbd d441 a93c df78 343e 2c28 f6ba
00000060: 5c3b 023d 66cb 893d 1e7a 1fbd 6da3 fa3d
00000070: 9e38 ed3d 3196 923d f11d 12ba b776 743e

gnn_layers.0.lin_r.weight f4 [32, 32]
-0.14750084 0.10039451 0.06402972 0.15159766 -0.101483874 0.05591554 -0.14661625 0.13732307
0.031220457 -0.08947004 0.0015348601 0.024567733 0.050800387 0.18655092 0.122565456 0.06319195
0.11821483 -0.14327203 0.071091995 0.022596916 0.1435991 0.07591084 0.013779014 0.100326724
-0.05928972 0.093211755 0.03637617 -0.032386113 0.10738747 -0.13231958 -0.04671144 0.110090114
0.056512434 -0.14764614 -0.0076149814 -0.021560654 0.18271309 -0.19318536 -0.06517282 -0.11294928
-0.10237646 0.041196544 -0.106774695 0.15601043 -0.100654826 0.020856192 -0.10621889 -0.0032400617
0.19942877 0.056241885 0.32159388 -0.015239264 -0.10706563 0.29075843 -0.2838827 0.19862266
0.11420965 -0.28760403 -0.34906697 -0.26977888 0.045672193 -0.07288824 0.022137677 -0.06125036
-0.03789631 0.04816567 -0.040460974 0.0911386 0.036709026 0.098233916 0.060068697 -0.04277152
0.17377242 -0.030070258 -0.054659136 0.0668315 -0.0031196135 -0.1474474 0.0102236 -0.057582956
-0.21246728 -0.12217424 -0.19998717 -0.12090257 -0.034205407 0.044337656 -0.18942203 0.191584
-0.3908288 0.016849698 0.11609421 -0.21209157 -0.06071108 -0.29170543 -0.02536426 -0.108844824
0.062203716 -0.06629629 0.029312557 0.07428652 -0.16687576 -0.09219099 0.19702713 -0.0068845623
-0.14016713 -0.098463506 -0.033335555 -0.017360633 -0.08925309 -0.09792135 0.01346956 0.12782513
0.38435024 0.20959021 -0.123513 -0.01754925 0.19348367 -0.022854632 0.15700291 -0.1501622
-0.015046798 -0.26998335 -0.09819725 -0.14438863 -0.23807414 -0.044818725 -0.0703659 -0.07911502
-0.024637427 0.1223679 -0.027438045 0.15333642 0.008559566 0.17094706 0.1445116 0.012362374
-0.14694405 0.084317796 0.06452394 -0.26706457 0.079097524 -0.0345744 0.24563134 0.16335978
0.34098318 0.044830073 0.29312804 0.14428121 -0.18370566 0.23562211 -0.130655 -0.035972264
0.24884176 -0.057076048 -0.39192653 -0.31575316 0.15680349 0.15833749 0.112130046 0.24149206
-0.11480851 0.0013169821 -0.1477745 -0.17437747 -0.054310005 0.1351008 0.1882994 0.12681787
0.17394206 -0.10800727 -0.2425753 0.116988674 -0.11958863 -0.15591125 0.060676437 -0.038970537
0.23863995 -0.15667884 0.38094345 -0.016960053 0.014787917 0.14621365 0.28610227 -0.4742583
0.4383712 -0.18888526 -0.27167436 0.29139224 0.13405156 0.07472728 0.35732704 0.011936456
-0.012333434 -0.054906476 -0.13061053 0.09949401 0.0930741 -0.12346482 0.12776148 -0.10620116
0.11306023 -0.05843606 0.19874784 0.047337282 -0.054060966 0.08332161 0.007911046 -0.0534662
0.7357092 -0.0009750336 0.39671662 -0.16231297 -0.104367405 0.1848751 -0.37771633 0.37549874
0.24194746 -0.12508844 -0.8276772 -0.3295742 -0.08787638 0.11868978 0.3006657 -0.25905025
-0.07200616 -0.11977967 -0.041153785 -0.055354767 0.19465047 -0.046342287 0.030401936 0.20293422
0.075286694 -0.14463787 -0.07550397 -0.11182233 0.08763707 -0.03878883 0.04197806 0.1615871
0.06954776 0.13978112 -0.29201397 0.19148253 0.19197102 -0.057715807 0.093139134 -0.336869
-0.17663327 0.067064635 -0.19097126 -0.1044079 -0.014592692 -0.023008477 -0.0070872977 0.062574044
00000000: 760a 17be a39b cd3d 0422 833d 6b3c 1b3e
00000010: c7d6 cfbd b107 653d 9222 16be 6b9e 0c3e
00000020: 0bc2 ff3c 113c b7bd 5c2d c93a 4542 c93c
00000030: 1114 503d 3407 3f3e 9903 fb3d c86a 813d
00000040: 9e1a f23d e7b5 12be ae98 913d 2b1d b93c
00000050: a40b 133e 2477 9b3d 60c1 613c 1978 cd3d
00000060: c7d9 72bd cee5 be3d 2eff 143d 4da7 04bd
00000070: f6ed db3d c97e 07be 7f54 3fbd ed76 e13d
00000080: 9579 673d 8d30 17be 1887 f9bb f89f b0bc
00000090: 2419 3b3e 62d2 45be 5479 85bd f451 e7bd
000000a0: c0aa d1bd b5bd 283d b1ac dabd 33c1 1f3e
000000b0: 1e24 cebd 9bda aa3c 4a89 d9bd 3757 54bb
000000c0: 0e37 4c3e e45d 663d f4a7 a43e 1bae 79bc
000000d0: 3a45 dbbd 4ade 943e 1359 91be bd63 4b3e
000000e0: c0e6 e93d d640 93be e8b8 b2be 7520 8abe
000000f0: c412 3b3d 6e46 95bd 135a b53c a8e1 7abd
00000100: 2939 1bbd 5e49 453d 68ba 25bd e0a6 ba3d
00000110: 345c 163d dd2e c93d 980a 763d 3031 2fbd
00000120: 66f1 313e e755 f6bc 42e2 5fbd f4de 883d
00000130: 6e72 4cbb 74fc 16be e380 273c 1bdc 6bbd
00000140: 0691 59be 7d36 fabd 70c9 4cbe c49b f7bd
00000150: f81a 0cbd 679b 353d d9f7 41be 992e 443e
00000160: b61a c8be 6108 8a3c cdc2 ed3d 882e 59be
00000170: 2eac 78bd 6a5a 95be b5c8 cfbc 09ea debd
00000180: 53c9 7e3d 59c6 87bd e320 f03c 8823 983d
00000190: 7be1 2abe a1ce bcbd 7bc1 493e e597 e1bb
000001a0: f987 0fbe 3ca7 c9bd dd8a 08bd e337 8ebc
000001b0: 53ca b6bd fd8a c8bd 6eaf 5c3c 97e4 023e
000001c0: 8ec9 c43e d19e 563e 62f4 fcbd 72c3 8fbc
000001d0: 9520 463e a339 bbbc 5fc5 203e 1fc4 19be
000001e0: d886 76bc 423b 8abe a41b c9bd 9dda 13be
000001f0: b5c9 73be d793 37bd ff1b 90bd 0e07 a2bd
00000200: 6ed4 c9bc 069c fa3d c0c5 e0bc 3904 1d3e
00000210: 6c3d 0c3c bf0c 2f3e d9fa 133e 8e8b 4a3c
00000220: 8078 16be cfae ac3d 2125 843d b0bc 88be
00000230: e2fd a13d e39d 0dbd c886 7b3e c947 273e
00000240: 5995 ae3e bd9f 373d e114 963e 74be 133e
00000250: 561d 3cbe ec46 713e 6dca 05be a757 13bd
00000260: 60d0 7e3e 93c8 69bd 98aa c8be 66aa a1be
00000270: 1891 203e 3923 223e 70a4 e53d b249 773e
00000280: b920 ebbd 969e ac3a 3352 17be 0290 32be
00000290: 2b74 5ebd dd57 0a3e 8fd1 403e 8bdc 013e
000002a0: de1d 323e ea32 ddbd a965 78be c297 ef3d
000002b0: e2ea f4bd 33a7 1fbe db87 783d 929f 1fbd
000002c0: 085e 743e 6b70 20be 050b c33e cfef 8abc
000002d0: 0549 723c 08b9 153e ff7b 923e fcd1 f2be
000002e0: 3172 e03e 236b 41be e718 8bbe 5d31 953e
000002f0: d044 093e 9e0a 993d 92f3 b63e 2091 433c
00000300: 2c12 4abc 9de5 60bd c4be 05be 84c3 cb3d
00000310: a29d be3d 20db fcbd e8d3 023e fe7f d9bd
00000320: 1f8c e73d a65a 6fbd 8e84 4b3e bde4 413d
00000330: 086f 5dbd 85a4 aa3d 559d 013c 60ff 5abd
00000340: 7057 3c3f 6699 7fba 711e cb3e 5f35 26be
00000350: 94be d5bd e64f 3d3e 0964 c1be 5f41 c03e
00000360: 13c1 773e 2f17 00be a7e2 53bf f3bd a8be
00000370: 88f8 b3bd a113 f33d dbf0 993e 3ca2 84be
00000380: f777 93bd 0b4f f5bd df90 28bd aebb 62bd
00000390: 7452 473e 69d1 3dbd 7b0d f93c fdcd 4f3e
000003a0: e92f 9a3d f31b 14be d3a1 9abd 1b03 e5bd
000003b0: 107b b33d 09e1 1ebd 30f1 2b3d 1777 253e
000003c0: 0e6f 8e3d c822 0f3e db82 95be ff13 443e
000003d0: 0d94 443e 6967 6cbd bbbf be3d 187a acbe
000003e0: 5adf 34be 2f59 893d f88d 43be cfd3 d5bd
000003f0: 3016 6fbc 467c bcbc 903c e8bb d226 803d

gnn_layers.1.lin_l.weight f4 [32, 32]
0.21702442 0.10518176 -0.2716533 0.017851045 0.12944722 0.1947242 -0.09360861 -0.08409976
0.068695545 0.22263525 0.18503152 -0.27275372 -0.59159523 0.107190825 -0.23812343 0.24653502
-0.055694975 -0.016644202 -0.45816538 0.042263195 -0.112413585 0.11560941 0.034950837 -0.13603286
0.03132394 -0.25495127 -0.204432 0.22535278 -0.112806655 -0.030549169 0.001545611 -0.3968044
-0.019095168 0.095976636 0.054330487 -0.119939715 0.0015161022 0.01052437 -0.15086517 -0.0925397
0.11866671 -0.14296183 0.09745415 0.30485147 0.009386254 0.17501165 0.122132696 -0.045730982
-0.34238267 0.065455444 -0.15756391 0.17533883 0.027223008 -0.124719515 -0.042055983 0.23076506
0.3144094 0.06470613 0.11302219 -0.06971867 0.062212076 -0.043944582 0.014825931 0.45312536
-0.026069101 0.16071656 0.12585367 -0.075746834 -0.28526202 -0.16273342 0.1300042 -0.13437599
0.13588846 0.07099401 -0.06646882 0.2318524 -0.31339318 0.10179284 0.06906058 -0.18939357
-0.034544043 0.28404456 0.0010404562 0.18402436 0.12696677 -0.03190869 0.17374995 -0.1334272
-0.2959341 0.19688018 0.059692312 0.20932382 0.21444726 -0.03741156 0.44976458 0.40600768
0.14415202 0.054800298 -0.10560615 -0.11173432 -0.2936648 0.0837357 0.042848222 0.0161844
0.14293212 -0.057251353 0.07946068 0.19952762 -0.17202285 -0.040481046 0.20124876 0.048388693
-0.20281623 0.1825459 0.14520258 -0.2098204 -0.111931995 -0.038929343 -0.002354078 0.0045265816
-0.04241017 0.0572954 -0.08091123 0.1432531 0.11501894 -0.11352195 -0.049697462 0.37287712
0.13050666 -0.15581384 -0.08610286 -0.21309355 0.43568584 0.027349774 -0.2040162 0.13284867
0.07331444 0.06764006 -0.121971145 -0.079824075 0.41656777 0.07705615 -0.15617912 -0.11183624
-0.017555445 -0.25008634 0.1372919 -0.036909834 0.10502656 -0.16915826 -0.011683862 0.10708298
0.32704955 0.05587171 0.08406058 -0.21259758 0.053683788 -0.13523562 -0.36929426 -0.10849227
-0.09939849 -0.010476906 0.06791525 -0.171672 -0.02503667 0.02108312 -0.17670512 0.078189254
0.007999324 -0.1273796 -0.072735004 0.11137144 0.08900829 0.09519072 0.15544634 -0.048863098
-0.28441256 -0.10131586 -0.33226398 0.04369206 0.11811925 -0.21488652 -0.23631136 0.29760766
-0.13368848 0.27466962 0.09908667 -0.12785745 0.066473946 -0.26705787 0.13235371 0.07019
0.04496529 0.18494812 0.07497775 -0.1318932 -0.027670097 0.061446834 0.2005821 -0.10044892
-0.030055823 -0.20101789 0.10820381 0.13670628 -0.254542 -0.09354081 0.064349785 -0.04031644
-0.350308 0.18035264 -0.18574439 0.11838266 0.13745554 0.2340295 0.19951575 -0.005530804
-0.05063243 0.047948916 0.110454105 0.28884903 0.2846846 0.05252524 -0.05608139 0.38544253
0.13230383 0.04496461 0.18154249 0.17452593 0.34918335 0.06560875 -0.13671383 -0.01546681
-0.01326631 0.01634462 -0.17328727 0.021619674 0.16971682 0.13626091 0.15452462 -0.15236129
-0.08638269 -0.063891776 0.29076856 0.12342821 0.08405948 -0.0942855 0.10408315 0.33082247
0.11256879 -0.12388422 0.139492 -0.13285238 -0.022035435 0.049465336 -0.022152241 0.25138575
00000000: a63b 5e3e 8969 d73d 2416 8bbe 5b3c 923c
00000010: d08d 043e c865 473e dfb5 bfbd 7f3c acbd
00000020: 40b0 8c3d 7ffa 633e e778 3d3e 60a6 8bbe
00000030: c972 17bf dd86 db3d a1d6 73be ad73 7c3e
00000040: 6a20 64bd 6c59 88bc a794 eabe 2c1c 2d3d
00000050: 1839 e6bd a0c4 ec3d 9c28 0f3d 334c 0bbe
00000060: 884d 003d f988 82be 9f56 51be e1c2 663e
00000070: 2d07 e7bd 4042 fabc 1996 ca3a f229 cbbe
00000080: 786d 9cbc 668f c43d a589 5e3d f4a2 f5bd
00000090: f3b7 c63a 686e 2c3c 667c 1abe 7485 bdbd
000000a0: 8807 f33d 9664 12be 0b96 c73d 7e15 9c3e
000000b0: cdc8 193c 4136 333e b520 fa3d 6950 3bbd
000000c0: c84c afbe 810d 863d 6f58 21be 068c 333e
000000d0: c902 df3c f26c ffbd e542 2cbd ad4d 6c3e
000000e0: 45fa a03e a684 843d 2e78 e73d a9c8 8ebd
000000f0: 17d2 7e3d 3cff 33bd 76e8 723c 0c00 e83e
00000100: de8e d5bc e292 243e c9df 003e 2821 9bbd
00000110: dd0d 92be 97a3 26be d21f 053e dc99 09be
00000120: 5826 0b3e 4f65 913d ce20 88bd b76a 6d3e
00000130: 1275 a0be c478 d03d a26f 8d3d 63f0 41be
00000140: 0e7e 0dbd 4a6e 913e eb5f 883a e270 3c3e
00000150: 9403 023e b0b2 02bd 82eb 313e 24a1 08be
00000160: ad84 97be f59a 493e ed7f 743d fc58 563e
00000170: 1098 5b3e dd3c 19bd 8b47 e63e 3de0 cf3e
00000180: 969c 133e 4776 603d 0a48 d8bd f7d4 e4bd
00000190: 3c5b 96be 9f7d ab3d 9e81 2f3d 2695 843c
000001a0: cc5c 123e 6580 6abd 48bc a23d f850 4c3e
000001b0: c226 30be 74cf 25bd 2814 4e3e 3933 463d
000001c0: 0faf 4fbe 50ed 3a3e fcaf 143e 29db 56be
000001d0: 9a3c e5bd 6074 1fbd e046 1abb b853 943b
000001e0: 49b6 2dbd 95ae 6a3d c9b4 a5bd f1b0 123e
000001f0: 0d8f eb3d 327e e8bd 918f 4bbd c0e9 be3e
00000200: 8aa3 053e aa8d 1fbe b256 b0bd 3235 5abe
00000210: 3712 df3e a20c e03c 9fe9 50be 7b09 083e
00000220: e225 963d df86 8a3d 02cc f9bd ce7a a3bd
00000230: 5f48 d53e 9dcf 9d3d 6bed 1fbe 660a e5bd
00000240: 70d0 8fbc 510b 80be 3f96 0c3e c42e 17bd
00000250: 2a18 d73d d337 2dbe ab6d 3fbc 524e db3d
00000260: 0a73 a73e bcd9 643d f427 ac3d 2eb3 59be
00000270: 88e3 5b3d 357b 0abe 2314 bdbe 3231 debd
00000280: 6f91 cbbd 54a7 2bbc 2717 8b3d c9ca 2fbe
00000290: b419 cdbc 82b6 ac3c 30f2 34be b021 a03d
000002a0: 990f 033c cc6f 02be 17f6 94bd b616 e43d
000002b0: fa49 b63d 5af3 c23d 532d 1f3e ac24 48bd
000002c0: 869e 91be b17e cfbd 811e aabe 72f6 323d
000002d0: 81e8 f13d 360b 5cbe 9bfb 71be 0860 983e
000002e0: a2e5 08be 7fa1 8c3e f4ed ca3d 10ed 02be
000002f0: 7e23 883d cfbb 88be bb87 073e c6bf 8f3d
00000300: 862d 383d 0a63 3d3e ef8d 993d 030f 07be
00000310: 66ac e2bc adaf 7b3d 6565 4d3e 2ab8 cdbd
00000320: a137 f6bc a2d7 4dbe f699 dd3d bbfc 0b3e
00000330: 5453 82be 5392 bfbd d2c9 833d da22 25bd
00000340: 925b b3be 5dae 383e c733 3ebe 9c72 f23d
00000350: 25c1 0c3e 6ea5 6f3e db4d 4c3e bf3b b5bb
00000360: f363 4fbd 1566 443d c335 e23d 05e4 933e
00000370: 2ec2 913e b524 573d 99b5 65bd b958 c53e
00000380: a87a 073e d02c 383d 46e6 393e edb6 323e
00000390: 29c8 b23e e15d 863d b6fe 0bbe 8168 7dbc
000003a0: f05a 59bc 27e5 853c 3872 31be be1b b13c
000003b0: 3fca 2d3e fb87 0b3e b43b 1e3e 9904 1cbe
000003c0: 68e9 b0bd b1d9 82bd 9edf 943e eec7 fc3d
000003d0: 6027 ac3d c218 c1bd 8c29 d53d 9061 a93e
000003e0: 778a e63d 03b7 fdbd fed6 0e3e 740a 08be
000003f0: a883 b4bc 2a9c 4a3d 9e78 b5bc a2b5 803e

gnn_layers.1.lin_l.bias f4 [32]
-0.056296 0.12194145 0.07441461 -0.17768116 0.173874 -0.073388286 0.0011078347 0.23929663
-0.040060125 -0.067373484 0.05428143 -0.040040508 0.20588541 -0.0022513794 -0.07313661 -0.10610616
-0.05465182 0.048180964 0.098124094 -0.0024734477 -0.10626196 0.039162774 -0.04320201 0.10048049
-0.012562001 -0.20294541 -0.1615505 -0.03592903 -0.02448454 -0.06059224 0.045212667 -0.12671661
00000000: a296 66bd 70bc f93d b066 983d 0df2 35be
00000010: 070c 323e 994c 96bd c434 913a 2d0a 753e
00000020: 1616 24bd 1cfb 89bd 3456 5e3d 8401 24bd
00000030: a0d3 523e e18b 13bb a6c8 95bd 304e d9bd
00000040: 96da 5fbd 6759 453d 49f5 c83d 9119 22bb
00000050: df9f d9bd 2569 203d 97f4 30bd b7c8 cd3d
00000060: dad0 4dbc ecd0 4fbe 7f6d 25be 522a 13bd
00000070: cd93 c8bc 922f 78bd eb30 393d 00c2 01be

gnn_layers.1.lin_r.weight f4 [32, 32]
0.10192 -3.9488925e-05 0.3036336 -0.38388413 0.030308546 0.01959127 0.23580623 -0.27603307
0.15499273 -0.07151009 0.19441536 0.14014356 -0.4805501 -0.052605707 -0.12426146 0.23908928
-0.2780542 0.056358267 -0.2714898 0.2279674 0.13117768 -0.06225239 -0.068752326 0.15861319
0.33407858 -0.048486594 -0.19016087 0.19875991 0.006869671 -0.17053466 0.168536 0.3411839
-0.15647003 -0.14463684 -0.160813 0.28317297 -0.16209148 0.25165683 0.00569807 -0.06670897
0.10640073 0.3335728 0.05857588 -0.27876475 -0.49617 0.14166045 -0.14263421 0.31200823
0.29979995 0.34929186 -0.30814043 0.049527578 0.051672727 0.37673655 0.35659143 -0.14483194
-0.15938826 0.12686688 -0.067887194 0.23575076 0.145276 0.05387971 -0.1410648 -0.25343314
-0.023637928 -0.016878095 0.17494622 -0.090113744 -0.12823917 -0.08270983 -0.23076034 0.18933326
0.084540635 -0.13657287 0.16338767 0.08563724 -0.27350172 0.30691305 0.27067 -0.0014284322
-0.18613155 0.22468413 -0.10153996 0.10289056 -0.023207484 0.16131887 0.28722534 -0.38872126
-0.04925376 0.1358712 0.006608366 0.121997215 0.10699935 -0.12303219 -0.20540906 0.15918528
-0.039914064 0.002503516 -0.17855547 0.15666282 -0.13361873 0.15004061 -0.09150906 0.04347723
-0.06482476 0.08122835 0.21790977 0.23236625 -0.3563739 0.13707207 0.07408543 -0.42287284
0.031073416 0.068145625 -0.0029039504 0.12154448 0.009198639 -0.10933369 -0.025695456 -0.060201466
-0.1077803 -0.01962904 -0.086388275 0.1392951 0.016567063 0.05307615 -0.12111046 0.25526193
0.030996833 -0.083482735 0.03554576 0.21716735 -0.1764039 0.093745835 -0.09113885 -0.15416893
0.06735587 0.105562724 -0.5528747 -0.09945272 0.14021319 -0.073219255 0.17200272 -0.2941729
0.18269882 0.05390856 0.3906656 0.13493639 0.057761308 0.26310277 -0.26871628 -0.023094932
-0.47601375 -0.21610345 -0.039705344 -0.52419937 0.03762355 0.059015844 0.2663495 0.06850427
-0.1620446 -0.09621742 0.10546639 -0.18632993 0.13178061 0.08468047 -0.28363168 0.09112057
0.0056796037 -0.09924616 -0.08025414 0.13156709 0.3359596 0.0024210247 0.0053965636 -0.3056649
0.3417427 -0.021863583 0.33354047 0.024784528 0.030466221 0.1278642 0.117917456 -0.118095346
0.104600415 -0.19770281 0.18642601 -0.020135675 -0.015608001 0.19518878 0.14260148 0.19509201
0.05854656 0.061399814 -0.060867395 0.115946665 -0.1287778 -0.13728063 0.21106906 -0.08700526
0.056359082 -0.13465476 0.19607882 0.086378396 0.07578616 0.036333866 0.061308477 -0.124631345
-0.1600781 0.16247615 0.04586028 -0.084774695 -0.13802716 0.09438943 0.2492081 -0.07703492
0.124019906 0.023411123 0.14988895 0.049502008 -0.071003936 0.14090955 0.1792212 0.28203177
0.0192242 0.22069097 -0.0033706059 0.09377348 0.042355094 -0.31540656 -0.12860744 -0.011246125
0.10230096 -0.37641147 -0.28219405 0.20538332 0.44077483 -0.16624416 0.061413083 -0.33409116
0.04614674 0.09714731 0.36680195 0.16211808 -0.040491346 -0.2844628 -0.20799726 -0.047177196
-0.075462356 -0.29723972 0.11383225 -0.18942912 0.21886945 -0.131818 0.124891065 0.14368758
00000000: 6fbb d03d e9a0 25b8 dd75 9b3e 768c c4be
00000010: a149 f83c df7d a03c 3077 713e 3554 8dbe
00000020: 6ab6 1e3e e273 92bd d214 473e cb81 0f3e
00000030: aa0a f6be 1579 57bd cb7c febd d2d3 743e
00000040: 1f5d 8ebe edd7 663d b600 8bbe 4970 693e
00000050: 7153 063e 5dfc 7ebd 05ce 8cbd 7f6b 223e
00000060: 590c ab3e e199 46bd 88b9 42be b887 4b3e
00000070: fa1a e13b a3a0 2ebe b494 2c3e a8af ae3e
00000080: ae39 20be ae1b 14be 2aac 24be 0cfc 903e
00000090: 4ffb 25be 2ad9 803e e0b6 ba3b b69e 88bd
000000a0: a0e8 d93d 0eca aa3e 43ed 6f3d 41ba 8ebe
000000b0: ff09 febe 700f 113e b40e 12be 8bbf 9f3e
000000c0: 617f 993e 62d6 b23e 95c4 9dbe 6edd 4a3d
000000d0: c8a6 533d 9de3 c03e 2793 b63e d34e 14be
000000e0: ad36 23be 64e9 013e 7108 8bbd a668 713e
000000f0: 3bc3 143e f9b0 5c3d 4a73 10be fdc1 81be
00000100: 54a4 c1bc ee43 8abc 1a25 333e 8e8d b8bd
00000110: 2151 03be c563 a9bd 704c 6cbe 94e0 413e
00000120: a423 ad3d c2d9 0bbe 194f 273e 9462 af3d
00000130: 6b08 8cbe b523 9d3e 4295 8a3e 3b3a bbba
00000140: 4599 3ebe 9913 663e 2ff4 cfbd 49b8 d23d
00000150: 9f1d bebc c630 253e 330f 933e 7906 c7be
00000160: 50be 49bd d221 0b3e fe8a d83b add9 f93d
00000170: 7a22 db3d 4df8 fbbd c156 52be 7701 233e
00000180: ee7c 23bd 0712 243b 3fd7 36be 386c 203e
00000190: 59d3 08be 3fa4 193e 1a69 bbbd 2e15 323d
000001a0: d8c2 84bd 0d5b a63d bd23 5f3e 6bf1 6d3e
000001b0: a476 b6be 9f5c 0c3e 1aba 973d ca82 d8be
000001c0: ad8d fe3c ef8f 8b3d 3450 3ebb 50ec f83d
000001d0: e3b5 163c 57ea dfbd 477f d2bc d095 76bd
000001e0: ebbb dcbd 15cd a0bc 56ec b0bd 60a3 0e3e
000001f0: a6b7 873c 6166 593d c308 f8bd b1b1 823e
00000200: 12ed fd3c fff8 aabd 6e98 113d 1e61 5e3e
00000210: 39a3 34be d1fd bf3d 01a7 babd 76de 1dbe
00000220: e0f1 893d 4531 d83d 3289 0dbf dead cbbd
00000230: 0c94 0f3e faf3 95bd 7b21 303e d59d 96be
00000240: 6615 3b3e 39cf 5c3d 5205 c83e c42c 0a3e
00000250: 1f97 6c3d 68b5 863e 2e95 89be 9531 bdbc
00000260: 13b8 f3be 394a 5dbe 12a2 22bd ee31 06bf
00000270: 271b 1a3d 99ba 713d f65e 883e f74b 8c3d
00000280: 05ef 25be a40d c5bd c3fe d73d 46cd 3ebe
00000290: 7ff1 063e f46c ad3d 2c38 91be 6c9d ba3d
000002a0: f81b ba3b 9241 cbbd 485c a4bd 86b9 063e
000002b0: e602 ac3e 0eaa 1e3b a8d5 b03b 1c80 9cbe
000002c0: e6f8 ae3e 421b b3bc d1c5 aa3e ec08 cb3c
000002d0: 4c94 f93c d5ee 023e b57e f13d f9db f1bd
000002e0: be38 d63d 9b72 4abe 76e6 3e3e 92f3 a4bc
000002f0: b3b8 7fbc 91df 473e 1f06 123e 33c6 473e
00000300: 85ce 6f3d 5f7e 7b3d 1750 79bd 7275 ed3d
00000310: 54de 03be 4b93 0cbe 7d22 583e d02f b2bd
00000320: c8d8 663d f0e2 09be e3c8 483e 28e7 b03d
00000330: c635 9b3d d2d2 143d 991e 7b3d b83e ffbd
00000340: 83eb 23be 2660 263e fdd7 3b3d 5b9e adbd
00000350: fe56 0dbe 3f4f c13d 6830 7f3e 7cc4 9dbd
00000360: 26fe fd3d afc8 bf3c 7d7c 193e 9ec2 4a3d
00000370: 836a 91bd 984a 103e c385 373e 7866 903e
00000380: 127c 9d3c d0fc 613e 62e5 5cbb 4f0c c03d
00000390: 897c 2d3d f87c a1be abb1 03be ab41 38bc
000003a0: 2a83 d13d 01b9 c0be bd7b 90be 0150 523e
000003b0: 3dad e13e e93b 2abe 498c 7b3d ff0d abbe
000003c0: 5d04 3d3d 2bf5 c63d 77cd bb3e 4802 263e
000003d0: 41da 25bd 1ca5 91be 3cfd 54be e03c 41bd
000003e0: 028c 9abd ce2f 98be e220 e93d b5f9 41be
000003f0: 501f 603e 4cfb 06be e3c6 ff3d d622 133e
