baseline/DLPL-CAP/models_dlpl-cap-classifier/sandwich+ultra8t_to_ssram+digtime+timing_ctrl+array_128_32_8t/dlpl-cap-classifier_nh_2_tsk_regression_ngl_4_nhl_4_hd_32_us_1_bn_0_dp_0.0_epoch_2_20250402_122819.pth (torch, 63106 bytes, 24 tensors)

net_attr_layers.weight f4 [16, 17]
0	0xbd2e932a	-0.042620815
1	0xbc2e9b4c	-0.010657143
2	0xbeac17c1	-0.33611873
3	0x3e6424a0	0.22279596
4	0xbf107d44	-0.5644114
5	0xbe450f71	-0.19244172
6	0xbdf1d3c3	-0.118079685
7	0x3e11daff	0.14243697
8	0x3e5aefd8	0.21380556
9	0xbe363389	-0.17793097
10	0x3e57ded9	0.21081103
11	0x3d39edcc	0.045392796
12	0x3e377ceb	0.17918746
13	0x3d068a4d	0.032846738
14	0x3def8253	0.11694779
15	0xbedd0dd7	-0.4317462
16	0xbdba7c45	-0.09105734
17	0x3dae860f	0.085216634
18	0xbd62a7b3	-0.05533571
19	0x3d9e8889	0.07740886
20	0xbde4da96	-0.111745045
21	0xbc585cae	-0.01320569
22	0xbd22f1f9	-0.039781544
23	0x3e24c0a2	0.16089109
24	0xbe440b92	-0.19145039
25	0xbde4fd64	-0.11181143
26	0xbd8c425a	-0.06848593
27	0xbe155475	-0.14582999
28	0x3cbb8678	0.022891268
29	0xbe754be8	-0.23954737
30	0x3e604b01	0.21903612
31	0xbe52f88f	-0.2060263
32	0x3ee2dcf6	0.44309205
33	0x3ed26412	0.41091973
34	0xbe7cd8c7	-0.24692069
35	0xbb2dca22	-0.0026518186
36	0xbe2ed4c1	-0.17073347
37	0x3e48a9b6	0.1959599
38	0xbeb0d41b	-0.34536824
39	0xbe7bf3db	-0.24604742
40	0x3d85756b	0.06516536
41	0xbd86b2c6	-0.06577067
42	0x3dd10b9f	0.10207295
43	0x3e5dbcf8	0.21654117
44	0x3e0f9099	0.14020003
45	0xbdd92636	-0.10602991
46	0x3e0f5e0f	0.14000724
47	0x3d31bffd	0.043395985
48	0x3dfc3f8c	0.12316808
49	0xbf01dd32	-0.5072814
50	0xbf523000	-0.8210449
51	0x3d530f1f	0.051528092
52	0xbc5a041b	-0.013306643
53	0x3e74fd8a	0.23924842
54	0x3d8f11a3	0.06985786
55	0x3e6ee496	0.23329386
56	0x3e8514ad	0.25992337
57	0xbb8a40bd	-0.004219143
58	0x3e425da7	0.18981038
59	0xbe3075ed	-0.17232485
60	0x3c7a32fd	0.015270946
61	0xbe298366	-0.16554031
62	0x3d992995	0.07478634
63	0xbdab0f24	-0.08352497
64	0x3d983370	0.07431686
65	0xbd4ef8c9	-0.05053023
66	0x3ee86dc1	0.45396236
67	0x3d5c2f59	0.05375609
68	0xbe10a259	-0.1412443
69	0xbe02f754	-0.1278966
70	0x3e2db1e9	0.16962399
71	0x3da587b8	0.08082527
72	0x3e352f0c	0.17693728
73	0xbe3a5ace	-0.18198702
74	0xbe7656bf	-0.24056529
75	0xbe424e1c	-0.18975109
76	0xbe271113	-0.16315107
77	0x3dc9304e	0.098236665
78	0x3db1dc65	0.08684615
79	0x3e4e5d8e	0.20152876
80	0xbe0041f1	-0.12525155
81	0xbe294ebb	-0.1653394
82	0x3e03c5c4	0.1286841
83	0xbd0804b6	-0.033207618
84	0x3ee424d4	0.44559348
85	0xbea6b4d5	-0.3255984
86	0xbdf9fbfe	-0.12206267
87	0xbeed6323	-0.46364698
88	0xbdfaaa84	-0.122395545
89	0xbe6c7a21	-0.23093463
90	0xbe552c4b	-0.20817678
91	0xbd7d485a	-0.061836578
92	0x3e1409a7	0.14456807
93	0x3e28d5c4	0.16487795
94	0xbe3419fc	-0.17588037
95	0xbe0496f2	-0.12948206
96	0x3e63691b	0.22208063
97	0xbda79b6b	-0.081839405
98	0xbdb017c7	-0.08598285
99	0xbe704ef3	-0.23467617
100	0xbefff09b	-0.49988255
101	0xbeb50daf	-0.35362002
102	0x3e53d7c0	0.20687771
103	0x3d710245	0.058840055
104	0x3e6381f8	0.22217548
105	0xbe29a5d1	-0.1656716
106	0x3e72c66c	0.23708504
107	0x3e08623e	0.13318726
108	0xbe595d56	-0.21227011
109	0xbe1e2355	-0.15443166
110	0x3e784264	0.24244076
111	0x3d3ba21e	0.045808904
112	0x3d991122	0.07473971
113	0xbe67a360	-0.22620916
114	0xbe231d31	-0.15929104
115	0xbda55574	-0.080729395
116	0x3d1b57d7	0.037925567
117	0xbdb8b714	-0.090192944
118	0x3c9af06f	0.018913476
119	0xbc4bd50b	-0.01244093
120	0x3dd3aa3f	0.10335206
121	0x3e1a1fdf	0.1505122
122	0xbc89ae30	-0.016806692
123	0xbde02eab	-0.10946401
124	0xbda9d343	-0.08292248
125	0xbe10e441	-0.14149572
126	0xbdaa0609	-0.08301932
127	0xbe4405e5	-0.19142874
128	0x3e503d4b	0.20335881
129	0xbd4528c9	-0.0481346
130	0x3e55af63	0.20867686
131	0x3d9ac451	0.07556976
132	0xbe524eb9	-0.20537843
133	0x3e2bdf16	0.1678432
134	0x3e12b3f3	0.14326458
135	0xbe415953	-0.1888173
136	0xbeaf6668	-0.34257817
137	0xbeb3abb4	-0.35091937
138	0xbe3c0fb1	-0.18365361
139	0xbd5901ff	-0.05298042
140	0xbe5fc0d0	-0.21850896
141	0xbe9ef4be	-0.31046098
142	0x3e386318	0.18006551
143	0xbe364e97	-0.17803417
144	0xbd2b89c6	-0.041879438
145	0x3d4f7f1f	0.05065834
146	0x3e0036e8	0.12520945
147	0x3e488031	0.19580151
148	0x3e623e1d	0.22094007
149	0xbe44ed67	-0.19231187
150	0x3d7a0345	0.061038274
151	0xbf020b3d	-0.507984
152	0xbf23eb09	-0.6403051
153	0xbbe7b30a	-0.0070709037
154	0x3ecde75b	0.40215573
155	0xbd53c56b	-0.051701944
156	0x3e04bc03	0.12962346
157	0x3ece8b97	0.40340874
158	0x3e8f181d	0.27948084
159	0xbe0645e2	-0.13112596
160	0x3e61be77	0.22045313
161	0x3d5a4e45	0.0532973
162	0x3cff96b7	0.031199796
163	0xbe5add87	-0.21373568
164	0x3dd083ae	0.10181366
165	0xbd1508cb	-0.03638534
166	0xbde38e67	-0.111111455
167	0x3e55532f	0.20832513
168	0x3ec518ce	0.38495487
169	0x3e5679c6	0.2094489
170	0x3db2cf2b	0.087309204
171	0x3e400041	0.18750097
172	0x3ec0b890	0.3764081
173	0xbd7dda9a	-0.061976053
174	0x3eacfd5a	0.33787042
175	0x3e1449ed	0.14481325
176	0xbe398a77	-0.18119226
177	0x3db124db	0.08649608
178	0x3e403ce7	0.18773232
179	0xbe69d014	-0.22833282
180	0x3d66b94e	0.056329064
181	0x3e004c86	0.12529191
182	0x3d342326	0.043978833
183	0xbdb0e448	-0.08637291
184	0x3e01a0b2	0.12658957
185	0x3ef47e71	0.47752717
186	0x3e5690c8	0.20953667
187	0x3b898475	0.0041966983
188	0xbc630d95	-0.013858219
189	0x3d8bd1ed	0.068271495
190	0xbd2f7e25	-0.04284491
191	0x3e9f2185	0.3108026
192	0x3e7ca227	0.24671231
193	0x3e556ffc	0.208435
194	0xbcc4b16d	-0.024010384
195	0xbd5e6cc9	-0.054302964
196	0x3b67f116	0.00353915
197	0xbc6d4349	-0.014481374
198	0x3d6ed4af	0.0583083
199	0x3d8b3217	0.06796663
200	0xbe61924b	-0.22028463
201	0xbdb74e4b	-0.0895048
202	0x3e86cfa8	0.26330304
203	0xbd1a3527	-0.037648346
204	0xbdcaa474	-0.09894648
205	0xbe4a9980	-0.19785118
206	0xbebb0f1c	-0.36534965
207	0xbe5e7831	-0.21725537
208	0xbe7ac69a	-0.24489823
209	0x3d3e9100	0.046525
210	0x3e1e5b83	0.15464596
211	0x3de554c0	0.111978054
212	0xbe5b8881	-0.21438791
213	0xbe155a2e	-0.14585182
214	0xbd1cc776	-0.03827616
215	0x3e703f5d	0.23461671
216	0x3d0fb4dd	0.035084594
217	0xbd80a256	-0.06280963
218	0x3dcd7f6b	0.10034069
219	0xbec9f010	-0.39440966
220	0xbf07105e	-0.5275935
221	0xbe4769bf	-0.19473933
222	0xbee5d143	-0.44886217
223	0xbef20084	-0.47266018
224	0xbe7710eb	-0.24127547
225	0xbea66a58	-0.3250301
226	0xbe277de6	-0.1635662
227	0x3db506b1	0.08839167
228	0xbe2d2c2d	-0.16911383
229	0xbe751ce8	-0.23936808
230	0xbe49b5bc	-0.19698232
231	0x3e393311	0.18085887
232	0x3dee7989	0.11644275
233	0x3e50fe3b	0.20409481
234	0x3e021b42	0.1270571
235	0x3d7b6da6	0.061383866
236	0xbe1ae8e2	-0.151279
237	0xbd72d08e	-0.059280924
238	0xbeda99cc	-0.42695463
239	0xbed19906	-0.4093706
240	0xbe809238	-0.25111556
241	0xbdf3dec3	-0.11907723
242	0xbf0571a7	-0.52126545
243	0xbeaca1b8	-0.33717132
244	0xbd35068e	-0.044195704
245	0xbe2ecd4d	-0.17070504
246	0xbe2247af	-0.15847658
247	0x3da4c3db	0.08045169
248	0xbd939f0d	-0.07208071
249	0x3e195239	0.14972772
250	0xbd9f5991	-0.07780755
251	0xbe362fa9	-0.17791618
252	0xbd2f476d	-0.042792726
253	0xbf0c317d	-0.54763013
254	0xbeb08259	-0.34474447
255	0xbed2c912	-0.4116903

net_attr_layers.bias f4 [16]
0	0x3dfd8d19	0.12380428
1	0x3dcef157	0.10104626
2	0x3e5f5322	0.21809056
3	0xbbb5b84b	-0.005545651
4	0xbe5bafbd	-0.21453758
5	0x3dd1f691	0.10252107
6	0x3e20f393	0.15717916
7	0xbe75767f	-0.23970984
8	0x3d3e52ee	0.046465807
9	0xbde8f3cf	-0.11374628
10	0xbc0b9f04	-0.008521799
11	0xbd5941db	-0.05304132
12	0xbd70c150	-0.058778107
13	0xbdfed52c	-0.12443003
14	0xbe5a39ee	-0.21311161
15	0x3e6d61d0	0.23181844

dev_attr_layers.weight f4 [16, 17]
0	0x3e5df6cf	0.21676181
1	0xbf49f581	-0.78890234
2	0x3ec013e1	0.37515166
3	0xbf969ce3	-1.1766628
4	0xbf8d50ec	-1.104032
5	0xbe71afcd	-0.23602219
6	0x3db89b89	0.09014041
7	0xbe085bf3	-0.13316326
8	0xbe1fa9a4	-0.15592057
9	0xbc9b0541	-0.018923404
10	0xbda56934	-0.080767065
11	0xbda0b26c	-0.07846531
12	0x3bff5c15	0.0077929595
13	0xbd52b7cd	-0.051444817
14	0xbdd425c9	-0.103587694
15	0xbf65c751	-0.8975726
16	0xbe4a1e8b	-0.19738214
17	0x3e530e8c	0.20611018
18	0x3f78653a	0.9702946
19	0xbeb369fb	-0.35041794
20	0x3f7a5c4b	0.9779708
21	0x3f5b5e21	0.85690504
22	0x3e678af8	0.22611606
23	0x3de4d8d0	0.11174166
24	0xbe5739c4	-0.2101813
25	0x3dc52592	0.096263066
26	0x3e6bc028	0.2302252
27	0x3d82ad49	0.06380708
28	0x3e26811b	0.16260187
29	0x3e74d9ff	0.23911284
30	0xbd1838be	-0.03716349
31	0x3d73bcb3	0.05950613
32	0xbf2c8fbd	-0.6740683
33	0xbd4cb8ea	-0.049981035
34	0x3e17f6e5	0.14840277
35	0xbf919897	-1.1374692
36	0x3e542168	0.20715868
37	0xbfc68bdc	-1.5511432
38	0xbfa01a56	-1.2508037
39	0xbe7518f3	-0.23935299
40	0xbe3fa43c	-0.18714994
41	0xbd75abf1	-0.05997843
42	0x3e279c30	0.16368175
43	0x3d264828	0.040596157
44	0xbe3ce6bb	-0.18447392
45	0xbe473ccd	-0.19456787
46	0x3df71a37	0.12065547
47	0xbe38bce1	-0.18040802
48	0xbd99ee0e	-0.075161085
49	0x3e2972dc	0.16547722
50	0xbde5e27f	-0.11224841
51	0xbd93deac	-0.07220206
52	0x3f60f764	0.8787749
53	0xbf26d274	-0.65164876
54	0x3f7dc09f	0.9912204
55	0x3f2db28d	0.6785057
56	0xbe48c2bd	-0.19605537
57	0xbe04fc41	-0.12986852
58	0x3e6fdf3f	0.23425005
59	0xbdefeb6f	-0.11714827
60	0xbe26c740	-0.16286945
61	0x3d70ccfa	0.05878923
62	0x3d88e633	0.06684532
63	0x3e0813b2	0.13288763
64	0x3e3cc7e4	0.18435627
65	0x3df2bca3	0.11852386
66	0xbdd3eebf	-0.103482716
67	0x3cb0360d	0.021510148
68	0x3e091141	0.13385488
69	0x3f674f34	0.9035523
70	0xbecc6336	-0.39919442
71	0x3f83b1d6	1.0288646
72	0x3f0739a2	0.52822316
73	0xbe0d6681	-0.13808633
74	0xbe5fe834	-0.21865922
75	0x3c317fa8	0.010833658
76	0x3ddc1c26	0.107475564
77	0x3d5be856	0.05368837
78	0x3d447320	0.047961354
79	0xbe3c59b6	-0.18393597
80	0xbe67efdc	-0.22650093
81	0x3b8bf2e0	0.0042708963
82	0x3e5223b5	0.20521434
83	0xbed820f7	-0.4221265
84	0xbe109a06	-0.14121255
85	0xbbd373be	-0.0064530065
86	0xbfccfe9d	-1.6015202
87	0x3c3d7c87	0.011565334
88	0xbfb6dbfa	-1.4285882
89	0xbf83bf09	-1.0292674
90	0x3e4dbb1a	0.20090905
91	0xbe640481	-0.22267343
92	0x3e260e0f	0.162163
93	0xbe2f29f3	-0.17105846
94	0x3dba00b3	0.090821646
95	0x3e522ba6	0.20524463
96	0x3b5f3374	0.0034057768
97	0x3e61f4fb	0.22066109
98	0xbe539ccd	-0.20665284
99	0xbd8a8479	-0.067635484
100	0x3e767d61	0.24071266
101	0xbd586f81	-0.052840713
102	0xbcf601ce	-0.030030157
103	0x3e2c8206	0.16846475
104	0xbf0eb0b4	-0.5573838
105	0x3f5d911b	0.8654954
106	0x3f2ee533	0.6831848
107	0xbe0b913c	-0.13629621
108	0xbe499a70	-0.1968782
109	0x3cd6e62c	0.026232801
110	0x3d932a60	0.07185817
111	0xbde55699	-0.11198158
112	0xbd8afaa8	-0.0678609
113	0x3e27bb61	0.16380073
114	0x3c9e45a3	0.019320315
115	0x3c334971	0.010942803
116	0x3c0d62c0	0.008629501
117	0x3ed0aaad	0.40755215
118	0xbe6984df	-0.22804593
119	0xbdaaa941	-0.08333064
120	0x3e0444a3	0.12916808
121	0x3f40bd3a	0.75288737
122	0xbec9d218	-0.394181
123	0xbeb3ae74	-0.35094035
124	0x3e6cca5c	0.23124069
125	0x3dad0438	0.0844807
126	0x3e310dcd	0.17290421
127	0xbdf0770f	-0.117414586
128	0xbdcae409	-0.099067755
129	0x3db68fe7	0.08914166
130	0xbe257947	-0.16159545
131	0xbe225a05	-0.15854652
132	0xbc3fedb7	-0.0117143905
133	0xbddcf72e	-0.10789333
134	0xbf51ecb3	-0.820018
135	0x3e13509b	0.14386217
136	0x3e33d1a6	0.17560443
137	0xbfcd8421	-1.6055948
138	0x3d8a83dc	0.067634314
139	0xbfe29a07	-1.7703255
140	0xbf9f52f0	-1.2447186
141	0x3d7ce976	0.061746083
142	0x3dea372c	0.114363045
143	0xbcfb2c41	-0.03066075
144	0xbdc4607b	-0.09588715
145	0x3e0a6405	0.13514717
146	0xbe45ca81	-0.1931553
147	0x3e1cf73c	0.15328687
148	0xbdc0b3c3	-0.09409287
149	0x3b7346c8	0.0037121046
150	0xbd823183	-0.063571
151	0x3ee9db40	0.45675087
152	0xbd961b1a	-0.07329388
153	0x3e137c34	0.14402848
154	0x3f540a65	0.8282836
155	0xbe98a831	-0.2981582
156	0x3fa59b11	1.2937948
157	0x3f3f77ba	0.74792063
158	0xbe352da6	-0.17693195
159	0x3e4741c4	0.19458681
160	0x3e429d97	0.19005428
161	0xbe3da1c5	-0.18518741
162	0xbc999716	-0.018748801
163	0xbe74e92e	-0.23917076
164	0xbe4b4dec	-0.19853944
165	0x3d3fdf70	0.046843946
166	0x3d842491	0.06452287
167	0x3d3d50e7	0.046219733
168	0x3ecfa4d3	0.40555438
169	0x3e6520cf	0.22375797
170	0xbd0354e8	-0.032063395
171	0x3ec8b231	0.3919845
172	0xbec9c121	-0.39405158
173	0x3f6d5fe7	0.9272446
174	0x3f45e8de	0.7730845
175	0xbe2f9bad	-0.1714923
176	0x3dba29b0	0.090899825
177	0xbdfdc2f4	-0.123907
178	0xbe4e5e92	-0.20153263
179	0xbe07a776	-0.13247475
180	0x3e6f846e	0.23390362
181	0x3e544f3a	0.20733348
182	0x3e5e663d	0.21718688
183	0x3e11c9bd	0.14237113
184	0x3e19587c	0.1497516
185	0x3f295238	0.6614108
186	0xbe08a715	-0.13344987
187	0x3d6f716e	0.058457784
188	0xbf8744ee	-1.0567911
189	0xbeceea6f	-0.40413234
190	0xbef79fe3	-0.4836417
191	0xbe91d4c0	-0.28482628
192	0x3dffb4c6	0.12485652
193	0xbdc0ed84	-0.094203025
194	0xbe122c9c	-0.1427483
195	0x3d06019a	0.03271637
196	0xbe1263ba	-0.14295855
197	0xbe21b200	-0.15790558
198	0x3e0174cf	0.12642215
199	0xbd26e159	-0.040742252
200	0x3e62f1c5	0.2216254
201	0x3e59495a	0.21219388
202	0x3f56ec67	0.8395447
203	0x3daaf295	0.0834705
204	0x3d2fcfbc	0.04292272
205	0xbf4fd9b8	-0.8119159
206	0xbe734a47	-0.23758803
207	0xbeb0820d	-0.3447422
208	0xbe3240d9	-0.1740755
209	0x3e66ea24	0.22550255
210	0xbd80ba49	-0.06285531
211	0xbdd1f7e9	-0.10252363
212	0xbd7092a5	-0.0587336
213	0xbdeff95d	-0.11717484
214	0x3d28ebbd	0.041240443
215	0x3e3962a3	0.18104033
216	0x3e42358b	0.18965738
217	0x3de40db8	0.11135429
218	0xbe1f6324	-0.15565163
219	0x3f056c86	0.5211872
220	0xbd5a445b	-0.053287845
221	0xbd33b863	-0.043877017
222	0x3e0d2bd1	0.13786246
223	0xbf841217	-1.031802
224	0x3eb6918d	0.3565792
225	0x3de96c04	0.113975555
226	0xbe1d2570	-0.15346313
227	0xbe4e7aaf	-0.20163988
228	0x3e5865db	0.21132605
229	0xbe6b2dbb	-0.22966664
230	0x3e3b5a14	0.18296081
231	0xbc059567	-0.008153296
232	0xbce71187	-0.0282066
233	0x3e1b5776	0.15170082
234	0xbcb7a3d5	-0.022416988
235	0x3e3a72dc	0.18207878
236	0xbe428dc6	-0.18999395
237	0xbe57a027	-0.21057187
238	0x3e0e296a	0.13882986
239	0xbf0c4c72	-0.54804146
240	0xbe3821f9	-0.1798171
241	0xbf184705	-0.5948337
242	0xbec25414	-0.37954772
243	0xbdeef3be	-0.11667584
244	0xbcfe3338	-0.031030282
245	0x3e6bf7ec	0.23043793
246	0x3e26dbb1	0.16294743
247	0xbc154930	-0.009111688
248	0xbe699642	-0.22811225
249	0x3c2e2898	0.0106297955
250	0xbe291fcb	-0.16516034
251	0x3e49f61d	0.19722791
252	0xbdc440a5	-0.095826425
253	0xbeed0768	-0.46294713
254	0xbd5c7bcd	-0.053829003
255	0xbb8811b8	-0.004152503

dev_attr_layers.bias f4 [16]
0	0x3e3748d3	0.17898874
1	0x3e6e3c29	0.23265137
2	0xbc97fad3	-0.01855222
3	0xbe824989	-0.25446728
4	0xbe3ba41b	-0.1832432
5	0xbe00a809	-0.125641
6	0xbe472dd3	-0.19451074
7	0xbdb623e1	-0.08893562
8	0xbe78804c	-0.24267691
9	0xbe832101	-0.25611117
10	0xbe58d0da	-0.2117342
11	0xbe9aae26	-0.3021099
12	0xbe25b36e	-0.16181728
13	0x3dbf5f5f	0.093443625
14	0x3e7dc2ee	0.24781391
15	0xbdf4b968	-0.11949426

pin_attr_layers.weight f4 [17, 16]
0	0xbf60e502	-0.8784944
1	0xbf99e3b8	-1.2022619
2	0x3e625998	0.2210449
3	0xbf6399a2	-0.889063
4	0xbfea774b	-1.8317655
5	0xbe5fb754	-0.21847278
6	0xbf37e488	-0.71833086
7	0x40207eb8	2.5077343
8	0xbf0343a0	-0.5127506
9	0xbfade5e3	-1.3585781
10	0x3f40bee5	0.7529128
11	0xbd7a1f58	-0.061065048
12	0xbeec0305	-0.46096054
13	0xbef01c83	-0.46896753
14	0xbfb91be6	-1.4461639
15	0xbf87fb61	-1.062359
16	0x3e9947f7	0.29937717
17	0x3d48e406	0.049045585
18	0x3f5e2924	0.86781526
19	0xbe5d34a4	-0.21602112
20	0xbf5c67c1	-0.86095816
21	0x3ed8fb3f	0.42379186
22	0x3f739f10	0.95164585
23	0xbfa828bb	-1.313743
24	0x3f2e463e	0.6807593
25	0xbfa5ddd5	-1.2958323
26	0xbd933540	-0.07187891
27	0x3f13fe15	0.57809573
28	0x3f1d26b4	0.6138718
29	0x3dbbffe5	0.091796674
30	0x3ff301ab	1.8984884
31	0x3f293e47	0.6611065
32	0xc0034759	-2.0512297
33	0x40224853	2.5356643
34	0xbf8c9ccd	-1.0985352
35	0x3f68830c	0.9082496
36	0xbe8fd1aa	-0.28089648
37	0xc020b9a8	-2.5113316
38	0x3f93bec0	1.1542587
39	0x3e9be99c	0.30451667
40	0xbf83dfa5	-1.0302626
41	0x3feb9e6f	1.8407725
42	0x3fda67ae	1.706289
43	0xbe90e670	-0.2830081
44	0x3ecd4770	0.40093565
45	0x3f12215e	0.57082164
46	0x3f2d5111	0.6770182
47	0x3f9bc9c3	1.2170948
48	0xbed3dbc9	-0.4137862
49	0x3f04b671	0.51840883
50	0xbf3397ea	-0.7015368
51	0xbedd5bc9	-0.4323409
52	0x3e10df5c	0.14147705
53	0x3d919ec7	0.071103625
54	0x3f1037e8	0.56335306
55	0xbf142179	-0.57863575
56	0xbf8aba57	-1.0838116
57	0xbec7214f	-0.388926
58	0x3f50073f	0.81261057
59	0x3fbfc25b	1.4981188
60	0x3d33cc62	0.043896087
61	0x3fb8df96	1.4443233
62	0x3e6d98fd	0.23202892
63	0x3f01a9e0	0.50649834
64	0xbfa3ac55	-1.2786967
65	0xbd1d661f	-0.03842747
66	0x3ff4f76e	1.913801
67	0x3eacf9f8	0.3378446
68	0x3e000eb6	0.12505612
69	0xbf431c5c	-0.7621515
70	0xbf986445	-1.19056
71	0x3f468e34	0.77560735
72	0x3ee9541f	0.45571992
73	0x3e802b4c	0.25033033
74	0xbfae386e	-1.3610971
75	0x3fe6a280	1.8018341
76	0xbd984097	-0.074341945
77	0xbe2066a5	-0.15664156
78	0xbf5eefbb	-0.8708455
79	0xbf241ef3	-0.64109725
80	0xbed44195	-0.41456285
81	0xbf30b371	-0.69023806
82	0xbe6b79a3	-0.2299562
83	0xc00b06b3	-2.172284
84	0x3db39345	0.08768324
85	0x3f8c0122	1.0937846
86	0xbdf1177d	-0.11772058
87	0xbe98e7c4	-0.29864323
88	0xbf74207b	-0.9536206
89	0xbdbd625e	-0.09247278
90	0xbf8221bd	-1.0166546
91	0xbbfb845a	-0.0076756896
92	0xbf04aa1f	-0.51822084
93	0x3f56ec43	0.83954257
94	0x3d6fb577	0.058522668
95	0xbfd58927	-1.668248
96	0x40084bc6	2.1296248
97	0xbfc252a5	-1.5181471
98	0x3e0e0eca	0.13872829
99	0xbf970246	-1.1797569
100	0xbf079d1e	-0.52974117
101	0x3f76676f	0.9625158
102	0x3e8f1289	0.2794383
103	0xbf1262bd	-0.5718191
104	0xc032cad1	-2.793629
105	0xbf360e39	-0.7111545
106	0x3f060589	0.52352196
107	0xbfdaf34e	-1.7105501
108	0x3f56a6fa	0.83848536
109	0xbe8a292c	-0.26984537
110	0x3dfc07b6	0.12306158
111	0x3f60313a	0.87575114
112	0x3e1af63f	0.15132998
113	0x3f3d48e3	0.7393934
114	0x3e8bd42d	0.27310315
115	0x402ecc7d	2.731231
116	0x3edd2fca	0.43200523
117	0xbe9e4d20	-0.30918217
118	0xbdc5cc63	-0.09658124
119	0x3fc55dcd	1.5419251
120	0xbddeb595	-0.10874478
121	0xbed67aa1	-0.41890433
122	0x3fb81ec1	1.4384385
123	0xbf34f3a4	-0.70684266
124	0xbfa03ff2	-1.2519515
125	0x40419a65	3.0250485
126	0x3fac5237	1.346259
127	0x3f5b090f	0.855607
128	0x3ea4e10a	0.3220294
129	0x3ee46189	0.44605663
130	0x3fc2f054	1.5229592
131	0x3fa3e718	1.2804899
132	0xbdede585	-0.11616043
133	0x3faf6dbc	1.3705363
134	0xbef63d86	-0.48093814
135	0xbf7d8861	-0.9903622
136	0xbfae9d7e	-1.3641813
137	0x3c067100	0.008205652
138	0xbecfcce8	-0.4058602
139	0xbf3609bb	-0.711086
140	0xbeb2fc11	-0.34957936
141	0x3ec26e70	0.37974882
142	0x3f7fd264	0.99930406
143	0x3fa33946	1.2751853
144	0x3f75a151	0.95949274
145	0x3dd3fd0d	0.10351
146	0x3f543ba3	0.829035
147	0x4005e573	2.0921295
148	0x3f4b9968	0.79530954
149	0x3e8efe6a	0.27928478
150	0x3e3eec2f	0.18644784
151	0x3eb59cfb	0.3547133
152	0x3db9a0ae	0.0906385
153	0x3fdf0239	1.7422553
154	0xbfa20c54	-1.2660012
155	0x3ec74016	0.3891608
156	0x3eaf8d52	0.34287506
157	0xbfbac29a	-1.4590638
158	0xbfbf3020	-1.4936562
159	0xbe62b2ce	-0.22138521
160	0x3e66a405	0.22523506
161	0xbd9e32d3	-0.07724538
162	0x3f7c567a	0.9856945
163	0x3fa3a087	1.2783364
164	0x3e9388a5	0.2881519
165	0x3f5e7a09	0.8690496
166	0xbf4f48e1	-0.8097058
167	0xbfb705ab	-1.4298605
168	0x3eeb0424	0.45901597
169	0x3f07eb37	0.53093284
170	0xbfae44fc	-1.3614802
171	0x3ffa665f	1.9562491
172	0x3fe25de0	1.7684898
173	0xbf7c5d4b	-0.98579854
174	0xbf9e5880	-1.2370758
175	0xc01351ec	-2.301875
176	0xba84365c	-0.0010087001
177	0xbf5973f6	-0.8494257
178	0xbfd466f6	-1.6593921
179	0x3e9cd21f	0.3062906
180	0x3f974d3c	1.1820445
181	0x3ea6ed01	0.32602695
182	0xbec76598	-0.38944697
183	0x4036ae2c	2.8543806
184	0x3f530997	0.8243651
185	0x3f4c6079	0.79834706
186	0x3ff1cb7b	1.8890222
187	0x3f17ed2e	0.5934628
188	0x3d8ea6fd	0.06965444
189	0xbfcd3d52	-1.6034338
190	0xbedc119b	-0.42982182
191	0x3f137f24	0.57615876
192	0x3eb0505e	0.34436315
193	0xc04680b6	-3.101606
194	0xbfbab76c	-1.4587226
195	0xbfb74611	-1.4318258
196	0xbf1b6cab	-0.6071269
197	0xbe84fc5d	-0.25973788
198	0xbf38119a	-0.7190186
199	0xbec58ba3	-0.38583097
200	0x3f05fa6e	0.5233525
201	0xbf5238a5	-0.8211768
202	0xbef115bb	-0.47086892
203	0x3f1a053b	0.6016423
204	0xbe90a551	-0.28251126
205	0x3f44eebf	0.769268
206	0xbf445310	-0.76689243
207	0xbf73118f	-0.9494867
208	0x3c8a965b	0.016917398
209	0x3da4687b	0.080277406
210	0x3f3eadeb	0.7448413
211	0x3fac38da	1.345485
212	0x3e01dd99	0.12682189
213	0xc01ceebe	-2.4520717
214	0x3ed4fad3	0.41597614
215	0x3ff3864a	1.9025357
216	0xbf3c1355	-0.73467
217	0x3d36ea66	0.044657134
218	0xbfc2b40e	-1.5211198
219	0x3eb217c5	0.3478376
220	0x3f3d7c42	0.7401773
221	0x3fb54607	1.4161996
222	0x3f2ef32b	0.68339795
223	0xbe0d91e3	-0.13825183
224	0x3f6bda49	0.9212995
225	0x3f073b06	0.5282444
226	0xbc06d05b	-0.008228387
227	0xbfb983b6	-1.449332
228	0xbf1aed3c	-0.6051824
229	0xbe378c08	-0.17924511
230	0x3e4c591e	0.1995587
231	0xbf9f834f	-1.2461947
232	0xbed4465f	-0.4145994
233	0x3fba59f3	1.45587
234	0x3ea9ce7a	0.33165342
235	0xbf80034e	-1.0001009
236	0xbf3123cc	-0.69195247
237	0xbef1a8c6	-0.47199076
238	0xbfa50c2f	-1.2894343
239	0x3f89c394	1.0762811
240	0xbf888b07	-1.0667428
241	0xbffea2c8	-1.9893427
242	0x3e98396a	0.29731303
243	0x3ede7155	0.4344584
244	0x3b5e6278	0.0033933204
245	0xbf8312e9	-1.0240146
246	0x3e656cbd	0.22404762
247	0xbf41670a	-0.7554785
248	0x3faf0ce5	1.367581
249	0xbea3b46a	-0.31973583
250	0xbf69c06d	-0.91309243
251	0x3ff5a8a7	1.9192094
252	0xbfd363ed	-1.651487
253	0x40097455	2.1477253
254	0xbf2910db	-0.66041344
255	0x3de8803c	0.11352584

node_encoder.weight f4 [4, 16]
0	0x3f5b1fae	0.85595214
1	0xbf2b0827	-0.66809314
2	0x3fc5f823	1.546635
3	0x3f651350	0.89482594
4	0xbe5df1f9	-0.21674336
5	0x3f76d83b	0.9642369
6	0x3f2533c4	0.64532113
7	0x3d03e8b1	0.032204334
8	0xbf9076f2	-1.1286299
9	0xc00c7287	-2.1944902
10	0xbecb8583	-0.397503
11	0xbe93c3f3	-0.28860435
12	0xbccff6fb	-0.025386324
13	0x3f8ea8e6	1.1145294
14	0xbd9bc74c	-0.07606372
15	0x3fbc8620	1.4728432
16	0xbf259a87	-0.64688915
17	0xc002cc99	-2.0437376
18	0xbfd7ed99	-1.6869384
19	0xbf4872e4	-0.7830031
20	0x3edd4947	0.4321997
21	0xbee9c5a5	-0.45658603
22	0x3e910587	0.2832453
23	0xc0151f6d	-2.330043
24	0xbef01656	-0.4689204
25	0xbef29628	-0.47380185
26	0x3f9df7b7	1.2341222
27	0x3fa2dc1d	1.2723423
28	0xbf99f595	-1.2028071
29	0xbe62d380	-0.22150993
30	0xbf7de648	-0.99179506
31	0x3fa495ec	1.2858253
32	0x3f9d7c6c	1.2303596
33	0xbf96fc38	-1.1795721
34	0xbf855e5d	-1.0419422
35	0xbf6ac4c1	-0.9170647
36	0xbfbee6cc	-1.4914184
37	0xc00b4fed	-2.1767533
38	0x3f993027	1.196782
39	0xbeb23b6d	-0.34810963
40	0x3f24f6c7	0.6443905
41	0xbf3ffb47	-0.74992794
42	0xbc8c3c41	-0.017118575
43	0x3f8cfcc5	1.1014639
44	0x3f490266	0.78519285
45	0xbe6ad2a1	-0.22931911
46	0xbfaed2d6	-1.3658092
47	0xbf3f19ae	-0.7464856
48	0xbf360b38	-0.7111087
49	0xbec5f92e	-0.38666672
50	0x3f753471	0.95783144
51	0xbf529162	-0.82253087
52	0xc01902f3	-2.390805
53	0x3ea4fda7	0.3222477
54	0x3ff00cbd	1.8753887
55	0x3f8d59ab	1.104299
56	0xbf05ba6d	-0.5223759
57	0xbf3d7c76	-0.7401804
58	0x3e2640cd	0.16235657
59	0xbe72af80	-0.2369976
60	0x3f028b15	0.5099347
61	0x3fd5d709	1.6706249
62	0x3fcbca19	1.592105
63	0xbed51722	-0.4161921

gnn_layers.0.lin_l.weight f4 [32, 32]
0	0x3c41339f	0.011792093
1	0x3c7cd36d	0.015431267
2	0x3d85d9aa	0.06535657
3	0xbe084f65	-0.13311537
4	0xbda5330c	-0.08066377
5	0x3de9a570	0.11408508
6	0xbe5f2493	-0.21791296
7	0x3db42da3	0.08797767
8	0x3e20acf7	0.15690981
9	0x3e2bf6bb	0.16793339
10	0x3d04d576	0.032430135
11	0xbe373e65	-0.17894895
12	0x3d8231c0	0.06357145
13	0xbd903f61	-0.070433386
14	0x3bc6f384	0.00607151
15	0x3de19937	0.110155515
16	0xbcfaed14	-0.030630626
17	0xbe2fae3e	-0.17156312
18	0xbe037217	-0.1283649
19	0x3e144354	0.14478809
20	0xbc26e162	-0.010185571
21	0x3e50c16c	0.20386285
22	0x3c98437c	0.018586867
23	0xbded2b7f	-0.11580562
24	0x3d839d5b	0.064264975
25	0x3e7bfbeb	0.24607818
26	0x3dbca617	0.092113666
27	0x3d804bd2	0.062644616
28	0xbdd65da3	-0.104670785
29	0xbe0265bf	-0.12734126
30	0x3e03c98c	0.12869853
31	0xbdeabe71	-0.11462105
32	0x3bfefa07	0.0077812704
33	0x39b2ba86	0.00034089776
34	0x3db74c98	0.08950156
35	0x3d257eaa	0.040404
36	0xbdd337d8	-0.10313386
37	0xbd2df5ad	-0.042470623
38	0x3df607d6	0.12013213
39	0x3d0ac627	0.03388038
40	0x3dac055a	0.08399458
41	0xbdbb7191	-0.091525204
42	0x3de47a0d	0.11156092
43	0xbd91443d	-0.070930935
44	0xbd8a7437	-0.067604475
45	0x3cf67965	0.030087182
46	0xbcfbbd8b	-0.03073003
47	0xbd9dc6e3	-0.0770395
48	0x3daabf02	0.08337213
49	0xbe24719f	-0.16058968
50	0x3e6a8a37	0.22904287
51	0xbd55503b	-0.052078467
52	0xbe18c428	-0.14918578
53	0x3ea5c05e	0.32373327
54	0x3e3f7c99	0.18699874
55	0xbe2be5fa	-0.16786948
56	0x3ebc48e2	0.36774355
57	0xbe75aff4	-0.23992902
58	0xbc096270	-0.008385286
59	0x3ef2db24	0.47432816
60	0x3e772dc8	0.24138558
61	0x3d4cf4ec	0.050038263
62	0x3e15f2c3	0.14643387
63	0x3e67efad	0.22650023
64	0x3ea30a2c	0.31843698
65	0xbd319d09	-0.04336265
66	0x3e59597f	0.21225546
67	0x3ecc2d77	0.39878437
68	0xbe42d7ae	-0.19027588
69	0x3eb3a54b	0.35087046
70	0xbd155593	-0.036458563
71	0x3e465b27	0.1937071
72	0xbdf7c227	-0.120975785
73	0xbe098674	-0.13430196
74	0xbde5a64b	-0.112133585
75	0xbea934a4	-0.33047974
76	0x3e7010f1	0.23443963
77	0x3e6cf5f4	0.23140699
78	0xbd0a48ff	-0.03376102
79	0x3de9078b	0.11378392
80	0xbe44de8b	-0.19225518
81	0xbd497ec1	-0.049193148
82	0x3d8677e1	0.06565834
83	0xbda6bb35	-0.08141176
84	0xbd69411b	-0.056946855
85	0x3ef14245	0.47120872
86	0x3e283362	0.16425851
87	0xbe34e0f8	-0.17663944
88	0x3da89e27	0.0823329
89	0xbbdf4392	-0.006813475
90	0xba9f772d	-0.0012166254
91	0x3dd94b36	0.106100485
92	0xbda352db	-0.07974788
93	0xbdaaad02	-0.0833378
94	0xbd8c9b29	-0.06865532
95	0x3ec95e9b	0.3932999
96	0x3c68cdf0	0.014209256
97	0xbc420834	-0.011842776
98	0x3c715722	0.014730247
99	0xbe098be4	-0.1343227
100	0xbda211de	-0.07913564
101	0x3d9ec9f3	0.077533625
102	0x3e25a73d	0.16177078
103	0xbe0659aa	-0.13120142
104	0xbddc6063	-0.10760572
105	0x3db58c5c	0.08864662
106	0x3d03624c	0.032076165
107	0x3e1dd437	0.15412985
108	0x3c9804eb	0.018557033
109	0xbbf90d90	-0.0076004937
110	0xbe63df44	-0.22253138
111	0xbd923fcd	-0.07141075
112	0xbddcb470	-0.10776603
113	0x3ed801ac	0.42188776
114	0xbef73ddc	-0.48289382
115	0x3ee38cae	0.44443268
116	0xbc55a8c1	-0.013040722
117	0xbeb010c1	-0.34387782
118	0x3d0a0c23	0.03370298
119	0x3d5a5960	0.05330789
120	0xbebab37b	-0.36465058
121	0x3ec7190e	0.38886303
122	0x3d4f2f1b	0.050582033
123	0xbe286cda	-0.16447774
124	0xbe80741c	-0.25088584
125	0x3ebcb607	0.36857626
126	0xbddcea75	-0.10786907
127	0x3c427e90	0.011870995
128	0x3af84c23	0.0018943589
129	0x3adac3c6	0.0016690425
130	0x3d484f33	0.048903655
131	0xbcbb96ef	-0.02289912
132	0x3dce4d1f	0.100733034
133	0xbd8da002	-0.06915285
134	0xbd419496	-0.047260843
135	0xbd39cbef	-0.0453605
136	0x3d2e7be1	0.04259861
137	0x3e10ccec	0.14140671
138	0x3eceab28	0.40364957
139	0x3e0b7f58	0.13622797
140	0x3e1bf092	0.15228489
141	0xbdcfdf43	-0.10150006
142	0xbc909e75	-0.017653683
143	0xbdc7f5c8	-0.09763676
144	0x3e9daf6f	0.30797908
145	0xbea1e8cc	-0.31622922
146	0x3f0f383f	0.559452
147	0xbe8d23f0	-0.2756648
148	0xbe1a788c	-0.15085047
149	0x3e502e4d	0.20330162
150	0xbe21d74c	-0.15804785
151	0xbee7e7f6	-0.4529416
152	0x3f17ce14	0.59298825
153	0xbe9c7d21	-0.30564216
154	0xbd365750	-0.04451686
155	0x3e38f34d	0.18061562
156	0x3e0326c1	0.12807752
157	0xbe7a87a3	-0.24465804
158	0x3e2c3cff	0.16820143
159	0x3d5d38dd	0.054009307
160	0xbee22956	-0.44172162
161	0x3dce0079	0.10058684
162	0xbeb20080	-0.34766006
163	0xbd1898c9	-0.037255082
164	0x3e813a8d	0.25239983
165	0x3d1a57bb	0.037681323
166	0x3e0d7a94	0.13816291
167	0xbe31f3fc	-0.17378229
168	0xbd5eb2bf	-0.054369684
169	0x3dfa2f44	0.122160465
170	0x3cf67c1b	0.030088475
171	0x3e5fe02d	0.2186286
172	0xbe728163	-0.2368217
173	0x3dc9072b	0.0981582
174	0xbe22cd7c	-0.15898699
175	0xbd178c6c	-0.03699915
176	0x3e15ca8e	0.1462805
177	0xbd7ac59b	-0.061223608
178	0x3dc9c2fe	0.09851645
179	0x3e2f82c3	0.17139725
180	0x3e3d490f	0.18484901
181	0xbe9efdd7	-0.3105304
182	0xbe20e650	-0.15712857
183	0x3ca558f4	0.020184018
184	0xbb88b04a	-0.004171406
185	0xbc24f306	-0.010067707
186	0x3d1dc4e1	0.038517836
187	0xbeb86424	-0.360139
188	0xbdbc7fa5	-0.09204034
189	0xbd851ada	-0.06499262
190	0x3df28a10	0.118427396
191	0xbdcc7061	-0.09982372
192	0x3e242bfd	0.16032405
193	0x3d5e91d6	0.0543383
194	0x3dbe8abf	0.093038075
195	0xbc2b03ac	-0.010437887
196	0xbd2a5b36	-0.04159089
197	0xbd767d6e	-0.060178213
198	0xbe12b905	-0.14328392
199	0x3e59cadb	0.2126879
200	0xbdda0aaf	-0.10646569
201	0x3d8e0bd5	0.069358505
202	0xbebbbd90	-0.36668062
203	0x3dc00635	0.09376184
204	0x3e41123e	0.18854615
205	0xbd9f68b5	-0.07783643
206	0x3e1a6c0a	0.15080276
207	0xbc88c613	-0.016696012
208	0xbd8af7c0	-0.06785536
209	0x3dbc2c04	0.09188083
210	0x3e88d7eb	0.26727232
211	0x3e589ebb	0.21154301
212	0xbe21ab81	-0.1578808
213	0x3e78a37d	0.24281116
214	0x3e6cd097	0.23126446
215	0xbdbfda4a	-0.09367807
216	0x3ec07fb6	0.37597436
217	0xbe07d8dd	-0.1326632
218	0x3db312cb	0.08743819
219	0x3e92f51d	0.28702632
220	0x3d7c5adc	0.061610088
221	0xbc5a1a60	-0.013311952
222	0x3e8d332c	0.27578104
223	0x3e8fd799	0.28094175
224	0x3dd45b6f	0.10369002
225	0x3e0487a4	0.12942368
226	0xbe1af9bc	-0.15134329
227	0xbd8756a4	-0.06608322
228	0xbd94c355	-0.07263819
229	0x3d8789f9	0.06618113
230	0x3d2fa3cb	0.042880815
231	0xbe27f2a6	-0.16401157
232	0x3d362362	0.044467337
233	0xbdecc215	-0.11560456
234	0xbdc718a0	-0.09721494
235	0x3e37d6c3	0.17953019
236	0xbde43be8	-0.11144239
237	0xbd47d37b	-0.048785668
238	0xbd470de5	-0.048597235
239	0xbd7485ee	-0.059698038
240	0xbd6cf04d	-0.057846356
241	0x3e5a14f0	0.2129705
242	0xbe6c6451	-0.23085143
243	0x3e5f36ba	0.2179822
244	0x3de24e8f	0.1105014
245	0x3a84564e	0.0010096522
246	0xbe3ae44e	-0.18251154
247	0x3e198e48	0.14995682
248	0xbeb41755	-0.3517405
249	0x3cabddf0	0.020979851
250	0x3bd634b3	0.006537044
251	0xbe4e4aa8	-0.20145667
252	0x3cf38751	0.02972761
253	0x3d8719ab	0.06596693
254	0xbe1f79ea	-0.1557385
255	0xbe2f3c90	-0.17112947

gnn_layers.0.lin_l.bias f4 [32]
0	0x3d11861f	0.0355283
1	0xbe3bd6ca	-0.18343654
2	0x3e0838e2	0.13302949
3	0x3c050c4f	0.00812061
4	0x3d209ba7	0.03921094
5	0x3e203e64	0.156488
6	0xbe262b04	-0.16227347
7	0x3d36313a	0.04448054
8	0xbe23a549	-0.1598102
9	0x3e1d04c2	0.15333846
10	0x3dbf90fc	0.093538254
11	0x3e074030	0.1320808
12	0xbd2da385	-0.042392273
13	0x3c8b095b	0.016972234
14	0xbdea8a1d	-0.11452124
15	0x3d6060f5	0.054779965
16	0x3e4849b0	0.1955936
17	0xbe0ff7e5	-0.14059408
18	0xbd9f86ab	-0.07789358
19	0x3cde289b	0.027118972
20	0xbd014dba	-0.031568266
21	0x3cca83af	0.024720995
22	0x3e36ee4d	0.17864342
23	0x3c122c9f	0.008921771
24	0x3d0d0158	0.03442511
25	0x3d7ffdfd	0.06249808
26	0xbc89ab93	-0.016805446
27	0x3dfcefe7	0.12350445
28	0x3de5148d	0.111855604
29	0x3d96eb2a	0.07369073
30	0x3b9fb500	0.004873872
31	0x3e687532	0.22700956

gnn_layers.0.lin_r.weight f4 [32, 32]
0	0xbe170a76	-0.14750084
1	0x3dcd9ba3	0.10039451
2	0x3d832204	0.06402972
3	0x3e1b3c6b	0.15159766
4	0xbdcfd6c7	-0.101483874
5	0x3d6507b1	0.05591554
6	0xbe162292	-0.14661625
7	0x3e0c9e6b	0.13732307
8	0x3cffc20b	0.031220457
9	0xbdb73c11	-0.08947004
10	0x3ac92d5c	0.0015348601
11	0x3cc94245	0.024567733
12	0x3d501411	0.050800387
13	0x3e3f0734	0.18655092
14	0x3dfb0399	0.122565456
15	0x3d816ac8	0.06319195
16	0x3df21a9e	0.11821483
17	0xbe12b5e7	-0.14327203
18	0x3d9198ae	0.071091995
19	0x3cb91d2b	0.022596916
20	0x3e130ba4	0.1435991
21	0x3d9b7724	0.07591084
22	0x3c61c160	0.013779014
23	0x3dcd7819	0.100326724
24	0xbd72d9c7	-0.05928972
25	0x3dbee5ce	0.093211755
26	0x3d14ff2e	0.03637617
27	0xbd04a74d	-0.032386113
28	0x3ddbedf6	0.10738747
29	0xbe077ec9	-0.13231958
30	0xbd3f547f	-0.04671144
31	0x3de176ed	0.110090114
32	0x3d9df774	0.077132136
33	0xbe1d43f3	-0.15357952
34	0xbc347e01	-0.01101637
35	0xbcf1d45f	-0.029520212
36	0x3e28065d	0.16408677
37	0xbe52bdd2	-0.20580223
38	0xbd46b2fe	-0.048510544
39	0xbde0ba01	-0.109729774
40	0xbdb55e98	-0.08855933
41	0x3cf1f562	0.029535953
42	0xbdeee907	-0.1166554
43	0x3e27aa0f	0.16373466
44	0xbda9b04a	-0.082855776
45	0x3c9cae61	0.01912612
46	0xbdf1e682	-0.11811544
47	0xbc87e617	-0.016589208
48	0x3e1b04be	0.15138528
49	0x3d3d4244	0.046205774
50	0x3e97db18	0.29659343
51	0xbc88257e	-0.01661944
52	0xbdf20d2c	-0.118189186
53	0x3e6fa71d	0.23403592
54	0xbe91fa48	-0.28511262
55	0x3e661fda	0.22473088
56	0x3d708d98	0.058728784
57	0xbe966afd	-0.293785
58	0xbe9d6dc0	-0.30747795
59	0xbe9324e5	-0.28739086
60	0x3c692c8d	0.014231813
61	0xbdacae48	-0.08431679
62	0xbc894920	-0.016758502
63	0xbda660bd	-0.0812392
64	0xbcf1b1c4	-0.02950371
65	0x3d33d9b2	0.043908782
66	0xbd149110	-0.036271155
67	0x3dbeb8f2	0.09312619
68	0x3d00e8f2	0.031472154
69	0x3dc4ab66	0.09603004
70	0x3d87fcaa	0.06639989
71	0xbd1a303a	-0.03764365
72	0x3e2ef343	0.17084984
73	0xbd3abf12	-0.045592375
74	0xbdbf91fb	-0.093540154
75	0x3d8c00b3	0.06836071
76	0x3b3d2f63	0.0028867356
77	0xbe041bf2	-0.12901285
78	0x3bd71292	0.006563493
79	0xbd657e31	-0.05602855
80	0xbe5d2588	-0.21596348
81	0xbdd6ff3f	-0.10497903
82	0xbe505929	-0.20346512
83	0xbde121ea	-0.10992797
84	0xbd0fc7ad	-0.035102535
85	0x3d0a82df	0.033816215
86	0xbe296a9e	-0.16544577
87	0x3e3a89cc	0.18216628
88	0xbec5dea8	-0.38646436
89	0x3ce39f9f	0.027786074
90	0x3dfcf311	0.12351049
91	0xbe2b1bfd	-0.16709895
92	0xbd381d16	-0.044949614
93	0xbe9a6c73	-0.30160865
94	0xbc47837d	-0.012177345
95	0xbdc8e5bf	-0.098094456
96	0x3d72b43e	0.059253924
97	0xbdb1ce97	-0.08681982
98	0x3c89405a	0.016754318
99	0x3d83a651	0.06428207
100	0xbe29b559	-0.16573085
101	0xbdca71eb	-0.098850094
102	0x3e53f1c6	0.20697698
103	0xbcf14004	-0.02944947
104	0xbe1897c4	-0.14901644
105	0xbdde4fbe	-0.10855053
106	0xbc43550c	-0.011922132
107	0x390199f7	0.00012359755
108	0xbdd7fd65	-0.10546378
109	0xbdc73968	-0.09727746
110	0xbab09b84	-0.0013474082
111	0x3e116352	0.14198044
112	0x3ec74145	0.38916984
113	0x3e4eaf22	0.20183995
114	0xbde1461d	-0.10999701
115	0xbd2f3fa7	-0.042785313
116	0x3e38d54b	0.18050115
117	0xbca96d4b	-0.020681998
118	0x3e0db3ae	0.13838074
119	0xbe0db130	-0.13837123
120	0xbca0dade	-0.019635614
121	0xbe93e098	-0.2888229
122	0xbdd10d06	-0.10207562
123	0xbe211424	-0.1573034
124	0xbe88c260	-0.26710796
125	0xbd4f0495	-0.05054148
126	0xbd9c144b	-0.07621058
127	0xbdc96e25	-0.098354615
128	0xbcfee5c5	-0.031115422
129	0x3de596c0	0.11210394
130	0xbd282681	-0.041052345
131	0x3e108bfc	0.141159
132	0x3bb4af62	0.0055140713
133	0x3e22f435	0.1591347
134	0x3e14cf09	0.14532103
135	0xbcb88ff1	-0.022529574
136	0xbe0fc253	-0.14038973
137	0x3db70ea3	0.089383386
138	0x3da8f900	0.08250618
139	0xbe795a99	-0.24350967
140	0x3d80efb2	0.06295718
141	0xbd33397f	-0.043756004
142	0x3e5bc2fc	0.214611
143	0x3e234a41	0.15946294
144	0x3e8023cf	0.2502732
145	0x3d0a379b	0.033744436
146	0x3e7efb13	0.24900465
147	0x3e2c1a39	0.16806878
148	0xbe472ea2	-0.19451383
149	0x3e2f7676	0.17135033
150	0xbdc53194	-0.09628597
151	0xbd7a02f6	-0.06103798
152	0x3e529243	0.20563607
153	0xbca99cf8	-0.020704731
154	0xbe988b4d	-0.29793778
155	0xbe79f4cd	-0.2440979
156	0x3e11aba7	0.14225636
157	0x3dce3a23	0.100696824
158	0x3db45747	0.08805709
159	0x3e7758ba	0.2415494
160	0xbde7f09f	-0.11325192
161	0xbb7aeae9	-0.003828699
162	0xbe1c4b4c	-0.15263098
163	0xbe371093	-0.17877416
164	0xbd676541	-0.056493048
165	0x3e07c7af	0.13259767
166	0x3e43cc01	0.1912079
167	0x3dea8378	0.11450857
168	0x3e34ba72	0.17649248
169	0xbde68a6d	-0.11256871
170	0xbe4bdc80	-0.19908333
171	0x3df89b00	0.12138939
172	0xbdf49b97	-0.11943739
173	0xbe246d8a	-0.16057411
174	0x3d69b3f0	0.057056367
175	0xbd202864	-0.03910102
176	0x3e3b56fa	0.18294898
177	0xbe79c5fa	-0.24391928
178	0x3ebd28a3	0.36945066
179	0xbd8c0b3f	-0.068380825
180	0xbc099c1d	-0.008399037
181	0x3dfd2e61	0.12362362
182	0x3e8134db	0.25235638
183	0xbed768c6	-0.42072123
184	0x3ecfbce3	0.40573797
185	0xbe46bd69	-0.19408192
186	0xbe582f0e	-0.211117
187	0x3e8c1120	0.27356815
188	0x3dcf50e2	0.10122849
189	0xbbadcdca	-0.005304073
190	0x3ea5ba84	0.32368863
191	0xbd18092b	-0.03711812
192	0x3c570fa5	0.013126289
193	0xbd444d2a	-0.047925152
194	0xbe04b4a5	-0.12959535
195	0x3dbdf321	0.09274889
196	0x3d6af362	0.057361014
197	0xbe164331	-0.14674069
198	0x3e1263d6	0.14295897
199	0xbdbf213e	-0.09332512
200	0x3e0c250b	0.13686006
201	0xbd5f7ccc	-0.054562375
202	0x3e3c7f4d	0.18407936
203	0x3d3bb62a	0.045828022
204	0xbcf4cc73	-0.029882645
205	0x3d98491e	0.07435821
206	0x3b61cc2c	0.0034453971
207	0xbd989562	-0.074503675
208	0x3f27ecde	0.65595806
209	0x3d82764d	0.0637022
210	0x3ea7bb33	0.3276001
211	0xbd18a3e6	-0.03726568
212	0xbd8cd0a6	-0.06875734
213	0x3e00a318	0.12562215
214	0xbe876dab	-0.26450858
215	0x3e9c993a	0.30585653
216	0x3e4baba0	0.19889688
217	0xbdc2cd44	-0.095118076
218	0xbf3af982	-0.7303697
219	0xbe9958be	-0.29950517
220	0xbda2201e	-0.07916282
221	0x3e082b11	0.13297679
222	0x3ea68e7c	0.32530582
223	0xbe33d39c	-0.17561191
224	0xbcf464fd	-0.029833311
225	0xbe10adbf	-0.14128779
226	0xbd26474d	-0.04059534
227	0xbd69fcaf	-0.057125743
228	0x3e255742	0.16146567
229	0xbd7d30fc	-0.061814293
230	0x3d8a7949	0.067614146
231	0x3e450257	0.19239174
232	0x3d608a55	0.054819424
233	0xbe3aeecb	-0.18255155
234	0xbd96c332	-0.07361449
235	0xbdc5a07f	-0.09649753
236	0x3dba41e5	0.090946
237	0xbc398c56	-0.011324963
238	0x3c9bf8e1	0.019039573
239	0x3e38ce07	0.18047343
240	0x3d95ecf1	0.073205836
241	0x3e2db5f5	0.16963942
242	0xbe85fdad	-0.26170102
243	0x3e35a55c	0.17738861
244	0x3e00f352	0.1259282
245	0xbd91d404	-0.07120517
246	0x3dd42efd	0.10360525
247	0xbea22be4	-0.3167411
248	0xbe241c33	-0.16026382
249	0x3d74c4d5	0.059758026
250	0xbe3d8021	-0.18505909
251	0xbdeba6af	-0.11506402
252	0xbafd06b1	-0.0019304362
253	0xbc830ede	-0.0159983
254	0x3cc82407	0.024431242
255	0x3d88d72d	0.066816665

gnn_layers.1.lin_l.weight f4 [32, 32]
0	0x3e5e3ba6	0.21702442
1	0x3dbcd548	0.09220368
2	0xbe5ce578	-0.2157191
3	0x3d518dde	0.051160686
4	0x3db3effc	0.08786008
5	0x3e543701	0.20724107
6	0xbdf6b2c6	-0.12045817
7	0xbd90daee	-0.070730075
8	0x3d8cb040	0.068695545
9	0x3e7a4836	0.24441609
10	0x3e09ca62	0.13456109
11	0xbe75311e	-0.23944518
12	0xbf0a811e	-0.5410327
13	0x3e2040fc	0.1564979
14	0xbe5549d0	-0.20828938
15	0x3e82d4a3	0.25552854
16	0xbcd51000	-0.026008606
17	0x3c318bf5	0.010836591
18	0xbeec2118	-0.46119
19	0x3d93fc66	0.072258756
20	0xbde63918	-0.112413585
21	0x3de94860	0.113907576
22	0x3bc5c36d	0.0060352595
23	0xbe07da80	-0.13266945
24	0xbcb00332	-0.021485899
25	0xbe47109a	-0.19439927
26	0xbe4ffb30	-0.20310664
27	0x3e433bc8	0.19065773
28	0xbda73386	-0.08164124
29	0xbd50ed54	-0.051007584
30	0x3d8b8e08	0.068142
31	0xbeb0a2f2	-0.34499317
32	0xbc9c6d78	-0.019095168
33	0x3dee0b01	0.116231926
34	0x3da3176e	0.07963453
35	0xbde277e3	-0.11058023
36	0x3a472b90	0.0007597739
37	0xbb9da604	-0.0048110504
38	0xbe0a9725	-0.1353422
39	0xbdcb3dbe	-0.09923886
40	0x3df30788	0.11866671
41	0xbe080f1a	-0.13287011
42	0x3d84bed9	0.06481714
43	0x3e9cda7c	0.3063544
44	0x3cadf24c	0.0212337
45	0x3e426cb6	0.18986782
46	0x3dd1435d	0.10217927
47	0xbd1e3288	-0.03862241
48	0xbeac4989	-0.33649853
49	0x3da13bc9	0.07872731
50	0xbdf0d65d	-0.117596366
51	0x3e5c5e1f	0.2152028
52	0x3ce5303a	0.027977098
53	0xbe1ae94c	-0.15128058
54	0xbd891e26	-0.066952035
55	0x3e61d5d4	0.22054225
56	0x3e9b2598	0.3030212
57	0x3dc2d102	0.09512521
58	0x3dee8326	0.11646108
59	0xbda089ae	-0.0783876
60	0x3d831b6d	0.064017154
61	0xbd33ded3	-0.043913674
62	0x3d15b2a4	0.036547318
63	0x3edc337a	0.43008024
64	0xbcd58ede	-0.026069101
65	0x3e3a7a91	0.18210818
66	0x3e229d09	0.15880217
67	0xbd97e68a	-0.07417019
68	0xbe86f7f7	-0.26361057
69	0xbe1c2043	-0.15246682
70	0x3dcca5c5	0.099925555
71	0xbe0f7980	-0.14011192
72	0x3e0b2658	0.13588846
73	0x3da774b8	0.08176559
74	0xbd910497	-0.070809536
75	0x3e6d9a7d	0.23203464
76	0xbe8fe479	-0.28103998
77	0x3e085ef9	0.13317479
78	0x3d850a9a	0.06496163
79	0xbdaebcd4	-0.0853211
80	0xbcfd1839	-0.03089534
81	0x3e8eab97	0.27865288
82	0x3cbfbeff	0.023406504
83	0x3e445233	0.19171982
84	0x3e020394	0.12696677
85	0xbcb9e3bb	-0.022691598
86	0x3e323840	0.1740427
87	0xbe183567	-0.14864121
88	0xbe84f9c8	-0.25971818
89	0x3df168ba	0.11787553
90	0x3d9085a4	0.0705674
91	0x3e4c887d	0.19973941
92	0x3e71d127	0.23614942
93	0xbd0aa01a	-0.03384409
94	0x3ee6de15	0.4509131
95	0x3ec9c734	0.39409792
96	0x3e139c96	0.14415202
97	0x3db1409a	0.086549
98	0xbdb3ba72	-0.08775796
99	0xbdcdae3a	-0.10042997
100	0xbe74a622	-0.238915
101	0x3dbf50b5	0.093415655
102	0x3d8e720a	0.06955345
103	0x3c90afc8	0.017661944
104	0x3e125ccc	0.14293212
105	0xbd399f96	-0.04531821
106	0x3da4d9b7	0.08049338
107	0x3e54d881	0.20785715
108	0xbe329df0	-0.17443061
109	0xbd8b3d8d	-0.06798849
110	0x3e4c2142	0.19934562
111	0x3d598745	0.05310752
112	0xbe3d0f6b	-0.18462913
113	0x3e5a73bc	0.21333212
114	0x3e23a2f6	0.15980133
115	0xbe3e6677	-0.18593775
116	0xbde702b0	-0.112798095
117	0xbd14b3a4	-0.03630413
118	0x3c5cb34f	0.013470485
119	0xbbfcaca1	-0.0077110087
120	0xbc3e53bc	-0.0116166435
121	0x3d75fd90	0.06005627
122	0xbdad7d38	-0.08471149
123	0x3e1fea62	0.15616754
124	0x3e0a82d1	0.13526465
125	0xbdef0655	-0.116711296
126	0xbd49b94c	-0.04924898
127	0x3eb740f5	0.35791746
128	0x3e05a38a	0.13050666
129	0xbdffd9e8	-0.12492734
130	0xbd2e4095	-0.04254206
131	0xbe505ee1	-0.20348693
132	0x3eabf5f0	0.33586073
133	0x3c953ba1	0.01821691
134	0xbe00b118	-0.12567556
135	0x3e06ff7d	0.13183399
136	0x3d9625e2	0.07331444
137	0x3dba96e9	0.09110815
138	0xbddf0361	-0.10889316
139	0xbd8c1d54	-0.068415314
140	0x3ec5cdf9	0.38633707
141	0x3df4a0fa	0.11944766
142	0xbe2731d3	-0.163276
143	0xbde3b7a2	-0.111190096
144	0x3b86ef02	0.0041178474
145	0xbe73ab9a	-0.2379593
146	0x3e0ec404	0.13941962
147	0x3bf3e4f7	0.007443066
148	0x3dd80953	0.105486535
149	0xbe34368e	-0.17598936
150	0xbbda37bd	-0.0066594766
151	0x3d90c5c2	0.07068969
152	0x3e7c200c	0.246216
153	0x3db41d83	0.087946914
154	0x3db6cd0f	0.089258306
155	0xbe230033	-0.15918045
156	0x3c9550ff	0.018227099
157	0xbdf02881	-0.117264755
158	0xbea5107b	-0.32239136
159	0xbdb4b20e	-0.08823024
160	0xbdcb916f	-0.09939849
161	0x3ceb0f27	0.028693749
162	0x3d95a8fb	0.07307621
163	0xbe230ddb	-0.15923254
164	0xbac2bfa9	-0.0014858145
165	0x3cc561a2	0.024094407
166	0xbe132ff0	-0.14373755
167	0x3dd9a195	0.106265225
168	0x3c030f99	0.007999324
169	0xbe01ab10	-0.12662911
170	0xbd4c103d	-0.049820174
171	0x3e1311a4	0.14362198
172	0x3dce9d4c	0.10088596
173	0x3d66738a	0.05626253
174	0x3e1ebe73	0.15502338
175	0xbdb0ffaa	-0.08642514
176	0xbe836f7b	-0.2567099
177	0xbd25384a	-0.040336885
178	0xbe50bde5	-0.20384939
179	0x3da76083	0.08172705
180	0x3df2fd85	0.11864761
181	0xbe44e46d	-0.19227763
182	0xbe483e5b	-0.19555037
183	0x3e8a1ee2	0.26976687
184	0xbdd4bc68	-0.10387498
185	0x3e7398e7	0.23788796
186	0x3dfe207c	0.1240854
187	0xbdbf42d3	-0.093389176
188	0x3dd2beda	0.10290308
189	0xbe695942	-0.22787955
190	0x3e133656	0.14376196
191	0x3d72bcaf	0.059261974
192	0x3d382d86	0.04496529
193	0x3e4e767e	0.20162389
194	0x3d4a69b0	0.049417198
195	0xbe06f12b	-0.13177936
196	0x3d564df9	0.052320454
197	0x3d6d3d33	0.057919692
198	0x3e54e70c	0.20791262
199	0xbe06e766	-0.13174209
200	0xbcf637a1	-0.030055823
201	0xbe5429d1	-0.20719077
202	0x3dc9cc8f	0.098534696
203	0x3e0bfb27	0.13670026
204	0xbe867ec7	-0.26268598
205	0xbdd5be9f	-0.10436749
206	0x3d65e44a	0.056125917
207	0xbda1ea61	-0.07906032
208	0xbeb1a342	-0.34694868
209	0x3e3dd95d	0.18539949
210	0xbe19351a	-0.14961663
211	0x3dff323d	0.12460754
212	0x3e0c750d	0.13716526
213	0x3e63b73e	0.2223787
214	0x3e454ea5	0.19268282
215	0xbb5b3306	-0.003344716
216	0xbc83f208	-0.01610662
217	0x3c0a6e20	0.008449107
218	0x3dd09bf1	0.101859935
219	0x3e8c218d	0.27369347
220	0x3e8a37ed	0.26995793
221	0x3d08d3ff	0.0334053
222	0xbd87b569	-0.06626398
223	0x3eb9802c	0.362306
224	0x3e077aa8	0.13230383
225	0x3d3e5c6a	0.04647485
226	0x3e3715b4	0.17879373
227	0x3e489e43	0.19591622
228	0x3e94f42f	0.29092547
229	0x3d7786cd	0.06043129
230	0xbdb6d8d7	-0.08928078
231	0x3bff94e0	0.0077997297
232	0xbc595af0	-0.01326631
233	0x3d37a97a	0.04483936
234	0xbe2d85ba	-0.16945544
235	0x3c00662c	0.00783686
236	0x3e1fcd7b	0.15605728
237	0x3e0f344d	0.13984795
238	0x3e1fcc58	0.15605295
239	0xbe21279b	-0.15737765
240	0xbd83bf26	-0.06432943
241	0xbd3174d4	-0.043324307
242	0x3e9975b8	0.29972625
243	0x3dfbfa80	0.123036385
244	0x3dae7018	0.08517474
245	0xbdc49df5	-0.096004404
246	0x3df1ba01	0.118030556
247	0x3ea240e3	0.3169013
248	0x3da8d46d	0.08243642
249	0xbd8536a0	-0.065045595
250	0x3e14fbe2	0.1454921
251	0xbdf02423	-0.117256425
252	0xbcfec72f	-0.031100838
253	0x3d83d880	0.064377785
254	0xbc77b09f	-0.015117793
255	0x3e6c6d58	0.23088586

gnn_layers.1.lin_l.bias f4 [32]
0	0xbd520254	-0.05127175
1	0x3df35832	0.11882056
2	0x3db86155	0.090029396
3	0xbe329466	-0.17439422
4	0x3e2f3056	0.17108282
5	0xbd93557d	-0.0719404
6	0xbbbc17e3	-0.005740152
7	0x3e70b2cd	0.23505707
8	0xbd0167e5	-0.031593222
9	0xbd91313d	-0.070894696
10	0x3d7765ae	0.060399704
11	0xbd1721ff	-0.036897656
12	0x3e4fe251	0.20301177
13	0x3ac95e4a	0.0015363183
14	0xbd711d90	-0.058866084
15	0xbdd87d43	-0.10570767
16	0xbd1e7e90	-0.03869492
17	0x3d32682a	0.04355637
18	0x3e05d2bf	0.13068675
19	0xbb221991	-0.0024734477
20	0xbdd99fdf	-0.10626196
21	0x3ce1340b	0.027490636
22	0xbd869f3a	-0.06573339
23	0x3dab8e19	0.08376712
24	0xbc4dd0da	-0.012562001
25	0xbe4fd0ec	-0.20294541
26	0xbe256d7f	-0.1615505
27	0xbd38719f	-0.045030233
28	0xbd1942d5	-0.03741725
29	0xbd782f92	-0.06059224
30	0x3d684da4	0.05671467
31	0xbe16d8a3	-0.14731078
