baseline/DLPL-CAP/models_dlpl-cap-classifier/sandwich+ultra8t_to_ssram+digtime+timing_ctrl+array_128_32_8t/dlpl-cap-classifier_nh_2_tsk_regression_ngl_4_nhl_4_hd_32_us_1_bn_0_dp_0.0_epoch_1_20250402_113758.pth (torch, 63106 bytes, 24 tensors)

net_attr_layers.weight f4 [16, 17]
0	0x3c14e717	0.009088299
1	0x3ce550e4	0.027992673
2	0xbe67d3c8	-0.22639382
3	0x3e6424a0	0.22279596
4	0xbeae0cd7	-0.3399417
5	0xbe11b5f8	-0.14229572
6	0xbdf1d3c3	-0.118079685
7	0x3e11daff	0.14243697
8	0x3e5aefd8	0.21380556
9	0xbe363389	-0.17793097
10	0x3e57ded9	0.21081103
11	0x3d39edcc	0.045392796
12	0x3e377ceb	0.17918746
13	0x3d068a4d	0.032846738
14	0x3def8253	0.11694779
15	0xbf0b22dc	-0.54350066
16	0x3d316732	0.043311305
17	0x3db9bfe6	0.09069805
18	0xbd3fb534	-0.04680367
19	0x3d8b2c01	0.067955025
20	0xbde4da96	-0.111745045
21	0xbd02f6e7	-0.031973746
22	0xbd050891	-0.032478873
23	0x3e24c0a2	0.16089109
24	0xbe440b92	-0.19145039
25	0xbde4fd64	-0.11181143
26	0xbd8c425a	-0.06848593
27	0xbe155475	-0.14582999
28	0x3cbb8678	0.022891268
29	0xbe754be8	-0.23954737
30	0x3e604b01	0.21903612
31	0xbe52f88f	-0.2060263
32	0x3f09a29e	0.5376376
33	0x3ea7b60b	0.32756075
34	0xbe7b3975	-0.24533637
35	0x38fa698b	0.00011940588
36	0xbe3124f2	-0.1729925
37	0x3e48a9b6	0.1959599
38	0xbe8deab3	-0.27718124
39	0xbe74206d	-0.23840494
40	0x3d85756b	0.06516536
41	0xbd86b2c6	-0.06577067
42	0x3dd10b9f	0.10207295
43	0x3e5dbcf8	0.21654117
44	0x3e0f9099	0.14020003
45	0xbdd92636	-0.10602991
46	0x3e0f5e0f	0.14000724
47	0x3d31bffd	0.043395985
48	0x3dfc3f8c	0.12316808
49	0xbf2430c8	-0.64136934
50	0xbf2e960c	-0.68197703
51	0x3d3e8267	0.04651108
52	0xbc53683f	-0.012903272
53	0x3e558a55	0.2085355
54	0x3d8f11a3	0.06985786
55	0x3e14911a	0.14508477
56	0x3e82822f	0.25489947
57	0xbb8a40bd	-0.004219143
58	0x3e425da7	0.18981038
59	0xbe3075ed	-0.17232485
60	0x3c7a32fd	0.015270946
61	0xbe298366	-0.16554031
62	0x3d992995	0.07478634
63	0xbdab0f24	-0.08352497
64	0x3d983370	0.07431686
65	0xbd4ef8c9	-0.05053023
66	0x3f0e470f	0.55577177
67	0xbdaaa51a	-0.08332272
68	0xbda6f235	-0.08151666
69	0xbd865d00	-0.06560707
70	0x3e57fe32	0.21093062
71	0x3da587b8	0.08082527
72	0x3e68948e	0.22712919
73	0xbdf3a34e	-0.11896382
74	0xbe7656bf	-0.24056529
75	0xbe424e1c	-0.18975109
76	0xbe271113	-0.16315107
77	0x3dc9304e	0.098236665
78	0x3db1dc65	0.08684615
79	0x3e4e5d8e	0.20152876
80	0xbe0041f1	-0.12525155
81	0xbe294ebb	-0.1653394
82	0x3e03c5c4	0.1286841
83	0x3df4c317	0.11951273
84	0x3eba583e	0.36395448
85	0xbe81bd3f	-0.25339696
86	0xbd6d39d2	-0.05791647
87	0xbeb936b0	-0.36174536
88	0xbdfaaa84	-0.122395545
89	0xbe26825f	-0.1626067
90	0xbe1c7de4	-0.15282398
91	0xbd7d485a	-0.061836578
92	0x3e1409a7	0.14456807
93	0x3e28d5c4	0.16487795
94	0xbe3419fc	-0.17588037
95	0xbe0496f2	-0.12948206
96	0x3e63691b	0.22208063
97	0xbda79b6b	-0.081839405
98	0xbdb017c7	-0.08598285
99	0xbe704ef3	-0.23467617
100	0xbf1c8775	-0.6114419
101	0xbe48acce	-0.1959717
102	0x3e84c223	0.25929365
103	0x3de6e5bb	0.11274286
104	0x3e8794ac	0.26480615
105	0xbe29a5d1	-0.1656716
106	0x3e04aabc	0.12955755
107	0x3e2d8f57	0.16949211
108	0xbe595d56	-0.21227011
109	0xbe1e2355	-0.15443166
110	0x3e784264	0.24244076
111	0x3d3ba21e	0.045808904
112	0x3d991122	0.07473971
113	0xbe67a360	-0.22620916
114	0xbe231d31	-0.15929104
115	0xbda55574	-0.080729395
116	0x3d1b57d7	0.037925567
117	0x3bcfc818	0.0063409917
118	0x3d13a1f3	0.03604312
119	0xbdc09e0e	-0.094051465
120	0x3cdaae06	0.026694309
121	0x3d53abf3	0.051677655
122	0xbc89ae30	-0.016806692
123	0xbd8302ac	-0.06396994
124	0xbe107a78	-0.14109218
125	0xbe10e441	-0.14149572
126	0xbdaa0609	-0.08301932
127	0xbe4405e5	-0.19142874
128	0x3e503d4b	0.20335881
129	0xbd4528c9	-0.0481346
130	0x3e55af63	0.20867686
131	0x3d9ac451	0.07556976
132	0xbe524eb9	-0.20537843
133	0x3e2bdf16	0.1678432
134	0x3d35a889	0.04435018
135	0xbe874802	-0.26422125
136	0xbe99481d	-0.2993783
137	0xbe9e902f	-0.30969378
138	0xbe08b823	-0.13351493
139	0xbd5901ff	-0.05298042
140	0xbe401cae	-0.1876094
141	0xbe8d8b88	-0.27645516
142	0x3e386318	0.18006551
143	0xbe364e97	-0.17803417
144	0xbd2b89c6	-0.041879438
145	0x3d4f7f1f	0.05065834
146	0x3e0036e8	0.12520945
147	0x3e488031	0.19580151
148	0x3e623e1d	0.22094007
149	0xbe44ed67	-0.19231187
150	0x3d7a0345	0.061038274
151	0xbf1cf48b	-0.6131064
152	0xbefddf0c	-0.49584234
153	0xbcbba488	-0.022905603
154	0x3ec7cee5	0.39025036
155	0xbdb38f31	-0.08767546
156	0x3e04bc03	0.12962346
157	0x3e8a0b33	0.2696167
158	0x3e84bbef	0.25924632
159	0xbe0645e2	-0.13112596
160	0x3e61be77	0.22045313
161	0x3d5a4e45	0.0532973
162	0x3cff96b7	0.031199796
163	0xbe5add87	-0.21373568
164	0x3dd083ae	0.10181366
165	0xbd1508cb	-0.03638534
166	0xbde38e67	-0.111111455
167	0x3e55532f	0.20832513
168	0x3ef919c2	0.48652464
169	0x3d9d795e	0.076891646
170	0x3d817771	0.0632161
171	0x3e309332	0.1724365
172	0x3e9e7e03	0.30955514
173	0xbd7dda9a	-0.061976053
174	0x3e22ecb4	0.15910608
175	0x3df37ff2	0.11889638
176	0xbe398a77	-0.18119226
177	0x3db124db	0.08649608
178	0x3e403ce7	0.18773232
179	0xbe69d014	-0.22833282
180	0x3d66b94e	0.056329064
181	0x3e004c86	0.12529191
182	0x3d342326	0.043978833
183	0xbdb0e448	-0.08637291
184	0x3e01a0b2	0.12658957
185	0x3f19b534	0.6004212
186	0x3dce1596	0.10062711
187	0xbad4ab6c	-0.0016225404
188	0xbc6b3dab	-0.0143579645
189	0x3d18a511	0.037266795
190	0xbd2f7e25	-0.04284491
191	0x3dddec0a	0.108360365
192	0x3e667d8c	0.2250883
193	0x3e556ffc	0.208435
194	0xbcc4b16d	-0.024010384
195	0xbd5e6cc9	-0.054302964
196	0x3b67f116	0.00353915
197	0xbc6d4349	-0.014481374
198	0x3d6ed4af	0.0583083
199	0x3d8b3217	0.06796663
200	0xbe61924b	-0.22028463
201	0xbdb74e4b	-0.0895048
202	0x3ea0ab5c	0.31380737
203	0x3d5565b4	0.052098945
204	0xbb952b5a	-0.004552287
205	0xbdd96a30	-0.10615957
206	0xbe8e4c48	-0.27792573
207	0xbe5e7831	-0.21725537
208	0xbe70e911	-0.23526408
209	0x3df8527d	0.121251084
210	0x3e1e5b83	0.15464596
211	0x3de554c0	0.111978054
212	0xbe5b8881	-0.21438791
213	0xbe155a2e	-0.14585182
214	0xbd1cc776	-0.03827616
215	0x3e703f5d	0.23461671
216	0x3d0fb4dd	0.035084594
217	0xbd80a256	-0.06280963
218	0x3dcd7f6b	0.10034069
219	0xbee2f1e9	-0.44325188
220	0xbee224ac	-0.44168603
221	0xbe256035	-0.16149981
222	0xbed3f7f5	-0.41400114
223	0xbee63c02	-0.44967657
224	0xbe7710eb	-0.24127547
225	0xbe92fe7a	-0.28709775
226	0xbe0545cc	-0.13014907
227	0x3db506b1	0.08839167
228	0xbe2d2c2d	-0.16911383
229	0xbe751ce8	-0.23936808
230	0xbe49b5bc	-0.19698232
231	0x3e393311	0.18085887
232	0x3dee7989	0.11644275
233	0x3e50fe3b	0.20409481
234	0x3e021b42	0.1270571
235	0x3d7b6da6	0.061383866
236	0xbe2a3bbd	-0.16624351
237	0xbd8a59fa	-0.06755443
238	0xbec0ed79	-0.37681177
239	0xbeb8e7f4	-0.36114466
240	0xbe4c2852	-0.19937256
241	0xbdf3dec3	-0.11907723
242	0xbedddac5	-0.4333097
243	0xbe9361e0	-0.2878561
244	0xbd35068e	-0.044195704
245	0xbe2ecd4d	-0.17070504
246	0xbe2247af	-0.15847658
247	0x3da4c3db	0.08045169
248	0xbd939f0d	-0.07208071
249	0x3e195239	0.14972772
250	0xbd9f5991	-0.07780755
251	0xbe362fa9	-0.17791618
252	0xbd2f476d	-0.042792726
253	0xbf24f0a7	-0.64429706
254	0xbe6d39b9	-0.2316655
255	0xbec26c48	-0.37973237

net_attr_layers.bias f4 [16]
0	0x3e012f1c	0.12615627
1	0x3db5512b	0.08853372
2	0x3e79b172	0.24384096
3	0xbd2e805d	-0.042602886
4	0xbe7a3e51	-0.24437834
5	0x3df4c7c0	0.11952162
6	0x3e1783b7	0.14796339
7	0xbe6b98df	-0.23007534
8	0x3d7c8d7f	0.06165838
9	0xbe18b5b1	-0.1491306
10	0xbc5820e8	-0.013191439
11	0xbd18a336	-0.037265025
12	0xbd6be9ac	-0.057595894
13	0xbe0926e0	-0.13393736
14	0xbe5e25da	-0.21694127
15	0x3e665bbe	0.22495934

dev_attr_layers.weight f4 [16, 17]
0	0x3e4e516d	0.20148249
1	0xbed7692a	-0.4207242
2	0x3e90f0ec	0.2830881
3	0xbf4d6e0d	-0.8024605
4	0xbf51376b	-0.81725186
5	0xbe71afcd	-0.23602219
6	0x3db89b89	0.09014041
7	0xbe085bf3	-0.13316326
8	0xbe1fa9a4	-0.15592057
9	0xbc9b0541	-0.018923404
10	0xbda56934	-0.080767065
11	0xbda0b26c	-0.07846531
12	0x3bff5c15	0.0077929595
13	0xbd52b7cd	-0.051444817
14	0xbdef38cc	-0.11680755
15	0xbf53e7b8	-0.8277545
16	0xbe4a1e8b	-0.19738214
17	0x3e69888b	0.22805993
18	0x3e94a322	0.2903071
19	0xbdd27ec6	-0.10278086
20	0x3ea6f18a	0.32606155
21	0x3ecdb26d	0.4017519
22	0x3e678af8	0.22611606
23	0x3de4d8d0	0.11174166
24	0xbe5739c4	-0.2101813
25	0x3dc52592	0.096263066
26	0x3e6bc028	0.2302252
27	0x3d82ad49	0.06380708
28	0x3e26811b	0.16260187
29	0x3e74d9ff	0.23911284
30	0xbd1838be	-0.03716349
31	0x3da77d41	0.08178187
32	0xbf11f035	-0.5700715
33	0xbd4cb8ea	-0.049981035
34	0x3dfd93bc	0.12381694
35	0xbee4d104	-0.44690716
36	0x3cc431c7	0.023949517
37	0xbf66d1c7	-0.90163845
38	0xbf4bd247	-0.7961773
39	0xbe7518f3	-0.23935299
40	0xbe3fa43c	-0.18714994
41	0xbd75abf1	-0.05997843
42	0x3e279c30	0.16368175
43	0x3d264828	0.040596157
44	0xbe3ce6bb	-0.18447392
45	0xbe473ccd	-0.19456787
46	0x3df71a37	0.12065547
47	0xbe38bce1	-0.18040802
48	0xbdcef000	-0.1010437
49	0x3dbc4233	0.09192314
50	0xbde5e27f	-0.11224841
51	0xbd6a826f	-0.057253297
52	0x3e926558	0.28592944
53	0xbec782e5	-0.38967052
54	0x3ecce05c	0.40014923
55	0x3e76c196	0.24097285
56	0xbe48c2bd	-0.19605537
57	0xbe04fc41	-0.12986852
58	0x3e6fdf3f	0.23425005
59	0xbdefeb6f	-0.11714827
60	0xbe26c740	-0.16286945
61	0x3d70ccfa	0.05878923
62	0x3d88e633	0.06684532
63	0x3e0813b2	0.13288763
64	0x3e3cc7e4	0.18435627
65	0x3e06a42b	0.13148563
66	0xbd24a7ab	-0.040198963
67	0x3cb0360d	0.021510148
68	0x3e14555c	0.14485687
69	0x3e8991ad	0.26868954
70	0xbdf8291c	-0.12117216
71	0x3ed58eee	0.4171061
72	0x3dacfe3f	0.08446931
73	0xbe0d6681	-0.13808633
74	0xbe5fe834	-0.21865922
75	0x3c317fa8	0.010833658
76	0x3ddc1c26	0.107475564
77	0x3d5be856	0.05368837
78	0x3d447320	0.047961354
79	0xbe3c59b6	-0.18393597
80	0xbe67efdc	-0.22650093
81	0x3b8bf2e0	0.0042708963
82	0x3e5cc11a	0.21558037
83	0xbe9f44c1	-0.31107143
84	0xbe109a06	-0.14121255
85	0xbcfc317e	-0.030785318
86	0xbf5c0646	-0.8594707
87	0xbe0d036d	-0.13770838
88	0xbf3d32f1	-0.73905855
89	0xbf0c32f9	-0.5476528
90	0x3e4dbb1a	0.20090905
91	0xbe640481	-0.22267343
92	0x3e260e0f	0.162163
93	0xbe2f29f3	-0.17105846
94	0x3dba00b3	0.090821646
95	0x3e522ba6	0.20524463
96	0x3b5f3374	0.0034057768
97	0x3e61f4fb	0.22066109
98	0xbe539ccd	-0.20665284
99	0xbdc2cc48	-0.0951162
100	0x3e239e02	0.15978244
101	0xbd586f81	-0.052840713
102	0xbcae5a0c	-0.021283172
103	0xbda0a2cb	-0.0784355
104	0xbea2a38f	-0.3176541
105	0x3f0685a4	0.5254767
106	0x3ed8e739	0.4236391
107	0xbe0b913c	-0.13629621
108	0xbe499a70	-0.1968782
109	0x3cd6e62c	0.026232801
110	0x3d932a60	0.07185817
111	0xbde55699	-0.11198158
112	0xbd8afaa8	-0.0678609
113	0x3e27bb61	0.16380073
114	0x3c9e45a3	0.019320315
115	0x3c334971	0.010942803
116	0x3c1653e4	0.0091752745
117	0x3eb13a18	0.34614635
118	0xbe6984df	-0.22804593
119	0xbdccb15a	-0.099947646
120	0x3d88f174	0.066866785
121	0x3f0d6664	0.5523436
122	0xbe9780c3	-0.29590425
123	0xbe8b5e58	-0.27220416
124	0x3e6cca5c	0.23124069
125	0x3dad0438	0.0844807
126	0x3e310dcd	0.17290421
127	0xbdf0770f	-0.117414586
128	0xbdcae409	-0.099067755
129	0x3db68fe7	0.08914166
130	0xbe257947	-0.16159545
131	0xbe225a05	-0.15854652
132	0xbc3fedb7	-0.0117143905
133	0xbde5a6e1	-0.1121347
134	0xbf3afbbc	-0.73040366
135	0x3e13509b	0.14386217
136	0x3e1905a3	0.14943556
137	0xbf55287b	-0.83264893
138	0xbdc57ec4	-0.09643319
139	0xbf87bca1	-1.060444
140	0xbf43c2f1	-0.7646933
141	0x3d7ce976	0.061746083
142	0x3dea372c	0.114363045
143	0xbcfb2c41	-0.03066075
144	0xbdc4607b	-0.09588715
145	0x3e0a6405	0.13514717
146	0xbe45ca81	-0.1931553
147	0x3e1cf73c	0.15328687
148	0xbdc0b3c3	-0.09409287
149	0x3b7346c8	0.0037121046
150	0xbdbe2145	-0.092836894
151	0x3eb59ff4	0.35473597
152	0xbd961b1a	-0.07329388
153	0x3e2075d4	0.15669948
154	0x3eaaf73b	0.33391747
155	0xbdd0a5a3	-0.10187843
156	0x3f4cc5c8	0.7998929
157	0x3ebe5221	0.37172034
158	0xbe352da6	-0.17693195
159	0x3e4741c4	0.19458681
160	0x3e429d97	0.19005428
161	0xbe3da1c5	-0.18518741
162	0xbc999716	-0.018748801
163	0xbe74e92e	-0.23917076
164	0xbe4b4dec	-0.19853944
165	0x3d3fdf70	0.046843946
166	0x3d842491	0.06452287
167	0x3d6819d5	0.05666526
168	0x3ed285db	0.4111775
169	0x3e6520cf	0.22375797
170	0xbc8d2805	-0.017230997
171	0x3dcc03f3	0.09961691
172	0xbea28aaa	-0.31746417
173	0x3f1ad252	0.60477173
174	0x3f07310c	0.52809215
175	0xbe2f9bad	-0.1714923
176	0x3dba29b0	0.090899825
177	0xbdfdc2f4	-0.123907
178	0xbe4e5e92	-0.20153263
179	0xbe07a776	-0.13247475
180	0x3e6f846e	0.23390362
181	0x3e544f3a	0.20733348
182	0x3e5e663d	0.21718688
183	0x3e11c9bd	0.14237113
184	0x3e252226	0.16126308
185	0x3f11c2f6	0.5693811
186	0xbe08a715	-0.13344987
187	0x3d27a3e3	0.04092778
188	0xbf046980	-0.5172348
189	0xbefc4e2d	-0.49278393
190	0xbd924698	-0.07142371
191	0x3c886b5f	0.016652761
192	0x3dffb4c6	0.12485652
193	0xbdc0ed84	-0.094203025
194	0xbe122c9c	-0.1427483
195	0x3d06019a	0.03271637
196	0xbe1263ba	-0.14295855
197	0xbe21b200	-0.15790558
198	0x3e0174cf	0.12642215
199	0xbd26e159	-0.040742252
200	0x3e62f1c5	0.2216254
201	0x3e3ea696	0.18618235
202	0x3f304b78	0.68865156
203	0x3daaf295	0.0834705
204	0x3bddbe3e	0.0067670634
205	0xbe551f6d	-0.20812769
206	0xbe8269db	-0.25471386
207	0x3d8a025f	0.067387335
208	0x3de8ab9d	0.11360858
209	0x3e66ea24	0.22550255
210	0xbd80ba49	-0.06285531
211	0xbdd1f7e9	-0.10252363
212	0xbd7092a5	-0.0587336
213	0xbdeff95d	-0.11717484
214	0x3d28ebbd	0.041240443
215	0x3e3962a3	0.18104033
216	0x3e42358b	0.18965738
217	0x3de40db8	0.11135429
218	0xbe5154aa	-0.20442453
219	0x3ed3b450	0.41348505
220	0xbd5a445b	-0.053287845
221	0x3b0679a9	0.0020519292
222	0x3cd80d83	0.02637363
223	0xbf097db5	-0.5370744
224	0x3e159ae1	0.14609863
225	0xbd884628	-0.06654006
226	0xbe1d2570	-0.15346313
227	0xbe4e7aaf	-0.20163988
228	0x3e5865db	0.21132605
229	0xbe6b2dbb	-0.22966664
230	0x3e3b5a14	0.18296081
231	0xbc059567	-0.008153296
232	0xbce71187	-0.0282066
233	0x3e1b5776	0.15170082
234	0xbcb7a3d5	-0.022416988
235	0x3e5d68d0	0.21622014
236	0xbd012780	-0.03153181
237	0xbe57a027	-0.21057187
238	0x3df4ec2d	0.119591095
239	0xbe74a2e4	-0.23890263
240	0xbc4fbccd	-0.012679291
241	0xbebb0344	-0.3652593
242	0xbe632067	-0.2218033
243	0xbdeef3be	-0.11667584
244	0xbcfe3338	-0.031030282
245	0x3e6bf7ec	0.23043793
246	0x3e26dbb1	0.16294743
247	0xbc154930	-0.009111688
248	0xbe699642	-0.22811225
249	0x3c2e2898	0.0106297955
250	0xbe291fcb	-0.16516034
251	0x3e49f61d	0.19722791
252	0xbdfd69d0	-0.12373698
253	0xbec55b1a	-0.38546067
254	0xbd5c7bcd	-0.053829003
255	0x3c532cd5	0.012889107

dev_attr_layers.bias f4 [16]
0	0x3e27a25a	0.16370526
1	0x3e825ba3	0.25460538
2	0xbd30bd04	-0.04314901
3	0xbe7543fb	-0.23951714
4	0xbe305f35	-0.17223819
5	0xbe1994c9	-0.14998163
6	0xbe3e37ce	-0.18575975
7	0xbdd82f01	-0.1055584
8	0xbe89a6aa	-0.26884967
9	0xbe794739	-0.24343576
10	0xbe499f71	-0.19689728
11	0xbea3a840	-0.31964302
12	0xbe4abd45	-0.19798763
13	0x3e0ec093	0.13940649
14	0x3e6a0aeb	0.22855727
15	0xbdd1cfeb	-0.10244735

pin_attr_layers.weight f4 [17, 16]
0	0xbf625b24	-0.8842032
1	0xbf981d3d	-1.1883923
2	0x3e620bee	0.22074863
3	0xbf64eb03	-0.894211
4	0xbfed65b0	-1.8546658
5	0xbe6e421e	-0.23267409
6	0xbf351936	-0.70741594
7	0x402104f2	2.5159268
8	0xbf071b1e	-0.5277575
9	0xbfb00114	-1.3750329
10	0x3f433705	0.7625583
11	0xbd8922ed	-0.06696115
12	0xbef003ba	-0.46877843
13	0xbef0f364	-0.47060692
14	0xbfb658fb	-1.4245905
15	0xbf87a1b5	-1.0596224
16	0x3e9ded27	0.30844995
17	0x3cc7b036	0.024376016
18	0x3f629648	0.8851056
19	0xbe7b381d	-0.24533124
20	0xbf6a7a59	-0.9159294
21	0x3ee49a0d	0.4464878
22	0x3f71cc6d	0.94452554
23	0xbfa5a33b	-1.2940439
24	0x3f31bc7f	0.6942825
25	0xbfa85ea5	-1.3153883
26	0xbd8a684e	-0.06758176
27	0x3f1889aa	0.5958506
28	0x3f22f509	0.63655144
29	0x3ddb5a13	0.1071054
30	0x3ff3469b	1.9005922
31	0x3f293701	0.66099554
32	0xc00498a1	-2.0718157
33	0x40240a8e	2.5631442
34	0xbf8f043e	-1.117317
35	0x3f6c779b	0.92370003
36	0xbe98d784	-0.29851925
37	0xc0221119	-2.5322936
38	0x3f9aa64c	1.2082
39	0x3e97fa6a	0.29683238
40	0xbf864381	-1.048935
41	0x3fec6844	1.8469319
42	0x3fdca3a3	1.7237438
43	0xbe97da5f	-0.2965879
44	0x3ed33d7e	0.41257852
45	0x3f185895	0.59510165
46	0x3f3c1457	0.73468536
47	0x3f9f9b30	1.2469234
48	0xbed3dbc9	-0.4137862
49	0x3f04b671	0.51840883
50	0xbf3397ea	-0.7015368
51	0xbedd5bc9	-0.4323409
52	0x3e10df5c	0.14147705
53	0x3d919ec7	0.071103625
54	0x3f1037e8	0.56335306
55	0xbf142179	-0.57863575
56	0xbf8aba57	-1.0838116
57	0xbec7214f	-0.388926
58	0x3f50073f	0.81261057
59	0x3fbfc25b	1.4981188
60	0x3d33cc62	0.043896087
61	0x3fb8df96	1.4443233
62	0x3e6d98fd	0.23202892
63	0x3f01a9e0	0.50649834
64	0xbfa3ac55	-1.2786967
65	0xbd1d661f	-0.03842747
66	0x3ff4f76e	1.913801
67	0x3eacf9f8	0.3378446
68	0x3e000eb6	0.12505612
69	0xbf431c5c	-0.7621515
70	0xbf986445	-1.19056
71	0x3f468e34	0.77560735
72	0x3ee9541f	0.45571992
73	0x3e802b4c	0.25033033
74	0xbfae386e	-1.3610971
75	0x3fe6a280	1.8018341
76	0xbd984097	-0.074341945
77	0xbe2066a5	-0.15664156
78	0xbf5eefbb	-0.8708455
79	0xbf241ef3	-0.64109725
80	0xbed44195	-0.41456285
81	0xbf30b371	-0.69023806
82	0xbe6b79a3	-0.2299562
83	0xc00b06b3	-2.172284
84	0x3db39345	0.08768324
85	0x3f8c0122	1.0937846
86	0xbdf1177d	-0.11772058
87	0xbe98e7c4	-0.29864323
88	0xbf74207b	-0.9536206
89	0xbdbd625e	-0.09247278
90	0xbf8221bd	-1.0166546
91	0xbbfb845a	-0.0076756896
92	0xbf04aa1f	-0.51822084
93	0x3f56ec43	0.83954257
94	0x3d6fb577	0.058522668
95	0xbfd58927	-1.668248
96	0x40084bc6	2.1296248
97	0xbfc252a5	-1.5181471
98	0x3e0e0eca	0.13872829
99	0xbf970246	-1.1797569
100	0xbf079d1e	-0.52974117
101	0x3f76676f	0.9625158
102	0x3e8f1289	0.2794383
103	0xbf1262bd	-0.5718191
104	0xc032cad1	-2.793629
105	0xbf360e39	-0.7111545
106	0x3f060589	0.52352196
107	0xbfdaf34e	-1.7105501
108	0x3f56a6fa	0.83848536
109	0xbe8a292c	-0.26984537
110	0x3dfc07b6	0.12306158
111	0x3f60313a	0.87575114
112	0x3e1af63f	0.15132998
113	0x3f3d48e3	0.7393934
114	0x3e8bd42d	0.27310315
115	0x402ecc7d	2.731231
116	0x3edd2fca	0.43200523
117	0xbe9e4d20	-0.30918217
118	0xbdc5cc63	-0.09658124
119	0x3fc55dcd	1.5419251
120	0xbddeb595	-0.10874478
121	0xbed67aa1	-0.41890433
122	0x3fb81ec1	1.4384385
123	0xbf34f3a4	-0.70684266
124	0xbfa03ff2	-1.2519515
125	0x40419a65	3.0250485
126	0x3fac5237	1.346259
127	0x3f5b090f	0.855607
128	0x3ea4e10a	0.3220294
129	0x3ee46189	0.44605663
130	0x3fc2f054	1.5229592
131	0x3fa3e718	1.2804899
132	0xbdede585	-0.11616043
133	0x3faf6dbc	1.3705363
134	0xbef63d86	-0.48093814
135	0xbf7d8861	-0.9903622
136	0xbfae9d7e	-1.3641813
137	0x3c067100	0.008205652
138	0xbecfcce8	-0.4058602
139	0xbf3609bb	-0.711086
140	0xbeb2fc11	-0.34957936
141	0x3ec26e70	0.37974882
142	0x3f7fd264	0.99930406
143	0x3fa33946	1.2751853
144	0x3f75a151	0.95949274
145	0x3dd3fd0d	0.10351
146	0x3f543ba3	0.829035
147	0x4005e573	2.0921295
148	0x3f4b9968	0.79530954
149	0x3e8efe6a	0.27928478
150	0x3e3eec2f	0.18644784
151	0x3eb59cfb	0.3547133
152	0x3db9a0ae	0.0906385
153	0x3fdf0239	1.7422553
154	0xbfa20c54	-1.2660012
155	0x3ec74016	0.3891608
156	0x3eaf8d52	0.34287506
157	0xbfbac29a	-1.4590638
158	0xbfbf3020	-1.4936562
159	0xbe62b2ce	-0.22138521
160	0x3e66a405	0.22523506
161	0xbd9e32d3	-0.07724538
162	0x3f7c567a	0.9856945
163	0x3fa3a087	1.2783364
164	0x3e9388a5	0.2881519
165	0x3f5e7a09	0.8690496
166	0xbf4f48e1	-0.8097058
167	0xbfb705ab	-1.4298605
168	0x3eeb0424	0.45901597
169	0x3f07eb37	0.53093284
170	0xbfae44fc	-1.3614802
171	0x3ffa665f	1.9562491
172	0x3fe25de0	1.7684898
173	0xbf7c5d4b	-0.98579854
174	0xbf9e5880	-1.2370758
175	0xc01351ec	-2.301875
176	0xba84365c	-0.0010087001
177	0xbf5973f6	-0.8494257
178	0xbfd466f6	-1.6593921
179	0x3e9cd21f	0.3062906
180	0x3f974d3c	1.1820445
181	0x3ea6ed01	0.32602695
182	0xbec76598	-0.38944697
183	0x4036ae2c	2.8543806
184	0x3f530997	0.8243651
185	0x3f4c6079	0.79834706
186	0x3ff1cb7b	1.8890222
187	0x3f17ed2e	0.5934628
188	0x3d8ea6fd	0.06965444
189	0xbfcd3d52	-1.6034338
190	0xbedc119b	-0.42982182
191	0x3f137f24	0.57615876
192	0x3eb0505e	0.34436315
193	0xc04680b6	-3.101606
194	0xbfbab76c	-1.4587226
195	0xbfb74611	-1.4318258
196	0xbf1b6cab	-0.6071269
197	0xbe84fc5d	-0.25973788
198	0xbf38119a	-0.7190186
199	0xbec58ba3	-0.38583097
200	0x3f05fa6e	0.5233525
201	0xbf5238a5	-0.8211768
202	0xbef115bb	-0.47086892
203	0x3f1a053b	0.6016423
204	0xbe90a551	-0.28251126
205	0x3f44eebf	0.769268
206	0xbf445310	-0.76689243
207	0xbf73118f	-0.9494867
208	0x3c8a965b	0.016917398
209	0x3da4687b	0.080277406
210	0x3f3eadeb	0.7448413
211	0x3fac38da	1.345485
212	0x3e01dd99	0.12682189
213	0xc01ceebe	-2.4520717
214	0x3ed4fad3	0.41597614
215	0x3ff3864a	1.9025357
216	0xbf3c1355	-0.73467
217	0x3d36ea66	0.044657134
218	0xbfc2b40e	-1.5211198
219	0x3eb217c5	0.3478376
220	0x3f3d7c42	0.7401773
221	0x3fb54607	1.4161996
222	0x3f2ef32b	0.68339795
223	0xbe0d91e3	-0.13825183
224	0x3f6bda49	0.9212995
225	0x3f073b06	0.5282444
226	0xbc06d05b	-0.008228387
227	0xbfb983b6	-1.449332
228	0xbf1aed3c	-0.6051824
229	0xbe378c08	-0.17924511
230	0x3e4c591e	0.1995587
231	0xbf9f834f	-1.2461947
232	0xbed4465f	-0.4145994
233	0x3fba59f3	1.45587
234	0x3ea9ce7a	0.33165342
235	0xbf80034e	-1.0001009
236	0xbf3123cc	-0.69195247
237	0xbef1a8c6	-0.47199076
238	0xbfa50c2f	-1.2894343
239	0x3f89c394	1.0762811
240	0xbf888b07	-1.0667428
241	0xbffea2c8	-1.9893427
242	0x3e98396a	0.29731303
243	0x3ede7155	0.4344584
244	0x3b5e6278	0.0033933204
245	0xbf8312e9	-1.0240146
246	0x3e656cbd	0.22404762
247	0xbf41670a	-0.7554785
248	0x3faf0ce5	1.367581
249	0xbea3b46a	-0.31973583
250	0xbf69c06d	-0.91309243
251	0x3ff5a8a7	1.9192094
252	0xbfd363ed	-1.651487
253	0x40097455	2.1477253
254	0xbf2910db	-0.66041344
255	0x3de8803c	0.11352584

node_encoder.weight f4 [4, 16]
0	0x3f5e8a72	0.8693
1	0xbf4405e7	-0.76571506
2	0x3fc36df7	1.5267934
3	0x3f58ee34	0.8473847
4	0xbe6341fa	-0.22193137
5	0x3f75478a	0.95812285
6	0x3f335ed4	0.7006657
7	0xbc943351	-0.018090876
8	0xbf9aa6c6	-1.2082145
9	0xc0115018	-2.2705135
10	0xbeb1b24b	-0.3470634
11	0xbe747176	-0.23871407
12	0xbda89969	-0.08232386
13	0x3f8e93cc	1.1138854
14	0xbe2556b0	-0.1614635
15	0x3fc45010	1.5336933
16	0xbf256684	-0.6460955
17	0xc0061650	-2.0951118
18	0xbfdcfa93	-1.7263969
19	0xbf4bc556	-0.79597986
20	0x3ee0ddc3	0.4391919
21	0xbf034aae	-0.5128583
22	0x3edd83ff	0.43264768
23	0xc017781f	-2.3667066
24	0xbf0cf204	-0.55056787
25	0xbf0572c5	-0.5212825
26	0x3fa4a472	1.2862685
27	0x3faaee65	1.3354002
28	0xbf9e69cf	-1.237604
29	0xbe5b1c58	-0.21397531
30	0xbf810a45	-1.0081259
31	0x3fb75962	1.4324152
32	0x3fa4a5fa	1.2863152
33	0xbf9f7fb4	-1.2460847
34	0xbf92bbd6	-1.1463573
35	0xbf8e5d3f	-1.1122206
36	0xbfc6a21d	-1.5518223
37	0xc0152027	-2.3300874
38	0x3fa6e050	1.3037205
39	0xbeca36ba	-0.39494878
40	0x3f332c9d	0.6998995
41	0xbf4f25db	-0.8091714
42	0xba9f8853	-0.0012171365
43	0x3fa179a0	1.2615242
44	0x3f591937	0.848041
45	0xbea5719d	-0.32313243
46	0xbfb9d448	-1.4517908
47	0xbf471211	-0.7776194
48	0xbf360b38	-0.7111087
49	0xbec5f92e	-0.38666672
50	0x3f753471	0.95783144
51	0xbf529162	-0.82253087
52	0xc01902f3	-2.390805
53	0x3ea4fda7	0.3222477
54	0x3ff00cbd	1.8753887
55	0x3f8d59ab	1.104299
56	0xbf05ba6d	-0.5223759
57	0xbf3d7c76	-0.7401804
58	0x3e2640cd	0.16235657
59	0xbe72af80	-0.2369976
60	0x3f028b15	0.5099347
61	0x3fd5d709	1.6706249
62	0x3fcbca19	1.592105
63	0xbed51722	-0.4161921

gnn_layers.0.lin_l.weight f4 [32, 32]
0	0x3c41339f	0.011792093
1	0x3c7cd36d	0.015431267
2	0x3d85d9aa	0.06535657
3	0xbe084f65	-0.13311537
4	0xbda5330c	-0.08066377
5	0x3de9a570	0.11408508
6	0xbe5f2493	-0.21791296
7	0x3db42da3	0.08797767
8	0x3e20acf7	0.15690981
9	0x3e2bf6bb	0.16793339
10	0x3d04d576	0.032430135
11	0xbe373e65	-0.17894895
12	0x3d8231c0	0.06357145
13	0xbd903f61	-0.070433386
14	0x3bc6f384	0.00607151
15	0x3de19937	0.110155515
16	0xbcfaed14	-0.030630626
17	0xbe2fae3e	-0.17156312
18	0xbe037217	-0.1283649
19	0x3e144354	0.14478809
20	0xbc26e162	-0.010185571
21	0x3e50c16c	0.20386285
22	0x3c98437c	0.018586867
23	0xbded2b7f	-0.11580562
24	0x3d839d5b	0.064264975
25	0x3e7bfbeb	0.24607818
26	0x3dbca617	0.092113666
27	0x3d804bd2	0.062644616
28	0xbdd65da3	-0.104670785
29	0xbe0265bf	-0.12734126
30	0x3e03c98c	0.12869853
31	0xbdeabe71	-0.11462105
32	0x3d4ee64a	0.05051259
33	0xbc4ea523	-0.012612614
34	0x3dd6a48e	0.10480605
35	0x3d2a5bb2	0.041591354
36	0xbe072732	-0.13198546
37	0xbd5a11e7	-0.05323973
38	0x3e1a0d2d	0.15044089
39	0x3d2d3f8b	0.042296927
40	0x3da9e2fe	0.082952484
41	0xbe0934d4	-0.13399059
42	0x3d9e5815	0.07731644
43	0xbd843718	-0.06455821
44	0xbd27ac36	-0.040935718
45	0x3d82aef2	0.063810244
46	0xbd41db79	-0.047328446
47	0xbd9ee8ad	-0.07759223
48	0x3d4b4fe9	0.049636755
49	0xbd6e6560	-0.058202147
50	0x3de9818a	0.11401661
51	0x3d8591aa	0.06521924
52	0xbe14cf24	-0.14532143
53	0x3e77eca7	0.2421137
54	0x3e79a752	0.24380234
55	0xbe3c3db9	-0.1838292
56	0x3e606427	0.21913205
57	0xbe5a8161	-0.21338417
58	0x3caa0404	0.020753868
59	0x3ea8fe33	0.3300644
60	0x3e744e20	0.23857927
61	0x3db58ba3	0.08864524
62	0x3e2fc33e	0.17164323
63	0x3e989193	0.29798564
64	0x3e656fb9	0.224059
65	0xbda85994	-0.08220211
66	0x3dd141a6	0.102175996
67	0x3e9c195f	0.30488107
68	0xbdaf3836	-0.08555643
69	0x3e97d5b8	0.29655242
70	0xbd457b21	-0.048213128
71	0x3df3b980	0.11900616
72	0xbde4f725	-0.111799516
73	0xbde4950e	-0.111612424
74	0x3b07bd36	0.0020712144
75	0xbe71f551	-0.23628737
76	0x3e28556f	0.1643884
77	0x3e3cd91d	0.18442197
78	0xbdb25d69	-0.08709223
79	0x3df8eb08	0.12154204
80	0xbd935ed6	-0.07195823
81	0xbc81fcc0	-0.01586759
82	0x3d99c953	0.07509103
83	0xbe714535	-0.23561557
84	0xbd928a54	-0.0715529
85	0x3ee59419	0.44839552
86	0x3c0948e2	0.008379193
87	0xbe0a0cf7	-0.13481508
88	0x3d7991c4	0.06093003
89	0xbd72399a	-0.059136964
90	0xbdc627ff	-0.096755974
91	0xbdea5b78	-0.114432275
92	0xbde8d71d	-0.113691546
93	0xbb89d733	-0.004206562
94	0xbcff4af3	-0.031163668
95	0x3e9ec421	0.3100901
96	0x3cbd7f57	0.02313201
97	0xbc2cceae	-0.010547323
98	0x3ca50a44	0.020146497
99	0xbe08fd7d	-0.13377948
100	0xbdb0b3d6	-0.08628051
101	0x3d96571e	0.07340835
102	0x3e2a66b6	0.16640744
103	0xbdf666c2	-0.12031318
104	0xbdd4b052	-0.10385193
105	0x3da4271d	0.08015273
106	0x3c84e157	0.016220732
107	0x3e1cbd4e	0.15306589
108	0x3cf78ca0	0.030218422
109	0xbb9ca9ad	-0.004780969
110	0xbe654c2b	-0.22392337
111	0xbda146e6	-0.07874851
112	0xbdc19b24	-0.09453419
113	0x3ecfd047	0.4058859
114	0xbec4d9ac	-0.3844732
115	0x3ec93b9b	0.39303288
116	0xbd17a78f	-0.03702503
117	0xbea47ae5	-0.3212501
118	0x3b6cd8a7	0.0036139877
119	0x3dbc3e91	0.09191621
120	0xbe973e5b	-0.2953976
121	0x3eba3260	0.36366558
122	0x3d206f66	0.039168738
123	0xbe35b899	-0.177462
124	0xbe4c42c3	-0.19947343
125	0x3ee209df	0.44148156
126	0xbdb2121d	-0.08694861
127	0x3c742866	0.01490221
128	0xb96a21b4	-0.00022328534
129	0xbc4bfb03	-0.012449983
130	0x3d159ffd	0.03652953
131	0xbcfaaa62	-0.030598823
132	0x3dd0b2f3	0.10190382
133	0xbd9281d1	-0.07153667
134	0xbd30b877	-0.04314467
135	0xbd8261f8	-0.06366342
136	0x3d1df4a2	0.03856338
137	0x3e0751e5	0.13214834
138	0x3ed43bb5	0.41451803
139	0x3e16918c	0.14703959
140	0x3e15686d	0.14590617
141	0xbddaebd8	-0.10689515
142	0xbcd1a658	-0.025592014
143	0xbdb8e47e	-0.090279564
144	0x3e71e32c	0.23621815
145	0xbe831b4b	-0.2560676
146	0x3ec169c3	0.37776002
147	0xbe5428b1	-0.20718648
148	0xbe0edf6f	-0.1395242
149	0x3ddd110a	0.107942656
150	0xbe21ea5a	-0.15812054
151	0xbec2469f	-0.37944505
152	0x3eca9bee	0.3957209
153	0xbe6cd976	-0.2312983
154	0x3c3bae72	0.011455165
155	0x3d608d71	0.05482239
156	0x3d9d31cf	0.07675516
157	0xbe5d8280	-0.21631813
158	0x3df60cea	0.12014182
159	0x3d72ef13	0.05931003
160	0xbee1b291	-0.44081548
161	0x3dc232fb	0.0948238
162	0xbeb37859	-0.35052755
163	0xbd2e27db	-0.042518478
164	0x3e79653a	0.24355021
165	0x3cea97a0	0.028636754
166	0x3e129ddd	0.14318033
167	0xbe371b04	-0.178814
168	0xbd5e2b38	-0.054240435
169	0x3df9a9fb	0.12190624
170	0x3d091e4a	0.03347615
171	0x3e6693fc	0.22517389
172	0xbe762082	-0.24035838
173	0x3dc14fef	0.09439074
174	0xbe2c5571	-0.16829468
175	0xbd0e2dd7	-0.034711685
176	0x3e32e268	0.1746918
177	0xbd898ef6	-0.06716721
178	0x3dfe55f3	0.12418737
179	0x3e0ad920	0.13559389
180	0x3e4188c0	0.18899822
181	0xbe8c30fd	-0.27381125
182	0xbe3c9dd9	-0.18419589
183	0x3ce53261	0.027978124
184	0x3c9bd6c2	0.019023303
185	0xbd78bbbe	-0.06072592
186	0x3c15eb2c	0.009150308
187	0xbe9dfad0	-0.30855417
188	0xbdbf48a2	-0.093400255
189	0xbd27a770	-0.040931165
190	0x3e0fbb55	0.14036305
191	0xbdee2855	-0.116287865
192	0x3e16ecbd	0.14738746
193	0x3d3d315c	0.04618965
194	0x3da44363	0.080206655
195	0xbc714276	-0.014725318
196	0xbd06be59	-0.032896373
197	0xbd6a1fc4	-0.0571592
198	0xbe18b51f	-0.14912842
199	0x3e2dda27	0.1697775
200	0xbddeff0d	-0.10888491
201	0x3d9e4171	0.07727326
202	0xbe94fbaa	-0.29098254
203	0x3dc8b76e	0.098006114
204	0x3e306637	0.17226492
205	0xbdb5fa26	-0.08885603
206	0x3e1a5a18	0.1507343
207	0xbc0fb2c6	-0.00877065
208	0xbd80a565	-0.062815465
209	0x3dbc5881	0.09196568
210	0x3e8239d5	0.25434747
211	0x3e4e342d	0.20137091
212	0xbe1bc169	-0.15210499
213	0x3e76881b	0.24075358
214	0x3e5d42c5	0.21607502
215	0xbdb14480	-0.086556435
216	0x3eb3fff9	0.3515623
217	0xbe080a4a	-0.13285175
218	0x3da6d1bd	0.08145473
219	0x3e868a20	0.26277256
220	0x3d4f1fa3	0.05056728
221	0x3d37b6c9	0.044852052
222	0x3e8a312c	0.2699064
223	0x3e89f291	0.26942876
224	0x3deef0ac	0.11666998
225	0x3dde4a46	0.1085401
226	0xbe347d6a	-0.17625967
227	0xbdb62881	-0.08894444
228	0xbdb29ba0	-0.08721089
229	0x3d446bd3	0.04795439
230	0x3d7271f0	0.05919069
231	0xbe3fb911	-0.18722941
232	0x3d6187ec	0.055061266
233	0xbe02e3c5	-0.127822
234	0xbd8ed912	-0.069749966
235	0x3e4f2053	0.20227174
236	0xbdd5405e	-0.10412668
237	0xbd9bf13d	-0.07614372
238	0xbd8f3e55	-0.06994311
239	0xbd84b156	-0.06479137
240	0xbdd80a3a	-0.105488256
241	0x3e63fbd9	0.22264041
242	0xbe73a6bb	-0.23794071
243	0x3e4843fa	0.19557181
244	0x3daa4059	0.083130546
245	0xbcd94836	-0.02652369
246	0xbe4020f2	-0.18762568
247	0x3e550640	0.20803165
248	0xbeb7bb2f	-0.35884997
249	0x3d54e231	0.051973525
250	0x3d3aff15	0.04565342
251	0xbe4f3936	-0.20236668
252	0x3d63709e	0.055527322
253	0x3e0375d9	0.12837924
254	0xbe389923	-0.18027167
255	0xbe136569	-0.14394154

gnn_layers.0.lin_l.bias f4 [32]
0	0x3d11861f	0.0355283
1	0xbe23b2c7	-0.15986167
2	0x3e106dd0	0.1410439
3	0x3c39cf84	0.0113409795
4	0x3d49a5d1	0.0492304
5	0x3e24c047	0.16088973
6	0xbe270a09	-0.16312422
7	0x3d8505dd	0.06495259
8	0xbe23a549	-0.1598102
9	0x3e279ddf	0.16368817
10	0x3db5eae5	0.08882693
11	0x3e03a614	0.12856323
12	0xbcd7bbf2	-0.026334736
13	0x3cc8e474	0.024522997
14	0xbdb6a559	-0.08918256
15	0x3d6cb893	0.05779321
16	0x3e4b0a26	0.1982809
17	0xbe03c6c1	-0.12868787
18	0xbd29f5f6	-0.041494332
19	0x3d52cf6b	0.05146734
20	0x3a9106d2	0.0011064655
21	0x3c5a75ab	0.013333718
22	0x3e392204	0.18079382
23	0x3ca5294b	0.020161292
24	0x3d2793a8	0.0409123
25	0x3d94ab46	0.0725923
26	0xba4e00e2	-0.0007858408
27	0x3e095898	0.13412702
28	0x3e02953f	0.12752245
29	0x3db96359	0.09052152
30	0x3adaa8da	0.0016682402
31	0x3e71ca87	0.23612414

gnn_layers.0.lin_r.weight f4 [32, 32]
0	0xbe170a76	-0.14750084
1	0x3dcd9ba3	0.10039451
2	0x3d832204	0.06402972
3	0x3e1b3c6b	0.15159766
4	0xbdcfd6c7	-0.101483874
5	0x3d6507b1	0.05591554
6	0xbe162292	-0.14661625
7	0x3e0c9e6b	0.13732307
8	0x3cffc20b	0.031220457
9	0xbdb73c11	-0.08947004
10	0x3ac92d5c	0.0015348601
11	0x3cc94245	0.024567733
12	0x3d501411	0.050800387
13	0x3e3f0734	0.18655092
14	0x3dfb0399	0.122565456
15	0x3d816ac8	0.06319195
16	0x3df21a9e	0.11821483
17	0xbe12b5e7	-0.14327203
18	0x3d9198ae	0.071091995
19	0x3cb91d2b	0.022596916
20	0x3e130ba4	0.1435991
21	0x3d9b7724	0.07591084
22	0x3c61c160	0.013779014
23	0x3dcd7819	0.100326724
24	0xbd72d9c7	-0.05928972
25	0x3dbee5ce	0.093211755
26	0x3d14ff2e	0.03637617
27	0xbd04a74d	-0.032386113
28	0x3ddbedf6	0.10738747
29	0xbe077ec9	-0.13231958
30	0xbd3f547f	-0.04671144
31	0x3de176ed	0.110090114
32	0x3dcdf869	0.10057146
33	0xbe305111	-0.17218424
34	0xbbcc9e59	-0.0062444624
35	0xbcf4a6c8	-0.029864684
36	0x3e1a8c2c	0.15092534
37	0xbe55862f	-0.20851968
38	0xbcc49130	-0.023995012
39	0xbdeeaf94	-0.116545826
40	0xbdd2773d	-0.10276649
41	0xbc216950	-0.009851769
42	0xbdfa4943	-0.12221005
43	0x3e332847	0.17495833
44	0xbda37c48	-0.07982689
45	0x3d37b44f	0.04484969
46	0xbe08b3e3	-0.13349871
47	0xbae1d87a	-0.0017230653
48	0x3d0dcf58	0.034621567
49	0x3d1c4c9a	0.03815899
50	0x3e80c78b	0.2515224
51	0xbc5c7e6c	-0.013457876
52	0xbe03da77	-0.12876306
53	0x3e143e65	0.14476927
54	0xbe8d6b8f	-0.27621123
55	0x3e7cf6e3	0.24703555
56	0xbcfb21c9	-0.030655758
57	0xbe93d808	-0.28875756
58	0xbe62f1b7	-0.2216252
59	0xbe9626bd	-0.2932643
60	0xbcec29dd	-0.028828556
61	0xbdde9906	-0.10869031
62	0xbdb7fa59	-0.08983297
63	0xbda4cb85	-0.08046631
64	0xbcb5c55f	-0.02218884
65	0x3d0c38fc	0.034234032
66	0xbd527c7c	-0.05138825
67	0x3da666fe	0.08125113
68	0x3cb9ac76	0.022665244
69	0x3dae6238	0.085148275
70	0x3d99393d	0.074816205
71	0xbd596449	-0.053074155
72	0x3e3b89ce	0.18314287
73	0xbd41865d	-0.04724728
74	0xbdb09d75	-0.086237825
75	0x3da36935	0.07979051
76	0x3c371929	0.011175432
77	0xbe1943f3	-0.14967327
78	0xbb717f88	-0.0036849696
79	0xbd8d62c7	-0.06903606
80	0xbe67d23b	-0.2263879
81	0xbdeba122	-0.11505343
82	0xbe43286e	-0.19058391
83	0xbe049705	-0.12948234
84	0xbd4b9353	-0.049701046
85	0x3cf9cdcf	0.030493645
86	0xbe409f50	-0.18810773
87	0x3e51e442	0.2049723
88	0xbec7393b	-0.3891085
89	0x3c834307	0.016023172
90	0x3e05fcb3	0.13084678
91	0xbe4b5f69	-0.19860615
92	0xbd540407	-0.051761653
93	0xbe998eff	-0.2999191
94	0xbccb11c5	-0.024788747
95	0xbde5e085	-0.11224464
96	0x3ba0dc7c	0.0049090963
97	0xbde05f6f	-0.109557025
98	0xbce8e58c	-0.028429769
99	0x3cd71568	0.026255324
100	0xbe0b45b8	-0.13600814
101	0xbdf4c727	-0.11952048
102	0x3e48a369	0.19593586
103	0xbd8dd91b	-0.06926175
104	0xbe11dea0	-0.14245081
105	0xbdad5515	-0.08463494
106	0x3d285a81	0.041101936
107	0x3d15fa0f	0.036615428
108	0xbe143c89	-0.14476217
109	0xbe0811a2	-0.13287976
110	0xbcc8b606	-0.024500858
111	0x3e170773	0.14748935
112	0x3ece3a2e	0.40278763
113	0x3dfc4e07	0.1231957
114	0xbcc9e751	-0.024646433
115	0xbe0b8ef8	-0.13628757
116	0x3e10afef	0.14129613
117	0x3d759010	0.05995184
118	0x3da83ad5	0.08214346
119	0xbe004319	-0.12525596
120	0x3d5f72d8	0.054552883
121	0xbea36bdb	-0.31918225
122	0xbde99d45	-0.1140695
123	0xbd91d294	-0.07120243
124	0xbe8a70be	-0.2703914
125	0xbd4897c8	-0.048972875
126	0xbda9ae24	-0.08285168
127	0xbe09cc22	-0.13456777
128	0xbce2262e	-0.027606096
129	0x3db3b1ed	0.08774171
130	0xbd7e8c90	-0.06214577
131	0x3df91f52	0.12164177
132	0xbbc78a68	-0.0060894974
133	0x3e12d60d	0.14339466
134	0x3e2257c7	0.15853797
135	0xbdc806b2	-0.09766902
136	0xbe075612	-0.13216427
137	0x3db8a582	0.09015943
138	0x3de1e4f6	0.11029999
139	0xbe58291d	-0.21109433
140	0x3d4a3c14	0.0493737
141	0xbd5df252	-0.054186173
142	0x3e3d2fe1	0.18475296
143	0x3e1fb9e5	0.15598257
144	0x3e657dac	0.22411221
145	0x3cc73266	0.024316024
146	0x3e7a6644	0.24453074
147	0x3e29e569	0.1659142
148	0xbe576c9b	-0.21037523
149	0x3e1f3221	0.15546466
150	0xbd8f156d	-0.069865085
151	0xbdb4a6e9	-0.08820898
152	0x3e40da80	0.18833351
153	0xbcdce8b1	-0.026966425
154	0xbe5c63b4	-0.21522409
155	0xbe4d8a24	-0.20072228
156	0x3e08551c	0.13313717
157	0x3d8f7b56	0.07005946
158	0x3dab087c	0.08351228
159	0x3e78b133	0.24286346
160	0xbde1deba	-0.1102881
161	0xbc198552	-0.009370165
162	0xbe21205a	-0.15734997
163	0xbe3be6ce	-0.18349764
164	0xbd74c8f8	-0.05976197
165	0x3e048e24	0.12944847
166	0x3e47cdaf	0.19512056
167	0x3dd7694e	0.10518132
168	0x3e38d2fb	0.18049233
169	0xbdf1530c	-0.11783418
170	0xbde45f75	-0.111510195
171	0x3e00beb9	0.12572755
172	0xbdf0f244	-0.117649585
173	0xbe27edb9	-0.16399278
174	0x3d5817d1	0.052757088
175	0xbd27ac06	-0.04093554
176	0x3def098f	0.11671745
177	0xbe510304	-0.20411307
178	0x3eaa36b2	0.33244854
179	0xbd36d4a7	-0.044636395
180	0xbc67f9d0	-0.014158681
181	0x3d65c2db	0.05609403
182	0x3e784cd5	0.24248059
183	0xbec1cd34	-0.3785187
184	0x3eb63ebc	0.35594738
185	0xbe2842c7	-0.16431724
186	0xbe1c4ab9	-0.1526288
187	0x3e7b99cb	0.24570386
188	0x3dac2696	0.08405797
189	0x3ab23fcb	0.0013599334
190	0x3e9a3d6b	0.30124983
191	0xbd3dbe8f	-0.04632431
192	0x3c9c3df4	0.01907251
193	0xbd475171	-0.048661653
194	0xbe0cb1a8	-0.13739645
195	0x3da63b0b	0.0811673
196	0x3d445e8a	0.047941722
197	0xbe22488b	-0.15847985
198	0x3e1c1c1e	0.15245101
199	0xbdbee0f0	-0.09320247
200	0x3e184bca	0.14872661
201	0xbd45ce92	-0.048292704
202	0x3e3bb46f	0.18330549
203	0x3d5367f9	0.051612828
204	0xbcc59e94	-0.024123468
205	0x3d7d2fe9	0.06181327
206	0xbb9fcb28	-0.004876513
207	0xbda923f5	-0.082588114
208	0x3ef0b232	0.47010952
209	0x3e367202	0.17816928
210	0x3e5de9fa	0.21671286
211	0x3e3e8223	0.1860433
212	0xbc4a6f75	-0.012355675
213	0xbc8aee4b	-0.01695933
214	0xbe367e91	-0.17821719
215	0x3e73f69c	0.23824543
216	0x3db89a01	0.09013749
217	0xbd013737	-0.031546798
218	0xbf06b64e	-0.52621925
219	0xbe9d1ff0	-0.3068843
220	0xbda607a9	-0.0810693
221	0x3e1dfc6f	0.15428327
222	0x3ea3d114	0.3199545
223	0xbd63cb28	-0.055613667
224	0xbd5642f3	-0.05230994
225	0xbe2f614f	-0.17126964
226	0xbdaf2008	-0.08551031
227	0xbdc36bc0	-0.09542036
228	0x3e2cc0ad	0.16870375
229	0xbdb1c297	-0.08679693
230	0x3da1b47b	0.07895752
231	0x3e1cd5b3	0.15315895
232	0x3d5c8393	0.053836416
233	0xbe37f657	-0.17965065
234	0xbcc9804a	-0.024597306
235	0xbd76b6bc	-0.060232863
236	0x3d71a2b1	0.058993045
237	0xbd271082	-0.040787227
238	0xbc0dfacb	-0.008665751
239	0x3e466872	0.1937578
240	0x3d6662d3	0.05624659
241	0x3e47f7d7	0.19528137
242	0xbe66b9f8	-0.22531879
243	0x3e087be6	0.13328514
244	0x3d8f2689	0.06989772
245	0xbdb8c2ef	-0.09021556
246	0x3d997e9f	0.07494854
247	0xbe774f3d	-0.24151321
248	0xbde586a1	-0.11207319
249	0x3dcbb2e3	0.09946229
250	0xbe1f1549	-0.15535463
251	0xbdc5e7cb	-0.096633516
252	0xbc2c7cfd	-0.010527846
253	0x3c76eb3e	0.015070735
254	0x3ca77458	0.02044122
255	0x3d19ff17	0.03759679

gnn_layers.1.lin_l.weight f4 [32, 32]
0	0x3e5e3ba6	0.21702442
1	0x3ddbaabb	0.10725924
2	0xbe2d06a0	-0.16897058
3	0x3d933f68	0.07189828
4	0x3d0a6853	0.033790898
5	0x3e616bf4	0.22013837
6	0xbe1d70bd	-0.15375037
7	0xbd95889a	-0.07301445
8	0x3d8cb040	0.068695545
9	0x3e77a9bf	0.24185847
10	0x3dd1a5eb	0.102367245
11	0xbe6b3992	-0.2297118
12	0xbed0aeed	-0.40758458
13	0x3e17b0ff	0.14813612
14	0xbe6c25e7	-0.23061334
15	0x3e81f81b	0.25384602
16	0xbc75e434	-0.015008021
17	0x3bfff76c	0.0078114774
18	0xbee8f31e	-0.45497984
19	0x3dd6c1b7	0.10486167
20	0xbe01abae	-0.12663147
21	0x3e025edc	0.12731498
22	0xbc859e8b	-0.01631095
23	0xbd9706ed	-0.07374368
24	0xbd785a2c	-0.06063287
25	0xbdbf60a2	-0.09344603
26	0xbe33fba2	-0.17576459
27	0x3e277579	0.16353406
28	0xbddc2938	-0.10750049
29	0xbd196b12	-0.037455626
30	0x3de399af	0.11113297
31	0xbea6678d	-0.32500878
32	0xbc9c6d78	-0.019095168
33	0x3de1fc4a	0.110344484
34	0x3db68002	0.08911134
35	0xbd5aa500	-0.053380013
36	0x3c043151	0.008068399
37	0xbc872282	-0.016495947
38	0xbd844030	-0.06457555
39	0xbdd807d8	-0.10548371
40	0x3df30788	0.11866671
41	0xbd94a403	-0.07257845
42	0x3c5be2f9	0.013420814
43	0x3e89a3f7	0.26882908
44	0x3c956a3b	0.018239131
45	0x3e5ee079	0.21765317
46	0x3d7391b3	0.05946512
47	0xbc496a32	-0.012293385
48	0xbe91b06b	-0.2845491
49	0x3d994717	0.074842624
50	0xbd8a863a	-0.06763883
51	0x3e640e4b	0.22271077
52	0xbc89787a	-0.01678108
53	0xbe36c6fd	-0.17849346
54	0xbdd1578d	-0.10221777
55	0x3e571453	0.21003847
56	0x3e8d79e2	0.27632052
57	0x3df7532c	0.12076411
58	0x3de53d07	0.11193281
59	0xbdcc0d39	-0.099634595
60	0x3d549fef	0.051910337
61	0xbd74be54	-0.059751824
62	0x3d41a9a6	0.04728093
63	0x3eb56179	0.35425928
64	0xbcd58ede	-0.026069101
65	0x3e1cd18b	0.1531431
66	0x3e256d64	0.1615501
67	0xbd694f48	-0.056960374
68	0xbe523f9b	-0.20532076
69	0xbe2080e8	-0.15674174
70	0xbb6002d7	-0.003418138
71	0xbe0fe0a9	-0.14050545
72	0x3e0b2658	0.13588846
73	0x3dc04a46	0.093891665
74	0xbdf3eed6	-0.11910789
75	0x3e423dfe	0.1896896
76	0xbe823cbd	-0.25436965
77	0x3e56809c	0.20947498
78	0x3ca506c8	0.020144835
79	0xbc465868	-0.012106039
80	0xbc12a791	-0.008951084
81	0x3e5292e1	0.20563842
82	0x3d330d76	0.04371401
83	0x3e2b4e44	0.16729075
84	0x3d923624	0.07139233
85	0xbcd1b8da	-0.02560084
86	0x3df16ec3	0.11788704
87	0xbe37ee34	-0.17961961
88	0xbe4d1055	-0.20025761
89	0x3c2e0b13	0.0106227575
90	0x3d6e2882	0.0581441
91	0x3e0b792d	0.13620444
92	0x3e6c5fda	0.2308344
93	0xbd76a137	-0.06021234
94	0x3ed8886a	0.42291576
95	0x3eabad70	0.3353076
96	0x3e139c96	0.14415202
97	0x3dbb03a9	0.091315575
98	0xbd994452	-0.07483734
99	0xbd72469a	-0.059149362
100	0xbe29b193	-0.16571645
101	0x3dac1ba6	0.08403711
102	0x3dcdc793	0.100478314
103	0x3d01e9d8	0.03171715
104	0x3e125ccc	0.14293212
105	0xbc8cee55	-0.01720349
106	0x3d566ee5	0.05235185
107	0x3e36a023	0.17834525
108	0xbe368d4d	-0.1782734
109	0xbd401173	-0.04689164
110	0x3e3eb280	0.1862278
111	0x3dabd7a9	0.08390743
112	0xbe1e4cce	-0.15458986
113	0x3e4d322b	0.20038669
114	0x3e366d7c	0.17815202
115	0xbe2d9970	-0.16953063
116	0xbe14afae	-0.14520141
117	0xbd44f58f	-0.048085745
118	0xbc012c43	-0.007884088
119	0x3c1300c3	0.00897235
120	0x3c278278	0.010223977
121	0x3dbf53d6	0.09342162
122	0xbdc99467	-0.098427586
123	0x3e0caa29	0.13736786
124	0x3e032910	0.12808633
125	0xbe0d1b94	-0.13780051
126	0xbd910cdb	-0.0708253
127	0x3e986f49	0.29772404
128	0x3e05a38a	0.13050666
129	0xbdd37eb6	-0.103269026
130	0xbd98c520	-0.074594736
131	0xbe4352c3	-0.1907454
132	0x3e44d9f8	0.19223773
133	0x3c632aa7	0.01386515
134	0xbc124eaa	-0.008929888
135	0x3e032465	0.12806852
136	0x3d9625e2	0.07331444
137	0x3e15d644	0.14632517
138	0xbc72faa0	-0.0148302615
139	0xbd8ef4cd	-0.06980286
140	0x3ea99076	0.33118027
141	0x3dd17c78	0.10228819
142	0xbe2c3188	-0.1681577
143	0xbe0fcfe9	-0.14044155
144	0x3d4c355e	0.049855582
145	0xbe4630ae	-0.19354507
146	0x3e2057e4	0.15658528
147	0x3c251430	0.010075614
148	0x3e364ee3	0.1780353
149	0xbe3e9701	-0.18612291
150	0x3d69f7cb	0.05712108
151	0x3d3e4a83	0.04645778
152	0x3e20e8a4	0.15713745
153	0x3deaabf3	0.11458578
154	0x3dafed4d	0.085901834
155	0xbc4deaa6	-0.012568152
156	0xbb4de46e	-0.0031416672
157	0xbdbd8273	-0.09253397
158	0xbe7d9959	-0.24765529
159	0xbd3fcd81	-0.046826843
160	0xbdcb916f	-0.09939849
161	0x3d73efd0	0.059554875
162	0x3d78d33f	0.060748335
163	0xbe028d76	-0.12749276
164	0x3b4d976d	0.0031370774
165	0x3d2e658c	0.04257731
166	0xbde513a8	-0.1118539
167	0x3e01675c	0.12637085
168	0x3c030f99	0.007999324
169	0xbdc4fc07	-0.09618383
170	0xbd24cf5e	-0.040236823
171	0x3e221fbe	0.15832421
172	0x3dc6d711	0.097089894
173	0x3c8c2896	0.017109197
174	0x3e48edfd	0.19622035
175	0xbde6593b	-0.11247488
176	0xbe3da5ef	-0.1852033
177	0x3b87f82c	0.0041494574
178	0xbde18f0f	-0.110136144
179	0x3dda12e4	0.10648134
180	0x3dbf2a93	0.09334292
181	0xbe33e503	-0.1756783
182	0xbe306e53	-0.17229585
183	0x3e6d9aa0	0.23203516
184	0xbddc1289	-0.10745723
185	0x3e53db64	0.2068916
186	0x3e12c39e	0.14332435
187	0xbd910fa5	-0.07083062
188	0x3e0d6616	0.13808474
189	0xbe47b73e	-0.19503495
190	0x3e24700f	0.16058372
191	0x3d694461	0.056949977
192	0x3d382d86	0.04496529
193	0x3e67faa5	0.22654207
194	0x3d6fbc72	0.058529325
195	0xbdd74a3c	-0.10512206
196	0x3df2c416	0.11853807
197	0x3d706038	0.05868551
198	0x3e557693	0.20846014
199	0xbe071868	-0.13192904
200	0xbcf637a1	-0.030055823
201	0xbe37ffe8	-0.17968714
202	0x3d030b69	0.031993303
203	0x3e1a9667	0.15096436
204	0xbe748fa4	-0.2388292
205	0xbdb8bf36	-0.090208456
206	0x3d613db8	0.0549905
207	0xbd9e7619	-0.07737369
208	0xbe9f1ad1	-0.31075147
209	0x3e1307c2	0.14358428
210	0xbdec2291	-0.115300305
211	0x3e19369c	0.14962238
212	0x3dfc370a	0.12315185
213	0x3e56132c	0.20905751
214	0x3e0a04e2	0.13478425
215	0x3cdd456a	0.027010638
216	0x3d033b17	0.032038774
217	0xbbe0fbd9	-0.00686596
218	0x3dd15846	0.10221915
219	0x3e5ee418	0.21766698
220	0x3e8009ed	0.25007573
221	0x3bc476d2	0.00599561
222	0xbd0a187c	-0.033714756
223	0x3eaead62	0.34116656
224	0x3e077aa8	0.13230383
225	0x3d46668b	0.048437636
226	0x3e3c1a85	0.18369491
227	0x3e4da1e9	0.20081295
228	0x3e3b98f9	0.18320073
229	0x3ce41b25	0.027844975
230	0x3bf2d740	0.0074109137
231	0x3cf0ed89	0.02941014
232	0xbc595af0	-0.01326631
233	0x3d82876a	0.063734844
234	0xbe1b9416	-0.15193209
235	0xbc85c39c	-0.016328625
236	0x3e0bd735	0.13656314
237	0x3e1dea93	0.15421514
238	0x3e147327	0.14497052
239	0xbe2e053e	-0.16994187
240	0xbd818ab0	-0.06325281
241	0xbca04045	-0.019561896
242	0x3e8f30bd	0.27966872
243	0x3e043269	0.12909855
244	0x3e062f34	0.13103944
245	0xbdf7f868	-0.121079266
246	0x3e0edcbb	0.1395139
247	0x3ea417f7	0.32049534
248	0x3c7b2975	0.015329708
249	0xbc2896be	-0.010289846
250	0x3e0e69e4	0.13907582
251	0xbd9ab7ce	-0.07554589
252	0xbd33a653	-0.04385979
253	0x3db12f47	0.086515956
254	0xbcdd8f77	-0.027045948
255	0x3e5ab71c	0.21358913

gnn_layers.1.lin_l.bias f4 [32]
0	0xbd147ffd	-0.03625487
1	0x3ddce73f	0.10786294
2	0x3db03ea1	0.086056955
3	0xbe3264de	-0.1742129
4	0x3e245556	0.16048178
5	0xbd9bd956	-0.07609813
6	0x3b0103cf	0.0019686108
7	0x3e6717a5	0.22567613
8	0xbc132b12	-0.008982437
9	0xbdc276dd	-0.094953276
10	0x3da65851	0.08122314
11	0xbd134521	-0.0359546
12	0x3e54fc34	0.20799333
13	0x3af9a884	0.0019047414
14	0xbd78a1bd	-0.06070112
15	0xbdcd805c	-0.10034248
16	0xbce10949	-0.027470248
17	0x3d2f9db9	0.042875025
18	0x3e0d5624	0.13802391
19	0xbb221991	-0.0024734477
20	0xbdd99fdf	-0.10626196
21	0x3cca2a98	0.024678513
22	0xbdb8c745	-0.09022383
23	0x3d9d1a83	0.07671072
24	0x3c594d09	0.0132629955
25	0xbe4fd0ec	-0.20294541
26	0xbe256d7f	-0.1615505
27	0xbd74d169	-0.05977002
28	0xbd2db97d	-0.042413224
29	0xbd782f92	-0.06059224
30	0x3d980880	0.07423496
31	0xbdfe0447	-0.124031596
