baseline/DLPL-CAP/models_dlpl-cap-classifier/sandwich+ultra8t_to_ssram+digtime+timing_ctrl+array_128_32_8t/dlpl-cap-classifier_nh_2_tsk_regression_ngl_4_nhl_4_hd_32_us_1_bn_0_dp_0.0_epoch_15_20250402_170501.pth (torch, 63134 bytes, 24 tensors)

net_attr_layers.weight f4 [16, 17]
00000000: 5ad3 813d 972a a33d 69bd 43be a024 643e
00000010: e19a 8abe 5db9 96bd c3d3 f1bd ffda 113e
00000020: d8ef 5a3e 8933 36be d9de 573e cced 393d
00000030: eb7c 373e 4d8a 063d 5382 ef3d b9c2 77be
00000040: 49f1 63bf 64f7 223e fc02 e63d 739d 1fbe
00000050: 96da e4bd deec ecbd 91f1 113e a2c0 243e
00000060: 920b 44be 64fd e4bd 5a42 8cbd 7554 15be
00000070: 7886 bb3c e84b 75be 014b 603e 8ff8 52be
00000080: 9c4d d9bd fe46 523f 3c35 7ebe bf3d bebd
00000090: 34c2 023e b6a9 483e 62b4 00bc 93b3 a6be
000000a0: 6b75 853d c6b2 86bd 9f0b d13d f8bc 5d3e
000000b0: 9990 0f3e 3626 d9bd 0f5e 0f3e fdbf 313d
000000c0: 8c3f fc3d 57f7 9a3d 27aa bbbf 3ee3 6a3d
000000d0: 4bcf ac3d ca02 5fbd a311 8f3d ce7a e73b
000000e0: a16c b93e bd40 8abb a75d 423e ed75 30be
000000f0: fd32 7a3c 6683 29be 9529 993d 240f abbd
00000100: 7033 983d c9f8 4ebd c289 d1bd 73d5 203f
00000110: 38c1 49be 32cd c0bd 2ccd 26be b887 a53d
00000120: 2382 80bd b7e2 0ebe bf56 76be 1c4e 42be
00000130: 1311 27be 4e30 c93d 65dc b13d 8e5d 4e3e
00000140: f141 00be bb4e 29be c4c5 033e c092 27bf
00000150: e901 5d3f bdc7 b3be 9a76 6bbe 9461 58be
00000160: 84aa fabd d9cb 233e 2318 8ebe 5a48 7dbd
00000170: a709 143e c4d5 283e fc19 34be f296 04be
00000180: 1b69 633e 6b9b a7bd c717 b0bd f34e 70be
00000190: fa79 c2bd 7dcb 83bf bc38 b83e 5f14 8b3e
000001a0: 2170 083e d1a5 29be 3960 d83e b5fd c03e
000001b0: 565d 59be 5523 1ebe 6442 783e 1ea2 3b3d
000001c0: 2211 993d 60a3 67be 311d 23be 7455 a5bd
000001d0: d757 1b3d 5b3f cebe 4a89 b73e 3e95 b6bd
000001e0: ee82 0cbd 1a0b a53e 30ae 89bc ed86 87be
000001f0: 3f56 83be 41e4 10be 0906 aabd e505 44be
00000200: 4b3d 503e c928 45bd 63af 553e 51c4 9a3d
00000210: b94e 52be 16df 2b3e b51e 993e c8fe 18be
00000220: 31e0 b4be 7397 e4be 5f0f b43d ff01 59bd
00000230: e9bb 353e 9736 c1be 1863 383e 974e 36be
00000240: c689 2bbd 1f7f 4f3d e836 003e 3180 483e
00000250: 1d3e 623e 67ed 44be 4503 7a3d de3a 5d3d
00000260: 62f4 9ebf 2c23 2ebc 3a49 f63e 0529 a9be
00000270: 03bc 043e 9c49 4d3e 77ff b93e e245 06be
00000280: 77be 613e 454e 5a3d b796 ff3c 87dd 5abe
00000290: ae83 d03d cb08 15bd 678e e3bd 2f53 553e
000002a0: 38b7 9bbd 5305 583f abe1 26bb e029 b93d
000002b0: 187a a93e 9ada 7dbd ccb6 ef3d b5b5 b73c
000002c0: 778a 39be db24 b13d e73c 403e 14d0 69be
000002d0: 4eb9 663d 864c 003e 2623 343d 48e4 b0bd
000002e0: b2a0 013e ef5a b33e 140a 833f 04a6 013e
000002f0: eb1a 1e3d 85c4 e03e 257e 2fbd 7255 4f3f
00000300: 1e84 a43e fc6f 553e 6db1 c4bc c96c 5ebd
00000310: 16f1 673b 4943 6dbc afd4 6e3d 1732 8b3d
00000320: 4b92 61be 4b4e b7bd 0d33 1b3f 9526 e5be
00000330: 3ed1 c7bd 1ac3 83be 728d 05be 3178 5ebe
00000340: f1e9 923e b0f5 293d 835b 1e3e c054 e53d
00000350: 8188 5bbe 2e5a 15be 76c7 1cbd 5d3f 703e
00000360: ddb4 0f3d 56a2 80bd 6b7f cd3d ca74 0b3e
00000370: 62d4 74bf 6284 52be a0a2 bdbe 3614 41bf
00000380: eb10 77be 426a f8be 844b 8dbd b106 b53d
00000390: 2d2c 2dbe e81c 75be bcb5 49be 1133 393e
000003a0: 8979 ee3d 3bfe 503e 421b 023e a66d 7b3d
000003b0: 1434 b2be 9918 8c3e 84f7 81be 41c0 6bbe
000003c0: 3441 0cbe c3de f3bd f8a5 57be 04be 04be
000003d0: 8e06 35bd 4dcd 2ebe af47 22be dbc3 a43d
000003e0: 0d9f 93bd 3952 193e 9159 9fbd a92f 36be
000003f0: 6d47 2fbd 7a0c 55be ea5c 84bf 3b8d cdbe
0.0633914 0.07967108 -0.19115223 0.22279596 -0.27071288 -0.07359574 -0.118079685 0.14243697
0.21380556 -0.17793097 0.21081103 0.045392796 0.17918746 0.032846738 0.11694779 -0.24195375
-0.89040047 0.15914685 0.11231038 -0.15587406 -0.111745045 -0.11568616 0.14252307 0.16089109
-0.19145039 -0.11181143 -0.06848593 -0.14582999 0.022891268 -0.23954737 0.21903612 -0.2060263
-0.10610506 0.82139575 -0.24824995 -0.09289121 0.12769395 0.1959599 -0.007855507 -0.3255888
0.06516536 -0.06577067 0.10207295 0.21654117 0.14020003 -0.10602991 0.14000724 0.043395985
0.12316808 0.075667076 -1.4661301 0.05734562 0.084379755 -0.05444602 0.06985786 0.0070642
0.3621569 -0.004219143 0.18981038 -0.17232485 0.015270946 -0.16554031 0.07478634 -0.08352497
0.07431686 -0.05053023 -0.10231353 0.628257 -0.19702613 -0.09414138 -0.16289204 0.08082527
-0.062748216 -0.13953672 -0.24056529 -0.18975109 -0.16315107 0.098236665 0.08684615 0.20152876
-0.12525155 -0.1653394 0.1286841 -0.654583 0.8633104 -0.35113326 -0.22994462 -0.21130973
-0.122395545 0.1599573 -0.2775279 -0.061836578 0.14456807 0.16487795 -0.17588037 -0.12948206
0.22208063 -0.081839405 -0.08598285 -0.23467617 -0.094959214 -1.0296475 0.35980785 0.2716398
0.13324024 -0.1656716 0.42260912 0.37693563 -0.21227011 -0.15443166 0.24244076 0.045808904
0.07473971 -0.22620916 -0.15929104 -0.080729395 0.037925567 -0.4028271 0.3584693 -0.089151844
-0.03430455 0.32235032 -0.016806692 -0.26470128 -0.25651738 -0.14149572 -0.08301932 -0.19142874
0.20335881 -0.0481346 0.20867686 0.07556976 -0.20537843 0.1678432 0.2990624 -0.14940941
-0.35327294 -0.44646797 0.08791994 -0.05298042 0.17747463 -0.3773696 0.18006551 -0.17803417
-0.041879438 0.05065834 0.12520945 0.19580151 0.22094007 -0.19231187 0.061038274 0.05401122
-1.241833 -0.010628503 0.48102742 -0.33039108 0.12962346 0.20047611 0.36327717 -0.13112596
0.22045313 0.0532973 0.031199796 -0.21373568 0.10181366 -0.03638534 -0.111111455 0.20832513
-0.076033056 0.84383124 -0.0025464098 0.0904119 0.33100963 -0.061976053 0.117047876 0.022425512
-0.18119226 0.08649608 0.18773232 -0.22833282 0.056329064 0.12529191 0.043978833 -0.08637291
0.12658957 0.35030314 1.0237451 0.12660986 0.03859989 0.43899933 -0.04284491 0.80989754
0.32132047 0.208435 -0.024010384 -0.054302964 0.00353915 -0.014481374 0.0583083 0.06796663
-0.22028463 -0.0895048 0.6062477 -0.44755998 -0.09756707 -0.25734788 -0.13042238 -0.21725537
0.28694108 0.04149407 0.15464596 0.111978054 -0.21438791 -0.14585182 -0.03827616 0.23461671
0.035084594 -0.06280963 0.10034069 0.1361877 -0.9563657 -0.20558313 -0.37038136 -0.75421464
-0.24127547 -0.48518568 -0.06899169 0.08839167 -0.16911383 -0.23936808 -0.19698232 0.18085887
0.11644275 0.20409481 0.1270571 0.061383866 -0.34805357 0.27362517 -0.25384152 -0.23022558
-0.13696748 -0.11907723 -0.21059406 -0.1296311 -0.044195704 -0.17070504 -0.15847658 0.08045169
-0.07208071 0.14972772 -0.07780755 -0.17791618 -0.042792726 -0.2080554 -1.0340855 -0.40146813

net_attr_layers.bias f4 [16]
00000000: 67ae 183e 88b4 733d 2cdb 6c3e 46c1 2bbc
00000010: c247 48be fdf2 ff3d 859a 013e 57c5 59be
00000020: 5fca 8e3d b27b debd c896 21bd 9e2f efbc
00000030: 65fb d33b 9711 07be 97f1 2abe 4eaf 223e
0.14910279 0.05949834 0.23130482 -0.010483092 -0.19558623 0.12497518 0.12656601 -0.21266685
0.06972193 -0.10863437 -0.039450437 -0.02919751 0.0064691775 -0.13190304 -0.16693722 0.15887186

dev_attr_layers.weight f4 [16, 17]
00000000: ee26 903e ce36 cebf ffc2 1940 9cd5 d6bf
00000010: e07e b7bf cdaf 71be 899b b83d f35b 08be
00000020: a4a9 1fbe 4105 9bbc 3469 a5bd 6cb2 a0bd
00000030: 155c ff3b cdb7 52bd 45cd a6bc b5cb 85bf
00000040: 8b1e 4abe cb31 373e a83f d93f 9b72 13c0
00000050: 017a c23f 48e0 9b3f f88a 673e d0d8 e43d
00000060: c439 57be 9225 c53d 28c0 6b3e 49ad 823d
00000070: 1b81 263e ffd9 743e be38 18bd da88 cf3c
00000080: 53df 22bf eab8 4cbd eaa2 333e 8f1c fcbf
00000090: abe2 1a40 4a56 06c0 d07f cebf f318 75be
000000a0: 3ca4 3fbe f1ab 75bd 309c 273e 2848 263d
000000b0: bbe6 3cbe cd3c 47be 371a f73d e1bc 38be
000000c0: 23fd 09bd ac76 a83d 7fe2 e5bd 5a25 b2bd
000000d0: 7ae2 d43f 1712 41c0 db31 c83f 757b 883f
000000e0: bdc2 48be 41fc 04be 3fdf 6f3e 6feb efbd
000000f0: 40c7 26be facc 703d 33e6 883d b213 083e
00000100: e4c7 3c3e ec95 c13d 68ec c4bc 0d36 b03c
00000110: 4cd3 0a3e 136e bd3f 961e 2fc0 48e7 c03f
00000120: c89f 5e3f 8166 0dbe 34e8 5fbe a87f 313c
00000130: 261c dc3d 56e8 5b3d 2073 443d b659 3cbe
00000140: dcef 67be e0f2 8b3b 41f0 4f3e d0ca c2be
00000150: 069a 10be cdd4 133d 8eaf 20c0 a521 eb3f
00000160: 2a67 febf 14d6 b1bf 1abb 4d3e 8104 64be
00000170: 0f0e 263e f329 2fbe b300 ba3d a62b 523e
00000180: 7433 5f3b fbf4 613e cd9c 53be ac9f f1bb
00000190: 7934 173e 816f 58bd d3e5 8abd 2a8e 3b3f
000001a0: 8808 40c0 2119 ac3f 5e57 813f 3c91 0bbe
000001b0: 709a 49be 2ce6 d63c 602a 933d 9956 e5bd
000001c0: a8fa 8abd 61bb 273e a345 9e3c 7149 333c
000001d0: b1e0 f1bc 6de3 023f df84 69be 7ab3 efbc
000001e0: 4481 4a3c bf90 3f40 5ca1 40bf a099 1dbf
000001f0: 5cca 6c3e 3804 ad3d cd0d 313e 0f77 f0bd
00000200: 09e4 cabd e78f b63d 4779 25be 055a 22be
00000210: b7ed 3fbc 0a01 a5bd 49f9 4dbf 9b50 133e
00000220: 0f1a 5a3e 1b01 1fc0 efc4 0140 1afa 13c0
00000230: 1e19 ccbf 76e9 7c3d 2c37 ea3d 412c fbbc
00000240: 7b60 c4bd 0564 0a3e 81ca 45be 3cf7 1c3e
00000250: c3b3 c0bd c846 733b 50e9 0abc d015 c03e
00000260: 1a1b 96bd b9fa fc3d 9b42 cf3f 1284 2ec0
00000270: c44e ec3f a0e3 8f3f a62d 35be c441 473e
00000280: 979d 423e c5a1 3dbe 1697 99bc 2ee9 74be
00000290: ec4d 4bbe 70df 3f3d 9124 843d b84f 633c
000002a0: e7c5 043f cf20 653e 3e40 dfbd b6e6 943f
000002b0: 61b5 19c0 2bcd b23f 54fe 893f ad9b 2fbe
000002c0: b029 ba3d f4c2 fdbd 925e 4ebe 76a7 07be
000002d0: 6e84 6f3e 3a4f 543e 3d66 5e3e bdc9 113e
000002e0: 15ff 633d b127 4f3f 15a7 08be f8d9 613d
000002f0: 4509 cfbf e57b 993f 214c 63bf e4c9 13bf
00000300: c6b4 ff3d 84ed c0bd 9c2c 12be 9a01 063d
00000310: ba63 12be 00b2 21be cf74 013e 59e1 26bd
00000320: c5f1 623e e9ca 603e 8fa3 543f 95f2 aa3d
00000330: fc73 ed3d 5f6c dcbf 8e70 d03f 2c52 48bf
00000340: 8974 e1be 24ea 663e 49ba 80bd e9f7 d1bd
00000350: a592 70bd 5df9 efbd bdeb 283d a362 393e
00000360: 8b35 423e b80d e43d 17b2 56bd 93ab e83e
00000370: 5b44 5abd a0c1 a1bd 4a16 c03e 0ce5 7cc0
00000380: 9a7c 4c3f 5aa1 e23e 7025 1dbe af7a 4ebe
00000390: db65 583e bb2d 6bbe 145a 3b3e 6795 05bc
000003a0: 8711 e7bc 7657 1b3e d5a3 b7bc a865 2d3e
000003b0: cde7 b5be 27a0 57be e720 683e 6233 bfbf
000003c0: bbec c63f bdf8 7abf 52fa 16bf bef3 eebd
000003d0: 3833 febc ecf7 6b3e b1db 263e 3049 15bc
000003e0: 4296 69be 9828 2e3c cb1f 29be 1df6 493e
000003f0: 4cb4 073d e8ec 30bf cd7b 5cbd cb43 a5bd
0.281547 -1.6110475 2.4025266 -1.6783938 -1.4335594 -0.23602219 0.09014041 -0.13316326
-0.15592057 -0.018923404 -0.080767065 -0.07846531 0.0077929595 -0.051444817 -0.020361552 -1.0452791
-0.19738214 0.17890088 1.6972551 -2.30387 1.5193483 1.217782 0.22611606 0.11174166
-0.2101813 0.096263066 0.2302252 0.06380708 0.16260187 0.23911284 -0.03716349 0.02533381
-0.63622016 -0.049981035 0.17542616 -1.9696215 2.4200847 -2.0990167 -1.6132755 -0.23935299
-0.18714994 -0.05997843 0.16368175 0.040596157 -0.18447392 -0.19456787 0.12065547 -0.18040802
-0.033688676 0.0822576 -0.11224841 -0.086985305 1.6631615 -3.016729 1.5640215 1.0662676
-0.19605537 -0.12986852 0.23425005 -0.11714827 -0.16286945 0.05878923 0.06684532 0.13288763
0.18435627 0.094524235 -0.024038509 0.021510148 0.13557166 1.4799217 -2.7362418 1.5070581
0.86962557 -0.13808633 -0.21865922 0.010833658 0.107475564 0.05368837 0.047961354 -0.18393597
-0.22650093 0.0042708963 0.20306493 -0.3804536 -0.14121255 0.036091615 -2.510715 1.8369642
-1.9875233 -1.3893456 0.20090905 -0.22267343 0.162163 -0.17105846 0.090821646 0.20524463
0.0034057768 0.22066109 -0.20665284 -0.0073737707 0.1476611 -0.052840713 -0.06782117 0.732638
-3.0005207 1.3445169 1.0104787 -0.13629621 -0.1968782 0.026232801 0.07185817 -0.11198158
-0.0678609 0.16380073 0.019320315 0.010942803 -0.029526087 0.51128274 -0.22804593 -0.029260386
0.012359921 2.9932096 -0.75246215 -0.6156254 0.23124069 0.0844807 0.17290421 -0.117414586
-0.099067755 0.08914166 -0.16159545 -0.15854652 -0.0117143905 -0.08056839 -0.80458504 0.14386217
0.21299003 -2.4844425 2.0276449 -2.31214 -1.5945165 0.061746083 0.114363045 -0.03066075
-0.09588715 0.13514717 -0.1931553 0.15328687 -0.09409287 0.0037121046 -0.008478478 0.37516642
-0.07329388 0.12352509 1.6192201 -2.726811 1.8461537 1.1241341 -0.17693195 0.19458681
0.19005428 -0.18518741 -0.018748801 -0.23917076 -0.19853944 0.046843946 0.06452287 0.013873987
0.51864475 0.22375797 -0.10900925 1.1632907 -2.4016955 1.3968862 1.078074 -0.1714923
0.090899825 -0.123907 -0.20153263 -0.13247475 0.23390362 0.20733348 0.21718688 0.14237113
0.055663187 0.8091994 -0.13344987 0.05513951 -1.6174704 1.1990935 -0.8878804 -0.57729936
0.12485652 -0.094203025 -0.1427483 0.03271637 -0.14295855 -0.15790558 0.12642215 -0.040742252
0.2216254 0.21952404 0.8306207 0.0834705 0.11594388 -1.7220572 1.6284349 -0.78250384
-0.44034222 0.22550255 -0.06285531 -0.10252363 -0.0587336 -0.11717484 0.041240443 0.18104033
0.18965738 0.11135429 -0.052415933 0.454434 -0.053287845 -0.07898259 0.37517005 -3.95148
0.79877627 0.44263726 -0.15346313 -0.20163988 0.21132605 -0.22966664 0.18296081 -0.008153296
-0.0282066 0.15170082 -0.022416988 0.1693331 -0.35528412 -0.21057187 0.22668801 -1.4937556
1.5540994 -0.98035794 -0.5897571 -0.11667584 -0.031030282 0.23043793 0.16294743 -0.009111688
-0.22811225 0.0106297955 -0.16516034 0.19722791 0.03313093 -0.6911149 -0.053829003 -0.08069571

dev_attr_layers.bias f4 [16]
00000000: 3ea3 793e 9b5f 523e 2ed7 0a3c 9edb 89be
00000010: 43e2 39be 072c aabd e6e2 6dbe d9c0 0ebd
00000020: 8b37 52be 11a1 8dbe a4cf 93be a661 9cbe
00000030: ded4 b5bd deea 6e3d 22e0 ab3e 8fc2 48be
0.24378678 0.20544283 0.008474154 -0.26925367 -0.18152718 -0.08309179 -0.23231086 -0.034851883
-0.20529 -0.27661946 -0.28869355 -0.3054325 -0.08878492 0.058329456 0.33569437 -0.19605468

pin_attr_layers.weight f4 [17, 16]
00000000: fab5 59bf 6564 97bf 84c5 403e 4e62 51bf
00000010: 6fd4 dabf a0a5 53be db76 29bf db94 1740
00000020: da4c 02bf 972d a1bf 22d9 393f bc8b 62bd
00000030: 82fc e0be 15e2 aebe 4c91 babf 5ccb 7bbf
00000040: 7612 4c3e ac3d ab3d 0555 4f3f 39ce febd
00000050: fea5 40bf 00ca ad3e 3079 753f af4e acbf
00000060: e7b0 263f 18df 95bf 9e25 cf3b 5224 153f
00000070: 6c84 083f 81a8 773d 81e8 e63f 42cc 393f
00000080: 701d dabf 80ba 1640 3a96 76bf 382e 473f
00000090: 6e63 a2be 603c 12c0 574f 7a3f 5dcb 993e
000000a0: d51f 5cbf 2717 db3f ab7a a83f 694b 1bbe
000000b0: 8b9f ef3e 6072 d03e e8c8 333f 0d6d 883f
000000c0: c9db d3be 71b6 043f ea97 33bf c95b ddbe
000000d0: 5cdf 103e c79e 913d e837 103f 7921 14bf
000000e0: 57ba 8abf 4f21 c7be 3f07 503f 5bc2 bf3f
000000f0: 62cc 333d 96df b83f fd98 6d3e e0a9 013f
00000100: 55ac a3bf 1f66 1dbd 6ef7 f43f f8f9 ac3e
00000110: b60e 003e 5c1c 43bf 4564 98bf 348e 463f
00000120: 1f54 e93e 4c2b 803e 6e38 aebf 80a2 e63f
00000130: 9740 98bd a566 20be bbef 5ebf f31e 24bf
00000140: 9541 d4be 71b3 30bf a379 6bbe b306 0bc0
00000150: 4593 b33d 2201 8c3f 7d17 f1bd c4e7 98be
00000160: 7b20 74bf 5e62 bdbd bd21 82bf 5a84 fbbb
00000170: 1faa 04bf 43ec 563f 77b5 6f3d 2789 d5bf
00000180: c64b 0840 a552 c2bf ca0e 0e3e 4602 97bf
00000190: 1e9d 07bf 6f67 763f 8912 8f3e bd62 12bf
000001a0: d1ca 32c0 390e 36bf 8905 063f 4ef3 dabf
000001b0: faa6 563f 2c29 8abe b607 fc3d 3a31 603f
000001c0: 3ff6 1a3e e348 3d3f 2dd4 8b3e 7dcc 2e40
000001d0: ca2f dd3e 204d 9ebe 63cc c5bd cd5d c53f
000001e0: 95b5 debd a17a d6be c11e b83f a4f3 34bf
000001f0: f23f a0bf 659a 4140 3752 ac3f 0f09 5b3f
00000200: 0ae1 a43e 8961 e43e 54f0 c23f 18e7 a33f
00000210: 85e5 edbd bc6d af3f 863d f6be 6188 7dbf
00000220: 7e9d aebf 0071 063c e8cc cfbe bb09 36bf
00000230: 11fc b2be 706e c23e 64d2 7f3f 4639 a33f
00000240: 51a1 753f 0dfd d33d a33b 543f 73e5 0540
00000250: 6899 4b3f 6afe 8e3e 2fec 3e3e fb9c b53e
00000260: aea0 b93d 3902 df3f 540c a2bf 1640 c73e
00000270: 528d af3e 9ac2 babf 2030 bfbf ceb2 62be
00000280: 05a4 663e d332 9ebd 7a56 7c3f 87a0 a33f
00000290: a588 933e 097a 5e3f e148 4fbf ab05 b7bf
000002a0: 2404 eb3e 37eb 073f fc44 aebf 5f66 fa3f
000002b0: e05d e23f 4b5d 7cbf 8058 9ebf ec51 13c0
000002c0: 5c36 84ba f673 59bf f666 d4bf 1fd2 9c3e
000002d0: 3c4d 973f 01ed a63e 9865 c7be 2cae 3640
000002e0: 9709 533f 7960 4c3f 7bcb f13f 2eed 173f
000002f0: fda6 8e3d 523d cdbf 9b11 dcbe 247f 133f
00000300: 5e50 b03e b680 46c0 6cb7 babf 1146 b7bf
00000310: ab6c 1bbf 5dfc 84be 9a11 38bf a38b c5be
00000320: 6efa 053f a538 52bf bb15 f1be 3b05 1a3f
00000330: 51a5 90be bfee 443f 1053 44bf 8f11 73bf
00000340: 5b96 8a3c 7b68 a43d ebad 3e3f da38 ac3f
00000350: 99dd 013e beee 1cc0 d3fa d43e 4a86 f33f
00000360: 5513 3cbf 66ea 363d 0eb4 c2bf c517 b23e
00000370: 427c 3d3f 0746 b53f 2bf3 2e3f e391 0dbe
00000380: 49da 6b3f 063b 073f 5bd0 06bc b683 b9bf
00000390: 3ced 1abf 088c 37be 1e59 4c3e 4f83 9fbf
000003a0: 5f46 d4be f359 ba3f 7ace a93e 4e03 80bf
000003b0: cc23 31bf c6a8 f1be 2f0c a5bf 94c3 893f
000003c0: 078b 88bf c8a2 febf 6a39 983e 5571 de3e
000003d0: 7862 5e3b e912 83bf bd6c 653e 0a67 41bf
000003e0: e50c af3f 6ab4 a3be 6dc0 69bf a7a8 f53f
000003f0: ed63 d3bf 5574 0940 db10 29bf 3c80 e83d
-0.850433 -1.1827513 0.18825346 -0.81790626 -1.709608 -0.2066865 -0.66196984 2.3684604
-0.50898516 -1.2592038 0.72596943 -0.055309042 -0.43942648 -0.34156862 -1.4575591 -0.98357177
0.19928917 0.08361372 0.80989105 -0.124416776 -0.75253284 0.33943176 0.9588804 -1.3461512
0.6511368 -1.1708708 0.006321623 0.58258545 0.5332706 0.060463432 1.8039705 0.725773
-1.7040234 2.355133 -0.9632298 0.778049 -0.31716484 -2.284935 0.97777313 0.30037966
-0.8598607 1.711644 1.3162435 -0.15165485 0.4680141 0.4071226 0.70228434 1.065828
-0.4137862 0.51840883 -0.7015368 -0.4323409 0.14147705 0.071103625 0.56335306 -0.57863575
-1.0838116 -0.388926 0.81261057 1.4981188 0.043896087 1.4443233 0.23202892 0.50649834
-1.2786967 -0.03842747 1.913801 0.3378446 0.12505612 -0.7621515 -1.19056 0.77560735
0.45571992 0.25033033 -1.3610971 1.8018341 -0.074341945 -0.15664156 -0.8708455 -0.64109725
-0.41456285 -0.69023806 -0.2299562 -2.172284 0.08768324 1.0937846 -0.11772058 -0.29864323
-0.9536206 -0.09247278 -1.0166546 -0.0076756896 -0.51822084 0.83954257 0.058522668 -1.668248
2.1296248 -1.5181471 0.13872829 -1.1797569 -0.52974117 0.9625158 0.2794383 -0.5718191
-2.793629 -0.7111545 0.52352196 -1.7105501 0.83848536 -0.26984537 0.12306158 0.87575114
0.15132998 0.7393934 0.27310315 2.731231 0.43200523 -0.30918217 -0.09658124 1.5419251
-0.10874478 -0.41890433 1.4384385 -0.70684266 -1.2519515 3.0250485 1.346259 0.855607
0.3220294 0.44605663 1.5229592 1.2804899 -0.11616043 1.3705363 -0.48093814 -0.9903622
-1.3641813 0.008205652 -0.4058602 -0.711086 -0.34957936 0.37974882 0.99930406 1.2751853
0.95949274 0.10351 0.829035 2.0921295 0.79530954 0.27928478 0.18644784 0.3547133
0.0906385 1.7422553 -1.2660012 0.3891608 0.34287506 -1.4590638 -1.4936562 -0.22138521
0.22523506 -0.07724538 0.9856945 1.2783364 0.2881519 0.8690496 -0.8097058 -1.4298605
0.45901597 0.53093284 -1.3614802 1.9562491 1.7684898 -0.98579854 -1.2370758 -2.301875
-0.0010087001 -0.8494257 -1.6593921 0.3062906 1.1820445 0.32602695 -0.38944697 2.8543806
0.8243651 0.79834706 1.8890222 0.5934628 0.06965444 -1.6034338 -0.42982182 0.57615876
0.34436315 -3.101606 -1.4587226 -1.4318258 -0.6071269 -0.25973788 -0.7190186 -0.38583097
0.5233525 -0.8211768 -0.47086892 0.6016423 -0.28251126 0.769268 -0.76689243 -0.9494867
0.016917398 0.080277406 0.7448413 1.345485 0.12682189 -2.4520717 0.41597614 1.9025357
-0.73467 0.044657134 -1.5211198 0.3478376 0.7401773 1.4161996 0.68339795 -0.13825183
0.9212995 0.5282444 -0.008228387 -1.449332 -0.6051824 -0.17924511 0.1995587 -1.2461947
-0.4145994 1.45587 0.33165342 -1.0001009 -0.69195247 -0.47199076 -1.2894343 1.0762811
-1.0667428 -1.9893427 0.29731303 0.4344584 0.0033933204 -1.0240146 0.22404762 -0.7554785
1.367581 -0.31973583 -0.91309243 1.9192094 -1.651487 2.1477253 -0.66041344 0.11352584

node_encoder.weight f4 [4, 16]
00000000: 12c7 3a3f 647e 9cbe 9da3 c73f a289 693f
00000010: f2c4 31be bae3 6f3f 6276 093e de89 313e
00000020: 80ab 48bf 63f7 e8bf 7968 00bf 972a e0be
00000030: 059a 203e 8250 663f e673 b53d 5a90 923f
00000040: 4ffd 30bf 88da ebbf c34b c1bf e6ba 18bf
00000050: 1688 e33e dab3 79be b10d 24be e510 00c0
00000060: e1ff 72be 085f 76be 5e25 683f 44ef 553f
00000070: d12e 81bf 104a 88be b5f9 44bf 1957 563f
00000080: 7e29 593f 05be 66bf de36 28bf 13f1 e0be
00000090: 08f4 84bf d1a1 bebf 355c 0e3f 4d30 6bbd
000000a0: 44b3 ed3e 14f6 d3be 9437 13bd 462f 2e3e
000000b0: dfac fc3e e38b 97bd 20e2 6fbf 2f77 17bf
000000c0: 380b 36bf 2ef9 c5be 7134 753f 6291 52bf
000000d0: f302 19c0 a7fd a43e bd0c f03f ab59 8d3f
000000e0: 6dba 05bf 767c 3dbf cd40 263e 80af 72be
000000f0: 158b 023f 09d7 d53f 19ca cb3f 2217 d5be
0.7296001 -0.30565178 1.5596806 0.91225636 -0.17360285 0.9370686 0.13424066 0.17337748
-0.7838669 -1.8200496 -0.5015941 -0.43782493 0.15683754 0.89966595 0.088599965 1.1450303
-0.6913652 -1.8426065 -1.5101246 -0.59660184 0.44439763 -0.24385014 -0.16020848 -2.0010312
-0.23730423 -0.24059689 0.9068202 0.83568215 -1.0092412 -0.26619005 -0.7694352 0.8372665
0.8482894 -0.90133697 -0.6570872 -0.43933925 -1.0386972 -1.4893132 0.55609447 -0.05741911
0.4642583 -0.4139868 -0.035941675 0.17010221 0.4935064 -0.07399728 -0.93704414 -0.59166235
-0.7111087 -0.38666672 0.95783144 -0.82253087 -2.390805 0.3222477 1.8753887 1.104299
-0.5223759 -0.7401804 0.16235657 -0.2369976 0.5099347 1.6706249 1.592105 -0.4161921

gnn_layers.0.lin_l.weight f4 [32, 32]
00000000: 8474 2fbc 17ff 103d 190e 903d cb78 03be
00000010: 0520 73bd a144 083e 73ce 6fbe f775 b83d
00000020: e9f6 1b3e f94f 423e eff0 1a3d e7b2 3dbe
00000030: 9c6b 4e3d 2fcd 98bd a823 c63c b185 eb3d
00000040: f488 e2bc f6f6 37be 2a5a 08be 91e9 103e
00000050: 0732 903b b438 533e d718 19bc 1d76 b9bd
00000060: d628 813d 529d 833e e94f a83d 3e09 2f3d
00000070: 7060 ddbd d605 f2bd 74be ec3d 6147 fdbd
00000080: 6200 29bd a24e a23d b1e9 a83d 0377 113d
00000090: 245a 9fbd b651 4bbd eb59 943d e1c0 3e3e
000000a0: b3e5 183e 1630 883c 7ee9 663c 984d eebd
000000b0: c5e3 09bd bafc 5cbd dd4f 893c 75ec 24be
000000c0: be3d 133e 72a7 42be 87cb bf3e 618b 0dbe
000000d0: ba69 20be 0d83 ba3e 394a c93d 8bec a3bd
000000e0: 6a07 063f 884f 74be f698 9bbd 56d3 f23e
000000f0: aa3a ba3e d6eb 923d 97e1 583e 244f 193e
00000100: 0763 a83e bcd5 db3d 49e1 b33e 5679 ff3e
00000110: 8df3 35be d0df e43e db1c ffbd d0e9 b53e
00000120: f412 a9bd b593 afbd 0870 93be 419c 08bf
00000130: 9588 ac3e 1e63 693e d273 303e 0cb5 583d
00000140: 7fea 3fbe 1787 7d3d 36ed 9ebd 2dec 8a3e
00000150: 1e80 8c3e 86ad e53e 8a94 663e d085 12be
00000160: ade5 2d3d 0f21 6c3e 5f85 98ba bdfd b9bd
00000170: f7c4 0bbe fee6 c63e 70d5 d0bd c3da c83e
00000180: 31ff 7abd 13ad 5e3d 062a 213e 4018 823c
00000190: 7db0 3d3c 04e6 6e3e cba2 8b3d 4903 bbbd
000001a0: 2fae 0bbe dc23 023e c419 09bc 2474 583d
000001b0: cf3f cfbc 57e5 dc3c b558 05be 651f 68bd
000001c0: e0df 0cbe 7aca d73e 2469 51bf 767d 7d3f
000001d0: 5cb1 613e 62b3 b2be 93a4 523e 8d31 58be
000001e0: 7862 05bf aa2d 3c3f 0ee6 983d f538 fdbe
000001f0: 0205 02bf acbd 653f 740c 97be 687b 503e
00000200: 45c3 b1bc 9af1 073d 6000 a43d b96a 783b
00000210: d01a fe3d 57d0 3bbd 3737 92bd b6ad fe3b
00000220: 2634 783c 2f3d 2d3e 378c bb3e 0526 d03d
00000230: f0a1 053e f289 90bd 69c6 213c bb8e a0bd
00000240: 4127 d53e 22b0 5dbe c313 283f fb60 4cbe
00000250: 8d85 b4bd 2fdc 5f3e 5386 f4bc 2858 39bf
00000260: 1f04 553f bf34 a0be ce15 08be 446e 963e
00000270: b648 903e c810 04be ca89 b03e 0276 6a3e
00000280: 5f55 f4be 3c0f dd3d 2582 babe 8033 51bd
00000290: 5a19 a73e f22a 2b3d 7510 b93d 034a 36be
000002a0: ed08 5abd 3fab 0f3e 35a7 1b3d 67fa 603e
000002b0: 060c 80be d99f b43d 363a 09be d427 24bd
000002c0: 9b45 0cbd 8ad6 d4bd 62a2 6f3b cca3 453e
000002d0: 5925 693e f991 dabe ca17 30be ea4c 923c
000002e0: aa15 edbd 0a06 e63d 9472 013e 2096 1fbf
000002f0: 557a 03be 24b3 94be 1fa3 80bc b298 883d
00000300: 9436 563e 80e9 8a3d 058e b83d 7551 fbbc
00000310: 4be8 bfbd 023e ddbd 7027 d5bd 9efe cc3e
00000320: 5b68 22bd 2de1 923d f101 0fbf 3a49 ca3d
00000330: 2fa4 8c3e f98c a7bd d6c8 043e 7f0a d7bd
00000340: 34d6 bebd 4f38 603e 9235 ac3e 9c55 c23e
00000350: 96b0 38be e628 483e 4c56 b73e 5d58 44be
00000360: 25e2 eb3e 052a c8bd e1e6 e53d 3676 b33e
00000370: 82e8 873e 19cd 0d3e ad4d ea3e c0b0 ea3e
00000380: e4c7 9e3c e04b 8b3e 5ba1 0cbd d857 fe3c
00000390: 102c 363c 5f91 233e 49d0 61bd ed75 933c
000003a0: 4ee2 073c 5b89 b93c 0f1e 46be 0e10 763d
000003b0: e458 1cbe 9f97 0bbd 7d35 843d d333 57bd
000003c0: 93d6 8b3d 6040 ad3d c119 17be 04b4 4f3e
000003d0: 419c 3a3e 0174 0e3e 1a3e 84be 4539 c93d
000003e0: e261 7dbe e37c 5bbc 7e4c f3bd d144 e3bd
000003f0: bdb8 e73c 2566 adbd ca78 24be 18fb 86be
-0.010708932 0.035399523 0.07033939 -0.12839048 -0.059356708 0.1330743 -0.23418598 0.09006875
0.15230907 0.1897582 0.03782743 -0.18525277 0.050395593 -0.07461011 0.024186924 0.11500109
-0.027653195 -0.17965302 -0.13315645 0.14151599 0.004400495 0.206271 -0.009344301 -0.090557314
0.06306617 0.25705963 0.08218367 0.042733423 -0.108094096 -0.11817519 0.115597636 -0.1236713
-0.04126013 0.07925154 0.08247698 0.03551389 -0.07780865 -0.049638472 0.07243713 0.18628265
0.14931373 0.016624492 0.014093755 -0.116358936 -0.033664484 -0.053951956 0.016761715 -0.16105826
0.14379022 -0.19009188 0.37459967 -0.138227 -0.15665331 0.3642811 0.0982861 -0.08004101
0.5235506 -0.23858464 -0.07597534 0.47426862 0.36372882 0.071738884 0.21179806 0.14971596
0.32888052 0.10734126 0.35132816 0.4989726 -0.17768688 0.44702005 -0.124566756 0.35529947
-0.08255568 -0.08573095 -0.2879641 -0.53363425 0.33697954 0.22791716 0.17231682 0.052907035
-0.18741797 0.06189641 -0.07760088 0.27133313 0.27441496 0.4485895 0.225176 -0.14308858
0.042455364 0.23059486 -0.0011636427 -0.090816 -0.13649355 0.38848108 -0.1019696 0.39229402
-0.061278526 0.054364275 0.15738687 0.015880704 0.011577723 0.23329931 0.0681816 -0.09131486
-0.13640665 0.12708992 -0.008367959 0.052845135 -0.025298981 0.026964827 -0.1302212 -0.056670565
-0.13757277 0.42146665 -0.81801057 0.99019563 0.22040313 -0.34902483 0.20570593 -0.21112652
-0.52103376 0.7350718 0.074657544 -0.49457517 -0.5078889 0.8974254 -0.29501688 0.20359576
-0.021699557 0.033189394 0.08007884 0.0037905409 0.12407458 -0.045852985 -0.07139438 0.007772173
0.015149152 0.16917871 0.36630413 0.10163502 0.13050056 -0.07057561 0.009873965 -0.07839724
0.4163151 -0.2164922 0.65655154 -0.1995887 -0.08814535 0.21861337 -0.029849207 -0.7240014
0.83209413 -0.31290242 -0.13289568 0.29381 0.28180474 -0.12897027 0.34480125 0.22896579
-0.47721383 0.10793921 -0.36427417 -0.051074505 0.3263653 0.041789003 0.09036342 -0.1780167
-0.05323117 0.14030169 0.038001258 0.21970521 -0.25009173 0.08819551 -0.13401112 -0.040077046
-0.03424607 -0.103924826 0.0036565294 0.19300765 0.22768153 -0.42689493 -0.17196575 0.017858941
-0.11576398 0.112316206 0.12641364 -0.6233845 -0.12839635 -0.29042923 -0.015702782 0.06669749
0.20919257 0.06782818 0.09011463 -0.03067849 -0.09370478 -0.10802843 -0.10407913 0.40038007
-0.039650302 0.07171855 -0.5586234 0.09877248 0.27469012 -0.08181185 0.12967238 -0.10500049
-0.093182 0.2189648 0.3363462 0.3795594 -0.18036112 0.19546852 0.35808027 -0.19174333
0.46070972 -0.097736396 0.11225677 0.35051125 0.26544577 0.1384777 0.45762387 0.45837975
0.019382425 0.27206326 -0.034333568 0.031047747 0.011118904 0.15973423 -0.055130277 0.018000567
0.008293701 0.022648504 -0.19347404 0.060073905 -0.15268284 -0.034080144 0.064555146 -0.052539658
0.06828036 0.08459544 -0.14755918 0.20283514 0.18223669 0.1391144 -0.2582863 0.098253764
-0.2474437 -0.0133964745 -0.11879824 -0.1109711 0.028286332 -0.08466748 -0.16061702 -0.26363444

gnn_layers.0.lin_l.bias f4 [32]
00000000: 066c 3d3c c86d 84be 772a c63c e22d 86bd
00000010: c9d0 373c c97a 0f3e a540 1cbe de78 bbbd
00000020: 1a25 27be 7104 953d 07a6 de3d bf58 9e3d
00000030: 1127 89bd 7bf6 8cbc d451 54be 1500 d13c
00000040: bcde 173e 1779 26be 6bdc 04be 631e afbd
00000050: 4a96 8cbd 3938 00bd 073b 2f3e 41df 4fbd
00000060: 1d4d e53c 409a 883d 5b53 40be 2569 a43d
00000070: ac02 bf3d eac4 acbc 2394 d7bd 0050 853e
0.011561399 -0.25865006 0.02419017 -0.0655172 0.011219212 0.14011683 -0.15259035 -0.09153913
-0.16322747 0.07276238 0.10871511 0.07731771 -0.066969045 -0.017207375 -0.2073434 0.025512734
0.1483106 -0.1625713 -0.12974708 -0.08550718 -0.06864603 -0.031303618 0.17112361 -0.05075002
0.027990872 0.06670046 -0.18781798 0.08027867 0.093266815 -0.02108999 -0.10526302 0.26037598

gnn_layers.0.lin_r.weight f4 [32, 32]
00000000: 9ccc 2cbe 9007 ed3d ac2d 3a3d 7f9c 0d3e
00000010: c911 b6bd ac69 483d 424b 22be 6ff6 093e
00000020: 36c2 333d e80c 77bd 431a 4c3c 9c2b fe3c
00000030: 0bd1 303d b6a7 2d3e 23a3 033e 7c82 403d
00000040: cd27 023e 13c0 11be 72f8 983d 1db2 c93c
00000050: 9329 1c3e 45d0 a73d 1aec 5d3c 685b c03d
00000060: 7ee5 45bd d90c c93d 411e cc3c ff78 e6bc
00000070: dbde f03d daa1 02be b19c e0bc b842 e93d
00000080: 05f1 c5bd 9665 f8bd d33b 11bd a23b 05bd
00000090: a1fe 9f3e 071b 17be 61ad 37be 9dfd 0abe
000000a0: 93d1 04be 6e3b 283e bda1 47bd 44cf 1f3e
000000b0: e296 43be 1847 5abd 1eb7 69bd 14b7 893c
000000c0: 9eaa c33e a98b acbd 2914 4f3f ba7a 6fbe
000000d0: 62a3 20be 8f85 1c3f 2855 21bf de1f 823e
000000e0: fa53 b53e 75ab bdbe b44e 13bf 49b7 c23d
000000f0: 0e21 7e3e c5ba e4be c4ba 973d 0c2d 65be
00000100: a7d0 fabd 48f2 0d3e 09f1 d83b c9b4 0d3e
00000110: 79a4 e23d edd6 293e 9ba3 a6bc a4ec 4dbb
00000120: d9ae 103e 7e23 c53d c466 103d 5378 d8ba
00000130: fe29 86bd 670e 49be 285e b53d 81de 01bd
00000140: c4b9 50be d4ae 00be 4e99 98be 1baa 84bd
00000150: e019 403d adbf ea3c b19e 6abe 510c 3e3e
00000160: c46d eebe 7f72 813d 8b2e aa3d 1fc2 fbbe
00000170: 155b 20be 8f94 52be 7bdd adbd c10a e0bd
00000180: 8a43 2f3d 1392 83bc 4b7b 263d 1fe8 873d
00000190: 385d 22be 282b acbd 99bc 2d3e e744 1d3e
000001a0: f2c6 8abd fd44 20bd e62b 44bd 005d b0bd
000001b0: 8952 95bd e646 28be 4d55 1d3d 76ed 403d
000001c0: 76dc ba3e 569a 523e 62de 36be 9b90 7ebc
000001d0: 5d75 4d3e 76bc 32bd 2dce b63d 19f6 eabd
000001e0: 5f57 c7bc 625c 65be a454 b8bd 4b0f 1dbe
000001f0: 68b1 45be 0af4 98bd 5581 cfbd 8ad6 e8bd
00000200: 6ae7 90bc 27c6 463e 7868 94bc 76c8 1b3e
00000210: b722 b4bc daaa 283e 13da 103e f52f fe3d
00000220: cd27 07be 57d0 c83d 2ab1 fe3c 3f2d 95be
00000230: a0ea 363e 4f9d 1cbd e659 b73e 7479 0d3e
00000240: 345d 8f3e 4275 f63d e1d7 273e cec5 9f3e
00000250: c420 493e 7aef 1f3e 1b02 9abd 83df 7dbc
00000260: a712 3e3e ccc2 b03d 86a6 c2be 35fc fabe
00000270: 6132 e83d a8cd 9f3e 5b56 f33d be45 953e
00000280: 7f68 e5bd a563 a53c aee7 02be b4ef 22be
00000290: 930f 57bd f115 0e3e ab6c 3c3e 3421 6a3e
000002a0: 531b 303e 7366 c2bd 672b b3be 2233 bd3d
000002b0: cb7d ddbd 5b08 07be baa8 923d 0056 3fbd
000002c0: fb82 cf3e ed31 2fbe bd0d d73e 3e8f fb39
000002d0: ed4b 133d d186 843e 731f a13e bad8 09bf
000002e0: 5952 003f a8b8 57be 5ee0 11bf 0b35 a43e
000002f0: 166a 2a3e 320d 813d 4232 cb3e 3f09 3d3d
00000300: a553 45bd 12d9 74bd 99ee febd eb01 f13d
00000310: 4f03 263e a703 8abd f475 af3d 125d fcbd
00000320: 05d7 383d 1571 8ebd def9 593e 75e8 353d
00000330: 905b b8bd 547a c63d 1540 e73c 6dbf a0ba
00000340: 7183 773f b79b 59be ae44 433f 3ce1 07bf
00000350: 3cec 6dbe 4237 013f dc9c 2abf 3f21 db3e
00000360: 65d6 013f a291 90be 3d04 8bbf b9f5 a4bd
00000370: 968c cd3d 7577 34bd cc57 c63e e228 cebe
00000380: 4b19 13be 6059 71bc f0a3 35bc 5ea4 09bd
00000390: 946e 943e d2ea 063c 7810 a5bd 9594 8d3e
000003a0: e4b7 e83d e8ea a0bd 6088 d8bd 2aa9 4bbe
000003b0: 2cb5 da3d 8a13 88bd bda0 343e 37a3 e13d
000003c0: 1f9b 593e 38be 44b7 f944 5abe 830c ff3d
000003d0: ed97 aa3e cce3 c63d 8786 adbd 9418 90be
000003e0: 515b 57bd c7f6 55bb 5eaa acbe 2766 1dbe
000003f0: 8958 ce3c 86bc 3f3e 647e 6f3c 5381 2abd
-0.16874927 0.11573708 0.045453712 0.1382923 -0.08890111 0.0489289 -0.15849021 0.13472913
0.043886386 -0.060315043 0.012457433 0.031026654 0.04316811 0.16958508 0.128552 0.04699944
0.12710495 -0.14233427 0.07469262 0.024621064 0.15250234 0.08194021 0.0135450605 0.09392434
-0.048314564 0.098169036 0.02491677 -0.028133867 0.11761256 -0.12757054 -0.027418466 0.11389679
-0.096651115 -0.12128751 -0.035457443 -0.032527573 0.31248954 -0.14756404 -0.17937233 -0.13573308
-0.12970571 0.1642892 -0.04873823 0.1560641 -0.19100526 -0.053290457 -0.0570594 0.016810931
0.38216108 -0.084250756 0.80890137 -0.2338666 -0.15687326 0.61141294 -0.63020563 0.25414938
0.35415632 -0.37044874 -0.57541966 0.09507615 0.24817297 -0.44673744 0.074086696 -0.22380465
-0.122468285 0.13861954 0.0066205305 0.13838495 0.11066527 0.16585894 -0.020341685 -0.0031421566
0.14129199 0.0962591 0.035254255 -0.0016515352 -0.06550978 -0.196344 0.088558495 -0.031706337
-0.20383364 -0.12566692 -0.29804462 -0.064777575 0.046899676 0.028655851 -0.22912098 0.18559386
-0.4656812 0.063206665 0.083096586 -0.4917154 -0.15659745 -0.20564483 -0.0848951 -0.10939551
0.04278902 -0.016060865 0.040644925 0.066360705 -0.15855873 -0.08406669 0.16966476 0.15358315
-0.06776227 -0.039128292 -0.047893427 -0.08611488 -0.07291133 -0.16433296 0.038411427 0.04710146
0.36496323 0.20566687 -0.1785827 -0.015537406 0.20064302 -0.04363676 0.08926044 -0.11472721
-0.024333654 -0.22398522 -0.09000519 -0.15337865 -0.19305956 -0.07468422 -0.1013209 -0.11369045
-0.017688472 0.19411527 -0.01811622 0.15213189 -0.02198921 0.16471425 0.14145689 0.12411491
-0.13198777 0.09805363 0.031090338 -0.29136083 0.1786294 -0.03823596 0.35810775 0.13815862
0.28000796 0.12034084 0.16390945 0.312056 0.19641405 0.15618697 -0.07519933 -0.015495184
0.18561803 0.086309046 -0.38017672 -0.49020544 0.11337734 0.3121159 0.118817054 0.29154772
-0.11201572 0.020189116 -0.12783691 -0.15911752 -0.052505087 0.13875557 0.18400829 0.22864228
0.17197923 -0.09492197 -0.3499405 0.092382684 -0.10815009 -0.13186781 0.07161088 -0.046712875
0.40529618 -0.17108889 0.4200267 0.00047981174 0.03596108 0.25884107 0.31469306 -0.53846323
0.5012565 -0.21066535 -0.5698298 0.3207172 0.16642031 0.06301345 0.3968678 0.046151396
-0.048175473 -0.059777327 -0.12447853 0.11767944 0.162122 -0.06738978 0.0856742 -0.12322439
0.045126934 -0.069551624 0.21286723 0.04441114 -0.09001839 0.09691301 0.028228799 -0.001226408
0.9668494 -0.21250807 0.7627667 -0.53078055 -0.23234648 0.5047494 -0.666456 0.42798802
0.50717765 -0.2823611 -1.0860668 -0.080546804 0.1003658 -0.044059236 0.3873886 -0.40265566
-0.14365117 -0.014730781 -0.011086449 -0.03360402 0.28990614 0.008234696 -0.08059782 0.27652422
0.11363199 -0.07857305 -0.105728865 -0.1988875 0.10679087 -0.06644352 0.17639442 0.11017459
0.2125058 -1.1726799e-05 -0.21315373 0.12453558 0.33319035 0.097114176 -0.08472925 -0.28143752
-0.05257732 -0.0032648311 -0.3372373 -0.15371 0.025188701 0.1872426 0.014617536 -0.04162724

gnn_layers.1.lin_l.weight f4 [32, 32]
00000000: a63b 5e3e 966e 5b3e 9742 bdbe 560b 21be
00000010: fcb8 313e 457a 2c3e fbb9 0ebe 1e60 c1bd
00000020: 1623 083d bd04 453e 9e82 a03e 7fdf b0be
00000030: 1257 60bf 0706 8f3d b1e7 72be eea3 c53e
00000040: 6857 37be 2f3b 963d 45b8 b7be a416 15bd
00000050: b932 e6bd d490 c13d 0cff f23d a502 a73d
00000060: 2d0c 903e 3750 1a3f fab0 07be fbb9 003f
00000070: 0f7b 35be 6ee3 b73c 0134 f4bd f71a 0abf
00000080: 2232 9fbc 8037 1d3e 961f a53d 4060 70bc
00000090: 52ae 0ebd 355c 013d 1239 ed3c c659 6dbd
000000a0: 167b 253e e89d 5b3c cfcc 913d 0879 853e
000000b0: c92d 2cbc 76f7 a93e efc7 a03d a09b dc3c
000000c0: c477 98be af0e 65be 7e4d 87be a33e 323e
000000d0: 4650 7d38 5cbf 24be 9f57 0ebe fd1f 903e
000000e0: a2fb 3b3e 8c19 6d3e 54ad 193e ea95 e7bd
000000f0: 530e 53b9 9f1e 71ba a0e1 e8bc f5dc f43e
00000100: efa2 d6bc 214c a73e 9d33 af3d b624 aebd
00000110: ceba 82be a28e 00be 59fe 713d 858f c3bd
00000120: 2a06 f93d 3fc5 d93d cfe4 2bbd 3e73 913e
00000130: 12c3 afbe c24c 4e3d d93d 1f3d 43b8 98be
00000140: b24f 51bd 62b3 da3e 5d89 523d 8b13 183e
00000150: e405 023e ad08 ba3c 5a54 3e3e fdc4 a3bd
00000160: c1d6 a3be 745d 2b3f 1058 a33d e72f f13e
00000170: 6bff 523e b76d e53b 59ea e03e 3cae e83e
00000180: 19a0 133e d911 afbd 8629 10be e312 63be
00000190: 8951 a0be a407 c13d 855c 0abe 98fd f2bb
000001a0: 3a1b 483e f5ae 7abd 80d5 5f3d bb0f 5a3e
000001b0: c9b9 55be 4df2 89bd ec0c 823e 761e 28bd
000001c0: 72d4 4dbe 87c5 453e 7a5c 973d a27a 88be
000001d0: 9a3c e5bd 6987 12bb 108a 94bd a646 ef3d
000001e0: a348 fcbd 9aa4 843e c9bd 51bd 4b70 a73c
000001f0: 21f1 303d 57db 90bd f202 d1bd 8096 ee3e
00000200: 50b5 063e 34ee 86be bd76 55bd 6ba6 4dbe
00000210: 895c b63e e266 9f3c e8cf aebe 63b1 623d
00000220: b5ee af3d 7873 0a3d 92e6 22be e65b 73be
00000230: f4a7 d33e 5e44 013e 101d fbbe 17bd 30bd
00000240: fe96 71bc 4408 cbbe 7535 bf3d f184 d73c
00000250: 97ba a13d 289e 17be c31c 6ebd bc23 db3d
00000260: a9c8 9f3e 7c9d 43bf cebf cdbd 3c93 e3be
00000270: 0cbe d03d a165 a0be a4d4 ddbe 0c56 48be
00000280: 0e01 cbbd 231d c5bd ff2c b33d 5c20 0bbe
00000290: e56e b2bd 2de5 853d f99f 2bbe 0852 57bd
000002a0: e8f1 eb3c 83fb bfbd cc9e a2bd b66b c83d
000002b0: d3ff d83d 3d2f 783e 4bdc 163e 369b b63d
000002c0: b61a 96be 1edb 84be ce0b 17bf e21e 36bd
000002d0: 9ba9 ba3d 5fcb 85be 1234 acbe ff63 8f3e
000002e0: acdf 9ebe 8c37 52bd dc5a e83d 98b3 fbbe
000002f0: 10bf 443c 1c20 77be a93e 183e ac01 2d3e
00000300: 7ada 373d 5f69 2a3d d11e 753d 5108 c1be
00000310: dd6f 2cbe 913d 4b3d b546 e33d 4ae9 bebc
00000320: 8d9d 863c 8bc6 a6be 30d0 263e bf63 103e
00000330: 0458 6dbe 022d 58be ec9d ed3d 7bb5 863c
00000340: e3ae b8be a40f 1f3e e435 b6be 8434 0f3e
00000350: 8a10 c73d 3102 903e 418f 5a3e 3a93 b1bd
00000360: b570 e6bd c4ae 7e3d e2df 473e 8728 c13e
00000370: a2f1 813e 6347 1c3e 729c 8bbd 35d9 f43e
00000380: 607d 073e c68c e5bd b401 0e3e 2414 c43d
00000390: dc14 d93e 8b47 ebbc 9219 aebd 503f 1fbe
000003a0: 96a6 b33b b6bd 3abd c78e 56be 496f 773d
000003b0: 80bc 363e b07b 9c3d 1892 1e3e 29e2 0fbd
000003c0: 61db e4bd f714 55be e10b 603e e11c e03d
000003d0: ecc1 5e3d 3083 3bbe 5906 babc daa3 a53e
000003e0: 2d50 e93d 57cc 22bf d323 c23d 900a dbbe
000003f0: 7e38 6bbd b1c1 013d 0763 91bb b0d4 a83e
0.21702442 0.21428904 -0.36964867 -0.1572698 0.17355722 0.16843517 -0.13938133 -0.09442161
0.033236586 0.19240089 0.31349653 -0.34545514 -0.8763286 0.069835715 -0.23721196 0.3860163
-0.17904437 0.07335507 -0.35882774 -0.036398545 -0.11240143 0.09451452 0.118650526 0.08154801
0.2813429 0.6027865 -0.13251105 0.50283784 -0.17722724 0.022447314 -0.119239815 -0.53947395
-0.019433085 0.15353203 0.08062665 -0.014671385 -0.034834214 0.031582076 0.028957877 -0.057946943
0.16160235 0.013404347 0.07119142 0.26068902 -0.010508963 0.3319661 0.07850634 0.026929677
-0.29778874 -0.22368883 -0.2642631 0.17406707 6.039466e-05 -0.16088623 -0.13900612 0.28149405
0.18357709 0.23154277 0.15007526 -0.11307891 -0.00020127864 -0.00091979833 -0.028427899 0.47824827
-0.02620074 0.3267527 0.08554766 -0.08503096 -0.25533146 -0.1255441 0.059080455 -0.095488586
0.12159379 0.10633325 -0.041966256 0.28408235 -0.34328514 0.05036617 0.038877342 -0.2982808
-0.051101394 0.42714983 0.05140053 0.14851205 0.1269756 0.022709215 0.18586865 -0.07996557
-0.31999782 0.66939473 0.07975781 0.4710686 0.20605247 0.0070016044 0.43928793 0.4544543
0.14416541 -0.08548326 -0.1407834 -0.22175173 -0.31312206 0.094252855 -0.13511856 -0.0074154846
0.19541636 -0.06120201 0.05464697 0.21295063 -0.20871653 -0.06735668 0.25400484 -0.041044675
-0.20100573 0.19313632 0.073906854 -0.2665606 -0.111931995 -0.0022358543 -0.07252896 0.11683397
-0.12318542 0.2590683 -0.051206384 0.020439288 0.04319871 -0.07073086 -0.1020564 0.46599197
0.13155103 -0.2635361 -0.05211519 -0.20083015 0.35617474 0.019458238 -0.34142995 0.05534495
0.08590452 0.033801526 -0.15908268 -0.23765525 0.41339076 0.12623736 -0.4904561 -0.04314908
-0.014745472 -0.39654744 0.09336368 0.026308509 0.07896917 -0.14806426 -0.058132898 0.10700175
0.3120778 -0.7641218 -0.100463495 -0.44448268 0.101924986 -0.31327537 -0.43326294 -0.19564074
-0.099123105 -0.09624698 0.08748817 -0.13586563 -0.08712558 0.065378524 -0.16760243 -0.052568465
0.028801873 -0.09374144 -0.07940444 0.09786169 0.105956696 0.2423677 0.14732473 0.08916323
-0.29317254 -0.25948423 -0.5900239 -0.044463046 0.09114381 -0.26131722 -0.33633476 0.28005978
-0.31030023 -0.051322505 0.11345455 -0.49160457 0.0120084435 -0.24133343 0.14867653 0.16895169
0.04488609 0.041604396 0.059843842 -0.37701657 -0.16839547 0.04961926 0.11097471 -0.0233046
0.016432548 -0.3257335 0.16290355 0.1410055 -0.23178107 -0.21110919 0.11602387 0.016443959
-0.36070928 0.1553331 -0.3558799 0.13984877 0.097199515 0.28126672 0.2134371 -0.08670659
-0.11251966 0.06217839 0.19518998 0.37726232 0.25379664 0.15261607 -0.06816949 0.47821966
0.1323142 -0.11208491 0.13867837 0.09574154 0.42398727 -0.028720638 -0.08500971 -0.15551496
0.005482505 -0.04559108 -0.20952903 0.060408864 0.17845345 0.07640779 0.15485418 -0.035127793
-0.11174656 -0.20808779 0.21879531 0.10943008 0.054384157 -0.18311763 -0.022708105 0.3235157
0.113922454 -0.6359305 0.09479489 -0.42781496 -0.057426922 0.03167886 -0.004436854 0.32974768

gnn_layers.1.lin_l.bias f4 [32]
00000000: d52f 96bd e469 e43d 9368 033d 1b10 4dbe
00000010: e58f 403e 7888 b53d b9b4 ebbc b680 9f3e
00000020: ea2e 33bd 74e1 b6bd bf56 7339 07f2 f7bc
00000030: ec08 2a3e d4bb a93c aaf3 12be 0590 46be
00000040: fe0c c3bd b303 853d 76e8 be3d ebd6 0bbd
00000050: d5ef 11be 0363 913d 2039 403d 0bb4 283e
00000060: 01bc edbc ecd0 4fbe effc 41be 7515 35ba
00000070: 9b0a 043c b238 babd b20a 25bc e0c6 06be
-0.07333342 0.111530095 0.03208215 -0.20025675 0.18804891 0.0886392 -0.028772699 0.31152886
-0.043745913 -0.089297205 0.00023206601 -0.030266775 0.16604966 0.020719446 -0.14350763 -0.19390877
-0.095239624 0.06494846 0.09321682 -0.03414051 -0.14251645 0.07098963 0.04692948 0.16474931
-0.029020311 -0.20294541 -0.18944143 -0.00069077994 0.008059169 -0.09092845 -0.010073351 -0.13161802

gnn_layers.1.lin_r.weight f4 [32, 32]
00000000: f823 ce3d 68e6 5f3d 361c aa3e de92 31bf
00000010: 817c 9a3d 6bf7 a2be efae 743e 967b b3be
00000020: 4e3a 3a3e d627 a2bd 95a7 6f3e fe3d 333e
00000030: b5e7 e5be bfb9 23be 9c95 3dbd 0c94 d83d
00000040: e7fe e0be 84c5 4d3d 2768 f2be 9f61 823e
00000050: 7153 063e 5ec6 9abe 1ec2 0fbe f2a1 ac3d
00000060: 766f c73e f8bf a8be 57fc b2be d351 ac3e
00000070: 4f5c 023d c321 99be 33d9 763e 8ad6 d13e
00000080: 9639 20be 4a08 51be 69d7 d8bd 04fe 5a3e
00000090: 6900 6cbe 20c7 923e b0a6 6f3d 8cfb e7bd
000000a0: 3f5d 003e 4571 a93e 729b 8e3d 0de7 83be
000000b0: a2b6 40bf 9a96 933d e58f a23d 7757 753e
000000c0: 13af a03e 5090 dc3e 188e 2fbe 895c 983d
000000d0: 16ac 533d 2669 b53e 94be cd3e c2c7 8abd
000000e0: cd51 8ebe 3831 cd3e fba2 cebd dbbf 033e
000000f0: 0f58 be3d e918 a13b 2695 4bbe c242 8ebe
00000100: 21a4 c1bc 0a41 dc3c 682f 2a3e 0d7e c5bd
00000110: b667 02be 11a0 36be 655b 60be 4422 d13d
00000120: 0b79 e13d 6ea2 08be 3502 743e 2596 cd3d
00000130: ef4e 08bf a68a ae3e cd86 c43e 801e 6cbd
00000140: 1db2 13be 9ced 053f 1996 5fbe 2e0d 2c3e
00000150: c22e bebc 2f4f fa3d 7477 ab3e 029d bdbe
00000160: 0be2 9dbd ea02 be3e cc0f f2bd 9a67 4f3e
00000170: ef4e 1a3e 6d04 f3bc 068c 6bbe fa0f 793e
00000180: 4e7d 23bd 85cd e0bc 90df 3ebe 5356 5e3e
00000190: 692a 1abe 9c8c 0f3e 0991 54be 9117 d53b
000001a0: 641c fabc c3c1 c73d 34dc 5a3e 8ccb 593e
000001b0: 65ef cbbe a607 733d c791 d93d 6d92 19bf
000001c0: c9d6 d83d d207 673e 9c95 ce3c 7e9a 8a3d
000001d0: c104 173c c926 d5bd 1a67 bd3c efe1 443d
000001e0: ee34 42be 9a6a dd3d a3d4 67bd ff3d 403e
000001f0: 5a29 593b 9696 413c d1c7 50be 5792 873e
00000200: 0cec fd3c 3983 163c 0a64 b23d 8857 733e
00000210: 6732 aebc c846 3d3e 573e 53be 8d6d 22be
00000220: fe4f fe3c 73c3 48bd 235c 40bf 6326 9dbc
00000230: ee33 0d3e 0976 30be 4c98 223e 2233 35bf
00000240: 293d 023e 614d 353c d757 203f d586 1c3e
00000250: 5fe9 c73d dca8 a63e 773f c3be ab33 82bd
00000260: 8016 18bf c37f 54be e3e4 91bd b3f3 2fbf
00000270: 7046 0cbc 868d 5d3d f1f5 b43e 02ff 493d
00000280: b1ee 25be cbb4 89be 0c02 dd3d 5ee5 5cbe
00000290: 4ff3 a73d 5743 c73d 2c87 23bf 8d94 de3d
000002a0: 46f3 df3c 6a6e dfbd a16a 9dbd 5fde 263e
000002b0: 282f bd3e 8371 5bbc ae6e f43d 45d2 c9be
000002c0: 2ca5 d73e 7741 ebbd 997b bc3e c786 283a
000002d0: 0d2e 513d 51ef 4f3e 7cb6 203e 0faa 55bd
000002e0: d37c 893d 2fe4 003e ff4d 2f3e b6ec 27be
000002f0: aa0c 84bd 1788 5c3e d5ba ff3d 0eba 453e
00000300: fcc7 723d c423 c9bd 80c0 c7bc c17e ff3d
00000310: 06e3 40be ad04 bfbe c17c a33e 30b1 29bd
00000320: 495a 323d 371e 49bd 02ab 773d 7649 db3b
00000330: 5523 ac3b b501 4a3e 0d5f 8b3d 89fb 63be
00000340: 9537 25be 44d7 af3e 3c4f e53c 3df0 8abc
00000350: 9355 0dbe cb80 e1bc bbe4 8e3e 46f9 be3c
00000360: e02f 3c3c b95a 983e d7e2 833d 0ce5 9b3c
00000370: cfe6 73bd 9451 db3c 4470 223e 3051 513e
00000380: 8c7c 9d3c 98ad d83d 5359 2d3c 8ac8 1e3d
00000390: 8662 4a3d 2130 13bf 844a 7dbe decd c3bd
000003a0: d5aa a83d 4e49 09bf c197 90be 865e 973e
000003b0: bc3d d43e cc14 abbe b52e ecbb 5836 a3be
000003c0: febf 35bc eadd 2cbd e7ca c73e a177 b33d
000003d0: 5d2b 84bd 847d 05bf 7e1c 74be b021 613b
000003e0: 9059 23be 9876 01bf cc66 4a3d 4c69 98be
000003f0: f125 633e 1ff6 14be 2d01 3f3e 6c0d fc3d
0.10065454 0.054663092 0.33224648 -0.69364727 0.075432785 -0.3182939 0.23894857 -0.35055226
0.18186304 -0.07917754 0.23403771 0.17504117 -0.4490334 -0.15988825 -0.046285257 0.10575113
-0.43944475 0.050237194 -0.47345087 0.25465104 0.13117768 -0.30229467 -0.14038894 0.08429326
0.38952225 -0.3295896 -0.34958145 0.33656177 0.031826314 -0.2990857 0.24106292 0.40983993
-0.15646967 -0.20413318 -0.10587961 0.21385962 -0.23047031 0.28667545 0.058508575 -0.11327276
0.1253557 0.3309423 0.069632426 -0.25762215 -0.75278676 0.07206459 0.07937602 0.23959146
0.3138357 0.43078852 -0.17144048 0.07439525 0.051677786 0.35431784 0.40184462 -0.06776382
-0.27796784 0.40076613 -0.1008968 0.12866156 0.092941396 0.0049162996 -0.19881114 -0.27785307
-0.023637833 0.026886482 0.16619647 -0.09643183 -0.12734875 -0.17834498 -0.21909864 0.10211614
0.11009415 -0.13343212 0.23828967 0.100384034 -0.53245443 0.34090155 0.38384095 -0.057646275
-0.14423414 0.5231569 -0.21834601 0.16801903 -0.023215655 0.12222134 0.33489573 -0.3703385
-0.0770913 0.37111598 -0.11819419 0.20254365 0.15069173 -0.029665196 -0.23002633 0.24322501
-0.03991442 -0.02744175 -0.1863997 0.21712618 -0.1505524 0.14018482 -0.20758452 0.0065030535
-0.030531116 0.09753754 0.21373063 0.21269053 -0.3983108 0.059333466 0.10623508 -0.59989053
0.10587842 0.22561577 0.025217824 0.06767748 0.009217442 -0.10407788 0.023120452 0.04806703
-0.18965504 0.10811348 -0.05659927 0.1877365 0.003313622 0.011815688 -0.20388724 0.26478836
0.030996345 0.009186559 0.08710487 0.2376386 -0.021264268 0.18484032 -0.2062925 -0.15862103
0.031044003 -0.04901452 -0.7514059 -0.019183343 0.13789341 -0.17232527 0.15878409 -0.7078115
0.12718643 0.011065812 0.6263403 0.1528581 0.09761309 0.32550704 -0.38134357 -0.06357511
-0.5940933 -0.20751862 -0.07123735 -0.6873123 -0.0085617155 0.054090045 0.35343888 0.04931546
-0.16204335 -0.26895747 0.10791406 -0.21571872 0.08200704 0.09729641 -0.6387813 0.108681776
0.027337682 -0.10909732 -0.076863535 0.16295765 0.3695004 -0.0133937625 0.11935173 -0.39418235
0.42118204 -0.11487096 0.36813048 0.0006428775 0.051069308 0.20306136 0.15694612 -0.052164134
0.067132615 0.12587045 0.17119597 -0.16398892 -0.06447728 0.21536289 0.12486807 0.19309255
0.05927275 -0.09821275 -0.024383783 0.12475348 -0.18836603 -0.37308255 0.31931117 -0.041428745
0.043543134 -0.04910108 0.06046582 0.006692107 0.0052532353 0.19727214 0.06805239 -0.22263922
-0.16134484 0.34343922 0.027991883 -0.016960258 -0.13802175 -0.027527234 0.27908882 0.023312222
0.011486024 0.29756716 0.06439751 0.019030116 -0.059546288 0.026772298 0.15863138 0.20441127
0.019224428 0.105799854 0.010580379 0.038765468 0.049410366 -0.57495314 -0.24735457 -0.095607504
0.082357086 -0.5362748 -0.2824078 0.29564303 0.4145335 -0.33414304 -0.0072077163 -0.31877398
-0.011093138 -0.04220382 0.3902199 0.08763052 -0.064535834 -0.52144647 -0.23838994 0.0034352355
-0.15952134 -0.50571585 0.04941444 -0.29767835 0.22182442 -0.14547013 0.18652792 0.123072475
