baseline/DLPL-CAP/models_dlpl-cap-classifier/sandwich+ultra8t_to_ssram+digtime+timing_ctrl+array_128_32_8t/dlpl-cap-classifier_nh_2_tsk_regression_ngl_4_nhl_4_hd_32_us_1_bn_0_dp_0.0_epoch_5_20250402_133519.pth (torch, 63106 bytes, 24 tensors)

net_attr_layers.weight f4 [16, 17]
-0.016732968 0.008286746 -0.29052642 0.22279596 -0.5510696 -0.174253 -0.118079685 0.14243697
0.21380556 -0.17793097 0.21081103 0.045392796 0.17918746 0.032846738 0.11694779 -0.3550148
-0.32395184 0.091467455 -0.026565522 0.0045215576 -0.111745045 -0.090147465 -0.0138040455 0.16089109
-0.19145039 -0.11181143 -0.06848593 -0.14582999 0.022891268 -0.23954737 0.21903612 -0.2060263
0.34140965 0.50568384 -0.23706715 -0.02107372 -0.072115704 0.1959599 -0.23960699 -0.2596099
0.06516536 -0.06577067 0.10207295 0.21654117 0.14020003 -0.10602991 0.14000724 0.043395985
0.12316808 -0.3720344 -1.0157741 0.04846092 0.0120143965 0.14760463 0.06985786 0.14724852
0.28321594 -0.004219143 0.18981038 -0.17232485 0.015270946 -0.16554031 0.07478634 -0.08352497
0.07431686 -0.05053023 0.328561 0.22371025 -0.1718738 -0.13261136 0.061239894 0.08082527
0.07212153 -0.1882114 -0.24056529 -0.18975109 -0.16315107 0.098236665 0.08684615 0.20152876
-0.12525155 -0.1653394 0.1286841 -0.14512911 0.56780404 -0.32060286 -0.14617778 -0.38117087
-0.122395545 -0.095427185 -0.21189736 -0.061836578 0.14456807 0.16487795 -0.17588037 -0.12948206
0.22208063 -0.081839405 -0.08598285 -0.23467617 -0.39425096 -0.5228493 0.2364717 0.10314885
0.18702139 -0.1656716 0.3101546 0.19019966 -0.21227011 -0.15443166 0.24244076 0.045808904
0.07473971 -0.22620916 -0.15929104 -0.080729395 0.037925567 -0.19904664 0.04967692 -0.016490538
0.086054124 0.20399523 -0.016806692 -0.18054387 -0.11594262 -0.14149572 -0.08301932 -0.19142874
0.20335881 -0.0481346 0.20867686 0.07556976 -0.20537843 0.1678432 0.20479609 -0.16744906
-0.33147085 -0.36718115 -0.09387478 -0.05298042 -0.078324035 -0.31095606 0.18006551 -0.17803417
-0.041879438 0.05065834 0.12520945 0.19580151 0.22094007 -0.19231187 0.061038274 -0.40840355
-0.8070492 -0.0049070236 0.43103257 -0.13398762 0.12962346 0.3570005 0.3105864 -0.13112596
0.22045313 0.0532973 0.031199796 -0.21373568 0.10181366 -0.03638534 -0.111111455 0.20832513
0.26966742 0.41915554 0.07450201 0.17606673 0.36053792 -0.061976053 0.35884085 0.13593361
-0.18119226 0.08649608 0.18773232 -0.22833282 0.056329064 0.12529191 0.043978833 -0.08637291
0.12658957 0.390631 0.43613854 0.048497833 0.009052886 0.19008788 -0.04284491 0.5216184
0.28627244 0.208435 -0.024010384 -0.054302964 0.00353915 -0.014481374 0.0583083 0.06796663
-0.22028463 -0.0895048 0.23864643 -0.15457915 -0.098657236 -0.20950836 -0.32106513 -0.21725537
-0.094956085 0.05868612 0.15464596 0.111978054 -0.21438791 -0.14585182 -0.03827616 0.23461671
0.035084594 -0.06280963 0.10034069 -0.33591747 -0.61381763 -0.19168678 -0.42609385 -0.54187936
-0.24127547 -0.3820218 -0.13874295 0.08839167 -0.16911383 -0.23936808 -0.19698232 0.18085887
0.11644275 0.20409481 0.1270571 0.061383866 -0.07888979 0.024959425 -0.40781614 -0.38609165
-0.25072083 -0.11907723 -0.5150479 -0.3115331 -0.044195704 -0.17070504 -0.15847658 0.08045169
-0.07208071 0.14972772 -0.07780755 -0.17791618 -0.042792726 -0.4657143 -0.5410776 -0.43259233
00000000: 9413 89bc 22c5 073c e1bf 94be a024 643e
00000010: e612 0dbf 616f 32be c3d3 f1bd ffda 113e
00000020: d8ef 5a3e 8933 36be d9de 573e cced 393d
00000030: eb7c 373e 4d8a 063d 5382 ef3d 80c4 b5be
00000040: 04dd a5be 4a53 bb3d f09f d9bc 9329 943b
00000050: 96da e4bd 3c9f b8bd 5d2a 62bc a2c0 243e
00000060: 920b 44be 64fd e4bd 5a42 8cbd 7554 15be
00000070: 7886 bb3c e84b 75be 014b 603e 8ff8 52be
00000080: 3fcd ae3e 7f74 013f bbc1 72be cba2 acbc
00000090: 66b1 93bd b6a9 483e 895b 75be 97eb 84be
000000a0: 6b75 853d c6b2 86bd 9f0b d13d f8bc 5d3e
000000b0: 9990 0f3e 3626 d9bd 0f5e 0f3e fdbf 313d
000000c0: 8c3f fc3d 4b7b bebe e304 82bf f57e 463d
000000d0: 08d8 443c ab25 173e a311 8f3d 51c8 163e
000000e0: ae01 913e bd40 8abb a75d 423e ed75 30be
000000f0: fd32 7a3c 6683 29be 9529 993d 240f abbd
00000100: 7033 983d c9f8 4ebd 2639 a83e 4d14 653e
00000110: afff 2fbe 46cb 07be afd6 7a3d b887 a53d
00000120: 74b4 933d 7dba 40be bf56 76be 1c4e 42be
00000130: 1311 27be 4e30 c93d 65dc b13d 8e5d 4e3e
00000140: f141 00be bb4e 29be c4c5 033e ba9c 14be
00000150: 9b5b 113f 0f26 a4be a1af 15be d428 c3be
00000160: 84aa fabd 546f c3bd 9ffb 58be 5a48 7dbd
00000170: a709 143e c4d5 283e fc19 34be f296 04be
00000180: 1b69 633e 6b9b a7bd c717 b0bd f34e 70be
00000190: 43db c9be 74d9 05bf a325 723e b43f d33d
000001a0: 8982 3f3e d1a5 29be 95cc 9e3e b3c3 423e
000001b0: 565d 59be 5523 1ebe 6442 783e 1ea2 3b3d
000001c0: 2211 993d 60a3 67be 311d 23be 7455 a5bd
000001d0: d757 1b3d e2d2 4bbe 077a 4b3d 2a17 87bc
000001e0: 253d b03d 20e4 503e 30ae 89bc 7ee0 38be
000001f0: 5373 edbd 41e4 10be 0906 aabd e505 44be
00000200: 4b3d 503e c928 45bd 63af 553e 51c4 9a3d
00000210: b94e 52be 16df 2b3e 11b6 513e c477 2bbe
00000220: 8cb6 a9be 2bff bbbe 6c41 c0bd ff01 59bd
00000230: 5a68 a0bd a235 9fbe 1863 383e 974e 36be
00000240: c689 2bbd 1f7f 4f3d e836 003e 3180 483e
00000250: 1d3e 623e 67ed 44be 4503 7a3d 451a d1be
00000260: c79a 4ebf 19cb a0bb 4db0 dc3e 0d34 09be
00000270: 03bc 043e c5c8 b63e 2e05 9f3e e245 06be
00000280: 77be 613e 454e 5a3d b796 ff3c 87dd 5abe
00000290: ae83 d03d cb08 15bd 678e e3bd 2f53 553e
000002a0: d911 8a3e 8e9b d63e 8394 983d d64a 343e
000002b0: 6d98 b83e 9ada 7dbd fdb9 b73e 2e32 0b3e
000002c0: 778a 39be db24 b13d e73c 403e 14d0 69be
000002d0: 4eb9 663d 864c 003e 2623 343d 48e4 b0bd
000002e0: b2a0 013e c900 c83e 8d4d df3e aaa5 463d
000002f0: 8e52 143c 66a6 423e 257e 2fbd c988 053f
00000300: 4d92 923e fc6f 553e 6db1 c4bc c96c 5ebd
00000310: 16f1 673b 4943 6dbc afd4 6e3d 1732 8b3d
00000320: 4b92 61be 4b4e b7bd bb5f 743e ff49 1ebe
00000330: ce0c cabd 5c89 56be a662 a4be 3178 5ebe
00000340: 5678 c2bd db60 703d 835b 1e3e c054 e53d
00000350: 8188 5bbe 2e5a 15be 76c7 1cbd 5d3f 703e
00000360: ddb4 0f3d 56a2 80bd 6b7f cd3d 60fd abbe
00000370: 2723 1dbf 8a49 44be f928 dabe 9bb8 0abf
00000380: eb10 77be 5d98 c3be a212 0ebe b106 b53d
00000390: 2d2c 2dbe e81c 75be bcb5 49be 1133 393e
000003a0: 8979 ee3d 3bfe 503e 421b 023e a66d 7b3d
000003b0: f890 a1bd b577 cc3c 47cd d0be cead c5be
000003c0: 7b5e 80be c3de f3bd 2eda 03bf 4481 9fbe
000003d0: 8e06 35bd 4dcd 2ebe af47 22be dbc3 a43d
000003e0: 0d9f 93bd 3952 193e 9159 9fbd a92f 36be
000003f0: 6d47 2fbd 1b72 eebe 1084 0abf be7c ddbe

net_attr_layers.bias f4 [16]
0.123770855 0.0937515 0.21591356 0.0015887807 -0.20391102 0.10493233 0.15515056 -0.24499784
0.048433695 -0.099070944 -0.0076203425 -0.047275398 -0.04005181 -0.12153975 -0.20400815 0.21672581
00000000: 937b fd3d c900 c03d 7218 5d3e a23e d03a
00000010: 0dce 50be c3e6 d63d cadf 1e3e b7e0 7abe
00000020: 6962 463d b5e5 cabd 11b4 f9bb d9a3 41bd
00000030: 5e0d 24bd d5e9 f8bd 83e7 50be 5fed 5d3e

dev_attr_layers.weight f4 [16, 17]
0.23889212 -1.0468311 0.68573546 -1.389187 -1.2507768 -0.23602219 0.09014041 -0.13316326
-0.15592057 -0.018923404 -0.080767065 -0.07846531 0.0077929595 -0.051444817 -0.076888144 -0.9844338
-0.19738214 0.19340216 1.2306564 -0.82739305 1.2387667 1.0345333 0.22611606 0.11174166
-0.2101813 0.096263066 0.2302252 0.06380708 0.16260187 0.23911284 -0.03716349 0.046573486
-0.67925614 -0.049981035 0.15842776 -1.4576508 0.6261328 -1.8189237 -1.4324685 -0.23935299
-0.18714994 -0.05997843 0.16368175 0.040596157 -0.18447392 -0.19456787 0.12065547 -0.18040802
-0.06077722 0.13938342 -0.11224841 -0.07884046 1.1666263 -1.1357454 1.2674351 0.8697404
-0.19605537 -0.12986852 0.23425005 -0.11714827 -0.16286945 0.05878923 0.06684532 0.13288763
0.18435627 0.11047286 -0.08333644 0.021510148 0.13196602 1.1541806 -0.9197633 1.2812918
0.7087398 -0.13808633 -0.21865922 0.010833658 0.107475564 0.05368837 0.047961354 -0.18393597
-0.22650093 0.0042708963 0.2036419 -0.43183193 -0.14121255 0.010036206 -1.9204184 0.3892954
-1.6922828 -1.2048402 0.20090905 -0.22267343 0.162163 -0.17105846 0.090821646 0.20524463
0.0034057768 0.22066109 -0.20665284 -0.04673552 0.21057399 -0.052840713 -0.043113265 0.30439866
-1.0091404 1.0597428 0.8222981 -0.13629621 -0.1968782 0.026232801 0.07185817 -0.11198158
-0.0678609 0.16380073 0.019320315 0.010942803 -0.0008079749 0.4684069 -0.22804593 -0.063749805
0.17735738 1.1765362 -0.5081142 -0.44026786 0.23124069 0.0844807 0.17290421 -0.117414586
-0.099067755 0.08914166 -0.16159545 -0.15854652 -0.0117143905 -0.10166909 -0.8423518 0.14386217
0.19056112 -1.9377022 0.44278198 -2.0345678 -1.4199907 0.061746083 0.114363045 -0.03066075
-0.09588715 0.13514717 -0.1931553 0.15328687 -0.09409287 0.0037121046 -0.043360654 0.4353732
-0.07329388 0.13883272 1.1091399 -0.74469525 1.551794 0.9306111 -0.17693195 0.19458681
0.19005428 -0.18518741 -0.018748801 -0.23917076 -0.19853944 0.046843946 0.06452287 0.038504075
0.45320717 0.22375797 -0.05940895 0.62744224 -0.65578747 1.1200694 0.90456307 -0.1714923
0.090899825 -0.123907 -0.20153263 -0.13247475 0.23390362 0.20733348 0.21718688 0.14237113
0.118231066 0.7549018 -0.13344987 0.058749363 -1.3615173 -0.061417274 -0.7231116 -0.45627263
0.12485652 -0.094203025 -0.1427483 0.03271637 -0.14295855 -0.15790558 0.12642215 -0.040742252
0.2216254 0.21689644 0.87844825 0.0834705 0.0727443 -1.2195064 -0.016332563 -0.5752932
-0.319878 0.22550255 -0.06285531 -0.10252363 -0.0587336 -0.11717484 0.041240443 0.18104033
0.18965738 0.11135429 -0.111795634 0.50299543 -0.053287845 -0.05568461 0.17907253 -1.7824947
0.5898842 0.29441234 -0.15346313 -0.20163988 0.21132605 -0.22966664 0.18296081 -0.008153296
-0.0282066 0.15170082 -0.022416988 0.18568966 -0.3311462 -0.21057187 0.16768526 -0.95336974
-0.27576458 -0.760832 -0.47101396 -0.11667584 -0.031030282 0.23043793 0.16294743 -0.009111688
-0.22811225 0.0106297955 -0.16516034 0.19722791 -0.0469257 -0.6138505 -0.053829003 -0.03162374
00000000: 23a0 743e 90fe 85bf 5c8c 2f3f e1d0 b1bf
00000010: 7419 a0bf cdaf 71be 899b b83d f35b 08be
00000020: a4a9 1fbe 4105 9bbc 3469 a5bd 6cb2 a0bd
00000030: 155c ff3b cdb7 52bd 8877 9dbd db03 7cbf
00000040: 8b1e 4abe 370b 463e 2686 9d3f 08d0 53bf
00000050: e88f 9e3f 966b 843f f88a 673e d0d8 e43d
00000060: c439 57be 9225 c53d 28c0 6b3e 49ad 823d
00000070: 1b81 263e ffd9 743e be38 18bd d7c3 3e3d
00000080: bbe3 2dbf eab8 4cbd e33a 223e 4d94 babf
00000090: 3d4a 203f 7ed2 e8bf 215b b7bf f318 75be
000000a0: 3ca4 3fbe f1ab 75bd 309c 273e 2848 263d
000000b0: bbe6 3cbe cd3c 47be 371a f73d e1bc 38be
000000c0: 89f1 78bd 87ba 0e3e 7fe2 e5bd 1b77 a1bd
000000d0: 0354 953f 1b60 91bf 503b a23f 4fa7 5e3f
000000e0: bdc2 48be 41fc 04be 3fdf 6f3e 6feb efbd
000000f0: 40c7 26be facc 703d 33e6 883d b213 083e
00000100: e4c7 3c3e 983f e23d 4cac aabd 0d36 b03c
00000110: 1a22 073e 31bc 933f 9c75 6bbf 5f01 a43f
00000120: f96f 353f 8166 0dbe 34e8 5fbe a87f 313c
00000130: 261c dc3d 56e8 5b3d 2073 443d b659 3cbe
00000140: dcef 67be e0f2 8b3b 8187 503e 1319 ddbe
00000150: 069a 10be e66e 243c 45d0 f5bf ba51 c73e
00000160: b99c d8bf 3438 9abf 1abb 4d3e 8104 64be
00000170: 0f0e 263e f329 2fbe b300 ba3d a62b 523e
00000180: 7433 5f3b fbf4 613e cd9c 53be bf6d 3fbd
00000190: b5a0 573e 816f 58bd 8997 30bd 24da 9b3e
000001a0: 832b 81bf a7a5 873f 2182 523f 3c91 0bbe
000001b0: 709a 49be 2ce6 d63c 602a 933d 9956 e5bd
000001c0: a8fa 8abd 61bb 273e a345 9e3c 7149 333c
000001d0: 47ce 53ba 07d3 ef3e df84 69be 428f 82bd
000001e0: 2c9d 353e bd98 963f c613 02bf ca6a e1be
000001f0: 5cca 6c3e 3804 ad3d cd0d 313e 0f77 f0bd
00000200: 09e4 cabd e78f b63d 4779 25be 055a 22be
00000210: b7ed 3fbc e237 d0bd 5ea4 57bf 9b50 133e
00000220: 7422 433e a006 f8bf 52b4 e23e 5c36 02c0
00000230: 41c2 b5bf 76e9 7c3d 2c37 ea3d 412c fbbc
00000240: 7b60 c4bd 0564 0a3e 81ca 45be 3cf7 1c3e
00000250: c3b3 c0bd c846 733b f19a 31bd 3ce9 de3e
00000260: 1a1b 96bd 2a2a 0e3e 4cf8 8d3f 59a4 3ebf
00000270: 30a1 c63f 873c 6e3f a62d 35be c441 473e
00000280: 979d 423e c5a1 3dbe 1697 99bc 2ee9 74be
00000290: ec4d 4bbe 70df 3f3d 9124 843d 73b6 1d3d
000002a0: c50a e83e cf20 653e cd56 73bd 0ea0 203f
000002b0: b0e1 27bf 6f5e 8f3f 7291 673f ad9b 2fbe
000002c0: b029 ba3d f4c2 fdbd 925e 4ebe 76a7 07be
000002d0: 6e84 6f3e 3a4f 543e 3d66 5e3e bdc9 113e
000002e0: 2123 f23d 3f41 413f 15a7 08be 2ca3 703d
000002f0: 3346 aebf ae90 7bbd d81d 39bf 919c e9be
00000300: c6b4 ff3d 84ed c0bd 9c2c 12be 9a01 063d
00000310: ba63 12be 00b2 21be cf74 013e 59e1 26bd
00000320: c5f1 623e 1a1a 5e3e fce1 603f 95f2 aa3d
00000330: f7fa 943d c918 9cbf decb 85bc 6a46 13bf
00000340: 0dc7 a3be 24ea 663e 49ba 80bd e9f7 d1bd
00000350: a592 70bd 5df9 efbd bdeb 283d a362 393e
00000360: 8b35 423e b80d e43d 1cf5 e4bd 4fc4 003f
00000370: 5b44 5abd 8c15 64bd ca5e 373e c928 e4bf
00000380: a702 173f 37bd 963e 7025 1dbe af7a 4ebe
00000390: db65 583e bb2d 6bbe 145a 3b3e 6795 05bc
000003a0: 8711 e7bc 7657 1b3e d5a3 b7bc 6e25 3e3e
000003b0: ff8b a9be 27a0 57be afb5 2b3e 0a10 74bf
000003c0: 0431 8dbe e3c5 42bf be28 f1be bef3 eebd
000003d0: 3833 febc ecf7 6b3e b1db 263e 3049 15bc
000003e0: 4296 69be 9828 2e3c cb1f 29be 1df6 493e
000003f0: 2a35 40bd 4e25 1dbf cd7b 5cbd e587 01bd

dev_attr_layers.bias f4 [16]
0.20112388 0.21994255 -0.008525457 -0.26110822 -0.18513241 -0.109150425 -0.20759645 -0.06934824
-0.22771907 -0.26130918 -0.2390841 -0.30181852 -0.13199016 0.08163101 0.27667877 -0.14697175
00000000: 6bf3 4d3e 9f38 613e 5cae 0bbc faaf 85be
00000010: 5a93 3dbe 428a dfbd 2a94 54be 7306 8ebd
00000020: 302f 69be 51ca 85be 76d2 74be f587 9abe
00000030: 6e28 07be 292e a73d d7a8 8d3e c37f 16be

pin_attr_layers.weight f4 [17, 16]
-0.8649021 -1.2054762 0.21548402 -0.87849176 -1.8032022 -0.2112436 -0.7249307 2.4953907
-0.5103371 -1.3386922 0.7383863 -0.067875534 -0.4568819 -0.4615489 -1.4642524 -1.0630844
0.28510773 0.059188783 0.85852224 -0.19797651 -0.82521904 0.40675682 0.9524099 -1.3341753
0.6761294 -1.2760562 -0.060573667 0.575607 0.59759355 0.07034965 1.8786087 0.6704038
-2.0138083 2.494489 -1.0669352 0.8800805 -0.2857332 -2.4672704 1.1104115 0.31351113
-0.99346584 1.8165942 1.6671717 -0.24683112 0.4204197 0.5299899 0.6351395 1.184529
-0.4137862 0.51840883 -0.7015368 -0.4323409 0.14147705 0.071103625 0.56335306 -0.57863575
-1.0838116 -0.388926 0.81261057 1.4981188 0.043896087 1.4443233 0.23202892 0.50649834
-1.2786967 -0.03842747 1.913801 0.3378446 0.12505612 -0.7621515 -1.19056 0.77560735
0.45571992 0.25033033 -1.3610971 1.8018341 -0.074341945 -0.15664156 -0.8708455 -0.64109725
-0.41456285 -0.69023806 -0.2299562 -2.172284 0.08768324 1.0937846 -0.11772058 -0.29864323
-0.9536206 -0.09247278 -1.0166546 -0.0076756896 -0.51822084 0.83954257 0.058522668 -1.668248
2.1296248 -1.5181471 0.13872829 -1.1797569 -0.52974117 0.9625158 0.2794383 -0.5718191
-2.793629 -0.7111545 0.52352196 -1.7105501 0.83848536 -0.26984537 0.12306158 0.87575114
0.15132998 0.7393934 0.27310315 2.731231 0.43200523 -0.30918217 -0.09658124 1.5419251
-0.10874478 -0.41890433 1.4384385 -0.70684266 -1.2519515 3.0250485 1.346259 0.855607
0.3220294 0.44605663 1.5229592 1.2804899 -0.11616043 1.3705363 -0.48093814 -0.9903622
-1.3641813 0.008205652 -0.4058602 -0.711086 -0.34957936 0.37974882 0.99930406 1.2751853
0.95949274 0.10351 0.829035 2.0921295 0.79530954 0.27928478 0.18644784 0.3547133
0.0906385 1.7422553 -1.2660012 0.3891608 0.34287506 -1.4590638 -1.4936562 -0.22138521
0.22523506 -0.07724538 0.9856945 1.2783364 0.2881519 0.8690496 -0.8097058 -1.4298605
0.45901597 0.53093284 -1.3614802 1.9562491 1.7684898 -0.98579854 -1.2370758 -2.301875
-0.0010087001 -0.8494257 -1.6593921 0.3062906 1.1820445 0.32602695 -0.38944697 2.8543806
0.8243651 0.79834706 1.8890222 0.5934628 0.06965444 -1.6034338 -0.42982182 0.57615876
0.34436315 -3.101606 -1.4587226 -1.4318258 -0.6071269 -0.25973788 -0.7190186 -0.38583097
0.5233525 -0.8211768 -0.47086892 0.6016423 -0.28251126 0.769268 -0.76689243 -0.9494867
0.016917398 0.080277406 0.7448413 1.345485 0.12682189 -2.4520717 0.41597614 1.9025357
-0.73467 0.044657134 -1.5211198 0.3478376 0.7401773 1.4161996 0.68339795 -0.13825183
0.9212995 0.5282444 -0.008228387 -1.449332 -0.6051824 -0.17924511 0.1995587 -1.2461947
-0.4145994 1.45587 0.33165342 -1.0001009 -0.69195247 -0.47199076 -1.2894343 1.0762811
-1.0667428 -1.9893427 0.29731303 0.4344584 0.0033933204 -1.0240146 0.22404762 -0.7554785
1.367581 -0.31973583 -0.91309243 1.9192094 -1.651487 2.1477253 -0.66041344 0.11352584
00000000: 396a 5dbf 0b4d 9abf d8a7 5c3e d6e4 60bf
00000010: 54cf e6bf 3e50 58be 0f95 39bf 7bb4 1f40
00000020: 74a5 02bf 445a abbf e206 3d3f 5402 8bbd
00000030: 6dec e9be 2350 ecbe 9f6c bbbf 2613 88bf
00000040: a4f9 913e f06f 723d 1dc8 5b3f 5bba 4abe
00000050: 8e41 53bf 6e42 d03e 23d1 733f 42c6 aabf
00000060: d116 2d3f cf55 a3bf 181c 78bd fb5a 133f
00000070: e4fb 183f 7a13 903d 4076 f03f 959f 2b3f
00000080: 3ce2 00c0 b5a5 1f40 5591 88bf f54c 613f
00000090: 9f4b 92be c2e7 1dc0 f721 8e3f 8884 a03e
000000a0: c753 7ebf 2986 e83f e265 d53f 4cc1 7cbe
000000b0: 4041 d73e 6bad 073f 8198 223f a59e 973f
000000c0: c9db d3be 71b6 043f ea97 33bf c95b ddbe
000000d0: 5cdf 103e c79e 913d e837 103f 7921 14bf
000000e0: 57ba 8abf 4f21 c7be 3f07 503f 5bc2 bf3f
000000f0: 62cc 333d 96df b83f fd98 6d3e e0a9 013f
00000100: 55ac a3bf 1f66 1dbd 6ef7 f43f f8f9 ac3e
00000110: b60e 003e 5c1c 43bf 4564 98bf 348e 463f
00000120: 1f54 e93e 4c2b 803e 6e38 aebf 80a2 e63f
00000130: 9740 98bd a566 20be bbef 5ebf f31e 24bf
00000140: 9541 d4be 71b3 30bf a379 6bbe b306 0bc0
00000150: 4593 b33d 2201 8c3f 7d17 f1bd c4e7 98be
00000160: 7b20 74bf 5e62 bdbd bd21 82bf 5a84 fbbb
00000170: 1faa 04bf 43ec 563f 77b5 6f3d 2789 d5bf
00000180: c64b 0840 a552 c2bf ca0e 0e3e 4602 97bf
00000190: 1e9d 07bf 6f67 763f 8912 8f3e bd62 12bf
000001a0: d1ca 32c0 390e 36bf 8905 063f 4ef3 dabf
000001b0: faa6 563f 2c29 8abe b607 fc3d 3a31 603f
000001c0: 3ff6 1a3e e348 3d3f 2dd4 8b3e 7dcc 2e40
000001d0: ca2f dd3e 204d 9ebe 63cc c5bd cd5d c53f
000001e0: 95b5 debd a17a d6be c11e b83f a4f3 34bf
000001f0: f23f a0bf 659a 4140 3752 ac3f 0f09 5b3f
00000200: 0ae1 a43e 8961 e43e 54f0 c23f 18e7 a33f
00000210: 85e5 edbd bc6d af3f 863d f6be 6188 7dbf
00000220: 7e9d aebf 0071 063c e8cc cfbe bb09 36bf
00000230: 11fc b2be 706e c23e 64d2 7f3f 4639 a33f
00000240: 51a1 753f 0dfd d33d a33b 543f 73e5 0540
00000250: 6899 4b3f 6afe 8e3e 2fec 3e3e fb9c b53e
00000260: aea0 b93d 3902 df3f 540c a2bf 1640 c73e
00000270: 528d af3e 9ac2 babf 2030 bfbf ceb2 62be
00000280: 05a4 663e d332 9ebd 7a56 7c3f 87a0 a33f
00000290: a588 933e 097a 5e3f e148 4fbf ab05 b7bf
000002a0: 2404 eb3e 37eb 073f fc44 aebf 5f66 fa3f
000002b0: e05d e23f 4b5d 7cbf 8058 9ebf ec51 13c0
000002c0: 5c36 84ba f673 59bf f666 d4bf 1fd2 9c3e
000002d0: 3c4d 973f 01ed a63e 9865 c7be 2cae 3640
000002e0: 9709 533f 7960 4c3f 7bcb f13f 2eed 173f
000002f0: fda6 8e3d 523d cdbf 9b11 dcbe 247f 133f
00000300: 5e50 b03e b680 46c0 6cb7 babf 1146 b7bf
00000310: ab6c 1bbf 5dfc 84be 9a11 38bf a38b c5be
00000320: 6efa 053f a538 52bf bb15 f1be 3b05 1a3f
00000330: 51a5 90be bfee 443f 1053 44bf 8f11 73bf
00000340: 5b96 8a3c 7b68 a43d ebad 3e3f da38 ac3f
00000350: 99dd 013e beee 1cc0 d3fa d43e 4a86 f33f
00000360: 5513 3cbf 66ea 363d 0eb4 c2bf c517 b23e
00000370: 427c 3d3f 0746 b53f 2bf3 2e3f e391 0dbe
00000380: 49da 6b3f 063b 073f 5bd0 06bc b683 b9bf
00000390: 3ced 1abf 088c 37be 1e59 4c3e 4f83 9fbf
000003a0: 5f46 d4be f359 ba3f 7ace a93e 4e03 80bf
000003b0: cc23 31bf c6a8 f1be 2f0c a5bf 94c3 893f
000003c0: 078b 88bf c8a2 febf 6a39 983e 5571 de3e
000003d0: 7862 5e3b e912 83bf bd6c 653e 0a67 41bf
000003e0: e50c af3f 6ab4 a3be 6dc0 69bf a7a8 f53f
000003f0: ed63 d3bf 5574 0940 db10 29bf 3c80 e83d

node_encoder.weight f4 [4, 16]
0.8536741 -0.54464996 1.5661193 0.93211687 -0.21312352 0.9419865 0.5414808 0.07378181
-1.0365411 -2.1109653 -0.43871972 -0.32095554 0.04530259 1.0969284 -0.010339342 1.3960694
-0.66936356 -1.9901142 -1.6594154 -0.76846564 0.4414245 -0.40811327 0.14456874 -2.2727299
-0.41111836 -0.43050683 1.174239 1.2000874 -1.1614462 -0.24543403 -0.9575496 1.1754673
1.1417594 -1.1120411 -0.9267896 -0.7402184 -1.4066428 -2.0102658 1.0654024 -0.24401781
0.5798406 -0.659629 -0.045168195 0.8932631 0.7213857 -0.16356808 -1.2766892 -0.71661496
-0.7111087 -0.38666672 0.95783144 -0.82253087 -2.390805 0.3222477 1.8753887 1.104299
-0.5223759 -0.7401804 0.16235657 -0.2369976 0.5099347 1.6706249 1.592105 -0.4161921
00000000: 638a 5a3f 2e6e 0bbf 9976 c83f 369f 6e3f
00000010: 0d3d 5abe 0726 713f 7c9e 0a3f eb1a 973d
00000020: 61ad 84bf 0e1a 07c0 df9f e0be 4954 a4be
00000030: 358f 393d 2668 8c3f 5866 29bc 67b2 b23f
00000040: 695b 2bbf 10bc febf b967 d4bf 2aba 44bf
00000050: 6402 e23e 39f4 d0be d409 143e 6874 11c0
00000060: 1b7e d2be 646b dcbe 774d 963f 779c 993f
00000070: 45aa 94bf 0f53 7bbe f821 75bf b675 963f
00000080: 2c25 923f 5d57 8ebf 1542 6dbf f47e 3dbf
00000090: df0c b4bf 32a8 00c0 1b5f 883f cedf 79be
000000a0: 6f70 143f 72dd 28bf 4902 39bd e4ac 643f
000000b0: bcac 383f 647e 27be 8d6a a3bf 1474 37bf
000000c0: 380b 36bf 2ef9 c5be 7134 753f 6291 52bf
000000d0: f302 19c0 a7fd a43e bd0c f03f ab59 8d3f
000000e0: 6dba 05bf 767c 3dbf cd40 263e 80af 72be
000000f0: 158b 023f 09d7 d53f 19ca cb3f 2217 d5be

gnn_layers.0.lin_l.weight f4 [32, 32]
0.011792093 0.015431267 0.06535657 -0.13311537 -0.08066377 0.11408508 -0.21791296 0.08797767
0.15690981 0.16793339 0.032430135 -0.17894895 0.06357145 -0.070433386 0.00607151 0.110155515
-0.030630626 -0.17156312 -0.1283649 0.14478809 -0.010185571 0.20386285 0.018586867 -0.11580562
0.064264975 0.24607818 0.092113666 0.062644616 -0.104670785 -0.12734126 0.12869853 -0.11462105
-0.00859297 0.010447708 0.06500681 0.021592854 -0.099526405 -0.054581184 0.10805184 0.036828604
0.106879175 -0.058423705 0.12520075 -0.0670852 -0.06490047 -0.016124113 -0.028021032 -0.09790741
0.09968493 -0.20011546 0.31552598 -0.12746984 -0.16730213 0.35828307 0.16000739 -0.13837932
0.44846454 -0.26147115 -0.023982305 0.55859727 0.2899331 0.05052829 0.16864346 0.19787975
0.35773435 -0.003482477 0.2859841 0.46048442 -0.22456956 0.39378855 -0.043500446 0.2533173
-0.12200107 -0.13715065 -0.20128186 -0.4176667 0.2838684 0.25161996 0.0282451 0.104047656
-0.21731658 -0.025138486 0.035749014 0.026188632 0.003887605 0.46551678 0.16762495 -0.13763995
0.08786453 0.07170934 0.018248726 0.08673109 -0.07586186 -0.037947565 -0.096903294 0.3928121
-0.014830077 0.015136181 0.04588106 -0.10469662 -0.049609333 0.10990298 0.13086426 -0.11334058
-0.12093588 0.108165294 0.019261135 0.12284351 0.0010746958 0.006743813 -0.19069491 -0.0635626
-0.10551533 0.42266938 -0.58599234 0.5351577 0.048035547 -0.3460008 0.062103715 -0.018497854
-0.42270896 0.43808615 0.04175729 -0.24555637 -0.30609947 0.3708532 -0.1403339 0.048616055
0.0060220445 0.0036086317 0.05081163 -0.02288012 0.097088516 -0.07170335 -0.04527805 -0.033713806
0.045427445 0.14106736 0.3842222 0.13466649 0.15830676 -0.099939756 -0.018326558 -0.10372737
0.38432002 -0.3545594 0.6828241 -0.30412537 -0.14915715 0.29164904 -0.12617075 -0.56371826
0.7649243 -0.3731336 -0.10365334 0.28235462 0.18197572 -0.25439838 0.24382798 0.07835456
-0.44373378 0.1124236 -0.3392851 -0.030726694 0.2569915 0.043282863 0.125398 -0.16171134
-0.050170906 0.129431 0.017266931 0.20266014 -0.2271467 0.09694149 -0.141083 -0.043983184
0.14431866 -0.0703841 0.11065719 0.16799062 0.20725305 -0.30493408 -0.18261835 0.021776618
-0.0026392094 -0.013610241 0.020922234 -0.52159214 -0.062571175 -0.029688723 0.13540988 -0.02233982
0.18119763 0.05800933 0.09392234 -0.0169665 -0.061121207 -0.0761144 -0.12954253 0.25977826
-0.085354656 0.063991755 -0.46991974 0.09754677 0.22120446 -0.07718644 0.14280793 -0.046382677
-0.08797684 0.1477938 0.26333982 0.2959832 -0.16460143 0.2134209 0.27425662 -0.1088952
0.37817234 -0.10607311 0.107619725 0.28526288 0.11333027 0.049418446 0.32268777 0.3391166
0.07659651 0.16575462 -0.115219094 -0.03339004 -0.04460965 0.09804099 0.011385894 -0.12643906
0.029335449 -0.08485846 -0.13310492 0.1435048 -0.12758192 -0.030660257 -0.014630883 -0.053934008
-0.03148816 0.17117654 -0.2572122 0.21984605 0.13907598 0.027064513 -0.21690604 0.14906944
-0.3555529 0.026065035 -0.019183034 -0.21648045 -0.035143424 -0.025816193 -0.21880952 -0.23014845
00000000: 9f33 413c 6dd3 7c3c aad9 853d 654f 08be
00000010: 0c33 a5bd 70a5 e93d 9324 5fbe a32d b43d
00000020: f7ac 203e bbf6 2b3e 76d5 043d 653e 37be
00000030: c031 823d 613f 90bd 84f3 c63b 3799 e13d
00000040: 14ed fabc 3eae 2fbe 1772 03be 5443 143e
00000050: 62e1 26bc 6cc1 503e 7c43 983c 7f2b edbd
00000060: 5b9d 833d ebfb 7b3e 17a6 bc3d d24b 803d
00000070: a35d d6bd bf65 02be 8cc9 033e 71be eabd
00000080: 87c9 0cbc dd2c 2b3c 4a22 853d 7fe3 b03c
00000090: 80d4 cbbd 8590 5fbd 484a dd3d 97d9 163d
000000a0: 78e3 da3d b24d 6fbd a034 003e f763 89bd
000000b0: 8aea 84bd b716 84bc 5d8c e5bc ae83 c8bd
000000c0: 9d27 cc3d 11eb 4cbe 9f8c a13e 7487 02be
000000d0: 4051 2bbe e170 b73e fad8 233e 4fb3 0dbe
000000e0: 259d e53e 8cdf 85be 8a76 c4bc 3b00 0f3f
000000f0: 1c72 943e c1f6 4e3d dfb0 2c3e fda0 4a3e
00000100: f528 b73e 453a 64bb 826c 923e 9dc4 eb3e
00000110: 90f5 65be a79e c93e 862d 32bd ceb2 813e
00000120: b2db f9bd 3871 0cbe d51c 4ebe 69d8 d5be
00000130: 3357 913e 55d4 803e 4562 e73c f016 d53d
00000140: 3d88 5ebe 3aef cdbc 8f6d 123d 8b89 d63c
00000150: 30c7 7e3b 3758 ee3e e0a5 2b3e 7df1 0cbe
00000160: 52f2 b33d 59dc 923d 5a7e 953c 12a0 b13d
00000170: 765d 9bbd e86e 1bbd 3c75 c6bd ab1e c93e
00000180: daf9 72bc bffd 773c c7ed 3b3d 2e6b d6bd
00000190: 2833 4bbd d014 e13d 4801 063e 1b1f e8bd
000001a0: 3bad f7bd c485 dd3d 87c9 9d3c 6195 fb3d
000001b0: cfdc 8c3a 34fb dc3b 8745 43be 1c2d 82bd
000001c0: 6c18 d8bd 1f68 d83e 9803 16bf 1800 093f
000001d0: ecc0 443d 0427 b1be 7760 7e3d d088 97bc
000001e0: 4f6d d8be d44c e03e b109 2b3d 2173 7bbe
000001f0: 12b9 9cbe 78e0 bd3e b1b3 0fbe a121 473d
00000200: 9254 c53b cb7e 6c3b db1f 503d 176f bbbc
00000210: 58d6 c63d 35d9 92bd 7a75 39bd 7d17 0abd
00000220: 2112 3a3d f673 103e c6b8 c43e 03e6 093e
00000230: 2b1b 223e 37ad ccbd 9421 96bc 046f d4bd
00000240: 98c5 c43e cf88 b5be 8fcd 2e3f 52b6 9bbe
00000250: a7bc 18be 0653 953e e832 01be d74f 10bf
00000260: 14d2 433f 5e0b bfbe 3448 d4bd c990 903e
00000270: d857 3a3e 8140 82be 0bae 793e 5b78 a03d
00000280: 1331 e3be 583e e63d c7b6 adbe 8cb6 fbbc
00000290: 6494 833e 5f49 313d 5568 003e a897 25be
000002a0: 0280 4dbd 8f89 043e 6173 8d3c 2486 4f3e
000002b0: 2599 68be 4389 c63d 1078 10be b627 34bd
000002c0: 45c8 133e 8a25 90bd 3da0 e23d bc05 2c3e
000002d0: 253a 543e 5220 9cbe 4e00 3bbe e164 b23c
000002e0: 96f6 2cbb 7dfd 5ebc 1b65 ab3c 1087 05bf
000002f0: 5125 80bd c435 f3bc e3a8 0a3e 0002 b7bc
00000300: df8b 393e 319b 6d3d 5b5a c03d 54fd 8abc
00000310: 3b5a 7abd dee1 9bbd cca6 04be a801 853e
00000320: 6cce aebd 1c0e 833d 5299 f0be 9ac6 c73d
00000330: 6c83 623e ed13 9ebd 3e3c 123e c3fb 3dbd
00000340: 342d b4bd 4257 173e 7ad4 863e 1c8b 973e
00000350: 478d 28be 028b 5a3e 5d6b 8c3e 7204 dfbd
00000360: ce9f c13e dc3c d9bd bb67 dc3d fa0d 923e
00000370: b319 e83d ff6a 4a3d 5537 a53e b1a0 ad3e
00000380: a2de 9c3d 94bb 293e fdf7 ebbd ffc3 08bd
00000390: 9cb8 36bd b7c9 c83d e78b 3a3c 3e79 01be
000003a0: e550 f03c 46ca adbd a84c 08be ecf2 123e
000003b0: d6a4 02be 382b fbbc 5fb6 6fbc e8e9 5cbd
000003c0: bbf9 00bd e748 2f3e 51b1 83be 531f 613e
000003d0: ef69 0e3e 66b6 dd3c 9e1c 5ebe a9a5 183e
000003e0: 080b b6be 5786 d53c bd25 9dbc 0dad 5dbe
000003f0: 8df2 0fbd 7b7c d3bc 9a0f 60be 09ac 6bbe

gnn_layers.0.lin_l.bias f4 [32]
0.0355283 -0.19918372 0.1147173 -0.021315038 0.039684724 0.14642349 -0.15713048 0.008307282
-0.1598102 0.13428743 0.100690916 0.114758685 -0.042438947 0.0032145171 -0.14560686 0.0371433
0.18247586 -0.152984 -0.096350186 0.016080827 -0.035824783 0.017013667 0.18174775 -0.0031555472
0.028280562 0.06497451 -0.043106664 0.12299844 0.108732074 0.065193474 0.0056887367 0.24463812
00000000: 1f86 113d d1f6 4bbe e7f0 ea3d e09c aebc
00000010: 738c 223d 0af0 153e d0e6 20be 441b 083c
00000020: 49a5 23be a582 093e 0a37 ce3d 9a06 eb3d
00000030: 76d4 2dbd a6aa 523b f719 15be 9323 183d
00000040: f4da 3a3e d6a7 1cbe 3f53 c5bd f0bb 833c
00000050: 02bd 12bd 3f60 8b3c 151c 3a3e 4ccd 4ebb
00000060: a3ac e73c 5b11 853d 9d90 30bd 9be6 fb3d
00000070: ecae de3d 2884 853d 9568 ba3b 6a82 7a3e

gnn_layers.0.lin_r.weight f4 [32, 32]
-0.14750084 0.10039451 0.06402972 0.15159766 -0.101483874 0.05591554 -0.14661625 0.13732307
0.031220457 -0.08947004 0.0015348601 0.024567733 0.050800387 0.18655092 0.122565456 0.06319195
0.11821483 -0.14327203 0.071091995 0.022596916 0.1435991 0.07591084 0.013779014 0.100326724
-0.05928972 0.093211755 0.03637617 -0.032386113 0.10738747 -0.13231958 -0.04671144 0.110090114
0.04226028 -0.14658631 -0.015542858 -0.026549362 0.19191468 -0.19203755 -0.07463388 -0.118811585
-0.10112035 0.056265246 -0.094989896 0.15763302 -0.11134012 0.0070317895 -0.10344619 -0.0026122658
0.20798981 0.048911925 0.33154953 -0.023212984 -0.10695278 0.30803847 -0.3068627 0.20189746
0.12902972 -0.28677714 -0.35967347 -0.2643703 0.05056919 -0.080703005 0.02138961 -0.06758819
-0.052083936 0.05492452 -0.041397125 0.09355465 0.04797175 0.10583823 0.04870909 -0.05445453
0.16842528 -0.011496787 -0.011718614 0.062173244 -0.01737556 -0.16219053 0.01813095 -0.05004758
-0.2095229 -0.11257203 -0.21305092 -0.107917 -0.019857205 0.04207035 -0.18508872 0.18240431
-0.39371672 0.028256942 0.10953158 -0.25099772 -0.05601007 -0.26281047 -0.01586179 -0.0942489
0.05874718 -0.05544092 0.031788908 0.07583718 -0.16497223 -0.08998149 0.19028568 0.0030893532
-0.131462 -0.086847864 -0.039460197 -0.024662862 -0.08465568 -0.105233595 0.02037146 0.11713731
0.382105 0.20198639 -0.1274675 -0.015655976 0.19544947 -0.02163026 0.14935474 -0.14369416
-0.01790481 -0.26775384 -0.09843468 -0.15149635 -0.23829387 -0.048443854 -0.080229186 -0.08424182
-0.019578252 0.12751745 -0.021668788 0.15815708 0.0011312431 0.17457145 0.14588262 0.029476603
-0.14870712 0.0821574 0.054507338 -0.27835783 0.09599608 -0.0309463 0.26101178 0.16375072
0.31758168 0.060937803 0.25445765 0.21091647 -0.16791804 0.19218995 -0.1108401 -0.03404618
0.21015273 -0.018367885 -0.3568759 -0.3087331 0.13189597 0.13294716 0.09224266 0.22599463
-0.1202414 0.0076771425 -0.14147377 -0.16814561 -0.04867114 0.14068748 0.18251675 0.13524124
0.16806714 -0.10154248 -0.245115 0.11077863 -0.12452197 -0.14980564 0.06673741 -0.03383828
0.24697137 -0.13582586 0.37799525 -0.0036353571 0.023754455 0.14686795 0.28625306 -0.47859168
0.4390512 -0.18326254 -0.284967 0.28902704 0.13393986 0.08457265 0.3576786 0.014749863
-0.022565892 -0.059180673 -0.13987349 0.09070265 0.10103341 -0.12967719 0.12358434 -0.11256398
0.11262589 -0.053404998 0.20689662 0.053937063 -0.0612717 0.07413023 0.0035682307 -0.051351637
0.7703705 -0.030599663 0.4410768 -0.23302937 -0.12974694 0.21948133 -0.41066614 0.38620788
0.27322072 -0.1547825 -0.8672034 -0.299454 -0.07262098 0.108249545 0.31841585 -0.2802248
-0.06406234 -0.11438823 -0.036664844 -0.05283121 0.18444584 -0.047901552 0.032219842 0.21013047
0.08224016 -0.14242058 -0.083433755 -0.116033696 0.097869076 -0.03789867 0.044184495 0.15341763
0.06945434 0.1368798 -0.29509768 0.19934417 0.20352879 -0.0530947 0.1026059 -0.3572905
-0.17557539 0.061841384 -0.19015568 -0.10037588 -0.007267157 -0.010616849 0.002059184 0.07158417
00000000: 760a 17be a39b cd3d 0422 833d 6b3c 1b3e
00000010: c7d6 cfbd b107 653d 9222 16be 6b9e 0c3e
00000020: 0bc2 ff3c 113c b7bd 5c2d c93a 4542 c93c
00000030: 1114 503d 3407 3f3e 9903 fb3d c86a 813d
00000040: 9e1a f23d e7b5 12be ae98 913d 2b1d b93c
00000050: a40b 133e 2477 9b3d 60c1 613c 1978 cd3d
00000060: c7d9 72bd cee5 be3d 2eff 143d 4da7 04bd
00000070: f6ed db3d c97e 07be 7f54 3fbd ed76 e13d
00000080: 1e19 2d3d b91a 16be 79a7 7ebc 0c7e d9bc
00000090: 4885 443e 7ea5 44be a6d9 98bd 7d53 f3bd
000000a0: 3018 cfbd 6376 663d 108a c2bd 8d6a 213e
000000b0: 4a06 e4bd ed6a e63b 99db d3bd 8c32 2bbb
000000c0: 48fb 543e df57 483d dcc0 a93e 2829 bebc
000000d0: 0f0a dbbd 38b7 9d3e 1c1d 9dbe 35be 4e3e
000000e0: 5e20 043e 74d4 92be 1f27 b8be 8b5b 87be
000000f0: a421 4f3d 9e47 a5bd 4339 af3c ad6b 8abd
00000100: f755 55bd 89f8 603d 0890 29bd 9599 bf3d
00000110: 077e 443d b7c1 d83d 2f83 473d b70b 5fbd
00000120: ad77 2c3e 055d 3cbc 6eff 3fbc 5fa9 7e3d
00000130: 3157 8ebc 4615 26be 5c87 943c b1fe 4cbd
00000140: 2c8d 56be 2a8c e6bd 052a 5abe 9703 ddbd
00000150: 94ab a2bc f651 2c3d e687 3dbe 32c8 3a3e
00000160: 3d95 c9be 1a7b e73c 1852 e03d c682 80be
00000170: d16a 65bd 188f 86be 96f0 81bc 9105 c1bd
00000180: e2a0 703d 0516 63bd 1635 023d 8650 9b3d
00000190: 7bee 28be 3748 b8bd 40da 423e bf76 4a3b
000001a0: f99d 06be 4bdd b1bd 04a1 21bd c509 cabc
000001b0: f55f adbd b684 d7bd 0ce2 a63c b0e5 ef3d
000001c0: 44a3 c33e 85d5 4e3e d786 02be f640 80bc
000001d0: e823 483e f131 b1bc 73f0 183e 9024 13be
000001e0: 1cad 92bc 0817 89be 1f98 c9bd dc21 1bbe
000001f0: 4f03 74be 106d 46bd 334f a4bd fa86 acbd
00000200: 9262 a0bc ef93 023e be82 b1bc eef3 213e
00000210: 3846 943a dcc2 323e 4162 153e eb78 f13c
00000220: ae46 18be 2442 a83d 1643 5f3d eb84 8ebe
00000230: 9899 c43d 1883 fdbc 56a3 853e 45ae 273e
00000240: 119a a23e eb99 793d 4648 823e 7dfa 573e
00000250: b5f2 2bbe 71cd 443e 2200 e3bd 0274 0bbd
00000260: 4732 573e 3f78 96bc 70b8 b6be 4412 9ebe
00000270: bd0f 073e 4d23 083e b8e9 bc3d 236b 673e
00000280: 2041 f6bd 8a90 fb3b 80de 10be 5d2e 2cbe
00000290: 645b 47bd 6110 103e ace5 3a3e ae7c 0a3e
000002a0: cb19 2c3e 81f5 cfbd 6dff 7abe e8df e23d
000002b0: 6005 ffbd a666 19be a0ad 883d 029a 0abd
000002c0: 10e6 7c3e ef15 0bbe 9888 c13e 2c3f 6ebb
000002d0: b498 c23c 8d64 163e c38f 923e f809 f5be
000002e0: 52cb e03e 2da9 3bbe 32e7 91be 5afb 933e
000002f0: 8827 093e 6d34 ad3d a621 b73e 69a9 713c
00000300: 1bdc b8bc 6f67 72bd ff3a 0fbe 50c2 b93d
00000310: 9bea ce3d 19ca 04be c919 fd3d f287 e6bd
00000320: 67a8 e63d 33bf 5abd b5dc 533e 1ced 5c3d
00000330: 09f8 7abd 97d1 973d fad8 693b 1856 52bd
00000340: 0037 453f 25ac fabc d1d4 e13e 409f 6ebe
00000350: 62dc 04be b7bf 603e d542 d2be 0abd c53e
00000360: 96e3 8b3e 4e7f 1ebe 0b01 5ebf 0952 99be
00000370: 4fba 94bd f0b1 dd3d 6707 a33e a079 8fbe
00000380: 1e33 83bd 6044 eabd e02d 16bd 8a65 58bd
00000390: 5fdf 3c3e 6b34 44bd f4f8 033d 712c 573e
000003a0: 876d a83d b3d6 11be 51df aabd 13a3 edbd
000003b0: 956f c83d a33b 1bbd cdfa 343d 8319 1d3e
000003c0: 143e 8e3d 382a 0c3e 0b17 97be e120 4c3e
000003d0: da69 503e d479 59bd 0b23 d23d c8ee b6be
000003e0: 09ca 33be 644d 7d3d 2cb8 42be df91 cdbd
000003f0: 5521 eebb 4bf2 2dbc 60f3 063b b99a 923d

gnn_layers.1.lin_l.weight f4 [32, 32]
0.21702442 0.13259172 -0.27630487 -0.008243093 0.157913 0.180172 -0.06814793 -0.091754936
0.068695545 0.2108556 0.20921902 -0.28274417 -0.6248083 0.12078255 -0.2677756 0.25861263
-0.08733392 -0.033282887 -0.46269092 0.04449072 -0.11240143 0.10267313 0.038318843 -0.12699443
0.072596796 -0.2692983 -0.2212455 0.24619679 -0.12306031 -0.043949813 -0.018290784 -0.40326834
-0.019095168 0.08543735 0.051745657 -0.116344795 -0.007081676 0.013015685 -0.1579341 -0.070226386
0.11866671 -0.14090006 0.10296274 0.30959213 0.015127798 0.1756592 0.13638794 -0.05254965
-0.33571988 0.0702148 -0.16230285 0.16150838 0.027223008 -0.11820325 -0.030978492 0.23056288
0.2945146 0.053593513 0.12210693 -0.06444572 0.07577147 -0.033904687 0.011793212 0.46136513
-0.026069101 0.17301516 0.14098263 -0.06665463 -0.29370657 -0.15114099 0.15381402 -0.12721224
0.13588846 0.08019609 -0.06846248 0.25374883 -0.3064102 0.095973246 0.08471202 -0.21468866
-0.024226088 0.29105642 0.017615268 0.20560089 0.1269756 -0.016762882 0.17154193 -0.123248905
-0.30737162 0.22576176 0.072075084 0.2227534 0.21361433 -0.023063593 0.4721537 0.4303138
0.14415202 0.048770953 -0.106256485 -0.11043578 -0.30483407 0.079950914 0.04432001 0.018592833
0.14293212 -0.05573858 0.07726697 0.19979054 -0.16838522 -0.03467665 0.21338128 0.043823633
-0.20083565 0.1844425 0.14790049 -0.21698277 -0.111931995 -0.036930438 -0.007414 0.017849082
-0.055872098 0.06652299 -0.074626185 0.14175805 0.10978471 -0.10780085 -0.044557493 0.37864062
0.13050666 -0.16990072 -0.08373773 -0.22166233 0.4494608 0.037160117 -0.23677658 0.12201258
0.07331444 0.05355111 -0.1254627 -0.08193197 0.42687663 0.09371641 -0.15992598 -0.09605442
-0.02992563 -0.2514958 0.13753292 -0.050968073 0.10502656 -0.15580474 -0.011884106 0.12490848
0.34205103 0.043867864 0.081829324 -0.23242386 0.06092344 -0.14051439 -0.3865717 -0.11590435
-0.09939849 -0.037639044 0.07192055 -0.17706855 -0.03729004 0.020808484 -0.20454174 0.060643308
0.007999324 -0.12907936 -0.087975785 0.10436111 0.115812555 0.098092504 0.1696664 -0.030157482
-0.29102898 -0.12309205 -0.36479226 0.025063515 0.11811491 -0.21836962 -0.2584262 0.30704024
-0.14862494 0.2833639 0.10937163 -0.14749642 0.04322348 -0.25722426 0.13636291 0.08118654
0.04496529 0.16541407 0.07190336 -0.13471808 -0.06907731 0.06517856 0.18928409 -0.07865176
-0.030055823 -0.2021706 0.10734367 0.1345872 -0.24796598 -0.10550048 0.080577575 -0.032740526
-0.34823474 0.17618068 -0.19618416 0.110301115 0.13744907 0.24324584 0.20058976 -0.010090943
-0.07771328 0.064198256 0.11970131 0.28855437 0.28692093 0.06538078 -0.054456796 0.39160186
0.13230383 0.050448414 0.18945786 0.1687855 0.3765384 0.05942102 -0.12974876 -0.03141707
-0.01326631 0.0057104104 -0.17597488 0.024857122 0.17739573 0.14422445 0.16158299 -0.13653564
-0.09105754 -0.07209357 0.29153323 0.1253774 0.08407141 -0.101700194 0.090168014 0.35004246
0.12742464 -0.1432579 0.13845077 -0.1391218 -0.03096578 0.04381645 -0.02404752 0.25994498
00000000: a63b 5e3e 20c6 073e d577 8dbe 0a0e 07bc
00000010: f2b3 213e 027f 383e 2491 8bbd 03ea bbbd
00000020: 40b0 8c3d 88ea 573e 833d 563e d8c3 90be
00000030: 70f3 1fbf d75c f73d e219 89be e068 843e
00000040: 20dc b2bd a353 08bd d3e5 ecbe e73b 363d
00000050: b932 e6bd 4a46 d23d 38f4 1c3d d40a 02be
00000060: a1ad 943d 77e1 89be 2e8e 62be 031b 7c3e
00000070: 0b07 fcbd b804 34bd 8ed6 95bc 3079 cebe
00000080: 786d 9cbc c7f9 ae3d 41f3 533d 2e46 eebd
00000090: 670d e8bb bd3f 553c 7ab9 21be dad2 8fbd
000000a0: 8807 f33d 1b48 10be 21de d23d dc82 9e3e
000000b0: 95da 773c 01e0 333e 48a9 0b3e 4d3e 57bd
000000c0: 7ae3 abbe c7cc 8f3d b832 26be 7462 253e
000000d0: c902 df3c 8c14 f2bd 9bc6 fdbc ad18 6c3e
000000e0: 9eca 963e df84 5b3d 3313 fa3d 1efc 83bd
000000f0: 132e 9b3d a4df 0abd 5138 413c 0d38 ec3e
00000100: de8e d5bc e32a 313e c05d 103e 3982 88bd
00000110: b560 96be b4c4 1abe 6c81 1d3e ed43 02be
00000120: 5826 0b3e d93d a43d 0f36 8cbd 5eeb 813e
00000130: cce1 9cbe 9f8d c43d 7f7d ad3d 58d7 5bbe
00000140: ca75 c6bc 5905 953e e54d 903c 0a89 523e
00000150: e405 023e 5052 89bc b0a8 2f3e ec69 fcbd
00000160: d05f 9dbe 172e 673e 1a9c 933d 7819 643e
00000170: b7bd 5a3e dcef bcbc 21be f13e 1752 dc3e
00000180: 969c 133e 0dc4 473d 009d d9bd 272c e2bd
00000190: 3613 9cbe 4ebd a33d e688 353d ff4f 983c
000001a0: cc5c 123e 234e 64bd 253e 9e3d e495 4c3e
000001b0: 2d6d 2cbe 1a09 0ebd 9f80 5a3e 6980 333d
000001c0: dca7 4dbe 7fde 3c3e 3a73 173e bb30 5ebe
000001d0: 9a3c e5bd 5f44 17bd 24f1 f2bb 3d38 923c
000001e0: 24da 64bd 353d 883d 9dd5 98bd 0629 113e
000001f0: ced6 e03d b1c6 dcbd eb81 36bd 2fdd c13e
00000200: 8aa3 053e 74fa 2dbe b07e abbd 73fb 62be
00000210: ba1f e63e 3535 183d 8f75 72be bbe1 f93d
00000220: e225 963d 6958 5b3d 4b79 00be f3cb a7bd
00000230: 938f da3e 64ee bf3d a3c3 23be 2eb8 c4bd
00000240: 9826 f5bc 0fc4 80be 6ed5 0c3e e6c3 50bd
00000250: 2a18 d73d 478b 1fbe 8eb5 42bc 04d0 ff3d
00000260: 5021 af3e caae 333d 2296 a73d 8500 6ebe
00000270: db8a 793d 01e3 0fbe baec c5be 435f edbd
00000280: 6f91 cbbd 662b 1abd 154b 933d 7551 35be
00000290: 71bd 18bd 8e76 aa3c 6473 51be 1e65 783d
000002a0: 990f 033c 612d 04be a62c b4bd 47bb d53d
000002b0: 222f ed3d b9e4 c83d 07bd 2d3e d30c f7bc
000002c0: c001 95be af17 fcbd 0dc6 babe 0052 cd3c
000002d0: 3be6 f13d 499c 5fbe 7050 84be 6134 9d3e
000002e0: 2331 18be 1315 913e 3cfe df3d 4d09 17be
000002f0: 1b0b 313d e6b2 83be b8a2 0b3e 2145 a63d
00000300: 862d 383d 4e62 293e 1242 933d 89f3 09be
00000310: 6878 8dbd 567c 853d b0d3 413e 2d14 a1bd
00000320: a137 f6bc cf05 4fbe 00d7 db3d 3ad1 093e
00000330: cbea 7dbe a310 d8bd db05 a53d ee1a 06bd
00000340: d34b b2be b568 343e 80e4 48be 8de5 e13d
00000350: 73bf 0c3e 7015 793e 6767 4d3e 7c54 25bc
00000360: 2428 9fbd 607a 833d f625 f53d 66bd 933e
00000370: 4de7 923e 5ce6 853d 170e 5fbd 0a80 c83e
00000380: a87a 073e ffa2 4e3d 3e01 423e 1bd6 2c3e
00000390: a4c9 c03e 7563 733d dcdc 04be 30af 00bd
000003a0: f05a 59bc 651e bb3b c232 34be 2aa1 cb3c
000003b0: 3aa7 353e 93af 133e 0376 253e 00d0 0bbe
000003c0: 607c babd cba5 93bd d843 953e ef62 003e
000003d0: a22d ac3d 3148 d0bd 02aa b83d c438 b33e
000003e0: 9b7b 023e 33b2 12be 0ac6 0d3e f275 0ebe
000003f0: f3ab fdbc e178 333d 4eff c4bc 8217 853e

gnn_layers.1.lin_l.bias f4 [32]
-0.059465513 0.12653339 0.0817624 -0.17452678 0.1796603 -0.059930306 0.0016001925 0.24753916
-0.03870328 -0.0687448 0.044102054 -0.03500814 0.20462775 -0.0028335776 -0.06937909 -0.111368045
-0.06512732 0.04851972 0.09709228 -0.0024734477 -0.10626196 0.041051336 -0.027288795 0.11768054
-0.012562001 -0.20294541 -0.1615505 -0.029359266 -0.022986362 -0.09092845 0.04329819 -0.12957492
00000000: 1c92 73bd f891 013e 0c73 a73d 26b7 32be
00000010: dff8 373e 7b79 75bd 8dbd d13a e87a 7d3e
00000020: 5587 1ebd 13ca 8cbd 5ba4 343d b264 0fbd
00000030: f089 513e 8bb3 39bb a016 8ebd ee14 e4bd
00000040: 7961 85bd 9dbc 463d 51d8 c63d 9119 22bb
00000050: df9f d9bd 7225 283d c08c dfbc 7f02 f13d
00000060: dad0 4dbc ecd0 4fbe 7f6d 25be d882 f0bc
00000070: e54d bcbc b238 babd 7159 313d 4aaf 04be

gnn_layers.1.lin_r.weight f4 [32, 32]
0.10192 0.010374055 0.30933222 -0.36020172 0.04074354 0.036505636 0.26429567 -0.2839779
0.15499273 -0.03847953 0.19881336 0.141083 -0.54916555 -0.022713454 -0.11956132 0.2699178
-0.29247847 0.04975128 -0.28633714 0.23387705 0.13117768 -0.07829453 -0.070369035 0.12836741
0.34704256 -0.07705504 -0.19415648 0.21169525 0.0082273055 -0.1528181 0.17453016 0.34559792
-0.15647003 -0.1398226 -0.1326737 0.2902961 -0.18122216 0.25448632 0.026405811 -0.06165928
0.10640073 0.3411733 0.06299263 -0.27118602 -0.51510423 0.14654052 -0.112719566 0.30674687
0.31270698 0.35645634 -0.2644865 0.07200972 0.051672887 0.380567 0.3643177 -0.13596988
-0.18498042 0.1550244 -0.03705641 0.24217945 0.1425466 0.06065723 -0.12244922 -0.25576523
-0.023637928 -0.0020326371 0.1507156 -0.074539304 -0.13086224 -0.08531997 -0.23318762 0.21087573
0.084540635 -0.1297307 0.18760097 0.09125273 -0.28953063 0.341434 0.27979407 -0.00927053
-0.17605253 0.24547027 -0.10677739 0.09894637 -0.023214063 0.16603446 0.30203867 -0.38239905
-0.049208093 0.14886323 0.016901871 0.13724902 0.12757741 -0.121836826 -0.20572597 0.16613452
-0.039914064 -0.0074510006 -0.19323087 0.17000239 -0.15157466 0.16262877 -0.09455196 0.053299967
-0.06482476 0.10301578 0.22132774 0.2262683 -0.3562391 0.11340769 0.074380234 -0.4377537
0.058223404 0.06791938 -0.001739151 0.09729054 0.009201095 -0.096559234 -0.014233165 -0.060025137
-0.12506784 -0.00095582136 -0.06681192 0.13520095 0.015823113 0.06505263 -0.11934653 0.25369933
0.030996833 -0.07648147 0.046858143 0.22933228 -0.121157564 0.10548523 -0.08809879 -0.15934668
0.06735587 0.097386286 -0.58142674 -0.08179217 0.14443253 -0.08511367 0.18744145 -0.3673024
0.18929511 0.061585072 0.43105307 0.15653305 0.057771157 0.27268136 -0.28952575 -0.01571015
-0.5349238 -0.21246988 -0.038835827 -0.54772407 0.0441703 0.058466863 0.2840058 0.074103646
-0.1620446 -0.11049193 0.10383118 -0.1669501 0.11909758 0.0725326 -0.30711457 0.10155441
0.0056796037 -0.0955624 -0.09693932 0.1299204 0.34678653 0.003273064 0.0069192722 -0.30941755
0.36265987 -0.024824508 0.35645998 0.019296993 0.030470824 0.12256349 0.111612506 -0.1100795
0.081936546 -0.23756325 0.19438824 -0.04748155 -0.020286443 0.20178959 0.14667909 0.1856811
0.05854656 0.068738215 -0.053557407 0.12265891 -0.12146638 -0.15743382 0.252563 -0.07596503
0.056359082 -0.12982982 0.19301948 0.083995715 0.075460784 0.06603469 0.064992495 -0.15432163
-0.15674084 0.16458358 0.050330427 -0.083092004 -0.13802554 0.0869689 0.25048563 -0.06671262
0.12514314 0.0549447 0.1552686 0.047116276 -0.070305385 0.13763806 0.18460305 0.28580365
0.0192242 0.21347095 -0.0018883408 0.09615699 0.018717973 -0.3177006 -0.17390662 -0.020278605
0.10230096 -0.4024331 -0.30556497 0.21470033 0.44506046 -0.19707471 0.06893434 -0.3165064
0.04089611 0.097271584 0.37812626 0.17170234 -0.04048269 -0.28148904 -0.22770897 -0.031775065
-0.103582814 -0.3374763 0.11166045 -0.21290264 0.22460414 -0.13158286 0.13416526 0.14040741
00000000: 6fbb d03d f1f7 293c cb60 9e3e 5c6c b8be
00000010: b3e2 263d ef86 153d c351 873e 8d65 91be
00000020: 6ab6 1e3e b69c 1dbd bb95 4b3e 1078 103e
00000030: 1d96 0cbf 9111 babc 91dc f4bd aa32 8a3e
00000040: bdbf 95be 00c8 4b3d c89a 92be 777d 6f3e
00000050: 7153 063e e258 a0bd a41d 90bd bf72 033e
00000060: 90af b13e 08cf 9dbd f5d0 46be a4c6 583e
00000070: d2cb 063c 597c 1cbe 09b8 323e 36f2 b03e
00000080: ae39 20be a82d 0fbe 9ddb 07be b1a1 943e
00000090: 4d92 39be 084c 823e 0051 d83c 718e 7cbd
000000a0: a0e8 d93d 44ae ae3e 4802 813d e5d8 8abe
000000b0: dfdd 03bf b80e 163e 84d9 e6bd ed0d 9d3e
000000c0: 211b a03e 7281 b63e c66a 87be d579 933d
000000d0: f3a6 533d aed9 c23e d987 ba3e b03b 0bbe
000000e0: 826b 3dbe b7be 1e3e 76c8 17bd e4fd 773e
000000f0: bcf7 113e b773 783d a8c6 fabd a9f3 82be
00000100: 54a4 c1bc fe35 05bb 3155 1a3e 10a8 98bd
00000110: c000 06be 3dbc aebd bcc8 6ebe cfef 573e
00000120: a423 ad3d 20d8 04be 781a 403e b6e2 ba3d
00000130: 5c3d 94be 70d0 ae3e 2b41 8f3e 6ce3 17bc
00000140: 1d47 34be 8f5c 7b3e 1bae dabd 65a4 ca3d
00000150: 6b2b bebc f004 2a3e d0a4 9a3e cfc9 c3be
00000160: 6d8e 49bd 9a6f 183e cb75 8a3c 028b 0c3e
00000170: a7a3 023e 9685 f9bd d4a9 52be 2b1f 2a3e
00000180: ee7c 23bd 8627 f4bb 50de 45be 1b15 2e3e
00000190: 6336 1bbe 2888 263e 75a4 c1bd 1151 5a3d
000001a0: d8c2 84bd f0f9 d23d bda3 623e e1b2 673e
000001b0: f964 b6be 4a42 e83d aa54 983d 4121 e0be
000001c0: aa7b 6e3d 5119 8b3d 39f4 e3ba 4340 c73d
000001d0: 31c0 163c d9c0 c5bd 3932 69bc ebdc 75bd
000001e0: c911 00be 1690 7aba b0d4 88bd 1e72 0a3e
000001f0: 799f 813c 503a 853d f46b f4bd e1e4 813e
00000200: 12ed fd3c 51a2 9cbd 53ee 3f3d 15d6 6a3e
00000210: 7521 f8bd a408 d83d 236d b4bd c72b 23be
00000220: e0f1 893d 7672 c73d 62d8 14bf a782 a7bd
00000230: 1fe6 133e 1350 aebd a7f0 3f3e 0f0f bcbe
00000240: 94d6 413e a140 7c3d fdb2 dc3e 334a 203e
00000250: 73a1 6c3d e49c 8b3e b83c 94be 93b2 80bc
00000260: c4f0 08bf b491 59be 5112 1fbd a537 0cbf
00000270: ebeb 343d f37a 6f3d 3569 913e a7c3 973d
00000280: 05ef 25be 9849 e2bd 71a5 d43d f8f4 2abe
00000290: 6fe9 f33d f98b 943d 1f3e 9dbe c2fb cf3d
000002a0: f81b ba3b 38b6 c3bd 1f88 c6bd da09 053e
000002b0: 018e b13e e780 563b 10bb e23b fa6b 9ebe
000002c0: 8eae b93e c45c cbbc ec81 b63e ba14 9e3c
000002d0: f39d f93c 9102 fb3d 1995 e43d 5c71 e1bd
000002e0: 59ce a73d c843 73be b60d 473e 047c 42bd
000002f0: c12f a6bc eea1 4e3e 0b33 163e 3023 3e3e
00000300: 85ce 6f3d 9fc6 8c3d 035f 5bbd 9834 fb3d
00000310: 5ec3 f8bd 5536 21be f04f 813e 8e93 9bbd
00000320: c8d8 663d 1cf2 04be e6a6 453e f205 ac3d
00000330: 2f8b 9a3d 323d 873d c91a 853d 7d06 1ebe
00000340: ac80 20be 9988 283e 4727 4e3d 242c aabd
00000350: 9156 0dbe c01c b23d a73f 803e a0a0 88bd
00000360: 8625 003e b20d 613d bbfe 1e3e fffc 403d
00000370: 45fc 8fbd fef0 0c3e 9508 3d3e db54 923e
00000380: 127c 9d3c 2198 5a3e 3482 f7ba f5ed c43d
00000390: 6f56 993c a7a9 a2be 9414 32be 511f a6bc
000003a0: 2a83 d13d b60b cebe 0373 9cbe 67da 5b3e
000003b0: f7de e33e f4cd 49be 722d 8d3d 200d a2be
000003c0: ae82 273d 5336 c73d c499 c13e bdd2 2f3e
000003d0: 2dd1 25bd 551f 90be 8a2c 69be 9226 02bd
000003e0: 3a23 d4bd b2c9 acbe 3cae e43d 2603 5abe
000003f0: a1fe 653e a8bd 06be 9e62 093e f6c6 0f3e
