baseline/DLPL-CAP/models_dlpl-cap-classifier/sandwich+ultra8t_to_ssram+digtime+timing_ctrl+array_128_32_8t/dlpl-cap-classifier_nh_2_tsk_regression_ngl_4_nhl_4_hd_32_us_1_bn_0_dp_0.0_epoch_12_20250402_160319.pth (torch, 63134 bytes, 24 tensors)

net_attr_layers.weight f4 [16, 17]
0	0x3cc8c270	0.024506778
1	0x3d171d61	0.036893252
2	0xbe541319	-0.2071041
3	0x3e6424a0	0.22279596
4	0xbea66268	-0.32496953
5	0xbdee5fe1	-0.11639381
6	0xbdf1d3c3	-0.118079685
7	0x3e11daff	0.14243697
8	0x3e5aefd8	0.21380556
9	0xbe363389	-0.17793097
10	0x3e57ded9	0.21081103
11	0x3d39edcc	0.045392796
12	0x3e377ceb	0.17918746
13	0x3d068a4d	0.032846738
14	0x3def8253	0.11694779
15	0xbe800896	-0.2500655
16	0xbf4e3cc5	-0.80561477
17	0x3dfc9649	0.12333352
18	0x3d6a9d20	0.057278752
19	0xbe0425b9	-0.12905015
20	0xbde4da96	-0.111745045
21	0xbd8bcde8	-0.06826383
22	0x3db7098b	0.08937367
23	0x3e24c0a2	0.16089109
24	0xbe440b92	-0.19145039
25	0xbde4fd64	-0.11181143
26	0xbd8c425a	-0.06848593
27	0xbe155475	-0.14582999
28	0x3cbb8678	0.022891268
29	0xbe754be8	-0.23954737
30	0x3e604b01	0.21903612
31	0xbe52f88f	-0.2060263
32	0xbd98fd89	-0.07470233
33	0x3f42e779	0.7613445
34	0xbe71c7c6	-0.23611364
35	0xbd8a6c6c	-0.06758961
36	0x3dc175ee	0.094463214
37	0x3e48a9b6	0.1959599
38	0xbd865d7d	-0.065608
39	0xbe9a781a	-0.30169755
40	0x3d85756b	0.06516536
41	0xbd86b2c6	-0.06577067
42	0x3dd10b9f	0.10207295
43	0x3e5dbcf8	0.21654117
44	0x3e0f9099	0.14020003
45	0xbdd92636	-0.10602991
46	0x3e0f5e0f	0.14000724
47	0x3d31bffd	0.043395985
48	0x3dfc3f8c	0.12316808
49	0xbbc6b36e	-0.00606387
50	0xbfb34280	-1.4004669
51	0x3d2008ed	0.039071012
52	0x3d5b2770	0.053504407
53	0xbcf0a003	-0.029373175
54	0x3d8f11a3	0.06985786
55	0x3d298241	0.041383985
56	0x3ea996b4	0.3312279
57	0xbb8a40bd	-0.004219143
58	0x3e425da7	0.18981038
59	0xbe3075ed	-0.17232485
60	0x3c7a32fd	0.015270946
61	0xbe298366	-0.16554031
62	0x3d992995	0.07478634
63	0xbdab0f24	-0.08352497
64	0x3d983370	0.07431686
65	0xbd4ef8c9	-0.05053023
66	0xbc2bf1d0	-0.010494664
67	0x3f12ee64	0.57395005
68	0xbe570465	-0.2099777
69	0xbdf29fa6	-0.11846857
70	0xbe0bcc63	-0.13652186
71	0x3da587b8	0.08082527
72	0xbcf49625	-0.02985675
73	0xbe27c3ee	-0.16383335
74	0xbe7656bf	-0.24056529
75	0xbe424e1c	-0.18975109
76	0xbe271113	-0.16315107
77	0x3dc9304e	0.098236665
78	0x3db1dc65	0.08684615
79	0x3e4e5d8e	0.20152876
80	0xbe0041f1	-0.12525155
81	0xbe294ebb	-0.1653394
82	0x3e03c5c4	0.1286841
83	0xbf0731df	-0.5281047
84	0x3f54c3ad	0.8311108
85	0xbeac1c87	-0.33615515
86	0xbe5374b9	-0.20649995
87	0xbe6bb68f	-0.2301886
88	0xbdfaaa84	-0.122395545
89	0x3da849b7	0.08217185
90	0xbe842b16	-0.25814122
91	0xbd7d485a	-0.061836578
92	0x3e1409a7	0.14456807
93	0x3e28d5c4	0.16487795
94	0xbe3419fc	-0.17588037
95	0xbe0496f2	-0.12948206
96	0x3e63691b	0.22208063
97	0xbda79b6b	-0.081839405
98	0xbdb017c7	-0.08598285
99	0xbe704ef3	-0.23467617
100	0xbde1561c	-0.11002752
101	0xbf722b32	-0.9459716
102	0x3eaa8138	0.3330171
103	0x3e6e0823	0.23245291
104	0x3e1df46f	0.15425275
105	0xbe29a5d1	-0.1656716
106	0x3ede96ac	0.4347433
107	0x3eabe078	0.33569694
108	0xbe595d56	-0.21227011
109	0xbe1e2355	-0.15443166
110	0x3e784264	0.24244076
111	0x3d3ba21e	0.045808904
112	0x3d991122	0.07473971
113	0xbe67a360	-0.22620916
114	0xbe231d31	-0.15929104
115	0xbda55574	-0.080729395
116	0x3d1b57d7	0.037925567
117	0xbee80905	-0.4531938
118	0x3e9b2073	0.30298194
119	0xbd7c97a4	-0.061668053
120	0x3bec0e40	0.007203847
121	0x3e96d113	0.29456386
122	0xbc89ae30	-0.016806692
123	0xbe832a23	-0.25618085
124	0xbe58ee9d	-0.21184774
125	0xbe10e441	-0.14149572
126	0xbdaa0609	-0.08301932
127	0xbe4405e5	-0.19142874
128	0x3e503d4b	0.20335881
129	0xbd4528c9	-0.0481346
130	0x3e55af63	0.20867686
131	0x3d9ac451	0.07556976
132	0xbe524eb9	-0.20537843
133	0x3e2bdf16	0.1678432
134	0x3eac6ddd	0.3367757
135	0xbe276cfe	-0.16350171
136	0xbeaceed1	-0.33775952
137	0xbed6b782	-0.4193688
138	0x3d799ebb	0.060942393
139	0xbd5901ff	-0.05298042
140	0x3ddea358	0.10870999
141	0xbeb4efc4	-0.35339177
142	0x3e386318	0.18006551
143	0xbe364e97	-0.17803417
144	0xbd2b89c6	-0.041879438
145	0x3d4f7f1f	0.05065834
146	0x3e0036e8	0.12520945
147	0x3e488031	0.19580151
148	0x3e623e1d	0.22094007
149	0xbe44ed67	-0.19231187
150	0x3d7a0345	0.061038274
151	0xbd1204e4	-0.035649195
152	0xbf964e0f	-1.1742572
153	0xbc6fdeee	-0.014640553
154	0x3eee8ecc	0.4659332
155	0xbe992910	-0.2991414
156	0x3e04bc03	0.12962346
157	0x3e7b0800	0.2451477
158	0x3eb2816a	0.3486436
159	0xbe0645e2	-0.13112596
160	0x3e61be77	0.22045313
161	0x3d5a4e45	0.0532973
162	0x3cff96b7	0.031199796
163	0xbe5add87	-0.21373568
164	0x3dd083ae	0.10181366
165	0xbd1508cb	-0.03638534
166	0xbde38e67	-0.111111455
167	0x3e55532f	0.20832513
168	0xbca2b4ba	-0.019861568
169	0x3f4bb379	0.7957073
170	0x3d4ea3cb	0.050449174
171	0x3e19a8fe	0.15005872
172	0x3eb2dc75	0.3493382
173	0xbd7dda9a	-0.061976053
174	0x3e211d57	0.15733849
175	0x3da0b897	0.07847708
176	0xbe398a77	-0.18119226
177	0x3db124db	0.08649608
178	0x3e403ce7	0.18773232
179	0xbe69d014	-0.22833282
180	0x3d66b94e	0.056329064
181	0x3e004c86	0.12529191
182	0x3d342326	0.043978833
183	0xbdb0e448	-0.08637291
184	0x3e01a0b2	0.12658957
185	0x3eae7240	0.3407154
186	0x3f6e3289	0.9304586
187	0x3e0b28b7	0.1358975
188	0x3d663fb1	0.056213085
189	0x3ed4e465	0.415805
190	0xbd2f7e25	-0.04284491
191	0x3f42e24c	0.7612655
192	0x3eac7ee5	0.33690563
193	0x3e556ffc	0.208435
194	0xbcc4b16d	-0.024010384
195	0xbd5e6cc9	-0.054302964
196	0x3b67f116	0.00353915
197	0xbc6d4349	-0.014481374
198	0x3d6ed4af	0.0583083
199	0x3d8b3217	0.06796663
200	0xbe61924b	-0.22028463
201	0xbdb74e4b	-0.0895048
202	0x3ef1bb27	0.47213098
203	0xbed1c577	-0.40970966
204	0xbdcd3217	-0.100193195
205	0xbe7f6487	-0.24940692
206	0xbe2f9434	-0.17146379
207	0xbe5e7831	-0.21725537
208	0x3e6e4d1c	0.23271602
209	0x3d467fb0	0.048461616
210	0x3e1e5b83	0.15464596
211	0x3de554c0	0.111978054
212	0xbe5b8881	-0.21438791
213	0xbe155a2e	-0.14585182
214	0xbd1cc776	-0.03827616
215	0x3e703f5d	0.23461671
216	0x3d0fb4dd	0.035084594
217	0xbd80a256	-0.06280963
218	0x3dcd7f6b	0.10034069
219	0x3ca84472	0.02054045
220	0xbf679097	-0.90455
221	0xbe6028b3	-0.21890526
222	0xbece4192	-0.402844
223	0xbf36c451	-0.71393305
224	0xbe7710eb	-0.24127547
225	0xbee5eb81	-0.44906238
226	0xbdd1e24e	-0.10248242
227	0x3db506b1	0.08839167
228	0xbe2d2c2d	-0.16911383
229	0xbe751ce8	-0.23936808
230	0xbe49b5bc	-0.19698232
231	0x3e393311	0.18085887
232	0x3dee7989	0.11644275
233	0x3e50fe3b	0.20409481
234	0x3e021b42	0.1270571
235	0x3d7b6da6	0.061383866
236	0xbe776361	-0.24159004
237	0x3e738f21	0.23785068
238	0xbe9fc0ef	-0.31201884
239	0xbe9647f4	-0.2935177
240	0xbe260ab9	-0.16215028
241	0xbdf3dec3	-0.11907723
242	0xbe70f105	-0.23529442
243	0xbe422c1c	-0.18962139
244	0xbd35068e	-0.044195704
245	0xbe2ecd4d	-0.17070504
246	0xbe2247af	-0.15847658
247	0x3da4c3db	0.08045169
248	0xbd939f0d	-0.07208071
249	0x3e195239	0.14972772
250	0xbd9f5991	-0.07780755
251	0xbe362fa9	-0.17791618
252	0xbd2f476d	-0.042792726
253	0xbea30f12	-0.31847435
254	0xbf77a275	-0.96732265
255	0xbed56705	-0.4168016

net_attr_layers.bias f4 [16]
0	0x3e0dcb58	0.138471
1	0x3d90fd0a	0.07079513
2	0x3e6762e3	0.22596316
3	0xbbb9d01e	-0.0056705615
4	0xbe4974ce	-0.19673464
5	0x3dec795e	0.115465865
6	0x3e106698	0.14101636
7	0xbe68e55f	-0.22743748
8	0x3d7f6353	0.062350582
9	0xbdd95631	-0.10612143
10	0xbcc9b581	-0.02462268
11	0xbd0591ba	-0.03260968
12	0xbb8c43ec	-0.004280558
13	0xbe05ddc1	-0.13072874
14	0xbe3585cc	-0.1772682
15	0x3e36b2fd	0.17841716

dev_attr_layers.weight f4 [16, 17]
0	0x3e8b2746	0.271784
1	0xbfbb92b0	-1.465414
2	0x400b5c09	2.1774924
3	0xbfce0a88	-1.6096964
4	0xbfb23eb3	-1.3925384
5	0xbe71afcd	-0.23602219
6	0x3db89b89	0.09014041
7	0xbe085bf3	-0.13316326
8	0xbe1fa9a4	-0.15592057
9	0xbc9b0541	-0.018923404
10	0xbda56934	-0.080767065
11	0xbda0b26c	-0.07846531
12	0x3bff5c15	0.0077929595
13	0xbd52b7cd	-0.051444817
14	0xbd0849b4	-0.033273414
15	0xbf85625d	-1.0420643
16	0xbe4a1e8b	-0.19738214
17	0x3e406adf	0.18790768
18	0x3fcbb60e	1.5914934
19	0xc0070c66	-2.1101317
20	0x3fba235a	1.4542038
21	0x3f96da73	1.1785415
22	0x3e678af8	0.22611606
23	0x3de4d8d0	0.11174166
24	0xbe5739c4	-0.2101813
25	0x3dc52592	0.096263066
26	0x3e6bc028	0.2302252
27	0x3d82ad49	0.06380708
28	0x3e26811b	0.16260187
29	0x3e74d9ff	0.23911284
30	0xbd1838be	-0.03716349
31	0x3d12ab0b	0.03580765
32	0xbf2225c2	-0.63338864
33	0xbd4cb8ea	-0.049981035
34	0x3e2cb648	0.1686641
35	0xbfeda1c1	-1.8564988
36	0x400c0d44	2.1883097
37	0xc00212b2	-2.032391
38	0xbfc94145	-1.5723044
39	0xbe7518f3	-0.23935299
40	0xbe3fa43c	-0.18714994
41	0xbd75abf1	-0.05997843
42	0x3e279c30	0.16368175
43	0x3d264828	0.040596157
44	0xbe3ce6bb	-0.18447392
45	0xbe473ccd	-0.19456787
46	0x3df71a37	0.12065547
47	0xbe38bce1	-0.18040802
48	0xbd2cc4ae	-0.042179756
49	0x3dac5bf3	0.084159754
50	0xbde5e27f	-0.11224841
51	0xbda744e0	-0.08167434
52	0x3fc6cae8	1.5530672
53	0xc03105e9	-2.7659857
54	0x3fbfffd8	1.4999952
55	0x3f835fe5	1.026364
56	0xbe48c2bd	-0.19605537
57	0xbe04fc41	-0.12986852
58	0x3e6fdf3f	0.23425005
59	0xbdefeb6f	-0.11714827
60	0xbe26c740	-0.16286945
61	0x3d70ccfa	0.05878923
62	0x3d88e633	0.06684532
63	0x3e0813b2	0.13288763
64	0x3e3cc7e4	0.18435627
65	0x3dcff33b	0.101538144
66	0xbce12ff2	-0.027488682
67	0x3cb0360d	0.021510148
68	0x3e0c1c5e	0.13682696
69	0x3fb50bb8	1.4144201
70	0xc01e6ff2	-2.4755826
71	0x3fb965af	1.4484156
72	0x3f54817c	0.8301008
73	0xbe0d6681	-0.13808633
74	0xbe5fe834	-0.21865922
75	0x3c317fa8	0.010833658
76	0x3ddc1c26	0.107475564
77	0x3d5be856	0.05368837
78	0x3d447320	0.047961354
79	0xbe3c59b6	-0.18393597
80	0xbe67efdc	-0.22650093
81	0x3b8bf2e0	0.0042708963
82	0x3e519f2f	0.2047088
83	0xbec4b23f	-0.3841724
84	0xbe109a06	-0.14121255
85	0x3cd1e03e	0.025619622
86	0xc017c7cc	-2.3715696
87	0x3fd2f0a2	1.6479685
88	0xbff512e1	-1.9146386
89	0xbfac504a	-1.3462002
90	0x3e4dbb1a	0.20090905
91	0xbe640481	-0.22267343
92	0x3e260e0f	0.162163
93	0xbe2f29f3	-0.17105846
94	0x3dba00b3	0.090821646
95	0x3e522ba6	0.20524463
96	0x3b5f3374	0.0034057768
97	0x3e61f4fb	0.22066109
98	0xbe539ccd	-0.20665284
99	0xbca73e5c	-0.020415477
100	0x3e167306	0.14692315
101	0xbd586f81	-0.052840713
102	0xbd781510	-0.06056696
103	0x3f194672	0.59873116
104	0xc02f8cc2	-2.7429662
105	0x3fa40b7d	1.2816006
106	0x3f7904ed	0.9727314
107	0xbe0b913c	-0.13629621
108	0xbe499a70	-0.1968782
109	0x3cd6e62c	0.026232801
110	0x3d932a60	0.07185817
111	0xbde55699	-0.11198158
112	0xbd8afaa8	-0.0678609
113	0x3e27bb61	0.16380073
114	0x3c9e45a3	0.019320315
115	0x3c334971	0.010942803
116	0xbc9ee9d8	-0.019398615
117	0x3f024e4c	0.5090072
118	0xbe6984df	-0.22804593
119	0xbd19d3a1	-0.03755534
120	0x3dcbcca0	0.099511385
121	0x402ea45e	2.7287822
122	0xbf349e0f	-0.7055368
123	0xbf1615ba	-0.586269
124	0x3e6cca5c	0.23124069
125	0x3dad0438	0.0844807
126	0x3e310dcd	0.17290421
127	0xbdf0770f	-0.117414586
128	0xbdcae409	-0.099067755
129	0x3db68fe7	0.08914166
130	0xbe257947	-0.16159545
131	0xbe225a05	-0.15854652
132	0xbc3fedb7	-0.0117143905
133	0xbdb8d09a	-0.090241626
134	0xbf4f12a5	-0.80887824
135	0x3e13509b	0.14386217
136	0x3e508078	0.20361507
137	0xc0174590	-2.3636208
138	0x3fe8c5b1	1.8185331
139	0xc00f8b0a	-2.2428613
140	0xbfc6cb8b	-1.5530866
141	0x3d7ce976	0.061746083
142	0x3dea372c	0.114363045
143	0xbcfb2c41	-0.03066075
144	0xbdc4607b	-0.09588715
145	0x3e0a6405	0.13514717
146	0xbe45ca81	-0.1931553
147	0x3e1cf73c	0.15328687
148	0xbdc0b3c3	-0.09409287
149	0x3b7346c8	0.0037121046
150	0xbca2f51b	-0.019892266
151	0x3ec0563b	0.3756579
152	0xbd961b1a	-0.07329388
153	0x3e0563fa	0.1302642
154	0x3fc153f7	1.5103749
155	0xc01e0c60	-2.4695053
156	0x3fe48e74	1.7855973
157	0x3f8b20da	1.08694
158	0xbe352da6	-0.17693195
159	0x3e4741c4	0.19458681
160	0x3e429d97	0.19005428
161	0xbe3da1c5	-0.18518741
162	0xbc999716	-0.018748801
163	0xbe74e92e	-0.23917076
164	0xbe4b4dec	-0.19853944
165	0x3d3fdf70	0.046843946
166	0x3d842491	0.06452287
167	0x3cb7b1d5	0.022423664
168	0x3f03f8b4	0.51551366
169	0x3e6520cf	0.22375797
170	0xbdc8e998	-0.098101795
171	0x3f81dedd	1.0146137
172	0xc00b05b9	-2.1722243
173	0x3faa5c96	1.3309505
174	0x3f8509fe	1.0393674
175	0xbe2f9bad	-0.1714923
176	0x3dba29b0	0.090899825
177	0xbdfdc2f4	-0.123907
178	0xbe4e5e92	-0.20153263
179	0xbe07a776	-0.13247475
180	0x3e6f846e	0.23390362
181	0x3e544f3a	0.20733348
182	0x3e5e663d	0.21718688
183	0x3e11c9bd	0.14237113
184	0x3d8f5826	0.06999235
185	0x3f4e8bd5	0.80682117
186	0xbe08a715	-0.13344987
187	0x3d538331	0.051638786
188	0xbfcd7127	-1.6050156
189	0x3f84c31b	1.0372041
190	0xbf57762c	-0.8416469
191	0xbf0b7301	-0.5447236
192	0x3dffb4c6	0.12485652
193	0xbdc0ed84	-0.094203025
194	0xbe122c9c	-0.1427483
195	0x3d06019a	0.03271637
196	0xbe1263ba	-0.14295855
197	0xbe21b200	-0.15790558
198	0x3e0174cf	0.12642215
199	0xbd26e159	-0.040742252
200	0x3e62f1c5	0.2216254
201	0x3e5e91e5	0.21735342
202	0x3f546e95	0.82981235
203	0x3daaf295	0.0834705
204	0x3dd534ed	0.104104854
205	0xbfcea387	-1.6143655
206	0x3fb2749e	1.3941839
207	0xbf387dd5	-0.72067004
208	0xbecefe3d	-0.40428343
209	0x3e66ea24	0.22550255
210	0xbd80ba49	-0.06285531
211	0xbdd1f7e9	-0.10252363
212	0xbd7092a5	-0.0587336
213	0xbdeff95d	-0.11717484
214	0x3d28ebbd	0.041240443
215	0x3e3962a3	0.18104033
216	0x3e42358b	0.18965738
217	0x3de40db8	0.11135429
218	0xbd875199	-0.066073604
219	0x3ee743c3	0.45168886
220	0xbd5a445b	-0.053287845
221	0xbd8f3a5e	-0.069935545
222	0x3ea17897	0.31537315
223	0xc0695829	-3.6460059
224	0x3f422b50	0.7584734
225	0x3ed60a86	0.41804904
226	0xbe1d2570	-0.15346313
227	0xbe4e7aaf	-0.20163988
228	0x3e5865db	0.21132605
229	0xbe6b2dbb	-0.22966664
230	0x3e3b5a14	0.18296081
231	0xbc059567	-0.008153296
232	0xbce71187	-0.0282066
233	0x3e1b5776	0.15170082
234	0xbcb7a3d5	-0.022416988
235	0x3e371dc2	0.17882445
236	0xbeb4459e	-0.35209364
237	0xbe57a027	-0.21057187
238	0x3e5dec54	0.21672183
239	0xbfaf54a4	-1.3697705
240	0x3fa50ab6	1.2893894
241	0xbf6c635c	-0.9233911
242	0xbf0e8edc	-0.55686736
243	0xbdeef3be	-0.11667584
244	0xbcfe3338	-0.031030282
245	0x3e6bf7ec	0.23043793
246	0x3e26dbb1	0.16294743
247	0xbc154930	-0.009111688
248	0xbe699642	-0.22811225
249	0x3c2e2898	0.0106297955
250	0xbe291fcb	-0.16516034
251	0x3e49f61d	0.19722791
252	0x3ca5e6de	0.020251688
253	0xbf2febda	-0.68719256
254	0xbd5c7bcd	-0.053829003
255	0xbd8eec5f	-0.06978678

dev_attr_layers.bias f4 [16]
0	0x3e6fa412	0.23402432
1	0x3e5b9883	0.21444897
2	0x3ae06d21	0.0017122367
3	0xbe87239b	-0.26394352
4	0xbe389952	-0.18027237
5	0xbdbf9e9e	-0.09356426
6	0xbe6674c8	-0.22505486
7	0xbd30bb82	-0.04314757
8	0xbe5bd122	-0.21466497
9	0xbe8a2db8	-0.26988006
10	0xbe8e3993	-0.277783
11	0xbe9e2c5f	-0.30893227
12	0xbdce14d9	-0.1006257
13	0x3d89fccd	0.06737671
14	0x3ea6c5ba	0.32572728
15	0xbe3d9639	-0.18514337

pin_attr_layers.weight f4 [17, 16]
0	0xbf5aed51	-0.85518366
1	0xbf9851a1	-1.1899911
2	0x3e448b45	0.19193752
3	0xbf558bf6	-0.8341669
4	0xbfde138f	-1.7349719
5	0xbe56ae42	-0.20964912
6	0xbf2df4ac	-0.67951465
7	0x40195109	2.395571
8	0xbf02f217	-0.5115065
9	0xbfa409d9	-1.2815505
10	0x3f3b3f03	0.73143023
11	0xbd6f350b	-0.058400195
12	0xbee350e7	-0.4439766
13	0xbebed223	-0.37269697
14	0xbfba5ce3	-1.4559597
15	0xbf80d4c8	-1.0064936
16	0x3e684fd6	0.22686705
17	0x3da1f89a	0.07908745
18	0x3f5225ae	0.82088745
19	0xbe11777d	-0.14205737
20	0xbf441328	-0.7659173
21	0x3eb7fc49	0.35934666
22	0x3f755e3d	0.9584692
23	0xbfacdc33	-1.35047
24	0x3f2854e1	0.65754515
25	0xbf99657b	-1.1984094
26	0xbc870dc4	-0.016486056
27	0x3f141f04	0.57859826
28	0x3f0b7594	0.54476285
29	0x3d5f780f	0.054557856
30	0x3fe9f594	1.827807
31	0x3f375f99	0.71630245
32	0xbfe4e3e2	-1.7882044
33	0x4018f853	2.3901565
34	0xbf7c40ef	-0.9853658
35	0x3f4cf409	0.8005987
36	0xbea37469	-0.3192475
37	0xc0154095	-2.3320668
38	0x3f819e0a	1.0126355
39	0x3e9e658a	0.30936843
40	0xbf63ded5	-0.8901189
41	0x3fdd9aa9	1.7312824
42	0x3fb4c5ed	1.4122902
43	0xbe2de56a	-0.16982046
44	0x3eead02a	0.45861942
45	0x3edb26e0	0.42803097
46	0x3f2ec386	0.68267095
47	0x3f8c04e3	1.0938991
48	0xbed3dbc9	-0.4137862
49	0x3f04b671	0.51840883
50	0xbf3397ea	-0.7015368
51	0xbedd5bc9	-0.4323409
52	0x3e10df5c	0.14147705
53	0x3d919ec7	0.071103625
54	0x3f1037e8	0.56335306
55	0xbf142179	-0.57863575
56	0xbf8aba57	-1.0838116
57	0xbec7214f	-0.388926
58	0x3f50073f	0.81261057
59	0x3fbfc25b	1.4981188
60	0x3d33cc62	0.043896087
61	0x3fb8df96	1.4443233
62	0x3e6d98fd	0.23202892
63	0x3f01a9e0	0.50649834
64	0xbfa3ac55	-1.2786967
65	0xbd1d661f	-0.03842747
66	0x3ff4f76e	1.913801
67	0x3eacf9f8	0.3378446
68	0x3e000eb6	0.12505612
69	0xbf431c5c	-0.7621515
70	0xbf986445	-1.19056
71	0x3f468e34	0.77560735
72	0x3ee9541f	0.45571992
73	0x3e802b4c	0.25033033
74	0xbfae386e	-1.3610971
75	0x3fe6a280	1.8018341
76	0xbd984097	-0.074341945
77	0xbe2066a5	-0.15664156
78	0xbf5eefbb	-0.8708455
79	0xbf241ef3	-0.64109725
80	0xbed44195	-0.41456285
81	0xbf30b371	-0.69023806
82	0xbe6b79a3	-0.2299562
83	0xc00b06b3	-2.172284
84	0x3db39345	0.08768324
85	0x3f8c0122	1.0937846
86	0xbdf1177d	-0.11772058
87	0xbe98e7c4	-0.29864323
88	0xbf74207b	-0.9536206
89	0xbdbd625e	-0.09247278
90	0xbf8221bd	-1.0166546
91	0xbbfb845a	-0.0076756896
92	0xbf04aa1f	-0.51822084
93	0x3f56ec43	0.83954257
94	0x3d6fb577	0.058522668
95	0xbfd58927	-1.668248
96	0x40084bc6	2.1296248
97	0xbfc252a5	-1.5181471
98	0x3e0e0eca	0.13872829
99	0xbf970246	-1.1797569
100	0xbf079d1e	-0.52974117
101	0x3f76676f	0.9625158
102	0x3e8f1289	0.2794383
103	0xbf1262bd	-0.5718191
104	0xc032cad1	-2.793629
105	0xbf360e39	-0.7111545
106	0x3f060589	0.52352196
107	0xbfdaf34e	-1.7105501
108	0x3f56a6fa	0.83848536
109	0xbe8a292c	-0.26984537
110	0x3dfc07b6	0.12306158
111	0x3f60313a	0.87575114
112	0x3e1af63f	0.15132998
113	0x3f3d48e3	0.7393934
114	0x3e8bd42d	0.27310315
115	0x402ecc7d	2.731231
116	0x3edd2fca	0.43200523
117	0xbe9e4d20	-0.30918217
118	0xbdc5cc63	-0.09658124
119	0x3fc55dcd	1.5419251
120	0xbddeb595	-0.10874478
121	0xbed67aa1	-0.41890433
122	0x3fb81ec1	1.4384385
123	0xbf34f3a4	-0.70684266
124	0xbfa03ff2	-1.2519515
125	0x40419a65	3.0250485
126	0x3fac5237	1.346259
127	0x3f5b090f	0.855607
128	0x3ea4e10a	0.3220294
129	0x3ee46189	0.44605663
130	0x3fc2f054	1.5229592
131	0x3fa3e718	1.2804899
132	0xbdede585	-0.11616043
133	0x3faf6dbc	1.3705363
134	0xbef63d86	-0.48093814
135	0xbf7d8861	-0.9903622
136	0xbfae9d7e	-1.3641813
137	0x3c067100	0.008205652
138	0xbecfcce8	-0.4058602
139	0xbf3609bb	-0.711086
140	0xbeb2fc11	-0.34957936
141	0x3ec26e70	0.37974882
142	0x3f7fd264	0.99930406
143	0x3fa33946	1.2751853
144	0x3f75a151	0.95949274
145	0x3dd3fd0d	0.10351
146	0x3f543ba3	0.829035
147	0x4005e573	2.0921295
148	0x3f4b9968	0.79530954
149	0x3e8efe6a	0.27928478
150	0x3e3eec2f	0.18644784
151	0x3eb59cfb	0.3547133
152	0x3db9a0ae	0.0906385
153	0x3fdf0239	1.7422553
154	0xbfa20c54	-1.2660012
155	0x3ec74016	0.3891608
156	0x3eaf8d52	0.34287506
157	0xbfbac29a	-1.4590638
158	0xbfbf3020	-1.4936562
159	0xbe62b2ce	-0.22138521
160	0x3e66a405	0.22523506
161	0xbd9e32d3	-0.07724538
162	0x3f7c567a	0.9856945
163	0x3fa3a087	1.2783364
164	0x3e9388a5	0.2881519
165	0x3f5e7a09	0.8690496
166	0xbf4f48e1	-0.8097058
167	0xbfb705ab	-1.4298605
168	0x3eeb0424	0.45901597
169	0x3f07eb37	0.53093284
170	0xbfae44fc	-1.3614802
171	0x3ffa665f	1.9562491
172	0x3fe25de0	1.7684898
173	0xbf7c5d4b	-0.98579854
174	0xbf9e5880	-1.2370758
175	0xc01351ec	-2.301875
176	0xba84365c	-0.0010087001
177	0xbf5973f6	-0.8494257
178	0xbfd466f6	-1.6593921
179	0x3e9cd21f	0.3062906
180	0x3f974d3c	1.1820445
181	0x3ea6ed01	0.32602695
182	0xbec76598	-0.38944697
183	0x4036ae2c	2.8543806
184	0x3f530997	0.8243651
185	0x3f4c6079	0.79834706
186	0x3ff1cb7b	1.8890222
187	0x3f17ed2e	0.5934628
188	0x3d8ea6fd	0.06965444
189	0xbfcd3d52	-1.6034338
190	0xbedc119b	-0.42982182
191	0x3f137f24	0.57615876
192	0x3eb0505e	0.34436315
193	0xc04680b6	-3.101606
194	0xbfbab76c	-1.4587226
195	0xbfb74611	-1.4318258
196	0xbf1b6cab	-0.6071269
197	0xbe84fc5d	-0.25973788
198	0xbf38119a	-0.7190186
199	0xbec58ba3	-0.38583097
200	0x3f05fa6e	0.5233525
201	0xbf5238a5	-0.8211768
202	0xbef115bb	-0.47086892
203	0x3f1a053b	0.6016423
204	0xbe90a551	-0.28251126
205	0x3f44eebf	0.769268
206	0xbf445310	-0.76689243
207	0xbf73118f	-0.9494867
208	0x3c8a965b	0.016917398
209	0x3da4687b	0.080277406
210	0x3f3eadeb	0.7448413
211	0x3fac38da	1.345485
212	0x3e01dd99	0.12682189
213	0xc01ceebe	-2.4520717
214	0x3ed4fad3	0.41597614
215	0x3ff3864a	1.9025357
216	0xbf3c1355	-0.73467
217	0x3d36ea66	0.044657134
218	0xbfc2b40e	-1.5211198
219	0x3eb217c5	0.3478376
220	0x3f3d7c42	0.7401773
221	0x3fb54607	1.4161996
222	0x3f2ef32b	0.68339795
223	0xbe0d91e3	-0.13825183
224	0x3f6bda49	0.9212995
225	0x3f073b06	0.5282444
226	0xbc06d05b	-0.008228387
227	0xbfb983b6	-1.449332
228	0xbf1aed3c	-0.6051824
229	0xbe378c08	-0.17924511
230	0x3e4c591e	0.1995587
231	0xbf9f834f	-1.2461947
232	0xbed4465f	-0.4145994
233	0x3fba59f3	1.45587
234	0x3ea9ce7a	0.33165342
235	0xbf80034e	-1.0001009
236	0xbf3123cc	-0.69195247
237	0xbef1a8c6	-0.47199076
238	0xbfa50c2f	-1.2894343
239	0x3f89c394	1.0762811
240	0xbf888b07	-1.0667428
241	0xbffea2c8	-1.9893427
242	0x3e98396a	0.29731303
243	0x3ede7155	0.4344584
244	0x3b5e6278	0.0033933204
245	0xbf8312e9	-1.0240146
246	0x3e656cbd	0.22404762
247	0xbf41670a	-0.7554785
248	0x3faf0ce5	1.367581
249	0xbea3b46a	-0.31973583
250	0xbf69c06d	-0.91309243
251	0x3ff5a8a7	1.9192094
252	0xbfd363ed	-1.651487
253	0x40097455	2.1477253
254	0xbf2910db	-0.66041344
255	0x3de8803c	0.11352584

node_encoder.weight f4 [4, 16]
0	0x3f479904	0.7796786
1	0xbeb88e4d	-0.36046067
2	0x3fc8eddf	1.5697592
3	0x3f71d6f3	0.9446861
4	0xbe452789	-0.19253363
5	0x3f724d51	0.94649225
6	0x3e625732	0.22103575
7	0x3e24628f	0.16053222
8	0xbf5ad881	-0.8548661
9	0xbff30d3a	-1.8988411
10	0xbf02cc5f	-0.51093096
11	0xbee24f8f	-0.44201323
12	0x3e165476	0.14680657
13	0x3f770c9f	0.96503633
14	0x3d73a435	0.059482772
15	0x3f9b7159	1.2143966
16	0xbf325842	-0.6966592
17	0xbff03540	-1.8766251
18	0xbfc7ab6c	-1.5599189
19	0xbf26f93b	-0.65224046
20	0x3ee9a14e	0.45630878
21	0xbe8c27a3	-0.2737399
22	0xbdd755b1	-0.10514391
23	0xc0068c68	-2.1023197
24	0xbea0bb8d	-0.3139309
25	0xbe93b6ce	-0.28850406
26	0x3f7f9743	0.9984018
27	0x3f737400	0.95098877
28	0xbf8883a4	-1.0665174
29	0xbe91084c	-0.28326643
30	0xbf52d774	-0.82360005
31	0x3f7192d1	0.9436465
32	0x3f6d6d49	0.9274488
33	0xbf760039	-0.9609409
34	0xbf36d676	-0.7142099
35	0xbefb0b60	-0.49032116
36	0xbf94850f	-1.1603106
37	0xbfd30940	-1.6487198
38	0x3f2cd482	0.6751176
39	0xbde27eb9	-0.11059327
40	0x3efb1226	0.49037284
41	0xbef79ae7	-0.4836037
42	0xbd77e755	-0.06052335
43	0x3ea2564f	0.31706473
44	0x3f0f7343	0.5603525
45	0xbda9558e	-0.082682714
46	0xbf82e089	-1.0224773
47	0xbf1e2fe6	-0.6179184
48	0xbf360b38	-0.7111087
49	0xbec5f92e	-0.38666672
50	0x3f753471	0.95783144
51	0xbf529162	-0.82253087
52	0xc01902f3	-2.390805
53	0x3ea4fda7	0.3222477
54	0x3ff00cbd	1.8753887
55	0x3f8d59ab	1.104299
56	0xbf05ba6d	-0.5223759
57	0xbf3d7c76	-0.7401804
58	0x3e2640cd	0.16235657
59	0xbe72af80	-0.2369976
60	0x3f028b15	0.5099347
61	0x3fd5d709	1.6706249
62	0x3fcbca19	1.592105
63	0xbed51722	-0.4161921

gnn_layers.0.lin_l.weight f4 [32, 32]
0	0xbbb17d6c	-0.005416563
1	0x3d06a8f7	0.03287598
2	0x3da3a167	0.079897694
3	0xbdf9861d	-0.12183783
4	0xbd78890a	-0.060677566
5	0x3e0e2ed4	0.13885051
6	0xbe6e2437	-0.23256002
7	0x3dbb490e	0.091447935
8	0x3e15c755	0.1462682
9	0x3e370dc0	0.17876339
10	0x3d0a9e23	0.033842217
11	0xbe41367c	-0.1886844
12	0x3d532feb	0.05155937
13	0xbd8ae845	-0.06782583
14	0x3cc9db83	0.024640804
15	0x3dfbc78a	0.122939184
16	0xbd13f669	-0.036123667
17	0xbe3159c9	-0.17319407
18	0xbe13113e	-0.14362046
19	0x3e184a4a	0.14872089
20	0x3b948b9c	0.0045332443
21	0x3e4873c1	0.19575407
22	0x3af3a47c	0.0018588449
23	0xbdc2946e	-0.09500967
24	0x3d529d82	0.051419742
25	0x3e882732	0.26592404
26	0x3dbdc331	0.092657454
27	0x3d50f90b	0.051018756
28	0xbded8e43	-0.115994
29	0xbe03d352	-0.12873581
30	0x3dd43078	0.10360807
31	0xbe03149f	-0.12800835
32	0xbd33edb8	-0.04392788
33	0x3d6d9750	0.05800563
34	0x3d790a9a	0.060801126
35	0x3c9c1fbe	0.019058105
36	0xbd9e16e3	-0.07719209
37	0xbd5c0086	-0.053711437
38	0x3d981ee9	0.07427771
39	0x3dbdbffc	0.09265134
40	0x3e17e48d	0.14833279
41	0x3bfd7270	0.0077345893
42	0x3da7a427	0.081856064
43	0xbdba21c9	-0.09088475
44	0xbd4544d3	-0.04816134
45	0xbd9b0140	-0.07568598
46	0x3bb12633	0.005406165
47	0xbe1c0d2a	-0.15239397
48	0x3e06f3c0	0.13178921
49	0xbe5b7fd6	-0.21435484
50	0x3eb786db	0.35845074
51	0xbe239293	-0.15973882
52	0xbe2ab245	-0.16669567
53	0x3eb930f6	0.36170167
54	0x3d8c76bd	0.06858585
55	0xbd7d6c65	-0.06187095
56	0x3efea612	0.49736077
57	0xbe7f1617	-0.2491077
58	0xbd86fc32	-0.06591071
59	0x3ef10008	0.47070336
60	0x3eaa4159	0.3325298
61	0x3d360d38	0.0444462
62	0x3e397e36	0.18114552
63	0x3dfb4ebe	0.12270878
64	0x3ebc47af	0.3677344
65	0x3d9f16fc	0.07768056
66	0x3eb5e711	0.35527852
67	0x3f013bf9	0.50482136
68	0xbe6ba7d3	-0.23013239
69	0x3edd70cf	0.4325013
70	0xbda0a807	-0.07844549
71	0x3eb0900e	0.34484905
72	0xbdbd257b	-0.092356645
73	0xbddc4f40	-0.10757303
74	0xbe99e9fd	-0.3006133
75	0xbf0843c2	-0.5322839
76	0x3eb56330	0.35427237
77	0x3e7a8983	0.24466519
78	0x3e061c88	0.13096821
79	0x3d8261e4	0.063663274
80	0xbe2fcb69	-0.17167439
81	0x3d546270	0.05185169
82	0xbcb78256	-0.022401016
83	0x3e544a70	0.2073152
84	0x3e3787a8	0.17922843
85	0x3eec11e4	0.461074
86	0x3e562f1c	0.20916408
87	0xbdf5691b	-0.11982938
88	0x3da495aa	0.08036359
89	0x3e3a74e9	0.1820866
90	0xbbc96a1b	-0.006146682
91	0xbd2150a0	-0.03938353
92	0xbdbe1ea9	-0.09283192
93	0x3ea03df4	0.31297266
94	0xbd91d4da	-0.07120676
95	0x3ec3c8de	0.38239187
96	0xbd6a4317	-0.057192888
97	0x3d374104	0.044739738
98	0x3e0dd92e	0.13852379
99	0x3b4f5af8	0.0031639915
100	0x3baf6a2a	0.005353232
101	0x3e58d917	0.21176563
102	0x3da6a309	0.08136565
103	0xbdcfd6a5	-0.10148362
104	0xbe113acb	-0.14182584
105	0x3dfccdc8	0.12343937
106	0x3baaf215	0.0052168467
107	0x3d8981b2	0.067141905
108	0xbd024643	-0.031805288
109	0x3cc9e6f0	0.024646252
110	0xbe10283f	-0.14077853
111	0xbd4c34ae	-0.049854927
112	0xbdfff201	-0.124973305
113	0x3ed2ca42	0.41169935
114	0xbf45befa	-0.7724453
115	0x3f60046e	0.8750676
116	0x3e3bef92	0.18353108
117	0xbeaea502	-0.34110266
118	0x3e1f3eae	0.15551254
119	0xbe2d1ad5	-0.16904767
120	0xbf00f285	-0.50370055
121	0x3f280303	0.65629596
122	0x3d77af76	0.060470067
123	0xbef1d423	-0.4723216
124	0xbef45ba2	-0.4772616
125	0x3f4f9937	0.8109316
126	0xbe8bbd0e	-0.27292675
127	0x3e291e64	0.165155
128	0xbc7ecc33	-0.015551615
129	0x3ce37563	0.027765935
130	0x3d9918b6	0.07475416
131	0xba5a88ed	-0.00083364436
132	0x3df28243	0.11841252
133	0xbd501372	-0.050799794
134	0xbd8758f5	-0.06608764
135	0x3b7fd6ea	0.003903801
136	0x3cb0ee0c	0.021597885
137	0x3e27faf3	0.16404323
138	0x3eb8dcb9	0.36105898
139	0x3de0a896	0.10969655
140	0x3e0c9adb	0.13730948
141	0xbd9a7a47	-0.07542854
142	0x3b96ba77	0.004599865
143	0xbdac0b22	-0.08400561
144	0x3ed540a2	0.41650873
145	0xbe810266	-0.25197142
146	0x3f2ae9d8	0.6676307
147	0xbe649ac4	-0.22324663
148	0xbdcd34b2	-0.100198165
149	0x3e7db8f5	0.24777587
150	0xbd412335	-0.047152717
151	0xbf32604f	-0.69678205
152	0x3f54b9b2	0.8309585
153	0xbea82007	-0.32836935
154	0xbe0683e4	-0.1313625
155	0x3e97a8af	0.29620883
156	0x3e86f794	0.26360762
157	0xbe1fca21	-0.1560445
158	0x3ea84016	0.32861394
159	0x3e4aedda	0.19817296
160	0xbef801ac	-0.48438776
161	0x3dcbfc13	0.09960189
162	0xbebfdf67	-0.3747513
163	0xbd749aff	-0.05971813
164	0x3ea98fb3	0.33117446
165	0x3d09061d	0.033453096
166	0x3dbb72bb	0.091527425
167	0xbe41423d	-0.18872924
168	0xbd4d159c	-0.050069436
169	0x3e10b199	0.14130248
170	0x3d5816c9	0.052756105
171	0x3e6ed8bc	0.23324865
172	0xbe84f27c	-0.2596625
173	0x3da8f027	0.082489304
174	0xbe198fdc	-0.14996284
175	0xbd24bd58	-0.040219635
176	0x3cba4908	0.022739902
177	0xbdfb620a	-0.12274559
178	0x3d596e92	0.053083964
179	0x3e14f66c	0.14547127
180	0x3e4b6fdd	0.19866891
181	0xbebdbae0	-0.37056637
182	0xbe4b1a55	-0.19834264
183	0x3c87b53f	0.016565917
184	0xbd81ce8f	-0.06338226
185	0x3d6ff289	0.05858091
186	0x3da01e30	0.07818258
187	0xbf12dafd	-0.573654
188	0xbdb39e0c	-0.087703794
189	0xbe6a0cd0	-0.2285645
190	0x3d2b3997	0.04180297
191	0x3d25d5aa	0.04048697
192	0x3e59552a	0.21223894
193	0x3d72249d	0.05911695
194	0x3db9692e	0.090532646
195	0xbcf0dd4f	-0.029402403
196	0xbdc04f0d	-0.09390078
197	0xbddada1c	-0.10686132
198	0xbdd30d8c	-0.10305318
199	0x3ebbbbf7	0.36666843
200	0xbd3bc856	-0.045845352
201	0x3d7bdd8f	0.06149059
202	0xbf0f7df1	-0.56051546
203	0x3dccdaa2	0.100026384
204	0x3e8bc283	0.27296838
205	0xbd9d77fb	-0.076889
206	0x3e010586	0.12599763
207	0xbdc469c0	-0.09590483
208	0xbdceaa29	-0.10091049
209	0x3e667c0e	0.2250826
210	0x3e9fe672	0.31230503
211	0x3ec7a5a1	0.38993552
212	0xbe3811a1	-0.17975475
213	0x3e3fb480	0.18721199
214	0x3eb693b1	0.35659555
215	0xbe3e6d64	-0.18596417
216	0x3ee08bd9	0.43856695
217	0xbdb2bd91	-0.08727563
218	0x3df72e4a	0.12069376
219	0x3eaff159	0.3436382
220	0x3e7f5cd5	0.24937756
221	0x3e0ef569	0.13960804
222	0x3ee3509f	0.44397447
223	0x3ee946a2	0.455617
224	0x3ca46f37	0.020072563
225	0x3e8915ca	0.26774436
226	0xbd1e89f9	-0.0387058
227	0x3ce4f82d	0.02795037
228	0x3c23154c	0.009953808
229	0x3e219829	0.157807
230	0xbd5d0d10	-0.053967535
231	0x3c2dfb06	0.010618931
232	0x3c19831f	0.009369641
233	0x3ca90b27	0.0206352
234	0xbe3f48cf	-0.18680118
235	0x3d815deb	0.063167416
236	0xbe1d2673	-0.15346698
237	0xbd18b766	-0.037284277
238	0x3d7d34e4	0.06181802
239	0xbd56dd1d	-0.052456964
240	0x3d7fe29e	0.06247198
241	0x3db35abb	0.0875754
242	0xbe1e9711	-0.15487315
243	0x3e53b3e6	0.20674095
244	0x3e3b0953	0.18265276
245	0x3e07ecab	0.13273875
246	0xbe8254be	-0.25455278
247	0x3dcc2eb4	0.099698454
248	0xbe82ba57	-0.2553279
249	0xbc31b71d	-0.01084688
250	0xbde82b4f	-0.113363855
251	0xbdf45581	-0.11930371
252	0x3ca1c20a	0.019745845
253	0xbda67272	-0.081272975
254	0xbe2aa0ba	-0.16662875
255	0xbe863e2a	-0.26219302

gnn_layers.0.lin_l.bias f4 [32]
0	0x3c94afba	0.0181502
1	0xbe7ccf52	-0.24688461
2	0x3d63da29	0.055627976
3	0xbd655a3f	-0.05599427
4	0x3c887f3c	0.016662233
5	0x3e13a1bf	0.1441717
6	0xbe15b8a2	-0.14621213
7	0xbdb47d2e	-0.08812939
8	0xbe27251a	-0.16322747
9	0x3de3250e	0.11091052
10	0x3ddaca75	0.10683147
11	0x3dc73e69	0.09728701
12	0xbd62824d	-0.055300046
13	0xbc1afc0a	-0.009459505
14	0xbe5a8384	-0.21339232
15	0x3cf50508	0.029909626
16	0x3e263fbd	0.16235252
17	0xbe298a31	-0.16556622
18	0xbe015cf3	-0.12633114
19	0xbd8586d1	-0.06519855
20	0xbd49168a	-0.04909376
21	0xbc87e6d1	-0.016589554
22	0x3e31d423	0.1736608
23	0xbd19bb2d	-0.03753202
24	0x3d015c93	0.031582426
25	0x3d8901df	0.0668981
26	0xbe0e5ce4	-0.13902622
27	0x3da6540d	0.081215
28	0x3dd739a3	0.1050904
29	0x3ccf6b41	0.025319697
30	0xbda11e92	-0.07867159
31	0x3e834ac7	0.25642988

gnn_layers.0.lin_r.weight f4 [32, 32]
0	0xbe2659f8	-0.16245258
1	0x3ddf5573	0.1090497
2	0x3d27c72e	0.040961437
3	0x3e0a0faf	0.13482545
4	0xbdc60d61	-0.096705206
5	0x3d20a800	0.039222717
6	0xbe1d32cb	-0.15351407
7	0x3e091081	0.13385202
8	0x3d424429	0.047428284
9	0xbd818d68	-0.06325799
10	0x3c435a12	0.01192333
11	0x3d09161f	0.033468362
12	0x3d427cb9	0.047482226
13	0x3e2d0dc7	0.16899787
14	0x3df8c22c	0.1214641
15	0x3d2f6bd6	0.04282745
16	0x3df7a1e0	0.12091422
17	0xbe19e457	-0.15028511
18	0x3d9c3f05	0.076292075
19	0x3c98348b	0.018579742
20	0x3e11763f	0.14205264
21	0x3da43517	0.080179386
22	0x3c0aab73	0.008463728
23	0x3dda9967	0.106737904
24	0xbd561b26	-0.052271985
25	0x3db7c724	0.0897353
26	0x3cf87231	0.030327888
27	0xbcea92ec	-0.028634511
28	0x3de9b86a	0.11412127
29	0xbe05bcbd	-0.13060279
30	0xbd15e14e	-0.03659182
31	0x3ddae358	0.10687894
32	0xbdaa4fe9	-0.08316023
33	0xbe02c1b6	-0.12769207
34	0xbd1caa6a	-0.038248457
35	0xbd1b9e40	-0.037992716
36	0x3e95db2f	0.29268786
37	0xbe2918ed	-0.16513415
38	0xbe238249	-0.15967669
39	0xbe0bae5f	-0.13640736
40	0xbdf2de53	-0.11858811
41	0x3e1848b6	0.14871487
42	0xbd4cdfc4	-0.050018087
43	0x3e2319e9	0.15927853
44	0xbe3ea40f	-0.18617271
45	0xbd50e534	-0.050999835
46	0xbd8fa35a	-0.07013579
47	0x3c3f41fb	0.011673446
48	0x3eaa4eb7	0.3326318
49	0xbcd3d333	-0.025857544
50	0x3f3897ef	0.7210683
51	0xbe14a17c	-0.14514726
52	0xbe03e6ac	-0.12880963
53	0x3f080bc0	0.5314293
54	0xbf019c38	-0.50628996
55	0x3e6ae9a3	0.22940688
56	0x3e94f5bc	0.2909373
57	0xbea99280	-0.33119583
58	0xbf03961a	-0.5140091
59	0x3cd5f0fc	0.026115887
60	0x3e3aef14	0.18255264
61	0xbeaf29a4	-0.34211457
62	0x3d8c0bb4	0.0683817
63	0xbe23096b	-0.15921561
64	0xbdd9171f	-0.10600113
65	0x3dd968e0	0.106157064
66	0xbc372971	-0.011179314
67	0x3dff4329	0.12463982
68	0x3dc3b19c	0.09555361
69	0x3e19ddb1	0.15025975
70	0xbb2a8da5	-0.0026024368
71	0xbd227cec	-0.039669916
72	0x3e121c12	0.1426852
73	0x3d77a173	0.060456704
74	0x3d4375fd	0.047719944
75	0x3ca888ed	0.020573104
76	0xbd7d42dd	-0.061831344
77	0xbe3b40b0	-0.18286395
78	0x3d85d85f	0.0653541
79	0xbcd16dbd	-0.025565023
80	0xbe549115	-0.2075847
81	0xbdfceb6a	-0.12349589
82	0xbe91f48b	-0.28506884
83	0xbd9c6665	-0.07636718
84	0x3cfdccbf	0.03098142
85	0x3d0a314b	0.033738416
86	0xbe644abb	-0.22294132
87	0x3e3dc0b7	0.18530546
88	0xbee9c1a9	-0.45655563
89	0x3d59d587	0.05318215
90	0x3dbdf8f5	0.092760004
91	0xbee84033	-0.4536148
92	0xbe17638d	-0.1478407
93	0xbe5f7e54	-0.21825534
94	0xbd94037b	-0.07227226
95	0xbdd8dfcf	-0.10589563
96	0x3d3b6d64	0.04575862
97	0xbce3177c	-0.02772116
98	0x3cb97b17	0.022641702
99	0x3d61158c	0.05495219
100	0xbe27040a	-0.16310135
101	0xbdbd86a1	-0.09254194
102	0x3e3253b7	0.17414747
103	0x3d7e2171	0.06204361
104	0xbd89f75c	-0.06736633
105	0xbd2da7fe	-0.042396538
106	0xbd267c13	-0.04064567
107	0xbd51b6f5	-0.051199872
108	0xbd976052	-0.073914185
109	0xbe26e960	-0.16299963
110	0x3cf5f023	0.030021733
111	0x3d492728	0.049109608
112	0x3ebd9cf5	0.3703381
113	0x3e4d2ec8	0.20037377
114	0xbe0d7e2c	-0.13817662
115	0xbc8d51c6	-0.017250907
116	0x3e496fff	0.1967163
117	0xbcef6493	-0.029222762
118	0x3df2c50c	0.1185399
119	0xbdfe5ce4	-0.12420061
120	0xbc712ee5	-0.014720653
121	0xbe7b05ba	-0.24513903
122	0xbdbf4883	-0.093400024
123	0xbe021415	-0.12702973
124	0xbe42b6be	-0.19015023
125	0xbd83e48c	-0.06440076
126	0xbdb3e89c	-0.08784601
127	0xbdcc1300	-0.099645615
128	0xbce0783b	-0.02740108
129	0x3e2c7a5c	0.16843551
130	0xbce10702	-0.027469162
131	0x3e166cd1	0.14689948
132	0x3b381ff2	0.0028095213
133	0x3e25ecc4	0.162036
134	0x3e04fda4	0.12987381
135	0x3da21ddc	0.079158515
136	0xbe07d0e2	-0.13263276
137	0x3dca1874	0.09867945
138	0x3d45fd49	0.048337255
139	0xbe8e46f7	-0.27788517
140	0x3e0c0ec1	0.13677503
141	0xbd2d5bbc	-0.042323813
142	0x3ea294c6	0.3175413
143	0x3e121e1a	0.14269295
144	0x3e8ba346	0.27273005
145	0x3db851c1	0.08999968
146	0x3e587636	0.21138844
147	0x3e896401	0.2683411
148	0x3d17f812	0.037101813
149	0x3e39f21d	0.18158765
150	0xbdc009be	-0.09376858
151	0xbca8e81f	-0.020618496
152	0x3e576617	0.21035038
153	0x3d5d7ef4	0.05407615
154	0xbec1b8df	-0.37836358
155	0xbec2d16e	-0.38050407
156	0x3e180572	0.14845827
157	0x3e5d2947	0.21597777
158	0x3df5d018	0.12002581
159	0x3e968d6d	0.29404774
160	0xbde55cf8	-0.11199373
161	0x3c6d079a	0.014467144
162	0xbe093502	-0.13399127
163	0xbe27c883	-0.16385083
164	0xbd5bc1a7	-0.05365148
165	0x3e0c7261	0.13715507
166	0x3e3df31b	0.18549769
167	0x3e46bf7e	0.19408986
168	0x3e31743d	0.17329498
169	0xbdca4e30	-0.09878194
170	0xbea4a543	-0.32157335
171	0x3dcd5a8a	0.100270346
172	0xbde2a29a	-0.1106617
173	0xbe0f13ae	-0.13972351
174	0x3d8b4ef4	0.068021685
175	0xbd3be2e3	-0.045870673
176	0x3ebebe11	0.37254384
177	0xbe4404de	-0.19142482
178	0x3ed41b73	0.41427192
179	0xbca080ee	-0.019592728
180	0x3ce2cf60	0.027686775
181	0x3e77ef69	0.24212421
182	0x3e9d99d5	0.30781427
183	0xbf064154	-0.5244343
184	0x3efa91c9	0.4893935
185	0xbe576ddb	-0.21038
186	0xbefc12d9	-0.4923313
187	0x3ea19fec	0.31567323
188	0x3e21a607	0.1578599
189	0x3d5b0fb0	0.053481758
190	0x3ec6b5ab	0.38810477
191	0x3d15964b	0.036520284
192	0xbd5162de	-0.051119678
193	0xbd8eda6e	-0.06975256
194	0xbe0cc552	-0.13747147
195	0x3dd38f82	0.10330106
196	0x3e1f7284	0.15571028
197	0xbdb1e928	-0.08687049
198	0x3dbd82c2	0.09253456
199	0xbe062b0e	-0.13102362
200	0x3d7859e7	0.060632613
201	0xbd870cd3	-0.06594243
202	0x3e63acbc	0.22233862
203	0x3d65124e	0.05592566
204	0xbdc18102	-0.094484344
205	0x3db10850	0.086441636
206	0x3c51d192	0.012806313
207	0xbc042a5c	-0.00806674
208	0x3f66cb24	0.9015372
209	0xbe30ad2b	-0.17253558
210	0x3f29472f	0.6612424
211	0xbef22a30	-0.47297812
212	0xbe5ee0c1	-0.21765424
213	0x3ecf4839	0.4048479
214	0xbf1a87a3	-0.60363215
215	0x3ed88860	0.42291546
216	0x3edb0863	0.42779836
217	0xbe7da552	-0.24770096
218	0xbf82903b	-1.0200266
219	0xbe06bef3	-0.13158779
220	0x3d2055ee	0.03914445
221	0xbcfcc3f5	-0.030855158
222	0x3eb5ab42	0.35482222
223	0xbeb9afc7	-0.3626692
224	0xbe134ad4	-0.14384013
225	0xbc9cc15f	-0.019135175
226	0xbc7d685d	-0.015466777
227	0xbd1848b4	-0.03717871
228	0x3e939880	0.28827286
229	0x3b8d67d2	0.004315355
230	0xbda15f36	-0.07879488
231	0x3e8b925a	0.27260095
232	0x3de92c8d	0.113854505
233	0xbda29eb6	-0.07940428
234	0xbdd05d2d	-0.10174022
235	0xbe47258c	-0.19447917
236	0x3dd5d552	0.10441078
237	0xbd8a5393	-0.06754222
238	0x3e2e9161	0.17047645
239	0x3de31997	0.11088865
240	0x3e53f0f0	0.20697379
241	0x3bb73cda	0.005591971
242	0xbe5f455e	-0.21803805
243	0x3e057b8f	0.13035415
244	0x3eaccd5d	0.3375043
245	0x3dbbdfcd	0.09173546
246	0xbd9dab51	-0.07698692
247	0xbe940060	-0.28906536
248	0xbd6ccb70	-0.0578112
249	0x3a1385e4	0.0005627556
250	0xbea9c594	-0.33158553
251	0xbe21b9d5	-0.15793546
252	0x3cab043b	0.02087604
253	0x3e45b3b8	0.19306839
254	0x3c5e2df1	0.013560758
255	0xbd0c2409	-0.034214053

gnn_layers.1.lin_l.weight f4 [32, 32]
0	0x3e5e3ba6	0.21702442
1	0x3e3f198b	0.18662088
2	0xbeb1ada9	-0.34702805
3	0xbdee54fe	-0.11637305
4	0x3e24c4e4	0.16090733
5	0x3e258ece	0.16167757
6	0xbe0ac14d	-0.13550301
7	0xbdc1601e	-0.09442161
8	0x3d082316	0.033236586
9	0x3e4a9ef6	0.19787201
10	0x3e965d6e	0.29368156
11	0xbea9e05c	-0.33178985
12	0xbf55f059	-0.83569866
13	0x3d62b534	0.05534859
14	0xbe7386d7	-0.23781906
15	0x3ead82d9	0.3388889
16	0xbe0fd5a5	-0.14046343
17	0x3cef7a2a	0.029233057
18	0xbebd2435	-0.36941686
19	0xbbdf27f6	-0.0068101836
20	0xbde632b9	-0.11240143
21	0x3dc9149e	0.098183855
22	0x3dc44b6c	0.09584698
23	0x3b9558d2	0.0045577073
24	0x3e7454cc	0.23860472
25	0x3eba2014	0.363526
26	0xbe0bd4a1	-0.1365533
27	0x3eddbfcd	0.43310395
28	0xbe31fd14	-0.17381698
29	0xb8c59099	-9.4206254e-05
30	0xbdbb8ab0	-0.09157312
31	0xbf01e303	-0.5073702
32	0xbc9f3222	-0.019433085
33	0x3db98313	0.090582035
34	0x3d7d9fe1	0.06192005
35	0xbcfcf34e	-0.030877735
36	0xbd109341	-0.035296682
37	0x3d862d76	0.0655164
38	0xbd0eef5d	-0.034896243
39	0xbd6d542a	-0.057941593
40	0x3e257b16	0.16160235
41	0xbd0456dd	-0.0323094
42	0x3dc5e052	0.09661926
43	0x3e980650	0.29692316
44	0x3aac3297	0.0013137636
45	0x3e8e2dfb	0.27769455
46	0x3ddd1f8e	0.10797034
47	0x3b9d0543	0.004791887
48	0xbe92e9e4	-0.2869407
49	0xbdb9fe2e	-0.09081684
50	0xbe7bd857	-0.24594246
51	0x3e1d1b56	0.15342459
52	0x387d5046	6.039466e-05
53	0xbdd20aa2	-0.10255934
54	0xbd8f17fd	-0.06986997
55	0x3e8a28b1	0.2698417
56	0x3e535314	0.2063716
57	0x3dfa2920	0.12214875
58	0x3e1329d6	0.14371428
59	0xbdac3207	-0.084079795
60	0x3d8b7193	0.06808772
61	0xbb84b7ce	-0.0040502315
62	0xbc5efefd	-0.013610599
63	0x3f00a031	0.5024443
64	0xbcd6a2ef	-0.02620074
65	0x3ea4b052	0.32165772
66	0x3e00753e	0.12544724
67	0xbdad0fb8	-0.08450264
68	0xbe50cbc0	-0.20390224
69	0xbe141baf	-0.14463685
70	0x3e02982c	0.12753361
71	0xbdc38f85	-0.095488586
72	0x3df9062a	0.12159379
73	0x3dcdd08e	0.10049544
74	0xbc858a13	-0.01630119
75	0x3e939312	0.28823143
76	0xbeb0dd9f	-0.34544083
77	0x3db0137d	0.08597467
78	0x3d5570cb	0.05210952
79	0xbe893905	-0.26801315
80	0xbd867dd3	-0.06566968
81	0x3ec2313e	0.37928194
82	0x3cc77a64	0.024350353
83	0x3e33f731	0.17574765
84	0x3e0205e4	0.1269756
85	0xbb34bac9	-0.0027577153
86	0x3e2f1d9f	0.17101143
87	0xbd49f8b6	-0.049309455
88	0xbe76a1b8	-0.24085128
89	0x3f17beac	0.5927532
90	0x3d9299ca	0.07158239
91	0x3edf3763	0.43596944
92	0x3e3bc4bd	0.18336768
93	0xbb272131	-0.0025501961
94	0x3ee5d89c	0.44891822
95	0x3ef18700	0.4717331
96	0x3e13a019	0.14416541
97	0xbd186a3e	-0.037210695
98	0xbe13cf10	-0.14434457
99	0xbe4ae64d	-0.19814415
100	0xbe9bd275	-0.30434003
101	0x3da30658	0.07960194
102	0xbd7e121d	-0.062028993
103	0xbbf2e19f	-0.00741215
104	0x3e481b3a	0.19541636
105	0xbd4f7812	-0.050651617
106	0x3d939f92	0.0720817
107	0x3e4fe403	0.20301823
108	0xbe4e0c20	-0.20121813
109	0xbd60fac1	-0.054926638
110	0x3e8cedd2	0.27525192
111	0xbc810aad	-0.01575216
112	0xbe47aaa5	-0.1949869
113	0x3e478714	0.19485122
114	0x3d81e979	0.063433595
115	0xbe8c993e	-0.27460665
116	0xbde53c9a	-0.111931995
117	0xbc93717b	-0.017998448
118	0xbd5252fc	-0.05134867
119	0x3df5b6d2	0.11997761
120	0xbdc68620	-0.09693551
121	0x3e7c18a9	0.24618782
122	0xbd820c91	-0.06350053
123	0x3dea6dc9	0.11446721
124	0x3d347dc4	0.044065252
125	0xbdac5bde	-0.0841596
126	0xbdc22270	-0.09479225
127	0x3ee71e81	0.4514046
128	0x3e06b550	0.13155103
129	0xbe97b5d2	-0.29630905
130	0xbdedf87a	-0.11619659
131	0xbe77ca08	-0.24198163
132	0x3ec63dcd	0.38719025
133	0x3a996494	0.0011702948
134	0xbeb3a067	-0.35083315
135	0x3d6225b8	0.055211753
136	0x3dafeeb5	0.08590452
137	0x3c726a2e	0.014795823
138	0xbe174537	-0.14772497
139	0xbe3e398f	-0.18576644
140	0x3ed7f8db	0.4218205
141	0x3dccceed	0.100004055
142	0xbe827c40	-0.2548542
143	0xbe00f6df	-0.12594174
144	0xbd4eda4c	-0.050501153
145	0xbeb64b10	-0.35604143
146	0x3d8c55f2	0.0685233
147	0xbd1663f8	-0.03671643
148	0x3da1ba97	0.07896917
149	0xbdd293a5	-0.10282067
150	0xbd36f309	-0.04466537
151	0x3e11aebd	0.14226814
152	0x3ea1fc9e	0.31638044
153	0xbf12508c	-0.57154155
154	0xbd401723	-0.046897065
155	0xbeceae11	-0.40367177
156	0x3dbc0085	0.091797866
157	0xbe87720a	-0.26454192
158	0xbee20732	-0.44146115
159	0xbe2d8cc0	-0.16948223
160	0xbdcb01f7	-0.09912484
161	0xbdf56013	-0.11981215
162	0x3da959bf	0.08269071
163	0xbe23ee5c	-0.16008896
164	0xbdbc223a	-0.09186216
165	0x3d6435e3	0.055715453
166	0xbe534441	-0.20631506
167	0xbd56611f	-0.052338716
168	0x3cebf1e8	0.028801873
169	0xbdd4b1a4	-0.10385445
170	0xbdc02dda	-0.093837455
171	0x3dc2173c	0.09477088
172	0x3e004f1b	0.12530176
173	0x3e4ed5bf	0.20198725
174	0x3e1bfa10	0.1523211
175	0x3d884e3d	0.06655548
176	0xbe95bb36	-0.29244393
177	0xbe63d9d7	-0.22251068
178	0xbf10da00	-0.5658264
179	0xbc525209	-0.0128369415
180	0x3dbab627	0.09116774
181	0xbe7188f0	-0.23587394
182	0xbea85df5	-0.32884184
183	0x3e973e71	0.29539827
184	0xbe9619e2	-0.29316622
185	0xbc3e4dce	-0.01161523
186	0x3de59df7	0.1121177
187	0xbeac570c	-0.33660161
188	0x3c6b3d03	0.014357808
189	0xbe7d7ef7	-0.24755464
190	0x3e1a9694	0.15096503
191	0x3e176f7c	0.14788622
192	0x3d37da7a	0.04488609
193	0x3d94d756	0.072676346
194	0x3d47fb5f	0.04882371
195	0xbe89f46e	-0.26944298
196	0xbe356f68	-0.1771828
197	0x3d2f1b23	0.04275049
198	0x3e00d1e1	0.12580062
199	0xbcd4848b	-0.025942108
200	0x3c869d8d	0.016432548
201	0xbe8c5a41	-0.27412608
202	0x3e010a53	0.12601595
203	0x3e032496	0.12806925
204	0xbe7795cd	-0.24178238
205	0xbe4eabe9	-0.20182766
206	0x3dd4299a	0.10359497
207	0xbc3a373a	-0.011365706
208	0xbeba2daa	-0.36362964
209	0x3e2da7fc	0.16958612
210	0xbea71c1a	-0.32638627
211	0x3dcf6661	0.10126949
212	0x3dc7108a	0.097199515
213	0x3e866882	0.26251608
214	0x3e52f2c5	0.20600422
215	0xbd80b498	-0.062844455
216	0xbe2234fe	-0.15840527
217	0x3dcf0c1e	0.10109733
218	0x3e314659	0.17311992
219	0x3ea63ff8	0.3247068
220	0x3e892c2b	0.2679151
221	0x3dfde899	0.1239788
222	0xbdab874d	-0.08375416
223	0x3edf1715	0.43572298
224	0x3e077c5d	0.13231035
225	0xbdda743f	-0.106667034
226	0x3e39e191	0.18152453
227	0x3dff2060	0.12457347
228	0x3ec2ac74	0.38022196
229	0x3a93bf3a	0.00112722
230	0xbde2214d	-0.11041508
231	0xbe1f626c	-0.15564889
232	0x3bb3a696	0.005482505
233	0xbd0a8a94	-0.033823565
234	0xbe69a5ef	-0.22817205
235	0x3d108443	0.035282385
236	0x3e41191f	0.18857239
237	0x3dc78ea5	0.09744004
238	0x3e1054b5	0.14094813
239	0xbd1eb7d7	-0.038749542
240	0xbde7252d	-0.112863876
241	0xbe2d8092	-0.16943577
242	0x3e7ad3fd	0.2449493
243	0x3e11feb1	0.14257313
244	0x3d5ec685	0.05438854
245	0xbe2ebae4	-0.1706348
246	0xbb9958b0	-0.004679762
247	0x3eb15fa3	0.34643278
248	0x3da48bd7	0.08034485
249	0xbf08aca4	-0.5338843
250	0x3de10f2b	0.10989221
251	0xbe9877cb	-0.29778895
252	0xbd653d2f	-0.055966552
253	0x3cee1e4c	0.029067181
254	0xbc37c989	-0.011217483
255	0x3e90f413	0.28311214

gnn_layers.1.lin_l.bias f4 [32]
0	0xbd8bc15d	-0.068239905
1	0x3e067aae	0.13132736
2	0x3d387c3c	0.045040354
3	0xbe44c588	-0.19215977
4	0x3e3789a8	0.17923605
5	0x3cfc3b04	0.03078986
6	0xbcddd498	-0.027078912
7	0x3e92eebb	0.28697762
8	0xbd123665	-0.035696406
9	0xbd9e18b8	-0.077195585
10	0x3c8bfa1a	0.017087031
11	0xbcdee5d4	-0.0272092
12	0x3e4257db	0.18978827
13	0x3bd2f3a1	0.0064377342
14	0xbe0d7b63	-0.138166
15	0xbe424f3d	-0.1897554
16	0xbda8f6a4	-0.08250168
17	0x3d840024	0.06445339
18	0x3dd6e2cd	0.104924776
19	0xbb221991	-0.0024734477
20	0xbe11efd5	-0.14251645
21	0x3d8895fb	0.066692315
22	0x3cf3a153	0.029740011
23	0x3e12a020	0.14318895
24	0xbc4dd0da	-0.012562001
25	0xbe4fd0ec	-0.20294541
26	0xbe41fcef	-0.18944143
27	0xbc27e0ba	-0.01024645
28	0xbb9dec05	-0.0048193955
29	0xbdba38b2	-0.09092845
30	0x3c71a011	0.014747635
31	0xbe03ca56	-0.12870154
