baseline/DLPL-CAP/models_dlpl-cap-classifier/sandwich+ultra8t_to_ssram+digtime+timing_ctrl+array_128_32_8t/dlpl-cap-classifier_nh_2_tsk_regression_ngl_4_nhl_4_hd_32_us_1_bn_0_dp_0.0_epoch_13_20250402_162415.pth (torch, 63134 bytes, 24 tensors)

net_attr_layers.weight f4 [16, 17]
0	0x3d81f2df	0.06345152
1	0x3da49166	0.08035545
2	0xbe45680f	-0.19277976
3	0x3e6424a0	0.22279596
4	0xbea5bf59	-0.3237255
5	0xbd9cb23a	-0.076511815
6	0xbdf1d3c3	-0.118079685
7	0x3e11daff	0.14243697
8	0x3e5aefd8	0.21380556
9	0xbe363389	-0.17793097
10	0x3e57ded9	0.21081103
11	0x3d39edcc	0.045392796
12	0x3e377ceb	0.17918746
13	0x3d068a4d	0.032846738
14	0x3def8253	0.11694779
15	0xbe8b84a1	-0.27249625
16	0xbf574e47	-0.84103817
17	0x3e13057a	0.14357558
18	0x3dab9bed	0.0837935
19	0xbe0896c1	-0.13338758
20	0xbde4da96	-0.111745045
21	0xbdb0f76f	-0.08640944
22	0x3de850c2	0.11343528
23	0x3e24c0a2	0.16089109
24	0xbe440b92	-0.19145039
25	0xbde4fd64	-0.11181143
26	0xbd8c425a	-0.06848593
27	0xbe155475	-0.14582999
28	0x3cbb8678	0.022891268
29	0xbe754be8	-0.23954737
30	0x3e604b01	0.21903612
31	0xbe52f88f	-0.2060263
32	0xbda208a0	-0.07911801
33	0x3f464fb9	0.774654
34	0xbe6f8e88	-0.23394215
35	0xbd8c646f	-0.06855094
36	0x3dd6fc4e	0.10497342
37	0x3e48a9b6	0.1959599
38	0xbd4daa65	-0.05021133
39	0xbe9ab6ec	-0.30217683
40	0x3d85756b	0.06516536
41	0xbd86b2c6	-0.06577067
42	0x3dd10b9f	0.10207295
43	0x3e5dbcf8	0.21654117
44	0x3e0f9099	0.14020003
45	0xbdd92636	-0.10602991
46	0x3e0f5e0f	0.14000724
47	0x3d31bffd	0.043395985
48	0x3dfc3f8c	0.12316808
49	0x3c763744	0.015027825
50	0xbfb5b01f	-1.4194373
51	0x3d2eacc4	0.04264523
52	0x3d71e24d	0.059053708
53	0xbcffb7f2	-0.031215642
54	0x3d8f11a3	0.06985786
55	0x3d0f006f	0.034912523
56	0x3eac25a1	0.3362246
57	0xbb8a40bd	-0.004219143
58	0x3e425da7	0.18981038
59	0xbe3075ed	-0.17232485
60	0x3c7a32fd	0.015270946
61	0xbe298366	-0.16554031
62	0x3d992995	0.07478634
63	0xbdab0f24	-0.08352497
64	0x3d983370	0.07431686
65	0xbd4ef8c9	-0.05053023
66	0xbd30a379	-0.04312465
67	0x3f16da9a	0.5892731
68	0xbe4cdcf5	-0.20006163
69	0xbdda8e74	-0.10671702
70	0xbe086660	-0.13320303
71	0x3da587b8	0.08082527
72	0xbd086ab8	-0.0333049
73	0xbe1cb0ff	-0.15301894
74	0xbe7656bf	-0.24056529
75	0xbe424e1c	-0.18975109
76	0xbe271113	-0.16315107
77	0x3dc9304e	0.098236665
78	0x3db1dc65	0.08684615
79	0x3e4e5d8e	0.20152876
80	0xbe0041f1	-0.12525155
81	0xbe294ebb	-0.1653394
82	0x3e03c5c4	0.1286841
83	0xbf16aca4	-0.5885718
84	0x3f56fe6f	0.83981985
85	0xbea52514	-0.3225485
86	0xbe47c897	-0.19510113
87	0xbe5809b3	-0.2109745
88	0xbdfaaa84	-0.122395545
89	0x3ddd4663	0.10804441
90	0xbe7bfb80	-0.24607658
91	0xbd7d485a	-0.061836578
92	0x3e1409a7	0.14456807
93	0x3e28d5c4	0.16487795
94	0xbe3419fc	-0.17588037
95	0xbe0496f2	-0.12948206
96	0x3e63691b	0.22208063
97	0xbda79b6b	-0.081839405
98	0xbdb017c7	-0.08598285
99	0xbe704ef3	-0.23467617
100	0xbdf13a16	-0.11778657
101	0xbf78a6cb	-0.97129506
102	0x3eb94d97	0.3619201
103	0x3e8739e5	0.26411358
104	0x3e2d057a	0.1689662
105	0xbe29a5d1	-0.1656716
106	0x3ee0bced	0.4389414
107	0x3ebb4008	0.3657229
108	0xbe595d56	-0.21227011
109	0xbe1e2355	-0.15443166
110	0x3e784264	0.24244076
111	0x3d3ba21e	0.045808904
112	0x3d991122	0.07473971
113	0xbe67a360	-0.22620916
114	0xbe231d31	-0.15929104
115	0xbda55574	-0.080729395
116	0x3d1b57d7	0.037925567
117	0xbed62907	-0.41828176
118	0x3ea4ecf4	0.3221203
119	0xbdb1be28	-0.086788476
120	0xbcad9cdd	-0.021192962
121	0x3e91f2ea	0.2850564
122	0xbc89ae30	-0.016806692
123	0xbe846d82	-0.25864798
124	0xbe74af6e	-0.23895046
125	0xbe10e441	-0.14149572
126	0xbdaa0609	-0.08301932
127	0xbe4405e5	-0.19142874
128	0x3e503d4b	0.20335881
129	0xbd4528c9	-0.0481346
130	0x3e55af63	0.20867686
131	0x3d9ac451	0.07556976
132	0xbe524eb9	-0.20537843
133	0x3e2bdf16	0.1678432
134	0x3e9f92d6	0.31166714
135	0xbe219af7	-0.1578177
136	0xbea9bb57	-0.3315074
137	0xbed51d77	-0.41624042
138	0x3d9a4253	0.075321816
139	0xbd5901ff	-0.05298042
140	0x3e024823	0.1272283
141	0xbeb32746	-0.349909
142	0x3e386318	0.18006551
143	0xbe364e97	-0.17803417
144	0xbd2b89c6	-0.041879438
145	0x3d4f7f1f	0.05065834
146	0x3e0036e8	0.12520945
147	0x3e488031	0.19580151
148	0x3e623e1d	0.22094007
149	0xbe44ed67	-0.19231187
150	0x3d7a0345	0.061038274
151	0xbc04a237	-0.008095316
152	0xbf9894b0	-1.1920376
153	0xbca70c69	-0.02039166
154	0x3eec28b9	0.4612482
155	0xbe9c2384	-0.30495846
156	0x3e04bc03	0.12962346
157	0x3e72c8e8	0.23709452
158	0x3eb00308	0.34377313
159	0xbe0645e2	-0.13112596
160	0x3e61be77	0.22045313
161	0x3d5a4e45	0.0532973
162	0x3cff96b7	0.031199796
163	0xbe5add87	-0.21373568
164	0x3dd083ae	0.10181366
165	0xbd1508cb	-0.03638534
166	0xbde38e67	-0.111111455
167	0x3e55532f	0.20832513
168	0xbcd812ff	-0.026376246
169	0x3f4fc9c7	0.8116726
170	0xbb178dae	-0.002312522
171	0x3dc07319	0.09396953
172	0x3ea369d2	0.31916672
173	0xbd7dda9a	-0.061976053
174	0x3e1e55e8	0.15462458
175	0x3ce53a66	0.027981948
176	0xbe398a77	-0.18119226
177	0x3db124db	0.08649608
178	0x3e403ce7	0.18773232
179	0xbe69d014	-0.22833282
180	0x3d66b94e	0.056329064
181	0x3e004c86	0.12529191
182	0x3d342326	0.043978833
183	0xbdb0e448	-0.08637291
184	0x3e01a0b2	0.12658957
185	0x3eba1cee	0.36350197
186	0x3f782948	0.9693799
187	0x3e15753a	0.145955
188	0x3d8434bb	0.0645537
189	0x3edc2af5	0.43001524
190	0xbd2f7e25	-0.04284491
191	0x3f487bc2	0.7831384
192	0x3eb124d1	0.345984
193	0x3e556ffc	0.208435
194	0xbcc4b16d	-0.024010384
195	0xbd5e6cc9	-0.054302964
196	0x3b67f116	0.00353915
197	0xbc6d4349	-0.014481374
198	0x3d6ed4af	0.0583083
199	0x3d8b3217	0.06796663
200	0xbe61924b	-0.22028463
201	0xbdb74e4b	-0.0895048
202	0x3f09daaa	0.5384928
203	0xbed3865f	-0.41313455
204	0xbdac1c13	-0.08403792
205	0xbe7113e0	-0.23542738
206	0xbe1b6acd	-0.1517746
207	0xbe5e7831	-0.21725537
208	0x3e7c2ab5	0.24625666
209	0x3d7cb036	0.061691485
210	0x3e1e5b83	0.15464596
211	0x3de554c0	0.111978054
212	0xbe5b8881	-0.21438791
213	0xbe155a2e	-0.14585182
214	0xbd1cc776	-0.03827616
215	0x3e703f5d	0.23461671
216	0x3d0fb4dd	0.035084594
217	0xbd80a256	-0.06280963
218	0x3dcd7f6b	0.10034069
219	0x3d97c9b7	0.07411521
220	0xbf6ab39c	-0.9168031
221	0xbe57f477	-0.2108935
222	0xbec7ef2c	-0.3904966
223	0xbf382be0	-0.7194195
224	0xbe7710eb	-0.24127547
225	0xbeea9758	-0.4581859
226	0xbdb981ba	-0.090579465
227	0x3db506b1	0.08839167
228	0xbe2d2c2d	-0.16911383
229	0xbe751ce8	-0.23936808
230	0xbe49b5bc	-0.19698232
231	0x3e393311	0.18085887
232	0x3dee7989	0.11644275
233	0x3e50fe3b	0.20409481
234	0x3e021b42	0.1270571
235	0x3d7b6da6	0.061383866
236	0xbe9019f6	-0.28144807
237	0x3e7de922	0.24795964
238	0xbe8a0992	-0.26960427
239	0xbe7c8f71	-0.24664094
240	0xbe157ad3	-0.14597635
241	0xbdf3dec3	-0.11907723
242	0xbe7699eb	-0.24082153
243	0xbe167350	-0.14692426
244	0xbd35068e	-0.044195704
245	0xbe2ecd4d	-0.17070504
246	0xbe2247af	-0.15847658
247	0x3da4c3db	0.08045169
248	0xbd939f0d	-0.07208071
249	0x3e195239	0.14972772
250	0xbd9f5991	-0.07780755
251	0xbe362fa9	-0.17791618
252	0xbd2f476d	-0.042792726
253	0xbe87567b	-0.26433167
254	0xbf7e86b1	-0.9942427
255	0xbece5a17	-0.40303108

net_attr_layers.bias f4 [16]
0	0x3e11a0b9	0.14221467
1	0x3d8a235c	0.067450255
2	0x3e68cb5d	0.22733827
3	0xbbf3ebd0	-0.0074438825
4	0xbe482db4	-0.19548684
5	0x3df26072	0.11834802
6	0x3e0bd900	0.13656998
7	0xbe65c642	-0.2243891
8	0x3d84e212	0.06488432
9	0xbddc76c3	-0.107648395
10	0xbcec883b	-0.028873553
11	0xbd026831	-0.031837646
12	0xbae8b13c	-0.0017753015
13	0xbe06667c	-0.13125032
14	0xbe320f98	-0.17388761
15	0x3e2fb481	0.171587

dev_attr_layers.weight f4 [16, 17]
0	0x3e8d0d51	0.27549222
1	0xbfc3622f	-1.5264338
2	0x400fbec8	2.2460194
3	0xbfd09753	-1.629618
4	0xbfb3a92d	-1.4036003
5	0xbe71afcd	-0.23602219
6	0x3db89b89	0.09014041
7	0xbe085bf3	-0.13316326
8	0xbe1fa9a4	-0.15592057
9	0xbc9b0541	-0.018923404
10	0xbda56934	-0.080767065
11	0xbda0b26c	-0.07846531
12	0x3bff5c15	0.0077929595
13	0xbd52b7cd	-0.051444817
14	0xbce32722	-0.02772862
15	0xbf8591c1	-1.0435106
16	0xbe4a1e8b	-0.19738214
17	0x3e3bbdb7	0.18334089
18	0x3fd12de5	1.6342131
19	0xc00b4a3f	-2.1764066
20	0x3fbccd3d	1.4750134
21	0x3f985b0e	1.1902788
22	0x3e678af8	0.22611606
23	0x3de4d8d0	0.11174166
24	0xbe5739c4	-0.2101813
25	0x3dc52592	0.096263066
26	0x3e6bc028	0.2302252
27	0x3d82ad49	0.06380708
28	0x3e26811b	0.16260187
29	0x3e74d9ff	0.23911284
30	0xbd1838be	-0.03716349
31	0x3cf93917	0.03042273
32	0xbf229a2e	-0.6351651
33	0xbd4cb8ea	-0.049981035
34	0x3e30492d	0.17215414
35	0xbff38f3e	-1.9028089
36	0x4010f77a	2.2651048
37	0xc0035980	-2.0523376
38	0xbfcab8e6	-1.5837677
39	0xbe7518f3	-0.23935299
40	0xbe3fa43c	-0.18714994
41	0xbd75abf1	-0.05997843
42	0x3e279c30	0.16368175
43	0x3d264828	0.040596157
44	0xbe3ce6bb	-0.18447392
45	0xbe473ccd	-0.19456787
46	0x3df71a37	0.12065547
47	0xbe38bce1	-0.18040802
48	0xbd1a1009	-0.03761295
49	0x3dac1c2b	0.0840381
50	0xbde5e27f	-0.11224841
51	0xbdacb3cb	-0.0843273
52	0x3fccb3f4	1.5992417
53	0xc0363c31	-2.8474238
54	0x3fc27f1e	1.5195043
55	0x3f84d887	1.0378579
56	0xbe48c2bd	-0.19605537
57	0xbe04fc41	-0.12986852
58	0x3e6fdf3f	0.23425005
59	0xbdefeb6f	-0.11714827
60	0xbe26c740	-0.16286945
61	0x3d70ccfa	0.05878923
62	0x3d88e633	0.06684532
63	0x3e0813b2	0.13288763
64	0x3e3cc7e4	0.18435627
65	0x3dc847b2	0.097793
66	0xbcd91f9b	-0.026504328
67	0x3cb0360d	0.021510148
68	0x3e0b74f2	0.1361883
69	0x3fb88f79	1.4418784
70	0xc0243f9b	-2.5663822
71	0x3fbc0639	1.4689399
72	0x3f5804fb	0.843826
73	0xbe0d6681	-0.13808633
74	0xbe5fe834	-0.21865922
75	0x3c317fa8	0.010833658
76	0x3ddc1c26	0.107475564
77	0x3d5be856	0.05368837
78	0x3d447320	0.047961354
79	0xbe3c59b6	-0.18393597
80	0xbe67efdc	-0.22650093
81	0x3b8bf2e0	0.0042708963
82	0x3e509bb2	0.20371893
83	0xbec40fa4	-0.38293183
84	0xbe109a06	-0.14121255
85	0x3cf8598c	0.030316137
86	0xc01b4dc6	-2.426622
87	0x3fdad38f	1.7095813
88	0xbff7e4fe	-1.9366758
89	0xbfaddee6	-1.3583648
90	0x3e4dbb1a	0.20090905
91	0xbe640481	-0.22267343
92	0x3e260e0f	0.162163
93	0xbe2f29f3	-0.17105846
94	0x3dba00b3	0.090821646
95	0x3e522ba6	0.20524463
96	0x3b5f3374	0.0034057768
97	0x3e61f4fb	0.22066109
98	0xbe539ccd	-0.20665284
99	0xbc6b9f9f	-0.014381318
100	0x3e17269b	0.1476082
101	0xbd586f81	-0.052840713
102	0xbd82469a	-0.063611224
103	0x3f288930	0.6583433
104	0xc034916c	-2.8213758
105	0x3fa67955	1.3005778
106	0x3f7bb563	0.9832365
107	0xbe0b913c	-0.13629621
108	0xbe499a70	-0.1968782
109	0x3cd6e62c	0.026232801
110	0x3d932a60	0.07185817
111	0xbde55699	-0.11198158
112	0xbd8afaa8	-0.0678609
113	0x3e27bb61	0.16380073
114	0x3c9e45a3	0.019320315
115	0x3c334971	0.010942803
116	0xbcc6d119	-0.024269627
117	0x3f02bc98	0.5106902
118	0xbe6984df	-0.22804593
119	0xbd0de179	-0.034638856
120	0x3d5d214d	0.053986836
121	0x40336362	2.8029408
122	0xbf382cbe	-0.7194327
123	0xbf1812c1	-0.59403616
124	0x3e6cca5c	0.23124069
125	0x3dad0438	0.0844807
126	0x3e310dcd	0.17290421
127	0xbdf0770f	-0.117414586
128	0xbdcae409	-0.099067755
129	0x3db68fe7	0.08914166
130	0xbe257947	-0.16159545
131	0xbe225a05	-0.15854652
132	0xbc3fedb7	-0.0117143905
133	0xbdafc7fc	-0.08583066
134	0xbf4f6816	-0.810182
135	0x3e13509b	0.14386217
136	0x3e54a6d3	0.20766763
137	0xc01a67fe	-2.4125972
138	0x3ff1a5fd	1.8878781
139	0xc010e665	-2.2640622
140	0xbfc85494	-1.5650811
141	0x3d7ce976	0.061746083
142	0x3dea372c	0.114363045
143	0xbcfb2c41	-0.03066075
144	0xbdc4607b	-0.09588715
145	0x3e0a6405	0.13514717
146	0xbe45ca81	-0.1931553
147	0x3e1cf73c	0.15328687
148	0xbdc0b3c3	-0.09409287
149	0x3b7346c8	0.0037121046
150	0xbc70b83f	-0.014692365
151	0x3ec07007	0.3758547
152	0xbd961b1a	-0.07329388
153	0x3e026e82	0.12737468
154	0x3fc7639c	1.5577273
155	0xc02344fc	-2.5510855
156	0x3fe6e458	1.8038435
157	0x3f8c79cf	1.0974673
158	0xbe352da6	-0.17693195
159	0x3e4741c4	0.19458681
160	0x3e429d97	0.19005428
161	0xbe3da1c5	-0.18518741
162	0xbc999716	-0.018748801
163	0xbe74e92e	-0.23917076
164	0xbe4b4dec	-0.19853944
165	0x3d3fdf70	0.046843946
166	0x3d842491	0.06452287
167	0x3c95fa80	0.018307924
168	0x3f044dd1	0.5168124
169	0x3e6520cf	0.22375797
170	0xbdd0d1ec	-0.101962894
171	0x3f8a1833	1.0788635
172	0xc00f6c3c	-2.240981
173	0x3facd977	1.3503865
174	0x3f8664d7	1.0499524
175	0xbe2f9bad	-0.1714923
176	0x3dba29b0	0.090899825
177	0xbdfdc2f4	-0.123907
178	0xbe4e5e92	-0.20153263
179	0xbe07a776	-0.13247475
180	0x3e6f846e	0.23390362
181	0x3e544f3a	0.20733348
182	0x3e5e663d	0.21718688
183	0x3e11c9bd	0.14237113
184	0x3d834399	0.064093776
185	0x3f4eff5f	0.80858415
186	0xbe08a715	-0.13344987
187	0x3d5d1c47	0.053982046
188	0xbfcd6c8d	-1.6048752
189	0x3f8e0864	1.1096311
190	0xbf5bbbcb	-0.85833424
191	0xbf0e7a99	-0.5565582
192	0x3dffb4c6	0.12485652
193	0xbdc0ed84	-0.094203025
194	0xbe122c9c	-0.1427483
195	0x3d06019a	0.03271637
196	0xbe1263ba	-0.14295855
197	0xbe21b200	-0.15790558
198	0x3e0174cf	0.12642215
199	0xbd26e159	-0.040742252
200	0x3e62f1c5	0.2216254
201	0x3e60279f	0.21890114
202	0x3f551672	0.83237374
203	0x3daaf295	0.0834705
204	0x3ddf87df	0.10914587
205	0xbfd4264b	-1.6574186
206	0x3fbcc106	1.4746406
207	0xbf3d7925	-0.74012977
208	0xbed47723	-0.41497144
209	0x3e66ea24	0.22550255
210	0xbd80ba49	-0.06285531
211	0xbdd1f7e9	-0.10252363
212	0xbd7092a5	-0.0587336
213	0xbdeff95d	-0.11717484
214	0x3d28ebbd	0.041240443
215	0x3e3962a3	0.18104033
216	0x3e42358b	0.18965738
217	0x3de40db8	0.11135429
218	0xbd75f983	-0.060052406
219	0x3ee818a9	0.45331314
220	0xbd5a445b	-0.053287845
221	0xbd988a38	-0.07448238
222	0x3eae6447	0.3406088
223	0xc0702aab	-3.7526042
224	0x3f456b0d	0.7711647
225	0x3ed9a521	0.42508796
226	0xbe1d2570	-0.15346313
227	0xbe4e7aaf	-0.20163988
228	0x3e5865db	0.21132605
229	0xbe6b2dbb	-0.22966664
230	0x3e3b5a14	0.18296081
231	0xbc059567	-0.008153296
232	0xbce71187	-0.0282066
233	0x3e1b5776	0.15170082
234	0xbcb7a3d5	-0.022416988
235	0x3e320848	0.17385972
236	0xbeb57af1	-0.3544536
237	0xbe57a027	-0.21057187
238	0x3e616b75	0.22013648
239	0xbfb67355	-1.4253947
240	0x3faf998a	1.3718731
241	0xbf70c073	-0.94043654
242	0xbf10e881	-0.5660477
243	0xbdeef3be	-0.11667584
244	0xbcfe3338	-0.031030282
245	0x3e6bf7ec	0.23043793
246	0x3e26dbb1	0.16294743
247	0xbc154930	-0.009111688
248	0xbe699642	-0.22811225
249	0x3c2e2898	0.0106297955
250	0xbe291fcb	-0.16516034
251	0x3e49f61d	0.19722791
252	0x3cd0ec6a	0.025503356
253	0xbf308807	-0.6895756
254	0xbd5c7bcd	-0.053829003
255	0xbd95d2c8	-0.07315594

dev_attr_layers.bias f4 [16]
0	0x3e737038	0.23773277
1	0x3e56eb6d	0.20988245
2	0x3baa768b	0.0052021197
3	0xbe887f47	-0.26659605
4	0xbe3940c7	-0.18091117
5	0xbdb6001e	-0.08886741
6	0xbe6992f4	-0.22809964
7	0xbd24c946	-0.04023101
8	0xbe57aabe	-0.21061227
9	0xbe8ba87d	-0.27276984
10	0xbe9033c8	-0.28164506
11	0xbe9cf936	-0.30658883
12	0xbdc3c18e	-0.09558402
13	0x3d80ad0c	0.06283006
14	0x3ea88550	0.3291421
15	0xbe4109aa	-0.18851343

pin_attr_layers.weight f4 [17, 16]
0	0xbf5a46b2	-0.8526412
1	0xbf983403	-1.1890873
2	0x3e453d10	0.19261575
3	0xbf54b628	-0.8309045
4	0xbfdd4e96	-1.7289608
5	0xbe546806	-0.20742807
6	0xbf2d2f3d	-0.67650205
7	0x4018d216	2.3878226
8	0xbf025866	-0.50916135
9	0xbfa32bf1	-1.2747785
10	0x3f3a4d78	0.7277446
11	0xbd665ed1	-0.056242768
12	0xbee17934	-0.44037783
13	0xbeba5732	-0.3639465
14	0xbfba364d	-1.4547821
15	0xbf800142	-1.0000384
16	0x3e6076d9	0.21920337
17	0x3da326fb	0.07966419
18	0x3f51396c	0.81728244
19	0xbe0ce93a	-0.13760844
20	0xbf4163ec	-0.75543094
21	0x3eb4d3e0	0.35317898
22	0x3f75cb0c	0.9601295
23	0xbface625	-1.3507735
24	0x3f278c69	0.65448624
25	0xbf988b3f	-1.1917495
26	0xbc28c884	-0.010301713
27	0x3f13d79c	0.5775087
28	0x3f0ac001	0.54199225
29	0x3d5837c2	0.05278755
30	0x3fe8a5d9	1.8175613
31	0x3f37a3b9	0.71734196
32	0xbfe2522e	-1.7681329
33	0x40185f97	2.3808343
34	0xbf7b4148	-0.98146486
35	0x3f4be55f	0.7964687
36	0xbea07295	-0.3133742
37	0xc014a5cc	-2.3226194
38	0x3f805902	1.0027163
39	0x3e9b7d5e	0.30369085
40	0xbf6264c6	-0.8843502
41	0x3fdd502e	1.7290094
42	0x3fb0ed21	1.3822366
43	0xbe2ce1ca	-0.16883007
44	0x3eeb672e	0.45977157
45	0x3ed93c00	0.4242859
46	0x3f2f832b	0.6855952
47	0x3f8aab24	1.0833478
48	0xbed3dbc9	-0.4137862
49	0x3f04b671	0.51840883
50	0xbf3397ea	-0.7015368
51	0xbedd5bc9	-0.4323409
52	0x3e10df5c	0.14147705
53	0x3d919ec7	0.071103625
54	0x3f1037e8	0.56335306
55	0xbf142179	-0.57863575
56	0xbf8aba57	-1.0838116
57	0xbec7214f	-0.388926
58	0x3f50073f	0.81261057
59	0x3fbfc25b	1.4981188
60	0x3d33cc62	0.043896087
61	0x3fb8df96	1.4443233
62	0x3e6d98fd	0.23202892
63	0x3f01a9e0	0.50649834
64	0xbfa3ac55	-1.2786967
65	0xbd1d661f	-0.03842747
66	0x3ff4f76e	1.913801
67	0x3eacf9f8	0.3378446
68	0x3e000eb6	0.12505612
69	0xbf431c5c	-0.7621515
70	0xbf986445	-1.19056
71	0x3f468e34	0.77560735
72	0x3ee9541f	0.45571992
73	0x3e802b4c	0.25033033
74	0xbfae386e	-1.3610971
75	0x3fe6a280	1.8018341
76	0xbd984097	-0.074341945
77	0xbe2066a5	-0.15664156
78	0xbf5eefbb	-0.8708455
79	0xbf241ef3	-0.64109725
80	0xbed44195	-0.41456285
81	0xbf30b371	-0.69023806
82	0xbe6b79a3	-0.2299562
83	0xc00b06b3	-2.172284
84	0x3db39345	0.08768324
85	0x3f8c0122	1.0937846
86	0xbdf1177d	-0.11772058
87	0xbe98e7c4	-0.29864323
88	0xbf74207b	-0.9536206
89	0xbdbd625e	-0.09247278
90	0xbf8221bd	-1.0166546
91	0xbbfb845a	-0.0076756896
92	0xbf04aa1f	-0.51822084
93	0x3f56ec43	0.83954257
94	0x3d6fb577	0.058522668
95	0xbfd58927	-1.668248
96	0x40084bc6	2.1296248
97	0xbfc252a5	-1.5181471
98	0x3e0e0eca	0.13872829
99	0xbf970246	-1.1797569
100	0xbf079d1e	-0.52974117
101	0x3f76676f	0.9625158
102	0x3e8f1289	0.2794383
103	0xbf1262bd	-0.5718191
104	0xc032cad1	-2.793629
105	0xbf360e39	-0.7111545
106	0x3f060589	0.52352196
107	0xbfdaf34e	-1.7105501
108	0x3f56a6fa	0.83848536
109	0xbe8a292c	-0.26984537
110	0x3dfc07b6	0.12306158
111	0x3f60313a	0.87575114
112	0x3e1af63f	0.15132998
113	0x3f3d48e3	0.7393934
114	0x3e8bd42d	0.27310315
115	0x402ecc7d	2.731231
116	0x3edd2fca	0.43200523
117	0xbe9e4d20	-0.30918217
118	0xbdc5cc63	-0.09658124
119	0x3fc55dcd	1.5419251
120	0xbddeb595	-0.10874478
121	0xbed67aa1	-0.41890433
122	0x3fb81ec1	1.4384385
123	0xbf34f3a4	-0.70684266
124	0xbfa03ff2	-1.2519515
125	0x40419a65	3.0250485
126	0x3fac5237	1.346259
127	0x3f5b090f	0.855607
128	0x3ea4e10a	0.3220294
129	0x3ee46189	0.44605663
130	0x3fc2f054	1.5229592
131	0x3fa3e718	1.2804899
132	0xbdede585	-0.11616043
133	0x3faf6dbc	1.3705363
134	0xbef63d86	-0.48093814
135	0xbf7d8861	-0.9903622
136	0xbfae9d7e	-1.3641813
137	0x3c067100	0.008205652
138	0xbecfcce8	-0.4058602
139	0xbf3609bb	-0.711086
140	0xbeb2fc11	-0.34957936
141	0x3ec26e70	0.37974882
142	0x3f7fd264	0.99930406
143	0x3fa33946	1.2751853
144	0x3f75a151	0.95949274
145	0x3dd3fd0d	0.10351
146	0x3f543ba3	0.829035
147	0x4005e573	2.0921295
148	0x3f4b9968	0.79530954
149	0x3e8efe6a	0.27928478
150	0x3e3eec2f	0.18644784
151	0x3eb59cfb	0.3547133
152	0x3db9a0ae	0.0906385
153	0x3fdf0239	1.7422553
154	0xbfa20c54	-1.2660012
155	0x3ec74016	0.3891608
156	0x3eaf8d52	0.34287506
157	0xbfbac29a	-1.4590638
158	0xbfbf3020	-1.4936562
159	0xbe62b2ce	-0.22138521
160	0x3e66a405	0.22523506
161	0xbd9e32d3	-0.07724538
162	0x3f7c567a	0.9856945
163	0x3fa3a087	1.2783364
164	0x3e9388a5	0.2881519
165	0x3f5e7a09	0.8690496
166	0xbf4f48e1	-0.8097058
167	0xbfb705ab	-1.4298605
168	0x3eeb0424	0.45901597
169	0x3f07eb37	0.53093284
170	0xbfae44fc	-1.3614802
171	0x3ffa665f	1.9562491
172	0x3fe25de0	1.7684898
173	0xbf7c5d4b	-0.98579854
174	0xbf9e5880	-1.2370758
175	0xc01351ec	-2.301875
176	0xba84365c	-0.0010087001
177	0xbf5973f6	-0.8494257
178	0xbfd466f6	-1.6593921
179	0x3e9cd21f	0.3062906
180	0x3f974d3c	1.1820445
181	0x3ea6ed01	0.32602695
182	0xbec76598	-0.38944697
183	0x4036ae2c	2.8543806
184	0x3f530997	0.8243651
185	0x3f4c6079	0.79834706
186	0x3ff1cb7b	1.8890222
187	0x3f17ed2e	0.5934628
188	0x3d8ea6fd	0.06965444
189	0xbfcd3d52	-1.6034338
190	0xbedc119b	-0.42982182
191	0x3f137f24	0.57615876
192	0x3eb0505e	0.34436315
193	0xc04680b6	-3.101606
194	0xbfbab76c	-1.4587226
195	0xbfb74611	-1.4318258
196	0xbf1b6cab	-0.6071269
197	0xbe84fc5d	-0.25973788
198	0xbf38119a	-0.7190186
199	0xbec58ba3	-0.38583097
200	0x3f05fa6e	0.5233525
201	0xbf5238a5	-0.8211768
202	0xbef115bb	-0.47086892
203	0x3f1a053b	0.6016423
204	0xbe90a551	-0.28251126
205	0x3f44eebf	0.769268
206	0xbf445310	-0.76689243
207	0xbf73118f	-0.9494867
208	0x3c8a965b	0.016917398
209	0x3da4687b	0.080277406
210	0x3f3eadeb	0.7448413
211	0x3fac38da	1.345485
212	0x3e01dd99	0.12682189
213	0xc01ceebe	-2.4520717
214	0x3ed4fad3	0.41597614
215	0x3ff3864a	1.9025357
216	0xbf3c1355	-0.73467
217	0x3d36ea66	0.044657134
218	0xbfc2b40e	-1.5211198
219	0x3eb217c5	0.3478376
220	0x3f3d7c42	0.7401773
221	0x3fb54607	1.4161996
222	0x3f2ef32b	0.68339795
223	0xbe0d91e3	-0.13825183
224	0x3f6bda49	0.9212995
225	0x3f073b06	0.5282444
226	0xbc06d05b	-0.008228387
227	0xbfb983b6	-1.449332
228	0xbf1aed3c	-0.6051824
229	0xbe378c08	-0.17924511
230	0x3e4c591e	0.1995587
231	0xbf9f834f	-1.2461947
232	0xbed4465f	-0.4145994
233	0x3fba59f3	1.45587
234	0x3ea9ce7a	0.33165342
235	0xbf80034e	-1.0001009
236	0xbf3123cc	-0.69195247
237	0xbef1a8c6	-0.47199076
238	0xbfa50c2f	-1.2894343
239	0x3f89c394	1.0762811
240	0xbf888b07	-1.0667428
241	0xbffea2c8	-1.9893427
242	0x3e98396a	0.29731303
243	0x3ede7155	0.4344584
244	0x3b5e6278	0.0033933204
245	0xbf8312e9	-1.0240146
246	0x3e656cbd	0.22404762
247	0xbf41670a	-0.7554785
248	0x3faf0ce5	1.367581
249	0xbea3b46a	-0.31973583
250	0xbf69c06d	-0.91309243
251	0x3ff5a8a7	1.9192094
252	0xbfd363ed	-1.651487
253	0x40097455	2.1477253
254	0xbf2910db	-0.66041344
255	0x3de8803c	0.11352584

node_encoder.weight f4 [4, 16]
0	0x3f4260af	0.7592878
1	0xbeae98d7	-0.34100983
2	0x3fc894cd	1.567041
3	0x3f6d9082	0.92798626
4	0xbe428a48	-0.18998063
5	0x3f716f92	0.9431087
6	0x3e3f4c45	0.18681438
7	0x3e2b3a41	0.16721441
8	0xbf53f682	-0.82798016
9	0xbff04acb	-1.8772825
10	0xbf01b00d	-0.5065926
11	0xbee5127f	-0.44740674
12	0x3e1d6638	0.15371025
13	0x3f7108a8	0.94153833
14	0x3d90f195	0.07077328
15	0x3f9950f2	1.1977828
16	0xbf328c3e	-0.6974524
17	0xbfeeeb25	-1.866551
18	0xbfc5b12b	-1.5444692
19	0xbf22b326	-0.6355461
20	0x3ee85061	0.45373824
21	0xbe84db57	-0.25948593
22	0xbe06f8a5	-0.13180788
23	0xc0045fef	-2.0683553
24	0xbe979c31	-0.29611352
25	0xbe8beccb	-0.27329096
26	0x3f76b1a4	0.9636481
27	0x3f6857a2	0.9075872
28	0xbf86207f	-1.0478667
29	0xbe8f6a9e	-0.2801103
30	0xbf4e6971	-0.8062964
31	0x3f6aa3ff	0.9165649
32	0x3f64bcb4	0.8935044
33	0xbf70ef64	-0.9411528
34	0xbf317fa2	-0.6933538
35	0xbef04e82	-0.46934897
36	0xbf8eb3ca	-1.1148617
37	0xbfc9f978	-1.5779257
38	0x3f21c18b	0.6318595
39	0xbdbd725c	-0.09250328
40	0x3ef7af1e	0.4837579
41	0xbeed1da0	-0.46311665
42	0xbd452ea6	-0.04814019
43	0x3e86386a	0.26214916
44	0x3f0961f2	0.5366508
45	0xbd9e06e3	-0.07716157
46	0xbf7f3f9b	-0.9970643
47	0xbf1c1a9a	-0.6097809
48	0xbf360b38	-0.7111087
49	0xbec5f92e	-0.38666672
50	0x3f753471	0.95783144
51	0xbf529162	-0.82253087
52	0xc01902f3	-2.390805
53	0x3ea4fda7	0.3222477
54	0x3ff00cbd	1.8753887
55	0x3f8d59ab	1.104299
56	0xbf05ba6d	-0.5223759
57	0xbf3d7c76	-0.7401804
58	0x3e2640cd	0.16235657
59	0xbe72af80	-0.2369976
60	0x3f028b15	0.5099347
61	0x3fd5d709	1.6706249
62	0x3fcbca19	1.592105
63	0xbed51722	-0.4161921

gnn_layers.0.lin_l.weight f4 [32, 32]
0	0xbc2f7484	-0.010708932
1	0x3d10ff17	0.035399523
2	0x3d900e19	0.07033939
3	0xbe0378cb	-0.12839048
4	0xbd732005	-0.059356708
5	0x3e0844a1	0.1330743
6	0xbe6fce73	-0.23418598
7	0x3db875f7	0.09006875
8	0x3e1bf6e9	0.15230907
9	0x3e424ff9	0.1897582
10	0x3d1af0ef	0.03782743
11	0xbe3db2e7	-0.18525277
12	0x3d4e6b9c	0.050395593
13	0xbd98cd2f	-0.07461011
14	0x3cc623a8	0.024186924
15	0x3deb85b1	0.11500109
16	0xbce288f4	-0.027653195
17	0xbe37f6f6	-0.17965302
18	0xbe085a2a	-0.13315645
19	0x3e10e991	0.14151599
20	0x3b903207	0.004400495
21	0x3e5338b4	0.206271
22	0xbc1918d7	-0.009344301
23	0xbdb9761d	-0.090557314
24	0x3d8128d6	0.06306617
25	0x3e839d52	0.25705963
26	0x3da84fe9	0.08218367
27	0x3d2f093e	0.042733423
28	0xbddd6070	-0.108094096
29	0xbdf205d6	-0.11817519
30	0x3decbe74	0.115597636
31	0xbdfd4761	-0.1236713
32	0xbd1f05dd	-0.03882395
33	0x3d813504	0.0630894
34	0x3d8d0253	0.06885209
35	0x3cc8e3ee	0.024522748
36	0xbda55f5b	-0.08074828
37	0xbd5fe937	-0.05466577
38	0x3d9d8bfe	0.07692717
39	0x3df1543a	0.11783643
40	0x3e1a5df5	0.15074904
41	0x3bc67735	0.006056691
42	0x3d49de8a	0.049284495
43	0xbdca86a5	-0.09888963
44	0xbd1ca673	-0.038244676
45	0xbd84bcde	-0.06481336
46	0x3be7e348	0.0070766546
47	0xbe21d4cf	-0.15803836
48	0x3e0535d4	0.13008815
49	0xbe60cb39	-0.21952523
50	0x3eba47e4	0.36382973
51	0xbe27f1e2	-0.16400865
52	0xbe2e5fa2	-0.17028669
53	0x3eb8caaf	0.36092135
54	0x3d81a811	0.06330884
55	0xbd5e2ec6	-0.054243825
56	0x3efd5fc3	0.49487123
57	0xbe81a7e9	-0.25323418
58	0xbd82f34b	-0.06394061
59	0x3eea6941	0.45783427
60	0x3ea735a3	0.3265811
61	0x3d22de9d	0.03976308
62	0x3e32b2df	0.17451046
63	0x3ded1eab	0.11578115
64	0x3eaded96	0.33970326
65	0x3d9b69a9	0.075885125
66	0x3eade31f	0.33962342
67	0x3efc3aba	0.49263555
68	0xbe4c98cb	-0.19980161
69	0x3ede4afe	0.4341659
70	0xbdd4b012	-0.10385145
71	0x3ea886bd	0.32915297
72	0xbdb6c81d	-0.08924887
73	0xbdc743b7	-0.097297125
74	0xbe8c26e6	-0.27373427
75	0xbf030b7a	-0.51189387
76	0x3ea83e44	0.32860005
77	0x3e6dccf3	0.23222713
78	0x3e07f887	0.132784
79	0x3d80c7d6	0.06288116
80	0xbe4ce3eb	-0.20008819
81	0x3d9a10a0	0.07522702
82	0xbd79500c	-0.060867354
83	0x3e7c1b07	0.24619685
84	0x3e656639	0.22402276
85	0x3edee5d7	0.4353473
86	0x3e7365cf	0.23769306
87	0xbe13572e	-0.14388725
88	0x3d528cfc	0.051403984
89	0x3e627798	0.22115934
90	0x3c75d327	0.015003956
91	0xbd5aa00b	-0.053375285
92	0xbdebcb1b	-0.11513349
93	0x3eb2a244	0.34889424
94	0xbdb2edaa	-0.08736737
95	0x3eccdaf7	0.40010807
96	0xbd8c8ffb	-0.068633996
97	0x3d4a8863	0.049446475
98	0x3e0adda9	0.13561119
99	0xbb7ed979	-0.0038886948
100	0x3c56a8b8	0.013101749
101	0x3e5b32bf	0.21406077
102	0x3d929eb0	0.071591735
103	0xbdc9eaa3	-0.098592065
104	0xbe0a9079	-0.13531674
105	0x3e057f00	0.13036728
106	0x3bbe162c	0.005800983
107	0x3d85f321	0.06540514
108	0xbd02ad86	-0.031903766
109	0x3c8731e8	0.01650329
110	0xbe0b48bb	-0.13601963
111	0xbd634b03	-0.05549146
112	0xbe01415f	-0.12622593
113	0x3ecf3045	0.40466514
114	0xbf485450	-0.7825365
115	0x3f6639e2	0.8993207
116	0x3e48d533	0.19612579
117	0xbead1023	-0.33801374
118	0x3e219476	0.1577929
119	0xbe367d0b	-0.17821138
120	0xbf011b16	-0.50431955
121	0x3f2be3ed	0.6714466
122	0x3d7a9733	0.06117935
123	0xbef2076b	-0.47271284
124	0xbef81658	-0.48454547
125	0x3f56e232	0.83938897
126	0xbe8eb95e	-0.278758
127	0x3e2ddc5f	0.16978596
128	0xbc4a3872	-0.012342559
129	0x3cc4bd61	0.024016084
130	0x3d9169d1	0.07100261
131	0xbb98a9a2	-0.0046588937
132	0x3debdadb	0.11516353
133	0xbd5ede5f	-0.05441129
134	0xbd806a91	-0.06270326
135	0xbad22ff6	-0.0016036022
136	0x3cc9d838	0.024639234
137	0x3e243e17	0.1603931
138	0x3eb7ea6a	0.3592103
139	0x3de5d12c	0.11221537
140	0x3e0f7458	0.14009225
141	0xbda216ef	-0.079145305
142	0x3a768d48	0.0009405208
143	0xbdb2d6a4	-0.08732346
144	0x3ecbf31e	0.3983392
145	0xbe70667e	-0.23476598
146	0x3f291eab	0.6606242
147	0xbe5d3055	-0.21600468
148	0xbdcf0998	-0.10109252
149	0x3e5cc387	0.21558963
150	0xbd22935f	-0.039691325
151	0xbf321324	-0.69560456
152	0x3f511e74	0.8168709
153	0xbea53363	-0.32265767
154	0xbdf0df75	-0.11761371
155	0x3e96a7a7	0.29424784
156	0x3e8a14b2	0.26968914
157	0xbe166b9d	-0.14689489
158	0x3ea9c514	0.3315817
159	0x3e5590c7	0.2085601
160	0xbeffb4bd	-0.4994258
161	0x3dbc8279	0.09204573
162	0xbec77370	-0.3895526
163	0xbd929d81	-0.07158948
164	0x3eb38bdc	0.35067642
165	0x3cd81c80	0.026380777
166	0x3d9fd33b	0.07803961
167	0xbe4d9b16	-0.20078692
168	0xbd44c446	-0.048038743
169	0x3e1571c3	0.14594178
170	0x3d8dbfdf	0.06921362
171	0x3e7fee1c	0.24993175
172	0xbe8bf690	-0.2733655
173	0x3d986e9e	0.074429736
174	0xbe2416b7	-0.1602429
175	0xbd2369d2	-0.03989584
176	0x3b948572	0.0045325095
177	0xbe04d67b	-0.12972443
178	0x3d488d07	0.04896262
179	0x3e0d2564	0.13783795
180	0x3e41b7b5	0.18917735
181	0xbec3a4f4	-0.38211787
182	0xbe550f9c	-0.20806736
183	0x3c8d9ee3	0.017287677
184	0xbd954d69	-0.072901554
185	0x3d809046	0.06277518
186	0x3dac43d5	0.084113754
187	0xbf1611ac	-0.58620715
188	0xbdb08dba	-0.08620782
189	0xbe815873	-0.25262794
190	0x3d14ea51	0.036356274
191	0x3d577636	0.05260297
192	0x3e495fb7	0.19665419
193	0x3d9bd209	0.076084204
194	0x3dc3f1d9	0.09567613
195	0xbcc0e503	-0.023546701
196	0xbda429cf	-0.08015787
197	0xbdc3d9a8	-0.09562999
198	0xbdefdcad	-0.117120124
199	0x3ec49b1a	0.38399583
200	0xbd50896b	-0.050912302
201	0x3da14481	0.07874394
202	0xbf0c6e66	-0.54855955
203	0x3dbcfef0	0.09228313
204	0x3e8505ef	0.2598109
205	0xbdae3aab	-0.08507284
206	0x3e0fcad2	0.14042214
207	0xbdbe2c3d	-0.092857815
208	0xbdaa6f45	-0.08322004
209	0x3e553607	0.20821391
210	0x3ea5e99e	0.32404798
211	0x3ec3e8a8	0.3826344
212	0xbe2aeef5	-0.16692717
213	0x3e519508	0.20467007
214	0x3eaf8551	0.342814
215	0xbe486399	-0.19569243
216	0x3eeb0e54	0.4590937
217	0xbdb6972e	-0.08915554
218	0x3dd1bc27	0.10240965
219	0x3ead759e	0.33878797
220	0x3e7abbf2	0.24485758
221	0x3e0a252c	0.13490742
222	0x3ee2654c	0.44217908
223	0x3ee2974f	0.44256064
224	0x3ca37b8d	0.019956375
225	0x3e8924c4	0.26785862
226	0xbd1e1821	-0.03859723
227	0x3ce5d332	0.028054807
228	0x3c24f725	0.0100686895
229	0x3e21b63c	0.15792173
230	0xbd5d75bb	-0.054067355
231	0x3c2e7bd2	0.010649638
232	0x3c179fe5	0.00925443
233	0x3ca9d8c3	0.020733243
234	0xbe3f3fa8	-0.18676627
235	0x3d813dbc	0.06310603
236	0xbe1d4291	-0.15357424
237	0xbd1879f7	-0.03722569
238	0x3d7dad14	0.06193264
239	0xbd566c03	-0.0523491
240	0x3d80216d	0.062563755
241	0x3db3bdc3	0.087764286
242	0xbe1e9e9d	-0.15490194
243	0x3e53dc3d	0.20689483
244	0x3e3b3196	0.18280634
245	0x3e07f3c2	0.1327658
246	0xbe823e02	-0.25437933
247	0x3dcbd4fa	0.099527314
248	0xbe82b183	-0.25526056
249	0xbc2ed215	-0.010670205
250	0xbde85cc0	-0.11345816
251	0xbdf4494f	-0.11928045
252	0x3ca2c9f5	0.019871691
253	0xbda625fe	-0.08112715
254	0xbe2a6f60	-0.16644049
255	0xbe8622df	-0.2619848

gnn_layers.0.lin_l.bias f4 [32]
0	0x3c3d6c06	0.011561399
1	0xbe7da62a	-0.24770418
2	0x3d42ba93	0.047541212
3	0xbd8049cb	-0.06264075
4	0x3ca6c226	0.020356249
5	0x3e14181c	0.14462322
6	0xbe271fd9	-0.16320743
7	0xbdb4bf9a	-0.088256076
8	0xbe27251a	-0.16322747
9	0x3dd25050	0.10269225
10	0x3ddf5f0c	0.10906801
11	0x3dc00efe	0.093778595
12	0xbd757bbc	-0.059932455
13	0xbbbd7270	-0.0057814643
14	0xbe49610e	-0.1966593
15	0x3d09576b	0.033530634
16	0x3e2125a4	0.15737015
17	0xbe2660ec	-0.1624791
18	0xbe004d04	-0.12529379
19	0xbdaa1da0	-0.08306432
20	0xbd49168a	-0.04909376
21	0xbc8a5aef	-0.016889064
22	0x3e30ec1a	0.17277566
23	0xbd1d03bc	-0.03833364
24	0x3d089fc7	0.0333555
25	0x3d8a481f	0.06752037
26	0xbe0dbe53	-0.13842134
27	0x3da36043	0.07977345
28	0x3dcc22ba	0.09967561
29	0x3bd884c9	0.006607626
30	0xbda6ff94	-0.081542164
31	0x3e849576	0.2589528

gnn_layers.0.lin_r.weight f4 [32, 32]
0	0xbe2ccc9c	-0.16874927
1	0x3ded0790	0.11573708
2	0x3d3a2dac	0.045453712
3	0x3e0d9c7f	0.1382923
4	0xbdb611c9	-0.08890111
5	0x3d4869ac	0.0489289
6	0xbe224b42	-0.15849021
7	0x3e09f66f	0.13472913
8	0x3d33c236	0.043886386
9	0xbd770ce8	-0.060315043
10	0x3c4c1a43	0.012457433
11	0x3cfe2b9c	0.031026654
12	0x3d30d10b	0.04316811
13	0x3e2da7b6	0.16958508
14	0x3e03a323	0.128552
15	0x3d40827c	0.04699944
16	0x3e0227cd	0.12710495
17	0xbe11c013	-0.14233427
18	0x3d98f872	0.07469262
19	0x3cc9b21d	0.024621064
20	0x3e1c2993	0.15250234
21	0x3da7d045	0.08194021
22	0x3c5dec1a	0.0135450605
23	0x3dc05b68	0.09392434
24	0xbd45e57e	-0.048314564
25	0x3dc90cd9	0.098169036
26	0x3ccc1e41	0.02491677
27	0xbce678ff	-0.028133867
28	0x3df0dedb	0.11761256
29	0xbe02a1da	-0.12757054
30	0xbce09cb1	-0.027418466
31	0x3de942b8	0.11389679
32	0xbdbf5fdb	-0.09344455
33	0xbe049a81	-0.12949564
34	0xbd2e1cec	-0.04250805
35	0xbd298f96	-0.0413967
36	0x3e9bbc66	0.30417174
37	0xbe27d789	-0.16390814
38	0xbe2d151c	-0.16902584
39	0xbe0fe18b	-0.14050882
40	0xbdfd3cab	-0.12365087
41	0x3e1ef281	0.15522195
42	0xbd36d7e2	-0.044639476
43	0x3e26ba5f	0.16282032
44	0xbe451135	-0.19244845
45	0xbd6bbcbf	-0.05755305
46	0xbd8f5818	-0.069992244
47	0x3c848f4f	0.016181616
48	0x3eb2462b	0.3481916
49	0xbd2364a3	-0.039890897
50	0x3f406c5e	0.75165355
51	0xbe2ed3d6	-0.17072996
52	0xbe0a80fd	-0.13525768
53	0x3f0eca94	0.5577786
54	0xbf0a5746	-0.5403942
55	0x3e6ecbc7	0.23319922
56	0x3e9ef6b4	0.31047595
57	0xbeb034d7	-0.34415314
58	0xbf085619	-0.53256375
59	0x3d635bba	0.0555074
60	0x3e4ee3c1	0.20204069
61	0xbeba75b3	-0.36417922
62	0x3d9c9ede	0.07647489
63	0xbe36066c	-0.17775887
64	0xbdd56b4d	-0.104208566
65	0x3df27135	0.11837999
66	0x3a126427	0.0005584382
67	0x3e079176	0.13239083
68	0x3dc3c8b0	0.095597625
69	0x3e1cf631	0.1532829
70	0xbb831e02	-0.00400138
71	0xbc7e5898	-0.015524052
72	0x3e143ced	0.14476366
73	0x3d8512ad	0.06497703
74	0x3cd6876b	0.02618762
75	0x3bc85ed2	0.006114819
76	0xbd5edff2	-0.05441279
77	0xbe327a2b	-0.17429416
78	0x3d92f926	0.071764275
79	0xbd01d445	-0.031696577
80	0xbe582802	-0.21109012
81	0xbe0125a8	-0.12612021
82	0xbe953dcb	-0.29148707
83	0xbd9e9105	-0.07742504
84	0x3cfd8888	0.030948892
85	0x3ce5e1ac	0.02806171
86	0xbe70f71e	-0.23531768
87	0x3e46ebe4	0.19425923
88	0xbeecda09	-0.46260098
89	0x3d66b20f	0.056322154
90	0x3dc240fa	0.094850495
91	0xbef1e4d1	-0.47244886
92	0xbe1e39bd	-0.15451713
93	0xbe609f7e	-0.21935841
94	0xbdaa02d6	-0.08301322
95	0xbde9f5fd	-0.11423872
96	0x3d29e285	0.04147579
97	0xbca63c6e	-0.020292487
98	0x3cfa4394	0.030549802
99	0x3d79a756	0.0609506
100	0xbe223baf	-0.1584308
101	0xbdb19389	-0.08670718
102	0x3e2d6d84	0.16936308
103	0x3dbc810f	0.092043035
104	0xbd8ebb15	-0.06969277
105	0xbd1a0773	-0.03760476
106	0xbd240350	-0.04004222
107	0xbd81a904	-0.06331065
108	0xbd9d4139	-0.07678456
109	0xbe29e55a	-0.16591397
110	0x3d13ce0a	0.036085166
111	0x3d4de6f0	0.050269067
112	0x3ebcf9e1	0.36909392
113	0x3e4ebf3f	0.20190142
114	0xbe20b840	-0.15695286
115	0xbc507009	-0.012722024
116	0x3e4e8e0d	0.20171376
117	0xbd167d82	-0.036740787
118	0x3dde3497	0.108498745
119	0xbdfc3f4b	-0.1231676
120	0xbc9bb616	-0.019007724
121	0xbe708087	-0.2348653
122	0xbdbf8a01	-0.09352494
123	0xbe129131	-0.14313199
124	0xbe448d5a	-0.19194546
125	0xbd8321fc	-0.064029664
126	0xbdbb1c16	-0.09136216
127	0xbdd28670	-0.10279548
128	0xbcc4e609	-0.02403547
129	0x3e28e642	0.16494086
130	0xbccab2d8	-0.024743482
131	0x3e18b4dd	0.14912744
132	0xbaca2009	-0.0015420924
133	0x3e286bf3	0.1644743
134	0x3e08b2b5	0.13349421
135	0x3da1e102	0.07904245
136	0xbe0b3c00	-0.13597107
137	0x3dc364c4	0.09540704
138	0x3d3b0388	0.045657665
139	0xbe8ea4c3	-0.27860078
140	0x3e0dfdcc	0.13866347
141	0xbd205e94	-0.039152697
142	0x3ea1533a	0.3150881
143	0x3e15630d	0.14588566
144	0x3e9973e6	0.29971236
145	0x3dbbec04	0.09175876
146	0x3e692fa0	0.22772074
147	0x3e88a21f	0.2668619
148	0x3d6a89bd	0.057260264
149	0x3e46afd5	0.19403012
150	0xbda519d8	-0.0806157
151	0xbce7b9a9	-0.028286772
152	0x3e5eba56	0.21750769
153	0x3d2200a1	0.03955138
154	0xbecba9e3	-0.3977805
155	0xbed06744	-0.40703785
156	0x3e1c1604	0.15242773
157	0x3e726ebf	0.23675059
158	0x3e058d36	0.13042149
159	0x3e998a00	0.29988098
160	0xbde1b737	-0.110212736
161	0x3c6ee124	0.014580045
162	0xbe08f09b	-0.13373034
163	0xbe27f5ef	-0.1640241
164	0xbd617d0a	-0.055050887
165	0x3e0b2bdb	0.13590948
166	0x3e3f2d41	0.18669607
167	0x3e50a405	0.20375068
168	0x3e32dc25	0.17466791
169	0xbdcb226c	-0.09918675
170	0xbeaa1f21	-0.33226874
171	0x3dcbad19	0.09945125
172	0xbddd447d	-0.10804079
173	0xbe0e67fa	-0.13906851
174	0x3d8a2fad	0.06747375
175	0xbd4437c3	-0.04790474
176	0x3ec30715	0.3809134
177	0xbe2f79fb	-0.17136376
178	0x3ed55755	0.41668192
179	0xbc1a4c4c	-0.009417605
180	0x3cf01035	0.029304603
181	0x3e7b497f	0.24539755
182	0x3e9fd613	0.31218013
183	0xbf07c9e9	-0.53042465
184	0x3efcd0ae	0.4937796
185	0xbe57e666	-0.21083984
186	0xbf02c846	-0.51086843
187	0x3ea2fdae	0.31834167
188	0x3e2632e2	0.16230348
189	0x3d8a3232	0.06747855
190	0x3ec8fef8	0.39257026
191	0x3d2c9e9b	0.042143445
192	0xbd684d30	-0.056714237
193	0xbd6ae7bf	-0.057349917
194	0xbe091098	-0.13385236
195	0x3dd85450	0.10562956
196	0x3e27ae23	0.16375022
197	0xbda57125	-0.08078221
198	0x3da22432	0.0791706
199	0xbdfbbeae	-0.12292229
200	0x3d8dde8b	0.06927212
201	0xbd49d7c8	-0.04927805
202	0x3e5f372c	0.2179839
203	0x3d4a1813	0.049339365
204	0xbdb8d29d	-0.09024546
205	0x3da4567a	0.080243066
206	0x3cd76130	0.02629146
207	0xbc9a4ee5	-0.018836448
208	0x3f6dae13	0.9284374
209	0xbe3e5282	-0.18586162
210	0x3f3052b8	0.6887622
211	0xbef850c0	-0.48499107
212	0xbe593035	-0.21209796
213	0x3ee2a4a9	0.4426625
214	0xbf216a05	-0.630524
215	0x3edab26b	0.42714247
216	0x3eeb52bf	0.45961568
217	0xbe7faca3	-0.249682
218	0xbf86472a	-1.0490468
219	0xbdf010d7	-0.11721962
220	0x3d85c6e5	0.06532077
221	0xbcbda5ee	-0.02315041
222	0x3ebd1a0d	0.36933938
223	0xbec2eca4	-0.38071167
224	0xbe131f06	-0.14367303
225	0xbc9b034a	-0.018922467
226	0xbc79ceb9	-0.01524704
227	0xbd17a594	-0.037023142
228	0x3e938572	0.28812748
229	0x3b8f02e9	0.0043643606
230	0xbda14258	-0.07873982
231	0x3e8bb3e2	0.27285677
232	0x3de9484a	0.11390741
233	0xbda2912c	-0.079378456
234	0xbdd0ee06	-0.10201649
235	0xbe4769f3	-0.1947401
236	0x3dd6570a	0.1046582
237	0xbd8a3426	-0.06748228
238	0x3e2ec832	0.17068556
239	0x3de2e567	0.11078911
240	0x3e545ce3	0.20738558
241	0x3baa8a90	0.005204506
242	0xbe5ed666	-0.21761474
243	0x3e0509a8	0.12991965
244	0x3eac96a7	0.3370869
245	0x3dbcb7bb	0.09214731
246	0xbd9e7766	-0.07737617
247	0xbe93db80	-0.28878403
248	0xbd6b0c43	-0.05738474
249	0x39284793	0.00016048392
250	0xbea9f9ad	-0.331983
251	0xbe214ce5	-0.15751989
252	0x3cae424b	0.021271845
253	0x3e454c75	0.19267447
254	0x3c636fa4	0.013881598
255	0xbd0dbbd7	-0.034602966

gnn_layers.1.lin_l.weight f4 [32, 32]
0	0x3e5e3ba6	0.21702442
1	0x3e557b67	0.20847856
2	0xbeb097d3	-0.34490833
3	0xbe064a78	-0.13114345
4	0x3e3e36fa	0.1857566
5	0x3e244fd0	0.16046071
6	0xbdfd1a4b	-0.123585306
7	0xbdc1601e	-0.09442161
8	0x3d082316	0.033236586
9	0x3e4d27fd	0.20034786
10	0x3e98ed0c	0.29868352
11	0xbeabee9a	-0.33580476
12	0xbf5d8274	-0.8652718
13	0x3d884350	0.06653464
14	0xbe828aa0	-0.25496387
15	0x3eb8f890	0.36127138
16	0xbe24af68	-0.16082537
17	0x3d19f192	0.037583895
18	0xbebf1d50	-0.3732705
19	0xbbb268bf	-0.0054446156
20	0xbde632b9	-0.11240143
21	0x3dbf8f50	0.093535066
22	0x3dc78e12	0.09743895
23	0x3d2113af	0.039325412
24	0x3e8a31e6	0.26991194
25	0x3ee64629	0.44975403
26	0xbe15966c	-0.14608163
27	0x3eea0d8a	0.45713454
28	0xbe383175	-0.17987616
29	0xbc068a0a	-0.008211622
30	0xbdc12060	-0.09430003
31	0xbf04a242	-0.51810086
32	0xbc9f3222	-0.019433085
33	0x3dec02ca	0.115239695
34	0x3d8aecd0	0.0678345
35	0xbc8ea4ad	-0.017412508
36	0xbd149155	-0.036271412
37	0x3d52f5c1	0.0515039
38	0xbc4cdf78	-0.012504451
39	0xbd6d542a	-0.057941593
40	0x3e257b16	0.16160235
41	0xbc74f3eb	-0.014950733
42	0x3da91b0b	0.08257111
43	0x3e980d84	0.29697812
44	0xbb855c5c	-0.004069848
45	0x3e91727d	0.2840766
46	0x3dbb2fc6	0.091399714
47	0xbbdc3283	-0.0067198887
48	0xbe8fd38b	-0.28091082
49	0xbdfac6a8	-0.12244922
50	0xbe7f5daf	-0.24938081
51	0x3e27abce	0.16374132
52	0x387d5046	6.039466e-05
53	0xbdfc7325	-0.123266496
54	0xbdca67db	-0.0988309
55	0x3e8c541a	0.27407914
56	0x3e4615d8	0.1934427
57	0x3e2cc42e	0.16871712
58	0x3e15c686	0.14626512
59	0xbdc704ce	-0.09717713
60	0x3d50603d	0.05087303
61	0xbb5cf3b8	-0.0033714604
62	0xbb890927	-0.0041819992
63	0x3f00747b	0.50177735
64	0xbcd6a2ef	-0.02620074
65	0x3ea1f95e	0.31635565
66	0x3df1300b	0.117767416
67	0xbd8fc19b	-0.07019349
68	0xbe637925	-0.22214182
69	0xbe0c149e	-0.1367974
70	0x3dca4cc8	0.09877926
71	0xbdc38f85	-0.095488586
72	0x3df9062a	0.12159379
73	0x3ddd7c49	0.10814721
74	0xbcc4eea0	-0.024039567
75	0x3e982537	0.29715893
76	0xbeaa0522	-0.3320704
77	0x3d97f09d	0.0741894
78	0x3d5806fc	0.052741036
79	0xbe8e290d	-0.27765694
80	0xbd6c76a0	-0.057730317
81	0x3ecd0ecd	0.40050355
82	0x3d635c2c	0.055507824
83	0x3e1ebb73	0.15501194
84	0x3e0205e4	0.1269756
85	0x3c0d5b74	0.008627761
86	0x3e39e831	0.1815498
87	0xbd6d60a1	-0.05795348
88	0xbe8c51b0	-0.27406073
89	0x3f22ea39	0.63638645
90	0x3dab7fa2	0.083739534
91	0x3ee00068	0.4375031
92	0x3e488c7d	0.19584842
93	0x3c1ab809	0.009443291
94	0x3ee97b9b	0.45602116
95	0x3ef21ce8	0.4728768
96	0x3e13a019	0.14416541
97	0xbd16a7c6	-0.036781095
98	0xbe1ed9f6	-0.15512833
99	0xbe5971eb	-0.21234863
100	0xbe96afb7	-0.29430935
101	0x3da9de60	0.08294368
102	0xbd90d8a8	-0.07072574
103	0xbbf2e19f	-0.00741215
104	0x3e481b3a	0.19541636
105	0xbd3bceb9	-0.045851443
106	0x3d9c7b7d	0.07640741
107	0x3e577673	0.21041279
108	0xbe4fbd89	-0.20287146
109	0xbd9d4625	-0.07679395
110	0x3e89f113	0.26941738
111	0xbd01b6ef	-0.0316686
112	0xbe43f994	-0.19138175
113	0x3e4db4ed	0.20088549
114	0x3d8c8a3f	0.06862306
115	0xbe902991	-0.28156713
116	0xbde53c9a	-0.111931995
117	0xbc46ddf3	-0.012137878
118	0xbd60db65	-0.05489673
119	0x3e09dc9d	0.13463064
120	0xbdbfc30a	-0.093633726
121	0x3e8bf39d	0.273343
122	0xbd73b155	-0.05949529
123	0x3db9ed28	0.09078437
124	0x3d34b277	0.04411551
125	0xbd9bb42e	-0.07602726
126	0xbdc482f5	-0.095952906
127	0x3eef4aa8	0.46736646
128	0x3e06b550	0.13155103
129	0xbe91fb00	-0.2851181
130	0xbdd87967	-0.10570031
131	0xbe6370d2	-0.22211006
132	0x3eb9641b	0.36209187
133	0x3d0a1c3a	0.033718325
134	0xbeaf5e3a	-0.34251577
135	0x3d624bdf	0.055248138
136	0x3dafeeb5	0.08590452
137	0x3cd7fe89	0.026366489
138	0xbe2ac610	-0.16677117
139	0xbe5eb39c	-0.21748203
140	0x3ed73716	0.42034215
141	0x3de98412	0.114021435
142	0xbeaa0dde	-0.33213705
143	0xbdd8d596	-0.10587613
144	0xbcf66cc1	-0.030081155
145	0xbebe625b	-0.37184414
146	0x3da8d081	0.08242894
147	0xbc09e501	-0.008416415
148	0x3da1ba97	0.07896917
149	0xbdbeb288	-0.09311396
150	0xbd6a1f23	-0.0571586
151	0x3df9cb29	0.12196953
152	0x3e99008c	0.2988323
153	0xbf256e7b	-0.64621705
154	0xbd802f0f	-0.06258976
155	0xbed77e46	-0.42088526
156	0x3dc1bb8b	0.09459599
157	0xbe8eb98a	-0.2787593
158	0xbede875b	-0.43462643
159	0xbe4d643b	-0.20057766
160	0xbdcb010e	-0.099123105
161	0xbde4a939	-0.11165089
162	0x3dbd1550	0.09232581
163	0xbe2c58b2	-0.1683071
164	0xbdd7cc3b	-0.10537001
165	0x3d64a25a	0.055818893
166	0xbe3fd9e6	-0.18735465
167	0xbd564f10	-0.052321494
168	0x3cebf1e8	0.028801873
169	0xbdd8ea5d	-0.10591576
170	0xbdcc81c0	-0.09985685
171	0x3dc69272	0.09695901
172	0x3e051973	0.1299799
173	0x3e611766	0.21981582
174	0x3e21b578	0.15791881
175	0x3da75bbb	0.08171793
176	0xbe9a8f9a	-0.30187684
177	0xbe72168d	-0.23641415
178	0xbf196533	-0.5992004
179	0xbc4bfe0a	-0.012450704
180	0x3dbab627	0.09116774
181	0xbe7bd2ab	-0.24592082
182	0xbeabe5c4	-0.33573735
183	0x3e927229	0.28602722
184	0xbea3fcd0	-0.32028818
185	0xbd0c1cd3	-0.034207176
186	0x3e022d51	0.127126
187	0xbecd7155	-0.40125528
188	0x3c1f9aaa	0.009741465
189	0xbe6c5d34	-0.23082429
190	0x3e205490	0.15657258
191	0x3e1c75cb	0.1527931
192	0x3d37da7a	0.04488609
193	0x3d37fa2d	0.04491632
194	0x3d55ae65	0.05216827
195	0xbe9b7622	-0.30363566
196	0xbe271919	-0.16318168
197	0x3d30bbc8	0.043147832
198	0x3dfc8251	0.123295434
199	0xbcd486ec	-0.025943242
200	0x3c869d8d	0.016432548
201	0xbe91653e	-0.28397554
202	0x3e0ec49b	0.13942187
203	0x3e088ad1	0.13334204
204	0xbe7068dc	-0.234775
205	0xbe554005	-0.20825203
206	0x3dcd783f	0.10032701
207	0x3b5a3890	0.0033297874
208	0xbebc94cd	-0.36832276
209	0x3e291f80	0.16515923
210	0xbead59a8	-0.33857465
211	0x3ddca6a4	0.10773972
212	0x3dc7108a	0.097199515
213	0x3e8831ae	0.26600403
214	0x3e56590a	0.20932403
215	0xbd7efec9	-0.0622547
216	0xbe0ce05f	-0.13757466
217	0x3dad1af1	0.08452404
218	0x3e3c7aa7	0.18406163
219	0x3ea971b2	0.33094555
220	0x3e8a7a72	0.27046543
221	0x3e0b9f1d	0.13634916
222	0xbda4351c	-0.08017942
223	0x3ee7e1b0	0.45289373
224	0x3e077d60	0.1323142
225	0xbdc3228f	-0.09528076
226	0x3e39d17e	0.18146321
227	0x3ddb525f	0.107090704
228	0x3ec1c5f6	0.37846345
229	0xbb9e006d	-0.004821828
230	0xbdb857fd	-0.090011574
231	0xbe1f5c66	-0.15562591
232	0x3bb3a696	0.005482505
233	0xbd0f2256	-0.034944855
234	0xbe697c24	-0.22801262
235	0x3d2f3d2e	0.042782955
236	0x3e3fb3d4	0.18720943
237	0x3dba6d33	0.09102859
238	0x3e15e014	0.1463626
239	0xbc91e065	-0.017807195
240	0xbde3234d	-0.110907175
241	0xbe39f16b	-0.181585
242	0x3e678994	0.22611076
243	0x3e0efa6d	0.13962717
244	0x3d5ec685	0.05438854
245	0xbe29f3ae	-0.16596863
246	0xbc22af49	-0.009929487
247	0x3ea97971	0.33100465
248	0x3d9bd015	0.07608048
249	0xbf1291e5	-0.5725387
250	0x3ded77c4	0.11595109
251	0xbeafca57	-0.3433406
252	0xbd671e8f	-0.056425627
253	0x3d2aaa4e	0.04166632
254	0xbac72c96	-0.0015195783
255	0x3e94a6ac	0.2903341

gnn_layers.1.lin_l.bias f4 [32]
0	0xbd910402	-0.070808426
1	0x3e04f5f9	0.12984456
2	0x3d4be253	0.049776386
3	0xbe3f9b6c	-0.18711632
4	0x3e392a24	0.18082482
5	0x3d4b7c91	0.049679343
6	0xbcbf4183	-0.023346668
7	0x3e9834e3	0.2972785
8	0xbd28edb1	-0.041242305
9	0xbd9e877c	-0.07740685
10	0x3c514660	0.012773126
11	0xbce20930	-0.027592272
12	0x3e300dde	0.1719279
13	0x3b296340	0.002584651
14	0xbe08bf5b	-0.13354246
15	0xbe40caaa	-0.1882731
16	0xbdbef611	-0.09324277
17	0x3d883d20	0.06652284
18	0x3de6086e	0.112320766
19	0xbd0bd6eb	-0.03414051
20	0xbe11efd5	-0.14251645
21	0x3d8be3b6	0.06830542
22	0x3d00dee5	0.03146257
23	0x3e17631d	0.14783902
24	0xbc4dd0da	-0.012562001
25	0xbe4fd0ec	-0.20294541
26	0xbe41fcef	-0.18944143
27	0xbbf2fac4	-0.0074151475
28	0xbbddab89	-0.0067648333
29	0xbdba38b2	-0.09092845
30	0x3b55b775	0.003261057
31	0xbe067f7f	-0.13134573
