baseline/DLPL-CAP/models_dlpl-cap-classifier/sandwich+ultra8t_to_ssram+digtime+timing_ctrl+array_128_32_8t/dlpl-cap-classifier_nh_2_tsk_regression_ngl_4_nhl_4_hd_32_us_1_bn_0_dp_0.0_epoch_7_20250402_141815.pth (torch, 63106 bytes, 24 tensors)

net_attr_layers.weight f4 [16, 17]
0	0x3d2e8d8b	0.042615455
1	0x3d7db50e	0.061940245
2	0xbe5ce00b	-0.2156984
3	0x3e6424a0	0.22279596
4	0xbeccdefd	-0.40013877
5	0xbdd24564	-0.102671415
6	0xbdf1d3c3	-0.118079685
7	0x3e11daff	0.14243697
8	0x3e5aefd8	0.21380556
9	0xbe363389	-0.17793097
10	0x3e57ded9	0.21081103
11	0x3d39edcc	0.045392796
12	0x3e377ceb	0.17918746
13	0x3d068a4d	0.032846738
14	0x3def8253	0.11694779
15	0xbea7899e	-0.3272218
16	0xbf06e47f	-0.5269241
17	0x3de8f3b6	0.11374609
18	0x3c16b490	0.009198323
19	0xbcdc4bb7	-0.026891572
20	0xbde4da96	-0.111745045
21	0xbda45928	-0.08024818
22	0x3cd787be	0.026309844
23	0x3e24c0a2	0.16089109
24	0xbe440b92	-0.19145039
25	0xbde4fd64	-0.11181143
26	0xbd8c425a	-0.06848593
27	0xbe155475	-0.14582999
28	0x3cbb8678	0.022891268
29	0xbe754be8	-0.23954737
30	0x3e604b01	0.21903612
31	0xbe52f88f	-0.2060263
32	0x3e36c3b3	0.17848091
33	0x3f1bbbbf	0.6083335
34	0xbe5c4e5a	-0.21514264
35	0xbc669f36	-0.014076045
36	0x3b9869df	0.0046512927
37	0x3e48a9b6	0.1959599
38	0xbe08b649	-0.13350786
39	0xbe7d3bf4	-0.24729902
40	0x3d85756b	0.06516536
41	0xbd86b2c6	-0.06577067
42	0x3dd10b9f	0.10207295
43	0x3e5dbcf8	0.21654117
44	0x3e0f9099	0.14020003
45	0xbdd92636	-0.10602991
46	0x3e0f5e0f	0.14000724
47	0x3d31bffd	0.043395985
48	0x3dfc3f8c	0.12316808
49	0xbe632e14	-0.22185546
50	0xbf980edf	-1.1879538
51	0x3ceba66e	0.028765883
52	0x3c0775d5	0.008267839
53	0x3d94291e	0.07234405
54	0x3d8f11a3	0.06985786
55	0x3da7329c	0.0816395
56	0x3e8f18b9	0.2794855
57	0xbb8a40bd	-0.004219143
58	0x3e425da7	0.18981038
59	0xbe3075ed	-0.17232485
60	0x3c7a32fd	0.015270946
61	0xbe298366	-0.16554031
62	0x3d992995	0.07478634
63	0xbdab0f24	-0.08352497
64	0x3d983370	0.07431686
65	0xbd4ef8c9	-0.05053023
66	0x3e5446d8	0.2073015
67	0x3ec499b6	0.38398522
68	0xbe3c9183	-0.18414883
69	0xbe05c0fe	-0.13061902
70	0x398ea016	0.00027203624
71	0x3da587b8	0.08082527
72	0x3d66408a	0.056213893
73	0xbe3985e5	-0.18117483
74	0xbe7656bf	-0.24056529
75	0xbe424e1c	-0.18975109
76	0xbe271113	-0.16315107
77	0x3dc9304e	0.098236665
78	0x3db1dc65	0.08684615
79	0x3e4e5d8e	0.20152876
80	0xbe0041f1	-0.12525155
81	0xbe294ebb	-0.1653394
82	0x3e03c5c4	0.1286841
83	0xbe904edc	-0.28185165
84	0x3f3094d1	0.68977076
85	0xbe99a0ab	-0.30005392
86	0xbe12cb44	-0.14335352
87	0xbe988623	-0.29789838
88	0xbdfaaa84	-0.122395545
89	0x3d27f56c	0.041005537
90	0xbe487650	-0.19576383
91	0xbd7d485a	-0.061836578
92	0x3e1409a7	0.14456807
93	0x3e28d5c4	0.16487795
94	0xbe3419fc	-0.17588037
95	0xbe0496f2	-0.12948206
96	0x3e63691b	0.22208063
97	0xbda79b6b	-0.081839405
98	0xbdb017c7	-0.08598285
99	0xbe704ef3	-0.23467617
100	0xbe8be2a8	-0.27321362
101	0xbf31741a	-0.6931778
102	0x3e8f2ac8	0.27962327
103	0x3e1bf127	0.15228711
104	0x3e4ef667	0.20211183
105	0xbe29a5d1	-0.1656716
106	0x3ec05ac1	0.3756924
107	0x3e7add80	0.24498558
108	0xbe595d56	-0.21227011
109	0xbe1e2355	-0.15443166
110	0x3e784264	0.24244076
111	0x3d3ba21e	0.045808904
112	0x3d991122	0.07473971
113	0xbe67a360	-0.22620916
114	0xbe231d31	-0.15929104
115	0xbda55574	-0.080729395
116	0x3d1b57d7	0.037925567
117	0xbe9185fc	-0.28422534
118	0x3e12e04b	0.14343373
119	0xbd26862b	-0.040655296
120	0x3d62cc1e	0.055370443
121	0x3e56fc2a	0.2099463
122	0xbc89ae30	-0.016806692
123	0xbe7e4cec	-0.24834031
124	0xbe1ec227	-0.1550375
125	0xbe10e441	-0.14149572
126	0xbdaa0609	-0.08301932
127	0xbe4405e5	-0.19142874
128	0x3e503d4b	0.20335881
129	0xbd4528c9	-0.0481346
130	0x3e55af63	0.20867686
131	0x3d9ac451	0.07556976
132	0xbe524eb9	-0.20537843
133	0x3e2bdf16	0.1678432
134	0x3e65ff9e	0.22460791
135	0xbe41f1ae	-0.1893985
136	0xbe9fce25	-0.31211963
137	0xbeb9f787	-0.3632166
138	0xbc99f048	-0.018791333
139	0xbd5901ff	-0.05298042
140	0x3d3bb3d5	0.045825798
141	0xbe98656f	-0.29764888
142	0x3e386318	0.18006551
143	0xbe364e97	-0.17803417
144	0xbd2b89c6	-0.041879438
145	0x3d4f7f1f	0.05065834
146	0x3e0036e8	0.12520945
147	0x3e488031	0.19580151
148	0x3e623e1d	0.22094007
149	0xbe44ed67	-0.19231187
150	0x3d7a0345	0.061038274
151	0xbe7a03ac	-0.24415463
152	0xbf763718	-0.96177816
153	0xbcd8a599	-0.02644615
154	0x3ed936c4	0.42424595
155	0xbe55e290	-0.20887208
156	0x3e04bc03	0.12962346
157	0x3e8d2fe3	0.27575597
158	0x3e9a7149	0.30164555
159	0xbe0645e2	-0.13112596
160	0x3e61be77	0.22045313
161	0x3d5a4e45	0.0532973
162	0x3cff96b7	0.031199796
163	0xbe5add87	-0.21373568
164	0x3dd083ae	0.10181366
165	0xbd1508cb	-0.03638534
166	0xbde38e67	-0.111111455
167	0x3e55532f	0.20832513
168	0x3e26e32e	0.162976
169	0x3f1b4027	0.60644764
170	0x3ce187db	0.027530601
171	0x3e0624a3	0.13099913
172	0x3e9f733d	0.31142607
173	0xbd7dda9a	-0.061976053
174	0x3e67b62d	0.22628088
175	0x3d962f6b	0.07333263
176	0xbe398a77	-0.18119226
177	0x3db124db	0.08649608
178	0x3e403ce7	0.18773232
179	0xbe69d014	-0.22833282
180	0x3d66b94e	0.056329064
181	0x3e004c86	0.12529191
182	0x3d342326	0.043978833
183	0xbdb0e448	-0.08637291
184	0x3e01a0b2	0.12658957
185	0x3ec7b8b4	0.39008105
186	0x3f205f4d	0.6264542
187	0x3dcf832f	0.10132443
188	0x3d43bf34	0.047789767
189	0x3e9558c1	0.29169276
190	0xbd2f7e25	-0.04284491
191	0x3f22b0e2	0.6355115
192	0x3ea7ea0c	0.3279575
193	0x3e556ffc	0.208435
194	0xbcc4b16d	-0.024010384
195	0xbd5e6cc9	-0.054302964
196	0x3b67f116	0.00353915
197	0xbc6d4349	-0.014481374
198	0x3d6ed4af	0.0583083
199	0x3d8b3217	0.06796663
200	0xbe61924b	-0.22028463
201	0xbdb74e4b	-0.0895048
202	0x3ea499a3	0.32148466
203	0xbe860df7	-0.2618253
204	0xbdac158e	-0.08402549
205	0xbe53907b	-0.20660584
206	0xbe84d776	-0.25945634
207	0xbe5e7831	-0.21725537
208	0x3d91d741	0.071211345
209	0x3da10801	0.07862855
210	0x3e1e5b83	0.15464596
211	0x3de554c0	0.111978054
212	0xbe5b8881	-0.21438791
213	0xbe155a2e	-0.14585182
214	0xbd1cc776	-0.03827616
215	0x3e703f5d	0.23461671
216	0x3d0fb4dd	0.035084594
217	0xbd80a256	-0.06280963
218	0x3dcd7f6b	0.10034069
219	0xbe28574f	-0.16439556
220	0xbf3a209c	-0.7270601
221	0xbe3ecc21	-0.18632556
222	0xbed1c810	-0.40972948
223	0xbf1472b2	-0.5798751
224	0xbe7710eb	-0.24127547
225	0xbeb965cf	-0.36210486
226	0xbdece2a4	-0.11566666
227	0x3db506b1	0.08839167
228	0xbe2d2c2d	-0.16911383
229	0xbe751ce8	-0.23936808
230	0xbe49b5bc	-0.19698232
231	0x3e393311	0.18085887
232	0x3dee7989	0.11644275
233	0x3e50fe3b	0.20409481
234	0x3e021b42	0.1270571
235	0x3d7b6da6	0.061383866
236	0xbddc85ae	-0.10767685
237	0x3dfac748	0.12245041
238	0xbeaa781f	-0.3329477
239	0xbea0c525	-0.3140041
240	0xbe35436a	-0.17701498
241	0xbdf3dec3	-0.11907723
242	0xbeb694b7	-0.35660335
243	0xbe664305	-0.22486503
244	0xbd35068e	-0.044195704
245	0xbe2ecd4d	-0.17070504
246	0xbe2247af	-0.15847658
247	0x3da4c3db	0.08045169
248	0xbd939f0d	-0.07208071
249	0x3e195239	0.14972772
250	0xbd9f5991	-0.07780755
251	0xbe362fa9	-0.17791618
252	0xbd2f476d	-0.042792726
253	0xbed766cb	-0.42070612
254	0xbf34c502	-0.7061311
255	0xbee38f94	-0.4444548

net_attr_layers.bias f4 [16]
0	0x3df787f9	0.120864816
1	0x3db42a37	0.08797114
2	0x3e5b290e	0.2140238
3	0x3b64607e	0.0034847553
4	0xbe4a0aca	-0.19730678
5	0x3dd6eb6f	0.10494124
6	0x3e1ba3a7	0.15199147
7	0xbe784b3d	-0.24247451
8	0x3d4867e8	0.048927218
9	0xbdbfb01a	-0.093597606
10	0xbbea1e6e	-0.007144741
11	0xbd405538	-0.04695627
12	0xbcf17c35	-0.029478172
13	0xbdf19562	-0.11796071
14	0xbe4dec58	-0.20109689
15	0x3e54683c	0.20742887

dev_attr_layers.weight f4 [16, 17]
0	0x3e823710	0.25432634
1	0xbf9807b6	-1.1877353
2	0x3f8daffb	1.106933
3	0xbfbcadf5	-1.4740587
4	0xbfa71d9a	-1.3055909
5	0xbe71afcd	-0.23602219
6	0x3db89b89	0.09014041
7	0xbe085bf3	-0.13316326
8	0xbe1fa9a4	-0.15592057
9	0xbc9b0541	-0.018923404
10	0xbda56934	-0.080767065
11	0xbda0b26c	-0.07846531
12	0x3bff5c15	0.0077929595
13	0xbd52b7cd	-0.051444817
14	0xbd6ac811	-0.057319704
15	0xbf822220	-1.0166664
16	0xbe4a1e8b	-0.19738214
17	0x3e45369c	0.19259113
18	0x3fa9fb1d	1.3279759
19	0xbfa2d066	-1.2719848
20	0x3faadfc4	1.3349538
21	0x3f8cf9ba	1.101371
22	0x3e678af8	0.22611606
23	0x3de4d8d0	0.11174166
24	0xbe5739c4	-0.2101813
25	0x3dc52592	0.096263066
26	0x3e6bc028	0.2302252
27	0x3d82ad49	0.06380708
28	0x3e26811b	0.16260187
29	0x3e74d9ff	0.23911284
30	0xbd1838be	-0.03716349
31	0x3d3ac7f3	0.045600843
32	0xbf2a25db	-0.6646401
33	0xbd4cb8ea	-0.049981035
34	0x3e25a0e7	0.1617466
35	0xbfcb6f12	-1.5893271
36	0x3f8f34b0	1.1187954
37	0xbff49f9b	-1.9111208
38	0xbfbf4b1e	-1.4944799
39	0xbe7518f3	-0.23935299
40	0xbe3fa43c	-0.18714994
41	0xbd75abf1	-0.05997843
42	0x3e279c30	0.16368175
43	0x3d264828	0.040596157
44	0xbe3ce6bb	-0.18447392
45	0xbe473ccd	-0.19456787
46	0x3df71a37	0.12065547
47	0xbe38bce1	-0.18040802
48	0xbd5fd1e3	-0.054643523
49	0x3de91b80	0.11382198
50	0xbde5e27f	-0.11224841
51	0xbda1672f	-0.07881009
52	0x3fa53779	1.2907554
53	0xbfd330d8	-1.6499281
54	0x3fafb028	1.3725634
55	0x3f714085	0.94239074
56	0xbe48c2bd	-0.19605537
57	0xbe04fc41	-0.12986852
58	0x3e6fdf3f	0.23425005
59	0xbdefeb6f	-0.11714827
60	0xbe26c740	-0.16286945
61	0x3d70ccfa	0.05878923
62	0x3d88e633	0.06684532
63	0x3e0813b2	0.13288763
64	0x3e3cc7e4	0.18435627
65	0x3ddf6972	0.10908784
66	0xbd745b41	-0.05965734
67	0x3cb0360d	0.021510148
68	0x3e0a75e7	0.13521539
69	0x3f9d4426	1.2286422
70	0xbfb78c7c	-1.4339747
71	0x3fad6b22	1.3548319
72	0x3f4375eb	0.76351804
73	0xbe0d6681	-0.13808633
74	0xbe5fe834	-0.21865922
75	0x3c317fa8	0.010833658
76	0x3ddc1c26	0.107475564
77	0x3d5be856	0.05368837
78	0x3d447320	0.047961354
79	0xbe3c59b6	-0.18393597
80	0xbe67efdc	-0.22650093
81	0x3b8bf2e0	0.0042708963
82	0x3e53a544	0.20668513
83	0xbed55514	-0.41666472
84	0xbe109a06	-0.14121255
85	0x3c852dd3	0.016257202
86	0xc003dadf	-2.0602338
87	0x3f4a7a0b	0.7909247
88	0xbfe441be	-1.7832563
89	0xbfa1d504	-1.2643132
90	0x3e4dbb1a	0.20090905
91	0xbe640481	-0.22267343
92	0x3e260e0f	0.162163
93	0xbe2f29f3	-0.17105846
94	0x3dba00b3	0.090821646
95	0x3e522ba6	0.20524463
96	0x3b5f3374	0.0034057768
97	0x3e61f4fb	0.22066109
98	0xbe539ccd	-0.20665284
99	0xbd18a656	-0.037268005
100	0x3e3bcc4a	0.18339649
101	0xbd586f81	-0.052840713
102	0xbd5a4c66	-0.053295515
103	0x3ebd52b6	0.36977166
104	0xbfc024ca	-1.5011227
105	0x3f92478e	1.1428087
106	0x3f614095	0.8798917
107	0xbe0b913c	-0.13629621
108	0xbe499a70	-0.1968782
109	0x3cd6e62c	0.026232801
110	0x3d932a60	0.07185817
111	0xbde55699	-0.11198158
112	0xbd8afaa8	-0.0678609
113	0x3e27bb61	0.16380073
114	0x3c9e45a3	0.019320315
115	0x3c334971	0.010942803
116	0xbc1ed62b	-0.009694616
117	0x3ef9227b	0.4865912
118	0xbe6984df	-0.22804593
119	0xbd46f896	-0.048576914
120	0x3e5118dd	0.20419641
121	0x3fcfd403	1.6236576
122	0xbf1644cc	-0.58698726
123	0xbf000461	-0.5000668
124	0x3e6cca5c	0.23124069
125	0x3dad0438	0.0844807
126	0x3e310dcd	0.17290421
127	0xbdf0770f	-0.117414586
128	0xbdcae409	-0.099067755
129	0x3db68fe7	0.08914166
130	0xbe257947	-0.16159545
131	0xbe225a05	-0.15854652
132	0xbc3fedb7	-0.0117143905
133	0xbdc48c24	-0.09597042
134	0xbf520d51	-0.8205157
135	0x3e13509b	0.14386217
136	0x3e47429b	0.19459002
137	0xc004ee3a	-2.0770402
138	0x3f5ec1db	0.8701455
139	0xc007e517	-2.1233575
140	0xbfbd3e9e	-1.4784734
141	0x3d7ce976	0.061746083
142	0x3dea372c	0.114363045
143	0xbcfb2c41	-0.03066075
144	0xbdc4607b	-0.09588715
145	0x3e0a6405	0.13514717
146	0xbe45ca81	-0.1931553
147	0x3e1cf73c	0.15328687
148	0xbdc0b3c3	-0.09409287
149	0x3b7346c8	0.0037121046
150	0xbd12aaba	-0.03580735
151	0x3ed16a96	0.4090163
152	0xbd961b1a	-0.07329388
153	0x3e0be886	0.1366292
154	0x3f9f693b	1.2453989
155	0xbfa37afb	-1.2771906
156	0x3fd3bfc8	1.6542902
157	0x3f802858	1.0012312
158	0xbe352da6	-0.17693195
159	0x3e4741c4	0.19458681
160	0x3e429d97	0.19005428
161	0xbe3da1c5	-0.18518741
162	0xbc999716	-0.018748801
163	0xbe74e92e	-0.23917076
164	0xbe4b4dec	-0.19853944
165	0x3d3fdf70	0.046843946
166	0x3d842491	0.06452287
167	0x3d0a40eb	0.033753317
168	0x3ef7efed	0.48425236
169	0x3e6520cf	0.22375797
170	0xbda1afe3	-0.07894876
171	0x3f4206fb	0.757919
172	0xbf87b42d	-1.060186
173	0x3f99609d	1.1982609
174	0x3f7439c0	0.9540062
175	0xbe2f9bad	-0.1714923
176	0x3dba29b0	0.090899825
177	0xbdfdc2f4	-0.123907
178	0xbe4e5e92	-0.20153263
179	0xbe07a776	-0.13247475
180	0x3e6f846e	0.23390362
181	0x3e544f3a	0.20733348
182	0x3e5e663d	0.21718688
183	0x3e11c9bd	0.14237113
184	0x3dc24d55	0.09487406
185	0x3f4939e4	0.7860396
186	0xbe08a715	-0.13344987
187	0x3d51fb46	0.051265024
188	0xbfb95140	-1.447792
189	0x3e9b7082	0.30359274
190	0xbf4864ae	-0.78278625
191	0xbf009144	-0.5022166
192	0x3dffb4c6	0.12485652
193	0xbdc0ed84	-0.094203025
194	0xbe122c9c	-0.1427483
195	0x3d06019a	0.03271637
196	0xbe1263ba	-0.14295855
197	0xbe21b200	-0.15790558
198	0x3e0174cf	0.12642215
199	0xbd26e159	-0.040742252
200	0x3e62f1c5	0.2216254
201	0x3e58d78a	0.21175972
202	0x3f5cf363	0.8630888
203	0x3daaf295	0.0834705
204	0x3da99a1f	0.082813494
205	0xbfaee392	-1.3663199
206	0x3ec1bc1b	0.37838826
207	0xbf229bc0	-0.63518906
208	0xbeb6323d	-0.35585204
209	0x3e66ea24	0.22550255
210	0xbd80ba49	-0.06285531
211	0xbdd1f7e9	-0.10252363
212	0xbd7092a5	-0.0587336
213	0xbdeff95d	-0.11717484
214	0x3d28ebbd	0.041240443
215	0x3e3962a3	0.18104033
216	0x3e42358b	0.18965738
217	0x3de40db8	0.11135429
218	0xbdc2fb45	-0.09520582
219	0x3ef32e75	0.4749638
220	0xbd5a445b	-0.053287845
221	0xbd70ecb2	-0.05881948
222	0x3e1c2b09	0.15250792
223	0xc01a1db9	-2.4080641
224	0x3f2cee2f	0.6755094
225	0x3eb91665	0.36149898
226	0xbe1d2570	-0.15346313
227	0xbe4e7aaf	-0.20163988
228	0x3e5865db	0.21132605
229	0xbe6b2dbb	-0.22966664
230	0x3e3b5a14	0.18296081
231	0xbc059567	-0.008153296
232	0xbce71187	-0.0282066
233	0x3e1b5776	0.15170082
234	0xbcb7a3d5	-0.022416988
235	0x3e4365a5	0.19081743
236	0xbeb93395	-0.36172166
237	0xbe57a027	-0.21057187
238	0x3e424cda	0.18974629
239	0xbf937b08	-1.1521921
240	0x3d1afacc	0.037836835
241	0xbf51b035	-0.81909496
242	0xbefee0f4	-0.49781
243	0xbdeef3be	-0.11667584
244	0xbcfe3338	-0.031030282
245	0x3e6bf7ec	0.23043793
246	0x3e26dbb1	0.16294743
247	0xbc154930	-0.009111688
248	0xbe699642	-0.22811225
249	0x3c2e2898	0.0106297955
250	0xbe291fcb	-0.16516034
251	0x3e49f61d	0.19722791
252	0xbc5d7920	-0.013517648
253	0xbf2bd3eb	-0.67120236
254	0xbd5c7bcd	-0.053829003
255	0xbd4afc37	-0.049556937

dev_attr_layers.bias f4 [16]
0	0x3e5dc231	0.2165611
1	0x3e6063fd	0.21913143
2	0xbbaa97b0	-0.005206071
3	0xbe85ac03	-0.26107797
4	0xbe3a3f74	-0.18188268
5	0xbdd2cc68	-0.10292894
6	0xbe5f01ca	-0.21778026
7	0xbd5de20f	-0.054170664
8	0xbe650edc	-0.2236895
9	0xbe86eb2d	-0.263513
10	0xbe846abc	-0.25862682
11	0xbe9e5d3f	-0.30930516
12	0xbdf9b0b9	-0.1219191
13	0x3da0c1b8	0.07849449
14	0x3e98f52b	0.29874548
15	0xbe28ddf0	-0.16490912

pin_attr_layers.weight f4 [17, 16]
0	0xbf5c25eb	-0.8599536
1	0xbf99c962	-1.2014582
2	0x3e55aa8c	0.2086584
3	0xbf5db8fe	-0.866104
4	0xbfe3b2c0	-1.7788925
5	0xbe566301	-0.20936204
6	0xbf37051c	-0.7149217
7	0x401e2c50	2.4714546
8	0xbf02be37	-0.51071495
9	0xbfa96761	-1.3234674
10	0x3f3b6665	0.73203117
11	0xbd8c793b	-0.068590604
12	0xbee6d1fd	-0.45082083
13	0xbee14b7a	-0.44002897
14	0xbfbab046	-1.4585044
15	0xbf86bb5a	-1.0525925
16	0x3e8abae7	0.2709572
17	0x3d87504d	0.06607113
18	0x3f58db59	0.847097
19	0xbe38830b	-0.18018739
20	0xbf4cc669	-0.7999025
21	0x3eca11f3	0.3946682
22	0x3f765ed9	0.96238476
23	0xbfad64ad	-1.3546349
24	0x3f2c93fc	0.67413306
25	0xbfa038b8	-1.2517309
26	0xbd474840	-0.048652887
27	0x3f14c303	0.58110064
28	0x3f1595a8	0.5843148
29	0x3d8b68c1	0.068070896
30	0x3feefb72	1.8670485
31	0x3f31585c	0.6927545
32	0xbffa8291	-1.9571096
33	0x401db8ed	2.464412
34	0xbf857ef2	-1.0429366
35	0x3f5bc071	0.8584052
36	0xbe949cc0	-0.2902584
37	0xc01b7e12	-2.4295697
38	0x3f8a9b70	1.0828686
39	0x3e9c9842	0.30584913
40	0xbf765cf8	-0.9623561
41	0x3fe56d8e	1.7924058
42	0x3fccfafa	1.6014092
43	0xbe669d37	-0.2252091
44	0x3edce9f3	0.4314724
45	0x3effe8ea	0.49982387
46	0x3f241835	0.64099437
47	0x3f94d1c2	1.1626513
48	0xbed3dbc9	-0.4137862
49	0x3f04b671	0.51840883
50	0xbf3397ea	-0.7015368
51	0xbedd5bc9	-0.4323409
52	0x3e10df5c	0.14147705
53	0x3d919ec7	0.071103625
54	0x3f1037e8	0.56335306
55	0xbf142179	-0.57863575
56	0xbf8aba57	-1.0838116
57	0xbec7214f	-0.388926
58	0x3f50073f	0.81261057
59	0x3fbfc25b	1.4981188
60	0x3d33cc62	0.043896087
61	0x3fb8df96	1.4443233
62	0x3e6d98fd	0.23202892
63	0x3f01a9e0	0.50649834
64	0xbfa3ac55	-1.2786967
65	0xbd1d661f	-0.03842747
66	0x3ff4f76e	1.913801
67	0x3eacf9f8	0.3378446
68	0x3e000eb6	0.12505612
69	0xbf431c5c	-0.7621515
70	0xbf986445	-1.19056
71	0x3f468e34	0.77560735
72	0x3ee9541f	0.45571992
73	0x3e802b4c	0.25033033
74	0xbfae386e	-1.3610971
75	0x3fe6a280	1.8018341
76	0xbd984097	-0.074341945
77	0xbe2066a5	-0.15664156
78	0xbf5eefbb	-0.8708455
79	0xbf241ef3	-0.64109725
80	0xbed44195	-0.41456285
81	0xbf30b371	-0.69023806
82	0xbe6b79a3	-0.2299562
83	0xc00b06b3	-2.172284
84	0x3db39345	0.08768324
85	0x3f8c0122	1.0937846
86	0xbdf1177d	-0.11772058
87	0xbe98e7c4	-0.29864323
88	0xbf74207b	-0.9536206
89	0xbdbd625e	-0.09247278
90	0xbf8221bd	-1.0166546
91	0xbbfb845a	-0.0076756896
92	0xbf04aa1f	-0.51822084
93	0x3f56ec43	0.83954257
94	0x3d6fb577	0.058522668
95	0xbfd58927	-1.668248
96	0x40084bc6	2.1296248
97	0xbfc252a5	-1.5181471
98	0x3e0e0eca	0.13872829
99	0xbf970246	-1.1797569
100	0xbf079d1e	-0.52974117
101	0x3f76676f	0.9625158
102	0x3e8f1289	0.2794383
103	0xbf1262bd	-0.5718191
104	0xc032cad1	-2.793629
105	0xbf360e39	-0.7111545
106	0x3f060589	0.52352196
107	0xbfdaf34e	-1.7105501
108	0x3f56a6fa	0.83848536
109	0xbe8a292c	-0.26984537
110	0x3dfc07b6	0.12306158
111	0x3f60313a	0.87575114
112	0x3e1af63f	0.15132998
113	0x3f3d48e3	0.7393934
114	0x3e8bd42d	0.27310315
115	0x402ecc7d	2.731231
116	0x3edd2fca	0.43200523
117	0xbe9e4d20	-0.30918217
118	0xbdc5cc63	-0.09658124
119	0x3fc55dcd	1.5419251
120	0xbddeb595	-0.10874478
121	0xbed67aa1	-0.41890433
122	0x3fb81ec1	1.4384385
123	0xbf34f3a4	-0.70684266
124	0xbfa03ff2	-1.2519515
125	0x40419a65	3.0250485
126	0x3fac5237	1.346259
127	0x3f5b090f	0.855607
128	0x3ea4e10a	0.3220294
129	0x3ee46189	0.44605663
130	0x3fc2f054	1.5229592
131	0x3fa3e718	1.2804899
132	0xbdede585	-0.11616043
133	0x3faf6dbc	1.3705363
134	0xbef63d86	-0.48093814
135	0xbf7d8861	-0.9903622
136	0xbfae9d7e	-1.3641813
137	0x3c067100	0.008205652
138	0xbecfcce8	-0.4058602
139	0xbf3609bb	-0.711086
140	0xbeb2fc11	-0.34957936
141	0x3ec26e70	0.37974882
142	0x3f7fd264	0.99930406
143	0x3fa33946	1.2751853
144	0x3f75a151	0.95949274
145	0x3dd3fd0d	0.10351
146	0x3f543ba3	0.829035
147	0x4005e573	2.0921295
148	0x3f4b9968	0.79530954
149	0x3e8efe6a	0.27928478
150	0x3e3eec2f	0.18644784
151	0x3eb59cfb	0.3547133
152	0x3db9a0ae	0.0906385
153	0x3fdf0239	1.7422553
154	0xbfa20c54	-1.2660012
155	0x3ec74016	0.3891608
156	0x3eaf8d52	0.34287506
157	0xbfbac29a	-1.4590638
158	0xbfbf3020	-1.4936562
159	0xbe62b2ce	-0.22138521
160	0x3e66a405	0.22523506
161	0xbd9e32d3	-0.07724538
162	0x3f7c567a	0.9856945
163	0x3fa3a087	1.2783364
164	0x3e9388a5	0.2881519
165	0x3f5e7a09	0.8690496
166	0xbf4f48e1	-0.8097058
167	0xbfb705ab	-1.4298605
168	0x3eeb0424	0.45901597
169	0x3f07eb37	0.53093284
170	0xbfae44fc	-1.3614802
171	0x3ffa665f	1.9562491
172	0x3fe25de0	1.7684898
173	0xbf7c5d4b	-0.98579854
174	0xbf9e5880	-1.2370758
175	0xc01351ec	-2.301875
176	0xba84365c	-0.0010087001
177	0xbf5973f6	-0.8494257
178	0xbfd466f6	-1.6593921
179	0x3e9cd21f	0.3062906
180	0x3f974d3c	1.1820445
181	0x3ea6ed01	0.32602695
182	0xbec76598	-0.38944697
183	0x4036ae2c	2.8543806
184	0x3f530997	0.8243651
185	0x3f4c6079	0.79834706
186	0x3ff1cb7b	1.8890222
187	0x3f17ed2e	0.5934628
188	0x3d8ea6fd	0.06965444
189	0xbfcd3d52	-1.6034338
190	0xbedc119b	-0.42982182
191	0x3f137f24	0.57615876
192	0x3eb0505e	0.34436315
193	0xc04680b6	-3.101606
194	0xbfbab76c	-1.4587226
195	0xbfb74611	-1.4318258
196	0xbf1b6cab	-0.6071269
197	0xbe84fc5d	-0.25973788
198	0xbf38119a	-0.7190186
199	0xbec58ba3	-0.38583097
200	0x3f05fa6e	0.5233525
201	0xbf5238a5	-0.8211768
202	0xbef115bb	-0.47086892
203	0x3f1a053b	0.6016423
204	0xbe90a551	-0.28251126
205	0x3f44eebf	0.769268
206	0xbf445310	-0.76689243
207	0xbf73118f	-0.9494867
208	0x3c8a965b	0.016917398
209	0x3da4687b	0.080277406
210	0x3f3eadeb	0.7448413
211	0x3fac38da	1.345485
212	0x3e01dd99	0.12682189
213	0xc01ceebe	-2.4520717
214	0x3ed4fad3	0.41597614
215	0x3ff3864a	1.9025357
216	0xbf3c1355	-0.73467
217	0x3d36ea66	0.044657134
218	0xbfc2b40e	-1.5211198
219	0x3eb217c5	0.3478376
220	0x3f3d7c42	0.7401773
221	0x3fb54607	1.4161996
222	0x3f2ef32b	0.68339795
223	0xbe0d91e3	-0.13825183
224	0x3f6bda49	0.9212995
225	0x3f073b06	0.5282444
226	0xbc06d05b	-0.008228387
227	0xbfb983b6	-1.449332
228	0xbf1aed3c	-0.6051824
229	0xbe378c08	-0.17924511
230	0x3e4c591e	0.1995587
231	0xbf9f834f	-1.2461947
232	0xbed4465f	-0.4145994
233	0x3fba59f3	1.45587
234	0x3ea9ce7a	0.33165342
235	0xbf80034e	-1.0001009
236	0xbf3123cc	-0.69195247
237	0xbef1a8c6	-0.47199076
238	0xbfa50c2f	-1.2894343
239	0x3f89c394	1.0762811
240	0xbf888b07	-1.0667428
241	0xbffea2c8	-1.9893427
242	0x3e98396a	0.29731303
243	0x3ede7155	0.4344584
244	0x3b5e6278	0.0033933204
245	0xbf8312e9	-1.0240146
246	0x3e656cbd	0.22404762
247	0xbf41670a	-0.7554785
248	0x3faf0ce5	1.367581
249	0xbea3b46a	-0.31973583
250	0xbf69c06d	-0.91309243
251	0x3ff5a8a7	1.9192094
252	0xbfd363ed	-1.651487
253	0x40097455	2.1477253
254	0xbf2910db	-0.66041344
255	0x3de8803c	0.11352584

node_encoder.weight f4 [4, 16]
0	0x3f5413fb	0.8284299
1	0xbef06729	-0.46953705
2	0x3fc8254b	1.5636381
3	0x3f6f0696	0.93369424
4	0xbe5101b2	-0.20410803
5	0x3f6f2b3f	0.93425363
6	0x3ee6256b	0.44950423
7	0x3dd7ba80	0.10533619
8	0xbf7bbf62	-0.983389
9	0xc00281c5	-2.0391705
10	0xbeecd489	-0.462559
11	0xbeb6f98f	-0.35737273
12	0x3daf31ba	0.085544065
13	0x3f871a2c	1.0554862
14	0x3c8d1169	0.017220216
15	0x3facfdcc	1.3514953
16	0xbf2fa9d9	-0.6861854
17	0xbffa2506	-1.9542549
18	0xbfd1a6ca	-1.6379025
19	0xbf3cd2ee	-0.73759353
20	0x3ee6fdc2	0.45115477
21	0xbeb74088	-0.3579142
22	0x3db96cff	0.090539925
23	0xc00e9912	-2.2280927
24	0xbec62249	-0.38698032
25	0xbec9b3d2	-0.39395005
26	0x3f8f0a87	1.1175088
27	0x3f926bf6	1.1439197
28	0xbf919c13	-1.1375755
29	0xbe838b40	-0.25692177
30	0xbf6ac28a	-0.91703093
31	0x3f8d33a3	1.1031383
32	0x3f87f4e1	1.0621606
33	0xbf87ca2a	-1.060857
34	0xbf5daf60	-0.86595726
35	0xbf2b8eb1	-0.67014605
36	0xbfaae81f	-1.3352088
37	0xbff51275	-1.9146258
38	0x3f7268ed	0.94691354
39	0xbe4a9835	-0.19784625
40	0x3f0c7014	0.5485852
41	0xbf18e681	-0.5972672
42	0xbd1d532d	-0.0384094
43	0x3f3c8113	0.7363445
44	0x3f2a2061	0.66455656
45	0xbe1c3dea	-0.15257993
46	0xbf9a948c	-1.2076583
47	0xbf33b21a	-0.70193636
48	0xbf360b38	-0.7111087
49	0xbec5f92e	-0.38666672
50	0x3f753471	0.95783144
51	0xbf529162	-0.82253087
52	0xc01902f3	-2.390805
53	0x3ea4fda7	0.3222477
54	0x3ff00cbd	1.8753887
55	0x3f8d59ab	1.104299
56	0xbf05ba6d	-0.5223759
57	0xbf3d7c76	-0.7401804
58	0x3e2640cd	0.16235657
59	0xbe72af80	-0.2369976
60	0x3f028b15	0.5099347
61	0x3fd5d709	1.6706249
62	0x3fcbca19	1.592105
63	0xbed51722	-0.4161921

gnn_layers.0.lin_l.weight f4 [32, 32]
0	0x3bda5443	0.006662877
1	0x3ca8888e	0.020572927
2	0x3d8eb92f	0.06968915
3	0xbe04c9ce	-0.12967607
4	0xbd98832d	-0.07446895
5	0x3dfa6461	0.12226177
6	0xbe63ee78	-0.22258937
7	0x3db67b87	0.0891028
8	0x3e1db8a7	0.1540247
9	0x3e2f2358	0.17103326
10	0x3d05a953	0.032632183
11	0xbe3b19f9	-0.18271627
12	0x3d7669af	0.06015938
13	0xbd8e80d7	-0.06958168
14	0x3c413177	0.0117915785
15	0x3de8f21c	0.11374304
16	0xbd035bf7	-0.032070126
17	0xbe30008c	-0.17187709
18	0xbe07c156	-0.13257346
19	0x3e155465	0.14582975
20	0xbbc883f3	-0.006119245
21	0x3e4e9c20	0.20176744
22	0x3c6438b6	0.013929537
23	0xbde099f8	-0.10966867
24	0x3d79421e	0.06085407
25	0x3e8100ac	0.25195825
26	0x3dbd22a0	0.0923512
27	0x3d7449e3	0.059640776
28	0xbddc862b	-0.10767778
29	0xbe02c68c	-0.12771052
30	0x3df75236	0.12076227
31	0xbdf1d8e3	-0.11808946
32	0xbcc8ba63	-0.024502939
33	0x3cb228c7	0.02174796
34	0x3d4fecd3	0.050762963
35	0x3c35e18c	0.011101138
36	0xbdbbf318	-0.09177226
37	0xbd6d979b	-0.05800591
38	0x3dc3bfb2	0.09558047
39	0x3d2ea475	0.042637307
40	0x3dfa3e8c	0.12218961
41	0xbd06d5c3	-0.032918703
42	0x3e09979f	0.13436745
43	0xbd8c5ec8	-0.068540156
44	0xbd8712bd	-0.06595371
45	0xbd45bd06	-0.04827597
46	0xbcab0c59	-0.020879911
47	0xbde81951	-0.11332954
48	0x3de09315	0.10965554
49	0xbe43480e	-0.19070455
50	0x3eaaef2f	0.33385608
51	0xbe0787e9	-0.1323544
52	0xbe28c2f4	-0.16480619
53	0x3eb70d49	0.35752323
54	0x3e14a842	0.1451731
55	0xbdf1912d	-0.11795268
56	0x3ef1cac8	0.47225022
57	0xbe813952	-0.25239044
58	0xbd19c074	-0.037537053
59	0x3f0b7422	0.5447408
60	0x3ea30795	0.31841722
61	0x3d71b268	0.059008032
62	0x3e40be3f	0.18822573
63	0x3e41a875	0.18911918
64	0x3ebae06b	0.36499342
65	0x3c1bfe70	0.009521112
66	0x3ea2622c	0.31715524
67	0x3efa029a	0.4883011
68	0xbe5a9735	-0.21346743
69	0x3ed90d0d	0.4239277
70	0xbd480927	-0.048836853
71	0x3e8a8bfa	0.2705992
72	0xbe02fcf4	-0.12791806
73	0xbe106063	-0.14099269
74	0xbe6a8610	-0.22902703
75	0xbee706f8	-0.45122504
76	0x3e9635ef	0.29338023
77	0x3e869ab8	0.26289916
78	0x3d620cea	0.055188097
79	0x3dd9aa12	0.106281415
80	0xbe4f3ece	-0.20238802
81	0x3c91d37f	0.017801045
82	0x3bfc89b7	0.0077068466
83	0x3dae7528	0.085184395
84	0x3d97d84f	0.074143045
85	0x3ee91fe2	0.45532137
86	0x3e204d55	0.156545
87	0xbdfc2758	-0.12312192
88	0x3d9b4e89	0.07583339
89	0x3de37120	0.11105561
90	0x3c369612	0.011144178
91	0x3c0afd81	0.008483292
92	0xbdbb66b0	-0.091504455
93	0x3dc94734	0.09828034
94	0xbdc1e216	-0.094669506
95	0x3ec45d0e	0.38352245
96	0xbd14cfb6	-0.0363309
97	0x3cbbc6ca	0.022921938
98	0x3d54d659	0.05196223
99	0xbdc44619	-0.095836826
100	0xbcfb1fbc	-0.03065478
101	0x3e023fef	0.12719701
102	0x3de7ff21	0.11327959
103	0xbdea7e0d	-0.114498235
104	0xbdffe7b0	-0.12495363
105	0x3df2aa40	0.11848879
106	0x3cde095a	0.027104069
107	0x3de63117	0.11239832
108	0xbc6ddfc3	-0.014518681
109	0x3b1d4871	0.0023999477
110	0xbe35a74f	-0.17739604
111	0xbd73fc4a	-0.059566773
112	0xbdef199c	-0.116748065
113	0x3ed0e2b3	0.40797958
114	0xbf279d6d	-0.6547459
115	0x3f1a8c01	0.6036988
116	0x3daa5245	0.08316473
117	0xbeb28bb1	-0.348722
118	0x3d8639a7	0.06553965
119	0xbd36276a	-0.044471182
120	0xbeebe088	-0.4606974
121	0x3ef8c41a	0.48587114
122	0x3d46777c	0.048453793
123	0xbea3c33a	-0.31984884
124	0xbeb9233f	-0.36159703
125	0x3edd372a	0.4320615
126	0xbe494d1e	-0.19658324
127	0x3d91ff4e	0.07128774
128	0x3b58fe1c	0.0033110445
129	0x3bce8a83	0.006303133
130	0x3d5b09c6	0.053476118
131	0xbca89954	-0.020580925
132	0x3dcc10e3	0.099641584
133	0xbd8de03c	-0.06927535
134	0xbd432b1e	-0.04764854
135	0xbcfb95f6	-0.030711155
136	0x3d2c3226	0.042040013
137	0x3e133b7e	0.14378163
138	0x3ec250bf	0.3795223
139	0x3e06773e	0.13131425
140	0x3e1f4cd7	0.15556656
141	0xbdc77be5	-0.09740428
142	0xbc7e96e9	-0.0155389095
143	0xbdcfa1c5	-0.10138277
144	0x3ecf57ba	0.40496618
145	0xbe9fc7bc	-0.31207073
146	0x3f3137c7	0.69225734
147	0xbe8900b8	-0.2675836
148	0xbe056411	-0.13026454
149	0x3e96627e	0.2937202
150	0xbd9d6c25	-0.076866426
151	0xbf266738	-0.6500125
152	0x3f53214a	0.8247267
153	0xbeb901b6	-0.36134118
154	0xbdf1d6b3	-0.11808529
155	0x3e9e37cb	0.30901942
156	0x3e712f1a	0.23553124
157	0xbe501a87	-0.2032262
158	0x3e9bcb44	0.30428517
159	0x3e127419	0.143021
160	0xbeee2aab	-0.46516928
161	0x3dd9f34b	0.106421076
162	0xbebac925	-0.36481586
163	0xbd5d48cb	-0.0540245
164	0x3e9001e8	0.28126454
165	0x3cc977a4	0.024593182
166	0x3dea762b	0.1144832
167	0xbe335ede	-0.17516658
168	0xbd3053fb	-0.04304884
169	0x3e0efe01	0.13964082
170	0x3d22ed32	0.03977699
171	0x3e64cad5	0.22343
172	0xbe763d0f	-0.2404673
173	0x3da93d45	0.08263639
174	0xbe1c0b8a	-0.15238777
175	0xbd450858	-0.04810366
176	0x3df601e4	0.12012079
177	0xbda20cbd	-0.07912586
178	0x3ded6261	0.1159103
179	0x3e12fee3	0.14355044
180	0x3e45af9e	0.19305274
181	0xbea53612	-0.32267815
182	0xbe5e2ed5	-0.21697553
183	0x3d0602c1	0.03271747
184	0xbbf2e7e6	-0.0074128984
185	0xbc20cf6b	-0.009815077
186	0x3c7121de	0.014717547
187	0xbf17fe7c	-0.5937269
188	0xbd40f011	-0.047103945
189	0xbd160ca0	-0.036633134
190	0x3e15a4f9	0.14613713
191	0x3c9f5f80	0.019454718
192	0x3e3ee30c	0.18641299
193	0x3d783132	0.06059379
194	0x3db1a774	0.08674517
195	0xbccc48a3	-0.02493698
196	0xbd8c9c37	-0.06865733
197	0xbdaf3352	-0.085547104
198	0xbe00384d	-0.12521477
199	0x3e926944	0.28595936
200	0xbd8e6f7c	-0.06954858
201	0x3d94d266	0.07266693
202	0xbefba18d	-0.4914669
203	0x3dcf3fd7	0.10119598
204	0x3e6ffaa9	0.23435463
205	0xbdb92bbd	-0.090415455
206	0x3e0e4af5	0.13895781
207	0xbd8710c6	-0.06594996
208	0xbdcb5a02	-0.09929277
209	0x3e37b00e	0.17938253
210	0x3e806abd	0.25081435
211	0x3eb19569	0.34684303
212	0xbe2900e1	-0.16504242
213	0x3e48f13f	0.19623278
214	0x3e979832	0.29608303
215	0xbdf2b655	-0.11851183
216	0x3ec09778	0.3761556
217	0xbdaabb36	-0.08336489
218	0x3df14b7e	0.11781977
219	0x3e9233cc	0.28555143
220	0x3e118994	0.14212638
221	0x3dc3ff08	0.09570128
222	0x3eb2dedf	0.34935662
223	0x3ebe2f00	0.37145233
224	0x3d9d7ab4	0.076894194
225	0x3e4603c7	0.19337378
226	0xbdab5102	-0.083650604
227	0xbc446cec	-0.01198886
228	0xbd29205b	-0.041290622
229	0x3ddfaf87	0.10922151
230	0x3b0b7ef2	0.0021285382
231	0xbd92e885	-0.07173256
232	0x3cff4f6a	0.031165797
233	0xbd973208	-0.073825896
234	0xbe463256	-0.19355139
235	0x3df0a38e	0.117499456
236	0xbdec4070	-0.11535728
237	0xbc11e73b	-0.008905227
238	0x3b2a4096	0.0025978438
239	0xbd851276	-0.06497662
240	0xbc2758a5	-0.010214006
241	0x3e0e1230	0.13874125
242	0xbe691602	-0.22762302
243	0x3e5b06c2	0.21389297
244	0x3e12cb2c	0.14335316
245	0x3d52935a	0.051410057
246	0xbe5eb58f	-0.21748947
247	0x3e0cc9d7	0.13748871
248	0xbeaad002	-0.33361822
249	0x3ba10331	0.0049137105
250	0xbd16655d	-0.03671776
251	0xbe233cff	-0.15941237
252	0xbd185390	-0.037189066
253	0xbdb93ad7	-0.09044426
254	0xbe603931	-0.21896817
255	0xbe855623	-0.2604228

gnn_layers.0.lin_l.bias f4 [32]
0	0x3cfb1944	0.030651696
1	0xbe5b84fa	-0.21437445
2	0x3ddfbb0a	0.10924347
3	0xbd0a47df	-0.033759948
4	0x3d17a24f	0.037020024
5	0x3e12fcf9	0.14354314
6	0xbe220f2b	-0.15826099
7	0xbc3741a1	-0.011185081
8	0xbe23a549	-0.1598102
9	0x3e06c103	0.13159566
10	0x3dd581eb	0.104251705
11	0x3dea8e7a	0.114529565
12	0xbd2a72a4	-0.041613236
13	0xbc486b22	-0.012232574
14	0xbe3baa79	-0.18326749
15	0x3d2a25d1	0.04153997
16	0x3e3e2cf7	0.1857184
17	0xbe22b139	-0.15887918
18	0xbdd1f52b	-0.1025184
19	0xbc3175cd	-0.010831309
20	0xbd1357f5	-0.035972554
21	0x3c5c806f	0.013458355
22	0x3e36c649	0.17849077
23	0x38ed9b31	0.00011329947
24	0x3cd00c25	0.025396416
25	0x3d9b64d3	0.0758759
26	0xbd786c48	-0.06065014
27	0x3df6bb55	0.120474495
28	0x3de80460	0.113289595
29	0x3d822517	0.063547306
30	0xbccff84f	-0.025386957
31	0x3e78d260	0.24299002

gnn_layers.0.lin_r.weight f4 [32, 32]
0	0xbe1b4ee3	-0.15166812
1	0x3dd2bcb5	0.10289899
2	0x3d6979a7	0.057000782
3	0x3e1681d5	0.14697964
4	0xbdcd7c4e	-0.10033475
5	0x3d521954	0.051293686
6	0xbe189c69	-0.14903416
7	0x3e0c0400	0.13673401
8	0x3d138c87	0.03602269
9	0xbda5a230	-0.080875754
10	0x3b835fd5	0.004009227
11	0x3cd94ae4	0.026524968
12	0x3d4e0bdd	0.050304282
13	0x3e39cb03	0.18143849
14	0x3dfad2c4	0.122472316
15	0x3d694148	0.056947023
16	0x3df2b060	0.11850047
17	0xbe14507e	-0.1448383
18	0x3d939d81	0.07207776
19	0x3cb351c7	0.02188958
20	0x3e12e480	0.14344978
21	0x3d9cdd85	0.07659439
22	0x3c4fa97f	0.012674688
23	0x3dd0e348	0.101996005
24	0xbd6cd5c6	-0.057821058
25	0x3dbdb569	0.09263117
26	0x3d107586	0.03526833
27	0xbd01b7ce	-0.03166943
28	0x3ddeecd1	0.10885013
29	0xbe06fe58	-0.13182962
30	0xbd35d673	-0.044393968
31	0x3de00b0d	0.10939608
32	0x3ba2cc81	0.0049682264
33	0xbe11b29d	-0.14228292
34	0xbce27db4	-0.02764783
35	0xbd076f26	-0.033064984
36	0x3e5fc3bd	0.21852012
37	0xbe3cf3fe	-0.1845245
38	0xbdcb33ab	-0.09921964
39	0xbe04d3ea	-0.12971464
40	0xbdd3725a	-0.10324545
41	0x3daeb6fe	0.08530997
42	0xbd94e7f1	-0.07270802
43	0x3e2297e8	0.1587826
44	0xbe0f6eba	-0.14007083
45	0xbc7542bc	-0.014969524
46	0xbdc09102	-0.09402658
47	0x3afb0b14	0.0019153082
48	0x3e672f2f	0.22576593
49	0x3d067277	0.032824006
50	0x3eba5c38	0.36398482
51	0xbd3075fb	-0.043081265
52	0xbdd9f1d0	-0.10641825
53	0x3eaca22b	0.33717474
54	0xbeba6575	-0.3640553
55	0x3e5cc300	0.21558762
56	0x3e19111f	0.14947937
57	0xbe914f52	-0.2838083
58	0xbec590dd	-0.38587084
59	0xbe858f50	-0.260859
60	0x3d5d9b14	0.054102972
61	0xbdfec8c3	-0.12440636
62	0x3c16d446	0.009205883
63	0xbdb8795a	-0.09007521
64	0xbd6f5716	-0.05843266
65	0x3d641212	0.055681296
66	0xbd5b2cc6	-0.053509496
67	0x3dacb685	0.0843325
68	0x3d4c3397	0.049853887
69	0x3dd47563	0.10373952
70	0x3d391e35	0.045194823
71	0xbd8650f8	-0.06558412
72	0x3e3671c7	0.1781684
73	0x3bd439fd	0.0064766393
74	0x3cd1f91f	0.025631486
75	0x3d86e89e	0.06587337
76	0xbcaa950f	-0.02082303
77	0xbe4eb434	-0.2018593
78	0x3c90867c	0.017642252
79	0xbd70502c	-0.058670208
80	0xbe72b157	-0.23700462
81	0xbdc30f3d	-0.09524391
82	0xbe87c13d	-0.26514617
83	0xbdb55851	-0.08854736
84	0xbc314930	-0.010820672
85	0x3c118a8a	0.008883128
86	0xbe4629c8	-0.19351876
87	0x3e4d0f87	0.20025454
88	0xbee17cb6	-0.4404046
89	0x3d60fbc4	0.054927602
90	0x3e0459e1	0.12924911
91	0xbeb9f3c0	-0.3631878
92	0xbda4a1a3	-0.08038642
93	0xbe684cfd	-0.22685619
94	0xbd23c26a	-0.03998033
95	0xbdb45d6a	-0.0880688
96	0x3d4b3f00	0.04962063
97	0xbd4acaf8	-0.049509972
98	0x3ca35809	0.01993944
99	0x3d835b78	0.06413931
100	0xbe264215	-0.16236146
101	0xbdbe8615	-0.09302918
102	0x3e3a54c4	0.18196398
103	0x3b4d863a	0.0031360523
104	0xbde56980	-0.11201763
105	0xbd868d1c	-0.06569883
106	0xbcf973a0	-0.030450642
107	0xbcc6c964	-0.024265952
108	0xbdb06075	-0.08612148
109	0xbe06ca15	-0.13163026
110	0x3cb34e6b	0.021887979
111	0x3dccc19f	0.09997868
112	0x3ebe345f	0.3714933
113	0x3e53e640	0.20693302
114	0xbe0a9dd4	-0.13536769
115	0xbc00d4d0	-0.007863238
116	0x3e4aa449	0.19789232
117	0xbcf09fc7	-0.029373063
118	0x3e1b2794	0.15151817
119	0xbe12548f	-0.14290069
120	0xbc847bf4	-0.016172387
121	0xbe812c4a	-0.25229102
122	0xbdbca84d	-0.09211788
123	0xbe08d94a	-0.13364139
124	0xbe523f16	-0.20531878
125	0xbd1feb19	-0.039042566
126	0xbd9bd4d1	-0.07608951
127	0xbd94c753	-0.072645806
128	0xbcc96141	-0.024582507
129	0x3e008be8	0.1255337
130	0xbce04d14	-0.027380504
131	0x3e1b7739	0.15182199
132	0x3c041c77	0.008063427
133	0x3e2d05de	0.1689677
134	0x3e1177f5	0.14205916
135	0x3c75b190	0.0149959475
136	0xbe14bdfa	-0.14525595
137	0x3db061e3	0.086124204
138	0x3d7b6c47	0.06138256
139	0xbe88a625	-0.26689258
140	0x3daaf780	0.08347988
141	0xbd0faa67	-0.035074618
142	0x3e7b508a	0.24542442
143	0x3e240d56	0.16020712
144	0x3ea436d8	0.32073092
145	0x3d86d686	0.06583886
146	0x3e8a4286	0.27003878
147	0x3e494eb8	0.19658935
148	0xbde47254	-0.11154619
149	0x3e5c5447	0.21516524
150	0xbe11474b	-0.14187352
151	0xbd010b84	-0.031505123
152	0x3e6ec682	0.23317912
153	0xbd1af565	-0.037831683
154	0xbec46322	-0.38356882
155	0xbec5bb79	-0.38619593
156	0x3e1fb4f5	0.15596373
157	0x3e5516a4	0.20809418
158	0x3e018631	0.12648846
159	0x3e93c23a	0.2885912
160	0xbdfb566d	-0.12272344
161	0x3c2c06d0	0.010499671
162	0xbe0e03d2	-0.13868645
163	0xbe28f86f	-0.1650102
164	0xbd3bdeb9	-0.0458667
165	0x3e1290c1	0.14313032
166	0x3e38107a	0.17975035
167	0x3e0c7500	0.13716507
168	0x3e2879b8	0.16452682
169	0xbdc86131	-0.09784163
170	0xbe6fb80e	-0.23410055
171	0x3ddc6ec1	0.10763312
172	0xbe020d56	-0.127004
173	0xbe1597bb	-0.14608662
174	0x3d8e9e88	0.06963831
175	0xbcfec03e	-0.031097528
176	0x3e8add84	0.27122128
177	0xbe020d35	-0.1270035
178	0x3ec37abb	0.38179573
179	0x3b813619	0.0039432165
180	0x3cf77f1d	0.03021198
181	0x3e2550f4	0.16144162
182	0x3e9425a7	0.28934976
183	0xbefa0a79	-0.48836115
184	0x3ee4b40f	0.44668624
185	0xbe3cb7c6	-0.18429479
186	0xbeaf94d7	-0.34293243
187	0x3e954da5	0.291608
188	0x3e0c215f	0.13684605
189	0x3dab28c0	0.08357382
190	0x3eb9a553	0.36258945
191	0x3c9ca4e6	0.019121598
192	0xbd4db31e	-0.050219648
193	0xbd8486eb	-0.06471046
194	0xbe19cb04	-0.1501885
195	0x3dacc641	0.084362514
196	0x3e0bd51e	0.13655517
197	0xbdf09f6b	-0.117491566
198	0x3dc8fe94	0.09814182
199	0xbdff2dff	-0.12459945
200	0x3dd023cb	0.10163077
201	0xbd3562ad	-0.044283558
202	0x3e631ef1	0.22179772
203	0x3d775047	0.060379293
204	0xbda5cd45	-0.08095793
205	0x3d820484	0.063485175
206	0x3bab0b9c	0.00521989
207	0xbd22ae2a	-0.039716877
208	0x3f543922	0.8289968
209	0xbd8a3f39	-0.0675034
210	0x3f0210d1	0.5080691
211	0xbea63145	-0.32459465
212	0xbe19812f	-0.14990686
213	0x3e8b10bb	0.27161202
214	0xbf0147f5	-0.5050042
215	0x3ecd8a1a	0.40144426
216	0x3ea44a33	0.3208786
217	0xbe39ce04	-0.18144995
218	0xbf717aea	-0.94328177
219	0xbe8a0a40	-0.26960945
220	0xbd2d3077	-0.042282548
221	0x3dac99b0	0.08427751
222	0x3eb080de	0.34473318
223	0xbea07806	-0.3134157
224	0xbdaee224	-0.08539227
225	0xbdcd1e89	-0.1001559
226	0xbd01c1cd	-0.031678963
227	0xbd350bf6	-0.04420086
228	0x3e5b112a	0.21393266
229	0xbcc655dc	-0.024210863
230	0x3b934208	0.0044939555
231	0x3e57edfa	0.21086875
232	0x3da63e03	0.081172965
233	0xbe06a58b	-0.13149087
234	0xbd9a1f9e	-0.07525562
235	0xbe00f9aa	-0.1259524
236	0x3dadd610	0.08488095
237	0xbd1b1b1d	-0.037867654
238	0x3d8668b4	0.06562939
239	0x3e1ad389	0.15119757
240	0x3dc15b88	0.09441286
241	0x3de274b0	0.110574126
242	0xbe97258e	-0.2952084
243	0x3e3d985b	0.1851515
244	0x3e8ca009	0.27465847
245	0xbcc58c05	-0.024114618
246	0x3d8fadf2	0.07015599
247	0xbec06f4b	-0.3758491
248	0xbe28ab7b	-0.16471665
249	0x3d3a24f1	0.045445386
250	0xbe59f286	-0.21283922
251	0xbdf641c4	-0.120242625
252	0xbd1771a9	-0.03697363
253	0x3cb2e484	0.02183748
254	0xbc954039	-0.0182191
255	0x3d4c1460	0.04982412

gnn_layers.1.lin_l.weight f4 [32, 32]
0	0x3e5e3ba6	0.21702442
1	0x3e0f4563	0.13991313
2	0xbea25903	-0.31708536
3	0xbd0a641a	-0.03378687
4	0x3e2d8fb1	0.16949345
5	0x3e341103	0.17584614
6	0xbdc053af	-0.093909614
7	0xbdd30596	-0.103038
8	0x3d8cb040	0.068695545
9	0x3e5029d8	0.20328462
10	0x3e76e05d	0.24109025
11	0xbe9dd01d	-0.3082284
12	0xbf2f97b0	-0.6859083
13	0x3d8d7d40	0.06908655
14	0xbe804f1a	-0.2506035
15	0x3e8eb0e1	0.27869323
16	0xbdca51b9	-0.098788686
17	0xbce6ed0d	-0.028189206
18	0xbee22ec5	-0.44176307
19	0x3bdf43ce	0.006813503
20	0xbde632b9	-0.11240143
21	0x3dd97d22	0.1061957
22	0x3d7e8c58	0.06214556
23	0xbdf0fa7b	-0.11766525
24	0x3e0316bd	0.12801643
25	0xbe2220d7	-0.1583284
26	0xbe515baf	-0.20445131
27	0x3e8c9d34	0.27463686
28	0xbe0e335c	-0.1388678
29	0xbd14fc14	-0.036373213
30	0xbd59599e	-0.05306398
31	0xbedf6839	-0.43634203
32	0xbc9c66de	-0.01909202
33	0x3d840578	0.064463556
34	0x3d06dc46	0.032924913
35	0xbdd59843	-0.10429432
36	0xbca52349	-0.020158427
37	0x3c9e8c14	0.019353904
38	0xbe11f375	-0.14253028
39	0xbd77a621	-0.060461167
40	0x3df30788	0.11866671
41	0xbe0779cc	-0.13230056
42	0x3ddbc0c5	0.10730127
43	0x3e9afe33	0.30272064
44	0x3bbdefc3	0.005796404
45	0x3e2eb179	0.17059888
46	0x3e123c80	0.14280891
47	0xbd91ee4e	-0.07125531
48	0xbea6ee12	-0.32603508
49	0x3d28a518	0.04117307
50	0xbe3bb027	-0.18328916
51	0x3e02ef14	0.12786514
52	0x3cdee94e	0.027210858
53	0xbdd2f2f8	-0.10300249
54	0xbcd770c9	-0.026298897
55	0x3e7aea28	0.24503386
56	0x3e8570a9	0.26062515
57	0x3d7d31f0	0.061815202
58	0x3df23b18	0.118276775
59	0xbd997dae	-0.074946746
60	0x3da072ca	0.07834394
61	0xbd072d47	-0.033002164
62	0xbaac4d55	-0.0013145605
63	0x3ef0d2b0	0.47035742
64	0xbcd58dd4	-0.026068605
65	0x3e3d8f76	0.18511757
66	0x3e0b9119	0.13629569
67	0xbd7a128e	-0.06105285
68	0xbe8fe51b	-0.2810448
69	0xbe1565b6	-0.14589581
70	0x3e2d895e	0.16946933
71	0xbe0f8830	-0.14016795
72	0x3e0b2658	0.13588846
73	0x3da27b98	0.0793373
74	0xbd598557	-0.05310568
75	0x3e8ded34	0.27720034
76	0xbe9e0e49	-0.30870274
77	0x3d7dea45	0.061990995
78	0x3db9798f	0.090563886
79	0xbe7d6bdd	-0.24748178
80	0xbcafebc7	-0.021474732
81	0x3ea189dd	0.31550494
82	0x3d2a8194	0.04162748
83	0x3e3f7064	0.18695217
84	0x3e0205e4	0.1269756
85	0x3ae77ad3	0.0017660506
86	0x3e36e58d	0.17861004
87	0xbde4b6fe	-0.111677155
88	0xbe9c4af7	-0.30525944
89	0x3e93d6db	0.2887486
90	0x3da56942	0.08076717
91	0x3e828f9e	0.25500196
92	0x3e4d040b	0.20021074
93	0xbb8e2d83	-0.0043389215
94	0x3ef19b81	0.47188953
95	0x3ee8767a	0.4540289
96	0x3e139d73	0.14415531
97	0x3cdabb1e	0.026700553
98	0xbdf8e086	-0.121521994
99	0xbe0d1918	-0.13779104
100	0xbea35124	-0.31897843
101	0x3d789d14	0.060696676
102	0x3ca6d1ae	0.020363655
103	0xbc8affa3	-0.0169676
104	0x3e125ccc	0.14293212
105	0xbd97ea0d	-0.074176885
106	0x3d8c6f80	0.068572044
107	0x3e43dc4e	0.19127008
108	0xbe37cc93	-0.17949133
109	0xbd474443	-0.048649084
110	0x3e6281bc	0.22119802
111	0x3cfc4b7b	0.03079771
112	0xbe5dda6d	-0.21665354
113	0x3e39e905	0.18155296
114	0x3de85810	0.113449216
115	0xbe828d85	-0.25498596
116	0xbde53c9a	-0.111931995
117	0xbd4c95b9	-0.049947474
118	0xbcc60471	-0.02417204
119	0x3d2c0a54	0.042002037
120	0xbdb22130	-0.08697736
121	0x3dbfcff0	0.09365833
122	0xbd98a760	-0.07453799
123	0x3e06a133	0.1314743
124	0x3d9c7e66	0.07641296
125	0xbdd80697	-0.10548132
126	0xbd8a0310	-0.067388654
127	0x3ec5d78f	0.3864102
128	0x3e05a315	0.13050492
129	0xbe3d71a6	-0.18500385
130	0xbded8419	-0.11597461
131	0xbe6fbf26	-0.23412761
132	0x3eec151b	0.46109852
133	0x3c8ae228	0.016953543
134	0xbe84957c	-0.25895298
135	0x3df23b91	0.11827768
136	0x3d9625e2	0.07331444
137	0x3d21f343	0.039538633
138	0xbe023a5d	-0.12717576
139	0xbde2d6b9	-0.11076111
140	0x3ed80551	0.42191556
141	0x3db6d939	0.08928151
142	0xbe48f42c	-0.19624394
143	0xbdcf0363	-0.10108068
144	0xbd2fd279	-0.04292533
145	0xbe8a6e74	-0.27037394
146	0x3de0c86f	0.1097573
147	0xbd903fe0	-0.07043433
148	0x3dd718ea	0.10502799
149	0xbe2c9642	-0.16854194
150	0xbc93ecb1	-0.0180572
151	0x3e1950c1	0.14972211
152	0x3eb97aa7	0.3622639
153	0xbd61f225	-0.055162568
154	0x3d456158	0.048188537
155	0xbe84b735	-0.25921026
156	0x3dae4832	0.08509864
157	0xbe3bb1e7	-0.18329583
158	0xbed14ffe	-0.40881342
159	0xbe0dd88e	-0.1385214
160	0xbdcb916f	-0.09939849
161	0xbd8b395a	-0.06798048
162	0x3d992f4f	0.074797265
163	0xbe3d72d7	-0.18500839
164	0xbd2c762b	-0.04210488
165	0x3d15e180	0.036592007
166	0xbe5595fa	-0.20857993
167	0x3cd68715	0.026187459
168	0x3c030f99	0.007999324
169	0xbdfc88b8	-0.123307645
170	0xbdac422e	-0.0841106
171	0x3dcc0f62	0.099638715
172	0x3dfad7dd	0.12248204
173	0x3e073505	0.13203819
174	0x3e303e5f	0.17211293
175	0x3c63be9e	0.013900427
176	0xbe9a20b2	-0.3010307
177	0xbe21d36a	-0.15803304
178	0xbee09fc2	-0.43871886
179	0x3c666291	0.014061586
180	0x3df1e580	0.11811352
181	0xbe56100f	-0.20904563
182	0xbe8fc943	-0.28083238
183	0x3e9e6f6a	0.30944377
184	0xbe2f0eb6	-0.17095456
185	0x3e787087	0.24261676
186	0x3de4af44	0.11166242
187	0xbe24bf33	-0.16088562
188	0x3cd21eda	0.025649477
189	0xbe814f6f	-0.25255916
190	0x3e0d40ec	0.13794297
191	0x3dd85522	0.10563113
192	0x3d38303b	0.04496787
193	0x3dff58df	0.12468123
194	0x3d06b71f	0.03288948
195	0xbe154e36	-0.14580616
196	0xbdc96e40	-0.09835482
197	0x3d97e2b3	0.07416286
198	0x3e1a5784	0.15072447
199	0xbd58b6bc	-0.052908644
200	0xbcf637a1	-0.030055823
201	0xbe640857	-0.22268806
202	0x3dfbd6ae	0.12296806
203	0x3e04532f	0.12922357
204	0xbe7e271f	-0.24819611
205	0xbe29b138	-0.1657151
206	0x3dcfbce5	0.10143451
207	0xbd43fd01	-0.047848705
208	0xbeb23c6a	-0.34811717
209	0x3e345d5d	0.1761374
210	0xbe5bccd9	-0.21464862
211	0x3d8b3dbc	0.06798884
212	0x3e0cbe72	0.13744524
213	0x3e873512	0.26407677
214	0x3e5eead5	0.21769269
215	0xbc2da4fa	-0.0105984155
216	0xbdd371de	-0.10324453
217	0x3d943753	0.07237115
218	0x3e064cc7	0.13115226
219	0x3e94d234	0.29066622
220	0x3e9434dc	0.28946579
221	0x3da32b24	0.07967213
222	0xbd9b9256	-0.07596271
223	0x3ecde57d	0.40214148
224	0x3e077aa8	0.13230383
225	0x3d71b8f5	0.05901428
226	0x3e59cf23	0.21270423
227	0x3e1bda51	0.1522
228	0x3eca9f37	0.39574596
229	0x3d75e3b7	0.06003162
230	0xbdb14553	-0.08655801
231	0xbd8182d3	-0.06323781
232	0xbc595af0	-0.01326631
233	0x3ae0c350	0.0017148051
234	0xbe3b5019	-0.18292274
235	0x3cbd5cbc	0.023115508
236	0x3e2a873d	0.16653152
237	0x3e28419a	0.16431275
238	0x3e120526	0.14259776
239	0xbda9f334	-0.082983404
240	0xbdd307e3	-0.10304239
241	0xbdd0bca3	-0.101922296
242	0x3e87beef	0.26512858
243	0x3e1d8238	0.15381706
244	0x3dac2f16	0.084074184
245	0xbdf14b97	-0.11781996
246	0x3d86d055	0.06582705
247	0x3eb9f897	0.36322471
248	0x3e09d6c6	0.13460836
249	0xbe40681f	-0.18789719
250	0x3df40731	0.11915434
251	0xbe110a30	-0.14164042
252	0xbd32238f	-0.043490943
253	0x3cd7e245	0.02635301
254	0xbc91c91b	-0.01779609
255	0x3e862f0f	0.26207778

gnn_layers.1.lin_l.bias f4 [32]
0	0xbd825fb2	-0.06365909
1	0x3df8f13d	0.121553876
2	0x3da41d3d	0.08013389
3	0xbe393b34	-0.1808899
4	0x3e3983f7	0.18116747
5	0xbd1dcc62	-0.038524993
6	0xbbc49aee	-0.0059999144
7	0x3e85a186	0.26099795
8	0xbd166d06	-0.036725067
9	0xbd90cea7	-0.07070666
10	0x3d216ae3	0.039408576
11	0xbd051ee9	-0.03250018
12	0x3e534ff4	0.20635968
13	0xbbbe0694	-0.005799124
14	0xbdbbceb8	-0.09170288
15	0xbe1abebd	-0.15111823
16	0xbd97ee30	-0.074184775
17	0x3d708fa0	0.05873072
18	0x3db4361e	0.087993845
19	0xbb221991	-0.0024734477
20	0xbdeb9bd9	-0.11504335
21	0x3d410090	0.047119677
22	0xbb7f51cf	-0.0038958674
23	0x3e0445b2	0.12917212
24	0xbc4dd0da	-0.012562001
25	0xbe4fd0ec	-0.20294541
26	0xbe256d7f	-0.1615505
27	0xbc897d8a	-0.016783495
28	0xbca3ca81	-0.019994022
29	0xbdba38b2	-0.09092845
30	0x3ce18367	0.027528478
31	0xbdfa9194	-0.12234798
