baseline/DLPL-CAP/models_dlpl-cap-classifier/sandwich+ultra8t_to_ssram+digtime+timing_ctrl+array_128_32_8t/dlpl-cap-classifier_nh_2_tsk_regression_ngl_4_nhl_4_hd_32_us_1_bn_0_dp_0.0_epoch_8_20250402_143937.pth (torch, 63106 bytes, 24 tensors)

net_attr_layers.weight f4 [16, 17]
00000000: 7916 083d 857b 563d d6cc 64be a024 643e
00000010: 4999 d7be d14d eabd c3d3 f1bd ffda 113e
00000020: d8ef 5a3e 8933 36be d9de 573e cced 393d
00000030: eb7c 373e 4d8a 063d 5382 ef3d 0409 8cbe
00000040: 1cd1 1bbf c77e d23d 07fb 073c aa4e 92bd
00000050: 96da e4bd 260f e8bd ba67 d63c a2c0 243e
00000060: 920b 44be 64fd e4bd 5a42 8cbd 7554 15be
00000070: 7886 bb3c e84b 75be 014b 603e 8ff8 52be
00000080: 5439 ae3d b53e 273f fd53 54be f313 82bc
00000090: 9596 453d b6a9 483e 2ac9 cbbd 62d7 7fbe
000000a0: 6b75 853d c6b2 86bd 9f0b d13d f8bc 5d3e
000000b0: 9990 0f3e 3626 d9bd 0f5e 0f3e fdbf 313d
000000c0: 8c3f fc3d 015b fbbd fcc9 a0bf 73be 933c
000000d0: 3827 073c 200d c53c a311 8f3d 1f88 2f3d
000000e0: b076 8f3e bd40 8abb a75d 423e ed75 30be
000000f0: fd32 7a3c 6683 29be 9529 993d 240f abbd
00000100: 7033 983d c9f8 4ebd dab9 ea3d 1488 e33e
00000110: 483d 4ebe f010 0abe 16dd 75bd b887 a53d
00000120: dd86 28bb a907 3ebe bf56 76be 1c4e 42be
00000130: 1311 27be 4e30 c93d 65dc b13d 8e5d 4e3e
00000140: f141 00be bb4e 29be c4c5 033e d156 c0be
00000150: 8f2f 3c3f 43f9 95be 4d3a 13be 3601 86be
00000160: 84aa fabd 831c 673d 3492 4abe 5a48 7dbd
00000170: a709 143e c4d5 283e fc19 34be f296 04be
00000180: 1b69 633e 6b9b a7bd c717 b0bd f34e 70be
00000190: d0f8 3bbe 7a56 44bf cae1 903e 1017 253e
000001a0: c13b 3b3e d1a5 29be cdfd b83e b516 823e
000001b0: 565d 59be 5523 1ebe 6442 783e 1ea2 3b3d
000001c0: 2211 993d 60a3 67be 311d 23be 7455 a5bd
000001d0: d757 1b3d 4141 b4be 6e86 383e fc3a 15bd
000001e0: c70d 563d d3e0 7a3e 30ae 89bc dbc4 56be
000001f0: a80e 21be 41e4 10be 0906 aabd e505 44be
00000200: 4b3d 503e c928 45bd 63af 553e 51c4 9a3d
00000210: b94e 52be 16df 2b3e ed0c 833e 727a 32be
00000220: 4637 9cbe bfde babe 00f2 a83c ff01 59bd
00000230: 427d 913d 1ce7 99be 1863 383e 974e 36be
00000240: c689 2bbd 1f7f 4f3d e836 003e 3180 483e
00000250: 1d3e 623e 67ed 44be 4503 7a3d fafa 0fbe
00000260: bbb1 83bf 8d7a 0fbd aa1a d93e 9da2 7ebe
00000270: 03bc 043e 1b7f 7e3e 65dc 9a3e e245 06be
00000280: 77be 613e 454e 5a3d b796 ff3c 87dd 5abe
00000290: ae83 d03d cb08 15bd 678e e3bd 2f53 553e
000002a0: b0a0 a13d 5c54 2b3f 91f7 3a3d 9b82 143e
000002b0: 6180 b03e 9ada 7dbd 8efc 873e 5ab6 b73d
000002c0: 778a 39be db24 b13d e73c 403e 14d0 69be
000002d0: 4eb9 663d 864c 003e 2623 343d 48e4 b0bd
000002e0: b2a0 013e f612 b23e cbaf 363f fe2c fd3d
000002f0: a7a0 723d 765a b53e 257e 2fbd fa72 333f
00000300: 2f1f ae3e fc6f 553e 6db1 c4bc c96c 5ebd
00000310: 16f1 673b 4943 6dbc afd4 6e3d 1732 8b3d
00000320: 4b92 61be 4b4e b7bd 71ce c53e dbbf 9fbe
00000330: 1fae 93bd 5803 50be d6e3 5abe 3178 5ebe
00000340: 6233 e33d 61a6 a73d 835b 1e3e c054 e53d
00000350: 8188 5bbe 2e5a 15be 76c7 1cbd 5d3f 703e
00000360: ddb4 0f3d 56a2 80bd 6b7f cd3d 34a7 64bd
00000370: e1df 48bf 6482 4cbe 0308 d2be e79f 22bf
00000380: eb10 77be 1037 d5be 6280 eebd b106 b53d
00000390: 2d2c 2dbe e81c 75be bcb5 49be 1133 393e
000003a0: 8979 ee3d 3bfe 503e 421b 023e a66d 7b3d
000003b0: 4128 11be 1073 1a3e 17a9 a8be 2764 9ebe
000003c0: a18b 36be c3de f3bd 77b2 b8be e688 62be
000003d0: 8e06 35bd 4dcd 2ebe af47 22be dbc3 a43d
000003e0: 0d9f 93bd 3952 193e 9159 9fbd a92f 36be
000003f0: 6d47 2fbd 5815 b3be 7932 4bbf 7068 e5be
0.033224557 0.05236389 -0.22343764 0.22279596 -0.42109135 -0.114406236 -0.118079685 0.14243697
0.21380556 -0.17793097 0.21081103 0.045392796 0.17918746 0.032846738 0.11694779 -0.27350628
-0.6086595 0.10278087 0.008299596 -0.0714391 -0.111745045 -0.11331014 0.026172508 0.16089109
-0.19145039 -0.11181143 -0.06848593 -0.14582999 0.022891268 -0.23954737 0.21903612 -0.2060263
0.08507028 0.6533006 -0.20735164 -0.015878653 0.04823931 0.1959599 -0.099504784 -0.24984506
0.06516536 -0.06577067 0.10207295 0.21654117 0.14020003 -0.10602991 0.14000724 0.043395985
0.12316808 -0.12273217 -1.2561641 0.01803515 0.008249097 0.02405411 0.06985786 0.042854425
0.2802024 -0.004219143 0.18981038 -0.17232485 0.015270946 -0.16554031 0.07478634 -0.08352497
0.07431686 -0.05053023 0.114612296 0.44439757 -0.20140564 -0.13483024 -0.060025297 0.08082527
-0.002571515 -0.1855761 -0.24056529 -0.18975109 -0.16315107 0.098236665 0.08684615 0.20152876
-0.12525155 -0.1653394 0.1286841 -0.37566236 0.7351007 -0.29291734 -0.14377709 -0.261728
-0.122395545 0.056423675 -0.19782335 -0.061836578 0.14456807 0.16487795 -0.17588037 -0.12948206
0.22208063 -0.081839405 -0.08598285 -0.23467617 -0.18356633 -0.7669445 0.28297263 0.16122079
0.18284513 -0.1656716 0.36131135 0.2540795 -0.21227011 -0.15443166 0.24244076 0.045808904
0.07473971 -0.22620916 -0.15929104 -0.080729395 0.037925567 -0.35206035 0.18020031 -0.036433205
0.052259233 0.24499826 -0.016806692 -0.20973532 -0.15728247 -0.14149572 -0.08301932 -0.19142874
0.20335881 -0.0481346 0.20867686 0.07556976 -0.20537843 0.1678432 0.255958 -0.17429522
-0.3051092 -0.36498067 0.020623207 -0.05298042 0.07103969 -0.30059135 0.18006551 -0.17803417
-0.041879438 0.05065834 0.12520945 0.19580151 0.22094007 -0.19231187 0.061038274 -0.14060584
-1.0288614 -0.035028983 0.42403156 -0.2486672 0.12962346 0.24853174 0.30246273 -0.13112596
0.22045313 0.0532973 0.031199796 -0.21373568 0.10181366 -0.03638534 -0.111111455 0.20832513
0.07891977 0.669256 0.045646254 0.14502947 0.34472945 -0.061976053 0.2655987 0.08970328
-0.18119226 0.08649608 0.18773232 -0.22833282 0.056329064 0.12529191 0.043978833 -0.08637291
0.12658957 0.3478009 0.7136199 0.12362097 0.05923524 0.3542058 -0.04284491 0.70097315
0.34008166 0.208435 -0.024010384 -0.054302964 0.00353915 -0.014481374 0.0583083 0.06796663
-0.22028463 -0.0895048 0.38634065 -0.31201062 -0.07210945 -0.20313776 -0.21375975 -0.21725537
0.11093785 0.08186031 0.15464596 0.111978054 -0.21438791 -0.14585182 -0.03827616 0.23461671
0.035084594 -0.06280963 0.10034069 -0.05582352 -0.7846661 -0.19971615 -0.41021737 -0.6352524
-0.24127547 -0.41643572 -0.11645581 0.08839167 -0.16911383 -0.23936808 -0.19698232 0.18085887
0.11644275 0.20409481 0.1270571 0.061383866 -0.14175512 0.15082955 -0.32941505 -0.30935785
-0.17826702 -0.11907723 -0.36073658 -0.22122535 -0.044195704 -0.17070504 -0.15847658 0.08045169
-0.07208071 0.14972772 -0.07780755 -0.17791618 -0.042792726 -0.3497722 -0.7937389 -0.44806242

net_attr_layers.bias f4 [16]
00000000: 510f 033e 4b97 a33d b0d5 613e f60d 55bb
00000010: ae4d 4ebe abcf df3d d39b 143e d9fd 67be
00000020: 2c0a 5f3d a5d5 d0bd 2416 61bc 2248 28bd
00000030: 729e acbc 8110 06be 9255 47be caeb 423e
0.12798811 0.07987841 0.22054172 -0.0032509542 -0.2014682 0.109282814 0.14512567 -0.22655429
0.05445306 -0.101969995 -0.013738189 -0.041084416 -0.021071646 -0.13092233 -0.19466236 0.19035259

dev_attr_layers.weight f4 [16, 17]
00000000: 9743 843e a99c a0bf 7148 b13f 4e32 c1bf
00000010: 6a27 aabf cdaf 71be 899b b83d f35b 08be
00000020: a4a9 1fbe 4105 9bbc 3469 a5bd 6cb2 a0bd
00000030: 155c ff3b cdb7 52bd edc3 52bd 1a95 83bf
00000040: 8b1e 4abe 1344 423e 3b20 b13f 6597 c2bf
00000050: 963a ae3f 2226 8f3f f88a 673e d0d8 e43d
00000060: c439 57be 9225 c53d 28c0 6b3e 49ad 823d
00000070: 1b81 263e ffd9 743e be38 18bd fb0a 2b3d
00000080: c86b 28bf eab8 4cbd f300 283e c3f5 d3bf
00000090: d83d b53f 012f f8bf 7396 c1bf f318 75be
000000a0: 3ca4 3fbe f1ab 75bd 309c 273e 2848 263d
000000b0: bbe6 3cbe cd3c 47be 371a f73d e1bc 38be
000000c0: 79b1 4fbd 8b7e d63d 7fe2 e5bd b66e a3bd
000000d0: 0dc2 ad3f 8568 fabf f0c9 b33f 29ba 763f
000000e0: bdc2 48be 41fc 04be 3fdf 6f3e 6feb efbd
000000f0: 40c7 26be facc 703d 33e6 883d b213 083e
00000100: e4c7 3c3e 28b8 da3d ceb2 4dbd 0d36 b03c
00000110: fd77 093e 5b5b a23f 079a dcbf c493 af3f
00000120: a6a1 463f 8166 0dbe 34e8 5fbe a87f 313c
00000130: 261c dc3d 56e8 5b3d 2073 443d b659 3cbe
00000140: dcef 67be e0f2 8b3b 0ead 513e 7fba d1be
00000150: 069a 10be d40c a43c 0167 08c0 5a0d 843f
00000160: 0b14 e8bf c62f a4bf 1abb 4d3e 8104 64be
00000170: 0f0e 263e f329 2fbe b300 ba3d a62b 523e
00000180: 7433 5f3b fbf4 613e cd9c 53be d88d 01bd
00000190: 20a0 303e 816f 58bd 9c2f 52bd 7832 d83e
000001a0: 1250 e8bf 41c8 963f 7adf 673f 3c91 0bbe
000001b0: 709a 49be 2ce6 d63c 602a 933d 9956 e5bd
000001c0: a8fa 8abd 61bb 273e a345 9e3c 7149 333c
000001d0: be3d 05bc 442d ff3e df84 69be a30c 66bd
000001e0: 8438 3f3e 27ea f13f 9bc8 1dbf 8eba 06bf
000001f0: 5cca 6c3e 3804 ad3d cd0d 313e 0f77 f0bd
00000200: 09e4 cabd e78f b63d 4779 25be 055a 22be
00000210: b7ed 3fbc 3a9e d8bd 473f 53bf 9b50 133e
00000220: f11a 4b3e b86e 09c0 93fc 903f b59b 09c0
00000230: 1155 bfbf 76e9 7c3d 2c37 ea3d 412c fbbc
00000240: 7b60 c4bd 0564 0a3e 81ca 45be 3cf7 1c3e
00000250: c3b3 c0bd c846 733b 5288 f6bc 1b8b cc3e
00000260: 1a1b 96bd d6c8 0a3e de69 a83f a880 cdbf
00000270: 441b d83f e815 833f a62d 35be c441 473e
00000280: 979d 423e c5a1 3dbe 1697 99bc 2ee9 74be
00000290: ec4d 4bbe 70df 3f3d 9124 843d 757e fe3c
000002a0: 57c1 fd3e cf20 653e cf4b a6bd aad5 513f
000002b0: 5a66 abbf 7921 9e3f 48e8 7a3f ad9b 2fbe
000002c0: b029 ba3d f4c2 fdbd 925e 4ebe 76a7 07be
000002d0: 6e84 6f3e 3a4f 543e 3d66 5e3e bdc9 113e
000002e0: 5696 ba3d 5869 4c3f 15a7 08be 666b 613d
000002f0: 603e bebf 83e0 033f 1768 4abf a5cb 01bf
00000300: c6b4 ff3d 84ed c0bd 9c2c 12be 9a01 063d
00000310: ba63 12be 00b2 21be cf74 013e 59e1 26bd
00000320: c5f1 623e de6c 5e3e 35c5 5b3f 95f2 aa3d
00000330: 6f0e b83d 4823 b7bf fe32 253f 1e85 26bf
00000340: 6b17 babe 24ea 663e 49ba 80bd e9f7 d1bd
00000350: a592 70bd 5df9 efbd bdeb 283d a362 393e
00000360: 8b35 423e b80d e43d fffb aebd 18c5 ee3e
00000370: 5b44 5abd 7de7 82bd ba93 383e 48fa 2fc0
00000380: 7ca1 303f 7f5d be3e 7025 1dbe af7a 4ebe
00000390: db65 583e bb2d 6bbe 145a 3b3e 6795 05bc
000003a0: 8711 e7bc 7657 1b3e d5a3 b7bc 8b8e 3e3e
000003b0: c35f babe 27a0 57be b76c 483e 7fea 9bbf
000003c0: fc4b a93e 772a 59bf d7bd 03bf bef3 eebd
000003d0: 3833 febc ecf7 6b3e b1db 263e 3049 15bc
000003e0: 4296 69be 9828 2e3c cb1f 29be 1df6 493e
000003f0: 674d 97bb 7ff1 2ebf cd7b 5cbd 5826 4dbd
0.25832817 -1.2547809 1.3850232 -1.5093477 -1.3293278 -0.23602219 0.09014041 -0.13316326
-0.15592057 -0.018923404 -0.080767065 -0.07846531 0.0077929595 -0.051444817 -0.05145638 -1.0279877
-0.19738214 0.18971281 1.3837961 -1.5202452 1.3611629 1.1183512 0.22611606 0.11174166
-0.2101813 0.096263066 0.2302252 0.06380708 0.16260187 0.23911284 -0.03716349 0.04175852
-0.6578946 -0.049981035 0.16406612 -1.6559376 1.4159498 -1.9389344 -1.5124038 -0.23935299
-0.18714994 -0.05997843 0.16368175 0.040596157 -0.18447392 -0.19456787 0.12065547 -0.18040802
-0.05070636 0.10473355 -0.11224841 -0.07980101 1.3574845 -1.9563147 1.4046001 0.9637781
-0.19605537 -0.12986852 0.23425005 -0.11714827 -0.16286945 0.05878923 0.06684532 0.13288763
0.18435627 0.10679656 -0.05021935 0.021510148 0.13424678 1.268413 -1.7234505 1.371697
0.77590406 -0.13808633 -0.21865922 0.010833658 0.107475564 0.05368837 0.047961354 -0.18393597
-0.22650093 0.0042708963 0.20476171 -0.40962598 -0.14121255 0.020025648 -2.1312869 1.0316575
-1.8131117 -1.2827079 0.20090905 -0.22267343 0.162163 -0.17105846 0.090821646 0.20524463
0.0034057768 0.22066109 -0.20665284 -0.031629413 0.17248583 -0.052840713 -0.051314935 0.42226005
-1.8149436 1.1779863 0.90575373 -0.13629621 -0.1968782 0.026232801 0.07185817 -0.11198158
-0.0678609 0.16380073 0.019320315 0.010942803 -0.008132396 0.49839222 -0.22804593 -0.056164395
0.18673903 1.8899583 -0.61634225 -0.5262841 0.23124069 0.0844807 0.17290421 -0.117414586
-0.099067755 0.08914166 -0.16159545 -0.15854652 -0.0117143905 -0.10577054 -0.8251843 0.14386217
0.19834496 -2.1473827 1.132708 -2.1501286 -1.4947835 0.061746083 0.114363045 -0.03066075
-0.09588715 0.13514717 -0.1931553 0.15328687 -0.09409287 0.0037121046 -0.0300943 0.3994988
-0.07329388 0.13553175 1.3157308 -1.6054888 1.6883321 1.024106 -0.17693195 0.19458681
0.19005428 -0.18518741 -0.018748801 -0.23917076 -0.19853944 0.046843946 0.06452287 0.031066159
0.4956157 0.22375797 -0.08119928 0.8196665 -1.339061 1.2353965 0.98010683 -0.1714923
0.090899825 -0.123907 -0.20153263 -0.13247475 0.23390362 0.20733348 0.21718688 0.14237113
0.091107056 0.7984824 -0.13344987 0.055034064 -1.4862785 0.5151445 -0.7906508 -0.5070136
0.12485652 -0.094203025 -0.1427483 0.03271637 -0.14295855 -0.15790558 0.12642215 -0.040742252
0.2216254 0.21721217 0.8584779 0.0834705 0.08987128 -1.4307642 0.6453093 -0.6504687
-0.36345991 0.22550255 -0.06285531 -0.10252363 -0.0587336 -0.11717484 0.041240443 0.18104033
0.18965738 0.11135429 -0.08544158 0.46634746 -0.053287845 -0.06391809 0.18025103 -2.749651
0.68996406 0.37180707 -0.15346313 -0.20163988 0.21132605 -0.22966664 0.18296081 -0.008153296
-0.0282066 0.15170082 -0.022416988 0.18609063 -0.36401185 -0.21057187 0.19572721 -1.2180938
0.33065784 -0.8483042 -0.5146155 -0.11667584 -0.031030282 0.23043793 0.16294743 -0.009111688
-0.22811225 0.0106297955 -0.16516034 0.19722791 -0.0046173814 -0.68337244 -0.053829003 -0.050085396

dev_attr_layers.bias f4 [16]
00000000: 7bdb 613e 7471 5d3e 3d30 3dbb fa2d 86be
00000010: 7d3d 3bbe 4514 cbbd aafa 5cbe 91f8 7cbd
00000020: 8e36 61be 177b 87be d691 85be 3b6f 9cbe
00000030: db3b ebbd 0150 963d 5d05 9c3e 7a68 29be
0.22056381 0.2162531 -0.0028867864 -0.26206952 -0.18285175 -0.099159755 -0.21579996 -0.06176049
-0.21993467 -0.26461098 -0.26087826 -0.30553612 -0.11486026 0.07339478 0.30472842 -0.16543761

pin_attr_layers.weight f4 [17, 16]
00000000: 118c 5cbf e476 99bf 9706 513e a7dc 5bbf
00000010: 396d e2bf d865 58be 562d 35bf df4c 1d40
00000020: 45fd 02bf a927 a8bf 590f 3c3f 71ab 84bd
00000030: 2ab2 e5be d905 dbbe 1bb0 babf 1556 85bf
00000040: c092 873e 3bfb 843d a7c6 583f 273b 34be
00000050: 24de 4bbf 7fc1 c83e eb84 753f d0c4 adbf
00000060: 10c2 2c3f 7431 9fbf e303 37bd 5d73 153f
00000070: 13f2 143f 3f2e 833d 0b38 ee3f 6eb9 323f
00000080: 06bf f5bf 0f6e 1c40 aca0 83bf 8def 573f
00000090: f336 98be 4613 1ac0 f95e 883f 68bf 9c3e
000000a0: 96da 71bf e081 e33f 4e7e c63f 53ed 57be
000000b0: ef01 e03e 73ea f63e 28e6 263f e26b 923f
000000c0: c9db d3be 71b6 043f ea97 33bf c95b ddbe
000000d0: 5cdf 103e c79e 913d e837 103f 7921 14bf
000000e0: 57ba 8abf 4f21 c7be 3f07 503f 5bc2 bf3f
000000f0: 62cc 333d 96df b83f fd98 6d3e e0a9 013f
00000100: 55ac a3bf 1f66 1dbd 6ef7 f43f f8f9 ac3e
00000110: b60e 003e 5c1c 43bf 4564 98bf 348e 463f
00000120: 1f54 e93e 4c2b 803e 6e38 aebf 80a2 e63f
00000130: 9740 98bd a566 20be bbef 5ebf f31e 24bf
00000140: 9541 d4be 71b3 30bf a379 6bbe b306 0bc0
00000150: 4593 b33d 2201 8c3f 7d17 f1bd c4e7 98be
00000160: 7b20 74bf 5e62 bdbd bd21 82bf 5a84 fbbb
00000170: 1faa 04bf 43ec 563f 77b5 6f3d 2789 d5bf
00000180: c64b 0840 a552 c2bf ca0e 0e3e 4602 97bf
00000190: 1e9d 07bf 6f67 763f 8912 8f3e bd62 12bf
000001a0: d1ca 32c0 390e 36bf 8905 063f 4ef3 dabf
000001b0: faa6 563f 2c29 8abe b607 fc3d 3a31 603f
000001c0: 3ff6 1a3e e348 3d3f 2dd4 8b3e 7dcc 2e40
000001d0: ca2f dd3e 204d 9ebe 63cc c5bd cd5d c53f
000001e0: 95b5 debd a17a d6be c11e b83f a4f3 34bf
000001f0: f23f a0bf 659a 4140 3752 ac3f 0f09 5b3f
00000200: 0ae1 a43e 8961 e43e 54f0 c23f 18e7 a33f
00000210: 85e5 edbd bc6d af3f 863d f6be 6188 7dbf
00000220: 7e9d aebf 0071 063c e8cc cfbe bb09 36bf
00000230: 11fc b2be 706e c23e 64d2 7f3f 4639 a33f
00000240: 51a1 753f 0dfd d33d a33b 543f 73e5 0540
00000250: 6899 4b3f 6afe 8e3e 2fec 3e3e fb9c b53e
00000260: aea0 b93d 3902 df3f 540c a2bf 1640 c73e
00000270: 528d af3e 9ac2 babf 2030 bfbf ceb2 62be
00000280: 05a4 663e d332 9ebd 7a56 7c3f 87a0 a33f
00000290: a588 933e 097a 5e3f e148 4fbf ab05 b7bf
000002a0: 2404 eb3e 37eb 073f fc44 aebf 5f66 fa3f
000002b0: e05d e23f 4b5d 7cbf 8058 9ebf ec51 13c0
000002c0: 5c36 84ba f673 59bf f666 d4bf 1fd2 9c3e
000002d0: 3c4d 973f 01ed a63e 9865 c7be 2cae 3640
000002e0: 9709 533f 7960 4c3f 7bcb f13f 2eed 173f
000002f0: fda6 8e3d 523d cdbf 9b11 dcbe 247f 133f
00000300: 5e50 b03e b680 46c0 6cb7 babf 1146 b7bf
00000310: ab6c 1bbf 5dfc 84be 9a11 38bf a38b c5be
00000320: 6efa 053f a538 52bf bb15 f1be 3b05 1a3f
00000330: 51a5 90be bfee 443f 1053 44bf 8f11 73bf
00000340: 5b96 8a3c 7b68 a43d ebad 3e3f da38 ac3f
00000350: 99dd 013e beee 1cc0 d3fa d43e 4a86 f33f
00000360: 5513 3cbf 66ea 363d 0eb4 c2bf c517 b23e
00000370: 427c 3d3f 0746 b53f 2bf3 2e3f e391 0dbe
00000380: 49da 6b3f 063b 073f 5bd0 06bc b683 b9bf
00000390: 3ced 1abf 088c 37be 1e59 4c3e 4f83 9fbf
000003a0: 5f46 d4be f359 ba3f 7ace a93e 4e03 80bf
000003b0: cc23 31bf c6a8 f1be 2f0c a5bf 94c3 893f
000003c0: 078b 88bf c8a2 febf 6a39 983e 5571 de3e
000003d0: 7862 5e3b e912 83bf bd6c 653e 0a67 41bf
000003e0: e50c af3f 6ab4 a3be 6dc0 69bf a7a8 f53f
000003f0: ed63 d3bf 5574 0940 db10 29bf 3c80 e83d
-0.86151224 -1.1989408 0.2041267 -0.85883564 -1.7689582 -0.211326 -0.707723 2.4578168
-0.5116771 -1.3137103 0.7346092 -0.06478012 -0.4486249 -0.427779 -1.4584993 -1.0416895
0.2647915 0.06493231 0.8467812 -0.1760069 -0.79635835 0.39210126 0.9590594 -1.3575687
0.67483616 -1.2436967 -0.04468144 0.58379155 0.58181876 0.06405305 1.8610853 0.69814193
-1.9198921 2.4442174 -1.0283408 0.843499 -0.29729423 -2.4074264 1.0653983 0.3061478
-0.9447416 1.777401 1.5507295 -0.21086626 0.43751475 0.48225746 0.6519494 1.1439173
-0.4137862 0.51840883 -0.7015368 -0.4323409 0.14147705 0.071103625 0.56335306 -0.57863575
-1.0838116 -0.388926 0.81261057 1.4981188 0.043896087 1.4443233 0.23202892 0.50649834
-1.2786967 -0.03842747 1.913801 0.3378446 0.12505612 -0.7621515 -1.19056 0.77560735
0.45571992 0.25033033 -1.3610971 1.8018341 -0.074341945 -0.15664156 -0.8708455 -0.64109725
-0.41456285 -0.69023806 -0.2299562 -2.172284 0.08768324 1.0937846 -0.11772058 -0.29864323
-0.9536206 -0.09247278 -1.0166546 -0.0076756896 -0.51822084 0.83954257 0.058522668 -1.668248
2.1296248 -1.5181471 0.13872829 -1.1797569 -0.52974117 0.9625158 0.2794383 -0.5718191
-2.793629 -0.7111545 0.52352196 -1.7105501 0.83848536 -0.26984537 0.12306158 0.87575114
0.15132998 0.7393934 0.27310315 2.731231 0.43200523 -0.30918217 -0.09658124 1.5419251
-0.10874478 -0.41890433 1.4384385 -0.70684266 -1.2519515 3.0250485 1.346259 0.855607
0.3220294 0.44605663 1.5229592 1.2804899 -0.11616043 1.3705363 -0.48093814 -0.9903622
-1.3641813 0.008205652 -0.4058602 -0.711086 -0.34957936 0.37974882 0.99930406 1.2751853
0.95949274 0.10351 0.829035 2.0921295 0.79530954 0.27928478 0.18644784 0.3547133
0.0906385 1.7422553 -1.2660012 0.3891608 0.34287506 -1.4590638 -1.4936562 -0.22138521
0.22523506 -0.07724538 0.9856945 1.2783364 0.2881519 0.8690496 -0.8097058 -1.4298605
0.45901597 0.53093284 -1.3614802 1.9562491 1.7684898 -0.98579854 -1.2370758 -2.301875
-0.0010087001 -0.8494257 -1.6593921 0.3062906 1.1820445 0.32602695 -0.38944697 2.8543806
0.8243651 0.79834706 1.8890222 0.5934628 0.06965444 -1.6034338 -0.42982182 0.57615876
0.34436315 -3.101606 -1.4587226 -1.4318258 -0.6071269 -0.25973788 -0.7190186 -0.38583097
0.5233525 -0.8211768 -0.47086892 0.6016423 -0.28251126 0.769268 -0.76689243 -0.9494867
0.016917398 0.080277406 0.7448413 1.345485 0.12682189 -2.4520717 0.41597614 1.9025357
-0.73467 0.044657134 -1.5211198 0.3478376 0.7401773 1.4161996 0.68339795 -0.13825183
0.9212995 0.5282444 -0.008228387 -1.449332 -0.6051824 -0.17924511 0.1995587 -1.2461947
-0.4145994 1.45587 0.33165342 -1.0001009 -0.69195247 -0.47199076 -1.2894343 1.0762811
-1.0667428 -1.9893427 0.29731303 0.4344584 0.0033933204 -1.0240146 0.22404762 -0.7554785
1.367581 -0.31973583 -0.91309243 1.9192094 -1.651487 2.1477253 -0.66041344 0.11352584

node_encoder.weight f4 [4, 16]
00000000: d343 533f 95a1 e3be 67a3 c83f f5c8 723f
00000010: de5d 51be 313c 713f 885d c73e edd9 e83d
00000020: f4c5 71bf cfa0 00c0 ae4f f1be bf44 c6be
00000030: 4825 d93d 0c26 853f 5821 b73c 7360 a83f
00000040: c5c3 2fbf 8c55 f7bf 27e1 cebf 1518 39bf
00000050: 659b e53e aacf abbe f980 833d c808 0dc0
00000060: 732d c0be 7ee4 c1be 7bf6 8a3f e406 8e3f
00000070: eece 8fbf 5bba 86be 9189 64bf 389a 883f
00000080: 8cd7 823f 558a 85bf 8d5d 55bf 233e 1fbf
00000090: 1374 a6bf 5549 edbf 26f1 633f 21ac 3abe
000000a0: 5f2b 093f 7a12 11bf 8a53 38bd c78a 213f
000000b0: 3530 233f 1a07 0bbe 6286 95bf e324 2fbf
000000c0: 380b 36bf 2ef9 c5be 7134 753f 6291 52bf
000000d0: f302 19c0 a7fd a43e bd0c f03f ab59 8d3f
000000e0: 6dba 05bf 767c 3dbf cd40 263e 80af 72be
000000f0: 158b 023f 09d7 d53f 19ca cb3f 2217 d5be
0.82525367 -0.44459215 1.5674866 0.94837886 -0.20445964 0.9423247 0.38938546 0.11369691
-0.9444268 -2.009815 -0.47131103 -0.38724324 0.10602814 1.0402236 0.022354767 1.3154434
-0.68658096 -1.9322982 -1.6162461 -0.7230237 0.4484512 -0.33556873 0.06421084 -2.203661
-0.37534675 -0.37869638 1.085647 1.1095853 -1.1235025 -0.26314053 -0.8927241 1.0672064
1.022203 -1.043284 -0.8334587 -0.6220419 -1.3004173 -1.8538004 0.8903984 -0.18229724
0.53581804 -0.5666882 -0.045001544 0.6310238 0.63745433 -0.13576928 -1.1681635 -0.6841566
-0.7111087 -0.38666672 0.95783144 -0.82253087 -2.390805 0.3222477 1.8753887 1.104299
-0.5223759 -0.7401804 0.16235657 -0.2369976 0.5099347 1.6706249 1.592105 -0.4161921

gnn_layers.0.lin_l.weight f4 [32, 32]
00000000: 4eb1 d93b 5eb1 a83c c5c1 8e3d 65c6 04be
00000010: e176 98bd a474 fa3d 19f3 63be bf7d b63d
00000020: ceb5 1d3e 6a26 2f3e 1baa 053d b21d 3bbe
00000030: 2a5c 763d 2b7f 8ebd 5e8c 413c 39f9 e83d
00000040: a761 03bd d700 30be 80c5 07be 6855 153e
00000050: e602 c8bb 0f9a 4e3e c9ee 633c cb8d e0bd
00000060: 9a34 793d 9303 813e 1523 bd3d fd3d 743d
00000070: 1e8c dcbd e6c6 02be 6d42 f73d bddf f1bd
00000080: d0b6 f5bc 7db2 ee3c 1d0e 363d d192 b13b
00000090: 01f9 b7bd 5a16 7abd 7fa4 b93d 8b03 4f3d
000000a0: c5eb 083e db23 9ebc e760 083e 883d 8fbd
000000b0: f2eb 7bbd 6453 88bd c60b 8bbc 0100 01be
000000c0: 8fd8 fe3d f346 59be 79a3 bb3e 0c53 1ebe
000000d0: 8d23 2fbe 0b4a c03e 0ece f23d 4558 cbbd
000000e0: 5d9a fc3e 338a 88be 4f68 5abd 8dfc 0a3f
000000f0: 493e a83e cf41 263d 114b 453e 7cfd 253e
00000100: 6cd1 c33e 5f22 d93c ba72 a93e 68c3 fc3e
00000110: b525 80be 23d4 d33e a945 3fbd 07d2 963e
00000120: e4b8 ebbd 5052 09be aebb 84be 2220 f3be
00000130: a1c9 a43e c8d7 843e 03e6 8b3d ea1f bb3d
00000140: e2a2 6cbe 5a30 443d 7c9f adbc 6fd6 0a3e
00000150: 2a7c ce3d 707a d83e ac19 463e 0eaa ebbd
00000160: dece 653d 412a 0e3e 6c99 243d 1781 7ebc
00000170: 9599 d7bd 9a35 183e 7430 ccbd ed0e c63e
00000180: c72e 47bd 4df3 dd3c 72e2 2c3d 888b d7bd
00000190: 8747 c9bc 992d 033e 8a0a d83d f7c0 eabd
000001a0: c909 edbd 3415 053e 7fa9 0e3d af6f e43d
000001b0: d82e a0bc 11b4 83bc be0b 32be d449 88bd
000001c0: d60d fbbd 8e46 cf3e ebf9 2dbf 9814 253f
000001d0: a773 cd3d d765 b3be 4043 9c3d 9396 71bd
000001e0: 27b3 f2be da34 013f 9425 543d b11b b5be
000001f0: ffbf c2be baba 043f b14d 54be 6176 bc3d
00000200: dc7b 4e3b 86df 063c 3150 633d c354 9cbc
00000210: 2dda cc3d 5b89 8cbd 5e44 46bd 8293 b2bc
00000220: 9152 2a3d f87a 143e fc37 b83e e339 043e
00000230: 9fcd 1f3e 84f0 c2bd 5650 6abc d9c1 d0bd
00000240: 4cf8 cc3e ea03 a6be 8c13 313f 0643 8dbe
00000250: c45d 08be 1d77 963e 03ff b7bd 9d9d 21bf
00000260: f598 503f 3891 babe e16d ebbd 64e4 9a3e
00000270: 9797 623e d715 5fbe 66b5 933e 6c89 003e
00000280: 58a8 f9be 23e0 b63d e499 c7be aea9 97bd
00000290: 60a0 a23e 1a17 693c 2123 e33d eb94 4cbe
000002a0: d2dc 38bd fee6 103e f878 903d 958a 813e
000002b0: 886a 88be e35b 973d 6a11 32be 0676 2bbd
000002c0: 1135 b43d a24b 8fbd 9f3c c13d 8b16 1b3e
000002d0: 3a70 5c3e 0c72 b3be e802 69be 977d d13c
000002e0: 1ede 01bd bae5 183c 13a1 df3c 6a84 22bf
000002f0: 7d2b 75bd fee2 06bd 32f4 0c3e 9420 4d3d
00000300: 8248 3f3e 732e 843d 5a4c b63d d02c c3bc
00000310: 8104 8ebd ca46 b0bd 6d6f 00be 1a71 9c3e
00000320: be3e 89bd 658a 9b3d 5f8f 00bf 8629 ca3d
00000330: b274 733e c721 b9bd 30b6 0f3e 3588 8fbd
00000340: 8fe0 bdbd 251e 413e 7fe1 883e 2b83 bb3e
00000350: 27d9 24be 0e2e 4d3e 4959 9f3e c6ff 1cbe
00000360: 7350 cc3e 8b47 aabd 9836 e63d 43e5 9a3e
00000370: 91fb 293e 272e ef3d e20e c13e b5bf c93e
00000380: 7bef 7b3d 47e1 5c3e 754c 91bd 6245 45ba
00000390: 272f e2bc 8c7b fa3d bb27 6ebc 61a5 42bd
000003a0: 6036 e83c 9782 3dbd a5eb 47be 87db cc3d
000003b0: 27b7 fdbd 21a5 94bc 13b7 a03c 1a1b 85bd
000003c0: 6e10 5d3c e9c4 de3d 96a0 46be b518 513e
000003d0: b84e 1d3e cfb5 a33d 2653 6ebe 0a6d 003e
000003e0: 1f1d 9dbe bfd6 5dbc 3ded 78bd c70c 0fbe
000003f0: 91b0 b9bc da29 c4bd c0e8 4fbe af11 89be
0.006643451 0.020592388 0.06970552 -0.12966307 -0.07444549 0.12229279 -0.22260703 0.08910703
0.15401384 0.17104498 0.03263293 -0.18273047 0.06014649 -0.06957849 0.011813251 0.113756604
-0.03207555 -0.1718782 -0.13258934 0.14583361 -0.006103861 0.20175956 0.013911911 -0.10964545
0.06084118 0.2519804 0.09235207 0.05962943 -0.10768913 -0.12771186 0.120732166 -0.11810253
-0.029994398 0.029137844 0.044447053 0.005419113 -0.089830406 -0.061056472 0.09064578 0.05054049
0.13371189 -0.019304207 0.13318215 -0.06994158 -0.06150431 -0.066565305 -0.016973387 -0.12597658
0.12443649 -0.21218471 0.36648157 -0.15461367 -0.17103405 0.3755649 0.11855708 -0.099289455
0.4933652 -0.26667938 -0.053322133 0.5429161 0.3286002 0.040590104 0.19266917 0.16209978
0.38245714 0.026505647 0.33095342 0.49367833 -0.25028768 0.41372785 -0.046697292 0.29457113
-0.115098745 -0.13410306 -0.25924438 -0.47485453 0.3218508 0.25945878 0.06830981 0.091369465
-0.2310901 0.047897674 -0.021194212 0.13558362 0.10082276 0.42280912 0.1934573 -0.11507045
0.056105487 0.13883306 0.040185377 -0.015533707 -0.1052734 0.14864197 -0.09970179 0.38683262
-0.048628595 0.027093554 0.042208143 -0.1052466 -0.02457024 0.12810363 0.10548885 -0.114625864
-0.11574132 0.1299637 0.034829613 0.111541145 -0.019553587 -0.016077073 -0.17387292 -0.066547066
-0.12258498 0.40483516 -0.6795947 0.6448455 0.100318246 -0.35038635 0.076300144 -0.05898149
-0.47402307 0.5047127 0.05179365 -0.3537269 -0.38037106 0.5184742 -0.20732762 0.092022665
0.0031506931 0.008232003 0.0554964 -0.019083386 0.10002551 -0.06862136 -0.048405044 -0.021798853
0.041582648 0.14500034 0.35980213 0.12912707 0.15605782 -0.09518531 -0.01430138 -0.101932235
0.40033185 -0.3242486 0.6917045 -0.27590197 -0.13317019 0.2938775 -0.089841865 -0.63131124
0.81483394 -0.36438918 -0.11495567 0.30252373 0.2212814 -0.21785675 0.28849334 0.12552422
-0.4876125 0.089294694 -0.38984597 -0.07405411 0.3176298 0.014226699 0.11090685 -0.19978683
-0.045132466 0.14150617 0.07054323 0.25301042 -0.26643777 0.07390573 -0.17389455 -0.041860603
0.08799184 -0.06996848 0.09435391 0.15145318 0.21527186 -0.35047948 -0.22755015 0.025572581
-0.031705968 0.009332115 0.027298486 -0.634833 -0.059855927 -0.03293132 0.13765028 0.050079897
0.18680003 0.06454172 0.08901282 -0.02382508 -0.06934453 -0.08607252 -0.12542506 0.3055504
-0.0670142 0.07594756 -0.50218767 0.09871201 0.23774984 -0.09039646 0.14034343 -0.07008401
-0.09271347 0.18859155 0.2673454 0.3662351 -0.16098462 0.200371 0.31122807 -0.15331945
0.39905128 -0.08314427 0.11240882 0.30253038 0.16599871 0.11678725 0.37706667 0.39404073
0.061507683 0.21570311 -0.07094661 -0.00075252925 -0.027610375 0.12230596 -0.01453584 -0.047521
0.02834624 -0.04626712 -0.19523485 0.10002809 -0.12388449 -0.018145146 0.019618547 -0.0649931
0.013492687 0.108774014 -0.19397196 0.20419581 0.1536206 0.079936616 -0.23273906 0.12541595
-0.3068628 -0.013539969 -0.060773123 -0.13969718 -0.022667201 -0.09578295 -0.20303631 -0.26771304

gnn_layers.0.lin_l.bias f4 [32]
00000000: 8bf2 fa3c c6f9 63be b2af c83d 9c9b 2bbd
00000010: 4473 123d 3a19 1a3e b785 24be fd83 0abd
00000020: 49a5 23be 34cc 003e feee d83d 4452 e83d
00000030: de64 3cbd 1101 f63b 8c0a 38be 2a91 393d
00000040: f8e9 393e 908a 21be bc63 e6bd 9ddd 2cbd
00000050: 8a16 49bd 38c5 d83b a85b 363e 7379 0cbc
00000060: 48ff 083d f41a 883d 4472 8ebd 17f0 e33d
00000070: 8425 e63d d950 643d d933 26bd 923a 7f3e
0.030633232 -0.2226325 0.09799136 -0.041896448 0.035754457 0.15048686 -0.16066633 -0.03381728
-0.1598102 0.12577897 0.10592459 0.11343816 -0.045994632 0.0075074513 -0.17972773 0.045304455
0.18155658 -0.15775514 -0.112494916 -0.042203534 -0.04909376 0.006615307 0.17808402 -0.008573878
0.03344658 0.06645766 -0.06955388 0.11129778 0.11237624 0.055741165 -0.04057679 0.24924687

gnn_layers.0.lin_r.weight f4 [32, 32]
00000000: 0253 1bbe a8c1 d23d b45d 693d 437d 163e
00000010: 0d7a cdbd fe06 523d c99e 18be 6f03 0c3e
00000020: 939f 133d 1391 a5bd 42ae 833b 635a d93c
00000030: ea09 4e3d f1c5 393e 98d2 fa3d 7728 693d
00000040: eeb0 f23d 0752 14be 6e9f 933d 314c b33c
00000050: 5ee4 123e dbde 9c3d 0898 4f3c 94e6 d03d
00000060: f5cf 6cbd 49b4 bd3d 2671 103d fbb4 01bd
00000070: b3ef de3d dffd 06be 49cd 35bd b009 e03d
00000080: 0909 6ebb 269d 08be 397e 8fbc de9c afbc
00000090: c385 6d3e 24d7 2fbe c734 e4bd 1286 fcbd
000000a0: baa4 ecbd 9bc4 b43d e58f a1bd 68ad 183e
000000b0: 17cd 12be 894a c2bb a149 a8bd 6b0f 1c3c
000000c0: f8dc 7e3e a8aa 0f3d 9538 d13e a652 40bd
000000d0: 72ae cebd 093f bf3e 76af bcbe 1d8a 543e
000000e0: 96e5 343e dbc8 8fbe 4584 d1be 788b 59be
000000f0: 8438 973d d664 1cbe 635e ba3c 1ada b5bd
00000100: 2f66 99bd 6aa0 813d 9082 42bd d8fa bd3d
00000110: 84a5 843d 9b75 ef3d 10d4 003d a096 a7bd
00000120: 1b69 273e e00e 9b3c b1b6 723d 2759 703d
00000130: 03e1 24bd 95a7 4bbe 6ca3 eb3c 047a 27bd
00000140: 0a00 6fbe c198 d1bd da65 90be 6aed a3bd
00000150: eb83 5c3b e275 463c 622f 4ebe 7245 493e
00000160: b0b9 e8be fa80 703d e795 fc3d 4f59 cbbe
00000170: 76c7 e8bd 739c 67be 5360 6dbd 00ec bfbd
00000180: 95db 1f3d 3fb0 3cbd ef60 583c e331 723d
00000190: 3209 1ebe c30c b5bd bb62 313e d6e3 40bb
000001a0: 34ee ddbd b3eb 61bd c8dc 8ebc 06e8 cdbc
000001b0: 57a8 c5bd 8111 14be f204 d73c d318 ca3d
000001c0: 0aee be3e 1749 4d3e e736 13be 4e6f 24bc
000001d0: 2485 4f3e fb1b e3bc 9fc4 073e 3962 0cbe
000001e0: 1721 adbc fed7 7ebe 3768 c3bd 74e0 12be
000001f0: e8e8 5fbe c636 24bd 4c7d b2bd 10df b0bd
00000200: 0da5 aebc 1279 083e 4fad b6bc 60d4 1f3e
00000210: 6373 ae3b 7836 313e 14c4 103e f467 013d
00000220: 941e 16be 7103 ae3d 2b76 593d 01dd 8dbe
00000230: 843d c73d aa5d 04bd 58eb 883e 172e 243e
00000240: d71a b03e 6d11 883d f892 8f3e 5999 453e
00000250: 0557 ddbd de93 673e fcc8 22be 7d01 a5bc
00000260: 9685 763e 9ea9 50bd ffa3 cbbe 5e0c d9be
00000270: 6b8b 1f3e dba8 683e ebe0 053e 4d0a 933e
00000280: 7149 ebbd 27fb 873b 5380 14be f8e2 2fbe
00000290: 931a 5bbd 18c9 0a3e 6581 3f3e 7b4a 0c3e
000002a0: 365d 303e 09a3 d5bd edf4 7fbe f6c1 e83d
000002b0: 8c1d f3bd 4cc8 1cbe 485f 803d 6fbe 22bd
000002c0: 6130 903e 725a 2fbe 6a68 c83e 5a56 c3bc
000002d0: cc46 943c 77e4 353e 1e55 953e 6ece fabe
000002e0: fd61 e83e 4e31 49be b665 b5be d797 983e
000002f0: 3eb7 0e3e ecd3 693d 4f82 bb3e 052d 913c
00000300: 790d 15bd 98a8 60bd 745d 05be a790 d93d
00000310: cc5e 083e 4ffa c1bd 57e4 ca3d 3d61 e7bd
00000320: 00c6 b73d 3488 62bd 300a 543e 884e 353d
00000330: f1c6 92bd 1104 ac3d bd58 a33c 288c 12bd
00000340: b1e0 5d3f 478f b6bd 5df3 0e3f 4723 b6be
00000350: 1034 28be 5a8f a13e f6b6 04bf 9ba4 cd3e
00000360: ae84 b83e bf40 4bbe a0bc 7abf c5b6 76be
00000370: a750 35bc 01a8 303d 1d58 b73e 2e9c a2be
00000380: cfe0 e4bd e8cb 9fbd b00c 0ebd 9ba2 40bd
00000390: 5ac1 763e 7dea 89bc aebd c1bc 7e9a 653e
000003a0: 0f0f b93d fd44 eabd f8cb 90bd c8c8 10be
000003b0: 82b4 a33d 16f0 4bbd a03a be3d 8148 103e
000003c0: a36e f33d b10a b83d 0fd0 90be 0508 303e
000003d0: b573 a33e 0e46 0e3a 2a8d 133d 9dc1 bbbe
000003e0: b535 0fbe ef33 173d 9a52 74be efdf 12be
000003f0: f749 22bd 3d66 af3d 95f5 acbc a5bc 053d
-0.15168384 0.10290843 0.056974128 0.14696221 -0.10033045 0.0512762 -0.14904322 0.13673185
0.036040854 -0.08084311 0.004018576 0.026532358 0.050302424 0.18141915 0.12247199 0.056923356
0.11850153 -0.14484416 0.07208143 0.021886917 0.14344928 0.07659694 0.012670524 0.10200229
-0.05781551 0.09262902 0.035264157 -0.031666737 0.10885563 -0.13182782 -0.04438523 0.10939348
-0.0036321303 -0.13341197 -0.017516242 -0.021437105 0.23195557 -0.17171913 -0.11142879 -0.123302594
-0.115548566 0.08826562 -0.07888774 0.14909899 -0.14336048 -0.0059292954 -0.082171686 0.00952516
0.2488898 0.03507486 0.4086348 -0.04695382 -0.100918666 0.3735278 -0.36852616 0.20755811
0.17665705 -0.28082928 -0.40921226 -0.2124461 0.073838264 -0.15272841 0.022750085 -0.0887949
-0.07490193 0.06329425 -0.047487795 0.0927636 0.06476882 0.11692353 0.03145224 -0.08183026
0.16348688 0.018927991 0.05925626 0.058678772 -0.04025365 -0.19888146 0.028764449 -0.040887848
-0.23339859 -0.102342136 -0.28202707 -0.080042675 0.0033647965 0.012113066 -0.20135263 0.19655398
-0.45454168 0.05871675 0.12333279 -0.39716575 -0.11366169 -0.22618274 -0.05795319 -0.09371185
0.03902777 -0.04606652 0.0132067045 0.059129607 -0.15433195 -0.08840325 0.17322819 -0.0029432676
-0.10836449 -0.05515642 -0.017439261 -0.025135051 -0.09651249 -0.14459802 0.026247475 0.09868016
0.37290984 0.20047413 -0.14376412 -0.010036303 0.20265633 -0.027723303 0.13258599 -0.13709344
-0.021133943 -0.24887082 -0.09541362 -0.14343435 -0.2186619 -0.0400913 -0.08715305 -0.08636296
-0.021318937 0.13327435 -0.022299437 0.15608358 0.0053238138 0.17305934 0.14137298 0.031593278
-0.14660102 0.0849675 0.05309121 -0.27707675 0.0972853 -0.032315888 0.26742053 0.16033207
0.34395477 0.06643949 0.28041816 0.19296779 -0.10807613 0.22615 -0.15896982 -0.020142311
0.24074396 -0.05094301 -0.39773557 -0.42392248 0.15580527 0.22720663 0.1307408 0.28718796
-0.11488617 0.0041498127 -0.14502077 -0.17176425 -0.05349214 0.13553274 0.18701704 0.13700287
0.17223057 -0.10431487 -0.24995776 0.1136512 -0.1187087 -0.15310782 0.062681735 -0.039732393
0.2816191 -0.17124346 0.39142162 -0.023844887 0.018100165 0.17762934 0.29166502 -0.48985618
0.4538726 -0.19647714 -0.35429162 0.29803345 0.13937089 0.05708687 0.36622855 0.017721662
-0.0363898 -0.054848284 -0.13023931 0.10623293 0.13317412 -0.09471571 0.099068336 -0.112978436
0.089733124 -0.055305675 0.20707011 0.044264346 -0.07166851 0.08399213 0.019939775 -0.035778195
0.86670977 -0.08914047 0.5584009 -0.3557379 -0.1642611 0.3155468 -0.51841676 0.40164647
0.36038727 -0.19848917 -0.9794407 -0.24093159 -0.011066592 0.04312897 0.35809413 -0.3175978
-0.11175691 -0.07802564 -0.03468007 -0.047030073 0.24097195 -0.016835446 -0.023650017 0.22422215
0.09036075 -0.1143894 -0.07070154 -0.14139092 0.079934135 -0.04978951 0.092885256 0.14090158
0.11886337 0.08986414 -0.28283736 0.17190559 0.31924215 0.0005427309 0.036023296 -0.36671153
-0.13985331 0.036914762 -0.23859635 -0.14343236 -0.03962132 0.08564422 -0.021113196 0.03265061

gnn_layers.1.lin_l.weight f4 [32, 32]
00000000: a63b 5e3e 3a49 213e c3db a9be 47ba 2fbd
00000010: 1a17 313e 32c8 343e 9993 e5bd 5fda debd
00000020: 40b0 8c3d de7e 4f3e c24f 823e 98ff a2be
00000030: 1ffb 37bf 059c 683d cf13 78be d69a 953e
00000040: 8344 d7bd 6289 8abc 8b14 cfbe a642 d9bb
00000050: b932 e6bd e62a e23d d5b7 903d 46b5 e8bd
00000060: a614 233e 5597 84bd 4ce2 23be c446 973e
00000070: 3240 1bbe fba6 6cbc 545c 87bd 31bf e6be
00000080: db66 9cbc 258b 743d f7c4 5d3d 7c74 d0bd
00000090: 39e4 10bd 77ae 1f3d 0bc5 f9bd 93f4 aebd
000000a0: 8807 f33d ef36 e6bd 37f5 da3d 1f38 a03e
000000b0: f18e 953b 4392 523e 4c30 1b3e 3313 16bd
000000c0: de9c a1be 1e0a d33c 939a 4cbe 53db 0e3e
000000d0: 4650 7d38 7612 b4bd 5d80 05bd 16fd 7c3e
000000e0: 74cf 7b3e 9877 8c3d afa5 fd3d d3e5 98bd
000000f0: 0d2a a53d b91e cfbc ab99 0c3c 57aa f93e
00000100: d48d d5bc cb15 473e 219a 033e 235f 7bbd
00000110: 5d8a 89be 7ae7 15be 8088 243e 8f12 0abe
00000120: 5826 0b3e fd05 a83d b63b 2cbd 138f 8d3e
00000130: cb52 9fbe c01c 613d 3992 b23d 5cde 7cbe
00000140: b373 d4bc 1eb6 aa3e 0a3f 233d 749b 2f3e
00000150: e405 023e 737d a23b 2186 353e 4280 c8bd
00000160: 15cd 91be 416b ae3e b6c9 ac3d 2c80 8d3e
00000170: 18c4 453e 1f1f 2d3b 0dfd ed3e 0ff6 e93e
00000180: 739d 133e 1f96 9b3c 863f f1bd ba0e 0fbe
00000190: e82a a6be d8d6 8d3d 8b1a 7dbb abdb cebc
000001a0: cc5c 123e e3aa a6bd 3df1 8d3d 1a8a 473e
000001b0: 4185 39be ace0 47bd fb72 783e 2cbb c63c
000001c0: 8549 52be d34a 413e abc9 e03d 6506 84be
000001d0: 9a3c e5bd b49b 24bd 911b e6bc dd25 1b3d
000001e0: 53aa bdbd 479a d23d 7844 82bd 5186 093e
000001f0: dfea 893d bb55 babd c610 89bd e9e8 cd3e
00000200: 15a3 053e 31cc 5abe 0afc bfbd d456 77be
00000210: 57fe dc3e fa87 f43c 9035 8ebe c1b2 d23d
00000220: e225 963d 96b2 043d 4834 ffbd b83d d9bd
00000230: 4905 e33e ec91 2e3e ee87 5bbe d3bd 93bd
00000240: 09c0 4ebd 8320 92be 3449 df3d 9b0d 23bd
00000250: 97ba a13d 2a86 22be f3d7 8fbc cecf 153e
00000260: 7017 ac3e b61f 09be 86dc 643d b132 8dbe
00000270: 14fa bc3d 22f4 30be 9f23 cebe 9353 0abe
00000280: 6f91 cbbd 382b acbd b4c6 b03d 7a61 46be
00000290: e44b 98bd 2d55 f43c 5384 5fbe e5d8 8939
000002a0: 990f 033c 2fa4 03be 44cd a5bd 7672 dc3d
000002b0: 8994 fc3d 8415 173e 2849 353e c0b3 e53c
000002c0: 8bb4 9cbe 56b8 2fbe d2a0 f1be a4d1 c63c
000002d0: 27b6 ba3d 3aef 5bbe f688 94be 9d3d 973e
000002e0: 838c 62be 706c 453e 4713 eb3d 36c5 2ebe
000002f0: e6ab 8d3c 813a 7dbe 9041 1e3e e212 f53d
00000300: 3b30 383d 91cb d23d fe05 f53c 0ce9 1fbe
00000310: 380e 02be 4b02 9d3d c123 073e a28f 0fbd
00000320: a137 f6bc 5493 6abe caa5 fe3d a96c 043e
00000330: 7e9f 79be 8399 3dbe 50c0 e13d d8bb 0cbd
00000340: f17b b4be 4cfe 393e 7d94 68be 97fe 703d
00000350: 8a10 c73d fe15 8a3e 3cc2 603e 778d 5cbc
00000360: 86d9 febd df49 ab3d f2e7 123e 84d8 953e
00000370: 20ac 913e e3c2 bc3d efa9 a2bd 7bf9 d03e
00000380: a87a 073e 4521 1e3d a67c 563e 332d 163e
00000390: 6015 c33e e5f4 673d 1d9a b7bd 3821 b2bd
000003a0: f05a 59bc 56cc debb 0664 45be 6f10 c23c
000003b0: e756 2b3e 235c 1e3e b3eb 113e a167 abbd
000003c0: 15ed ddbd 7ba2 f8bd e27e 893e 59bd 283e
000003d0: 85c6 5e3d 77c1 f6bd 6515 603d 7c98 b93e
000003e0: 1bc9 e73d b560 7fbe 2978 dd3d 3dd4 1cbe
000003f0: 0d03 4ebd ec85 683c 46f6 39bc a72e 833e
0.21702442 0.1575059 -0.33175477 -0.042902257 0.17293969 0.17654493 -0.11209793 -0.10881495
0.068695545 0.2026324 0.25451475 -0.31835628 -0.71867555 0.056789417 -0.24226306 0.29219693
-0.105111144 -0.016911212 -0.4044536 -0.0066302596 -0.11240143 0.110433385 0.07066313 -0.113627
0.15925846 -0.06474177 -0.16004294 0.29546177 -0.15161207 -0.014444108 -0.06609407 -0.45067742
-0.019092014 0.05970301 0.05414292 -0.10178468 -0.0353739 0.038984742 -0.12195786 -0.085427426
0.11866671 -0.112409465 0.10691302 0.31292817 0.004564159 0.20563607 0.15155143 -0.036639404
-0.31564993 0.02576166 -0.1998084 0.13950853 6.039466e-05 -0.08792584 -0.03259312 0.2470592
0.24590856 0.06858748 0.12385117 -0.074657105 0.08064661 -0.025283204 0.008581559 0.4876277
-0.026068605 0.19441907 0.12851764 -0.061370026 -0.26863375 -0.14639083 0.16067696 -0.13483642
0.13588846 0.08204267 -0.042049132 0.2764822 -0.31117854 0.05495906 0.08719296 -0.24694198
-0.025934076 0.3334207 0.03985504 0.17149144 0.1269756 0.0049588024 0.17726947 -0.09790088
-0.28476778 0.34066203 0.08436911 0.2763685 0.19313085 0.0026416255 0.46482125 0.4569554
0.14415531 0.018992482 -0.11779694 -0.13970461 -0.3245461 0.06925744 -0.0038620557 -0.02525123
0.14293212 -0.08138063 0.06930778 0.19486275 -0.18117239 -0.04879825 0.24262612 0.024259172
-0.20535858 0.188762 0.10975965 -0.2578613 -0.111931995 -0.040187553 -0.028089317 0.037877906
-0.092610024 0.10283332 -0.06360716 0.13430144 0.06734251 -0.09098383 -0.066926524 0.4021676
0.13050492 -0.21366955 -0.093742445 -0.24154216 0.43162796 0.029849995 -0.2777524 0.10288001
0.07331444 0.032396875 -0.12461144 -0.10607475 0.4433997 0.17047852 -0.21438572 -0.072139405
-0.050476108 -0.2854043 0.10902634 -0.039807897 0.07896917 -0.15871492 -0.017559027 0.14630052
0.3361163 -0.13391003 0.05587437 -0.27577737 0.09227386 -0.1728063 -0.40261552 -0.13508444
-0.09939849 -0.08406681 0.086316496 -0.19373122 -0.0743635 0.029825771 -0.21827821 0.00026292275
0.007999324 -0.128556 -0.08095792 0.10764019 0.12333018 0.14754301 0.17703688 0.028039813
-0.30606493 -0.17160162 -0.4719301 0.024269886 0.09116774 -0.21477976 -0.29010743 0.29539195
-0.22123913 0.19279647 0.11478286 -0.17067418 0.017293882 -0.24729349 0.15454698 0.11966492
0.04496787 0.102927335 0.029910084 -0.15616244 -0.12700737 0.07666453 0.13197233 -0.03504909
-0.030055823 -0.22907764 0.124339655 0.12932076 -0.24377248 -0.18515591 0.11023009 -0.03435883
-0.3525081 0.18163413 -0.22712894 0.058836546 0.097199515 0.26969904 0.21949095 -0.013461462
-0.12443833 0.08363699 0.14346293 0.2926675 0.28451633 0.09216859 -0.079425685 0.40815338
0.13230383 0.038605947 0.20945987 0.1466568 0.38102245 0.056630034 -0.08964942 -0.08697742
-0.01326631 -0.006799261 -0.19276437 0.023689477 0.1673237 0.15464835 0.14250068 -0.08369375
-0.108362354 -0.12140366 0.26854616 0.1647848 0.05438854 -0.12048619 0.054707903 0.3624915
0.11317655 -0.24939235 0.10813934 -0.15315337 -0.05029588 0.014192086 -0.01135022 0.2562153

gnn_layers.1.lin_l.bias f4 [32]
00000000: 616b 8bbd 9f8a 043e 87ad 9b3d ea6b 3ebe
00000010: 9134 433e ae55 f9bc b4bb 21bc 8c0d 883e
00000020: db57 32bd 9d10 8fbd d4a9 653d dad1 bcbc
00000030: da5c 4f3e dc55 78bc a03d d1bd 5c71 34be
00000040: ebcf 94bd f21c 783d e875 b63d 9119 22bb
00000050: d99b ebbd 1836 3e3d 2838 273c 2a30 013e
00000060: dad0 4dbc ecd0 4fbe 7f6d 25be 2afa 87bc
00000070: 77f1 d6bc b238 babd 2848 fc3c 498a 00be
-0.0680759 0.12943505 0.07601457 -0.18595853 0.19063021 -0.030436363 -0.009871412 0.26572835
-0.043540817 -0.069855906 0.056070164 -0.023049284 0.20250264 -0.015157189 -0.10216832 -0.17621368
-0.0726622 0.06057448 0.089092076 -0.0024734477 -0.11504335 0.046438307 0.01020626 0.1261603
-0.012562001 -0.20294541 -0.1615505 -0.01659878 -0.026238186 -0.09092845 0.030796126 -0.12552752

gnn_layers.1.lin_r.weight f4 [32, 32]
00000000: 45b7 d03d 0114 3d3d 837a a63e 16ad 09bf
00000010: 2bfd 923d eecc 9cbd 6065 aa3e 3a65 9ebe
00000020: 6ab6 1e3e d23e cfbc 963c 643e 63cb 1d3e
00000030: c327 35bf f5de 32bd f16f d7bd 6465 803e
00000040: 47e5 a3be b625 2c3d 82cf c5be c3e0 8a3e
00000050: 7153 063e 6c50 50be fec4 a7bd 4c07 a93d
00000060: a64e be3e b99e 69be 70ed 76be e2c2 7e3e
00000070: d0ef bc3b 271f 88be 9994 463e 35c8 bb3e
00000080: ae39 20be b1c9 cabd 5859 b5bd cf1b 843e
00000090: a6d9 52be d523 843e f2dd 953d 068c c3bd
000000a0: a0e8 d93d cce9 a43e 718f 973d 6652 80be
000000b0: df92 1cbf 0bb1 0c3e 79c1 9abd 8870 8c3e
000000c0: f84c 9e3e f64a d33e c8ea 71be 3790 cc3d
000000d0: f3a6 533d 5642 c33e 9b8a cc3e eccd e3bd
000000e0: 7242 6abe 10dc 6d3e 00f1 d03c 586e 853e
000000f0: 71f1 0c3e d7a8 5d3d 6ebd 25be 121c 89be
00000100: 54a4 c1bc 295d 703c dad4 0c3e ba4d 89bd
00000110: c15c 2abe 52d4 f1bd ed70 68be 69a9 453e
00000120: a423 ad3d 6dfb fbbd b9a3 433e 675b d73d
00000130: 2308 b8be 9769 b43e 5698 943e 76fc 2cbc
00000140: bb52 2abe 3841 a13e f275 1dbe db51 e53d
00000150: 6b2b bebc 97a3 163e 3fcd 9c3e cb40 c5be
00000160: 72ec b5bd 0e15 673e d920 193d 5a8d 143e
00000170: dc42 153e c357 2cbe ac8d 44be a044 433e
00000180: ee7c 23bd e91e eabc 258d 35be fda2 2e3e
00000190: b601 50be 3e27 283e c41b 39be 9019 1e3d
000001a0: d8c2 84bd ac8f e63d 782c 543e fcdb 573e
000001b0: bd1f d1be 44e7 b83d 89a1 3e3d c20d fbbe
000001c0: 5b69 b03d bff9 c83d 2285 17bd 4f55 953d
000001d0: 31c0 163c ed77 d2bd b31a 29bc 82ba 4cbd
000001e0: b974 3bbe 79f5 0cbd 3463 88bd 925c f93d
000001f0: 62bc 9ebb 2dfe 893d 7787 0dbe 864a 773e
00000200: 12ed fd3c 4ab8 a0bd 00de 603d bd31 883e
00000210: ad2d 4f3d 10dc 0f3e 0e6d 12be 4808 3cbe
00000220: e0f1 893d de9d 883d a515 24bf 4b0c 66bd
00000230: 95e4 153e e037 3ebe e41c 4e3e 3a11 14bf
00000240: a42f 3c3e a664 923d d609 0a3f 9a75 203e
00000250: ede3 c73d dca8 9a3e f3de aabe 6311 25bd
00000260: f12a 16bf f487 3ebe 9f3e 45bd a56a 15bf
00000270: 8af1 053d 4b89 653d 2b3c a33e 0860 853d
00000280: 05ef 25be d2f2 02be 54dc bf3d f613 34be
00000290: 00f7 ca3d ec1c 833d fa26 e3be be4d c83d
000002a0: f81b ba3b 3b82 f9bd 03b6 efbd 83eb 033e
000002b0: b70e ae3e c746 1cbd a5d5 45bb 4cfb bcbe
000002c0: 9eaf c43e 0df9 6bbc 6749 ba3e c20e a93c
000002d0: 722b 513d a519 103e 0168 053e 99a8 06be
000002e0: 8b40 653d e647 47be 4158 3c3e 012e a0bd
000002f0: 826d 1dbd 9785 4d3e 54ce 0b3e 24ee 253e
00000300: 06d4 6f3d efa0 4c3d a760 88bd 1dca ff3d
00000310: 5e36 edbd f69f 60be f29e 903e a47f 74bd
00000320: c8d8 663d d1f5 02be 480c 353e bc61 af3d
00000330: 265c 503d a4c2 8d3d deee 8f3d 178a 27be
00000340: 0882 23be 4692 513e 1cea 983d 077e cdbd
00000350: 9156 0dbe c587 943d bdac 8d3e 07fd 27bd
00000360: 033a 013e 8924 153e d41c 103e 85e1 eb3c
00000370: faf5 86bd 42ab cb3d 5582 3d3e d72e 953e
00000380: 127c 9d3c 2283 603e 6952 87bb 4e13 863d
00000390: 1ae3 4c3d f50c cdbe 4a23 93be 49bc a6bd
000003a0: 2a83 d13d 9cfa efbe fd4a 96be 7b8a 7d3e
000003b0: d30e dc3e 2bf9 81be bf49 863d 4ead b1be
000003c0: 7252 543c 2830 623d 7cca c53e 047e 433e
000003d0: 2d2f 84bd 7236 a0be b1b7 72be 7bb6 02bd
000003e0: 76ed dcbd d939 f5be 7399 ae3d 41fa 5ebe
000003f0: b1d4 623e 1e09 12be 416e 223e 0d6d 0e3e
0.10191206 0.046161655 0.32515344 -0.53779733 0.07177194 -0.07656275 0.33280468 -0.30936605
0.15499273 -0.02529851 0.22288737 0.15409617 -0.70763797 -0.04366966 -0.10519398 0.25077355
-0.32010862 0.04202815 -0.38634878 0.27124605 0.13117768 -0.20343179 -0.0819187 0.08253345
0.3716938 -0.22814454 -0.24114013 0.2487903 0.0057658926 -0.26586267 0.19392623 0.36676183
-0.15647003 -0.09901751 -0.088549316 0.25802466 -0.20590839 0.25808588 0.07317723 -0.09548192
0.10640073 0.32209623 0.07400406 -0.25062865 -0.6116161 0.13739412 -0.07556433 0.27429605
0.30918097 0.41268128 -0.23624718 0.09988444 0.051672887 0.38136548 0.39949498 -0.11123261
-0.2287691 0.23228478 0.025505543 0.26060748 0.13763978 0.054116096 -0.16185543 -0.26779228
-0.023637928 0.014670649 0.13753071 -0.06704278 -0.16636945 -0.11808075 -0.22699328 0.19302906
0.084540635 -0.12303815 0.19105424 0.105154805 -0.35943708 0.3523681 0.29022473 -0.010558238
-0.16633122 0.3149507 -0.15377024 0.11197253 -0.023214063 0.14710842 0.3062534 -0.38525996
-0.08882989 0.22566625 0.03738484 0.14507046 0.14576286 -0.16830353 -0.19194669 0.19069147
-0.039914064 -0.028579192 -0.17729624 0.17054363 -0.20313153 0.1642122 -0.18076998 0.038598597
-0.06482476 0.11257872 0.20720088 0.21080011 -0.40844527 0.090284854 0.04654077 -0.49033934
0.08613845 0.0981326 -0.0369922 0.07291662 0.009201095 -0.1027678 -0.010321307 -0.049982555
-0.18306245 -0.03441379 -0.066595465 0.121758595 -0.0048442343 0.06737933 -0.13821207 0.24149522
0.030996833 -0.0784765 0.054899216 0.26600447 0.05058067 0.14048791 -0.14299414 -0.18362534
0.06735587 0.06670736 -0.64095527 -0.056164067 0.14637978 -0.18576002 0.20128208 -0.57838786
0.18377548 0.071481034 0.5392126 0.15669861 0.0976027 0.30206954 -0.33373222 -0.040299784
-0.58659273 -0.1860655 -0.048155423 -0.5836585 0.032701053 0.056039136 0.31881842 0.06512457
-0.1620446 -0.12787941 0.09368196 -0.1758574 0.09910393 0.06402001 -0.44365674 0.09780453
0.0056796037 -0.121830426 -0.11704638 0.1288281 0.33995602 -0.038153436 -0.0030187157 -0.36910474
0.38415235 -0.01440264 0.36384127 0.02063692 0.051066823 0.14072283 0.13027956 -0.13150252
0.055969756 -0.19461021 0.18393041 -0.078212745 -0.038434513 0.20070492 0.13652927 0.16204125
0.05855181 0.049958166 -0.0665906 0.12489722 -0.11582635 -0.2193602 0.28246266 -0.05969204
0.056359082 -0.12789084 0.17680466 0.08563563 0.05086913 0.069218904 0.07027982 -0.16361271
-0.15967572 0.20465955 0.07466528 -0.100338034 -0.13802554 0.072524585 0.2767085 -0.04101279
0.12619786 0.14564718 0.14073497 0.02879406 -0.06589885 0.09944774 0.18506749 0.29137298
0.0192242 0.21925023 -0.004129697 0.06546651 0.05002127 -0.40048948 -0.2873786 -0.08141381
0.10230096 -0.46870887 -0.29354087 0.24759857 0.4298006 -0.25385413 0.06557035 -0.34702533
0.01295911 0.055221707 0.38631046 0.1909104 -0.064543106 -0.31291538 -0.23702885 -0.03191231
-0.107874796 -0.47895697 0.08525362 -0.21775152 0.22151448 -0.1426129 0.15862371 0.13908787
