baseline/DLPL-CAP/models_dlpl-cap-regressor/sandwich+ultra8t_to_ssram+digtime+timing_ctrl+array_128_32_8t/dlpl-cap-regressor_nh_2_tsk_regression_ngl_4_nhl_4_hd_32_us_1_bn_0_dp_0.0_epoch_2_20250402_123740.pth (torch, 64102 bytes, 21 tensors)

regressors.0.lins.0.weight f4 [32, 64]
00000000: d7ef dbbd 407d a2bb 018f f1bd 2b7d 7e3d
00000010: a851 063e f942 263e 1611 2bbd c814 93bd
00000020: 657d dfbd 5c14 b939 1117 71bd 5588 853d
00000030: a48d 34bb 662c 4f3b a494 b0bd 66d6 cbbc
00000040: 84f3 c5bd 5ced 3b3e 559f 243e c732 b7bc
00000050: 7ce6 59bd 3825 85bc 5352 87bd 7a01 aabd
00000060: 25a2 ea3d 5984 b1bd 92e1 cc3d d353 a8bd
00000070: b697 eabd 9435 013e d280 d3bd 7728 57bd
00000080: a919 f8bd b037 41bc 4c61 51bc 3421 a23c
00000090: 654f e03a eb4f 5d3e a22c e93b 1837 953c
000000a0: 3196 6e3d 5463 483e 99b6 9d3d ccff dd3d
000000b0: 2670 f2bd 9c24 043e e8c9 3fbe 5a0d 253e
000000c0: d1a0 92bd 07b9 28bf 1378 43be eb0b 0ebe
000000d0: 92a0 9dbd 787c 3c3d ad0c 7cbc 25f3 b7bc
000000e0: 309e 85bd d7d0 453d 4349 363c 02e5 bbbd
000000f0: 54de f4bd 4dbf 923d 126e e73d 705c a5bd
00000100: e644 babd 7031 91bc e495 d1bd 38c8 1abd
00000110: 1d7e de3d 5c2c 1dbd d594 b7bc 9918 d53d
00000120: 20ab 84bd 201c 43bc de29 25bc fe39 2e3d
00000130: a1da f1bd 1410 d1bc e495 9b3d 95fa 903d
00000140: 7676 5c3d be7e ebbd 7eed b8bd 9c5c f9bd
00000150: 807e c83d a042 243c fefc 56bc 04cc 963d
00000160: fd23 24bd bc0a 063d ee66 a23d 78ff 89bd
00000170: 48be aebc 14cb 9fbd 2cf3 7f3d d3f6 833d
00000180: c4a0 cbbd 2817 66bd b6ab c9bd f99a ef3d
00000190: 7006 f9bd c3dd 053d 3851 f5bc c817 2cbd
000001a0: ae58 f8bd 9850 863d 4e2f 6bbd 4614 c8bd
000001b0: 9861 88bd 6e03 933d f435 9abd f4de 03be
000001c0: 6cc8 ba3d bc5c d1bd 31b3 b5bd e0e5 213d
000001d0: 3871 df3c 3676 e7bd 8028 20bc 3ada bf3d
000001e0: dccd 7bbd ba1b b13d 3013 d63c c1d0 d43d
000001f0: 46d5 dc3d c04b 8ebb 5c37 203d b440 94bd
00000200: ca5d 16bd d88e a13d 1ea5 bfbd 1e4c 66bd
00000210: 3bd8 883d f693 9e3d 3a79 203e 80f6 d43c
00000220: 2c61 67be caee e83c 865e e4bd aad9 52bd
00000230: 72b2 93bd 07ba b93c 9781 3c3e 6b08 a43c
00000240: 0f75 6ebe 9517 f7bd 143e 233d 6b4c 1d3e
00000250: c0fc 9c3d 4cf4 20bd a0fb 063e 1447 aa3d
00000260: 261f 1b3e 2e10 0d3e 0f13 c03d 311e f1bd
00000270: 2ce2 633d f5ff 43be d67d 88bd e6e6 893d
00000280: d94c a83d 4e15 9cbd a476 393e 15b3 52bc
00000290: 5971 9cbd 131b 7ebd 8b2e 8e3c d109 6bbe
000002a0: b366 f43d 17a8 da3b 32a2 a93d 32f7 0abe
000002b0: 4a6e 703e ad9e fabd b93a 933d 1afe f53a
000002c0: 60e5 e4bc 2c18 b03d a358 b5bc 1f2c b23c
000002d0: 24ed eb3d d03a 013c 694c ad3c 73c3 85bd
000002e0: 43e3 6ebd 303d cdbd bc9e c3bc 90c9 03be
000002f0: 2613 dc3d bca1 a33d 50ba b03c 0d02 26be
00000300: 39b8 bcbd 80ee aa3c eb20 46bc e47a 05bd
00000310: 8162 2bbb 2d99 06bd ed53 94bd 3375 5b3d
00000320: 0ea3 013e 3c73 27be b269 083e ac69 d1bd
00000330: 51ce 9abd 55cb 283d 5bc3 ecbe dbfc 9ebc
00000340: 0d47 83be 8cae 073b 2d15 01be 6b59 77bd
00000350: 1220 a4bd 343a ff3d 78cb 08bd c397 e53c
00000360: 0cb5 23bd eb93 053d 128a 073e 685c 3abd
00000370: 50cb 7e3c 3b80 00be f0ca babd 9ead a83d
00000380: 3b66 94bc 08f0 c2bc c621 92bd 2bf8 a03c
00000390: 4d1a 263c 66bb b53c 986a abbd e3f2 1e3e
000003a0: b424 d6bb 59c6 9e3d 3af7 aabb 28cd 2c3d
000003b0: 8da0 193c d357 273e 8788 80be a0ff e03d
000003c0: 3be6 953d 9b4a b2bd fce5 32bc 7b9c ef3d
000003d0: 8659 9d3d 1c13 4abd 9b2f efbc b1e0 193e
000003e0: 9d1e 253e 45a7 333e 94c5 14bd 83fa ab3d
000003f0: 560f d03d 6dcf 023e c451 f63d b709 6a3d
-0.10739105 -0.0049587786 -0.11794854 0.06213109 0.13117087 0.16236486 -0.04176434 -0.07181698
-0.10912589 0.0003530112 -0.05885989 0.06520144 -0.0027550245 0.0031612157 -0.08622101 -0.024882507
-0.096655875 0.18352264 0.16076405 -0.02236308 -0.053198323 -0.016253099 -0.06607499 -0.08301063
0.11456708 -0.086678214 0.100039616 -0.08219113 -0.11454718 0.12618095 -0.10327305 -0.052528825
-0.12114269 -0.011793062 -0.012779545 0.019791223 0.0017113505 0.21612518 0.0071159163 0.018214747
0.058248702 0.1956914 0.07700843 0.10839805 -0.11837797 0.1290459 -0.18729365 0.16118374
-0.071595795 -0.6590733 -0.19088773 -0.13871734 -0.07696642 0.04601714 -0.0153838815 -0.022454808
-0.065243125 0.04829487 0.011125865 -0.09174539 -0.11956468 0.07165394 0.11300291 -0.08074272
-0.090951726 -0.017723769 -0.102336675 -0.0377886 0.10863898 -0.038372383 -0.022409836 0.10405082
-0.06477952 -0.011908561 -0.010080783 0.042535774 -0.11809278 -0.025520362 0.07596949 0.07079045
0.05382391 -0.114987835 -0.09029673 -0.12175867 0.09789753 0.01002565 -0.0131218415 0.07363132
-0.040073384 0.03272508 0.079297885 -0.0673818 -0.021330968 -0.07802406 0.062487766 0.06443562
-0.09942773 -0.056174427 -0.098472044 0.116994806 -0.12159431 0.03268219 -0.029945955 -0.042014867
-0.12126289 0.06558341 -0.05741816 -0.09769492 -0.066592395 0.071783885 -0.07529822 -0.12878019
0.09120259 -0.10222766 -0.08872069 0.039525867 0.027275667 -0.11301844 -0.009775281 0.09367795
-0.06147562 0.086478665 0.026132196 0.10391379 0.10782866 -0.004342526 0.039115295 -0.07238904
-0.036710538 0.078885734 -0.093576655 -0.056224935 0.06681868 0.07743065 0.15671244 0.025996447
-0.22595662 0.028434176 -0.111508414 -0.051477112 -0.0721177 0.022671713 0.1840881 0.020023545
-0.23286842 -0.12065045 0.039854124 0.15361182 0.07665396 -0.03929548 0.13181925 0.08314338
0.15148601 0.13775703 0.09378635 -0.11773337 0.055635616 -0.19140609 -0.06664626 0.067334935
0.082177825 -0.07621251 0.18111664 -0.012860079 -0.07638807 -0.06203754 0.017356178 -0.22952963
0.11933651 0.00667287 0.082828894 -0.1357086 0.23479572 -0.12237296 0.07188935 0.0018767745
-0.027941406 0.085983604 -0.022136992 0.021749554 0.1151984 0.007887557 0.0211546 -0.065314196
-0.058322202 -0.10021436 -0.023879401 -0.12869859 0.1074584 0.07989833 0.021573216 -0.1621172
-0.09214825 0.020865679 -0.012092809 -0.0325879 -0.0026151242 -0.032860924 -0.0724257 0.053578567
0.12659857 -0.16352552 0.1332157 -0.102252334 -0.07558883 0.041209538 -0.46242794 -0.01940768
-0.25640145 0.0020703403 -0.12605734 -0.06038801 -0.080139294 0.12462273 -0.033397168 0.028026467
-0.03996758 0.03261177 0.13236263 -0.04549828 0.015551403 -0.12548916 -0.091207385 0.0823624
-0.018115154 -0.023796096 -0.07135348 0.019649586 0.0101381065 0.022184085 -0.083699405 0.15522341
-0.006535137 0.077526756 -0.00521746 0.04218784 0.009376657 0.16342096 -0.25104162 0.109862566
0.073193036 -0.08705636 -0.01091909 0.11699768 0.07683091 -0.04933463 -0.029197505 0.15027119
0.1612496 0.17544277 -0.036321238 0.08397391 0.10159175 0.12774439 0.12027314 0.05713817

regressors.0.lins.0.bias f4 [32]
00000000: 39cf f8bc fee4 9dbd b42e e23d a47f 86bd
00000010: 8b1d c83d c099 0b3d 01d8 aa3d 9128 173e
00000020: 684f 043e 9cbe d63c a067 9d3d f050 adbd
00000030: 64e0 fbbc 09a6 27bd e921 00b8 fe44 2fb9
00000040: 95da 12bd 71f0 56bd d1cd bdbd 50ef fe3d
00000050: adb0 6abd f8d7 4b3e ca0d 053e b764 a4bd
00000060: db31 16bb ef94 9dbd b34c 163e d162 713c
00000070: 4e78 1d3e 8592 b9bd 23f5 913d da4d f7bd
-0.030372249 -0.077096924 0.11044064 -0.06567314 0.0977126 0.034082174 0.08341981 0.14761569
0.12920916 0.026213937 0.076857805 -0.08462703 -0.030746646 -0.040929828 -3.054916e-05 -0.00016715002
-0.035852987 -0.052475397 -0.09267772 0.12447989 -0.057297397 0.19906604 0.12993541 -0.08027022
-0.00229179 -0.076944225 0.14677696 0.014733032 0.15377924 -0.090611495 0.07126834 -0.12075396

regressors.0.lins.1.weight f4 [32, 32]
00000000: fc7e ddbd 1a7b b1bc dc86 24bd d37b 163e
00000010: 672b d9bd f2b2 8dbe 38ee 763d 8352 a8be
00000020: cbbd cfbd 877b 2b3e 62e0 30bd c651 a9bd
00000030: a375 adbd 0a7e dfbd 6889 23bd bd1e fdbd
00000040: a463 85bc 417f e63d df8d 03be 1548 2cbe
00000050: 6145 a8be bad7 533d 40f4 85be d5b8 f93c
00000060: cb2d c83d e26b 4e3c 4d0d 77bd 5f82 08be
00000070: ad60 24bd 09d7 1cbe 93e1 43be 83e5 843e
00000080: 3c9e 27be b6e6 0bbe 731f cf3d ecbe 7bbe
00000090: 4cd0 143e 2298 6ebd 1c1c c6bb e714 f73c
000000a0: 90a7 253e 582c 013d 64d3 253e 42b7 70bd
000000b0: be31 e83c 91a9 77bd aff1 83bc c43a 283e
000000c0: af6d f33d 0e53 c73d ba5f 72bc db27 03be
000000d0: 1134 bb3c e0d4 5e3d 7076 41be 2066 2dbd
000000e0: bc49 d5bc 53b3 343d f58f c2bb dae1 1abe
000000f0: b357 4d3d 8406 513e bff9 113e 2829 003e
00000100: 9ada 5c3e df0e b9bc 80da cabd 5a0f 3a3d
00000110: 9a18 20be 59a0 0c3d 25eb 13be 6b6e 3a3e
00000120: cabc f43d 7bd6 47be 1aa2 b9bd d3dd 253d
00000130: ac06 b9bd dd7b 5bbe fe59 55bd f8da 1ebe
00000140: cf3d 51bd 496f 213e 2659 463d 51fa 04bd
00000150: b0f5 38be 618f 803c 0459 ae3d 95ea b13c
00000160: b752 96bc ba8d 7ebd 58c5 153e 73b6 963c
00000170: b347 873d bf3c f9bc e209 ccbd 7a35 48be
00000180: 6cb9 823d 2855 e53c ac26 7c3d 2fe7 f73d
00000190: 8ab3 05bd fd57 0ebe 36c8 a7bd 8be8 35be
000001a0: c6a2 eabc c9b2 f8bd 22cc d83d a857 333e
000001b0: e45d 19be 0a32 f0bd ea21 513d 8b59 19be
000001c0: 44d3 813d ee35 3a3d 63a4 913c d2a4 a1be
000001d0: 9bef bebd b890 03be 2174 8a3d 3af5 613d
000001e0: d3fe 98be e832 9dbc cc69 5ebe 9f95 ebbd
000001f0: af7a 0dbe f996 753d 318d 2f3b 1e14 49be
00000200: 3835 f83c c466 6dbc 6be4 f33d 586a 9e3c
00000210: c825 50bd fa32 533e 565d a337 1013 c73d
00000220: 9219 c13d 1c04 0a3e d7ef 553d 86de 9f3d
00000230: cc71 013d 1c39 c23c 718a 2c3e 2dcf 8cbc
00000240: af64 3cbd e392 bebd 9964 113e 1ca8 1c3e
00000250: 19cb 48be e97f 47bd 4dcb 0ebe 00ed 4b38
00000260: 46f3 c23b 4fc0 edbb 26ae 9e3b 730f 13be
00000270: a578 1d3e 8baf 4f3d 0a3f 303c edae bfbd
00000280: 5869 d8bd 4fe8 103e affe 99be ff3a 8cbd
00000290: 3810 e43d 931c 863e 4d6b acbd 5c01 63bd
000002a0: 6891 fb3d 069f 1f3d 86a5 db3d 31a1 adba
000002b0: 9e42 623e 4b26 cbbc 38ff 0e3c fb59 0a3d
000002c0: 22bb 87bd d93f 79bd 2b8d 30be 75e3 2abe
000002d0: f1e3 13bd 3ce4 f3bd 87a7 f63b 7e7b fcbd
000002e0: 41d7 563d 5d95 25bd fa6d 1b3e 11c5 fcbd
000002f0: 59d2 493c 8989 1b3e df35 e33d 0867 53bd
00000300: 8ebf 593d a1d8 b3bd bd94 363e 78be 9bbe
00000310: 766a debd 1fe4 6d3e b5bf bf3c ee62 0cbe
00000320: adf2 9dbd ab73 fb3d 8aba e4bd 557e 03be
00000330: 81b8 b3bd 1918 1d3d 6597 ba3d 8f62 1b3e
00000340: ada7 70be 3212 f03d 4277 3c3d aceb 66bd
00000350: 9e6b 9c3d 926b 28be 2804 a3bd f4f8 0f3e
00000360: 0a36 f1bd 30a9 1c3d fb87 5d3d 74fe 723d
00000370: 2472 663d 9cf5 32be 9d6e d03d cbae babd
00000380: 8c6c 9abd 9443 cfbd dfbf b23d 6283 073d
00000390: 533e 5fbd 4cd8 a4bd c23c 94bd f7e4 c93d
000003a0: c664 a53c bcfd 203d cf8c 2f3c ea41 5ebe
000003b0: 2d4f 3ebe 8413 ce3d f79c 293e 180f 693e
000003c0: 7b08 c4bd fdda 92bd 6964 423c 4d10 543e
000003d0: f545 ffbd 0a9c ebbd 6fd1 f03d 621d 6abe
000003e0: 3538 293e 70e2 44bd 6140 83bd a045 883c
000003f0: 8d46 0cbe 4ad1 a73d b9da 2a3e 5ab0 89bd
-0.10815236 -0.021665145 -0.040167674 0.14695673 -0.106039815 -0.27675587 0.060285777 -0.3287545
-0.10143622 0.1674634 -0.043182738 -0.0826755 -0.08469703 -0.10912712 -0.039925963 -0.123593785
-0.016282864 0.112547405 -0.12847088 -0.16824372 -0.32865432 0.051719405 -0.2616291 0.030483643
0.09774359 0.012598963 -0.06031542 -0.13330983 -0.04013126 -0.15316404 -0.19129018 0.25956354
-0.16368955 -0.13662228 0.1011342 -0.2458455 0.14532584 -0.058250554 -0.0060458314 0.030161334
0.16177201 0.03153643 0.1619392 -0.05876852 0.028344031 -0.060464446 -0.016106455 0.16428667
0.11886155 0.09732638 -0.014793331 -0.12808172 0.022851976 0.054402232 -0.18892837 -0.042333722
-0.026036136 0.04411633 -0.005937571 -0.15125218 0.050132465 0.20412642 0.14255427 0.125157
0.21567765 -0.022590099 -0.09904957 0.045424797 -0.15634385 0.034332607 -0.1444517 0.18206184
0.11950071 -0.19515412 -0.090641215 0.04049475 -0.09034476 -0.21433969 -0.052087776 -0.15513217
-0.051084336 0.15765108 0.048424862 -0.032465283 -0.18062472 0.015693368 0.08513072 0.021718303
-0.018349988 -0.06214688 0.14626062 0.018397545 0.066054724 -0.030424474 -0.099628225 -0.1955165
0.06383023 0.027994707 0.061560318 0.12104642 -0.032641925 -0.13900752 -0.08192484 -0.1776449
-0.02864207 -0.121434756 0.1058581 0.17513907 -0.14977223 -0.11728294 0.051057734 -0.14975564
0.06339124 0.045461588 0.017778581 -0.3157106 -0.09323045 -0.12848175 0.06760431 0.055165507
-0.29881915 -0.019189313 -0.21720046 -0.11503147 -0.13816331 0.059958432 0.0026787037 -0.1963658
0.030298814 -0.014489833 0.11908802 0.019337818 -0.05081728 0.20624915 1.9474577e-05 0.09720433
0.09428705 0.1347813 0.052230682 0.07806115 0.031602666 0.023708872 0.16849686 -0.017188633
-0.045994457 -0.0930536 0.14198531 0.15298504 -0.19608726 -0.04870597 -0.1394474 4.8619695e-05
0.0059494106 -0.007255591 0.0048425375 -0.14361362 0.15378053 0.05070452 0.010757217 -0.09359536
-0.10566968 0.14151119 -0.3007712 -0.0684719 0.11135906 0.26193675 -0.084189035 -0.05542122
0.122835934 0.038970016 0.107249305 -0.0013246891 0.22095725 -0.024798533 0.008727841 0.03377722
-0.066274896 -0.060851905 -0.17241351 -0.1668833 -0.036106054 -0.119087666 0.007527295 -0.12328242
0.052451376 -0.040425647 0.15178671 -0.12342275 0.012318217 0.15189184 0.110942595 -0.05161193
0.053161196 -0.08781553 0.17830177 -0.30418754 -0.108601496 0.23231553 0.023406843 -0.13709614
-0.07712302 0.12277921 -0.11168392 -0.1284116 -0.08775426 0.03835306 0.091109075 0.15174316
-0.23501463 0.117222205 0.04601217 -0.056377098 0.07637714 -0.16447285 -0.07959777 0.14059812
-0.11777885 0.038247287 0.05408476 0.059324697 0.056261197 -0.17476505 0.10177348 -0.0911537
-0.07540235 -0.101203114 0.08728003 0.03308428 -0.054502796 -0.08049068 -0.07238151 0.09858125
0.020189654 0.03930448 0.010714724 -0.21704832 -0.1858489 0.10062316 0.16563784 0.22759664
-0.0957193 -0.07170675 0.01186476 0.20709343 -0.12464515 -0.115043715 0.11758696 -0.22862771
0.16525348 -0.04806751 -0.06408764 0.016634762 -0.13698788 0.081942156 0.16684999 -0.067230895

regressors.0.lins.1.bias f4 [32]
00000000: fd76 21bd d482 11be 90f7 25bd c011 febd
00000010: b1cd b6bd 091e f3bd 09a4 bebd 1eae 89bd
00000020: 01cf d23d 5a05 043e 92c8 8c3d 8e39 43bd
00000030: 1565 2abe 4669 ab3d 5f2e cb3d 8cd7 87bc
00000040: 0fea a1bd d1e8 7b3e 0d61 0c3e 71f6 083e
00000050: 10ff 6e3e deac 98bd 3f80 5dbe 6021 58bd
00000060: 7112 0cbe a8da 91bd a86e 9fbc 9a50 e2bd
00000070: 77cf 023e 7828 563b e2a8 0f3e 34f1 023e
-0.039420117 -0.14210063 -0.040519297 -0.12405729 -0.08925951 -0.11870963 -0.09308631 -0.06722663
0.10293389 0.12892666 0.06874193 -0.04766231 -0.16640122 0.08369689 0.09920954 -0.016582273
-0.07905971 0.24600531 0.13708897 0.1337526 0.23339486 -0.07454847 -0.21630953 -0.052766204
-0.1367891 -0.071217835 -0.019461945 -0.1105053 0.12774454 0.003267793 0.14029267 0.12787324

regressors.0.lins.2.weight f4 [32, 32]
00000000: a664 193e 2d28 d83d ffe5 8bbd 2791 92bd
00000010: 23f9 6dbb 7b10 2bbe eff1 d2bd 5527 cebd
00000020: cf71 0c3e cf0a d8bd 3be0 dfbd d901 06be
00000030: 1c98 90bc 9db5 d7bd beab 20be e860 2f3e
00000040: d79b 89bd 48bf 55bc ac02 be3c 95a5 1a3c
00000050: f13d 523d f6cd a13d 9a98 89bd 7448 90bd
00000060: e8ac a9bc 070c 2abe b731 c0bd 2737 9c3d
00000070: 6c17 0bbb 5e11 f4bd 4d47 ebbd 243d 68bd
00000080: 5fe7 123e 2308 b33d 4538 13be 5166 773d
00000090: 6f5e 17be 23b0 1d3e a131 583c cce6 18bd
000000a0: 3120 003e b950 12bd 5842 3dbe acab da3d
000000b0: f601 2bbb 12de 28be e155 8a3a 9e0c e33d
000000c0: 515a ae3d 1c7d 36be c4d1 eabd 94d4 2e3e
000000d0: 9981 083e 0328 313c 311a 50bd f12c 193e
000000e0: 724b ebba 9c07 de3d 04b7 48be 4053 11be
000000f0: 2d55 febb bf4e dbbc 62f8 febc 89ec e6bd
00000100: 1fe1 1a3d b443 27be 3d2e 1fbd c9ae 75be
00000110: f488 6dbc 9191 1b3e 2fa1 00be 615e 40be
00000120: 95a3 22be 1161 b53d 20ff ebbc 58e1 333e
00000130: 2258 eb3d dd91 c4bb 6473 1fbe 6761 313e
00000140: 2e85 1f3e 9d52 babd f5e5 25be 5011 e0bd
00000150: 19a7 963c bd6e 1e3d 327f 2d3e bef9 393e
00000160: f63a 58be 0bfd 063e 2582 273e 594d e5bb
00000170: df98 f5bd 678e 253e 13ab 2c3e 903f f63c
00000180: 6608 acbd 8c6f 8cbd 60cd 38be f4f2 0ebd
00000190: 2510 c8bd ceb1 183e d6b8 dcbc 335a 5b3d
000001a0: 91dd bb3d 2e00 8b3d 61fe 643d 253c 9cbc
000001b0: 5dad 06bd 10b8 1ebe 17c1 e5bd cdc7 c5bb
000001c0: a44f 193e 761a 6bbc 5dee 5d3d e8b1 953d
000001d0: 83c7 24be 8261 103e bd34 6c3d 2250 2bbd
000001e0: 63c3 efbd c99e 08be e2d8 9abd 1419 8bbd
000001f0: e36c edbc bb33 d03d ee44 f6bd 9b23 cfbd
00000200: af73 63bd a2f0 d6bd 7f78 923c 1e30 acbd
00000210: 42b8 ecbd 76d9 143e 5734 65bd 062b 25be
00000220: 9454 ab3d 6dfb 4bbd 42f7 d6bd 9384 0a3e
00000230: 8313 9abd 3ddb cdbd 62d4 e93c 277e 4abd
00000240: 285a fd3d 1078 d53d 74ec d5bc 5b94 4fbd
00000250: 6062 a33d 8ff3 a23d 9eca f0bd 27f1 d93c
00000260: 9564 2c3d 99ea 203e 5d9e 00be af7b 12be
00000270: 28d2 91bd e8dc 4bbe 78df fdbc 581c 873d
00000280: 2040 d6bd a7ae 1b3e 30c0 b63d 2444 ce3d
00000290: 3e4c 05be 524b b83d 0e0e ca3d 903a b83d
000002a0: 21e3 14be 3725 713d bd10 c13c ae08 863b
000002b0: d8ab 143e da16 44bc 31d4 a3bd 2a30 07be
000002c0: e0d3 08be c987 92bd fdea e63d 784a ad3d
000002d0: 99d4 723d 1aa7 813d a7a5 e23c 9cf7 93bd
000002e0: a10e 453d 13c1 7ebd 368e 753d 93c7 8b3d
000002f0: 09a4 0ebe f1b8 13be c1c7 43be 2b14 cd3c
00000300: d471 63be 3e3c afbc 2e12 c33d bccd 13be
00000310: 395b 3ebe 5c20 91bd 6119 babc c02c 35bc
00000320: c5f7 9abe 206c ebbd 3989 03bd 5627 243d
00000330: 646d 293e 7792 14be 01a4 8b3c 0cd4 153e
00000340: 90d6 21be 995a d93d 1ce4 d83d ef81 3dbd
00000350: 306d 94bd 756b 8f3d bac7 25bd 9c91 99bd
00000360: 1bcb 02be a4fa 21bc 0c12 023b cfc5 4e3d
00000370: ffd3 9dbd df2d 253d c053 4a3d ed42 343d
00000380: 9d91 87be 6f28 2cbe 32c1 48be 20ce 3c3c
00000390: 3089 b6bc e806 963c 229e c43d f91d 0ebe
000003a0: d805 7f3c 89e2 9c3d 8709 4f3d 98dd fbbd
000003b0: 1147 c7bd a6bd 43be b9ba bdbc c7f9 443d
000003c0: 00e8 1fbe eaac 093d 6c4d 5ebe bf82 06be
000003d0: e91c febd c052 d33b e8b1 963e 73e1 103e
000003e0: 949a 91be b995 06bd d5cd 983d 9167 203d
000003f0: 214d a2bc 219c 213c a45a 2e3e 6c4d 24be
0.149798 0.10554538 -0.06830978 -0.07156592 -0.0036311827 -0.16705506 -0.103000514 -0.10066096
0.1371529 -0.105489366 -0.109314404 -0.13086642 -0.017650656 -0.10532687 -0.15690514 0.1712681
-0.06719177 -0.013046093 0.023194633 0.009438892 0.051328603 0.07900612 -0.067185596 -0.07045069
-0.020712331 -0.1660615 -0.09384482 0.07627707 -0.0021223677 -0.11917375 -0.11488209 -0.056698933
0.14346074 0.08741786 -0.14376934 0.06040031 -0.14782117 0.15399222 0.013195426 -0.03732948
0.1251228 -0.035721514 -0.1848234 0.10677275 -0.0026093698 -0.16490963 0.0010554158 0.11086391
0.0851332 -0.17821163 -0.11465791 0.1707328 0.13330688 0.010812762 -0.050806228 0.1495855
-0.0017951562 0.10841295 -0.19601065 -0.14191914 -0.0077616186 -0.026770948 -0.031124298 -0.11275584
0.03781235 -0.1633442 -0.038862456 -0.23992456 -0.014497984 0.15192248 -0.12561487 -0.18786003
-0.15882714 0.088564046 -0.028808177 0.1756643 0.114914194 -0.0059988336 -0.15571362 0.17322312
0.15578148 -0.090977885 -0.16201003 -0.10940802 0.018390225 0.038679827 0.16943052 0.18161675
-0.21116242 0.13182466 0.1635824 -0.006997746 -0.119920485 0.16167603 0.16862135 0.030059606
-0.084000394 -0.068572134 -0.18047094 -0.034899667 -0.09768704 0.14911577 -0.026943605 0.053552818
0.0917312 0.06787144 0.055906657 -0.019071648 -0.032880176 -0.15499902 -0.112184696 -0.006035781
0.14971787 -0.0143495705 0.0541824 0.073093235 -0.16091733 0.14099696 0.057667483 -0.041824467
-0.11707189 -0.13341822 -0.07560898 -0.06791893 -0.028982585 0.10166117 -0.12024866 -0.10114213
-0.055530246 -0.10495116 0.017879723 -0.08407615 -0.11558582 0.1453608 -0.05595812 -0.16129693
0.08365741 -0.049800325 -0.104963794 0.13527136 -0.07523253 -0.10051582 0.028543655 -0.049436715
0.123707116 0.10423291 -0.026113726 -0.050678592 0.07977748 0.07956611 -0.11757396 0.026604248
0.04208811 0.15714492 -0.12560411 -0.14304994 -0.07120162 -0.19908488 -0.030990347 0.06597203
-0.104614496 0.15203343 0.089233756 0.100715905 -0.13017365 0.08998741 0.09865962 0.08995545
-0.14539768 0.05887338 0.023567552 0.00409039 0.14518678 -0.011968339 -0.07999457 -0.13201967
-0.13362074 -0.07154805 0.11275289 0.084614694 0.05928478 0.063307 0.02766688 -0.07224962
0.048109654 -0.06219585 0.059950076 0.06825175 -0.13929762 -0.14426018 -0.19119169 0.02503403
-0.2221139 -0.02139103 0.09524952 -0.1443395 -0.18589486 -0.0708625 -0.02271718 -0.0110580325
-0.30267158 -0.114952326 -0.032113288 0.040076576 0.16545635 -0.14508997 0.017045977 0.1463167
-0.15804505 0.10612983 0.105903834 -0.046266492 -0.07247388 0.07002918 -0.040473677 -0.07498476
-0.12772791 -0.009886418 0.0019847183 0.050481614 -0.07706451 0.04032695 0.049396276 0.044009138
-0.26478282 -0.16812299 -0.19604948 0.011523753 -0.022282213 0.01831384 0.09600474 -0.13878621
0.015565358 0.07660396 0.050546195 -0.12298125 -0.09730352 -0.19115314 -0.023160325 0.04808977
-0.15615845 0.03361217 -0.21709222 -0.13135813 -0.12407858 0.0064490736 0.29432607 0.14148502
-0.28438246 -0.03285763 0.07461134 0.03916127 -0.019812169 0.009863884 0.17026764 -0.16045159

regressors.0.lins.2.bias f4 [32]
00000000: a2e8 1ebe 129e 983d b8e8 3bbe 1bd9 86bd
00000010: 2062 debd ee63 863d 341f 883d 5049 50be
00000020: 1a36 07be 8987 443d eb32 3cbd 510f 96bb
00000030: 0293 453e 0f5b 283e 1ccb 7fbc d621 153e
00000040: e25b f53d 4377 2fbd 27ea 21be ed38 c43d
00000050: a96f 12be c218 6c3d ace5 22be 962a b0bd
00000060: 77e9 44bd bdfc 0cbd 5b59 a93c 243e bb3d
00000070: 88d9 28bb 3481 cfbd dae2 fc3d 9149 053e
-0.1551843 0.074520245 -0.18350494 -0.06584378 -0.108585596 0.06562029 0.066465765 -0.20340466
-0.13204232 0.04798082 -0.045946997 -0.0045794626 0.1929436 0.16440986 -0.01561239 0.14563689
0.11980416 -0.042838346 -0.15811978 0.0958117 -0.14300407 0.0576408 -0.15907925 -0.086018726
-0.048074212 -0.034420718 0.02067249 0.09142712 -0.0025764424 -0.101320654 0.12347956 0.13016345

regressors.0.lins.3.weight f4 [1, 32]
00000000: d5af f33d c861 cfbd c567 59be 7afe 0dbe
00000010: 0306 dabd eb60 d2bd 8f2a 323e 0dc6 64bd
00000020: 04b3 ba3d af30 a13d b0be 943d f62c 21be
00000030: 872b 473e 712e 143e bf39 08be fea0 bdbd
00000040: 9739 bf3d 34d4 b6bc e0fb babd e2bf 503d
00000050: 8f48 1fbe b746 1e3e 5f84 e03d 4c7c bd3d
00000060: fc07 353d 6cdb a2bd ce98 a73b cdc4 1a3e
00000070: 00c2 363d ce36 1a3e edb3 733d 2d79 e8bd
0.11898772 -0.10126072 -0.21230991 -0.13866606 -0.10645678 -0.10272392 0.17399047 -0.05585294
0.09116176 0.07870614 0.07262933 -0.15739807 0.19450198 0.14470841 -0.13303278 -0.092592224
0.09337156 -0.022317983 -0.091300726 0.050964244 -0.15555023 0.15456663 0.10962748 0.09252223
0.044197068 -0.07952008 0.0051146513 0.15114136 0.044618607 0.15059969 0.059497762 -0.113512374

regressors.1.lins.0.weight f4 [32, 64]
00000000: b1d0 02be 3ca5 91bd 615d ad3d 40e3 923b
00000010: 1f43 f9bc b8a8 323d af6e debd 1703 2c3d
00000020: f6dd 04bc e768 f6bd f72c 0a3d 7101 e5bd
00000030: 44e9 92bd f7e6 333d 701d 87bb 71bf 3abe
00000040: b2f1 a33c 7717 b83d 2292 8f3d ea6b 503e
00000050: 103a cbbd 9881 933d 17e1 ecbc ee06 1cbd
00000060: b1ff 403d 08e7 14bd 0441 7b3d a5a3 d53d
00000070: 4018 2a3d c170 f13d d8e6 a33d fcfc 153d
00000080: 51b6 07be e828 80bd cc5b 6cbd 914e 30be
00000090: 11d3 9a3c 9a54 293d cc71 c8bd 204a debc
000000a0: 1aab 87bd d0ef 77be e599 01be b857 523d
000000b0: 826f d7bd 74cd 183d 52a4 553d 251f 813d
000000c0: 560f 2d3d b613 acbd cb78 25bd 78f5 003e
000000d0: f819 54bd 24a6 9cbd e2ac d8bd 9af6 093c
000000e0: f464 d3bd 3df4 43be 2545 3abd 68a7 8c3c
000000f0: 28b2 113d d011 b7bd 0c15 e63d 68ee 9a3d
00000100: b38f 9abd f0db 9f3d 5cc9 373d 9616 babd
00000110: 7b70 853d a699 883d 1b87 bc3d 8a4e 5e3d
00000120: cec8 bf3d ff07 9dbd f130 c03b df77 a2bd
00000130: 4485 933a 970b f2bc 503b 323d f733 943c
00000140: d379 713d c930 4dbd b588 233e ba1e 26bd
00000150: 005e d23d e859 cf3d de15 42bd f56b afbd
00000160: f414 3cbe be43 25be 0cce 94bd 1386 3fbb
00000170: ac29 32bd 0927 78ba 44e2 0cbd 9959 46be
00000180: 2150 e1bc 6864 b3bc 47c4 87bd 79c0 5d3b
00000190: 1797 0e3e cc34 5b3d 9f1a 0c3e 5b8c 45bd
000001a0: df4b aa3d 3935 81bc 37a7 8d3d 86f3 d7bb
000001b0: 93af 7c3d cf72 a23d e9e7 883d 035f 79bd
000001c0: 6d87 15bd 10f4 3a3e e977 8ebd ac64 5abd
000001d0: 30b6 1d3d 44c2 18bd 0586 df3b 2cac c0bc
000001e0: d911 b0bd 41e4 b0bd 729b 2cbd 07eb 0abd
000001f0: 0472 283d 56e8 1b3d 3005 bbbc 3cc2 79bd
00000200: a403 033e 06bf b93d 1144 71bc be2c 9f3d
00000210: f585 973d 41a5 20bd 0c39 80bd 8742 0abc
00000220: d883 d9bb dd36 863d 1b7f 9e3c a79b 1cbd
00000230: 37b7 673e bc76 79bd 1492 adbc fec3 19bd
00000240: 07aa 853d 1c19 2f3d 798a e4bc 0416 d23b
00000250: e09b c33b 2e89 873d 871a ebbd 87db b63b
00000260: 530d 7f3d a2d9 5d3e defb 863d 499b a6bc
00000270: 58b4 a8bd 7e6d 803d 9a9c acbd 6ac5 413e
00000280: 1ba0 fb3d 7011 dcbd 9379 bdbd f72a 023d
00000290: b35b 4abd a698 a03c 5cc2 293d ff8b d3bd
000002a0: 7fa2 f3bd d68b f03d 00e5 edbd e8c0 97bc
000002b0: adde 0b3d f90c 0fbc 2851 63be 01f1 4d3d
000002c0: 3c86 59bd 63ac 99bd 45c0 913d 807b c03d
000002d0: a22f 913d 8ccd abbd 6002 e5bd d357 cc3d
000002e0: 49d5 033e 2096 dcbb b4d9 243e 8c95 883d
000002f0: e073 c3bb 6c29 c23d 88ba fabc a96a 5d3c
00000300: f5cb 113d 2891 173d 578d 86bd bca8 8bbd
00000310: 9961 953b 02e5 c9bd 303c 23be 67ff 36be
00000320: 81ba 143d e6f7 11be e14d e5bd 32d4 9dbd
00000330: 69a0 02be 8508 cdbd 59ec 673c b693 0f3e
00000340: f5b4 0b3e 27fa 723d ef0f c23b df18 cabd
00000350: b08b 1fbd 28db d4bc 0ff9 c6bd fdf5 a9bd
00000360: b621 293e e35e 65bd 8928 f13d 618e 57bb
00000370: 9e7f 80bd 1b3e b53d e4fa 173d b6ab 7d3d
00000380: 549e 8fbd 5430 6dbd 6609 b33b 8526 e33d
00000390: e973 47be 84a7 b53d 558f ae3d 055e 333d
000003a0: 8aeb c7bb f35e 08be 4d2c babc a383 9dbc
000003b0: 7dde 20be d01d d23d b09a c4bd 08a3 e1bc
000003c0: ed7a 1b3e a460 03be db83 2bbe 27ba 64bc
000003d0: fe15 fd3d 9407 cd3d c680 fb3d 9130 893c
000003e0: b194 2abc aa26 453e 5d65 84be c70f 80bc
000003f0: f4dd 9ebd d634 afbc 107c 95bd 659f c13d
-0.12774922 -0.07111594 0.08465076 0.0044826567 -0.030427514 0.043617934 -0.10860955 0.041995134
-0.00810956 -0.12031727 0.033734288 -0.111819156 -0.07173398 0.043921437 -0.0041233823 -0.18237092
0.02001271 0.089888506 0.070102945 0.20353666 -0.09923184 0.072024524 -0.028915925 -0.038092546
0.047118846 -0.03635314 0.0613413 0.10431603 0.041527033 0.11789084 0.08003014 0.036618218
-0.13253142 -0.06257802 -0.05770473 -0.1721747 0.018899472 0.041340448 -0.0978733 -0.027134955
-0.06624432 -0.24212575 -0.12656362 0.051353186 -0.10519315 0.03730531 0.05215866 0.063047685
0.042250954 -0.08402197 -0.0403984 0.12593639 -0.05178258 -0.07648876 -0.1057985 0.008420611
-0.1032199 -0.19136138 -0.045476098 0.01716967 0.035570294 -0.08938944 0.11234483 0.07565004
-0.0754694 0.078056216 0.044869766 -0.09086339 0.065155946 0.06669931 0.09205457 0.05427412
0.09364472 -0.07667541 0.0058652093 -0.0793302 0.0011254926 -0.029546542 0.043513596 0.018091185
0.05895407 -0.050095353 0.15970118 -0.040556647 0.10271835 0.1012457 -0.047384135 -0.08565513
-0.18367368 -0.16139123 -0.07265863 -0.0029224202 -0.043496773 -0.0009466266 -0.03439547 -0.19370116
-0.027504029 -0.021898463 -0.06629234 0.0033836646 0.13924824 0.053517148 0.1368203 -0.048229557
0.083152525 -0.015772449 0.06916659 -0.0065903096 0.061690878 0.07932054 0.06684858 -0.060881626
-0.036506105 0.18257165 -0.06956465 -0.053318664 0.038503826 -0.03729464 0.0068213963 -0.023519598
-0.08597154 -0.08637286 -0.04214043 -0.033915546 0.04112436 0.03806337 -0.022829622 -0.060976252
0.12794358 0.09069638 -0.014725701 0.07772206 0.07398597 -0.0392201 -0.06260881 -0.008438713
-0.0066380315 0.06553433 0.019347718 -0.03823438 0.22628485 -0.06090425 -0.02118782 -0.03754043
0.06526571 0.042748556 -0.02789806 0.006411316 0.0059695095 0.06617962 -0.11479669 0.005580369
0.062268566 0.21665052 0.065910086 -0.020337718 -0.08237523 0.06270884 -0.08428307 0.18922964
0.12286397 -0.107455134 -0.09251704 0.031779256 -0.049403857 0.019604038 0.04144512 -0.103294365
-0.11896228 0.117454216 -0.11615944 -0.018524602 0.034147907 -0.00873112 -0.22198927 0.050278667
-0.05310653 -0.07503583 0.07116751 0.09398556 0.07089163 -0.08388814 -0.111820936 0.09977689
0.1287433 -0.0067317635 0.16098672 0.06669149 -0.005964741 0.09480557 -0.030606523 0.013514199
0.0355949 0.037003666 -0.06569927 -0.06819293 0.0045587537 -0.09858133 -0.15940928 -0.17870866
0.036310676 -0.14254722 -0.11196495 -0.07706489 -0.12756504 -0.100113906 0.014155471 0.14021191
0.13643248 0.059320595 0.0059223096 -0.09868025 -0.038951576 -0.025983408 -0.09715473 -0.08298872
0.16516766 -0.055998694 0.117753096 -0.003289126 -0.06274341 0.08849736 0.037104502 0.061931334
-0.070126206 -0.057907417 0.005463767 0.110913314 -0.1947781 0.08869842 0.08523432 0.043790836
-0.0061010765 -0.1331747 -0.022726202 -0.019227808 -0.15709873 0.102595925 -0.09599817 -0.02754356
0.15183611 -0.12829834 -0.16749518 -0.013960398 0.1235771 0.10011211 0.12280421 0.016746791
-0.010411427 0.1925303 -0.25858584 -0.015632523 -0.07757178 -0.021387499 -0.07299054 0.0945423

regressors.1.lins.0.bias f4 [32]
00000000: 762f 973c 3629 0f3e c6ee 5fbd 9468 d9bd
00000010: b2eb 303e a055 123e cb90 1e3d a369 cbbd
00000020: 9ca7 f03d ee1a 3d3d 4372 cdbd 8d23 a8bd
00000030: 8140 8c3d d1fb 343e 0260 363c 6df0 363e
00000040: aefb e23d 775a 91bd 8dd6 8bbd 7c80 5a3e
00000050: 78a7 78bc 7d02 4b3e e99f 3bbd b252 13bd
00000060: 2312 513d a333 113e c6b7 cebb 1045 343e
00000070: 89f1 c23d d116 0f3e 0833 2d3e 0e93 64bd
0.018455248 0.13980564 -0.05467107 -0.1061565 0.1727741 0.14290476 0.038712304 -0.09932258
0.11750719 0.04616826 -0.10031559 -0.08209906 0.06848241 0.17674185 0.0111312885 0.17865153
0.1108316 -0.07097333 -0.06828032 0.21338075 -0.015176646 0.19825168 -0.0458068 -0.035967536
0.051042687 0.14179854 -0.0063085286 0.1760447 0.095187254 0.13973548 0.16913998 -0.055804305

regressors.1.lins.1.weight f4 [32, 32]
00000000: 8c8d c1bc c873 cdbd 5533 f63b abd9 05be
00000010: e507 a3be 182c d23c 7db1 b4bd da51 8fbd
00000020: a3cb 53be 11b0 9ebd fa9e 453c 8f02 9d3e
00000030: d56b 2dbe 7b7a a4bc a25a 51be 519f cfbd
00000040: eab2 45bd 0776 ff3d 5d69 f9bb 42ba 4d3d
00000050: 01fe b53d 93a6 75be d615 e9bd 8a46 8fbd
00000060: 7856 7abe d54b 1a3e f489 68bd 0dd7 29bd
00000070: 5587 42be 3749 823b faa2 d13e 8a45 2dbe
00000080: 5b79 97bb a361 7dbc cbae debd 4f92 a33d
00000090: 9f66 cbbb 0123 2c3e f790 11bb 2400 3b3e
000000a0: 6388 2c3e ff65 c93c e7cd 16be 3b24 ce3d
000000b0: 392e a43c 6d91 923c b42d 313d 78a6 70ba
000000c0: 08be ccbd 709e 70bc b5dc ba3d b7c8 383e
000000d0: c50f 0abe 11ef 1ebe ed19 233d 85c7 b33d
000000e0: 5d82 0e3e 8fa9 56bc bb38 4e3e b4d6 2ebd
000000f0: acf7 093e 6c68 b93c 6a9d 3a3e e183 9c3d
00000100: e5c2 9e3d c4ba 283e aade 4d3b b3b7 32bd
00000110: ca0a 05be df99 643e 4f52 f63d a8b4 93bc
00000120: e67f 30be 1806 403e c02d 423e c53d d4bd
00000130: 0493 123e 0a95 063c cbcc 533e 2f2d 0dbd
00000140: f962 e0bd 0d92 d33c 317f aa3c bd2e 0abe
00000150: 47bb cc3d 26e4 5b3e 87e1 593e ca8a 243e
00000160: 327c 3bbe 143a b43d 15d0 2ebd fce2 dc3c
00000170: e413 a5bd f3b4 80bd f8fb 10bd 71a2 253d
00000180: 5308 68bd ba22 513e 5c3d 803d bac9 ea3d
00000190: 4d4d 063c a9be 153d d269 4bbd 78c4 293d
000001a0: 89b8 9dbd 0180 0b3e bb51 ca3d 5756 873d
000001b0: 354e 16bd faf8 94bd c0a8 82be d314 93bd
000001c0: ea75 2fbe c4be debd 02bd 8abe 9663 9fbc
000001d0: 0372 83bc eaa3 1f3d a603 91bc d188 07be
000001e0: 4f87 8ebe ea7f fbbd c285 c53c 78e3 0cbe
000001f0: e5dc e03d 01e2 873d f7a7 c8be 1f98 1ebc
00000200: 399a 713c 1104 263b fa27 a13c b599 813e
00000210: 985e 553a 0a42 423e 84ab f73d 8ba6 08be
00000220: cd4e 503d c083 f7be eeb7 5dbe eb25 fabc
00000230: 0128 0e3e 66d7 dabd 3d15 333e 603a 65be
00000240: 67ca adbe 7007 2a3e a35f 013e 94d7 4cbe
00000250: eccc 7dbe de4f 433d 985a 483d bb7b 77bd
00000260: 9663 87bd e038 e6bd 29cd 05bc 0e2d 533c
00000270: bc9b 383d 46ea f43c e3ed 1cbe 0f1e 543d
00000280: bb0e c3bd 6595 cf3d 0a57 0dbe 53e8 19bd
00000290: 2ea6 803d 301a 1f3e 8c4b 00be e819 cebc
000002a0: 8390 6abe a47c 43bd faed 54be 4294 523d
000002b0: efe1 06bd 27d7 3cbe 259f 26be 9cbe 613e
000002c0: 8090 3cbd 5d4f cebd fb73 393e 4160 453e
000002d0: eaa5 72bd b6b2 4d3e 6b4f 223c 126f 2a3e
000002e0: add0 b93d 3a69 933d 29d9 e9bd d12f 82bd
000002f0: 9d1f 78bd 87c5 2ebe a582 673d 04ac 863d
00000300: 397b 203e 7b3b 673c 897f a23d 555c bf3d
00000310: a471 763d 6cf8 a93c 727c 653d ddc2 073e
00000320: 97e3 153e 5cd0 8dbd fd44 f93c 8d07 643d
00000330: 7e97 7f3d 47d8 bdbd 0f8e 893c e33d a4bb
00000340: 8df3 963d 0907 933c fd17 e03d 17ae 21be
00000350: c3c6 31bd 1f77 80be d294 013e fbb5 3cbe
00000360: 36f4 cb3d 921e 30be 8ced 21bc 7c8d d5bd
00000370: 6d3b b43d a283 45be da0e a83d e1bc 74bd
00000380: 89a4 00be 4811 a8bd 66d2 95bd ef3d 483e
00000390: 1405 563e 036b 0a3e 0344 c03c 699d 2d3d
000003a0: 0247 a8bd 4fda e6bd 2208 0e3e 656b 6d3e
000003b0: 5fa7 123e 59ea a83d dbda 553e a55f 29be
000003c0: 11b1 9dbc f072 d1bd a329 713d cc43 42bd
000003d0: 4f94 dfbc c909 fe3d f39d c6bd 10a1 eb3d
000003e0: af78 613d 67f4 243e bc83 e63b 0cdd 863b
000003f0: 852b f93d ec6b 083e 7968 1a3e 31ba 52bc
-0.023627065 -0.10031849 0.0075134435 -0.13071315 -0.3184196 0.025655791 -0.08822916 -0.06998034
-0.2068315 -0.07748426 0.012061829 0.30666015 -0.16935666 -0.020077934 -0.2044473 -0.10137809
-0.04826633 0.12473684 -0.0076114372 0.050226457 0.08886338 -0.23989324 -0.11381118 -0.06995876
-0.24447048 0.1506799 -0.056772187 -0.041464854 -0.18996938 0.003976013 0.40944654 -0.16921058
-0.004622621 -0.015465173 -0.10873183 0.079868905 -0.0062073017 0.16810228 -0.002221165 0.18261772
0.16848902 0.024584768 -0.14726983 0.10065504 0.020041572 0.01789161 0.043256477 -0.0009180079
-0.09997183 -0.014686212 0.09124128 0.18045317 -0.13482578 -0.15520884 0.039819647 0.0877829
0.13916917 -0.013101949 0.20138828 -0.042685226 0.13473386 0.0226328 0.18224111 0.076423414
0.07752017 0.16477495 0.0031413236 -0.04363222 -0.12992397 0.22324322 0.12027418 -0.01803048
-0.1723629 0.18752325 0.18962765 -0.10363344 0.14313895 0.008214245 0.20683591 -0.03446692
-0.109563775 0.025826478 0.020812603 -0.13494392 0.09996658 0.2147375 0.21277438 0.16068569
-0.18309096 0.0880014 -0.04267891 0.026963703 -0.080604345 -0.06284513 -0.035396546 0.04043812
-0.056648564 0.20423403 0.06261703 0.114642575 0.008197141 0.03655878 -0.049661465 0.041447133
-0.07701213 0.13623048 0.0987887 0.06608265 -0.036695678 -0.07274051 -0.2551937 -0.07181706
-0.17134824 -0.108762294 -0.27097327 -0.019456666 -0.016045576 0.03897468 -0.017701935 -0.13235785
-0.27837607 -0.12280257 0.024111632 -0.13758647 0.10979632 0.06634904 -0.39190647 -0.009679823
0.014746242 0.0025332014 0.019672383 0.25312582 0.0008139401 0.18970504 0.12093261 -0.13344781
0.0508564 -0.48342705 -0.21652195 -0.030535659 0.13882448 -0.10685615 0.1748857 -0.2238555
-0.33943483 0.166044 0.12634139 -0.20004112 -0.24785203 0.04768359 0.048914522 -0.060420733
-0.066107914 -0.11241317 -0.00816659 0.01288916 0.045070395 0.029896867 -0.15325122 0.05178648
-0.09524294 0.101359166 -0.13802734 -0.037575077 0.06281696 0.15537333 -0.12528819 -0.025158837
-0.2290669 -0.04772629 -0.20793906 0.05141092 -0.03293031 -0.18441449 -0.16271646 0.22045368
-0.046036243 -0.10073731 0.1811065 0.19274999 -0.05924026 0.20087704 0.00990663 0.16643932
0.09073005 0.07197805 -0.11418373 -0.063567765 -0.060577024 -0.17067538 0.056521077 0.06575778
0.15672006 0.014113302 0.07934482 0.09343783 0.06016697 0.02074834 0.056026883 0.13257928
0.146376 -0.06924507 0.030428404 0.055671263 0.062400334 -0.09269767 0.016791372 -0.0050122603
0.073706724 0.01794769 0.109420754 -0.15789066 -0.043402445 -0.25090882 0.12654427 -0.18428795
0.09958689 -0.17199162 -0.009883296 -0.10427377 0.08800397 -0.19288495 0.08205958 -0.05975044
-0.12562765 -0.08206421 -0.07315521 0.19554876 0.20900375 0.13517384 0.02346993 0.042386446
-0.08216669 -0.11272108 0.1387029 0.23185499 0.1432166 0.08247823 0.20884268 -0.16540392
-0.01924947 -0.10227001 0.0588776 -0.047427937 -0.027292399 0.1240421 -0.09698095 0.115053296
0.055046733 0.16108857 0.007034747 0.0041157063 0.12166504 0.13322419 0.15078916 -0.012861774

regressors.1.lins.1.bias f4 [32]
00000000: 502f 283c cc29 96bd 1e57 edbd 61cb 13bd
00000010: d58f 3cbd ba38 933e d169 a13d 61be 10ba
00000020: 7508 493d 65a3 9abc 6db1 d1bd f71d 19be
00000030: 8475 1c3e 9f70 9a3d cf51 32bd ddd7 e23d
00000040: 83df e739 228b f43d 0958 cfbd 9d3e b33d
00000050: 41ae 5cbd 9d10 263c 2944 d83d 5f03 263e
00000060: 6047 aa3c 4b8c 613e bfb7 40be 63d1 273e
00000070: 2c2d 37be 6fff b33c 35b7 d63d 58ae 063e
0.010265186 -0.07332191 -0.11588882 -0.03608263 -0.046035606 0.28754216 0.07881511 -0.0005521533
0.04908033 -0.01887674 -0.102389194 -0.14952837 0.15279204 0.07541012 -0.04353505 0.11076329
0.00044226283 0.119406 -0.10124213 0.08752177 -0.05387712 0.010135797 0.105598755 0.16212223
0.020785987 0.22026174 -0.18820094 0.16388468 -0.17888325 0.021972386 0.10484163 0.13152444

regressors.1.lins.2.weight f4 [32, 32]
00000000: 0e26 a1bd eab5 023e 37de e7bd 6a42 92be
00000010: 226b 103f f4ca 063e fbee 16bd e4b5 be3d
00000020: 7cf9 ccbd 5ff6 ef3d 5030 56be dc2a 873d
00000030: 05bc 8e3d ea5d 903e a931 b93d 9359 34be
00000040: ce64 713d 1a1d 083e 5289 19be 36f6 693d
00000050: 6c24 973b 2a5d 48be ee65 0c3e 6a18 f83d
00000060: 8a7d b1bd 8c6e 09be 38ce 8dbd dfe1 cd3e
00000070: f799 5ebd 80c8 933c d701 10bd 9738 cebd
00000080: 0446 ac3d fc15 c03d f188 7fbd fea1 14be
00000090: c24a 773d d942 35be f62e f93b 7eb8 1ebe
000000a0: 6919 23be f8a5 333e c508 b43d 2f1e 85bd
000000b0: 332c 5e3e 90f6 163e ec77 983b 468b ebbb
000000c0: 5582 5cbe 3240 b8bd 5c94 9e3d a421 25bd
000000d0: 10a2 0b3e 0755 bb3c 3ce6 7e3d 4c58 f93b
000000e0: 4e5c 11be 22ba 82bd 4cf7 fe3d 3336 733c
000000f0: 7e8e c4bd aaec 333e c037 0abe d996 93bd
00000100: 0896 a1be 8091 853d 1a33 9f3d bcd6 b8ba
00000110: 7337 473e 27ad 433e ea78 153e 77b2 803d
00000120: 2d68 743d 2abc 5cbe 4462 0cbe 4381 0a3e
00000130: caeb d63d b1d3 2ebe 1913 653d 325e 193e
00000140: b56d 2c3e 1401 4e3d c883 5c3d 7564 52be
00000150: 3126 debd 46ca 0d3d b814 40bc 783e d73d
00000160: c24a 483e 526d fd3d fd90 923d 07b9 4f3e
00000170: e770 353e 37fb 18be 5b70 943e 8800 2c3e
00000180: d95e 813d 9508 36be 9741 a6bd 5e2b 493e
00000190: a7cd 513d 66fd 1b3e 5f37 163e 96d0 23bc
000001a0: 618f 51bc cbb2 0bbe e473 9a3d 87f6 73bd
000001b0: d858 8ebe 58be 683d a2d1 183d 87bd b23d
000001c0: 9862 463d 65a6 103c 6905 05be dd8b 63bd
000001d0: 39d4 463e d71b b4bd d952 a33c 27e4 22be
000001e0: 5423 a23d a765 0fbe afe6 123e 67e5 89be
000001f0: b8b9 f83d 6c3c 09be 544b 79be 0272 983d
00000200: fa67 be3c fead 2c3d f9e3 053e 3886 593e
00000210: 690b 563b 0da4 833d 16b9 38be f4d9 293e
00000220: 5bcd 15be 8c06 abbd 476f 16be 2a7b 5fbe
00000230: 7259 3a3e 2570 d0bd 8a84 23be 5bb1 e13c
00000240: b005 613d b8e8 143e ccee 83be 9751 9dbe
00000250: 8c50 a1bc 7cf4 e5bd 33d3 62be 7c8b a33d
00000260: aad7 4d3d f97c 32be ab86 b93d ec62 ad3d
00000270: 7de2 34bd f67f 693d 09d8 273d a164 293e
00000280: a675 a4bd 6233 be3d 4537 18be 1c57 37bd
00000290: e8fe 763e d3ca cdbd bf4d 33bd 0287 233e
000002a0: 2310 9e3d 69cc 22be f561 ec3c 9e37 fc3d
000002b0: 61a0 bf3d e3ff a73d f725 6e3e 3b93 debb
000002c0: 8693 0f3e 3d4f 00be 4aee 983d 91e5 48be
000002d0: 349c dabd 89e5 053e b8c4 033d e700 ce3d
000002e0: 55b2 083e 312f 5c3e 1a74 f3bd 0cd5 823d
000002f0: 60c7 43bd a15a 66bd 9460 e33d c857 fd3d
00000300: 6da4 743e b1a7 d03d 16e5 173d 1001 2dbe
00000310: abbc 82be 69ae 293c c6b0 aabd 723f 153e
00000320: bf37 4fbd 6f35 5c3e 6283 a23d 711e d3bc
00000330: f0e2 a33e b18b 283e c521 c03d 91f4 eb3d
00000340: 5274 bcbd 77f9 673d d8ee 443e 706a 01bc
00000350: da23 e9bd 7162 09be 295d 27be 2dd1 633e
00000360: 9ec5 6b3e 73cd eb3c 6d5f a13d 8a79 2ebe
00000370: 79c5 3c3e b403 223e c7eb 423e 4f3c 50be
00000380: 1970 b23d 92f9 99bd 3c51 97bd ea01 8cbc
00000390: 9b83 d6ba 06aa 243e a762 e5bd 96ee 25be
000003a0: c646 5f3d c48a a53d b2b8 25be 1b44 ce3d
000003b0: 55df 1ebf 307b c3bd 74e4 32bd 4438 8ebd
000003c0: 9fcf 59bd 54da bebd 1e17 aabe 6e5c a9be
000003d0: bb55 ae3d d16c 3dbe e7b5 24bd 1e26 143d
000003e0: 5473 82be 56b2 0fbe 3a76 de3d 7ccd b3be
000003f0: 35e3 13be ea65 74be f5c6 91bd 4fd6 ea3d
-0.078685865 0.12764707 -0.11321681 -0.28566295 0.5641347 0.13163358 -0.036849003 0.09312037
-0.10008523 0.117169134 -0.20916867 0.06599972 0.06969456 0.2819665 0.09042675 -0.17612295
0.058934025 0.13292351 -0.1499379 0.05711957 0.004612496 -0.1956679 0.13710758 0.121140316
-0.08666523 -0.13421077 -0.06924099 0.40211388 -0.05434605 0.018039942 -0.035158005 -0.100693874
0.08411792 0.09379193 -0.062386457 -0.1451492 0.06037403 -0.17701282 0.007604475 -0.15500066
-0.15927662 0.17543781 0.08790735 -0.06499898 0.21696548 0.14742494 0.0046529677 -0.0071882335
-0.21534093 -0.08996619 0.07743141 -0.040315285 0.1363604 0.022867693 0.062231287 0.0076094028
-0.14195368 -0.06383158 0.12449512 0.014844465 -0.09597491 0.17570749 -0.1349783 -0.07206506
-0.31559777 0.065218925 0.07773419 -0.0014102082 0.19454746 0.19109021 0.14596906 0.062840395
0.059669662 -0.21556154 -0.1370936 0.13525872 0.10494192 -0.17072941 0.055926416 0.14977339
0.16838725 0.050293997 0.053836614 -0.20546134 -0.10847128 0.03461673 -0.01172369 0.10509962
0.19559768 0.12374367 0.071565606 0.20285426 0.1771885 -0.14939581 0.2899197 0.16797078
0.06316919 -0.17776711 -0.08117979 0.1964545 0.051221516 0.15233383 0.1466956 -0.009998461
-0.012790532 -0.13642423 0.07541636 -0.05956128 -0.27802157 0.05682215 0.037309296 0.08727556
0.04843387 0.008828734 -0.12990345 -0.055553306 0.19416894 -0.087943725 0.019936966 -0.15907346
0.079168946 -0.14003621 0.14345811 -0.26932833 0.12144798 -0.13401955 -0.24345142 0.0744362
0.02324294 0.04215812 0.13075246 0.21242607 0.003266061 0.064277746 -0.18039355 0.16587049
-0.14629118 -0.08350858 -0.14690886 -0.21824327 0.18198183 -0.1017764 -0.15968528 0.02755039
0.054937065 0.145419 -0.25768125 -0.3072631 -0.019691728 -0.11228272 -0.22150879 0.07985589
0.0502545 -0.17430486 0.09058889 0.084661335 -0.04416131 0.0570068 0.04097751 0.16542293
-0.08030252 0.09287144 -0.14864834 -0.04476081 0.24120677 -0.10048451 -0.043775316 0.1596947
0.077179216 -0.15898289 0.028855303 0.12315296 0.09356762 0.082031034 0.2325667 -0.0067924536
0.1402112 -0.12530227 0.07467325 -0.19618823 -0.10674325 0.13075842 0.032170027 0.10058766
0.13349278 0.21502377 -0.11887379 0.06388292 -0.04779756 -0.056238774 0.11102405 0.123702586
0.23890848 0.101882346 0.037083708 -0.16894937 -0.25534567 0.010356524 -0.08334498 0.14574984
-0.050590273 0.21504758 0.079352155 -0.025771352 0.32009077 0.16459538 0.09381441 0.11521257
-0.09201874 0.056634393 0.19231737 -0.007898912 -0.11383791 -0.13416459 -0.16344132 0.22247763
0.23024604 0.02878449 0.07879529 -0.17038551 0.18434705 0.15821725 0.19035254 -0.20335506
0.08712787 -0.07518305 -0.07388541 -0.017090756 -0.0016366126 0.16080484 -0.11200457 -0.16204295
0.054510854 0.08083108 -0.16183737 0.10071584 -0.6205953 -0.095449805 -0.0436749 -0.069443256
-0.05317652 -0.093189865 -0.33220762 -0.3307833 0.085124455 -0.18498541 -0.040212538 0.036169164
-0.25478613 -0.14032874 0.10862394 -0.3511771 -0.14442141 -0.23867002 -0.07118026 0.11466657

regressors.1.lins.2.bias f4 [32]
00000000: c689 603c 48db d43d 51c3 2f3d 0b75 353d
00000010: 4cf6 51be 395e c23d a132 2cbe c28c 163e
00000020: f1f4 12be 45be 6abd be32 313e 12c4 083e
00000030: 0450 41be 9245 33be e8f2 dc3d 3a5e 7f3e
00000040: 8a10 273e 9492 e8bc dbab 053e 6728 8abd
00000050: e707 bfbd 2a5b d83c dfa7 c7bd 60c6 9fbd
00000060: 72ac 9b3d 3b59 a7bc 99a8 2dbc 76f8 d2bb
00000070: 16c6 d5bb bdd1 a83c cb34 233d 30dc 7c3d
0.013704723 0.10393387 0.042910878 0.044301074 -0.20504111 0.09490628 -0.16816188 0.14702132
-0.1435125 -0.05731036 0.17304513 0.13356045 -0.1887818 -0.17507008 0.10788518 0.24938288
0.16314903 -0.028390206 0.13053839 -0.067459874 -0.09327679 0.026410658 -0.09748816 -0.07801509
0.07601251 -0.02042829 -0.010599279 -0.0064383103 -0.006523858 0.020607824 0.03984527 0.061733425

regressors.1.lins.3.weight f4 [1, 32]
00000000: 6260 aa3d 6bd2 a5bd bb1b 4b3e f740 39bd
00000010: 50b9 01be 089d bf3d c953 72bd 1046 84be
00000020: 906d 33be c560 16be afdd b7be 2937 0fbe
00000030: ae51 2dbe 3f0f 2bbe 3b81 d5bc c4c5 703d
00000040: 1848 183e b445 23be 3548 82bd 7730 88be
00000050: 6999 e2bd ff9f de3a 2798 5cbe 66a2 4c3d
00000060: 542d 1bbe 834a fdbd 92d7 9dbd 9d37 093e
00000070: dc3e 8a3d dc24 9dbd 0fa7 cbbd d32f 4cbe
0.08319165 -0.08096775 0.19834797 -0.04522797 -0.12668347 0.09356123 -0.059161935 -0.25834703
-0.17522264 -0.14685352 -0.3591132 -0.13985886 -0.1692569 -0.16705035 -0.026062598 0.058782354
0.14871252 -0.15944558 -0.06361429 -0.26599476 -0.11064417 0.0016984938 -0.21542417 0.049959563
-0.1515401 -0.123677276 -0.077071324 0.13400121 0.06750271 -0.07673046 -0.09943973 -0.19940118

regressors.2.lins.0.weight f4 [32, 64]
00000000: 38a1 9dbd e0f2 f9bc 8ab1 aabd 20be f5bc
00000010: 0849 4e3d c2a9 c13d 90c1 39bd 84af c03d
00000020: c86a 1fbd e8c2 6cbd 0042 0a3a e04f dd3b
00000030: 483e 34bd a01e 583c e2b5 dbbd 58ae a13d
00000040: 0841 e93c 5a0e bbbd 54cb 6abd e86a c23d
00000050: f8d0 863d 34a7 9fbd 4060 88bd cca4 58bd
00000060: 9038 58bc 52dd b43d 447c cf3d fa26 9b3d
00000070: d81a 3cbd 16a2 a4bd a6ae dd3d 749e 4d3d
00000080: 98e5 e8bd 8ed3 88bd d80c 953c 1ccb fd3d
00000090: b628 a6bd 7816 ebbc 0080 d137 4886 79bd
000000a0: 78ad 67bd dccc d03d d26a d0bd 1221 babd
000000b0: 0044 433c 48f3 f73c 52b6 bfbd a025 483c
000000c0: def0 cbbd 72bf 9e3d ce3f a3bd c8ca c4bd
000000d0: c86d a4bc 50bd 7fbc 64d1 643d f8d6 acbd
000000e0: 4069 8c3d 3252 aabd f602 cd3d 2028 cb3c
000000f0: f0ab a63c e0e2 ad3d 2039 53bc 469d a63d
00000100: 9828 f43d a0d1 d53d d0af 32bd c0bc fa3c
00000110: 8e93 99bd 08bc e33c 52a1 d4bd 7407 0cbd
00000120: 30a0 ff3d 4244 e33d 1629 a63d dc3d e9bd
00000130: 10d7 4a3c 2e09 87bd 74a3 783d b827 bdbd
00000140: 2ce9 aebd 002e 5abd ec34 443d 7c55 8fbd
00000150: 60ab cb3d b271 f43d 389d 4e3d a660 b6bd
00000160: b8a7 de3c 7003 e73c a2c9 c7bd 4ab2 c6bd
00000170: 7a1a a3bd b89d 66bd 52b5 fbbd f8fb 903d
00000180: 1034 97bd 7022 603c f6fe cdbd c498 37bd
00000190: 2094 dabb 749f 723d 4068 c2bb bc16 a3bd
000001a0: 709c 693c 102f 63bd f8d7 f0bd 4808 933d
000001b0: 584e d73c 6073 533d c06d f23d 303f ff3c
000001c0: aeed 9a3d c0ee b6bb 5cd6 02bd 3ce7 eabd
000001d0: e054 e53b 0011 5abd 1cb4 2f3d 5829 7b3d
000001e0: 5a7b c4bd 4286 a0bd 2840 363d 742d 92bd
000001f0: 906b 6d3c ba1a ef3d 0c0d d8bd 4401 33bd
00000200: 34ee f0bd a0db e5bc a409 5d3d 1034 1dbd
00000210: 2802 f4bc 00fd 48bc f8f8 55bd e863 3fbd
00000220: d463 c03d 68c6 e2bd 203b ac3c 30ab a23d
00000230: 5826 2b3d 9c97 b0bd 2075 69bc 40e2 c1bd
00000240: 1094 443d 422c 9ebd 806e e33a 7803 6d3d
00000250: e81d c3bd 52b6 ea3d e0db da3c f071 50bd
00000260: 58ce 113d 0cdb 64bd 008c bb3c 920c c23d
00000270: 8893 f33c 984c 56bd 2c8f 38bd 8e09 993d
00000280: 983b c03c c0af 98bb 5c35 b3bd 0455 4bbd
00000290: e094 1ebc 10f8 3a3c a04d d6bd 3cbe af3d
000002a0: de6d a73d e8c9 993d 9226 e93d e8ac ee3d
000002b0: 6276 97bd c85f f73d b464 7bbd f8a7 763d
000002c0: 04ea 823d f6fa d73d e075 00bc c205 aa3d
000002d0: a08a 8a3c 185d 9e3c fcf8 723d c2b0 8cbd
000002e0: 1632 8abd 2284 f53d 84c0 4c3d dcfc 013d
000002f0: 3648 a8bd 8422 d03d 98b6 b6bd 840f 903d
00000300: 98fa 11bd fca4 1dbd 7e09 893d 846c c33d
00000310: a055 8f3d 4c82 20bd b452 a1bd 2c0c 06bd
00000320: e801 8b3d 8052 f53a 908d 34bc 7023 8dbc
00000330: 5c0a f0bd d657 d83d f0fd 1fbd 0031 0f3b
00000340: 1af7 893d 6815 753d 8041 d73c 04ef 45bd
00000350: de4c d03d 8c9d 6e3d 8094 51bc ce68 873d
00000360: 449f 863d 50a3 1a3d f893 c5bd 14bf 8abd
00000370: ae16 f73d 40a8 d0bc d02a 85bc fc06 8a3d
00000380: 3cec 6fbd a49b 16bd b20c d9bd 60e9 53bc
00000390: f06f 0b3d da4d da3d 9e05 9ebd 6812 d5bd
000003a0: 6043 b0bb 2800 83bd 1c7b 35bd 00a8 5cbd
000003b0: ac72 a3bd 30e5 9c3c 486c bb3c 40c0 763b
000003c0: 7c68 c43d 10ef 60bc 4868 b13d e287 89bd
000003d0: 00fd 663a c02a ff3b 38b5 87bc 6201 e0bd
000003e0: cca3 b5bd 4008 a4bb 4032 aebb d0d1 dd3d
000003f0: 4678 b6bd 082e e6bc c09c f23d c2ac cbbd
-0.07696766 -0.03051132 -0.08334644 -0.029997885 0.050362617 0.09456207 -0.04535061 0.09408477
-0.038920194 -0.057803065 0.0005274117 0.0067539066 -0.04400471 0.013190895 -0.10728051 0.078945816
0.028473392 -0.09133597 -0.057322815 0.09493047 0.065828264 -0.07795563 -0.06658983 -0.052891538
-0.013197079 0.08831276 0.10131124 0.075757936 -0.045924038 -0.08038728 0.10824327 0.05019994
-0.113719165 -0.06680976 0.018194601 0.12392256 -0.08113234 -0.028697237 2.4974346e-05 -0.060919076
-0.056561917 0.10195324 -0.10176624 -0.09088339 0.011918068 0.030267373 -0.09360947 0.012216002
-0.09958051 0.07751359 -0.07971154 -0.0960899 -0.020071879 -0.0156091 0.055863753 -0.084394395
0.06856012 -0.08316459 0.100103304 0.024799407 0.020345658 0.084905386 -0.012892038 0.08135466
0.11921805 0.104403734 -0.0436247 0.030607581 -0.07498847 0.027799621 -0.10382332 -0.034186795
0.12481725 0.110970035 0.08113305 -0.11388752 0.012380376 -0.06593548 0.060702756 -0.092360914
-0.08540568 -0.053266525 0.047902033 -0.06998727 0.099447966 0.11935748 0.050442904 -0.08905153
0.027179584 0.028199881 -0.09755255 -0.09701975 -0.079640344 -0.056302756 -0.122904435 0.07079309
-0.07382977 0.013680086 -0.100583956 -0.044823423 -0.00667049 0.059234098 -0.0059328377 -0.079633206
0.014258489 -0.055464804 -0.11759943 0.07179314 0.026282474 0.051623702 0.118373394 0.03115806
0.07564865 -0.0055826604 -0.03194271 -0.11469886 0.0069986433 -0.05323887 0.042896375 0.061318725
-0.0959384 -0.07838108 0.044494778 -0.07137576 0.014490977 0.116750196 -0.105493635 -0.04370238
-0.11764184 -0.028058827 0.053964272 -0.03837973 -0.029786184 -0.012267351 -0.05223939 -0.046726137
0.09394041 -0.11072999 0.021024287 0.07942808 0.041784614 -0.08622667 -0.014249116 -0.09466982
0.047992766 -0.07723285 0.0017351657 0.057864636 -0.095271885 0.11460556 0.026716173 -0.05088991
0.035597175 -0.055872962 0.022893906 0.09475054 0.029733434 -0.05231914 -0.045058414 0.074725255
0.023465917 -0.004659623 -0.08750412 -0.049641624 -0.009679049 0.011411682 -0.104640245 0.08581206
0.081752524 0.07509214 0.1138431 0.11654073 -0.073956266 0.12078816 -0.061375335 0.06021878
0.06392291 0.10545914 -0.007840604 0.083018795 0.016911805 0.0193315 0.05931948 -0.068696514
-0.067478344 0.11988093 0.049988285 0.031735286 -0.08216898 0.10162833 -0.08921546 0.07034209
-0.035639375 -0.03848742 0.066912636 0.09542182 0.069987535 -0.03918676 -0.078771025 -0.03272645
0.06787473 0.0018716604 -0.011020079 -0.017228812 -0.11720726 0.105636284 -0.039060533 0.0021849275
0.06736584 0.059834868 0.02627635 -0.048323646 0.10170911 0.058255717 -0.012791753 0.06611787
0.06573346 0.037753403 -0.096473634 -0.067747265 0.12064873 -0.025470853 -0.016255766 0.067396134
-0.0585749 -0.036769524 -0.105981246 -0.012934059 0.0340423 0.1065938 -0.07715915 -0.10403901
-0.0053791255 -0.06396514 -0.04430686 -0.053871155 -0.07980856 0.019152254 0.022878781 0.003765121
0.09590241 -0.013728872 0.08662468 -0.06715371 0.00088115036 0.0077870786 -0.016565904 -0.10937764
-0.088691324 -0.0050058663 -0.005316049 0.10831034 -0.08909659 -0.028098121 0.11846304 -0.0994506
