baseline/DLPL-CAP/models_dlpl-cap-regressor/sandwich+ultra8t_to_ssram+digtime+timing_ctrl+array_128_32_8t/dlpl-cap-regressor_nh_2_tsk_regression_ngl_4_nhl_4_hd_32_us_1_bn_0_dp_0.0_epoch_5_20250402_134604.pth (torch, 64102 bytes, 21 tensors)

regressors.0.lins.0.weight f4 [32, 64]
00000000: 572a fabd 407d a2bb 9cc1 013d 2b7d 7e3d
00000010: 10cf 073e e7d4 c53c 832d cc3d d0f0 7cbd
00000020: e1ab 76be 259c 9f3b 901c c9be c6c6 813d
00000030: 3286 cfbc e113 c03c 6afa 26be 0bba e1bd
00000040: 463d fbbd 4f61 fc3d 4766 573e 1b64 19be
00000050: 7ce6 59bd 3825 85bc 40ac a6bd 6545 00be
00000060: 65e5 ca3d b18f 25be c3d5 933d 6d54 73bd
00000070: b697 eabd a87a e33d d280 d3bd 5d0e 69bc
00000080: acf0 c0bd b037 41bc 65ca bebc 3421 a23c
00000090: 62ad 9ebc b0ae c93d 0c7a a53d 3ca3 3e3e
000000a0: 813c 003d 5763 483e b8f1 2f3e 33c2 df3d
000000b0: aa79 15be 5539 243e 10bc 8abe 619c fc3d
000000c0: 1d20 9bbd 69e3 52bf 0f25 5bbe 3317 80be
000000d0: 92a0 9dbd 787c 3c3d 53fd 25bd 594d 06bd
000000e0: 2c69 1abe 7501 25bd d855 f03c d395 e0bd
000000f0: 54de f4bd d07e 173e 126e e73d eeaa 22be
00000100: cf76 f0bd 7031 91bc e495 d1bd 38c8 1abd
00000110: 2ae7 a63d 5c2c 1dbd 53a9 36bd d9b6 aa3d
00000120: 20ab 84bd 201c 43bc 3c66 f2bc fb75 853c
00000130: c5f4 17be d522 4bbd e495 9b3d 95fa 903d
00000140: 137e 163c 6ba2 09be 7eed b8bd 9c5c f9bd
00000150: 807e c83d a042 243c 4b3b 2dbd aaf7 573d
00000160: e992 8cbd 8333 ba3b ee66 a23d 78ff 89bd
00000170: 48be aebc 14cb 9fbd 2cf3 7f3d f51b 2a3d
00000180: 3237 02be 2817 66bd b6ab c9bd f99a ef3d
00000190: 1564 14be bdd6 083d 16d5 43bd 1ee9 a2bd
000001a0: eab2 b8bd 9850 863d 86d8 b6bd edf4 fdbd
000001b0: fcbb 67bd a3e1 4d3d f435 9abd d842 07be
000001c0: a2ea 913d fb30 08be aa9d eebd e0e5 213d
000001d0: 3871 df3c 3676 e7bd 9a3e 71bd 5092 973d
000001e0: 4adb 93bd 33d7 283d 3013 d63c c1d0 d43d
000001f0: 46d5 dc3d 2a26 22bd 5c37 203d b9e0 dbbd
00000200: 7575 783c d88e a13d c80d 03be 1e4c 66bd
00000210: 069e ec3d e15d 1d3d a930 443e 7e2e 3dbb
00000220: 41dd 31be b9b1 093d 70b8 3bbe fa84 42bd
00000230: 4ef7 18be 5cd3 803d c845 483e bc5b 85bd
00000240: 9a88 7ebe 2fe8 3bbe 3e7c 36bc 2604 083e
00000250: c0fc 9c3d 4cf4 20bd 699f 073e 4d41 573d
00000260: 51b3 af3d e81f 113e 3dd4 3dbd 2176 d6bd
00000270: 2ce2 633d 69ac 88be d67d 88bd b652 4e3d
00000280: b227 8b3d 4e15 9cbd 23f4 253e 15b3 52bc
00000290: 1849 70bd da71 01bd 8f9a ce3c 7844 b4be
000002a0: 6ccc f93d e6ba e33d 1790 a53d aac4 82bd
000002b0: e66c 5d3e 00e4 eabd 8392 863d 50cf b4bb
000002c0: 9258 6cbb 68df ed3d f6fb 02bd 0c6e 053d
000002d0: 24ed eb3d d03a 013c 66c6 8e3d 4f28 d4bd
000002e0: 4c00 ffbd 62ef 07be 05ee 69bd aaa7 13be
000002f0: 2613 dc3d e13e c73d 50ba b03c 47a5 5cbe
00000300: 99df abbd 80ee aa3c 972f 2ebe e47a 05bd
00000310: a4ca 2fbc 1179 f9bd 0a30 78bd dbb3 303d
00000320: 55c4 263e 46b4 98be 5070 033e 4d1e debd
00000330: edb7 14be 6882 803d 7e3f 14bf f121 0dbd
00000340: c218 a1be 98f6 90bc 8727 57be 2b65 053d
00000350: 1220 a4bd 343a ff3d 8d64 a9bd 692d aa3d
00000360: db0b 803a ebef 193d 3d4a f93d 3956 2ebc
00000370: 50cb 7e3c f97a 54be f0ca babd cd5c 9a3c
00000380: f6ed 3d3c 08f0 c2bc c621 92bd 2bf8 a03c
00000390: c51d 3a3a 0efa d7bd 35be 9fbd 6443 e93d
000003a0: 50e2 86bc 8f04 e9bd 672d adbc 9373 633d
000003b0: 8e82 48bd 4457 3c3e 000d 28bf aed5 c23d
000003c0: 625d c43d 0cbb e8bd a2f6 cfbc 874d ee3d
000003d0: 8659 9d3d 1c13 4abd a9d7 6bbd 7b49 243e
000003e0: 7560 223e 3222 7f3e 94c5 14bd b639 993d
000003f0: 560f d03d 5249 203e c451 f63d 3b21 fcba
-0.12215107 -0.0049587786 0.03167878 0.06213109 0.13262582 0.024149371 0.09969618 -0.061753094
-0.24089004 0.004870909 -0.39279604 0.06336741 -0.025332544 0.023446979 -0.16306463 -0.11021813
-0.12267546 0.12323248 0.2103511 -0.14979593 -0.053198323 -0.016253099 -0.08138323 -0.12526472
0.09907035 -0.16168095 0.07218506 -0.059406687 -0.11454718 0.11107379 -0.10327305 -0.014224616
-0.094209045 -0.011793062 -0.023289869 0.019791223 -0.019369785 0.09847772 0.08079919 0.18616956
0.0313077 0.19569145 0.17182052 0.109257124 -0.14597192 0.16037495 -0.27096605 0.123345144
-0.075744845 -0.8237825 -0.21400855 -0.250177 -0.07696642 0.04601714 -0.040524792 -0.03278861
-0.15079182 -0.040284593 0.029337808 -0.10966077 -0.11956468 0.14794469 0.11300291 -0.15885517
-0.11741411 -0.017723769 -0.102336675 -0.0377886 0.0814956 -0.038372383 -0.044595074 0.08335657
-0.06477952 -0.011908561 -0.029589765 0.016291609 -0.14839466 -0.049593765 0.07596949 0.07079045
0.009185332 -0.13440864 -0.09029673 -0.12175867 0.09789753 0.01002565 -0.042292874 0.052726425
-0.068639584 0.00568241 0.079297885 -0.0673818 -0.021330968 -0.07802406 0.062487766 0.04153057
-0.12716368 -0.056174427 -0.098472044 0.116994806 -0.14491303 0.033407915 -0.047810636 -0.0795462
-0.090185 0.06558341 -0.08928017 -0.124002315 -0.05657576 0.050264012 -0.07529822 -0.13209093
0.07124831 -0.13299935 -0.11651166 0.039525867 0.027275667 -0.11301844 -0.058897592 0.07400954
-0.072195604 0.041220855 0.026132196 0.10391379 0.10782866 -0.039587177 0.039115295 -0.10736222
0.015164723 0.078885734 -0.12798226 -0.056224935 0.11553578 0.038419608 0.19159187 -0.0028866823
-0.17369558 0.033616755 -0.18332076 -0.047490098 -0.14938089 0.062903136 0.1955787 -0.065116376
-0.24856797 -0.1835029 -0.01113802 0.13282833 0.07665396 -0.03929548 0.13244404 0.05255251
0.08579124 0.14172328 -0.046344984 -0.1047175 0.055635616 -0.2669404 -0.06664626 0.050371848
0.06794681 -0.07621251 0.16206412 -0.012860079 -0.058663458 -0.031602718 0.025220184 -0.35208488
0.121971935 0.111196324 0.080841236 -0.06385167 0.21623573 -0.11469269 0.06570914 -0.0055178776
-0.0036063534 0.11614877 -0.03197857 0.032575652 0.1151984 0.007887557 0.06971435 -0.10359251
-0.124512285 -0.13274911 -0.05711176 -0.14419428 0.1074584 0.0972879 0.021573216 -0.21547423
-0.08392257 0.020865679 -0.17010342 -0.0325879 -0.010729466 -0.12181295 -0.06059269 0.043140274
0.16285832 -0.29825038 0.12835813 -0.10845623 -0.14523287 0.06274873 -0.5790938 -0.034456197
-0.314642 -0.01769571 -0.21011172 0.032567184 -0.080139294 0.12462273 -0.08271132 0.083094425
0.0009769158 0.03758232 0.12172363 -0.010640674 0.015551403 -0.20750035 -0.091207385 0.018843079
0.011592379 -0.023796096 -0.07135348 0.019649586 0.0007099773 -0.10545741 -0.07799951 0.11389807
-0.016465336 -0.113778226 -0.021139814 0.055530142 -0.04895263 0.18392664 -0.65644836 0.095134124
0.09588124 -0.11363801 -0.025386158 0.11635881 0.07683091 -0.04933463 -0.057578716 0.16043656
0.15857108 0.24915388 -0.036321238 0.074817106 0.10159175 0.1565297 0.12027314 -0.0019235978

regressors.0.lins.0.bias f4 [32]
00000000: aa33 51bc 323c d2bd 1600 ee3d 7560 97bd
00000010: b1ea fd3d a0fd 1f3d 34c1 c33d ea78 1f3e
00000020: 6d34 1f3e f460 773d 6c08 ba3d 6261 74bd
00000030: 84e4 a7bc 4258 51bd 6f84 cdbb c272 88bc
00000040: b07f f6bc 9a4e abbd 4d26 a2bd 8271 1a3e
00000050: af5e 98bd c63e 623e e6d5 233e 8687 d4bd
00000060: 76c3 02bc 2172 7cbd 4532 2f3e 39a9 99bc
00000070: b275 2f3e 77ee bebd f618 d33d 85f5 0dbe
-0.012768665 -0.102653876 0.1162111 -0.073914446 0.123982795 0.039060235 0.09558335 0.15573469
0.15547343 0.060395196 0.090836376 -0.059663184 -0.020494707 -0.05110956 -0.006271891 -0.016656283
-0.030090183 -0.083646014 -0.079174615 0.15082362 -0.074399345 0.22094259 0.15999565 -0.103774115
-0.007981172 -0.06163228 0.1710902 -0.01875745 0.17134741 -0.09322827 0.10307495 -0.1386319

regressors.0.lins.1.weight f4 [32, 32]
00000000: 5878 a9be 0936 123c 473a 2bbd 83bd 083e
00000010: bd2f 3bbe f2b2 8dbe 3955 5a3d 8595 e7be
00000020: cbab 09be 9111 203e 44a0 26be e29e 00be
00000030: 519b 14bd a241 03be eac7 533d 55ce 44bc
00000040: b4b7 29bd 417f e63d 4acc 13be a01c 13be
00000050: 99de d6be 7783 cd3c 29d8 9abe 1371 133e
00000060: 496f 0d3d d732 203c e316 10bd f3b1 bebd
00000070: 0324 d2bd 09d7 1cbe f156 2cbe c49b a23e
00000080: ccb9 67be b6e6 0bbe 5922 1b3d a0fb 9ebe
00000090: 315f 623e 5758 68bd 158c 74ba a86e 2cbd
000000a0: 6251 253e 4ea2 573c 1332 073e 6534 22bd
000000b0: a189 b33d 2693 7bbc 001d aebb bcd0 0e3e
000000c0: f87e f03d 5b30 14be 174e 1cbd 2482 0cbe
000000d0: da65 da3d 4cb2 bd3d 30b4 5fbe def7 91bd
000000e0: 644a 4abd 97f8 893d ed1f 8fbc 0768 77be
000000f0: 9a08 fe3c 2ab3 ab3e 7cf3 b23d c5b8 333e
00000100: b5c0 1c3e df0e b9bc 09c4 0abe de80 e7bc
00000110: 7c8e 64be 0375 bf3d 40fa 76be a606 fb3d
00000120: 98b4 9c3d e946 81be 3684 febd 7026 443d
00000130: 7266 75be c896 8ebe 48be 9bbd 2a85 83be
00000140: 28c7 28bd 3bac e23d 1d94 19bc 6add 67bd
00000150: 5a18 babe 59ed 8cbd 0db3 7f3d bdbc 2d3c
00000160: cc6a c4bd 97b6 99bd f7b3 023e eab7 0abd
00000170: c50b 233d 831c fcbc 62f0 19be 12f5 59be
00000180: 6cb9 823d 2855 e53c ae66 de3d 41ed 0a3e
00000190: da23 f6bd b63c 80be e8ce 61be 6369 1fbe
000001a0: 0451 b9bd b4b9 31be 5364 a33c 575c 433e
000001b0: 2733 13be 71c8 55be 8534 04be 2b53 d6bd
000001c0: 7e41 8a3d bc3b 6a3c 63a4 913c fcd9 e3be
000001d0: 1283 59be 2aad f0bd 77a9 bb3d 62c9 ba3d
000001e0: d3fe 98be 5faa 0cbd 0ddc 9fbe afdc 22be
000001f0: 813f 0ebe 965b 933b ab46 11bd 4207 83be
00000200: 4abf 943d 13ae 0e3c 5275 403d 2a48 62bb
00000210: 93f8 11bd e345 7f3e 28ba 023d 6f86 b13d
00000220: b24d bb3d eff6 e43d 8460 973d 59b1 163d
00000230: 398c 84bc 3a5f 843a 44d5 343e e8d2 ce3c
00000240: 87ce d8bd 1ae9 a7bd 1312 223e 894a fd3d
00000250: 2754 22be 6f47 55bd e3eb 57be fdc4 593d
00000260: 5574 693b d8d7 94bc 26ae 843c 63c8 29be
00000270: f4cf ca3d ef99 153e 8214 8abd 52fc b6bd
00000280: 597a b6be 4fe8 103e 539f efbe cf2b 2abd
00000290: f9de 253d b51b 923e 7b33 a0bd b35c 19be
000002a0: 6718 083e 2813 713d 2947 c93d d50d 0abc
000002b0: 2837 913e 1561 d0bc a011 8dbd 59bc f33d
000002c0: f088 0abe c270 2e3c bfd6 77be 6d1f 3cbe
000002d0: 451b 023c f362 c8bd 8295 7f3c 5c7e 68be
000002e0: 3c72 2f3d bb4e 7bbd 2930 1b3e b7ef 45be
000002f0: 0cf6 1aba fb71 aa3d f8cf 2a3e dfe0 f6bb
00000300: b775 073a a1d8 b3bd 165a cc3d b656 9abe
00000310: a0d7 17be 054f 693e f184 553d e3ca d4bd
00000320: 9eef a9bd 8cf9 f63d 823e de3c 0b0a 36be
00000330: 0c0a 38be a617 e93b c72f d23d 7631 293e
00000340: c41e 45be 13e2 f33d be92 ef3d 30cb 43bd
00000350: acab 203e f46f 7ebe fe42 21be d7ce 3c3e
00000360: ef22 02be af5e 333d b4c0 af3d 706f 353c
00000370: cb35 373d 9cf5 32be 2cc1 a13d 2b68 98bd
00000380: 4038 9ebd 2685 c8bd 7365 993d 0352 663d
00000390: afc8 1abd ef8a a4bd 3e65 f8bd 078c bd3d
000003a0: 049d 41bc d8e7 6a3c 3b04 923b 8fa1 6abe
000003b0: 42e4 29be 07f6 ce3d fa00 323e 1e91 623e
000003c0: e352 c8bd a9a8 d5bd bde0 92bd 5404 4a3e
000003d0: 0b2e 51bd fc7f ddbd 0dd6 013e b799 a3be
000003e0: 190a cf3d e859 fcbc 6c1d 71bd bd4a d6bc
000003f0: 3a60 2dbe b45b 4d3e ee38 143e 75d6 06bd
-0.33099627 0.008924016 -0.041803624 0.13353543 -0.1827993 -0.27675587 0.05330393 -0.45231262
-0.1344444 0.15631701 -0.16272074 -0.12560609 -0.036280934 -0.12818006 0.051704325 -0.012012084
-0.04143496 0.112547405 -0.14433399 -0.14366388 -0.41966704 0.025087101 -0.30243042 0.14398603
0.034529958 0.009777746 -0.035178076 -0.09311285 -0.10260775 -0.15316404 -0.1683004 0.31759465
-0.2262947 -0.13662228 0.037874553 -0.3105135 0.22106625 -0.056724872 -0.0009328735 -0.042097718
0.16144326 0.013161255 0.13202696 -0.03960075 0.08766485 -0.015354907 -0.0053135157 0.13946813
0.11742967 -0.14471571 -0.03816041 -0.1372152 0.10663958 0.09262523 -0.2184608 -0.07127355
-0.04938735 0.06736868 -0.017471278 -0.24160777 0.03100996 0.3353513 0.08737847 0.17550953
0.15307887 -0.022590099 -0.13551344 -0.02825969 -0.22319978 0.0934849 -0.241189 0.122571275
0.07651633 -0.25249413 -0.12427561 0.04788822 -0.23964861 -0.27849412 -0.07604653 -0.25687534
-0.041205555 0.110680066 -0.009373692 -0.05660764 -0.36346704 -0.06881208 0.062426616 0.010604081
-0.095906824 -0.075055294 0.12763964 -0.0338668 0.039806146 -0.030775314 -0.15033105 -0.21284893
0.06383023 0.027994707 0.10859428 0.13567068 -0.12018557 -0.2504632 -0.22051585 -0.15567546
-0.09048656 -0.17355996 0.0199453 0.19078194 -0.14374982 -0.20877244 -0.1291066 -0.10465082
0.06750773 0.014296468 0.017778581 -0.44502246 -0.21241406 -0.117517784 0.09163182 0.09120442
-0.29881915 -0.034342166 -0.31222573 -0.15904497 -0.13891412 0.004497002 -0.035467785 -0.25591475
0.07263048 0.008708495 0.046986885 -0.0034527876 -0.03563745 0.24929003 0.031915814 0.08668219
0.091456786 0.11179911 0.07391456 0.036790226 -0.016180145 0.001009918 0.1765948 0.025247052
-0.10586267 -0.081987575 0.15827207 0.12367732 -0.15852414 -0.052070078 -0.21086077 0.05316638
0.0035622318 -0.018169329 0.016196322 -0.16580348 0.09902945 0.14609502 -0.06742193 -0.08934845
-0.3564022 0.14151119 -0.46801242 -0.041545685 0.040495846 0.28536764 -0.07822319 -0.14976768
0.13290559 0.05885616 0.09828026 -0.008426149 0.28362393 -0.025436917 -0.06888127 0.11901159
-0.135288 0.010647001 -0.24203013 -0.18371363 0.007941072 -0.09784498 0.01559961 -0.22704452
0.04283355 -0.06135438 0.1515509 -0.19329725 -0.00059112976 0.08322521 0.16680896 -0.007534131
0.0005167382 -0.08781553 0.0997812 -0.3014428 -0.14828348 0.2278405 0.052128736 -0.1039026
-0.082976565 0.12059316 0.027129415 -0.17777269 -0.17972583 0.007113415 0.10263019 0.16522774
-0.19250017 0.119083546 0.11697911 -0.047801197 0.15690488 -0.24847394 -0.15748212 0.18438278
-0.12708639 0.04379147 0.08581677 0.011073932 0.044729035 -0.17476505 0.07898173 -0.074417435
-0.077255726 -0.09791021 0.07490053 0.056230556 -0.037789043 -0.08034312 -0.121286854 0.09255224
-0.011817221 0.014337502 0.0044560707 -0.22913192 -0.1659098 0.1010552 0.17383185 0.2212567
-0.097814344 -0.1043256 -0.07171772 0.19728214 -0.0510693 -0.10815427 0.1267931 -0.31953213
0.10109348 -0.03080459 -0.05886595 -0.026158685 -0.16931239 0.20054513 0.14474842 -0.032919366

regressors.0.lins.1.bias f4 [32]
00000000: 04f4 2cbd 99d9 eebd 472f 88bd f4c5 c9bd
00000010: 3e35 b1bd ee23 37be c898 53bd 3f09 30bc
00000020: bf68 be3d 9df4 ae3d 2ae1 153e 601a 9cbd
00000030: 0558 6bbe 409f bc3c c71a 2d3e f3c2 1ebd
00000040: 3401 f8bd f1e9 9e3e c060 b63d e070 873d
00000050: eb23 963e 3aea 53bc 794e 93be b330 29bc
00000060: 612d f3bd e801 01be 04b0 653c 9b28 2bbe
00000070: 0c88 213e 17b2 2f3d 4c31 273e 4a13 413e
-0.0422249 -0.11662597 -0.066496424 -0.0985221 -0.08652733 -0.178848 -0.051659375 -0.010744392
0.092973225 0.0854275 0.14636675 -0.07622218 -0.22982796 0.023025155 0.16904746 -0.038760137
-0.121096045 0.31037858 0.08905172 0.06613326 0.29324278 -0.012934262 -0.28770807 -0.010326552
-0.1187389 -0.12598383 0.014019016 -0.16714709 0.15774554 0.04289445 0.16327399 0.18855014

regressors.0.lins.2.weight f4 [32, 32]
00000000: a664 193e 2d28 d83d ffe5 8bbd 2791 92bd
00000010: 23f9 6dbb 7b10 2bbe eff1 d2bd 5527 cebd
00000020: cf71 0c3e cf0a d8bd 3be0 dfbd d901 06be
00000030: 1c98 90bc 9db5 d7bd beab 20be e860 2f3e
00000040: d79b 89bd 48bf 55bc ac02 be3c 95a5 1a3c
00000050: f13d 523d f6cd a13d 9a98 89bd 7448 90bd
00000060: e8ac a9bc 070c 2abe b731 c0bd 2737 9c3d
00000070: 6c17 0bbb 5e11 f4bd 4d47 ebbd 243d 68bd
00000080: af80 b63d 8f90 1f3e 1ec4 18be cb96 9f3d
00000090: ac15 13be c073 da3d 2463 9ebd 62a1 4abd
000000a0: c7c6 083e b950 12bd 3155 47be 541a c93d
000000b0: f601 2bbb 7733 58be a9ed 37bb d9bf 143e
000000c0: de5c 8d3e accb 3cbe ecc6 ffbd 94d4 2e3e
000000d0: a301 f53d bd35 d8bb 93e9 a7bd 8d8e 073e
000000e0: c612 2d3d d3cb 193e 30af 9cbe 3a40 3cbe
000000f0: 41ac a0bc cb2e 86bc a4d6 babc c44e 07be
00000100: 7141 763d c739 32be bd97 f7bc c77f aebe
00000110: ff32 c93c d81b b23d b1cb 8bbe de37 3bbe
00000120: 41f0 46be 001f 263e 151a 263b f3e9 003e
00000130: cc83 f93d e43a c5bc 0856 04be 1151 863e
00000140: 4f93 403e 2d97 3dbd 6801 1bbe 3a88 b4bd
00000150: 3c79 3e3d 4c25 683d 70be 8c3e c55e 533e
00000160: 92ba bcbe f88e 203e 1218 453e efed 29bd
00000170: 8891 b6bd 8d47 3e3e d89c 233e 0712 743d
00000180: 6608 acbd 8c6f 8cbd 60cd 38be f4f2 0ebd
00000190: e708 04be 9491 f63d d6b8 dcbc 4307 463d
000001a0: 91dd bb3d 2e00 8b3d eb61 233d 253c 9cbc
000001b0: 5dad 06bd 10b8 1ebe 536d 06be cdc7 c5bb
000001c0: a44f 193e e20c eebc 5dee 5d3d e8b1 953d
000001d0: 9343 32be 0467 f23d bd34 6c3d 1daa 80bd
000001e0: 7a98 f1bd c99e 08be e2d8 9abd eeca b3bd
000001f0: d81f 53bd 601f ba3d 11a0 00be b738 fdbd
00000200: d869 f1bd d9d1 dabd e55d b03b 1e30 acbd
00000210: 47f3 dcbd 71f5 0d3e 5734 65bd d843 1cbe
00000220: 9454 ab3d d746 63bd 54df 02be 9384 0a3e
00000230: b499 78bd de6f 1ebe 9a04 0cbc 277e 4abd
00000240: 285a fd3d fbdd b13d 056b d7bc 5b94 4fbd
00000250: 8cd1 2f3d 2c5c d63c 9eca f0bd dfca 363d
00000260: 9564 2c3d 8d35 6c3e 4aa8 2abe 566c 0dbe
00000270: 4076 13be 928b 5abe a76d 82bd d5c7 173d
00000280: 2040 d6bd 2da2 0c3e 30c0 b63d 2444 ce3d
00000290: 5abd 35be 1481 8c3d f067 8f3d fd79 563d
000002a0: 21e3 14be 3725 713d 6d0d a6bb ae08 863b
000002b0: 9532 113e 0455 ecbc fe9e b9bd 433a 08be
000002c0: 9a18 4ebe 8a19 04be fdea e63d 784a ad3d
000002d0: 971f 0e3d 2655 4b3d a7a5 e23c 48cc e9bd
000002e0: 0e16 db3c ba46 99bd 39d0 df3c d188 773d
000002f0: 71ad 1dbe 9311 26be a275 53be 649c 463c
00000300: 17fc 20be e586 253c 6c29 343e 80fe afbd
00000310: c167 83be 4945 bcbd 7246 47bd 1198 90bd
00000320: dfc9 0cbf 03ec 10be 70cf 56bd 58c1 473d
00000330: b1b6 3c3e 308f 42be ce7e a83c f6e3 d43d
00000340: ed3b 87be c434 af3d 4a6a d23c ef81 3dbd
00000350: 3b18 84bd c033 a13d e8e9 a9bc babb bebd
00000360: 95e1 5abd 5a0e 05be 5acd 0a3d 8073 5bbd
00000370: dd07 27be 624c 863d b470 333d 5125 debb
00000380: 2b90 aebe 10c8 8bbe fcc0 48be ea0b 9e3c
00000390: 4f05 11bd ad45 c3bc 3cad ac3d 19b5 83bd
000003a0: 7271 7c3c 9146 903d 4aa0 423d e458 0abe
000003b0: f5e1 ddbd 37b8 7ebe 0c5a f3bc 570b 703d
000003c0: d5ff 1cbe 6550 f63c 6e29 56be bf82 06be
000003d0: 5c8c 14be 1fb9 0d3d 963d ce3e 9b55 043e
000003e0: c3bb a6be 8c77 77bd 81d3 9b3d 2060 7b3d
000003f0: d31a cfbc f3c5 67bc dbd0 183e 4546 3bbe
0.149798 0.10554538 -0.06830978 -0.07156592 -0.0036311827 -0.16705506 -0.103000514 -0.10066096
0.1371529 -0.105489366 -0.109314404 -0.13086642 -0.017650656 -0.10532687 -0.15690514 0.1712681
-0.06719177 -0.013046093 0.023194633 0.009438892 0.051328603 0.07900612 -0.067185596 -0.07045069
-0.020712331 -0.1660615 -0.09384482 0.07627707 -0.0021223677 -0.11917375 -0.11488209 -0.056698933
0.08911263 0.15582488 -0.14918563 0.07792433 -0.14363736 0.10666609 -0.07733753 -0.049470313
0.13357078 -0.035721514 -0.19466092 0.09819475 -0.0026093698 -0.21113382 -0.002806524 0.14526309
0.27609915 -0.1843707 -0.12489113 0.1707328 0.11963203 -0.006598203 -0.081988476 0.13237973
0.042254232 0.15019159 -0.30602407 -0.18383875 -0.019613387 -0.016379735 -0.022807427 -0.1321364
0.060121004 -0.17404853 -0.030223722 -0.3408186 0.02456045 0.08696717 -0.27303842 -0.1828303
-0.19427587 0.16222763 0.0025345136 0.12589245 0.121833414 -0.024075933 -0.12923443 0.26233724
0.18806194 -0.04628675 -0.15137255 -0.08815046 0.046502337 0.056676194 0.27489042 0.2064162
-0.36861092 0.15679538 0.19247463 -0.041486677 -0.08914477 0.18581982 0.159778 0.059587505
-0.084000394 -0.068572134 -0.18047094 -0.034899667 -0.12894021 0.120394856 -0.026943605 0.04834677
0.0917312 0.06787144 0.039888304 -0.019071648 -0.032880176 -0.15499902 -0.13127641 -0.006035781
0.14971787 -0.029058877 0.0541824 0.073093235 -0.1740859 0.11836055 0.057667483 -0.062824465
-0.11796661 -0.13341822 -0.07560898 -0.0877894 -0.05154404 0.090880156 -0.1256106 -0.12364333
-0.11787766 -0.106845565 0.005382287 -0.08407615 -0.10788589 0.1386316 -0.05595812 -0.15260255
0.08365741 -0.05548748 -0.12780505 0.13527136 -0.060693458 -0.15472361 -0.008546019 -0.049436715
0.123707116 0.086849175 -0.026296148 -0.050678592 0.04292445 0.026166998 -0.11757396 0.044627067
0.04208811 0.23067303 -0.1666576 -0.13810858 -0.14400578 -0.21342304 -0.06368571 0.03705581
-0.104614496 0.1373374 0.089233756 0.100715905 -0.17748013 0.06860557 0.070022464 0.05236243
-0.14539768 0.05887338 -0.0050675184 0.00409039 0.14179452 -0.028849132 -0.090635285 -0.13303475
-0.20126572 -0.12900367 0.11275289 0.084614694 0.034698095 0.04964175 0.02766688 -0.11415917
0.026743915 -0.07484193 0.027320968 0.060433213 -0.15398194 -0.16217642 -0.20650342 0.012122247
-0.15721165 0.010102962 0.17593926 -0.08593464 -0.25665095 -0.091929026 -0.048651166 -0.07060254
-0.5499553 -0.14152531 -0.05244392 0.04876837 0.18429066 -0.18999934 0.020568278 0.103950426
-0.26412907 0.08554986 0.025685448 -0.046266492 -0.06449934 0.07871199 -0.020741418 -0.0931315
-0.053437788 -0.12993756 0.033887245 -0.053576946 -0.16311593 0.065575376 0.043808654 -0.006779351
-0.34094366 -0.27301073 -0.19604868 0.01929279 -0.035405453 -0.023836935 0.08431479 -0.06431026
0.015407907 0.070447095 0.047516145 -0.13510472 -0.108341135 -0.2487496 -0.029706024 0.058604565
-0.15331967 0.030067632 -0.20914242 -0.13135813 -0.14506668 0.034600373 0.4028136 0.12923281
-0.32565126 -0.060416743 0.076087005 0.06137097 -0.025281345 -0.014146316 0.14923422 -0.18288524

regressors.0.lins.2.bias f4 [32]
00000000: a2e8 1ebe 3f71 3d3d 2608 7dbe 8345 96bd
00000010: 57b5 0ebe d67b 3c3d eb95 003e 9edc 62be
00000020: 1a36 07be 8fcb 0e3e 99b9 103d 312b 67bd
00000030: b3d3 963e b5f0 863e c8e9 bbbd e273 f13d
00000040: 0f55 5d3e aa91 3ebd 64b3 31be 052f 3c3e
00000050: 4c80 2cbe 85f2 1d3e c169 2cbe 1b8c bfbd
00000060: d9dc 2abd a7a7 fbbd 5efb 8c3a f339 2d3e
00000070: 76c4 213d 5488 96bb 6be1 5d3e f86e a93d
-0.1551843 0.046250578 -0.2471014 -0.07337477 -0.13936363 0.046016537 0.12557189 -0.22154471
-0.13204232 0.13944839 0.03533325 -0.056437675 0.2945839 0.2635552 -0.091754496 0.11789681
0.21614479 -0.046525635 -0.17353588 0.18377312 -0.16845816 0.15424545 -0.16837217 -0.09352895
-0.041714523 -0.122878365 0.0010756066 0.16916637 0.039494 -0.0045938883 0.21668021 0.08273119

regressors.0.lins.3.weight f4 [1, 32]
00000000: d5af f33d 9ed4 e1bd 0de1 5ebe 2e22 0cbe
00000010: 6652 fbbd 3dd6 95bd 644b 1d3e 485e debb
00000020: 04b3 ba3d bf89 793d ddeb 3a3d f5db c0bd
00000030: 6fe7 513e 7ac4 1e3e 4b01 04be 62ea b9bd
00000040: 2677 ca3d b3ce a3bc 8f2b 63bd d555 5f3d
00000050: 3610 5cbe e9f2 063e 9486 de3d 51de 7f3d
00000060: 7b39 2a3d 2b3c 82bd d9bf 7bbc 21ea 0f3e
00000070: e755 523b c2c5 0b3e 0702 863d ce6e 7ebd
0.11898772 -0.11026882 -0.21765538 -0.13684914 -0.12271576 -0.07316253 0.1536079 -0.0067861415
0.09116176 0.06092238 0.045635093 -0.094169535 0.20498441 0.15504637 -0.12891118 -0.09077908
0.09886007 -0.019996023 -0.055461463 0.054525215 -0.21490559 0.131786 0.108655125 0.062467877
0.041558724 -0.063591324 -0.015365564 0.14054157 0.0032094659 0.13649657 0.065433554 -0.06211739

regressors.1.lins.0.weight f4 [32, 64]
00000000: 276f f0bd 3ca5 91bd caaf c53d 40e3 923b
00000010: a0a6 aabd 23e0 82be f4df 1ebe 0a3c a43d
00000020: d25b 4ebc 1c44 4cbe cab1 e33c fae5 64be
00000030: 9693 9ebe 79e8 ce3c 255a 8a3c 2c46 82be
00000040: 0b81 42bd 0aff ea3d 4bd7 d43d ad1b ee3d
00000050: 103a cbbd 9881 933d e34b 953c 483e cdbd
00000060: 8c8f 523d e33d ca3b e2ce 273e 4644 ee3d
00000070: 4018 2a3d 4671 f43d d8e6 a33d c071 613c
00000080: 9059 4fbe e828 80bd 1aca da3d 914e 30be
00000090: 9a48 3b3c 4239 1bbe 9468 99bd d699 76bd
000000a0: 5548 babd 9a19 9fbe dd61 56be a01f 8d3d
000000b0: d1f8 abbd 61fc f53c b873 873d 4616 883d
000000c0: d93f aa3d 0448 5dbd fed2 debc 5b6f ef3d
000000d0: f819 54bd 24a6 9cbd c929 78be 0c1f 24bb
000000e0: 93fd 27bd bc7a c6be 8e4a fdbd c9e4 693d
000000f0: 28b2 113d ed25 93bd 0c15 e63d 0578 bc3d
00000100: 1fd4 e9bd f0db 9f3d 0fd6 063d 9616 babd
00000110: d113 8d3d 7c55 3c3e 65ee a63d 6540 c23c
00000120: ec14 783d 843e 40bd cfbe 2c3e 6660 41bd
00000130: 674f 05be 9a48 d1bd 8e18 5c3d 4c34 5c3e
00000140: 4fdd 153d 3991 b5bd b104 573e 7cb0 a73d
00000150: 005e d23d e859 cf3d 2d2c 61bd 0631 dc3c
00000160: 0149 38be 2f81 ebbd d7a7 c9bc f88c 333d
00000170: ac29 32bd a5ec c23b 44e2 0cbd f7c5 06be
00000180: 06b5 7dbd 6864 b3bc ec23 dbbd 79c0 5d3b
00000190: caf5 573e 8df0 713d 469a 333e 5689 1bbd
000001a0: b210 c43d 2362 0b3d acdd e5ba fc3d 0fbd
000001b0: 03f3 813d eb10 733d a563 223d b637 b8bd
000001c0: d0f3 583c 4ee9 323e 6065 a2bd 2673 81bd
000001d0: 30b6 1d3d 44c2 18bd b059 20bd 693c 8ebc
000001e0: f79a f5bd 8a45 c8bd e352 b9bd d27f 1bbd
000001f0: 0472 283d cdaf 253c 3005 bbbc 645b f4bd
00000200: c57a 503e 06bf b93d 71d5 e1bd be2c 9f3d
00000210: 4afc dc3d e0ee c13d bae3 24bd ddb7 3dbd
00000220: cc83 503d b5ce 973d 829b d9bc 8ba5 8ebd
00000230: 669b a93e aba6 44be 93da ddbd 0c15 e2bc
00000240: 645d 5f3d 28e5 2c3d 5920 a7bd a444 013d
00000250: e09b c33b 2e89 873d 391a febd f12c 19be
00000260: e316 0dbe fc82 953e d1d9 0d3d 4007 10bc
00000270: 58b4 a8bd 8668 893d 9a9c acbd 3c59 063e
00000280: 6075 c83d 7011 dcbd 0edf cabd f72a 023d
00000290: 65a7 bfbd 00ac 9f3d fcd0 00bd 8ede 9abd
000002a0: d624 2abe 1bed 1d3e 1fe9 21be 7537 803c
000002b0: 67d0 5f3d 8633 5ebb 4ac7 50be 52a7 873d
000002c0: fe16 aabd 9e46 09bd 13d7 c93c 3273 ca3d
000002d0: a22f 913d 8ccd abbd ea5c f1bd e64a f93d
000002e0: 2267 0d3e 7ebb d6bc 211f 153e f06f ec3c
000002f0: e073 c3bb efd2 223e 88ba fabc 27f7 283c
00000300: df58 8a3d 2891 173d 5c3f d0bd bca8 8bbd
00000310: d68f 0abd 9552 1ebe fd1b 82be 1b47 8dbe
00000320: 7432 953d c3b0 34be e997 bbbe 2897 82bd
00000330: 2d64 2cbe 4cb8 3abe 76bb 683c f7c8 3d3d
00000340: a14f 003e 8386 babd 0595 3bbc ba8b f0bd
00000350: b08b 1fbd 28db d4bc 31a3 8abd 9e49 72be
00000360: 538f 083e db97 673d 97ac 253e c65e c53c
00000370: 9e7f 80bd e3e1 dd3d e4fa 173d 980c 873d
00000380: d20f 8cbd 5430 6dbd a101 f73c 8526 e33d
00000390: 3afa 0bbe bbe8 df3d 7eaa a43d cb6e a43d
000003a0: 7981 acbd 0354 b3bd 28f8 adbd 2c46 88bc
000003b0: 4b99 a1be 4195 043e 9e17 d0bd 3e6d e6bd
000003c0: f09f 373e 6a7b 1cbe 3075 e9bd 620f bcbd
000003d0: fe15 fd3d 9407 cd3d 70d3 1f3e df2e 823d
000003e0: fe6d 10be c15c 313e 21f6 00bf 44b2 1abe
000003f0: f4dd 9ebd b390 4dbd 107c 95bd 7c5b e23d
-0.117399506 -0.07111594 0.0965267 0.0044826567 -0.083325624 -0.25561628 -0.15515119 0.08019264
-0.012595134 -0.19947857 0.027794737 -0.22353354 -0.30971974 0.025257336 0.016888687 -0.25444162
-0.047486346 0.11474426 0.103926264 0.116263725 -0.09923184 0.072024524 0.018224662 -0.10021645
0.05140643 0.0061719283 0.16387513 0.11634116 0.041527033 0.11935668 0.08003014 0.01376003
-0.20249009 -0.06257802 0.10683079 -0.1721747 0.011430884 -0.15158561 -0.0749065 -0.060205303
-0.090958275 -0.3107422 -0.2093577 0.068907976 -0.08397067 0.03002757 0.066138685 0.06644873
0.08312959 -0.054023758 -0.027200218 0.11691161 -0.05178258 -0.07648876 -0.2423469 -0.002504292
-0.04101331 -0.38765514 -0.12367736 0.057102952 0.035570294 -0.07184968 0.11234483 0.092025794
-0.11417412 0.078056216 0.032918986 -0.09086339 0.06888545 0.18391985 0.08150939 0.023712346
0.060566828 -0.04693462 0.16869663 -0.047211073 -0.13018571 -0.10218926 0.053734355 0.21504325
0.03658801 -0.0886559 0.20997883 0.081879586 0.10271835 0.1012457 -0.05497377 0.026878845
-0.17996599 -0.11499249 -0.024616165 0.04383561 -0.043496773 0.0059486204 -0.03439547 -0.13161455
-0.061940216 -0.021898463 -0.10700211 0.0033836646 0.21089855 0.059067298 0.1753932 -0.03797277
0.09573497 0.034029137 -0.0017537377 -0.034971222 0.06345179 0.059342306 0.03964581 -0.08995001
0.013241723 0.17471811 -0.07929492 -0.06320791 0.038503826 -0.03729464 -0.039148033 -0.01736279
-0.11992448 -0.097788885 -0.090490125 -0.037963696 0.04112436 0.010112715 -0.022829622 -0.11931494
0.20359333 0.09069638 -0.11027039 0.07772206 0.10790308 0.0946939 -0.04025624 -0.046317924
0.05090694 0.07412473 -0.02656341 -0.069651686 0.33126372 -0.19204204 -0.10832705 -0.027597927
0.054532424 0.042210728 -0.08160467 0.0315596 0.0059695095 0.06617962 -0.12407345 -0.1495855
-0.13778262 0.29201496 0.034631554 -0.008790791 -0.08237523 0.067093894 -0.08428307 0.13119978
0.097880125 -0.107455134 -0.099058256 0.031779256 -0.093581 0.07796478 -0.031449303 -0.0756198
-0.16615614 0.1542248 -0.15811585 0.015651444 0.054642107 -0.0033905222 -0.20388523 0.06623711
-0.08305167 -0.03351461 0.024638688 0.09885253 0.07089163 -0.08388814 -0.117853 0.12172489
0.13808873 -0.02621245 0.14562656 0.02886197 -0.005964741 0.15900777 -0.030606523 0.010312832
0.06755232 0.037003666 -0.10168335 -0.06819293 -0.03382858 -0.1546119 -0.25411978 -0.27593312
0.07285014 -0.17645554 -0.36639336 -0.06376487 -0.16835089 -0.18234366 0.01420485 0.046334233
0.12530376 -0.09107687 -0.011449103 -0.11745401 -0.038951576 -0.025983408 -0.067694075 -0.23660895
0.13335924 0.056541305 0.16179119 0.024093043 -0.06274341 0.108341 0.037104502 0.06594199
-0.06838955 -0.057907417 0.030152144 0.110913314 -0.13669673 0.10933062 0.08040331 0.080289446
-0.084231324 -0.08756258 -0.08494598 -0.016635023 -0.31562266 0.12947561 -0.101607546 -0.11251305
0.17932105 -0.15281454 -0.11399305 -0.091826215 0.1235771 0.10011211 0.15608001 0.06356596
-0.14104459 0.17320539 -0.5037556 -0.15107065 -0.07757178 -0.050186824 -0.07299054 0.110526055

regressors.1.lins.0.bias f4 [32]
00000000: 39df 0ebd f217 1b3e 54f7 63bd 6103 0dbe
00000010: a3ad 423e e99d 143e 6404 3ebb bbbd e3bd
00000020: 31f2 cb3d 8838 723d 1789 f4bd 5c0f b0bd
00000030: 3ac9 8d3d 4883 3c3e b038 ba3c f0de 693e
00000040: a0d0 1a3e 4635 08bd 0d65 31bc 951d 723e
00000050: 0692 953c baf9 7a3e 8c50 d0bd 8f40 8fbd
00000060: 4ad9 cc3d e590 b43d 264f 39bd 1f0a 2f3e
00000070: db1d a13d 41ee 5e3e 7a04 7e3e 9000 28bd
-0.03488085 0.15145853 -0.055655792 -0.1377082 0.1901155 0.14513363 -0.0028994316 -0.111201726
0.09958304 0.059135944 -0.1194021 -0.085966796 0.069231465 0.18409455 0.022732109 0.2283895
0.15118647 -0.03325393 -0.010827315 0.23644097 0.018258106 0.24509326 -0.10171613 -0.069947354
0.10002382 0.08816699 -0.045241497 0.17093705 0.078670226 0.21770574 0.24806395 -0.04101616

regressors.1.lins.1.weight f4 [32, 32]
00000000: aecc 19be f3b5 9fbe 8c4d 12bc 7027 3f3e
00000010: 2b69 00bf efe2 83bd 0274 94bd c935 c03d
00000020: 8631 87be a61a 63bd 2ab8 9bbc 8d8b b63e
00000030: 7c83 04be 6024 c1bc e2c4 9bbe 2651 143d
00000040: 5d45 203c 5cc3 a33d c1d7 b73c 2e74 bf3d
00000050: 8814 ba3d acf4 ddbe 7039 55be 0d63 11bd
00000060: 5bb0 debc 68a8 003e 919d c7bd be3a 8a3d
00000070: 4a08 a4be 1413 67be 25a5 d03e 6455 04be
00000080: 5e3c a9bb 887c 7cbd 0f6d f3bd 91ea 703d
00000090: ada8 ffbd a82e 693e 3835 93bc 2256 463e
000000a0: 728d ec3d 0aeb c53c 0414 bfbe 50af b83d
000000b0: cd7b c53c 6d56 043d 9920 04bc caee 27bc
000000c0: 7425 97bd 2b5c 30bd 909e 033e 9ae8 453e
000000d0: 1855 3abe 90b7 31be bf65 223d ab94 053e
000000e0: eab8 843e b3db 4ebd 45f7 333e ae9e 403c
000000f0: 966f 173d 3d9c 903d d90e a33e 6d21 3a3d
00000100: 2dba f0bc 6606 393e c202 9abd 11c2 d4bd
00000110: cd75 e7bd 973f 413e 78da 0e3e a7c1 5a3c
00000120: 7c9a 11be 3dd3 3e3e 509e 2f3e 419a 2bbe
00000130: 2388 193e 3cc1 83bc 3790 263e 0da1 97bd
00000140: 2af5 e3bd 3bea b1bc 450e 1e3d b1c8 29be
00000150: fc21 cc3d aad2 573e 0d16 403e 0f56 393e
00000160: 0377 4dbe 2746 b33d 856f c9bc 05af 813d
00000170: 46cf 13be 54d1 89bd ca14 25bd a84a eb3d
00000180: 2aaa be3d 008e ee3d 7f6c b83d 23a8 4e3e
00000190: ad1b 483e 173c 1fbd 6a98 1cbe 3562 513d
000001a0: ba84 80be 4016 323e e503 273d cc06 bbbb
000001b0: f247 9abd 37b2 65be 7e1c 99be 97f2 71bb
000001c0: aa73 70be 7757 83be 6672 1bbf 2cd6 38bd
000001d0: 61b8 92bc 88bf 993d 6cff 9d3d 42e1 10be
000001e0: 74fd 80be 10a9 5abe 1d9a 823d a8da 77be
000001f0: 7a11 eb3c 9a38 1e3e 762e 49bf d8a3 5fbe
00000200: 9bd2 d63d 5586 afbc 9b57 14bd 47b6 8c3e
00000210: 4313 d23c f89a 5c3e 3dec 013e 0335 f0bd
00000220: 39a8 693e eba6 f3be 7095 91be d456 2f3d
00000230: 18ce d53d 8859 a8bd a37d 0f3e b88f 12be
00000240: 95bd fcbe 989a 043e 7b08 273e 4d20 88be
00000250: 50a5 b0be fae7 a73d 0365 173d 5228 bebd
00000260: 50ed 04be 8a93 2ebe 3847 9fbd b207 3abc
00000270: d0ef 003c 6cd4 a83a dc48 5dbe 279b bd3d
00000280: 18ca 2dbe ad23 6b3d 1d10 cabd 189d b3bd
00000290: 79a6 9d3d 0157 2e3e ab1a 00be fd57 57bd
000002a0: de4a 3abe 5230 39bd 151b 16be f1f9 c33d
000002b0: a681 c5bb 031b 72be 6ec7 1ebe 7dc2 713e
000002c0: 1e29 ecbc 5516 bebd 0441 593e 018b f33d
000002d0: da18 39bd b900 353e 747c c1ba 1107 153e
000002e0: f266 203e 8913 3c3d 8f75 0fbe 54fd bfbd
000002f0: 9fc6 1dbe 3170 eabd 2b76 2b3d 886b 023e
00000300: e5a8 383e 222b abbd a45f 483c ad94 233e
00000310: 363e 6e3c 6a6f 2c3d cbf8 7f3d a19f 063e
00000320: 4ade b13d 7fab 2abd 58a0 d93d 47f0 d33d
00000330: 37ba a5bc 6348 7cbd 690c 33bd 5b98 883d
00000340: 183f 8e3d b274 3cbd bfea a33d 09d8 89be
00000350: f20e fdbd 0415 d7be 406f f33d 9ba4 55be
00000360: 3a5e 063d d80b 4cbe ddaf 42bd 8b70 0abe
00000370: 278a 8d3e 5e8d 8cbd 0fcd c33d 7ca3 4ebd
00000380: 974f 1cbe 5157 07be 5197 f9bd d72e a33e
00000390: 65a6 373e b244 413e 49ce 9fbd a70c b2bc
000003a0: 1981 2dbd bef9 16be 0f28 133e b8c5 013e
000003b0: 4860 763e af88 b13d 6bcf 1c3e ff9f 26be
000003c0: 54d3 703a c2da 6fbd 0d52 ac3c 1ac0 4abd
000003d0: 7bb8 aebc 9951 7b3d 3326 17be a3a7 bc3d
000003e0: 49b0 123e 3704 f13d 30e3 223c 9521 76bc
000003f0: b238 d03d 4c85 053e b9f9 0e3e 0894 f63d
-0.15019485 -0.31193504 -0.008929621 0.18667388 -0.50160474 -0.064397685 -0.07248689 0.09385259
-0.2640497 -0.055445336 -0.019008715 0.35653344 -0.12940782 -0.023576915 -0.30423647 0.0362102
0.0097821625 0.07996246 0.022441747 0.093483314 0.09085947 -0.43350732 -0.20822692 -0.035494853
-0.027183702 0.12564242 -0.0974685 0.067494854 -0.32037574 -0.22565871 0.40750995 -0.12923199
-0.005164667 -0.0616422 -0.11886036 0.05881745 -0.12483344 0.22771704 -0.017969713 0.19368795
0.11550416 0.024159927 -0.37319958 0.09017813 0.024106884 0.032308985 -0.0080644125 -0.010249803
-0.073801905 -0.04305665 0.12853456 0.19327012 -0.18196523 -0.1735518 0.039647814 0.13044994
0.25922328 -0.05050249 0.17574795 0.011756582 0.03697165 0.0706105 0.31847265 0.045442034
-0.02938565 0.18068847 -0.07520057 -0.10388578 -0.113017656 0.18871914 0.13950527 0.013351834
-0.14219087 0.18635269 0.17150235 -0.16758062 0.14993338 -0.016083352 0.16265951 -0.07403765
-0.11130746 -0.021718135 0.038587827 -0.16580464 0.099674195 0.21076456 0.18758412 0.18099235
-0.2006493 0.08753615 -0.02458931 0.063322105 -0.14434537 -0.06729379 -0.04030303 0.11488849
0.093098 0.11648178 0.09005069 0.20181327 0.19541807 -0.038875666 -0.15292516 0.05111905
-0.25101262 0.173913 0.0407752 -0.0057075974 -0.07533254 -0.22431265 -0.2990455 -0.0036918276
-0.23481622 -0.25652668 -0.60721433 -0.045126125 -0.017910184 0.07507235 0.077147335 -0.14148429
-0.2519337 -0.21353555 0.06377051 -0.24204504 0.028694857 0.1545128 -0.7858652 -0.21839845
0.104893886 -0.02142636 -0.03621636 0.27482817 0.02564395 0.21543491 0.12687774 -0.11728861
0.22818078 -0.47588286 -0.28434324 0.042807415 0.104397 -0.08220202 0.1401277 -0.14312637
-0.4936339 0.12949598 0.16311829 -0.26587144 -0.34501123 0.08198543 0.036961567 -0.09285034
-0.12981153 -0.17048469 -0.07777256 -0.011354374 0.007869676 0.001288069 -0.21609825 0.092581086
-0.16971624 0.05740707 -0.098663546 -0.08770198 0.07697768 0.17025377 -0.12510173 -0.052574147
-0.18192622 -0.045212097 -0.14658768 0.09569157 -0.006027418 -0.23643117 -0.15505764 0.23609348
-0.0288282 -0.09281603 0.21216208 0.11891747 -0.045189716 0.17676057 -0.0014761821 0.14553477
0.1566427 0.045917068 -0.14009689 -0.093744904 -0.15407799 -0.1144718 0.04186074 0.12736332
0.18033178 -0.08357836 0.012229834 0.15974684 0.014541199 0.04209844 0.062493127 0.13146831
0.086849764 -0.041667458 0.10626286 0.10348564 -0.020230396 -0.06159247 -0.043713007 0.066696845
0.06945628 -0.046009727 0.08003759 -0.26922634 -0.12356366 -0.4200822 0.11886454 -0.20863573
0.032804705 -0.19926393 -0.047530998 -0.13519494 0.27644464 -0.06862901 0.09560596 -0.05044888
-0.15264736 -0.13216902 -0.121870644 0.31871673 0.17934568 0.18873861 -0.07803018 -0.021734549
-0.042359445 -0.14743707 0.1437075 0.1267308 0.24060166 0.086686485 0.15313499 -0.16271971
0.0009186764 -0.058558233 0.021035219 -0.04949961 -0.021328202 0.061357114 -0.14760666 0.09211662
0.1432506 0.11768382 0.009941861 -0.015022655 0.10167064 0.1303913 0.13962449 0.120399535

regressors.1.lins.1.bias f4 [32]
00000000: 51c3 f53b cf51 81bd 01bf 9cbd ec9d d0bc
00000010: 5dbc a1bd 0f89 a63e 0dbc 803d f63e 143b
00000020: a687 1d3d 58c9 5dbd b3d2 36be 8445 2dbe
00000030: bcf7 393e 7963 d23d 5d4f b23b 9598 023e
00000040: 042a be3b c452 fa3d 45e6 fcbd c061 9c3d
00000050: 1a06 b1bd 52ad 9a3d 7739 0a3e 4943 653e
00000060: a55b 6d3c 4cd8 763e d87e 4abe 8b1f 1f3e
00000070: a251 78be af3c 813b 936a 013e 5356 273e
0.00750009 -0.06314432 -0.076536186 -0.025465928 -0.078972556 0.32526442 0.06285868 0.0022620535
0.038459443 -0.054147094 -0.17853813 -0.1692105 0.1816091 0.10272879 0.0054415897 0.12753518
0.0058033485 0.122228175 -0.12348608 0.07635832 -0.08643742 0.075525895 0.13498484 0.22388949
0.014487182 0.24105948 -0.1977495 0.15539376 -0.2424989 0.0039440016 0.12638311 0.16341524

regressors.1.lins.2.weight f4 [32, 32]
00000000: e2c6 a9be 537b bf3d af1a 46be b189 d8be
00000010: 8e75 113f f085 093e 4846 abbd 4acb b53d
00000020: 1edc ccbd 5ff6 ef3d 743d 1dbe 2b5f 84bd
00000030: fd83 953d 4ef4 513e e586 b33d 4e44 83be
00000040: ecc4 8e3d 33fc 8e3d 16ec 44be 8746 633e
00000050: 407d 3a3c 412f 28be d096 d83d 74dd 053e
00000060: be71 a1bb a8ca 85be ccac 2ebd 0a2f b73e
00000070: 7cf1 83bd c66a 0a3e 46fa dbbd 516f 1abe
00000080: ec6e c33d d92d 063d a3cb 30bd 1268 26bf
00000090: 8fb3 af3b a19b 71be 2960 19bc 409c 7ebe
000000a0: 0703 19be f8a5 333e 06f7 d03d f447 f2bd
000000b0: c329 063e b5bd c03d 5931 983d 4d76 c5bc
000000c0: bed2 93be 08b6 acbe d843 8238 437c 383d
000000d0: cb65 363d f369 243c 4a3e 383d 9abb df3d
000000e0: c573 2dbe d68a 88bc 85f4 fe3d b05a c73d
000000f0: 24f6 c73a e513 903e 6cb9 4cbe bc15 0fbe
00000100: b924 c3be 4591 ac3d 7187 ba3d aea6 56bc
00000110: 66da 2c3e ca3c 3b3e 9da5 513e 288c 493d
00000120: ce6a 893d bd27 55be 45fa 0fbe afc8 cf3d
00000130: 9f52 be3d cbc4 47be b854 1a3d 54a8 363e
00000140: 89c7 2a3e 1e1e 063d 2367 b63c 075e 2bbe
00000150: d7d5 86bd 90f1 a03c bdd8 28bc 58c0 f63d
00000160: 3704 343e 116e cc3d 3ed7 543d 5e6a 1d3e
00000170: 166a 123e 0f40 15be 0e01 843e c3c2 2c3e
00000180: 9bd9 133d 713a b4be e33c 5abd bb6a ea3d
00000190: b548 87bb 284f c93d c583 083e 7b3e 1c3d
000001a0: 1108 31be cbb2 0bbe 4fd0 123d d38d cc3d
000001b0: f140 79be a6ad 183e 8082 393d 59ff c53c
000001c0: 16ee 8abd ac6b f03d 8ce2 47be 7d8c afbd
000001d0: d8da e13d 492d cdb9 f2a7 b73c 4f67 7cbe
000001e0: be54 5a3d 07a6 88bd ddc0 173e fec0 afbe
000001f0: cee9 163e 41ec 0bbe a2a9 93be f2b6 443d
00000200: 6168 6f3e 9cda bd3d 76c4 f93d e4e0 493e
00000210: a628 283c 1386 253d cb3a 39be 44a9 283e
00000220: d655 48be 8c06 abbd 6359 83be 0f6b 39bc
00000230: f88a 323e debe 363c 5f73 b8be d714 7abb
00000240: a88f ce3d 206d 173d df24 5fbe 435b dcbe
00000250: b14f c2bd b65a 8bbe 22ca 6bbe 8416 953d
00000260: 095b 833e 51bc 0ebe ab86 b93d 1652 0a3e
00000270: bded 9dbd 67e5 19bd 0d46 2d3d 0426 323e
00000280: 6b1b eebd 8103 d93d ba31 0fbe e2be 88bd
00000290: 6746 573e 5d51 e8bd 0c4c 363c c2a9 0f3e
000002a0: 75e7 9f3d a201 1cbe 2e15 763c df3c b43d
000002b0: 5f0c 983d 8f5a 943d d3ba 513e 03f9 853c
000002c0: d9e3 073e c6dd fcbd 4c0e 123d 32e9 28be
000002d0: 3612 87bd f420 d73d 547a da3c fc3c d63d
000002e0: 7484 db3d 99c5 393e f374 07be 4011 623c
000002f0: 5b95 a7bd bf39 6bbd 62fd 933d 270e f43d
00000300: 67ff 603e 69e0 853d 2de0 debb afbc 0ebe
00000310: 5eb2 b3be cafb babc a241 f5bd 491e a23d
00000320: bb4d 8dbd 8609 553e 7b1d 983d 7759 0e3e
00000330: f7aa 823e 1074 773d e134 963d 5acd 8e3e
00000340: ab1a 0bbe a908 5f3d 57cd 243e 7c39 afbd
00000350: 12ff 06be 485c 1fbe 41d1 31be fc11 443e
00000360: b6da 743e 2307 97bc bb66 a13d 4a46 22be
00000370: 5a68 3c3e 67dc 773e 4c9c 4f3e 25dd b8be
00000380: 2ab5 3b3b 7f6b 54bd 08f1 03be a86b 663e
00000390: 9b83 d6ba 8e2d 133e c0b4 2bbe 625a 8bbe
000003a0: fe24 3a3d c48a a53d d21c 3fbe 867d c73d
000003b0: 284d 19bf 7972 4bbe e491 953d b311 373d
000003c0: 30dd 7abd d7d3 a1be 19f1 e2be aaa8 05bf
000003d0: a6bc 44be 641c 13bf 7a1e 8abd 1f42 863d
000003e0: e348 34be 99b2 0fbf 6c3d bf3d 3952 17bf
000003f0: 3c2d 0bbf eeaf 92be 6c07 333e 5af9 d93d
-0.33159548 0.09349694 -0.19346116 -0.4229255 0.5682 0.1343 -0.083630145 0.08876665
-0.100029215 0.117169134 -0.15355474 -0.06463464 0.073005654 0.20503351 0.087659635 -0.2563805
0.069711536 0.06981697 -0.19230685 0.22194873 0.011382401 -0.16424276 0.1057564 0.13072759
-0.004926889 -0.26131177 -0.04264526 0.35778075 -0.06442544 0.13517293 -0.10741095 -0.15081526
0.09542641 0.032758567 -0.043162953 -0.6500255 0.005361981 -0.23594524 -0.009361305 -0.24864292
-0.14942561 0.17543781 0.10203366 -0.1183013 0.13101868 0.09411184 0.07431287 -0.024104262
-0.2887172 -0.3373263 6.21152e-05 0.04504038 0.04453067 0.010035026 0.04498128 0.10924454
-0.16938694 -0.016667765 0.12448982 0.09734094 0.0015255851 0.28140178 -0.19992608 -0.13973135
-0.38113955 0.084261455 0.09107865 -0.013101263 0.16880187 0.18284908 0.20473333 0.04920593
0.067098245 -0.2081594 -0.14060314 0.10145699 0.092931025 -0.19508664 0.03767845 0.1783765
0.16677679 0.032743566 0.022265976 -0.16735087 -0.065837555 0.019646436 -0.010305581 0.120484054
0.17579733 0.09981931 0.051963083 0.15372607 0.14298281 -0.14575218 0.25782055 0.1687117
0.036096197 -0.35200837 -0.053280722 0.114461385 -0.0041285404 0.09829551 0.13331516 0.038145524
-0.17288233 -0.13642423 0.03584319 0.09987988 -0.2434118 0.14909992 0.04529047 0.02416961
-0.067836925 0.11739287 -0.19520015 -0.08571718 0.11028069 -0.00039134387 0.02241895 -0.24648784
0.053303473 -0.06672292 0.14819665 -0.3432693 0.14737627 -0.13664342 -0.28840357 0.048026033
0.23379661 0.09270212 0.12195675 0.19714695 0.010263598 0.040411066 -0.18088834 0.1647082
-0.19563994 -0.08350858 -0.25654134 -0.011317029 0.17435825 0.011153905 -0.3602552 -0.0038159394
0.10085994 0.036969304 -0.21791409 -0.43038377 -0.09487856 -0.27217644 -0.23026326 0.07279685
0.25655392 -0.13939025 0.09058889 0.13507876 -0.077113606 -0.03757229 0.042303134 0.17397314
-0.11626323 0.105963714 -0.13983813 -0.06677033 0.2102295 -0.11343644 0.011126529 0.14029601
0.07807819 -0.15234998 0.015019698 0.08800673 0.074242346 0.07243835 0.20481424 0.01635409
0.1327051 -0.123469874 0.035658166 -0.16495207 -0.0659527 0.10504332 0.026669659 0.104608506
0.10718623 0.18141784 -0.13228206 0.013798058 -0.08182784 -0.057428118 0.07226063 0.11916762
0.21972428 0.065369435 -0.006801626 -0.13939165 -0.3509702 -0.02282514 -0.11975409 0.07915933
-0.068995915 0.20804414 0.07427498 0.13901316 0.2552106 0.06041342 0.073343046 0.27891046
-0.13584392 0.05445162 0.16093956 -0.08555886 -0.13183239 -0.15562546 -0.1736498 0.19147485
0.23911557 -0.01843602 0.078809224 -0.15847126 0.18399182 0.2420517 0.20274466 -0.3610622
0.0028641918 -0.05186033 -0.12884915 0.22502005 -0.0016366126 0.14372846 -0.1676817 -0.27217394
0.045445435 0.08083108 -0.18663338 0.097407386 -0.59883356 -0.19867887 0.07303217 0.044694614
-0.061246097 -0.31606933 -0.44324568 -0.52210486 -0.19212589 -0.57465196 -0.06744094 0.0655558
-0.17605929 -0.56131893 0.09337887 -0.59109837 -0.543659 -0.2864985 0.174833 0.10643263

regressors.1.lins.2.bias f4 [32]
00000000: 2355 303d 15a6 ba3d 7b9f f63d 5b30 5dbc
00000010: 27b4 73be 379b 263e e8eb 69be 6b56 2e3e
00000020: c553 3abe c8f0 bfbd ef3c 3c3e 1f9a 2a3e
00000030: fba9 6fbe c582 5bbe 3299 c83d 9b12 9d3e
00000040: 462a 763e e216 43bd c71e e63d c3cb b4bd
00000050: 4737 0bbe 3e6d 4bbc cf12 fbbd 885a 16bd
00000060: 2b47 c03d 5a1c 35bd d374 c4bc 9fda 823d
00000070: 25c6 653d 0db8 9f3c 14c8 bdbc a1f6 343d
0.043049943 0.09113709 0.12042137 -0.013500298 -0.23799191 0.16270147 -0.22843897 0.17025153
-0.18196018 -0.09372097 0.1838262 0.16660355 -0.23404686 -0.21436603 0.09794845 0.30678257
0.24039564 -0.047629245 0.11236339 -0.08827927 -0.13595305 -0.012416182 -0.12259447 -0.03670743
0.09388574 -0.04421649 -0.023981487 0.06389355 0.05609717 0.019496942 -0.023166694 0.044180516

regressors.1.lins.3.weight f4 [1, 32]
00000000: e477 823d 3976 b6bd 8e96 353e 0bc9 8fbd
00000010: d808 0fbe c043 8a3d 2cef 33bd 4fc1 a4be
00000020: ba08 15be 50be cebd cec7 a2be 886a 46be
00000030: e14f 1dbe d8f8 2bbe c39b 84bd ab0d 5a3d
00000040: fb4c 113e 93e3 53be 6e13 cabd 043f 58be
00000050: b742 acbe 103c 9c3b 89b0 06be c059 df3c
00000060: 405f 68be 42d4 24be db69 4dbd cd2c da3d
00000070: b6ed 463d f43c bbbd d970 debd b9ca 44be
0.063705236 -0.08909268 0.17733213 -0.07020768 -0.13968217 0.067512035 -0.043929264 -0.32178733
-0.1455411 -0.10094893 -0.31793064 -0.19376576 -0.15362503 -0.16794145 -0.06475022 0.05323569
0.14189522 -0.20692281 -0.09866987 -0.21117789 -0.3364465 0.004767902 -0.1315328 0.027264476
-0.22692585 -0.16096595 -0.05014978 0.10653076 0.048566543 -0.09142485 -0.10861368 -0.19217958

regressors.2.lins.0.weight f4 [32, 64]
00000000: 38a1 9dbd e0f2 f9bc 8ab1 aabd 20be f5bc
00000010: 0849 4e3d c2a9 c13d 90c1 39bd 84af c03d
00000020: c86a 1fbd e8c2 6cbd 0042 0a3a e04f dd3b
00000030: 483e 34bd a01e 583c e2b5 dbbd 58ae a13d
00000040: 0841 e93c 5a0e bbbd 54cb 6abd e86a c23d
00000050: f8d0 863d 34a7 9fbd 4060 88bd cca4 58bd
00000060: 9038 58bc 52dd b43d 447c cf3d fa26 9b3d
00000070: d81a 3cbd 16a2 a4bd a6ae dd3d 749e 4d3d
00000080: 98e5 e8bd 8ed3 88bd d80c 953c 1ccb fd3d
00000090: b628 a6bd 7816 ebbc 0080 d137 4886 79bd
000000a0: 78ad 67bd dccc d03d d26a d0bd 1221 babd
000000b0: 0044 433c 48f3 f73c 52b6 bfbd a025 483c
000000c0: def0 cbbd 72bf 9e3d ce3f a3bd c8ca c4bd
000000d0: c86d a4bc 50bd 7fbc 64d1 643d f8d6 acbd
000000e0: 4069 8c3d 3252 aabd f602 cd3d 2028 cb3c
000000f0: f0ab a63c e0e2 ad3d 2039 53bc 469d a63d
00000100: 9828 f43d a0d1 d53d d0af 32bd c0bc fa3c
00000110: 8e93 99bd 08bc e33c 52a1 d4bd 7407 0cbd
00000120: 30a0 ff3d 4244 e33d 1629 a63d dc3d e9bd
00000130: 10d7 4a3c 2e09 87bd 74a3 783d b827 bdbd
00000140: 2ce9 aebd 002e 5abd ec34 443d 7c55 8fbd
00000150: 60ab cb3d b271 f43d 389d 4e3d a660 b6bd
00000160: b8a7 de3c 7003 e73c a2c9 c7bd 4ab2 c6bd
00000170: 7a1a a3bd b89d 66bd 52b5 fbbd f8fb 903d
00000180: 1034 97bd 7022 603c f6fe cdbd c498 37bd
00000190: 2094 dabb 749f 723d 4068 c2bb bc16 a3bd
000001a0: 709c 693c 102f 63bd f8d7 f0bd 4808 933d
000001b0: 584e d73c 6073 533d c06d f23d 303f ff3c
000001c0: aeed 9a3d c0ee b6bb 5cd6 02bd 3ce7 eabd
000001d0: e054 e53b 0011 5abd 1cb4 2f3d 5829 7b3d
000001e0: 5a7b c4bd 4286 a0bd 2840 363d 742d 92bd
000001f0: 906b 6d3c ba1a ef3d 0c0d d8bd 4401 33bd
00000200: 34ee f0bd a0db e5bc a409 5d3d 1034 1dbd
00000210: 2802 f4bc 00fd 48bc f8f8 55bd e863 3fbd
00000220: d463 c03d 68c6 e2bd 203b ac3c 30ab a23d
00000230: 5826 2b3d 9c97 b0bd 2075 69bc 40e2 c1bd
00000240: 1094 443d 422c 9ebd 806e e33a 7803 6d3d
00000250: e81d c3bd 52b6 ea3d e0db da3c f071 50bd
00000260: 58ce 113d 0cdb 64bd 008c bb3c 920c c23d
00000270: 8893 f33c 984c 56bd 2c8f 38bd 8e09 993d
00000280: 983b c03c c0af 98bb 5c35 b3bd 0455 4bbd
00000290: e094 1ebc 10f8 3a3c a04d d6bd 3cbe af3d
000002a0: de6d a73d e8c9 993d 9226 e93d e8ac ee3d
000002b0: 6276 97bd c85f f73d b464 7bbd f8a7 763d
000002c0: 04ea 823d f6fa d73d e075 00bc c205 aa3d
000002d0: a08a 8a3c 185d 9e3c fcf8 723d c2b0 8cbd
000002e0: 1632 8abd 2284 f53d 84c0 4c3d dcfc 013d
000002f0: 3648 a8bd 8422 d03d 98b6 b6bd 840f 903d
00000300: 98fa 11bd fca4 1dbd 7e09 893d 846c c33d
00000310: a055 8f3d 4c82 20bd b452 a1bd 2c0c 06bd
00000320: e801 8b3d 8052 f53a 908d 34bc 7023 8dbc
00000330: 5c0a f0bd d657 d83d f0fd 1fbd 0031 0f3b
00000340: 1af7 893d 6815 753d 8041 d73c 04ef 45bd
00000350: de4c d03d 8c9d 6e3d 8094 51bc ce68 873d
00000360: 449f 863d 50a3 1a3d f893 c5bd 14bf 8abd
00000370: ae16 f73d 40a8 d0bc d02a 85bc fc06 8a3d
00000380: 3cec 6fbd a49b 16bd b20c d9bd 60e9 53bc
00000390: f06f 0b3d da4d da3d 9e05 9ebd 6812 d5bd
000003a0: 6043 b0bb 2800 83bd 1c7b 35bd 00a8 5cbd
000003b0: ac72 a3bd 30e5 9c3c 486c bb3c 40c0 763b
000003c0: 7c68 c43d 10ef 60bc 4868 b13d e287 89bd
000003d0: 00fd 663a c02a ff3b 38b5 87bc 6201 e0bd
000003e0: cca3 b5bd 4008 a4bb 4032 aebb d0d1 dd3d
000003f0: 4678 b6bd 082e e6bc c09c f23d c2ac cbbd
-0.07696766 -0.03051132 -0.08334644 -0.029997885 0.050362617 0.09456207 -0.04535061 0.09408477
-0.038920194 -0.057803065 0.0005274117 0.0067539066 -0.04400471 0.013190895 -0.10728051 0.078945816
0.028473392 -0.09133597 -0.057322815 0.09493047 0.065828264 -0.07795563 -0.06658983 -0.052891538
-0.013197079 0.08831276 0.10131124 0.075757936 -0.045924038 -0.08038728 0.10824327 0.05019994
-0.113719165 -0.06680976 0.018194601 0.12392256 -0.08113234 -0.028697237 2.4974346e-05 -0.060919076
-0.056561917 0.10195324 -0.10176624 -0.09088339 0.011918068 0.030267373 -0.09360947 0.012216002
-0.09958051 0.07751359 -0.07971154 -0.0960899 -0.020071879 -0.0156091 0.055863753 -0.084394395
0.06856012 -0.08316459 0.100103304 0.024799407 0.020345658 0.084905386 -0.012892038 0.08135466
0.11921805 0.104403734 -0.0436247 0.030607581 -0.07498847 0.027799621 -0.10382332 -0.034186795
0.12481725 0.110970035 0.08113305 -0.11388752 0.012380376 -0.06593548 0.060702756 -0.092360914
-0.08540568 -0.053266525 0.047902033 -0.06998727 0.099447966 0.11935748 0.050442904 -0.08905153
0.027179584 0.028199881 -0.09755255 -0.09701975 -0.079640344 -0.056302756 -0.122904435 0.07079309
-0.07382977 0.013680086 -0.100583956 -0.044823423 -0.00667049 0.059234098 -0.0059328377 -0.079633206
0.014258489 -0.055464804 -0.11759943 0.07179314 0.026282474 0.051623702 0.118373394 0.03115806
0.07564865 -0.0055826604 -0.03194271 -0.11469886 0.0069986433 -0.05323887 0.042896375 0.061318725
-0.0959384 -0.07838108 0.044494778 -0.07137576 0.014490977 0.116750196 -0.105493635 -0.04370238
-0.11764184 -0.028058827 0.053964272 -0.03837973 -0.029786184 -0.012267351 -0.05223939 -0.046726137
0.09394041 -0.11072999 0.021024287 0.07942808 0.041784614 -0.08622667 -0.014249116 -0.09466982
0.047992766 -0.07723285 0.0017351657 0.057864636 -0.095271885 0.11460556 0.026716173 -0.05088991
0.035597175 -0.055872962 0.022893906 0.09475054 0.029733434 -0.05231914 -0.045058414 0.074725255
0.023465917 -0.004659623 -0.08750412 -0.049641624 -0.009679049 0.011411682 -0.104640245 0.08581206
0.081752524 0.07509214 0.1138431 0.11654073 -0.073956266 0.12078816 -0.061375335 0.06021878
0.06392291 0.10545914 -0.007840604 0.083018795 0.016911805 0.0193315 0.05931948 -0.068696514
-0.067478344 0.11988093 0.049988285 0.031735286 -0.08216898 0.10162833 -0.08921546 0.07034209
-0.035639375 -0.03848742 0.066912636 0.09542182 0.069987535 -0.03918676 -0.078771025 -0.03272645
0.06787473 0.0018716604 -0.011020079 -0.017228812 -0.11720726 0.105636284 -0.039060533 0.0021849275
0.06736584 0.059834868 0.02627635 -0.048323646 0.10170911 0.058255717 -0.012791753 0.06611787
0.06573346 0.037753403 -0.096473634 -0.067747265 0.12064873 -0.025470853 -0.016255766 0.067396134
-0.0585749 -0.036769524 -0.105981246 -0.012934059 0.0340423 0.1065938 -0.07715915 -0.10403901
-0.0053791255 -0.06396514 -0.04430686 -0.053871155 -0.07980856 0.019152254 0.022878781 0.003765121
0.09590241 -0.013728872 0.08662468 -0.06715371 0.00088115036 0.0077870786 -0.016565904 -0.10937764
-0.088691324 -0.0050058663 -0.005316049 0.10831034 -0.08909659 -0.028098121 0.11846304 -0.0994506
