baseline/DLPL-CAP/models_dlpl-cap-regressor/sandwich+ultra8t_to_ssram+digtime+timing_ctrl+array_128_32_8t/dlpl-cap-regressor_nh_2_tsk_regression_ngl_4_nhl_4_hd_32_us_1_bn_0_dp_0.0_epoch_8_20250402_145007.pth (torch, 64102 bytes, 21 tensors)

regressors.0.lins.0.weight f4 [32, 64]
-0.046286836 -0.0049587786 -0.01997208 0.06213109 0.15743847 0.0811614 0.053393494 -0.008254567
-0.23711523 -0.09723886 -0.5205416 0.10749438 -0.11752559 0.04288364 -0.22979496 -0.18516995
-0.08897244 0.11464811 0.22991239 -0.16658576 -0.053198323 -0.016253099 -0.045680862 -0.17376013
0.12208576 -0.107399344 -0.05909829 -0.07760381 -0.11454718 0.1951601 -0.10327305 -0.0056694457
-0.055896576 -0.011793062 -0.049698487 0.019791223 -0.051671732 0.061871283 0.09996162 0.32489225
-0.005373924 0.13796037 0.17400189 0.13111603 -0.26144388 0.17614837 -0.30344954 0.05096293
-0.097392015 -0.7245995 -0.30346528 -0.2962923 -0.07696642 0.04601714 -0.1183825 -0.077624224
-0.18089849 -0.14088236 0.029337808 -0.09776721 -0.11956468 0.19379832 0.11300291 -0.22785468
-0.11741411 -0.017723769 -0.102336675 -0.0377886 0.0814956 -0.038372383 -0.044595074 0.08335657
-0.06477952 -0.011908561 -0.029589765 0.016291609 -0.14839466 -0.049593765 0.07596949 0.07079045
0.009185332 -0.13440864 -0.09029673 -0.12175867 0.09789753 0.01002565 -0.042292874 0.052726425
-0.068639584 0.00568241 0.079297885 -0.0673818 -0.021330968 -0.07802406 0.062487766 0.04153057
-0.12716368 -0.056174427 -0.098472044 0.116994806 -0.14491303 0.033407915 -0.047810636 -0.0795462
-0.090185 0.06558341 -0.08928017 -0.124002315 -0.05657576 0.050264012 -0.07529822 -0.13209093
0.07124831 -0.13299935 -0.11651166 0.039525867 0.027275667 -0.11301844 -0.058897592 0.07400954
-0.072195604 0.041220855 0.026132196 0.10391379 0.10782866 -0.039587177 0.039115295 -0.10736222
0.040707394 0.078885734 -0.1364392 -0.056224935 0.09792816 -0.013981637 0.21038781 -0.0112136
-0.19616161 0.03525432 -0.21927696 -0.07063749 -0.2726775 0.08657905 0.18290167 -0.11219768
-0.3219808 -0.13836841 -0.028259829 0.100686915 0.07665396 -0.03929548 0.122711524 0.12760168
0.107152455 0.19300623 -0.08490027 -0.0938864 0.055635616 -0.3424102 -0.06664626 0.031965774
0.054326218 -0.07621251 0.14189464 -0.012860079 -0.050031237 -0.14538431 0.043096926 -0.25074744
0.092829525 0.19103457 0.0965395 -0.11978117 0.26689693 -0.105884224 0.052876536 -0.0059902333
0.00017430884 0.12292005 -0.06841671 0.05320093 0.1151984 0.007887557 0.07057275 -0.07422198
-0.14442517 -0.21289511 -0.11860111 -0.16207667 0.1074584 0.056184623 0.021573216 -0.2584252
-0.08471586 0.020865679 -0.32559913 -0.0325879 -0.010189155 -0.20283741 -0.043399412 0.055019915
0.20289926 -0.34400696 0.08778362 -0.09400043 -0.1618695 0.10795411 -0.57911927 -0.04827659
-0.32288098 -0.035406146 -0.19840956 0.099810876 -0.080139294 0.12462273 -0.17368893 0.22359152
0.0128160585 -0.009956137 0.15409158 0.119974926 0.015551403 -0.15945958 -0.091207385 0.013169043
0.044460744 -0.023796096 -0.07135348 0.019649586 -0.015070375 -0.31469065 -0.037036944 0.14149931
-0.02753657 -0.12772302 -0.023212409 0.05350967 -0.12526757 0.18832922 -0.66083366 0.06294054
0.116818696 -0.099263646 -0.059297543 0.11210755 0.07683091 -0.04933463 -0.13266855 0.17827374
0.11770891 0.17102271 -0.036321238 0.055511042 0.10159175 0.17734429 0.12027314 0.0034731885
00000000: 4497 3dbd 407d a2bb 7d9c a3bc 2b7d 7e3d
00000010: 8d37 213e f337 a63d 23b3 5a3d 2a3e 07bc
00000020: 56ce 72be 2b25 c7bd 3742 05bf 0326 dc3d
00000030: 42b1 f0bd c1a6 2f3d 5f4f 6bbe 319d 3dbe
00000040: 2f37 b6bd a1cc ea3d 276e 6b3e 7595 2abe
00000050: 7ce6 59bd 3825 85bc db1b 3bbd 2dee 31be
00000060: 1908 fa3d 30f4 dbbd 0c11 72bd bfee 9ebd
00000070: b697 eabd 0dd8 473e d280 d3bd c2c6 b9bb
00000080: cff3 64bd b037 41bc a490 4bbd 3421 a23c
00000090: bda5 53bd be6c 7d3d aeb8 cc3d 4758 a63e
000000a0: be17 b0bb 7c45 0d3e 8d2d 323e 4843 063e
000000b0: f9db 85be 3d60 343e bd5d 9bbe 81be 503d
000000c0: 7775 c7bd 5a7f 39bf cd5f 9bbe a0b3 97be
000000d0: 92a0 9dbd 787c 3c3d 8672 f2bd 73f9 9ebd
000000e0: 743d 39be 7743 10be d855 f03c 2d3a c8bd
000000f0: 54de f4bd 1173 463e 126e e73d bd52 69be
00000100: cf76 f0bd 7031 91bc e495 d1bd 38c8 1abd
00000110: 2ae7 a63d 5c2c 1dbd 53a9 36bd d9b6 aa3d
00000120: 20ab 84bd 201c 43bc 3c66 f2bc fb75 853c
00000130: c5f4 17be d522 4bbd e495 9b3d 95fa 903d
00000140: 137e 163c 6ba2 09be 7eed b8bd 9c5c f9bd
00000150: 807e c83d a042 243c 4b3b 2dbd aaf7 573d
00000160: e992 8cbd 8333 ba3b ee66 a23d 78ff 89bd
00000170: 48be aebc 14cb 9fbd 2cf3 7f3d f51b 2a3d
00000180: 3237 02be 2817 66bd b6ab c9bd f99a ef3d
00000190: 1564 14be bdd6 083d 16d5 43bd 1ee9 a2bd
000001a0: eab2 b8bd 9850 863d 86d8 b6bd edf4 fdbd
000001b0: fcbb 67bd a3e1 4d3d f435 9abd d842 07be
000001c0: a2ea 913d fb30 08be aa9d eebd e0e5 213d
000001d0: 3871 df3c 3676 e7bd 9a3e 71bd 5092 973d
000001e0: 4adb 93bd 33d7 283d 3013 d63c c1d0 d43d
000001f0: 46d5 dc3d 2a26 22bd 5c37 203d b9e0 dbbd
00000200: ccbc 263d d88e a13d b8b6 0bbe 1e4c 66bd
00000210: 8f8e c83d 3c13 65bc e76f 573e 3fb9 37bc
00000220: 97de 48be d566 103d 248a 60be 63aa 90bd
00000230: 639c 8bbe 5b50 b13d 934a 3b3e e6c7 e5bd
00000240: abda a4be 73b0 0dbe 2881 e7bc f134 ce3d
00000250: c0fc 9c3d 4cf4 20bd 2e50 fb3d 04aa 023e
00000260: bf72 db3d 6da3 453e 31e0 adbd 8347 c0bd
00000270: 2ce2 633d 6450 afbe d67d 88bd 8bee 023d
00000280: 2b85 5e3d 4e15 9cbd d44c 113e 15b3 52bc
00000290: 8eed 4cbd a0df 14be 6786 303d f861 80be
000002a0: 681d be3d 919e 433e 80b6 c53d d44f f5bd
000002b0: b7a6 883e d4d9 d8bd 1195 583d b849 c4bb
000002c0: acc6 3639 82bd fb3d 0f1e 8cbd 38e9 593d
000002d0: 24ed eb3d d03a 013c 7288 903d b201 98bd
000002e0: 31e4 13be 2d01 5abe 24e5 f2bd 6df7 25be
000002f0: 2613 dc3d d921 663d 50ba b03c 4f50 84be
00000300: 827f adbd 80ee aa3c eeb4 a6be e47a 05bd
00000310: 6af0 26bc 9cb4 4fbe 95c3 31bd 905c 613d
00000320: d3c4 4f3e ae21 b0be e6c7 b33d 4c83 c0bd
00000330: 1ec1 25be 0b17 dd3d 2941 14bf acbd 45bd
00000340: a850 a5be 0906 11bd e02b 4bbe a569 cc3d
00000350: 1220 a4bd 343a ff3d 83db 31be 2df5 643e
00000360: 72fa 513c 111f 23bc 2fca 1d3e 6ab5 f53d
00000370: 50cb 7e3c 5f49 23be f0ca babd f8c2 573c
00000380: 781c 363d 08f0 c2bc c621 92bd 2bf8 a03c
00000390: bce9 76bc 221f a1be 0db4 17bd 32e5 103e
000003a0: 5f94 e1bc d3c9 02be f327 bebc f52c 5b3d
000003b0: 2446 00be 60d9 403e 652c 29bf f8e6 803d
000003c0: a43e ef3d bd4a cbbd fbe1 72bd a598 e53d
000003d0: 8659 9d3d 1c13 4abd 44da 07be 648d 363e
000003e0: 5e11 f13d 9420 2f3e 94c5 14bd 8c5f 633d
000003f0: 560f d03d be99 353e c451 f63d 6f9e 633b

regressors.0.lins.0.bias f4 [32]
0.0011045005 -0.102653876 0.110807486 -0.0994789 0.13894254 0.03557997 0.088741474 0.15844825
0.14512695 0.04602924 0.07389767 -0.062504806 -0.032097064 -0.09790777 -0.006571327 -0.039409976
-0.043100156 -0.13160123 -0.10313378 0.14532265 -0.1073487 0.1912724 0.15833141 -0.123170204
-0.079119444 -0.083013825 0.18136483 -0.030060016 0.1650001 -0.11790987 0.097759984 -0.14875396
00000000: e3c4 903a 323c d2bd 09ef e23d 98bb cbbd
00000010: f446 0e3e 4dbc 113d 17be b53d 4240 223e
00000020: 299c 143e 2889 3c3d a957 973d 8502 80bd
00000030: 3678 03bd de83 c8bd 4954 d7bb 5b6c 21bd
00000040: ca89 30bd 79c2 06be ce37 d3bd 76cf 143e
00000050: a3d9 dbbd e9dc 433e a121 223e a940 fcbd
00000060: 6009 a2bd 2703 aabd b4b7 393e 6c40 f6bc
00000070: c9f5 283e bb7a f1bd 6336 c83d f552 18be

regressors.0.lins.1.weight f4 [32, 32]
-0.46329176 0.008924016 -0.15235522 0.13385431 -0.34630007 -0.17659089 0.08351949 -0.46984226
-0.22109912 0.124469675 -0.1819377 -0.18056867 0.06345958 -0.03261974 0.091115564 0.12529895
0.016564723 0.14952332 -0.11241863 -0.12597588 -0.3537699 -0.035570253 -0.30504036 0.20661308
0.048468903 -0.019329133 -0.115119 -0.10646358 -0.13577482 -0.15316404 -0.11500584 0.30060917
-0.45698285 -0.13662228 0.005620422 -0.28290075 0.28920987 -0.03419967 -0.14009166 -0.07679939
0.17938279 0.04328563 0.114343405 -0.054446906 0.06293331 0.023830585 -0.037944786 0.17992821
0.08239647 -0.31274283 -0.090247974 -0.095028624 0.16286545 0.14077236 -0.22664429 -0.1630245
-0.057251576 0.02723156 0.0007170746 -0.24964473 0.03969319 0.41522753 0.07133819 0.20495714
0.20766123 -0.022590099 -0.1508992 -0.15904336 -0.39412248 0.095763445 -0.16607407 0.004101792
0.081981905 -0.2375705 -0.08089646 0.05086972 -0.32017615 -0.44994667 -0.08198909 -0.43122724
-0.020092614 0.09409052 -0.055455677 -0.02995229 -0.38659257 -0.09615139 0.07578661 0.04582691
-0.13671261 -0.039996907 0.13286427 -0.053632654 0.048031833 -0.030775314 -0.24763037 -0.21275523
0.06383023 0.027994707 0.07908064 0.13028938 -0.21911065 -0.25119445 -0.34902656 -0.16339868
0.011964719 -0.21716996 -0.18956275 0.15715882 -0.13187623 -0.33460298 -0.19195238 -0.077246234
0.060499545 -0.066016965 0.017778581 -0.54772156 -0.09587627 -0.13906816 0.07962367 0.028293906
-0.29881915 -0.03789387 -0.3800352 -0.20623761 -0.17079593 -0.021878704 0.030621463 -0.28062552
0.073237784 0.008708495 0.021262348 -0.028868848 -0.08116 0.17200464 0.05660544 -0.015484862
0.011459688 0.0439378 0.020824011 -0.0024323186 -0.0149003295 0.06790247 0.19927074 0.0842438
-0.123867214 -0.07072595 0.16398185 0.054606218 -0.10944876 -0.0743307 -0.28720212 -0.06752487
-0.028160531 -0.041597232 -0.036825404 -0.13804238 0.060240183 0.15709879 -0.14173098 -0.022148138
-0.48740786 0.14151119 -0.6497827 -0.076430336 -0.0013436066 0.30025643 -0.08398315 -0.2755058
0.113424174 0.05692879 0.028011614 -0.014098642 0.21211565 -0.01084057 -0.121069655 0.0943366
-0.14590237 0.029072309 -0.20876934 -0.2065361 0.031206818 -0.14784043 0.013447212 -0.22267522
0.2233931 -0.03103232 0.14073598 -0.11905075 0.013751433 0.16761146 0.17093772 0.011135091
-0.027921444 -0.08781553 0.076817706 -0.28026724 -0.0930413 0.18121968 0.07453241 -0.1047493
-0.09209732 0.042093594 0.053215127 -0.28286597 -0.22611266 0.063060984 0.12493746 0.15186286
-0.23891847 0.08738377 0.13055845 -0.09081835 0.043623157 -0.2861225 -0.26519945 0.13560271
-0.05500432 0.022445163 0.035590444 -9.593888e-05 -0.026816612 -0.17476505 0.06523852 -0.07681196
-0.18689755 -0.09791021 0.06503208 0.06322042 -0.0057321247 -0.09170483 -0.23400807 0.06442882
-0.013318826 0.01977269 0.012592018 -0.21191561 -0.14732103 0.11517081 0.12902965 0.21021646
-0.098182455 -0.18652377 -0.016760195 0.2005588 -0.08660167 -0.10935455 0.14975719 -0.62714124
0.12420474 -0.011577967 -0.067158096 -0.0676735 -0.17313783 0.39092356 0.13159408 -0.019185545
00000000: 9434 edbe 0936 123c 0203 1cbe 1b11 093e
00000010: 3e4e b1be 3ed4 34be 440c ab3d 2a8f f0be
00000020: cf67 62be f5e9 fe3d e04d 3abe fee6 38be
00000030: 19f7 813d 479c 05bd cc9a ba3d 5e4e 003e
00000040: beb2 873c a41c 193e bd3b e6bd d2ff 00be
00000050: 5421 b5be 1db2 11bd 402e 9cbe 6192 533e
00000060: 5487 463d 2158 9ebc 83c3 ebbd 9409 dabd
00000070: 8e08 0bbe 09d7 1cbe 2f88 ebbd 72e9 993e
00000080: a8f9 e9be b6e6 0bbe 842b b83b 5ed8 90be
00000090: 5113 943e f414 0cbd 3074 0fbe 0049 9dbd
000000a0: 1fb0 373e 464c 313d e02c ea3d b803 5fbd
000000b0: 2ee3 803d 5c38 c33c fe6b 1bbd 1a3f 383e
000000c0: 7bbf a83d d41f a0be eed3 b8bd 5e9e c2bd
000000d0: 33c6 263e a126 103e 7115 68be e5ef 26be
000000e0: a180 6abd b814 df3c 10fa 3b3a dea2 7fbe
000000f0: 5495 223d b498 d43e c219 923d 49e0 513e
00000100: 25a5 543e df0e b9bc 5285 1abe 43dc 22be
00000110: 6cca c9be a01f c43d 520f 2abe 5368 863b
00000120: 21e6 a73d ae45 73be 0bad a5bd c45c 503d
00000130: 21ee a3be 695f e6be e5e9 a7bd d1c9 dcbe
00000140: 4499 a4bc 88b2 c03d 7e25 63bd 815e f5bc
00000150: 76ef c5be 05eb c4bd 0336 9b3d ffb4 3b3d
00000160: 64fe 0bbe ccd3 23bd 920d 083e eaad 5bbd
00000170: 07bd 443d 831c fcbc d192 7dbe 82dc 59be
00000180: 6cb9 823d 2855 e53c 08f5 a13d 946a 053e
00000190: 8b5e 60be 8f9c 80be 9cb3 b2be fc51 27be
000001a0: ab07 443c cd61 5ebe bd1c 42be 3eee 203e
000001b0: 900a 07be 1551 abbe 2a8f 44be 4633 9ebd
000001c0: 5fce 773d e733 87bd 63a4 913c 7b37 0cbf
000001d0: c75a c4bd e267 0ebe bc11 a33d 9fc8 e73c
000001e0: d3fe 98be 9a36 1bbd f993 c2be f42f 53be
000001f0: 21e5 2ebe f83a b3bc ddd9 fa3c 26ae 8fbe
00000200: b1fd 953d 13ae 0e3c 602e ae3c 5d7e ecbc
00000210: 3737 a6bd fc21 303e 1bdb 673d 38b4 7dbc
00000220: 6ac1 3b3c 1ff8 333d 1e97 aa3c 8967 1fbb
00000230: 8320 74bc 7310 8b3d a10d 4c3e 0388 ac3d
00000240: 18ae fdbd c4d8 90bd dcea 273e c5aa 5f3d
00000250: ac26 e0bd b23a 98bd 280c 93be 7b4a 8abd
00000260: eab0 e6bc dc61 2abd 3cd6 16bd fb5a 0dbe
00000270: 69be 763d 81de 203e ed21 11be 0370 b5bc
00000280: 868d f9be 4fe8 103e 2958 26bf 8287 9cbd
00000290: f51b b0ba 36bb 993e 5cff abbd 190f 8dbe
000002a0: ef4a e83d 2a2e 693d 9d78 e53c fefd 66bc
000002b0: d834 593e a59c 31bc 5ef3 f7bd 8c33 c13d
000002c0: 6e67 15be 0d29 ee3c a1c7 55be 337e 53be
000002d0: 71a5 ff3c 7b63 17be b251 5c3c f904 64be
000002e0: 29c1 643e 7e37 febc 181d 103e e1d0 f3bd
000002f0: b14d 613c 57a2 2b3e 4c0a 2f3e f56f 363c
00000300: 83bb e4bc a1d8 b3bd 9a52 9d3d 307f 8fbe
00000310: 708c bebd a791 393e 73a4 983d cd86 d6bd
00000320: 859d bcbd 556a 2c3d 1bf8 593d cfd3 90be
00000330: 148a 67be 1e26 813d 36df ff3d f081 1b3e
00000340: 0ba7 74be 43f6 b23d 1db1 053e f9fe b9bd
00000350: 32ae 323d a67e 92be 39c8 87be 70db 0a3e
00000360: 364c 61bd ebde b73c 49c7 113d cb32 c9b8
00000370: 83ae dbbc 9cf5 32be c69b 853d 974f 9dbd
00000380: 1262 3fbe 2685 c8bd 8a2f 853d b579 813d
00000390: 8cd4 bbbb becf bbbd d09f 6fbe 42f3 833d
000003a0: 3537 5abc 56fa a13c c04e 4e3c 6800 59be
000003b0: 53db 16be acde eb3d 5920 043e fc42 573e
000003c0: e213 c9bd 1600 3fbe ad4c 89bc 495f 4d3e
000003d0: 375c b1bd 47f5 dfbd f359 193e 548c 20bf
000003e0: 0e5f fe3d 83b1 3dbc 2f8a 89bd 6798 8abd
000003f0: 0b4b 31be 2227 c83e 99c0 063e 012b 9dbc

regressors.0.lins.1.bias f4 [32]
-0.029600065 -0.095566005 -0.043287456 -0.109170236 -0.16348694 -0.22352041 -0.09451684 0.022378603
0.097173885 0.04524808 0.19408408 -0.12742412 -0.2900408 -0.028645283 0.20765227 -0.10964648
-0.13227913 0.3410455 0.06185189 0.06795507 0.32166833 0.021328578 -0.32886046 0.01755223
-0.13655172 -0.1588184 0.0146558685 -0.20473938 0.15181899 0.07983969 0.1523934 0.17185569
00000000: d67b f2bc 1cb8 c3bd 304e 31bd a594 dfbd
00000010: 1f69 27be 89e2 64be 0c92 c1bd 5553 b73c
00000020: 1a03 c73d 0d56 393d fabd 463e 787b 02be
00000030: 3a80 94be 83a9 eabc cca2 543e 558e e0bd
00000040: 2e74 07be 849d ae3e 6858 7d3d 072c 8b3d
00000050: b6b1 a43e 45b9 ae3c 6660 a8be b2c9 8f3c
00000060: 37d4 0bbe 4aa1 22be 2b1f 703c 33a7 51be
00000070: 7076 1b3e fe82 a33d 040d 1c3e f0fa 2f3e

regressors.0.lins.2.weight f4 [32, 32]
0.149798 0.10554538 -0.06830978 -0.07156592 -0.0036311827 -0.16705506 -0.103000514 -0.10066096
0.1371529 -0.105489366 -0.109314404 -0.13086642 -0.017650656 -0.10532687 -0.15690514 0.1712681
-0.06719177 -0.013046093 0.023194633 0.009438892 0.051328603 0.07900612 -0.067185596 -0.07045069
-0.020712331 -0.1660615 -0.09384482 0.07627707 -0.0021223677 -0.11917375 -0.11488209 -0.056698933
0.045194823 0.24508487 -0.14918563 -0.023819042 -0.25961328 0.03553461 -0.14999859 -0.1417629
-0.044085376 -0.035721514 -0.2614251 0.036091994 -0.0029843124 -0.2881476 -0.013599227 0.07580889
0.351649 -0.1338706 -0.12569156 0.1707328 0.12759091 0.028871838 -0.081988476 0.15084018
-0.042957388 0.12095524 -0.3430989 -0.17783637 0.0034440116 -0.088367425 0.00010414956 -0.15537986
0.12756595 -0.1986416 -0.10021187 -0.24434973 0.020274004 0.06975913 -0.25092956 -0.22178617
-0.329507 0.16222763 0.04189715 0.15580335 0.1389789 -0.031129839 -0.09315712 0.28331083
0.26957902 -0.012973585 -0.032362156 -0.08815046 0.07538305 0.059681345 0.23636627 0.22438698
-0.35098752 0.16362412 0.24369135 -0.024437344 -0.045757227 0.20727345 0.15583138 0.0378602
-0.084000394 -0.068572134 -0.18047094 -0.034899667 -0.12894021 0.07455726 -0.055695873 0.0178569
0.0917312 0.06787144 -0.015820196 -0.019071648 -0.032880176 -0.15499902 -0.1468139 -0.006035781
0.14971787 -0.050980184 0.0541824 0.073093235 -0.1740859 0.06252231 0.057667483 -0.102803975
-0.11796661 -0.13341822 -0.101144664 -0.0877894 -0.05154404 0.04873377 -0.1256106 -0.15429795
-0.14937705 -0.106845565 0.005382287 -0.08407615 -0.10788589 0.14903271 -0.04572351 -0.1613234
0.08365741 -0.05548748 -0.16092272 0.13527136 -0.060693458 -0.12799174 -0.039419558 -0.049436715
0.123707116 0.05791543 -0.026296148 -0.050678592 0.013000114 -0.008484566 -0.11757396 0.01286715
0.04208811 0.19120929 -0.17699434 -0.1693733 -0.1603531 -0.24715634 -0.09036681 0.02955538
-0.15655485 0.09416707 0.09401141 0.08012616 -0.23491196 0.08790098 0.03372527 0.053274903
-0.1568622 0.05887338 -0.010768879 0.00409039 0.14179452 -0.037274655 -0.08085432 -0.1283254
-0.19275321 -0.12203376 0.20002072 0.053507365 0.06633514 0.04858037 0.02766688 -0.1512165
-0.01435555 -0.18587512 -0.0017862784 0.08339127 -0.10071242 -0.16227253 -0.22260034 -0.04801705
0.009371028 0.0985902 0.15341258 -0.1009341 -0.21686117 -0.1406725 -0.048215453 -0.11845913
-0.6561551 -0.14152531 -0.06840975 0.07673744 0.14506765 -0.027930187 -0.013118219 0.049616568
-0.27583414 0.054871216 -0.06074777 -0.024427962 -0.08815617 0.066287585 0.0068653002 -0.17107777
-0.027969414 -0.10479375 0.04625467 -0.2374429 -0.21448271 0.04297765 0.023378354 -0.049901728
-0.3064476 -0.32525772 -0.18092802 0.018249052 -0.044657763 -0.033663623 0.118302405 -0.093476444
0.015436848 0.070447095 0.014119808 -0.11725671 -0.056438513 -0.2619442 -0.057587307 0.058604565
-0.14772753 -0.008722027 -0.21172498 -0.13135813 -0.18471937 0.022718715 0.39080387 0.10024962
-0.3255795 -0.084737614 0.13453142 0.04770016 -0.06630045 -0.026526384 0.1199609 -0.16939026
00000000: a664 193e 2d28 d83d ffe5 8bbd 2791 92bd
00000010: 23f9 6dbb 7b10 2bbe eff1 d2bd 5527 cebd
00000020: cf71 0c3e cf0a d8bd 3be0 dfbd d901 06be
00000030: 1c98 90bc 9db5 d7bd beab 20be e860 2f3e
00000040: d79b 89bd 48bf 55bc ac02 be3c 95a5 1a3c
00000050: f13d 523d f6cd a13d 9a98 89bd 7448 90bd
00000060: e8ac a9bc 070c 2abe b731 c0bd 2737 9c3d
00000070: 6c17 0bbb 5e11 f4bd 4d47 ebbd 243d 68bd
00000080: 351e 393d 87f7 7a3e 1ec4 18be 2720 c3bc
00000090: 08ec 84be bd8c 113d 3b99 19be 4b2a 11be
000000a0: de92 34bd b950 12bd 83d9 85be 33d5 133d
000000b0: 7494 43bb 1588 93be 4bcf 5ebc b141 9b3d
000000c0: 560b b43e 6015 09be 4ab5 00be 94d4 2e3e
000000d0: 31a7 023e a284 ec3c 93e9 a7bd d975 1a3e
000000e0: 16f4 2fbd 62b7 f73d a9aa afbe bd1a 36be
000000f0: edb4 613b fbf9 b4bd df6a da38 e61b 1fbe
00000100: a6a0 023e b468 4bbe e23b cdbd d136 7abe
00000110: ab15 a63c e0dd 8e3d d779 80be ea1b 63be
00000120: 24b5 a8be 001f 263e 599c 2b3d ea8a 1f3e
00000130: 7c50 0e3e 0104 ffbc 29c9 bebd 1e0e 913e
00000140: 4306 8a3e 298f 54bc 2e8e 04bd 3a88 b4bd
00000150: 6e62 9a3d 6d74 743d 000a 723e b3c5 653e
00000160: a3b4 b3be 158d 273e 3a8a 793e d330 c8bc
00000170: ee6b 3bbd 7e3f 543e 4392 1f3e 4c13 1b3d
00000180: 6608 acbd 8c6f 8cbd 60cd 38be f4f2 0ebd
00000190: e708 04be 7ab1 983d 5b21 64bd a248 923c
000001a0: 91dd bb3d 2e00 8b3d 5b99 81bc 253c 9cbc
000001b0: 5dad 06bd 10b8 1ebe 6256 16be cdc7 c5bb
000001c0: a44f 193e 99d0 50bd 5dee 5d3d e8b1 953d
000001d0: 9343 32be b20b 803d bd34 6c3d e48a d2bd
000001e0: 7a98 f1bd c99e 08be ef24 cfbd eeca b3bd
000001f0: d81f 53bd 109d 473d 11a0 00be 4800 1ebe
00000200: 4cf6 18be d9d1 dabd e55d b03b 1e30 acbd
00000210: 47f3 dcbd 089c 183e 9348 3bbd f631 25be
00000220: 9454 ab3d d746 63bd edc8 24be 9384 0a3e
00000230: b499 78bd 4410 03be 6776 21bd 277e 4abd
00000240: 285a fd3d bb38 6d3d 056b d7bc 5b94 4fbd
00000250: 6efe 543c d902 0bbc 9eca f0bd bdd0 523c
00000260: 9564 2c3d 5ecc 433e 013e 35be 3270 2dbe
00000270: 9a33 24be 8d16 7dbe 3c12 b9bd 201e f23c
00000280: ea4f 20be aada c03d 0e89 c03d 2f19 a43d
00000290: c38c 70be 6e05 b43d 8223 0a3d c936 5a3d
000002a0: 7ca0 20be 3725 713d f46f 30bc ae08 863b
000002b0: 9532 113e 4fad 18bd f396 a5bd bc67 03be
000002c0: 1961 45be d6ec f9bd 3bd2 4c3e 8a2a 5b3d
000002d0: b8da 873d 36fc 463d a7a5 e23c 80d8 1abe
000002e0: 8a33 6bbc 0c56 3ebe 8f21 eaba 0bc9 aa3d
000002f0: 5042 cebd c52a 26be 58f1 63be 87ad 44bd
00000300: f188 193c a9e9 c93d 3018 1d3e 8ab6 cebd
00000310: db10 5ebe 740c 10be 917d 45bd b39a f2bd
00000320: c8f9 27bf 03ec 10be 691a 8cbd 8528 9d3d
00000330: 9d8c 143e d9cd e4bc cced 56bc be3a 4b3d
00000340: 223a 8dbe a4c0 603d a7d2 78bd 261d c8bc
00000350: 398b b4bd c9c1 873d 50f6 e03b 032f 2fbe
00000360: 1d20 e5bc 1b9e d6bd 8975 3d3d 3b24 73be
00000370: 5ba1 5bbe 5509 303d f683 bf3c c165 4cbd
00000380: b3e6 9cbe 2e88 a6be 3245 39be 097f 953c
00000390: 0feb 36bd dee2 09bd 8848 f23d 9470 bfbd
000003a0: d5ea 7c3c 9146 903d c456 673c 4924 f0bd
000003b0: 122c 67bd 8d1d 86be abe0 6bbd 570b 703d
000003c0: e345 17be d5e6 0ebc 6fce 58be bf82 06be
000003d0: 1327 3dbe 991c ba3c 7217 c83e ac4f cd3d
000003e0: 5bb2 a6be ea8a adbd 9bc2 093e 3e61 433d
000003f0: 88c8 87bd dc4d d9bc 0fae f53d a474 2dbe

regressors.0.lins.2.bias f4 [32]
-0.1551843 -0.045087572 -0.272645 -0.12504037 -0.17416774 0.02886002 0.15295765 -0.25743422
-0.1476768 0.19895038 0.08157684 -0.07252085 0.37395394 0.33200005 -0.1524702 0.11307817
0.28950703 -0.0667011 -0.18355876 0.24810329 -0.20557484 0.22875173 -0.16837217 -0.12520263
-0.08636108 -0.16039455 -0.01612608 0.2475681 -0.031143174 0.069922656 0.28610393 0.059429094
00000000: a2e8 1ebe bfad 38bd 2098 8bbe 950a 00be
00000010: 0759 32be d96b ec3c eea0 1c3e 6bce 83be
00000020: 9638 17be a6b9 4b3e c211 a73d d085 94bd
00000030: e476 bf3e e9fb a93e 2621 1cbe 8795 e73d
00000040: 443a 943e 969a 88bd d4f6 3bbe ca0e 7e3e
00000050: 3682 52be e53d 6a3e c169 2cbe 1e35 00be
00000060: 14de b0bd 783e 24be d71a 84bc 7e82 7d3e
00000070: f81f ffbc 9c33 8f3d 377c 923e ec6b 733d

regressors.0.lins.3.weight f4 [1, 32]
0.11898772 -0.18335035 -0.21040392 -0.097683005 -0.10039395 -0.011263038 0.09875786 0.013199183
0.06568062 0.059079953 0.025255607 -0.121341534 0.2223216 0.17311141 -0.18567619 -0.08466209
0.110463224 -0.009087555 -0.040383298 0.060509775 -0.20837307 0.13263667 0.108655125 0.03078296
0.020469368 -0.09055069 -0.043650832 0.1582745 0.007234293 0.12976627 0.07497588 0.0016031872
00000000: d5af f33d 32c0 3bbe 2074 57be 070e c8bd
00000010: 589b cdbd 9b88 38bc 9041 ca3d 6341 583c
00000020: 9083 863d d2fd 713d d9e4 ce3c e981 f8bd
00000030: 46a8 633e 1e44 313e e621 3ebe 5163 adbd
00000040: 8b3a e23d f8e3 14bc f568 25bd 19d9 773d
00000050: c05f 55be e8d1 073e 9486 de3d 8c2c fc3c
00000060: 60af a73c a472 b9bd 37cb 32bd b612 223e
00000070: a60d ed3b 73e1 043e f48c 993d 0922 d23a

regressors.1.lins.0.weight f4 [32, 64]
0.06672487 -0.07111594 0.071003556 0.0044826567 -0.036121327 -0.3292792 -0.20560752 0.09396037
0.0022828002 -0.25440916 0.0255612 -0.16409415 -0.3167185 0.143333 0.03739846 -0.19203728
-0.01924451 0.09381852 0.1912322 0.0011385004 -0.09923184 0.072024524 0.07793188 -0.019813886
-0.057401344 -0.002501681 0.18555622 0.07331701 0.041527033 0.07351914 0.08003014 0.034651276
-0.2781778 -0.06257802 0.058979 -0.1721747 0.058835976 -0.1937733 -0.07048189 -0.030140273
-0.11058936 -0.44223097 -0.3339582 0.058386784 -0.06414481 0.09404926 0.108451106 0.073754154
0.066452354 -0.144702 -0.019062554 0.12777072 -0.05178258 -0.07648876 -0.38916036 -0.004430415
-0.0495732 -0.3864352 -0.10687153 0.09869013 0.035570294 -0.16018033 0.11234483 0.05819868
-0.11784527 0.078056216 0.057759132 -0.09086339 0.10397132 0.15533404 0.11930841 0.040948816
0.034995854 -0.010503585 0.27044532 -0.035937563 -0.22243692 -0.110982314 0.107257545 0.2092699
0.069448456 -0.06790445 0.1720688 0.2589984 0.10271835 0.1012457 -0.07264421 0.12020926
-0.32606417 -0.17840366 -0.08439273 0.031662855 -0.043496773 0.051431973 -0.03439547 -0.2580241
-0.09908008 -0.021898463 -0.08356983 0.0033836646 0.2290841 0.11517992 0.22075844 -0.051784907
0.111916214 0.01967607 0.043326665 -0.039773684 -0.0074976445 0.109288 0.07963703 -0.09942687
0.012697506 0.16009577 -0.043594245 -0.059888776 0.038503826 -0.03729464 -0.052945316 -0.043285422
-0.20767921 -0.24673839 -0.108533524 0.039949078 0.04112436 -0.020850558 -0.022829622 -0.12990262
0.18290724 0.09069638 -0.16492364 0.07772206 0.13584758 0.22223622 -0.05947588 -0.016841147
0.06737749 0.13697314 -0.043141704 -0.09329701 0.3830884 -0.22987008 -0.105513 0.0062865284
0.06514248 0.05281766 -0.018003656 0.086298205 0.0059695095 0.06617962 -0.14066562 -0.19172846
-0.16650754 0.37416816 0.09309142 -0.05168884 -0.08237523 0.14378062 -0.08428307 -0.0015306829
0.04618544 -0.107455134 -0.12825875 0.031779256 -0.11323147 0.17167455 -0.13622853 -0.09346387
-0.1712389 0.13670146 -0.21742688 0.046182223 0.033080555 -0.020615924 -0.1790806 0.113847315
-0.058683466 -0.06307856 0.020485023 0.1514845 0.07089163 -0.08388814 -0.15290359 0.18995313
0.19522832 -0.09421982 0.16779064 -0.0062247836 -0.005964741 0.21851952 -0.030606523 0.012705864
0.1250611 0.037003666 -0.09833004 -0.06819293 -0.045458674 -0.23607759 -0.30611643 -0.30999476
0.08844543 -0.18866052 -0.49045846 -0.06818398 -0.092974305 -0.27060962 0.008115043 0.1891266
0.11972008 -0.00048146327 -0.0031434854 -0.08756379 -0.038951576 -0.025983408 -0.015140709 -0.18105377
-0.04934514 0.14576584 0.21421035 0.10744367 -0.06274341 0.11825195 0.037104502 0.06594199
-0.025562419 -0.057907417 0.0485347 0.110913314 -0.10666369 -0.12044131 0.09602445 0.07839347
-0.04616061 -0.08564099 -0.19079742 -0.0017587662 -0.43569052 0.14100589 -0.12565297 -0.27322638
0.20444024 -0.13610849 -0.17348294 0.025540333 0.1235771 0.10011211 0.13108677 0.03660306
-0.12267496 0.21266304 -0.42481646 -0.15089332 -0.07757178 -0.09446552 -0.07299054 0.14561021
00000000: 0ca7 883d 3ca5 91bd 506a 913d 40e3 923b
00000010: f5f3 13bd 4997 a8be c78a 52be 4b6e c03d
00000020: 089b 153b eb41 82be b965 d13c 4c08 28be
00000030: ed28 a2be e3c5 123e 212f 193d 6ca5 44be
00000040: aaa6 9dbc ed23 c03d 60d2 433e bc39 953a
00000050: 103a cbbd 9881 933d c09a 9f3d bb50 a2bc
00000060: ac1d 6bbd 3ef3 23bb 7302 3e3e 3b27 963d
00000070: 4018 2a3d 3491 963d d8e6 a33d 7fee 0d3d
00000080: 526d 8ebe e828 80bd f793 713d 914e 30be
00000090: fefd 703d 826c 46be cf58 90bd bce8 f6bc
000000a0: ad7c e2bd 196c e2be 92fc aabe fb26 6f3d
000000b0: 5b5e 83bd e69c c03d 9d1b de3d 6b0c 973d
000000c0: 2c18 883d c32c 14be 1329 9cbc 54d6 023e
000000d0: f819 54bd 24a6 9cbd 0740 c7be 042d 91bb
000000e0: 450d 4bbd d6da c5be 76df dabd 0d1e ca3d
000000f0: 28b2 113d 5006 24be 0c15 e63d bd61 6e3d
00000100: dc58 f1bd f0db 9f3d d794 6c3d 9616 babd
00000110: eaee d43d e30f 1f3e f857 f43d f2b9 273d
00000120: d057 0f3d 3b17 2cbc cf77 8a3e 4433 13bd
00000130: 81c6 63be b24a e3bd d8a9 db3d d94a 563e
00000140: fe3a 8e3d 7d11 8bbd ce32 303e 709b 843e
00000150: 005e d23d e859 cf3d 7dc6 94bd 4630 f63d
00000160: e2f1 a6be 73af 36be 18d6 acbd e9b0 013d
00000170: ac29 32bd 55aa 523d 44e2 0cbd bc1b 84be
00000180: 7fea cabd 6864 b3bc a926 abbd 79c0 5d3b
00000190: 0695 6a3e 73e3 eb3d 800e 623e 691c 54bd
000001a0: 5434 e53d b62f a13c 4d77 313d bbe9 22bd
000001b0: cdae f5bb 63d2 df3d bd18 a33d 51a0 cbbd
000001c0: 3309 503c 25f0 233e e18f 32bd ef4d 75bd
000001d0: 30b6 1d3d 44c2 18bd 30dd 58bd 0e4c 31bd
000001e0: dca9 54be fda8 7cbe d346 debd a5a1 233d
000001f0: 0472 283d cace aabc 3005 bbbc 3105 05be
00000200: 094c 3b3e 06bf b93d bee1 28be be2c 9f3d
00000210: a11b 0b3e e491 633e fb9c 73bd 72f6 89bc
00000220: 36fd 893d b042 0c3e 5bb5 30bd 8112 bfbd
00000230: 2a24 c43e 1063 6bbe 3317 d8bd 39ff cd3b
00000240: 6c69 853d 5557 583d 677c 93bc 1dbd b03d
00000250: e09b c33b 2e89 873d a60a 10be 7754 44be
00000260: f480 2abe f892 bf3e b7a6 be3d adb7 53bd
00000270: 58b4 a8bd 3a3b 133e 9a9c acbd 32a1 c8ba
00000280: f22c 3d3d 7011 dcbd 4356 03be f72a 023d
00000290: e7e5 e7bd 74cb 2f3e 7e7f 0bbe fc69 bfbd
000002a0: 4059 2fbe 78fb 0b3e 27a5 5ebe 9229 3d3d
000002b0: 7a7f 073d bae2 a8bc e860 37be c828 e93d
000002c0: 135e 70bd 552f 81bd 35d0 a73c c11e 1b3e
000002d0: a22f 913d 8ccd abbd c292 1cbe 1383 423e
000002e0: efe9 473e 52f6 c0bd 4fd1 2b3e 45f9 cbbb
000002f0: e073 c3bb 95c3 5f3e 88ba fabc 422c 503c
00000300: 0410 003e 2891 173d 4361 c9bd bca8 8bbd
00000310: e032 3abd 53be 71be 4bbb 9cbe a2b7 9ebe
00000320: e122 b53d 3930 41be 5f1d fbbe 0ba4 8bbd
00000330: 5069 bebd 588d 8abe f5f4 043c 67aa 413e
00000340: cd2f f53d e86c fcb9 ef02 4ebb a554 b3bd
00000350: b08b 1fbd 28db d4bc bc10 78bc 2966 39be
00000360: 211e 4abd a443 153e f559 5b3e 6d0b dc3d
00000370: 9e7f 80bd 142e f23d e4fa 173d 980c 873d
00000380: 4768 d1bc 5430 6dbd 52cc 463d 8526 e33d
00000390: 7e72 dabd efa9 f6bd 78a8 c43d c18c a03d
000003a0: e812 3dbd 8b64 afbd 6660 43be 6786 e6ba
000003b0: d412 dfbe d963 103e 2cab 00be 54e4 8bbe
000003c0: c858 513e 0660 0bbe 83a5 31be f639 d13c
000003d0: fe15 fd3d 9407 cd3d 9c3b 063e 17ed 153d
000003e0: 023d fbbd 57c4 593e 8b81 d9be c783 1abe
000003f0: f4dd 9ebd 2377 c1bd 107c 95bd d81a 153e

regressors.1.lins.0.bias f4 [32]
-0.052506257 0.17479949 -0.03652512 -0.158233 0.23777114 0.15912391 -0.012770573 -0.13762373
0.0730654 0.08961895 -0.12942168 -0.10351306 0.08096858 0.20740695 0.05277009 0.25208884
0.1715608 -0.036918182 0.025298992 0.2729371 0.052838475 0.28962997 -0.13370225 -0.10930599
0.16028067 0.07447903 -0.12799865 0.14926268 0.018007815 0.23484811 0.26202923 -0.03232648
00000000: cd10 57bd a3fe 323e 5d9b 15bd d507 22be
00000010: 477a 733e 61f1 223e aa3b 51bc 3ced 0cbe
00000020: 50a3 953d 248a b73d 1e87 04be a8fe d3bd
00000030: dbd2 a53d 7d62 543e 7325 583d ca11 813e
00000040: a2ad 2f3e 8537 17bd d53f cf3c 69be 8b3e
00000050: 286d 583d 614a 943e 3ee9 08be d2db dfbd
00000060: 9e20 243e 7688 983d 1412 03be 51d8 183e
00000070: 2085 933c 067c 703e b228 863e c568 04bd

regressors.1.lins.1.weight f4 [32, 32]
-0.15934144 -0.49104014 -0.031817347 0.16754182 -0.42308885 -0.24885665 -0.010657101 0.1286412
-0.3945423 -0.08332708 -0.038752664 0.4004141 -0.029533122 0.00012073881 -0.35221344 0.0729261
0.00973349 -0.098059796 0.04830804 0.07138512 0.051399183 -0.6162759 -0.105248235 -0.015482101
0.14025858 0.10911081 -0.09940197 -0.000801249 -0.5899358 -0.44756818 0.35314685 0.016985279
-0.049244612 -0.048460443 -0.1401658 0.1345255 -0.05459629 0.26866338 -0.009597388 0.15957399
0.03894162 0.12140947 -0.39343208 0.05897376 0.04602635 0.08427765 -0.040823624 -0.032171827
-0.14800748 -0.08502611 0.14404775 0.18064305 -0.19205083 -0.17981133 0.08982754 0.1456672
0.3028505 -0.07647184 0.21008928 0.03586238 0.09874734 0.09606496 0.43695122 0.040874615
-0.01104605 0.16571751 -0.06000605 -0.13295464 -0.0900874 0.14435485 0.101405255 -0.006439174
-0.1941891 0.26276678 0.07888533 -0.30940777 0.17258757 -0.060104106 0.13087334 -0.09837007
-0.13229518 -0.11743795 0.036053054 -0.2255034 0.12049093 0.23100261 0.22233528 0.2001046
-0.08440625 0.1000919 -0.05709075 0.05667382 -0.0744427 -0.15934741 -0.023054304 0.065251805
0.13155678 0.044410452 0.051049676 0.26018542 0.24808869 0.1042751 -0.08259752 0.060499758
-0.2760574 0.19901691 0.17519584 0.0033138457 -0.072632685 -0.41812336 -0.3418637 -0.034075364
-0.19472583 -0.29518753 -0.77762634 -0.09684289 0.0005166413 0.07194306 0.076268904 -0.18724017
-0.45624813 -0.20584431 0.052773394 -0.21593149 0.080437325 0.14178023 -1.0601634 -0.5364225
0.1295675 -0.0027363205 -0.15261532 0.24286464 0.07275253 0.25827476 0.2132354 -0.13061778
0.196715 -0.651025 -0.28434324 0.13791849 0.14194466 0.09091744 0.12053386 -0.1358048
-0.6457645 0.08058969 0.10819309 -0.2406897 -0.45489454 0.018114988 0.01598907 -0.08853286
-0.08007927 -0.13485748 -0.17947745 -0.05176913 0.10024098 0.001346137 -0.15951027 0.06425582
-0.20799297 0.060914632 -0.08044741 -0.09984237 0.11734443 0.11477007 -0.11548166 -0.007808185
-0.23391847 -0.032962915 -0.11962341 0.14332944 -0.01488092 -0.23458417 -0.16087113 0.24047336
-0.01802814 -0.06601256 0.22085832 0.09926979 -0.003442687 0.17274505 -0.031165875 0.14833163
0.18827511 0.02956117 -0.14745285 -0.112431526 -0.2161928 -0.10054822 0.06583228 0.18986258
0.15432452 -0.17552517 -0.01147382 0.04459457 -0.10153928 0.087791264 0.08702709 0.16909152
0.00031996498 -0.04185517 -0.22361727 0.1118034 -0.07992266 -0.14090143 -0.103767656 0.13392253
0.06880552 -0.124161676 0.048187327 -0.21073078 -0.14785853 -0.45272171 0.14185722 -0.25736013
-0.09520735 -0.23768494 -0.11505939 -0.278499 0.36247635 0.015130568 0.19911325 -0.05044888
-0.14905562 -0.06412096 -0.07487273 0.4398113 0.22810055 0.1891883 -0.15204068 -0.01694707
-0.0603801 -0.14228399 0.002786136 0.17110375 0.2660789 0.09626774 0.18690799 -0.16221279
-0.015094954 -0.22382078 -0.078657694 -0.039606918 0.002935821 0.02308336 -0.2046446 0.047659773
0.18347819 0.12108177 -0.024346305 -0.037318327 0.17537935 0.12071494 0.17883846 0.20688647
00000000: 672a 23be 9d69 fbbe e852 02bd 1590 2b3e
00000010: 1a9f d8be 47d4 7ebe 1f9b 2ebc 85ba 033e
00000020: 7301 cabe 63a7 aabd 1dbb 1ebd 1403 cd3e
00000030: 72ef f1bc 2835 fd38 5255 b4be 475a 953d
00000040: 3779 1f3c 93d3 c8bd a7de 453d 5d32 923d
00000050: f387 523d 42c4 1dbf 638c d7bd a3a8 7dbc
00000060: f29f 0f3e 7d75 df3d 4393 cbbd e90a 52ba
00000070: 0806 17bf a827 e5be aacf b43e b624 8b3c
00000080: b8b4 49bd 757e 46bd a087 0fbe 0dc1 093e
00000090: 5ca0 5fbd 3f8e 893e 5d3e 1dbc 5d67 233e
000000a0: 4081 1f3d 87a5 f83d ee6f c9be 788e 713d
000000b0: 2086 3c3d c399 ac3d ac36 27bd 9bc6 03bd
000000c0: 468f 17be 2b22 aebd 4181 133e 7efa 383e
000000d0: f9a8 44be 7620 38be 80f7 b73d c829 153e
000000e0: 390f 9b3e 459d 9cbd a521 573e 6ee4 123d
000000f0: 0c3c ca3d b5bd c43d 12b8 df3e 246c 273d
00000100: 7efa 34bc dab1 293e e7c8 75bd 4325 08be
00000110: be7f b8bd c2d1 133e 8fad cf3d b5ff d2bb
00000120: 82d9 46be 5e89 863e a28e a13d b26a 9ebe
00000130: ccba 303e b92f 76bd a903 063e 3f76 c9bd
00000140: 6378 07be 4f83 f0bd 5eac 133d 5dea 66be
00000150: f3c3 f63d f38b 6c3e dcab 633e 38e8 4c3e
00000160: 2fdd acbd fbfc cc3d fed7 69bd cf22 683d
00000170: 6a75 98bd f82b 23be 61dc bcbc bda2 853d
00000180: d2b6 063e bce7 353d 7719 513d 0637 853e
00000190: f60a 7e3e 2f8e d53d e328 a9bd 98ce 773d
000001a0: 6557 8dbe 17cb 4b3e 8a66 333e 1b2d 593b
000001b0: 72c0 94bd 4414 d6be c208 afbe 9c92 0bbd
000001c0: 3566 47be d222 97be 8512 47bf 9155 c6bd
000001d0: 366f 073a e256 933d df32 9c3d e3bb 3fbe
000001e0: 5b99 e9be dac8 52be ea28 583d 251d 5dbe
000001f0: 53bc a43d d62e 113e 6fb3 87bf fc52 09bf
00000200: 58ad 043e d753 33bb 3147 1cbe 82b1 783e
00000210: 47ff 943d 973c 843e 615a 5a3e abc0 05be
00000220: a86f 493e 93a9 26bf 7095 91be 813a 0d3e
00000230: f159 113e ec32 ba3d 75da f63d 6a10 0bbe
00000240: d350 25bf 350c a53d 5794 dd3d 5c77 76be
00000250: f0e7 e8be e265 943c 83fb 823c b750 b5bd
00000260: 9a00 a4bd 1418 0abe f0c8 37be de0b 54bd
00000270: 254b cd3d dd70 b03a a956 23be 8e98 833d
00000280: 1cfc 54be 9f81 793d 9dc1 a4bd 287a ccbd
00000290: 4752 f03d 920c eb3d a681 ecbd cedb ffbb
000002a0: 5388 6fbe 1f04 07bd 1efd f4bd f4c4 123e
000002b0: 1acf 73bc d536 70be 67bb 24be a63e 763e
000002c0: c0af 93bc 9831 87bd af28 623e f64d cb3d
000002d0: b49e 61bb 14e4 303e 944f ffbc 3fe4 173e
000002e0: 31cb 403e 442a f23c e1fd 16be 8042 e6bd
000002f0: a561 5dbe 3aec cdbd 13d3 863d 566b 423e
00000300: 3f07 1e3e dfbc 33be b0fc 3bbc cca8 363d
00000310: d3f3 cfbd e8cb b33d 423b b23d 5426 2d3e
00000320: f9c0 a739 5470 2bbd edfb 64be 2ef9 e43d
00000330: 7eae a3bd 7748 10be 2384 d4bd fd22 093e
00000340: e9e9 8c3d 7a48 febd 1360 453d cfc9 57be
00000350: 3a68 17be 24cb e7be 0543 113e b5c4 83be
00000360: 12fc c2bd ae63 73be 42a4 ebbd 6c97 8ebe
00000370: 8096 b93e 34e6 773c 58e4 4b3e 7ca3 4ebd
00000380: 09a2 18be da51 83bd e056 99bd f22e e13e
00000390: 3193 693e 94ba 413e 8db0 1bbe 95d4 8abc
000003a0: 2051 77bd e5b2 11be 9b97 363b d235 2f3e
000003b0: 7e3b 883e 0528 c53d cf64 3f3e 1c1b 26be
000003c0: d350 77bc 4631 65be 4917 a1bd dd3a 22bd
000003d0: e766 403b 5119 bd3c 5b8e 51be e536 433d
000003e0: b5e1 3b3e b8f9 f73d e771 c7bc 1adb 18bd
000003f0: a596 333e 6539 f73d 6e21 373e 0cda 533e

regressors.1.lins.1.bias f4 [32]
-0.029101249 -0.059183788 -0.05903482 -0.0058312253 -0.08320069 0.35150257 -0.0081780115 0.011255905
0.025569767 -0.054147094 -0.20329048 -0.1774372 0.17960508 0.101631336 0.05103347 0.13291782
0.010549686 0.103705436 -0.12937997 0.07282657 -0.077772275 0.118132085 0.13937765 0.25251013
0.028842699 0.2806275 -0.25529212 0.16346027 -0.25000486 0.028087603 0.1038905 0.21040227
00000000: be65 eebc b36a 72bd 7fce 71bd dd13 bfbb
00000010: 2065 aabd 25f8 b33e 11fd 05bc b06a 383c
00000020: b077 d13c 58c9 5dbd 612b 50be 19b2 35be
00000030: 65ea 373e 1724 d03d 7908 513d 9c1b 083e
00000040: 97d8 2c3c 8463 d43d 2f7c 04be 1926 953d
00000050: 1247 9fbd 3cef f13d 04b9 0e3e 0249 813e
00000060: 8647 ec3c 68ae 8f3e a6b5 82be 2162 273e
00000070: a300 80be f917 e63c 8bc4 d43d b173 573e

regressors.1.lins.2.weight f4 [32, 32]
-0.32263798 0.08294632 -0.22968604 -0.55226225 0.48398736 0.09223934 -0.06550794 0.06724657
-0.04266587 0.117169134 -0.12040872 -0.041956667 0.11229381 0.21960238 0.028847728 -0.42027262
0.016152034 0.11991922 -0.3362348 0.16276354 -0.10481878 -0.18101639 0.12904733 0.1656123
-0.1095424 -0.3330111 0.028979618 0.6040114 0.07091436 0.14322923 -0.23241752 -0.13017263
-0.027167173 -0.002467351 -0.00829179 -0.81141657 0.049922418 -0.15315035 -0.080765605 -0.23907095
-0.23942061 0.17543781 0.16585466 -0.14043549 0.14539433 0.13296495 -0.025096433 -0.004136048
-0.3173289 -0.62508655 -0.039151743 0.037057884 -0.060939208 0.025893189 0.016726032 0.218085
-0.1351935 -0.015846869 0.10120718 -0.070028685 -0.20734316 0.32304132 -0.20626304 -0.1501286
-0.4217194 0.09695395 0.10355002 -0.054420933 0.15942076 0.18876849 0.22261591 0.050859515
0.04871152 -0.2081594 -0.15034167 0.1516172 0.09803617 -0.16041963 0.05529856 0.17968053
0.17108683 -0.01616581 -0.0011556908 -0.15318927 -0.062834404 0.0033528816 -0.012411172 0.12606591
0.17729758 0.06568202 0.07917936 0.04178277 0.14709288 -0.18037322 0.24365109 0.18670692
-0.31638792 -0.4551045 -0.075101264 -0.11937126 -0.18807372 0.06258675 0.23409256 -0.13209422
-0.33557865 -0.13642423 -0.016396279 0.09234651 -0.5062632 0.21545161 0.057102937 -0.10404388
-0.22180563 0.24634978 -0.21170232 0.042355154 0.09200001 0.018143771 0.02312015 -0.32080054
0.17338347 -0.046359833 -0.03376529 -0.3432693 0.18110237 -0.10713686 -0.30283946 0.034763813
0.32945463 0.13133344 0.14589287 0.25574288 -0.10067852 0.021648536 -0.16972867 0.22795652
-0.29414082 -0.08350858 -0.35975355 -0.088310786 0.20766734 -0.0068399655 -0.5961828 0.01184406
0.09164492 -0.17761235 -0.15484962 -0.2102234 -0.13765143 -0.2804212 -0.26690486 0.007992482
0.41062996 -0.05123136 0.09058889 0.24408498 -0.1923238 0.02536669 0.09154762 0.092300765
-0.092038676 0.113972135 -0.13841182 -0.124324314 0.19345438 -0.11275349 0.026104597 0.13025151
0.05388154 -0.15234998 -0.0037630748 0.14014514 0.06604272 0.08664043 0.20870483 0.024535606
0.13186207 -0.18978433 0.007616764 -0.1607697 -0.06252007 0.07829936 0.01382054 0.09301495
0.09231638 0.12892811 -0.11328915 -0.09734121 -0.081220716 -0.09925534 0.046664156 0.11964246
0.24951896 -0.017378973 -0.03839735 -0.17404889 -0.43910936 0.001812217 -0.09794303 0.036205024
-0.115878366 0.20804414 -0.018589245 0.31310597 0.24154323 0.016301123 0.15169959 0.409637
-0.075779125 -0.09598109 0.15072316 -0.20209408 -0.18891408 -0.1685343 -0.10904771 0.1727381
0.22996439 -0.2020136 0.009457519 -0.15847126 0.2357057 0.15402089 0.24942528 -0.38499704
0.020457925 -0.07306539 -0.17929712 0.20688161 -0.0016366126 0.14824815 -0.18088478 -0.40383336
0.035552792 0.08083108 -0.12255287 0.10625127 -0.5879803 -0.20235766 0.15527041 0.09520913
-0.065739766 -0.31583253 -0.5793014 -0.7223238 -0.53985447 -0.8192493 -0.03057112 0.10297022
-0.17228736 -0.7774595 0.027109219 -0.74345607 -0.7163025 -0.07444328 0.13474143 0.076803744
00000000: ce30 a5be c3df a93d d132 6bbe 0f61 0dbf
00000010: 31cd f73e fbe7 bc3d 0729 86bd 92b8 893d
00000020: 68c2 2ebd 5ff6 ef3d d998 f6bd c1da 2bbd
00000030: 4cfa e53d 72df 603e 1252 ec3c f92d d7be
00000040: 4551 843c 3598 f53d f826 acbe 7cab 263e
00000050: 3bab d6bd 5c5c 39be fc24 043e 4596 293e
00000060: c457 e0bd 6e80 aabe aa66 ed3c 7ea0 1a3f
00000070: 8c3b 913d afaa 123e dcfe 6dbe f94b 05be
00000080: b18d debc 48b3 21bb 4ada 07bc ffb8 4fbf
00000090: 737b 4c3d 72d3 1cbe 7068 a5bd 04cf 74be
000000a0: ad2a 75be f8a5 333e ced5 293e 52ce 0fbe
000000b0: 40e2 143e f727 083e 0997 cdbc af87 87bb
000000c0: ef78 a2be ac05 20bf 945d 20bd 02ca 173d
000000d0: 649b 79bd f41d d43c 0805 893c ad51 5f3e
000000e0: 2a70 0abe 4bd1 81bc b645 cf3d 336b 8fbd
000000f0: c451 54be ac65 a53e 9e36 53be 50bb 19be
00000100: 9beb d7be cb8f c63d 0812 d43d 7ce8 5ebd
00000110: 323f 233e 874c 413e 6df5 633e 1152 503d
00000120: bb85 473d bd27 55be 2bf3 19be 8a41 1b3e
00000130: 30c7 c83d 0b45 24be be80 623d 2cfe 373e
00000140: 6331 2f3e 296e 84bc 8c7a 97ba a6dd 1cbe
00000150: 53af 80bd 05bc 5b3b 3a58 4bbc 6c17 013e
00000160: 7f8d 353e 4b84 863d ca28 a23d 6924 2b3d
00000170: 849f 163e c2b3 38be ac7f 793e 1930 3f3e
00000180: 99fd a1be 7503 e9be b1ce 99bd eb78 f4bd
00000190: 6696 40be 7b2d 803d f6b5 6f3e b543 07be
000001a0: f7d0 abbe cbb2 0bbe 7d51 86bc 2b20 bd3d
000001b0: 779a 01bf 599f 5c3e c5e4 693d f514 d5bd
000001c0: 0421 63be 1e43 7c3e 7ec8 58be 997c 2d3d
000001d0: 806a bc3d 3fa2 943c 7866 bd3c f83f a4be
000001e0: 708b 313e cfe3 3dbd 794d 0abd fec0 afbe
000001f0: e672 393e 926a dbbd c60d 9bbe 8064 0e3d
00000200: 47ae a83e 467c 063e f164 153e bbf0 823e
00000210: 8a30 cebd 4558 b13c 5acd 2dbe 6f6d 693e
00000220: a099 96be 8c06 abbd 9e31 b8be 49dc b4bd
00000230: bfa6 543e ca21 e0bb 709f 18bf 970d 423c
00000240: 55b0 bb3d 03e0 35be e690 1ebe ce44 57be
00000250: 7ff4 0cbe 5e93 8fbe c1a7 88be e6f2 023c
00000260: 173e d23e f9d7 51bd ab86 b93d 6af1 793e
00000270: 88f0 44be cecd cf3c 527d bb3d 2f08 bd3d
00000280: c67e bcbd 396a e93d d4bb 0dbe bf9d febd
00000290: e818 463e 4deb e6bd 4fd9 d53c a760 053e
000002a0: e4b2 5c3d a201 1cbe eb9d 76bb 3582 0f3e
000002b0: 6841 873d 8a70 b13d b8b6 553e e5fe c83c
000002c0: da06 073e d356 42be 0c96 f93b d0a0 24be
000002d0: 860a 80bd 6a5b a03d 8c6f 623c 9f7e be3d
000002e0: 5f10 bd3d bb05 043e 2404 e8bd d45a c7bd
000002f0: 0c57 a6bd 6246 cbbd ea22 3f3d 1b07 f53d
00000300: e681 7f3e 595e 8ebc 8a46 1dbd df39 32be
00000310: f1d2 e0be e987 ed3a 5b96 c8bd b84b 143d
00000320: a351 edbd 8609 553e 7948 98bc 6d4f a03e
00000330: 1c57 773e ef89 853c 2357 1b3e f1bb d13e
00000340: 1632 9bbd bc91 c4bd 2c57 1a3e c0f1 4ebe
00000350: b172 41be 4194 2cbe 6854 dfbd 42e2 303e
00000360: c97b 6b3e a7dc 4ebe b6f3 1a3c 4a46 22be
00000370: d65c 713e a7b7 1d3e 5769 7f3e 551e c5be
00000380: 6197 a73c 4fa3 95bd aa99 37be c6d8 533e
00000390: 9b83 d6ba 5dce 173e dc39 39be 3fc3 cebe
000003a0: ce9f 113d c48a a53d 00fd fabd 449a d93d
000003b0: e085 16bf d936 4fbe 35ff 1e3e 01fd c23d
000003c0: 92a2 86bd cdb4 a1be 194d 14bf 36ea 38bf
000003d0: e733 0abf 52ba 51bf 4970 fabc 0de2 d23d
000003e0: 196c 30be 9607 47bf 2714 de3c 2353 3ebf
000003f0: 9a5f 37bf b875 98bd a8f9 093e 484b 9d3d

regressors.1.lins.2.bias f4 [32]
0.02542609 0.119866006 0.16375643 -0.015554368 -0.22891186 0.19155376 -0.20900266 0.2052393
-0.19786333 -0.14070033 0.19882627 0.1375085 -0.24795486 -0.22984003 0.10855254 0.3193556
0.2845504 -0.07332542 0.063880794 -0.052522834 -0.14204903 -0.079623625 -0.11235283 -0.037079345
0.08368682 -0.04893438 -0.023981487 0.09850765 0.058989197 -0.017823389 -0.03142804 0.028815342
00000000: 604a d03c 4f7c f53d c4af 273e bfd7 7ebc
00000010: df67 6abe ab26 443e cb04 56be 402a 523e
00000020: af9c 4abe bf13 10be 1d99 4b3e 07cf 0c3e
00000030: e1e7 7dbe 2f5b 6bbe cb50 de3d 9482 a33e
00000040: 97b0 913e a32b 96bd efd3 823d 2f22 57bd
00000050: 4d75 11be b611 a3bd 3e19 e6bd 83e0 17bd
00000060: ff63 ab3d 6b6f 48bd d374 c4bc 61be c93d
00000070: a89e 713d 5b02 92bc b0ba 00bd 270e ec3c

regressors.1.lins.3.weight f4 [1, 32]
0.07080874 -0.10683508 0.16624378 -0.18122944 -0.17200701 0.051435202 -0.040856875 -0.36634424
-0.13121176 -0.107763655 -0.28125364 -0.21292585 -0.123501085 -0.15901874 -0.06069521 0.038735185
0.13479598 -0.3644008 -0.09797652 -0.17144193 -0.41431686 0.06511627 -0.09443087 0.013321056
-0.19972163 -0.13878824 -0.05014978 0.08043374 0.027232602 -0.08094901 -0.08054449 -0.1863467
00000000: 2c04 913d 5acc dabd cf3b 2a3e 3694 39be
00000010: 9b22 30be b8ad 523d 8a59 27bd 7991 bbbe
00000020: 605c 06be 31b3 dcbd 7a00 90be 3c09 5abe
00000030: 23ee fcbd cfd5 22be 8a9b 78bd c9a8 1e3d
00000040: f507 0a3e be92 babe eaa7 c8bd 798e 2fbe
00000050: 5721 d4be ae5b 853d f964 c1bd 8f40 5a3c
00000060: d483 4cbe 811e 0ebe db69 4dbd 72ba a43d
00000070: e816 df3c 98c8 a5bd 82f4 a4bd abd1 3ebe

regressors.2.lins.0.weight f4 [32, 64]
-0.07696766 -0.03051132 -0.08334644 -0.029997885 0.050362617 0.09456207 -0.04535061 0.09408477
-0.038920194 -0.057803065 0.0005274117 0.0067539066 -0.04400471 0.013190895 -0.10728051 0.078945816
0.028473392 -0.09133597 -0.057322815 0.09493047 0.065828264 -0.07795563 -0.06658983 -0.052891538
-0.013197079 0.08831276 0.10131124 0.075757936 -0.045924038 -0.08038728 0.10824327 0.05019994
-0.113719165 -0.06680976 0.018194601 0.12392256 -0.08113234 -0.028697237 2.4974346e-05 -0.060919076
-0.056561917 0.10195324 -0.10176624 -0.09088339 0.011918068 0.030267373 -0.09360947 0.012216002
-0.09958051 0.07751359 -0.07971154 -0.0960899 -0.020071879 -0.0156091 0.055863753 -0.084394395
0.06856012 -0.08316459 0.100103304 0.024799407 0.020345658 0.084905386 -0.012892038 0.08135466
0.11921805 0.104403734 -0.0436247 0.030607581 -0.07498847 0.027799621 -0.10382332 -0.034186795
0.12481725 0.110970035 0.08113305 -0.11388752 0.012380376 -0.06593548 0.060702756 -0.092360914
-0.08540568 -0.053266525 0.047902033 -0.06998727 0.099447966 0.11935748 0.050442904 -0.08905153
0.027179584 0.028199881 -0.09755255 -0.09701975 -0.079640344 -0.056302756 -0.122904435 0.07079309
-0.07382977 0.013680086 -0.100583956 -0.044823423 -0.00667049 0.059234098 -0.0059328377 -0.079633206
0.014258489 -0.055464804 -0.11759943 0.07179314 0.026282474 0.051623702 0.118373394 0.03115806
0.07564865 -0.0055826604 -0.03194271 -0.11469886 0.0069986433 -0.05323887 0.042896375 0.061318725
-0.0959384 -0.07838108 0.044494778 -0.07137576 0.014490977 0.116750196 -0.105493635 -0.04370238
-0.11764184 -0.028058827 0.053964272 -0.03837973 -0.029786184 -0.012267351 -0.05223939 -0.046726137
0.09394041 -0.11072999 0.021024287 0.07942808 0.041784614 -0.08622667 -0.014249116 -0.09466982
0.047992766 -0.07723285 0.0017351657 0.057864636 -0.095271885 0.11460556 0.026716173 -0.05088991
0.035597175 -0.055872962 0.022893906 0.09475054 0.029733434 -0.05231914 -0.045058414 0.074725255
0.023465917 -0.004659623 -0.08750412 -0.049641624 -0.009679049 0.011411682 -0.104640245 0.08581206
0.081752524 0.07509214 0.1138431 0.11654073 -0.073956266 0.12078816 -0.061375335 0.06021878
0.06392291 0.10545914 -0.007840604 0.083018795 0.016911805 0.0193315 0.05931948 -0.068696514
-0.067478344 0.11988093 0.049988285 0.031735286 -0.08216898 0.10162833 -0.08921546 0.07034209
-0.035639375 -0.03848742 0.066912636 0.09542182 0.069987535 -0.03918676 -0.078771025 -0.03272645
0.06787473 0.0018716604 -0.011020079 -0.017228812 -0.11720726 0.105636284 -0.039060533 0.0021849275
0.06736584 0.059834868 0.02627635 -0.048323646 0.10170911 0.058255717 -0.012791753 0.06611787
0.06573346 0.037753403 -0.096473634 -0.067747265 0.12064873 -0.025470853 -0.016255766 0.067396134
-0.0585749 -0.036769524 -0.105981246 -0.012934059 0.0340423 0.1065938 -0.07715915 -0.10403901
-0.0053791255 -0.06396514 -0.04430686 -0.053871155 -0.07980856 0.019152254 0.022878781 0.003765121
0.09590241 -0.013728872 0.08662468 -0.06715371 0.00088115036 0.0077870786 -0.016565904 -0.10937764
-0.088691324 -0.0050058663 -0.005316049 0.10831034 -0.08909659 -0.028098121 0.11846304 -0.0994506
00000000: 38a1 9dbd e0f2 f9bc 8ab1 aabd 20be f5bc
00000010: 0849 4e3d c2a9 c13d 90c1 39bd 84af c03d
00000020: c86a 1fbd e8c2 6cbd 0042 0a3a e04f dd3b
00000030: 483e 34bd a01e 583c e2b5 dbbd 58ae a13d
00000040: 0841 e93c 5a0e bbbd 54cb 6abd e86a c23d
00000050: f8d0 863d 34a7 9fbd 4060 88bd cca4 58bd
00000060: 9038 58bc 52dd b43d 447c cf3d fa26 9b3d
00000070: d81a 3cbd 16a2 a4bd a6ae dd3d 749e 4d3d
00000080: 98e5 e8bd 8ed3 88bd d80c 953c 1ccb fd3d
00000090: b628 a6bd 7816 ebbc 0080 d137 4886 79bd
000000a0: 78ad 67bd dccc d03d d26a d0bd 1221 babd
000000b0: 0044 433c 48f3 f73c 52b6 bfbd a025 483c
000000c0: def0 cbbd 72bf 9e3d ce3f a3bd c8ca c4bd
000000d0: c86d a4bc 50bd 7fbc 64d1 643d f8d6 acbd
000000e0: 4069 8c3d 3252 aabd f602 cd3d 2028 cb3c
000000f0: f0ab a63c e0e2 ad3d 2039 53bc 469d a63d
00000100: 9828 f43d a0d1 d53d d0af 32bd c0bc fa3c
00000110: 8e93 99bd 08bc e33c 52a1 d4bd 7407 0cbd
00000120: 30a0 ff3d 4244 e33d 1629 a63d dc3d e9bd
00000130: 10d7 4a3c 2e09 87bd 74a3 783d b827 bdbd
00000140: 2ce9 aebd 002e 5abd ec34 443d 7c55 8fbd
00000150: 60ab cb3d b271 f43d 389d 4e3d a660 b6bd
00000160: b8a7 de3c 7003 e73c a2c9 c7bd 4ab2 c6bd
00000170: 7a1a a3bd b89d 66bd 52b5 fbbd f8fb 903d
00000180: 1034 97bd 7022 603c f6fe cdbd c498 37bd
00000190: 2094 dabb 749f 723d 4068 c2bb bc16 a3bd
000001a0: 709c 693c 102f 63bd f8d7 f0bd 4808 933d
000001b0: 584e d73c 6073 533d c06d f23d 303f ff3c
000001c0: aeed 9a3d c0ee b6bb 5cd6 02bd 3ce7 eabd
000001d0: e054 e53b 0011 5abd 1cb4 2f3d 5829 7b3d
000001e0: 5a7b c4bd 4286 a0bd 2840 363d 742d 92bd
000001f0: 906b 6d3c ba1a ef3d 0c0d d8bd 4401 33bd
00000200: 34ee f0bd a0db e5bc a409 5d3d 1034 1dbd
00000210: 2802 f4bc 00fd 48bc f8f8 55bd e863 3fbd
00000220: d463 c03d 68c6 e2bd 203b ac3c 30ab a23d
00000230: 5826 2b3d 9c97 b0bd 2075 69bc 40e2 c1bd
00000240: 1094 443d 422c 9ebd 806e e33a 7803 6d3d
00000250: e81d c3bd 52b6 ea3d e0db da3c f071 50bd
00000260: 58ce 113d 0cdb 64bd 008c bb3c 920c c23d
00000270: 8893 f33c 984c 56bd 2c8f 38bd 8e09 993d
00000280: 983b c03c c0af 98bb 5c35 b3bd 0455 4bbd
00000290: e094 1ebc 10f8 3a3c a04d d6bd 3cbe af3d
000002a0: de6d a73d e8c9 993d 9226 e93d e8ac ee3d
000002b0: 6276 97bd c85f f73d b464 7bbd f8a7 763d
000002c0: 04ea 823d f6fa d73d e075 00bc c205 aa3d
000002d0: a08a 8a3c 185d 9e3c fcf8 723d c2b0 8cbd
000002e0: 1632 8abd 2284 f53d 84c0 4c3d dcfc 013d
000002f0: 3648 a8bd 8422 d03d 98b6 b6bd 840f 903d
00000300: 98fa 11bd fca4 1dbd 7e09 893d 846c c33d
00000310: a055 8f3d 4c82 20bd b452 a1bd 2c0c 06bd
00000320: e801 8b3d 8052 f53a 908d 34bc 7023 8dbc
00000330: 5c0a f0bd d657 d83d f0fd 1fbd 0031 0f3b
00000340: 1af7 893d 6815 753d 8041 d73c 04ef 45bd
00000350: de4c d03d 8c9d 6e3d 8094 51bc ce68 873d
00000360: 449f 863d 50a3 1a3d f893 c5bd 14bf 8abd
00000370: ae16 f73d 40a8 d0bc d02a 85bc fc06 8a3d
00000380: 3cec 6fbd a49b 16bd b20c d9bd 60e9 53bc
00000390: f06f 0b3d da4d da3d 9e05 9ebd 6812 d5bd
000003a0: 6043 b0bb 2800 83bd 1c7b 35bd 00a8 5cbd
000003b0: ac72 a3bd 30e5 9c3c 486c bb3c 40c0 763b
000003c0: 7c68 c43d 10ef 60bc 4868 b13d e287 89bd
000003d0: 00fd 663a c02a ff3b 38b5 87bc 6201 e0bd
000003e0: cca3 b5bd 4008 a4bb 4032 aebb d0d1 dd3d
000003f0: 4678 b6bd 082e e6bc c09c f23d c2ac cbbd
