baseline/DLPL-CAP/models_dlpl-cap-regressor/sandwich+ultra8t_to_ssram+digtime+timing_ctrl+array_128_32_8t/dlpl-cap-regressor_nh_2_tsk_regression_ngl_4_nhl_4_hd_32_us_1_bn_0_dp_0.0_epoch_15_20250402_171513.pth (torch, 64130 bytes, 21 tensors)

regressors.0.lins.0.weight f4 [32, 64]
0.008446492 0.074205115 0.13848674 0.06213109 0.24174798 0.045626923 0.108847834 -0.06793416
-0.29814988 -0.25278804 -0.52778774 0.13777341 -0.072895065 0.11192917 -0.32382646 -0.26372582
-0.051499084 0.007320874 0.20073636 -0.16757809 -0.053198323 -0.016253099 0.0017965029 -0.19406116
0.19965231 -0.20490459 -0.11805473 -0.16040914 -0.11454718 0.14879812 -0.10327305 0.09880843
-0.034342017 0.1327953 -0.05482806 0.019791223 -0.071406305 0.21850123 -0.028525399 0.16304018
-0.017725134 0.22884756 0.14188717 0.13986136 -0.38030344 0.18630385 -0.2768249 -0.0116078295
-0.18075354 -0.75781876 -0.3652782 -0.46889615 -0.07696642 0.04601714 -0.2262526 -0.20088425
-0.23598957 -0.17738798 0.007761279 -0.19055279 -0.11956468 0.21670836 0.11300291 -0.056637872
-0.11741411 -0.017723769 -0.102336675 -0.0377886 0.0814956 -0.038372383 -0.044595074 0.08335657
-0.06477952 -0.011908561 -0.029589765 0.016291609 -0.14839466 -0.049593765 0.07596949 0.07079045
0.009185332 -0.13440864 -0.09029673 -0.12175867 0.09789753 0.01002565 -0.042292874 0.052726425
-0.068639584 0.00568241 0.079297885 -0.0673818 -0.021330968 -0.07802406 0.062487766 0.04153057
-0.12716368 -0.056174427 -0.098472044 0.116994806 -0.14491303 0.033407915 -0.047810636 -0.0795462
-0.090185 0.06558341 -0.08928017 -0.124002315 -0.05657576 0.050264012 -0.07529822 -0.13209093
0.07124831 -0.13299935 -0.11651166 0.039525867 0.027275667 -0.11301844 -0.058897592 0.07400954
-0.072195604 0.041220855 0.026132196 0.10391379 0.10782866 -0.039587177 0.039115295 -0.10736222
0.05979186 -0.18199965 -0.28933325 -0.056224935 0.10505153 -0.28218853 0.22136809 -0.19003092
-0.35971883 -0.013047881 -0.19927287 -0.116525106 -0.22363587 0.17835268 0.1651219 -0.17440371
-0.29519352 -0.28493023 -0.28250805 0.12396926 0.07665396 -0.03929548 -0.11033082 0.26169068
-0.03632337 -0.0029470983 -0.03461289 -0.29891342 0.055635616 -0.4717395 -0.06664626 0.012206506
-0.074136406 -0.07621251 0.08599061 -0.012860079 -0.122528225 -0.33981043 0.18530323 -0.30005687
0.17676589 0.04459798 0.07854837 -0.30366123 0.25826478 -0.08737567 0.005917131 0.045689378
0.18874481 0.15262313 -0.058553554 0.1258842 0.1151984 0.007887557 -0.06643413 -0.01664679
-0.0961054 -0.46402737 -0.20308435 -0.078515574 0.1074584 0.0062409835 0.021573216 -0.24158667
-0.08704541 -0.21280889 -0.5209209 -0.0325879 -0.052415114 -0.16826294 -0.085647725 -0.026664995
0.14783043 -0.3648182 0.1197415 -0.091728255 -0.11753965 0.23366074 -0.90014 -0.030949289
-0.4986158 -0.06111562 -0.2801825 0.16454405 -0.080139294 0.12462273 -0.38272354 0.2948338
0.014453042 -0.12475086 0.39750615 0.0014999012 0.015551403 -0.3158386 -0.091207385 0.0029283953
0.11925765 0.0084047085 -0.048093013 0.019649586 -0.07910061 -0.26790926 0.03424022 0.17355692
-0.20919012 -0.05033312 -0.0334483 0.07061145 -0.26640433 0.21035175 -0.66083366 0.027839089
0.046805765 -0.14264466 -0.0799146 0.15848607 0.07683091 -0.04933463 -0.23870225 0.17334272
0.15859446 0.09975848 -0.036321238 0.08859959 0.10159175 0.20582269 0.12027314 0.05620601
00000000: 2863 0a3c daf8 973d 78cf 0d3e 2b7d 7e3d
00000010: c88c 773e 4ce3 3a3d 9deb de3d 1121 8bbd
00000020: 1aa7 98be 6f6d 81be 191d 07bf 7914 0d3e
00000030: 024a 95bd 1f3b e53d 95cc a5be 1207 87be
00000040: b4f0 52bd f1e3 ef3b d58d 4d3e 9799 2bbe
00000050: 7ce6 59bd 3825 85bc a278 eb3a f8b7 46be
00000060: a871 4c3e 82d2 51be aec6 f1bd 4b42 24be
00000070: b697 eabd 895e 183e d280 d3bd 135c ca3d
00000080: 37aa 0cbd 7efb 073e 6393 60bd 3421 a23c
00000090: 783d 92bd c9be 5f3e 19ae e9bc 01f4 263e
000000a0: 4d34 91bc 0457 6a3e df4a 113e d137 0f3e
000000b0: 22b7 c2be 70c6 3e3e febb 8dbe c42e 3ebc
000000c0: 7517 39be 6900 42bf bf05 bbbe 2813 f0be
000000d0: 92a0 9dbd 787c 3c3d c3ae 67be 9ab4 4dbe
000000e0: 40a7 71be 32a5 35be 5452 fe3b 4520 43be
000000f0: 54de f4bd cce8 5d3e 126e e73d 1dfd 67bd
00000100: cf76 f0bd 7031 91bc e495 d1bd 38c8 1abd
00000110: 2ae7 a63d 5c2c 1dbd 53a9 36bd d9b6 aa3d
00000120: 20ab 84bd 201c 43bc 3c66 f2bc fb75 853c
00000130: c5f4 17be d522 4bbd e495 9b3d 95fa 903d
00000140: 137e 163c 6ba2 09be 7eed b8bd 9c5c f9bd
00000150: 807e c83d a042 243c 4b3b 2dbd aaf7 573d
00000160: e992 8cbd 8333 ba3b ee66 a23d 78ff 89bd
00000170: 48be aebc 14cb 9fbd 2cf3 7f3d f51b 2a3d
00000180: 3237 02be 2817 66bd b6ab c9bd f99a ef3d
00000190: 1564 14be bdd6 083d 16d5 43bd 1ee9 a2bd
000001a0: eab2 b8bd 9850 863d 86d8 b6bd edf4 fdbd
000001b0: fcbb 67bd a3e1 4d3d f435 9abd d842 07be
000001c0: a2ea 913d fb30 08be aa9d eebd e0e5 213d
000001d0: 3871 df3c 3676 e7bd 9a3e 71bd 5092 973d
000001e0: 4adb 93bd 33d7 283d 3013 d63c c1d0 d43d
000001f0: 46d5 dc3d 2a26 22bd 5c37 203d b9e0 dbbd
00000200: 4fe8 743d 1e5e 3abe 7d23 94be 1e4c 66bd
00000210: 4225 d73d 047b 90be 51ae 623e 7797 42be
00000220: 112d b8be c8c6 55bc 300e 4cbe b7a4 eebd
00000230: cd00 65be 16a2 363e b715 293e e396 32be
00000240: 9b23 97be 60e2 91be e5a4 90be 98e3 fd3d
00000250: c0fc 9c3d 4cf4 20bd 20f5 e1bd 52fc 853e
00000260: d0c7 14bd 1b24 41bb 3fc6 0dbd 2e0b 99be
00000270: 2ce2 633d d787 f1be d67d 88bd ccfd 473c
00000280: d4d4 97bd 4e15 9cbd d81b b03d 15b3 52bc
00000290: 14f0 fabd a2fb adbe 21c0 3d3e 0ea1 99be
000002a0: 1e02 353e 5fac 363d f8dd a03d 7c79 9bbe
000002b0: 483b 843e 04f2 b2bd 7ee4 c13b c924 3b3d
000002c0: 5246 413e 3d49 1c3e dad5 6fbd cae7 003e
000002d0: 24ed eb3d d03a 013c 9e0e 88bd d95e 88bc
000002e0: e8d2 c4bd ff94 edbe 58f5 4fbe c6cc a0bd
000002f0: 2613 dc3d 2a81 cc3b 50ba b03c 7f62 77be
00000300: dd44 b2bd 93ea 59be 125b 05bf e47a 05bd
00000310: 3bb1 56bd 1f4d 2cbe 1368 afbd 8c70 dabc
00000320: dc60 173e 73c9 babe 083b f53d 06dc bbbd
00000330: a1b8 f0bd c344 6f3e 936f 66bf 5d89 fdbc
00000340: 924a ffbe 5f54 7abd 1574 8fbe 3c7e 283e
00000350: 1220 a4bd 343a ff3d 57f4 c3be 75f4 963e
00000360: 74cc 6c3c 617d ffbd ed85 cb3e 5598 c43a
00000370: 50cb 7e3c 99b5 a1be f0ca babd 52ea 3f3b
00000380: 5b3d f43d e7b3 093c 2efd 44bd 2bf8 a03c
00000390: 80ff a1bd 672b 89be 793f 0c3d e8b8 313e
000003a0: ef35 56be 1a2a 4ebd 1601 09bd bc9c 903d
000003b0: 2666 88be 7366 573e 652c 29bf cd0e e43c
000003c0: 67b7 3f3d 7111 12be 44aa a3bd 2c4a 223e
000003d0: 8659 9d3d 1c13 4abd 5d6e 74be c180 313e
000003e0: 9666 223e 2d4e cc3d 94c5 14bd b473 b53d
000003f0: 560f d03d 2fc3 523e c451 f63d 4638 663d

regressors.0.lins.0.bias f4 [32]
-0.015527464 -0.102653876 0.07196181 -0.07087234 0.14832033 -0.020320978 0.09054165 0.14754245
0.18106805 -0.00890441 0.06313624 -0.09243566 -0.041149404 -0.10656311 -0.05180643 -0.106261574
-0.04874578 -0.119791 -0.11059097 0.15377946 -0.1179731 0.24566841 0.20173459 -0.18865907
-0.08576772 -0.15016967 0.13147098 -0.026602184 0.17724946 -0.1358248 0.08220165 -0.20664686
00000000: e866 7ebc 323c d2bd b760 933d 8425 91bd
00000010: 49e1 173e 2e78 a6bc e76d b93d 5e15 173e
00000020: e769 393e cde3 11bc 934d 813d e84e bdbd
00000030: 478c 28bd c33d dabd fb32 54bd ab9f d9bd
00000040: a8a9 47bd fc54 f5bd 857d e2bd 5d78 1d3e
00000050: e19b f1bd 8090 7b3e 8393 4e3e d82f 41be
00000060: fda6 afbd 14c6 19be 54a0 063e d3ec d9bc
00000070: e280 353e a815 0bbe 5759 a83d 3c9b 53be

regressors.0.lins.1.weight f4 [32, 32]
-0.5146274 0.008924016 -0.4444069 -0.015040251 -0.29364213 -0.17888717 0.14909574 -0.651978
-0.55658233 0.14398968 -0.01985901 -0.29390427 0.1557738 -0.08279661 0.006382899 0.19416992
-0.11476531 0.020051725 -0.0071373046 -0.15800637 -0.33952373 0.0014998886 0.0013058538 0.24690421
0.13973354 -0.047275648 -0.33812454 0.00096330786 -0.036897033 -0.15316404 -0.02814128 0.09611574
-0.37060735 -0.13662228 -0.068236 -0.5777689 0.2064544 -0.0591926 -0.07784921 -0.17104031
0.09662818 0.08451286 0.075124405 -0.110729486 0.12957913 0.3074743 -0.13113002 0.16712068
-0.012231689 -0.53312206 -0.17444722 -0.15185751 0.10100443 0.11530973 -0.30879912 -0.15019311
0.104258604 -0.08437668 0.07383218 -0.36241576 0.04173473 0.32998705 0.07723802 0.13940871
0.30119258 -0.022590099 -0.2817074 -0.38249815 -0.97565436 -0.060078204 -0.015007749 -0.08154526
0.008542708 -0.24957609 -0.2113709 0.09672337 -0.4999098 -0.33029023 -0.10156516 -0.18720496
0.009209279 0.03574275 -0.0183837 -0.14164886 -0.57506037 -0.36685476 0.08807945 -0.0734833
-0.11556454 0.06105624 0.08324595 -0.1881819 0.08588839 -0.078318775 -0.19681215 -0.20182265
0.084815 0.027994707 0.016789423 0.18637954 -0.5067903 -0.20963734 -0.37757275 -0.2601462
0.054529347 -0.16139533 -0.18254617 0.00797758 -0.0597319 -0.53897345 -0.37622446 -0.09312464
0.104348734 -0.092136815 0.10944529 -0.58750594 -0.4023853 -0.14092563 0.04497633 0.0618667
-0.15356216 -0.03886373 -0.48284805 -0.31041718 -0.1366149 0.027821409 -0.11134804 -0.44282076
-0.020074101 0.008708495 -0.02030912 -0.06820504 -0.10259747 0.17335536 0.03951028 0.089989804
-0.09377234 0.0151420375 -0.101029746 -0.094140574 -0.058707446 -0.0353983 0.15954018 0.114411876
-0.23192881 -0.07072595 0.23710361 0.03767062 -0.15131274 -0.03773782 -0.27228612 -0.099424586
-0.045708958 -0.121702254 -0.09756066 -0.0075399806 0.048454084 0.15709879 -0.187333 0.0450504
-0.7022663 0.14151119 -0.7896337 0.029255874 -0.03816293 0.112082735 0.027321042 -0.13926858
0.17892252 0.13231379 -0.20500992 -0.029076472 0.17973588 -0.07100702 -0.37813842 0.14806077
-0.104046784 -0.17628911 -0.25200495 -0.3262415 0.017930908 -0.45444092 0.039518364 -0.45500356
0.15349548 -0.056261413 0.12558636 -0.4064125 0.06653591 0.021460494 0.08178939 -0.33192044
0.07938317 -0.08781553 -0.036983628 -0.29296747 -0.40279073 0.14014402 -0.1139072 -0.068688475
-0.07527237 0.23783047 0.16890422 -0.37788194 -0.25407854 -0.10552005 0.11790686 -0.050484862
-0.26763135 0.08637043 0.1319876 0.09971313 0.030896882 -0.5565306 -0.5723094 0.056092713
-0.060724307 0.07141078 0.023002619 -0.074098706 -0.26329085 -0.17476505 0.10127199 -0.090368755
-0.014525668 -0.09791021 0.2026121 0.087674096 -0.21926895 -0.08922153 -0.34758705 0.0546704
-0.031862486 -0.034755085 -0.041781973 -0.20851785 -0.22707283 0.09986088 -0.0007504032 0.22453934
-0.26929426 -0.15434538 0.30804628 0.1443874 0.019889906 -0.120102935 0.13323684 -0.84100807
0.17713647 -0.039920114 -0.1401565 -0.11503497 -0.4704332 0.58278275 0.02935126 0.0027304362
00000000: 9fbe 03bf 0936 123c 4d89 e3be 636b 76bc
00000010: 4358 96be 332e 37be 8eac 183e 08e8 26bf
00000020: 2e7c 0ebf 0872 133e 5daf a2bc 9f7a 96be
00000030: 2b83 1f3e 4591 a9bd a327 d13b 7bd4 463e
00000040: 130a ebbd 8443 a43c 0de0 e9bb 6ccc 21be
00000050: 0ed6 adbe e997 c43a 2f29 ab3a 75d4 7c3e
00000060: 4f16 0f3e 1ca4 41bd a91e adbe 7f86 7c3a
00000070: 5821 17bd 09d7 1cbe 8b88 e6bc 54d8 c43d
00000080: 3fc0 bdbe b6e6 0bbe 51bf 8bbd aae8 13bf
00000090: c868 533e f173 72bd 686f 9fbd 3125 2fbe
000000a0: ffe4 c53d 1415 ad3d d3da 993d 24c6 e2bd
000000b0: 64b0 043e 456d 9d3e f346 06be af21 2b3e
000000c0: 6c67 48bc b07a 08bf 4ba2 32be 8980 1bbe
000000d0: 69db ce3d 8227 ec3d eb1a 9ebe 39cc 19be
000000e0: 8985 d53d aecd acbd 5335 973d 8f8e b9be
000000f0: 09f2 2a3d 10f4 a83e f82e 9e3d 28c1 0e3e
00000100: ea35 9a3e df0e b9bc f43b 90be ccd6 c3be
00000110: 7cc4 79bf 9014 76bd 10e3 75bc 3401 a7bd
00000120: b7f6 0b3c e090 7fbe 9d71 58be e716 c63d
00000130: 2df4 ffbe cd1b a9be 6501 d0bd a8b2 3fbe
00000140: 84e2 163c fd66 123d 6a99 96bc 660c 11be
00000150: 2837 13bf 63d4 bbbe 0063 b43d 6a7e 96bd
00000160: 1aad ecbd 1c16 7a3d da7c aa3d c2b2 40be
00000170: 41e6 af3d 9865 a0bd 2089 49be 99aa 4ebe
00000180: 7db3 ad3d 2855 e53c f989 893c 47da 3e3e
00000190: 02bd 01bf 2cab 56be 3751 c1be e231 85be
000001a0: 2a5a 5f3d d144 25be 62ed 3abe 65b4 023c
000001b0: 70a9 74bd 2afa 09bf 7ea0 c0be 22b8 bebd
000001c0: cab4 d53d 3ab2 bcbd da24 e03d ca66 16bf
000001d0: 7205 cebe cf4e 10be 1a39 383d f067 7d3d
000001e0: 663f 1dbe 932f 1fbd dc37 f7be 00ef 9ebe
000001f0: c7e4 0bbe b9e9 e33c 710a e4bd 67b9 e2be
00000200: 7172 a4bc 13ae 0e3c 505f a6bc 16af 8bbd
00000210: 9f1e d2bd 1184 313e 88d5 213d 934c b83d
00000220: b60b c0bd 4f16 783c afe8 cebd c6cc c0bd
00000230: 3877 70bd cffd 10bd 805e 233e c650 ea3d
00000240: bf7e 6dbe c4d8 90bd 4acb 723e 824c 1a3d
00000250: baf1 1abe f992 1abd 1669 8bbe 1e9f cbbd
00000260: 5139 3bbd 083f f9bd e2cd c7bd f111 f7bb
00000270: ca77 463d 81de 203e 39d4 3fbe c586 383d
00000280: b9c7 33bf 4fe8 103e 6f25 4abf 04aa ef3c
00000290: bc50 1cbd a28b e53d 61d0 df3c 6c9c 0ebe
000002a0: 7737 373e 447d 073e 1fee 51be c831 eebc
000002b0: af0c 383e 216c 91bd 5c9b c1be 3e9d 173e
000002c0: 7b16 d5bd 2285 34be cb06 81be 2009 a7be
000002d0: d7e3 923c 7bac e8be 02de 213d 3af6 e8be
000002e0: eb2d 1d3e 5e72 66bd b699 003e 4d15 d0be
000002f0: fb43 883d ebcd af3c 3281 a73d 7af1 a9be
00000300: a593 a23d a1d8 b3bd 257c 17bd d5ff 95be
00000310: 963a cebe ea81 0f3e 2e48 e9bd 8bac 8cbd
00000320: 6628 9abd d589 733e 3af5 2c3e be79 c1be
00000330: 9516 82be e51a d8bd 2779 f13d 37c9 4ebd
00000340: fa06 89be fbe2 b03d c227 073e 6636 cc3d
00000350: 751b fd3c ca78 0ebf de82 12bf 79c1 653d
00000360: 0dba 78bd d13f 923d fd6f bc3c 10c1 97bd
00000370: 0fce 86be 9cf5 32be b067 cf3d 4113 b9bd
00000380: 11fd 6dbc 2685 c8bd 8c79 4f3e 7a8e b33d
00000390: 0a88 60be c7b9 b6bd eef6 b1be 12ee 5f3d
000003a0: 3d82 02bd 595b 0ebd 9323 2bbd b485 55be
000003b0: c885 68be dc83 cc3d b5b6 44ba a4ed 653e
000003c0: f0e0 89be b70c 1ebe 3eb8 9d3e 4ada 133e
000003d0: 28f0 a23c 87f8 f5bd 3d6f 083e 4e4c 57bf
000003e0: 4363 353e 4683 23bd 2f85 0fbe 7497 ebbd
000003f0: 9fdc f0be 4031 153f 0e72 f03c 1ef1 323b

regressors.0.lins.1.bias f4 [32]
-0.1317377 -0.11410589 -0.093655415 -0.14545219 -0.23672464 -0.22920336 -0.011525718 -0.039126813
0.11242503 -0.08559553 0.17374913 -0.18742564 -0.30853477 -0.09063117 0.22482406 -0.21887098
-0.18397826 0.3307162 -0.036266178 0.083535865 0.2101439 0.010284813 -0.36592355 -0.073637344
-0.14562236 -0.09117438 -0.044885315 -0.29830354 0.08758268 0.03999858 0.081199914 0.07640508
00000000: 3fe6 06be 59b0 e9bd 69ce bfbd 6bf1 14be
00000010: f267 72be 49b4 6abe 5dd6 3cbc 7043 20bd
00000020: 183f e63d b64c afbd 4beb 313e 82ec 3fbe
00000030: 45f8 9dbe d69c b9bd 4738 663e b71f 60be
00000040: cc64 3cbe a253 a93e d88b 14bd da14 ab3d
00000050: f62f 573e a281 283c 555a bbbe 2dcf 96bd
00000060: 071e 15be a2b9 babd aad9 37bd 3ebb 98be
00000070: 8c5e b33d 8dd5 233d 244c a63d 447a 9c3d

regressors.0.lins.2.weight f4 [32, 32]
0.149798 0.07468917 -0.06830978 -0.07156592 -0.0036311827 -0.16705506 -0.103000514 -0.10066096
0.105710365 -0.105489366 -0.14019941 -0.13086642 -0.017650656 -0.10532687 -0.18822046 0.1712681
-0.06719177 -0.040777735 0.023194633 0.009438892 0.020437015 0.07900612 -0.067185596 -0.100879245
-0.020712331 -0.1660615 -0.09384482 0.0453021 -0.0021223677 -0.11917375 -0.11488209 -0.08729445
0.045194823 0.32362017 -0.13413823 -0.10713285 -0.28692126 0.097759746 -0.21535417 -0.21618234
-0.23927982 -0.035721514 -0.31278238 0.036091994 -0.0029843124 -0.2881476 0.016155634 0.044733286
0.4183566 -0.05935615 -0.12569156 0.1707328 0.15602402 0.039230455 0.19504699 0.22209741
0.028597726 0.03516373 -0.39078727 -0.15011795 -0.090976186 -0.08697721 0.047790594 0.09553553
0.12868863 -0.12636629 -0.13081113 -0.10560693 0.015639583 0.16248412 -0.397153 -0.32947278
-0.48387745 0.08857384 0.09003972 0.109476335 0.10911931 0.018732762 -0.033904042 0.3137425
0.29620624 0.1196709 -0.04637526 -0.16159683 0.13497384 -0.0050867116 0.24601062 0.2858428
-0.37446302 -0.06926583 0.373926 0.050839327 -0.119460694 0.147946 0.044444032 0.0027918215
-0.084000394 -0.068572134 -0.18047094 -0.034899667 -0.12894021 0.07455726 -0.055695873 -0.013895133
0.0917312 0.06787144 -0.047173638 -0.019071648 -0.032880176 -0.15499902 -0.1468139 -0.006035781
0.14971787 -0.050980184 0.0541824 0.041344598 -0.1740859 0.06252231 0.057667483 -0.13129112
-0.11796661 -0.13341822 -0.101144664 -0.0877894 -0.05154404 0.017001651 -0.1256106 -0.15429795
-0.14937705 -0.106845565 0.005382287 -0.08407615 -0.10788589 0.14903271 -0.04572351 -0.1613234
0.08365741 -0.05548748 -0.16092272 0.13527136 -0.060693458 -0.12799174 -0.039419558 -0.049436715
0.123707116 0.05791543 -0.026296148 -0.050678592 0.013000114 -0.008484566 -0.11757396 0.01286715
0.04208811 0.19120929 -0.17699434 -0.1693733 -0.1603531 -0.24715634 -0.09036681 0.02955538
-0.19452147 0.057296216 0.24548288 0.08410815 -0.34467307 0.046853837 0.16739933 -0.01578433
-0.33047494 0.1095905 0.07045185 0.023030344 0.079207085 -0.13412961 -0.21757412 -0.22918399
-0.17058054 -0.091211 0.031616054 -0.01358609 -0.07708289 -0.21561553 0.02766688 -0.2313518
-0.057407357 -0.18355756 -0.1975119 -0.0973568 0.026771264 -0.3040386 -0.31013855 -0.0155257005
-0.040176567 -0.013846793 -0.018594662 -0.08454138 -0.09384082 -0.4866029 -0.23776144 -0.12873909
-0.31787354 -0.11374981 -0.10436745 0.08857061 0.22565065 0.15945163 -0.054278094 -0.0139248045
-0.27433163 0.05931679 0.16702673 -0.051323123 -0.14521582 -0.025709826 0.022520866 -0.3356314
-0.09819083 -0.20227787 -0.011402238 -0.2761041 -0.31660253 -0.055930678 0.05889781 -0.20433846
-0.29707646 -0.37169552 -0.18092802 0.018249052 -0.044657763 -0.039908297 0.118302405 -0.09424559
0.015436848 0.070447095 -0.006370438 -0.11725671 -0.056438513 -0.2619442 -0.08878713 0.058604565
-0.14772753 -0.024202628 -0.21172498 -0.13135813 -0.23183832 -0.032364465 0.37750575 0.07752881
-0.3255795 -0.084737614 0.13453142 0.031492498 -0.09560986 -0.061234184 0.13360842 -0.16939026
00000000: a664 193e a3f6 983d ffe5 8bbd 2791 92bd
00000010: 23f9 6dbb 7b10 2bbe eff1 d2bd 5527 cebd
00000020: ad7e d83d cf0a d8bd 6f90 0fbe d901 06be
00000030: 1c98 90bc 9db5 d7bd ddbc 40be e860 2f3e
00000040: d79b 89bd 8e06 27bd ac02 be3c 95a5 1a3c
00000050: 876b a73c f6cd a13d 9a98 89bd c799 cebd
00000060: e8ac a9bc 070c 2abe b731 c0bd b28e 393d
00000070: 6c17 0bbb 5e11 f4bd 4d47 ebbd 6fc7 b2bd
00000080: 351e 393d 8bb1 a53e 885b 09be 7868 dbbd
00000090: 58e7 92be 4336 c83d ce85 5cbe e75e 5dbe
000000a0: c505 75be b950 12bd 0325 a0be 33d5 133d
000000b0: 7494 43bb 1588 93be d258 843c 403a 373d
000000c0: d632 d63e 6f1f 73bd 4ab5 00be 94d4 2e3e
000000d0: c3c4 1f3e 1db0 203d 66ba 473e 816d 633e
000000e0: c745 ea3c d807 103d 4515 c8be 85b8 19be
000000f0: b951 babd 1c21 b2bd 12c0 433d 22a8 c33d
00000100: f4c6 033e 2a66 01be 5af3 05be 7248 d8bd
00000110: 951e 803c 3d62 263e a357 cbbe a8b0 a8be
00000120: c9be f7be 3466 b53d bf66 b83d 2135 e03d
00000130: f279 df3d 7375 993c f7de 0abd dba2 a03e
00000140: 58a8 973e 0416 f53d fcf3 3dbd a479 25be
00000150: 9536 0a3e 6eae a6bb 35ea 7b3e fd59 923e
00000160: 9eb9 bfbe 3edb 8dbd 3b73 bf3e e63c 503d
00000170: cfa7 f4bd 287f 173e f20a 363d fef6 363b
00000180: 6608 acbd 8c6f 8cbd 60cd 38be f4f2 0ebd
00000190: e708 04be 7ab1 983d 5b21 64bd 69a8 63bc
000001a0: 91dd bb3d 2e00 8b3d 2539 41bd 253c 9cbc
000001b0: 5dad 06bd 10b8 1ebe 6256 16be cdc7 c5bb
000001c0: a44f 193e 99d0 50bd 5dee 5d3d f458 293d
000001d0: 9343 32be b20b 803d bd34 6c3d 2e71 06be
000001e0: 7a98 f1bd c99e 08be ef24 cfbd eeca b3bd
000001f0: d81f 53bd 0c47 8b3c 11a0 00be 4800 1ebe
00000200: 4cf6 18be d9d1 dabd e55d b03b 1e30 acbd
00000210: 47f3 dcbd 089c 183e 9348 3bbd f631 25be
00000220: 9454 ab3d d746 63bd edc8 24be 9384 0a3e
00000230: b499 78bd 4410 03be 6776 21bd 277e 4abd
00000240: 285a fd3d bb38 6d3d 056b d7bc 5b94 4fbd
00000250: 6efe 543c d902 0bbc 9eca f0bd bdd0 523c
00000260: 9564 2c3d 5ecc 433e 013e 35be 3270 2dbe
00000270: 9a33 24be 8d16 7dbe 3c12 b9bd 201e f23c
00000280: a330 47be 70af 6a3d dd5f 7b3e e540 ac3d
00000290: fd78 b0be cfe9 3f3d bb6a 2b3e 244e 81bc
000002a0: 0334 a9be fc70 e03d 0f49 903d 22aa bc3c
000002b0: 5337 a23d 4659 09be c0cb 5ebe 35af 6abe
000002c0: aaac 2ebe d5cc babd d67f 013d 3198 5ebc
000002d0: a2dd 9dbd 51ca 5cbe a7a5 e23c 7ce7 6cbe
000002e0: fa23 6bbd 83f6 3bbe 8f40 4abe 0163 c7bd
000002f0: 694f db3c f3aa 9bbe 7bca 9ebe 825f 7ebc
00000300: 2f90 24bd a9dd 62bc d553 98bc 0824 adbd
00000310: 9e2f c0bd 0424 f9be bc77 73be 2ed4 03be
00000320: 52c0 a2be a9f5 e8bd 9abe d5bd 8264 b53d
00000330: f710 673e 4a47 233e b552 5ebd dd24 64bc
00000340: 3275 8cbe 2af6 723d 0e09 2b3e 3238 52bd
00000350: 75b3 14be 6a9d d2bc ae7d b83c e1d7 abbe
00000360: 4618 c9bd ee21 4fbe 74d0 3abc 845d 8dbe
00000370: ba19 a2be 9117 65bd d43e 713d 1a3e 51be
00000380: 681a 98be e04e bebe 3245 39be 097f 953c
00000390: 0feb 36bd e276 23bd 8848 f23d d503 c1bd
000003a0: d5ea 7c3c 9146 903d 1bbf d0bb 4924 f0bd
000003b0: 122c 67bd 8d1d 86be 07d6 b5bd 570b 703d
000003c0: e345 17be 9744 c6bc 6fce 58be bf82 06be
000003d0: 0667 6dbe 9a90 04bd 6f48 c13e 6dc7 9e3d
000003e0: 5bb2 a6be ea8a adbd 9bc2 093e 47fe 003d
000003f0: 1acf c3bd b2d0 7abd a5d0 083e a474 2dbe

regressors.0.lins.2.bias f4 [32]
-0.18563797 -0.14350356 -0.31738356 -0.15678008 -0.17416774 0.11706806 0.20360574 -0.281039
-0.21035384 0.20526093 -0.065150514 -0.027772674 0.45360142 0.40000272 -0.17696667 0.038460426
0.35097054 -0.10987855 -0.23156269 0.2886805 -0.26671988 0.29513797 -0.24726126 -0.12520263
-0.094363056 -0.18677567 -0.10678288 0.28539032 -0.08543615 0.13149811 0.32548052 -0.008332656
00000000: e117 3ebe 99f2 12be 1980 a2be f58a 20be
00000010: 0759 32be 61c1 ef3d 067e 503e 58e4 8fbe
00000020: ff66 57be ec2f 523e a26d 85bd 8583 e3bc
00000030: 723e e83e 28cd cc3e c036 35be ae88 1d3d
00000040: 69b2 b33e 0108 e1bd c51e 6dbe eecd 933e
00000050: 828f 88be 531c 973e 0e32 7dbe 1e35 00be
00000060: 6b41 c1bd 1f42 3fbe fcb0 dabd ae1e 923e
00000070: 26f9 aebd 71a7 063e 62a5 a63e b185 08bc

regressors.0.lins.3.weight f4 [1, 32]
0.09885893 -0.23081826 -0.16897841 -0.06596317 -0.10039395 -0.10550294 0.11343454 0.011323357
0.014721939 0.029110106 -0.009898957 -0.17109299 0.24092317 0.16415933 -0.18216859 -0.010150445
0.10173782 -0.029475983 -0.019583642 0.037273493 -0.18328542 0.13256162 0.041024532 0.03078296
0.0046799295 -0.16427848 -0.045512374 0.151329 0.008898163 0.08925402 0.058003787 0.02289702
00000000: 8d76 ca3d 9f5b 6cbe ad08 2dbe b317 87bd
00000010: 589b cdbd ed11 d8bd 5e50 e83d 9a85 393c
00000020: 4a34 713c 5178 ee3c 3c2f 22bc 0033 2fbe
00000030: 90b4 763e 6219 283e 678a 3abe 0d4e 26bc
00000040: eb5b d03d 9e77 f1bc e06d a0bc 17ac 183d
00000050: 2caf 3bbe 3cbe 073e 5709 283d 8c2c fc3c
00000060: 185a 993b 9e38 28be 2f6b 3abd fdf5 1a3e
00000070: 9ac9 113c d0ca b63d 6195 6d3d 8892 bb3c

regressors.1.lins.0.weight f4 [32, 64]
0.25428995 -0.15781793 0.12118181 0.0044826567 -0.14354411 -0.3394276 -0.22030227 0.2516765
-0.009457808 -0.4778575 0.018415403 -0.0019090048 -0.9264021 0.2014175 0.16299199 -0.20811267
0.001891813 0.104371235 0.12104938 -0.057725437 -0.09923184 0.072024524 -0.03983489 -0.13047197
0.27743557 -0.16863035 0.29893047 -0.0467321 0.041527033 0.03602691 0.08003014 -0.014842287
-0.5168963 0.0192019 0.063786626 -0.1721747 0.03996985 -0.2583403 -0.32679385 0.09775548
-0.12316865 -0.5834288 -0.2902674 0.15316047 -0.080102354 0.12231498 0.18993238 0.14868358
0.11997723 -0.087334394 -0.17997622 0.08160343 -0.05178258 -0.07648876 -0.5164153 0.027556853
-0.1705572 -0.57426167 -0.14587113 0.046226554 0.035570294 -0.21900646 0.11234483 0.08590038
-0.18646912 0.20652452 0.06309421 -0.09086339 0.14773703 0.31110024 0.13866532 0.048784886
-0.032600943 0.002002242 0.14443865 -0.056550648 -0.09829182 -0.2452895 0.15668029 0.3982832
0.07501572 -0.14536068 0.1922209 0.2022947 0.10271835 0.1012457 -0.14050694 0.2757249
-0.251063 -0.16148333 -0.04933039 -0.006314062 -0.043496773 0.13584182 -0.03439547 -0.46222392
-0.21838163 -0.08102964 -0.081280135 0.0033836646 0.26259965 0.11656191 0.28881654 -0.07447303
0.12475136 0.030804938 0.040439043 -0.026897863 -0.09217016 0.077675335 0.09671239 -0.18538049
0.14899558 0.19530389 -0.10749964 -0.03891803 0.038503826 -0.03729464 -0.03717478 -0.12785244
-0.3592908 -0.23536386 -0.30567428 0.09683863 0.04112436 -0.014251771 -0.022829622 -0.14011745
0.28401977 0.15528603 -0.22733612 0.07772206 0.32020256 0.21367003 -0.07847607 0.035022754
0.07603921 0.16704728 -0.022068402 -0.11766309 0.47787374 -0.1901612 -0.1609428 -0.027844649
0.04336584 0.020913165 -0.040520277 0.07920281 0.0059695095 0.06617962 -0.2874589 -0.33212957
-0.32654327 0.3596876 0.12304728 -0.04424102 -0.08237523 0.15692262 -0.08428307 -0.016626414
0.049056884 -0.24937238 -0.20524271 0.031779256 -0.15666777 0.25136703 -0.20891145 -0.041100435
-0.3062365 0.14233908 -0.29228076 0.07287176 0.023679255 -0.04509571 -0.11294979 0.20223972
-0.10596149 -0.090467036 0.042601466 0.071428366 0.07089163 -0.08388814 -0.18870878 0.18362354
0.28421393 -0.10184945 0.18509033 -0.0993276 -0.005964741 0.3106502 -0.030606523 -0.052906945
0.23376751 0.16458924 -0.14400108 -0.06819293 0.04820577 -0.20476744 -0.35440302 -0.41348878
0.058689762 -0.21182743 -0.545512 0.020361353 -0.026187943 -0.29116192 -0.11368066 0.33991885
0.0996572 -0.16078544 0.07590759 -0.19598182 -0.038951576 -0.025983408 0.012967449 -0.32381046
-0.20862788 0.27326974 0.20866577 0.08246332 -0.06274341 0.13510177 0.037104502 0.21357392
-0.03619493 -0.04064816 0.24952441 0.110913314 -0.1133076 0.09016697 0.119933195 0.12718767
-0.08709793 -0.18575205 -0.179112 0.031632494 -0.4649409 0.15233497 -0.09063113 -0.1579018
0.23500559 -0.17271279 -0.22177652 0.26585504 0.1235771 0.10011211 0.09309629 -0.026304776
-0.015963705 0.19994938 -0.83997846 -0.28538567 -0.07757178 -0.25931862 -0.07299054 0.21968004
00000000: 4b32 823e 069b 21be 2b2e f83d 40e3 923b
00000010: 3afd 12be 74c9 adbe eb96 61be bedb 803e
00000020: ecf4 1abc bda9 f4be e6db 963c 9237 faba
00000030: b028 6dbf 6440 4e3e 5fe7 263e 7d1b 55be
00000040: b6f6 f73a 96c0 d53d bde8 f73d 8271 6cbd
00000050: 103a cbbd 9881 933d e929 23bd 729a 05be
00000060: 090c 8e3e 6fad 2cbe 6a0d 993e 296a 3fbd
00000070: 4018 2a3d f490 133d d8e6 a33d 102d 73bc
00000080: 5153 04bf 4e4d 9d3c 90a2 823d 914e 30be
00000090: 6db7 233d 2e45 84be 8651 a7be 0634 c83d
000000a0: d83f fcbd 975b 15bf ee9d 94be 19d6 1c3e
000000b0: b40c a4bd 4780 fa3d a27d 423e 8240 183e
000000c0: 9fb6 f53d 60dc b2bd b04b 38be b31f a73d
000000d0: f819 54bd 24a6 9cbd cb33 04bf e9be e13c
000000e0: 8ca6 2ebe d002 13bf 3e5f 15be 0e58 3d3d
000000f0: 28b2 113d 3b43 60be 0c15 e63d 8aec af3d
00000100: c3f1 3ebe 2a7b 533e 8a37 813d 9616 babd
00000110: 6048 173e 8848 9f3e 48fe 0d3e a9d2 473d
00000120: 9188 05bd 0c38 033b bae7 133e a7a1 67bd
00000130: 394d c9bd 2c2d 7bbe cc70 203e c7eb cb3e
00000140: d8a1 993d 6ed9 14be 8ed5 443e 5826 4f3e
00000150: 005e d23d e859 cf3d 0de1 0fbe d02b 8d3e
00000160: 548b 80be e35b 25be aa0e 4abd 31e6 cebb
00000170: ac29 32bd 1e1a 0b3e 44e2 0cbd 9da8 ecbe
00000180: 6f9f 5fbe def2 a5bd 3376 a6bd 79c0 5d3b
00000190: 7673 863e 03b8 ee3d c3df 933e 5185 98bd
000001a0: a47d ff3d a35a fc3c 69a3 253d e858 dcbc
000001b0: b5c3 bcbd 3f14 9f3d 2511 c63d 62d4 3dbe
000001c0: 4c92 183e befd 473e c528 dcbd 8368 1fbd
000001d0: 30b6 1d3d 44c2 18bd 9544 18bd c0eb 02be
000001e0: f7f4 b7be 3903 71be 5781 9cbe 5553 c63d
000001f0: 0472 283d 4380 69bc 3005 bbbc f37a 0fbe
00000200: 0a6b 913e 4d03 1f3e cdca 68be be2c 9f3d
00000210: 97f1 a33e 51cc 5a3e 10b8 a0bd 0574 0f3d
00000220: 72ba 9b3d 710e 2b3e cbc8 b4bc 59f9 f0bd
00000230: deab f43e 9eb9 42be 30ce 24be 761a e4bc
00000240: 61a0 313d 1652 ab3c 97f8 25bd 1535 a23d
00000250: e09b c33b 2e89 873d d02d 93be e30c aabe
00000260: ae30 a7be f928 b83e 3600 fc3d 1236 35bd
00000270: 58b4 a8bd 53b0 203e 9a9c acbd 1e34 88bc
00000280: dfef 483d 795b 7fbe 252b 52be f72a 023d
00000290: 846d 20be 2eb3 803e e2ec 55be ee58 28bd
000002a0: 08cb 9cbe 56c1 113e d3a5 95be ca3d 953d
000002b0: fffa c13c 47b6 38bd 3852 e7bd ee17 4f3e
000002c0: 5602 d9bd c846 b9bd e07e 2e3d 0949 923d
000002d0: a22f 913d 8ccd abbd e03c 41be cf07 3c3e
000002e0: 7d84 913e 7296 d0bd 5288 3d3e 456c cbbd
000002f0: e073 c3bb 8b0d 9f3e 88ba fabc f4b4 58bd
00000300: c060 6f3e 158a 283e 0575 13be bca8 8bbd
00000310: 6a73 453d 8eae 51be 5074 b5be cdb4 d3be
00000320: ad64 703d 4ae9 58be ada6 0bbf dacc a63c
00000330: 1988 d6bc 2d13 95be 68d1 e8bd d809 ae3e
00000340: 1319 cc3d f0a4 24be 7075 9b3d 75af 48be
00000350: b08b 1fbd 28db d4bc 6c75 543c 7cca a5be
00000360: 8ca2 55be 03ea 8b3e 7bac 553e 87e2 a83d
00000370: 9e7f 80bd 1e58 0a3e e4fa 173d 1fb3 5a3e
00000380: 2341 14bd af7e 26bd 5483 7f3e 8526 e33d
00000390: d10d e8bd 76a9 b83d 899f f53d 7c3d 023e
000003a0: 6660 b2bd c935 3ebe 2369 37be 1391 013d
000003b0: bc0c eebe b3fd 1b3e d09c b9bd 02b1 21be
000003c0: 4ea5 703e 9fdb 30be 6219 63be 271e 883e
000003d0: fe15 fd3d 9407 cd3d 45a9 be3d 1d7d d7bc
000003e0: 51c6 82bc 88bf 4c3e d408 57bf 121e 92be
000003f0: f4dd 9ebd 69c5 84be 107c 95bd cef3 603e

regressors.1.lins.0.bias f4 [32]
-0.06797977 0.18289772 -0.06886907 -0.17038235 0.35994774 0.1824652 0.023882963 -0.16711429
0.07544854 0.09960247 -0.1637298 -0.13605112 0.06752038 0.25137243 0.08354766 0.32354516
0.1801611 -0.041400492 -0.024878023 0.3172588 -0.0058470606 0.3365167 -0.20396182 -0.18910962
0.2139537 0.0051363134 -0.19739777 0.20665371 0.064725235 0.25147858 0.2874559 0.026201917
00000000: fa38 8bbd 8a49 3b3e 3a0b 8dbd b678 2ebe
00000010: 124b b83e 28d8 3a3e 34a6 c33c 0220 2bbe
00000020: c484 9a3d 61fc cb3d c9a8 27be fc50 0bbe
00000030: 2048 8a3d e3b3 803e 091b ab3d b6a7 a53e
00000040: 277c 383e 9093 29bd ffcc cbbc bf6f a23e
00000050: b398 bfbb eb4b ac3e 5edb 50be f4a5 41be
00000060: ae16 5b3e 854e a83b a422 4abe 089d 533e
00000070: aa8e 843d cdc1 803e 6b2d 933e 67a5 d63c

regressors.1.lins.1.weight f4 [32, 32]
-0.025192406 -0.67311543 -0.07096583 0.24836993 -0.7477901 -0.59035313 0.16826072 0.14757074
-0.4538726 -0.13340138 0.12099147 0.5553854 0.08687853 0.06159812 -0.45875996 0.058386292
0.03468172 0.32051647 0.0922161 0.12609644 0.005711199 -1.0783812 -0.13208172 -0.016534036
0.14969352 0.15974408 -0.2327257 -0.061641365 -0.6441498 -0.37023786 0.28914812 -0.0029354773
0.14407031 -0.06164209 -0.13893577 0.22063822 0.011515769 0.28912094 -0.018979294 0.12335081
-0.0735343 0.22179458 -0.4972176 -0.012575426 0.09476231 0.1392547 -0.28545958 0.0043221056
-0.23451148 -0.12626496 0.15787889 0.073177375 -0.13050695 -0.27438018 0.15329671 0.10366207
0.41656998 -0.06399683 0.16883919 0.14677007 -0.025280016 0.12945087 0.27700153 0.25300652
0.036270045 0.13177139 -0.13307625 -0.19990396 -0.1752357 0.015082841 0.16369031 -0.056483023
-0.31528422 0.31236088 0.025733158 -0.38362113 0.09741482 -0.14733985 0.22350593 -0.02954001
-0.108431004 -0.41454124 0.07285519 -0.2395636 0.12109871 0.24606504 0.23313308 0.14040174
0.054100756 0.09770689 -0.007974604 0.034855302 0.010622714 -0.18672001 -0.14100546 0.13910583
0.26467562 0.061963584 0.026504027 0.32606807 0.40722853 0.15991618 -0.7283654 -0.0039786296
-0.41262084 0.28448406 0.049351107 -0.057289522 -0.028524516 -0.66307366 -0.51547617 -0.0018925563
-0.11593927 -0.14518532 -0.7983218 -0.115031876 -0.103113785 0.07115592 -0.0060482575 -0.27809876
-0.73338634 -0.17929606 0.075208776 -0.27967596 0.17812766 0.14051655 -1.3899746 -0.59450173
0.23921308 -0.0872477 -0.26300228 0.29632834 0.007101496 0.1596329 0.09685922 -0.17895116
0.39787185 -1.1250292 -0.25653112 0.20346376 0.050462194 0.14254628 0.10258633 -0.17312083
-0.72931355 0.090899795 0.1119143 -0.19226144 -0.3780338 0.006809832 -0.16601847 -0.16078256
-0.0033892314 -0.037266 -0.24478438 -0.11755915 0.19412264 0.03603993 -0.45800063 -0.24244761
-0.49364582 0.07927729 -0.13254471 -0.092338406 0.1008837 0.13885331 -0.02831046 -0.052961767
-0.27694866 -0.022014527 -0.12788263 0.29141358 -0.103415504 -0.20534314 -0.14231159 0.27267712
-0.034600575 -0.046258274 0.1962182 0.075206295 -0.03332248 0.20980757 -0.027568653 0.14063491
0.23050387 0.15077953 -0.111066155 -0.18581921 -0.2573313 -0.133132 -0.05747367 0.26177773
0.09338258 -0.34079486 -0.14572987 0.15695807 -0.08403889 0.14668418 -0.044219233 0.2088645
-0.14448862 -0.29065463 -0.5750873 0.20123161 -0.30891788 -0.17446485 -0.12756793 0.18529609
0.07817178 -0.5716924 0.20288587 -0.27679762 -0.30227655 -0.4637238 0.23157424 -0.26166186
-0.14938922 -0.32166493 -0.065715164 -0.16638967 0.2879271 0.1506419 0.28145424 -0.05044888
-0.205593 -0.11831679 -0.21537912 0.5270713 0.35424772 0.11186596 -0.30371448 0.0015621484
-0.20339379 -0.07786689 -0.16182177 -0.06324776 0.24995832 -0.023471853 0.1974094 -0.16730355
-0.06886911 -0.483884 -0.04832944 -0.054582953 0.031392004 -0.048334148 -0.33425555 0.06931342
0.10558891 0.12965335 -0.022295749 0.011282007 0.2569292 0.10595517 0.29060146 0.25991604
00000000: 4e60 cebc 4b51 2cbf 8856 91bd b054 7e3e
00000010: 2c6f 3fbf 6221 17bf 8a4c 2c3e c91c 173e
00000020: fd61 e8be 5f9a 08be 60ca f73d bd2d 0e3f
00000030: 5fed b13d 4f4e 7c3d 96e2 eabe 7726 6f3d
00000040: 6b0e 0e3d bc1a a43e cbdb bc3d 6d1f 013e
00000050: 0225 bb3b 6508 8abf 6e40 07be 6372 87bc
00000060: 4249 193e f493 233e a54f 6ebe a87b 7cbd
00000070: 00e7 24bf d18f bdbe 390b 943e 2361 40bb
00000080: 2b87 133e 6b7c 7cbd 2e45 0ebe fcee 613e
00000090: a3ac 3c3c a907 943e 777a 9bbc 599f fc3d
000000a0: 2799 96bd 1e1e 633e 4e93 febe 2909 4ebc
000000b0: be12 c23d c998 0e3e c227 92be 73a0 8d3b
000000c0: c723 70be 9a4b 01be 01ab 213e 05de 953d
000000d0: 9da3 05be 8f7b 8cbe d0f9 1c3e c84c d43d
000000e0: a948 d53e c510 83bd 2ee4 2c3e e54a 163e
000000f0: 0918 cfbc c58e 043e 25d3 8d3e 128a 813e
00000100: e68f 143d 14ef 063e 2445 08be a0b3 4cbe
00000110: fd70 33be 051e 773c 6f9e 273e be5a 67bd
00000120: ef6c a1be c4ed 9f3e 58ce d23c fd69 c4be
00000130: 6c81 c73d 42e0 16be bdde 643e e4fd f1bc
00000140: 1311 debd c03e d4be 1a35 953d 2950 75be
00000150: 9a02 f83d 79f8 7b3e 70ba 6e3e 79c5 0f3e
00000160: c198 5d3d 8d1a c83d eaa7 02bc 6fc4 0e3d
00000170: e40a 2e3c 8833 3fbe bc63 10be c271 0e3e
00000180: 9083 873e 87cd 7d3d f91e d93c 65f2 a63e
00000190: 4280 d03e 11c1 233e 2876 3abf 2a5f 82bb
000001a0: 0a43 d3be e5a7 913e 6324 4a3d 6ba8 6abd
000001b0: 3fac e9bc 32bf 29bf 3ff6 03bf a70f f8ba
000001c0: 9171 edbd 76ab 14be d15e 4cbf d595 ebbd
000001d0: 522d d3bd 32ba 913d 7630 c6bb f662 8ebe
000001e0: 35bf 3bbf 6399 37be 0f07 9a3d b031 8fbe
000001f0: 1967 363e 92e3 0f3e b0ea b1bf 4431 18bf
00000200: 46f4 743e ecae b2bd 3ca8 86be 59b8 973e
00000210: abb3 e83b cf76 233e 205e c63d f93e 37be
00000220: dcb5 cb3e f500 90bf 0c58 83be ce58 503e
00000230: 72b1 4e3d a7f7 113e c818 d23d 9646 31be
00000240: 4bb4 3abf ac29 ba3d 5333 e53d 2fe0 44be
00000250: a58d c1be 0325 df3b bf00 2abe 2fa4 24be
00000260: de1d 5ebb 3ca4 18bd c2a8 7abe dac2 f0bd
00000270: 16c8 463e 9b9e 133d 0f7f eabe 3044 78be
00000280: 25bf fcbe 225c a23d cdb9 07be eb1b bdbd
00000290: 1d9c ce3d 902f 0e3e 56eb e7bc 70ee 58bd
000002a0: 37cc 8dbe cf57 b4bc aaf3 02be 2934 953e
000002b0: 82cb d3bd 7945 52be 21ba 11be 569c 8b3e
000002c0: 55b9 0dbd 5179 3dbd 6ced 483e c205 9a3d
000002d0: 277d 08bd ccd7 563e a8d7 e1bc 9902 103e
000002e0: 3509 6c3e f365 1a3e a776 e3bd 6447 3ebe
000002f0: eec0 83be c153 08be 8369 6bbd bb07 863e
00000300: 5e3f bf3d aa7c aebe 363a 15be 9eb9 203e
00000310: 951c acbd 6134 163e 3a1f 35bd 93e0 553e
00000320: d3f4 13be afd0 94be ec38 13bf a90f 4e3e
00000330: 7c2a 9ebe eaa6 32be 2ba1 02be 42be 3d3e
00000340: 8718 a03d 6f5a 12bf 50c1 4f3e 6bb8 8dbe
00000350: fec3 9abe 356d edbe cc21 6d3e 8bf8 85be
00000360: 7df9 18be 44b1 a4be ac95 86bd 0e62 2abe
00000370: 2e6b 933e df41 1a3e c51a 903e 7ca3 4ebd
00000380: f986 52be 1350 f2bd 588c 5cbe 25ee 063f
00000390: f55f b53e fb19 e53d 7780 9bbe 01c1 cc3a
000003a0: 7646 50be ad78 9fbd 9bb4 25be 0b88 81bd
000003b0: 13f5 7f3e 0b48 c0bc b125 4a3e 9f51 2bbe
000003c0: 3f0b 8dbd a5bf f7be 17f5 45bd 6092 5fbd
000003d0: e794 003d 07fa 45bd 8b23 abbe 32f4 8d3d
000003e0: 003f d83d d9c3 043e 93a5 b6bc 2bd8 383c
000003f0: 398c 833e 06ff d83d b7c9 943e b713 853e

regressors.1.lins.1.bias f4 [32]
-0.088877305 -0.08245724 -0.0174007 0.0018268853 -0.14744566 0.371536 0.012054912 0.068211846
-0.032402128 -0.09014862 -0.2595251 -0.07280299 0.19985454 0.075421125 0.06517792 0.09888054
0.08239926 0.07906743 -0.12315169 0.10865018 -0.0741017 0.14150737 0.14227703 0.26754954
-0.023765704 0.32235804 -0.2971585 0.18206185 -0.25327548 0.122503586 0.09524963 0.25367054
00000000: 4e05 b6bd 57df a8bd ea8b 8ebc 1974 ef3a
00000010: fffb 16be f739 be3e f781 453c a7b2 8b3d
00000020: 18b8 04bd d79f b8bd 79e0 84be bc19 95bd
00000030: aba6 4c3e 6476 9a3d 007c 853d e181 ca3d
00000040: f1c0 a83d 1bee a13d f436 fcbd fc83 de3d
00000050: a2c2 97bd 4fe7 103e 12b1 113e 41fc 883e
00000060: 4bb0 c2bc 1d0c a53e 2925 98be 6c6e 3a3e
00000070: 53ad 81be 29e3 fa3d 3d12 c33d 1be1 813e

regressors.1.lins.2.weight f4 [32, 32]
-0.12965243 0.17874578 -0.17259258 -0.33331043 0.5019256 0.08861636 0.035010397 -0.01738706
-0.006392626 0.09352833 -0.10110108 -0.11968155 0.07201499 0.18795025 -0.24868925 -0.5075546
0.0020883363 0.031682823 -0.4270127 -0.13817514 -0.3047003 -0.26876262 0.17038408 0.20623703
-0.08449866 -0.43149528 0.019057726 0.8655042 0.12045252 0.052515794 -0.4702459 -0.14259885
-0.10144971 -0.040959116 -0.035128396 -1.2354498 0.07762236 -0.27832946 -0.05465794 -0.19554415
-0.265287 0.17543781 -0.0017606486 -0.00812793 0.2153998 0.14727251 -0.08438863 0.05910593
-0.44938555 -0.82773703 -0.06829098 0.02638608 -0.4216129 0.06958525 3.902906e-05 0.1373203
-0.110866405 -0.028007071 0.10120718 -0.10997225 -0.2964807 0.40468794 -0.23332484 -0.1551052
-0.5150281 0.114267185 0.072708055 -0.015739158 0.14560081 0.16627106 0.3092229 0.045940805
0.0044896128 -0.20221148 -0.15094073 0.13373174 0.078239635 -0.13682048 0.15074459 0.18739241
0.15438001 -0.043819394 -0.007246142 -0.16884457 -0.07823903 -0.026488962 0.017583212 0.153283
0.19813116 0.09637342 0.07153828 0.16290002 0.18017048 -0.27132824 0.21345389 0.19243106
-0.428129 -0.67240965 -0.02261876 -0.2983092 -0.25954065 0.12920253 0.10436248 -0.24817973
-0.5973325 -0.13642423 -0.046500966 0.14489791 -0.71237516 0.29495117 0.06390874 -0.15670153
-0.39858586 0.42254803 -0.0009773703 0.083005086 0.26935026 0.02654144 -0.027215863 -0.40259913
0.15400718 0.01155105 -0.021180123 -0.3432693 0.15236183 -0.0491918 -0.39706826 0.014446444
0.17819606 0.12516658 0.18235104 0.18207672 -0.24924701 0.016593397 -0.33101356 0.3026513
-0.56364775 -0.08350858 -0.4560273 -0.25101832 0.20260133 -0.029998478 -0.44230103 0.022781178
0.11918806 -0.2583959 -0.12499506 -0.0068155355 -0.021896457 -0.5849458 -0.3505209 -0.095684044
0.53905565 -0.1311331 0.09058889 0.24793354 -0.6062656 0.08921266 0.044011746 0.024164958
-0.19279598 0.08014759 -0.18034531 -0.12875722 0.14630516 -0.15580086 0.1178742 0.03634111
-0.019933356 -0.14202744 -0.06670386 0.07158357 -0.019672701 0.06534617 0.19047664 -0.06427666
0.055176765 -0.123702474 -0.062459234 -0.20753814 -0.11654749 0.012752015 -0.0568823 0.04942608
0.025680164 0.042418905 -0.119335786 -0.038280632 -0.08424647 -0.17909577 0.029457286 0.06913771
-0.27202606 -0.044449165 -0.14674819 -0.34584945 -0.79980487 -0.04588563 0.16797882 -0.07391577
-0.14840804 0.20804414 -0.1717613 0.24923421 0.31709874 0.0022620875 0.23841779 0.35893327
-0.1467042 0.0041537257 0.21017244 -0.21548717 -0.18415254 -0.105896235 -0.000875741 0.17021567
0.19858122 -0.44068646 0.009457519 -0.15847126 0.3332402 -0.05169918 0.2896878 -0.25877067
0.05748356 -0.069596075 -0.17740151 0.1711451 -0.09029465 0.15714297 -0.38200232 -0.58847857
-0.024826849 0.08083108 -0.043809988 -0.032002013 -0.74831 -0.4500775 0.17243785 0.16080517
-0.05706897 -0.26827717 -0.71508765 -0.89077127 -0.6482213 -0.98648274 -0.081112616 0.14207497
-0.17832856 -0.9933056 0.027109219 -1.0286422 -0.71953994 -0.21525878 0.046680555 0.071731076
00000000: 9bc3 04be 2209 373e 1cbc 30be aaa7 aabe
00000010: 327e 003f 7f7c b53d 1067 0f3d 4f6f 8ebc
00000020: 3c79 d1bb c88b bf3d 150e cfbd 9a1b f5bd
00000030: 987c 933d 0876 403e 65a8 7ebe 19ef 01bf
00000040: 78dc 083b d9c5 013d 69a1 dabe c97d 0dbe
00000050: ad01 9cbe 419b 89be 2a79 2e3e cd2f 533e
00000060: a20d adbd f3ec dcbe f31e 9c3c af91 5d3f
00000070: d0af f63d cd1a 573d 12c4 f0be 6f05 12be
00000080: dec4 cfbd bfc4 27bd cbe2 0fbd 3823 9ebf
00000090: 79f8 9e3d 3381 8ebe 01e1 5fbd ba3c 48be
000000a0: b3d3 87be f8a5 333e 90c5 e6ba 022b 05bc
000000b0: c491 5c3e 9bce 163e f2d3 acbd 0f19 723d
000000c0: dd15 e6be 93e6 53bf 24dc 8bbd 9f27 d83c
000000d0: a5dd d7be b682 8e3d 22b3 2338 b19d 0c3e
000000e0: ed0d e3bd 166f e5bc b645 cf3d 2239 e1bd
000000f0: 51cc 97be 4233 cf3e b5ec 6ebe e6d3 1ebe
00000100: e2d8 03bf ea04 ea3d f6e7 943d 68ef 80bc
00000110: 6118 153e f642 2a3e 7752 9e3e 6d2c 3c3d
00000120: 9a1d 933b 8710 4fbe 3590 1abe f9f0 083e
00000130: 1a3c a03d ab1a 0cbe ca5c 1a3e cce3 3f3e
00000140: cb15 1e3e f77b 33bd 0b71 edbb 97e5 2cbe
00000150: c93b a0bd 61ff d8bc ab0a 903c 38f6 1c3e
00000160: e5e2 4a3e 6d5f c53d a982 923d 43cf 263e
00000170: 9c7e 383e 89eb 8abe a893 5a3e a60c 453e
00000180: b933 dbbe 0a23 2cbf fa4a b9bc fcbb 98be
00000190: 83e2 84be ab4d 043e ffbb d53d d422 7ebe
000001a0: c8ea 18bf cbb2 0bbe cc77 3ebd 1e60 143e
000001b0: 385e 36bf d703 973e 96e2 823d 5e76 20be
000001c0: 7213 ccbe 3758 d83e 1b1b 80ba 92fe a93d
000001d0: 47e8 893e 6f6d d93c cdf3 debc 7921 cebe
000001e0: 0fb4 1d3e 9d40 3d3c f081 adbc fec0 afbe
000001f0: bd04 1c3e 577d 49bd 884c cbbe c7b0 6c3c
00000200: 0779 363e ab2b 003e 3bba 3a3e 5272 3a3e
00000210: 9c3a 7fbe e0ee 873c 9c7a a9be 1cf5 9a3e
00000220: 384b 10bf 8c06 abbd 697c e9be 7985 80be
00000230: b976 4f3e 5ebf f5bc 4875 e2be 989f ba3c
00000240: df18 f43d 784c 84be 69fd ffbd db54 dfbb
00000250: 3360 b3bc 02bf 15bf 7a77 b3be fff5 c3bd
00000260: 8dff 093f c147 06be ab86 b93d 4ae2 7d3e
00000270: 3934 1bbf 21b5 b63d a945 343d 97f5 c53c
00000280: 4f6c 45be 6b24 a43d 71ac 38be efd8 03be
00000290: 05d1 153e 438a 1fbe 0768 f13d 6ada 143d
000002a0: 474b a3bc a46f 11be 099c 88bd 689a 923d
000002b0: a528 a1bc 36d4 853d 4f0c 433e 7ba3 83bd
000002c0: 0801 623d b957 fdbd 41d5 7fbd e184 54be
000002d0: 73b0 eebd d4ed 503c 6afd 68bd 0073 4a3d
000002e0: 355f d23c 72bf 2d3d 5266 f4bd 27cc 1cbd
000002f0: 6a89 acbd e264 37be 6850 f13c 1298 8d3d
00000300: 0047 8bbe 5410 36bd 2845 16be 2e13 b1be
00000310: 03c0 4cbf 92f2 3bbd a402 2c3e 2761 97bd
00000320: 47f8 17be 8609 553e 32e2 2fbe 4137 7f3e
00000330: c45a a23e 883f 143b cb23 743e 1ac6 b73e
00000340: a039 16be fa1b 883b 7237 573e aba8 5cbe
00000350: 7c92 3cbe 20e0 d8bd fc91 65ba 044d 2e3e
00000360: e058 4b3e a8a1 e1be b6f3 1a3c 4a46 22be
00000370: 769e aa3e 85c2 53bd f651 943e 977d 84be
00000380: e273 6b3d 6388 8ebd bea8 35be a940 2f3e
00000390: 67ec b8bd 16ea 203e cf95 c3be 88a6 16bf
000003a0: ad61 cbbc c48a a53d 1a72 33bd 8b14 03bd
000003b0: 3f91 3fbf 8f70 e6be 8c93 303e 1caa 243e
000003c0: 27c1 69bd a05b 89be fc0f 37bf 9609 64bf
000003d0: d5f1 25bf 228a 7cbf 5f1e a6bd 1a7c 113e
000003e0: c39b 36be 4749 7ebf 2714 de3c 8caa 83bf
000003f0: c533 38bf cc6c 5cbe 1c34 3f3d bee7 923d

regressors.1.lins.2.bias f4 [32]
0.09266095 0.14790726 0.21994722 0.008561708 -0.17621338 0.16540602 -0.24194199 0.25443777
-0.23088029 -0.16361825 0.29828063 0.17897135 -0.31908202 -0.30702224 0.204151 0.32102922
0.3298146 -0.108007915 0.06745492 -0.024907993 -0.21899919 -0.06008046 -0.086183764 -0.12740926
0.0918864 -0.13766499 -0.0554737 0.101193875 -0.06900744 -0.006425011 -0.0780566 0.03442544
00000000: 06c5 bd3d 0075 173e d839 613e 6846 0c3c
00000010: 4871 34be 3260 293e a4bf 77be ab45 823e
00000020: e26b 6cbe 8b8b 27be 3db8 983e 4444 373e
00000030: b85e a3be 0532 9dbe f60c 513e f15d a43e
00000040: 76dd a83e 4133 ddbd ce25 8a3d d90b ccbc
00000050: 5341 60be ee16 76bd 1d81 b0bd 9377 02be
00000060: f02e bc3d 0df8 0cbe 6438 63bd bc3e cf3d
00000070: c653 8dbd e688 d2bb 24dc 9fbd b101 0d3d

regressors.1.lins.3.weight f4 [1, 32]
0.046948433 -0.07256903 0.12693138 -0.24860907 -0.18879342 0.0074502695 -0.06486563 -0.3071751
-0.11197535 -0.098385915 -0.21825464 -0.26044488 -0.04458922 -0.031319946 -0.10131277 0.04172549
0.10159528 -0.3508889 -0.09377975 -0.13156573 -0.35932532 0.07730539 -0.07618402 -0.08722732
-0.19474863 -0.11414599 -0.03118092 0.028586747 0.05494139 -0.047065835 -0.054205086 -0.14897774
00000000: 004d 403d 129f 94bd 4dfa 013e 6093 7ebe
00000010: 1053 41be 6421 f43b 45d8 84bd 0e46 9dbe
00000020: 5553 e5bd 8e7e c9bd 257e 5fbe 0859 85be
00000030: 30a3 36bd 5849 00bd 127d cfbd 59e8 2a3d
00000040: 3011 d03d b6a7 b3be 990f c0bd 2bb9 06be
00000050: 7df9 b7be 4a52 9e3d 5e06 9cbd 3da4 b2bd
00000060: 2f6c 47be 5fc5 e9bd 216f ffbc c12e ea3c
00000070: 390a 613d 1bc8 40bd 2706 5ebd 9f8d 18be

regressors.2.lins.0.weight f4 [32, 64]
-0.07696766 -0.03051132 -0.08334644 -0.029997885 0.050362617 0.09456207 -0.04535061 0.09408477
-0.038920194 -0.057803065 0.0005274117 0.0067539066 -0.04400471 0.013190895 -0.10728051 0.078945816
0.028473392 -0.09133597 -0.057322815 0.09493047 0.065828264 -0.07795563 -0.06658983 -0.052891538
-0.013197079 0.08831276 0.10131124 0.075757936 -0.045924038 -0.08038728 0.10824327 0.05019994
-0.113719165 -0.06680976 0.018194601 0.12392256 -0.08113234 -0.028697237 2.4974346e-05 -0.060919076
-0.056561917 0.10195324 -0.10176624 -0.09088339 0.011918068 0.030267373 -0.09360947 0.012216002
-0.09958051 0.07751359 -0.07971154 -0.0960899 -0.020071879 -0.0156091 0.055863753 -0.084394395
0.06856012 -0.08316459 0.100103304 0.024799407 0.020345658 0.084905386 -0.012892038 0.08135466
0.11921805 0.104403734 -0.0436247 0.030607581 -0.07498847 0.027799621 -0.10382332 -0.034186795
0.12481725 0.110970035 0.08113305 -0.11388752 0.012380376 -0.06593548 0.060702756 -0.092360914
-0.08540568 -0.053266525 0.047902033 -0.06998727 0.099447966 0.11935748 0.050442904 -0.08905153
0.027179584 0.028199881 -0.09755255 -0.09701975 -0.079640344 -0.056302756 -0.122904435 0.07079309
-0.07382977 0.013680086 -0.100583956 -0.044823423 -0.00667049 0.059234098 -0.0059328377 -0.079633206
0.014258489 -0.055464804 -0.11759943 0.07179314 0.026282474 0.051623702 0.118373394 0.03115806
0.07564865 -0.0055826604 -0.03194271 -0.11469886 0.0069986433 -0.05323887 0.042896375 0.061318725
-0.0959384 -0.07838108 0.044494778 -0.07137576 0.014490977 0.116750196 -0.105493635 -0.04370238
-0.11764184 -0.028058827 0.053964272 -0.03837973 -0.029786184 -0.012267351 -0.05223939 -0.046726137
0.09394041 -0.11072999 0.021024287 0.07942808 0.041784614 -0.08622667 -0.014249116 -0.09466982
0.047992766 -0.07723285 0.0017351657 0.057864636 -0.095271885 0.11460556 0.026716173 -0.05088991
0.035597175 -0.055872962 0.022893906 0.09475054 0.029733434 -0.05231914 -0.045058414 0.074725255
0.023465917 -0.004659623 -0.08750412 -0.049641624 -0.009679049 0.011411682 -0.104640245 0.08581206
0.081752524 0.07509214 0.1138431 0.11654073 -0.073956266 0.12078816 -0.061375335 0.06021878
0.06392291 0.10545914 -0.007840604 0.083018795 0.016911805 0.0193315 0.05931948 -0.068696514
-0.067478344 0.11988093 0.049988285 0.031735286 -0.08216898 0.10162833 -0.08921546 0.07034209
-0.035639375 -0.03848742 0.066912636 0.09542182 0.069987535 -0.03918676 -0.078771025 -0.03272645
0.06787473 0.0018716604 -0.011020079 -0.017228812 -0.11720726 0.105636284 -0.039060533 0.0021849275
0.06736584 0.059834868 0.02627635 -0.048323646 0.10170911 0.058255717 -0.012791753 0.06611787
0.06573346 0.037753403 -0.096473634 -0.067747265 0.12064873 -0.025470853 -0.016255766 0.067396134
-0.0585749 -0.036769524 -0.105981246 -0.012934059 0.0340423 0.1065938 -0.07715915 -0.10403901
-0.0053791255 -0.06396514 -0.04430686 -0.053871155 -0.07980856 0.019152254 0.022878781 0.003765121
0.09590241 -0.013728872 0.08662468 -0.06715371 0.00088115036 0.0077870786 -0.016565904 -0.10937764
-0.088691324 -0.0050058663 -0.005316049 0.10831034 -0.08909659 -0.028098121 0.11846304 -0.0994506
00000000: 38a1 9dbd e0f2 f9bc 8ab1 aabd 20be f5bc
00000010: 0849 4e3d c2a9 c13d 90c1 39bd 84af c03d
00000020: c86a 1fbd e8c2 6cbd 0042 0a3a e04f dd3b
00000030: 483e 34bd a01e 583c e2b5 dbbd 58ae a13d
00000040: 0841 e93c 5a0e bbbd 54cb 6abd e86a c23d
00000050: f8d0 863d 34a7 9fbd 4060 88bd cca4 58bd
00000060: 9038 58bc 52dd b43d 447c cf3d fa26 9b3d
00000070: d81a 3cbd 16a2 a4bd a6ae dd3d 749e 4d3d
00000080: 98e5 e8bd 8ed3 88bd d80c 953c 1ccb fd3d
00000090: b628 a6bd 7816 ebbc 0080 d137 4886 79bd
000000a0: 78ad 67bd dccc d03d d26a d0bd 1221 babd
000000b0: 0044 433c 48f3 f73c 52b6 bfbd a025 483c
000000c0: def0 cbbd 72bf 9e3d ce3f a3bd c8ca c4bd
000000d0: c86d a4bc 50bd 7fbc 64d1 643d f8d6 acbd
000000e0: 4069 8c3d 3252 aabd f602 cd3d 2028 cb3c
000000f0: f0ab a63c e0e2 ad3d 2039 53bc 469d a63d
00000100: 9828 f43d a0d1 d53d d0af 32bd c0bc fa3c
00000110: 8e93 99bd 08bc e33c 52a1 d4bd 7407 0cbd
00000120: 30a0 ff3d 4244 e33d 1629 a63d dc3d e9bd
00000130: 10d7 4a3c 2e09 87bd 74a3 783d b827 bdbd
00000140: 2ce9 aebd 002e 5abd ec34 443d 7c55 8fbd
00000150: 60ab cb3d b271 f43d 389d 4e3d a660 b6bd
00000160: b8a7 de3c 7003 e73c a2c9 c7bd 4ab2 c6bd
00000170: 7a1a a3bd b89d 66bd 52b5 fbbd f8fb 903d
00000180: 1034 97bd 7022 603c f6fe cdbd c498 37bd
00000190: 2094 dabb 749f 723d 4068 c2bb bc16 a3bd
000001a0: 709c 693c 102f 63bd f8d7 f0bd 4808 933d
000001b0: 584e d73c 6073 533d c06d f23d 303f ff3c
000001c0: aeed 9a3d c0ee b6bb 5cd6 02bd 3ce7 eabd
000001d0: e054 e53b 0011 5abd 1cb4 2f3d 5829 7b3d
000001e0: 5a7b c4bd 4286 a0bd 2840 363d 742d 92bd
000001f0: 906b 6d3c ba1a ef3d 0c0d d8bd 4401 33bd
00000200: 34ee f0bd a0db e5bc a409 5d3d 1034 1dbd
00000210: 2802 f4bc 00fd 48bc f8f8 55bd e863 3fbd
00000220: d463 c03d 68c6 e2bd 203b ac3c 30ab a23d
00000230: 5826 2b3d 9c97 b0bd 2075 69bc 40e2 c1bd
00000240: 1094 443d 422c 9ebd 806e e33a 7803 6d3d
00000250: e81d c3bd 52b6 ea3d e0db da3c f071 50bd
00000260: 58ce 113d 0cdb 64bd 008c bb3c 920c c23d
00000270: 8893 f33c 984c 56bd 2c8f 38bd 8e09 993d
00000280: 983b c03c c0af 98bb 5c35 b3bd 0455 4bbd
00000290: e094 1ebc 10f8 3a3c a04d d6bd 3cbe af3d
000002a0: de6d a73d e8c9 993d 9226 e93d e8ac ee3d
000002b0: 6276 97bd c85f f73d b464 7bbd f8a7 763d
000002c0: 04ea 823d f6fa d73d e075 00bc c205 aa3d
000002d0: a08a 8a3c 185d 9e3c fcf8 723d c2b0 8cbd
000002e0: 1632 8abd 2284 f53d 84c0 4c3d dcfc 013d
000002f0: 3648 a8bd 8422 d03d 98b6 b6bd 840f 903d
00000300: 98fa 11bd fca4 1dbd 7e09 893d 846c c33d
00000310: a055 8f3d 4c82 20bd b452 a1bd 2c0c 06bd
00000320: e801 8b3d 8052 f53a 908d 34bc 7023 8dbc
00000330: 5c0a f0bd d657 d83d f0fd 1fbd 0031 0f3b
00000340: 1af7 893d 6815 753d 8041 d73c 04ef 45bd
00000350: de4c d03d 8c9d 6e3d 8094 51bc ce68 873d
00000360: 449f 863d 50a3 1a3d f893 c5bd 14bf 8abd
00000370: ae16 f73d 40a8 d0bc d02a 85bc fc06 8a3d
00000380: 3cec 6fbd a49b 16bd b20c d9bd 60e9 53bc
00000390: f06f 0b3d da4d da3d 9e05 9ebd 6812 d5bd
000003a0: 6043 b0bb 2800 83bd 1c7b 35bd 00a8 5cbd
000003b0: ac72 a3bd 30e5 9c3c 486c bb3c 40c0 763b
000003c0: 7c68 c43d 10ef 60bc 4868 b13d e287 89bd
000003d0: 00fd 663a c02a ff3b 38b5 87bc 6201 e0bd
000003e0: cca3 b5bd 4008 a4bb 4032 aebb d0d1 dd3d
000003f0: 4678 b6bd 082e e6bc c09c f23d c2ac cbbd
