baseline/DLPL-CAP/models_dlpl-cap-regressor/sandwich+ultra8t_to_ssram+digtime+timing_ctrl+array_128_32_8t/dlpl-cap-regressor_nh_2_tsk_regression_ngl_4_nhl_4_hd_32_us_1_bn_0_dp_0.0_epoch_6_20250402_140718.pth (torch, 64102 bytes, 21 tensors)

regressors.0.lins.0.weight f4 [32, 64]
-0.093459226 -0.0049587786 0.029881565 0.06213109 0.1514714 0.037738975 0.08175175 -0.020816471
-0.2655434 -0.007070108 -0.46178785 0.0810625 -0.05910968 0.035853203 -0.16599995 -0.1419669
-0.10889185 0.09325727 0.20090635 -0.1771204 -0.053198323 -0.016253099 -0.048152376 -0.13888444
0.09536904 -0.15496415 0.001673815 -0.08251421 -0.11454718 0.13872439 -0.10327305 0.0034556466
-0.077080496 -0.011793062 -0.025828224 0.019791223 -0.036031097 0.106339104 0.09527933 0.20868726
0.013746678 0.19569145 0.19224378 0.118976064 -0.14817363 0.16378361 -0.27545294 0.09248565
-0.08570913 -0.8923282 -0.23625764 -0.27264917 -0.07696642 0.04601714 -0.06682538 -0.05601006
-0.14898786 -0.10947894 0.029337808 -0.09101283 -0.11956468 0.16893277 0.11300291 -0.22071692
-0.11741411 -0.017723769 -0.102336675 -0.0377886 0.0814956 -0.038372383 -0.044595074 0.08335657
-0.06477952 -0.011908561 -0.029589765 0.016291609 -0.14839466 -0.049593765 0.07596949 0.07079045
0.009185332 -0.13440864 -0.09029673 -0.12175867 0.09789753 0.01002565 -0.042292874 0.052726425
-0.068639584 0.00568241 0.079297885 -0.0673818 -0.021330968 -0.07802406 0.062487766 0.04153057
-0.12716368 -0.056174427 -0.098472044 0.116994806 -0.14491303 0.033407915 -0.047810636 -0.0795462
-0.090185 0.06558341 -0.08928017 -0.124002315 -0.05657576 0.050264012 -0.07529822 -0.13209093
0.07124831 -0.13299935 -0.11651166 0.039525867 0.027275667 -0.11301844 -0.058897592 0.07400954
-0.072195604 0.041220855 0.026132196 0.10391379 0.10782866 -0.039587177 0.039115295 -0.10736222
0.025290584 0.078885734 -0.1350014 -0.056224935 0.112775795 0.023206491 0.19337575 -0.001179268
-0.22419392 0.046364076 -0.20106915 -0.066371426 -0.1920886 0.06715213 0.19319439 -0.083314
-0.2720241 -0.18667695 -0.02611812 0.090963006 0.07665396 -0.03929548 0.120827176 0.043921538
0.080359526 0.16495752 -0.05615496 -0.12523106 0.055635616 -0.2906875 -0.06664626 0.038403805
0.09326261 -0.07621251 0.15711145 -0.012860079 -0.053699657 -0.06917038 0.025641687 -0.3510726
0.09190232 0.13441412 0.07912161 -0.05085453 0.23032913 -0.10618359 0.062169485 -0.00058365206
0.0021933962 0.10398688 -0.067515515 0.043850232 0.1151984 0.007887557 0.071551934 -0.11678599
-0.14232756 -0.1449433 -0.08456604 -0.14384662 0.1074584 0.09519402 0.021573216 -0.21042433
-0.085296184 0.020865679 -0.22855002 -0.0325879 -0.014389749 -0.14882982 -0.051406544 0.057274383
0.16537455 -0.30910507 0.112761036 -0.10127549 -0.16058399 0.06566892 -0.57911927 -0.055630818
-0.29493764 -0.02456597 -0.22541337 0.05627657 -0.080139294 0.12462273 -0.1237976 0.14291269
0.0053495606 0.037547566 0.11871629 0.043040227 0.015551403 -0.16953844 -0.091207385 0.018510021
0.021579528 -0.023796096 -0.07135348 0.019649586 0.0019713894 -0.1794731 -0.046537083 0.13359375
-0.016697818 -0.12772302 -0.0254572 0.054399665 -0.08682427 0.18867953 -0.66083366 0.08053944
0.11526794 -0.10165789 -0.018221326 0.11695262 0.07683091 -0.04933463 -0.06843816 0.18300624
0.15034051 0.24945281 -0.036321238 0.07206608 0.10159175 0.19121666 0.12027314 0.0017378181
00000000: 8d67 bfbd 407d a2bb 2fca f43c 2b7d 7e3d
00000010: 521b 1b3e 2f94 1a3d 766d a73d 4e87 aabc
00000020: 4ef5 87be 5dac e7bb 756f ecbe 1904 a63d
00000030: fe1c 72bd cfda 123d e4fb 29be c55f 11be
00000040: b102 dfbd abfd be3d 65ba 4d3e 0d5f 35be
00000050: 7ce6 59bd 3825 85bc 6d3b 45bd b937 0ebe
00000060: d850 c33d ecae 1ebe e963 db3a 36fd a8bd
00000070: b697 eabd c40d 0e3e d280 d3bd 2178 623b
00000080: 61dc 9dbd b037 41bc b695 d3bc 3421 a23c
00000090: 5895 13bd 51c8 d93d cf21 c33d 1db2 553e
000000a0: bf39 613c 5763 483e 8edb 443e b9a9 f33d
000000b0: d4ba 17be e4b6 273e 2b08 8dbe 1e69 bd3d
000000c0: 4588 afbd 9f6f 64bf 86ed 71be ac98 8bbe
000000d0: 92a0 9dbd 787c 3c3d bfdb 88bd ce6a 65bd
000000e0: 4690 18be 7f36 e0bd d855 f03c ef64 babd
000000f0: 54de f4bd b6fc 2c3e 126e e73d 9e03 62be
00000100: cf76 f0bd 7031 91bc e495 d1bd 38c8 1abd
00000110: 2ae7 a63d 5c2c 1dbd 53a9 36bd d9b6 aa3d
00000120: 20ab 84bd 201c 43bc 3c66 f2bc fb75 853c
00000130: c5f4 17be d522 4bbd e495 9b3d 95fa 903d
00000140: 137e 163c 6ba2 09be 7eed b8bd 9c5c f9bd
00000150: 807e c83d a042 243c 4b3b 2dbd aaf7 573d
00000160: e992 8cbd 8333 ba3b ee66 a23d 78ff 89bd
00000170: 48be aebc 14cb 9fbd 2cf3 7f3d f51b 2a3d
00000180: 3237 02be 2817 66bd b6ab c9bd f99a ef3d
00000190: 1564 14be bdd6 083d 16d5 43bd 1ee9 a2bd
000001a0: eab2 b8bd 9850 863d 86d8 b6bd edf4 fdbd
000001b0: fcbb 67bd a3e1 4d3d f435 9abd d842 07be
000001c0: a2ea 913d fb30 08be aa9d eebd e0e5 213d
000001d0: 3871 df3c 3676 e7bd 9a3e 71bd 5092 973d
000001e0: 4adb 93bd 33d7 283d 3013 d63c c1d0 d43d
000001f0: 46d5 dc3d 2a26 22bd 5c37 203d b9e0 dbbd
00000200: 332e cf3c d88e a13d cf3d 0abe 1e4c 66bd
00000210: fff6 e63d 8a1b be3c 4b04 463e ab91 9aba
00000220: 1793 65be 42e8 3d3d 12e5 4dbe beed 87bd
00000230: e0b2 44be 0e87 893d c0d4 453e 88a0 aabd
00000240: be46 8bbe 3e28 3fbe abf5 d5bc d04a ba3d
00000250: c0fc 9c3d 4cf4 20bd 3d74 f73d 12e7 333d
00000260: 8993 a43d a0ea 283e be02 66bd 923c 00be
00000270: 2ce2 633d fed4 94be d67d 88bd 4f4d 1d3d
00000280: 7800 bf3d 4e15 9cbd d3e1 203e 15b3 52bc
00000290: 2cf4 5bbd 33a9 8dbd 840e d23c cabf b3be
000002a0: 4937 bc3d dba3 093e 830a a23d d74c 50bd
000002b0: 66db 6b3e c876 d9bd 6ea5 7e3d 3a00 19ba
000002c0: 15bf 0f3b 13f7 d43d 9345 8abd 4d9c 333d
000002d0: 24ed eb3d d03a 013c d289 923d 7e2d efbd
000002e0: 51be 11be 046c 14be f630 adbd 874c 13be
000002f0: 2613 dc3d 15f5 c23d 50ba b03c 7a79 57be
00000300: c4af aebd 80ee aa3c 0409 6abe e47a 05bd
00000310: fbc2 6bbc d866 18be ab8f 52bd 8b98 6a3d
00000320: f257 293e 0543 9ebe 42ef e63d 8669 cfbd
00000330: 2170 24be 6d7d 863d 2941 14bf 24dd 63bd
00000340: 1102 97be 933e c9bc c3d2 66be 4382 663d
00000350: 1220 a4bd 343a ff3d 9989 fdbd b457 123e
00000360: 5e4b af3b 7acb 193d 8721 f33d f34a 303d
00000370: 50cb 7e3c 7c9b 2dbe f0ca babd 54a2 973c
00000380: 8dc7 b03c 08f0 c2bc c621 92bd 2bf8 a03c
00000390: 6d32 013b ccc7 37be ab9d 3ebd cdcc 083e
000003a0: ddc9 88bc d3c9 02be 9e8b d0bc 2fd2 5e3d
000003b0: ecd0 b1bd 3535 413e 652c 29bf ddf1 a43d
000003c0: 9911 ec3d 0332 d0bd e444 95bc db84 ef3d
000003d0: 8659 9d3d 1c13 4abd 4e29 8cbd fd65 3b3e
000003e0: ddf2 193e 8f70 7f3e 94c5 14bd 6297 933d
000003f0: 560f d03d 4dce 433e c451 f63d 80c7 e33a

regressors.0.lins.0.bias f4 [32]
-0.0076010795 -0.102653876 0.115111284 -0.08334056 0.1390659 0.032408867 0.09141889 0.162833
0.14675818 0.06365843 0.09088327 -0.060993377 -0.022137664 -0.06805197 -0.00020826756 -0.015076452
-0.03247894 -0.114433594 -0.090003625 0.14712623 -0.08715579 0.21350251 0.15691023 -0.11324347
-0.041814838 -0.06138882 0.17367317 -0.0099101765 0.16983917 -0.10697749 0.10517865 -0.14352825
00000000: 7a12 f9bb 323c d2bd 77bf eb3d 75ae aabd
00000010: 4b67 0e3e 29bf 043d d439 bb3d b2bd 263e
00000020: c747 163e 5a5f 823d 0221 ba3d 31d4 79bd
00000030: 0c5a b5bc d55e 8bbd 6662 5ab9 3903 77bc
00000040: a308 05bd 295c eabd d253 b8bd 42a8 163e
00000050: bc7e b2bd 67a0 5a3e 13ad 203e 31ec e7bd
00000060: 0946 2bbd d872 7bbd 61d7 313e 4b5e 22bc
00000070: 52ea 2d3e 0417 dbbd e767 d73d 12f9 12be

regressors.0.lins.1.weight f4 [32, 32]
-0.35768026 0.008924016 -0.062668584 0.120798364 -0.19913065 -0.19136032 0.07804681 -0.46589208
-0.15719834 0.15999173 -0.20593168 -0.13601522 -0.004829682 -0.14228226 0.054464944 -0.0009814372
0.039604064 0.112547405 -0.12593196 -0.13768311 -0.42412853 0.004981277 -0.32714766 0.20133345
0.008900676 0.0026940047 -0.028264692 -0.09076215 -0.085988104 -0.15316404 -0.16356114 0.29660204
-0.27428964 -0.13662228 0.029872142 -0.29336944 0.24978718 -0.05559101 -0.031121884 -0.071779445
0.16948162 0.025057772 0.11196277 -0.051731296 0.07308929 -0.018952072 -0.02022657 0.16283877
0.111599915 -0.20440081 -0.0494074 -0.11028471 0.15584223 0.1009728 -0.22102255 -0.117371514
-0.08523744 0.07543682 -0.0148247145 -0.27143782 0.032118637 0.36945683 0.068438426 0.17526726
0.14581783 -0.022590099 -0.13585933 -0.045789223 -0.34929907 0.101446606 -0.26534042 0.09063889
0.0963225 -0.2424736 -0.12427561 0.069408186 -0.2533414 -0.296433 -0.08198909 -0.28796118
-0.026749179 0.110680066 -0.05489637 -0.02529238 -0.30568913 -0.07967948 0.07679059 0.050753232
-0.107270256 -0.05911442 0.13620776 -0.053632654 0.041417964 -0.030775314 -0.22572963 -0.21284893
0.06383023 0.027994707 0.110941745 0.12748468 -0.12704405 -0.21608517 -0.21967828 -0.1468745
-0.062086888 -0.17549273 -0.021910243 0.18849146 -0.15682296 -0.24385685 -0.15251468 -0.07822972
0.06525103 0.01451145 0.017778581 -0.48454428 -0.16511428 -0.13052522 0.08961076 0.09167627
-0.29881915 -0.038789038 -0.31903264 -0.17917837 -0.1580352 0.004497002 -0.023548296 -0.24447404
0.09027902 0.008708495 0.050568637 -0.0021461155 -0.025207454 0.21508762 0.070418805 0.03217255
0.048309583 0.09635604 0.068050675 0.022629807 0.0077788346 0.014527071 0.1766653 0.040865056
-0.11382619 -0.09264943 0.16027363 0.09784386 -0.188621 -0.041692406 -0.25249788 -0.00881833
-0.026376255 -0.0320221 -0.04218322 -0.15395203 0.052487865 0.15709879 -0.14332882 -0.08404302
-0.44329616 0.14151119 -0.5520405 -0.043887578 0.037310373 0.29072064 -0.028652698 -0.23386131
0.1302761 0.05579999 0.072882235 -0.012311163 0.28952298 0.019772353 -0.09706128 0.12036266
-0.11310668 0.051018763 -0.19947648 -0.17339326 0.0041547497 -0.097182676 0.014626831 -0.21220365
0.07156192 -0.059134077 0.14804132 -0.15852773 0.0061166477 0.1091739 0.14807823 0.022950321
-0.0011014679 -0.08781553 0.114362225 -0.25081956 -0.14409217 0.2135783 0.1242191 -0.08957299
-0.09064239 0.097180106 0.04003599 -0.24418786 -0.21562132 0.058482394 0.13035338 0.13399872
-0.18446824 0.08738377 0.12776464 -0.05851897 0.086691774 -0.27874216 -0.16146198 0.1790432
-0.090571515 0.028487744 0.081846096 0.033882737 -0.010166034 -0.17476505 0.1169518 -0.079975024
-0.1400546 -0.09791021 0.06273576 0.06624584 0.019555954 -0.12584905 -0.1560638 0.07610141
0.01273493 0.01649196 0.01921534 -0.22957078 -0.1568475 0.11752023 0.15382509 0.20411454
-0.095916495 -0.06555747 -0.08741861 0.20540835 -0.080169246 -0.10453575 0.1336339 -0.42922562
0.11615167 -0.036313467 -0.060851373 -0.046157796 -0.19400954 0.26790234 0.13488752 -0.038779847
00000000: de21 b7be 0936 123c 6358 80bd 2265 f73d
00000010: e8e8 4bbe f6f3 43be 02d7 9f3d 6889 eebe
00000020: 9af8 20be dfd4 233e c1df 52be 9347 0bbe
00000030: 4f42 9ebb 71b2 11be a216 5f3d 91a3 80ba
00000040: df37 223d 417f e63d 4ff4 00be cdfc 0cbe
00000050: 6027 d9be fb39 a33b e67f a7be 5b2a 4e3e
00000060: 24d4 113c e68d 303b 5b8b e7bc 82e1 b9bd
00000070: 881a b0bd 09d7 1cbe 927c 27be 39dc 973e
00000080: b16f 8cbe b6e6 0bbe 6cb6 f43c 8534 96be
00000090: 36c8 7f3e 66b3 63bd 52f3 febc 1a01 93bd
000000a0: 978c 2d3e f545 cd3c bd4c e53d 32e4 53bd
000000b0: d6af 953d 6041 9bbc 31b2 a5bc 35bf 263e
000000c0: 7f8e e43d 724e 51be 6a5f 4abd f3dc e1bd
000000d0: 1b95 1f3e d4ca ce3d bc53 62be 7a60 f0bd
000000e0: f890 aebd 9f7e 9a3d 5ce3 72bc e6f9 8abe
000000f0: d58e 033d 7229 bd3e 7229 8c3d 4379 333e
00000100: 4551 153e df0e b9bc b51e 0bbe 7b8d 3bbd
00000110: 54d7 b2be 3dc3 cf3d b3da 87be e2a0 b93d
00000120: bb44 c53d 004b 78be 3684 febd e125 8e3d
00000130: f7b5 81be 11c6 97be e5e9 a7bd a66f 93be
00000140: 1821 dbbc 3bac e23d 04db 60bd f731 cfbc
00000150: 4983 9cbe ff2e a3bd 6344 9d3d 9fe2 4f3d
00000160: 82b0 dbbd f621 72bd 0c7a 0b3e eaad 5bbd
00000170: e2a5 293d 831c fcbc ab25 67be 12f5 59be
00000180: 6cb9 823d 2855 e53c 6d35 e33d 588b 023e
00000190: d617 02be 6e45 5dbe 58f3 60be 4566 16be
000001a0: d24e 7ebd 5eb4 33be 1c7d b3bc e803 413e
000001b0: 3396 20be 9cb5 79be cf2c 1cbe e736 a0bd
000001c0: 55a2 853d 6fc1 6d3c 63a4 913c 3016 f8be
000001d0: b813 29be 67a8 05be d985 b73d c5c0 bb3d
000001e0: d3fe 98be 41e1 1ebd 3f58 a3be 897a 37be
000001f0: fbd3 21be 965b 933b 5be8 c0bc 6757 7abe
00000200: 35e4 b83d 13ae 0e3c 0f21 4f3d d8a5 0cbb
00000210: dd7f cebc ee3f 5c3e bc37 903d 5dc7 033d
00000220: 45e0 453d 5156 c53d 275e 8b3d 2562 b93c
00000230: 98e5 fe3b f402 6e3c c0e7 343e 1e62 273d
00000240: b51d e9bd fcbe bdbd c51e 243e 5d62 c83d
00000250: dd25 41be a8c5 2abd 6747 81be c27a 10bc
00000260: 0413 d8bc 9b29 03bd 50c8 2cbd 9aa5 1dbe
00000270: 84fd 563d 81de 203e cac4 12be bf1e acbd
00000280: b7f7 e2be 4fe8 103e 8752 0dbf 76c3 33bd
00000290: c3d2 183d 56d9 943e 10b9 eabc 5779 6fbe
000002a0: 1967 053e 888e 643d 4843 953d c3b4 49bc
000002b0: 5b3c 943e a1f9 a13c 10c8 c6bd b380 f63d
000002c0: 7aa4 e7bd 0df9 503d 9043 4cbe 018e 31be
000002d0: 9124 883b b607 c7bd 60a5 6f3c ea4b 59be
000002e0: 0e8f 923d 9336 72bd 2598 173e 1855 22be
000002f0: 296e c83b 9196 df3d d2a1 173e 5002 bc3c
00000300: 215f 90ba a1d8 b3bd be36 ea3d 6c6b 80be
00000310: e68c 13be 45b4 5a3e 9566 fe3d 0b72 b7bd
00000320: b8a2 b9bd 5d06 c73d c7fc 233d 620c 7abe
00000330: d6cb 5cbe 3c8b 6f3d 5b7b 053e f636 093e
00000340: 3ee5 3cbe 43f6 b23d bcd4 023e 96b1 6fbd
00000350: 758b b13d 4bb7 8ebe 4a56 25be 1a57 373e
00000360: 8f7d b9bd 215f e93c ed9e a73d a0c8 0a3d
00000370: 708f 26bc 9cf5 32be 6d84 ef3d f2c9 a3bd
00000380: 796a 0fbe 2685 c8bd 9b7b 803d e6ab 873d
00000390: cf33 a03c 93de 00be 30cf 1fbe 0edb 9b3d
000003a0: 2ba6 503c 261a 873c 7d69 9d3c 9a14 6bbe
000003b0: a29c 20be 72ae f03d 5384 1d3e 6703 513e
000003c0: de6f c4bd ff42 86bd 8708 b3bd 9156 523e
000003d0: c62f a4bd d716 d6bd 53d7 083e 76c3 dbbe
000003e0: ede0 ed3d 6ebd 14bd 4a3f 79bd f50f 3dbd
000003f0: 70aa 46be 7f2a 893e f41f 0a3e 9ed7 1ebd

regressors.0.lins.1.bias f4 [32]
-0.018187664 -0.10550822 -0.052958906 -0.10055351 -0.10527117 -0.19029933 -0.04374571 0.0051310584
0.10172272 0.08102669 0.165068 -0.09455593 -0.24057901 0.014131716 0.1828133 -0.05021518
-0.11943583 0.32281148 0.07327725 0.06613326 0.3033914 0.00017845364 -0.29883587 -0.008051338
-0.11984543 -0.13640952 0.019215759 -0.17525199 0.16521089 0.058724523 0.16474228 0.19011445
00000000: 4cfe 94bc b214 d8bd 70eb 58bd 00ef cdbd
00000010: 6998 d7bd d4dd 42be b42e 33bd 7022 a83b
00000020: 0054 d03d 52f1 a53d 9607 293e 8aa6 c1bd
00000030: 585a 76be b788 673c 6933 3b3e 6fae 4dbd
00000040: c69a f4bd 8c47 a53e 6212 963d e070 873d
00000050: 1e56 9b3e 491f 3b39 0401 99be c2e9 03bc
00000060: 8571 f5bd f0ae 0bbe 5e6a 9d3c 4275 33be
00000070: 0b2d 293e 2089 703d 33b2 283e 5dad 423e

regressors.0.lins.2.weight f4 [32, 32]
0.149798 0.10554538 -0.06830978 -0.07156592 -0.0036311827 -0.16705506 -0.103000514 -0.10066096
0.1371529 -0.105489366 -0.109314404 -0.13086642 -0.017650656 -0.10532687 -0.15690514 0.1712681
-0.06719177 -0.013046093 0.023194633 0.009438892 0.051328603 0.07900612 -0.067185596 -0.07045069
-0.020712331 -0.1660615 -0.09384482 0.07627707 -0.0021223677 -0.11917375 -0.11488209 -0.056698933
0.07278282 0.21052514 -0.14918563 0.03778053 -0.16582523 0.0865243 -0.075951345 -0.04248527
0.049061593 -0.035721514 -0.22428727 0.06783146 -0.0029843124 -0.22373408 -0.020181626 0.11022896
0.3143148 -0.1891684 -0.12569156 0.1707328 0.11102023 -0.0046844343 -0.081988476 0.14090401
-0.01935048 0.12970002 -0.33940354 -0.1936544 -0.020778803 -0.034855306 -0.031159308 -0.11570812
0.09309772 -0.17872426 -0.048470274 -0.32459903 0.04035569 0.06575074 -0.2574645 -0.21431431
-0.25301346 0.16222763 0.0097470265 0.17350139 0.12552133 -0.031716846 -0.11996906 0.27509218
0.21284236 -0.038115785 -0.14584675 -0.08815046 0.055571742 0.058031157 0.28061372 0.21238248
-0.37194186 0.15909944 0.17570323 -0.058716815 -0.07263139 0.19684888 0.15817206 0.06359543
-0.084000394 -0.068572134 -0.18047094 -0.034899667 -0.12894021 0.120394856 -0.026943605 0.04834677
0.0917312 0.06787144 0.039888304 -0.019071648 -0.032880176 -0.15499902 -0.13127641 -0.006035781
0.14971787 -0.029058877 0.0541824 0.073093235 -0.1740859 0.11836055 0.057667483 -0.062824465
-0.11796661 -0.13341822 -0.07560898 -0.0877894 -0.05154404 0.090880156 -0.1256106 -0.12364333
-0.11787766 -0.106845565 0.005382287 -0.08407615 -0.10788589 0.1386316 -0.05595812 -0.15260255
0.08365741 -0.05548748 -0.12780505 0.13527136 -0.060693458 -0.15472361 -0.008546019 -0.049436715
0.123707116 0.086849175 -0.026296148 -0.050678592 0.04292445 0.026166998 -0.11757396 0.044627067
0.04208811 0.23067303 -0.1666576 -0.13810858 -0.14400578 -0.21342304 -0.06368571 0.03705581
-0.104614496 0.11493205 0.089233756 0.100715905 -0.19607061 0.048390154 0.050472934 0.034588575
-0.14539768 0.05887338 -0.02070911 0.00409039 0.14179452 -0.031004181 -0.10175163 -0.1283254
-0.19030942 -0.12139713 0.14815396 0.084614694 0.05017234 0.048527174 0.02766688 -0.13994189
0.0232292 -0.07484193 0.009611999 0.051094424 -0.15396735 -0.17766297 -0.19999878 -0.015161645
0.014943376 0.044550844 0.17519009 -0.051886823 -0.21082246 -0.11893326 0.025071923 -0.05065859
-0.5992731 -0.14152531 -0.057969023 0.07673744 0.19052467 -0.16991688 0.0013211888 0.13079098
-0.31578174 0.0704901 0.040309735 -0.046266492 -0.07286433 0.082566485 -0.020741418 -0.09657935
-0.048521943 -0.06596699 0.042284265 -0.16012205 -0.1583298 0.05751556 0.049717087 -0.00373032
-0.3064476 -0.29467484 -0.18092802 0.018249052 -0.044657763 -0.008111096 0.118302405 -0.08208113
0.015436848 0.070447095 0.026189318 -0.11725671 -0.056438513 -0.2619442 -0.04336902 0.058604565
-0.14772753 0.0068667224 -0.21172498 -0.13135813 -0.17328894 0.037863214 0.39637974 0.111876264
-0.3255795 -0.084737614 0.13453142 0.06318608 -0.04891015 -0.015537528 0.120620765 -0.1690896
00000000: a664 193e 2d28 d83d ffe5 8bbd 2791 92bd
00000010: 23f9 6dbb 7b10 2bbe eff1 d2bd 5527 cebd
00000020: cf71 0c3e cf0a d8bd 3be0 dfbd d901 06be
00000030: 1c98 90bc 9db5 d7bd beab 20be e860 2f3e
00000040: d79b 89bd 48bf 55bc ac02 be3c 95a5 1a3c
00000050: f13d 523d f6cd a13d 9a98 89bd 7448 90bd
00000060: e8ac a9bc 070c 2abe b731 c0bd 2737 9c3d
00000070: 6c17 0bbb 5e11 f4bd 4d47 ebbd 243d 68bd
00000080: 290f 953d e793 573e 1ec4 18be c2bf 1a3d
00000090: 17ce 29be a733 b13d 618c 9bbd 0905 2ebd
000000a0: cff4 483d b950 12bd 90ab 65be 38eb 8a3d
000000b0: 7494 43bb 8c1a 65be f053 a5bc b9bf e13d
000000c0: dfed a03e 5cb5 41be 4ab5 00be 94d4 2e3e
000000d0: 935e e33d e27f 99bb 93e9 a7bd 2449 103e
000000e0: e684 9ebc 15d0 043e 4dc6 adbe 574d 46be
000000f0: 4f38 aabc 70c4 0ebd ce41 ffbc 61f8 ecbd
00000100: 04aa be3d 7e03 37be c488 46bd d831 a6be
00000110: 024c 253d 53a8 863d 63d2 83be 3675 5bbe
00000120: fb8a 81be 001f 263e feb1 1f3c 59aa 313e
00000130: aa88 003e 86e9 01bd 57b2 f5bd e2d8 8c3e
00000140: 59f3 593e 4c1f 1cbd da58 15be 3a88 b4bd
00000150: 329f 633d 14b2 6d3d 9aac 8f3e cb7a 593e
00000160: 2a6f bebe f7ea 223e 8ceb 333e 0b81 70bd
00000170: c4bf 94bd c192 493e dbf7 213e 523e 823d
00000180: 6608 acbd 8c6f 8cbd 60cd 38be f4f2 0ebd
00000190: e708 04be 9491 f63d d6b8 dcbc 4307 463d
000001a0: 91dd bb3d 2e00 8b3d eb61 233d 253c 9cbc
000001b0: 5dad 06bd 10b8 1ebe 536d 06be cdc7 c5bb
000001c0: a44f 193e e20c eebc 5dee 5d3d e8b1 953d
000001d0: 9343 32be 0467 f23d bd34 6c3d 1daa 80bd
000001e0: 7a98 f1bd c99e 08be e2d8 9abd eeca b3bd
000001f0: d81f 53bd 601f ba3d 11a0 00be b738 fdbd
00000200: d869 f1bd d9d1 dabd e55d b03b 1e30 acbd
00000210: 47f3 dcbd 71f5 0d3e 5734 65bd d843 1cbe
00000220: 9454 ab3d d746 63bd 54df 02be 9384 0a3e
00000230: b499 78bd de6f 1ebe 9a04 0cbc 277e 4abd
00000240: 285a fd3d fbdd b13d 056b d7bc 5b94 4fbd
00000250: 8cd1 2f3d 2c5c d63c 9eca f0bd dfca 363d
00000260: 9564 2c3d 8d35 6c3e 4aa8 2abe 566c 0dbe
00000270: 4076 13be 928b 5abe a76d 82bd d5c7 173d
00000280: 2040 d6bd 7f61 eb3d 30c0 b63d 2444 ce3d
00000290: bcc6 48be c134 463d b5bc 4e3d c0ac 0d3d
000002a0: 21e3 14be 3725 713d 27a6 a9bc ae08 863b
000002b0: 9532 113e 7bfc fdbc 2963 d0bd bc67 03be
000002c0: 79e0 42be 0f9f f8bd acb5 173e 784a ad3d
000002d0: 8381 4d3d 6ec4 463d a7a5 e23c ed4c 0fbe
000002e0: 2a4b be3c ba46 99bd a57b 1d3c 6348 513d
000002f0: 9ea9 1dbe 48ed 35be 7bcc 4cbe 8c68 78bc
00000300: 10d5 743c f27a 363d 0865 333e 4787 54bd
00000310: d8e1 57be 4893 f3bd a263 cd3c 627f 4fbd
00000320: f669 19bf 03ec 10be ed70 6dbd 8528 9d3d
00000330: e618 433e b1fe 2dbe bd2b ad3a 12ee 053e
00000340: 25ae a1be 1d5d 903d d21b 253d ef81 3dbd
00000350: e539 95bd 9e18 a93d e8e9 a9bc 65cb c5bd
00000360: f2be 46bd b419 87bd 4432 2d3d 09f7 23be
00000370: 3521 22be 7095 6b3d 25a4 4b3d 6278 74bb
00000380: b3e6 9cbe 9fdf 96be 3245 39be 097f 953c
00000390: 0feb 36bd 67e4 04bc 8848 f23d 271a a8bd
000003a0: d5ea 7c3c 9146 903d fb8a d63c 4924 f0bd
000003b0: 122c 67bd 8d1d 86be b7a3 31bd 570b 703d
000003c0: e345 17be 3e02 e13b 6fce 58be bf82 06be
000003d0: a872 31be 7516 1b3d 49f2 ca3e 621f e53d
000003e0: 5bb2 a6be ea8a adbd 9bc2 093e b467 813d
000003f0: 0256 48bd 1e91 7ebc 0508 f73d d325 2dbe

regressors.0.lins.2.bias f4 [32]
-0.1551843 0.014082455 -0.2639379 -0.07337477 -0.13936363 0.030257503 0.13459483 -0.24594264
-0.1382557 0.15964715 0.054742955 -0.04846495 0.32223392 0.2867402 -0.11413775 0.10008177
0.24191867 -0.05963039 -0.17659174 0.20666881 -0.1884529 0.18029878 -0.16837217 -0.09352895
-0.08636108 -0.13632447 0.0036925764 0.19379012 0.026546206 0.021632403 0.24099298 0.062367562
00000000: a2e8 1ebe 19ba 663c de22 87be 8345 96bd
00000010: 57b5 0ebe 95de f73c 3ad3 093e 63d8 7bbe
00000020: e792 0dbe 8b7a 233e 263a 603d 2f83 46bd
00000030: d8fb a43e 9dcf 923e 0dc1 e9bd acf7 cc3d
00000040: 87b9 773e ff3e 74bd 77d4 34be fda0 533e
00000050: ccf9 40be 3ea0 383e c169 2cbe 1b8c bfbd
00000060: 14de b0bd a498 0bbe 27ff 713b eb70 463e
00000070: 6e77 d93c 7036 b13c ddc6 763e 2175 7f3d

regressors.0.lins.3.weight f4 [1, 32]
0.11898772 -0.15745844 -0.2266497 -0.13684914 -0.12271576 -0.031957883 0.11379276 -0.0025488818
0.09756129 0.057122245 0.04073237 -0.14317013 0.21070012 0.16316529 -0.15299742 -0.08087602
0.10251099 -0.016935626 -0.046646155 0.05535624 -0.21390969 0.1313749 0.108655125 0.062467877
0.020469368 -0.07161345 -0.022309327 0.14001024 0.0026036988 0.13440807 0.06775453 -0.060167037
00000000: d5af f33d c93c 21be dc16 68be 2e22 0cbe
00000010: 6652 fbbd 45e6 02bd 2e0c e93d 240b 27bb
00000020: 37ce c73d 04f9 693d fcd6 263d 319b 12be
00000030: c6c1 573e cd14 273e 5bab 1cbe 54a2 a5bd
00000040: 48f1 d13d 95bc 8abc 0a10 3fbd 3abd 623d
00000050: 240b 5bbe 2487 063e 9486 de3d 51de 7f3d
00000060: 60af a73c 13aa 92bd 0dc2 b6bc d85e 0f3e
00000070: d1a2 2a3b 45a2 093e e3c2 8a3d b671 76bd

regressors.1.lins.0.weight f4 [32, 64]
-0.07963168 -0.07111594 0.075819656 0.0044826567 -0.04622839 -0.26511785 -0.18477449 0.12108827
-0.026068984 -0.22830601 0.027794737 -0.20276378 -0.26985988 0.08749194 0.008110166 -0.2533372
-0.053887248 0.113723524 0.10481668 0.10262755 -0.09923184 0.072024524 0.02403661 -0.0185366
-0.036663853 0.009984532 0.16979024 0.1170001 0.041527033 0.09915465 0.08003014 0.01376003
-0.2355747 -0.06257802 0.094685085 -0.1721747 0.049055006 -0.13967796 -0.08517381 -0.0905499
-0.09579591 -0.39252278 -0.2925938 0.07332604 -0.06378616 0.07022068 0.06311658 0.07451216
0.060261946 -0.078019165 -0.015956366 0.14131762 -0.05178258 -0.07648876 -0.31112248 -0.00022674187
-0.047285218 -0.46029884 -0.11771169 0.08973422 0.035570294 -0.09948625 0.11234483 0.071009174
-0.08458149 0.078056216 0.03647878 -0.09086339 0.09164083 0.16843724 0.069187306 0.04187251
0.054468192 -0.029133104 0.19613306 -0.07652488 -0.15170586 -0.105248936 0.05301609 0.19158374
0.039284855 -0.07889485 0.1982958 0.059792098 0.10271835 0.1012457 -0.049903356 0.065180525
-0.22848284 -0.12832522 -0.018242309 0.038094234 -0.043496773 0.011634712 -0.03439547 -0.13161455
-0.082246765 -0.021898463 -0.054646984 0.0033836646 0.16205321 0.055384666 0.18019022 -0.038675632
0.09753212 0.03185203 0.017648235 -0.043885697 -0.018560888 0.060593814 0.078601345 -0.13421772
-0.0048809885 0.16862759 -0.089156464 -0.101413175 0.038503826 -0.03729464 -0.045277085 -0.03992818
-0.15142997 -0.1879335 -0.083304994 -0.04507134 0.04112436 0.01676628 -0.022829622 -0.13275515
0.1982966 0.09069638 -0.114528425 0.07772206 0.13129963 0.1608715 -0.0322243 -0.052803837
0.063309856 0.10122319 -0.012053612 -0.0560563 0.38159618 -0.2172925 -0.10094085 -0.02404205
0.054398555 0.039967902 -0.06865214 -0.014147193 0.0059695095 0.06617962 -0.11786317 -0.16944514
-0.14081064 0.3138416 0.0549024 -0.013609159 -0.08237523 0.082301825 -0.08428307 0.089614324
0.06407357 -0.107455134 -0.113992915 0.031779256 -0.080256894 0.10767904 -0.099861085 -0.0883615
-0.1616557 0.1539683 -0.2078868 0.04012091 0.0904265 -0.008345859 -0.17758453 0.10182203
-0.047809113 -0.05892716 0.021820068 0.1452871 0.07089163 -0.08388814 -0.13009927 0.12664844
0.13227504 -0.048724182 0.1223742 0.05812001 -0.005964741 0.19663526 -0.030606523 0.009409595
0.119612716 0.037003666 -0.10949449 -0.06819293 -0.025522236 -0.20512131 -0.2912726 -0.34098718
0.08267209 -0.1885504 -0.38620228 -0.05153621 -0.19528157 -0.23186442 0.018550208 0.096534826
0.13612784 -0.1214048 0.0058109923 -0.098598205 -0.038951576 -0.025983408 -0.036802605 -0.18428086
0.0943991 0.12969393 0.18760926 0.04561268 -0.06274341 0.13067628 0.037104502 0.06594199
-0.03684374 -0.057907417 0.014702885 0.110913314 -0.1320104 0.01411183 0.07276811 0.09635486
-0.06737044 -0.09765629 -0.11373025 -0.013717504 -0.37152854 0.12400696 -0.1171715 -0.16183712
0.16390735 -0.15586019 -0.12616557 -0.0685185 0.1235771 0.10011211 0.16596766 0.04756211
-0.10175163 0.20336816 -0.3488891 -0.11906159 -0.07757178 -0.054223627 -0.07299054 0.114673465
00000000: ef15 a3bd 3ca5 91bd 5647 9b3d 40e3 923b
00000010: fb59 3dbd 87bd 87be 8635 3dbe 20fd f73d
00000020: 9f8e d5bc 0dc9 69be cab1 e33c 4fa1 4fbe
00000030: 132b 8abe f92e b33d 80e0 043c 6ab5 81be
00000040: e0b8 5cbd e1e7 e83d 21aa d63d 652e d23d
00000050: 103a cbbd 9881 933d 6de8 c43c 11da 97bc
00000060: d62c 16bd 2a96 233c 7edd 2d3e c09d ef3d
00000070: 4018 2a3d 9811 cb3d d8e6 a33d c071 613c
00000080: 7f3a 71be e828 80bd 41ea c13d 914e 30be
00000090: e7ed 483d bd07 0fbe 9b6f aebd 3a72 b9bd
000000a0: a530 c4bd bff8 c8be dbce 95be f62b 963d
000000b0: 51a2 82bd dccf 8f3d 4443 813d d599 983d
000000c0: 3bd5 763d 83c8 9fbd edb6 82bc 91b5 103e
000000d0: f819 54bd 24a6 9cbd 724b 9fbe 8fc1 6db9
000000e0: 25ae 41bd 4aac ebbe d412 f1bd 93c6 b73d
000000f0: 28b2 113d 72bf cbbd 0c15 e63d 426d 913d
00000100: 0f39 adbd f0db 9f3d c66a 153d 9616 babd
00000110: 30ae bb3d d07a 2c3e 13b2 8d3d 8282 2b3d
00000120: 0a1a 5f3d 8ca8 eebc 1bd7 483e 14b9 9cbd
00000130: c858 1bbe c18c d7bd 6627 593d 872e 443e
00000140: 28e9 203d a093 a1bd 0e0e 4b3e 8fe8 743d
00000150: 005e d23d e859 cf3d 7667 4cbd 5e7d 853d
00000160: 68f7 69be b067 03be e570 95bc b308 1c3d
00000170: ac29 32bd 859f 3e3c 44e2 0cbd f7c5 06be
00000180: fe70 a8bd 6864 b3bc 84d5 5fbd 79c0 5d3b
00000190: 47f1 253e 08db 623d c983 383e 576a 1ebd
000001a0: ecbe c73d 4677 023d 0893 903c 7dc1 33bd
000001b0: 010d 98bc 3831 783d bef9 a03d 5f70 09be
000001c0: b3f0 9fbb b6ac 2c3e aa97 b6bd b6b1 cfbd
000001d0: 30b6 1d3d 44c2 18bd 7774 39bd bb8b 23bd
000001e0: 7510 1bbe a471 40be cf9b aabd ba9c 38bd
000001f0: 0472 283d 7059 893c 3005 bbbc f7f0 07be
00000200: 440e 4b3e 06bf b93d e18d eabd be2c 9f3d
00000210: 6973 063e 80bb 243e a1fd 03bd d648 58bd
00000220: 99a8 813d 1b4e cf3d 837c 45bc 4a9b 65bd
00000230: 9360 c33e ed81 5ebe 14ba cebd d5f3 c4bc
00000240: 05d1 5e3d 62b5 233d 7e99 8cbd a1c9 67bc
00000250: e09b c33b 2e89 873d 3f62 f1bd 0783 2dbe
00000260: aa30 10be d9af a03e 57e1 603d f3f8 5ebc
00000270: 58b4 a8bd dc8d a83d 9a9c acbd b787 b73d
00000280: 0139 833d 7011 dcbd 1e75 e9bd f72a 023d
00000290: ba5d a4bd d486 dc3d f883 ccbd e0f6 b4bd
000002a0: 1289 25be dea9 1d3e 47e0 54be d355 243d
000002b0: 8731 b93d 12bd 08bc b8d8 35be 1288 d03d
000002c0: 7dd3 43bd 9b5d 71bd 00c0 b23c 24c6 143e
000002d0: a22f 913d 8ccd abbd be38 05be 21b0 013e
000002e0: 1c73 073e 0293 47bd 539f fa3d 3f0f 6e3d
000002f0: e073 c3bb c15a 493e 88ba fabc b42a 1a3c
00000300: 83f7 f43d 2891 173d a63e e0bd bca8 8bbd
00000310: 0214 d1bc 520b 52be af21 95be df95 aebe
00000320: fc4f a93d 5b13 41be 4ebc c5be a217 53bd
00000330: e4f7 47be de6d 6dbe 9bf6 973c 0db4 c53d
00000340: 1965 0b3e 14a3 f8bd 236a be3b dbed c9bd
00000350: b08b 1fbd 28db d4bc 54be 16bd 1fb4 3cbe
00000360: 5154 c13d 7cce 043e a41c 403e 5dd4 3a3d
00000370: 9e7f 80bd 01d0 053e e4fa 173d 980c 873d
00000380: 76e9 16bd 5430 6dbd 5fe4 703c 8526 e33d
00000390: bc2d 07be 4e35 673c 7207 953d b255 c53d
000003a0: 83f9 89bd 0500 c8bd 68eb e8bd 62bf 60bc
000003b0: fd38 bebe 5cf7 fd3d 9df7 efbd a1b8 25be
000003c0: 54d7 273e d099 1fbe 8c31 01be 6d53 8cbd
000003d0: fe15 fd3d 9407 cd3d 6df3 293e 7dd0 423d
000003e0: 2963 d0bd be3f 503e 98a1 b2be 90d6 f3bd
000003f0: f4dd 9ebd 9819 5ebd 107c 95bd ecd9 ea3d

regressors.1.lins.0.bias f4 [32]
-0.066088684 0.14875747 -0.047496814 -0.14371966 0.19872178 0.14717251 -0.021228084 -0.11589042
0.08396346 0.051243484 -0.13047421 -0.104675 0.07618037 0.21374188 0.02582056 0.24388205
0.14850642 -0.032344915 0.006407425 0.26072174 0.027072841 0.26317233 -0.11730793 -0.10628552
0.12332125 0.08122282 -0.05178387 0.16401748 0.052779116 0.21320814 0.2573589 -0.024952423
00000000: 8159 87bd e153 183e 058c 42bd 3f2b 13be
00000010: b97d 4b3e 64b4 163e 85e6 adbc f557 edbd
00000020: 09f5 ab3d b0e4 513d 089b 05be d95f d6bd
00000030: 7404 9c3d 27df 5a3e a485 d33c 37bc 793e
00000040: 1112 183e 1a7c 04bd 60f5 d13b 527d 853e
00000050: ddc7 dd3c 86be 863e 243f f0bd 39ac d9bd
00000060: da8f fc3d 2658 a63d 531b 54bd 33f4 273e
00000070: ea2e 583d 3c53 5a3e 8cc4 833e 0669 ccbc

regressors.1.lins.1.weight f4 [32, 32]
-0.16042387 -0.3356713 -0.032407682 0.16817187 -0.47810948 -0.10808217 -0.110193506 0.101277724
-0.28568688 -0.07121142 -0.088295326 0.3898501 -0.11442882 -0.026923405 -0.27727237 0.06816617
-0.016520267 0.007377467 0.01952029 0.11048826 0.09003906 -0.5149197 -0.16313183 -0.026311774
0.04358281 0.11371906 -0.09839579 0.04163293 -0.41322148 -0.2809472 0.40677404 -0.052694146
-0.02835404 -0.07938971 -0.10520735 0.0984787 -0.10007338 0.26170197 -0.03760968 0.1969859
0.0922335 0.043607682 -0.47083688 0.08967529 0.03483435 0.058556672 -0.031082127 -0.015533257
-0.11961262 -0.07230418 0.12784745 0.2077453 -0.18387811 -0.18392035 0.090817444 0.12978168
0.24583675 -0.04585693 0.20329265 0.010302583 0.053158842 0.053363394 0.3574456 0.060653947
-0.04865337 0.1730123 -0.07817957 -0.14045651 -0.09592839 0.19110312 0.14003816 0.009772872
-0.1393981 0.22447298 0.13781412 -0.18626782 0.15325725 -0.015046022 0.14146057 -0.079331875
-0.13065943 -0.0598664 0.04932745 -0.18815218 0.105996124 0.21987309 0.1967192 0.19459225
-0.13880377 0.08733351 -0.034792464 0.08673994 -0.1441731 -0.078415714 -0.016341094 0.11319348
0.11727993 0.10061454 0.06567479 0.22426887 0.2270225 -0.025441393 -0.185837 0.068486154
-0.2212681 0.13855916 0.09141749 -0.0057075974 -0.06980828 -0.33832124 -0.2718688 -0.027691608
-0.24490783 -0.3244195 -0.6658256 -0.0791927 -0.03417715 0.079176724 0.09119142 -0.13362183
-0.3252514 -0.21841809 0.05187854 -0.23825492 0.040486176 0.13844894 -1.0019404 -0.34411067
0.10505301 -0.029704308 -0.08571991 0.24572477 0.060159143 0.23651983 0.14962715 -0.16474827
0.21983209 -0.5261174 -0.28434324 0.063022934 0.13127194 -0.021029921 0.12576997 -0.15138754
-0.5981338 0.10245839 0.15294792 -0.26095837 -0.3656576 0.056349706 0.010708829 -0.12389826
-0.06370618 -0.17380345 -0.107880846 -0.0417102 0.037474316 0.011998489 -0.22442347 0.092581086
-0.16347754 0.07500546 -0.10057858 -0.09323223 0.08448506 0.14118688 -0.10112634 -0.045256887
-0.21181591 -0.03871624 -0.1351654 0.048599184 0.0037074808 -0.23853274 -0.15521318 0.25385594
-0.009942115 -0.07071606 0.20057116 0.096514255 -0.043141622 0.16934937 -0.014869997 0.15171464
0.16966671 0.055192497 -0.16453288 -0.08477917 -0.17203973 -0.10826732 0.034736585 0.15553254
0.14548978 -0.09524591 -0.04669112 0.14391263 -0.01416696 0.05954755 0.084339865 0.16126713
0.03309199 0.048600998 0.075432666 0.08838469 -0.046830192 -0.10334195 -0.10508645 0.09661539
0.05809215 -0.0802675 0.0800912 -0.23092628 -0.1070503 -0.41954184 0.106558666 -0.23533686
0.04490031 -0.23222166 -0.086874105 -0.20136046 0.2948 0.027777636 0.30364785 -0.05044888
-0.17248793 -0.104329884 -0.1073657 0.324402 0.1824455 0.20571996 -0.10619815 -0.027613403
-0.02831916 -0.11049729 0.10105594 0.14911003 0.28015038 0.0941669 0.20254289 -0.14401448
-0.022485841 -0.15027569 -0.019078106 -0.06681919 -0.014163925 0.05082928 -0.15740502 0.082881674
0.13853322 0.13084863 0.011157638 -0.02933821 0.1501308 0.12829024 0.14655598 0.17452493
00000000: 2846 24be 1cdd abbe ebbd 04bd 3f35 2c3e
00000010: c4ca f4be 2f5a ddbd 22ad e1bd b26a cf3d
00000020: 8d45 92be 4bd7 91bd 2ed4 b4bd 6f9a c73e
00000030: a859 eabd 798e dcbc a5f6 8dbe b49a 8b3d
00000040: 8355 87bc aebe f13b 04e9 9f3c ab47 e23d
00000050: 6666 b83d c7d1 03bf 080c 27be ca8b d7bc
00000060: e383 323d 8ae5 e83d bb83 c9bd 4b87 2a3d
00000070: c491 d3be 50d8 8fbe b044 d03e d1d5 57bd
00000080: bb46 e8bc 1397 a2bd f376 d7bd 33af c93d
00000090: 46f3 ccbd cdfd 853e 9c0c 1abd acb6 493e
000000a0: ebe4 bc3d f89d 323d 8811 f1be aea7 b73d
000000b0: 77ae 0e3d 1fd9 6f3d f29f febc 347f 7ebc
000000c0: 76f7 f4bd 3714 94bd 71ea 023e 2fbb 543e
000000d0: 8b4a 3cbe 9e55 3cbe 7ffe b93d 7de5 043e
000000e0: a1bc 7b3e 7ad4 3bbd f32b 503e 2acc 283c
000000f0: 16bd 593d 9393 5a3d 1c03 b73e 4670 783d
00000100: c248 47bd 232a 313e 9c1c a0bd d5d3 0fbe
00000110: 1b76 c4bd 89b0 433e 2a66 0f3e 651e 203c
00000120: 60be 0ebe 3fdc 653e 251f 0d3e febc 3ebe
00000130: 78ef 1c3e 9783 76bc 0adb 103e c078 a2bd
00000140: 96cb 05be 7836 75bd 950b 4a3d f7aa 40be
00000150: 7f14 d93d 6926 613e c270 493e 3143 473e
00000160: 9322 0ebe e9db b23d 8b82 0ebd b6a4 b13d
00000170: 1da2 13be 6b98 a0bd c2dd 85bc fcd1 e73d
00000180: 7630 f03d ff0e ce3d 8180 863d bda6 653e
00000190: 9678 683e 786a d0bc 0e4c 3ebe 7842 8c3d
000001a0: 1b94 62be 74e2 0d3e 1839 bb3d cc06 bbbb
000001b0: a5f7 8ebd 7138 adbe 6332 8bbe 83d9 e2bc
000001c0: 1ec9 7abe 501a a6be 8c73 2abf c82f a2bd
000001d0: 57fd 0bbd 6827 a23d 91c2 ba3d 29d4 08be
000001e0: 5a87 a6be fea8 5fbe 987e 543d 19f9 73be
000001f0: d5d4 253d 8fc5 0d3e 953f 80bf 462f b0be
00000200: 0826 d73d 7356 f3bc ec8d afbd 469f 7b3e
00000210: 6f69 763d 4132 723e dc37 193e c5b3 28be
00000220: aa1b 613e a1af 06bf 7095 91be 2b12 813d
00000230: 276c 063e f146 acbc d8c9 003e 5605 1bbe
00000240: 4c1f 19bf b4d5 d13d 619e 1c3e 569c 85be
00000250: 7937 bbbe f3ce 663d 1674 2f3c 5fbe fdbd
00000260: 6378 82bd 88f9 31be a2f0 dcbd 51d8 2abd
00000270: ab7e 193d 4f95 443c 44cf 65be 279b bd3d
00000280: a866 27be 769c 993d 24fc cdbd 8af0 bebd
00000290: 8106 ad3d 4b93 103e 541b cfbd 495f 39bd
000002a0: 45e6 58be ec94 1ebd cc68 0abe f00f 473d
000002b0: 35f9 723b ed41 74be 34f0 1ebe 68f9 813e
000002c0: 41e4 22bc 95d3 90bd 8762 4d3e 44a9 c53d
000002d0: 45b5 30bd ec69 2d3e 4aa1 73bc 155b 1b3e
000002e0: 1cbd 2d3e 8711 623d 4f7b 28be b4a0 adbd
000002f0: 2f2b 30be 42bb ddbd f347 0e3d ec43 1f3e
00000300: 46fb 143e 4a10 c3bd 303f 3fbd d55d 133e
00000310: 891c 68bc 22e8 733d 61ba ac3d 3623 253e
00000320: 778b 073d d711 473d 717c 9a3d 0803 b53d
00000330: 04d1 3fbd f2a4 d3bd 9137 d7bd 4ade c53d
00000340: 09f2 6d3d 4963 a4bd db06 a43d f077 6cbe
00000350: 303d dbbd 30ce d6be 6e3b da3d 25fc 70be
00000360: 63e9 373d 84cb 6dbe 0deb b1bd 7031 4ebe
00000370: 07f0 963e ed8d e33c bb77 9b3e 7ca3 4ebd
00000380: ada0 30be e8aa d5bd 8ce2 dbbd 0518 a63e
00000390: fed2 3a3e 41a8 523e 6a7e d9bd 8135 e2bc
000003a0: 95fd e7bc 674c e2bd 6bf6 ce3d 4db0 183e
000003b0: df6f 8f3e 93da c03d 6767 4f3e 8878 13be
000003c0: 3a34 b8bc dfe1 19be b049 9cbc 80d8 88bd
000003d0: cf0f 68bc 5d32 503d c82e 21be debd a93d
000003e0: a7db 0d3e 2ffd 053e 87ce 363c b056 f0bc
000003f0: e3bb 193e 845e 033e c512 163e aab6 323e

regressors.1.lins.1.bias f4 [32]
-0.00036334633 -0.060443394 -0.07105486 -0.019076977 -0.077983715 0.34374368 0.04617302 0.01169596
0.03497711 -0.054147094 -0.18555094 -0.15281029 0.19328426 0.102431856 0.030569462 0.11755565
0.009659443 0.10626835 -0.13768473 0.069060475 -0.08411382 0.09207492 0.13720368 0.23640239
0.016090386 0.2560759 -0.20610832 0.15402295 -0.24028589 0.01718105 0.12738699 0.17186812
00000000: 857f beb9 7e93 77bd 3685 91bd 5247 9cbc
00000010: edb5 9fbd 2cff af3e ec1f 3d3d 69a0 3f3c
00000020: 2844 0f3d 58c9 5dbd 1101 3ebe 4d7a 1cbe
00000030: 4fec 453e cbc7 d13d cf6c fa3c 04c1 f03d
00000040: a442 1e3c 38a3 d93d 3afd 0cbe 946f 8d3d
00000050: de43 acbd c791 bc3d 1f7f 0c3e 7813 723e
00000060: fccf 833c 611c 833e 0f0e 53be 31b8 1d3e
00000070: 810d 76be 46bf 8c3c bc71 023e 32fe 2f3e

regressors.1.lins.2.weight f4 [32, 32]
-0.31600556 0.09416954 -0.21682164 -0.4818264 0.53885776 0.10767578 -0.10973797 0.06410379
-0.12708196 0.117169134 -0.18379812 -0.06675729 0.091955245 0.20407538 0.09020706 -0.2745598
0.031898085 0.13254754 -0.25067073 0.2092673 0.027383083 -0.19590326 0.10198154 0.11506071
-0.021436255 -0.33569974 -0.04726428 0.40673047 -0.0067165275 0.1377643 -0.14211924 -0.13908075
0.034453988 -0.01021245 -0.019701269 -0.6447659 0.048409462 -0.1835814 -0.038276315 -0.24764769
-0.14471902 0.17543781 0.10102259 -0.08872997 0.14026685 0.1229392 0.03643678 -0.0546362
-0.2905449 -0.38578087 0.0101775415 0.04137055 -0.013420041 0.015439578 0.02939314 0.16634978
-0.20515597 0.010732763 0.12448982 0.015548826 -0.049205497 0.29590777 -0.18346739 -0.18857394
-0.39560252 0.08751748 0.09145094 -0.03688072 0.17535225 0.18859579 0.22824214 0.052380882
0.056366608 -0.2081594 -0.1452175 0.13555284 0.08387526 -0.2017156 0.041199207 0.18341026
0.16600877 0.031047335 0.011559861 -0.15417324 -0.05771795 0.015156896 -0.015523358 0.122551784
0.1693171 0.08129688 0.048811838 0.14059936 0.1352032 -0.16094075 0.2542995 0.17451142
-0.016210295 -0.43928665 -0.09358271 0.080407 -0.0627689 0.08223237 0.12269784 -0.05553964
-0.22152552 -0.13642423 0.019128038 0.03944992 -0.28689206 0.24482794 0.082834795 -0.057234984
-0.12912709 0.17118658 -0.18219975 0.019989219 0.01691306 0.042199835 0.038805522 -0.30291492
0.08817561 -0.015350064 0.14819585 -0.3432693 0.20192477 -0.13664342 -0.2795981 0.057888724
0.27962264 0.09734652 0.14001498 0.25016364 -0.023483332 0.031267922 -0.16583571 0.18709084
-0.19566582 -0.08350858 -0.26906404 -0.028488483 0.18527788 0.039438225 -0.5026365 0.018612836
0.090605356 -0.05077527 -0.18712687 -0.28715277 -0.14842053 -0.23228359 -0.25029132 0.052580025
0.28831655 -0.08848015 0.09058889 0.08640803 -0.08519596 -0.031614166 0.064127296 0.1517773
-0.11472671 0.11051096 -0.13856286 -0.09057432 0.21332164 -0.10629465 0.033364482 0.13961229
0.06651499 -0.15234998 0.0058522457 0.1188828 0.06170517 0.06320827 0.20267265 0.026647022
0.13248622 -0.104722664 0.022009466 -0.15531534 -0.058444787 0.09397018 0.022144357 0.10094336
0.09568051 0.15841736 -0.13423468 0.0012703676 -0.08531097 -0.074325584 0.064612955 0.1226709
0.25190085 0.06363957 0.0023959444 -0.12777102 -0.35794574 -0.020531192 -0.112184264 0.08760298
-0.10086996 0.20804414 0.034461115 0.13260406 0.25026068 0.045419864 0.08796592 0.36482653
-0.10630658 0.0149025675 0.15580685 -0.11996634 -0.14249122 -0.16500296 -0.16013195 0.20405151
0.24150503 -0.08551911 0.078809224 -0.15847126 0.18825664 0.21590792 0.21701907 -0.42992118
-0.074790224 -0.04533352 -0.14427237 0.27194926 -0.0016366126 0.14580418 -0.14011602 -0.27702314
0.04368311 0.08083108 -0.17297578 0.12290145 -0.5369382 -0.22903603 0.108197175 0.06956708
-0.063796125 -0.33635843 -0.49427316 -0.6506454 -0.30954462 -0.7153097 -0.047543973 0.08763531
-0.16777521 -0.6798286 0.09337887 -0.62293637 -0.63770807 -0.16223672 0.16116919 0.09458844
00000000: 7bcb a1be f6db c03d 7e06 5ebe f3b1 f6be
00000010: 95f2 093f 1f85 dc3d 4dbe e0bd d948 833d
00000020: c621 02be 5ff6 ef3d 9335 3cbe 0cb8 88bd
00000030: 0853 bc3d 23f9 503e 7bbe b83d 1a93 8cbe
00000040: 91a7 023d 8bba 073e ea57 80be 2b4a 563e
00000050: 7d52 e03c dd9a 48be b3db d03d f3a4 eb3d
00000060: 169b afbc d6e0 abbe 3198 41bd fa3e d03e
00000070: 5116 dcbb 1612 0d3e b587 11be 2f6b 0ebe
00000080: a01f 0d3d 1f52 27bc 8e64 a1bc 610f 25bf
00000090: 0049 463d c3fc 3bbe a0c7 1cbd 5b97 7dbe
000000a0: 3931 14be f8a5 333e efe4 ce3d 0fb8 b5bd
000000b0: 1da2 0f3e 8cc7 fb3d bc3e 153d 35ca 5fbd
000000c0: 4dc2 94be 1285 c5be b4bf 263c 2a74 293d
000000d0: bbdf 5bbc 49f6 7c3c e2c9 f03c 9957 2a3e
000000e0: 6814 52be 79d8 2f3c 85f4 fe3d 81c0 7e3c
000000f0: b48b 49bd 3981 973e e0de 3bbe 8719 41be
00000100: 6a8c cabe 5d3c b33d a14a bb3d 3d10 17bd
00000110: 8a8f 333e 411f 413e 4fb8 693e 568d 563d
00000120: ace0 663d bd27 55be e5b3 14be 5dce 0a3e
00000130: cbc6 ab3d 898e 4ebe 80c0 283d e6cf 3b3e
00000140: 34fe 293e fb56 fe3c 9265 3d3c 97df 1dbe
00000150: a869 6cbd a154 783c af55 7ebc 6efc fa3d
00000160: 7661 2d3e fb7e a63d ecee 473d 47f9 0f3e
00000170: b572 0a3e a7cd 24be 8b33 823e 1fb3 323e
00000180: 74cb 84bc 2eea e0be 4ba8 bfbd 6dac a43d
00000190: fb8c 80bd 7269 a83d 0149 fb3d 897d 63bd
000001a0: 96d7 62be cbb2 0bbe 67b2 9c3c 3d96 213d
000001b0: 84e3 92be 2db4 7a3e 4aa5 a93d 3b6f 6abd
000001c0: e439 04be 894b 2f3e 9292 3abe 6ec0 a33c
000001d0: 428d 8a3c bcd9 2c3d 8af2 1e3d aa17 9bbe
000001e0: 6a95 b43d d67e 7bbc a7c0 173e fec0 afbe
000001f0: 5ec5 4e3e 41ec 0bbe 7b27 8fbe ba1c 6d3d
00000200: b32a 8f3e 9d5d c73d 1660 0f3e 7315 803e
00000210: 1e60 c0bc cb12 003d d6d0 29be be94 3f3e
00000220: 9f5c 48be 8c06 abbd c3c2 89be ae60 e9bc
00000230: 7cb9 3d3e fa89 213d c9ac 00bf f279 983c
00000240: 4d8f b93d bbf9 4fbd 309e 3fbe b005 93be
00000250: 8dfb 17be c0db 6dbe 2f26 80be 275e 573d
00000260: 3a9e 933e 1535 b5bd ab86 b93d b1f6 b03d
00000270: 387b aebd db7d 01bd 2c55 833d 826b 1b3e
00000280: d6f5 eabd 9253 e23d 6ce3 0dbe 077f b9bd
00000290: fd70 5a3e 02b1 d9bd 32a9 083d 86f6 0e3e
000002a0: 0339 883d a201 1cbe 32c4 bf3b d378 f33d
000002b0: 8fbe 7c3d 5673 813d 6b89 4f3e db4a da3c
000002c0: 78aa 073e d678 d6bd 324d b43c fc0a 1fbe
000002d0: cd63 6fbd 7073 c03d 1568 b53c 64bb ce3d
000002e0: 25f4 c33d 2938 223e d174 09be 7782 a63a
000002f0: 85b7 aebd 0338 98bd cc53 843d e13a fb3d
00000300: 26f9 803e 7655 823d 4705 1d3b 68d6 02be
00000310: aa44 b7be 0831 a8bc ddc0 e5bd 3169 b33d
00000320: e994 cebd 8609 553e 1927 0d3d 5cc9 073e
00000330: 2b22 803e 2e0a 3a3d 7a27 b43d 8bca ba3e
00000340: 44b7 d9bd e629 743c d58b 1f3e eab0 f5bd
00000350: 38e9 11be 89f6 28be a1f9 23be e1f2 503e
00000360: 184d 773e a524 afbd bb66 a13d 4a46 22be
00000370: 59c6 403e f716 5d3e 3f3a 5e3e a11e dcbe
00000380: 9e2b 99bd a4af 39bd 23bc 13be ef3c 8b3e
00000390: 9b83 d6ba b14d 153e 937a 0fbe fad5 8dbe
000003a0: 10ed 323d c48a a53d 9020 31be c1b3 fb3d
000003b0: c874 09bf 6c88 6abe 7b96 dd3d 2f79 8e3d
000003c0: 8ba7 82bd 2c37 acbe 5f11 fdbe b290 26bf
000003d0: a27c 9ebe 891e 37bf 78bd 42bd 247a b33d
000003e0: 44cd 2bbe 3f09 2ebf 6c3d bf3d c278 1fbf
000003f0: d640 23bf 6221 26be 8909 253e 96b7 c13d

regressors.1.lins.2.bias f4 [32]
0.018080952 0.10794078 0.13891064 -0.026152838 -0.24678317 0.17916593 -0.21990392 0.18762226
-0.2005005 -0.10242925 0.18431883 0.16132385 -0.24576798 -0.21436603 0.08540416 0.31793734
0.25887668 -0.044634476 0.10670876 -0.07884277 -0.13699383 -0.027394518 -0.12919742 -0.031117983
0.09011475 -0.05264608 -0.023981487 0.08016431 0.06449143 0.012140137 -0.03270597 0.04235589
00000000: 811e 943c 0e10 dd3d 973e 0e3e 7a3e d6bc
00000010: bab4 7cbe 4677 373e 7e2e 61be 0d20 403e
00000020: 0150 4dbe 6dc6 d1bd 13be 3c3e 1432 253e
00000030: 9aaa 7bbe c582 5bbe 60e8 ae3d afc8 a23e
00000040: 7c8b 843e a4d2 36bd 1f8a da3d 5178 a1bd
00000050: 1c48 0cbe 786a e0bc 544c 04be 24eb febc
00000060: 158e b83d 6aa3 57bd d374 c4bc 302d a43d
00000070: 1514 843d 6de7 463c b2f6 05bd 5f7d 2d3d

regressors.1.lins.3.weight f4 [1, 32]
0.06994308 -0.09343766 0.1733177 -0.16471821 -0.15010153 0.060535017 -0.06806376 -0.3433705
-0.13633713 -0.10871994 -0.31048298 -0.21084112 -0.14439489 -0.16794145 -0.06500065 0.05133934
0.13941178 -0.31892592 -0.080149814 -0.20161827 -0.3643666 0.0021481612 -0.12471789 0.017764356
-0.21803318 -0.14524643 -0.05014978 0.09626512 0.04087875 -0.08813793 -0.119057335 -0.18841685
00000000: 513e 8f3d 3e5c bfbd 327a 313e e4ab 28be
00000010: 37b4 19be 91f3 773d 0365 8bbd 42ce afbe
00000020: f69b 0bbe 8fa8 debd a0f7 9ebe bce6 57be
00000030: 41dc 13be d8f8 2bbe 101f 85bd 3349 523d
00000040: f6c1 0e3e 424a a3be 9625 a4bd 0575 4ebe
00000050: 428e babe 2ac8 0c3b 186c ffbd 8e86 913c
00000060: 1744 5fbe 7bbb 14be db69 4dbd a626 c53d
00000070: 7a70 273d a981 b4bd 55d4 f3bd 59f0 40be

regressors.2.lins.0.weight f4 [32, 64]
-0.07696766 -0.03051132 -0.08334644 -0.029997885 0.050362617 0.09456207 -0.04535061 0.09408477
-0.038920194 -0.057803065 0.0005274117 0.0067539066 -0.04400471 0.013190895 -0.10728051 0.078945816
0.028473392 -0.09133597 -0.057322815 0.09493047 0.065828264 -0.07795563 -0.06658983 -0.052891538
-0.013197079 0.08831276 0.10131124 0.075757936 -0.045924038 -0.08038728 0.10824327 0.05019994
-0.113719165 -0.06680976 0.018194601 0.12392256 -0.08113234 -0.028697237 2.4974346e-05 -0.060919076
-0.056561917 0.10195324 -0.10176624 -0.09088339 0.011918068 0.030267373 -0.09360947 0.012216002
-0.09958051 0.07751359 -0.07971154 -0.0960899 -0.020071879 -0.0156091 0.055863753 -0.084394395
0.06856012 -0.08316459 0.100103304 0.024799407 0.020345658 0.084905386 -0.012892038 0.08135466
0.11921805 0.104403734 -0.0436247 0.030607581 -0.07498847 0.027799621 -0.10382332 -0.034186795
0.12481725 0.110970035 0.08113305 -0.11388752 0.012380376 -0.06593548 0.060702756 -0.092360914
-0.08540568 -0.053266525 0.047902033 -0.06998727 0.099447966 0.11935748 0.050442904 -0.08905153
0.027179584 0.028199881 -0.09755255 -0.09701975 -0.079640344 -0.056302756 -0.122904435 0.07079309
-0.07382977 0.013680086 -0.100583956 -0.044823423 -0.00667049 0.059234098 -0.0059328377 -0.079633206
0.014258489 -0.055464804 -0.11759943 0.07179314 0.026282474 0.051623702 0.118373394 0.03115806
0.07564865 -0.0055826604 -0.03194271 -0.11469886 0.0069986433 -0.05323887 0.042896375 0.061318725
-0.0959384 -0.07838108 0.044494778 -0.07137576 0.014490977 0.116750196 -0.105493635 -0.04370238
-0.11764184 -0.028058827 0.053964272 -0.03837973 -0.029786184 -0.012267351 -0.05223939 -0.046726137
0.09394041 -0.11072999 0.021024287 0.07942808 0.041784614 -0.08622667 -0.014249116 -0.09466982
0.047992766 -0.07723285 0.0017351657 0.057864636 -0.095271885 0.11460556 0.026716173 -0.05088991
0.035597175 -0.055872962 0.022893906 0.09475054 0.029733434 -0.05231914 -0.045058414 0.074725255
0.023465917 -0.004659623 -0.08750412 -0.049641624 -0.009679049 0.011411682 -0.104640245 0.08581206
0.081752524 0.07509214 0.1138431 0.11654073 -0.073956266 0.12078816 -0.061375335 0.06021878
0.06392291 0.10545914 -0.007840604 0.083018795 0.016911805 0.0193315 0.05931948 -0.068696514
-0.067478344 0.11988093 0.049988285 0.031735286 -0.08216898 0.10162833 -0.08921546 0.07034209
-0.035639375 -0.03848742 0.066912636 0.09542182 0.069987535 -0.03918676 -0.078771025 -0.03272645
0.06787473 0.0018716604 -0.011020079 -0.017228812 -0.11720726 0.105636284 -0.039060533 0.0021849275
0.06736584 0.059834868 0.02627635 -0.048323646 0.10170911 0.058255717 -0.012791753 0.06611787
0.06573346 0.037753403 -0.096473634 -0.067747265 0.12064873 -0.025470853 -0.016255766 0.067396134
-0.0585749 -0.036769524 -0.105981246 -0.012934059 0.0340423 0.1065938 -0.07715915 -0.10403901
-0.0053791255 -0.06396514 -0.04430686 -0.053871155 -0.07980856 0.019152254 0.022878781 0.003765121
0.09590241 -0.013728872 0.08662468 -0.06715371 0.00088115036 0.0077870786 -0.016565904 -0.10937764
-0.088691324 -0.0050058663 -0.005316049 0.10831034 -0.08909659 -0.028098121 0.11846304 -0.0994506
00000000: 38a1 9dbd e0f2 f9bc 8ab1 aabd 20be f5bc
00000010: 0849 4e3d c2a9 c13d 90c1 39bd 84af c03d
00000020: c86a 1fbd e8c2 6cbd 0042 0a3a e04f dd3b
00000030: 483e 34bd a01e 583c e2b5 dbbd 58ae a13d
00000040: 0841 e93c 5a0e bbbd 54cb 6abd e86a c23d
00000050: f8d0 863d 34a7 9fbd 4060 88bd cca4 58bd
00000060: 9038 58bc 52dd b43d 447c cf3d fa26 9b3d
00000070: d81a 3cbd 16a2 a4bd a6ae dd3d 749e 4d3d
00000080: 98e5 e8bd 8ed3 88bd d80c 953c 1ccb fd3d
00000090: b628 a6bd 7816 ebbc 0080 d137 4886 79bd
000000a0: 78ad 67bd dccc d03d d26a d0bd 1221 babd
000000b0: 0044 433c 48f3 f73c 52b6 bfbd a025 483c
000000c0: def0 cbbd 72bf 9e3d ce3f a3bd c8ca c4bd
000000d0: c86d a4bc 50bd 7fbc 64d1 643d f8d6 acbd
000000e0: 4069 8c3d 3252 aabd f602 cd3d 2028 cb3c
000000f0: f0ab a63c e0e2 ad3d 2039 53bc 469d a63d
00000100: 9828 f43d a0d1 d53d d0af 32bd c0bc fa3c
00000110: 8e93 99bd 08bc e33c 52a1 d4bd 7407 0cbd
00000120: 30a0 ff3d 4244 e33d 1629 a63d dc3d e9bd
00000130: 10d7 4a3c 2e09 87bd 74a3 783d b827 bdbd
00000140: 2ce9 aebd 002e 5abd ec34 443d 7c55 8fbd
00000150: 60ab cb3d b271 f43d 389d 4e3d a660 b6bd
00000160: b8a7 de3c 7003 e73c a2c9 c7bd 4ab2 c6bd
00000170: 7a1a a3bd b89d 66bd 52b5 fbbd f8fb 903d
00000180: 1034 97bd 7022 603c f6fe cdbd c498 37bd
00000190: 2094 dabb 749f 723d 4068 c2bb bc16 a3bd
000001a0: 709c 693c 102f 63bd f8d7 f0bd 4808 933d
000001b0: 584e d73c 6073 533d c06d f23d 303f ff3c
000001c0: aeed 9a3d c0ee b6bb 5cd6 02bd 3ce7 eabd
000001d0: e054 e53b 0011 5abd 1cb4 2f3d 5829 7b3d
000001e0: 5a7b c4bd 4286 a0bd 2840 363d 742d 92bd
000001f0: 906b 6d3c ba1a ef3d 0c0d d8bd 4401 33bd
00000200: 34ee f0bd a0db e5bc a409 5d3d 1034 1dbd
00000210: 2802 f4bc 00fd 48bc f8f8 55bd e863 3fbd
00000220: d463 c03d 68c6 e2bd 203b ac3c 30ab a23d
00000230: 5826 2b3d 9c97 b0bd 2075 69bc 40e2 c1bd
00000240: 1094 443d 422c 9ebd 806e e33a 7803 6d3d
00000250: e81d c3bd 52b6 ea3d e0db da3c f071 50bd
00000260: 58ce 113d 0cdb 64bd 008c bb3c 920c c23d
00000270: 8893 f33c 984c 56bd 2c8f 38bd 8e09 993d
00000280: 983b c03c c0af 98bb 5c35 b3bd 0455 4bbd
00000290: e094 1ebc 10f8 3a3c a04d d6bd 3cbe af3d
000002a0: de6d a73d e8c9 993d 9226 e93d e8ac ee3d
000002b0: 6276 97bd c85f f73d b464 7bbd f8a7 763d
000002c0: 04ea 823d f6fa d73d e075 00bc c205 aa3d
000002d0: a08a 8a3c 185d 9e3c fcf8 723d c2b0 8cbd
000002e0: 1632 8abd 2284 f53d 84c0 4c3d dcfc 013d
000002f0: 3648 a8bd 8422 d03d 98b6 b6bd 840f 903d
00000300: 98fa 11bd fca4 1dbd 7e09 893d 846c c33d
00000310: a055 8f3d 4c82 20bd b452 a1bd 2c0c 06bd
00000320: e801 8b3d 8052 f53a 908d 34bc 7023 8dbc
00000330: 5c0a f0bd d657 d83d f0fd 1fbd 0031 0f3b
00000340: 1af7 893d 6815 753d 8041 d73c 04ef 45bd
00000350: de4c d03d 8c9d 6e3d 8094 51bc ce68 873d
00000360: 449f 863d 50a3 1a3d f893 c5bd 14bf 8abd
00000370: ae16 f73d 40a8 d0bc d02a 85bc fc06 8a3d
00000380: 3cec 6fbd a49b 16bd b20c d9bd 60e9 53bc
00000390: f06f 0b3d da4d da3d 9e05 9ebd 6812 d5bd
000003a0: 6043 b0bb 2800 83bd 1c7b 35bd 00a8 5cbd
000003b0: ac72 a3bd 30e5 9c3c 486c bb3c 40c0 763b
000003c0: 7c68 c43d 10ef 60bc 4868 b13d e287 89bd
000003d0: 00fd 663a c02a ff3b 38b5 87bc 6201 e0bd
000003e0: cca3 b5bd 4008 a4bb 4032 aebb d0d1 dd3d
000003f0: 4678 b6bd 082e e6bc c09c f23d c2ac cbbd
