baseline/DLPL-CAP/models_dlpl-cap-regressor/sandwich+ultra8t_to_ssram+digtime+timing_ctrl+array_128_32_8t/dlpl-cap-regressor_nh_2_tsk_regression_ngl_4_nhl_4_hd_32_us_1_bn_0_dp_0.0_epoch_4_20250402_132158.pth (torch, 64102 bytes, 21 tensors)

regressors.0.lins.0.weight f4 [32, 64]
000000 13 5b 04 be 40 7d a2 bb 40 e3 dd 3d 2b 7d 7e 3d
       -0.12925367 -0.0049587786 0.1083436 0.06213109
000010 24 00 01 3e 85 9e c8 3d 9c 39 8b 3d 58 c3 53 bd
       0.1259771 0.0979586 0.067980975 -0.051699966
000020 6b 23 6c be 78 f6 19 3c af 8a 8b be bb c7 96 3d
       -0.23060386 0.009397142 -0.27254245 0.07362314
000030 c9 f2 85 bc 91 20 eb 3c e5 4b 14 be 03 39 7f bd
       -0.01635112 0.028702052 -0.14482076 -0.06231023
000040 24 d3 f6 bd fb b2 47 3e 79 1a 5e 3e 49 24 2d bd
       -0.12051991 0.1950187 0.21689786 -0.042270932
000050 7c e6 59 bd 38 25 85 bc 11 8f c1 bd 30 e2 b3 bd
       -0.053198323 -0.016253099 -0.09451116 -0.08783376
000060 3b 52 02 3e cd db 13 be b9 ec 62 3d bf 3f 81 bd
       0.12726681 -0.14439316 0.055401538 -0.06310987
000070 b6 97 ea bd 71 05 00 3e d2 80 d3 bd e4 ab 4f bd
       -0.11454718 0.12502076 -0.10327305 -0.050701037
000080 cd 3a bc bd b0 37 41 bc 51 44 a9 bc 34 21 a2 3c
       -0.09190903 -0.011793062 -0.020662459 0.019791223
000090 49 e0 90 bb 44 1a d3 3d 70 f5 31 3d 1d 69 0f 3e
       -0.004421268 0.10307744 0.043446958 0.14004941
0000a0 3f 93 8a 3d 57 63 48 3e d5 bb 62 3e df 6d ee 3d
       0.06766366 0.19569145 0.22141965 0.1164205
0000b0 98 ec e3 bd 4b 79 21 3e 20 ef 69 be 7e 55 a7 3d
       -0.11129111 0.15768926 -0.22845125 0.08170603
0000c0 f1 b0 73 bd e7 ac 28 bf bd b4 75 be b1 4f 21 be
       -0.059494916 -0.6588883 -0.23994727 -0.15753056
0000d0 92 a0 9d bd 78 7c 3c 3d c3 54 ce bc 08 7f 11 bd
       -0.07696642 0.04601714 -0.025186902 -0.035521537
0000e0 22 fa 02 be dd 3f 8d bc d8 55 f0 3c ab 4f da bd
       -0.1279073 -0.017242366 0.029337808 -0.10659727
0000f0 54 de f4 bd 53 49 f4 3d 12 6e e7 3d ba 5d 11 be
       -0.11956468 0.11928048 0.11300291 -0.1419591
000100 cf 76 f0 bd 70 31 91 bc e4 95 d1 bd 38 c8 1a bd
       -0.11741411 -0.017723769 -0.102336675 -0.0377886
000110 2a e7 a6 3d 5c 2c 1d bd 53 a9 36 bd d9 b6 aa 3d
       0.0814956 -0.038372383 -0.044595074 0.08335657
000120 20 ab 84 bd 20 1c 43 bc 3c 66 f2 bc fb 75 85 3c
       -0.06477952 -0.011908561 -0.029589765 0.016291609
000130 c5 f4 17 be d5 22 4b bd e4 95 9b 3d 95 fa 90 3d
       -0.14839466 -0.049593765 0.07596949 0.07079045
000140 13 7e 16 3c 6b a2 09 be 7e ed b8 bd 9c 5c f9 bd
       0.009185332 -0.13440864 -0.09029673 -0.12175867
000150 80 7e c8 3d a0 42 24 3c 4b 3b 2d bd aa f7 57 3d
       0.09789753 0.01002565 -0.042292874 0.052726425
000160 e9 92 8c bd 83 33 ba 3b ee 66 a2 3d 78 ff 89 bd
       -0.068639584 0.00568241 0.079297885 -0.0673818
000170 48 be ae bc 14 cb 9f bd 2c f3 7f 3d f5 1b 2a 3d
       -0.021330968 -0.07802406 0.062487766 0.04153057
000180 32 37 02 be 28 17 66 bd b6 ab c9 bd f9 9a ef 3d
       -0.12716368 -0.056174427 -0.098472044 0.116994806
000190 15 64 14 be bd d6 08 3d 16 d5 43 bd 1e e9 a2 bd
       -0.14491303 0.033407915 -0.047810636 -0.0795462
0001a0 ea b2 b8 bd 98 50 86 3d 86 d8 b6 bd ed f4 fd bd
       -0.090185 0.06558341 -0.08928017 -0.124002315
0001b0 fc bb 67 bd a3 e1 4d 3d f4 35 9a bd d8 42 07 be
       -0.05657576 0.050264012 -0.07529822 -0.13209093
0001c0 a2 ea 91 3d fb 30 08 be aa 9d ee bd e0 e5 21 3d
       0.07124831 -0.13299935 -0.11651166 0.039525867
0001d0 38 71 df 3c 36 76 e7 bd 9a 3e 71 bd 50 92 97 3d
       0.027275667 -0.11301844 -0.058897592 0.07400954
0001e0 4a db 93 bd 33 d7 28 3d 30 13 d6 3c c1 d0 d4 3d
       -0.072195604 0.041220855 0.026132196 0.10391379
0001f0 46 d5 dc 3d 2a 26 22 bd 5c 37 20 3d b9 e0 db bd
       0.10782866 -0.039587177 0.039115295 -0.10736222
000200 06 dc b9 bb d8 8e a1 3d 53 89 ea bd 1e 4c 66 bd
       -0.005671981 0.078885734 -0.11451974 -0.056224935
000210 5a 88 a0 3d 49 bf ca 3d e4 69 40 3e c8 2a a9 3c
       0.07838507 0.09899766 0.18790394 0.020650283
000220 f5 ba 1e be 6e 1f 55 3d ae 09 0d be 44 1d 7a bd
       -0.15501006 0.052031927 -0.13773224 -0.061063066
000230 b8 c7 0c be 3e 04 f9 3c 15 c9 4f 3e 0e 2a 99 bc
       -0.13748062 0.03039753 0.2029155 -0.018696811
000240 0c d1 87 be 51 ea 14 be 31 3a a8 3c e5 42 23 3e
       -0.26526678 -0.1454251 0.02053556 0.15943487
000250 c0 fc 9c 3d 4c f4 20 bd 9c 66 10 3e a1 bf 86 3d
       0.07665396 -0.03929548 0.14101642 0.06579519
000260 22 d8 d1 3d 73 64 29 3e a2 75 08 3c f6 f5 d3 bd
       0.10246302 0.16542225 0.008328827 -0.10349648
000270 2c e2 63 3d 64 85 7c be d6 7d 88 bd cc f0 62 3d
       0.055635616 -0.2466026 -0.06664626 0.055405423
000280 ab 32 a5 3d 4e 15 9c bd e3 38 30 3e 15 b3 52 bc
       0.08066305 -0.07621251 0.172092 -0.012860079
000290 48 68 9a bd b5 4f b5 bc 93 a6 68 3c 92 24 a6 be
       -0.07539421 -0.022132734 0.014199871 -0.32449776
0002a0 23 01 fa 3d bb a9 f4 3d f1 34 94 3d 3f f2 55 bd
       0.12207248 0.11946436 0.0723666 -0.052232977
0002b0 89 d9 2a 3e 67 47 ef bd f4 be 92 3d 40 75 31 bc
       0.16684546 -0.11683541 0.07165328 -0.010831177
0002c0 28 73 a7 bb 30 0a d4 3d c3 8c 87 bc be d7 88 3c
       -0.0051101632 0.103535056 -0.016546613 0.016704436
0002d0 24 ed eb 3d d0 3a 01 3c e8 5a 91 3d a6 b7 f9 bd
       0.1151984 0.007887557 0.07097417 -0.12193231
0002e0 00 8c fe bd ac ff fe bd 1b d1 a9 bc 4a 94 18 be
       -0.12429047 -0.12451109 -0.020729592 -0.14900318
0002f0 26 13 dc 3d 20 c6 da 3d 50 ba b0 3c 3d 5b 1b be
       0.1074584 0.106823206 0.021573216 -0.15171523
000300 39 b1 99 bd 80 ee aa 3c 5b 12 6b bd e4 7a 05 bd
       -0.07504506 0.020865679 -0.057390552 -0.0325879
000310 52 76 10 3c a7 fd 01 be 20 5b 77 bd 0b 0a 16 3d
       0.008817272 -0.12694417 -0.060389638 0.03663067
000320 01 f0 4f 3e be 03 8b be 84 c2 0b 3e 57 9d d8 bd
       0.20306398 -0.27151293 0.1364842 -0.10576885
000330 44 30 1a be 55 58 66 3d f7 d9 06 bf ba 99 46 bd
       -0.15057474 0.056236584 -0.5267634 -0.04848645
000340 bb c3 79 be e2 a7 e3 bc f8 79 42 be f1 39 7c 3c
       -0.24391071 -0.027790014 -0.1899184 0.015394674
000350 12 20 a4 bd 34 3a ff 3d 7e eb 82 bd 40 75 6e 3d
       -0.080139294 0.12462273 -0.06392573 0.058217287
000360 05 ea d4 bc 2d ef 81 3d d8 2e 59 3e a2 58 ec bc
       -0.025990495 0.06344447 0.21209276 -0.028850857
000370 50 cb 7e 3c d1 61 28 be f0 ca ba bd f0 a8 a6 3c
       0.015551403 -0.16443564 -0.091207385 0.020344228
000380 0d 0e 24 bb 08 f0 c2 bc c6 21 92 bd 2b f8 a0 3c
       -0.002503279 -0.023796096 -0.07135348 0.019649586
000390 e9 39 94 3b 7e c0 32 bb dc 72 9f bd 84 72 00 3e
       0.004523505 -0.0027275379 -0.077855796 0.12543684
0003a0 56 ca ab bc fe 89 e9 bd f9 6e 9b bc 9b 28 65 3d
       -0.020970505 -0.11403273 -0.018973814 0.055946928
0003b0 27 52 41 bc 13 41 3c 3e fe 35 fd be b1 41 c8 3d
       -0.011799372 0.18384199 -0.49455255 0.09778155
0003c0 8c 4d a3 3d ed 06 e3 bd b2 41 aa bc fd b8 e8 3d
       0.07973775 -0.11085305 -0.02078328 0.11363409
0003d0 86 59 9d 3d 1c 13 4a bd 9b db 40 bd 67 85 21 3e
       0.07683091 -0.04933463 -0.047084432 0.15773545
0003e0 b9 9c 2b 3e 28 44 68 3e 94 c5 14 bd c2 b8 9b 3d
       0.16759004 0.2268225 -0.036321238 0.07603599
0003f0 56 0f d0 3d ec 29 14 3e c4 51 f6 3d 94 dd 2a 3b
       0.10159175 0.14469117 0.12027314 0.0026072012

regressors.0.lins.0.bias f4 [32]
000000 64 9d 67 bc 32 3c d2 bd 5c 1c f5 3d 1c 53 92 bd
       -0.014136646 -0.102653876 0.119683 -0.07144758
000010 fb 01 ed 3d ee 46 2a 3d 48 d2 a8 3d db 9a 17 3e
       0.11572643 0.04157155 0.08243233 0.14805166
000020 a1 b8 10 3e 0c d1 4f 3d fc 67 c8 3d aa 4a 80 bd
       0.1413293 0.050736472 0.097854584 -0.06264241
000030 bd 63 b6 bc 21 c5 66 bd 7f 27 12 3b 2d 28 8a bb
       -0.022264356 -0.05634034 0.0022301374 -0.004216215
000040 ff d7 e7 bc ee 1e b8 bd d4 bb 9f bd 61 db 0d 3e
       -0.028301237 -0.08990274 -0.07799497 0.13853218
000050 f1 f8 7f bd e7 77 5d 3e a6 14 1e 3e 2f 24 dc bd
       -0.06249327 0.2162777 0.15437564 -0.10749089
000060 bf ef 3f bc 30 d8 86 bd 17 8f 28 3e d2 b2 80 bc
       -0.011714875 -0.06584203 0.16460834 -0.015710268
000070 7b 05 2b 3e e4 69 c8 bd d6 11 ca 3d 3b 6d 15 be
       0.1670131 -0.09785822 0.09866683 -0.1459245

regressors.0.lins.1.weight f4 [32, 32]
000000 52 b5 7a be 09 36 12 3c 19 d7 ac 3a 63 f1 09 3e
       -0.2448323 0.008924016 0.0013186663 0.13470988
000010 df 96 fc bd f2 b2 8d be c3 94 6b 3d ef 5a c3 be
       -0.12333464 -0.27675587 0.057514917 -0.38155314
000020 19 8b 49 be 0b cf 33 3e ef 97 23 be 83 6c ea bd
       -0.19681968 0.1755945 -0.15975927 -0.11446478
000030 d2 1e 27 bd 40 9e 03 be 39 5b 82 3d 8d bc ad bd
       -0.040800877 -0.12853336 0.063650556 -0.08483229
000040 b4 b7 29 bd 41 7f e6 3d 36 31 58 be 55 6a 0e be
       -0.04143496 0.112547405 -0.21112522 -0.1390775
000050 f2 bd e3 be 4d 4d 0b 3d 08 d2 96 be 9e 1f ed 3d
       -0.44480854 0.034009267 -0.29457116 0.11578296
000060 fb 2a 2d 3d 0d e0 f9 3c 1f af 1a bd 5e 9f 89 bd
       0.042277317 0.030502344 -0.037764665 -0.0671985
000070 e4 81 9f bd 09 d7 1c be f2 6d 38 be 2b c9 a1 3e
       -0.077884465 -0.15316404 -0.18010691 0.3159879
000080 89 2b 58 be b6 e6 0b be 37 bb 70 3d 69 95 9f be
       -0.21110357 -0.13662228 0.058772292 -0.31168678
000090 c4 f7 39 3e c8 02 f6 bc 8c 82 96 3c 2c ff 5e bc
       0.18160921 -0.030030623 0.018372796 -0.013610642
0000a0 7e e7 1e 3e c5 57 2a 3b 28 3d 37 3e c3 15 62 bd
       0.15517995 0.0025992256 0.17894423 -0.055196535
0000b0 87 98 5e 3d 60 39 58 bd 88 02 8d 3c 00 63 19 3e
       0.05434468 -0.052789092 0.017213121 0.14979172
0000c0 9b 69 e8 3d 9c e6 15 be 27 df 65 bc f5 15 15 be
       0.11348268 -0.14638752 -0.014030254 -0.14559157
0000d0 8c 3b 96 3d db 49 99 3d f4 b2 66 be 9a a4 ca bc
       0.073355764 0.0748479 -0.22529203 -0.024736691
0000e0 09 54 d4 bc d7 38 89 3d 52 da 38 bb fc 74 56 be
       -0.025918977 0.067002945 -0.00282063 -0.20943063
0000f0 84 78 5f 3c b9 fb 8b 3e e3 23 cd 3d 27 c6 21 3e
       0.013639573 0.27340487 0.100166105 0.15798245
000100 23 fd 35 3e df 0e b9 bc 46 7b c5 bd 0e 07 18 bb
       0.17772345 -0.022590099 -0.09642653 -0.0023197564
000110 3f 37 69 be d8 52 84 3d b4 2d 7d be b2 7b f5 3d
       -0.22774981 0.06461114 -0.24724466 0.11986484
000120 9a 7b f2 3d 17 46 64 be 73 e1 c4 bd ec d7 3e 3d
       0.118399814 -0.22292362 -0.096133135 0.046592638
000130 1c ce 60 be e8 bf 92 be f7 8d 81 bd 87 43 66 be
       -0.21953624 -0.28662038 -0.06325906 -0.22486697
000140 e4 05 62 bd bb 08 00 3e 77 0c 9e 3b 83 ec 00 bd
       -0.0551814 0.1250333 0.0048232633 -0.031475555
000150 71 8c 8c be 5d 69 2d bd e8 48 99 3d 2d 56 1f 3d
       -0.27450898 -0.04233681 0.07484609 0.038900543
000160 e9 4e cd bd bf 4d 77 bd 24 d0 0a 3e 83 d6 34 bc
       -0.100248165 -0.06037688 0.13555962 -0.011037472
000170 e7 1a 81 3d 83 1c fc bc 60 c1 15 be 12 f5 59 be
       0.06303959 -0.030775314 -0.14624548 -0.21284893
000180 6c b9 82 3d 28 55 e5 3c 19 22 c2 3d f8 d3 03 3e
       0.06383023 0.027994707 0.0947916 0.12873828
000190 0f 89 5e 3b 42 d6 83 be 42 86 d7 bd ae 5d 27 be
       0.0033956205 -0.25749403 -0.105236545 -0.1634433
0001a0 85 1d a9 bd ff fe 1d be 7d ac b8 3c a0 43 46 3e
       -0.082575835 -0.15429305 0.022543186 0.19361734
0001b0 58 ab 12 be 77 bc 46 be 8d c1 b4 bd 06 6b e1 bd
       -0.14323175 -0.19407831 -0.088259794 -0.11006741
0001c0 b1 4d 8d 3d ee 35 3a 3d 63 a4 91 3c c0 f4 d8 be
       0.06899584 0.045461588 0.017778581 -0.4237423
0001d0 b7 0c 47 be 85 3b f7 bd d2 d5 ae 3d 3c b5 d7 3d
       -0.19438444 -0.12071899 0.08536877 0.105326146
0001e0 d3 fe 98 be 09 c2 f4 bc 72 b1 99 be 57 3e 19 be
       -0.29881915 -0.02987768 -0.30018193 -0.14965187
0001f0 6e fa 0c be 96 5b 93 3b 11 c2 14 bd b3 23 97 be
       -0.13767406 0.004497002 -0.03631789 -0.29519424
000200 26 41 db 3d 13 ae 0e 3c 66 d4 bd 3d 6f d6 db bb
       0.107057855 0.008708495 0.092690274 -0.006708912
000210 27 3e 9d bd 87 56 83 3e 11 92 e9 3b 58 a8 f0 3d
       -0.0767787 0.25651953 0.007128008 0.11750859
000220 c4 eb 8d 3d 75 ee ea 3d f6 a4 97 3d 94 94 5f 3d
       0.06929734 0.11471263 0.07404511 0.054585055
000230 d9 63 74 3c 08 dd d5 3b ff ff 4a 3e c6 c8 25 3c
       0.014916384 0.006526593 0.19824217 0.010118669
000240 b2 75 be bd 0a c7 b6 bd 75 18 29 3e 85 2c ef 3d
       -0.09299792 -0.089246824 0.16513236 0.11678413
000250 a4 3e 40 be ed b5 51 bd 1e 6a 40 be a4 b6 a6 3c
       -0.18773896 -0.05119889 -0.1879048 0.020350762
000260 2d b6 85 3b 29 c7 a7 bc 1a 1f 5d 3b b7 bc 0e be
       0.004080555 -0.02048071 0.0033740462 -0.13939176
000270 78 6b d4 3d 01 73 1f 3e 66 8e ac bc ee c4 c7 bd
       0.103720605 0.15571214 -0.021063995 -0.09754358
000280 ce 4f 86 be 4f e8 10 3e 09 a6 e8 be 22 1f 75 bd
       -0.2623276 0.14151119 -0.45439175 -0.059844144
000290 d7 e3 9f 3d 14 7a 8e 3e 16 93 a1 bd fe 7e 08 be
       0.07807129 0.27827513 -0.078893825 -0.13329694
0002a0 92 8e 02 3e 58 0b 4f 3d b9 13 45 3d 7d 23 75 bb
       0.12749699 0.050547928 0.048114512 -0.0037405186
0002b0 92 ca 99 3e de 05 8c bd ce d0 a8 bd 6e fb 9e 3d
       0.3003736 -0.068370566 -0.08242951 0.077628
0002c0 b1 1c c5 bd 1a 09 41 3c 45 af 9f be a1 2c 39 be
       -0.09624613 0.011781955 -0.31188408 -0.18083431
0002d0 72 d5 15 bd b1 28 d7 bd cd 74 45 3b 78 52 46 be
       -0.03658051 -0.10505808 0.0030129433 -0.19367397
0002e0 e2 00 ca 3c 35 83 a4 bd 53 bb 1a 3e 58 84 25 be
       0.024658624 -0.08032838 0.15110521 -0.16163766
0002f0 f8 dd 07 bc a8 aa 19 3e 2d 04 17 3e 00 df 12 bd
       -0.008292668 0.15006506 0.14747687 -0.0358572
000300 76 41 99 bc a1 d8 b3 bd 0b f9 4a 3e 13 d6 94 be
       -0.018707972 -0.08781553 0.19821565 -0.29069576
000310 31 b8 08 be f3 3e 6c 3e 40 6c d5 3c 1e 12 e3 bd
       -0.13351513 0.23070888 0.026052594 -0.1108744
000320 f6 32 01 be 19 a3 0a 3e 6f 47 d4 3b 06 7a 0f be
       -0.12617096 0.1353878 0.006478242 -0.14011392
000330 b0 c1 2d be 6d 9f 67 3d 4e 53 e2 3d 4a 4d 25 3e
       -0.16968417 0.056548525 0.11051045 0.16142765
000340 e4 2f 4f be 13 e2 f3 3d 16 00 cc 3d fc 11 4b bd
       -0.20233113 0.119083546 0.09960954 -0.049577698
000350 bb 97 17 3e 4e c4 5c be c4 43 ec bd 6d 0f 34 3e
       0.14803974 -0.2155926 -0.11536363 0.1758401
000360 0a 13 bc bd e7 3e 2b 3d b1 09 7f 3d 75 ef 8f 3d
       -0.09183319 0.041808035 0.0622651 0.07028095
000370 cc 4f 4f 3d 9c f5 32 be b2 be ec 3d 98 2d ea bd
       0.05061321 -0.17476505 0.1155981 -0.114344776
000380 27 eb 8b bd 26 85 c8 bd fd 3e cb 3d 18 90 86 3d
       -0.06831961 -0.09791021 0.099241234 0.065704525
000390 71 8f 1f bd 95 5e 97 bd e3 fa b9 bd d9 00 ad 3d
       -0.038955156 -0.07391087 -0.09081056 0.08447427
0003a0 33 7b ce bb 7c 2b cd 3c e6 61 ce 3c 93 ac 7b be
       -0.0063013076 0.025045149 0.025193166 -0.2457755
0003b0 0e 27 1d be b4 f3 c3 3d a0 63 35 3e fa 82 6c 3e
       -0.1534693 0.09567967 0.17713785 0.23096839
0003c0 1f 74 d0 bd 6e d1 d5 bd 7f 21 9d bd 36 0d 4f 3e
       -0.10178398 -0.10440336 -0.076724045 0.20219883
0003d0 06 ff b2 bd 2e c4 e5 bd df 75 e9 3d 75 51 86 be
       -0.08740048 -0.11219059 0.11399435 -0.26234022
0003e0 97 b6 0c 3e 69 7d 34 bd f6 d6 3f bd 46 12 1b 3c
       0.13741527 -0.044064913 -0.046835862 0.009464806
0003f0 93 a0 23 be 73 2b 27 3e f4 47 1b 3e 18 80 1e bd
       -0.15979223 0.16325168 0.15164167 -0.03869638

regressors.0.lins.1.bias f4 [32]
000000 ad 9a db bc e1 af 05 be f1 cf 54 bd 7b fd ce bd
       -0.026807154 -0.13055374 -0.05195612 -0.10106941
000010 45 4d 9d bd 47 b3 21 be 38 58 60 bd 1e 9e ce bc
       -0.076807536 -0.15791045 -0.054771632 -0.02522188
000020 ff 26 be 3d 6e 63 d8 3d f7 54 f4 3d 60 1a 9c bd
       0.09284782 0.1056584 0.11930268 -0.07622218
000030 aa a9 56 be ed 2a 3b 3d c3 8c 17 3e 6a b7 29 bd
       -0.20963159 0.045695234 0.1479979 -0.041434683
000040 06 b5 c3 bd f1 7e 94 3e 9a b6 d6 3d ba 63 d7 3d
       -0.09556012 0.290031 0.10484047 0.10517068
000050 3d 7a 8b 3e cb 00 08 bd f5 89 8b be d5 c5 b6 bc
       0.27241698 -0.03320388 -0.2725369 -0.02231113
000060 18 96 0b be b2 eb dd bd 36 5f 23 bb c7 08 1a be
       -0.13631475 -0.10835971 -0.0024928576 -0.15042411
000070 b4 68 19 3e ea d1 0b 3d 0b 9c 20 3e 00 a5 2f 3e
       0.14981347 0.034135737 0.15684526 0.17152786

regressors.0.lins.2.weight f4 [32, 32]
000000 a6 64 19 3e 2d 28 d8 3d ff e5 8b bd 27 91 92 bd
       0.149798 0.10554538 -0.06830978 -0.07156592
000010 23 f9 6d bb 7b 10 2b be ef f1 d2 bd 55 27 ce bd
       -0.0036311827 -0.16705506 -0.103000514 -0.10066096
000020 cf 71 0c 3e cf 0a d8 bd 3b e0 df bd d9 01 06 be
       0.1371529 -0.105489366 -0.109314404 -0.13086642
000030 1c 98 90 bc 9d b5 d7 bd be ab 20 be e8 60 2f 3e
       -0.017650656 -0.10532687 -0.15690514 0.1712681
000040 d7 9b 89 bd 48 bf 55 bc ac 02 be 3c 95 a5 1a 3c
       -0.06719177 -0.013046093 0.023194633 0.009438892
000050 f1 3d 52 3d f6 cd a1 3d 9a 98 89 bd 74 48 90 bd
       0.051328603 0.07900612 -0.067185596 -0.07045069
000060 e8 ac a9 bc 07 0c 2a be b7 31 c0 bd 27 37 9c 3d
       -0.020712331 -0.1660615 -0.09384482 0.07627707
000070 6c 17 0b bb 5e 11 f4 bd 4d 47 eb bd 24 3d 68 bd
       -0.0021223677 -0.11917375 -0.11488209 -0.056698933
000080 23 62 cf 3d b8 7a d3 3d e2 89 17 be ea 07 75 3d
       0.1012614 0.10326141 -0.14798692 0.059822
000090 ba c8 f8 bd ff 0c 11 3e a7 a8 0e bd ce 31 52 bd
       -0.121476606 0.14165114 -0.03482881 -0.05131703
0000a0 16 79 fb 3d b9 50 12 bd e4 57 3d be 54 1a c9 3d
       0.12278955 -0.035721514 -0.18490559 0.09819475
0000b0 f6 01 2b bb be 50 3e be dc dd 26 3c ec a7 dd 3d
       -0.0026093698 -0.18585488 0.010184731 0.10823044
0000c0 db 48 06 3e 47 ea 31 be 56 53 ec bd 94 d4 2e 3e
       0.1311373 -0.17374526 -0.115393326 0.1707328
0000d0 ff 4e 07 3e 96 44 69 3c 93 e9 a7 bd 84 85 1f 3e
       0.13213728 0.014237544 -0.081988476 0.15578276
0000e0 25 a6 f3 3b 19 3b 4e 3e 3e 1c 76 be 85 0c 0a be
       0.0074355775 0.20139731 -0.24034211 -0.13481338
0000f0 76 63 90 38 64 db ba bc c7 b7 fd bc e0 01 ed bd
       6.884981e-05 -0.022809692 -0.03097142 -0.11572623
000100 40 9e 76 3d e5 97 35 be 7e 3c 79 bc 8d bd c3 be
       0.060209513 -0.17733724 -0.015212176 -0.38230553
000110 81 25 fc 3b 00 da e4 3d 0e db 6d be bf 0a 42 be
       0.0076949005 0.11174393 -0.23228094 -0.18949412
000120 79 16 31 be 65 f0 2d 3e cb 59 0a bc f3 e9 00 3e
       -0.17293729 0.16986234 -0.00844426 0.12589245
000130 a9 74 d7 3d af b3 4b bc f2 39 0e be 00 3f 8a 3e
       0.10520298 -0.012432977 -0.13889292 0.2700119
000140 f9 66 2f 3e 5c 75 76 bd a3 a5 bd bd 3a 88 b4 bd
       0.17129125 -0.060170516 -0.09260108 -0.08815046
000150 c2 14 16 3d 08 35 35 3d 9a 48 8b 3e 90 f7 48 3e
       0.03664089 0.044240028 0.27203828 0.19625688
000160 2e 5b a0 be ab 6e 28 3e 20 c1 49 3e bc a7 26 bd
       -0.31319565 0.16448466 0.19702578 -0.040687308
000170 bf c9 d2 bd d5 bd 32 3e a2 1b 26 3e dc e5 57 3d
       -0.10292386 0.17455228 0.16221479 0.052709445
000180 66 08 ac bd 8c 6f 8c bd 60 cd 38 be f4 f2 0e bd
       -0.084000394 -0.068572134 -0.18047094 -0.034899667
000190 25 10 c8 bd ce b1 18 3e d6 b8 dc bc 33 5a 5b 3d
       -0.09768704 0.14911577 -0.026943605 0.053552818
0001a0 91 dd bb 3d 2e 00 8b 3d 61 fe 64 3d 25 3c 9c bc
       0.0917312 0.06787144 0.055906657 -0.019071648
0001b0 5d ad 06 bd 10 b8 1e be 17 c1 e5 bd cd c7 c5 bb
       -0.032880176 -0.15499902 -0.112184696 -0.006035781
0001c0 a4 4f 19 3e 76 1a 6b bc 5d ee 5d 3d e8 b1 95 3d
       0.14971787 -0.0143495705 0.0541824 0.073093235
0001d0 83 c7 24 be 82 61 10 3e bd 34 6c 3d 22 50 2b bd
       -0.16091733 0.14099696 0.057667483 -0.041824467
0001e0 63 c3 ef bd c9 9e 08 be e2 d8 9a bd 14 19 8b bd
       -0.11707189 -0.13341822 -0.07560898 -0.06791893
0001f0 e3 6c ed bc bb 33 d0 3d ee 44 f6 bd 9b 23 cf bd
       -0.028982585 0.10166117 -0.12024866 -0.10114213
000200 d8 69 f1 bd d9 d1 da bd e5 5d b0 3b 1e 30 ac bd
       -0.11787766 -0.106845565 0.005382287 -0.08407615
000210 47 f3 dc bd 71 f5 0d 3e 57 34 65 bd d8 43 1c be
       -0.10788589 0.1386316 -0.05595812 -0.15260255
000220 94 54 ab 3d d7 46 63 bd 54 df 02 be 93 84 0a 3e
       0.08365741 -0.05548748 -0.12780505 0.13527136
000230 b4 99 78 bd de 6f 1e be 9a 04 0c bc 27 7e 4a bd
       -0.060693458 -0.15472361 -0.008546019 -0.049436715
000240 28 5a fd 3d fb dd b1 3d 05 6b d7 bc 5b 94 4f bd
       0.123707116 0.086849175 -0.026296148 -0.050678592
000250 8c d1 2f 3d 2c 5c d6 3c 9e ca f0 bd df ca 36 3d
       0.04292445 0.026166998 -0.11757396 0.044627067
000260 95 64 2c 3d 8d 35 6c 3e 4a a8 2a be 56 6c 0d be
       0.04208811 0.23067303 -0.1666576 -0.13810858
000270 40 76 13 be 92 8b 5a be a7 6d 82 bd d5 c7 17 3d
       -0.14400578 -0.21342304 -0.06368571 0.03705581
000280 20 40 d6 bd ad 8e 19 3e 30 c0 b6 3d 24 44 ce 3d
       -0.104614496 0.14995833 0.089233756 0.100715905
000290 a2 d1 31 be 52 4b b8 3d e7 8f a1 3d 94 98 83 3d
       -0.17365125 0.08998741 0.07888775 0.06425586
0002a0 21 e3 14 be 37 25 71 3d cc e0 07 3c ae 08 86 3b
       -0.14539768 0.05887338 0.008293342 0.00409039
0002b0 d8 ab 14 3e 69 d6 12 bd 31 d4 a3 bd 2a 30 07 be
       0.14518678 -0.03584901 -0.07999457 -0.13201967
0002c0 8b cb 28 be f1 a2 c6 bd fd ea e6 3d 78 4a ad 3d
       -0.16483895 -0.09699047 0.11275289 0.084614694
0002d0 34 79 40 3d 46 49 80 3d a7 a5 e2 3c 87 46 c7 bd
       0.04699059 0.06263976 0.02766688 -0.09730249
0002e0 8e 4e 32 3d ba 46 99 bd 5e 86 e0 3c 93 c7 8b 3d
       0.043531947 -0.07484193 0.027407821 0.06825175
0002f0 93 b2 14 be 1d 48 16 be 2b 9a 4f be 80 aa a5 3c
       -0.14521246 -0.14675947 -0.20273654 0.020222902
000300 89 40 1b be 48 e8 38 bc 4d fe 2c 3e bf 58 05 be
       -0.15161337 -0.011285849 0.16893883 -0.13022135
000310 dd dd 82 be 05 c6 67 bd 56 11 ca bc d2 67 2a bd
       -0.25559893 -0.05658533 -0.02466647 -0.041602917
000320 c2 73 ed be 03 ec 10 be e6 ce 5c bd 58 c1 47 3d
       -0.4637738 -0.14152531 -0.05390825 0.04876837
000330 d2 29 28 3e 53 06 22 be dd ed c3 3c f6 e3 d4 3d
       0.16422203 -0.15822725 0.023917133 0.103950426
000340 b4 aa 6b be 29 c1 b8 3d 2e c9 db 3c ef 81 3d bd
       -0.23014337 0.090212174 0.026829328 -0.046266492
000350 7f ac 76 bd 26 8b 99 3d e8 e9 a9 bc 9d eb bc bd
       -0.0602231 0.074972436 -0.020741418 -0.09224627
000360 4f d8 b7 bd 4f ad f4 bd fa 69 05 bc e0 3a a4 ba
       -0.089768045 -0.119471185 -0.008142943 -0.0012529753
000370 89 47 c4 bd 3c 99 5e 3d d9 eb 2f 3d d8 6c 9b 3c
       -0.09583957 0.054345354 0.04294953 0.0189728
000380 df 52 cb be a4 16 8f be fc c0 48 be ea 0b 9e 3c
       -0.39711663 -0.2794696 -0.19604868 0.01929279
000390 ec 89 21 bd 21 b0 4c bc 22 9e c4 3d 3e 14 59 bd
       -0.039438173 -0.012493164 0.09600474 -0.05299782
0003a0 72 71 7c 3c 91 46 90 3d 89 42 0e 3d e4 58 0a be
       0.015407907 0.070447095 0.03473142 -0.13510472
0003b0 af f7 c3 bd 2d a6 3f be 94 e5 f8 bc 57 0b 70 3d
       -0.09568726 -0.18715735 -0.030382909 0.058604565
0003c0 d5 ff 1c be 7e b7 ec 3c 2b e9 5e be bf 82 06 be
       -0.15331967 0.02889609 -0.21768634 -0.13135813
0003d0 aa 01 12 be 92 a0 30 3c 58 0f e0 3e 04 65 01 3e
       -0.14258447 0.01078047 0.43761706 0.1263619
0003e0 2e c6 a6 be 11 63 76 bc 76 e4 9f 3d 0c 4f 19 bc
       -0.32573074 -0.015038268 0.07807247 -0.009357225
0003f0 4b 58 e1 bc 92 18 27 bc f5 fe 16 3e 64 57 3f be
       -0.027507922 -0.010198729 0.14745696 -0.1868568

regressors.0.lins.2.bias f4 [32]
000000 a2 e8 1e be f6 61 73 3d 98 4a 65 be 1b d9 86 bd
       -0.1551843 0.059419595 -0.22391737 -0.06584378
000010 57 b5 0e be de bf 6d 3d b7 42 e3 3d a3 d2 6c be
       -0.13936363 0.058044307 0.11096709 -0.23127227
000020 1a 36 07 be c0 6b e1 3d a4 a8 0b 3c ed 33 1a bd
       -0.13204232 0.1100688 0.008524094 -0.037647177
000030 95 06 85 3e 86 94 6a 3e ed 33 87 bd 4b d9 0e 3e
       0.25981584 0.2290822 -0.06601701 0.13950078
000040 7f 96 3b 3e 43 77 2f bd 08 35 27 be a4 76 1d 3e
       0.18319128 -0.042838346 -0.16328824 0.15377289
000050 4b b3 14 be a5 a4 f8 3d c1 69 2c be f2 73 b2 bd
       -0.1452152 0.121407785 -0.16837217 -0.08713521
000060 a7 65 63 bd c8 c1 b7 bd bf 09 40 3b 04 01 13 3e
       -0.055516865 -0.08972508 0.0029302684 0.14355856
000070 8a 6b 27 3d 43 8b 1a bd da fc 3b 3e 19 31 dc 3d
       0.04087404 -0.037730467 0.18358174 0.10751552

regressors.0.lins.3.weight f4 [1, 32]
000000 d5 af f3 3d e5 04 7d bd bb c0 5a be 7a fe 0d be
       0.11898772 -0.061772246 -0.21362583 -0.13866606
000010 66 52 fb bd 2b 35 d0 bd 8f ce 16 3e dd b3 2e bd
       -0.12271576 -0.10166391 0.14727233 -0.042652
000020 04 b3 ba 3d 71 e9 83 3d 5d dd 56 3d 45 96 f8 bd
       0.09116176 0.0644101 0.052457202 -0.12138037
000030 94 43 4c 3e 65 92 1d 3e 46 ef f8 bd d0 75 c1 bd
       0.19947654 0.15387876 -0.12155013 -0.09446299
000040 f6 3e c2 3d 34 d4 b6 bc a0 c8 75 bd 60 dc 56 3d
       0.09484665 -0.022317983 -0.060005784 0.05245626
000050 8c 51 76 be 01 db 0a 3e 94 86 de 3d ce 08 b6 3d
       -0.24054545 0.13560106 0.108655125 0.08888398
000060 e6 2c 88 3c 52 22 64 bd 87 d2 22 b7 00 ba 13 3e
       0.016622972 -0.055696793 -9.70497e-06 0.14426422
000070 54 7c 4d 3c 8d ee 0e 3e 7a 66 7f 3d 0f 7b b0 bd
       0.012541849 0.13958187 0.06235359 -0.086172216

regressors.1.lins.0.weight f4 [32, 64]
000000 9c f7 e7 bd 3c a5 91 bd 26 9f a2 3d 40 e3 92 3b
       -0.113265246 -0.07111594 0.079405114 0.0044826567
000010 a7 a2 fb bc f6 92 f2 bd 9a 2f 18 be af c7 95 3d
       -0.030717207 -0.11844437 -0.14861909 0.07313477
000020 c8 a2 75 bc d7 d8 2d be 18 3d 06 3d 8a e9 3a be
       -0.014992423 -0.16977249 0.032773107 -0.1825315
000030 51 3c 7e be 61 d2 e8 3c ca 28 bb bb 43 8d 5f be
       -0.24827696 0.028420629 -0.0057116495 -0.21831231
000040 64 75 0a bd 3d d5 b3 3d 8c ac bb 3d 9e 60 e7 3d
       -0.03380336 0.08780906 0.0916377 0.11297725
000050 10 3a cb bd 98 81 93 3d 90 d8 83 bb 9a db 88 bd
       -0.09923184 0.072024524 -0.004023619 -0.06682511
000060 3f 71 d2 3d 35 86 63 3c 71 e1 01 3e 4a 2d e4 3d
       0.10275506 0.013886978 0.12683655 0.11141451
000070 40 18 2a 3d bc b1 ec 3d d8 e6 a3 3d 85 c6 98 3d
       0.041527033 0.11557338 0.08003014 0.074597396
000080 fa e4 2e be e8 28 80 bd 12 bf 82 3d 91 4e 30 be
       -0.17079535 -0.06257802 0.063841 -0.1721747
000090 d3 00 05 3c 66 39 27 be 70 45 c4 bd 2f 9a 8c bd
       0.008117872 -0.1633049 -0.09583557 -0.06865346
0000a0 e0 60 a7 bd 9a 19 9f be 51 16 37 be 14 8a 84 3d
       -0.08172774 -0.3107422 -0.17879607 0.06471649
0000b0 12 36 bd bd 3f 89 fc 3c 0b 56 9c bc 9f 07 97 3d
       -0.09238829 0.030827163 -0.019083997 0.073745005
0000c0 e0 32 80 3d 71 cb 84 bd 80 28 e4 bc 78 f7 03 3e
       0.06259704 -0.06484116 -0.027851343 0.1288737
0000d0 f8 19 54 bd 24 a6 9c bd 49 48 54 be 72 0f c7 bc
       -0.05178258 -0.07648876 -0.207307 -0.024299357
0000e0 de cb 93 bd 35 86 a4 be 0d 8e 0b be 9a 83 58 3d
       -0.07216619 -0.32133642 -0.13628407 0.05285988
0000f0 28 b2 11 3d 17 d6 ae bd 0c 15 e6 3d e5 ab b1 3d
       0.035570294 -0.08536928 0.11234483 0.086753644
000100 f2 fc 00 be f0 db 9f 3d 1a 2c 04 3d 96 16 ba bd
       -0.12596491 0.078056216 0.03226862 -0.09086339
000110 9a a8 a4 3d 34 21 2a 3e df a9 ad 3d 96 0b 32 3c
       0.08039971 0.16614228 0.08479666 0.01086702
000120 0f 86 8c 3d cb 26 82 bd da d2 d1 3d ec 10 a4 bd
       0.06861507 -0.063550554 0.10245295 -0.0801104
000130 5c 3b 4f bd 9b b1 ae bd 66 f6 1c 3d d4 50 53 3e
       -0.05059372 -0.08529969 0.03832092 0.20636302
000140 96 c3 40 3d eb 05 a7 bd d7 0a 5d 3e f5 08 86 3d
       0.047061525 -0.08155426 0.21586166 0.06544677
000150 00 5e d2 3d e8 59 cf 3d 75 c1 43 bd 06 f2 78 3b
       0.10271835 0.1012457 -0.047791917 0.0037986054
000160 e9 3c 21 be 2e c7 f4 bd f1 9f 67 bd 04 90 d5 3c
       -0.15745892 -0.11952053 -0.056549016 0.026069649
000170 ac 29 32 bd 7f 49 e5 3a 44 e2 0c bd f7 c5 06 be
       -0.043496773 0.0017493217 -0.03439547 -0.13161455
000180 e3 c2 67 bd 68 64 b3 bc 56 e0 9c bd 79 c0 5d 3b
       -0.056582343 -0.021898463 -0.07659976 0.0033836646
000190 99 48 25 3e fb a3 04 3d 51 16 2c 3e 58 1b 5f bd
       0.16140975 0.032382946 0.16805388 -0.054469436
0001a0 0b 67 c8 3d b1 16 a3 3b fa 5b 7f 3c ff 43 29 bd
       0.09785279 0.0049770703 0.015585894 -0.04132461
0001b0 ca f6 d9 3d 04 b8 43 3d e8 ed 55 3d ef 28 b9 bd
       0.106427744 0.047782913 0.05222884 -0.090410106
0001c0 be 49 6f bc 8c 96 27 3e 65 3d b9 bd 27 62 8f bd
       -0.014604984 0.16366023 -0.09044913 -0.07001143
0001d0 30 b6 1d 3d 44 c2 18 bd 69 d6 0e bd ac b6 cd bb
       0.038503826 -0.03729464 -0.034872446 -0.0062778797
0001e0 4d 04 88 bd ec e8 b2 bd 3e b0 94 bd bd ee 83 bd
       -0.06641445 -0.087358326 -0.07260178 -0.0644202
0001f0 04 72 28 3d ce ce bb 3c 30 05 bb bc fa 60 e1 bd
       0.04112436 0.02292576 -0.022829622 -0.11004825
000200 27 2a 3b 3e 06 bf b9 3d 87 72 d3 bd be 2c 9f 3d
       0.18277799 0.09069638 -0.10324579 0.07772206
000210 1b f6 b2 3d ed aa 0e 3d 44 59 36 bd 05 52 f4 bc
       0.08738347 0.034830976 -0.044518724 -0.029824266
000220 b6 8d e1 3c 6e dc 9b 3d 07 34 19 bc 60 b4 59 bd
       0.027533393 0.07610403 -0.009350783 -0.053150535
000230 d4 8d 94 3e f9 5a 0b be 12 70 b0 bd b2 c8 74 bd
       0.29014456 -0.13608922 -0.08615126 -0.05976171
000240 8d ef 61 3d fb 53 80 3d c2 25 a6 bd 55 18 60 3d
       0.055160094 0.06266018 -0.081126705 0.054710705
000250 e0 9b c3 3b 2e 89 87 3d a6 24 05 be 7a 05 bc bd
       0.0059695095 0.06617962 -0.13002262 -0.09180732
000260 e1 2d a8 bd 34 75 8c 3e 61 77 b6 3c 5a 9b e5 bc
       -0.08211876 0.2743317 0.022273721 -0.028028179
000270 58 b4 a8 bd ad ea 53 3d 9a 9c ac bd f6 f2 2f 3e
       -0.08237523 0.051737476 -0.08428307 0.17182526
000280 b0 b2 ef 3d 70 11 dc bd c3 ce dc bd f7 2a 02 3d
       0.11704004 -0.107455134 -0.10781624 0.031779256
000290 f3 ea 4b bd bd 0a f2 3c 06 73 a1 bb 48 a7 e5 bd
       -0.049784612 0.029546136 -0.004927042 -0.11213547
0002a0 4b b5 27 be ed af 17 3e 85 76 20 be a6 51 83 3c
       -0.16377752 0.14813204 -0.15670212 0.016030144
0002b0 88 a0 8d 3d c0 86 c1 3c 95 3c 57 be c7 fa 74 3d
       0.069153845 0.023623824 -0.21019204 0.059809472
0002c0 06 d1 81 bd b9 d1 54 bd 62 f6 05 3d 58 d9 d7 3d
       -0.06338696 -0.05195782 0.032705672 0.10539502
0002d0 a2 2f 91 3d 8c cd ab bd c9 07 e1 bd a5 07 d2 3d
       0.07089163 -0.08388814 -0.10987813 0.10255364
0002e0 5b b8 e5 3d e3 31 46 bd 59 03 04 3e b5 a3 75 3d
       0.11216804 -0.04838742 0.12891902 0.059970576
0002f0 e0 73 c3 bb 7b df 05 3e 88 ba fa bc e9 50 79 3c
       -0.005964741 0.13073532 -0.030606523 0.015217044
000300 62 61 a1 3d 28 91 17 3d b0 2a e5 bd bc a8 8b bd
       0.078799024 0.037003666 -0.111897826 -0.06819293
000310 fd 61 c2 3c ab 62 39 be 49 a9 57 be 2e 25 8f be
       0.023728365 -0.18104045 -0.21060671 -0.27958053
000320 71 da 77 3d b0 d6 0e be 66 ca 72 be 06 e4 82 bd
       0.060511056 -0.13949084 -0.23710021 -0.06391148
000330 e4 a2 02 be 76 fe 07 be 3f 5f 7e bc 02 75 c8 3d
       -0.1275745 -0.13280663 -0.015525638 0.097879425
000340 99 16 fe 3d ba 3c b7 bc ad 4f f5 3a ba 8b f0 bd
       0.12406654 -0.022367824 0.0018715762 -0.11745401
000350 b0 8b 1f bd 28 db d4 bc ac 18 3b bd c2 6f 4c be
       -0.038951576 -0.025983408 -0.045677826 -0.19964507
000360 27 ed 2c 3e c3 77 a2 3c cd f5 0a 3e f0 bd 72 3d
       0.16887341 0.019832497 0.13570328 0.05926317
000370 9e 7f 80 bd 67 01 c5 3d e4 fa 17 3d 98 0c 87 3d
       -0.06274341 0.09619408 0.037104502 0.06594199
000380 f8 09 c0 bd 54 30 6d bd 23 0e fb 3c 85 26 e3 3d
       -0.093769014 -0.057907417 0.03064639 0.110913314
000390 41 68 3e be e7 db e6 3d ab fb cd 3d 9c 1b cb 3d
       -0.18594457 0.11272412 0.100577675 0.099173754
0003a0 cb f5 2b bd eb 06 90 bd 28 13 37 bd 41 5d 29 bd
       -0.041982453 -0.070325695 -0.044696003 -0.0413487
0003b0 6e e0 87 be af 26 b8 3d 6a 2c a7 bd 9e b9 f4 bd
       -0.26538414 0.08991753 -0.08162768 -0.11949466
0003c0 e4 f3 1d 3e da b8 fc bd 7f d0 1e be 23 3c a6 bc
       0.15425068 -0.12339945 -0.15509222 -0.020292347
0003d0 fe 15 fd 3d 94 07 cd 3d 46 de 23 3e 42 66 eb 3c
       0.1235771 0.10011211 0.1600276 0.028735284
0003e0 f3 9f dd bd 4f 46 4b 3e 75 ff d6 be 9b 40 31 bd
       -0.108215235 0.1985104 -0.41991773 -0.043274503
0003f0 f4 dd 9e bd 26 41 f3 bc 10 7c 95 bd f2 aa eb 3d
       -0.07757178 -0.029694151 -0.07299054 0.115072146

regressors.1.lins.0.bias f4 [32]
000000 99 0a 80 bc 59 91 1d 3e 9e 90 55 bd d6 cd fd bd
       -0.015630053 0.15387477 -0.05213987 -0.12392776
000010 83 63 4a 3e e8 eb 15 3e c0 22 70 3c a1 c1 01 be
       0.19764523 0.14640772 0.014656723 -0.1267152
000020 10 f9 e1 3d 70 4f 80 3d 6e 06 fe bd 4f 7b b3 bd
       0.11033833 0.062651515 -0.1240357 -0.087637536
000030 0b df 85 3d 94 76 4e 3e 56 c4 d3 3c 51 39 59 3e
       0.06536683 0.20162421 0.025850456 0.2121327
000040 83 91 18 3e 8d f9 30 bd e9 ec ba bc 7b d5 77 3e
       0.14899258 -0.04320674 -0.022818046 0.2420253
000050 b7 4b 84 3c f3 9b 7b 3e 40 87 e3 bd cf 83 64 bd
       0.016149385 0.24571209 -0.11109781 -0.055789765
000060 43 50 c3 3d ff 67 ea 3d 28 64 dc bc cd f6 2d 3e
       0.09536793 0.11445617 -0.026903227 0.16988678
000070 e6 c2 b7 3d af 9a 62 3e 06 78 67 3e c6 c5 39 bd
       0.08972721 0.2212932 0.22604379 -0.045354627

regressors.1.lins.1.weight f4 [32, 32]
000000 e2 94 1a be 7e 5a 80 be 3b 43 8f 3c e2 79 22 3e
       -0.15095857 -0.2506904 0.017488113 0.15866807
000010 86 38 f1 be 82 53 37 bd e9 aa 9d bd 66 05 83 3d
       -0.47113436 -0.044757374 -0.07698614 0.06397514
000020 e8 ac 7f be 15 fc 6c bd 69 16 01 be fb 01 b5 3e
       -0.24968302 -0.05785759 -0.12606205 0.35353073
000030 4c 80 0d be fa 65 13 bd 4f 9c 95 be 4e 5b 15 3b
       -0.13818473 -0.035985924 -0.29220816 0.0022790018
000040 c5 df 04 3b 5a 5d 0b 3e ea 99 2b 3c 1d a0 b9 3d
       0.0020274979 0.1360983 0.010473708 0.09063742
000050 5c 68 c4 3d ee bc c4 be 09 55 43 be 7e 59 88 bc
       0.095902175 -0.38425392 -0.19075407 -0.016644236
000060 ef 16 5a bd 59 5c 0c 3e 14 79 ae bd 54 ce 82 3d
       -0.053244527 0.13707103 -0.085191876 0.0638701
000070 39 42 8c be bc f0 09 be 5f 1a cf 3e d6 ed 1b be
       -0.27394274 -0.13470739 0.40449807 -0.15227446
000080 c0 01 73 3c bd 09 82 bd 97 74 f2 bd a3 f6 5e 3d
       0.01483196 -0.06349514 -0.11838644 0.05443443
000090 8d e7 1b be 7d 68 4c 3e 47 34 28 bc 6b 6b 3e 3e
       -0.15225048 0.19961734 -0.01026637 0.18595664
0000a0 a5 6e 23 3e 8d be 01 3d 41 8d 9e be ac 77 c2 3d
       0.15960176 0.031675864 -0.30967143 0.09495482
0000b0 52 c1 a1 3c de f6 20 bb 4b c0 b5 3c 21 32 4b bc
       0.019745503 -0.0024561207 0.022186419 -0.012402088
0000c0 a9 5f df bd d3 64 2f bd b1 03 ea 3d 92 52 37 3e
       -0.109069176 -0.042820763 0.11426485 0.17902592
0000d0 b1 c8 25 be 72 a8 2e be c1 fb 86 3d 94 4e 08 3e
       -0.16189839 -0.17056444 0.06590987 0.13311225
0000e0 57 c0 6e 3e c6 86 2c bd 9d 4f 35 3e e9 ee 68 3a
       0.2331556 -0.042120717 0.17706151 0.0008885698
0000f0 39 3a bf 3d 26 2a 31 3d 2f 97 93 3e 18 8a 06 3d
       0.09337277 0.043253087 0.2882628 0.03284654
000100 ee e4 d4 bb 97 09 47 3e b8 b6 52 bd 3c 77 87 bd
       -0.006497017 0.19437252 -0.051443785 -0.06614539
000110 58 c5 ce bd a6 60 53 3e 40 d8 06 3e 5f 53 c9 3b
       -0.10096234 0.20642337 0.1316843 0.006143972
000120 84 d1 0b be 55 1d 38 3e 42 dc 55 3e c9 3d 06 be
       -0.13654143 0.1797994 0.20884803 -0.13109507
000130 f3 0f 27 3e b1 52 8f 3b 2e e1 38 3e 1c 43 68 bd
       0.16314678 0.0043738713 0.18054649 -0.056704625
000140 c3 85 f5 bd 7b 2f 9b bb af 0c 9c 3c 9c b9 15 be
       -0.11988404 -0.0047358847 0.019049017 -0.14621586
000150 5f 0b c2 3d 4b 8b 6e 3e f9 fa 53 3e 66 85 39 3e
       0.09474825 0.23295324 0.20701207 0.18117294
000160 ae 3b 80 be 66 89 b0 3d bc 74 96 bc 79 14 3e 3d
       -0.25045532 0.08619957 -0.01836621 0.046406243
000170 fa cb 0c be 2d b1 8c bd 2c 46 97 bc 12 78 d1 3d
       -0.13749686 -0.06869731 -0.018466078 0.1022798
000180 c9 5f 9d 3d 06 15 12 3e 99 4e dc 3d fd da 36 3e
       0.07684285 0.14265832 0.10757179 0.17856975
000190 7f 98 4b 3e d9 a8 8c bd 03 73 0f be 9d c2 50 3d
       0.19882391 -0.06868143 -0.14008717 0.050966848
0001a0 27 1e 63 be ec db 17 3e bb 14 cf 3c 8b a9 ae 3d
       -0.22179471 0.14829987 0.02527844 0.085284315
0001b0 f2 c0 95 bd 7b 14 2e be d3 33 96 be 02 81 33 bb
       -0.07312192 -0.17 -0.29336414 -0.0027390127
0001c0 c7 05 7c be 9d bd 5d be 2a fd 11 bf 1b 50 bf bc
       -0.24611579 -0.21654363 -0.5702692 -0.023353627
0001d0 b2 05 2d bd 4c 53 7d 3d 11 d3 8a 3d ff a6 f5 bd
       -0.04224176 0.061847016 0.06778539 -0.119947426
0001e0 42 66 8d be 65 87 4c be 4b 77 89 3d 7c b7 44 be
       -0.2761708 -0.19973524 0.067122065 -0.19210619
0001f0 45 df 80 bc c4 a8 fc 3d e3 25 38 bf f7 40 23 be
       -0.015731463 0.12336877 -0.7193281 -0.15942751
000200 d4 99 99 3d 84 2c 29 bc cf 78 de bc 2f 20 81 3e
       0.075000435 -0.010325555 -0.027157215 0.25219867
000210 b0 62 07 3c 3a a6 44 3e 3c 64 08 3e 24 cb ff bd
       0.008263275 0.19204035 0.13319486 -0.12489918
000220 8c 35 81 3e bb a8 03 bf 70 95 91 be d7 bd bc 3b
       0.25236166 -0.5142934 -0.28434324 0.0057599354
000230 72 59 09 3e 6e e4 ac bd 7b 37 0d 3e 83 73 2b be
       0.13413027 -0.08442007 0.13790695 -0.16743283
000240 52 cc d8 be cd 67 06 3e 3d 0c 17 3e a6 87 8c be
       -0.42343384 0.13125534 0.14750762 -0.27447242
000250 3c 1a a1 be 6b ca 89 3d c5 09 52 3d 3f 0b ce bd
       -0.31465328 0.06728061 0.05127885 -0.10060739
000260 15 6c 90 bd 4d 88 09 be bb ed 84 bd e0 6f 24 bc
       -0.07051865 -0.13430901 -0.06490656 -0.010036439
000270 18 da f0 3c 10 ea ba 3c 34 51 39 be 4a c2 e0 3d
       0.02940087 0.022816688 -0.18097383 0.10974558
000280 25 25 0f be 77 4f 99 3d ec 40 ec bd a4 06 15 bd
       -0.13979013 0.0748586 -0.1153582 -0.036383286
000290 7d 70 9b 3d ca 7e 3d 3e e2 d8 08 be 7e fe 5f bd
       0.07589815 0.18505397 -0.13363984 -0.054686062
0002a0 16 89 49 be ec d4 53 bd 62 0a 1e be 14 0c 32 3c
       -0.196812 -0.05171673 -0.15433648 0.010867137
0002b0 c3 04 aa bb 22 ed 65 be ff 0d 12 be e2 ee 73 3e
       -0.005188556 -0.2245374 -0.14263152 0.23821595
0002c0 90 03 10 bd 6a e1 8b bd 44 86 50 3e d2 eb 0b 3e
       -0.035159647 -0.06830104 0.20363718 0.13664177
0002d0 b7 25 53 bd 38 8b 32 3e 8b 21 37 39 19 da 26 3e
       -0.05154964 0.1743592 0.00017464736 0.16294135
0002e0 05 1e 11 3e ac 58 3d 3d e5 2c 1c be 7c 3d d4 bd
       0.14171608 0.046227142 -0.15251501 -0.1036329
0002f0 45 4e 0e be 97 a0 0d be cf ba a0 3d 1b 36 e1 3d
       -0.13897045 -0.13830791 0.07848131 0.10996648
000300 e6 96 32 3e 76 85 08 bd af 5c 58 3d d5 d6 a4 3d
       0.17440376 -0.033330403 0.052822765 0.080487885
000310 0e ff 67 3c ea 12 92 3c 86 0f 8a 3d 23 e3 0d 3e
       0.014159931 0.017831285 0.06741242 0.13856177
000320 2a 7c cc 3d a4 82 6b bd a4 0b 87 3d 0f ac d3 3d
       0.0998462 -0.057497635 0.06594017 0.10335552
000330 3c 80 63 3c f9 7e b4 bd 97 d8 8e bc ad 83 73 3d
       0.013885554 -0.088132806 -0.017437262 0.059451748
000340 49 c2 c9 3d 45 03 1c bd 96 ed e1 3d e2 57 81 be
       0.0985151 -0.038089056 0.11031644 -0.25262362
000350 b4 08 a4 bd 70 7c ce be 82 9f c2 3d 75 ed 2b be
       -0.080094725 -0.40329313 0.0950308 -0.16789801
000360 59 25 1e 3d 6f 95 3c be 94 ac 8c bd fd 4f fd bd
       0.038609836 -0.1841638 -0.06868854 -0.12368772
000370 d3 64 57 3e 38 76 12 be fb ce 86 3d 7c a3 4e bd
       0.21034555 -0.1430291 0.06582447 -0.05044888
000380 76 70 00 be e3 53 e2 bd 8c 49 df bd c3 9f 8f 3e
       -0.125429 -0.11051156 -0.109027 0.28051576
000390 95 e2 35 3e ec 20 2d 3e 64 87 93 bb 3f 4c 1f bc
       0.17762215 0.1690709 -0.004502224 -0.009722768
0003a0 d5 fc 63 bd bb 27 04 be 00 c6 f1 3d d5 4d 0e 3e
       -0.05566104 -0.12905781 0.11805344 0.13896878
0003b0 fc 6c 49 3e e9 11 b7 3d 1d 99 1c 3e 95 76 23 be
       0.1967048 0.08938963 0.15292783 -0.15963204
0003c0 58 49 29 bc cb 3c 1f bd ec 50 35 3d fa f2 21 bd
       -0.010332428 -0.038876336 0.044266626 -0.03953836
0003d0 a7 cf b8 bc af 9b c6 3d 17 22 d5 bd 3a 6d 02 3e
       -0.022559954 0.09697663 -0.10406893 0.12736979
0003e0 85 3b db 3d 58 e7 0b 3e ca db b2 3c 5c 42 c3 3c
       0.10704712 0.1366247 0.02183332 0.023835354
0003f0 00 e4 d1 3d 2f b4 ff 3d c6 0c 09 3e b1 b2 12 3d
       0.10248566 0.12485539 0.13383779 0.035814945

regressors.1.lins.1.bias f4 [32]
000000 fd 6f ce 3c 5f fa 85 bd ed 34 9f bd 75 b6 03 bd
       0.025199885 -0.06541895 -0.07773767 -0.032156426
000010 a3 4f a4 bd 3c e5 a3 3e 78 76 a7 3d e1 45 89 3c
       -0.08023002 0.3201083 0.08176893 0.016756954
000020 15 d9 3a 3d 58 c9 5d bd 62 b0 17 be fc 6f 2f be
       0.04561718 -0.054147094 -0.14813378 -0.17132562
000030 c3 bf 3b 3e d2 83 c2 3d c7 cd 5c 3a 7b 77 fb 3d
       0.1833487 0.09497799 0.0008422997 0.122786485
000040 2b b0 d2 3b c0 31 e6 3d 2c fe da bd 36 b5 9c 3d
       0.0064296923 0.11239958 -0.10693011 0.07651751
000050 50 dd 8f bd 08 bd 3d 3d 17 e0 00 3e c8 28 5f 3e
       -0.07024634 0.046322852 0.12585483 0.217929
000060 b9 80 c1 3c b6 e4 79 3e 93 f9 48 be f5 1e 14 3e
       0.02362095 0.24403653 -0.19626455 0.14464934
000070 b8 7d 77 be 40 4d 67 3b 74 60 01 3e c1 d7 1c 3e
       -0.24169052 0.0035293847 0.1263445 0.15316679

regressors.1.lins.2.weight f4 [32, 32]
000000 48 fd 91 be 84 2d bd 3d 26 ac 27 be 80 20 eb be
       -0.2851355 0.09237197 -0.16374263 -0.45923233
000010 50 88 14 3f 70 5f 17 3e 1b a8 81 bd 37 5d aa 3d
       0.58020496 0.147825 -0.06330892 0.083185606
000020 0e 52 b8 bd 5f f6 ef 3d e0 e6 39 be 98 3c c7 bd
       -0.09000026 0.117169134 -0.18154478 -0.09728354
000030 19 1d bb 3d 91 66 6a 3e f2 3f 98 3d aa 48 72 be
       0.09136409 0.22890688 0.074340716 -0.23660532
000040 3d 93 91 3d c9 64 b6 3d 21 28 2a be a1 28 1e 3e
       0.071081616 0.08905942 -0.1661687 0.15445186
000050 12 5c c5 3c c6 46 59 be 25 1c bd 3d a6 1a e6 3d
       0.024091754 -0.21218404 0.09233884 0.112355515
000060 1d be 21 bd 05 00 82 be 90 f7 28 bd ac 32 b7 3e
       -0.039487947 -0.2539064 -0.04125172 0.35780847
000070 3e 65 8d bd 83 2a e1 3d da 27 cc bd 5b 67 1d be
       -0.06904076 0.109944366 -0.099685386 -0.15371458
000080 ab 21 18 3e 41 b6 b2 3d d3 9f 8d bd 6e 70 e9 be
       0.14856593 0.087261684 -0.0691525 -0.4559359
000090 7a 90 9a ba 7f 97 82 be ff a4 76 3b 44 88 4e be
       -0.0011792325 -0.25506207 0.0037634966 -0.20169169
0000a0 c0 cc 25 be f8 a5 33 3e 9a b8 e8 3d db bc 9f bd
       -0.16191387 0.17543781 0.11363335 -0.07799693
0000b0 1e 57 1e 3e 93 ca fb 3d 16 98 7f 3d 9d 1d 95 bc
       0.1546292 0.12294497 0.0624009 -0.018202597
0000c0 68 87 8d be ca c0 69 be dc c2 01 3d 97 a9 cf 3c
       -0.2764237 -0.2282745 0.031679973 0.025349421
0000d0 e0 16 99 3d db 29 f9 3c 12 d8 69 3d f4 7e b0 3d
       0.07475066 0.030415466 0.057090826 0.086179644
0000e0 8e fb 2a be c8 62 ec bc 85 f4 fe 3d b0 5a c7 3d
       -0.16697523 -0.028855696 0.12448982 0.09734094
0000f0 e1 bb b4 bb 4d af 8c 3e c2 f1 3d be 5a 18 b1 bd
       -0.005515561 0.27477494 -0.18549255 -0.08647223
000100 3d 1f bf be 80 d3 94 3d 3e d9 b9 3d 5a 32 57 bc
       -0.3732852 0.07266903 0.09074639 -0.013134563
000110 42 b6 2b 3e 1c ab 3f 3e 44 08 22 3e 67 ef 43 3d
       0.16768745 0.18717617 0.15823466 0.047835734
000120 70 94 84 3d bd 27 55 be ba 61 0d be 46 29 00 3e
       0.06473625 -0.2081594 -0.13806811 0.12515745
000130 0e 39 c4 3d 97 b8 4f be e4 f7 23 3d 2c 88 33 3e
       0.09581195 -0.20285259 0.04003133 0.17532414
000140 34 33 2b 3e 0e 11 28 3d 83 ab d6 3c cb 76 3d be
       0.16718751 0.04103189 0.02620483 -0.18502347
000150 ca 02 85 bd 0f bb 7b 3c 74 c6 5b bc c7 24 f1 3d
       -0.064946726 0.015364422 -0.013414014 0.11774593
000160 94 f1 35 3e af 8e fe 3d e1 93 5e 3d 66 29 0c 3e
       0.17767936 0.124295585 0.054340247 0.13687667
000170 41 77 0d 3e 40 2e 12 be e5 bb 82 3e f8 ae 26 3e
       0.13815023 -0.14275455 0.25533977 0.16277683
000180 7c cb b8 3d 7b f2 84 be cc 79 c8 bd cd 2c 4b 3e
       0.090231866 -0.25966248 -0.09788856 0.19841309
000190 05 4f ca 3c 4f c1 b2 3d d0 76 e0 3d d8 1e 30 3d
       0.024695883 0.08728277 0.10960162 0.042998165
0001a0 f3 ee f5 bd cb b2 0b be 8f 7b 1d 3d f4 4d 58 3d
       -0.120084666 -0.13642423 0.038447913 0.052808717
0001b0 38 87 56 be 42 42 a8 3d 5d c8 09 3d 05 3b 95 3d
       -0.2095002 0.08215763 0.033638347 0.07286648
0001c0 45 e7 c0 bc 5b 74 48 3d 3e c1 20 be 11 72 4b bd
       -0.023547778 0.04893909 -0.15698716 -0.04966933
0001d0 a7 26 0e 3e 80 f6 64 bd 37 61 a6 bb ce ea 48 be
       0.13881932 -0.055899143 -0.005077507 -0.19620821
0001e0 27 0d 85 3d c2 60 1f be 53 d7 17 3e cc 06 b6 be
       0.06496649 -0.15564254 0.14828233 -0.3555206
0001f0 e7 a6 0e 3e e6 4f 09 be ab 9b 9e be e6 89 3c 3d
       0.13930856 -0.13409385 -0.3097814 0.046029948
000200 39 1e 0f 3e e6 98 99 3d 30 5a 10 3e 78 13 4d 3e
       0.13976373 0.07499866 0.14096904 0.20026958
000210 44 00 66 bc 5e 88 4c 3d 11 d9 34 be 11 e1 22 3e
       -0.014038149 0.049934737 -0.1766093 0.15906169
000220 b1 ee 3e be 8c 06 ab bd 86 4e 5c be a9 7a b0 bc
       -0.18645741 -0.08350858 -0.2151433 -0.021542864
000230 d4 b3 35 3e 11 c1 d4 bc ca 8f 82 be e2 76 36 bc
       0.1774438 -0.025970967 -0.25500327 -0.011136742
000240 39 c7 a0 3d e3 10 48 3c ad 5a 78 be 30 27 d8 be
       0.07850499 0.012211057 -0.2425334 -0.42217398
000250 b1 4f c2 bd 0a 60 8d be 7c fe 60 be 5f 18 54 3d
       -0.09487856 -0.27612334 -0.21972078 0.051781055
000260 7b 73 5b 3e 2a c9 64 be ab 86 b9 3d 1c 85 0b 3e
       0.21430771 -0.22342363 0.09058889 0.13624996
000270 bd fa b5 bd 61 8d ad 3d f8 44 3c 3d 3b 6d 2b 3e
       -0.08885715 0.084742315 0.04596421 0.16740887
000280 a2 cc f4 bd 50 e0 c2 3d d2 d1 12 be c7 32 63 bd
       -0.11953093 0.095154405 -0.14337853 -0.055468347
000290 ab 44 58 3e 11 0d e5 bd 0a 9d 04 bd ad 6a 0e 3e
       0.21119945 -0.11184133 -0.032376327 0.13907881
0002a0 9b 7b 9d 3d a2 01 1c be 65 1a ac 3c 13 9b e2 3d
       0.076895915 -0.15234998 0.02100868 0.11064734
0002b0 59 6e a4 3d 29 3a 57 3d 15 f9 57 3e db d3 68 3c
       0.0802886 0.0525457 0.21091111 0.0142106665
0002c0 a6 4c 09 3e f5 b5 05 be f5 a8 2f 3d 96 f5 38 be
       0.13408145 -0.13057692 0.04288574 -0.18062434
0002d0 e0 9c 84 bd dc 37 d5 3d 13 8d b9 3c d2 8e da 3d
       -0.06475234 0.10411045 0.022650277 0.10671772
0002e0 f8 1d e4 3d 6c bc 55 3e d3 f1 05 be c2 39 91 ba
       0.111385286 0.20872658 -0.1308053 -0.0011079835
0002f0 8a 35 b9 bd d9 f9 57 bd 31 37 95 3d 21 bb e8 3d
       -0.09043415 -0.052728508 0.072859176 0.11363817
000300 f8 63 8d 3e 50 82 ab 3d 81 cd 88 3b e3 a1 37 be
       0.27615333 0.083744645 0.0041748886 -0.17932849
000310 3f a0 aa be 64 ca 94 bb 2c a4 fc bd 4b cd c8 3d
       -0.33325383 -0.0045407284 -0.12336001 0.098047815
000320 50 c9 0e bd 86 09 55 3e 37 00 ad 3d f6 db a2 3d
       -0.034859955 0.20804414 0.084473066 0.079521105
000330 34 a6 90 3e 5a 77 f7 3d 40 49 aa 3d f2 af 5c 3e
       0.28251803 0.120833114 0.083147526 0.21551493
000340 f7 5c e1 bd 81 7b 78 3d f9 56 3a 3e 85 b6 65 bd
       -0.1100406 0.060664658 0.1819724 -0.056082267
000350 1e 9d e6 bd fe 89 12 be 67 88 28 be 5d d6 44 3e
       -0.112604365 -0.14310452 -0.16458283 0.19222398
000360 ea 66 81 3e f8 99 1b 3c bb 66 a1 3d 4a 46 22 be
       0.2527383 0.009497158 0.078809224 -0.15847126
000370 8a 47 49 3e 21 aa 7e 3e 72 d5 61 3e 64 cf 8c be
       0.19656196 0.24869587 0.22054079 -0.27501976
000380 5e 42 be 3d 67 4a dd bc c9 81 d2 bd 4a 08 76 3e
       0.09290002 -0.027013017 -0.10278661 0.240266
000390 9b 83 d6 ba fc d4 28 3e 2e 84 1f be 50 f1 7a be
       -0.0016366126 0.16487497 -0.15577766 -0.24506116
0003a0 87 f7 57 3d c4 8a a5 3d f3 e7 3d be 1b 44 ce 3d
       0.052726295 0.08083108 -0.18545513 0.10071584
0003b0 60 33 29 bf f0 3f 2c be ba 3d 4e bb 4c 57 f4 3b
       -0.6609402 -0.16821265 -0.0031469897 0.0074566957
0003c0 5e 00 39 bd f7 2c 96 be a6 11 d2 be 3e 38 f6 be
       -0.045166366 -0.2933118 -0.4102909 -0.48089784
0003d0 e8 46 17 be 05 a6 d4 be 87 8b 72 bd d1 1b 34 3d
       -0.14773142 -0.41532913 -0.059215095 0.04397184
0003e0 34 b8 54 be b0 66 df be 6c 3d bf 3d 2b 7d 0c bf
       -0.20773393 -0.43633032 0.09337887 -0.5487849
0003f0 5e 76 b0 be d7 19 9d be 82 14 78 3d e4 fe d9 3d
       -0.34465307 -0.30683777 0.060566433 0.1064432

regressors.1.lins.2.bias f4 [32]
000000 f5 73 0e 3d 07 72 e0 3d 88 30 ce 3d 7b 0b 78 bc
       0.034778554 0.10959249 0.1006785 -0.015139456
000010 01 03 68 be bc 10 13 3e 32 1e 58 be 73 67 23 3e
       -0.22657396 0.14361852 -0.21105269 0.15957431
000020 c3 f3 2b be 09 d8 af bd 08 a6 2f 3e aa 9d 11 3e
       -0.16792206 -0.08586127 0.1715318 0.142203
000030 9e f7 64 be 92 45 33 be 92 f5 b8 3d 9a 1b 98 3e
       -0.22360083 -0.17507008 0.09031214 0.29708558
000040 0c 0c 62 3e f1 f5 74 bd 86 d3 e2 3d 84 a4 a3 bd
       0.22074908 -0.05980486 0.11075501 -0.07990363
000050 94 2e 0b be 59 0e ae 3b a9 2c 00 be 49 20 3a bd
       -0.13591987 0.005311769 -0.12517036 -0.045440946
000060 9a fc a3 3d 24 bf 16 bd d3 74 c4 bc 11 47 3f 3d
       0.08007164 -0.03680338 -0.023981487 0.046698634
000070 81 03 27 3d db 8f d9 3c ef 45 71 b8 de 15 43 3d
       0.040774826 0.026557853 -5.752401e-05 0.047628276

regressors.1.lins.3.weight f4 [1, 32]
000000 20 bf a0 3d 1f fc bc bd 2d 03 3b 3e ea b9 01 bd
       0.07848954 -0.09227776 0.1826293 -0.031671442
000010 b2 d1 07 be 1a 60 95 3d dd 1f 2a bd bc d5 99 be
       -0.13263586 0.072937205 -0.041534293 -0.3004588
000020 4f c0 19 be 38 de f4 bd e5 14 a7 be 8b 69 2c be
       -0.15014766 -0.11956447 -0.3263313 -0.16837136
000030 cd c7 2d be 3f 0f 2b be 7a 5e 8b bd bf fd 70 3d
       -0.16970749 -0.16705035 -0.06805129 0.05883574
000040 07 20 14 3e e4 53 28 be 32 2c 89 bd 2b 33 67 be
       0.14465342 -0.16438252 -0.06697883 -0.22578113
000050 4c 3e 85 be 3d 7d 2c bb 7a 59 1b be 38 0e 0e 3d
       -0.2602409 -0.0026319765 -0.15170851 0.03468153
000060 2a 1d 54 be c2 28 26 be db 69 4d bd ab da ed 3d
       -0.2071425 -0.16226485 -0.05014978 0.11613973
000070 13 69 59 3d 86 f3 a4 bd df 0e e7 bd 03 e7 4a be
       0.053078722 -0.08054261 -0.11282133 -0.19814686
