baseline/DLPL-CAP/models_dlpl-cap-regressor/sandwich+ultra8t_to_ssram+digtime+timing_ctrl+array_128_32_8t/dlpl-cap-regressor_nh_2_tsk_regression_ngl_4_nhl_4_hd_32_us_1_bn_0_dp_0.0_epoch_9_20250402_151105.pth (torch, 64102 bytes, 21 tensors)

regressors.0.lins.0.weight f4 [32, 64]
00000000: 3384 3dbd 407d a2bb f66c b63c 2b7d 7e3d
00000010: fcba 2e3e a083 4f3d c800 b53d b5bf 09bd
00000020: f3ba 67be 7ff5 afbd 3289 0cbf f6f5 d23d
00000030: d5b0 ecbd 2a98 4b3d 4acd 70be e848 3fbe
00000040: e290 b6bd 369e da3d 9f0d 8b3e f175 24be
00000050: 7ce6 59bd 3825 85bc 6a7f 3dbc 3458 32be
00000060: fc03 033e 2efb abbd 2451 01be a6b6 1dbd
00000070: b697 eabd b902 563e d280 d3bd 542f 933a
00000080: 323d 41bd b037 41bc a490 4bbd 3421 a23c
00000090: dc56 2bbd 84e3 b63d 0880 053e f1e0 a83e
000000a0: a12f 583b 7c45 0d3e 2ec3 163e 5b4b 083e
000000b0: 2411 7bbe 9faf 493e 35d2 8ebe a635 663c
000000c0: adae ddbd b5f3 27bf 0894 b1be d4de c4be
000000d0: 92a0 9dbd 787c 3c3d b049 0fbe 109c bcbd
000000e0: 4004 5ebe ecbc 25be d855 f03c 94b3 4bbe
000000f0: 54de f4bd b76f 3f3e 126e e73d 0de5 28be
00000100: cf76 f0bd 7031 91bc e495 d1bd 38c8 1abd
00000110: 2ae7 a63d 5c2c 1dbd 53a9 36bd d9b6 aa3d
00000120: 20ab 84bd 201c 43bc 3c66 f2bc fb75 853c
00000130: c5f4 17be d522 4bbd e495 9b3d 95fa 903d
00000140: 137e 163c 6ba2 09be 7eed b8bd 9c5c f9bd
00000150: 807e c83d a042 243c 4b3b 2dbd aaf7 573d
00000160: e992 8cbd 8333 ba3b ee66 a23d 78ff 89bd
00000170: 48be aebc 14cb 9fbd 2cf3 7f3d f51b 2a3d
00000180: 3237 02be 2817 66bd b6ab c9bd f99a ef3d
00000190: 1564 14be bdd6 083d 16d5 43bd 1ee9 a2bd
000001a0: eab2 b8bd 9850 863d 86d8 b6bd edf4 fdbd
000001b0: fcbb 67bd a3e1 4d3d f435 9abd d842 07be
000001c0: a2ea 913d fb30 08be aa9d eebd e0e5 213d
000001d0: 3871 df3c 3676 e7bd 9a3e 71bd 5092 973d
000001e0: 4adb 93bd 33d7 283d 3013 d63c c1d0 d43d
000001f0: 46d5 dc3d 2a26 22bd 5c37 203d b9e0 dbbd
00000200: d24d a33d d88e a13d 9e87 08be 1e4c 66bd
00000210: 8ce3 f83d 117a 2bbd 8d47 6d3e 8fa2 f2bc
00000220: 8345 1cbe 43c1 443d 7e6e 49be 980e a6bd
00000230: 1b17 a1be b5fb c83d 047c 393e 6be9 08be
00000240: 5532 b2be a888 14be eb2a fdbc b4bb c33d
00000250: c0fc 9c3d 4cf4 20bd 476d 113e 9069 0a3e
00000260: d28b d43d 27dd 523e 1cc6 0dbd 365e c2bd
00000270: 2ce2 633d cc40 bcbe d67d 88bd d804 0c3d
00000280: e488 353d 4e15 9cbd 6066 0b3e 15b3 52bc
00000290: f905 3cbd 6839 38be 012b 953d 2fbd 91be
000002a0: ef2d c13d 609b 7c3e 2fe5 ce3d d0ef 20be
000002b0: 3c85 923e 72be 9fbd 3edc 3e3d dacd 503c
000002c0: 7000 d0b9 967d 133e ec23 45bd fe8e 893d
000002d0: 24ed eb3d d03a 013c 66c6 883d 59d9 1abd
000002e0: c57f 0dbe 574d 7fbe daf4 01be 3263 0ebe
000002f0: 2613 dc3d 550d 323d 50ba b03c 4efe 75be
00000300: b84f 8dbd 80ee aa3c dc1a e0be e47a 05bd
00000310: ab52 503c 0efc 41be 2891 34bd 3cf9 1a3d
00000320: 14f9 6e3e 6a36 b0be 8db3 b63d a367 b9bd
00000330: 466a f0bd 1945 153e f7f4 49bf c709 5dbd
00000340: 1b9f c0be 480a a4bd 2e64 56be 3fed c23d
00000350: 1220 a4bd 343a ff3d 3a7c 3dbe c4ff 593e
00000360: 507d 843c 2c24 38bd d9ac 7f3e a493 f43d
00000370: 50cb 7e3c 9a4b 6dbe f0ca babd 9495 023d
00000380: 43a6 983d 08f0 c2bc c621 92bd 2bf8 a03c
00000390: e5f5 e0bc 7a64 a0be 22b5 25bd 9a5d 123e
000003a0: 2bc6 7cbd d3c9 02be 70a5 78bc c07f 8d3d
000003b0: fced 11be 7e58 473e 652c 29bf ee7f 7a3d
000003c0: bd74 eb3d 2378 e3bd 0c7d 4abd 7b72 e13d
000003d0: 8659 9d3d 1c13 4abd 3de4 11be 1392 233e
000003e0: 63bf fe3d 2de5 2a3e 94c5 14bd 6175 5f3d
000003f0: 560f d03d 14f3 4f3e c451 f63d 8bc6 aa3a
-0.046268653 -0.0049587786 0.022268753 0.06213109 0.17063516 0.050662637 0.0883804 -0.03363009
-0.22629909 -0.085917465 -0.54896843 0.103008196 -0.115571655 0.04970566 -0.23515812 -0.18680155
-0.08914353 0.106747076 0.2715883 -0.16060616 -0.053198323 -0.016253099 -0.011566022 -0.1741646
0.12794489 -0.08397518 -0.12628609 -0.038504265 -0.11454718 0.20899476 -0.10327305 0.0011229315
-0.0471775 -0.011793062 -0.049698487 0.019791223 -0.041830882 0.08930114 0.13037121 0.32984117
0.0032987373 0.13796037 0.14722893 0.13309996 -0.24518257 0.196959 -0.2789475 0.014050877
-0.108243324 -0.6560624 -0.3468325 -0.38451254 -0.07696642 0.04601714 -0.13992953 -0.09209454
-0.21681309 -0.16185349 0.029337808 -0.19892722 -0.11956468 0.1869496 0.11300291 -0.16493626
-0.11741411 -0.017723769 -0.102336675 -0.0377886 0.0814956 -0.038372383 -0.044595074 0.08335657
-0.06477952 -0.011908561 -0.029589765 0.016291609 -0.14839466 -0.049593765 0.07596949 0.07079045
0.009185332 -0.13440864 -0.09029673 -0.12175867 0.09789753 0.01002565 -0.042292874 0.052726425
-0.068639584 0.00568241 0.079297885 -0.0673818 -0.021330968 -0.07802406 0.062487766 0.04153057
-0.12716368 -0.056174427 -0.098472044 0.116994806 -0.14491303 0.033407915 -0.047810636 -0.0795462
-0.090185 0.06558341 -0.08928017 -0.124002315 -0.05657576 0.050264012 -0.07529822 -0.13209093
0.07124831 -0.13299935 -0.11651166 0.039525867 0.027275667 -0.11301844 -0.058897592 0.07400954
-0.072195604 0.041220855 0.026132196 0.10391379 0.10782866 -0.039587177 0.039115295 -0.10736222
0.079738274 0.078885734 -0.13332984 -0.056224935 0.12152776 -0.04186446 0.23171826 -0.02961853
-0.15260892 0.04803587 -0.19671056 -0.08108252 -0.3146294 0.09813634 0.18113714 -0.13370292
-0.34804025 -0.14505255 -0.030904254 0.09557286 0.07665396 -0.03929548 0.14201842 0.13516831
0.10378231 0.20592175 -0.03461276 -0.094906256 0.055635616 -0.36768186 -0.06664626 0.034184307
0.044320002 -0.07621251 0.13613272 -0.012860079 -0.045904133 -0.17990649 0.07283593 -0.28464648
0.09432589 0.24668646 0.10102307 -0.15716481 0.28617275 -0.077999964 0.046596758 0.012744391
-0.00039673178 0.14403376 -0.04812996 0.06716727 0.1151984 0.007887557 0.066784665 -0.037804935
-0.13818271 -0.24931847 -0.1269106 -0.13905028 0.1074584 0.043469746 0.021573216 -0.24022791
-0.06899971 0.020865679 -0.43770492 -0.0325879 0.012715022 -0.18943807 -0.044083744 0.037835345
0.23337203 -0.34416515 0.08920965 -0.0905297 -0.1173902 0.1457714 -0.7888941 -0.053964403
-0.37621388 -0.080097735 -0.20936653 0.09517907 -0.080139294 0.12462273 -0.1850442 0.21288973
0.016173035 -0.04495637 0.2496828 0.11942223 0.015551403 -0.23173371 -0.091207385 0.03188093
0.07453587 -0.023796096 -0.07135348 0.019649586 -0.027461002 -0.31326658 -0.040455945 0.14293519
-0.061712425 -0.12772302 -0.015176162 0.06909132 -0.1425094 0.19467351 -0.66083366 0.06115716
0.114968754 -0.11106899 -0.04943566 0.110081635 0.07683091 -0.04933463 -0.14247222 0.15973692
0.12438848 0.16688986 -0.036321238 0.0545553 0.10159175 0.2030757 0.12027314 0.0013029141

regressors.0.lins.0.bias f4 [32]
00000000: f00a 3d3c 323c d2bd 8471 f23d d911 babd
00000010: a951 023e 587e 1a3d dee6 c93d 884c 183e
00000020: d6cf 0c3e 3484 093d 9552 953d 6a0c 7cbd
00000030: 5d54 15bd adad d8bd d786 eb3a 1988 65bd
00000040: 7dc5 52bd 71fe 08be caa2 bbbd cfd4 123e
00000050: f988 f1bd 6ac2 413e 4e62 263e 9443 1dbe
00000060: d4a8 97bd ed97 a7bd 6642 4b3e 8227 dabc
00000070: 9679 2b3e e30f e8bd bb5c cc3d 7b54 20be
0.011538252 -0.102653876 0.11838058 -0.090854354 0.12726463 0.037718147 0.098584875 0.14872944
0.13751158 0.033573344 0.07291142 -0.061535276 -0.03645741 -0.10580001 0.0017969263 -0.056037996
-0.05145787 -0.13378312 -0.09161909 0.14338993 -0.117937036 0.1892182 0.16248438 -0.1535781
-0.07405248 -0.081832744 0.19849548 -0.026630167 0.167456 -0.11331155 0.099786244 -0.15657227

regressors.0.lins.1.weight f4 [32, 32]
00000000: 030d efbe 0936 123c 4538 63be a14d 0f3e
00000010: d2a6 b3be 332e 37be 8225 d93d bd2c 02bf
00000020: 06a6 70be 2f80 b63d 6b24 5cbe af19 4fbe
00000030: 0cd7 c43d d5db 853d 3fb9 ad3c 516f 013e
00000040: 8a3a 44bd a41c 193e 7690 fdbd 3ad0 f5bd
00000050: e7ee 9cbe 7627 52bd 2345 84be efcb 2d3e
00000060: c66d 473d babf 9bbd ff83 29be 7ac5 ddbd
00000070: 7254 0bbe 09d7 1cbe 9d32 e4bd b2e7 833e
00000080: 3fd6 dbbe b6e6 0bbe 184e c5bc 8ccb bbbe
00000090: 7b89 963e f81e 43bd 71f7 06be 8498 8abd
000000a0: 1c01 353e b872 913d f883 123e aa13 2fbd
000000b0: 7f58 dc3d 50b4 5c3e c3b0 72bd b9ff 153e
000000c0: e4f9 af3d 706f afbe 2600 bcbd 0d59 bdbd
000000d0: b54b 303e f136 123e 3ba5 6abe abdf 07be
000000e0: ca3f a6bd afbd 1d3d f49d e13c 8dc3 7ebe
000000f0: b600 103d a3db bf3e 19a2 8e3d 6dfb 2f3e
00000100: 6548 793e df0e b9bc d83b 2dbe 5ece 0ebe
00000110: 2fea c7be 659a cc3d 8c38 febd 2193 943b
00000120: 54cc 003e 4a6b 76be d260 b1bd b00e 653d
00000130: e711 9cbe 5752 d7be 57b0 9cbd 4928 ecbe
00000140: 38e1 f73b 88b2 c03d 2db5 6fbd f050 073d
00000150: 5dcf cdbe d6d0 d8bd 127c b63d e2c3 5c3b
00000160: 64fe 0bbe ff53 45bd c586 013e 3d45 3cbd
00000170: 1b6d 703d 831c fcbc fd01 8fbe 614f 09be
00000180: 6cb9 823d 2855 e53c 0c7c 613d 83b3 eb3d
00000190: a363 6abe c117 49be ea8e b6be 430f 36be
000001a0: 4db7 183d 5a29 67be 4013 24be 6e49 fe3d
000001b0: 7b04 c1bd 2a00 b7be 21df 84be cb9c 8fbd
000001c0: d284 833d a26d 1cbd 63a4 913c c47f 12bf
000001d0: b17b 22be 9d06 28be 5394 9e3d 7ef0 513c
000001e0: d3fe 98be 37ae 69bc acad c1be 91a3 85be
000001f0: 8485 2abe f83a b3bc 8fba 1d3d 1ba0 94be
00000200: fd2f 9a3d 13ae 0e3c 2f1a 8cbb 1bae 0cbd
00000210: 2f94 b0bd 1184 313e adc9 3b3d 8226 2bbc
00000220: 2f90 38ba b392 7b3c 1af7 1b3d bcda 83bc
00000230: b2d6 91bc 3c70 853d 95d2 3e3e 4993 bf3d
00000240: c918 2bbe c4d8 90bd e679 2d3e 285d 253d
00000250: 5046 84bd c030 99bd 3c08 94be 5d43 d4bd
00000260: 9585 e43c bdd4 a7bd 8777 82bd aaae 10be
00000270: ff48 573d 81de 203e bb7e 29be efe4 16bd
00000280: 23e2 01bf 4fe8 103e e61c 23bf d2ba 4abd
00000290: 8c24 fcbb 120c 803e 9553 6ebd 0125 9abe
000002a0: 90a4 da3d a3a1 953d 1d93 643c 15f9 893b
000002b0: 4262 7e3e e4bc 8b3b e111 2fbe 2c2b cf3d
000002c0: 47fc 1cbe bc63 013c beec 41be f831 93be
000002d0: 14b4 283d c2fc 28be eb09 293c 24be 7ebe
000002e0: 661a 913e 057a 52bb 1e67 f93d 67be f3bd
000002f0: 51f2 1e3c 6ae1 163e da2a 293e 87e4 6dbd
00000300: b73d f5bc a1d8 b3bd 8346 6d3d b77f 8fbe
00000310: 3dde aebd fd9d 183e e8fe 3b3d 7f21 f0bd
00000320: 93b8 e3bd 9496 2f3c ccbe 8b3d b33e b7be
00000330: 678a 67be 2b89 613d ba48 f33d a16b dc3d
00000340: 2dad 87be 43f6 b23d fa9d fc3d acff 9cbd
00000350: 573e 483d 0c14 8fbe 0903 a2be 76e8 903d
00000360: 9df5 eabc 133b 923b 1cf2 5abc 4936 533c
00000370: b09a 30bc 9cf5 32be 12e1 b93d ca63 a0bd
00000380: 4b1b 17be 2685 c8bd 4778 5f3d 3e38 6a3d
00000390: 4fad 23bd 386c bdbd d4ee 95be 3354 803d
000003a0: 8beb c3bc f61b d93b f0b3 173d 3eee 59be
000003b0: 1590 2bbe 3441 173e 0e3d 943d 5715 443e
000003c0: 1caa 1bbe 9b48 2ebe 1f39 5a3b da33 383e
000003d0: 8855 99bd ad66 c3bd 33aa 013e 9dae 2cbf
000003e0: 2b4f f53d 456d 423c 8bec a3bd 22bc b6bd
000003f0: 307b 67be 3d24 cf3e 84af e33d f108 2dbd
-0.46689615 0.008924016 -0.22189434 0.13994457 -0.3508821 -0.17888717 0.10602857 -0.50849515
-0.23500833 0.08911168 -0.21498267 -0.20224641 0.096113294 0.0653607 0.021206496 0.1264012
-0.04790739 0.14952332 -0.12381069 -0.12002607 -0.30651018 -0.051307164 -0.25833997 0.16972326
0.048688672 -0.07604928 -0.16554259 -0.10828681 -0.13606432 -0.15316404 -0.11142466 0.25762707
-0.42936894 -0.13662228 -0.02408509 -0.3667873 0.29401764 -0.047636956 -0.13180329 -0.06767371
0.17676204 0.07101959 0.14308155 -0.042743362 0.10759067 0.21553159 -0.059250604 0.14648332
0.08592585 -0.34264708 -0.09179716 -0.09245501 0.1721638 0.14278771 -0.22914593 -0.13268916
-0.081176355 0.038510974 0.027541138 -0.24879284 0.035156928 0.37472257 0.069645114 0.17185755
0.24344023 -0.022590099 -0.1691736 -0.1394591 -0.39045855 0.09990386 -0.12413129 0.0045341407
0.12577945 -0.24064365 -0.08661045 0.05592221 -0.30482408 -0.42055008 -0.07650822 -0.46124485
0.00756469 0.09409052 -0.058522392 0.033036172 -0.40197268 -0.10586707 0.08910383 0.0033686091
-0.13671261 -0.048175808 0.12649067 -0.04596447 0.0586978 -0.030775314 -0.27931204 -0.13409187
0.06383023 0.027994707 0.05504994 0.115088485 -0.22889571 -0.19637968 -0.3565591 -0.1777926
0.037284184 -0.22574368 -0.16022968 0.12416349 -0.09424683 -0.35742313 -0.25951484 -0.07012328
0.06421818 -0.03819049 0.017778581 -0.57226205 -0.15867497 -0.16408773 0.07743134 0.012813685
-0.29881915 -0.014262727 -0.37827814 -0.26101354 -0.16652495 -0.021878704 0.038507994 -0.290284
0.07528684 0.008708495 -0.0042755823 -0.034345727 -0.08622014 0.17335536 0.04584663 -0.010446193
-0.0007040528 0.0153548 0.03807745 -0.016095512 -0.01780257 0.06515548 0.18635018 0.09354264
-0.16708674 -0.07072595 0.16941032 0.040372044 -0.064587235 -0.074800014 -0.28912532 -0.10364411
0.027895728 -0.081948735 -0.06370454 -0.14129129 0.05255985 0.15709879 -0.1655225 -0.03683942
-0.5073568 0.14151119 -0.6371597 -0.049494572 -0.0076947864 0.2500921 -0.05818518 -0.30106357
0.10675919 0.073062204 0.01395109 0.004210601 0.2484217 0.004264461 -0.17096664 0.10115656
-0.15330611 0.007897314 -0.18937966 -0.2874906 0.04118736 -0.1650267 0.010317306 -0.2487722
0.28340453 -0.0032116186 0.12177871 -0.11901551 0.009701327 0.14734426 0.16520253 -0.05807927
-0.029936654 -0.08781553 0.057928573 -0.28027126 -0.08538482 0.14904018 0.045897394 -0.11725139
-0.11119189 0.010717053 0.06823501 -0.35790023 -0.2261139 0.055062454 0.11879106 0.10762716
-0.2649931 0.08738377 0.12334819 -0.07665953 0.048887577 -0.27944982 -0.3164294 0.070755884
-0.02868157 0.0044626086 -0.013363387 0.012891361 -0.010779068 -0.17476505 0.09076132 -0.07831533
-0.14756505 -0.09791021 0.054558065 0.057182543 -0.0399602 -0.09249157 -0.29283774 0.0626606
-0.023916027 0.0066256477 0.037036836 -0.21282288 -0.16754182 0.14770967 0.07238208 0.19148766
-0.1520161 -0.17019884 0.0033298207 0.1798853 -0.07487017 -0.09541068 0.12662582 -0.6745394
0.11977991 0.011866872 -0.08004101 -0.08922602 -0.22605586 0.40457335 0.11117461 -0.042244855

regressors.0.lins.1.bias f4 [32]
00000000: 667f 8cbd 660b a5bd 664d 0cbd 1395 ffbd
00000010: 5014 45be 219a 5fbe a87b 13be 76fe a73c
00000020: 0afe da3d 4346 f53a bab7 4e3e e027 2ebe
00000030: ac2c 97be 72aa 09bd 8b08 5e3e 17f6 0cbe
00000040: a807 f8bd 6cf4 b23e e808 153d 5363 823d
00000050: d3c9 a73e 6b71 ce3c 8e42 afbe 5ab8 803c
00000060: 6c79 0bbe d0cd 3abe 22e4 a23c d78a 5dbe
00000070: 27c5 1c3e b7e6 b43d 41ba 133e 56b7 3d3e
-0.06860237 -0.08058815 -0.0342535 -0.124796055 -0.1924603 -0.2183614 -0.1440264 0.020507079
0.10692985 0.0018712956 0.20187274 -0.17007399 -0.2952627 -0.033609815 0.21682946 -0.13765751
-0.12110835 0.34952104 0.036385447 0.06366601 0.32771167 0.025200566 -0.34230465 0.015712906
-0.13620538 -0.18242574 0.019884173 -0.21634994 0.15309583 0.08833068 0.14426519 0.18526968

regressors.0.lins.2.weight f4 [32, 32]
00000000: a664 193e 2d28 d83d ffe5 8bbd 2791 92bd
00000010: 23f9 6dbb 7b10 2bbe eff1 d2bd 5527 cebd
00000020: cf71 0c3e cf0a d8bd 3be0 dfbd d901 06be
00000030: 1c98 90bc 9db5 d7bd beab 20be e860 2f3e
00000040: d79b 89bd 48bf 55bc ac02 be3c 95a5 1a3c
00000050: f13d 523d f6cd a13d 9a98 89bd 7448 90bd
00000060: e8ac a9bc 070c 2abe b731 c0bd 2737 9c3d
00000070: 6c17 0bbb 5e11 f4bd 4d47 ebbd 243d 68bd
00000080: 351e 393d 8c76 803e 885b 09be eec8 f2bd
00000090: 58e7 92be e263 df3c ebff 22be e710 42be
000000a0: d934 7fbd b950 12bd 425f 8ebe 33d5 133d
000000b0: 7494 43bb 1588 93be 270f 7cbc b141 9b3d
000000c0: 369d aa3e 72dc 09be 4ab5 00be 94d4 2e3e
000000d0: fc22 f73d 162a 423d 93e9 a7bd 6c43 2b3e
000000e0: f20c f9bc 7806 013e dc45 b0be be59 4cbe
000000f0: 37fe a7bd c073 b5bd 9ec5 cfbc ef75 aabd
00000100: e010 b13d 2f1f 56be a71a e5bd 5d04 5cbe
00000110: b9f5 843c a662 cc3d f839 77be f802 63be
00000120: 175c aabe 001f 263e 8c37 533d ea8a 1f3e
00000130: e123 0e3e 1008 b1bc 7c40 9ebd 3d8c b53e
00000140: 1f13 963e 2e34 003c c90c 6a3c 8199 cabd
00000150: 8ba4 b63d 77b4 443d 000a 873e 3e97 603e
00000160: 2b89 bdbe e945 2f3e e494 903e ff9b 12bd
00000170: c051 69bd a75f 553e f8da 183e 30f1 cebc
00000180: 6608 acbd 8c6f 8cbd 60cd 38be f4f2 0ebd
00000190: e708 04be 7ab1 983d 5b21 64bd a248 923c
000001a0: 91dd bb3d 2e00 8b3d 5b99 81bc 253c 9cbc
000001b0: 5dad 06bd 10b8 1ebe 6256 16be cdc7 c5bb
000001c0: a44f 193e 99d0 50bd 5dee 5d3d e8b1 953d
000001d0: 9343 32be b20b 803d bd34 6c3d e48a d2bd
000001e0: 7a98 f1bd c99e 08be ef24 cfbd eeca b3bd
000001f0: d81f 53bd 109d 473d 11a0 00be 4800 1ebe
00000200: 4cf6 18be d9d1 dabd e55d b03b 1e30 acbd
00000210: 47f3 dcbd 089c 183e 9348 3bbd f631 25be
00000220: 9454 ab3d d746 63bd edc8 24be 9384 0a3e
00000230: b499 78bd 4410 03be 6776 21bd 277e 4abd
00000240: 285a fd3d bb38 6d3d 056b d7bc 5b94 4fbd
00000250: 6efe 543c d902 0bbc 9eca f0bd bdd0 523c
00000260: 9564 2c3d 5ecc 433e 013e 35be 3270 2dbe
00000270: 9a33 24be 8d16 7dbe 3c12 b9bd 201e f23c
00000280: ea4f 20be 70e4 d33d 0e89 c03d 2f19 a43d
00000290: c38c 70be 39fc 9c3d 8227 583d 47fa d93d
000002a0: 7ca0 20be 3725 713d ab94 a0bc 22aa bc3c
000002b0: 9532 113e 9aac 18bd 151c bebd bc67 03be
000002c0: 1961 45be 6a5e 0bbe 4c67 383e ae07 cc3c
000002d0: 7baa 763d 4aeb 1b3d a7a5 e23c 2c09 18be
000002e0: 4585 7cbc 460d 3ebe 23a0 8cbc 0bc9 aa3d
000002f0: 2e8a 80bd 66dc 23be 58f1 63be 74b3 45bd
00000300: 28a6 c73b 7052 b73d e908 283e 08ee 0fbe
00000310: 733f 46be 501f 33be f542 86bd 1be3 14be
00000320: 19b7 20bf 3be5 27be 2219 86bd 8528 9d3d
00000330: 9d8c 143e f259 903d 8562 85bc dea8 e43c
00000340: 0776 46be 46b6 a63d 248f 553c b187 86bd
00000350: 2ef0 94bd 9a71 563d 50f6 e03b 9c26 47be
00000360: b985 52bd 5cf6 80bd 5bfc 38ba a785 a9be
00000370: 9f60 a4be bee3 143d 634c 7a3d b08f 6abd
00000380: 681a 98be ec8b b1be 3245 39be 097f 953c
00000390: 0feb 36bd 91ee 34bd 8848 f23d d503 c1bd
000003a0: d5ea 7c3c 9146 903d a961 373c 4924 f0bd
000003b0: 122c 67bd 8d1d 86be 0ba4 91bd 570b 703d
000003c0: e345 17be 02ce 03bc 6fce 58be bf82 06be
000003d0: 005d 48be 1f3c 4bbc 301a c93e 3487 c03d
000003e0: 5bb2 a6be ea8a adbd 9bc2 093e 5748 3d3d
000003f0: 2a93 9fbd 8918 1ebd a5d0 083e a474 2dbe
0.149798 0.10554538 -0.06830978 -0.07156592 -0.0036311827 -0.16705506 -0.103000514 -0.10066096
0.1371529 -0.105489366 -0.109314404 -0.13086642 -0.017650656 -0.10532687 -0.15690514 0.1712681
-0.06719177 -0.013046093 0.023194633 0.009438892 0.051328603 0.07900612 -0.067185596 -0.07045069
-0.020712331 -0.1660615 -0.09384482 0.07627707 -0.0021223677 -0.11917375 -0.11488209 -0.056698933
0.045194823 0.25090444 -0.13413823 -0.118547305 -0.28692126 0.027269308 -0.15917937 -0.1895176
-0.06230626 -0.035721514 -0.2780705 0.036091994 -0.0029843124 -0.2881476 -0.015384472 0.07580889
0.33323067 -0.13463 -0.12569156 0.1707328 0.120672196 0.047403418 -0.081988476 0.16724938
-0.03040168 0.12600124 -0.34428298 -0.19956109 -0.082027845 -0.08859968 -0.025362786 -0.08323275
0.08645797 -0.20910333 -0.11186724 -0.2148604 0.016230451 0.09979753 -0.24143207 -0.22169101
-0.33273384 0.16222763 0.051566646 0.15580335 0.13880874 -0.02161029 -0.07727143 0.35458556
0.29311463 0.007824941 0.014285275 -0.0989256 0.08918103 0.048023667 0.26374817 0.21932694
-0.37018713 0.17116512 0.28238595 -0.0357933 -0.05696273 0.2083727 0.1492728 -0.025261492
-0.084000394 -0.068572134 -0.18047094 -0.034899667 -0.12894021 0.07455726 -0.055695873 0.0178569
0.0917312 0.06787144 -0.015820196 -0.019071648 -0.032880176 -0.15499902 -0.1468139 -0.006035781
0.14971787 -0.050980184 0.0541824 0.073093235 -0.1740859 0.06252231 0.057667483 -0.102803975
-0.11796661 -0.13341822 -0.101144664 -0.0877894 -0.05154404 0.04873377 -0.1256106 -0.15429795
-0.14937705 -0.106845565 0.005382287 -0.08407615 -0.10788589 0.14903271 -0.04572351 -0.1613234
0.08365741 -0.05548748 -0.16092272 0.13527136 -0.060693458 -0.12799174 -0.039419558 -0.049436715
0.123707116 0.05791543 -0.026296148 -0.050678592 0.013000114 -0.008484566 -0.11757396 0.01286715
0.04208811 0.19120929 -0.17699434 -0.1693733 -0.1603531 -0.24715634 -0.09036681 0.02955538
-0.15655485 0.10346305 0.09401141 0.08012616 -0.23491196 0.07665295 0.052772053 0.1064344
-0.1568622 0.05887338 -0.01960214 0.023030344 0.14179452 -0.03727398 -0.092827 -0.1283254
-0.19275321 -0.13610235 0.18008155 0.024906006 0.060221177 0.038066186 0.02766688 -0.14847249
-0.015412633 -0.18559751 -0.017166203 0.08339127 -0.06276356 -0.16002044 -0.22260034 -0.048266843
0.0060928054 0.089512706 0.16409649 -0.14055645 -0.19360141 -0.17492414 -0.0655574 -0.14539759
-0.62779385 -0.16396038 -0.065477625 0.07673744 0.14506765 0.07048406 -0.01628233 0.027912553
-0.19380961 0.08140235 0.013034616 -0.0656885 -0.07272373 0.052354433 0.0068653002 -0.19448322
-0.05139706 -0.06296989 -0.0007056647 -0.3310978 -0.32104966 0.036350004 0.061108004 -0.057265937
-0.29707646 -0.34677064 -0.18092802 0.018249052 -0.044657763 -0.044172827 0.118302405 -0.09424559
0.015436848 0.070447095 0.011192718 -0.11725671 -0.056438513 -0.2619442 -0.07111367 0.058604565
-0.14772753 -0.008044722 -0.21172498 -0.13135813 -0.19566727 -0.012404471 0.39277792 0.09400788
-0.3255795 -0.084737614 0.13453142 0.046211567 -0.07791741 -0.038597617 0.13360842 -0.16939026

regressors.0.lins.2.bias f4 [32]
00000000: a2e8 1ebe 9dd4 69bd a4f4 89be 950a 00be
00000010: 0759 32be 0720 a23c 968a 233e 2c46 86be
00000020: 6741 19be 4606 563e 4263 b33d 85f0 67bd
00000030: 6107 c93e 268b b23e 6847 23be 9f03 4c3d
00000040: 6fe9 9c3e 1f4a 39bd d4f6 3bbe d393 863e
00000050: 97af 70be 11a5 7d3e 2fe9 4cbe 1e35 00be
00000060: 14de b0bd 8623 35be ef7f bbbc b9b9 8a3e
00000070: 1a92 31bd 78a3 b23d 890b 973e e028 6f3d
-0.1551843 -0.05708753 -0.26944458 -0.12504037 -0.17416774 0.019790662 0.15970835 -0.26225412
-0.14966355 0.2090083 0.08759166 -0.05662586 0.39263442 0.34871787 -0.15945208 0.04980814
0.30646846 -0.045236703 -0.18355876 0.26284656 -0.23504482 0.24769999 -0.20010827 -0.12520263
-0.08636108 -0.17689332 -0.022888152 0.2709482 -0.043352224 0.087225854 0.29500988 0.05838859

regressors.0.lins.3.weight f4 [1, 32]
00000000: d5af f33d 78dc 3fbe baf1 48be 070e c8bd
00000010: 589b cdbd 6aae 81bc 8e68 b63d 6b93 0abc
00000020: dbbc 853d 2379 813d ef8d 8e3c ab66 81bd
00000030: 7795 683e 6888 383e 7fc6 4cbe b485 51bc
00000040: ed93 e83d a1eb 8abd f568 25bd 401b 7a3d
00000050: 3775 4abe 2c24 0a3e c80c 9f3d 8c2c fc3c
00000060: 60af a73c 500d c3bd 8792 6bbd 59b2 2e3e
00000070: ea8b 8e3b 8f87 023e 16ed 973d e34d d63b
0.11898772 -0.18736446 -0.19623461 -0.097683005 -0.10039395 -0.015830237 0.08906661 -0.008457999
0.06530162 0.06321933 0.017401664 -0.063184105 0.22713266 0.18020785 -0.19997595 -0.012788225
0.113563396 -0.06783224 -0.040383298 0.061061144 -0.19771276 0.13490361 0.0776611 0.03078296
0.020469368 -0.095240235 -0.057512786 0.17060222 0.004350175 0.12747024 0.074182674 0.0065400465

regressors.1.lins.0.weight f4 [32, 64]
00000000: e26b 9a3d 3ca5 91bd bd53 a43d 40e3 923b
00000010: 3528 9fbc d0d9 8abe c00a 63be 591d 2d3d
00000020: bfbc a4bb b5d2 94be c630 943b b8e1 b7bd
00000030: 6e36 bcbe 5e94 123e 36b1 6f3d 9006 49be
00000040: 1c58 84bc babf 8a3d c7a8 4c3e 25e0 023d
00000050: 103a cbbd 9881 933d dbc4 4a3d 5fe7 a8bd
00000060: ea10 8abd 386a 95bd 08bf 663e 2025 ae3c
00000070: 4018 2a3d 5a11 6f3d d8e6 a33d 654c 543c
00000080: 7447 a4be e828 80bd 0bc0 673d 914e 30be
00000090: e633 853d 2376 27be 370a abbd c89d 163c
000000a0: 9365 dfbd f284 0fbf 4076 acbe e857 1d3d
000000b0: 85e6 7dbd 319c b83d 17b5 063e d478 433d
000000c0: 560e 853d 4fd0 3dbe 80ce 80bd caf6 a03d
000000d0: f819 54bd 24a6 9cbd ddc2 d9be 672c 313b
000000e0: 39d9 2fbd 9762 c0be 1580 02be f5ec 483d
000000f0: 28b2 113d 3d54 40be 0c15 e63d 3e68 7d3d
00000100: c58a f8bd f0db 9f3d 6e36 293d 9616 babd
00000110: bc6b ee3d e24c 203e a28f fe3d e1c1 023d
00000120: 87dd 6d3b 4bf6 35bc 2610 783e 56bb 02bd
00000130: 824a 5bbe fb64 21be 2ee7 b83d 8ff3 893e
00000140: ce03 6d3d 3cca b8bd b5d1 1b3e 61b9 463e
00000150: 005e d23d e859 cf3d a8ee 9abd a8e5 1c3e
00000160: d743 a1be 02fc 0abe 0ff3 adbd 8b4f 5a3d
00000170: ac29 32bd dcc0 953d 44e2 0cbd 2670 bdbe
00000180: fb9f 00be 6864 b3bc 20b3 cbbd 79c0 5d3b
00000190: d1e9 823e ebbf 063e d782 843e 68d6 23bd
000001a0: b355 ec3d 985b f73c f265 55b9 1ecf 60bd
000001b0: bfb2 fcbc 7e25 dc3d d7bf b23d 1f1c 03be
000001c0: 3519 733d 2083 253e a8d7 8dbd 0c72 a2bd
000001d0: 30b6 1d3d 44c2 18bd ba56 98bd 0164 fcbd
000001e0: e5c1 9fbe bdf4 5cbe 19fc 18be 94c4 553c
000001f0: 0472 283d 765e d0bc 3005 bbbc 8111 08be
00000200: 895f 493e 06bf b93d 368e 3dbe be2c 9f3d
00000210: 47c4 213e 7108 443e 439e 96bd 8e30 24bd
00000220: 82c3 433d fb79 fb3d aa11 53bd 6914 dabd
00000230: a30b d13e 4a62 7cbe 8e6b 01be a155 20bd
00000240: cd68 993d 0f93 013d 33ec 26bd 7879 ee3c
00000250: e09b c33b 2e89 873d 427b 31be eaa3 38be
00000260: cbf4 19be 866d d63e 65cb b93d 19cb afbd
00000270: 58b4 a8bd 7dda 1f3e 9a9c acbd dfeb fd3c
00000280: b417 663d 7011 dcbd 94c0 0fbe f72a 023d
00000290: a21a 19be 0949 4a3e 693a 30be ce3b 9dbd
000002a0: 0b8f 49be 1de9 dd3d 6e91 3ebe d042 463d
000002b0: 3a15 8a3c ef27 05bd b82b 3bbe 583c db3d
000002c0: a1ef 89bd 20c4 9abd a8bd a5bb 61ee 1a3e
000002d0: a22f 913d 8ccd abbd 91f8 0bbe 111d 3b3e
000002e0: 26a7 613e 1097 0abe 638b 2b3e b2f1 fbbb
000002f0: e073 c3bb 06a7 583e 88ba fabc 372b 3fbc
00000300: 6a21 fc3d 2891 173d b0ed 09be bca8 8bbd
00000310: 9a44 843c 1a5c 2fbe 0c27 b3be 2149 9dbe
00000320: e284 8b3d 45c7 f1bd 39ad 0ebf 8c92 74bc
00000330: 6155 02bd a811 7ebe 8ea5 bb3b 85c6 613e
00000340: d246 083e 502d 33bb 7036 e53c db93 c9bd
00000350: b08b 1fbd 28db d4bc 869f 84bc 07fd 55be
00000360: eb1a e3bd 8ffe 5b3e c5df 873e 8576 c13d
00000370: 9e7f 80bd 2cc5 e43d e4fa 173d 980c 873d
00000380: 2b1f 34bd 5430 6dbd eef8 9c3d 8526 e33d
00000390: 2970 12be 5b9e 4f3c 5206 883d 4868 693d
000003a0: 6309 99bd 12a5 28bd de2c 5abe 1af9 733b
000003b0: 4104 02bf 45c2 0b3e cd43 afbd 5c41 81be
000003c0: 2017 4c3e 2476 03be 9c15 22be 3ae7 733c
000003d0: fe15 fd3d 9407 cd3d 9ef0 eb3d dd81 903d
000003e0: 9e96 d8bd c8e4 633e 36af fcbe d75c 22be
000003f0: f4dd 9ebd 819f f2bd 107c 95bd 32d4 373e
0.07540108 -0.07111594 0.08023784 0.0044826567 -0.019428352 -0.27119303 -0.2217207 0.042264316
-0.005027383 -0.29067007 0.004522416 -0.08978599 -0.36760277 0.1431441 0.05851861 -0.1963141
-0.016155295 0.0677485 0.19986258 0.031952042 -0.09923184 0.072024524 0.049504142 -0.082472555
-0.06741507 -0.0729565 0.2253381 0.021257937 0.041527033 0.058366157 0.08003014 0.012957667
-0.32085764 -0.06257802 0.05657963 -0.1721747 0.065040395 -0.1635366 -0.08351558 0.009192891
-0.109080456 -0.56062233 -0.33683968 0.038413912 -0.06198742 0.09014166 0.13155018 0.047722653
0.06496875 -0.18536495 -0.06289387 0.07859571 -0.05178258 -0.07648876 -0.4253148 0.0027034522
-0.04293177 -0.37575218 -0.12744172 0.049054105 0.035570294 -0.18782134 0.11234483 0.06186699
-0.12135843 0.078056216 0.041311674 -0.09086339 0.116416425 0.15654328 0.124297395 0.03192318
0.003629537 -0.011106084 0.2422491 -0.03191694 -0.21415141 -0.15761177 0.09028469 0.26943633
0.057864957 -0.09022948 0.15216716 0.19406654 0.10271835 0.1012457 -0.07565051 0.15321982
-0.3149707 -0.13572696 -0.084936254 0.053298514 -0.043496773 0.07312176 -0.03439547 -0.36999625
-0.12561028 -0.021898463 -0.09946275 0.0033836646 0.25569013 0.13159148 0.25881073 -0.039999396
0.11539783 0.030195042 -0.0002035124 -0.054885022 -0.030846952 0.107493386 0.08727997 -0.12803696
0.05935021 0.16163301 -0.06925899 -0.07931909 0.038503826 -0.03729464 -0.07438417 -0.12323762
-0.31202617 -0.21577735 -0.14939918 0.013047356 0.04112436 -0.025435667 -0.022829622 -0.13287927
0.1966535 0.09069638 -0.1851128 0.07772206 0.1579753 0.19143845 -0.07354405 -0.040085368
0.047793873 0.12279125 -0.051530518 -0.10648424 0.4082919 -0.2464687 -0.12638685 -0.039144162
0.07490692 0.031634387 -0.0407526 0.029110655 0.0059695095 0.06617962 -0.17332175 -0.18031278
-0.15034787 0.41880435 0.090719976 -0.0858366 -0.08237523 0.1561069 -0.08428307 0.030996261
0.05617495 -0.107455134 -0.14038306 0.031779256 -0.14951566 0.19754423 -0.17209782 -0.076774225
-0.19683473 0.108354785 -0.18610165 0.04840356 0.016855825 -0.032508787 -0.18278396 0.10704869
-0.06735159 -0.07556939 -0.005058009 0.15129997 0.07089163 -0.08388814 -0.1366904 0.18272807
0.22036418 -0.13534188 0.1675239 -0.0076887244 -0.005964741 0.21157464 -0.030606523 -0.011668018
0.12311061 0.037003666 -0.13469577 -0.06819293 0.016145993 -0.17124978 -0.34990728 -0.30719855
0.06812455 -0.11805586 -0.55733067 -0.014927518 -0.031819705 -0.24811423 0.0057265228 0.22048385
0.13308266 -0.002734024 0.02798006 -0.09842654 -0.038951576 -0.025983408 -0.016189348 -0.20897304
-0.110891186 0.21483825 0.2653791 0.09446434 -0.06274341 0.1117042 0.037104502 0.06594199
-0.043975037 -0.057907417 0.07664667 0.110913314 -0.14300598 0.012672032 0.066418305 0.056984216
-0.074724935 -0.04117305 -0.21306178 0.0037227334 -0.5078774 0.13648327 -0.08557854 -0.25245178
0.19930696 -0.12838036 -0.15828556 0.014886672 0.1235771 0.10011211 0.115205035 0.070560195
-0.10575603 0.22255242 -0.49352425 -0.15855728 -0.07757178 -0.11846829 -0.07299054 0.1795204

regressors.1.lins.0.bias f4 [32]
00000000: 2e3f 96bd b717 243e e8f2 60bd 296d 29be
00000010: 8a74 8d3e 6011 2b3e e901 8fb8 29b1 1abe
00000020: 9d9b 813d 0671 e43d d0f1 09be ab66 edbd
00000030: 0e02 823d 7c41 6a3e 0fd6 7c3d 4a83 873e
00000040: 40e7 3f3e 8383 cdbc 7788 a63c 29a5 8f3e
00000050: af02 543d 4dbd 903e b69b 0abe 23b3 04be
00000060: 8425 4c3e b5a1 7c3d 8e89 10be 9994 203e
00000070: 35db 053d f992 7d3e eb3d 893e 9fb8 03bd
-0.07336269 0.16024671 -0.054919153 -0.16545548 0.27627975 0.16705847 -6.819127e-05 -0.15106644
0.06328509 0.1115437 -0.1347115 -0.11591848 0.06348048 0.22876543 0.06172758 0.26467353
0.18740559 -0.025087124 0.020328743 0.28055695 0.05176037 0.28269425 -0.13535962 -0.1295896
0.19936186 0.061677653 -0.14114973 0.15681686 0.032679755 0.24763097 0.26805052 -0.03215849

regressors.1.lins.1.weight f4 [32, 32]
00000000: 2494 1fbe a552 0dbf ae1c 40bd 01df 3a3e
00000010: 08ca 00bf 3201 d2be e945 c63c 293c fd3d
00000020: 59bc cbbe 860f 1abe 1356 90bc e9c6 be3e
00000030: 7c31 1cbd 03de 993c fa34 b4be d479 973d
00000040: 0b96 e93c 9eb8 1bbd e0a8 6a3d 57a8 c33d
00000050: 917b fa3c 730b 38bf 09ab cbbd ffa7 aabc
00000060: d0b1 2a3e b17c f53d 8f3a a7bd 7518 73bc
00000070: 5ded 2cbf c88b dfbe 9cc8 b03e e3aa a23c
00000080: e84c 23bd 551e 17bd 93ad 18be 1506 cd3d
00000090: 6121 15bc cb61 993e 337e 5bbc 085c 243e
000000a0: a55e a6bc ee9f 303e c5be b9be 7b1a 653d
000000b0: c468 3a3d ac43 d43d 3461 a5bd 2e48 a7bc
000000c0: effe 3fbe dbd9 63bd 030d 113e 1e8a 2c3e
000000d0: 18aa 3fbe e20f 34be 09a4 e93d 5966 f63d
000000e0: d0c9 a53e 4285 8bbd a808 5e3e 60ed 4b3d
000000f0: dde4 1e3d 930b cb3d 9c37 d33e 37ce ff3c
00000100: eed3 27bb 2045 193e cdd0 84bd fee8 28be
00000110: 3fa2 98bd 24e3 1a3e a02c 1b3e a29b 7ebb
00000120: 8ac4 6ebe c575 963e d973 cb3d 13cd b3be
00000130: edac 253e d423 24bd 6ef1 133e a3a5 bcbd
00000140: a9c3 d5bd 1dac 30be 480e 5b3d adf4 82be
00000150: 1dcd 033e eefa 713e e8f5 583e 7d92 3e3e
00000160: ab3d 8ebd fe65 c63d 6563 65bd ccf5 7b3d
00000170: f022 89bd 983f 17be eca8 4fbb 608c a83c
00000180: 03b7 023e 6544 6d3d 04a9 5d3d 1074 913e
00000190: 8f26 8a3e 22c9 5d3d b447 27be 9d5f 833d
000001a0: 37c8 b5be e3d8 793e 51e7 253e 6d17 6cbc
000001b0: f351 a5bd 3eff fbbe b767 d1be ea74 4ebd
000001c0: c456 09be 04c4 76be d8c8 2fbf afc3 b7bd
000001d0: f4f5 65bc 25b1 903d 97cc 893d 38d3 5dbe
000001e0: d120 ebbe 34e0 54be a13d 1f3d d522 6cbe
000001f0: dccf c23d e2df 083e ec32 86bf 7bbb 23bf
00000200: a8dc 163e bace ffbb c2a4 35be 688c 8d3e
00000210: 549e 203d 4785 6b3e 3b1d 433e e690 02be
00000220: 47ef 4e3e d287 30bf b479 a2be f3e3 eb3d
00000230: ab26 243e 53ae 0c3e 1a97 af3d 4fd8 0fbe
00000240: 9514 27bf 5f07 da3d 7fd8 3a3e a874 94be
00000250: 1dc5 d6be bca9 ef3c 568d 0e3d 0380 f4bd
00000260: bf83 e5bb 3904 e4bd e908 2ebe 2bf1 49bd
00000270: f562 1e3e cc24 703c c6b9 47be 8e98 833d
00000280: 4b16 60be 7ef7 653d 4804 afbd 7351 aebd
00000290: 6177 a03d 7bb8 c53d 2f88 d6bd 8351 ffbc
000002a0: ab8c 65be 6f44 9abc c289 06be 838f de3d
000002b0: 6133 2ebc 67b7 83be 2bf7 23be c187 7a3e
000002c0: 4e81 303c 89ad 5bbd 0774 683e a5a5 903d
000002d0: 363d 703c 8693 373e 5cfb b0bc 47e6 063e
000002e0: 5c6e 5f3e 16c7 423d 6d4c 1dbe c16d 02be
000002f0: 08f3 64be b5f0 00be af68 963d 12e0 1b3e
00000300: ec07 0e3e 0526 24be b028 38bd 13d5 473d
00000310: 75a5 cabd 041e aa3d 3968 773d c872 7b3e
00000320: 483a 873c 3fd0 7cbd fb73 8bbe c537 bf3d
00000330: 6514 afbd ee3b 03be 8834 bbbd 5aa0 193e
00000340: 43b9 553d 8052 21be 6996 ae3d 4b5d 43be
00000350: 44f1 1fbe b481 b0be 84f0 4c3e 0d71 8fbe
00000360: 62b9 a8bd e56f 81be f7a8 9dbd 0468 9ebe
00000370: 38eb 8c3e abeb 803d 08df 8b3e 7ca3 4ebd
00000380: cb6b 2fbe 355d 97bd ccea 6fbd 84b5 ea3e
00000390: 8afb 3e3e 9032 2a3e 1b94 1abe 252c d1bc
000003a0: 4926 55bd c021 d4bd 1c01 8fbc 380f 023e
000003b0: e72c 853e c7dc 863d 9977 3a3e f251 41be
000003c0: b7c6 06bd 02b6 97be ac13 69bd ac47 5cbd
000003d0: 9c7b b23c 60f9 a93c e1be 4fbe 626d 5e3d
000003e0: 2f29 473e e1c1 0c3e 0288 47bd 28aa f2bc
000003f0: ddce 5b3e f8cb d33d f1b6 5f3e 996c 5d3e
-0.15583855 -0.5520423 -0.04690235 0.18249132 -0.50308275 -0.41016537 0.024203258 0.1236499
-0.39792135 -0.15044984 -0.017619168 0.3726113 -0.03813313 0.018782621 -0.35196668 0.07396284
0.028513929 -0.03801786 0.057289958 0.09553593 0.0305765 -0.7189247 -0.09944732 -0.02083206
0.16669393 0.119866736 -0.08165466 -0.014837374 -0.6754969 -0.43661332 0.34528053 0.019856876
-0.039868265 -0.03689416 -0.14909963 0.10010926 -0.009102196 0.29957423 -0.013396787 0.16050732
-0.020308802 0.17248508 -0.36278358 0.055933457 0.04551007 0.1036447 -0.08075181 -0.02042016
-0.18749593 -0.055627685 0.1416512 0.16849563 -0.1871723 -0.17584184 0.1140824 0.1203124
0.32380533 -0.06812526 0.2168299 0.049786925 0.03879248 0.09914317 0.41253364 0.03122626
-0.0025608498 0.14967775 -0.06485138 -0.1649513 -0.07452821 0.1512571 0.15153742 -0.0038850089
-0.23317161 0.29386726 0.099342056 -0.35117397 0.16179247 -0.04007323 0.14447567 -0.0921128
-0.1043771 -0.17253156 0.053480417 -0.25577298 0.12871213 0.23630878 0.21187556 0.18610568
-0.06945356 0.09687422 -0.056002993 0.061513707 -0.06696117 -0.14770353 -0.0031686379 0.020574749
0.12765126 0.057926554 0.054116264 0.2840886 0.26982543 0.054146893 -0.16335946 0.06414721
-0.35504314 0.24399142 0.16201521 -0.014409882 -0.08072271 -0.49218172 -0.4089944 -0.050404467
-0.13412005 -0.24098212 -0.6866584 -0.089728706 -0.014035691 0.07065038 0.067284755 -0.21662605
-0.45923474 -0.20788652 0.038877133 -0.23060162 0.09512302 0.13366655 -1.048429 -0.6395795
0.14732611 -0.007806626 -0.17738631 0.27646184 0.039213493 0.2300006 0.1905412 -0.12750587
0.20208465 -0.68957245 -0.31733477 0.11518087 0.16030376 0.13738374 0.08573742 -0.14047359
-0.6526578 0.10645937 0.18246649 -0.28995252 -0.4194726 0.02925574 0.034802757 -0.11938479
-0.0070042307 -0.11133618 -0.16995586 -0.04930226 0.15467437 0.014657211 -0.1950446 0.06425582
-0.21883504 0.05614423 -0.085457385 -0.08511629 0.0783527 0.096543275 -0.10475194 -0.031166798
-0.22416942 -0.01883146 -0.13138488 0.108672164 -0.010632367 -0.25725862 -0.16012256 0.24465849
0.010773016 -0.053632293 0.22700511 0.07062844 0.014663031 0.1792737 -0.021604232 0.13173781
0.21819443 0.047553144 -0.15361185 -0.1273718 -0.22358334 -0.12591822 0.073441856 0.15222195
0.1387021 -0.16030128 -0.044960678 0.048787188 -0.0989484 0.08306506 0.06040213 0.24555504
0.016507283 -0.061722036 -0.27236924 0.09336809 -0.08548812 -0.1281583 -0.09140879 0.15002576
0.052178632 -0.15754128 0.08524782 -0.19078557 -0.1561938 -0.34473956 0.20013624 -0.28015938
-0.08238484 -0.2528068 -0.07698243 -0.30938733 0.27523208 0.0629495 0.27318597 -0.05044888
-0.17130964 -0.07390825 -0.05857353 0.4584161 0.18650642 0.1662085 -0.1509556 -0.025533745
-0.052038465 -0.10358 -0.017456584 0.12701118 0.2601082 0.06585079 0.18209685 -0.18878916
-0.032904353 -0.29631048 -0.056903526 -0.05377929 0.021787457 0.020748794 -0.20287658 0.054303534
0.19449304 0.13745834 -0.04871369 -0.029622152 0.21465631 0.10341638 0.2184713 0.21623458

regressors.1.lins.1.bias f4 [32]
00000000: 496c 1ebd 77ea 56bd 8c8a 55bd 988f 64bc
00000010: dd16 bcbd b0d2 b93e 70ac 6fbb 0e43 1b3c
00000020: c766 c33c 144e adbd cff9 4bbe e214 22be
00000030: dc17 2d3e fef2 be3d 07aa 663d 0ad3 f73d
00000040: a67c df3c 49d2 b43d b236 06be dc15 993d
00000050: 4b75 d2bd ed43 093e 3127 0e3e 242a 803e
00000060: c541 173d e925 983e ca79 87be 19e1 3f3e
00000070: 69b5 72be 2b39 2d3d 36b9 fc3d 844c 593e
-0.038677488 -0.052469697 -0.05213408 -0.013950251 -0.09184048 0.36293554 -0.0036571287 0.009476436
0.023852719 -0.08462158 -0.19919513 -0.15828279 0.16903633 0.09323691 0.056314494 0.121007994
0.027281117 0.08829171 -0.13106802 0.074748725 -0.10276278 0.13404818 0.13882138 0.2503215
0.036927957 0.29716423 -0.26460105 0.18738212 -0.23702015 0.042290848 0.12340014 0.21220595

regressors.1.lins.2.weight f4 [32, 32]
00000000: 8dd1 7dbe c06c d73d 69f0 56be 6df0 22bf
00000010: 31eb e03e 916c dc3d f6c4 b4bd 706e 443d
00000020: c0d8 b6bc 5ff6 ef3d 8667 f8bd 82ef bcbc
00000030: 506e 0b3e 6669 843e 3d1b c4bc 4899 8cbe
00000040: d97d 0a3d 370d a33d 8622 c4be 74e2 b33d
00000050: 5371 e8bd 5544 68be 5c45 043e f423 5a3e
00000060: 3308 b1bd ae00 b3be 0a3b 9d3c 08b0 183f
00000070: 0fd4 723d 53b7 223e bc62 73be 0e1a 0bbe
00000080: 7736 dbbc 7de1 f0bb 0f26 24bc 7425 63bf
00000090: 71d0 283d 0061 48be c9de 5fbd 26ce 76be
000000a0: 8878 80be f8a5 333e 235e 073e 4ca0 25be
000000b0: 5f8b 213e 4393 0b3e f41f 00bd d8de 7d3d
000000c0: 8088 c0be ef4c 1dbf fda2 14bd 479a a63c
000000d0: 57f7 25be e7ba 903d e8aa b23c 96f8 813e
000000e0: 983d d6bd 6514 73bc b645 cf3d 85a9 93bd
000000f0: 3250 8bbe c987 a33e 7d19 6dbe 0bcc 24be
00000100: cc37 e6be 0de3 ad3d f16b d33d 416e 90bd
00000110: d20d 173e 3e59 373e 99f8 4f3e 58ca 463d
00000120: b414 133d 380a 4abe 84c0 1abe d79f ee3d
00000130: 7b58 a33d a07a 2fbe 384e 8b3d 5518 3a3e
00000140: 99fa 333e ef53 5cbc edd3 5c3b 4bd7 22be
00000150: 75d2 92bd bce8 f4ba 95f1 ccbb d457 0c3e
00000160: 4de8 3c3e 91c5 7b3d 085b 9b3d 0060 603d
00000170: 58c3 173e c51c 40be 6e6f 783e 56a0 433e
00000180: ed95 b4be 65d7 f0be 97f0 6abd a82f 50be
00000190: 4d20 a5be 76c9 b13d 0d24 063e 9ebc 1fbe
000001a0: 4a08 cebe cbb2 0bbe 1749 2fbd d83e 0c3e
000001b0: da49 11bf a020 6b3e f681 903d 0be4 ecbd
000001c0: eef3 73be 0f7b a93e e52a 04be 59d4 473d
000001d0: 13eb 083e 2aee b43c 9183 ac3a ee01 a4be
000001e0: f02b 153e ab6f dcbc c9bd bfbc fec0 afbe
000001f0: a284 453e 926a dbbd c60d 9bbe 96ec de3b
00000200: 2ed4 c93e dac8 0d3e 60ca 223e 5eb2 803e
00000210: 7a46 26be bd8d 063d bac9 81be 3469 663e
00000220: 032a afbe 8c06 abbd 0cec a9be d8e6 f5bd
00000230: 4108 713e 4304 45ba ecd5 11bf 89e2 21bc
00000240: 5498 d33d 424b f9bd 32ea 02be d689 a8be
00000250: 5f77 19be 2e11 bbbe c7f5 8fbe 8f55 f0ba
00000260: 7d85 cf3e aa18 86bd ab86 b93d 5319 5a3e
00000270: ce24 82be f552 133d 08a1 bb3c 3d99 bd3d
00000280: 5eb2 d3bd 2151 d43d 8053 0cbe de2e 18be
00000290: dfe9 3b3e b9dd f1bd 30f8 fb3b d7f0 f93d
000002a0: 24b0 263d e655 17be b3ce 5bbc 8c0f c53d
000002b0: eec5 2e3d 2f2c 8b3d 0c68 5f3e 382c b73c
000002c0: 9913 093e bf3d 2fbe f03d b73b 6027 2cbe
000002d0: 8640 90bd b7d7 8e3d 9993 8e3c 630f c73d
000002e0: ef8f c23d 686c ef3d a35a eebd 9544 b0bd
000002f0: b94f a4bd 87f5 debd 575a 323d 05c9 f23d
00000300: e703 a33e 8435 45bd 85c5 4ebd 47ed dbbd
00000310: 25ea f7be f574 bcbc 5b96 c8bd a8d6 213a
00000320: 9216 f7bd 8609 553e 80eb 4fbd d641 b53e
00000330: 4766 263e 2356 be3c 3a37 2e3e b0ba d33e
00000340: a4d2 c3bd 34e5 fabd 388b 1c3e 2605 6cbe
00000350: 5e9b 45be ac0b 1fbe 9c8c 03be 8c60 553e
00000360: ee3b 813e 75fc 73be b6f3 1a3c 4a46 22be
00000370: 63f9 693e f8f5 ab3d efac 673e 992c d3be
00000380: 2f75 793c 1442 cfbd ce5f 44be 2363 203e
00000390: 9b83 d6ba 546b 0a3e 0241 72be f6b6 ccbe
000003a0: 63c0 053d c48a a53d edab b1bd bdfc 423e
000003b0: 5c1f 2dbf b432 82be ef3b 333e e779 d83d
000003c0: 7d40 9bbd 3b7e bbbe 8bbc 2dbf bd07 40bf
000003d0: b924 eebe 7828 5abf 1530 13bd 7536 b63d
000003e0: 8510 40be 676a 5abf 2714 de3c d94a 66bf
000003f0: 5b98 3bbf 54de 12be 7acc f93d bae7 7f3d
-0.24786969 0.10518789 -0.20990147 -0.6364811 0.43929437 0.10762895 -0.0882663 0.047956884
-0.022320151 0.117169134 -0.121291205 -0.023063425 0.136163 0.25861663 -0.02393877 -0.27460694
0.033811424 0.07961505 -0.3830759 0.08783427 -0.1134974 -0.22682317 0.12917084 0.21302778
-0.08644142 -0.34961456 0.019193191 0.596436 0.059284266 0.15890245 -0.23768133 -0.13584158
-0.02675937 -0.007351099 -0.0100188395 -0.88729024 0.04121441 -0.19568253 -0.054655824 -0.24102077
-0.25091958 0.17543781 0.13219504 -0.1617443 0.15775822 0.13630395 -0.031280473 0.0619801
-0.3760414 -0.61445516 -0.03628825 0.020337237 -0.16207634 0.07066899 0.02181001 0.2538497
-0.10460967 -0.014836405 0.10120718 -0.07210068 -0.27209622 0.31939533 -0.23154254 -0.16093461
-0.44964445 0.08490572 0.103233226 -0.07052279 0.14751366 0.17905137 0.20309676 0.048532814
0.035908416 -0.1973046 -0.15112501 0.11651581 0.07975861 -0.17136621 0.068020284 0.18173344
0.17576064 -0.013447746 0.0033695654 -0.1590244 -0.07169048 -0.0018685083 -0.0062543848 0.13705379
0.1844799 0.06146771 0.07585722 0.054779053 0.14820611 -0.18760975 0.24261257 0.19104132
-0.35270634 -0.47039333 -0.05735835 -0.2033068 -0.32251206 0.08681004 0.1309969 -0.15599295
-0.402407 -0.13642423 -0.042794313 0.13695848 -0.56753314 0.22961664 0.07056038 -0.11566933
-0.2382352 0.331017 -0.12906988 0.048786495 0.13370924 0.022086222 0.0013161768 -0.32032722
0.14567542 -0.026908716 -0.023405926 -0.3432693 0.19288877 -0.10713686 -0.30283946 0.0068031056
0.39419693 0.1384615 0.15897512 0.25136083 -0.16237822 0.032850016 -0.25349218 0.2250107
-0.3421174 -0.08350858 -0.33187902 -0.120069206 0.23538305 -0.00075155887 -0.56967044 -0.00988067
0.10331789 -0.121725574 -0.12784651 -0.3291766 -0.14986943 -0.36536545 -0.281172 -0.0018336045
0.4053153 -0.06547673 0.09058889 0.21298723 -0.25418705 0.035967786 0.022903934 0.092577435
-0.10336755 0.103670366 -0.13703728 -0.14861628 0.18350933 -0.11809868 0.0076894984 0.1220414
0.040695325 -0.14778861 -0.01341598 0.09622106 0.04266923 0.06795537 0.21817034 0.022359952
0.13386382 -0.17113398 0.0055921003 -0.16811895 -0.07043557 0.06974738 0.017404364 0.09719732
0.095001094 0.11690599 -0.11638381 -0.08606831 -0.080230184 -0.108866744 0.043543186 0.11854748
0.31838915 -0.04814674 -0.050481338 -0.107386164 -0.48420826 -0.023004988 -0.09794303 0.0006173649
-0.12064852 0.20804414 -0.0507617 0.3540179 0.16249953 0.023234433 0.17013255 0.4135337
-0.09561661 -0.12250748 0.15287483 -0.23048839 -0.19297549 -0.15531796 -0.12846607 0.20837611
0.25241035 -0.23826773 0.009457519 -0.15847126 0.2284904 0.08396524 0.22624563 -0.41244963
0.015225693 -0.10120025 -0.19177172 0.15662818 -0.0016366126 0.13517505 -0.23657611 -0.39983338
0.032654177 0.08083108 -0.0867537 0.19041725 -0.67625976 -0.25429308 0.17503332 0.10570126
-0.075806595 -0.36619744 -0.6786582 -0.7501181 -0.46512392 -0.85218 -0.035934526 0.088971056
-0.18756302 -0.8531861 0.027109219 -0.8995796 -0.7327935 -0.14342624 0.12197204 0.06247685

regressors.1.lins.2.bias f4 [32]
00000000: 4409 133c 9a00 f83d c4d0 363e 1ee2 16bc
00000010: 73bf 4fbe 60fb 4f3e de08 5cbe 0853 4e3e
00000020: 769a 49be ec5c 15be 09ab 5b3e 1f4a 0b3e
00000030: c5cf 7fbe 55df 66be d250 f73d 5bf0 a33e
00000040: 3236 993e 2aec 8abd 2a46 913d 559d 2bbd
00000050: 3aa8 19be c414 bebd 2214 fbbd 3ef9 82bd
00000060: 2d32 ab3d 22ef 99bd 6438 63bd b470 de3d
00000070: d93c 4d3d 0984 e6bc cfda d9bc bc0d 683d
0.008974377 0.1210949 0.17853075 -0.009209184 -0.20287876 0.20310736 -0.21487758 0.20148861
-0.19687828 -0.14586228 0.21451963 0.13602494 -0.24981602 -0.22546132 0.12075962 0.32019314
0.2992416 -0.06783326 0.07093461 -0.04189809 -0.1500558 -0.092813045 -0.122596994 -0.063951954
0.0835918 -0.07516314 -0.0554737 0.1086134 0.050106857 -0.028139131 -0.026593594 0.056653723

regressors.1.lins.3.weight f4 [1, 32]
00000000: ef7e 833d bec7 00be df08 253e 4c25 34be
00000010: c751 2ebe cada 403d 362c 5fbd f661 bdbe
00000020: e52c 1ebe 2cb9 dabd a692 8cbe 5e00 74be
00000030: 438d ccbd cb81 09be f557 9ebd 3aeb 233d
00000040: 5784 073e a137 b6be ed38 a4bd 76b6 30be
00000050: ffc5 f8be d930 783d de74 bcbd 2fa7 823b
00000060: 9eec 55be 8c22 07be 216f ffbc 639b 963d
00000070: b523 d93c bd41 85bd e23d a2bd 5679 2ebe
0.06420695 -0.12576196 0.16116665 -0.17592353 -0.17023383 0.047083654 -0.054485522 -0.369888
-0.15446813 -0.1067985 -0.27455634 -0.23828265 -0.09987881 -0.13428418 -0.0773162 0.04001925
0.13234077 -0.35589316 -0.0801867 -0.17257103 -0.4858856 0.06059346 -0.09201978 0.003987215
-0.20891044 -0.13196772 -0.03118092 0.073538564 0.026506284 -0.06506679 -0.079219595 -0.17038473

regressors.2.lins.0.weight f4 [32, 64]
00000000: 38a1 9dbd e0f2 f9bc 8ab1 aabd 20be f5bc
00000010: 0849 4e3d c2a9 c13d 90c1 39bd 84af c03d
00000020: c86a 1fbd e8c2 6cbd 0042 0a3a e04f dd3b
00000030: 483e 34bd a01e 583c e2b5 dbbd 58ae a13d
00000040: 0841 e93c 5a0e bbbd 54cb 6abd e86a c23d
00000050: f8d0 863d 34a7 9fbd 4060 88bd cca4 58bd
00000060: 9038 58bc 52dd b43d 447c cf3d fa26 9b3d
00000070: d81a 3cbd 16a2 a4bd a6ae dd3d 749e 4d3d
00000080: 98e5 e8bd 8ed3 88bd d80c 953c 1ccb fd3d
00000090: b628 a6bd 7816 ebbc 0080 d137 4886 79bd
000000a0: 78ad 67bd dccc d03d d26a d0bd 1221 babd
000000b0: 0044 433c 48f3 f73c 52b6 bfbd a025 483c
000000c0: def0 cbbd 72bf 9e3d ce3f a3bd c8ca c4bd
000000d0: c86d a4bc 50bd 7fbc 64d1 643d f8d6 acbd
000000e0: 4069 8c3d 3252 aabd f602 cd3d 2028 cb3c
000000f0: f0ab a63c e0e2 ad3d 2039 53bc 469d a63d
00000100: 9828 f43d a0d1 d53d d0af 32bd c0bc fa3c
00000110: 8e93 99bd 08bc e33c 52a1 d4bd 7407 0cbd
00000120: 30a0 ff3d 4244 e33d 1629 a63d dc3d e9bd
00000130: 10d7 4a3c 2e09 87bd 74a3 783d b827 bdbd
00000140: 2ce9 aebd 002e 5abd ec34 443d 7c55 8fbd
00000150: 60ab cb3d b271 f43d 389d 4e3d a660 b6bd
00000160: b8a7 de3c 7003 e73c a2c9 c7bd 4ab2 c6bd
00000170: 7a1a a3bd b89d 66bd 52b5 fbbd f8fb 903d
00000180: 1034 97bd 7022 603c f6fe cdbd c498 37bd
00000190: 2094 dabb 749f 723d 4068 c2bb bc16 a3bd
000001a0: 709c 693c 102f 63bd f8d7 f0bd 4808 933d
000001b0: 584e d73c 6073 533d c06d f23d 303f ff3c
000001c0: aeed 9a3d c0ee b6bb 5cd6 02bd 3ce7 eabd
000001d0: e054 e53b 0011 5abd 1cb4 2f3d 5829 7b3d
000001e0: 5a7b c4bd 4286 a0bd 2840 363d 742d 92bd
000001f0: 906b 6d3c ba1a ef3d 0c0d d8bd 4401 33bd
00000200: 34ee f0bd a0db e5bc a409 5d3d 1034 1dbd
00000210: 2802 f4bc 00fd 48bc f8f8 55bd e863 3fbd
00000220: d463 c03d 68c6 e2bd 203b ac3c 30ab a23d
00000230: 5826 2b3d 9c97 b0bd 2075 69bc 40e2 c1bd
00000240: 1094 443d 422c 9ebd 806e e33a 7803 6d3d
00000250: e81d c3bd 52b6 ea3d e0db da3c f071 50bd
00000260: 58ce 113d 0cdb 64bd 008c bb3c 920c c23d
00000270: 8893 f33c 984c 56bd 2c8f 38bd 8e09 993d
00000280: 983b c03c c0af 98bb 5c35 b3bd 0455 4bbd
00000290: e094 1ebc 10f8 3a3c a04d d6bd 3cbe af3d
000002a0: de6d a73d e8c9 993d 9226 e93d e8ac ee3d
000002b0: 6276 97bd c85f f73d b464 7bbd f8a7 763d
000002c0: 04ea 823d f6fa d73d e075 00bc c205 aa3d
000002d0: a08a 8a3c 185d 9e3c fcf8 723d c2b0 8cbd
000002e0: 1632 8abd 2284 f53d 84c0 4c3d dcfc 013d
000002f0: 3648 a8bd 8422 d03d 98b6 b6bd 840f 903d
00000300: 98fa 11bd fca4 1dbd 7e09 893d 846c c33d
00000310: a055 8f3d 4c82 20bd b452 a1bd 2c0c 06bd
00000320: e801 8b3d 8052 f53a 908d 34bc 7023 8dbc
00000330: 5c0a f0bd d657 d83d f0fd 1fbd 0031 0f3b
00000340: 1af7 893d 6815 753d 8041 d73c 04ef 45bd
00000350: de4c d03d 8c9d 6e3d 8094 51bc ce68 873d
00000360: 449f 863d 50a3 1a3d f893 c5bd 14bf 8abd
00000370: ae16 f73d 40a8 d0bc d02a 85bc fc06 8a3d
00000380: 3cec 6fbd a49b 16bd b20c d9bd 60e9 53bc
00000390: f06f 0b3d da4d da3d 9e05 9ebd 6812 d5bd
000003a0: 6043 b0bb 2800 83bd 1c7b 35bd 00a8 5cbd
000003b0: ac72 a3bd 30e5 9c3c 486c bb3c 40c0 763b
000003c0: 7c68 c43d 10ef 60bc 4868 b13d e287 89bd
000003d0: 00fd 663a c02a ff3b 38b5 87bc 6201 e0bd
000003e0: cca3 b5bd 4008 a4bb 4032 aebb d0d1 dd3d
000003f0: 4678 b6bd 082e e6bc c09c f23d c2ac cbbd
-0.07696766 -0.03051132 -0.08334644 -0.029997885 0.050362617 0.09456207 -0.04535061 0.09408477
-0.038920194 -0.057803065 0.0005274117 0.0067539066 -0.04400471 0.013190895 -0.10728051 0.078945816
0.028473392 -0.09133597 -0.057322815 0.09493047 0.065828264 -0.07795563 -0.06658983 -0.052891538
-0.013197079 0.08831276 0.10131124 0.075757936 -0.045924038 -0.08038728 0.10824327 0.05019994
-0.113719165 -0.06680976 0.018194601 0.12392256 -0.08113234 -0.028697237 2.4974346e-05 -0.060919076
-0.056561917 0.10195324 -0.10176624 -0.09088339 0.011918068 0.030267373 -0.09360947 0.012216002
-0.09958051 0.07751359 -0.07971154 -0.0960899 -0.020071879 -0.0156091 0.055863753 -0.084394395
0.06856012 -0.08316459 0.100103304 0.024799407 0.020345658 0.084905386 -0.012892038 0.08135466
0.11921805 0.104403734 -0.0436247 0.030607581 -0.07498847 0.027799621 -0.10382332 -0.034186795
0.12481725 0.110970035 0.08113305 -0.11388752 0.012380376 -0.06593548 0.060702756 -0.092360914
-0.08540568 -0.053266525 0.047902033 -0.06998727 0.099447966 0.11935748 0.050442904 -0.08905153
0.027179584 0.028199881 -0.09755255 -0.09701975 -0.079640344 -0.056302756 -0.122904435 0.07079309
-0.07382977 0.013680086 -0.100583956 -0.044823423 -0.00667049 0.059234098 -0.0059328377 -0.079633206
0.014258489 -0.055464804 -0.11759943 0.07179314 0.026282474 0.051623702 0.118373394 0.03115806
0.07564865 -0.0055826604 -0.03194271 -0.11469886 0.0069986433 -0.05323887 0.042896375 0.061318725
-0.0959384 -0.07838108 0.044494778 -0.07137576 0.014490977 0.116750196 -0.105493635 -0.04370238
-0.11764184 -0.028058827 0.053964272 -0.03837973 -0.029786184 -0.012267351 -0.05223939 -0.046726137
0.09394041 -0.11072999 0.021024287 0.07942808 0.041784614 -0.08622667 -0.014249116 -0.09466982
0.047992766 -0.07723285 0.0017351657 0.057864636 -0.095271885 0.11460556 0.026716173 -0.05088991
0.035597175 -0.055872962 0.022893906 0.09475054 0.029733434 -0.05231914 -0.045058414 0.074725255
0.023465917 -0.004659623 -0.08750412 -0.049641624 -0.009679049 0.011411682 -0.104640245 0.08581206
0.081752524 0.07509214 0.1138431 0.11654073 -0.073956266 0.12078816 -0.061375335 0.06021878
0.06392291 0.10545914 -0.007840604 0.083018795 0.016911805 0.0193315 0.05931948 -0.068696514
-0.067478344 0.11988093 0.049988285 0.031735286 -0.08216898 0.10162833 -0.08921546 0.07034209
-0.035639375 -0.03848742 0.066912636 0.09542182 0.069987535 -0.03918676 -0.078771025 -0.03272645
0.06787473 0.0018716604 -0.011020079 -0.017228812 -0.11720726 0.105636284 -0.039060533 0.0021849275
0.06736584 0.059834868 0.02627635 -0.048323646 0.10170911 0.058255717 -0.012791753 0.06611787
0.06573346 0.037753403 -0.096473634 -0.067747265 0.12064873 -0.025470853 -0.016255766 0.067396134
-0.0585749 -0.036769524 -0.105981246 -0.012934059 0.0340423 0.1065938 -0.07715915 -0.10403901
-0.0053791255 -0.06396514 -0.04430686 -0.053871155 -0.07980856 0.019152254 0.022878781 0.003765121
0.09590241 -0.013728872 0.08662468 -0.06715371 0.00088115036 0.0077870786 -0.016565904 -0.10937764
-0.088691324 -0.0050058663 -0.005316049 0.10831034 -0.08909659 -0.028098121 0.11846304 -0.0994506
