baseline/DLPL-CAP/models_dlpl-cap-regressor/sandwich+ultra8t_to_ssram+digtime+timing_ctrl+array_128_32_8t/dlpl-cap-regressor_nh_2_tsk_regression_ngl_4_nhl_4_hd_32_us_1_bn_0_dp_0.0_epoch_10_20250402_153146.pth (torch, 64130 bytes, 21 tensors)

regressors.0.lins.0.weight f4 [32, 64]
-0.048146714 -0.0049587786 -0.02351507 0.06213109 0.17068587 0.07053766 0.10718836 -0.009682041
-0.30774686 -0.15228365 -0.54405653 0.09060963 -0.13386165 0.035229206 -0.18412825 -0.14521764
-0.11570926 0.0454785 0.23517637 -0.18854928 -0.053198323 -0.016253099 -0.03713533 -0.20229863
0.13922937 -0.08437118 -0.097533524 -0.011767492 -0.11454718 0.18563552 -0.10327305 0.032978456
-0.02753548 -0.011793062 -0.021954274 0.019791223 -0.035244066 0.098553166 0.10817043 0.21408437
0.0051839887 0.21498506 0.054179627 0.14020765 -0.2826187 0.19245999 -0.24825427 -0.02318451
-0.11328435 -0.79517454 -0.35843068 -0.4283527 -0.07696642 0.04601714 -0.12452157 -0.13415305
-0.19474766 -0.09719642 0.029337808 -0.20873807 -0.11956468 0.23089203 0.11300291 -0.17504811
-0.11741411 -0.017723769 -0.102336675 -0.0377886 0.0814956 -0.038372383 -0.044595074 0.08335657
-0.06477952 -0.011908561 -0.029589765 0.016291609 -0.14839466 -0.049593765 0.07596949 0.07079045
0.009185332 -0.13440864 -0.09029673 -0.12175867 0.09789753 0.01002565 -0.042292874 0.052726425
-0.068639584 0.00568241 0.079297885 -0.0673818 -0.021330968 -0.07802406 0.062487766 0.04153057
-0.12716368 -0.056174427 -0.098472044 0.116994806 -0.14491303 0.033407915 -0.047810636 -0.0795462
-0.090185 0.06558341 -0.08928017 -0.124002315 -0.05657576 0.050264012 -0.07529822 -0.13209093
0.07124831 -0.13299935 -0.11651166 0.039525867 0.027275667 -0.11301844 -0.058897592 0.07400954
-0.072195604 0.041220855 0.026132196 0.10391379 0.10782866 -0.039587177 0.039115295 -0.10736222
0.08703195 0.078885734 -0.12694721 -0.056224935 0.12862077 -0.096803054 0.21782887 -0.09777624
-0.18347643 0.035806276 -0.22720987 -0.091297634 -0.25102517 0.11751888 0.17392965 -0.1163431
-0.36019698 -0.19935255 -0.082312904 0.08774258 0.07665396 -0.03929548 0.08686833 0.13960455
0.09547691 0.16277765 -0.03461289 -0.11911516 0.055635616 -0.4258051 -0.06664626 0.018631103
0.017784392 -0.07621251 0.15195888 -0.012860079 -0.04400075 -0.21821494 0.13539252 -0.28185096
0.08197777 0.25929496 0.10238293 -0.21017516 0.28381258 -0.050447475 0.053354926 -0.017309286
0.0034922305 0.1301274 -0.080775835 0.050595246 0.1151984 0.007887557 0.04229821 -0.010839611
-0.17323312 -0.2674047 -0.11213358 -0.16635484 0.1074584 0.043334655 0.021573216 -0.20115288
-0.07697789 0.020865679 -0.43331474 -0.0325879 -0.020726994 -0.18071005 -0.06325156 0.012781682
0.26217335 -0.35929874 0.10289076 -0.13504148 -0.13049209 0.14296645 -0.7908267 -0.06268805
-0.43296066 -0.046555426 -0.1985593 0.100651555 -0.080139294 0.12462273 -0.22101226 0.27951112
0.027325135 -0.033782963 0.305178 0.08341661 0.015551403 -0.28126812 -0.091207385 0.008647831
0.06941654 -0.023796096 -0.07135348 0.019649586 -0.02777058 -0.31673837 -0.03205804 0.15668349
-0.058282427 -0.16455714 -0.0013152799 0.06015306 -0.14584826 0.19787858 -0.66083366 0.054985844
0.11098648 -0.10069298 -0.06438556 0.111959584 0.07683091 -0.04933463 -0.14426035 0.1746104
0.1516673 0.13712713 -0.036321238 0.055187646 0.10159175 0.19046247 0.12027314 -0.032025117
00000000: 7d35 45bd 407d a2bb ada2 c0bc 2b7d 7e3d
00000010: 47c8 2e3e 0c76 903d 9285 db3d 6ca1 1ebc
00000020: ff90 9dbe 3ff0 1bbe 4a47 0bbf 8b91 b93d
00000030: 0713 09be 804c 103d 1e8c 3cbe efb3 14be
00000040: faf8 ecbd aa47 3a3d 13d2 703e 1013 41be
00000050: 7ce6 59bd 3825 85bc 371b 18bd 5f27 4fbe
00000060: 2592 0e3e ccca acbd a8bf c7bd 70cc 40bc
00000070: b697 eabd 3d17 3e3e d280 d3bd 6b14 073d
00000080: 1692 e1bc b037 41bc 73d9 b3bc 3421 a23c
00000090: 155c 10bd 3ed6 c93d 7588 dd3d ef38 5b3e
000000a0: 73de a93b 0b25 5c3e 75eb 5d3d 9892 0f3e
000000b0: 66b3 90be 3b14 453e 5e36 7ebe 71ed bdbc
000000c0: a001 e8bd 8f90 4bbf 3a84 b7be 0c51 dbbe
000000d0: 92a0 9dbd 787c 3c3d 2a05 ffbd 6b5f 09be
000000e0: ee6b 47be eb0e c7bd d855 f03c 6fbf 55be
000000f0: 54de f4bd f66e 6c3e 126e e73d d03f 33be
00000100: cf76 f0bd 7031 91bc e495 d1bd 38c8 1abd
00000110: 2ae7 a63d 5c2c 1dbd 53a9 36bd d9b6 aa3d
00000120: 20ab 84bd 201c 43bc 3c66 f2bc fb75 853c
00000130: c5f4 17be d522 4bbd e495 9b3d 95fa 903d
00000140: 137e 163c 6ba2 09be 7eed b8bd 9c5c f9bd
00000150: 807e c83d a042 243c 4b3b 2dbd aaf7 573d
00000160: e992 8cbd 8333 ba3b ee66 a23d 78ff 89bd
00000170: 48be aebc 14cb 9fbd 2cf3 7f3d f51b 2a3d
00000180: 3237 02be 2817 66bd b6ab c9bd f99a ef3d
00000190: 1564 14be bdd6 083d 16d5 43bd 1ee9 a2bd
000001a0: eab2 b8bd 9850 863d 86d8 b6bd edf4 fdbd
000001b0: fcbb 67bd a3e1 4d3d f435 9abd d842 07be
000001c0: a2ea 913d fb30 08be aa9d eebd e0e5 213d
000001d0: 3871 df3c 3676 e7bd 9a3e 71bd 5092 973d
000001e0: 4adb 93bd 33d7 283d 3013 d63c c1d0 d43d
000001f0: 46d5 dc3d 2a26 22bd 5c37 203d b9e0 dbbd
00000200: cf3d b23d d88e a13d 73fe 01be 1e4c 66bd
00000210: 2ab5 033e ae40 c6bd 880e 5f3e e93e c8bd
00000220: 3fe1 3bbe 9aa9 123d b4a9 68be 41fa babd
00000230: 5f86 80be bdad f03d 9d1a 323e 4b45 eebd
00000240: bd6b b8be 1323 4cbe ab93 a8bd 62b2 b33d
00000250: c0fc 9c3d 4cf4 20bd 06e8 b13d 7ff4 0e3e
00000260: 6689 c33d 2faf 263e 3fc6 0dbd a6f2 f3bd
00000270: 2ce2 633d 2003 dabe d67d 88bd 41a0 983c
00000280: 93b0 913c 4e15 9cbd 1c9b 1b3e 15b3 52bc
00000290: 213a 34bd bd73 5fbe 56a4 0a3e c54e 90be
000002a0: f6e3 a73d 4fc2 843e 24ae d13d 2838 57be
000002b0: e24f 913e 03a2 4ebd b28a 5a3d 34cc 8dbc
000002c0: e8dd 643b 1e40 053e cd6d a5bd f63c 4f3d
000002d0: 24ed eb3d d03a 013c e340 2d3d a098 31bc
000002e0: 0664 31be 45e9 88be 4aa6 e5bd ec58 2abe
000002f0: 2613 dc3d ae7f 313d 50ba b03c 05fb 4dbe
00000300: 96a6 9dbd 80ee aa3c 6edb ddbe e47a 05bd
00000310: a8cb a9bc 0e0c 39be 098a 81bd 436a 513c
00000320: 963b 863e 01f6 b7be 64b8 d23d 5048 0abe
00000330: b89f 05be cc65 123e 9e73 4abf 9862 80bd
00000340: 05ad ddbe e7b0 3ebd 2153 4bbe 6722 ce3d
00000350: 1220 a4bd 343a ff3d 0a51 62be 151c 8f3e
00000360: f6d8 df3c 0160 0abd 4a40 9c3e 54d6 aa3d
00000370: 50cb 7e3c 6002 90be f0ca babd a2af 0d3c
00000380: 422a 8e3d 08f0 c2bc c621 92bd 2bf8 a03c
00000390: 217f e3bc 882b a2be 4b4f 03bd a371 203e
000003a0: 8eb9 6ebd ab81 28be 7865 acba 0e63 763d
000003b0: 3f59 15be afa0 4a3e 652c 29bf d638 613d
000003c0: e14c e33d 1f38 cebd 94dc 83bd 114b e53d
000003d0: 8659 9d3d 1c13 4abd fcb8 13be 12cd 323e
000003e0: ac4e 1b3e 0e6b 0c3e 94c5 14bd 710c 623d
000003f0: 560f d03d 9808 433e c451 f63d c52c 03bd

regressors.0.lins.0.bias f4 [32]
-0.0031310164 -0.102653876 0.103549115 -0.09070245 0.14057265 0.026193433 0.11198345 0.1465666
0.14575121 0.025608 0.07240625 -0.0625178 -0.0333903 -0.13122107 -0.001213463 -0.07927259
-0.039109536 -0.119703904 -0.097851634 0.14786156 -0.11704885 0.18414703 0.17910023 -0.13583468
-0.06514618 -0.09066256 0.1767934 -0.025000662 0.15818064 -0.124089554 0.10352555 -0.15205842
00000000: bd31 4dbb 323c d2bd 8f11 d43d 35c2 b9bd
00000010: 47f2 0f3e 9c93 d63c 9457 e53d 8e15 163e
00000020: ce3f 153e dec7 d13c ba49 943d 5509 80bd
00000030: 44c4 08bd d15e 06be 100d 9fba ab59 a2bd
00000040: 5231 20bd 5227 f5bd 7066 c8bd 0569 173e
00000050: 4fb7 efbd 0a91 3c3e 0d66 373e 3f18 0bbe
00000060: 5c6b 85bd 4bad b9bd 5409 353e 30ce ccbc
00000070: 1bfa 213e aa22 febd 3405 d43d 34b5 1bbe

regressors.0.lins.1.weight f4 [32, 32]
-0.56059355 0.008924016 -0.27775156 0.12277525 -0.3551619 -0.17888717 0.09460416 -0.5208575
-0.273482 0.09165211 -0.19675285 -0.21530251 0.14187011 0.058259524 -0.020176575 0.14092708
-0.07839756 0.14952332 -0.12495219 -0.1197568 -0.25497267 -0.06404778 -0.20192206 0.20821543
0.0067138504 -0.06290616 -0.18278895 -0.09912835 -0.16698118 -0.15316404 -0.06911729 0.22634248
-0.42198786 -0.13662228 -0.021048635 -0.386629 0.24819233 -0.068389885 -0.10517782 -0.031708248
0.16271257 0.057649005 0.18723117 -0.059149817 0.101949796 0.2017522 -0.09082675 0.15568921
0.03816755 -0.38191938 -0.14304638 -0.101947166 0.17388688 0.1130795 -0.2394145 -0.12599923
-0.10225462 -0.0050385776 0.021836758 -0.2718505 0.057134878 0.31129065 0.05697748 0.18976794
0.26841718 -0.022590099 -0.26250026 -0.25572208 -0.60945493 0.044689585 -0.080371775 0.0017948925
0.06637314 -0.23528361 -0.0024317387 0.06710676 -0.3644792 -0.43020374 -0.074441195 -0.44138277
0.007581099 0.106390126 0.0029873692 0.02867223 -0.49229482 -0.23933843 0.0748565 -0.00060748076
-0.15051274 0.018772291 0.1272186 -0.05380084 0.02377793 -0.078318775 -0.2527017 -0.13409187
0.032152556 0.027994707 0.04139556 0.1160174 -0.25769353 -0.18015534 -0.4122936 -0.18348226
0.041840483 -0.22306569 -0.17914838 0.10612913 -0.08273588 -0.3608115 -0.28911182 -0.042376447
0.068103135 -0.06936192 0.07326966 -0.5512948 -0.22325955 -0.16898035 0.07142064 0.017348206
-0.29881915 -0.0088728275 -0.39582273 -0.28800413 -0.19894004 -0.0036387295 0.0027281165 -0.29003668
0.052940503 0.008708495 -0.03564421 -0.044005115 -0.08622014 0.17335536 0.008426085 -0.03086225
-0.0007040528 0.0133116 0.037264764 -0.01293218 -0.018145928 0.034578398 0.17026205 0.049735244
-0.16734546 -0.07072595 0.144189 0.00256039 -0.064587235 -0.074800014 -0.28912532 -0.10557149
-0.018552475 -0.10337194 -0.07640825 -0.114832215 0.051739026 0.15709879 -0.16270307 -0.009175993
-0.55272526 0.14151119 -0.55995804 -0.015715675 -0.07016809 0.1427977 -0.0003521571 -0.32217017
0.10069594 0.08841967 -0.0640818 -0.0039217635 0.22727758 -0.018634012 -0.21140817 0.09943176
-0.13790096 -0.03568772 -0.21476047 -0.29415178 0.052417416 -0.17220196 0.0061843144 -0.2706941
0.32023278 -0.04679002 0.14488554 -0.24095513 0.005171566 0.14681445 0.16754237 -0.12824203
0.054183662 -0.08781553 0.033598274 -0.23871881 -0.05948097 0.14151497 -0.027363421 -0.10228181
-0.15226863 0.026429545 0.16302525 -0.37056756 -0.2261139 0.01626107 0.09046999 0.068813786
-0.24528952 0.08738377 0.09368673 -0.09076939 0.050827377 -0.27944982 -0.29059944 0.06783615
-0.01214892 0.10125659 -0.0045496984 0.0787024 -0.0997199 -0.17476505 0.1540283 -0.14218137
-0.13013615 -0.09791021 0.032103542 0.06043697 -0.084401265 -0.092548095 -0.31957597 0.07180293
-0.051838316 -0.003082013 0.014895503 -0.17696933 -0.17621031 0.16399796 0.065043904 0.18639031
-0.21796334 -0.2279889 0.10254187 0.16108017 -0.044657398 -0.07601924 0.14617573 -0.72573644
0.12294911 -0.024604626 -0.06529022 -0.06698868 -0.25324968 0.40233558 0.09935305 -0.057897866
00000000: 0f83 0fbf 0936 123c 7435 8ebe 9771 fb3d
00000010: c8d7 b5be 332e 37be d3bf c13d eb56 05bf
00000020: d505 8cbe 1ab4 bb3d 9479 49be 4378 5cbe
00000030: 6646 113e 8aa1 6e3d 5849 a5bc 304f 103e
00000040: e68e a0bd a41c 193e efe6 ffbd 0e43 f5bd
00000050: c78b 82be 7c2b 83bd a8c4 4ebe 6d36 553e
00000060: dcff db3b f2d4 80bd 072d 3bbe ce03 cbbd
00000070: 1dfd 2abe 09d7 1cbe 5e8d 8dbd 53c6 673e
00000080: cb0e d8be b6e6 0bbe 306e acbc 3cf4 c5be
00000090: 2126 7e3e ff0f 8cbd 7867 d7bd 82e0 01bd
000000a0: 209e 263e 5d21 6c3d 87b9 3f3e 1447 72bd
000000b0: 0ecb d03d 2198 4e3e 6003 babd fe6c 1f3e
000000c0: 9455 1c3d f08a c3be c07a 12be adc9 d0bd
000000d0: 670f 323e 3a96 e73d 1329 75be f105 01be
000000e0: df6a d1bd a71a a5bb 00e3 b23c fd2f 8bbe
000000f0: 4306 6a3d 7d61 9f3e 3861 693d 8752 423e
00000100: fa6d 893e df0e b9bc 6f66 86be 01ee 82be
00000110: 3d05 1cbf 6d0c 373d f599 a4bd 9942 eb3a
00000120: a4ee 873d 30ee 70be ce5d 1fbb 456f 893d
00000130: 059d babe aa43 dcbe a074 98bd ecfc e1be
00000140: de6a f83b 11e3 d93d bdc7 433b 06e2 ea3c
00000150: 110e fcbe 2215 75be 5d4e 993d 583f 1fba
00000160: 0320 1abe 59c8 993c 9845 023e 455e 5cbd
00000170: efc9 c23c 9865 a0bd 1e62 81be 614f 09be
00000180: 66b2 033d 2855 e53c 648e 293d 889a ed3d
00000190: 68f0 83be a47a 38be 2618 d3be c6e2 3bbe
000001a0: ed60 2b3d 556b 64be ac72 37be 3b5a d93d
000001b0: 6e71 a9bd 49bc b8be 7706 94be ed92 2dbd
000001c0: a879 8b3d 9f0d 8ebd 670e 963d a821 0dbf
000001d0: 279e 64be 2f09 2dbe fc44 923d d31d 8e3c
000001e0: d3fe 98be 565f 11bc 47a9 cabe 4775 93be
000001f0: f0b6 4bbe c077 6ebb 33ca 323b b07f 94be
00000200: 24d8 583d 13ae 0e3c aaff 11bd b53e 34bd
00000210: 2f94 b0bd 1184 313e 900d 0a3c d4d2 fcbc
00000220: 2f90 38ba e618 5a3c f0a2 183d 7fe1 53bc
00000230: c5a6 94bc 14a2 0d3d 2d59 2e3e 2fb7 4b3d
00000240: 9c5c 2bbe c4d8 90bd 48a6 133e 37cc 273b
00000250: 5046 84bd c030 99bd 3c08 94be de35 d8bd
00000260: 5cfb 97bc abb4 d3bd ee7b 9cbd 272d ebbd
00000270: 4dec 533d 81de 203e a29b 26be e756 16bc
00000280: 677f 0dbf 4fe8 103e 6959 0fbf 29be 80bc
00000290: 4ab4 8fbd 8f39 123e baa1 b8b9 7df3 a4be
000002a0: ac39 ce3d 5f15 b53d 523d 83bd 2382 80bb
000002b0: 74bb 683e 5ba6 98bc 627b 58be e1a2 cb3d
000002c0: e935 0dbe 492d 12bd 2bea 5bbe 109b 96be
000002d0: a5b3 563d b655 30be caa5 ca3b 6b98 8abe
000002e0: 8df5 a33e e4a6 3fbd e05c 143e f1bc 76be
000002f0: 3d76 a93b 8756 163e 3a90 2b3e e151 03be
00000300: b0ef 5d3d a1d8 b3bd 589e 093d b472 74be
00000310: 51a2 73bd 4de9 103e 4129 e0bc 2079 d1bd
00000320: 4fec 1bbe c682 d83c 17f0 263e 08bb bdbe
00000330: 678a 67be ef35 853c 5548 b93d 3eee 8c3d
00000340: 2d2d 7bbe 43f6 b23d d4de bf3d 4de5 b9bd
00000350: 5e30 503d 0c14 8fbe 73c9 94be aeed 8a3d
00000360: 440c 47bc 9d5f cf3d a315 95bb b92e a13d
00000370: f239 ccbd 9cf5 32be 98b9 1d3e fe97 11be
00000380: 6942 05be 2685 c8bd 017f 033d c28c 773d
00000390: 92da acbd db89 bdbd 769f a3be 6a0d 933d
000003a0: 6a54 54bd 99fb 49bb 450c 743c 7337 35be
000003b0: 7a70 34be 15ef 273e bd35 853d 1add 3e3e
000003c0: c831 5fbe ec75 69be 7901 d23d 33f2 243e
000003d0: adea 36bd faaf 9bbd 17af 153e ddc9 39bf
000003e0: becc fb3d a48f c9bc e1b6 85bd 5c31 89bd
000003f0: f1a9 81be eefe cd3e 9d79 cb3d 5026 6dbd

regressors.0.lins.1.bias f4 [32]
-0.08716532 -0.07010973 -0.028700214 -0.13759877 -0.22303776 -0.2329558 -0.10786893 -0.005796543
0.11037514 0.02317378 0.20664042 -0.17009544 -0.28542465 -0.044192307 0.22037503 -0.16859294
-0.14267337 0.3510394 0.022026073 0.14847285 0.32859504 0.04523967 -0.37409416 0.0037599339
-0.1440713 -0.124184646 0.01690374 -0.22557536 0.12589958 0.07499455 0.13590463 0.15468419
00000000: bb83 b2bd b195 8fbd b61c ebbc b1e6 0cbe
00000010: 0364 64be f78b 6ebe 63ea dcbd edf0 bdbb
00000020: 5d0c e23d f0d6 bd3c 8c99 533e 802d 2ebe
00000030: 2e23 92be fe02 35bd fea9 613e a1a3 2cbe
00000040: f818 12be 70bb b33e 0670 b43c 4409 183e
00000050: 9c3d a83e 3b4d 393d 4589 bfbe 3969 763b
00000060: 6d87 13be 8554 febd b679 8a3c 3afd 66be
00000070: d2eb 003e be96 993d 952a 0b3e 8865 1e3e

regressors.0.lins.2.weight f4 [32, 32]
0.149798 0.10554538 -0.06830978 -0.07156592 -0.0036311827 -0.16705506 -0.103000514 -0.10066096
0.1371529 -0.105489366 -0.109314404 -0.13086642 -0.017650656 -0.10532687 -0.15690514 0.1712681
-0.06719177 -0.013046093 0.023194633 0.009438892 0.051328603 0.07900612 -0.067185596 -0.07045069
-0.020712331 -0.1660615 -0.09384482 0.07627707 -0.0021223677 -0.11917375 -0.11488209 -0.056698933
0.045194823 0.25714788 -0.13413823 -0.15059328 -0.28692126 0.001215258 -0.18676865 -0.21439819
-0.08280918 -0.035721514 -0.2957438 0.036091994 -0.0029843124 -0.2881476 -0.02133302 0.044733286
0.3762871 -0.11143692 -0.12569156 0.1707328 0.11962216 0.034159414 -0.033818662 0.16769947
-0.06355658 0.065956205 -0.3048808 -0.1696441 -0.15798971 -0.10444696 -0.0037751074 -0.054766618
0.08272457 -0.19340622 -0.15557587 -0.20542681 0.055022992 0.08655976 -0.30351916 -0.21579109
-0.39425492 0.07575643 0.052039895 0.15580335 0.13214105 -0.02580227 -0.0806768 0.3285328
0.3095227 0.01231452 -0.018689651 -0.1005201 0.10198 0.050268907 0.27053133 0.22618704
-0.3946322 0.08805927 0.31357864 -0.012104062 -0.073890544 0.19483553 0.120489195 -0.0474716
-0.084000394 -0.068572134 -0.18047094 -0.034899667 -0.12894021 0.07455726 -0.055695873 0.0178569
0.0917312 0.06787144 -0.015820196 -0.019071648 -0.032880176 -0.15499902 -0.1468139 -0.006035781
0.14971787 -0.050980184 0.0541824 0.073093235 -0.1740859 0.06252231 0.057667483 -0.102803975
-0.11796661 -0.13341822 -0.101144664 -0.0877894 -0.05154404 0.04873377 -0.1256106 -0.15429795
-0.14937705 -0.106845565 0.005382287 -0.08407615 -0.10788589 0.14903271 -0.04572351 -0.1613234
0.08365741 -0.05548748 -0.16092272 0.13527136 -0.060693458 -0.12799174 -0.039419558 -0.049436715
0.123707116 0.05791543 -0.026296148 -0.050678592 0.013000114 -0.008484566 -0.11757396 0.01286715
0.04208811 0.19120929 -0.17699434 -0.1693733 -0.1603531 -0.24715634 -0.09036681 0.02955538
-0.08523173 0.13287732 0.13270403 0.08012616 -0.19412102 0.08220081 0.09968702 0.15151928
-0.1568622 0.07353504 0.007597719 0.023030344 0.08589463 0.021008432 -0.13078715 -0.1283254
-0.17058054 -0.08519792 0.12989141 0.038158607 0.07679786 -0.044426274 0.02766688 -0.14917421
-0.03010913 -0.15833387 -0.07678976 0.023273785 -0.008258838 -0.16627319 -0.23623979 -0.09324886
0.01996378 0.0629355 0.12647286 -0.15445872 -0.17217477 -0.22835496 -0.07653412 -0.11459973
-0.6299618 -0.06905054 -0.067955926 0.07673744 0.21513891 0.068931855 -0.018111726 0.052362308
-0.18016706 0.085872956 -0.013498109 -0.0370759 -0.08770651 0.026174879 0.07709228 -0.25428972
-0.06052007 -0.038644377 -0.027127784 -0.2766569 -0.3174073 0.014417242 0.03665984 -0.08388234
-0.29707646 -0.37114447 -0.18092802 0.018249052 -0.044657763 -0.039908297 0.118302405 -0.09424559
0.015436848 0.070447095 0.0047148513 -0.11725671 -0.056438513 -0.2619442 -0.07587055 0.058604565
-0.14772753 -0.013471918 -0.21172498 -0.13135813 -0.19964492 -0.020017622 0.39165023 0.08810992
-0.3255795 -0.084737614 0.13453142 0.038948238 -0.081854686 -0.046176817 0.13360842 -0.16939026
00000000: a664 193e 2d28 d83d ffe5 8bbd 2791 92bd
00000010: 23f9 6dbb 7b10 2bbe eff1 d2bd 5527 cebd
00000020: cf71 0c3e cf0a d8bd 3be0 dfbd d901 06be
00000030: 1c98 90bc 9db5 d7bd beab 20be e860 2f3e
00000040: d79b 89bd 48bf 55bc ac02 be3c 95a5 1a3c
00000050: f13d 523d f6cd a13d 9a98 89bd 7448 90bd
00000060: e8ac a9bc 070c 2abe b731 c0bd 2737 9c3d
00000070: 6c17 0bbb 5e11 f4bd 4d47 ebbd 243d 68bd
00000080: 351e 393d e3a8 833e 885b 09be 2035 1abe
00000090: 58e7 92be 4b49 9f3a 4840 3fbe 338b 5bbe
000000a0: dc97 a9bd b950 12bd bb6b 97be 33d5 133d
000000b0: 7494 43bb 1588 93be 96c2 aebc 403a 373d
000000c0: b4a8 c03e 0a39 e4bd 4ab5 00be 94d4 2e3e
000000d0: 77fc f43d beea 0b3d 7085 0abd 69b9 2b3e
000000e0: f429 82bd 0c14 873d 5619 9cbe 2fb7 2dbe
000000f0: 0ec8 21be 4ae8 d5bd cb67 77bb f652 60bd
00000100: 806b a93d 480c 46be 484f 1fbe 685b 52be
00000110: ca5f 613d 3e46 b13d dd66 9bbe 57f8 5cbe
00000120: c8db c9be 3026 9b3d c927 553d ea8a 1f3e
00000130: fc4f 073e 485f d3bc e139 a5bd 7335 a83e
00000140: c279 9e3e d7c2 493c 0a1b 99bc 7bdd cdbd
00000150: e4da d03d c5e6 4d3d 1583 8a3e 939d 673e
00000160: 3b0d cabe 6b58 b43d 618d a03e 1e50 46bc
00000170: ed53 97bd f782 473e 0ac3 f63d 9571 42bd
00000180: 6608 acbd 8c6f 8cbd 60cd 38be f4f2 0ebd
00000190: e708 04be 7ab1 983d 5b21 64bd a248 923c
000001a0: 91dd bb3d 2e00 8b3d 5b99 81bc 253c 9cbc
000001b0: 5dad 06bd 10b8 1ebe 6256 16be cdc7 c5bb
000001c0: a44f 193e 99d0 50bd 5dee 5d3d e8b1 953d
000001d0: 9343 32be b20b 803d bd34 6c3d e48a d2bd
000001e0: 7a98 f1bd c99e 08be ef24 cfbd eeca b3bd
000001f0: d81f 53bd 109d 473d 11a0 00be 4800 1ebe
00000200: 4cf6 18be d9d1 dabd e55d b03b 1e30 acbd
00000210: 47f3 dcbd 089c 183e 9348 3bbd f631 25be
00000220: 9454 ab3d d746 63bd edc8 24be 9384 0a3e
00000230: b499 78bd 4410 03be 6776 21bd 277e 4abd
00000240: 285a fd3d bb38 6d3d 056b d7bc 5b94 4fbd
00000250: 6efe 543c d902 0bbc 9eca f0bd bdd0 523c
00000260: 9564 2c3d 5ecc 433e 013e 35be 3270 2dbe
00000270: 9a33 24be 8d16 7dbe 3c12 b9bd 201e f23c
00000280: f98d aebd fe10 083e 91e3 073e 2f19 a43d
00000290: a9c7 46be e658 a83d b528 cc3d df27 1b3e
000002a0: 7ca0 20be 8a99 963d 49f6 f83b 22aa bc3c
000002b0: 86e9 af3d e019 ac3c 11ed 05be bc67 03be
000002c0: aaac 2ebe 3f7c aebd 4102 053e 334c 1c3d
000002d0: 3248 9d3d 53f8 35bd a7a5 e23c 20c1 18be
000002e0: 6ca7 f6bc 4622 22be f343 9dbd aaa8 be3c
000002f0: 1450 07bc 8543 2abe d8e8 71be 42f9 bebd
00000300: 158b a33c 54e4 803d 1a82 013e 6d2a 1ebe
00000310: 954e 30be e2d5 69be ecbd 9cbd 43b3 eabd
00000320: 2d45 21bf 5f6a 8dbd 7a2c 8bbd 8528 9d3d
00000330: 604d 5c3e 252c 8d3d 0b5f 94bc dc79 563d
00000340: b77d 38be 29de af3d 2c27 5dbc e6dc 17bd
00000350: 799f b3bd b36c d63c 8fe2 9d3d 4332 82be
00000360: e5e3 77bd 9149 1ebd 163b debc f9a5 8dbe
00000370: 3683 a2be 4c36 6c3c a128 163d 81ca abbd
00000380: 681a 98be a606 bebe 3245 39be 097f 953c
00000390: 0feb 36bd e276 23bd 8848 f23d d503 c1bd
000003a0: d5ea 7c3c 9146 903d 0a7f 9a3b 4924 f0bd
000003b0: 122c 67bd 8d1d 86be 0562 9bbd 570b 703d
000003c0: e345 17be 52b9 5cbc 6fce 58be bf82 06be
000003d0: b86f 4cbe fffb a3bc 6186 c83e f972 b43d
000003e0: 5bb2 a6be ea8a adbd 9bc2 093e 3088 1f3d
000003f0: 6ea3 a7bd e723 3dbd a5d0 083e a474 2dbe

regressors.0.lins.2.bias f4 [32]
-0.1551843 -0.09791183 -0.27319866 -0.12504037 -0.17416774 0.03944896 0.17546025 -0.2682274
-0.1790567 0.21357396 0.071152285 -0.07069592 0.40699196 0.36159065 -0.17080241 0.04980814
0.3177907 -0.07876918 -0.20082662 0.27026358 -0.23504482 0.25974897 -0.2181844 -0.12520263
-0.08636108 -0.18268083 -0.0381069 0.27450424 -0.07055261 0.09809012 0.3079984 0.017369537
00000000: a2e8 1ebe ff85 c8bd b2e0 8bbe 950a 00be
00000010: 0759 32be 3c95 213d daab 333e 1a55 89be
00000020: a45a 37be 22b3 5a3e 4ab8 913d 06c9 90bd
00000030: 4061 d03e 6922 b93e d4e6 2ebe 9f03 4c3d
00000040: 76b5 a23e bc51 a1bd 7ea5 4dbe fd5f 8a3e
00000050: 97af 70be d1fd 843e bb6b 5fbe 1e35 00be
00000060: 14de b0bd af10 3bbe fb15 1cbd d28b 8c3e
00000070: e37d 90bd 79e3 c83d f7b1 9d3e 8f4a 8e3c

regressors.0.lins.3.weight f4 [1, 32]
0.11898772 -0.23145233 -0.18420295 -0.097683005 -0.10039395 -0.014951119 0.08902141 0.019106599
0.039741382 0.05761943 0.008330287 -0.1264226 0.23008302 0.17882891 -0.20589717 -0.012788225
0.11213708 -0.060664285 -0.03926555 0.05864652 -0.19771276 0.13628581 0.071056895 0.03078296
0.020469368 -0.1183579 -0.08109518 0.17618263 0.002172977 0.11989499 0.07028276 -0.0017622559
00000000: d5af f33d d701 6dbe b39f 3cbe 070e c8bd
00000010: 589b cdbd 8af5 74bc db50 b63d 7185 9c3c
00000020: dcc7 223d 5a02 6c3d c27b 083c ed74 01be
00000030: e29a 6b3e ed1e 373e b5d6 52be b485 51bc
00000040: 20a8 e53d 1d7b 78bd ead4 20bd 5537 703d
00000050: 3775 4abe 828e 0b3e 4786 913d 8c2c fc3c
00000060: 60af a73c a065 f2bd 3b15 a6bd 3869 343e
00000070: 8168 0e3b 818b f53d 68f0 8f3d 7ffb e6ba

regressors.1.lins.0.weight f4 [32, 64]
0.12606908 -0.07111594 0.0841944 0.0044826567 -0.0059920666 -0.27555248 -0.21281579 -0.00035644814
-0.015094069 -0.32542208 0.004522416 -0.061791364 -0.41442397 0.14902382 0.074376285 -0.20892894
0.014052065 0.043996982 0.19103813 -0.06557494 -0.09923184 0.072024524 0.024606131 -0.11120367
0.03951776 -0.08785192 0.21346411 -0.013074458 0.041527033 0.05176119 0.08003014 0.012957667
-0.35206228 -0.06257802 0.07212952 -0.1721747 0.07843587 -0.28045338 -0.081966646 0.02722419
-0.08959338 -0.601409 -0.30180496 0.00065793 -0.010799305 0.09058754 0.15652491 0.060295176
0.103720255 -0.21056306 -0.060923196 0.09489081 -0.05178258 -0.07648876 -0.45473236 -0.021502139
-0.15332137 -0.44678068 -0.1307872 0.06869422 0.035570294 -0.2645043 0.11234483 0.07974571
-0.12794541 0.078056216 0.06330654 -0.09086339 0.08261805 0.2187288 0.11513469 0.02090207
-0.0022662198 -0.018911064 0.2037912 -0.07499358 -0.21420258 -0.15449123 0.09882058 0.2961235
0.053159494 -0.11128064 0.16052572 0.24578431 0.10271835 0.1012457 -0.09061748 0.1830989
-0.37904912 -0.15006563 -0.082851775 0.027328974 -0.043496773 0.075848855 -0.03439547 -0.34353614
-0.12902005 -0.021898463 -0.08728071 0.0033836646 0.25835234 0.14544077 0.23944475 -0.059522953
0.13053457 0.050581295 0.027683992 -0.049065992 -0.00055103004 0.11343322 0.07342546 -0.14455007
0.062062558 0.1634954 -0.05690248 -0.07181035 0.038503826 -0.03729464 -0.061523743 -0.10533402
-0.2977398 -0.23509145 -0.18183216 0.025483983 0.04112436 -0.031897277 -0.022829622 -0.1567125
0.21012986 0.09069638 -0.19424209 0.07772206 0.20534319 0.20511116 -0.06090745 -0.014477823
0.06614474 0.14179665 -0.063815504 -0.08283474 0.42310154 -0.2298548 -0.13873133 -0.042211425
0.06665639 0.068782434 -0.037429754 0.045920137 0.0059695095 0.06617962 -0.18021344 -0.20679009
-0.19076331 0.41262135 0.12177633 -0.06909861 -0.08237523 0.15913883 -0.08428307 0.002328738
0.061226234 -0.107455134 -0.13811791 0.031779256 -0.15490624 0.22059898 -0.17455176 -0.05065993
-0.21253043 0.1495198 -0.22216716 0.038207144 -0.0012504924 -0.06076673 -0.18439305 0.11238041
-0.07800342 -0.08233942 0.040703855 0.13607925 0.07089163 -0.08388814 -0.09491108 0.13283834
0.20366088 -0.11014594 0.1765011 -0.0072261305 -0.005964741 0.24001756 -0.030606523 0.0058186334
0.13458939 0.037003666 -0.1520823 -0.06819293 0.03805164 -0.18532664 -0.34851393 -0.33164486
0.0578221 -0.16219065 -0.57966334 0.029615471 -0.045460533 -0.28216588 -0.007703856 0.2857611
0.11488814 -0.035667323 0.037269775 -0.13168228 -0.038951576 -0.025983408 -0.013842347 -0.25821918
-0.13953115 0.22067338 0.254925 0.08174346 -0.06274341 0.10662211 0.037104502 0.057561476
-0.02595003 -0.057907417 0.11739017 0.110913314 -0.14596018 -0.060306568 0.057239436 0.039195444
-0.06535417 -0.060786027 -0.24263185 0.0019786658 -0.45342073 0.15658075 -0.08163527 -0.2086784
0.21142581 -0.1494015 -0.18003301 0.017887771 0.1235771 0.10011211 0.10098466 0.07300913
-0.0793816 0.24684845 -0.54898465 -0.20467803 -0.07757178 -0.13764717 -0.07299054 0.17594162
00000000: 4118 013e 3ca5 91bd 1d6e ac3d 40e3 923b
00000010: 1959 c4bb 3715 8dbe 62ec 59be a9e1 bab9
00000020: 1d4d 77bc b99d a6be c630 943b f118 7dbd
00000030: 612f d4be b399 183e 9852 983d 78f1 55be
00000040: a23a 663c 2e36 343d 809f 433e 274c 86bd
00000050: 103a cbbd 9881 933d cc92 c93c c0be e3bd
00000060: 60dd 213d b5eb b3bd 5696 5a3e 4036 56bc
00000070: 4018 2a3d 8b03 543d d8e6 a33d 654c 543c
00000080: 8241 b4be e828 80bd a4b8 933d 914e 30be
00000090: fca2 a03d 9697 8fbe 21de a7bd 4405 df3c
000000a0: bc7c b7bd f1f5 19bf 2e86 9abe ef78 2c3a
000000b0: 91ef 30bc f685 b93d 1148 203e 13f8 763d
000000c0: 496b d43d d89d 57be 9a8a 79bd 1d56 c23d
000000d0: f819 54bd 24a6 9cbd aed2 e8be 4125 b0bc
000000e0: 4700 1dbe 70c0 e4be 14ed 05be 8eaf 8c3d
000000f0: 28b2 113d 1c6d 87be 0c15 e63d b851 a33d
00000100: 1f04 03be f0db 9f3d dca6 813d 9616 babd
00000110: a733 a93d 71fa 5f3e bdcb eb3d d13a ab3c
00000120: dc84 14bb 60eb 9abc a4ae 503e 3c96 99bd
00000130: ec57 5bbe f332 1ebe 7262 ca3d 809d 973e
00000140: c5bd 593d 1be7 e3bd db60 243e e2ae 7b3e
00000150: 005e d23d e859 cf3d a895 b9bd 477e 3b3e
00000160: ba12 c2be ceaa 19be 31ae a9bd 03e1 df3c
00000170: ac29 32bd a556 9b3d 44e2 0cbd f8e3 afbe
00000180: d51d 04be 6864 b3bc 3bc0 b2bd 79c0 5d3b
00000190: c246 843e 6dee 143e 0131 753e 57ce 73bd
000001a0: dbaa 053e 552e 4f3d 8ac9 e23c 6cf9 48bd
000001b0: 0073 10ba ad4f e83d 1660 963d ef04 14be
000001c0: 4f35 7e3d 576b 273e 9312 69bd 4e11 93bd
000001d0: 30b6 1d3d 44c2 18bd 5200 7cbd 5db9 d7bd
000001e0: 5a71 98be d0bb 70be 3632 3abe c9c3 d03c
000001f0: 0472 283d b8a6 02bd 3005 bbbc 3e79 20be
00000200: 482c 573e 06bf b93d 66e7 46be be2c 9f3d
00000210: 7c45 523e a908 523e 177a 79bd 6434 6dbc
00000220: e576 873d 2433 113e b4b1 82bd 43a5 a9bd
00000230: c4a0 d83e 0f5f 6bbe 960f 0ebe e3e5 2cbd
00000240: 2583 883d cedd 8c3d f14f 19bd c116 3c3d
00000250: e09b c33b 2e89 873d df89 38be c8c0 53be
00000260: 7557 43be 1b43 d33e de65 f93d 9283 8dbd
00000270: 58b4 a8bd 4af5 223e 9a9c acbd be9d 183b
00000280: 5cc8 7a3d 7011 dcbd c86e 0dbe f72a 023d
00000290: be9f 1ebe b3e4 613e b2bd 32be c980 4fbd
000002a0: 94a1 59be b81b 193e ca7f 63be 187f 1c3d
000002b0: 90e7 a3ba 89e6 78bd 88d1 3cbe b327 e63d
000002c0: 42c0 9fbd 92a1 a8bd 16b9 263d 5c58 0b3e
000002d0: a22f 913d 8ccd abbd be60 c2bd c606 083e
000002e0: 7a8c 503e 3294 e1bd b4bc 343e 2dc9 ecbb
000002f0: e073 c3bb 2ac7 753e 88ba fabc 3caa be3b
00000300: cdd1 093e 2891 173d 76bb 1bbe bca8 8bbd
00000310: 09dc 1b3d 44c6 3dbe 6b70 b2be 5bcd a9be
00000320: ded6 6c3d 4e15 26be d164 14bf 259c f23c
00000330: d334 3abd 0c78 90be a170 fcbb 474f 923e
00000340: 794a eb3d e617 12bd 31a8 183d b8d7 06be
00000350: b08b 1fbd 28db d4bc 03cb 62bc 4e35 84be
00000360: 41e1 0ebe 34f8 613e 8885 823e 1d69 a73d
00000370: 9e7f 80bd b15c da3d e4fa 173d 95c5 6b3d
00000380: 2895 d4bc 5430 6dbd 426a f03d 8526 e33d
00000390: 9676 15be 0504 77bd e673 6a3d 678b 203d
000003a0: 68d8 85bd c5fa 78bd 7c74 78be 81ac 013b
000003b0: c326 e8be b456 203e 6430 a7bd caaf 55be
000003c0: 0280 583e b5fc 18be 935a 38be 6089 923c
000003d0: fe15 fd3d 9407 cd3d 0cd1 ce3d d085 953d
000003e0: d292 a2bd d7c5 7c3e 428a 0cbf 1e97 51be
000003f0: f4dd 9ebd 61f3 0cbe 107c 95bd 0a2a 343e

regressors.1.lins.0.bias f4 [32]
-0.06067195 0.16045257 -0.036289953 -0.16436777 0.27118716 0.17294271 0.011473043 -0.15405823
0.075744055 0.11421788 -0.14023234 -0.10654262 0.07779447 0.22179732 0.058419127 0.26256818
0.16512243 -0.028554963 -0.0039258297 0.27928704 0.04140184 0.28159934 -0.16160296 -0.14836626
0.203975 0.05478461 -0.16659223 0.16155879 0.044679534 0.26088178 0.25347957 -0.023610957
00000000: 2783 78bd ae4d 243e c6a4 14bd 0650 28be
00000010: 0bd9 8a3e e517 313e 6ef9 3b3c 71c1 1dbe
00000020: b31f 9b3d 10eb e93d 1199 0fbe 0433 dabd
00000030: b552 9f3d d61e 633e e548 6f3d 566f 863e
00000040: db15 293e 19ec e9bc 3fa4 80bb b6fe 8e3e
00000050: fa94 293d ca2d 903e 3f7b 25be 53ed 17be
00000060: d3de 503e d465 603d 2797 2abe ab6f 253e
00000070: e301 373d 4c92 853e 13c8 813e c46b c1bc

regressors.1.lins.1.weight f4 [32, 32]
-0.10095562 -0.5772715 -0.033821233 0.22197147 -0.5115235 -0.46667227 0.06349583 0.1356815
-0.35807735 -0.14267607 0.0060428437 0.39226073 -0.0127632385 0.02416285 -0.35783696 0.04647013
0.017469533 0.13798009 0.05055833 0.08176729 0.02133755 -0.79563713 -0.122152396 -0.012558921
0.16597185 0.124427564 -0.13592523 0.0009579738 -0.7185172 -0.43346515 0.3482999 0.11585949
-0.009469638 -0.029355913 -0.13538541 0.09872705 -0.039722625 0.2746701 -0.045604426 0.15125616
-0.024686934 0.16625917 -0.41703707 0.036767256 0.096827626 0.09857569 -0.1193071 0.015146751
-0.20297845 -0.05257295 0.14194168 0.16273116 -0.1745308 -0.19991915 0.099589035 0.10007959
0.3474758 -0.079197824 0.22320308 0.07223195 0.006998387 0.103993 0.37294707 0.07827515
0.027447078 0.1523961 -0.069477156 -0.15483457 -0.0735267 0.1388587 0.18333623 -0.0012192213
-0.26532954 0.31933838 0.0850779 -0.4047967 0.16801313 -0.0558467 0.14046358 -0.10896527
-0.09137834 -0.22490433 0.037635837 -0.2313177 0.11264014 0.21658634 0.22166711 0.18160743
-0.07639243 0.080109045 -0.03936503 0.046690457 -0.08351553 -0.16156968 0.006187724 0.06539676
0.14696844 0.054716483 0.057848375 0.28415784 0.29664993 0.1019609 -0.3051728 0.05272386
-0.38387898 0.288226 0.14653388 -0.015636986 -0.06154585 -0.5801853 -0.42366064 -0.027981497
-0.08556013 -0.21386509 -0.78538525 -0.0713581 -0.04216124 0.07699119 0.06272483 -0.24504042
-0.5277028 -0.18092519 0.046683297 -0.23655738 0.1088854 0.12568434 -1.1730076 -0.7134121
0.14815849 -0.02466463 -0.19642171 0.29781187 0.03951064 0.20826197 0.20662099 -0.12315863
0.20849901 -0.7798597 -0.3171512 0.11329052 0.1385131 0.15590581 0.10303243 -0.14956565
-0.7297823 0.10315545 0.19278827 -0.28438327 -0.41901383 0.032167364 0.060212526 -0.11035575
-0.015348402 -0.08398987 -0.17619416 -0.049184892 0.17908347 0.06946739 -0.22090581 0.047141608
-0.3221774 0.07529189 -0.107228026 -0.09046775 0.063215256 0.1121951 -0.090300836 -0.02984968
-0.25521436 -0.0053068367 -0.16211554 0.13290793 -0.022793347 -0.24040745 -0.15766701 0.26320946
0.0030640024 -0.078372724 0.21295092 0.098904975 0.01620159 0.19249994 -0.020800676 0.11529795
0.23073603 0.059146564 -0.1544879 -0.12287442 -0.19742343 -0.12585291 0.05351241 0.18653326
0.14069696 -0.18920356 -0.04171739 0.091454044 -0.04395121 0.123401724 0.032159828 0.22294709
-0.025793893 -0.11070178 -0.48272902 0.15218084 -0.12871367 -0.1861573 -0.06856985 0.14477094
0.07098394 -0.18225881 0.07916809 -0.16796513 -0.25277215 -0.3324348 0.20162708 -0.24345715
-0.119050704 -0.29334366 -0.10235102 -0.2725238 0.29939386 0.054573555 0.3118445 -0.05044888
-0.1602883 -0.08365421 -0.07499844 0.49831036 0.2288473 0.10871611 -0.17113079 -0.01727978
-0.09254681 -0.12497314 -0.07733725 0.053302508 0.2708232 0.032389183 0.1932837 -0.19224608
-0.0121643655 -0.33740887 -0.057340994 -0.05624067 0.015854288 -0.005936579 -0.22145003 0.043321338
0.19051507 0.13974367 -0.069287986 -0.021408722 0.20254251 0.1056273 0.2509115 0.22118664
00000000: d2c1 cebd 11c8 13bf 2288 0abd 7d4c 633e
00000010: 34f3 02bf abef eebe 1a0a 823d 17f0 0a3e
00000020: ea55 b7be ad19 12be 0c03 c63b 66d6 c83e
00000030: e71c 51bc 2bf1 c53c 6836 b7be 7757 3e3d
00000040: 441c 8f3c a74a 0d3e 4016 4f3d 9c75 a73d
00000050: 16cc ae3c e0ae 4bbf 092b fabd efc3 4dbc
00000060: 86f4 293e e1d3 fe3d fc2f 0bbe 8920 7b3a
00000070: bef0 37bf 25ef ddbe 5d54 b23e be47 ed3d
00000080: 8a26 1bbc d07b f0bc 79a2 0abe 6831 ca3d
00000090: 31b4 22bd 8fa1 8c3e b5cb 3abd e5e2 1a3e
000000a0: 413c cabc d83f 2a3e e285 d5be 4399 163d
000000b0: 904d c63d 0de2 c93d 4857 f4bd 142a 783c
000000c0: 95d9 4fbe bc56 57bd 2959 113e ffa2 263e
000000d0: 34b8 32be 9bb7 4cbe 56f5 cb3d 87f6 cc3d
000000e0: 59e8 b13e 7832 a2bd 598f 643e 58ee 933d
000000f0: ba52 e53b 48fa d43d ebf2 be3e b94e a03d
00000100: b2d8 e03c b90d 1c3e 0a4a 8ebd f48c 1ebe
00000110: 2b95 96bd fa30 0e3e 7ebc 3b3e 47ce 9fba
00000120: 46d9 87be 5280 a33e 523d ae3d 8341 cfbe
00000130: a20b 2c3e 82bf 64bd afd5 0f3e 2f29 dfbd
00000140: 9124 bbbd 524d 66be 0928 1a3d 8cde 6cbe
00000150: e0af e63d cfc8 5d3e b4fc 623e 4cf7 393e
00000160: a273 9cbd 3610 a43d 3a3d 21bd 7e3e 3f3d
00000170: 310a abbd 8672 25be 64c2 ca3b bdee 853d
00000180: e57e 163e 641e 603d 6bf2 6c3d 237d 913e
00000190: 80e2 973e e0d0 d03d 9c3f 9cbe f9f4 573d
000001a0: c98b c4be 5c92 933e fa0c 163e 2319 80bc
000001b0: 8017 7cbd 0687 14bf 0cea d8be 7439 e5bc
000001c0: 263a afbd 73ff 5abe 020f 49bf 3224 92bd
000001d0: 44b1 2cbd 8fad 9d3d e075 803d e0eb 7abe
000001e0: 8817 07bf 7444 39be fc36 3f3d 193c 72be
000001f0: 4fff de3d 65b3 003e 1d25 96bf 2da2 36bf
00000200: dcb6 173e 7a0d cabc c622 49be cc7a 983e
00000210: e9d5 213d a042 553e 7494 533e 983a fcbd
00000220: c480 553e e3a4 47bf a461 a2be dc04 e83d
00000230: 61d6 0d3e c6a5 1f3e ab02 d33d bd27 19be
00000240: 03d3 3abf 2a43 d33d 4a6a 453e af9a 91be
00000250: fb88 d6be edc1 033d 69a1 763d 3202 e2bd
00000260: dd77 7bbc e202 acbd 3e6c 34be 1976 49bd
00000270: a861 373e eb44 8e3d 2235 62be 8f17 413d
00000280: 70f4 a4be a232 9a3d 5e9a dbbd 2847 b9bd
00000290: 0077 813d 8bc6 e53d a5ef b8bd 5187 f4bc
000002a0: 75ab 82be f9e4 adbb 9e01 26be 0419 083e
000002b0: 1db9 babc 5f2d 76be 7673 21be 64c3 863e
000002c0: 6ecd 483b e181 a0bd ce0f 5a3e b18e ca3d
000002d0: 32b9 843c b41e 453e 2e66 aabc 5521 ec3d
000002e0: 1146 6c3e ab43 723d 1332 1ebe 95a5 fbbd
000002f0: 5e29 4abe 96df 00be d42f 5b3d 9302 3f3e
00000300: dd12 103e 94be 41be dbdf 2abd 424c bb3d
00000310: 2f06 34bd 0bba fc3d 06ba 033d 3e4c 643e
00000320: b74d d3bc 9db7 e2bd 4228 f7be 4bd5 1b3e
00000330: 84cd 03be 05a0 3ebe 596e 8cbd d53e 143e
00000340: 0760 913d 0ea2 3abe e122 a23d 0dff 2bbe
00000350: 5a6b 81be e534 aabe 5477 4e3e d54c 79be
00000360: dbd0 f3bd 2431 96be 699d d1bd 3d88 8bbe
00000370: 274a 993e 8588 5f3d 15aa 9f3e 7ca3 4ebd
00000380: 9e22 24be e652 abbd c898 99bd 8922 ff3e
00000390: f256 6a3e 8da6 de3d e93c 2fbe 538e 8dbc
000003a0: 2f89 bdbd ebf1 ffbd fe62 9ebd bb53 5a3d
000003b0: 57a9 8a3e 85aa 043d 2aec 453e 28dc 44be
000003c0: 0c4d 47bc dbc0 acbe 64de 6abd 9e5c 66bd
000003d0: dae0 813c a287 c2bb ccc3 62be b771 313d
000003e0: 6216 433e f718 0f3e dce6 8dbd 5861 afbc
000003f0: 4e67 4f3e 2053 d83d 7977 803e c07e 623e

regressors.1.lins.1.bias f4 [32]
-0.047294967 -0.048017956 -0.04636866 -0.0034772276 -0.098907374 0.37155673 -0.008367664 0.011374548
0.019194968 -0.08462158 -0.21358353 -0.16263403 0.16171199 0.093366556 0.037362993 0.12714127
0.03491323 0.09565437 -0.12295605 0.08200622 -0.09229846 0.13604319 0.14154464 0.26595283
0.022766279 0.29777667 -0.2956194 0.19327769 -0.23142754 0.059867818 0.11399092 0.21920365
00000000: 5eb8 41bd 7aae 44bd 10ed 3dbd 33e2 63bb
00000010: f38f cabd af3c be3e 8718 09bc 505c 3a3c
00000020: c43e 9d3c 144e adbd a4b5 5abe 8989 26be
00000030: d497 253e f736 bf3d f009 193d 5231 023e
00000040: 2d01 0f3d 70e6 c33d 62d0 fbbd e1f2 a73d
00000050: fa06 bdbd e84e 0b3e 14f1 103e f82a 883e
00000060: 5980 ba3c 2f76 983e 6d5b 97be 96ea 453e
00000070: 57fb 6cbe f537 753d 1274 e93d ec76 603e

regressors.1.lins.2.weight f4 [32, 32]
-0.22307257 0.12417673 -0.19800639 -0.59639627 0.42798266 0.121714674 -0.102396525 0.022439022
0.009281033 0.117169134 -0.12242737 -0.015017058 0.10644354 0.24932015 -0.040549275 -0.2897891
0.0077754953 0.09815681 -0.41888013 0.11770745 -0.1929683 -0.22731364 0.14928454 0.22642893
-0.06639364 -0.34453145 0.019057726 0.668264 0.07233658 0.1151182 -0.26933387 -0.14811523
-0.09468893 -0.022876896 -0.022987965 -0.9670367 0.044895913 -0.27221024 -0.011955933 -0.24350645
-0.20320007 0.17543781 0.1065793 -0.14545257 0.15425858 0.15019318 -0.07957866 0.06909308
-0.39288375 -0.70118445 -0.04719959 0.020418264 -0.23929968 0.0820886 0.0029551024 0.2474869
-0.087756194 -0.026280425 0.10120718 -0.09977701 -0.33801323 0.34148243 -0.20386766 -0.15935273
-0.43712384 0.08657411 0.09445534 -0.026996925 0.1364143 0.18257377 0.23827824 0.047130175
0.03007594 -0.1973046 -0.15697192 0.12804508 0.07620982 -0.15496507 0.08455812 0.17554243
0.17941284 -0.01768873 0.0010221897 -0.15024868 -0.081010826 -0.011081204 -0.003646647 0.14006236
0.17627262 0.06617104 0.07792631 0.07067312 0.16262102 -0.20292118 0.24394621 0.19621833
-0.40001637 -0.48414966 -0.037997603 -0.26290095 -0.23834062 0.09105397 0.10357161 -0.14921145
-0.38474247 -0.13642423 -0.019051334 0.23116714 -0.587189 0.2439516 0.06991328 -0.16469985
-0.28556085 0.34757674 -0.11815991 0.01592108 0.09726163 0.05797486 0.003540749 -0.32602262
0.17980215 -0.014546438 -0.021180123 -0.3432693 0.19347607 -0.10713686 -0.32598737 0.03611971
0.40578553 0.15376939 0.14840174 0.20444994 -0.20443246 0.031260453 -0.2561001 0.22771287
-0.3453903 -0.08350858 -0.3566003 -0.1435421 0.23100704 -0.0153837055 -0.59632254 0.018363753
0.1296515 0.026935676 -0.10512601 -0.3328906 -0.030586498 -0.388074 -0.28778136 0.01015717
0.47313967 -0.12579335 0.09058889 0.32147393 -0.23582074 0.039910544 -0.0011627678 0.091122895
-0.09071222 0.10567581 -0.14827284 -0.11556986 0.16416045 -0.115508735 0.055851527 0.11338415
0.026829539 -0.14778861 -0.026606083 0.10180825 0.033592965 0.06685364 0.22697017 0.012610894
0.13481106 -0.1872104 -0.00040691457 -0.16301009 -0.07847081 0.053206243 0.014784905 0.0908947
0.08335465 0.10791959 -0.114566766 -0.07126906 -0.061725866 -0.12504707 0.039573856 0.116574034
0.23042217 -0.08165949 -0.07794185 -0.07170412 -0.6161422 -0.042624354 -0.08538136 -0.0037663253
-0.10939576 0.20804414 -0.071929 0.3905716 0.14351262 0.03411462 0.19693142 0.40969846
-0.097470164 -0.12902799 0.17673771 -0.21461733 -0.20777257 -0.13870153 -0.10597324 0.19844006
0.24519429 -0.26191658 0.009457519 -0.15847126 0.22372949 0.040850338 0.25032923 -0.41250202
-0.0050984984 -0.099805325 -0.18636425 0.1380968 -0.03319347 0.13812025 -0.22019075 -0.46022803
0.05862611 0.08083108 -0.076688 0.27228436 -0.72905016 -0.29576135 0.1781387 0.09443548
-0.06432474 -0.37816685 -0.62792075 -0.7664168 -0.4567891 -0.8538807 -0.052985806 0.096281715
-0.15984379 -0.86869794 0.027109219 -0.9106209 -0.78248453 -0.18174823 0.16149427 0.060134098
00000000: 236d 64be 5f50 fe3d 30c2 4abe 6dad 18bf
00000010: 8b20 db3e 8b45 f93d 45b5 d1bd 0ad2 b73c
00000020: 790f 183c 5ff6 ef3d 33bb fabd 1b0a 76bc
00000030: 12ff d93d c84d 7f3e ff16 26bd 3d5f 94be
00000040: 95c9 fe3b 7006 c93d 7577 d6be 9b10 f13d
00000050: 7b99 45be e8c4 68be 0cde 183e fcdc 673e
00000060: 64f9 87bd 6d66 b0be f31e 9c3c 5913 2b3f
00000070: 3325 943d 17c3 eb3d 21e6 89be 85ab 17be
00000080: 45ec c1bd 5468 bbbc 4251 bcbc b88f 77bf
00000090: c7e4 373d 245f 8bbe d1e2 43bc c159 79be
000000a0: ae13 50be f8a5 333e 3f46 da3d 85f1 14be
000000b0: f6f5 1d3e 3ecc 193e 23fa a2bd ac80 8d3d
000000c0: 0f28 c9be d380 33bf 5b54 41bd 3444 a73c
000000d0: fa0a 75be 111e a83d 64aa 413b 356d 7d3e
000000e0: 85b9 b3bd 0c4a d7bc b645 cf3d e457 ccbd
000000f0: 1210 adbe c9d6 ae3e afc2 50be 5d2d 23be
00000100: b2ce dfbe c44d b13d cd71 c13d a828 ddbc
00000110: 31b0 0b3e 9ef4 3a3e 36ff 733e 920b 413d
00000120: d161 f63c 380a 4abe 3fbd 20be 401e 033e
00000130: e513 9c3d 2aaf 1ebe cf2c ad3d 65c1 333e
00000140: 00b8 373e f5e7 90bc fffa 853a cada 19be
00000150: 01e9 a5bd f08d 35bc 96fc 6ebb 826c 0f3e
00000160: cf80 343e af84 873d d497 9f3d 12bd 903d
00000170: 2086 263e 92ca 4fbe 09cd 793e 75ed 483e
00000180: f2ce ccbe 77e2 f7be 60a3 1bbd f49a 86be
00000190: 900f 74be 817a ba3d 5a1d d43d e3ca 18be
000001a0: f7fc c4be cbb2 0bbe 8b11 9cbc 14b7 6c3e
000001b0: 0552 16bf 73ce 793e b22e 8f3d 14a7 28be
000001c0: 0835 92be 94f5 b13e d3fd f1bd ed6c 823c
000001d0: 1b31 c73d 0c77 6d3d e90b 683b 70ec a6be
000001e0: 0e1e 383e 2f54 6ebc f081 adbc fec0 afbe
000001f0: 971e 463e 926a dbbd d1e7 a6be 43f2 133d
00000200: 1fc3 cf3e b975 1d3e a0f6 173e 535b 513e
00000210: be56 51be f60a 003d 8d1f 83be 902d 693e
00000220: ffd6 b0be 8c06 abbd 5194 b6be b3fc 12be
00000230: 1c8d 6c3e f00b 7cbc 98a8 18bf 956f 963c
00000240: 5dc3 043e 35a8 dc3c 4e4c d7bd a370 aabe
00000250: 8990 fabc a3b1 c6be 1458 93be 426a 263c
00000260: 5d3f f23e f9cf 00be ab86 b93d 3b98 a43e
00000270: fe7a 71be 3d79 233d 0368 98ba a49e ba3d
00000280: 54c7 b9bd 8f6c d83d d6d4 17be e4af ecbd
00000290: ad19 283e d88f ecbd 92c4 643d f335 e83d
000002a0: 9fc9 db3c e655 17be 00f5 d9bc d880 d03d
000002b0: c798 093d 90ea 883d de6a 683e ec9d 4e3c
000002c0: e90b 0a3e 15b4 3fbe 2657 d5b9 1eec 26be
000002d0: 4eb5 a0bd caee 593d 633c 723c 0027 ba3d
000002e0: d8b5 aa3d f204 dd3d fba1 eabd 83f5 91bd
000002f0: 43d4 7cbd 570c 00be 3218 223d 5ebe ee3d
00000300: caf3 6b3e 173d a7bd fa9f 9fbd 9cd9 92bd
00000310: 7fbb 1dbf e096 2ebd 6cdc aebd 74d4 76bb
00000320: e20a e0bd 8609 553e 834f 93bd 00f9 c73e
00000330: f9f4 123e c6bb 0b3d 64a8 493e ffc3 d13e
00000340: 709e c7bd ea1f 04be bbfa 343e a5c4 5bbe
00000350: 55c2 54be c607 0ebe 8008 d9bd df33 4b3e
00000360: 3614 7b3e ee19 86be b6f3 1a3c 4a46 22be
00000370: 5819 653e af52 273d 272b 803e 7733 d3be
00000380: 4e11 a7bb bc66 ccbd 45d6 3ebe 3f69 0d3e
00000390: e0f5 07bd 656f 0d3e af79 61be 02a3 ebbe
000003a0: ef21 703d c48a a53d 990e 9dbd db68 8b3e
000003b0: 08a3 3abf 086e 97be fe69 363e 6467 c13d
000003c0: b0bc 83bd 169f c1be 6abf 20bf e433 44bf
000003d0: 43e0 e9be ed97 5abf a507 59bd 592f c53d
000003e0: 17ae 23be fd62 5ebf 2714 de3c 741e 69bf
000003f0: e850 48bf 351c 3abe c15e 253e 2c4f 763d

regressors.1.lins.2.bias f4 [32]
0.03196352 0.11092614 0.18420926 0.005251301 -0.19314536 0.20213981 -0.21875249 0.20937334
-0.20025653 -0.1349256 0.21994863 0.13766816 -0.2455082 -0.2550112 0.13634388 0.31926346
0.3039443 -0.08233746 0.07510345 -0.029909652 -0.17227353 -0.08489825 -0.11202996 -0.09121024
0.056336757 -0.08732303 -0.0554737 0.10525894 0.034959532 -0.026034646 -0.031813405 0.04519691
00000000: 2eec 023d 3e2d e33d 5aa1 3c3e 1b13 ac3b
00000010: e6c7 45be bdfd 4e3e a700 60be f765 563e
00000020: 0c10 4dbe f029 0abe 373a 613e e2f8 0c3e
00000030: 8066 7bbe d490 82be bb9d 0b3e 8076 a33e
00000040: 969e 9b3e 8ba0 a8bd d6cf 993d 1605 f5bc
00000050: 7968 30be 22df adbd f76f e5bd 6fcc babd
00000060: 5fc1 663d 6bd6 b2bd 6438 63bd 0092 d73d
00000070: ba31 0f3d 9c46 d5bc c64e 02bd 6520 393d

regressors.1.lins.3.weight f4 [1, 32]
0.05964266 -0.12759161 0.15529701 -0.1851249 -0.17155173 0.040118005 -0.050188728 -0.35122392
-0.14502387 -0.099873886 -0.25179625 -0.24885103 -0.093203224 -0.15001495 -0.08624211 0.039345037
0.12414787 -0.38946185 -0.08863575 -0.15957582 -0.44147667 0.061142832 -0.0907618 -0.00243978
-0.19369078 -0.13160406 -0.03118092 0.059618156 0.010484767 -0.07582249 -0.091320045 -0.16793896
00000000: dd4b 743d 60a7 02be 2e06 1f3e 6291 3dbe
00000010: 42ab 2fbe c752 243d b292 4dbd 9fd3 b3be
00000020: 2381 14be ae8a ccbd 70eb 80be ced2 7ebe
00000030: 55e1 bebd 859d 19be b49f b0bd 4328 213d
00000040: 3d41 fe3d 8b67 c7be a986 b5bd d867 23be
00000050: 3b09 e2be e870 7a3d 53e1 b9bd b7e4 1fbb
00000060: e056 46be 37c3 06be 216f ffbc 2b32 743d
00000070: 4dc8 2b3c d248 9bbd 0106 bbbd 31f8 2bbe

regressors.2.lins.0.weight f4 [32, 64]
-0.07696766 -0.03051132 -0.08334644 -0.029997885 0.050362617 0.09456207 -0.04535061 0.09408477
-0.038920194 -0.057803065 0.0005274117 0.0067539066 -0.04400471 0.013190895 -0.10728051 0.078945816
0.028473392 -0.09133597 -0.057322815 0.09493047 0.065828264 -0.07795563 -0.06658983 -0.052891538
-0.013197079 0.08831276 0.10131124 0.075757936 -0.045924038 -0.08038728 0.10824327 0.05019994
-0.113719165 -0.06680976 0.018194601 0.12392256 -0.08113234 -0.028697237 2.4974346e-05 -0.060919076
-0.056561917 0.10195324 -0.10176624 -0.09088339 0.011918068 0.030267373 -0.09360947 0.012216002
-0.09958051 0.07751359 -0.07971154 -0.0960899 -0.020071879 -0.0156091 0.055863753 -0.084394395
0.06856012 -0.08316459 0.100103304 0.024799407 0.020345658 0.084905386 -0.012892038 0.08135466
0.11921805 0.104403734 -0.0436247 0.030607581 -0.07498847 0.027799621 -0.10382332 -0.034186795
0.12481725 0.110970035 0.08113305 -0.11388752 0.012380376 -0.06593548 0.060702756 -0.092360914
-0.08540568 -0.053266525 0.047902033 -0.06998727 0.099447966 0.11935748 0.050442904 -0.08905153
0.027179584 0.028199881 -0.09755255 -0.09701975 -0.079640344 -0.056302756 -0.122904435 0.07079309
-0.07382977 0.013680086 -0.100583956 -0.044823423 -0.00667049 0.059234098 -0.0059328377 -0.079633206
0.014258489 -0.055464804 -0.11759943 0.07179314 0.026282474 0.051623702 0.118373394 0.03115806
0.07564865 -0.0055826604 -0.03194271 -0.11469886 0.0069986433 -0.05323887 0.042896375 0.061318725
-0.0959384 -0.07838108 0.044494778 -0.07137576 0.014490977 0.116750196 -0.105493635 -0.04370238
-0.11764184 -0.028058827 0.053964272 -0.03837973 -0.029786184 -0.012267351 -0.05223939 -0.046726137
0.09394041 -0.11072999 0.021024287 0.07942808 0.041784614 -0.08622667 -0.014249116 -0.09466982
0.047992766 -0.07723285 0.0017351657 0.057864636 -0.095271885 0.11460556 0.026716173 -0.05088991
0.035597175 -0.055872962 0.022893906 0.09475054 0.029733434 -0.05231914 -0.045058414 0.074725255
0.023465917 -0.004659623 -0.08750412 -0.049641624 -0.009679049 0.011411682 -0.104640245 0.08581206
0.081752524 0.07509214 0.1138431 0.11654073 -0.073956266 0.12078816 -0.061375335 0.06021878
0.06392291 0.10545914 -0.007840604 0.083018795 0.016911805 0.0193315 0.05931948 -0.068696514
-0.067478344 0.11988093 0.049988285 0.031735286 -0.08216898 0.10162833 -0.08921546 0.07034209
-0.035639375 -0.03848742 0.066912636 0.09542182 0.069987535 -0.03918676 -0.078771025 -0.03272645
0.06787473 0.0018716604 -0.011020079 -0.017228812 -0.11720726 0.105636284 -0.039060533 0.0021849275
0.06736584 0.059834868 0.02627635 -0.048323646 0.10170911 0.058255717 -0.012791753 0.06611787
0.06573346 0.037753403 -0.096473634 -0.067747265 0.12064873 -0.025470853 -0.016255766 0.067396134
-0.0585749 -0.036769524 -0.105981246 -0.012934059 0.0340423 0.1065938 -0.07715915 -0.10403901
-0.0053791255 -0.06396514 -0.04430686 -0.053871155 -0.07980856 0.019152254 0.022878781 0.003765121
0.09590241 -0.013728872 0.08662468 -0.06715371 0.00088115036 0.0077870786 -0.016565904 -0.10937764
-0.088691324 -0.0050058663 -0.005316049 0.10831034 -0.08909659 -0.028098121 0.11846304 -0.0994506
00000000: 38a1 9dbd e0f2 f9bc 8ab1 aabd 20be f5bc
00000010: 0849 4e3d c2a9 c13d 90c1 39bd 84af c03d
00000020: c86a 1fbd e8c2 6cbd 0042 0a3a e04f dd3b
00000030: 483e 34bd a01e 583c e2b5 dbbd 58ae a13d
00000040: 0841 e93c 5a0e bbbd 54cb 6abd e86a c23d
00000050: f8d0 863d 34a7 9fbd 4060 88bd cca4 58bd
00000060: 9038 58bc 52dd b43d 447c cf3d fa26 9b3d
00000070: d81a 3cbd 16a2 a4bd a6ae dd3d 749e 4d3d
00000080: 98e5 e8bd 8ed3 88bd d80c 953c 1ccb fd3d
00000090: b628 a6bd 7816 ebbc 0080 d137 4886 79bd
000000a0: 78ad 67bd dccc d03d d26a d0bd 1221 babd
000000b0: 0044 433c 48f3 f73c 52b6 bfbd a025 483c
000000c0: def0 cbbd 72bf 9e3d ce3f a3bd c8ca c4bd
000000d0: c86d a4bc 50bd 7fbc 64d1 643d f8d6 acbd
000000e0: 4069 8c3d 3252 aabd f602 cd3d 2028 cb3c
000000f0: f0ab a63c e0e2 ad3d 2039 53bc 469d a63d
00000100: 9828 f43d a0d1 d53d d0af 32bd c0bc fa3c
00000110: 8e93 99bd 08bc e33c 52a1 d4bd 7407 0cbd
00000120: 30a0 ff3d 4244 e33d 1629 a63d dc3d e9bd
00000130: 10d7 4a3c 2e09 87bd 74a3 783d b827 bdbd
00000140: 2ce9 aebd 002e 5abd ec34 443d 7c55 8fbd
00000150: 60ab cb3d b271 f43d 389d 4e3d a660 b6bd
00000160: b8a7 de3c 7003 e73c a2c9 c7bd 4ab2 c6bd
00000170: 7a1a a3bd b89d 66bd 52b5 fbbd f8fb 903d
00000180: 1034 97bd 7022 603c f6fe cdbd c498 37bd
00000190: 2094 dabb 749f 723d 4068 c2bb bc16 a3bd
000001a0: 709c 693c 102f 63bd f8d7 f0bd 4808 933d
000001b0: 584e d73c 6073 533d c06d f23d 303f ff3c
000001c0: aeed 9a3d c0ee b6bb 5cd6 02bd 3ce7 eabd
000001d0: e054 e53b 0011 5abd 1cb4 2f3d 5829 7b3d
000001e0: 5a7b c4bd 4286 a0bd 2840 363d 742d 92bd
000001f0: 906b 6d3c ba1a ef3d 0c0d d8bd 4401 33bd
00000200: 34ee f0bd a0db e5bc a409 5d3d 1034 1dbd
00000210: 2802 f4bc 00fd 48bc f8f8 55bd e863 3fbd
00000220: d463 c03d 68c6 e2bd 203b ac3c 30ab a23d
00000230: 5826 2b3d 9c97 b0bd 2075 69bc 40e2 c1bd
00000240: 1094 443d 422c 9ebd 806e e33a 7803 6d3d
00000250: e81d c3bd 52b6 ea3d e0db da3c f071 50bd
00000260: 58ce 113d 0cdb 64bd 008c bb3c 920c c23d
00000270: 8893 f33c 984c 56bd 2c8f 38bd 8e09 993d
00000280: 983b c03c c0af 98bb 5c35 b3bd 0455 4bbd
00000290: e094 1ebc 10f8 3a3c a04d d6bd 3cbe af3d
000002a0: de6d a73d e8c9 993d 9226 e93d e8ac ee3d
000002b0: 6276 97bd c85f f73d b464 7bbd f8a7 763d
000002c0: 04ea 823d f6fa d73d e075 00bc c205 aa3d
000002d0: a08a 8a3c 185d 9e3c fcf8 723d c2b0 8cbd
000002e0: 1632 8abd 2284 f53d 84c0 4c3d dcfc 013d
000002f0: 3648 a8bd 8422 d03d 98b6 b6bd 840f 903d
00000300: 98fa 11bd fca4 1dbd 7e09 893d 846c c33d
00000310: a055 8f3d 4c82 20bd b452 a1bd 2c0c 06bd
00000320: e801 8b3d 8052 f53a 908d 34bc 7023 8dbc
00000330: 5c0a f0bd d657 d83d f0fd 1fbd 0031 0f3b
00000340: 1af7 893d 6815 753d 8041 d73c 04ef 45bd
00000350: de4c d03d 8c9d 6e3d 8094 51bc ce68 873d
00000360: 449f 863d 50a3 1a3d f893 c5bd 14bf 8abd
00000370: ae16 f73d 40a8 d0bc d02a 85bc fc06 8a3d
00000380: 3cec 6fbd a49b 16bd b20c d9bd 60e9 53bc
00000390: f06f 0b3d da4d da3d 9e05 9ebd 6812 d5bd
000003a0: 6043 b0bb 2800 83bd 1c7b 35bd 00a8 5cbd
000003b0: ac72 a3bd 30e5 9c3c 486c bb3c 40c0 763b
000003c0: 7c68 c43d 10ef 60bc 4868 b13d e287 89bd
000003d0: 00fd 663a c02a ff3b 38b5 87bc 6201 e0bd
000003e0: cca3 b5bd 4008 a4bb 4032 aebb d0d1 dd3d
000003f0: 4678 b6bd 082e e6bc c09c f23d c2ac cbbd
