baseline/DLPL-CAP/models_dlpl-cap-regressor/sandwich+ultra8t_to_ssram+digtime+timing_ctrl+array_128_32_8t/dlpl-cap-regressor_nh_2_tsk_regression_ngl_4_nhl_4_hd_32_us_1_bn_0_dp_0.0_epoch_11_20250402_155252.pth (torch, 64130 bytes, 21 tensors)

regressors.0.lins.0.weight f4 [32, 64]
000000 3f e7 37 bc 40 7d a2 bb 16 ae 3b 3d 2b 7d 7e 3d
       -0.011224567 -0.0049587786 0.04582032 0.06213109
000010 37 b4 3e 3e d5 63 af 3d 29 bc d9 3d 40 8a 28 bd
       0.18623434 0.08563963 0.10631592 -0.04114747
000020 ad 97 ad be 1a 6e 2d be 3b e3 0f bf cb 32 ca 3d
       -0.33904782 -0.16936532 -0.562061 0.09872969
000030 c8 68 e4 bd 1e d4 57 3d f9 cd 68 be a0 20 02 be
       -0.11152798 0.052692525 -0.22734822 -0.12707758
000040 ad 83 e1 bd 34 e8 8c 3c cf 05 83 3e ac 02 41 be
       -0.11011443 0.017200567 0.2559037 -0.18848675
000050 7c e6 59 bd 38 25 85 bc c5 e4 08 bd 08 99 52 be
       -0.053198323 -0.016253099 -0.033421297 -0.2056619
000060 47 a5 03 3e 5b 58 e6 bd ae c6 f1 bd 9b ee 86 bd
       0.12856017 -0.11247321 -0.11805473 -0.06588479
000070 b6 97 ea bd 4b 64 3e 3e d2 80 d3 bd 69 c8 88 3d
       -0.11454718 0.18592946 -0.10327305 0.0667885
000080 cf 17 04 3c b0 37 41 bc a1 68 09 bd 34 21 a2 3c
       0.008062317 -0.011793062 -0.033547048 0.019791223
000090 ef 13 05 bd ea 5b 2d 3e 8f 8d d2 3d 16 a4 44 3e
       -0.032489713 0.16929594 0.102809064 0.19203219
0000a0 aa fd d0 3d fe 18 1a 3e 99 80 da 3d 3b d2 1c 3e
       0.102046326 0.15048596 0.10669059 0.15314572
0000b0 c7 47 a4 be 82 71 49 3e ef a7 88 be bd e2 9e bc
       -0.32086012 0.19672206 -0.26690623 -0.019395227
0000c0 92 78 00 be 93 07 5d bf ea 54 ad be 0c 51 db be
       -0.12545994 -0.8633968 -0.33853847 -0.4283527
0000d0 92 a0 9d bd 78 7c 3c 3d 29 f6 f5 bd 19 d8 20 be
       -0.07696642 0.04601714 -0.12009842 -0.15707435
0000e0 70 f6 35 be 81 cd e9 bd d8 55 f0 3c bf cd e5 bd
       -0.1776979 -0.1141615 0.029337808 -0.112208836
0000f0 54 de f4 bd 59 c2 70 3e 12 6e e7 3d bb 40 d0 bd
       -0.11956468 0.23511638 0.11300291 -0.10168596
000100 cf 76 f0 bd 70 31 91 bc e4 95 d1 bd 38 c8 1a bd
       -0.11741411 -0.017723769 -0.102336675 -0.0377886
000110 2a e7 a6 3d 5c 2c 1d bd 53 a9 36 bd d9 b6 aa 3d
       0.0814956 -0.038372383 -0.044595074 0.08335657
000120 20 ab 84 bd 20 1c 43 bc 3c 66 f2 bc fb 75 85 3c
       -0.06477952 -0.011908561 -0.029589765 0.016291609
000130 c5 f4 17 be d5 22 4b bd e4 95 9b 3d 95 fa 90 3d
       -0.14839466 -0.049593765 0.07596949 0.07079045
000140 13 7e 16 3c 6b a2 09 be 7e ed b8 bd 9c 5c f9 bd
       0.009185332 -0.13440864 -0.09029673 -0.12175867
000150 80 7e c8 3d a0 42 24 3c 4b 3b 2d bd aa f7 57 3d
       0.09789753 0.01002565 -0.042292874 0.052726425
000160 e9 92 8c bd 83 33 ba 3b ee 66 a2 3d 78 ff 89 bd
       -0.068639584 0.00568241 0.079297885 -0.0673818
000170 48 be ae bc 14 cb 9f bd 2c f3 7f 3d f5 1b 2a 3d
       -0.021330968 -0.07802406 0.062487766 0.04153057
000180 32 37 02 be 28 17 66 bd b6 ab c9 bd f9 9a ef 3d
       -0.12716368 -0.056174427 -0.098472044 0.116994806
000190 15 64 14 be bd d6 08 3d 16 d5 43 bd 1e e9 a2 bd
       -0.14491303 0.033407915 -0.047810636 -0.0795462
0001a0 ea b2 b8 bd 98 50 86 3d 86 d8 b6 bd ed f4 fd bd
       -0.090185 0.06558341 -0.08928017 -0.124002315
0001b0 fc bb 67 bd a3 e1 4d 3d f4 35 9a bd d8 42 07 be
       -0.05657576 0.050264012 -0.07529822 -0.13209093
0001c0 a2 ea 91 3d fb 30 08 be aa 9d ee bd e0 e5 21 3d
       0.07124831 -0.13299935 -0.11651166 0.039525867
0001d0 38 71 df 3c 36 76 e7 bd 9a 3e 71 bd 50 92 97 3d
       0.027275667 -0.11301844 -0.058897592 0.07400954
0001e0 4a db 93 bd 33 d7 28 3d 30 13 d6 3c c1 d0 d4 3d
       -0.072195604 0.041220855 0.026132196 0.10391379
0001f0 46 d5 dc 3d 2a 26 22 bd 5c 37 20 3d b9 e0 db bd
       0.10782866 -0.039587177 0.039115295 -0.10736222
000200 80 4f 03 3e d8 8e a1 3d 3a 5f 33 be 1e 4c 66 bd
       0.12823296 0.078885734 -0.17516795 -0.056224935
000210 ee 8b fb 3d 34 84 04 be 20 0e 5b 3e ee e9 ff bd
       0.12282549 -0.12941056 0.21392107 -0.124957904
000220 17 c7 4b be 09 75 bb 3c dd b7 5d be b3 4f 97 bd
       -0.19900165 0.022882955 -0.2165217 -0.07388248
000230 12 17 80 be ec cb dd 3d 46 35 22 3e 6c d6 0c be
       -0.250176 0.10829911 0.15840635 -0.1375367
000240 dd ff b1 be 4a ea 70 be 5d bb b8 bd de be 4b 3e
       -0.3476552 -0.23526874 -0.09020112 0.19897029
000250 c0 fc 9c 3d 4c f4 20 bd 7c 0e a1 3d 70 28 f0 3d
       0.07665396 -0.03929548 0.07864091 0.11726463
000260 c5 98 a4 3d ca 2a 30 3e 3f c6 0d bd c6 44 e9 bd
       0.08036951 0.17203823 -0.03461289 -0.113900706
000270 2c e2 63 3d 20 a5 e1 be d6 7d 88 bd 54 4f ec 3c
       0.055635616 -0.44071293 -0.06664626 0.02884642
000280 60 b8 02 3d 4e 15 9c bd b5 87 e8 3d 15 b3 52 bc
       0.031914115 -0.07621251 0.11354009 -0.012860079
000290 2d 64 5a bd 9e cd 81 be 72 a5 33 3e 07 07 89 be
       -0.05331819 -0.25352186 0.17543581 -0.26763174
0002a0 85 52 9f 3d 04 8c 84 3e 83 63 fb 3d 19 af 74 be
       0.07779411 0.25888073 0.1227484 -0.2389492
0002b0 b9 c6 9a 3e 8c 27 45 bd aa 76 c5 3c 93 48 3e bc
       0.30229738 -0.048133418 0.024104435 -0.011613983
0002c0 f3 13 02 3d 1f f3 f8 3d 01 38 b7 bd ca 84 8c 3d
       0.031757306 0.12155747 -0.08946229 0.06861265
0002d0 24 ed eb 3d d0 3a 01 3c be 32 f4 3c 4a 51 56 bc
       0.1151984 0.007887557 0.029809352 -0.013080904
0002e0 4d 9d 3a be ce 1d 95 be 44 1e 1b be c8 84 16 be
       -0.18224068 -0.29124302 -0.15148264 -0.1469909
0002f0 26 13 dc 3d c4 3b ce 3c 50 ba b0 3c f1 ec 63 be
       0.1074584 0.025174983 0.021573216 -0.22258355
000300 4c 8f 8a bd 80 ee aa 3c 5e e3 d3 be e4 7a 05 bd
       -0.06765613 0.020865679 -0.41384405 -0.0325879
000310 95 d9 64 bd 97 5d 3b be 8d 1f 74 bd 56 a6 c9 3b
       -0.055871565 -0.1829742 -0.0596004 0.006153862
000320 7e 4f 76 3e 01 f6 b7 be e0 b4 dc 3d 90 c9 1c be
       0.24053761 -0.35929874 0.10776687 -0.15311265
000330 b4 94 0b be a1 51 0f 3e 5d 69 52 bf 80 de 19 bd
       -0.13630944 0.13995983 -0.8219202 -0.03756571
000340 64 03 f2 be fb df 5e bd c2 e4 61 be 73 07 d8 3d
       -0.47268212 -0.054412823 -0.2205992 0.10548296
000350 12 20 a4 bd 34 3a ff 3d 7c 74 83 be 1e 7e 83 3e
       -0.080139294 0.12462273 -0.25674808 0.25682157
000360 15 61 77 3c 5e af 35 bd 7d fc 9a 3e 1e 03 a2 3d
       0.01509883 -0.044356696 0.30270758 0.07910751
000370 50 cb 7e 3c d0 08 8d be f0 ca ba bd ae 1e 80 3c
       0.015551403 -0.27545786 -0.091207385 0.01563963
000380 9a c8 bd 3d 08 f0 c2 bc c6 21 92 bd 2b f8 a0 3c
       0.09266777 -0.023796096 -0.07135348 0.019649586
000390 51 56 36 bd 89 19 b8 be 7d c2 59 bc 60 d0 2b 3e
       -0.04451591 -0.35956982 -0.0132909985 0.16778708
0003a0 b1 39 4d bd 0a 5d 35 be 4e 7c bc 3b 28 6c 6e 3d
       -0.050103847 -0.17711273 0.005752123 0.058208615
0003b0 7e 1b 28 be f1 f6 44 3e 65 2c 29 bf bc 56 33 3d
       -0.16416737 0.19234826 -0.66083366 0.04378389
0003c0 cb bd d9 3d cc 31 c7 bd b8 cf 8c bd bc 4a f1 3d
       0.10631903 -0.09726295 -0.06875557 0.117818326
0003d0 86 59 9d 3d 1c 13 4a bd c3 7a 23 be 7e f1 30 3e
       0.07683091 -0.04933463 -0.15964799 0.17279622
0003e0 a2 26 19 3e 1a 60 08 3e 94 c5 14 bd be 00 77 3d
       0.14956143 0.1331791 -0.036321238 0.060303442
0003f0 56 0f d0 3d 11 1c 31 3e c4 51 f6 3d 74 fa 4e bc
       0.10159175 0.17295863 0.12027314 -0.012632955

regressors.0.lins.0.bias f4 [32]
000000 91 8b 1c 3c 32 3c d2 bd da 43 e0 3d 42 42 a7 bd
       0.00955476 -0.102653876 0.10950442 -0.081669345
000010 fa e0 11 3e 16 e0 be 3c f8 17 d8 3d 04 06 1a 3e
       0.14245978 0.023300212 0.10551447 0.15041357
000020 13 8b 1f 3e 36 af 46 3c ec 9a a4 3d c6 2f 87 bd
       0.15580396 0.0121267345 0.080373615 -0.06600909
000030 a7 f1 35 bc d6 87 fb bd 94 24 44 bb 47 71 bb bd
       -0.011104978 -0.12281768 -0.0029929029 -0.09152465
000040 46 60 31 bd 0f f2 0f be 3e 94 da bd 48 55 18 3e
       -0.043304704 -0.14057182 -0.10672806 0.14876282
000050 29 1e f1 bd 8f 2e 54 3e 34 75 3a 3e 89 1c 1a be
       -0.11773331 0.20720886 0.18208772 -0.15049948
000060 51 e5 85 bd 09 b9 d6 bd 67 37 2f 3e 8a e6 fa bc
       -0.06537879 -0.104845114 0.17110978 -0.030627508
000070 4e 42 2a 3e 38 f0 e9 bd 6b ef b6 3d 35 fe 33 be
       0.16626856 -0.11422771 0.08932384 -0.17577441

regressors.0.lins.1.weight f4 [32, 32]
000000 fb 58 17 bf 09 36 12 3c dd 20 a0 be 86 ad ac 3d
       -0.5912015 0.008924016 -0.31275073 0.084315345
000010 1e b4 be be 33 2e 37 be e0 aa da 3d 10 88 0d bf
       -0.37246794 -0.17888717 0.10677123 -0.5528574
000020 6f a7 a6 be 49 03 b5 3d fe a7 a0 bd be 14 5b be
       -0.32549617 0.08838517 -0.07844542 -0.21394631
000030 c7 cb 0b 3e 4a 47 2c 3d a4 a7 a8 bc c3 c0 29 3e
       0.13651954 0.042060174 -0.02058775 0.16577439
000040 4c 54 bd bd a4 1c 19 3e d0 29 06 be fb c1 d3 bd
       -0.09244594 0.14952332 -0.13101888 -0.10339733
000050 06 3b 81 be 8e e2 95 bd 67 8b 4e be c4 1e 94 3e
       -0.25240344 -0.073186025 -0.20170365 0.28929722
000060 31 d4 d5 3b f1 59 46 3b 0f 4e 3b be 3e b0 cb bd
       0.0065255393 0.0030266012 -0.18291496 -0.09945725
000070 1f a0 ed bd 09 d7 1c be c0 ea 9b bd 2e fc 47 3e
       -0.11602806 -0.15316404 -0.076131344 0.19529793
000080 9c e5 c1 be b6 e6 0b be fc 47 0b bd 09 15 c1 be
       -0.3787049 -0.13662228 -0.034004197 -0.3771136
000090 b7 71 69 3e 14 70 eb bc 77 56 ca bd 91 05 80 bd
       0.22797285 -0.028739966 -0.09879773 -0.06251062
0000a0 bd bb 1b 3e c5 ff 95 3d c8 e8 37 3e 00 c7 51 bd
       0.15208335 0.07324175 0.17959893 -0.05121517
0000b0 18 bf f1 3d fd d4 74 3e 44 07 e5 bd 79 6c 30 3e
       0.11804026 0.23909374 -0.111830264 0.17228879
0000c0 22 04 2b 3d c3 3b c4 be 62 e5 03 be 1d 12 03 be
       0.04175199 -0.38326845 -0.12880471 -0.12799878
0000d0 2f d1 38 3e 61 ae df 3d e7 75 66 be a4 d6 2f be
       0.18048547 0.10921932 -0.22505914 -0.17171723
0000e0 7c a5 25 be c6 bf ea bc 71 e4 44 3b 4c ca 85 be
       -0.16176409 -0.028655898 0.0030043388 -0.26130903
0000f0 01 13 69 3d 72 cc a4 3e 9d 9e 70 3d d4 6b 36 3e
       0.05690289 0.3218723 0.058745015 0.1781457
000100 2e f2 8d 3e df 0e b9 bc 40 21 93 be 3b 69 ab be
       0.2772383 -0.022590099 -0.28736305 -0.33478722
000110 94 30 36 bf 2d 6a bf bc 19 b5 fb bd 01 bd d2 bc
       -0.71167874 -0.023366058 -0.12290401 -0.02572489
000120 e7 31 2d 3d 0d ae 84 be 00 71 28 bd a6 a3 ad 3d
       0.04228392 -0.2591404 -0.04112339 0.08478479
000130 1c 51 b9 be 21 3c d9 be a0 74 98 bd 5f fe b6 be
       -0.36194694 -0.42428687 -0.074441195 -0.35740945
000140 ad 9c 04 3d e8 4a a8 3d 05 aa 1b 3c aa 35 61 bc
       0.03237598 0.08217412 0.009500985 -0.013745705
000150 ce 66 07 bf 86 fc 81 be 63 83 b1 3d c2 aa 46 bd
       -0.5289124 -0.25387973 0.08667638 -0.04850269
000160 41 3f f4 bd f5 17 ff 3c 01 12 d8 3d 45 5e 5c bd
       -0.11926127 0.031139353 0.10550309 -0.05380084
000170 81 26 17 3d 98 65 a0 bd 91 e7 86 be 61 4f 09 be
       0.036901955 -0.078318775 -0.26348546 -0.13409187
000180 66 b2 03 3d 28 55 e5 3c 55 30 87 3d 5a 72 17 3e
       0.032152556 0.027994707 0.066010155 0.14789715
000190 68 f0 83 be a3 64 4c be 46 6a a7 be 44 c4 38 be
       -0.25769353 -0.19960265 -0.32698268 -0.1804362
0001a0 29 a7 73 3d bf cd 7f be d5 04 5c be dd 7d be 3d
       0.05948559 -0.2498083 -0.21486218 0.0930135
0001b0 37 54 98 bd 49 bc b8 be e9 db a9 be c8 b3 dc bd
       -0.07437938 -0.3608115 -0.3317559 -0.10776478
0001c0 60 2c 82 3d b6 5a 9b bd 67 0e 96 3d f0 8b 07 bf
       0.0635612 -0.07585661 0.07326966 -0.529479
0001d0 b1 bc 93 be 28 91 67 be 12 ee 83 3d c5 b2 f3 3c
       -0.28854898 -0.22613966 0.06441893 0.02974833
0001e0 d3 fe 98 be 26 8c 45 bc b7 14 d5 be 55 4c ad be
       -0.29881915 -0.01205734 -0.41617367 -0.338473
0001f0 a5 3a 26 be 87 34 67 3a 85 b4 56 3c f3 54 b6 be
       -0.16233309 0.0008819778 0.013104563 -0.35611686
000200 24 d8 58 3d 13 ae 0e 3c c6 f9 12 bd b5 3e 34 bd
       0.052940503 0.008708495 -0.035882734 -0.044005115
000210 2f 94 b0 bd 11 84 31 3e 90 0d 0a 3c d4 d2 fc bc
       -0.08622014 0.17335536 0.008426085 -0.03086225
000220 2f 90 38 ba e6 18 5a 3c 31 78 18 3d 7f e1 53 bc
       -0.0007040528 0.0133116 0.037224 -0.01293218
000230 c5 a6 94 bc 14 a2 0d 3d 27 97 21 3e 52 8f 4a 3d
       -0.018145928 0.034578398 0.15780316 0.049453087
000240 ee 5c 2b be c4 d8 90 bd 35 c4 19 3e cd 11 dd ba
       -0.16734669 -0.07072595 0.15016253 -0.0016866267
000250 50 46 84 bd c0 30 99 bd 3c 08 94 be de 35 d8 bd
       -0.064587235 -0.074800014 -0.28912532 -0.10557149
000260 91 31 9c bc ee 2f e1 bd ee 7b 9c bd 66 b9 ee bd
       -0.019066604 -0.1099547 -0.07640825 -0.11656456
000270 4d ec 53 3d 81 de 20 3e 69 9c 26 be e7 56 16 bc
       0.051739026 0.15709879 -0.16270603 -0.009175993
000280 49 a2 0e bf 4f e8 10 3e 47 fe 1b bf e3 59 ec 3c
       -0.5571638 0.14151119 -0.6093487 0.028851455
000290 cc 81 81 bd ca 8f 11 3e 21 12 86 3c 41 a5 9d be
       -0.06323585 0.14215007 0.016366066 -0.3079014
0002a0 64 97 13 3e 6a 22 ca 3d e7 49 8a bd 08 25 1c 3b
       0.1441322 0.09869845 -0.06752377 0.0023825783
0002b0 4a cc 59 3e d7 68 a8 3b 1b c5 8a be 06 3b dc 3d
       0.21269336 0.005139451 -0.27103505 0.10753445
0002c0 53 61 13 be 54 d5 52 bd 2b ea 5b be 23 cd 97 be
       -0.14392595 -0.051472977 -0.21476047 -0.29648694
0002d0 ca 35 38 3d b6 63 7b be 9c de ca 3c 79 48 a3 be
       0.044973172 -0.24549755 0.024764352 -0.3189123
0002e0 b6 9b 90 3e 7b 6c f7 bc 03 ba 09 3e 88 3c 8b be
       0.28243798 -0.030203095 0.13449864 -0.2719462
0002f0 dc e1 13 3d e4 cc 52 3d de a4 1c 3e 2f 60 5c be
       0.03610407 0.05146493 0.15297267 -0.21521066
000300 a6 33 85 3d a1 d8 b3 bd 7e a3 05 bc e8 8e 6d be
       0.06503992 -0.08781553 -0.008156655 -0.23199046
000310 c9 cc d6 bd 87 ba 0f 3e 8e 85 b8 bd b2 fe c7 bd
       -0.104882784 0.14035998 -0.090098485 -0.09765376
000320 59 df 16 be 45 c9 f3 3c a1 34 25 3e 75 bc bd be
       -0.14733638 0.029759059 0.16133358 -0.37057844
000330 67 8a 67 be 27 fa 74 3c fa 28 e7 3d 0c 0d 89 3d
       -0.2261139 0.014952219 0.112871125 0.066919416
000340 c1 48 8d be 43 f6 b2 3d 86 e3 52 3d 7c 17 98 bd
       -0.2759457 0.08738377 0.051486515 -0.07426354
000350 17 e5 11 3d 0c 14 8f be b1 e3 a3 be ab bf 6c 3c
       0.035618868 -0.27944982 -0.32009652 0.014449994
000360 04 11 6f bc 04 6b a5 3d e7 3c 53 bc 5b a4 83 3d
       -0.014591459 0.08077052 -0.012892938 0.06427833
000370 70 68 03 be 9c f5 32 be 41 7a fb 3d 78 73 01 be
       -0.12832808 -0.17476505 0.122791775 -0.12641704
000380 a8 43 fd bd 26 85 c8 bd b1 32 4f 3d ef 80 72 3d
       -0.1236642 -0.09791021 0.050585452 0.059204992
000390 5b bd d8 bd db 89 bd bd 63 1a a4 be 25 b0 5a 3d
       -0.10582992 -0.092548095 -0.3205138 0.05339064
0003a0 d5 f6 0b bd 43 90 e5 bb fe 6f 93 3c 4c 3e 4e be
       -0.034170944 -0.0070057227 0.017997738 -0.20140952
0003b0 68 a3 41 be 44 8d 2a 3e 90 60 61 3d 82 f1 36 3e
       -0.18909991 0.16655451 0.05502373 0.17865565
0003c0 6a c0 65 be 38 78 96 be 51 7c 75 3e 59 ab 1c 3e
       -0.22436681 -0.29388595 0.23973204 0.15299739
0003d0 72 a4 27 bd 4d bd c0 bd 20 56 08 3e 98 5e 3c bf
       -0.04092831 -0.09411106 0.13314104 -0.7358184
0003e0 9a 40 33 3e c9 8a 53 3c ef b4 0f bd 2a 02 48 bd
       0.17505112 0.012911507 -0.03508466 -0.04883019
0003f0 7e f9 80 be ee e2 e8 3e a4 bb af 3d cd 5c 88 bd
       -0.25190347 0.45485634 0.085807115 -0.06658325

regressors.0.lins.1.bias f4 [32]
000000 83 4f a3 bd 8a 34 90 bd 58 df 25 bd fc c9 0e be
       -0.0797415 -0.07041271 -0.0404962 -0.13944238
000010 c8 1f 6c be 0a d1 62 be 9d d7 d4 bd 4a 8d 5f bc
       -0.23058999 -0.22150055 -0.103926875 -0.013644526
000020 39 ed d7 3d 3a 54 56 3c 9e 0b 57 3e e8 51 44 be
       0.105432935 0.013081605 0.21000525 -0.1917187
000030 10 e2 79 be b4 e0 84 bd 9c 71 63 3e 1b 02 30 be
       -0.24402642 -0.06488171 0.22211307 -0.17188303
000040 ca 3a 19 be 7e e5 b8 3e 80 c4 5d 3c b4 10 dd 3d
       -0.14963832 0.3611259 0.013535619 0.107942015
000050 90 67 a9 3e 1d 88 34 3d 82 7b c3 be b8 d9 1d bc
       0.33086824 0.04407512 -0.38180166 -0.009634428
000060 2a f6 f4 bd 0e e0 d4 bd db 50 0e 3b ba 73 68 be
       -0.119610146 -0.103942975 0.0021715674 -0.22700396
000070 39 c1 d8 3d 15 83 95 3d e4 d4 0c 3e df 8a 1a 3e
       0.10583729 0.073003925 0.13753086 0.15092038

regressors.0.lins.2.weight f4 [32, 32]
000000 a6 64 19 3e 2d 28 d8 3d ff e5 8b bd 27 91 92 bd
       0.149798 0.10554538 -0.06830978 -0.07156592
000010 23 f9 6d bb 7b 10 2b be ef f1 d2 bd 55 27 ce bd
       -0.0036311827 -0.16705506 -0.103000514 -0.10066096
000020 cf 71 0c 3e cf 0a d8 bd 3b e0 df bd d9 01 06 be
       0.1371529 -0.105489366 -0.109314404 -0.13086642
000030 1c 98 90 bc 9d b5 d7 bd be ab 20 be e8 60 2f 3e
       -0.017650656 -0.10532687 -0.15690514 0.1712681
000040 d7 9b 89 bd 48 bf 55 bc ac 02 be 3c 95 a5 1a 3c
       -0.06719177 -0.013046093 0.023194633 0.009438892
000050 f1 3d 52 3d f6 cd a1 3d 9a 98 89 bd 74 48 90 bd
       0.051328603 0.07900612 -0.067185596 -0.07045069
000060 e8 ac a9 bc 07 0c 2a be b7 31 c0 bd 27 37 9c 3d
       -0.020712331 -0.1660615 -0.09384482 0.07627707
000070 6c 17 0b bb 5e 11 f4 bd 4d 47 eb bd 24 3d 68 bd
       -0.0021223677 -0.11917375 -0.11488209 -0.056698933
000080 35 1e 39 3d 86 05 8a 3e 88 5b 09 be a7 27 08 be
       0.045194823 0.2695734 -0.13413823 -0.13296376
000090 58 e7 92 be 27 06 55 3d ce 85 5c be 1d 7f 67 be
       -0.28692126 0.05200782 -0.21535417 -0.22607084
0000a0 dc 97 a9 bd b9 50 12 bd db a7 94 be 33 d5 13 3d
       -0.08280918 -0.035721514 -0.29034314 0.036091994
0000b0 74 94 43 bb 15 88 93 be 56 a5 89 bc 40 3a 37 3d
       -0.0029843124 -0.2881476 -0.016802471 0.044733286
0000c0 61 15 d1 3e d6 11 90 bd 4a b5 00 be 94 d4 2e 3e
       0.40836623 -0.07034652 -0.12569156 0.1707328
0000d0 dd bd 09 3e f9 f1 01 3d 2d 6c 51 bb 6f fc 36 3e
       0.13451333 0.031724904 -0.0031955347 0.17869733
0000e0 02 a5 cb bc 9b 54 3d 3d 56 a6 81 be 4e 96 0a be
       -0.024858955 0.046223264 -0.25322217 -0.13533899
0000f0 da 23 14 be c0 d5 e7 bd 3e 73 0a 3c a9 04 47 bd
       -0.14466801 -0.113200665 0.008450327 -0.04858843
000100 40 f8 89 3d 0a 5a 3d be cb a1 4b be b9 00 44 be
       0.06736803 -0.18491378 -0.19885938 -0.191409
000110 ca 5f 61 3d 64 37 ed 3d 20 1e 99 be e8 b8 64 be
       0.055022992 0.115828305 -0.29905796 -0.22336161
000120 99 44 c8 be 91 99 86 3d 5f 9b 5e 3d f2 7e 08 3e
       -0.39114836 0.06572259 0.054347392 0.13329676
000130 8c b6 1b 3e ea 8b 07 bd cb b9 94 bd 5e 69 a5 3e
       0.15206355 -0.033092417 -0.07262 0.3230695
000140 f9 37 9f 3e ea 9a d7 3c 2f 53 27 bc 06 7c e7 bd
       0.3109739 0.026318986 -0.010212704 -0.113029525
000150 22 a6 d8 3d 4e 09 31 3d 84 de 90 3e 63 b4 6c 3e
       0.10578562 0.043221764 0.28294766 0.23115687
000160 b8 7f bd be e3 3c b5 3c 57 d7 a5 3e 9f 44 e5 bb
       -0.37011504 0.02212376 0.32390854 -0.0069967057
000170 13 4d d3 bd bf 23 41 3e 0d f6 a3 3d 3f 74 21 bd
       -0.10317435 0.18861292 0.08005915 -0.0394175
000180 66 08 ac bd 8c 6f 8c bd 60 cd 38 be f4 f2 0e bd
       -0.084000394 -0.068572134 -0.18047094 -0.034899667
000190 e7 08 04 be 7a b1 98 3d 5b 21 64 bd a2 48 92 3c
       -0.12894021 0.07455726 -0.055695873 0.0178569
0001a0 91 dd bb 3d 2e 00 8b 3d 5b 99 81 bc 25 3c 9c bc
       0.0917312 0.06787144 -0.015820196 -0.019071648
0001b0 5d ad 06 bd 10 b8 1e be 62 56 16 be cd c7 c5 bb
       -0.032880176 -0.15499902 -0.1468139 -0.006035781
0001c0 a4 4f 19 3e 99 d0 50 bd 5d ee 5d 3d e8 b1 95 3d
       0.14971787 -0.050980184 0.0541824 0.073093235
0001d0 93 43 32 be b2 0b 80 3d bd 34 6c 3d e4 8a d2 bd
       -0.1740859 0.06252231 0.057667483 -0.102803975
0001e0 7a 98 f1 bd c9 9e 08 be ef 24 cf bd ee ca b3 bd
       -0.11796661 -0.13341822 -0.101144664 -0.0877894
0001f0 d8 1f 53 bd 10 9d 47 3d 11 a0 00 be 48 00 1e be
       -0.05154404 0.04873377 -0.1256106 -0.15429795
000200 4c f6 18 be d9 d1 da bd e5 5d b0 3b 1e 30 ac bd
       -0.14937705 -0.106845565 0.005382287 -0.08407615
000210 47 f3 dc bd 08 9c 18 3e 93 48 3b bd f6 31 25 be
       -0.10788589 0.14903271 -0.04572351 -0.1613234
000220 94 54 ab 3d d7 46 63 bd ed c8 24 be 93 84 0a 3e
       0.08365741 -0.05548748 -0.16092272 0.13527136
000230 b4 99 78 bd 44 10 03 be 67 76 21 bd 27 7e 4a bd
       -0.060693458 -0.12799174 -0.039419558 -0.049436715
000240 28 5a fd 3d bb 38 6d 3d 05 6b d7 bc 5b 94 4f bd
       0.123707116 0.05791543 -0.026296148 -0.050678592
000250 6e fe 54 3c d9 02 0b bc 9e ca f0 bd bd d0 52 3c
       0.013000114 -0.008484566 -0.11757396 0.01286715
000260 95 64 2c 3d 5e cc 43 3e 01 3e 35 be 32 70 2d be
       0.04208811 0.19120929 -0.17699434 -0.1693733
000270 9a 33 24 be 8d 16 7d be 3c 12 b9 bd 20 1e f2 3c
       -0.1603531 -0.24715634 -0.09036681 0.02955538
000280 02 86 20 bd ed d8 1e 3e 91 e3 07 3e 2f 19 a4 3d
       -0.0391903 0.15512438 0.13270403 0.08012616
000290 8c df 54 be 7e c1 ad 3d 37 00 94 3d d1 54 f6 3d
       -0.20788401 0.08484171 0.072266035 0.12027896
0002a0 7c a0 20 be fc 70 e0 3d 4c 03 bd 3b 22 aa bc 3c
       -0.1568622 0.1095905 0.0057682153 0.023030344
0002b0 4f 8c 7e 3d e9 a6 8d bc 2f 4c 18 be bc 67 03 be
       0.062145527 -0.017291503 -0.14872812 -0.1283254
0002c0 aa ac 2e be a0 a9 c4 bd b5 ff f9 3d 44 a4 4a 3d
       -0.17058054 -0.09602666 0.12206975 0.049473062
0002d0 c1 70 65 3d 74 69 51 bd a7 a5 e2 3c 55 86 41 be
       0.056015734 -0.05112596 0.02766688 -0.188989
0002e0 7a 25 d9 bc 46 22 22 be f3 43 9d bd 7b e5 b5 3c
       -0.026507128 -0.15833387 -0.07678976 0.022204151
0002f0 a0 ff bb 3c 06 5d 30 be a2 e3 83 be 93 98 b4 bd
       0.02294904 -0.17222986 -0.25759608 -0.08818164
000300 5f d4 9c bc d5 7a a4 3d 8c b2 ec 3d ad 82 21 be
       -0.019144235 0.08031241 0.115574926 -0.15772505
000310 95 4e 30 be ff 31 83 be 2c 72 b9 bd cf 88 00 be
       -0.17217477 -0.25624081 -0.0905498 -0.12552188
000320 78 14 00 bf 50 b5 af bd 15 f1 65 bd 85 28 9d 3d
       -0.5003123 -0.085795045 -0.056138117 0.07673744
000330 d0 12 72 3e 20 ab c1 3d 88 1d dd bc 13 f8 79 3d
       0.23639989 0.09456468 -0.02699162 0.061027598
000340 42 10 3a be 16 f8 a8 3d aa 34 8c 3d c8 b7 70 bd
       -0.18170264 0.08250444 0.068459824 -0.058769017
000350 c6 3d d1 bd 9d df 6d bd 8f e2 9d 3d 47 95 84 be
       -0.102168605 -0.058074582 0.07709228 -0.2589514
000360 b0 65 24 bd e2 fb 8a bd 54 4f 2b bd 9f 61 a7 be
       -0.04013604 -0.06786324 -0.0418237 -0.32691666
000370 8f 3f c1 be 82 f3 2e ba 0f 6a f3 3b cf 51 fc bd
       -0.37743804 -0.0006673859 0.0074284147 -0.12320291
000380 68 1a 98 be e0 4e be be 32 45 39 be 09 7f 95 3c
       -0.29707646 -0.37169552 -0.18092802 0.018249052
000390 0f eb 36 bd e2 76 23 bd 88 48 f2 3d d5 03 c1 bd
       -0.044657763 -0.039908297 0.118302405 -0.09424559
0003a0 d5 ea 7c 3c 91 46 90 3d 41 ae 3e bb 49 24 f0 bd
       0.015436848 0.070447095 -0.0029095563 -0.11725671
0003b0 12 2c 67 bd 8d 1d 86 be 05 54 ae bd 57 0b 70 3d
       -0.056438513 -0.2619442 -0.08512119 0.058604565
0003c0 e3 45 17 be ae d8 a0 bc 6f ce 58 be bf 82 06 be
       -0.14772753 -0.01963457 -0.21172498 -0.13135813
0003d0 c4 22 52 be 9f a5 dc bc cf 67 c3 3e 34 9e a4 3d
       -0.20521075 -0.026934443 0.38165137 0.08037987
0003e0 5b b2 a6 be ea 8a ad bd 9b c2 09 3e 44 e2 0b 3d
       -0.3255795 -0.084737614 0.13453142 0.03415133
0003f0 b3 19 b8 bd 28 22 63 bd a5 d0 08 3e a4 74 2d be
       -0.08989277 -0.055452496 0.13360842 -0.16939026

regressors.0.lins.2.bias f4 [32]
000000 a2 e8 1e be db 13 ee bd b8 0b 8e be 95 0a 00 be
       -0.1551843 -0.11624881 -0.27743316 -0.12504037
000010 07 59 32 be ea f6 28 3d 15 5b 37 3e a4 a4 8d be
       -0.17416774 0.0412511 0.17905839 -0.27664673
000020 a4 5a 37 be 6f 57 5e 3e 86 8b 44 3d 4c 92 75 bc
       -0.1790567 0.21713041 0.047984622 -0.014988493
000030 80 fd d6 3e df fa bc 3e 94 78 3b be 36 27 70 3d
       0.4199028 0.3691015 -0.18307716 0.058631144
000040 aa 33 a8 3e bc 51 a1 bd c5 1e 6d be fa a6 8e 3e
       0.32851917 -0.07876918 -0.23156269 0.27861768
000050 97 af 70 be b0 de 8a 3e dd e6 5d be 1e 35 00 be
       -0.23504482 0.27123022 -0.21670099 -0.12520263
000060 13 df b3 bd 5c 50 31 be f9 05 57 bd 6b 65 8e 3e
       -0.087827824 -0.17315811 -0.05249593 0.2781175
000070 e3 7d 90 bd fa 4f df 3d 1d d1 a2 3e f6 42 84 3c
       -0.07055261 0.10903926 0.31800166 0.01614521

regressors.0.lins.3.weight f4 [1, 32]
000000 d5 af f3 3d 61 5c 73 be 25 60 2c be 07 0e c8 bd
       0.11898772 -0.23765709 -0.16833551 -0.097683005
000010 58 9b cd bd 57 f6 11 bd 90 d6 c4 3d 4c cf 9b 3c
       -0.10039395 -0.03563532 0.09611237 0.019019745
000020 dc c7 22 3d d0 f2 69 3d 23 ae 41 ba df 21 1e be
       0.039741382 0.05711633 -0.0007388314 -0.15442608
000030 63 e2 70 3e c1 34 38 3e c6 36 47 be 74 a1 33 3c
       0.2352386 0.17988874 -0.19454488 0.010963786
000040 1f 7a ea 3d 1d 7b 78 bd e0 6d a0 bc 15 b0 70 3d
       0.11449074 -0.060664285 -0.019583642 0.058761675
000050 37 75 4a be 5f 09 0d 3e d8 a4 91 3d 8c 2c fc 3c
       -0.19771276 0.13773106 0.071115196 0.03078296
000060 9c 1d a7 3b 06 e8 06 be dc ea a2 bd d9 35 36 3e
       0.0050999653 -0.13174447 -0.07954952 0.17793979
000070 81 68 0e 3b 3f 2e f2 3d d2 2f 8e 3d 15 2b 29 bb
       0.002172977 0.11825227 0.06942715 -0.0025813032

regressors.1.lins.0.weight f4 [32, 64]
000000 b9 7a 40 3e 3c a5 91 bd c8 c7 86 3d 40 e3 92 3b
       0.18796815 -0.07111594 0.06581074 0.0044826567
000010 2f 23 c8 3b 31 81 a5 be fb e3 65 be 91 20 5f 3b
       0.00610771 -0.32325128 -0.22450249 0.003404651
000020 0a f8 d1 bc 30 18 ca be c6 30 94 3b 50 f5 d4 bb
       -0.02563097 -0.3947158 0.004522416 -0.00649897
000030 fa bf 00 bf 6a 76 3a 3e 4a da 9b 3d 66 f0 73 be
       -0.50292933 0.18209234 0.07609995 -0.23822173
000040 fb f1 16 3c c7 7a 7e 3d 13 75 2d 3e 38 b2 96 bd
       0.009212966 0.06212881 0.16939192 -0.07358211
000050 10 3a cb bd 98 81 93 3d 24 5d 01 3d ba a4 2e be
       -0.09923184 0.072024524 0.031582966 -0.17055026
000060 a4 cd ad 3d 4c e0 a8 bd 51 73 5d 3e ba 92 e7 bc
       0.084864885 -0.08245906 0.21626021 -0.028268207
000070 40 18 2a 3d 2b 34 2a 3d d8 e6 a3 3d 65 4c 54 3c
       0.041527033 0.041553658 0.08003014 0.012957667
000080 5b 47 d1 be e8 28 80 bd 5e 91 fe 3d 91 4e 30 be
       -0.40874752 -0.06257802 0.1243007 -0.1721747
000090 cf cb b5 3d fc 4a 73 be 3b 04 19 be 8d 67 cc 3c
       0.08876764 -0.23759073 -0.1494302 0.02495172
0000a0 64 d9 ce bd aa 27 23 bf 03 d3 ae be 19 2e ba 3c
       -0.10100058 -0.637324 -0.34145364 0.02272706
0000b0 24 cc 5d bc 81 92 c9 3d 6a 98 1a 3e b9 d6 b0 3d
       -0.01353744 0.098423965 0.15097204 0.08634705
0000c0 4c fb 03 3e 39 08 4d be 5a 82 a5 bd d9 6b 98 3d
       0.12888831 -0.20022668 -0.08081503 0.07442445
0000d0 f8 19 54 bd 24 a6 9c bd 53 cb de be a1 ce d3 bc
       -0.05178258 -0.07648876 -0.435145 -0.025855364
0000e0 7a 2a 3d be d2 4a f9 be 51 0f 4b be bb 34 8c 3d
       -0.18473235 -0.48689896 -0.19830061 0.06845995
0000f0 28 b2 11 3d 89 55 78 be 0c 15 e6 3d 1e 82 be 3d
       0.035570294 -0.24251379 0.11234483 0.09302162
000100 d8 f5 0a be f0 db 9f 3d 1e 5f a6 3d 96 16 ba bd
       -0.13570344 0.078056216 0.08123611 -0.09086339
000110 a7 6f d1 3d c1 0a 84 3e 1c f8 ff 3d 17 e0 13 3d
       0.10226374 0.25789455 0.12498495 0.03610238
000120 f2 36 e2 bb d8 0e 45 bc 28 16 6d 3e 01 0d 9f bd
       -0.0069035226 -0.012027465 0.23152983 -0.07766152
000130 6d 56 3e be 33 b1 3a be 3b 74 e0 3d 1e fc 9f 3e
       -0.18587656 -0.18231659 0.10959669 0.31247038
000140 fa 04 04 3d 4e bd ce bd 9d 4a 23 3e 04 dc 9b 3e
       0.03223131 -0.10094701 0.15946431 0.30441296
000150 00 5e d2 3d e8 59 cf 3d 6c 24 95 bd aa ec 42 3e
       0.10271835 0.1012457 -0.072823375 0.19035593
000160 7a ae b8 be 2f 7c 21 be fe 67 df bc ab b1 e5 3c
       -0.36070615 -0.15770029 -0.027271267 0.02803882
000170 ac 29 32 bd 36 31 c2 3d 44 e2 0c bd 10 73 b3 be
       -0.043496773 0.094820425 -0.03439547 -0.35048723
000180 9b e4 3e be 68 64 b3 bc a8 f0 86 bd 79 c0 5d 3b
       -0.18641894 -0.021898463 -0.0658887 0.0033836646
000190 9c be 8c 3e 57 31 16 3e e0 b5 8d 3e 79 71 72 bd
       0.27489173 0.14667259 0.27677822 -0.059190247
0001a0 d6 72 08 3e 31 10 39 3d b4 b5 22 3d b6 77 5a bd
       0.13325056 0.045181457 0.039724067 -0.05333682
0001b0 c9 8b 5a bd 45 7c ad 3d d3 df da 3d ca 5b 31 be
       -0.053355966 0.08470968 0.10687222 -0.17320171
0001c0 ac 0b e5 3d ef 0e 2d 3e 83 7d 53 bd c5 09 62 bd
       0.11183867 0.16900228 -0.05163337 -0.0551851
0001d0 30 b6 1d 3d 44 c2 18 bd 6f 99 21 bd 63 ab dc bd
       0.038503826 -0.03729464 -0.039452966 -0.10774877
0001e0 87 dd a3 be df 31 61 be e7 5d 4a be 04 9b 94 3d
       -0.3200495 -0.2199168 -0.19762383 0.072561294
0001f0 04 72 28 3d f5 5f 63 bc 30 05 bb bc 0a b3 1c be
       0.04112436 -0.013877858 -0.022829622 -0.15302673
000200 d9 28 46 3e 06 bf b9 3d 8a 5e 43 be be 2c 9f 3d
       0.1935152 0.09069638 -0.19079033 0.07772206
000210 e1 a5 6e 3e 23 95 58 3e 51 37 89 bd dd 0e 24 3c
       0.23305465 0.21150641 -0.06700004 0.010013309
000220 c9 2a 8e 3d fd 2f 1e 3e 3d 1a 4f bd 13 9d eb bd
       0.06941754 0.15447994 -0.050562132 -0.11504569
000230 b7 f1 ed 3e 76 ac 85 be fa 51 0a be a8 7b 22 3a
       0.46473476 -0.2610814 -0.13507834 0.0006198236
000240 16 60 86 3d 28 31 9a 3d 9b e7 c2 bc 48 ce 72 3d
       0.06561296 0.07528907 -0.023792079 0.059278756
000250 e0 9b c3 3b 2e 89 87 3d 00 35 4d be 91 26 80 be
       0.0059695095 0.06617962 -0.20039749 -0.25029424
000260 e0 14 5c be 82 42 cf 3e f5 c0 02 3e 14 0a cd bc
       -0.21492338 0.4048043 0.1276892 -0.02502922
000270 58 b4 a8 bd 6a fb 21 3e 9a 9c ac bd 6b 0d e6 bb
       -0.08237523 0.15818563 -0.08428307 -0.0070206425
000280 99 48 ab 3d 70 11 dc bd 36 56 0d be f7 2a 02 3d
       0.08363456 -0.107455134 -0.13802418 0.031779256
000290 dc df 20 be 45 a8 5d 3e 81 d3 3a be f0 4c 85 bd
       -0.15710396 0.21646221 -0.18244745 -0.06508815
0002a0 8e c6 6b be 0c 12 17 3e 43 61 7d be ca e5 6d 3d
       -0.23024961 0.14752978 -0.24744134 0.058080472
0002b0 65 4b 2f 3b bd e6 27 bd 77 5f 2c be e0 18 00 3e
       0.002674782 -0.040991534 -0.16833292 0.12509489
0002c0 ad 12 d2 bd 12 13 a6 bd 97 fb 39 3d d1 07 f6 3d
       -0.102574684 -0.08109106 0.04540595 0.120132096
0002d0 a2 2f 91 3d 8c cd ab bd ce dc de bd d3 c4 1a 3e
       0.07089163 -0.08388814 -0.10881959 0.15114145
0002e0 cd d2 76 3e 55 f2 b7 bd ba 72 4d 3e 19 b7 ea bc
       0.24103852 -0.08981768 0.20063296 -0.02865176
0002f0 e0 73 c3 bb 8e 58 8b 3e 88 ba fa bc 5e e8 16 bc
       -0.005964741 0.27216 -0.030606523 -0.009210674
000300 d7 28 15 3e 28 91 17 3d 8b 1b 2c be bc a8 8b bd
       0.1456636 0.037003666 -0.16807382 -0.06819293
000310 ef 0c 9f 3d 7f e1 98 be 6e da ac be 18 72 af be
       0.07766139 -0.2985954 -0.337604 -0.34266734
000320 4c 59 47 3d 29 7a 2c be b5 20 15 bf 11 36 1e 3d
       0.048669145 -0.16843475 -0.5825303 0.03862578
000330 7a 5e 5d 3d 10 f0 93 be 00 f4 b9 bc 50 d5 96 3e
       0.054045178 -0.2889409 -0.022699356 0.2945962
000340 7c 83 ee 3d 40 1f 31 bd 8f 60 e4 3c 84 ef 69 be
       0.116461724 -0.043242693 0.027878074 -0.22845274
000350 b0 8b 1f bd 28 db d4 bc a9 d4 6a bb f4 bd 92 be
       -0.038951576 -0.025983408 -0.0035832322 -0.28660548
000360 04 24 09 be f6 e5 58 3e c3 0e 4f 3e 48 c4 cb 3d
       -0.13392645 0.21181473 0.20220475 0.09949547
000370 9e 7f 80 bd 6d 3d bb 3d e4 fa 17 3d 95 c5 6b 3d
       -0.06274341 0.091425754 0.037104502 0.057561476
000380 26 c4 44 bd 54 30 6d bd 18 08 1e 3e 85 26 e3 3d
       -0.048038624 -0.057907417 0.15432775 0.110913314
000390 10 af 16 be 07 50 d0 3c ab ef 97 3d 8d a2 39 3d
       -0.14715219 0.025428785 0.0741876 0.045321036
0003a0 f8 83 33 bd 94 8b fa bd 11 15 60 be 5b 0e 3d bc
       -0.043827027 -0.12233654 -0.21883036 -0.011539067
0003b0 5a 2e e2 be f2 de 21 3e b5 ab c4 bd 8e 47 44 be
       -0.44175988 0.15807703 -0.09603063 -0.19167921
0003c0 41 93 67 3e 3f 0c 14 be 9d 6c 5b be a2 01 4c 3e
       0.22614767 -0.14457797 -0.21428151 0.19922498
0003d0 fe 15 fd 3d 94 07 cd 3d a3 5b ae 3d 4d 2e 15 3d
       0.1235771 0.10011211 0.08513572 0.03642111
0003e0 fc 08 9e bd b9 69 69 3e 7a 88 0e bf a9 1e 2e be
       -0.077165574 0.22794236 -0.55676997 -0.17003883
0003f0 f4 dd 9e bd 3a 80 33 be 10 7c 95 bd ef d9 3c 3e
       -0.07757178 -0.17529383 -0.07299054 0.1844251

regressors.1.lins.0.bias f4 [32]
000000 46 8c a8 bd 75 92 20 3e 77 d4 f4 bc 65 6c 26 be
       -0.0822988 0.15680869 -0.029886467 -0.16252287
000010 c5 8e 99 3e ed 23 36 3e 08 97 67 3c b5 ba 1e be
       0.29991737 0.17787142 0.01413513 -0.1550091
000020 7f 63 8e 3d ff 7f ef 3d 43 4b 16 be 9c ec d4 bd
       0.06952571 0.11694335 -0.14677148 -0.10396692
000030 ba 1f a0 3d 7f 56 67 3e 99 07 91 3d ee b7 8f 3e
       0.07818551 0.2259159 0.07081527 0.28070015
000040 ab 4e 2b 3e 6b 9b fa bc 8f 83 10 3c 7f b1 94 3e
       0.16729228 -0.030591687 0.0088204285 0.2904167
000050 c6 16 52 3d 0a a7 95 3e 24 f9 28 be 8e 89 18 be
       0.05129125 0.29229003 -0.1650129 -0.14896223
000060 5e 64 72 3e d2 e7 31 3d 5e 8e 3f be 20 35 30 3e
       0.236711 0.04343397 -0.18706653 0.17207766
000070 65 1e 3f 3d 00 59 82 3e 8c 1a 85 3e fe 4b e0 bb
       0.046659846 0.25458527 0.25996816 -0.0068449965

regressors.1.lins.1.weight f4 [32, 32]
000000 ea 1c fe bd 92 f1 16 bf ae 59 e6 bc 72 a0 5b 3e
       -0.12407859 -0.5896236 -0.028118934 0.21447924
000010 a4 32 0e bf a3 9d d1 be 0e 89 d9 3d 44 ad 06 3e
       -0.5554602 -0.4094058 0.10621844 0.13152033
000020 61 79 d1 be 42 1c 0f be 15 f0 62 3c 1f 62 dd 3e
       -0.40912917 -0.13975623 0.013851185 0.43238923
000030 b2 4e e4 3c 6a ea cd 3c 79 72 b7 be d5 da 65 3d
       0.027869556 0.025136191 -0.35829523 0.056116898
000040 1e 32 57 bc 94 8f 81 3e 33 b6 23 3d 20 52 c9 3d
       -0.013134507 0.25304854 0.03996868 0.09830117
000050 8e 04 94 3c 07 25 60 bf ca e0 b0 bd 6d 62 68 bc
       0.018068578 -0.875565 -0.08636625 -0.014183623
000060 c7 d0 2b 3e b7 c2 04 3e 64 29 12 be da af 63 bc
       0.16778861 0.12964903 -0.14273602 -0.013896907
000070 9e 1a 34 bf 7e 74 cc be 16 fe a3 3e 7d 27 7a 3d
       -0.70353115 -0.39932626 0.3202979 0.061072815
000080 24 53 16 3d 82 92 63 bd 14 93 02 be 8f 6b 07 3e
       0.036700383 -0.055559643 -0.12751418 0.13224624
000090 f8 3d f8 3b 95 e1 9f 3e 3e c6 24 bd 57 59 ec 3d
       0.0075757466 0.31226793 -0.04022812 0.11540478
0000a0 eb a8 0a bd 92 ea f7 3d f3 66 f2 be ce c8 aa 3c
       -0.0338525 0.121052876 -0.4734417 0.020847704
0000b0 65 b9 80 3d 6f ad f0 3d 76 06 2c be b4 7e f5 b9
       0.06285361 0.1175183 -0.1679934 -0.00046824443
0000c0 dc e4 6b be 44 4b aa bd 7f bb 11 3e 87 94 e7 3d
       -0.23036522 -0.08315137 0.1423168 0.11307626
0000d0 12 de 26 be 6a 3c 51 be 0e 83 ff 3d 28 f5 a2 3d
       -0.1629565 -0.20433202 0.124761686 0.07956916
0000e0 af da d1 3e 87 64 a4 bd 75 37 73 3e ad dd d7 3d
       0.40987155 -0.080269866 0.23751624 0.10540328
0000f0 e5 18 83 3a 08 a5 eb 3d 6c 7d 9f 3e 53 3a 34 3e
       0.0010001926 0.115060866 0.31150377 0.17600374
000100 98 da 7f 3d 08 9e 22 3e a8 39 a2 bd fc 78 22 be
       0.062464327 0.15880597 -0.07921153 -0.15866464
000110 c6 8c 9b bd e3 82 0c 3e 8c dd 32 3e e9 7a 10 bb
       -0.0759521 0.13721804 0.17467326 -0.0022045916
000120 8e 25 82 be 33 c2 a4 3e 2c c2 94 3d 09 3e c2 be
       -0.25419277 0.32179412 0.07263598 -0.37937954
000130 cc e2 11 3e 55 94 ad bd d9 ca 13 3e 09 1f cf bd
       0.14246672 -0.08475558 0.14432849 -0.10113341
000140 7c 08 96 bd 96 ea 83 be 81 6c 59 3d 1b 5b 68 be
       -0.07325837 -0.25764912 0.053081993 -0.22691004
000150 65 d2 d6 3d 91 8f 83 3e 0a 98 5e 3e c2 da 2a 3e
       0.10489348 0.2569547 0.21737686 0.16685012
000160 64 43 4c bd cb 02 80 3d 5c c8 d7 bc 34 4a fb 3c
       -0.049868956 0.06250533 -0.026340656 0.030675031
000170 ea 8b c9 bd be 88 41 be 2a 1f a1 bd 15 36 a5 3d
       -0.098411396 -0.18899819 -0.07867272 0.08066956
000180 b7 76 43 3e 00 c3 0c 3d f4 5b 36 3d eb f9 8e 3e
       0.19088255 0.034365654 0.044521287 0.27925047
000190 c7 13 af 3e 3e 13 07 3e 14 b0 cc be 71 a5 14 3d
       0.34194776 0.13190934 -0.39978087 0.03629059
0001a0 3b 55 b5 be e7 d7 93 3e 82 e7 17 3e d6 3d fa bc
       -0.35416588 0.28875658 0.14834407 -0.030547064
0001b0 de 70 8a bd 7b 71 12 bf a1 d6 ff be 1a 72 d9 bc
       -0.06759809 -0.5720441 -0.49968436 -0.026543666
0001c0 72 22 12 be c1 e7 8b be 80 b4 48 bf 41 33 9d bd
       -0.14270952 -0.27325252 -0.7840042 -0.076757915
0001d0 20 35 80 bd 6f 7a 91 3d 91 05 14 3c b0 0c 77 be
       -0.06260133 0.071034305 0.00903453 -0.24125934
0001e0 4b 07 10 bf 61 ad 3c be 86 e8 8f 3d 8e 26 70 be
       -0.5626113 -0.18425514 0.07026772 -0.23452207
0001f0 e2 44 4a 3e b8 ca ef 3d 27 80 95 bf b5 89 38 bf
       0.19752839 0.117085874 -1.1679734 -0.72085124
000200 b6 02 22 3e 12 c0 4b bd 49 00 7c be fc b0 94 3e
       0.15821347 -0.04974372 -0.24609484 0.29041278
000210 85 7a db 3b c8 35 27 3e e1 2f 56 3e d5 06 c9 bd
       0.006697955 0.1632911 0.20916702 -0.09815756
000220 0a fe 9a 3e 7f 77 5a bf fb e5 88 be 19 b9 1a 3e
       0.3027194 -0.85338587 -0.2673796 0.15109672
000230 e0 1a 25 3e a5 66 32 3e 09 a4 d7 3d 4c 99 05 be
       0.16123533 0.17421968 0.10529334 -0.1304676
000240 1c a8 49 bf cc 39 ad 3d 49 f7 61 3e 19 5f a5 be
       -0.7877214 0.084582895 0.22066988 -0.32299116
000250 31 5a cb be 16 05 47 3c 39 71 d3 3c 1b 64 b6 bd
       -0.39717248 0.012147209 0.025810825 -0.08905812
000260 e8 30 53 bd 51 f4 9f bd 02 f1 5b be 38 5f 20 bd
       -0.051560313 -0.078102715 -0.21478656 -0.039153308
000270 8b da 6e 3e 4e 01 86 3d 64 0d 27 be 39 32 8a bd
       0.23325555 0.065432176 -0.16313702 -0.067478605
000280 a9 29 bd be dc 97 c1 3d 34 cb f3 bd 32 65 ed bd
       -0.36945847 0.09452793 -0.11903992 -0.11591567
000290 4b 8e 91 3d 78 6a 03 3e ac 1b 54 bd dd 0f f7 bc
       0.07107218 0.12833583 -0.051784202 -0.030158931
0002a0 d8 d4 88 be 52 8c 8e bc 60 a3 00 be d3 ce 05 3e
       -0.26724887 -0.017400894 -0.12562323 0.13067178
0002b0 3c e1 2e bd 74 54 70 be 90 07 0a be c2 2d 89 3e
       -0.04269527 -0.23469716 -0.13479447 0.26792723
0002c0 28 ba 2a 3a 4f d2 9b bd 31 53 5e 3e 69 49 a8 3d
       0.0006512725 -0.076084726 0.21711423 0.08217127
0002d0 39 87 67 3c d7 ab 42 3e 0d 92 a6 bc 7e 7b d7 3d
       0.014131361 0.19010864 -0.020333314 0.10521601
0002e0 70 ed 73 3e ae b4 9d 3d 7b 51 1e be cf ff 13 be
       0.23821044 0.077004775 -0.1546077 -0.14453052
0002f0 27 4d 64 be 5a a6 00 be 8f 6e d9 3c 96 80 65 3e
       -0.22295056 -0.12563458 0.026541976 0.22412333
000300 10 51 04 3e fa fa 5f be 0d dd 12 bd b0 32 ee 3d
       0.12921548 -0.21873084 -0.03585534 0.116307616
000310 b3 33 07 be 27 8a 18 3e 2f 91 4c 3c 83 9f 6d 3e
       -0.13203315 0.14896451 0.012485786 0.2320538
000320 96 f4 c5 3b 1d 81 28 be 95 52 25 bf 05 f7 26 3e
       0.00604112 -0.16455503 -0.64579135 0.16305168
000330 e7 49 27 be 7a d3 25 be 4b 81 8b bd 86 b0 1b 3e
       -0.16336785 -0.16193953 -0.0681177 0.15204057
000340 1e 98 b9 3d d3 d9 a5 be 7f 2b d5 3d 4e 6d 54 be
       0.09062217 -0.3239275 0.10408687 -0.20744821
000350 e4 72 83 be 9a cc bf be e4 a3 35 3e 34 7a 7e be
       -0.25673592 -0.37460786 0.177383 -0.24851304
000360 50 62 19 be 24 9e 8e be 29 86 de bd 3d 89 88 be
       -0.1497891 -0.27855027 -0.10865433 -0.26667204
000370 d2 8b 95 3e 74 36 da 3d bf b9 9a 3e 7c a3 4e bd
       0.29208237 0.10654917 0.30219838 -0.05044888
000380 16 ed 43 be 29 05 ac bd da de c2 bd 25 6f 04 3f
       -0.1913341 -0.08399422 -0.09515162 0.51732093
000390 43 d5 87 3e a6 d1 f6 3d db 22 3e be 48 d5 85 bc
       0.26529893 0.12051706 -0.18567984 -0.016337052
0003a0 d2 6f bc bd d0 75 dc bd b9 f0 cb bd f3 86 64 bb
       -0.092010155 -0.107646585 -0.099580236 -0.0034870475
0003b0 c9 47 90 3e 57 d9 8e bb a5 df 33 3e 40 89 43 be
       0.28179768 -0.004359405 0.17565782 -0.19095325
0003c0 be d6 a8 bc 46 7e ce be 12 bc 89 bd a5 ba 53 bd
       -0.02061021 -0.40330714 -0.06725325 -0.05169167
0003d0 9b c1 e0 3c e3 40 12 bc 5f ed 8a be 32 e9 64 3d
       0.027436068 -0.008926603 -0.27134225 0.055886455
0003e0 9e 8b 46 3e 30 4c 0f 3e 2f b2 1f bd a7 70 65 bc
       0.19389197 0.13993907 -0.03898829 -0.014003909
0003f0 c4 09 4a 3e e1 78 eb 3d b3 fa 77 3e 97 8a 57 3e
       0.19730288 0.11497665 0.24216728 0.21048962

regressors.1.lins.1.bias f4 [32]
000000 8b c0 27 bd 95 32 52 bd b7 ce 3e bd c3 57 9a bc
       -0.040955108 -0.05131777 -0.046583857 -0.018840676
000010 1e 93 fe bd 30 18 c3 3e f5 8a 5b 3a 10 7a 20 3d
       -0.12430404 0.3810439 0.0008374893 0.039178908
000020 0e af ca 3b 14 4e ad bd 0f dc 60 be cc 8b 42 be
       0.006185419 -0.08462158 -0.21958946 -0.18998641
000030 c0 52 28 3e 20 90 d2 3d 99 50 15 3d e2 6d e9 3d
       0.16437817 0.10281396 0.036453817 0.113979116
000040 b9 ed 0e 3d 99 d5 e3 3d 43 35 07 be 22 a4 ab 3d
       0.03489468 0.11124725 -0.13203911 0.08380915
000050 7d a4 bf bd 5b 46 12 3e ac a5 19 3e 40 d4 92 3e
       -0.093575455 0.14284651 0.15004605 0.2867756
000060 5e af 8b 3c e2 73 9a 3e 29 25 98 be c2 9a 38 3e
       0.017051395 0.30166537 -0.2971585 0.18027785
000070 06 2c 79 be 13 82 8c 3d 92 8a fb 3d ee 6c 73 3e
       -0.243332 0.06860747 0.122822896 0.23772022

regressors.1.lins.2.weight f4 [32, 32]
000000 aa a5 5f be a6 24 fb 3d b4 53 4a be e6 5e 13 bf
       -0.2184054 0.122628495 -0.19758493 -0.5756668
000010 9f 33 da 3e 02 b8 f6 3d ec 8f 24 bd 45 ef 42 3c
       0.4261751 0.120468155 -0.040176317 0.011897867
000020 c8 b1 3b bb 5f f6 ef 3d de 56 24 be 59 46 46 bd
       -0.0028639901 0.117169134 -0.16048762 -0.048406933
000030 c1 f3 bf 3d 5e 6b 81 3e 95 1a a1 bd 54 82 a5 be
       0.09372664 0.25277227 -0.07866398 -0.32325995
000040 d9 42 15 bd 85 28 97 3d f1 6b e9 be 97 b6 cd 3d
       -0.036440704 0.07380775 -0.45590165 0.10044592
000050 08 23 81 be 38 12 4a be d8 fb 18 3e bf ad 65 3e
       -0.2522204 -0.19733512 0.14939821 0.2242956
000060 97 58 9e bd 03 d3 b5 be f3 1e 9c 3c 18 c6 2f 3f
       -0.07731741 -0.35512552 0.019057726 0.6866164
000070 8e 95 64 3d ea ad d2 3d 64 83 a4 be 75 3f 23 be
       0.05580669 0.10287078 -0.32131493 -0.15942176
000080 a8 7f df bd 89 51 08 bd 42 0d 82 bd 63 45 81 bf
       -0.1091302 -0.033280883 -0.06350185 -1.00993
000090 c8 42 d1 3d 92 62 a2 be f9 d9 bb 3b 8a 7b 60 be
       0.10217816 -0.31715828 0.0057327715 -0.21922126
0000a0 78 be 37 be f8 a5 33 3e 49 fc 83 3d c8 e2 d7 bd
       -0.17943752 0.17543781 0.06444604 -0.10541302
0000b0 d0 1f 2f 3e c9 74 19 3e a2 3a ce bd 65 ef 5f 3d
       0.1710198 0.14985956 -0.10069777 0.054671664
0000c0 0c 0f cb be 21 b5 31 bf 04 5a f6 bb 7b 86 15 3d
       -0.39659917 -0.69417006 -0.007518055 0.036505204
0000d0 c4 35 7e be 17 4c c6 3d 75 b4 81 3c 1f 7c 5e 3e
       -0.24825197 0.09682482 0.015833119 0.21727036
0000e0 88 90 b5 bd 5d 70 40 3b b6 45 cf 3d 37 29 05 be
       -0.08865458 0.0029363849 0.10120718 -0.13004003
0000f0 c0 3b d3 be 8a e9 b4 3e 94 04 47 be 6b 38 2d be
       -0.41256523 0.35334426 -0.1943534 -0.16916053
000100 86 41 e8 be d4 2d c6 3d 13 2a c7 3d d5 2c bd bc
       -0.4536249 0.0967671 0.09724822 -0.023092667
000110 03 64 03 3e 77 2b 39 3e 6c 7a 69 3e cf 4e 49 3d
       0.1283112 0.18082987 0.22800606 0.049147423
000120 e5 ac 09 3d 38 0a 4a be ae 35 16 be 9f e0 08 3e
       0.03361215 -0.1973046 -0.14668915 0.13366936
000130 26 2e 9b 3d 4a e0 1a be f0 e2 bd 3d c2 6c 32 3e
       0.075771615 -0.15124622 0.092718005 0.174243
000140 42 4c 3c 3e 68 85 8c bc 84 92 db 3b 54 23 27 be
       0.18388465 -0.017153457 0.0067008156 -0.1632207
000150 16 ed 82 bd b3 a9 22 bc 0a 3c ab ba 3d 48 0e 3e
       -0.06392877 -0.009928155 -0.0013064158 0.13894744
000160 ec 5f 44 3e 52 f6 88 3d a9 82 92 3d 31 e1 ba 3d
       0.19177216 0.06687607 0.07153828 0.09124983
000170 e1 4f 30 3e 5f 3d 63 be de aa 76 3e 78 40 46 3e
       0.17217971 -0.2219138 0.24088618 0.1936053
000180 97 fb c9 be 6e 2e 05 bf 99 a0 2f bd 86 a9 8b be
       -0.3944976 -0.5202397 -0.042877767 -0.27277774
000190 8c 02 89 be 0b f3 c2 3d ac 7e 3f 3e 2b c2 01 be
       -0.26759756 0.09519013 0.18700665 -0.12671725
0001a0 b4 2f d2 be cb b2 0b be a9 6a 2b bd df 00 81 3e
       -0.4105202 -0.13642423 -0.041849766 0.25195977
0001b0 b1 17 17 bf b8 f3 98 3e 5e 69 8c 3d 86 df 10 be
       -0.59020525 0.29873443 0.06856035 -0.14147767
0001c0 0a ca 97 be 7a f3 b8 3e 2b ff 82 bd 4b 5f 81 3c
       -0.2964633 0.36123258 -0.06396326 0.01579251
0001d0 45 02 35 3e e3 cb e1 3c ae 5f 9f bc 70 dc a1 be
       0.17676647 0.027563041 -0.019454803 -0.31613493
0001e0 9f cf 3a 3e 45 23 a9 3c f0 81 ad bc fe c0 af be
       0.18243264 0.0206467 -0.021180123 -0.3432693
0001f0 7e ce 57 3e 6c 71 21 bd 72 77 b0 be 15 89 41 3c
       0.21074864 -0.03941481 -0.3446613 0.011812468
000200 c0 b6 a5 3e 59 2c 06 3e 8b 81 36 3e 73 9a 84 3e
       0.3236599 0.13102855 0.17822854 0.25899085
000210 f6 70 6c be 67 05 1f 3d 13 f0 59 be 2b d6 74 3e
       -0.23089966 0.03882351 -0.21282987 0.23909824
000220 1f 1f a9 be 8c 06 ab bd 8c ee c3 be 10 8b 5b be
       -0.33031556 -0.08350858 -0.38267934 -0.21439767
000230 5b 98 57 3e 22 da 39 3c 96 ab 14 bf 50 93 3e 3d
       0.21054213 0.011343511 -0.5807432 0.046527207
000240 59 9b ef 3d 1d fd e4 bd 6d b2 70 bd 32 8c ab be
       0.11699552 -0.1118109 -0.05876391 -0.33505398
000250 11 b5 2a ba aa ca f6 be e5 64 9f be 05 9a 5d bc
       -0.00065119663 -0.48201495 -0.31131664 -0.013525491
000260 c3 72 f8 3e f4 8c e9 bd ab 86 b9 3d 38 a7 87 3e
       0.48525056 -0.11403838 0.09058889 0.26494765
000270 84 6d a2 be 56 a2 20 3d 9d 93 39 bb 9e 9b 8c 3d
       -0.3172418 0.039217316 -0.0028316744 0.06865619
000280 c4 36 d3 bd 3d 47 e9 3d 74 71 0f be ab 2d 00 be
       -0.1031318 0.11390541 -0.14008123 -0.12517421
000290 a2 19 1b 3e 27 ff ee bd 68 51 72 3d cb 39 d8 3d
       0.15146497 -0.1166976 0.059159666 0.10557898
0002a0 63 b5 02 3d e6 55 17 be 5f 76 f3 bc 47 95 ac 3d
       0.031911265 -0.14778861 -0.02971953 0.0842691
0002b0 f1 54 a1 3c 68 41 85 3d 7b 23 68 3e 71 59 cc 3b
       0.019693824 0.06506616 0.22669785 0.006236248
0002c0 1b de 04 3e fd 1e 2f be 0e b6 2f bb cb 63 36 be
       0.12975352 -0.17101665 -0.0026811394 -0.17811505
0002d0 a6 c9 88 bd 65 03 43 3d 6f 06 2d 3c 8a 2d a6 3d
       -0.066790864 0.04761066 0.010560616 0.08114155
0002e0 f1 41 bc 3d b3 30 c6 3d 52 66 f4 bd b3 da 5e bd
       0.09192265 0.096772574 -0.119335786 -0.054407787
0002f0 85 8d 59 bd 68 c9 0b be eb 60 ea 3c df eb d9 3d
       -0.05311348 -0.13651049 0.028610667 0.10640692
000300 aa 0a 92 3d 18 f6 1f bd bb b6 bd bd e6 e6 9e bd
       0.0713094 -0.039053053 -0.09263369 -0.07758884
000310 f2 4e 16 bf bf 2c cf bc cd 7e a5 bd a3 25 b5 bc
       -0.5871421 -0.025289891 -0.08080826 -0.022112673
000320 70 98 dd bd 86 09 55 3e 32 ef c6 bd 20 76 cd 3e
       -0.10820091 0.20804414 -0.09713592 0.40129185
000330 71 c9 f7 3d a5 30 f9 3c 90 a9 7a 3e 73 92 cb 3e
       0.12098969 0.030418703 0.24478745 0.3976017
000340 db 22 11 be 0f 91 07 be 18 0e 3f 3e 5f ed 55 be
       -0.14173453 -0.13238929 0.1865772 -0.20891331
000350 d4 62 2f be bb 61 06 be a8 b9 c2 bd 74 55 4f 3e
       -0.17127544 -0.13123219 -0.09508067 0.20247442
000360 fa 8d 86 3e 56 1a 6e be b6 f3 1a 3c 4a 46 22 be
       0.26280195 -0.23252234 0.009457519 -0.15847126
000370 3b 2d 92 3e 1c e3 a4 3c e7 3d 84 3e e0 5b c2 be
       0.28550133 0.020127825 0.25828478 -0.3796072
000380 68 2b bf 3a 3a 59 b6 bd 41 3b 2b be b2 57 3b 3e
       0.001458508 -0.08903737 -0.16721822 0.18295172
000390 d4 8f 90 bc a7 1f 1b 3e ad a2 d5 be f4 74 01 bf
       -0.017646708 0.15148793 -0.41725674 -0.5056908
0003a0 fd 7c 10 3d c4 8a a5 3d fe 6b 75 bd 64 20 89 3e
       0.035275448 0.08083108 -0.059917443 0.26782525
0003b0 db 2e 2a bf f9 03 7f be ef 51 40 3e 11 de c2 3d
       -0.66477746 -0.24903859 0.18781255 0.09515012
0003c0 4f 41 73 bd d7 c8 c0 be ec 40 17 bf eb dd 46 bf
       -0.059388455 -0.3765323 -0.5908344 -0.7768237
0003d0 d5 12 ee be 5f 24 50 bf a4 74 6b bd 45 f3 00 3e
       -0.46498743 -0.813055 -0.057484284 0.125928
0003e0 31 7a 32 be 99 00 59 bf 27 14 de 3c 4f 4a 6c bf
       -0.17429425 -0.84766537 0.027109219 -0.92300886
0003f0 71 97 54 bf b7 1e 5e be 90 a0 2c 3e 37 2d 82 3d
       -0.8304358 -0.21691404 0.16858125 0.0635628

regressors.1.lins.2.bias f4 [32]
000000 82 1f 16 3d 34 33 e0 3d 99 57 48 3e 06 be 4f bc
       0.036651142 0.10947266 0.19564666 -0.012679582
000010 11 2c 4a be cc b9 56 3e 95 37 51 be ca d4 67 3e
       -0.19743372 0.20969313 -0.20431359 0.22639766
000020 66 df 58 be a7 17 1b be d0 76 6b 3e 3c 5c 0f 3e
       -0.2117897 -0.15145741 0.22994542 0.14000028
000030 f3 a4 80 be a0 41 88 be 00 69 26 3e fc 19 a8 3e
       -0.25125846 -0.26612568 0.16250992 0.32832325
000040 54 2b a1 3e 1f 32 ac bd 5a 16 8f 3d 95 93 81 bc
       0.3147837 -0.08407997 0.06986685 -0.015817443
000050 61 a5 46 be c5 59 d7 bd 7a 17 f0 bd d7 6c ce bd
       -0.19399025 -0.10515169 -0.11723228 -0.10079353
000060 88 00 60 3d 80 02 d3 bd 64 38 63 bd 4c 6e d2 3d
       0.054688007 -0.10303211 -0.0554737 0.10274944
000070 b1 d7 6d 3c bd 8f c0 bc b4 f8 90 bc 10 9d 2f 3d
       0.014516757 -0.02350604 -0.017696716 0.042874396

regressors.1.lins.3.weight f4 [1, 32]
000000 a6 5a 58 3d 63 2a cd bd c9 a0 1b 3e 51 f1 50 be
       0.052820824 -0.1001785 0.15198053 -0.20404555
000010 f8 2b 39 be 8d 6c 08 3d f1 53 75 bd 15 92 af be
       -0.18083179 0.033306647 -0.059894506 -0.3429114
000020 15 7d 19 be 11 ec be bd a3 1f 7d be d8 ea 87 be
       -0.14989121 -0.0932237 -0.247191 -0.2654636
000030 46 64 a9 bd 40 22 b7 bd 9f 4b be bd 13 54 20 3d
       -0.08271079 -0.089420795 -0.09291767 0.03914268
000040 65 c4 f8 3d b0 8b bf be 4a 26 aa bd 24 c8 18 be
       0.12146834 -0.3741126 -0.08308084 -0.14920098
000050 0a c4 d1 be 9e 4b 04 3d a4 a3 a6 bd 64 13 b4 bb
       -0.40969878 0.032298677 -0.08136681 -0.0054954756
000060 66 60 5b be 77 1f 02 be 21 6f ff bc c0 01 54 3d
       -0.21423492 -0.12707315 -0.03118092 0.05175948
000070 b1 67 cc 3b bb 37 48 bd 79 c8 a5 bd 0b 6f 1e be
       0.006237947 -0.048881274 -0.08094878 -0.15472047
