baseline/DLPL-CAP/models_dlpl-cap-regressor/sandwich+ultra8t_to_ssram+digtime+timing_ctrl+array_128_32_8t/dlpl-cap-regressor_nh_2_tsk_regression_ngl_4_nhl_4_hd_32_us_1_bn_0_dp_0.0_epoch_14_20250402_165507.pth (torch, 64130 bytes, 21 tensors)

regressors.0.lins.0.weight f4 [32, 64]
0.013922437 0.06329822 0.06994985 0.06213109 0.22663324 0.058814812 0.11924698 -0.02367948
-0.29919425 -0.25211513 -0.4829165 0.13060267 -0.1107212 0.08879017 -0.3044151 -0.29409304
-0.068949394 0.06945019 0.20976418 -0.13594618 -0.053198323 -0.016253099 0.0388881 -0.20112179
0.1515307 -0.16052853 -0.11805473 -0.21225473 -0.11454718 0.16895424 -0.10327305 0.10710741
-0.019877238 0.12000451 -0.023845486 0.019791223 -0.060537454 0.20789874 -0.0542181 0.19754572
0.089225374 0.19277912 0.06755632 0.16019537 -0.35176855 0.18280004 -0.25345898 -0.050828468
-0.1507337 -0.66609883 -0.3470639 -0.5599252 -0.07696642 0.04601714 -0.15094595 -0.19902983
-0.2259168 -0.14023781 0.007761279 -0.22095443 -0.11956468 0.23452306 0.11300291 -0.085368544
-0.11741411 -0.017723769 -0.102336675 -0.0377886 0.0814956 -0.038372383 -0.044595074 0.08335657
-0.06477952 -0.011908561 -0.029589765 0.016291609 -0.14839466 -0.049593765 0.07596949 0.07079045
0.009185332 -0.13440864 -0.09029673 -0.12175867 0.09789753 0.01002565 -0.042292874 0.052726425
-0.068639584 0.00568241 0.079297885 -0.0673818 -0.021330968 -0.07802406 0.062487766 0.04153057
-0.12716368 -0.056174427 -0.098472044 0.116994806 -0.14491303 0.033407915 -0.047810636 -0.0795462
-0.090185 0.06558341 -0.08928017 -0.124002315 -0.05657576 0.050264012 -0.07529822 -0.13209093
0.07124831 -0.13299935 -0.11651166 0.039525867 0.027275667 -0.11301844 -0.058897592 0.07400954
-0.072195604 0.041220855 0.026132196 0.10391379 0.10782866 -0.039587177 0.039115295 -0.10736222
0.07062909 -0.13155138 -0.27596357 -0.056224935 0.13382564 -0.2277206 0.21716473 -0.15719014
-0.32520965 -0.006687162 -0.21043576 -0.065074764 -0.24269359 0.1858555 0.17186576 -0.2247389
-0.2485965 -0.27843413 -0.23756957 0.12336522 0.07665396 -0.03929548 -0.06413671 0.24543607
-0.021831261 0.052038386 -0.03461289 -0.25201976 0.055635616 -0.40720245 -0.06664626 0.0077404873
-0.053613495 -0.07621251 0.094969146 -0.012860079 -0.12609592 -0.28835246 0.19334576 -0.27198732
0.13753273 0.13327293 0.121668406 -0.34607252 0.24450867 -0.10851023 0.018592123 0.024886547
0.13440178 0.15629853 -0.09242735 0.10759336 0.1151984 0.007887557 -0.054508988 -0.024477035
-0.104100294 -0.46072 -0.1689884 -0.114362024 0.1074584 -0.008561536 0.021573216 -0.24277098
-0.082527205 -0.2610266 -0.54088545 -0.0325879 -0.041456185 -0.18740717 -0.097359955 0.004850851
0.19140212 -0.40881377 0.11870786 -0.08860424 -0.12790148 0.22088046 -0.85749465 -0.05068311
-0.47274196 -0.077232905 -0.25715515 0.17121612 -0.080139294 0.12462273 -0.35815325 0.27433878
-0.03191771 -0.093709834 0.38147753 0.07641052 0.015551403 -0.3003323 -0.091207385 0.00032933173
0.1268 -0.13381885 -0.12057819 0.019649586 -0.08952158 -0.2256254 -0.01265927 0.16637203
-0.11141177 -0.053478714 -0.008800895 0.080246896 -0.23689167 0.20788263 -0.66083366 0.025366537
0.07551841 -0.09949248 -0.08548593 0.13095026 0.07683091 -0.04933463 -0.23644118 0.18108176
0.16411074 0.08857607 -0.036321238 0.064180315 0.10159175 0.19472827 0.12027314 0.02412242
00000000: ef1a 643c 7fa2 813d de41 8f3d 2b7d 7e3d
00000010: 8b12 683e cde7 703d c337 f43d 78fb c1bc
00000020: fd2f 99be 3c15 81be d540 f7be b5bc 053e
00000030: ccc1 e2bd 9fd7 b53d 4cdc 9bbe 5d93 96be
00000040: 5735 8dbd e73b 8e3d 6ccc 563e 7a35 0bbe
00000050: 7ce6 59bd 3825 85bc 2149 1f3d dff2 4dbe
00000060: dd2a 1b3e 9761 24be aec6 f1bd 4e59 59be
00000070: b697 eabd 5702 2d3e d280 d3bd 215b db3d
00000080: 97d5 a2bc edc4 f53d 9c57 c3bc 3421 a23c
00000090: 1ff6 77bd 68e3 543e cc13 5ebd 6d49 4a3e
000000a0: cbbb b63d e467 453e f85a 8a3d 410a 243e
000000b0: 021b b4be ef2f 3b3e 60c5 81be 8331 50bd
000000c0: ef59 1abe 7485 2abf 5cb2 b1be 4257 0fbf
000000d0: 92a0 9dbd 787c 3c3d 9391 1abe 7ace 4bbe
000000e0: bc56 67be 809a 0fbe 5452 fe3b e141 62be
000000f0: 54de f4bd d026 703e 126e e73d b4d5 aebd
00000100: cf76 f0bd 7031 91bc e495 d1bd 38c8 1abd
00000110: 2ae7 a63d 5c2c 1dbd 53a9 36bd d9b6 aa3d
00000120: 20ab 84bd 201c 43bc 3c66 f2bc fb75 853c
00000130: c5f4 17be d522 4bbd e495 9b3d 95fa 903d
00000140: 137e 163c 6ba2 09be 7eed b8bd 9c5c f9bd
00000150: 807e c83d a042 243c 4b3b 2dbd aaf7 573d
00000160: e992 8cbd 8333 ba3b ee66 a23d 78ff 89bd
00000170: 48be aebc 14cb 9fbd 2cf3 7f3d f51b 2a3d
00000180: 3237 02be 2817 66bd b6ab c9bd f99a ef3d
00000190: 1564 14be bdd6 083d 16d5 43bd 1ee9 a2bd
000001a0: eab2 b8bd 9850 863d 86d8 b6bd edf4 fdbd
000001b0: fcbb 67bd a3e1 4d3d f435 9abd d842 07be
000001c0: a2ea 913d fb30 08be aa9d eebd e0e5 213d
000001d0: 3871 df3c 3676 e7bd 9a3e 71bd 5092 973d
000001e0: 4adb 93bd 33d7 283d 3013 d63c c1d0 d43d
000001f0: 46d5 dc3d 2a26 22bd 5c37 203d b9e0 dbbd
00000200: fca5 903d 68b5 06be 194b 8dbe 1e4c 66bd
00000210: 9709 093e 972f 69be 6e60 5e3e 74f6 20be
00000220: e181 a6be fb1f dbbb 797c 57be eb45 85bd
00000230: ab84 78be e750 3e3e 94fd 2f3e f421 66be
00000240: 1590 7ebe eb8e 8ebe 7045 73be e8a6 fc3d
00000250: c0fc 9c3d 4cf4 20bd 1b5a 83bd 9853 7b3e
00000260: 79d7 b2bc 3426 553d 3fc6 0dbd bc08 81be
00000270: 2ce2 633d d77c d0be d67d 88bd eaa3 fd3b
00000280: d399 5bbd 4e15 9cbd 2f7f c23d 15b3 52bc
00000290: 4a1f 01be efa2 93be 6efc 453e ec41 8bbe
000002a0: 61d5 0c3e b378 083e 492d f93d 6b30 b1be
000002b0: 7b60 7a3e 9d3a debd 824e 983c dfde cb3c
000002c0: 9fa0 093e b90c 203e 8d4a bdbd e859 dc3d
000002d0: 24ed eb3d d03a 013c d144 5fbd 1084 c8bc
000002e0: 8932 d5bd 7ee3 ebbe 4c0b 2dbe a336 eabd
000002f0: 2613 dc3d af45 0cbc 50ba b03c f598 78be
00000300: 0604 a9bd 47a5 85be 7877 0abf e47a 05bd
00000310: f6cd 29bd aae7 3fbe a864 c7bd e3f3 9e3b
00000320: ebfe 433e 0a50 d1be 1b1d f33d 2476 b5bd
00000330: 9bf8 02be 7d2e 623e c584 5bbf 1899 4fbd
00000340: 3c0b f2be 492c 9ebd d7a9 83be 4753 2f3e
00000350: 1220 a4bd 343a ff3d dd5f b7be 2276 8c3e
00000360: 25bc 02bd f1ea bfbd 0651 c33e 1e7d 9c3d
00000370: 50cb 7e3c 28c5 99be f0ca babd 28aa ac39
00000380: dcd7 013e cf07 09be b3f1 f6bd 2bf8 a03c
00000390: 1757 b7bd 580a 67be d468 4fbc 6e5d 2a3e
000003a0: db2b e4bd 7f0c 5bbd a131 10bc 7c58 a43d
000003b0: bb93 72be 2fdf 543e 652c 29bf 7ccd cf3c
000003c0: 65a9 9a3d b7c2 cbbd 3f13 afbd d317 063e
000003d0: 8659 9d3d 1c13 4abd a31d 72be 7f6d 393e
000003e0: a50c 283e 5f67 b53d 94c5 14bd f870 833d
000003f0: 560f d03d d966 473e c451 f63d 629c c53c

regressors.0.lins.0.bias f4 [32]
-0.025107086 -0.102653876 0.07439783 -0.092274085 0.14516199 -0.020320978 0.084489375 0.13832404
0.14907278 -0.010805486 0.060627542 -0.08872258 -0.03710013 -0.106382474 -0.052492533 -0.10692681
-0.053780336 -0.12247798 -0.12782879 0.14678861 -0.11668688 0.22105698 0.17931148 -0.18048808
-0.06687051 -0.13569367 0.12975164 -0.016940286 0.1577849 -0.115490004 0.08350447 -0.17892075
00000000: 60ad cdbc 323c d2bd e45d 983d 32fa bcbd
00000010: 58a5 143e 2e78 a6bc c408 ad3d d1a4 0d3e
00000020: 89a6 183e 7e09 31bc 9654 783d 2fb4 b5bd
00000030: 4ef6 17bd 0edf d9bd 6902 57bd 72fc dabd
00000040: c548 5cbd bcd5 fabd 8de5 02be c14f 163e
00000050: 88f9 eebd c35c 623e 6e9d 373e ded1 38be
00000060: 68f3 88bd 48f3 0abe 9ddd 043e 5bc6 8abc
00000070: 5d92 213e 0686 ecbd 6404 ab3d 0037 37be

regressors.0.lins.1.weight f4 [32, 32]
-0.51235694 0.008924016 -0.44582725 0.014241147 -0.3314267 -0.17888717 0.12680581 -0.55964273
-0.53810376 0.069584794 -0.023339855 -0.26441547 0.16278552 0.014791215 0.006382899 0.20489551
-0.10217591 0.020051725 -0.019165851 -0.1342749 -0.25623563 0.035559956 -0.038004924 0.26713458
0.13897341 -0.032057106 -0.31379083 -0.03702352 -0.012901037 -0.15316404 -0.062446393 0.101547904
-0.38109982 -0.13662228 -0.0933105 -0.5089089 0.20579623 -0.0591926 -0.086562976 -0.15560423
0.119804725 0.10545175 0.08234689 -0.13584682 0.108448416 0.24484248 -0.13113002 0.13553134
-0.026684608 -0.5371611 -0.17898674 -0.17895377 0.11273267 0.10112533 -0.29012412 -0.08533019
0.040705398 -0.09258823 0.060516372 -0.28722432 0.045843467 0.32998705 0.06217897 0.1355605
0.27826867 -0.022590099 -0.2817074 -0.3798671 -0.922785 -0.060078204 -0.040799744 -0.108517796
0.014713591 -0.26962516 -0.17414585 0.08444203 -0.47995558 -0.36524427 -0.10156516 -0.25554237
0.0098526925 0.03574275 -0.0183837 -0.13687125 -0.57506037 -0.3246629 0.069707654 -0.05088537
-0.11556454 0.0774242 0.07327235 -0.15737921 0.07420475 -0.078318775 -0.22908458 -0.20182265
0.084815 0.027994707 0.0091813365 0.16017228 -0.4035536 -0.20963734 -0.4030189 -0.23851366
0.059321735 -0.13653174 -0.16136445 0.035919614 -0.067728765 -0.53897345 -0.37622446 -0.1400642
0.087171115 -0.10572919 0.10944667 -0.50643915 -0.3730752 -0.19524375 0.069855504 0.08581481
-0.2210658 -0.041997775 -0.45212042 -0.31507275 -0.15792145 0.027821409 -0.033608582 -0.4427902
0.017520454 0.008708495 -0.02850254 -0.005320044 -0.09250907 0.17335536 0.06770593 0.041562475
-0.04145386 0.062643 -0.04790156 -0.06579704 -0.0315823 0.07826792 0.15954018 0.10681287
-0.2208525 -0.07072595 0.22107688 0.010862171 -0.08785323 -0.074800014 -0.2599643 -0.059198134
-0.05563719 -0.08989596 -0.037537016 -0.11343752 0.010966681 0.15709879 -0.1882664 0.03631786
-0.61136556 0.14151119 -0.7811612 0.0347057 -0.050420977 0.112082735 0.03569205 -0.16314821
0.15602268 0.030757345 -0.19320716 -0.027413007 0.1939706 -0.039916854 -0.37813842 0.1333052
-0.14102025 -0.14101231 -0.23846632 -0.28948897 0.02420206 -0.39499786 0.037908617 -0.42512697
0.15451613 -0.054003492 0.12532224 -0.38362008 0.07317951 0.021460494 0.12378275 -0.36205414
0.07223307 -0.08781553 -0.04188901 -0.28281862 -0.33057445 0.14014402 -0.13429052 -0.011850834
-0.0529341 0.11846094 0.14193536 -0.30606255 -0.29349303 0.020817544 0.13347183 -0.021660449
-0.2525877 0.08637043 0.082564816 0.15700747 0.07784062 -0.520531 -0.49442124 0.020354103
0.0077075465 0.03440513 0.047087133 0.020016393 -0.21690165 -0.17476505 0.10426652 -0.057452198
-0.05254678 -0.09791021 0.18834913 0.07881292 -0.16063686 -0.08922153 -0.32248822 0.05536869
-0.020256111 0.010031268 -0.07162855 -0.1837941 -0.22849068 0.13741261 0.012727063 0.20823017
-0.26645762 -0.27506316 0.28865555 0.13757464 -0.024740601 -0.14742559 0.12077015 -0.81263715
0.1849297 -0.05863807 -0.12986772 -0.12997055 -0.3467487 0.58087724 0.051721893 0.012353521
00000000: d329 03bf 0936 123c 7843 e4be b353 693c
00000010: c3b0 a9be 332e 37be 62d9 013e bf44 0fbf
00000020: 2bc1 09bf 7982 8e3d 3933 bfbc 7761 87be
00000030: 3fb1 263e da56 723c a327 d13b 21d0 513e
00000040: 9a41 d1bd 8443 a43c b401 9dbc 5c7f 09be
00000050: 5131 83be 51a7 113d 0dab 1bbd ddc5 883e
00000060: 0c4f 0e3e 504e 03bd 31a9 a0be f9a5 17bd
00000070: df5e 53bc 09d7 1cbe cac7 7fbd 59f8 cf3d
00000080: 841f c3be b6e6 0bbe 9319 bfbd db47 02bf
00000090: 3fbc 523e f173 72bd ee47 b1bd b756 1fbe
000000a0: 2e5c f53d 16f7 d73d 7ca5 a83d 6e1b 0bbe
000000b0: 341a de3d fdb7 7a3e f346 06be bac8 0a3e
000000c0: ae99 dabc 6483 09bf 4d48 37be a83f 37be
000000d0: 63e0 e63d cc1a cf3d 268b 94be 98c1 aebd
000000e0: b4ba 263d e69e bdbd 04e0 773d 110f 93be
000000f0: 5cc6 3b3d 10f4 a83e 60af 7e3d 5fd0 0a3e
00000100: 3b79 8e3e df0e b9bc f43b 90be f17d c2be
00000110: a33b 6cbf 9014 76bd a21d 27bd 943e debd
00000120: 4611 713c 4f0c 8abe 4a53 32be f1ef ac3d
00000130: bdbc f5be 4c01 bbbe 6501 d0bd 73d6 82be
00000140: 306d 213c fd66 123d 6a99 96bc fa27 0cbe
00000150: 2837 13bf 373a a6be e3c2 8e3d 2d6d 50bd
00000160: 1aad ecbd 9490 9e3d d00f 963d 0428 21be
00000170: a9f8 973d 9865 a0bd 2695 6abe 99aa 4ebe
00000180: 7db3 ad3d 2855 e53c 516d 163c 3404 243e
00000190: 949e cebe 2cab 56be 7e58 cebe ed3c 74be
000001a0: 59fb 723d face 0bbe b93c 25be 7220 133d
000001b0: 61b5 8abd 2afa 09bf 7ea0 c0be fd6c 0fbe
000001c0: c586 b23d 8c88 d8bd 9325 e03d ffa5 01bf
000001d0: b603 bfbe faed 47be 6710 8f3d adbf af3d
000001e0: 135f 62be dc05 2cbd 547c e7be 3751 a1be
000001f0: 29b6 21be b9e9 e33c 27a9 09bd 66b5 e2be
00000200: 0e87 8f3c 13ae 0e3c 297e e9bc c353 aebb
00000210: 6575 bdbd 1184 313e 68a9 8a3d 6a3d 2a3d
00000220: 86cb 29bd f94a 803d 6d34 44bd 99c0 86bd
00000230: 715c 01bd ee4a a03d 805e 233e b5c0 da3d
00000240: 2827 62be c4d8 90bd fa61 623e 3ff7 313c
00000250: 65ec b3bd c030 99bd 0a1a 85be be79 72bd
00000260: d2e3 63bd 601b b8bd 6ac0 19bd ee51 e8bd
00000270: 98ad 333c 81de 203e e8c8 40be 09c2 143d
00000280: 7482 1cbf 4fe8 103e 2efa 47bf 9027 0e3d
00000290: 3a86 4ebd a28b e53d d431 123d 5310 27be
000002a0: 69c4 1f3e d4f6 fb3c 19d8 45be 3e91 e0bc
000002b0: 3ba0 463e db7f 23bd 5c9b c1be 2981 083e
000002c0: 9d67 10be 8865 10be 8430 74be e637 94be
000002d0: 6643 c63c 293d cabe 1146 1b3d 3eaa d9be
000002e0: 7a39 1e3e c432 5dbd 7954 003e da69 c4be
000002f0: 24df 953d ebcd af3c cf81 fd3d 295f b9be
00000300: efee 933d a1d8 b3bd d093 2bbd 9acd 90be
00000310: 0e41 a9be ea81 0f3e 7483 09be 002a 42bc
00000320: 6dd1 58bd a69b f23d 8157 113e 3bb4 9cbe
00000330: b844 96be 8e89 aa3c d7ac 083e 4171 b1bc
00000340: 2d53 81be fbe2 b03d be17 a93d 91c6 203e
00000350: e76a 9f3d 8541 05bf c824 fdbe a6bd a63c
00000360: 968f fc3b 65ec 0c3d 70de 403d 6bf9 a33c
00000370: 771b 5ebe 9cf5 32be af89 d53d ff52 6bbd
00000380: 4b3b 57bd 2685 c8bd 98de 403e ab68 a13d
00000390: fd7d 24be c7b9 b6bd 2d1d a5be 48ca 623d
000003a0: 25f0 a5bc 305a 243c fdb1 92bd 8534 3cbe
000003b0: 76f9 69be e4b5 0c3e 2c85 503c 4a3a 553e
000003c0: 226d 88be 14d5 8cbe a9ca 933e 5ee0 0c3e
000003d0: cdac cabc bcf6 16be 5756 f73d fd08 50bf
000003e0: 365e 3d3e 792e 70bd 0bfc 04be 0017 05be
000003f0: 0c89 b1be 5fb4 143f 56da 533d 6c66 4a3c

regressors.0.lins.1.bias f4 [32]
-0.09697118 -0.11777207 -0.087640665 -0.13037615 -0.24131061 -0.24084766 -0.06842042 -0.052552015
0.11732385 -0.08559553 0.19212057 -0.15302289 -0.31622484 -0.074301675 0.22062235 -0.29861373
-0.1635445 0.34692904 -0.017403297 0.10861566 0.22225589 0.016261838 -0.39453384 -0.0635311
-0.17236789 -0.09741158 -0.039867554 -0.27703628 0.08200498 0.037025716 0.09374079 0.09879462
00000000: d398 c6bd 7c32 f1bd f37c b3bd 5381 05be
00000010: 211a 77be c5a0 76be 0120 8cbd c840 57bd
00000020: 7d47 f03d b64c afbd 41bb 443e 08b2 1cbe
00000030: 39e8 a1be 7a2b 98bd d3ea 613e e6e3 98be
00000040: 3678 27be afa0 b13e 5c91 8ebc e371 de3d
00000050: 0c97 633e 8c37 853c 5700 cabe 981c 82bd
00000060: 3581 30be b97f c7bd 294c 23bd b3d7 8dbe
00000070: 3af2 a73d 47a8 173d 2cfb bf3d d554 ca3d

regressors.0.lins.2.weight f4 [32, 32]
0.149798 0.10554538 -0.06830978 -0.07156592 -0.0036311827 -0.16705506 -0.103000514 -0.10066096
0.1371529 -0.105489366 -0.109314404 -0.13086642 -0.017650656 -0.10532687 -0.15690514 0.1712681
-0.06719177 -0.013046093 0.023194633 0.009438892 0.051328603 0.07900612 -0.067185596 -0.07045069
-0.020712331 -0.1660615 -0.09384482 0.07627707 -0.0021223677 -0.11917375 -0.11488209 -0.056698933
0.045194823 0.30353647 -0.13413823 -0.11231576 -0.28692126 0.07094546 -0.21535417 -0.22607084
-0.24013738 -0.035721514 -0.30954963 0.036091994 -0.0029843124 -0.2881476 0.022372337 0.044733286
0.41828626 -0.043679867 -0.12569156 0.1707328 0.16587305 0.04386665 0.17493065 0.21401703
0.027774584 0.052350827 -0.35580805 -0.14551593 -0.12346449 -0.089856856 0.024339326 0.09483891
0.08647389 -0.14765859 -0.14002812 -0.12492308 -0.012276111 0.1569192 -0.30776867 -0.36312446
-0.45791623 0.08857384 0.07910499 0.109476335 0.10911931 0.011089086 -0.045276947 0.3163261
0.30187857 0.08608544 -0.0076021077 -0.14250799 0.12749076 0.009326894 0.26449955 0.26642904
-0.31099886 -0.0023804593 0.3512861 0.030694015 -0.11852645 0.17342527 0.05890236 0.03493749
-0.084000394 -0.068572134 -0.18047094 -0.034899667 -0.12894021 0.07455726 -0.055695873 -0.013895133
0.0917312 0.06787144 -0.047173638 -0.019071648 -0.032880176 -0.15499902 -0.1468139 -0.006035781
0.14971787 -0.050980184 0.0541824 0.041344598 -0.1740859 0.06252231 0.057667483 -0.13129112
-0.11796661 -0.13341822 -0.101144664 -0.0877894 -0.05154404 0.017001651 -0.1256106 -0.15429795
-0.14937705 -0.106845565 0.005382287 -0.08407615 -0.10788589 0.14903271 -0.04572351 -0.1613234
0.08365741 -0.05548748 -0.16092272 0.13527136 -0.060693458 -0.12799174 -0.039419558 -0.049436715
0.123707116 0.05791543 -0.026296148 -0.050678592 0.013000114 -0.008484566 -0.11757396 0.01286715
0.04208811 0.19120929 -0.17699434 -0.1693733 -0.1603531 -0.24715634 -0.09036681 0.02955538
-0.17887901 0.06626667 0.25480986 0.08410815 -0.29525146 0.0581529 0.11098438 0.08218771
-0.2565028 0.1095905 0.05215232 0.023030344 0.079207085 -0.08772085 -0.19881192 -0.16543567
-0.17058054 -0.15119748 0.08342145 0.06825195 -0.03051392 -0.15569906 0.02766688 -0.08518457
-0.056084286 -0.17089194 -0.18983959 -0.12638953 -0.05067494 -0.26574567 -0.24350877 -0.08927766
-0.043684762 0.024207931 0.0024930025 -0.04730243 -0.08687056 -0.3700899 -0.12396818 -0.13370156
-0.34950408 -0.11374981 -0.09729083 0.07673744 0.22565065 0.12787712 -0.061110463 0.10644206
-0.24453211 0.0641205 0.07593986 -0.047829136 -0.12582168 -0.044087637 0.03944419 -0.3047597
0.012909728 -0.22532086 0.00284674 -0.2973564 -0.38574544 -0.039925218 0.052357037 -0.19291373
-0.29707646 -0.37169552 -0.18092802 0.018249052 -0.044657763 -0.039908297 0.118302405 -0.09424559
0.015436848 0.070447095 -0.0029095563 -0.11725671 -0.056438513 -0.2619442 -0.08512119 0.058604565
-0.14772753 -0.01963457 -0.21172498 -0.13135813 -0.20521075 -0.026934443 0.38165137 0.08037987
-0.3255795 -0.084737614 0.13453142 0.03415133 -0.08989277 -0.055452496 0.13360842 -0.16939026
00000000: a664 193e 2d28 d83d ffe5 8bbd 2791 92bd
00000010: 23f9 6dbb 7b10 2bbe eff1 d2bd 5527 cebd
00000020: cf71 0c3e cf0a d8bd 3be0 dfbd d901 06be
00000030: 1c98 90bc 9db5 d7bd beab 20be e860 2f3e
00000040: d79b 89bd 48bf 55bc ac02 be3c 95a5 1a3c
00000050: f13d 523d f6cd a13d 9a98 89bd 7448 90bd
00000060: e8ac a9bc 070c 2abe b731 c0bd 2737 9c3d
00000070: 6c17 0bbb 5e11 f4bd 4d47 ebbd 243d 68bd
00000080: 351e 393d 2269 9b3e 885b 09be ce05 e6bd
00000090: 58e7 92be da4b 913d ce85 5cbe 1d7f 67be
000000a0: 93e6 75be b950 12bd 4a7d 9ebe 33d5 133d
000000b0: 7494 43bb 1588 93be 3146 b73c 403a 373d
000000c0: 9e29 d63e a9e9 32bd 4ab5 00be 94d4 2e3e
000000d0: a0da 293e 84ad 333d 0521 333e 4827 5b3e
000000e0: 8687 e33c d26d 563d 792c b6be 2102 15be
000000f0: f3da fcbd df06 b8bd 4463 c73c e73a c23d
00000100: 3919 b13d d033 17be 8863 0fbe acd7 ffbd
00000110: be21 49bc 6daf 203e db93 9dbe 73eb b9be
00000120: ff73 eabe 3466 b53d cc01 a23d 2135 e03d
00000130: f279 df3d ffae 353c 5274 39bd 7ff5 a13e
00000140: d48f 9a3e 904d b03d 1a1b f9bb 9ded 11be
00000150: f08c 023e d4cf 183c 7c6c 873e 6369 883e
00000160: 3e3b 9fbe 7b01 1cbb c6db b33e 0472 fb3c
00000170: ffbd f2bd 6596 313e 9a43 713d 9d1a 0f3d
00000180: 6608 acbd 8c6f 8cbd 60cd 38be f4f2 0ebd
00000190: e708 04be 7ab1 983d 5b21 64bd 69a8 63bc
000001a0: 91dd bb3d 2e00 8b3d 2539 41bd 253c 9cbc
000001b0: 5dad 06bd 10b8 1ebe 6256 16be cdc7 c5bb
000001c0: a44f 193e 99d0 50bd 5dee 5d3d f458 293d
000001d0: 9343 32be b20b 803d bd34 6c3d 2e71 06be
000001e0: 7a98 f1bd c99e 08be ef24 cfbd eeca b3bd
000001f0: d81f 53bd 0c47 8b3c 11a0 00be 4800 1ebe
00000200: 4cf6 18be d9d1 dabd e55d b03b 1e30 acbd
00000210: 47f3 dcbd 089c 183e 9348 3bbd f631 25be
00000220: 9454 ab3d d746 63bd edc8 24be 9384 0a3e
00000230: b499 78bd 4410 03be 6776 21bd 277e 4abd
00000240: 285a fd3d bb38 6d3d 056b d7bc 5b94 4fbd
00000250: 6efe 543c d902 0bbc 9eca f0bd bdd0 523c
00000260: 9564 2c3d 5ecc 433e 013e 35be 3270 2dbe
00000270: 9a33 24be 8d16 7dbe 3c12 b9bd 201e f23c
00000280: 0f2c 37be d2b6 873d 7076 823e e540 ac3d
00000290: 332b 97be bc31 6e3d c74b e33d 0852 a83d
000002a0: 5654 83be fc70 e03d ac9d 553d 22aa bc3c
000002b0: 5337 a23d fda6 b3bd 5a95 4bbe f867 29be
000002c0: aaac 2ebe 83d3 1abe ddd8 aa3d aec7 8b3d
000002d0: 54f8 f9bc 936f 1fbe a7a5 e23c 3f75 aebd
000002e0: a3b8 65bd 4cfe 2ebe 4f65 42be 426c 01be
000002f0: 8790 4fbd d10f 88be 5d5a 79be 35d7 b6bd
00000300: cbee 32bd b64f c63c a461 233b 31c0 41bd
00000310: 31e9 b1bd 6c7c bdbe 07e3 fdbd 10e9 08be
00000320: 33f2 b2be a9f5 e8bd 6a40 c7bd 8528 9d3d
00000330: f710 673e 38f2 023e f74e 7abd 4bfe d93d
00000340: a066 7abe 9c51 833d 5b86 9b3d 7ce8 43bd
00000350: 66d7 00be 3d95 34bd 3b90 213d 7709 9cbe
00000360: 5383 533c 83ba 66be 5f90 3a3b 193f 98be
00000370: 6d80 c5be a088 23bd 5574 563d 2d8b 45be
00000380: 681a 98be e04e bebe 3245 39be 097f 953c
00000390: 0feb 36bd e276 23bd 8848 f23d d503 c1bd
000003a0: d5ea 7c3c 9146 903d 41ae 3ebb 4924 f0bd
000003b0: 122c 67bd 8d1d 86be 0554 aebd 570b 703d
000003c0: e345 17be aed8 a0bc 6fce 58be bf82 06be
000003d0: c422 52be 9fa5 dcbc cf67 c33e 349e a43d
000003e0: 5bb2 a6be ea8a adbd 9bc2 093e 44e2 0b3d
000003f0: b319 b8bd 2822 63bd a5d0 083e a474 2dbe

regressors.0.lins.2.bias f4 [32]
-0.1551843 -0.124690354 -0.31215805 -0.15678008 -0.17416774 0.12158336 0.1943454 -0.27664673
-0.21035384 0.21484308 -0.035438552 -0.030421082 0.4494256 0.39420947 -0.17263715 0.038460426
0.3491882 -0.10980666 -0.23156269 0.29149866 -0.23504482 0.29291874 -0.24726126 -0.12520263
-0.094363056 -0.18512468 -0.101030506 0.2879347 -0.08543615 0.12989022 0.32909247 0.01614521
00000000: a2e8 1ebe a85d ffbd 2ed3 9fbe f58a 20be
00000010: 0759 32be b200 f93d 7b02 473e a4a4 8dbe
00000020: ff66 57be d3ff 5b3e 0428 11bd a235 f9bc
00000030: 1d1b e63e d3d5 c93e cbc7 30be ae88 1d3d
00000040: ccc8 b23e 50e2 e0bd c51e 6dbe 503f 953e
00000050: 97af 70be 72f9 953e 0e32 7dbe 1e35 00be
00000060: 6b41 c1bd 5391 3dbe 15e9 cebd 2d6c 933e
00000070: 26f9 aebd f101 053e cf7e a83e f642 843c

regressors.0.lins.3.weight f4 [1, 32]
0.11898772 -0.2402754 -0.16605295 -0.06596317 -0.10039395 -0.041733418 0.09667416 0.019019745
0.014721939 0.037117243 -0.03683813 -0.16736318 0.24053916 0.16838594 -0.1750075 -0.010150445
0.105692446 -0.029546648 -0.019583642 0.045953088 -0.19771276 0.13441221 0.041024532 0.03078296
0.0046799295 -0.15279518 -0.054090265 0.15333426 0.008898163 0.094879806 0.065402925 -0.0025813032
00000000: d5af f33d c10a 76be c909 2abe b317 87bd
00000010: 589b cdbd a9f0 2abd 1afd c53d 4ccf 9b3c
00000020: 4a34 713c 4008 183d 94e3 16bd 4161 2bbe
00000030: e64f 763e 5d6d 2c3e 2b35 33be 0d4e 26bc
00000040: 4875 d83d d00b f2bc e06d a0bc 4e39 3c3d
00000050: 3775 4abe 5ba3 093e 5709 283d 8c2c fc3c
00000060: 185a 993b 5776 1cbe c18d 5dbd a803 1d3e
00000070: 9ac9 113c 5850 c23d f8f1 853d 152b 29bb

regressors.1.lins.0.weight f4 [32, 64]
0.26777035 -0.15781793 0.11155925 0.0044826567 -0.1109878 -0.29636332 -0.21568607 0.13476156
-0.0061138426 -0.5035925 0.018415403 0.020858744 -0.91097367 0.22218382 0.13349192 -0.17208445
-0.0037907686 0.113865 0.14470659 -0.057725437 -0.09923184 0.072024524 -0.024877956 -0.16680366
0.20234509 -0.1739365 0.2692552 -0.0759181 0.041527033 0.042471815 0.08003014 -0.014842287
-0.46087998 0.027095025 0.034127317 -0.1721747 0.08199141 -0.20887275 -0.25251248 0.1311532
-0.10887505 -0.57468027 -0.3110086 0.14141268 -0.06181409 0.13804801 0.20772037 0.08905213
0.102665745 -0.1199281 -0.17228788 0.03619424 -0.05178258 -0.07648876 -0.506539 0.033012405
-0.15864833 -0.57078063 -0.14594749 0.008207419 0.035570294 -0.2193068 0.11234483 0.114321925
-0.15828326 0.20652452 0.101615556 -0.09086339 0.10945124 0.30689567 0.15164676 0.026871482
-0.029363424 -0.022063285 0.1231244 -0.11431963 -0.09785377 -0.23361905 0.14529963 0.38022387
0.041401904 -0.14274694 0.18281303 0.20635056 0.10271835 0.1012457 -0.10464872 0.23107424
-0.27333033 -0.16270348 -0.04596821 0.012677877 -0.043496773 0.14747897 -0.03439547 -0.4608423
-0.215251 -0.110327296 -0.07841348 0.0033836646 0.24067034 0.1769186 0.2603958 -0.08385771
0.105606414 0.017129457 0.04245545 -0.037227724 -0.031367134 0.08041653 0.10579122 -0.18201756
0.14674085 0.17697807 -0.09394918 -0.074051276 0.038503826 -0.03729464 -0.04501768 -0.10617288
-0.39165908 -0.24380352 -0.29760247 0.095295414 0.04112436 -0.018258553 -0.022829622 -0.15683793
0.25232732 0.15528603 -0.23737104 0.07772206 0.30253032 0.20520045 -0.08858309 0.017882995
0.076556616 0.15265998 -0.06045077 -0.12236503 0.46957046 -0.23665622 -0.14905359 -0.026060857
0.0624668 0.034105007 -0.015990008 0.007726243 0.0059695095 0.06617962 -0.26391393 -0.29644817
-0.2911779 0.39072397 0.1463522 -0.011091186 -0.08237523 0.15691929 -0.08428307 -0.028893117
0.017136266 -0.17309843 -0.19447702 0.031779256 -0.19172102 0.23138776 -0.2024957 -0.08322401
-0.30799568 0.10398521 -0.26319668 0.061945084 0.0015268117 -0.05668475 -0.094423145 0.1910752
-0.12653485 -0.049020447 0.04038067 0.09397564 0.07089163 -0.08388814 -0.20131648 0.18551335
0.26114714 -0.12585294 0.24238026 -0.09661932 -0.005964741 0.2848257 -0.030606523 0.0009566336
0.2204382 0.16458924 -0.15472232 -0.06819293 0.054553784 -0.22515774 -0.3545717 -0.4215271
0.066709265 -0.21234795 -0.5861035 0.074014455 -0.10370619 -0.29471812 -0.10035658 0.32339376
0.07164736 -0.097206056 0.06293414 -0.2975468 -0.038951576 -0.025983408 0.001590371 -0.2679703
-0.17565599 0.2455618 0.23176116 0.06943323 -0.06274341 0.105596565 0.037104502 0.16367847
-0.06070314 -0.079705276 0.25831893 0.110913314 -0.11963228 0.10736872 0.09999228 0.105386294
-0.052360147 -0.1533474 -0.23560333 0.028270977 -0.47893214 0.1531988 -0.062250506 -0.13906707
0.27250794 -0.16199423 -0.2172459 0.20943321 0.1235771 0.10011211 0.10972109 -0.0038721324
0.0056491005 0.23509802 -0.7069365 -0.2310864 -0.07757178 -0.22208221 -0.07299054 0.21199153
00000000: 3219 893e 069b 21be 2d79 e43d 40e3 923b
00000010: 924d e3bd efbc 97be cfdc 5cbe effe 093e
00000020: a156 c8bb 70eb 00bf e6db 963c f5df aa3c
00000030: 9235 69bf 2884 633e 1bb2 083e e836 30be
00000040: 8b6e 78bb 0e32 e93d f72d 143e 8271 6cbd
00000050: 103a cbbd 9881 933d dbcc cbbc 94ce 2abe
00000060: 8d33 4f3e 691c 32be d1db 893e f37a 9bbd
00000070: 4018 2a3d edf6 2d3d d8e6 a33d 102d 73bc
00000080: 76f8 ebbe 63f6 dd3c 16c9 0b3d 914e 30be
00000090: 1deb a73d bde2 55be 5149 81be 064d 063e
000000a0: e2f9 debd 3f1e 13bf 853c 9fbe 7cce 103e
000000b0: c530 7dbd 755c 0d3e a6b4 543e f760 b63d
000000c0: 6b42 d23d dd9c f5bd 3c6c 30be 6940 143d
000000d0: f819 54bd 24a6 9cbd 8aac 01bf 0438 073d
000000e0: b574 22be ae1e 12bf 4273 15be 6978 063c
000000f0: 28b2 113d f691 60be 0c15 e63d 9d21 ea3d
00000100: 0215 22be 2a7b 533e d11b d03d 9616 babd
00000110: f927 e03d 6e21 9d3e 4a49 1b3e 9521 dc3c
00000120: 908b f0bc 10be b4bc a528 fc3d 6920 eabd
00000130: 8f67 c8bd d539 6fbe 6dc9 143e b4ac c23e
00000140: 0b95 293d 412c 12be 5733 3b3e 904d 533e
00000150: 005e d23d e859 cf3d 1152 d6bd ba9e 6c3e
00000160: f4f1 8bbe be9b 26be 2949 3cbd dfb6 4f3c
00000170: ac29 32bd ba04 173e 44e2 0cbd 86f3 ebbe
00000180: c26a 5cbe 47f3 e1bd 3f97 a0bd 79c0 5d3b
00000190: 4972 763e 262a 353e 9952 853e 97bd abbd
000001a0: 2d48 d83d 1353 8c3c c4e5 2d3d 197c 18bd
000001b0: d37a 00bd 6cb1 a43d 11a9 d83d d062 3abe
000001c0: 3c43 163e bd39 353e 6d68 c0bd 32a8 97bd
000001d0: 30b6 1d3d 44c2 18bd 7564 38bd 2b71 d9bd
000001e0: 8a87 c8be a1a7 79be 5a5f 98be 3e2a c33d
000001f0: 0472 283d f692 95bc 3005 bbbc 1f9a 20be
00000200: 0c31 813e 4d03 1f3e 6511 73be be2c 9f3d
00000210: 41e5 9a3e 1120 523e 0d6b b5bd 5c7f 923c
00000220: b7c9 9c3d e652 1c3e 3a9b 77bd 849a fabd
00000230: 8a6b f03e 0256 72be 81a1 18be 947d d5bc
00000240: 30dd 7f3d b1b1 0b3d 7afd 82bc 6d2c fd3b
00000250: e09b c33b 2e89 873d ba1f 87be 0ec8 97be
00000260: 4515 95be f90c c83e 5add 153e ceb7 35bc
00000270: 58b4 a8bd 73af 203e 9a9c acbd 42b1 ecbc
00000280: 5b61 8c3c b740 31be fc24 47be f72a 023d
00000290: 8452 44be eaf0 6c3e 085b 4fbe 5a71 aabd
000002a0: 9cb1 9dbe 33f6 d43d b7c1 86be 21ba 7d3d
000002b0: 4d1f c83a 452e 68bd ec60 c1bd 38a9 433e
000002c0: 5a92 01be aac9 48bd 3466 253d 4d76 c03d
000002d0: a22f 913d 8ccd abbd e825 4ebe 36f7 3d3e
000002e0: 14b5 853e 98df 00be 8832 783e 5ae0 c5bd
000002f0: e073 c3bb add4 913e 88ba fabc 98c6 7a3a
00000300: 8dba 613e 158a 283e 876f 1ebe bca8 8bbd
00000310: ca73 5f3d c08f 66be 6c8a b5be 66d2 d7be
00000320: de9e 883d be71 59be e10a 16bf e494 973d
00000330: e963 d4bd 4be5 96be c087 cdbd de93 a53e
00000340: dabb 923d f813 c7bd 9de3 803d 0e58 98be
00000350: b08b 1fbd 28db d4bc ff73 d03a 6733 89be
00000360: 2adf 33be 8d74 7b3e cc52 6d3e 0233 8e3d
00000370: 9e7f 80bd 0343 d83d e4fa 173d 549b 273e
00000380: dba3 78bd 853c a3bd 6142 843e 8526 e33d
00000390: c501 f5bd 22e4 db3d c1c8 cc3d c5d4 d73d
000003a0: 9877 56bd 1a07 1dbe 0042 71be 8998 e73c
000003b0: 9836 f5be 25e0 1c3e 63fa 7ebd 9967 0ebe
000003c0: 2986 8b3e d1e1 25be b675 5ebe a975 563e
000003d0: fe15 fd3d 9407 cd3d 73b5 e03d 9ac3 7dbb
000003e0: 171c b93b 89bd 703e caf9 34bf eaa1 6cbe
000003f0: f4dd 9ebd 8569 63be 107c 95bd 4f14 593e

regressors.1.lins.0.bias f4 [32]
-0.057226215 0.15939346 -0.065340646 -0.17168012 0.33263043 0.17574102 0.020502033 -0.1534279
0.07736638 0.11682466 -0.15139326 -0.11956 0.0733865 0.25086617 0.083427995 0.3028666
0.16914693 -0.042824987 -0.03366474 0.31479746 0.005563381 0.31348893 -0.19510536 -0.17829391
0.21347739 0.016307585 -0.19906403 0.20081474 0.057164956 0.26637793 0.2640056 0.03998849
00000000: 0966 6abd 0a38 233e 51d1 85bd eacc 2fbe
00000010: 894e aa3e 74f5 333e e1f3 a73c 341c 1dbe
00000020: 4472 9e3d c441 ef3d d606 1bbe e0db f4bd
00000030: a94b 963d 8871 803e 4cdc aa3d 5511 9b3e
00000040: da34 2d3e 4169 2fbd 0ae4 09bd 222d a13e
00000050: 064d b63b 9f81 a03e b3c9 47be ae92 36be
00000060: d199 5a3e 7c97 853c 71d7 4bbe 61a2 4d3e
00000070: cd25 6a3d b062 883e be2b 873e f9ca 233d

regressors.1.lins.1.weight f4 [32, 32]
-0.021508694 -0.67337775 -0.037878465 0.27278203 -0.7427951 -0.55427366 0.15015651 0.14265849
-0.37664664 -0.17888233 0.21008 0.49411416 0.094874516 0.07150456 -0.4034841 0.06522127
0.02070427 0.27464172 0.07165665 0.1296419 0.025383942 -1.041986 -0.12985456 -0.02508826
0.19281869 0.14952378 -0.2056645 -0.04579166 -0.70216787 -0.39165714 0.28885248 0.006449009
0.099079564 -0.048452806 -0.13795085 0.19155465 0.030302726 0.28729355 0.0016071296 0.13048032
-0.04801521 0.2806419 -0.54989535 -0.012807698 0.112915546 0.16706805 -0.26154977 -0.0014359253
-0.22799039 -0.114374734 0.16705438 0.07880953 -0.12713091 -0.24076773 0.14810477 0.08419078
0.37617674 -0.057216506 0.15509087 0.16610584 -0.015345111 0.14465578 0.29762968 0.20619714
0.10422716 0.15399307 -0.12617937 -0.22572634 -0.13828114 0.078704126 0.15947275 -0.021799281
-0.3068246 0.34576744 0.017833691 -0.37315825 0.09300227 -0.122498214 0.21352151 -0.04028262
-0.09662225 -0.37096265 0.05994883 -0.23595576 0.115534075 0.25042263 0.24553473 0.14460085
0.029225715 0.07109788 -0.02762306 0.045196246 -0.01552449 -0.20401442 -0.11192048 0.12819943
0.2114757 0.045428388 0.08841603 0.30992743 0.37167314 0.18379861 -0.65052015 0.014689654
-0.32370764 0.27632457 0.06720122 -0.04262131 -0.03847663 -0.7216242 -0.56574774 -0.00088275486
-0.1963673 -0.18676764 -0.7441306 -0.08764695 -0.10481956 0.071840726 -0.009379512 -0.2568515
-0.7340193 -0.17843029 0.093039885 -0.2624322 0.23949164 0.14971153 -1.4238461 -0.6536115
0.2214288 -0.021728572 -0.21820928 0.30884376 0.009152678 0.112462066 0.16990966 -0.16361271
0.37268 -1.0040303 -0.22783294 0.18087539 0.10523824 0.19938904 0.110066466 -0.19806813
-0.7467075 0.07835623 0.13822243 -0.242293 -0.36065805 0.025530908 -0.1296852 -0.14961399
-0.025668079 -0.04407177 -0.26426378 -0.05899859 0.2188924 0.032045707 -0.39249384 -0.2530023
-0.4916221 0.063903034 -0.12680683 -0.071535796 0.084767714 0.12375589 -0.035507925 -0.04730047
-0.29744053 -0.0052513606 -0.11553394 0.29411888 -0.0779577 -0.2207505 -0.13080814 0.26383752
-0.022906201 -0.050376527 0.21796793 0.06987821 -0.03600489 0.21351844 -0.039413296 0.13100977
0.21613304 0.11621998 -0.106217824 -0.18417776 -0.25503293 -0.13477075 -0.0380011 0.26277992
0.052405845 -0.2962596 -0.11305402 0.14336611 -0.072153 0.11861532 -0.057371665 0.24362078
-0.08250481 -0.23237224 -0.7048464 0.16577408 -0.2710768 -0.17717254 -0.13008708 0.19344643
0.09658376 -0.5106545 0.17362933 -0.23498918 -0.27264774 -0.47382006 0.21121435 -0.27307507
-0.18234976 -0.29496813 -0.044442624 -0.16118121 0.29115906 0.120306656 0.29792383 -0.05044888
-0.19826277 -0.10704048 -0.18342146 0.5155902 0.28769305 0.14345089 -0.254073 0.009006342
-0.12299923 -0.051627144 -0.16298507 -0.07353644 0.27171707 -0.039473362 0.2083021 -0.18453343
-0.041589092 -0.44557858 -0.030065041 -0.040343508 0.045792297 -0.035879362 -0.30498946 0.07922567
0.14758343 0.12447311 -0.02737445 0.0036765335 0.22547553 0.12348932 0.23296799 0.24058995
00000000: 0033 b0bc 7c62 2cbf 7326 1bbd 16aa 8b3e
00000010: d227 3ebf e1e4 0dbf a1c2 193e 1115 123e
00000020: d4d7 c0be ee2c 37be 361f 573e 88fc fc3e
00000030: 924d c23d fc70 923d 7895 cebe bb92 853d
00000040: 009c a93c d79d 8c3e b9c0 923d d9c0 043e
00000050: fcf1 cf3c cc5f 85bf 98f8 04be e585 cdbc
00000060: 4372 453e c31c 193e b799 52be 0990 3bbd
00000070: 46c1 33bf 4987 c8be 79e4 933e 3552 d33b
00000080: 3aea ca3d 7376 46bd fd42 0dbe e726 443e
00000090: 6c3d f83c 2418 933e 52a6 d23a a29c 053e
000000a0: 99ab 44bd 4cb0 8f3e f1c5 0cbf 61d7 51bc
000000b0: 4440 e73d e313 2b3e dae9 85be a835 bcba
000000c0: 5076 69be 4d3d eabd 4e10 2b3e e466 a13d
000000d0: 9b2e 02be d18b 76be c7a8 173e 376c ac3d
000000e0: 3d9a c03e db5b 6abd 24d0 1e3e a617 2a3e
000000f0: 0f6a 7bbc a520 143e eb62 983e 5825 533e
00000100: 0d75 d53d 5cb0 1d3e 2a35 01be ce24 67be
00000110: 9299 0dbe a12f a13d d34c 233e 6894 b2bc
00000120: 1d18 9dbe 6e08 b13e f617 923c 990e bfbe
00000130: f977 be3d 58e0 fabd 62a5 5a3e 63ff 24bd
00000140: e3e1 c5bd d1ee bdbe e88c 753d 639e 71be
00000150: 219d ec3d 6537 803e 756d 7b3e 3f12 143e
00000160: c46a ef3c c49b 913d c149 e2bc b31f 393d
00000170: 6e5a 7ebc 28e9 50be 9136 e5bd b646 033e
00000180: 168d 583e 1e13 3a3d 7713 b53d cfae 9e3e
00000190: f14b be3e b435 3c3e 7d88 26bf e0ac 703c
000001a0: 02bd a5be 6a7a 8d3e cba0 893d af93 2ebd
000001b0: ac99 1dbd 5dbc 38bf d8d4 10bf ad68 67ba
000001c0: 8214 49be 0440 3fbe 587f 3ebf 3e80 b3bd
000001d0: a3ab d6bd 3b21 933d 86ac 19bc 0a82 83be
000001e0: b0e8 3bbf 6eb6 36be b28b be3d 835d 86be
000001f0: 4c3d 753e fb4d 193e 9740 b6bf 1553 27bf
00000200: 3bbe 623e 1e00 b2bc 4172 5fbe c520 9e3e
00000210: 1df5 153c 8352 e63d ccfc 2d3e 178a 27be
00000220: eacf be3e 1184 80bf 0a4d 69be 6637 393e
00000230: 2587 d73d a42c 4c3e 876a e13d 5fd2 4abe
00000240: 3928 3fbf 3b79 a03d 2e8a 0d3e a81b 78be
00000250: 2ca8 b8be 3226 d13c 32cc 04be 6934 19be
00000260: dd45 d2bc 9a84 34bd 954d 87be 81a8 71bd
00000270: 5425 603e 5c42 033d f4f4 c8be 8489 81be
00000280: e4b5 fbbe 98df 823d a6d9 01be 5c81 92bd
00000290: b29a ad3d ba73 fd3d c270 11bd 23be 41bd
000002a0: 204a 98be 9b13 acbb 0f9d ecbd c096 963e
000002b0: 49a8 9fbd 6b0c 62be 92f2 05be b615 873e
000002c0: c9a5 bbbc 9e57 4ebd fc32 5f3e 4f1c 8f3d
000002d0: dd79 13bd 94a4 5a3e d66f 21bd 6d27 063e
000002e0: fb51 5d3e be04 ee3d bb88 d9bd 1899 3cbe
000002f0: ad93 82be 5801 0abe 0ba7 1bbd 178b 863e
00000300: 83a7 563d 57af 97be de88 e7bd 91ce 123e
00000310: f4c4 93bd 97ec f23d 8dfe 6abd ba77 793e
00000320: 48f8 a8bd fdf2 6dbe d070 34bf aec0 293e
00000330: 94ca 8abe b86c 35be 8c35 05be d216 463e
00000340: b5cd c53d 41ba 02bf e3cb 313e 01a1 70be
00000350: 7c98 8bbe 8b98 f2be 9348 583e 7fd0 8bbe
00000360: e5b9 3abe 1006 97be 7809 36bd b00c 25be
00000370: cd12 953e 5663 f63d 7989 983e 7ca3 4ebd
00000380: 6505 4bbe 0a38 dbbd d6d2 3bbe b8fd 033f
00000390: 814c 933e cae4 123e db15 82be 568f 133c
000003a0: 05e7 fbbd fc76 53bd 8fe5 26be 469a 96bd
000003b0: 801e 8b3e d2ae 21bd 254d 553e 55f6 3cbe
000003c0: 5359 2abd e022 e4be f64a f6bc 3c3f 25bd
000003d0: b490 3b3d 3df6 12bd 9427 9cbe 1141 a23d
000003e0: 1c20 173e c2eb fe3d 6240 e0bc fff1 703b
000003f0: 0fe3 663e f8e7 fc3d 298f 6e3e 365d 763e

regressors.1.lins.1.bias f4 [32]
-0.06260459 -0.061072227 -0.032561764 0.0074977293 -0.1588224 0.37170336 -0.014007611 0.06660658
-0.03828406 -0.08462158 -0.24178563 -0.10926177 0.18956606 0.088099524 0.041304227 0.120526195
0.064380065 0.09212583 -0.12673284 0.11543545 -0.09131606 0.14971867 0.13254805 0.28860494
-0.017868044 0.30418777 -0.2971585 0.17357183 -0.26189014 0.11344094 0.09881815 0.24909064
00000000: d636 80bd df26 7abd 7c5f 05bd 83af f53b
00000010: 57a2 22be e74f be3e 2e80 65bc 0869 883d
00000020: bfcf 1cbd 144e adbd a796 77be a3c4 dfbd
00000030: 9b1d 423e 866d b43d 9f2e 293d 70d6 f63d
00000040: b2d9 833d 78ac bc3d 41c6 01be 6c69 ec3d
00000050: ea03 bbbd da4f 193e adba 073e 07c4 933e
00000060: 0160 92bc 80be 9b3e 2925 98be d0bc 313e
00000070: 7716 86be b953 e83d 2c61 ca3d 9e11 7f3e

regressors.1.lins.2.weight f4 [32, 32]
-0.13831243 0.17897056 -0.1723156 -0.4589965 0.497842 0.08567421 -0.0024779472 -0.015505511
0.007259676 0.117169134 -0.11100572 -0.13601229 0.055566397 0.22716157 -0.19498111 -0.40454718
-0.008909606 0.024977505 -0.4074158 -0.040638797 -0.36875743 -0.26381043 0.14916874 0.20838757
-0.080855966 -0.4818435 0.019057726 0.8171947 0.09306367 0.08363025 -0.44047058 -0.14952384
-0.017479906 -0.030776244 -0.022665113 -1.2161596 0.09856477 -0.2753842 -0.024141671 -0.18419836
-0.28837216 0.17543781 0.0011646138 -0.02001348 0.2117538 0.15977511 -0.10153187 0.020175103
-0.39906725 -0.7838406 -0.0796102 -0.020690985 -0.4216129 0.064784124 -0.0037775699 0.1557869
-0.13629213 -0.0011352457 0.10120718 -0.109971315 -0.39450374 0.3922537 -0.22615983 -0.12913302
-0.51299775 0.09951007 0.08664962 -0.0018901163 0.13830261 0.16788328 0.2992684 0.040582635
0.008211104 -0.1973046 -0.15249419 0.13759714 0.07686002 -0.15909173 0.13517134 0.18317157
0.16013066 -0.028535197 -0.00068449875 -0.17221123 -0.07348593 -0.017213894 0.012509214 0.14775732
0.20259084 0.07460333 0.07153828 0.07793271 0.19827713 -0.25340885 0.21652752 0.18644829
-0.39857537 -0.6357618 -0.0035423767 -0.28527352 -0.34006155 0.118958555 0.1738498 -0.16467658
-0.569145 -0.13642423 -0.034902632 0.13350505 -0.68067825 0.33886746 0.09216792 -0.14012325
-0.32712618 0.41474974 -0.033876643 0.09107225 0.22426258 0.01683882 -0.033908203 -0.386895
0.11538327 -0.0042005107 -0.021180123 -0.3432693 0.17749543 -0.07916635 -0.389858 -0.026328934
0.20668957 0.14543551 0.17874733 0.19075377 -0.22753 0.015898254 -0.38563505 0.275444
-0.43438736 -0.08350858 -0.4543768 -0.19450462 0.21729204 -0.03333249 -0.54086167 -0.027618188
0.10921692 -0.16666433 -0.10114484 -0.04641726 -0.027196756 -0.63100183 -0.3332706 -0.10819421
0.5274982 -0.14090464 0.09058889 0.3020293 -0.5659801 0.110602535 -0.012141015 0.04846569
-0.15737213 0.094260424 -0.15759866 -0.16584343 0.14997481 -0.14164475 0.1328422 0.043761548
-0.015441268 -0.14778861 -0.07993658 0.09207323 -0.028176792 0.040302534 0.21288812 -0.039506346
0.07394331 -0.14971119 -0.06546954 -0.22442472 -0.06746903 0.0051791994 -0.04754556 0.04122316
0.057502173 0.049254622 -0.119335786 -0.09246811 -0.03498316 -0.19946702 -0.01641794 0.058994018
-0.25023848 -0.038471207 -0.13186555 -0.26011142 -0.7236327 -0.025338586 0.039754365 -0.04371179
-0.11143744 0.20804414 -0.20266075 0.26489794 0.2561317 0.0030941977 0.2594504 0.37740195
-0.115150794 0.00024628695 0.2048016 -0.20540456 -0.20059572 -0.11319718 -0.03508197 0.18975696
0.20176737 -0.32694444 0.009457519 -0.15847126 0.33725712 -0.050286498 0.30152 -0.27186707
0.09093986 -0.081350565 -0.17972468 0.22774656 -0.09403407 0.1535654 -0.40065023 -0.5262146
0.012950869 0.08083108 -0.027727257 0.04215447 -0.72108084 -0.39989468 0.17965265 0.16852164
-0.052480318 -0.32919303 -0.57231945 -0.8909204 -0.59804106 -0.9764337 -0.07575349 0.14262468
-0.16717096 -0.8664963 0.027109219 -1.0126301 -0.7493892 -0.2238222 0.09337902 0.07667162
00000000: c6a1 0dbe 0f44 373e 8073 30be 9701 ebbe
00000010: 26e5 fe3e f675 af3d 0e65 22bb d40a 7ebc
00000020: 93e2 ed3b 5ff6 ef3d f856 e3bd ce46 0bbe
00000030: 9799 633d 0b9d 683e 21a9 47be cf20 cfbe
00000040: 99f9 11bc a09d cc3c ce98 d0be de74 26bd
00000050: c6cd bcbe 2912 87be b1bf 183e 8d63 553e
00000060: d097 a5bd 31b4 f6be f31e 9c3c ac33 513f
00000070: 2a98 be3d 5646 ab3d 5c85 e1be c71c 19be
00000080: 0532 8fbc 761e fcbc 30ac b9bc 1eab 9bbf
00000090: 53dc c93d 28ff 8cbe c1c4 c5bc 7f9e 3cbe
000000a0: 84a5 93be f8a5 333e f4a5 983a 4ff3 a3bc
000000b0: fdd5 583e 169c 233e f1ef cfbd 4246 a53c
000000c0: 8b52 ccbe c7a9 48bf ac0a a3bd 2480 a9bc
000000d0: a5dd d7be 8aad 843d 1b91 77bb 9a86 1f3e
000000e0: 2a90 0bbe 86cc 94ba b645 cf3d a438 e1bd
000000f0: 65fc c9be 7ad5 c83e 7196 67be 723b 04be
00000100: d253 03bf f0cb cb3d 5b75 b13d c7bd f7ba
00000110: 339f 0d3e 98e9 2b3e b539 993e fa39 263d
00000120: de87 063c 380a 4abe 7027 1cbe 44e6 0c3e
00000130: c968 9d3d f1e8 22be 5b6a 0a3e 5491 3b3e
00000140: 4bf9 233e a5c2 e9bc ef6f 33ba 2458 30be
00000150: cb7f 96bd 2704 8dbc 72f3 4c3c b24d 173e
00000160: f973 4f3e a1c9 983d a982 923d 2f9b 9f3d
00000170: 2909 4b3e cebe 81be 64b9 5d3e 4dec 3e3e
00000180: 1212 ccbe 49c1 22bf 3827 68bb 5f0f 92be
00000190: 8c1c aebe 8ba0 f33d af05 323e faa0 28be
000001a0: 7db3 11bf cbb2 0bbe 10f6 0ebd 8cb5 083e
000001b0: ee40 2ebf 0980 ad3e 89c2 bc3d 787c 0fbe
000001c0: 157d a7be 145a d43e 3cc2 0abd 1684 ba3d
000001d0: 17a5 653e 91f1 893c 54e3 0abd 1a17 c6be
000001e0: 104e ec3d 70a4 89bb f081 adbc fec0 afbe
000001f0: 5dc1 353e f821 a2bd 789b c7be c7af d7bc
00000200: 6ea6 533e 0ced 143e 8a09 373e f554 433e
00000210: a0fd 68be 0e3d 823c f571 c5be ff06 8d3e
00000220: 0568 debe 8c06 abbd 13a4 e8be 382c 47be
00000230: ce81 5e3e a687 08bd e975 0abf 8a3f e2bc
00000240: 1fad df3d 0eaa 2abe 0725 cfbd 0620 3ebd
00000250: bbcb debc 5689 21bf 72a2 aabe ed94 ddbd
00000260: 1f0a 073f 4e49 10be ab86 b93d 96a3 9a3e
00000270: 12e4 10bf 9583 e23d 1ceb 46bc f683 463d
00000280: 2926 21be 9c0b c13d 8b61 21be dcd2 29be
00000290: ff92 193e 520b 11be c907 083e 4f3f 333d
000002a0: 5ffd 7cbc e655 17be cab5 a3bd e490 bc3d
000002b0: 04d3 e6bc 4514 253d 58ff 593e 68d1 21bd
000002c0: 976f 973d e44d 19be e514 86bd 98cf 65be
000002d0: 342d 8abd 46b6 a93b 22bf 42bd 9ed9 283d
000002e0: 6687 6b3d 37bf 493d 5266 f4bd ec5f bdbd
000002f0: 814a 0fbd 1541 4cbe ea7e 86bc b6a3 713d
00000300: 421f 80be fc93 1dbd c307 07be 532d 85be
00000310: fe3f 39bf de92 cfbc 79d5 223d 220b 33bd
00000320: 5039 e4bd 8609 553e 4d86 4fbe b4a0 873e
00000330: b223 833e 06c8 4a3b afd6 843e d43a c13e
00000340: 2ed4 ebbd 1320 8139 83b7 513e 9355 52be
00000350: f768 4dbe ecd3 e7bd 1db2 0fbd a64f 423e
00000360: 1b9c 4e3e 4365 a7be b6f3 1a3c 4a46 22be
00000370: f7ac ac3e 37f9 4dbd d460 9a3e 2932 8bbe
00000380: ad3e ba3d 209b a6bd bf09 38be 6536 693e
00000390: ef94 c0bd 4040 1d3e 0722 cdbe 00b6 06bf
000003a0: e22f 543c c48a a53d 4624 e3bc 2aaa 2c3d
000003b0: c198 38bf ffbe ccbe ddf6 373e f090 2c3e
000003c0: 9af5 56bd fd8b a8be 8783 12bf 5c13 64bf
000003d0: 3819 19bf 8ff7 79bf a524 9bbd 340c 123e
000003e0: dd2e 2bbe b4d2 5dbf 2714 de3c dd9d 81bf
000003f0: f8d7 3fbf a631 65be 803d bf3d 0306 9d3d

regressors.1.lins.2.bias f4 [32]
0.07881151 0.135894 0.21873139 -0.012847153 -0.18294606 0.17862833 -0.24114893 0.25216943
-0.21655695 -0.15013875 0.2764292 0.15087791 -0.29854965 -0.29084304 0.18803841 0.3372269
0.33243155 -0.110251606 0.075103864 -0.013823558 -0.19252372 -0.13641976 -0.09910662 -0.13460182
0.08644741 -0.12928416 -0.0554737 0.10117715 -0.039162666 -0.012676527 -0.053365737 0.02714591
00000000: ee67 a13d cc27 0b3e 1ffb 5f3e dd7c 52bc
00000010: 3656 3bbe 58ea 363e bfef 76be 5a1c 813e
00000020: 1bc1 5dbe f9bd 19be 2188 8d3e bd7f 1a3e
00000030: 80db 98be 61e9 94be 248d 403e 01a9 ac3e
00000040: 7834 aa3e 98cb e1bd 0ed0 993d 347c 62bc
00000050: f024 45be 9fb1 0bbe 69f8 cabd 0fd5 09be
00000060: 570b b13d 1163 04be 6438 63bd f735 cf3d
00000070: 0869 20bd 35b1 4fbc 0896 5abd 1961 de3c

regressors.1.lins.3.weight f4 [1, 32]
0.04652507 -0.06608115 0.13346434 -0.21187484 -0.18367334 0.009434993 -0.062068284 -0.30228257
-0.1261359 -0.08930965 -0.22674623 -0.27722663 -0.051812094 -0.033702314 -0.088521354 0.038468983
0.10658136 -0.36361137 -0.08516857 -0.13990726 -0.32055375 0.04635047 -0.069634974 -0.028677287
-0.17401783 -0.11128381 -0.03118092 0.031305492 0.050619133 -0.038549192 -0.08577832 -0.14759248
00000000: 1291 3e3d 8e55 87bd e0aa 083e b8f5 58be
00000010: dd14 3cbe 3b95 1a3c 503b 7ebd c8c4 9abe
00000020: c529 01be fae7 b6bd 2a30 68be a6f0 8dbe
00000030: eb38 54bd 700b 0abd af4a b5bd a791 1d3d
00000040: 5447 da3d 452b babe dc6c aebd d943 0fbe
00000050: 9f1f a4be fed9 3d3d c89c 8ebd a1ec eabc
00000060: bb31 32be c4e8 e3bd 216f ffbc 303a 003d
00000070: 0256 4f3d c2e5 1dbd 8bac afbd 7c22 17be

regressors.2.lins.0.weight f4 [32, 64]
-0.07696766 -0.03051132 -0.08334644 -0.029997885 0.050362617 0.09456207 -0.04535061 0.09408477
-0.038920194 -0.057803065 0.0005274117 0.0067539066 -0.04400471 0.013190895 -0.10728051 0.078945816
0.028473392 -0.09133597 -0.057322815 0.09493047 0.065828264 -0.07795563 -0.06658983 -0.052891538
-0.013197079 0.08831276 0.10131124 0.075757936 -0.045924038 -0.08038728 0.10824327 0.05019994
-0.113719165 -0.06680976 0.018194601 0.12392256 -0.08113234 -0.028697237 2.4974346e-05 -0.060919076
-0.056561917 0.10195324 -0.10176624 -0.09088339 0.011918068 0.030267373 -0.09360947 0.012216002
-0.09958051 0.07751359 -0.07971154 -0.0960899 -0.020071879 -0.0156091 0.055863753 -0.084394395
0.06856012 -0.08316459 0.100103304 0.024799407 0.020345658 0.084905386 -0.012892038 0.08135466
0.11921805 0.104403734 -0.0436247 0.030607581 -0.07498847 0.027799621 -0.10382332 -0.034186795
0.12481725 0.110970035 0.08113305 -0.11388752 0.012380376 -0.06593548 0.060702756 -0.092360914
-0.08540568 -0.053266525 0.047902033 -0.06998727 0.099447966 0.11935748 0.050442904 -0.08905153
0.027179584 0.028199881 -0.09755255 -0.09701975 -0.079640344 -0.056302756 -0.122904435 0.07079309
-0.07382977 0.013680086 -0.100583956 -0.044823423 -0.00667049 0.059234098 -0.0059328377 -0.079633206
0.014258489 -0.055464804 -0.11759943 0.07179314 0.026282474 0.051623702 0.118373394 0.03115806
0.07564865 -0.0055826604 -0.03194271 -0.11469886 0.0069986433 -0.05323887 0.042896375 0.061318725
-0.0959384 -0.07838108 0.044494778 -0.07137576 0.014490977 0.116750196 -0.105493635 -0.04370238
-0.11764184 -0.028058827 0.053964272 -0.03837973 -0.029786184 -0.012267351 -0.05223939 -0.046726137
0.09394041 -0.11072999 0.021024287 0.07942808 0.041784614 -0.08622667 -0.014249116 -0.09466982
0.047992766 -0.07723285 0.0017351657 0.057864636 -0.095271885 0.11460556 0.026716173 -0.05088991
0.035597175 -0.055872962 0.022893906 0.09475054 0.029733434 -0.05231914 -0.045058414 0.074725255
0.023465917 -0.004659623 -0.08750412 -0.049641624 -0.009679049 0.011411682 -0.104640245 0.08581206
0.081752524 0.07509214 0.1138431 0.11654073 -0.073956266 0.12078816 -0.061375335 0.06021878
0.06392291 0.10545914 -0.007840604 0.083018795 0.016911805 0.0193315 0.05931948 -0.068696514
-0.067478344 0.11988093 0.049988285 0.031735286 -0.08216898 0.10162833 -0.08921546 0.07034209
-0.035639375 -0.03848742 0.066912636 0.09542182 0.069987535 -0.03918676 -0.078771025 -0.03272645
0.06787473 0.0018716604 -0.011020079 -0.017228812 -0.11720726 0.105636284 -0.039060533 0.0021849275
0.06736584 0.059834868 0.02627635 -0.048323646 0.10170911 0.058255717 -0.012791753 0.06611787
0.06573346 0.037753403 -0.096473634 -0.067747265 0.12064873 -0.025470853 -0.016255766 0.067396134
-0.0585749 -0.036769524 -0.105981246 -0.012934059 0.0340423 0.1065938 -0.07715915 -0.10403901
-0.0053791255 -0.06396514 -0.04430686 -0.053871155 -0.07980856 0.019152254 0.022878781 0.003765121
0.09590241 -0.013728872 0.08662468 -0.06715371 0.00088115036 0.0077870786 -0.016565904 -0.10937764
-0.088691324 -0.0050058663 -0.005316049 0.10831034 -0.08909659 -0.028098121 0.11846304 -0.0994506
00000000: 38a1 9dbd e0f2 f9bc 8ab1 aabd 20be f5bc
00000010: 0849 4e3d c2a9 c13d 90c1 39bd 84af c03d
00000020: c86a 1fbd e8c2 6cbd 0042 0a3a e04f dd3b
00000030: 483e 34bd a01e 583c e2b5 dbbd 58ae a13d
00000040: 0841 e93c 5a0e bbbd 54cb 6abd e86a c23d
00000050: f8d0 863d 34a7 9fbd 4060 88bd cca4 58bd
00000060: 9038 58bc 52dd b43d 447c cf3d fa26 9b3d
00000070: d81a 3cbd 16a2 a4bd a6ae dd3d 749e 4d3d
00000080: 98e5 e8bd 8ed3 88bd d80c 953c 1ccb fd3d
00000090: b628 a6bd 7816 ebbc 0080 d137 4886 79bd
000000a0: 78ad 67bd dccc d03d d26a d0bd 1221 babd
000000b0: 0044 433c 48f3 f73c 52b6 bfbd a025 483c
000000c0: def0 cbbd 72bf 9e3d ce3f a3bd c8ca c4bd
000000d0: c86d a4bc 50bd 7fbc 64d1 643d f8d6 acbd
000000e0: 4069 8c3d 3252 aabd f602 cd3d 2028 cb3c
000000f0: f0ab a63c e0e2 ad3d 2039 53bc 469d a63d
00000100: 9828 f43d a0d1 d53d d0af 32bd c0bc fa3c
00000110: 8e93 99bd 08bc e33c 52a1 d4bd 7407 0cbd
00000120: 30a0 ff3d 4244 e33d 1629 a63d dc3d e9bd
00000130: 10d7 4a3c 2e09 87bd 74a3 783d b827 bdbd
00000140: 2ce9 aebd 002e 5abd ec34 443d 7c55 8fbd
00000150: 60ab cb3d b271 f43d 389d 4e3d a660 b6bd
00000160: b8a7 de3c 7003 e73c a2c9 c7bd 4ab2 c6bd
00000170: 7a1a a3bd b89d 66bd 52b5 fbbd f8fb 903d
00000180: 1034 97bd 7022 603c f6fe cdbd c498 37bd
00000190: 2094 dabb 749f 723d 4068 c2bb bc16 a3bd
000001a0: 709c 693c 102f 63bd f8d7 f0bd 4808 933d
000001b0: 584e d73c 6073 533d c06d f23d 303f ff3c
000001c0: aeed 9a3d c0ee b6bb 5cd6 02bd 3ce7 eabd
000001d0: e054 e53b 0011 5abd 1cb4 2f3d 5829 7b3d
000001e0: 5a7b c4bd 4286 a0bd 2840 363d 742d 92bd
000001f0: 906b 6d3c ba1a ef3d 0c0d d8bd 4401 33bd
00000200: 34ee f0bd a0db e5bc a409 5d3d 1034 1dbd
00000210: 2802 f4bc 00fd 48bc f8f8 55bd e863 3fbd
00000220: d463 c03d 68c6 e2bd 203b ac3c 30ab a23d
00000230: 5826 2b3d 9c97 b0bd 2075 69bc 40e2 c1bd
00000240: 1094 443d 422c 9ebd 806e e33a 7803 6d3d
00000250: e81d c3bd 52b6 ea3d e0db da3c f071 50bd
00000260: 58ce 113d 0cdb 64bd 008c bb3c 920c c23d
00000270: 8893 f33c 984c 56bd 2c8f 38bd 8e09 993d
00000280: 983b c03c c0af 98bb 5c35 b3bd 0455 4bbd
00000290: e094 1ebc 10f8 3a3c a04d d6bd 3cbe af3d
000002a0: de6d a73d e8c9 993d 9226 e93d e8ac ee3d
000002b0: 6276 97bd c85f f73d b464 7bbd f8a7 763d
000002c0: 04ea 823d f6fa d73d e075 00bc c205 aa3d
000002d0: a08a 8a3c 185d 9e3c fcf8 723d c2b0 8cbd
000002e0: 1632 8abd 2284 f53d 84c0 4c3d dcfc 013d
000002f0: 3648 a8bd 8422 d03d 98b6 b6bd 840f 903d
00000300: 98fa 11bd fca4 1dbd 7e09 893d 846c c33d
00000310: a055 8f3d 4c82 20bd b452 a1bd 2c0c 06bd
00000320: e801 8b3d 8052 f53a 908d 34bc 7023 8dbc
00000330: 5c0a f0bd d657 d83d f0fd 1fbd 0031 0f3b
00000340: 1af7 893d 6815 753d 8041 d73c 04ef 45bd
00000350: de4c d03d 8c9d 6e3d 8094 51bc ce68 873d
00000360: 449f 863d 50a3 1a3d f893 c5bd 14bf 8abd
00000370: ae16 f73d 40a8 d0bc d02a 85bc fc06 8a3d
00000380: 3cec 6fbd a49b 16bd b20c d9bd 60e9 53bc
00000390: f06f 0b3d da4d da3d 9e05 9ebd 6812 d5bd
000003a0: 6043 b0bb 2800 83bd 1c7b 35bd 00a8 5cbd
000003b0: ac72 a3bd 30e5 9c3c 486c bb3c 40c0 763b
000003c0: 7c68 c43d 10ef 60bc 4868 b13d e287 89bd
000003d0: 00fd 663a c02a ff3b 38b5 87bc 6201 e0bd
000003e0: cca3 b5bd 4008 a4bb 4032 aebb d0d1 dd3d
000003f0: 4678 b6bd 082e e6bc c09c f23d c2ac cbbd
