baseline/DLPL-CAP/models_dlpl-cap-regressor/sandwich+ultra8t_to_ssram+digtime+timing_ctrl+array_128_32_8t/dlpl-cap-regressor_nh_2_tsk_regression_ngl_4_nhl_4_hd_32_us_1_bn_0_dp_0.0_epoch_7_20250402_142914.pth (torch, 64102 bytes, 21 tensors)

regressors.0.lins.0.weight f4 [32, 64]
00000000: ab61 a2bd 407d a2bb da47 f23c 2b7d 7e3d
00000010: 6e62 163e fa36 cd3c 6ece 3f3d 50fd 98bc
00000020: d769 6ebe 0928 31bd b927 f5be 6d8e ae3d
00000030: e9c8 cfbd a522 d93c 6aaf 60be ff29 15be
00000040: d0c3 d8bd 163c 0f3e 71e5 7a3e ba72 e6bd
00000050: 7ce6 59bd 3825 85bc 0037 6bbd b4e2 35be
00000060: 278d b73d 9bd7 68be 0c11 72bd c790 84bd
00000070: b697 eabd 12d3 223e d280 d3bd b575 7ebc
00000080: 17c4 a3bd b037 41bc 4c1b d7bc 3421 a23c
00000090: 99a9 41bd 5e7c db3d b37b bd3d a2cc 9c3e
000000a0: ba56 4e3c 5763 483e cc9d 2e3e eeeb f83d
000000b0: 8d12 4abe f4c3 2b3e f95a 8dbe e7ea 773d
000000c0: 97c5 d1bd 9a1f 45bf 2221 8cbe b18a 91be
000000d0: 92a0 9dbd 787c 3c3d 3f0a f3bd 9552 99bd
000000e0: 7f65 3ebe 882e 39be d855 f03c 8c66 12be
000000f0: 54de f4bd 8788 2d3e 126e e73d 02d8 5abe
00000100: cf76 f0bd 7031 91bc e495 d1bd 38c8 1abd
00000110: 2ae7 a63d 5c2c 1dbd 53a9 36bd d9b6 aa3d
00000120: 20ab 84bd 201c 43bc 3c66 f2bc fb75 853c
00000130: c5f4 17be d522 4bbd e495 9b3d 95fa 903d
00000140: 137e 163c 6ba2 09be 7eed b8bd 9c5c f9bd
00000150: 807e c83d a042 243c 4b3b 2dbd aaf7 573d
00000160: e992 8cbd 8333 ba3b ee66 a23d 78ff 89bd
00000170: 48be aebc 14cb 9fbd 2cf3 7f3d f51b 2a3d
00000180: 3237 02be 2817 66bd b6ab c9bd f99a ef3d
00000190: 1564 14be bdd6 083d 16d5 43bd 1ee9 a2bd
000001a0: eab2 b8bd 9850 863d 86d8 b6bd edf4 fdbd
000001b0: fcbb 67bd a3e1 4d3d f435 9abd d842 07be
000001c0: a2ea 913d fb30 08be aa9d eebd e0e5 213d
000001d0: 3871 df3c 3676 e7bd 9a3e 71bd 5092 973d
000001e0: 4adb 93bd 33d7 283d 3013 d63c c1d0 d43d
000001f0: 46d5 dc3d 2a26 22bd 5c37 203d b9e0 dbbd
00000200: 2588 f33c d88e a13d 213d 0bbe 1e4c 66bd
00000210: b0b9 b93d b8be 8e3b 66cc 483e 8760 d4bb
00000220: 0dce 3cbe 14df 533d 0787 56be e267 8ebd
00000230: f450 7dbe cb99 8f3d 9363 403e 8504 94bd
00000240: 5b81 9abe 28e5 0fbe e296 2f3c 4bf7 e63d
00000250: c0fc 9c3d 4cf4 20bd acd4 173e 2827 913d
00000260: d5b6 ba3d 8288 4e3e 6299 59bd aebd 9bbd
00000270: 2ce2 633d 0df0 9ebe d67d 88bd a72f e33c
00000280: f66d b13d 4e15 9cbd c224 203e 15b3 52bc
00000290: 5566 4abd 5a5a c3bd 866e 353d 29bf b3be
000002a0: bc4b d53d d030 233e cb91 c33d baa1 a1bd
000002b0: 62e2 8c3e 2052 cfbd 1735 7f3d 6953 313b
000002c0: 4516 9c38 2a0a e03d b9d2 8ebd b022 523d
000002d0: 24ed eb3d d03a 013c 27f8 893d ca2a b8bd
000002e0: 99a1 eebd 7ef4 28be 206a b4bd 4cc4 16be
000002f0: 2613 dc3d 78bd ad3d 50ba b03c 27b0 67be
00000300: f9d5 b8bd 80ee aa3c b331 88be e47a 05bd
00000310: db6b 91bc be9f 14be 96cc 3cbd 14a2 4e3d
00000320: eb67 3b3e 0543 9ebe d849 d23d 0645 acbd
00000330: d9e6 19be 59b6 cd3d 2941 14bf d8ac 4fbd
00000340: de21 a6be fd8a eebc 9a5d 6cbe d495 ae3d
00000350: 1220 a4bd 343a ff3d 60fe 07be 64a1 2c3e
00000360: 7530 403c 6f86 a8bc 6177 0b3e 5949 803d
00000370: 50cb 7e3c f2c3 31be f0ca babd f87f dd3c
00000380: eff8 203d 08f0 c2bc c621 92bd 2bf8 a03c
00000390: 385b 56bc 8cce 7dbe 6c2f 45bd cb17 033e
000003a0: 0112 cfbc d3c9 02be a319 dbbc 1b1a 843d
000003b0: 357f e5bd 0b4f 3d3e 652c 29bf 358f 913d
000003c0: 2ec5 f13d 245f d1bd 2ad6 fabc 1fac dc3d
000003d0: 8659 9d3d 1c13 4abd 526a 75bd 9488 3b3e
000003e0: 535f 1c3e f390 633e 94c5 14bd b3ff 713d
000003f0: 560f d03d 85ac 543e c451 f63d bc76 21bc
-0.07928785 -0.0049587786 0.029575277 0.06213109 0.14685985 0.025050629 0.046827726 -0.018675476
-0.23282562 -0.04325107 -0.47881868 0.08523259 -0.101457424 0.026505778 -0.21941915 -0.14566801
-0.10584223 0.13987765 0.24501587 -0.11252351 -0.053198323 -0.016253099 -0.0574255 -0.17762262
0.089624695 -0.22738497 -0.05909829 -0.064729266 -0.11454718 0.1590083 -0.10327305 -0.015530993
-0.079963855 -0.011793062 -0.026258133 0.019791223 -0.04728088 0.107170805 0.092521094 0.30624872
0.012593919 0.19569145 0.17052382 0.12154375 -0.19733639 0.16773969 -0.2760847 0.060526755
-0.102427654 -0.77001345 -0.27369028 -0.28426126 -0.07696642 0.04601714 -0.11867189 -0.074864544
-0.18593405 -0.18084157 0.029337808 -0.14296931 -0.11956468 0.16946612 0.11300291 -0.21371463
-0.11741411 -0.017723769 -0.102336675 -0.0377886 0.0814956 -0.038372383 -0.044595074 0.08335657
-0.06477952 -0.011908561 -0.029589765 0.016291609 -0.14839466 -0.049593765 0.07596949 0.07079045
0.009185332 -0.13440864 -0.09029673 -0.12175867 0.09789753 0.01002565 -0.042292874 0.052726425
-0.068639584 0.00568241 0.079297885 -0.0673818 -0.021330968 -0.07802406 0.062487766 0.04153057
-0.12716368 -0.056174427 -0.098472044 0.116994806 -0.14491303 0.033407915 -0.047810636 -0.0795462
-0.090185 0.06558341 -0.08928017 -0.124002315 -0.05657576 0.050264012 -0.07529822 -0.13209093
0.07124831 -0.13299935 -0.11651166 0.039525867 0.027275667 -0.11301844 -0.058897592 0.07400954
-0.072195604 0.041220855 0.026132196 0.10391379 0.10782866 -0.039587177 0.039115295 -0.10736222
0.029728005 0.078885734 -0.13597538 -0.056224935 0.0906862 0.0043562315 0.19609222 -0.0064812335
-0.18437977 0.051726416 -0.20949946 -0.06953408 -0.24737912 0.070117556 0.18787985 -0.072274245
-0.30176815 -0.1405226 0.010717126 0.11277636 0.07665396 -0.03929548 0.14827222 0.070875466
0.09116904 0.20169261 -0.053124793 -0.07604538 0.055635616 -0.3104252 -0.06664626 0.027732683
0.086635515 -0.07621251 0.15639022 -0.012860079 -0.049413998 -0.095387176 0.044294856 -0.3510678
0.10414836 0.15936589 0.09549292 -0.07892175 0.27516466 -0.10123086 0.06230649 0.0027057773
7.442808e-05 0.10939439 -0.06973786 0.05130261 0.1151984 0.007887557 0.067367844 -0.08992536
-0.11651916 -0.16499516 -0.08809304 -0.14723319 0.1074584 0.08483404 0.021573216 -0.2262579
-0.09025187 0.020865679 -0.26600417 -0.0325879 -0.017751625 -0.14514062 -0.046093546 0.05044754
0.1830136 -0.30910507 0.10267991 -0.08411603 -0.15029468 0.10044546 -0.57911927 -0.050701946
-0.32447714 -0.02911901 -0.23082581 0.08524671 -0.080139294 0.12462273 -0.1328063 0.1685844
0.011730303 -0.020571915 0.13619758 0.0626399 0.015551403 -0.17359903 -0.091207385 0.02703856
0.0392999 -0.023796096 -0.07135348 0.019649586 -0.013083272 -0.24785823 -0.04814093 0.12802045
-0.02527714 -0.12772302 -0.026745623 0.06450292 -0.112059034 0.18487184 -0.66083366 0.07107393
0.11805187 -0.10223225 -0.0306197 0.10775017 0.07683091 -0.04933463 -0.059915848 0.18313819
0.15270738 0.22223262 -0.036321238 0.059081744 0.10159175 0.20768936 0.12027314 -0.009854969

regressors.0.lins.0.bias f4 [32]
00000000: 6302 29bc 323c d2bd 91f2 fa3d 1d1a b8bd
00000010: 9feb 103e 4032 443d 78f0 c83d 1cea 1c3e
00000020: 959b 0e3e 834f 623d 4cbe af3d f0de 7ebd
00000030: 7e40 11bd 515c a9bd cf8b 3bba e172 c0bc
00000040: e00a 29bd fa41 dcbd 0490 b8bd 02c5 103e
00000050: 40f7 b7bd 29e1 4f3e d537 1f3e add3 f0bd
00000060: edfa 42bd d7fb 87bd a188 393e 3bf9 02bc
00000070: b914 293e 4967 d8bd 3c61 c63d ab79 13be
-0.01031551 -0.102653876 0.12253297 -0.08989356 0.14152382 0.047899485 0.09811491 0.1532368
0.13926537 0.05525161 0.08581218 -0.06222433 -0.035461895 -0.08269561 -0.0007154317 -0.023492279
-0.041270137 -0.107547715 -0.09011844 0.14137653 -0.08982706 0.20300736 0.15548642 -0.11759124
-0.047602583 -0.066398315 0.18118526 -0.0079939915 0.16511811 -0.10566575 0.09686515 -0.14401881

regressors.0.lins.1.weight f4 [32, 32]
00000000: d0e8 d8be 0936 123c 8a96 f0bd f037 0d3e
00000010: ed23 8bbe 3ed4 34be 11f0 a53d 59a9 e4be
00000020: 035c 17be bc46 153e d0bd 41be d007 19be
00000030: ddd8 ce3c 283c ddbc 1678 843d 4605 cb3d
00000040: 4bff 9a3d a4d5 2e3e f524 d3bd c97b f3bd
00000050: 2d1e c0be c413 13bc f0cb a2be 8e78 653e
00000060: 3ccb 453d 9dce adbb bb22 46bd 5127 d6bd
00000070: f108 babd 09d7 1cbe 2254 f0bd b374 a93e
00000080: 4d18 dbbe b6e6 0bbe 7d53 203d 1939 97be
00000090: e2bb 8d3e 9863 72bd 4324 f7bd f9ed cbbd
000000a0: 6c63 343e 9378 dd3c 2c29 e43d a418 71bd
000000b0: fde2 903d 0aaf a5bb 0152 33bc 7ef3 3b3e
000000c0: a164 c03d 5123 8ebe 267b 8abd 6a07 edbd
000000d0: 7264 203e 0a13 f13d 281b 68be 7c08 05be
000000e0: 418d efbd 8c2d 743d a7ed 773c 6e49 92be
000000f0: e40f 223d a637 d03e e8a7 4a3d 6cf8 3d3e
00000100: 5544 433e df0e b9bc 92f4 16be 3965 45bd
00000110: 4c3c d5be c486 b43d 53d3 3fbe 0bd1 2e3d
00000120: f7b7 623d 271d 6fbe 9045 febd b9d7 703d
00000130: 1e3c 96be f943 c5be e5e9 a7bd bbd5 b6be
00000140: fe8b cdbc 3bac e23d 04db 60bd 471f 01bd
00000150: 6e2d 9abe 81de 9bbd cc6f a23d 8a2f 183d
00000160: 64fe 0bbe 31f0 78bd 53e9 123e eaad 5bbd
00000170: 56b8 663d 831c fcbc f056 6dbe 82dc 59be
00000180: 6cb9 823d 2855 e53c c056 a33d 67c2 053e
00000190: 853a 53be 52bc 80be c9bf b1be 8386 0cbe
000001a0: 0655 8abc 4379 4abe 0f87 14be f7e9 323e
000001b0: 0e76 2abe ba92 8fbe 3d42 25be a981 9ebd
000001c0: d624 833d e733 87bd 63a4 913c b328 03bf
000001d0: 2dff 25be 88fe 15be 3c73 b83d 6f12 a43d
000001e0: d3fe 98be 51b5 2cbd 0a0e b1be 2f16 40be
000001f0: 2928 31be 1817 a7bc c077 ca3c 347f 5fbe
00000200: 345a c63d 13ae 0e3c 1138 0e3d dea4 7039
00000210: 281f c7bd fe45 3f3e 5f20 9f3d c98f 6c3c
00000220: 4c56 a13c 5d90 a83d 5588 3c3d 6b99 b53c
00000230: 9923 af3c 5382 b73d 9ed5 583e 3380 e83d
00000240: b399 c4bd 1121 24bd ad90 2c3e d1f1 983d
00000250: 03ed 1bbe f74a 2cbd 121f 8cbe 0cb7 95bd
00000260: 5e94 0abd eab3 e3bc 1e32 b6bc f8c6 13be
00000270: 5c92 563d 81de 203e 864e 13be 3537 f4bc
00000280: d34b 05bf 4fe8 103e 7459 22bf 853a 8cbd
00000290: 9898 e63c a9da a43e 339b 33bd 1b84 85be
000002a0: 1ea4 fe3d 90d4 603d ffd3 da3d 4bac b1bc
000002b0: e1dc 803e 17f8 da3c 1145 babd d07c 053e
000002c0: bba8 fbbd ec7a f83c 84df 4bbe 0c50 51be
000002d0: 9eba 593d 3fac e3bd f812 2d3c 0d34 36be
000002e0: 2495 2b3e 1720 dcbc 5ef7 1a3e 257e 13be
000002f0: 0636 1c3b 47f5 f53d 1e48 173e bd30 773c
00000300: 7827 8bbc a1d8 b3bd 0ef6 cc3d 6265 81be
00000310: 76a1 d0bd 6367 4b3e ef45 fa3d 41cf f7bd
00000320: 8d1e 99bd aa2f 783d 472b 113d bc6e 80be
00000330: e5d3 5ebe 4999 ff3c e743 fb3d 4153 013e
00000340: 5dc2 6cbe 43f6 b23d 7700 043e 310d 8bbd
00000350: d7ef 4c3d a67e 92be 0d47 65be e4b0 443e
00000360: 641d 96bd f7f5 573c d8d1 1c3d 24a2 443c
00000370: 36da 5bbc 9cf5 32be 0c3d 903d eb80 79bd
00000380: 246d 33be 2685 c8bd 38d9 6e3d bec1 673d
00000390: 513d 4d3c 59af 0bbe 03f9 3ebe d8a4 873d
000003a0: e3ef 87bb 6f85 a13c 9c40 653c 8861 5ebe
000003b0: 2fe5 01be accc f63d cb9f 263e d019 503e
000003c0: 8265 99bd f29d 09be 711e 75bd 5e79 553e
000003d0: 2281 c5bd cad4 d1bd dac6 153e 8076 01bf
000003e0: 2e59 013e 30ae a9bc 9db7 8fbd a15d 0ebd
000003f0: 225f 3abe f066 c13e 48e0 093e b56e 26bd
-0.42365122 0.008924016 -0.11747463 0.1379087 -0.27175847 -0.17659089 0.0810243 -0.44660452
-0.14781193 0.14577764 -0.18920064 -0.14944386 0.025249893 -0.027006224 0.06468217 0.09913115
0.075682245 0.17073685 -0.10309783 -0.118888445 -0.37523022 -0.00897688 -0.31796217 0.22409269
0.048289523 -0.0053041712 -0.048372965 -0.10456718 -0.09083737 -0.15316404 -0.11734797 0.33096847
-0.42791978 -0.13662228 0.03914212 -0.2953575 0.27682406 -0.05917701 -0.12067463 -0.09957499
0.17616051 0.027035033 0.111406654 -0.05886139 0.070745446 -0.0050562667 -0.010944844 0.18354604
0.093941934 -0.2776132 -0.0676177 -0.1157368 0.15663317 0.117712095 -0.2266661 -0.12991518
-0.11696864 0.05961375 0.015132344 -0.28571647 0.039565936 0.40667456 0.049476534 0.18551797
0.19069035 -0.022590099 -0.14741734 -0.048192237 -0.41647565 0.08814767 -0.18732958 0.042679828
0.055351224 -0.23350964 -0.12415612 0.05879948 -0.2934274 -0.38528422 -0.08198909 -0.35709938
-0.025091168 0.110680066 -0.05489637 -0.03152397 -0.30112785 -0.076107986 0.0793148 0.03715471
-0.13671261 -0.06077594 0.14346819 -0.053632654 0.05632814 -0.030775314 -0.23177695 -0.21275523
0.06383023 0.027994707 0.079755306 0.1306244 -0.20627792 -0.25143677 -0.34716633 -0.13723187
-0.016886245 -0.1977282 -0.14504646 0.17472063 -0.16646597 -0.2804163 -0.16138549 -0.077395745
0.0640351 -0.066016965 0.017778581 -0.5123398 -0.16210623 -0.14647877 0.09006354 0.080113284
-0.29881915 -0.042165104 -0.34581023 -0.18758462 -0.17300476 -0.020396754 0.024715304 -0.21825868
0.09685174 0.008708495 0.034721438 0.00022949601 -0.097227395 0.18679044 0.07769846 0.014438578
0.01969447 0.0823066 0.046028454 0.022167882 0.021379279 0.08960404 0.21175238 0.11352577
-0.09599628 -0.040070597 0.16852064 0.07467998 -0.15227132 -0.04206368 -0.27367455 -0.07310304
-0.0338329 -0.02779575 -0.022240695 -0.1443137 0.052385673 0.15709879 -0.14385423 -0.029811481
-0.52068824 0.14151119 -0.63417745 -0.06847099 0.028148934 0.32198074 -0.04384918 -0.2607735
0.124336466 0.054890215 0.10684966 -0.021688601 0.25168517 0.026729627 -0.090952046 0.13035893
-0.12288042 0.030332051 -0.19909483 -0.20440692 0.053156488 -0.11116838 0.0105636045 -0.17793293
0.16756111 -0.02687077 0.15133426 -0.14403589 0.0023835911 0.120096736 0.14773604 0.015087304
-0.016986594 -0.08781553 0.10007869 -0.2527266 -0.10187046 0.19863658 0.1222037 -0.121000774
-0.0747653 0.06059233 0.035441663 -0.25084484 -0.21760519 0.031201022 0.12268811 0.12629415
-0.23121019 0.08738377 0.12890802 -0.067896254 0.050033417 -0.2861225 -0.22390385 0.19208103
-0.073298246 0.013181201 0.03828606 0.012001548 -0.013418725 -0.17476505 0.07042894 -0.06091396
-0.17522103 -0.09791021 0.058312625 0.05658125 0.012526826 -0.13641109 -0.18649678 0.06623238
-0.00414847 0.019716946 0.013992455 -0.21716893 -0.12685083 0.12050757 0.16271894 0.20322347
-0.07490064 -0.13439158 -0.059843484 0.20847079 -0.09643771 -0.102456644 0.14626637 -0.5057144
0.12631676 -0.020712942 -0.07017443 -0.03475726 -0.18200353 0.37773848 0.13464463 -0.040632922

regressors.0.lins.1.bias f4 [32]
00000000: d1f1 acbc a147 c3bd ada9 4bbd e142 cfbd
00000010: dacb f6bd 5e99 4cbe 4cf9 99bd 4957 943c
00000020: 7568 d03d 3ece 6e3d 0efe 393e 3358 e3bd
00000030: 6ef6 8ebe 52ab e8bb 3cb9 4a3e 5146 a2bd
00000040: 3d4f 0bbe b9aa aa3e 0ac3 853d e070 873d
00000050: db4b a23e 9d54 913c 7c26 a1be d330 843a
00000060: b68d eebd 8ad7 1ebe 971c d13c d197 43be
00000070: 9031 1e3e f9b1 8e3d c180 2a3e 56cf 3f3e
-0.0211114 -0.095351465 -0.049722362 -0.10120178 -0.120506 -0.1998038 -0.07518253 0.018108027
0.101761736 0.058302157 0.1816332 -0.11100807 -0.27922386 -0.007100501 0.19797224 -0.07923568
-0.13604446 0.33333376 0.065313414 0.06613326 0.31698498 0.017740542 -0.31474674 0.0010085352
-0.11648123 -0.15511909 0.025526328 -0.19100882 0.15448594 0.06967539 0.16650678 0.18731436

regressors.0.lins.2.weight f4 [32, 32]
00000000: a664 193e 2d28 d83d ffe5 8bbd 2791 92bd
00000010: 23f9 6dbb 7b10 2bbe eff1 d2bd 5527 cebd
00000020: cf71 0c3e cf0a d8bd 3be0 dfbd d901 06be
00000030: 1c98 90bc 9db5 d7bd beab 20be e860 2f3e
00000040: d79b 89bd 48bf 55bc ac02 be3c 95a5 1a3c
00000050: f13d 523d f6cd a13d 9a98 89bd 7448 90bd
00000060: e8ac a9bc 070c 2abe b731 c0bd 2737 9c3d
00000070: 6c17 0bbb 5e11 f4bd 4d47 ebbd 243d 68bd
00000080: 290f 953d 6885 893e 1ec4 18be c2bf 1a3d
00000090: 6f5a 52be 9252 853d 288c 9bbd a0ef b2bd
000000a0: e4f6 323c b950 12bd 29f2 86be 33d5 133d
000000b0: 7494 43bb a658 92be cbbf 46bc b141 9b3d
000000c0: f4d8 a53e 14c7 31be 4ab5 00be 94d4 2e3e
000000d0: 7946 e23d b1e8 933c 93e9 a7bd afb8 033e
000000e0: 5cbd 6bbd 15d0 043e b3e9 a9be 2244 3abe
000000f0: bebc 83bc c41c 8dbd f215 6ebc ca9a eebd
00000100: 06c3 dd3d 7a3f 4bbe 2173 57bd 5ce4 8dbe
00000110: bc2e 143d 499c a03d e1e0 87be a1bb 4ebe
00000120: c4d2 9ebe 001f 263e 0e2e f13c 5752 203e
00000130: 9c81 0e3e 8265 3abd 351f dcbd e07c a03e
00000140: 5f97 683e 49fc d5bc 18e0 b8bd 3a88 b4bd
00000150: 8d92 7d3d e53b 693d e35b 873e 572c 623e
00000160: 33b7 afbe 63fc 323e 1bcf 5a3e 6f59 48bd
00000170: e563 7fbd 9b69 483e ac75 223e db5f 473d
00000180: 6608 acbd 8c6f 8cbd 60cd 38be f4f2 0ebd
00000190: e708 04be 5800 c83d 5b21 64bd 2004 a53c
000001a0: 91dd bb3d 2e00 8b3d 249f 463c 253c 9cbc
000001b0: 5dad 06bd 10b8 1ebe 536d 06be cdc7 c5bb
000001c0: a44f 193e 99d0 50bd 5dee 5d3d e8b1 953d
000001d0: 9343 32be faa9 bf3d bd34 6c3d 3829 9ebd
000001e0: 7a98 f1bd c99e 08be ef24 cfbd eeca b3bd
000001f0: d81f 53bd 124a a13d 11a0 00be 4800 1ebe
00000200: 4cf6 18be d9d1 dabd e55d b03b 1e30 acbd
00000210: 47f3 dcbd 089c 183e 9348 3bbd f631 25be
00000220: 9454 ab3d d746 63bd edc8 24be 9384 0a3e
00000230: b499 78bd 4410 03be 6776 21bd 277e 4abd
00000240: 285a fd3d bb38 6d3d 056b d7bc 5b94 4fbd
00000250: 6efe 543c d902 0bbc 9eca f0bd bdd0 523c
00000260: 9564 2c3d 5ecc 433e 013e 35be 3270 2dbe
00000270: 9a33 24be 8d16 7dbe 3c12 b9bd 201e f23c
00000280: 2040 d6bd b9e4 ff3d 30c0 b63d 2444 ce3d
00000290: 30c5 3ebe a7b5 833d d64f 693d 71ee 0a3d
000002a0: 21e3 14be 3725 713d 7d1f 70bc ae08 863b
000002b0: 9532 113e 7bfc fdbc fba6 c8bd bc67 03be
000002c0: 79e0 42be 051a dfbd 2284 2e3e 784a ad3d
000002d0: 843e 783d 59d3 463d a7a5 e23c 994a 0fbe
000002e0: 2a4b be3c ba46 99bd 1593 1f3c 6348 513d
000002f0: fb77 0cbe 48ed 35be 7bcc 4cbe 915d 78bc
00000300: c488 553d 807b b13d accb 243e b2dc 32bd
00000310: 8ad8 46be 71b7 0cbe 19d8 773b 63d1 8abd
00000320: c744 12bf 03ec 10be bc68 71bd 8528 9d3d
00000330: 9d8c 143e f42e bfbd 728b 84bb 1ed4 373d
00000340: 8719 95be 7ad5 8d3d 57fe d03c ef81 3dbd
00000350: 7ae7 9fbd cd05 ab3d 50f6 e03b 37c1 eebd
00000360: 52b2 c33c f35c bdbd bf52 433d a937 37be
00000370: 0b42 34be abfc 343d 47f0 1d3d 3291 13bd
00000380: b3e6 9cbe 869b 9cbe 3245 39be 097f 953c
00000390: 0feb 36bd 59a9 a3bc 8848 f23d 93bc b6bd
000003a0: d5ea 7c3c 9146 903d 8c9c ce3c 4924 f0bd
000003b0: 122c 67bd 8d1d 86be 803e 3cbd 570b 703d
000003c0: e345 17be bcd1 6c3b 6fce 58be bf82 06be
000003d0: 91f6 31be 5570 0b3d a6c8 cd3e 6a45 e53d
000003e0: 5bb2 a6be ea8a adbd 9bc2 093e e684 743d
000003f0: 1b43 60bd 2995 7dbc 3991 f73d 7665 2dbe
0.149798 0.10554538 -0.06830978 -0.07156592 -0.0036311827 -0.16705506 -0.103000514 -0.10066096
0.1371529 -0.105489366 -0.109314404 -0.13086642 -0.017650656 -0.10532687 -0.15690514 0.1712681
-0.06719177 -0.013046093 0.023194633 0.009438892 0.051328603 0.07900612 -0.067185596 -0.07045069
-0.020712331 -0.1660615 -0.09384482 0.07627707 -0.0021223677 -0.11917375 -0.11488209 -0.056698933
0.07278282 0.26859593 -0.14918563 0.03778053 -0.2054231 0.0650989 -0.07595092 -0.08737111
0.010923121 -0.035721514 -0.2635663 0.036091994 -0.0029843124 -0.28583258 -0.012130688 0.07580889
0.32392085 -0.17361099 -0.12569156 0.1707328 0.11048598 0.018055292 -0.081988476 0.1286342
-0.057553634 0.12970002 -0.3318611 -0.18190053 -0.01608121 -0.06890252 -0.014531599 -0.116506174
0.108282134 -0.19848433 -0.05260003 -0.27713287 0.036177382 0.07842309 -0.26538756 -0.20188762
-0.31020176 0.16222763 0.029440906 0.1565641 0.1391663 -0.04550696 -0.1074814 0.31345272
0.22713993 -0.026121275 -0.090271175 -0.08815046 0.06190734 0.056941886 0.26437292 0.22087227
-0.34319457 0.1747909 0.21368067 -0.048913416 -0.062351126 0.19571535 0.15865201 0.0486754
-0.084000394 -0.068572134 -0.18047094 -0.034899667 -0.12894021 0.097656906 -0.055695873 0.020143569
0.0917312 0.06787144 0.012122903 -0.019071648 -0.032880176 -0.15499902 -0.13127641 -0.006035781
0.14971787 -0.050980184 0.0541824 0.073093235 -0.1740859 0.09358592 0.057667483 -0.077227056
-0.11796661 -0.13341822 -0.101144664 -0.0877894 -0.05154404 0.07875456 -0.1256106 -0.15429795
-0.14937705 -0.106845565 0.005382287 -0.08407615 -0.10788589 0.14903271 -0.04572351 -0.1613234
0.08365741 -0.05548748 -0.16092272 0.13527136 -0.060693458 -0.12799174 -0.039419558 -0.049436715
0.123707116 0.05791543 -0.026296148 -0.050678592 0.013000114 -0.008484566 -0.11757396 0.01286715
0.04208811 0.19120929 -0.17699434 -0.1693733 -0.1603531 -0.24715634 -0.09036681 0.02955538
-0.104614496 0.12494797 0.089233756 0.100715905 -0.18629909 0.06431132 0.056960903 0.0339188
-0.14539768 0.05887338 -0.014655945 0.00409039 0.14179452 -0.031004181 -0.09797474 -0.1283254
-0.19030942 -0.10893635 0.17042592 0.084614694 0.060606495 0.0485414 0.02766688 -0.139933
0.0232292 -0.07484193 0.009739657 0.051094424 -0.13717644 -0.17766297 -0.19999878 -0.015159027
0.052132383 0.08666134 0.1609332 -0.043667503 -0.1941854 -0.13741852 0.0037818013 -0.067782186
-0.57136196 -0.14152531 -0.058937773 0.07673744 0.14506765 -0.093351275 -0.0040449435 0.044880025
-0.29121038 0.06925483 0.025511904 -0.046266492 -0.078078225 0.08350716 0.0068653002 -0.116579466
0.02388874 -0.09246244 0.047686335 -0.17892326 -0.17603318 0.044186275 0.038559224 -0.03602714
-0.3064476 -0.30587405 -0.18092802 0.018249052 -0.044657763 -0.019978212 0.118302405 -0.089226864
0.015436848 0.070447095 0.025221132 -0.11725671 -0.056438513 -0.2619442 -0.045958042 0.058604565
-0.14772753 0.0036135754 -0.21172498 -0.13135813 -0.17379214 0.034042675 0.40192145 0.1119488
-0.3255795 -0.084737614 0.13453142 0.059697054 -0.054751497 -0.015477457 0.12088246 -0.16933236

regressors.0.lins.2.bias f4 [32]
00000000: a2e8 1ebe 8f0e a7bc 9b00 8dbe ef79 c5bd
00000010: 0759 32be 8cc6 283d 9c3a 183e 2225 7cbe
00000020: e792 0dbe a8cf 373e e66b 923d cd0f 99bd
00000030: 9b9d b33e 44ff a13e 1659 0fbe acf7 cc3d
00000040: 3c5d 893e ff3e 74bd d4f6 3bbe d95f 6b3e
00000050: 5c10 53be 462d 543e c169 2cbe 1b8c bfbd
00000060: 14de b0bd 2a88 1dbe b27a 82bc 9e00 653e
00000070: d9b0 123c fe38 463d df2d 883e 2175 7f3d
-0.1551843 -0.020392684 -0.27539524 -0.096423976 -0.17416774 0.041204974 0.14866108 -0.2462354
-0.1382557 0.17950308 0.07149486 -0.07473717 0.3508118 0.31640065 -0.13998827 0.10008177
0.26828945 -0.05963039 -0.18355876 0.22985782 -0.2061171 0.20720395 -0.16837217 -0.09352895
-0.08636108 -0.15383974 -0.015927646 0.22363517 0.008953297 0.048394196 0.26597497 0.062367562

regressors.0.lins.3.weight f4 [1, 32]
00000000: d5af f33d e344 6bbe 9b6e 64be f931 04be
00000010: 589b cdbd ad3c 34bd 6d7b b03d 90b4 b23c
00000020: 37ce c73d 9613 733d 026a f33c 2478 e2bd
00000030: 5b06 5c3e 0df5 2c3e 5b13 29be 54a2 a5bd
00000040: 2ebc d43d 95bc 8abc f568 25bd fe19 6b3d
00000050: 865a 55be 9d50 053e 9486 de3d 51de 7f3d
00000060: 60af a73c 91ed 9ebd 40b6 17bd a8d1 0d3e
00000070: a90c 13bc 1662 053e 97b7 8f3d b671 76bd
0.11898772 -0.22975497 -0.22307818 -0.12909688 -0.10039395 -0.044003177 0.086172916 0.021814615
0.09756129 0.05934485 0.029713634 -0.11058071 0.214868 0.16890354 -0.1651129 -0.08087602
0.10387455 -0.016935626 -0.040383298 0.057397835 -0.20835313 0.13019033 0.108655125 0.062467877
0.020469368 -0.07760156 -0.03703904 0.13849509 -0.008975186 0.13025698 0.07017439 -0.060167037

regressors.1.lins.0.weight f4 [32, 64]
00000000: 030a c53b 3ca5 91bd 9b5f 923d 40e3 923b
00000010: 4582 bfbb b9e5 a3be 86c1 4fbe cfa6 e13d
00000020: 62a3 c8bc efec 5abe 0556 ff3c 1188 43be
00000030: b21b a9be 3398 ee3d 596a 153d 9aa7 83be
00000040: 31ae c9bc 62b4 ae3d 63f3 003e 3397 f93c
00000050: 103a cbbd 9881 933d eed6 543d ec8a 4dbc
00000060: 832b 49bd 0b35 ff3c 6d2c 3b3e 4874 9e3d
00000070: 4018 2a3d 7416 bb3d d8e6 a33d d720 d63c
00000080: 2cfe 90be e828 80bd 11a3 8d3d 914e 30be
00000090: fe94 503d 1d21 55be fec9 5ebd ff80 b9bc
000000a0: 9da2 bebd dc24 d4be 5536 92be 043b 3a3d
000000b0: 38c3 b9bd 8aab 9b3d 679c e83d be60 9b3d
000000c0: 3367 633d 357e b0bd 37d2 0dbd 67fa 1a3e
000000d0: f819 54bd 24a6 9cbd 01b6 c3be b264 dc3b
000000e0: 9bd0 3cbd a1bd 01bf 7c93 c9bd 2da5 bb3d
000000f0: 28b2 113d 271d 14be 0c15 e63d ed10 943d
00000100: e340 07be f0db 9f3d f5ca 6e3d 9616 babd
00000110: ce5c 993d 55ac 393e 03de a03d 59f2 233d
00000120: 4edd c33c 18aa a1bc 487c 613e 4a23 3ebd
00000130: b5b6 4abe 96da d7bd 12f6 9d3d 4739 5e3e
00000140: f714 3d3d 2fdd b4bd 4c9e 2c3e e401 6a3e
00000150: 005e d23d e859 cf3d 3e4e 99bd 4a1e dc3d
00000160: d49b a8be 47f6 30be dc88 60bd d065 8b3d
00000170: ac29 32bd b72b 4e3c 44e2 0cbd f7c5 06be
00000180: 06e7 a8bd 6864 b3bc 13b9 aabd 79c0 5d3b
00000190: d65d 523e 30b0 a43d fb61 433e efb3 56bd
000001a0: 610b d13d 2579 b13c 991e 9e3c 2638 fabc
000001b0: 36c8 9a3a 61b7 bf3d ff46 933d af2e e8bd
000001c0: f868 b93c bd26 293e 8650 b0bd 26bc c4bd
000001d0: 30b6 1d3d 44c2 18bd ed7a 62bd f069 34bd
000001e0: 6e24 4cbe cf84 48be ff85 ecbd c671 26bc
000001f0: 0472 283d 81ca c1bb 3005 bbbc eecc 1cbe
00000200: e358 553e 06bf b93d c47e 11be be2c 9f3d
00000210: 0447 1c3e afbe 523e 59db 52bd 72b5 0dbd
00000220: 320b 8a3d f6c1 023e 4294 213c d464 9ebd
00000230: 09dc b63e db42 58be 6869 ddbd aefb 8dbd
00000240: a561 9e3d f968 583d c16d 39bd 17e6 533d
00000250: e09b c33b 2e89 873d f9db 0ebe a240 4bbe
00000260: a174 4fbe 9a21 a73e 9ef9 893d 5642 a6bd
00000270: 58b4 a8bd 519e 023e 9a9c acbd 3cd6 0a3d
00000280: b64c 263d 7011 dcbd f3ad cabd f72a 023d
00000290: 09c0 cbbd f423 e63d 4b14 b4bd 0124 96bd
000002a0: 91f4 49be e545 283e b00a 3dbe 01c5 ec3c
000002b0: 45af 9c3d 50af 0fbc e04a 26be 8279 a73d
000002c0: 1e68 4cbd 2c1a 73bd 467b aa39 b170 1e3e
000002d0: a22f 913d 8ccd abbd c85d 20be a837 203e
000002e0: f79b 113e 269b bcbd ffe6 023e b017 323b
000002f0: e073 c3bb fed9 5d3e 88ba fabc 62dd 923c
00000300: 5a8c f93d 2891 173d 0f75 d3bd bca8 8bbd
00000310: eef8 17bd 311f 5fbe 0a8a 9ebe 0ba5 a7be
00000320: 79c7 ae3d 55b7 3bbe a2e0 edbe 566c 1abd
00000330: ab80 1cbe 8cb6 72be a532 c33c 7107 2d3e
00000340: 417d 063e f777 49bd 2b48 6e3c fa18 8bbd
00000350: b08b 1fbd 28db d4bc 0289 a3bc cb8d 1ebe
00000360: 2fd3 0e3b afa9 0e3e c131 633e 112c 9d3d
00000370: 9e7f 80bd 2cfb f53d e4fa 173d 980c 873d
00000380: 7f25 d7bc 5430 6dbd 20f7 0d3d 8526 e33d
00000390: cb34 efbd 1d7a 56bd b067 903d db60 5f3d
000003a0: f416 88bd d3d0 b5bd 2946 3cbe 0073 8d3c
000003b0: 0729 d3be 6af7 0c3e ad8e debd 68f4 68be
000003c0: 7431 4a3e 2cfe 15be 3115 26be 9d98 c33c
000003d0: fe15 fd3d 9407 cd3d d0d3 1b3e e13c 0a3d
000003e0: e258 c5bd 7252 3f3e f539 bbbe 65c9 0ebe
000003f0: f4dd 9ebd eda2 6fbd 107c 95bd 0b08 0b3e
0.0060131564 -0.07111594 0.071471415 0.0044826567 -0.0058443868 -0.32011202 -0.20288667 0.11018144
-0.02449197 -0.21379445 0.031168947 -0.19094874 -0.33028942 0.116501234 0.036478374 -0.25713807
-0.024619194 0.08530499 0.12592845 0.030467605 -0.09923184 0.072024524 0.051962785 -0.012545329
-0.04911376 0.031153223 0.18278666 0.07737023 0.041527033 0.09135142 0.08003014 0.026138706
-0.28318918 -0.06257802 0.06915868 -0.1721747 0.05092334 -0.20813413 -0.054391854 -0.022644518
-0.0930836 -0.4143437 -0.28557077 0.045466438 -0.09070438 0.07601078 0.113579564 0.075868115
0.05551834 -0.08617822 -0.034624305 0.15134583 -0.05178258 -0.07648876 -0.38224795 0.006725871
-0.04609738 -0.50679976 -0.098425835 0.09162364 0.035570294 -0.14464246 0.11234483 0.07229791
-0.13208346 0.078056216 0.058299024 -0.09086339 0.07488404 0.18132146 0.078548454 0.040026043
0.023909237 -0.019734427 0.22020066 -0.046420373 -0.1979626 -0.10539739 0.0771295 0.21701537
0.04616257 -0.0883125 0.1685726 0.22852284 0.10271835 0.1012457 -0.07485627 0.10747965
-0.32931387 -0.17281447 -0.05481802 0.068065286 -0.043496773 0.012583665 -0.03439547 -0.13161455
-0.08247189 -0.021898463 -0.08336081 0.0033836646 0.20543608 0.080414176 0.19080345 -0.05241769
0.102072485 0.021664212 0.0193017 -0.030544352 0.0011808935 0.093611486 0.07191276 -0.11337029
0.02263306 0.16518684 -0.086091086 -0.09606199 0.038503826 -0.03729464 -0.055293012 -0.044046342
-0.19935772 -0.19581912 -0.11548995 -0.010158962 0.04112436 -0.005914033 -0.022829622 -0.1531255
0.20834689 0.09069638 -0.14208513 0.07772206 0.15261465 0.20580553 -0.051478717 -0.034596868
0.067404166 0.12769303 0.009862008 -0.07734075 0.35714749 -0.21119253 -0.1081112 -0.0693277
0.07733468 0.052834485 -0.045270685 0.051733103 0.0059695095 0.06617962 -0.139511 -0.19848874
-0.20259334 0.32642823 0.06737064 -0.08118121 -0.08237523 0.12755705 -0.08428307 0.033895716
0.0406005 -0.107455134 -0.098964594 0.031779256 -0.09948737 0.11237326 -0.08792933 -0.07331086
-0.19722201 0.16432913 -0.18461108 0.028902533 0.076506175 -0.008769825 -0.162395 0.08177473
-0.04990398 -0.05935113 0.00032516773 0.15472676 0.07089163 -0.08388814 -0.15660775 0.15646231
0.14219652 -0.0920928 0.1278343 0.0027174763 -0.005964741 0.21665189 -0.030606523 0.01792783
0.12184973 0.037003666 -0.103250615 -0.06819293 -0.037102632 -0.21789242 -0.3096469 -0.32743105
0.0853414 -0.18331654 -0.46460444 -0.037700973 -0.15283458 -0.23702449 0.02382786 0.1689737
0.13133718 -0.049186673 0.014543573 -0.06791873 -0.038951576 -0.025983408 -0.019962791 -0.15483777
0.0021793356 0.13931917 0.22186948 0.076744206 -0.06274341 0.12010798 0.037104502 0.06594199
-0.026262997 -0.057907417 0.034659505 0.110913314 -0.11679991 -0.05236255 0.07051027 0.054535728
-0.06645003 -0.08877721 -0.18386139 0.01726675 -0.4124224 0.13766256 -0.10867057 -0.22749484
0.19745427 -0.1464774 -0.16219021 0.023876483 0.1235771 0.10011211 0.15217519 0.033749465
-0.09636094 0.18683794 -0.36567655 -0.13944013 -0.07757178 -0.058504988 -0.07299054 0.13577287

regressors.1.lins.0.bias f4 [32]
00000000: c283 99bd afb3 153e 3b69 3ebd 2e96 17be
00000010: 4804 713e cd6b 143e 0da8 abbc 77b4 0cbe
00000020: 9a81 953d c18b 783d db93 febd 732a f8bd
00000030: ae89 b43d 6770 593e bb08 423d 24b5 733e
00000040: 769d 263e eb8e babc e440 823c 5b14 8b3e
00000050: e9a3 143d 55af 8c3e cfcc fabd 328c e8bd
00000060: 9711 283e e43a 923d 029c ccbd e8e5 253e
00000070: 9376 2c3d 7c4d 803e 6127 913e 8ac2 adbc
-0.07495834 0.14619325 -0.046487074 -0.14803383 0.2353679 0.14494248 -0.020954156 -0.13740717
0.0730011 0.060680155 -0.12430545 -0.121174715 0.08815323 0.21234284 0.047371607 0.23799568
0.16271004 -0.022773227 0.015900083 0.27163967 0.03628913 0.27477518 -0.122460954 -0.11354865
0.1641296 0.07140139 -0.09990694 0.16200984 0.04210527 0.25059116 0.28350356 -0.021210928

regressors.1.lins.1.weight f4 [32, 32]
00000000: 3a8e 56be 1d2b d9be 3410 03bd 02f6 1d3e
00000010: caf4 e5be f4d4 45be cc2c a6bd c160 d43d
00000020: 5dc3 acbe 72d1 ddbd dd9c 88bd adab c43e
00000030: e8e8 9ebd a53d bcbc cceb 9cbe 99dc 613d
00000040: 6ce4 173b fca9 5cbd 5021 ab3c 2454 a63d
00000050: 44fb 9e3d 5aa9 0abf 5af4 fbbd 5c04 80bc
00000060: 6020 503d b2f2 083e c432 c7bd 6044 d93c
00000070: 2fda 01bf a314 b9be a8e4 ce3e 47d9 2b3b
00000080: 9e8e 34bd 7473 74bd 273c 03be d899 c03d
00000090: 69bd 9dbd fa87 8d3e 2584 08bd 7960 243e
000000a0: 5b29 803d 1e54 8c3d 5b67 dcbe 10d5 783d
000000b0: 6aff 403d 9871 923d 82c2 12bd f4b0 e0bc
000000c0: cf16 0fbe ba19 0cbd 4308 0b3e df89 523e
000000d0: 2081 3cbe 8168 3cbe 52ea c23d 0c60 193e
000000e0: aef2 983e 0eee 80bd d6da 473e 952f 023c
000000f0: b9ff 783d 43f5 8c3d f0a1 c33e 4e98 143c
00000100: ae16 90bd ca17 2b3e 11d6 cdbd ec68 0dbe
00000110: 190b b2bd 6904 2c3e 1f01 103e ad69 9ebb
00000120: 081e 3dbe 6e89 5b3e f987 d93d 0b7a 85be
00000130: 9ee4 293e f073 0cbd 0700 fe3d ea58 a3bd
00000140: 3a96 dbbd 948b b1bd d8b8 e43c 55fa 79be
00000150: 5e84 c23d 78e6 573e 012e 733e eca4 353e
00000160: 53ed c3bd 0599 c33d 12bb 40bd 72be 873d
00000170: a248 e5bd 6f37 e3bd 23f2 913b 12e1 cd3d
00000180: 3cb8 e33d 9b34 be3d 17e0 3a3d 654b 803e
00000190: 7be0 723e 118d 11bd 3255 30be 8bf8 973d
000001a0: 6403 80be b59b 243e a3b2 063e d63a e7ba
000001b0: b89b 94bd 9d90 c6be fecd 9ebe 5401 3cbd
000001c0: 385d 51be 7d79 adbe 788c 50bf afcc 8dbd
000001d0: 7895 2ebd de0d 853d 44c4 e43d 3c4c 25be
000001e0: c583 cabe 02d2 5dbe 407f 4c3d 1c08 62be
000001f0: 5c13 ce3c 3f46 033e b737 7dbf 4f74 efbe
00000200: ded9 fa3d 4232 ebbc 9908 0fbe 5ec8 7e3e
00000210: baa7 493d d926 813e 5bf3 413e eb44 2abe
00000220: 983b 4e3e 78d1 1bbf 7095 91be 2711 d03d
00000230: e453 063e 61e5 203d c1c9 023e ffe0 1dbe
00000240: 513d 16bf c95b 883d 1a94 003e 0fb1 72be
00000250: aa27 bebe 5736 013d 2d64 943c 2f53 f0bd
00000260: 281a a1bd c56b 11be ce40 10be 6fc7 68bd
00000270: b5f4 613d 952d 8f3c a43d 57be 3e8a b53d
00000280: 7267 22be 2ddd 5a3d 2f5d abbd cd30 dabd
00000290: 6d2f eb3d 3896 f73d b87e ccbd c952 fdbc
000002a0: a62c 50be a4c9 71bd 1309 fdbd 9d8a 933d
000002b0: 384b 9a3c c18d 80be 5ae5 27be ef91 7a3e
000002c0: 7736 81bc 1833 85bd 36b7 613e 1c80 973d
000002d0: 0420 67bc eb86 2a3e 4dcf 4a3a ef59 123e
000002e0: 6ae7 393e 9a23 353d 89a9 1fbe 8320 d7bd
000002f0: c0ea 2dbe 3278 dbbd 5004 743d c389 383e
00000300: 3b1b 1b3e 0f61 1fbe d2e9 febc 16f8 ea3d
00000310: ae96 9cbd 3a92 9c3d 7c8c ba3d 67f4 443e
00000320: 672f 55bb c2fa b6bc 44aa 85bc 3527 e03d
00000330: 2574 f8bc be2c d1bd ce73 aebd a422 ee3d
00000340: 822f 9b3d 36e1 bcbd 351b 743d a8dc 81be
00000350: bd11 18be 60ae ebbe 01b6 fc3d 7e6c 71be
00000360: aec7 95bc a36e 79be 2bb6 dabd 711d 43be
00000370: 11db a83e a15d 593d 7394 6b3e 7ca3 4ebd
00000380: 854a 24be d781 d7bd eb40 bebd 5394 c73e
00000390: f8be 483e dd7d 2f3e 8ec8 f3bd 7849 92bc
000003a0: 2c27 cfbc a59b d3bd 098f 473d 280a 1e3e
000003b0: 34e7 8d3e 56a7 db3d 6876 513e 131b 1abe
000003c0: 0ac0 94b8 a2fd 32be 895f 58bd 5a57 7ebd
000003d0: 49f9 2fbc 2eb1 fa3c 40a0 2ebe 3a67 893d
000003e0: 2e42 213e dfc7 023e 7b8f 163c 702e c7bc
000003f0: b548 233e d21a 0d3e 3832 383e 35b2 1b3e
-0.20952693 -0.42415705 -0.031997874 0.15425876 -0.44913322 -0.19319516 -0.08114013 0.10370017
-0.337428 -0.10830964 -0.06670544 0.38412228 -0.07759267 -0.022978613 -0.3064865 0.05514202
0.0023176922 -0.053873047 0.020889908 0.08121517 0.07762769 -0.5416466 -0.12302466 -0.015627079
0.050812125 0.13373831 -0.0972648 0.026521862 -0.50723547 -0.36148557 0.40408826 0.0026222037
-0.044081323 -0.059680417 -0.12815915 0.09404343 -0.07702143 0.27642804 -0.033329148 0.16052426
0.06257888 0.068519816 -0.43047604 0.060750067 0.04711858 0.071505725 -0.03583003 -0.027428128
-0.13973545 -0.034204222 0.1357737 0.20560406 -0.18408632 -0.1839924 0.09517349 0.14978045
0.2987265 -0.06295405 0.19517073 0.007945915 0.06079075 0.068827175 0.38209486 0.009069515
-0.07035576 0.16708294 -0.100505956 -0.13809556 -0.08693523 0.16798557 0.14062928 -0.004834375
-0.18468487 0.21439144 0.10621638 -0.26069674 0.16591117 -0.034290254 0.12402349 -0.079759434
-0.10722013 -0.086692005 0.027920172 -0.244119 0.09497903 0.2108401 0.23748018 0.17738694
-0.095667504 0.095506705 -0.047053404 0.066281214 -0.11195494 -0.110945575 0.004453914 0.100526944
0.11119124 0.092873774 0.045623865 0.2505752 0.23718445 -0.035534922 -0.1722 0.07420453
-0.25002587 0.16075023 0.13154082 -0.0017641436 -0.072562635 -0.38782206 -0.31016535 -0.045899704
-0.20445716 -0.3388175 -0.8146434 -0.06923806 -0.042623013 0.064967856 0.11170247 -0.16142362
-0.39553657 -0.21662143 0.049926043 -0.22073406 0.025155716 0.12819766 -0.9891314 -0.46768424
0.12248586 -0.028710488 -0.13968123 0.24881122 0.049232222 0.2522495 0.18940489 -0.16627853
0.2013992 -0.608665 -0.28434324 0.101595215 0.13117939 0.039281253 0.12772276 -0.1541786
-0.5868731 0.06658132 0.12556496 -0.23700355 -0.37139636 0.031545963 0.018114174 -0.11734616
-0.07866317 -0.14201267 -0.14087221 -0.05683082 0.05516501 0.01747779 -0.21019608 0.08864258
-0.15859774 0.053433586 -0.08367383 -0.10653839 0.11483655 0.12089199 -0.09985107 -0.030923264
-0.20329532 -0.05903019 -0.123552464 0.07204173 0.018834695 -0.2510815 -0.16396084 0.24469732
-0.015773041 -0.06503886 0.22042546 0.07397482 -0.014106754 0.1665303 0.00077365787 0.1429212
0.18154684 0.044223405 -0.15592016 -0.10504248 -0.16984081 -0.10716285 0.059574425 0.18021302
0.15147106 -0.15564369 -0.031117354 0.114731 -0.07645927 0.07645078 0.091088265 0.19233857
-0.0032529475 -0.022336368 -0.01631654 0.10944978 -0.03032882 -0.10213612 -0.08518182 0.11627701
0.07577421 -0.09222643 0.05959626 -0.2536366 -0.14850517 -0.46031475 0.12339402 -0.23576543
-0.018283691 -0.24358611 -0.10679277 -0.190542 0.32979634 0.053067807 0.23005848 -0.05044888
-0.16044052 -0.10522812 -0.09289726 0.3898035 0.19604099 0.17137857 -0.11903487 -0.017857298
-0.025287233 -0.10332421 0.048720393 0.15433562 0.27715456 0.10725276 0.20455325 -0.1504939
-7.09296e-05 -0.17479566 -0.052825484 -0.062095024 -0.010740587 0.030602064 -0.17053318 0.06709142
0.15747902 0.12771557 0.009189482 -0.024314135 0.15945704 0.13779762 0.17987907 0.152047

regressors.1.lins.1.bias f4 [32]
00000000: 76ed 31bc 75bf 68bd d8bc 9abd fdfa 7cbc
00000010: 878a a2bd 609d b23e ddd7 223c e986 f53c
00000020: 7556 193d 58c9 5dbd d546 41be 73dd 22be
00000030: 0a8d 443e 6ec2 be3d f2a4 3e3d d9b4 093e
00000040: 941d 4b3c d3c2 ca3d 2185 0fbe 8380 8e3d
00000050: 3158 adbd f39f e63d 81ce 133e f585 6f3e
00000060: e13d db3c 89d2 893e deb1 73be c976 293e
00000070: b3ae 70be 244c 8f3c 12f6 de3d 5afb 443e
-0.010859838 -0.056823213 -0.0755555 -0.0154407 -0.07936578 0.34885693 0.009939161 0.029971557
0.037435967 -0.054147094 -0.18874677 -0.15904789 0.19194427 0.09314428 0.046544023 0.13447894
0.012397189 0.09900441 -0.14015628 0.069581054 -0.08464087 0.11260977 0.14434244 0.23390944
0.026762905 0.26918438 -0.2379832 0.16549219 -0.23504142 0.017492361 0.10886778 0.19236508

regressors.1.lins.2.weight f4 [32, 32]
00000000: cd22 8fbe 8238 c43d d330 67be 0163 0bbf
00000010: 0c32 083f 0480 9b3d 9f6a 12be 5749 bb3d
00000020: e704 afbd 5ff6 ef3d 6bbd 1dbe a02c 78bd
00000030: 4401 fb3d 2be3 563e 30d2 113d 088a a8be
00000040: 8f0a bc3c 6a01 e53d a97f 92be f380 2b3e
00000050: 303f 78bd c823 3fbe 687d de3d 026f 213e
00000060: 2470 d8bd 7950 b9be 2369 79bc ca9b e63e
00000070: bcbc e2bb d23e 053e 44ad 45be b1dd 00be
00000080: d1be ecbb bb5a 67bc f518 1cbc fc20 33bf
00000090: ca43 653d af47 2abe c36f 64bd 46d7 6fbe
000000a0: 86d2 3cbe f8a5 333e 861c 153e 0772 bcbd
000000b0: 179a 183e ce35 013e 97d6 8cbc 4028 efbc
000000c0: e8b0 92be c950 11bf 9cfd 68bc 27c4 a63c
000000d0: afcd a6bb e606 e23c b335 f33c 2efe 523e
000000e0: 0877 1bbe 056e a33b b645 cf3d 81c0 7e3c
000000f0: a57e 67bd 2baa a43e 58f4 50be 2a0a 35be
00000100: 9920 d7be d277 c73d b13b c73d 8231 5ebd
00000110: d736 2d3e 9778 403e 83d7 5b3e 4eee 5d3d
00000120: fd12 553d bd27 55be cc7d 1abe 39c8 0a3e
00000130: 97e2 bb3d ea63 3abe 2be8 4e3d 810d 403e
00000140: 5975 2c3e 8db5 af3b 02fb ce3b 76a8 28be
00000150: be58 80bd 1e02 903b 23ad 75bc b81b f73d
00000160: 7b55 2f3e 6781 973d e055 f13d b38f 943d
00000170: 1dc0 113e 893c 30be e77e 773e 10f2 313e
00000180: b1ca b8bd 9980 ebbe 83c0 94bd 1fe1 19bd
00000190: 5653 80bd 12f3 b73d fc85 8f3e 3708 2ebe
000001a0: 3872 83be cbb2 0bbe 422e 2dbd ece9 9e3d
000001b0: 92b0 cebe 42a1 853e 58de 8f3d 3208 a2bd
000001c0: ecaf 26be eeab 743e c4ce 4cbe e4cc c5bb
000001d0: c0b9 ec3d 8e58 e4ba 3c70 063d 46a3 a2be
000001e0: 2641 e23d 415b 43bd 772f e03b fec0 afbe
000001f0: a9b4 453e 41ec 0bbe c60d 9bbe 14e3 873d
00000200: 8c14 8d3e 0786 ec3d ad19 0c3e eb74 8d3e
00000210: e831 4abd 0f51 ff3c b04e 82be 2ef7 573e
00000220: ee93 84be 8c06 abbd a0ae afbe 3a2a 9cbd
00000230: 2954 5b3e 3736 9f3a 3b7a 10bf 699c 733c
00000240: 7519 b53d c214 1abe cb29 35be f7e0 47be
00000250: e368 1ebe 42b3 8cbe 69be 82be e2ca 043d
00000260: a2f0 973e 6064 c8bd ab86 b93d 9e37 433e
00000270: 2694 0cbe b442 4dbd fa64 d43d 713a f83d
00000280: 0194 aebd c5e5 f53d 4459 0abe 1504 edbd
00000290: b37c 543e 7133 dcbd 3c28 a03c 1d5f 0d3e
000002a0: 9a1c 7a3d a201 1cbe a9e6 5d3a 6757 f13d
000002b0: fa6f 833d 0fe4 973d 1763 543e 90fd 0c3d
000002c0: 148e 093e 555d 12be ae4a 9a3c c1e7 2cbe
000002d0: 6403 7fbd fa1b b13d b3c8 aa3c de65 bf3d
000002e0: 8c14 c13d 2754 163e bd55 9bbd 918b 85bd
000002f0: 486c 9ebd cb03 b4bd 6575 463d c778 eb3d
00000300: 8c37 823e be96 ef3c 1e76 0abc da81 3abe
00000310: b5bb c4be 44f0 89bc 3319 d7bd 276b 713d
00000320: 740b c7bd 8609 553e cd75 003b 872d 6d3e
00000330: 0052 5c3e 4139 993c 79ff 023e 9dbf c23e
00000340: 2cd0 b6bd a14e 96bd a469 213e 8045 39be
00000350: 7a00 32be cbd7 2dbe 1148 16be 36a1 3b3e
00000360: 8e52 703e e7d2 13be fa6c 183d 4a46 22be
00000370: 11b6 733e 7165 393e c851 733e 5276 e0be
00000380: 1151 bbbd 9bf9 a7bd 2392 2ebe c5cb 893e
00000390: 9b83 d6ba 1c57 0e3e 2b33 10be 84a6 9fbe
000003a0: 829d 373d c48a a53d 15b3 13be c1b3 fb3d
000003b0: 3445 10bf 043b 54be 3a14 273e ac7e a43d
000003c0: 8876 9fbd a291 aebe 584c 06bf 804a 2ebf
000003d0: 30dc f7be 21fd 49bf dbb3 2dbd aaaf bc3d
000003e0: 3b0c 29be 2586 38bf 2714 de3c ac2b 27bf
000003f0: d34f 32bf b9c5 02be 24bd 043e 1d3f a33d
-0.27956238 0.095810905 -0.22577219 -0.5444794 0.53201365 0.075927764 -0.14298485 0.09144848
-0.08545857 0.117169134 -0.15404288 -0.060589433 0.12256101 0.20985095 0.03560084 -0.3291781
0.022954253 0.1118191 -0.28613022 0.16748409 -0.060607135 -0.18665993 0.10863763 0.15765002
-0.10568264 -0.36194208 -0.01522282 0.45040733 -0.0069194715 0.13012245 -0.19304377 -0.12584569
-0.0072248955 -0.014120753 -0.009527435 -0.69972205 0.05597285 -0.16628908 -0.055770647 -0.23421964
-0.18439683 0.17543781 0.14561662 -0.092014365 0.1490253 0.12618181 -0.017192168 -0.029193997
-0.28650594 -0.56763893 -0.014220621 0.020357205 -0.0050904374 0.02759118 0.029688692 0.20604774
-0.15182126 0.0049874806 0.10120718 0.015548826 -0.056517262 0.32161078 -0.2040571 -0.17679659
-0.42017058 0.09739651 0.09728182 -0.054246433 0.16915451 0.18796001 0.2146893 0.054182343
0.05202006 -0.2081594 -0.1508705 0.13552941 0.09174078 -0.18202177 0.05051438 0.18755151
0.1684164 0.0053622187 0.0063165436 -0.16470513 -0.06266926 0.0043947836 -0.014994892 0.12065834
0.17122452 0.073977284 0.117839575 0.07253971 0.14233442 -0.17210592 0.24169503 0.17377496
-0.09023035 -0.4599655 -0.07263281 -0.037568208 -0.06265895 0.08981909 0.2803191 -0.16995321
-0.2567308 -0.13642423 -0.042280443 0.07759461 -0.40369087 0.26099592 0.070248306 -0.079117194
-0.16278046 0.23893711 -0.2000075 -0.0060363878 0.115588665 -0.0017421411 0.03282188 -0.31765193
0.11047582 -0.04769445 0.0068415958 -0.3432693 0.19307198 -0.13664342 -0.30283946 0.066351086
0.2755474 0.11549001 0.1368167 0.27628264 -0.049364 0.031166581 -0.2545066 0.21090385
-0.2589411 -0.08350858 -0.34312916 -0.076252416 0.21418823 0.0012146895 -0.5643651 0.014868834
0.08842746 -0.15046981 -0.17691724 -0.19519411 -0.15469699 -0.27480513 -0.25535896 0.032420047
0.29675776 -0.0978477 0.09058889 0.19064185 -0.13728389 -0.05011244 0.10370822 0.12120522
-0.08524323 0.12006716 -0.13510615 -0.11573044 0.20750694 -0.10751999 0.019550435 0.13805814
0.061062433 -0.15234998 0.0008464852 0.11784249 0.06417842 0.074165456 0.20740925 0.034421504
0.13433105 -0.14293416 0.018834438 -0.16885282 -0.062259093 0.08647914 0.020847654 0.093456015
0.09427747 0.14680539 -0.07584713 -0.06520761 -0.07735497 -0.08789786 0.0484518 0.11497646
0.25433004 0.029246684 -0.008451013 -0.18213597 -0.3842446 -0.0168382 -0.10502853 0.05894008
-0.097189814 0.20804414 0.0019601465 0.23161899 0.21515656 0.018704059 0.12792768 0.38036814
-0.089264244 -0.07339216 0.15762955 -0.18092918 -0.17382994 -0.1697685 -0.14675929 0.18323216
0.23468992 -0.14435922 0.037213303 -0.15847126 0.23799922 0.18105103 0.23761666 -0.4384027
-0.091463216 -0.08201905 -0.17047934 0.26913276 -0.0016366126 0.13900417 -0.14082019 -0.3118173
0.044827946 0.08083108 -0.14423783 0.12290145 -0.56355596 -0.20725638 0.1631631 0.08031973
-0.0778628 -0.34095484 -0.5246024 -0.6808243 -0.48410177 -0.7890187 -0.04240785 0.09213193
-0.16508572 -0.7207969 0.027109219 -0.65301013 -0.6965305 -0.12770738 0.12962776 0.07971022

regressors.1.lins.2.bias f4 [32]
00000000: 76c9 b83c 215f f23d 426b 193e b5c2 93bc
00000010: 2d59 76be 1d97 3f3e 1028 5fbe 733b 3a3e
00000020: 606b 53be 1b9f fdbd 8208 3b3e 06fd 153e
00000030: 237f 71be 6d66 5bbe b717 b63d ae2a a43e
00000040: 8aee 8a3e 12c2 65bd e0ba ca3d 0fc5 89bd
00000050: 8a59 05be 11f4 6bbd 3c2d fabd eb02 1ebd
00000060: 5eda c73d 07ee 4abd d374 c4bc a675 b63d
00000070: 8584 833d 05b3 9bbc 53ff 14bd fbd4 303d
0.022557002 0.11834551 0.14982322 -0.01803718 -0.24057455 0.18709989 -0.21792626 0.1818674
-0.20646429 -0.123838626 0.18264964 0.14647302 -0.23583655 -0.21425791 0.08891242 0.32063812
0.27135116 -0.056093283 0.09898925 -0.06727039 -0.13022438 -0.057605807 -0.12215659 -0.038577
0.09758447 -0.049543407 -0.023981487 0.089091584 0.064217605 -0.019006262 -0.03637631 0.043171864

regressors.1.lins.3.weight f4 [1, 32]
00000000: c1db 953d 72aa dfbd 66be 2c3e e016 49be
00000010: 2e43 2abe 3064 673d 27cb 5dbd 0e74 b2be
00000020: 4013 08be 154e e4bd b9f5 91be e265 58be
00000030: d00f f9bd d192 01be f53c 71bd a911 373d
00000040: 93d0 0b3e 47c5 a8be 5ad7 b7bd 36c5 3dbe
00000050: 6608 d4be 1131 663c aea5 dcbd a4e8 733c
00000060: a439 58be f955 0abe db69 4dbd c62b b73d
00000070: b1d6 093d 832b 8fbd edcc dabd 0e2d 3ebe
0.07317305 -0.10921182 0.16869506 -0.19637632 -0.1662719 0.05649203 -0.05414882 -0.34854168
-0.13288593 -0.111477055 -0.28507784 -0.21132615 -0.12161219 -0.12653662 -0.058896024 0.044694576
0.13653784 -0.3296301 -0.08976622 -0.18532261 -0.41412657 0.014049784 -0.107737884 0.014887009
-0.21115738 -0.13509358 -0.05014978 0.08943896 0.03365201 -0.06990721 -0.10683618 -0.18571874

regressors.2.lins.0.weight f4 [32, 64]
00000000: 38a1 9dbd e0f2 f9bc 8ab1 aabd 20be f5bc
00000010: 0849 4e3d c2a9 c13d 90c1 39bd 84af c03d
00000020: c86a 1fbd e8c2 6cbd 0042 0a3a e04f dd3b
00000030: 483e 34bd a01e 583c e2b5 dbbd 58ae a13d
00000040: 0841 e93c 5a0e bbbd 54cb 6abd e86a c23d
00000050: f8d0 863d 34a7 9fbd 4060 88bd cca4 58bd
00000060: 9038 58bc 52dd b43d 447c cf3d fa26 9b3d
00000070: d81a 3cbd 16a2 a4bd a6ae dd3d 749e 4d3d
00000080: 98e5 e8bd 8ed3 88bd d80c 953c 1ccb fd3d
00000090: b628 a6bd 7816 ebbc 0080 d137 4886 79bd
000000a0: 78ad 67bd dccc d03d d26a d0bd 1221 babd
000000b0: 0044 433c 48f3 f73c 52b6 bfbd a025 483c
000000c0: def0 cbbd 72bf 9e3d ce3f a3bd c8ca c4bd
000000d0: c86d a4bc 50bd 7fbc 64d1 643d f8d6 acbd
000000e0: 4069 8c3d 3252 aabd f602 cd3d 2028 cb3c
000000f0: f0ab a63c e0e2 ad3d 2039 53bc 469d a63d
00000100: 9828 f43d a0d1 d53d d0af 32bd c0bc fa3c
00000110: 8e93 99bd 08bc e33c 52a1 d4bd 7407 0cbd
00000120: 30a0 ff3d 4244 e33d 1629 a63d dc3d e9bd
00000130: 10d7 4a3c 2e09 87bd 74a3 783d b827 bdbd
00000140: 2ce9 aebd 002e 5abd ec34 443d 7c55 8fbd
00000150: 60ab cb3d b271 f43d 389d 4e3d a660 b6bd
00000160: b8a7 de3c 7003 e73c a2c9 c7bd 4ab2 c6bd
00000170: 7a1a a3bd b89d 66bd 52b5 fbbd f8fb 903d
00000180: 1034 97bd 7022 603c f6fe cdbd c498 37bd
00000190: 2094 dabb 749f 723d 4068 c2bb bc16 a3bd
000001a0: 709c 693c 102f 63bd f8d7 f0bd 4808 933d
000001b0: 584e d73c 6073 533d c06d f23d 303f ff3c
000001c0: aeed 9a3d c0ee b6bb 5cd6 02bd 3ce7 eabd
000001d0: e054 e53b 0011 5abd 1cb4 2f3d 5829 7b3d
000001e0: 5a7b c4bd 4286 a0bd 2840 363d 742d 92bd
000001f0: 906b 6d3c ba1a ef3d 0c0d d8bd 4401 33bd
00000200: 34ee f0bd a0db e5bc a409 5d3d 1034 1dbd
00000210: 2802 f4bc 00fd 48bc f8f8 55bd e863 3fbd
00000220: d463 c03d 68c6 e2bd 203b ac3c 30ab a23d
00000230: 5826 2b3d 9c97 b0bd 2075 69bc 40e2 c1bd
00000240: 1094 443d 422c 9ebd 806e e33a 7803 6d3d
00000250: e81d c3bd 52b6 ea3d e0db da3c f071 50bd
00000260: 58ce 113d 0cdb 64bd 008c bb3c 920c c23d
00000270: 8893 f33c 984c 56bd 2c8f 38bd 8e09 993d
00000280: 983b c03c c0af 98bb 5c35 b3bd 0455 4bbd
00000290: e094 1ebc 10f8 3a3c a04d d6bd 3cbe af3d
000002a0: de6d a73d e8c9 993d 9226 e93d e8ac ee3d
000002b0: 6276 97bd c85f f73d b464 7bbd f8a7 763d
000002c0: 04ea 823d f6fa d73d e075 00bc c205 aa3d
000002d0: a08a 8a3c 185d 9e3c fcf8 723d c2b0 8cbd
000002e0: 1632 8abd 2284 f53d 84c0 4c3d dcfc 013d
000002f0: 3648 a8bd 8422 d03d 98b6 b6bd 840f 903d
00000300: 98fa 11bd fca4 1dbd 7e09 893d 846c c33d
00000310: a055 8f3d 4c82 20bd b452 a1bd 2c0c 06bd
00000320: e801 8b3d 8052 f53a 908d 34bc 7023 8dbc
00000330: 5c0a f0bd d657 d83d f0fd 1fbd 0031 0f3b
00000340: 1af7 893d 6815 753d 8041 d73c 04ef 45bd
00000350: de4c d03d 8c9d 6e3d 8094 51bc ce68 873d
00000360: 449f 863d 50a3 1a3d f893 c5bd 14bf 8abd
00000370: ae16 f73d 40a8 d0bc d02a 85bc fc06 8a3d
00000380: 3cec 6fbd a49b 16bd b20c d9bd 60e9 53bc
00000390: f06f 0b3d da4d da3d 9e05 9ebd 6812 d5bd
000003a0: 6043 b0bb 2800 83bd 1c7b 35bd 00a8 5cbd
000003b0: ac72 a3bd 30e5 9c3c 486c bb3c 40c0 763b
000003c0: 7c68 c43d 10ef 60bc 4868 b13d e287 89bd
000003d0: 00fd 663a c02a ff3b 38b5 87bc 6201 e0bd
000003e0: cca3 b5bd 4008 a4bb 4032 aebb d0d1 dd3d
000003f0: 4678 b6bd 082e e6bc c09c f23d c2ac cbbd
-0.07696766 -0.03051132 -0.08334644 -0.029997885 0.050362617 0.09456207 -0.04535061 0.09408477
-0.038920194 -0.057803065 0.0005274117 0.0067539066 -0.04400471 0.013190895 -0.10728051 0.078945816
0.028473392 -0.09133597 -0.057322815 0.09493047 0.065828264 -0.07795563 -0.06658983 -0.052891538
-0.013197079 0.08831276 0.10131124 0.075757936 -0.045924038 -0.08038728 0.10824327 0.05019994
-0.113719165 -0.06680976 0.018194601 0.12392256 -0.08113234 -0.028697237 2.4974346e-05 -0.060919076
-0.056561917 0.10195324 -0.10176624 -0.09088339 0.011918068 0.030267373 -0.09360947 0.012216002
-0.09958051 0.07751359 -0.07971154 -0.0960899 -0.020071879 -0.0156091 0.055863753 -0.084394395
0.06856012 -0.08316459 0.100103304 0.024799407 0.020345658 0.084905386 -0.012892038 0.08135466
0.11921805 0.104403734 -0.0436247 0.030607581 -0.07498847 0.027799621 -0.10382332 -0.034186795
0.12481725 0.110970035 0.08113305 -0.11388752 0.012380376 -0.06593548 0.060702756 -0.092360914
-0.08540568 -0.053266525 0.047902033 -0.06998727 0.099447966 0.11935748 0.050442904 -0.08905153
0.027179584 0.028199881 -0.09755255 -0.09701975 -0.079640344 -0.056302756 -0.122904435 0.07079309
-0.07382977 0.013680086 -0.100583956 -0.044823423 -0.00667049 0.059234098 -0.0059328377 -0.079633206
0.014258489 -0.055464804 -0.11759943 0.07179314 0.026282474 0.051623702 0.118373394 0.03115806
0.07564865 -0.0055826604 -0.03194271 -0.11469886 0.0069986433 -0.05323887 0.042896375 0.061318725
-0.0959384 -0.07838108 0.044494778 -0.07137576 0.014490977 0.116750196 -0.105493635 -0.04370238
-0.11764184 -0.028058827 0.053964272 -0.03837973 -0.029786184 -0.012267351 -0.05223939 -0.046726137
0.09394041 -0.11072999 0.021024287 0.07942808 0.041784614 -0.08622667 -0.014249116 -0.09466982
0.047992766 -0.07723285 0.0017351657 0.057864636 -0.095271885 0.11460556 0.026716173 -0.05088991
0.035597175 -0.055872962 0.022893906 0.09475054 0.029733434 -0.05231914 -0.045058414 0.074725255
0.023465917 -0.004659623 -0.08750412 -0.049641624 -0.009679049 0.011411682 -0.104640245 0.08581206
0.081752524 0.07509214 0.1138431 0.11654073 -0.073956266 0.12078816 -0.061375335 0.06021878
0.06392291 0.10545914 -0.007840604 0.083018795 0.016911805 0.0193315 0.05931948 -0.068696514
-0.067478344 0.11988093 0.049988285 0.031735286 -0.08216898 0.10162833 -0.08921546 0.07034209
-0.035639375 -0.03848742 0.066912636 0.09542182 0.069987535 -0.03918676 -0.078771025 -0.03272645
0.06787473 0.0018716604 -0.011020079 -0.017228812 -0.11720726 0.105636284 -0.039060533 0.0021849275
0.06736584 0.059834868 0.02627635 -0.048323646 0.10170911 0.058255717 -0.012791753 0.06611787
0.06573346 0.037753403 -0.096473634 -0.067747265 0.12064873 -0.025470853 -0.016255766 0.067396134
-0.0585749 -0.036769524 -0.105981246 -0.012934059 0.0340423 0.1065938 -0.07715915 -0.10403901
-0.0053791255 -0.06396514 -0.04430686 -0.053871155 -0.07980856 0.019152254 0.022878781 0.003765121
0.09590241 -0.013728872 0.08662468 -0.06715371 0.00088115036 0.0077870786 -0.016565904 -0.10937764
-0.088691324 -0.0050058663 -0.005316049 0.10831034 -0.08909659 -0.028098121 0.11846304 -0.0994506
