baseline/DLPL-CAP/models_dlpl-cap-regressor/sandwich+ultra8t_to_ssram+digtime+timing_ctrl+array_128_32_8t/dlpl-cap-regressor_nh_2_tsk_regression_ngl_4_nhl_4_hd_32_us_1_bn_0_dp_0.0_epoch_16_20250402_173509.pth (torch, 64130 bytes, 21 tensors)

regressors.0.lins.0.weight f4 [32, 64]
0.02822987 0.047209155 0.18886782 0.06213109 0.250822 0.021442555 0.10965873 -0.10567789
-0.23760515 -0.25281733 -0.53107387 0.13355522 -0.094940394 0.099111184 -0.29469645 -0.32323912
-0.02789704 -0.02645717 0.19341026 -0.17205179 -0.053198323 -0.016253099 -0.008087553 -0.225363
0.21300372 -0.2110587 -0.093835615 -0.20351629 -0.11454718 0.13722667 -0.10327305 0.08892284
-0.030544989 0.14995112 0.12416981 0.019791223 -0.06957099 0.26515684 -0.031737547 0.17739594
-0.13591059 0.20459029 0.17679384 0.13805735 -0.4170305 0.17808498 -0.30325106 -0.015867148
-0.18887591 -0.6273249 -0.3641463 -0.50328666 -0.07696642 0.04601714 -0.1775294 -0.21634279
-0.25126094 -0.17923184 0.007761279 -0.23476864 -0.11956468 0.20982379 0.11300291 -0.051322445
-0.11741411 -0.017723769 -0.102336675 -0.0377886 0.0814956 -0.038372383 -0.044595074 0.08335657
-0.06477952 -0.011908561 -0.029589765 0.016291609 -0.14839466 -0.049593765 0.07596949 0.07079045
0.009185332 -0.13440864 -0.09029673 -0.12175867 0.09789753 0.01002565 -0.042292874 0.052726425
-0.068639584 0.00568241 0.079297885 -0.0673818 -0.021330968 -0.07802406 0.062487766 0.04153057
-0.12716368 -0.056174427 -0.098472044 0.116994806 -0.14491303 0.033407915 -0.047810636 -0.0795462
-0.090185 0.06558341 -0.08928017 -0.124002315 -0.05657576 0.050264012 -0.07529822 -0.13209093
0.07124831 -0.13299935 -0.11651166 0.039525867 0.027275667 -0.11301844 -0.058897592 0.07400954
-0.072195604 0.041220855 0.026132196 0.10391379 0.10782866 -0.039587177 0.039115295 -0.10736222
0.0346522 -0.22659716 -0.21307433 -0.056224935 0.118906416 -0.2911777 0.20806894 -0.24791835
-0.35678494 -0.03222378 -0.23508207 -0.12305965 -0.2258384 0.19104236 0.14597943 -0.16491938
-0.29691166 -0.3513017 -0.3141747 0.113961324 0.07665396 -0.03929548 -0.16177143 0.26246545
-0.021731379 -0.023649307 -0.03461289 -0.29891342 0.055635616 -0.45728803 -0.06664626 0.0050789868
-0.072977714 -0.119192824 0.08198952 -0.012860079 -0.09673839 -0.34749234 0.19687144 -0.28066826
0.18121055 0.05021475 0.10960915 -0.29049394 0.2625717 -0.068159625 -0.0117736105 0.014060393
0.21161492 0.15779743 -0.06997038 0.121647075 0.1151984 0.007887557 -0.042957094 -0.0132677965
-0.13952675 -0.5410493 -0.20491453 -0.0939665 0.1074584 0.0078397775 0.021573216 -0.22328654
-0.12687232 -0.39202616 -0.5881519 -0.0325879 -0.0375117 -0.14217795 -0.07952558 -0.0033388066
0.120276235 -0.37336874 0.12129953 -0.09247925 -0.15531987 0.24096994 -0.9435384 -0.043324854
-0.4949126 -0.049876586 -0.2680183 0.16666998 -0.080139294 0.12462273 -0.36404333 0.32038826
0.038922086 -0.099773735 0.4224579 0.013057956 0.015551403 -0.30581707 -0.091207385 -0.023800734
0.089387394 -0.09625206 -0.150974 0.019649586 -0.121105574 -0.17257224 0.007579496 0.15316555
-0.22609004 -0.050108038 -0.067468025 0.07068923 -0.3709209 0.21115175 -0.66083366 0.019249376
0.000446724 -0.12714687 -0.09969753 0.16347167 0.07683091 -0.04933463 -0.25031668 0.16841683
0.18965231 0.10533868 -0.036321238 0.08884856 0.10159175 0.20868307 0.12027314 0.046528205
00000000: 5442 e73c 635e 413d 9166 413e 2b7d 7e3d
00000010: be6b 803e 4ca8 af3c c294 e03d a66d d8bd
00000020: c44e 73be 4671 81be 75f4 07bf b3c2 083e
00000030: 1c70 c2bd cefa ca3d 74e2 96be 997f a5be
00000040: 5588 e4bc b5bc d8bc 570d 463e 582e 30be
00000050: 7ce6 59bd 3825 85bc a881 04bc 8fc5 66be
00000060: a61d 5a3e c61f 58be e32c c0bd 9366 50be
00000070: b697 eabd 2685 0c3e d280 d3bd 2e1d b63d
00000080: 7c39 fabc c98c 193e be4c fe3d 3421 a23c
00000090: 3c7b 8ebd a3c2 873e 3bff 01bd 48a7 353e
000000a0: 252c 0bbe 1e80 513e 7209 353e e85e 0d3e
000000b0: 0685 d5be e95b 363e b943 9bbe d2fb 81bc
000000c0: b068 41be 5d98 20bf 6271 babe 65d7 00bf
000000d0: 92a0 9dbd 787c 3c3d 44ca 35be f788 5dbe
000000e0: 46a5 80be 8d88 37be 5452 fe3b 3167 70be
000000f0: 54de f4bd 0cdc 563e 126e e73d 7c37 52bd
00000100: cf76 f0bd 7031 91bc e495 d1bd 38c8 1abd
00000110: 2ae7 a63d 5c2c 1dbd 53a9 36bd d9b6 aa3d
00000120: 20ab 84bd 201c 43bc 3c66 f2bc fb75 853c
00000130: c5f4 17be d522 4bbd e495 9b3d 95fa 903d
00000140: 137e 163c 6ba2 09be 7eed b8bd 9c5c f9bd
00000150: 807e c83d a042 243c 4b3b 2dbd aaf7 573d
00000160: e992 8cbd 8333 ba3b ee66 a23d 78ff 89bd
00000170: 48be aebc 14cb 9fbd 2cf3 7f3d f51b 2a3d
00000180: 3237 02be 2817 66bd b6ab c9bd f99a ef3d
00000190: 1564 14be bdd6 083d 16d5 43bd 1ee9 a2bd
000001a0: eab2 b8bd 9850 863d 86d8 b6bd edf4 fdbd
000001b0: fcbb 67bd a3e1 4d3d f435 9abd d842 07be
000001c0: a2ea 913d fb30 08be aa9d eebd e0e5 213d
000001d0: 3871 df3c 3676 e7bd 9a3e 71bd 5092 973d
000001e0: 4adb 93bd 33d7 283d 3013 d63c c1d0 d43d
000001f0: 46d5 dc3d 2a26 22bd 5c37 203d b9e0 dbbd
00000200: 77ef 0d3d 1609 68be 2830 5abe 1e4c 66bd
00000210: 3585 f33d 3e15 95be 0610 553e 4fde 7dbe
00000220: 84ac b6be 15fd 03bd 5bb9 70be b306 fcbd
00000230: 2e42 67be 9ca0 433e a27b 153e a0e0 28be
00000240: ce04 98be d1dd b3be 82db a0be 8e64 e93d
00000250: c0fc 9c3d 4cf4 20bd 69a7 25be df61 863e
00000260: 0106 b2bc 31bc c1bc 3fc6 0dbd 2e0b 99be
00000270: 2ce2 633d a821 eabe d67d 88bd a16d a63b
00000280: 5775 95bd 5e1b f4bd 1fea a73d 15b3 52bc
00000290: c71e c6bd 84ea b1be ab98 493e c0b3 8fbe
000002a0: 428f 393e fbad 4d3d c37a e03d 9fbb 94be
000002b0: cc6f 863e 4697 8bbd 1ae6 40bc 905d 663c
000002c0: 95b1 583e a695 213e a14c 8fbd 1a22 f93d
000002d0: 24ed eb3d d03a 013c c7f3 2fbd 2c61 59bc
000002e0: 1ae0 0ebe 3582 0abf 1dd5 51be 8271 c0bd
000002f0: 2613 dc3d 6972 003c 50ba b03c 3aa5 64be
00000300: d1ea 01be a7b7 c8be 1f91 16bf e47a 05bd
00000310: dea5 19bd 1997 11be 4fde a2bd e1cf 5abb
00000320: 6353 f63d 302a bfbe e36b f83d c365 bdbd
00000330: 2c0c 1fbe d3c0 763e bc8b 71bf 6775 31bd
00000340: 2f65 fdbe 644b 4cbd b239 89be 89ab 2a3e
00000350: 1220 a4bd 343a ff3d e363 babe ee09 a43e
00000360: c46c 1f3d 2c56 ccbd 674c d83e 09f1 553c
00000370: 50cb 7e3c 0e94 9cbe f0ca babd c2f9 c2bc
00000380: bd10 b73d cd1f c5bd ee98 1abe 2bf8 a03c
00000390: 3306 f8bd c7b6 30be 6c5d f83b 6ed7 1c3e
000003a0: 2684 67be 163e 4dbd ad2c 8abd 84c5 903d
000003b0: 58e9 bdbe 2a38 583e 652c 29bf deb0 9d3c
000003c0: 4836 ea39 ca32 02be 382e ccbd 1e65 273e
000003d0: 8659 9d3d 1c13 4abd 8229 80be 7675 2c3e
000003e0: 3734 423e cebb d73d 94c5 14bd 3cf6 b53d
000003f0: 560f d03d 04b1 553e c451 f63d 5c94 3e3d

regressors.0.lins.0.bias f4 [32]
-0.028884478 -0.102653876 0.06890375 -0.09306856 0.1496912 -0.020320978 0.08623174 0.13224673
0.17559177 -0.010992709 0.05294623 -0.10904792 -0.033192262 -0.113874376 -0.058560252 -0.10698179
-0.047193266 -0.12467116 -0.10530089 0.15204507 -0.11677711 0.24296145 0.18783405 -0.19717927
-0.1120084 -0.15685739 0.11784439 -0.042799335 0.16935128 -0.15563558 0.07512725 -0.20394732
00000000: 249f ecbc 323c d2bd 691d 8d3d bb9a bebd
00000010: a648 193e 2e78 a6bc 449a b03d b06b 073e
00000020: 54ce 333e c31a 34bc 25de 583d 8454 dfbd
00000030: 9cf4 07bd f836 e9bd e0dc 6fbd 4519 dbbd
00000040: ba4d 41bd 9853 ffbd fea7 d7bd b4b1 1b3e
00000050: d628 efbd e3ca 783e 9257 403e 5de9 49be
00000060: a964 e5bd 399f 20be 6658 f13d 5b4e 2fbd
00000070: 6c6a 2d3e ef5e 1fbe 51dc 993d 91d7 50be

regressors.0.lins.1.weight f4 [32, 32]
-0.62623733 0.008924016 -0.37332654 -0.013863463 -0.39031124 -0.17888717 0.14733109 -0.66914934
-0.47725776 0.17170286 -0.073498085 -0.30983996 0.1809529 -0.096787415 0.026191276 0.19985774
-0.09572357 0.020051725 0.041498624 -0.19202872 -0.255491 0.03251305 -0.04722435 0.25535837
0.14878923 -0.07180368 -0.33981565 -0.025998792 -0.13431774 -0.15316404 -0.020437362 0.11473858
-0.42100468 -0.13662228 -0.059694126 -0.5866909 0.22273852 -0.0591926 -0.09452825 -0.18982336
0.105635606 0.12831871 0.075124405 -0.17289978 0.09570529 0.24879973 -0.13113002 0.15836759
-0.021456204 -0.45005703 -0.17444722 -0.1559697 0.1302339 0.12359492 -0.33761975 -0.21562868
0.10285563 -0.07057662 0.05856081 -0.38082817 0.06754637 0.32998705 0.03455378 0.13277183
0.28751686 -0.022590099 -0.2817074 -0.38549522 -0.9201754 -0.060078204 -0.02718011 -0.14560845
-0.002083909 -0.2379162 -0.21525052 0.08423335 -0.48939618 -0.35582086 -0.10156516 -0.17523932
0.007520862 0.03574275 -0.07084964 -0.17727192 -0.65605736 -0.38405886 0.08598264 -0.08896522
-0.16716124 0.072044075 0.08084911 -0.1881819 0.1025327 -0.078318775 -0.20978527 -0.23345666
0.084815 0.027994707 0.01901336 0.18317957 -0.5410131 -0.20963734 -0.34963468 -0.28802302
0.04720263 -0.16072263 -0.1653126 -0.03300182 -0.075075895 -0.53897345 -0.37622446 -0.088238604
0.10009368 -0.11974467 0.07960086 -0.61476547 -0.3736184 -0.17622288 0.062547676 0.061866574
-0.14356035 -0.051021602 -0.4894159 -0.35869 -0.09443731 0.027821409 -0.13418593 -0.45861188
-0.021840792 0.008708495 -0.02030912 -0.07399557 -0.089124314 0.17335536 0.0032745518 0.07283812
-0.09377234 0.008945531 -0.10957354 -0.11077944 -0.058707446 -0.04389669 0.15398186 0.123430826
-0.22796479 -0.07072595 0.22571747 0.017358635 -0.15131491 -0.03773782 -0.2734413 -0.09166547
-0.051579475 -0.13887745 -0.11943838 -0.043828197 0.03133833 0.15709879 -0.19649372 0.0450504
-0.66556954 0.14151119 -0.87545335 0.020863265 -0.03360279 0.112082735 0.0229019 -0.12292829
0.19774035 0.14112727 -0.22375223 -0.017001776 0.1652999 -0.069507286 -0.37813842 0.13409533
-0.097940005 -0.12175087 -0.2861195 -0.32944506 -0.034008168 -0.45799142 0.040238284 -0.5163644
0.13750349 -0.079891875 0.12799223 -0.41695327 0.073342755 0.021460494 0.10028434 -0.31411684
0.053184792 -0.08781553 -0.044797853 -0.2921657 -0.40594742 0.14014402 -0.14365022 -0.0565628
-0.09700314 0.19687508 0.14884233 -0.36744916 -0.25376788 -0.10263834 0.097134784 -0.1414288
-0.27997953 0.09742882 0.11653263 0.082742386 0.0189197 -0.5582908 -0.6201249 0.037052166
-0.054659724 0.045394994 0.009685674 -0.097938195 -0.23723197 -0.17476505 0.074670985 -0.0953249
0.07872876 -0.09791021 0.216017 0.093850724 -0.25236267 -0.08922153 -0.3399314 0.07047481
-0.019364573 -0.0022290817 -0.06557623 -0.24548781 -0.23009758 0.085791245 -0.07514788 0.23625644
-0.24748212 -0.073223956 0.30068433 0.1520934 0.031217733 -0.14404055 0.13749681 -0.7971391
0.21241888 -0.050083667 -0.1444286 -0.08393479 -0.57353765 0.58278275 0.03172621 0.03695564
00000000: 1751 20bf 0936 123c a824 bfbe 9423 63bc
00000010: e0d6 c7be 332e 37be f6dd 163e 5f4d 2bbf
00000020: 215b f4be e0d2 2f3e 2a86 96bd 58a3 9ebe
00000030: b84b 393e 7b38 c6bd 168f d63c 82a7 4c3e
00000040: b80a c4bd 8443 a43c 76fa 293d 2da3 44be
00000050: b7cf 82be 672c 053d 526e 41bd 55be 823e
00000060: 345c 183e cf0d 93bd 51fc adbe 6bfb d4bc
00000070: 978a 09be 09d7 1cbe 416c a7bc 10fc ea3d
00000080: ed8d d7be b6e6 0bbe d481 74bd 6031 16bf
00000090: 9115 643e f173 72bd 0798 c1bd 0e61 42be
000000a0: 7b57 d83d fb65 033e d3da 993d a40c 31be
000000b0: 2301 c43d 5bc5 7e3e f346 06be 1d2b 223e
000000c0: ecc4 afbc e06d e6be 4ba2 32be 85b6 1fbe
000000d0: 095c 053e 551f fd3d 7fdc acbe c4cd 5cbe
000000e0: f9a5 d23d 7a8a 90bd 76dd 6f3d e9fb c2be
000000f0: c055 8a3d 10f4 a83e 4488 0d3d 57f5 073e
00000100: 6935 933e df0e b9bc f43b 90be a15f c5be
00000110: 9d90 6bbf 9014 76bd d2a8 debc 621a 15be
00000120: 3192 08bb 4ea0 73be a26a 5cbe 8982 ac3d
00000130: 2392 fabe 272e b6be 6501 d0bd f071 33be
00000140: 9071 f63b fd66 123d 9e19 91bd c586 35be
00000150: 60f3 27bf 5da3 c4be ab17 b03d 6633 b6bd
00000160: 512c 2bbe d88b 933d 3894 a53d c2b2 40be
00000170: aafc d13d 9865 a0bd f3d1 56be 430f 6fbe
00000180: 7db3 ad3d 2855 e53c e8c1 9b3c 6d93 3b3e
00000190: d67f 0abf 2cab 56be 5103 b3be c177 93be
000001a0: 8c57 413d 7994 24be b547 29be eb2c 07bd
000001b0: 64c1 99bd 2afa 09bf 7ea0 c0be 71b6 b4bd
000001c0: eafd cc3d b23c f5bd c705 a33d 4561 1dbf
000001d0: e94a bfbe c573 34be ff18 803d ce67 7d3d
000001e0: 7c01 13be 07fc 50bd b994 fabe 37a6 b7be
000001f0: 5968 c1bd b9e9 e33c 0968 09be 2dcf eabe
00000200: 76eb b2bc 13ae 0e3c 505f a6bc fd8a 97bd
00000210: cf86 b6bd 1184 313e dd99 563b 272c 953d
00000220: b60b c0bd 4790 123c 1868 e0bd 55e0 e2bd
00000230: 3877 70bd 04cd 33bd 6cad 1d3e 4dc9 fc3d
00000240: 9a6f 69be c4d8 90bd 7b22 673e b233 8e3c
00000250: 4cf2 1abe f992 1abd 8000 8cbe 1bbb bbbd
00000260: 0045 53bd e435 0ebe 1c9c f4bd 3285 33bd
00000270: 9f5c 003d 81de 203e a635 49be c586 383d
00000280: c462 2abf 4fe8 103e b61d 60bf 70e9 aa3c
00000290: 14a3 09bd a28b e53d c49c bb3c d4c1 fbbd
000002a0: 727c 4a3e ab83 103e 4e1f 65be 4f47 8bbc
000002b0: 6144 293e d659 8ebd 5c9b c1be 4950 093e
000002c0: c594 c8bd 8558 f9bd 417e 92be 06ad a8be
000002d0: 264c 0bbd da7d eabe e6d0 243d 7530 04bf
000002e0: b7cd 0c3e 5a9e a3bd 6510 033e e67a d5be
000002f0: ba34 963d ebcd af3c e061 cd3d ecd3 a0be
00000300: 4cd8 593d a1d8 b3bd f47d 37bd be96 95be
00000310: 57d8 cfbe ea81 0f3e 0b19 13be 65ae 67bd
00000320: 95a9 c6bd 9f99 493e 206a 183e 4c22 bcbe
00000330: dded 81be 0d34 d2bd 9aee c63d b6d2 10be
00000340: 7a59 8fbe c388 c73d a9a8 ee3d d774 a93d
00000350: 7dfd 9a3c 25ec 0ebf 81c0 1ebf 03c4 173d
00000360: e0e2 5fbd 1af0 393d a9b0 1e3c d293 c8bd
00000370: f0ec 72be 9cf5 32be 1aed 983d b339 c3bd
00000380: 8b3c a13d 2685 c8bd 8f33 5d3e cf34 c03d
00000390: ae35 81be c7b9 b6bd 7d0b aebe 1955 903d
000003a0: 74a2 9ebc c915 12bb d54c 86bd 2861 7bbe
000003b0: b39e 6bbe 52b3 af3d 22e7 99bd 35ed 713e
000003c0: f46b 7dbe 71f6 95bd 4cf3 993e 5fbe 1b3e
000003d0: 55bc ff3c 5e7f 13be f7cb 0c3e 4f11 4cbf
000003e0: 5684 593e 8824 4dbd 17e5 13be 01e6 abbd
000003f0: 5dd3 12bf 4031 153f 58f3 013d cc5e 173d

regressors.0.lins.1.bias f4 [32]
-0.14613682 -0.13872084 -0.10369968 -0.1490577 -0.25107726 -0.22415745 -0.050987963 -0.029627215
0.13641307 -0.08559553 0.15162349 -0.14423837 -0.31897888 -0.08583817 0.22797349 -0.19395712
-0.15598455 0.34527376 -0.060003575 0.08605832 0.2009393 0.014919823 -0.3613175 -0.05834369
-0.10985122 -0.08274965 -0.0478098 -0.2977831 0.114863925 0.024390843 0.07766799 0.1045154
00000000: e4a4 15be d60c 0ebe 7f60 d4bd 95a2 18be
00000010: 338d 80be 8889 65be c1d8 50bd c6b4 f2bc
00000020: deaf 0b3e b64c afbd 3043 1b3e 39b3 13be
00000030: 3351 a3be eccb afbd e271 693e b29c 46be
00000040: 6aba 1fbe b9c7 b03e 4fc6 75bd 583f b03d
00000050: 08c3 4d3e 4672 743c 9bfe b8be cbf9 6ebd
00000060: adf9 e0bd a678 a9bd 35d4 43bd 0777 98be
00000070: c73d eb3d 4ecf c73c 6510 9f3d 2c0c d63d

regressors.0.lins.2.weight f4 [32, 32]
0.149798 0.07468917 -0.06830978 -0.07156592 -0.0036311827 -0.16705506 -0.103000514 -0.10066096
0.105710365 -0.105489366 -0.14019941 -0.13086642 -0.017650656 -0.10532687 -0.18822046 0.1712681
-0.06719177 -0.040777735 0.023194633 0.009438892 0.020437015 0.07900612 -0.067185596 -0.100879245
-0.020712331 -0.1660615 -0.09384482 0.0453021 -0.0021223677 -0.11917375 -0.11488209 -0.08729445
0.045194823 0.31925723 -0.13413823 -0.14821173 -0.28692126 0.10284232 -0.21535417 -0.21618234
-0.3323175 -0.035721514 -0.3056198 0.036091994 -0.0029843124 -0.31442162 0.008937082 0.044733286
0.46131703 -0.06862245 -0.12569156 0.1707328 0.10948872 0.041916903 0.190555 0.22550102
0.052090794 -0.0150935855 -0.3330229 -0.17140473 -0.07619383 -0.0687138 0.029951658 0.056806333
0.16794907 -0.111477435 -0.09723905 -0.08947943 -0.00650574 0.12123871 -0.475604 -0.32954392
-0.4952002 0.08857384 0.096640676 0.109476335 0.10911931 -0.007011343 -0.023718791 0.3288992
0.31238842 0.07576963 -0.06526908 -0.16159683 0.1319958 0.011699021 0.22320952 0.29679263
-0.38291702 -0.049538184 0.3728555 0.048996754 -0.13914339 0.1297018 0.033712205 0.062427927
-0.084000394 -0.068572134 -0.18047094 -0.034899667 -0.12894021 0.07455726 -0.055695873 -0.013895133
0.0917312 0.06787144 -0.047173638 -0.019071648 -0.032880176 -0.15499902 -0.1468139 -0.006035781
0.14971787 -0.050980184 0.0541824 0.041344598 -0.1740859 0.06252231 0.057667483 -0.13129112
-0.11796661 -0.13341822 -0.101144664 -0.0877894 -0.05154404 0.017001651 -0.1256106 -0.15429795
-0.14937705 -0.106845565 0.005382287 -0.08407615 -0.10788589 0.14903271 -0.04572351 -0.1613234
0.08365741 -0.05548748 -0.16092272 0.13527136 -0.060693458 -0.12799174 -0.039419558 -0.049436715
0.123707116 0.05791543 -0.026296148 -0.050678592 0.013000114 -0.008484566 -0.11757396 0.01286715
0.04208811 0.19120929 -0.17699434 -0.1693733 -0.1603531 -0.24715634 -0.09036681 0.02955538
-0.19332108 0.05725345 0.24548288 0.08410815 -0.34482765 0.047008142 0.12499304 -0.058165424
-0.33047494 0.1095905 0.05121205 0.023030344 0.079207085 -0.15321703 -0.23836838 -0.22918399
-0.17058054 -0.07842333 0.03163334 -0.013860194 -0.07708289 -0.2812536 0.02766688 -0.25910416
-0.046255026 -0.18355756 -0.1975119 -0.06044808 -0.00853152 -0.3075831 -0.32996672 -0.00013231568
-0.086533196 -0.015744857 -0.04000077 -0.16277154 -0.081445135 -0.49383596 -0.2917259 -0.12303407
-0.29785278 -0.11374981 -0.120861925 0.08857061 0.22565065 0.17342143 -0.064360365 -0.060821373
-0.33535874 0.025779078 0.14145717 -0.04383256 -0.10402242 -0.07407155 -0.0034325928 -0.3377367
-0.16630524 -0.14533223 0.008482589 -0.19117074 -0.28209317 -0.057014532 0.06944465 -0.1668221
-0.29707646 -0.37169552 -0.18092802 0.018249052 -0.044657763 -0.039908297 0.118302405 -0.09424559
0.015436848 0.070447095 -0.012389558 -0.11725671 -0.056438513 -0.2619442 -0.093919985 0.058604565
-0.14772753 -0.02340715 -0.21172498 -0.13135813 -0.23183832 -0.03664952 0.36982822 0.07416656
-0.3255795 -0.084737614 0.13453142 0.024966521 -0.10969232 -0.07138256 0.13360842 -0.16939026
00000000: a664 193e a3f6 983d ffe5 8bbd 2791 92bd
00000010: 23f9 6dbb 7b10 2bbe eff1 d2bd 5527 cebd
00000020: ad7e d83d cf0a d8bd 6f90 0fbe d901 06be
00000030: 1c98 90bc 9db5 d7bd ddbc 40be e860 2f3e
00000040: d79b 89bd 8e06 27bd ac02 be3c 95a5 1a3c
00000050: 876b a73c f6cd a13d 9a98 89bd c799 cebd
00000060: e8ac a9bc 070c 2abe b731 c0bd b28e 393d
00000070: 6c17 0bbb 5e11 f4bd 4d47 ebbd 6fc7 b2bd
00000080: 351e 393d af75 a33e 885b 09be d1c4 17be
00000090: 58e7 92be ff9e d23d ce85 5cbe e75e 5dbe
000000a0: 8525 aabe b950 12bd 337a 9cbe 33d5 133d
000000b0: 7494 43bb dffb a0be d76c 123c 403a 373d
000000c0: bf31 ec3e ed89 8cbd 4ab5 00be 94d4 2e3e
000000d0: 9f3b e03d 0fb1 2b3d da20 433e bde9 663e
000000e0: 285d 553d 164b 77bc fa81 aabe b984 2fbe
000000f0: 830b 9cbd d2b9 8cbd 2e5d f53c c2ad 683d
00000100: d7fa 2b3e 484e e4bd 4425 c7bd fe40 b7bd
00000110: 1a2e d5bb 004c f83d 5e82 f3be fbb9 a8be
00000120: e18a fdbe 3466 b53d 8ceb c53d 2135 e03d
00000130: f279 df3d 68bf e5bb e94d c2bc 7a65 a83e
00000140: 60f1 9f3e 1c2d 9b3d ccab 85bd a479 25be
00000150: e829 073e 40ad 3f3c 0991 643e 34f5 973e
00000160: b30d c4be 8de8 4abd ebe6 be3e d2b0 483d
00000170: 9b7b 0ebe 8cd0 043e cf15 0a3d 6db4 7f3d
00000180: 6608 acbd 8c6f 8cbd 60cd 38be f4f2 0ebd
00000190: e708 04be 7ab1 983d 5b21 64bd 69a8 63bc
000001a0: 91dd bb3d 2e00 8b3d 2539 41bd 253c 9cbc
000001b0: 5dad 06bd 10b8 1ebe 6256 16be cdc7 c5bb
000001c0: a44f 193e 99d0 50bd 5dee 5d3d f458 293d
000001d0: 9343 32be b20b 803d bd34 6c3d 2e71 06be
000001e0: 7a98 f1bd c99e 08be ef24 cfbd eeca b3bd
000001f0: d81f 53bd 0c47 8b3c 11a0 00be 4800 1ebe
00000200: 4cf6 18be d9d1 dabd e55d b03b 1e30 acbd
00000210: 47f3 dcbd 089c 183e 9348 3bbd f631 25be
00000220: 9454 ab3d d746 63bd edc8 24be 9384 0a3e
00000230: b499 78bd 4410 03be 6776 21bd 277e 4abd
00000240: 285a fd3d bb38 6d3d 056b d7bc 5b94 4fbd
00000250: 6efe 543c d902 0bbc 9eca f0bd bdd0 523c
00000260: 9564 2c3d 5ecc 433e 013e 35be 3270 2dbe
00000270: 9a33 24be 8d16 7dbe 3c12 b9bd 201e f23c
00000280: f6f5 45be 9882 6a3d dd5f 7b3e e540 ac3d
00000290: 408d b0be 9c8b 403d 5afc ff3d de3e 6ebd
000002a0: 0334 a9be fc70 e03d bac3 513d 22aa bc3c
000002b0: 5337 a23d ede4 1cbe d716 74be 35af 6abe
000002c0: aaac 2ebe 699c a0bd f691 013d de15 63bc
000002d0: a2dd 9dbd 7900 90be a7a5 e23c 4da9 84be
000002e0: e975 3dbd 83f6 3bbe 8f40 4abe 6898 77bd
000002f0: cac7 0bbc 887b 9dbe 66f1 a8be 38be 0ab9
00000300: 5138 b1bd 5cfb 80bc d9d7 23bd 95ad 26be
00000310: b5cc a6bd 11d8 fcbe 195d 95be 49f9 fbbd
00000320: 2980 98be a9f5 e8bd 7586 f7bd 8264 b53d
00000330: f710 673e 6395 313e 5ecf 83bd d51f 79bd
00000340: 24b4 abbe a52e d33c 26da 103e c589 33bd
00000350: b509 d5bd d3b2 97bd 5af5 60bb d3eb acbe
00000360: ec4b 2abe f9d1 14be 8ffa 0a3c 43c2 43be
00000370: 846e 90be 1288 69bd ff38 8e3d 6ad3 2abe
00000380: 681a 98be e04e bebe 3245 39be 097f 953c
00000390: 0feb 36bd e276 23bd 8848 f23d d503 c1bd
000003a0: d5ea 7c3c 9146 903d 93fd 4abc 4924 f0bd
000003b0: 122c 67bd 8d1d 86be 1f59 c0bd 570b 703d
000003c0: e345 17be 5ac0 bfbc 6fce 58be bf82 06be
000003d0: 0667 6dbe cf1d 16bd 205a bd3e a3e4 973d
000003e0: 5bb2 a6be ea8a adbd 9bc2 093e 9786 cc3c
000003f0: 5ea6 e0bd 0531 92bd a5d0 083e a474 2dbe

regressors.0.lins.2.bias f4 [32]
-0.18563797 -0.15722993 -0.34489048 -0.15678008 -0.17416774 0.080975294 0.20817201 -0.2854836
-0.21035384 0.2063271 -0.07691579 -0.030693045 0.46162993 0.4013144 -0.18346886 0.007237724
0.35648912 -0.10987855 -0.21544924 0.2884663 -0.27838078 0.30148482 -0.24726126 -0.14949675
-0.094363056 -0.1791064 -0.12236147 0.28032658 -0.08543615 0.13585812 0.324196 -0.008348436
00000000: e117 3ebe e200 21be 7c95 b0be f58a 20be
00000010: 0759 32be 60d6 a53d 0b2b 553e e82a 92be
00000020: ff66 57be 6947 533e 0786 9dbd fb6f fbbc
00000030: c25a ec3e 1579 cd3e 43df 3bbe 6e2a ed3b
00000040: be85 b63e 0108 e1bd ba9e 5cbe dbb1 933e
00000050: ed87 8ebe 385c 9a3e 0e32 7dbe ad15 19be
00000060: 6b41 c1bd ab67 37be a698 fabd f786 8f3e
00000070: 26f9 aebd 641e 0b3e 05fd a53e e1c7 08bc

regressors.0.lins.3.weight f4 [1, 32]
0.09885893 -0.24531665 -0.17155494 -0.06596317 -0.10039395 -0.09471865 0.10732348 0.010892996
0.014721939 0.03153336 -0.020457795 -0.15352905 0.24154611 0.15969338 -0.1902071 0.019755153
0.09925024 -0.029475983 -0.021684667 0.03663896 -0.13775316 0.13037495 0.041024532 0.05006094
0.0046799295 -0.16689816 -0.052429654 0.15319291 0.008898163 0.08079457 0.058708787 0.022913469
00000000: 8d76 ca3d 4a34 7bbe 19ac 2fbe b317 87bd
00000010: 589b cdbd dafb c1bd 6acc db3d 8978 323c
00000020: 4a34 713c 2029 013d 1b97 a7bc b836 1dbe
00000030: dd57 773e a986 233e a6c5 42be 8fd5 a13c
00000040: b643 cb3d 9e77 f1bc 0ba4 b1bc bc12 163d
00000050: 2a0f 0dbe 0381 053e 5709 283d b30c 4d3d
00000060: 185a 993b 5ae7 2abe 7ac0 56bd 9ade 1c3e
00000070: 9ac9 113c a077 a53d a078 703d 07b5 bb3c

regressors.1.lins.0.weight f4 [32, 64]
0.2035589 -0.15781793 0.11457544 0.0044826567 -0.20860381 -0.38651094 -0.21359275 0.22763637
-0.034430783 -0.48076433 0.018415403 -0.04371589 -0.8240308 0.20316559 0.18092343 -0.2306847
0.0012156669 0.13422687 0.121532924 -0.008982943 -0.09923184 0.072024524 -0.064582564 -0.06995374
0.27969226 -0.18774803 0.2766391 -0.08369556 0.041527033 0.038833465 0.08003014 -0.014842287
-0.5376073 -0.051671155 0.09714656 -0.1721747 0.052824963 -0.31092015 -0.3109307 0.0630785
-0.13806558 -0.64972705 -0.30005825 0.2075004 -0.0754959 0.14104572 0.2642913 0.13403505
0.14627618 -0.045402583 -0.21046172 0.054866347 -0.05178258 -0.07648876 -0.4330643 0.05445926
-0.16500357 -0.622077 -0.12386138 0.01480921 0.035570294 -0.19391583 0.11234483 0.1156645
-0.21060704 0.20652452 0.07907451 -0.09086339 0.15604141 0.2679384 0.12741911 0.062766284
-0.00989432 -0.015873648 0.17249611 -0.086314395 -0.059117615 -0.28838974 0.17504643 0.44027868
0.081088856 -0.1543751 0.2139355 0.21314712 0.10271835 0.1012457 -0.14611916 0.24758999
-0.25446147 -0.17545433 -0.04492859 -0.020447467 -0.043496773 0.16450223 -0.03439547 -0.5932336
-0.21891199 -0.09702582 -0.08386998 0.0033836646 0.26043934 0.07331042 0.28432393 -0.10200221
0.12607971 0.0403556 0.07385339 -0.0019125637 -0.060489412 0.10540133 0.11047536 -0.23210947
0.15437762 0.19602224 -0.09559503 -0.07747275 0.038503826 -0.03729464 -0.020341817 -0.1260116
-0.36065736 -0.24113458 -0.31544918 0.07490953 0.04112436 0.01455601 -0.022829622 -0.13983783
0.3282243 0.15528603 -0.22915258 0.07772206 0.32596695 0.23661877 -0.06178397 0.046611287
0.077437386 0.17344211 -0.024587046 -0.13676697 0.50679517 -0.20343314 -0.16633366 -0.0031171679
0.037266303 0.00085043773 -0.040241573 0.10620392 0.0059695095 0.06617962 -0.29916805 -0.3393344
-0.3177211 0.35479397 0.11594193 -0.04543047 -0.08237523 0.1591017 -0.08428307 0.025960952
0.038959835 -0.2888355 -0.14920838 0.031779256 -0.14182644 0.2571918 -0.20201156 -0.0072225193
-0.31495285 0.15635885 -0.3054588 0.072289884 -0.005333996 -0.049895346 -0.112735376 0.2380148
-0.09211944 -0.10280021 0.04980408 0.10109065 0.07089163 -0.08388814 -0.17433886 0.16699317
0.29567835 -0.09736542 0.16313934 -0.0659269 -0.005964741 0.30791426 -0.030606523 -0.036089055
0.25204486 0.16458924 -0.1270794 -0.06819293 0.033178158 -0.12867908 -0.33643508 -0.35178602
0.026969403 -0.21514452 -0.57825524 0.024041804 -0.06636011 -0.27044454 -0.1393777 0.36565587
0.10808496 -0.19255614 0.068114854 -0.27901784 -0.038951576 -0.025983408 0.020233085 -0.2688562
-0.24422587 0.32902429 0.2152966 0.047958203 -0.06274341 0.14806648 0.037104502 0.15204373
-0.06836946 -0.018272705 0.30223635 0.110913314 -0.103013605 0.12330193 0.13109203 0.186493
-0.08799847 -0.13443221 -0.18057722 0.015876269 -0.47513795 0.14440118 -0.06262019 -0.1727415
0.25251603 -0.18908326 -0.25623173 0.23272066 0.1235771 0.10011211 0.10127528 -0.047755543
-0.056557965 0.16660509 -0.8768187 -0.25712585 -0.07757178 -0.29109284 -0.07299054 0.19456905
00000000: bf71 503e 069b 21be 87a6 ea3d 40e3 923b
00000010: 3d9c 55be c3e4 c5be 0fb8 5abe 8219 693e
00000020: 4b07 0dbd be26 f6be e6db 963c 6f0f 33bd
00000030: aff3 52bf a40a 503e fe43 393e 9c38 6cbe
00000040: 0357 9f3a c572 093e 41e6 f83d 322d 13bc
00000050: 103a cbbd 9881 933d dd43 84bd e843 8fbd
00000060: d333 8f3e 0541 40be a4a3 8d3e 9468 abbd
00000070: 4018 2a3d d70f 1f3d d8e6 a33d 102d 73bc
00000080: a2a0 09bf 22a5 53bd c7f4 c63d 914e 30be
00000090: fd5e 583d ed30 9fbe 4f32 9fbe 4d2f 813d
000000a0: 1061 0dbe 8354 26bf 3ca1 99be fc7a 543e
000000b0: 989d 9abd 4a6e 103e 3051 873e 7c40 093e
000000c0: 6cc9 153e 0ff8 39bd 4783 57be 89bb 603d
000000d0: f819 54bd 24a6 9cbd 9bba ddbe ac10 5f3d
000000e0: b2f6 28be 7040 1fbf 09ab fdbd 54a2 723c
000000f0: 28b2 113d df91 46be 0c15 e63d 82e1 ec3d
00000100: 5fa9 57be 2a7b 533e d1f1 a13d 9616 babd
00000110: 52c9 1f3e 392f 893e 287a 023e 9c8b 803d
00000120: c91b 22bc 7409 82bc d2a2 303e 9ac5 b0bd
00000130: 5025 72bd d2a7 93be 5f3f 333e 356c e13e
00000140: ea11 a63d 8214 1ebe e811 5b3e 3d43 5a3e
00000150: 005e d23d e859 cf3d 43a0 15be 3b88 7d3e
00000160: c648 82be 4daa 33be 0b07 38bd 7281 a7bc
00000170: ac29 32bd 4673 283e 44e2 0cbd 28de 17bf
00000180: 772a 60be 79b5 c6bd 06c4 abbd 79c0 5d3b
00000190: 4e58 853e c623 963d e892 913e 89e6 d0bd
000001a0: 0a1b 013e ea4b 253d 7240 973d fdae faba
000001b0: bfc3 77bd a7dc d73d e840 e23d 1bae 6dbe
000001c0: 2b15 1e3e 0eba 483e 54c7 c3bd 08aa 9ebd
000001d0: 30b6 1d3d 44c2 18bd e2a3 a6bc 2f09 01be
000001e0: 15a8 b8be fceb 76be 8e82 a1be 2b6a 993d
000001f0: 0472 283d 557c 6e3c 3005 bbbc a631 0fbe
00000200: 040d a83e 4d03 1f3e f9a6 6abe be2c 9f3d
00000210: 24e5 a63e 314c 723e 3011 7dbd 7aeb 3e3d
00000220: 7e97 9e3d cf9a 313e c66a c9bc a40c 0cbe
00000230: 54bd 013f c750 50be 5f53 2abe 6649 4cbb
00000240: 8da4 183d e9ef 5e3a 59d4 24bd 7181 d93d
00000250: e09b c33b 2e89 873d 8e2c 99be 3dbd adbe
00000260: 57ac a2be 8ea7 b53e f672 ed3d 4d15 3abd
00000270: 58b4 a8bd 8eeb 223e 9a9c acbd 10ac d43c
00000280: 5994 1f3d 3fe2 93be 15ca 18be f72a 023d
00000290: f33a 11be a5ae 833e 1edc 4ebe e2aa ecbb
000002a0: 8041 a1be 891c 203e 1965 9cbe b80c 943d
000002b0: cdc8 aebb 105f 4cbd cee1 e6bd 27ba 733e
000002c0: 1ea9 bcbd eb88 d2bd 5dff 4b3d 9d08 cf3d
000002d0: a22f 913d 8ccd abbd e385 32be 4200 2b3e
000002e0: 2763 973e 8567 c7bd 000e 273e af04 87bd
000002f0: e073 c3bb f0a6 9d3e 88ba fabc 1ed2 13bd
00000300: 060c 813e 158a 283e 1a21 02be bca8 8bbd
00000310: d2e5 073d 73c4 03be 3841 acbe 4c1d b4be
00000320: f0ee dc3c d84e 5cbe 8908 14bf 51f3 c43c
00000330: cfe7 87bd b577 8abe 07b9 0ebe 3f37 bb3e
00000340: a65b dd3d 702d 45be cd7f 8b3d 6ddb 8ebe
00000350: b08b 1fbd 28db d4bc dbbf a53c 85a7 89be
00000360: 5916 7abe df75 a83e b676 5c3e d26f 443d
00000370: 9e7f 80bd bd9e 173e e4fa 173d 5ab1 1b3e
00000380: 4a05 8cbd a4b0 95bc b9be 9a3e 8526 e33d
00000390: ccf8 d2bd b985 fc3d fd3c 063e 05f8 3e3e
000003a0: 8b38 b4bd 99a8 09be 3ce9 38be f30e 823c
000003b0: 4845 f3be e7dd 133e 043f 80bd 26e3 30be
000003c0: c849 813e 0b9f 41be ce30 83be 534e 6e3e
000003d0: fe15 fd3d 9407 cd3d 6a69 cf3d 519b 43bd
000003e0: 53a9 67bd 869a 2a3e 3177 60bf 00a6 83be
000003f0: f4dd 9ebd 1f0a 95be 107c 95bd 1c3d 473e

regressors.1.lins.0.bias f4 [32]
-0.06940406 0.18416196 -0.05310612 -0.18476076 0.39028466 0.17648655 0.039251503 -0.15906963
0.06532987 0.11614973 -0.16445254 -0.16178066 0.07743333 0.27386174 0.08130786 0.3528708
0.16844574 -0.030740688 -0.037065107 0.34245923 -0.0025361674 0.3591767 -0.2003243 -0.17924026
0.2294596 0.009604046 -0.18927683 0.2206123 0.084315054 0.21447128 0.30108976 0.02490326
00000000: b723 8ebd f494 3c3e ce85 59bd ed31 3dbe
00000010: 64d3 c73e e4b8 343e 2fc6 203d 26e3 22be
00000020: abcb 853d e9df ed3d 3f66 28be d4a9 25be
00000030: 5e95 9e3d 9b37 8c3e bc84 a63d 7bab b43e
00000040: 0a7d 2c3e e5d3 fbbc 95d1 17bd d156 af3e
00000050: d435 26bb 02e6 b73e d021 4dbe c28a 37be
00000060: 75f7 6a3e 4a5a 1d3c c9d1 41be 31e8 613e
00000070: 5fad ac3d 5c9e 5b3e 7028 9a3e ec01 cc3c

regressors.1.lins.1.weight f4 [32, 32]
-0.0013290935 -0.6921677 -0.020507336 0.25370723 -0.75157976 -0.66623944 0.17334247 0.13718748
-0.5046417 -0.13299169 0.12312453 0.5088202 0.07310593 0.090207785 -0.44392356 0.055970825
0.028210953 0.25771365 0.08845732 0.12347243 0.018113812 -1.1121539 -0.1414129 -0.033096965
0.1462228 0.16056116 -0.2379025 -0.04673918 -0.6570342 -0.40429226 0.28438818 -0.03817532
0.10743248 -0.01307377 -0.116903976 0.2081888 -9.752412e-05 0.27405417 -0.032247767 0.11101139
-0.08031882 0.24356721 -0.50310177 0.0025091015 0.077042624 0.15590657 -0.3073344 0.0018180363
-0.20670326 -0.12902117 0.18406829 0.052064087 -0.13036412 -0.29318324 0.17060924 0.110422626
0.41973624 -0.08597758 0.17306574 0.14954665 -0.07708227 0.13649422 0.32868025 0.29816523
0.042269137 0.13189268 -0.18342906 -0.1991463 -0.17809276 -0.071095586 0.16548452 -0.027732098
-0.36380103 0.31639388 -0.0072876653 -0.3741349 0.08835026 -0.14786044 0.1967743 -0.009986636
-0.13303326 -0.43248755 0.07035278 -0.232901 0.12237787 0.27993152 0.25601533 0.13327767
0.08767374 0.08652688 -0.009984841 0.039263614 0.0075862296 -0.16615544 -0.13083546 0.14872032
0.22801138 0.06621137 0.020609763 0.32477745 0.42026922 0.16359475 -0.68692315 -0.01974359
-0.43857583 0.32499555 0.09006077 -0.096616864 -0.03697756 -0.73953027 -0.50253785 -0.006029736
-0.14206347 -0.14325452 -0.720286 -0.11899271 -0.11163097 0.058872946 -0.020494085 -0.30218065
-0.68891865 -0.17664923 0.07108919 -0.3157724 0.18526173 0.1456062 -1.3467538 -0.61391556
0.21390827 -0.04811761 -0.28534007 0.2922292 -0.031703055 0.088075995 0.08354237 -0.18140697
0.40464997 -1.1366333 -0.28073424 0.16153967 0.0556016 0.143993 0.112278 -0.24613677
-0.68113375 0.06755037 0.14329287 -0.2629172 -0.38314176 0.020779653 -0.101432025 -0.15666862
0.059740204 -0.020773502 -0.24534321 -0.13876407 0.27438304 -0.021840714 -0.46431842 -0.19932863
-0.5159927 0.06848798 -0.109031454 -0.10624581 0.10779445 0.12374494 -0.051213264 -0.045202345
-0.24805193 -0.03789482 -0.12193966 0.31004393 -0.081656024 -0.19312741 -0.15480131 0.25975576
-0.011651585 -0.0663452 0.2066409 0.09683563 -0.034066137 0.21241792 -0.0025101143 0.15038317
0.24436124 0.13515607 -0.112325445 -0.21442795 -0.28624916 -0.12224749 -0.112771265 0.30442807
0.092103094 -0.3558219 -0.19535355 0.1081823 -0.0988832 0.12383853 -0.024714133 0.22916523
-0.18790157 -0.31686938 -0.58839124 0.21975796 -0.36240315 -0.1421733 -0.11338811 0.18470173
0.083600976 -0.591279 0.19894087 -0.23187944 -0.3660334 -0.4807561 0.22545683 -0.28737742
-0.15421262 -0.37092382 -0.055684615 -0.14143497 0.31053883 0.13224202 0.29794976 -0.05044888
-0.2522645 -0.1149246 -0.2515518 0.55245566 0.3539586 0.1019589 -0.32721433 0.003103178
-0.22853139 -0.12423623 -0.18438952 -0.071061336 0.29207367 -0.040181205 0.18244912 -0.18640673
-0.07482012 -0.48182914 -0.056946866 -0.07737908 0.06731102 -0.0683746 -0.3769125 0.07376633
0.1332111 0.11638051 -0.03495638 0.019232316 0.28102785 0.08744291 0.31441775 0.24666756
00000000: fa34 aeba e731 31bf 00ff a7bc eae5 813e
00000010: 8867 40bf ab8e 2abf b080 313e e07a 0c3e
00000020: 3330 01bf f92e 08be b728 fc3d 0a42 023f
00000030: 90b8 953d dcbe b83d f349 e3be aa41 653d
00000040: a81a e73c 0bf3 833e 1d29 b53d 1ddf fc3d
00000050: 6b63 943c 0f5b 8ebf 8bce 10be af90 07bd
00000060: 6ebb 153e 256a 243e b79c 73be 9571 3fbd
00000070: 6533 28bf 65ff cebe 549b 913e b95d 1cbd
00000080: 8f05 dc3d 5e33 56bc 5a6b efbd 722f 553e
00000090: dd85 ccb8 d450 8c3e 3c16 04bd f159 e33d
000000a0: 327e a4bd af69 793e 47cb 00bf bd6f 243b
000000b0: 86c8 9d3d f9a5 1f3e ef5a 9dbe 2d4b ee3a
000000c0: 05aa 53be 201e 04be 667c 3c3e 2741 553d
000000d0: 2c7e 05be 1d1c 96be 30b4 2e3e 4225 e23d
000000e0: abe7 d63e 0315 b0bd 2538 313e c222 193e
000000f0: 4fdd 9dbd 24c5 0b3e c748 a83e 1da9 983e
00000100: 6722 2d3d e00e 073e d4d4 3bbe 02ed 4bbe
00000110: f35d 36be 909a 91bd c674 293e 6d2e e3bc
00000120: 2144 babe 61fe a13e 5ecd eebb 9c8e bfbe
00000130: fbf0 b43d ba68 17be 347f 493e fd9e 23bc
00000140: df39 08be 026f ddbe 1e15 903d 9a7d 6ebe
00000150: 40a1 fa3d 2f53 8f3e 7114 833e f179 083e
00000160: 4a8e b33d 0135 b13d 7597 23bc e2d2 203d
00000170: e895 f83b a724 2abe bbf9 05be 244a 183e
00000180: d17b 693e d499 873d ced5 a83c 3b49 a63e
00000190: 872d d73e 6285 273e 32da 2fbf 4fbd a1bc
000001a0: 038d e0be d165 a63e c871 b83d 10df c5bd
000001b0: c875 17bd db51 3dbf 52a6 00bf 1795 c5bb
000001c0: 1679 11be 50b1 12be aa64 38bf 73b2 f3bd
000001d0: c79e e4bd c224 713d 36e3 a7bc 6cb7 9abe
000001e0: f95c 30bf 89e3 34be 3697 913d ecac a1be
000001f0: 40b5 3d3e cb19 153e 6e62 acbf 9229 1dbf
00000200: c50a 5b3e f916 45bd 1818 92be 119f 953e
00000210: 10db 01bd 3061 b43d 4318 ab3d c0c2 39be
00000220: 482e cf3e 337d 91bf 66bc 8fbe a86a 253e
00000230: 81be 633d e772 133e 02f2 e53d 470b 7cbe
00000240: c85e 2ebf d957 8a3d 5ebb 123e 159d 86be
00000250: 282b c4be 173a aa3c 98bb cfbd bd6d 20be
00000260: 25b2 743d 312d aabc 403b 7bbe 2b18 0ebe
00000270: ef7b 8c3e 4ceb b2bc 25bb edbe ce1c 4cbe
00000280: 1918 04bf 6d43 8c3d e24b dfbd 6797 d9bd
00000290: 56c3 dc3d fd6d fd3d 00c5 51bd 1826 39bd
000002a0: 5301 7ebe 9937 1bbd 80bb f9bd 14be 9e3e
000002b0: 463b a7bd 31c3 45be 3c84 1ebe b5fe 843e
000002c0: 4ae6 3ebc fedf 87bd ac99 533e c251 c63d
000002d0: ef88 0bbd 1584 593e bb80 24bb 0cfe 193e
000002e0: d539 7a3e 5a66 0a3e e20a e6bd 0093 5bbe
000002f0: 408f 92be e45c fabd 9ff4 e6bd ffdd 9b3e
00000300: 8ca0 bc3d 4a2e b6be c30a 48be af8e dd3d
00000310: 4683 cabd 0e9f fd3d 4b75 cabc 4aaa 6a3e
00000320: 4569 40be b43c a2be cfa0 16bf 3b08 613e
00000330: e88c b9be e195 11be 0738 e8bd 7322 3d3e
00000340: fd36 ab3d 0f5e 17bf 28b7 4b3e ce71 6dbe
00000350: bb68 bbbe aa25 f6be 28de 663e 2223 93be
00000360: eae9 1dbe bae9 bdbe 8d15 64bd 54d4 10be
00000370: f2fe 9e3e 746a 073e df8c 983e 7ca3 4ebd
00000380: d028 81be 975d ebbd 66cb 80be bc6d 0d3f
00000390: 103a b53e d4cf d03d a388 a7be b05e 4b3b
000003a0: 2204 6abe 916f febd 9bd0 3cbe 9b88 91bd
000003b0: ae8a 953e 0c95 24bd f1d3 3a3e 68e1 3ebe
000003c0: 4b3b 99bd 4fb2 f6be 1e41 69bd ec78 9ebd
000003d0: 5cda 893d fb07 8cbd adfa c0be cd12 973d
000003e0: 7e68 083e e858 ee3d 6c2e 0fbd 178d 9d3c
000003f0: e2e2 8f3e 4515 b33d 5dfb a03e 6c96 7c3e

regressors.1.lins.1.bias f4 [32]
-0.090198465 -0.07028199 -0.0033535422 -0.0018416673 -0.16950196 0.36449176 0.015156881 0.064861216
-0.048211776 -0.07798961 -0.25248292 -0.045696348 0.20405532 0.084024325 0.08676915 0.0826435
0.076196 0.079543725 -0.13673057 0.10739405 -0.0874592 0.12227983 0.13901883 0.28092766
-0.03339519 0.31028897 -0.2971585 0.16992594 -0.26315096 0.11318142 0.08263435 0.26447815
00000000: f9b9 b8bd 01f0 8fbd 1ac7 5bbb 1a64 f1ba
00000010: ec91 2dbe aa9e ba3e 9154 783c f5d5 843d
00000020: b679 45bd 04b9 9fbd 7145 81be 182c 3bbd
00000030: e1f3 503e f214 ac3d 06b4 b13d ff40 a93d
00000040: a60c 9c3d d2e7 a23d 1903 0cbe 69f1 db3d
00000050: cf1d b3bd d96d fa3d f45a 0e3e c0d5 8f3e
00000060: 65c9 08bd 32de 9e3e 2925 98be 1101 2e3e
00000070: b9bb 86be a9cb e73d 333c a93d ae69 873e

regressors.1.lins.2.weight f4 [32, 32]
-0.17484692 0.15679327 -0.20494598 -0.39574227 0.49844414 0.082727686 0.06810179 -0.011550434
-0.02473518 -0.030931149 -0.09291996 -0.068724915 0.08159444 0.17392121 -0.2595221 -0.6175816
-0.030353308 0.014572649 -0.44252205 -0.22802122 -0.243471 -0.28503942 0.16070499 0.21420568
-0.08155354 -0.4154467 0.019057726 0.80346775 0.10930589 0.054894842 -0.43458238 -0.15615164
-0.08174386 -0.040279403 -0.031047545 -1.2339379 0.08316074 -0.27333212 -0.041379206 -0.19563733
-0.3142701 0.17543781 0.016627723 0.024012681 0.22359325 0.1115508 -0.052344535 0.059539277
-0.50172174 -0.84452593 -0.059944376 -0.02641354 -0.38737765 0.06751664 0.018688915 0.13257717
-0.08835569 -0.008456073 0.10120718 -0.10997225 -0.24279843 0.3820801 -0.26435336 -0.16430487
-0.48243445 0.10738696 0.06960225 -0.049569808 0.1375566 0.1657182 0.32948303 0.04132901
0.011014484 -0.30095977 -0.14070433 0.13244714 0.07172414 -0.14912045 0.15434603 0.2015381
0.15964851 -0.043669038 -0.0021172466 -0.17170294 -0.0851612 -0.027670516 0.015816988 0.15417035
0.21687974 0.1024273 0.07153828 0.14329332 0.18900071 -0.2927944 0.21367972 0.19692284
-0.3520262 -0.6652571 -0.039388355 -0.12699997 -0.25139982 0.14573759 0.115422994 -0.27240548
-0.6371831 -0.10672776 0.008972992 0.04873224 -0.7218741 0.32920542 0.04708155 -0.21433853
-0.40329182 0.42356858 0.011655111 -0.040622484 0.33105433 0.0062002274 -0.027983816 -0.43042305
0.1600249 -0.016771523 -0.021180123 -0.3432693 0.14349894 -0.0067015365 -0.45442834 0.04125703
0.1501479 0.1410605 0.21269429 0.14520061 -0.23732577 0.017314687 -0.36260223 0.29588428
-0.58321893 -0.08350858 -0.5539079 -0.24317357 0.18748106 -0.057224784 -0.4227664 0.059196062
0.117531896 -0.34546986 -0.18425187 -0.000863691 -0.09766652 -0.5701696 -0.35592127 -0.07809005
0.57868457 -0.15303579 0.09058889 0.24461643 -0.4978416 0.06691936 0.023843715 0.0306025
-0.1985968 0.033517398 -0.1983136 -0.09137348 0.1287993 -0.18541661 0.12903981 0.034547385
-0.039098796 -0.20923229 -0.06797088 0.059834905 -0.057576936 0.054712098 0.15878296 -0.06453102
0.010084476 -0.14416865 -0.06962103 -0.21269923 -0.13403352 0.003815789 -0.0876852 0.03492887
0.0248468 0.03813834 -0.119335786 -0.09135835 -0.09410875 -0.1913395 0.038035 0.037714854
-0.29481918 -0.041270923 -0.16095662 -0.43646893 -0.78839374 -0.013676174 0.28071028 -0.044759035
-0.175164 0.16279419 -0.16418709 0.23311323 0.30605486 -0.0300314 0.25017712 0.33146316
-0.16588528 -0.024655921 0.22891515 -0.20730928 -0.14639397 -0.099923015 -0.00425907 0.17392336
0.18215826 -0.42788765 0.009457519 -0.15847126 0.34996888 -0.046220075 0.3262424 -0.2515889
0.0629014 -0.051098235 -0.18304396 0.15412028 -0.14857316 0.14942674 -0.40628406 -0.7133478
-0.02662877 0.051677387 -0.06596228 -0.06992518 -0.85942 -0.4617909 0.17906725 0.09411388
-0.053817146 -0.2460183 -0.75018394 -0.89077127 -0.7086199 -1.0552571 -0.083547145 0.1578521
-0.17069942 -0.9372396 0.027109219 -1.0976728 -0.74745876 -0.2562957 0.03775993 0.0704244
00000000: 120b 33be 6a8e 203e 5cdd 51be bb9e cabe
00000010: 1234 ff3e 226d a93d f478 8b3d 083e 3dbc
00000020: 6fa1 cabc 5263 fdbc d24c bebd a6bf 8cbd
00000030: fc1a a73d 6718 323e 15e0 84be d419 1ebf
00000040: 80a7 f8bc 1fc2 6e3c 4092 e2be 657e 69be
00000050: 7650 79be b0f0 91be d98f 243e bc58 5b3e
00000060: 8b05 a7bd 6eb5 d4be f31e 9c3c 10b0 4d3f
00000070: c4db df3d 6ad9 603d 9581 debe 37e6 1fbe
00000080: 5369 a7bd 04fc 24bd 6c57 febc adf1 9dbf
00000090: 2e50 aa3d 30f2 8bbe 3e7d 29bd 2755 48be
000000a0: 03e8 a0be f8a5 333e dd36 883c 3eb6 c43c
000000b0: a1f5 643e bf74 e43d 3967 56bd 75df 733d
000000c0: d670 00bf da32 58bf 3c88 75bd 3561 d8bc
000000d0: 5d56 c6be 2a46 8a3d 7f19 993c 4fc2 073e
000000e0: d4f3 b4bd 578b 0abc b645 cf3d 2239 e1bd
000000f0: 27a0 78be 01a0 c33e 5359 87be 893f 28be
00000100: a601 f7be b2ed db3d a08b 8e3d b609 4bbd
00000110: a3db 0c3e 08b2 293e 00b2 a83e 9c48 293d
00000120: 1876 343c 6617 9abe cc14 10be 39a0 073e
00000130: 1be4 923d 08b3 18be e30c 1e3e 0160 4e3e
00000140: e67a 233e 4ede 32bd 81c1 0abb e5d2 2fbe
00000150: ff68 aebd 47ad e2bc a192 813c d5de 1d3e
00000160: b915 5e3e 67c5 d13d a982 923d 7cbb 123e
00000170: 6789 413e 26e9 95be dbce 5a3e 24a6 493e
00000180: c73c b4be 4a4e 2abf af55 21bd 480c 02be
00000190: 7ab7 80be 3c3c 153e e462 ec3d bb78 8bbe
000001a0: 6f1e 23bf 1594 dabd 7503 133c 759b 473d
000001b0: becc 38bf 9d8d a83e 95d8 403d 8f7b 5bbe
000001c0: 447c cebe fbdd d83e 14f5 3e3c c363 26bd
000001d0: f47f a93e 472b cb3b 513e e5bc 6960 dcbe
000001e0: 91dd 233e 6f64 89bc f081 adbc fec0 afbe
000001f0: 63f1 123e 9098 dbbb d5aa e8be 22fd 283d
00000200: 5fc0 193e 2a72 103e 88cc 593e 78af 143e
00000210: 8705 73be 88d7 8d3c 00a7 b9be 257e 973e
00000220: d64d 15bf 8c06 abbd e8cc 0dbf 7e02 79be
00000230: 09fb 3f3e 8964 6abd d674 d8be 9277 723d
00000240: 90b4 f03d 6de1 b0be 86ac 3cbe 5269 62ba
00000250: 6205 c8bd a3f6 11bf 503b b6be aded 9fbd
00000260: ac24 143f 6ab5 1cbe ab86 b93d bb7c 7a3e
00000270: 18e5 febe 040d 893d e553 c33c 18b2 fa3c
00000280: f65c 4bbe 8a49 093d b812 4bbe 0522 bbbd
00000290: f7e3 033e dadd 3dbe 0323 043e 8f81 0d3d
000002a0: 0f26 20bd fd40 56be 5134 8bbd 7215 753d
000002b0: cbd5 6bbd cb19 603d 0098 223e d728 84bd
000002c0: 5c39 253c f2a0 13be 7895 8ebd d4cd 59be
000002d0: 1540 09be 5112 7a3b 4c94 b3bd 9311 0f3d
000002e0: 848b cb3c f336 1c3d 5266 f4bd 161a bbbd
000002f0: 17bc c0bd 80ee 43be 97ca 1b3d e47a 1a3d
00000300: 8af2 96be b30b 29bd d0d1 24be db78 dfbe
00000310: 2cd4 49bf 0812 60bc 42b9 8f3e 4055 37bd
00000320: 315e 33be 85b3 263e a920 28be 3cb5 6e3e
00000330: 39b3 9c3e 6904 f6bc 3717 803e 8ab5 a93e
00000340: d5dd 29be 37fb c9bc bc68 6a3e e248 54be
00000350: 4de8 15be 70a4 ccbd ab8f 8bbb f718 323e
00000360: b287 3a3e 1714 dbbe b6f3 1a3c 4a46 22be
00000370: 1f2f b33e 4351 3dbd 3e09 a73e 43d0 80be
00000380: 73d2 803d 624c 51bd e06f 3bbe b5d1 1d3e
00000390: 9023 18be 5303 193e 7704 d0be f69d 36bf
000003a0: 9424 dabc abab 533d 3b17 87bd ef34 8fbd
000003b0: f302 5cbf db6f ecbe 685d 373e c7be c03d
000003c0: 5e6f 5cbd 39ec 7bbe 0e0c 40bf 9609 64bf
000003d0: 1d68 35bf aa12 87bf c41a abbd fba3 213e
000003e0: d4cb 2ebe efee 6fbf 2714 de3c 8b80 8cbf
000003f0: 7559 3fbf 3139 83be 28aa 1a3d ab3a 903d

regressors.1.lins.2.bias f4 [32]
0.087660156 0.17022154 0.22751585 -0.0078228945 -0.13681519 0.1300808 -0.24281475 0.25788355
-0.23106045 -0.15985137 0.30364624 0.16843578 -0.33047074 -0.30702224 0.22492066 0.32113248
0.33351344 -0.12768058 0.048694033 -0.019799259 -0.22179475 -0.090894766 -0.07416534 -0.11554806
0.108960696 -0.15128316 -0.0554737 0.104414865 -0.06039951 -0.007909586 -0.08618721 0.053114574
00000000: 2b87 b33d 8e4e 2e3e eaf9 683e 992b 00bc
00000010: 4819 0cbe e733 053e 6ea4 78be 5009 843e
00000020: 1c9b 6cbe 14b0 23be 8577 9b3e 6e7a 2c3e
00000030: 7633 a9be 0532 9dbe 9a51 663e 7a6b a43e
00000040: 46c2 aa3e b3be 02be 6573 473d 0e32 a2bc
00000050: 2a1e 63be 0927 babd ffe3 97bd 76a4 ecbd
00000060: c926 df3d f9e9 1abe 6438 63bd 76d7 d53d
00000070: 7a65 77bd 3597 01bc ec82 b0bd ab8e 593d

regressors.1.lins.3.weight f4 [1, 32]
0.046038896 -0.07655353 0.12215171 -0.24591395 -0.19661023 -0.00091358373 -0.046799447 -0.31398943
-0.104080684 -0.0711137 -0.20867091 -0.29404593 -0.04366924 -0.031319946 -0.10982981 0.036983054
0.09399737 -0.35420236 -0.09581818 -0.13540378 -0.32045504 0.08578651 -0.067695 -0.11319472
-0.20204675 -0.09718924 -0.03118092 0.020769125 0.083152674 -0.052758727 -0.05487456 -0.14108054
00000000: 4893 3c3d 19c8 9cbd ad2a fa3d ded0 7bbe
00000010: 3154 49be 917d 6fba c7b0 3fbd 39c3 a0be
00000020: 4128 d5bd 0fa4 91bd d4ad 55be 308d 96be
00000030: 84de 32bd 5849 00bd 74ee e0bd 8b7b 173d
00000040: b181 c03d 035a b5be 523c c4bd 4aa7 0abe
00000050: af12 a4be d6b0 af3d ada3 8abd a2d2 e7bd
00000060: 58e5 4ebe 270b c7bd 216f ffbc 0324 aa3c
00000070: f34b aa3d 8919 58bd 26c4 60bd 6b77 10be

regressors.2.lins.0.weight f4 [32, 64]
-0.07696766 -0.03051132 -0.08334644 -0.029997885 0.050362617 0.09456207 -0.04535061 0.09408477
-0.038920194 -0.057803065 0.0005274117 0.0067539066 -0.04400471 0.013190895 -0.10728051 0.078945816
0.028473392 -0.09133597 -0.057322815 0.09493047 0.065828264 -0.07795563 -0.06658983 -0.052891538
-0.013197079 0.08831276 0.10131124 0.075757936 -0.045924038 -0.08038728 0.10824327 0.05019994
-0.113719165 -0.06680976 0.018194601 0.12392256 -0.08113234 -0.028697237 2.4974346e-05 -0.060919076
-0.056561917 0.10195324 -0.10176624 -0.09088339 0.011918068 0.030267373 -0.09360947 0.012216002
-0.09958051 0.07751359 -0.07971154 -0.0960899 -0.020071879 -0.0156091 0.055863753 -0.084394395
0.06856012 -0.08316459 0.100103304 0.024799407 0.020345658 0.084905386 -0.012892038 0.08135466
0.11921805 0.104403734 -0.0436247 0.030607581 -0.07498847 0.027799621 -0.10382332 -0.034186795
0.12481725 0.110970035 0.08113305 -0.11388752 0.012380376 -0.06593548 0.060702756 -0.092360914
-0.08540568 -0.053266525 0.047902033 -0.06998727 0.099447966 0.11935748 0.050442904 -0.08905153
0.027179584 0.028199881 -0.09755255 -0.09701975 -0.079640344 -0.056302756 -0.122904435 0.07079309
-0.07382977 0.013680086 -0.100583956 -0.044823423 -0.00667049 0.059234098 -0.0059328377 -0.079633206
0.014258489 -0.055464804 -0.11759943 0.07179314 0.026282474 0.051623702 0.118373394 0.03115806
0.07564865 -0.0055826604 -0.03194271 -0.11469886 0.0069986433 -0.05323887 0.042896375 0.061318725
-0.0959384 -0.07838108 0.044494778 -0.07137576 0.014490977 0.116750196 -0.105493635 -0.04370238
-0.11764184 -0.028058827 0.053964272 -0.03837973 -0.029786184 -0.012267351 -0.05223939 -0.046726137
0.09394041 -0.11072999 0.021024287 0.07942808 0.041784614 -0.08622667 -0.014249116 -0.09466982
0.047992766 -0.07723285 0.0017351657 0.057864636 -0.095271885 0.11460556 0.026716173 -0.05088991
0.035597175 -0.055872962 0.022893906 0.09475054 0.029733434 -0.05231914 -0.045058414 0.074725255
0.023465917 -0.004659623 -0.08750412 -0.049641624 -0.009679049 0.011411682 -0.104640245 0.08581206
0.081752524 0.07509214 0.1138431 0.11654073 -0.073956266 0.12078816 -0.061375335 0.06021878
0.06392291 0.10545914 -0.007840604 0.083018795 0.016911805 0.0193315 0.05931948 -0.068696514
-0.067478344 0.11988093 0.049988285 0.031735286 -0.08216898 0.10162833 -0.08921546 0.07034209
-0.035639375 -0.03848742 0.066912636 0.09542182 0.069987535 -0.03918676 -0.078771025 -0.03272645
0.06787473 0.0018716604 -0.011020079 -0.017228812 -0.11720726 0.105636284 -0.039060533 0.0021849275
0.06736584 0.059834868 0.02627635 -0.048323646 0.10170911 0.058255717 -0.012791753 0.06611787
0.06573346 0.037753403 -0.096473634 -0.067747265 0.12064873 -0.025470853 -0.016255766 0.067396134
-0.0585749 -0.036769524 -0.105981246 -0.012934059 0.0340423 0.1065938 -0.07715915 -0.10403901
-0.0053791255 -0.06396514 -0.04430686 -0.053871155 -0.07980856 0.019152254 0.022878781 0.003765121
0.09590241 -0.013728872 0.08662468 -0.06715371 0.00088115036 0.0077870786 -0.016565904 -0.10937764
-0.088691324 -0.0050058663 -0.005316049 0.10831034 -0.08909659 -0.028098121 0.11846304 -0.0994506
00000000: 38a1 9dbd e0f2 f9bc 8ab1 aabd 20be f5bc
00000010: 0849 4e3d c2a9 c13d 90c1 39bd 84af c03d
00000020: c86a 1fbd e8c2 6cbd 0042 0a3a e04f dd3b
00000030: 483e 34bd a01e 583c e2b5 dbbd 58ae a13d
00000040: 0841 e93c 5a0e bbbd 54cb 6abd e86a c23d
00000050: f8d0 863d 34a7 9fbd 4060 88bd cca4 58bd
00000060: 9038 58bc 52dd b43d 447c cf3d fa26 9b3d
00000070: d81a 3cbd 16a2 a4bd a6ae dd3d 749e 4d3d
00000080: 98e5 e8bd 8ed3 88bd d80c 953c 1ccb fd3d
00000090: b628 a6bd 7816 ebbc 0080 d137 4886 79bd
000000a0: 78ad 67bd dccc d03d d26a d0bd 1221 babd
000000b0: 0044 433c 48f3 f73c 52b6 bfbd a025 483c
000000c0: def0 cbbd 72bf 9e3d ce3f a3bd c8ca c4bd
000000d0: c86d a4bc 50bd 7fbc 64d1 643d f8d6 acbd
000000e0: 4069 8c3d 3252 aabd f602 cd3d 2028 cb3c
000000f0: f0ab a63c e0e2 ad3d 2039 53bc 469d a63d
00000100: 9828 f43d a0d1 d53d d0af 32bd c0bc fa3c
00000110: 8e93 99bd 08bc e33c 52a1 d4bd 7407 0cbd
00000120: 30a0 ff3d 4244 e33d 1629 a63d dc3d e9bd
00000130: 10d7 4a3c 2e09 87bd 74a3 783d b827 bdbd
00000140: 2ce9 aebd 002e 5abd ec34 443d 7c55 8fbd
00000150: 60ab cb3d b271 f43d 389d 4e3d a660 b6bd
00000160: b8a7 de3c 7003 e73c a2c9 c7bd 4ab2 c6bd
00000170: 7a1a a3bd b89d 66bd 52b5 fbbd f8fb 903d
00000180: 1034 97bd 7022 603c f6fe cdbd c498 37bd
00000190: 2094 dabb 749f 723d 4068 c2bb bc16 a3bd
000001a0: 709c 693c 102f 63bd f8d7 f0bd 4808 933d
000001b0: 584e d73c 6073 533d c06d f23d 303f ff3c
000001c0: aeed 9a3d c0ee b6bb 5cd6 02bd 3ce7 eabd
000001d0: e054 e53b 0011 5abd 1cb4 2f3d 5829 7b3d
000001e0: 5a7b c4bd 4286 a0bd 2840 363d 742d 92bd
000001f0: 906b 6d3c ba1a ef3d 0c0d d8bd 4401 33bd
00000200: 34ee f0bd a0db e5bc a409 5d3d 1034 1dbd
00000210: 2802 f4bc 00fd 48bc f8f8 55bd e863 3fbd
00000220: d463 c03d 68c6 e2bd 203b ac3c 30ab a23d
00000230: 5826 2b3d 9c97 b0bd 2075 69bc 40e2 c1bd
00000240: 1094 443d 422c 9ebd 806e e33a 7803 6d3d
00000250: e81d c3bd 52b6 ea3d e0db da3c f071 50bd
00000260: 58ce 113d 0cdb 64bd 008c bb3c 920c c23d
00000270: 8893 f33c 984c 56bd 2c8f 38bd 8e09 993d
00000280: 983b c03c c0af 98bb 5c35 b3bd 0455 4bbd
00000290: e094 1ebc 10f8 3a3c a04d d6bd 3cbe af3d
000002a0: de6d a73d e8c9 993d 9226 e93d e8ac ee3d
000002b0: 6276 97bd c85f f73d b464 7bbd f8a7 763d
000002c0: 04ea 823d f6fa d73d e075 00bc c205 aa3d
000002d0: a08a 8a3c 185d 9e3c fcf8 723d c2b0 8cbd
000002e0: 1632 8abd 2284 f53d 84c0 4c3d dcfc 013d
000002f0: 3648 a8bd 8422 d03d 98b6 b6bd 840f 903d
00000300: 98fa 11bd fca4 1dbd 7e09 893d 846c c33d
00000310: a055 8f3d 4c82 20bd b452 a1bd 2c0c 06bd
00000320: e801 8b3d 8052 f53a 908d 34bc 7023 8dbc
00000330: 5c0a f0bd d657 d83d f0fd 1fbd 0031 0f3b
00000340: 1af7 893d 6815 753d 8041 d73c 04ef 45bd
00000350: de4c d03d 8c9d 6e3d 8094 51bc ce68 873d
00000360: 449f 863d 50a3 1a3d f893 c5bd 14bf 8abd
00000370: ae16 f73d 40a8 d0bc d02a 85bc fc06 8a3d
00000380: 3cec 6fbd a49b 16bd b20c d9bd 60e9 53bc
00000390: f06f 0b3d da4d da3d 9e05 9ebd 6812 d5bd
000003a0: 6043 b0bb 2800 83bd 1c7b 35bd 00a8 5cbd
000003b0: ac72 a3bd 30e5 9c3c 486c bb3c 40c0 763b
000003c0: 7c68 c43d 10ef 60bc 4868 b13d e287 89bd
000003d0: 00fd 663a c02a ff3b 38b5 87bc 6201 e0bd
000003e0: cca3 b5bd 4008 a4bb 4032 aebb d0d1 dd3d
000003f0: 4678 b6bd 082e e6bc c09c f23d c2ac cbbd
