baseline/DLPL-CAP/models_dlpl-cap-regressor/sandwich+ultra8t_to_ssram+digtime+timing_ctrl+array_128_32_8t/dlpl-cap-regressor_nh_2_tsk_regression_ngl_4_nhl_4_hd_32_us_1_bn_0_dp_0.0_epoch_12_20250402_161341.pth (torch, 64130 bytes, 21 tensors)

regressors.0.lins.0.weight f4 [32, 64]
000000 f2 98 ca bb 40 7d a2 bb 82 51 7d bc 2b 7d 7e 3d
       -0.0061827833 -0.0049587786 -0.0154613275 0.06213109
000010 5f a1 45 3e 54 34 91 3d 36 59 b6 3d 15 46 29 3b
       0.1929984 0.07090059 0.089037344 0.0025829126
000020 21 de b4 be 6d f3 3b be b5 3c ef be 8a bb e5 3d
       -0.3532572 -0.18354578 -0.46726003 0.11217411
000030 d7 84 fc bd ee 8a 73 3d c2 3b 79 be 6e b2 49 be
       -0.12330025 0.059458666 -0.24339202 -0.19696972
000040 6d 93 ce bd 42 66 9e 3d c5 9d 6b 3e 93 a1 21 be
       -0.10086713 0.07734348 0.23009403 -0.15784292
000050 7c e6 59 bd 38 25 85 bc 86 33 25 3d 86 ab 5c be
       -0.053198323 -0.016253099 0.04033234 -0.21549806
000060 e1 07 f8 3d f0 38 d6 bd ae c6 f1 bd 94 7e ba bd
       0.12110878 -0.10460079 -0.11805473 -0.09106174
000070 b6 97 ea bd ca ee 34 3e d2 80 d3 bd 3f c6 a2 3d
       -0.11454718 0.17669216 -0.10327305 0.07947969
000080 ea f3 d6 bc b0 37 41 bc 9c 57 c3 bc 34 21 a2 3c
       -0.026239354 -0.011793062 -0.023845486 0.019791223
000090 c7 58 82 bd f6 01 5f 3e d4 07 31 3d 2a 8d 61 3e
       -0.06364589 0.21778092 0.043220356 0.22026506
0000a0 23 d0 a7 3d fe 18 1a 3e ab db d3 3d 6a f9 0e 3e
       0.08193996 0.15048596 0.10344633 0.13962331
0000b0 9b 42 aa be c5 b9 42 3e 60 c5 81 be d5 a9 b4 3b
       -0.3325394 0.19016178 -0.25345898 0.0055134096
0000c0 1a a0 2d be dd 14 33 bf 2a ba b1 be 84 43 fc be
       -0.16955605 -0.6995371 -0.34712344 -0.4927026
0000d0 92 a0 9d bd 78 7c 3c 3d ff cb 24 be 67 68 21 be
       -0.07696642 0.04601714 -0.16093443 -0.15762483
0000e0 46 71 4a be 86 68 07 be 54 52 fe 3b 09 94 1c be
       -0.19769773 -0.13223466 0.007761279 -0.15290846
0000f0 54 de f4 bd 37 b6 67 3e 12 6e e7 3d 74 63 ef bd
       -0.11956468 0.22628103 0.11300291 -0.11688891
000100 cf 76 f0 bd 70 31 91 bc e4 95 d1 bd 38 c8 1a bd
       -0.11741411 -0.017723769 -0.102336675 -0.0377886
000110 2a e7 a6 3d 5c 2c 1d bd 53 a9 36 bd d9 b6 aa 3d
       0.0814956 -0.038372383 -0.044595074 0.08335657
000120 20 ab 84 bd 20 1c 43 bc 3c 66 f2 bc fb 75 85 3c
       -0.06477952 -0.011908561 -0.029589765 0.016291609
000130 c5 f4 17 be d5 22 4b bd e4 95 9b 3d 95 fa 90 3d
       -0.14839466 -0.049593765 0.07596949 0.07079045
000140 13 7e 16 3c 6b a2 09 be 7e ed b8 bd 9c 5c f9 bd
       0.009185332 -0.13440864 -0.09029673 -0.12175867
000150 80 7e c8 3d a0 42 24 3c 4b 3b 2d bd aa f7 57 3d
       0.09789753 0.01002565 -0.042292874 0.052726425
000160 e9 92 8c bd 83 33 ba 3b ee 66 a2 3d 78 ff 89 bd
       -0.068639584 0.00568241 0.079297885 -0.0673818
000170 48 be ae bc 14 cb 9f bd 2c f3 7f 3d f5 1b 2a 3d
       -0.021330968 -0.07802406 0.062487766 0.04153057
000180 32 37 02 be 28 17 66 bd b6 ab c9 bd f9 9a ef 3d
       -0.12716368 -0.056174427 -0.098472044 0.116994806
000190 15 64 14 be bd d6 08 3d 16 d5 43 bd 1e e9 a2 bd
       -0.14491303 0.033407915 -0.047810636 -0.0795462
0001a0 ea b2 b8 bd 98 50 86 3d 86 d8 b6 bd ed f4 fd bd
       -0.090185 0.06558341 -0.08928017 -0.124002315
0001b0 fc bb 67 bd a3 e1 4d 3d f4 35 9a bd d8 42 07 be
       -0.05657576 0.050264012 -0.07529822 -0.13209093
0001c0 a2 ea 91 3d fb 30 08 be aa 9d ee bd e0 e5 21 3d
       0.07124831 -0.13299935 -0.11651166 0.039525867
0001d0 38 71 df 3c 36 76 e7 bd 9a 3e 71 bd 50 92 97 3d
       0.027275667 -0.11301844 -0.058897592 0.07400954
0001e0 4a db 93 bd 33 d7 28 3d 30 13 d6 3c c1 d0 d4 3d
       -0.072195604 0.041220855 0.026132196 0.10391379
0001f0 46 d5 dc 3d 2a 26 22 bd 5c 37 20 3d b9 e0 db bd
       0.10782866 -0.039587177 0.039115295 -0.10736222
000200 fd b2 c4 3d d8 8e a1 3d 97 52 43 be 1e 4c 66 bd
       0.09604452 0.078885734 -0.19074474 -0.056224935
000210 32 79 e4 3d ca cf 32 be be 49 69 3e ef 2d 18 be
       0.11155929 -0.17462078 0.22782037 -0.14861272
000220 c7 be 6c be bb 33 f5 3c 51 5f 66 be 89 d5 b3 bd
       -0.23119651 0.029931894 -0.22497298 -0.08780963
000230 82 2c 82 be 9e 5d 15 3e 04 6b 33 3e 7c 26 5d be
       -0.25424582 0.14586493 0.17521292 -0.21596712
000240 c5 75 ba be f3 0c 81 be bd 54 2c be 40 24 35 3e
       -0.36417976 -0.25205192 -0.168292 0.1768961
000250 c0 fc 9c 3d 4c f4 20 bd 36 ac 67 bc 25 5b 2e 3e
       0.07665396 -0.03929548 -0.014140179 0.17026956
000260 6b a9 4b 3c a7 6d 80 3d 3f c6 0d bd cf 68 58 be
       0.012430529 0.062709145 -0.03461289 -0.21133731
000270 2c e2 63 3d 08 bd f8 be d6 7d 88 bd 60 8e 4e 3d
       0.055635616 -0.4858172 -0.06664626 0.050428748
000280 6a 4f 8e 3b 4e 15 9c bd 83 e8 c6 3d 15 b3 52 bc
       0.004342963 -0.07621251 0.09712317 -0.012860079
000290 15 16 bb bd e1 61 83 be 92 3c 64 3e 79 9e 4c be
       -0.09135071 -0.25660613 0.2228873 -0.19982328
0002a0 36 d4 ff 3d 98 bc 88 3e 84 1a d4 3d 46 4e 7c be
       0.12491648 0.26706386 0.1035662 -0.24639234
0002b0 8e 15 8b 3e b9 70 82 bd 14 18 b1 3c 26 be 8d 3c
       0.27164882 -0.063691564 0.021617927 0.017302584
0002c0 4f b8 ad 3d 9c b8 29 3e b7 07 ba bd c9 34 9d 3d
       0.0848242 0.16574329 -0.09083503 0.076760836
0002d0 24 ed eb 3d d0 3a 01 3c 4b d7 d5 3c 05 fc 32 3c
       0.1151984 0.007887557 0.026103636 0.010924344
0002e0 08 74 33 be a9 ae 9f be 4c 0b 2d be 0b 73 ec bd
       -0.17524731 -0.31187943 -0.1689884 -0.1154538
0002f0 26 13 dc 3d 05 c6 77 3c 50 ba b0 3c f0 e4 4d be
       0.1074584 0.015122895 0.021573216 -0.20106864
000300 3a ba 9a bd 80 ee aa 3c 08 d1 eb be e4 7a 05 bd
       -0.07555051 0.020865679 -0.46057916 -0.0325879
000310 6b 4a 65 bd 37 6d 52 be 10 71 80 bd e6 2c 92 3b
       -0.055979174 -0.20549475 -0.06271565 0.0044609187
000320 ce ed 5d 3e 01 f6 b7 be 35 2c dc 3d ed 81 07 be
       0.21672747 -0.35929874 0.10750619 -0.13233157
000330 41 aa 2c be d8 0c 30 3e 5d 69 52 bf ae ae 2b bd
       -0.16861822 0.171924 -0.8219202 -0.041914634
000340 e2 e2 fb be 92 8e 8e bd fc b7 8a be 9c d5 ed 3d
       -0.49196535 -0.06960787 -0.27093494 0.116130084
000350 12 20 a4 bd 34 3a ff 3d 18 aa 9a be 16 dd 97 3e
       -0.080139294 0.12462273 -0.30207896 0.29660863
000360 e6 85 1b 3c 27 59 58 bd 5d 36 a4 3e a5 d4 35 3d
       0.009492373 -0.052819397 0.32072726 0.044392247
000370 50 cb 7e 3c 84 49 97 be f0 ca ba bd ea 03 cf 3c
       0.015551403 -0.29548275 -0.091207385 0.025270421
000380 a9 a2 f5 3d 08 f0 c2 bc d6 f9 fa bd 2b f8 a0 3c
       0.119939156 -0.023796096 -0.12254684 0.019649586
000390 99 4a 6c bd 34 b4 90 be b0 24 0a bd b5 a6 2d 3e
       -0.05768833 -0.28262484 -0.033726394 0.16958125
0003a0 10 60 ab bd cb 53 35 be cd 40 05 bc d9 3d dd 3d
       -0.08367932 -0.17707746 -0.0081331255 0.10802812
0003b0 d2 59 43 be 50 cb 4b 3e 65 2c 29 bf f6 1e d9 3c
       -0.19077232 0.19901776 -0.66083366 0.026504021
0003c0 dc 06 d6 3d 42 9d af bd 29 4f 98 bd 1f 7d e9 3d
       0.10450527 -0.085749164 -0.074369736 0.11400818
0003d0 86 59 9d 3d 1c 13 4a bd 40 35 4b be 99 d4 27 3e
       0.07683091 -0.04933463 -0.19844532 0.16389693
0003e0 1c 9d 1e 3e 46 e3 cb 3d 94 c5 14 bd 36 ef 5e 3d
       0.1548962 0.09955458 -0.036321238 0.054427348
0003f0 56 0f d0 3d e5 89 5e 3e c4 51 f6 3d 13 69 fd 3b
       0.10159175 0.2173229 0.12027314 0.007733473

regressors.0.lins.0.bias f4 [32]
000000 7b 8a dc bb 32 3c d2 bd b6 66 b0 3d f1 74 b6 bd
       -0.0067303753 -0.102653876 0.086133406 -0.089090236
000010 f2 f5 0b 3e 16 df a9 bb 95 06 ca 3d cf 11 17 3e
       0.1366804 -0.0051840646 0.09864537 0.14752887
000020 81 d4 17 3e 89 5d 6c 3b dc 1e a0 3d 6d 76 8e bd
       0.14827158 0.0036066493 0.07818386 -0.06956182
000030 23 df 86 bc ad 4e f7 bd 35 d4 c6 3a dd 30 cf bd
       -0.016463822 -0.12075553 0.0015169444 -0.10116742
000040 b7 e9 06 bd 7b c7 06 be 36 a9 e9 bd 31 26 11 3e
       -0.03293773 -0.13162033 -0.114092276 0.14174725
000050 49 3a e9 bd 40 37 58 3e 99 88 42 3e 46 25 27 be
       -0.1138807 0.21114826 0.1899742 -0.16322812
000060 25 6f ae bd fb cc 02 be a1 3d 20 3e 5f f2 00 bc
       -0.08517293 -0.12773506 0.1564851 -0.007870286
000070 dd 0a 2a 3e 4b 91 f6 bd 38 50 c6 3d 2b 85 43 be
       0.16605707 -0.12039431 0.09683269 -0.19093768

regressors.0.lins.1.weight f4 [32, 32]
000000 69 d9 1e bf 09 36 12 3c be 0c d1 be 51 be 5b 3d
       -0.6205049 0.008924016 -0.40830034 0.053648297
000010 f5 b0 b1 be 33 2e 37 be 4f 45 8a 3d fc 68 03 bf
       -0.3470532 -0.17888717 0.06751501 -0.5133207
000020 68 5f e0 be 03 f2 f9 3c 93 25 75 bd 9d 53 5b be
       -0.4382279 0.030510908 -0.059850287 -0.21418615
000030 81 da 29 3e 34 40 31 3d e4 51 53 3c 7a 75 71 3e
       0.16587259 0.04327412 0.012897942 0.2357997
000040 b8 26 ce bd 70 d1 5c 3d cd 51 77 bd e6 39 06 be
       -0.10065979 0.053910673 -0.060380746 -0.13108024
000050 24 98 4d be cc 90 08 3d d9 11 cb bd 44 ea 94 3e
       -0.20077568 0.033341214 -0.099155135 0.2908498
000060 10 4a 1e 3d 7c ef 25 bd 9c 5a 50 be 27 6f 0f bd
       0.03864485 -0.040511593 -0.20347065 -0.035018113
000070 62 18 85 bd 09 d7 1c be 02 f7 89 bd 4a 90 1e 3e
       -0.06498791 -0.15316404 -0.06736566 0.1548473
000080 9a db cb be b6 e6 0b be 54 e3 ee bc 7b 7c cb be
       -0.3981598 -0.13662228 -0.029161133 -0.3974341
000090 1f 2f 59 3e 2f 5d 72 bd a9 10 d3 bd f8 09 a1 bd
       0.21209382 -0.059170898 -0.10305912 -0.078632295
0000a0 d7 ac 22 3e 0a ba 94 3d 0e 37 0e 3e 44 03 a6 bd
       0.15886246 0.07262047 0.13888189 -0.081060916
0000b0 7d 67 d8 3d 76 ee 6d 3e 3a ee eb bd 91 bb 04 3e
       0.10566614 0.23235497 -0.115200475 0.12962176
0000c0 8b 1a 21 3d f2 45 df be 7d 1f 1d be 8c 86 46 be
       0.039331954 -0.43608052 -0.15344043 -0.19387263
0000d0 91 3e 21 3e 30 67 db 3d df a9 73 be ec c7 13 be
       0.15746523 0.10713041 -0.2379527 -0.14431733
0000e0 c1 a3 18 be a6 44 c2 bd a1 44 5f bc 77 fe 91 be
       -0.14906217 -0.0948575 -0.013627202 -0.28514454
0000f0 fd 82 79 3d e7 d7 b1 3e 6e 92 aa 3c 03 92 29 3e
       0.060915936 0.34735033 0.020821776 0.16559605
000100 e1 96 8c 3e df 0e b9 bc f4 3b 90 be 54 b3 ba be
       0.2745886 -0.022590099 -0.2817074 -0.36464942
000110 3f df 40 bf 79 79 49 bd fc 26 93 bd 8e 0a 97 bd
       -0.75340647 -0.04918811 -0.0718517 -0.0737506
000120 97 8b 27 3d 5c 82 69 be a5 cf 10 be ec 27 ba 3d
       0.040904608 -0.22803634 -0.1414171 0.09089646
000130 79 54 c7 be 2b e1 d6 be 65 01 d0 bd 16 af a2 be
       -0.38931635 -0.41968665 -0.10156516 -0.31774205
000140 e8 4e f4 3b e8 4a a8 3d 86 97 01 3d e9 ac e9 bd
       0.0074556954 0.08217412 0.031638645 -0.11409933
000150 60 33 17 bf ea 43 89 be bc dc a7 3d 27 d5 8a bd
       -0.5906277 -0.26809627 0.081963986 -0.06778937
000160 1e 1d f2 bd 82 02 59 3d 87 6c be 3d 0f 43 a9 bd
       -0.1182196 0.052980907 0.09298044 -0.082647435
000170 2e 72 af 3d 98 65 a0 bd 74 da 65 be 05 93 29 be
       0.085667 -0.078318775 -0.22446615 -0.1655999
000180 c4 34 69 3d 28 55 e5 3c b3 81 a1 3c 14 aa 0f 3e
       0.056935087 0.027994707 0.019715166 0.14029723
000190 68 f0 83 be 2c ab 56 be 0e 51 b4 be e1 48 2d be
       -0.25769353 -0.20963734 -0.3521809 -0.16922332
0001a0 8c 2d cf 3c 69 36 4b be 89 85 ff bd 56 61 a7 3d
       0.025290273 -0.19844975 -0.12476642 0.08172862
0001b0 69 5c c4 bd fc 26 e0 be c3 66 c2 be 09 11 38 be
       -0.09587938 -0.43779743 -0.37969026 -0.17975248
0001c0 32 1b 8e 3d b6 5a 9b bd 17 6f bc 3d d9 18 12 bf
       0.06938781 -0.07585661 0.09200876 -0.57069165
0001d0 84 e2 a7 be 79 d5 35 be 19 b1 48 3d 30 d6 80 3d
       -0.32790005 -0.17757215 0.04899702 0.06290853
0001e0 d3 fe 98 be 55 e1 a6 3b 12 82 d4 be 95 5f c3 be
       -0.29881915 0.0050927796 -0.41505486 -0.3815886
0001f0 2b 8a 41 be 87 34 67 3a ff 6f 21 bd f3 54 b6 be
       -0.18900363 0.0008819778 -0.03941345 -0.35611686
000200 0e 87 8f 3c 13 ae 0e 3c 29 7e e9 bc df 9d 9d bc
       0.017520454 0.008708495 -0.02850254 -0.019240318
000210 88 03 ea bd 11 84 31 3e a5 7a 48 3d d7 49 54 3b
       -0.11426455 0.17335536 0.048945088 0.0032392645
000220 86 cb 29 bd 25 ab 8c 3c 7c 46 94 ba ba 15 13 3c
       -0.04145386 0.017171452 -0.001131251 0.008977348
000230 08 0b ab bc d2 8c 37 3d 80 5e 23 3e 54 5f b3 3d
       -0.020879284 0.04481203 0.15954018 0.08758417
000240 df df 41 be c4 d8 90 bd b9 65 28 3e 73 60 37 bc
       -0.18933056 -0.07072595 0.16445054 -0.011192429
000250 ef d6 66 bd c0 30 99 bd ea 1e 92 be 80 48 da bd
       -0.05635732 -0.074800014 -0.2853921 -0.106583595
000260 6a f4 64 bd 5b e6 c2 bd f4 5f 8b bd 15 00 d8 bd
       -0.055897154 -0.09516593 -0.06805411 -0.10546891
000270 61 26 a5 3c 81 de 20 3e 03 54 53 be be 06 8c 3c
       0.020159902 0.15709879 -0.20637517 0.017093059
000280 83 fb 16 bf 4f e8 10 3e c0 91 24 bf 04 c3 b8 3c
       -0.58977526 0.14151119 -0.64284897 0.022553928
000290 38 a5 78 bd 7a 35 fb 3d a7 3b 39 3c 62 fd 96 be
       -0.06070444 0.12266059 0.011305726 -0.2949019
0002a0 d8 be 07 3e e5 87 55 3d b2 c9 b7 bd d9 b6 9b bb
       0.13256395 0.052131552 -0.08974017 -0.0047520217
0002b0 3c d0 32 3e a0 8b 60 3b 76 dd be be 27 35 09 3e
       0.17462248 0.003426291 -0.37278336 0.13399182
0002c0 2a 13 14 be 9e 88 8d bd 7f b1 70 be 65 91 ac be
       -0.14460436 -0.06910823 -0.2350521 -0.33704677
0002d0 70 b7 2e 3d 4b ac 97 be 43 b2 38 3d 68 88 c2 be
       0.04265541 -0.29623637 0.04509188 -0.37994695
0002e0 25 50 84 3e 87 16 c7 bc 07 4f f8 3d ec 52 7b be
       0.25842395 -0.024302734 0.12124448 -0.24543351
0002f0 e5 be 1a 3d 9a 3a ac 3c b5 a5 27 3e 83 6d 91 be
       0.037779707 0.021024037 0.16371806 -0.28403863
000300 34 ec 77 3d a1 d8 b3 bd 8b 2c 43 bd a8 92 6d be
       0.060527995 -0.08781553 -0.0476499 -0.23200476
000310 f7 78 6b be ea 81 0f 3e 3c 84 bf bd 8f 9c de bc
       -0.22995363 0.14014402 -0.093513936 -0.027174262
000320 c3 2c ea bd 99 ee 61 3d 97 d9 21 3e e1 f3 9e be
       -0.11434319 0.055159185 0.1580566 -0.3104544
000330 67 8a 67 be b6 bd f5 39 46 a4 17 3e e7 fa 69 3d
       -0.2261139 0.00046871387 0.14808759 0.057124045
000340 39 f0 66 be 43 f6 b2 3d 49 fe 6d 3d b8 20 01 3e
       -0.22552575 0.08738377 0.058103833 0.12610137
000350 14 32 e1 3b c9 3f e5 be d9 9f c4 be e8 cb 04 3d
       0.006872425 -0.44775227 -0.38403204 0.032421023
000360 eb 54 ac bc d6 29 7b 3d 99 79 cb bb 1b c0 5a 3d
       -0.021036586 0.061319195 -0.006209564 0.053405862
000370 f3 5a 52 be 9c f5 32 be be cb af 3d 3e 23 c2 bd
       -0.20542507 -0.17476505 0.085837826 -0.09479378
000380 ed eb c1 bd 26 85 c8 bd c5 61 01 3e f7 37 93 3d
       -0.094688274 -0.09791021 0.12634952 0.07188409
000390 0c 3e e7 bd c7 b9 b6 bd 34 f6 9c be 3f 13 87 3d
       -0.112911314 -0.08922153 -0.30656588 0.06595468
0003a0 c5 54 40 bd 90 08 6b bc 29 a9 22 bc f5 09 4d be
       -0.046955843 -0.014345303 -0.009928026 -0.2002333
0003b0 c6 1a 51 be 95 56 21 3e 3f 08 ad 3c b9 ec 87 3e
       -0.2042037 0.15755685 0.021122096 0.26547793
0003c0 14 0e 7a be 48 7c 9a be d3 f4 82 3e d0 9d 0f 3e
       -0.24419433 -0.30172944 0.2557741 0.14025044
0003d0 f1 8e c3 bd 86 97 90 bd bf 6e 09 3e 6e 3c 41 bf
       -0.09548748 -0.07060151 0.13421153 -0.75482833
0003e0 49 96 3a 3e ee d4 69 bb e0 66 41 bd 97 8e b5 bd
       0.18221392 -0.0035679894 -0.04721725 -0.088650875
0003f0 c9 0a 8e be 7f 76 08 3f 45 1a 9b 3d a2 83 bc bd
       -0.27742603 0.5330581 0.0757337 -0.092047945

regressors.0.lins.1.bias f4 [32]
000000 f5 af db bd a1 53 b2 bd 77 22 7f bd d2 41 1d be
       -0.107269205 -0.08707357 -0.062288728 -0.1535714
000010 67 0e 72 be 38 c5 62 be 53 45 ac bd 3d 7e ea bc
       -0.23638307 -0.22145545 -0.0841166 -0.028624648
000020 1a 1b ff 3d be 16 a2 bd 6c 3d 50 3e ae 80 54 be
       0.12456341 -0.07914494 0.2033593 -0.20752212
000030 41 6d 9e be c3 7d 6c bd a8 c5 5c 3e 3a 4d 75 be
       -0.3094273 -0.057737123 0.21559775 -0.23955241
000040 fb 05 35 be 19 22 b8 3e 47 50 22 bc d2 03 0c 3e
       -0.17678063 0.35963514 -0.009906835 0.13673332
000050 2f d8 a2 3e f1 a1 05 3d 97 76 cb be 92 7d 70 bd
       0.3180556 0.032625142 -0.39738914 -0.058713503
000060 80 6b 26 be fd 16 b3 bd f2 fa ef bc 79 74 80 be
       -0.16251945 -0.08744619 -0.029294465 -0.25088862
000070 4b 6e e7 3d 25 91 80 3d 46 a1 0a 3e 0e a9 12 3e
       0.113003336 0.06277684 0.13538083 0.14322302

regressors.0.lins.2.weight f4 [32, 32]
000000 a6 64 19 3e 2d 28 d8 3d ff e5 8b bd 27 91 92 bd
       0.149798 0.10554538 -0.06830978 -0.07156592
000010 23 f9 6d bb 7b 10 2b be ef f1 d2 bd 55 27 ce bd
       -0.0036311827 -0.16705506 -0.103000514 -0.10066096
000020 cf 71 0c 3e cf 0a d8 bd 3b e0 df bd d9 01 06 be
       0.1371529 -0.105489366 -0.109314404 -0.13086642
000030 1c 98 90 bc 9d b5 d7 bd be ab 20 be e8 60 2f 3e
       -0.017650656 -0.10532687 -0.15690514 0.1712681
000040 d7 9b 89 bd 48 bf 55 bc ac 02 be 3c 95 a5 1a 3c
       -0.06719177 -0.013046093 0.023194633 0.009438892
000050 f1 3d 52 3d f6 cd a1 3d 9a 98 89 bd 74 48 90 bd
       0.051328603 0.07900612 -0.067185596 -0.07045069
000060 e8 ac a9 bc 07 0c 2a be b7 31 c0 bd 27 37 9c 3d
       -0.020712331 -0.1660615 -0.09384482 0.07627707
000070 6c 17 0b bb 5e 11 f4 bd 4d 47 eb bd 24 3d 68 bd
       -0.0021223677 -0.11917375 -0.11488209 -0.056698933
000080 35 1e 39 3d 67 2a 97 3e 88 5b 09 be 49 16 01 be
       0.045194823 0.29524538 -0.13413823 -0.12606157
000090 58 e7 92 be f8 f6 a3 3c ce 85 5c be 1d 7f 67 be
       -0.28692126 0.020015225 -0.21535417 -0.22607084
0000a0 dc 97 a9 bd b9 50 12 bd 26 56 94 be 33 d5 13 3d
       -0.08280918 -0.035721514 -0.28971976 0.036091994
0000b0 74 94 43 bb 15 88 93 be 84 4b 45 3b 40 3a 37 3d
       -0.0029843124 -0.2881476 0.0030104825 0.044733286
0000c0 a6 fd d1 3e ad ee 8e bd 4a b5 00 be 94 d4 2e 3e
       0.4101383 -0.069791175 -0.12569156 0.1707328
0000d0 65 16 17 3e 11 99 3d 3d d0 5d e9 3c 1f e9 4d 3e
       0.14754637 0.046288554 0.028487116 0.2010846
0000e0 f7 8c a5 bc 96 41 3d 3d 64 63 97 be fb 5e 04 be
       -0.020208819 0.046205126 -0.29568017 -0.12926857
0000f0 e0 fc 16 be 39 79 ab bd 60 e9 94 3c 28 3d 36 3c
       -0.14744902 -0.08372731 0.018177688 0.011122979
000100 e2 d9 bc 3d 0d 10 34 be ba 02 5f be 55 e5 17 be
       0.09221245 -0.17584248 -0.21778384 -0.14833577
000110 1a f9 c3 3c d2 b0 00 3e 4b 12 a0 be 4b 36 84 be
       0.023922492 0.12567452 -0.31263956 -0.25822672
000120 61 23 c0 be 34 66 b5 3d 9c 28 78 3d f2 7e 08 3e
       -0.37526992 0.08857384 0.060585603 0.13329676
000130 37 4a 2a 3e 97 88 2f bd fb ba 83 bd 8e be a6 3e
       0.16629873 -0.04285487 -0.06432148 0.32567257
000140 71 bc 9b 3e 0c ab 5d 3d 89 0d 54 bd b6 8d e1 bd
       0.30417207 0.0541182 -0.05177072 -0.11013357
000150 a3 fe dd 3d 5f f7 d7 3c d4 52 8d 3e 58 9a 74 3e
       0.10839584 0.026363073 0.27602255 0.23887002
000160 a5 32 b7 be 77 65 1c 3d 57 e7 a7 3e f4 8b 3c bb
       -0.35780826 0.038182702 0.32793686 -0.0028769942
000170 2d 86 0c be 0a 9c 35 3e d4 fe 87 3d 51 4d 4b bd
       -0.13723059 0.17735305 0.066404015 -0.04963428
000180 66 08 ac bd 8c 6f 8c bd 60 cd 38 be f4 f2 0e bd
       -0.084000394 -0.068572134 -0.18047094 -0.034899667
000190 e7 08 04 be 7a b1 98 3d 5b 21 64 bd 69 a8 63 bc
       -0.12894021 0.07455726 -0.055695873 -0.013895133
0001a0 91 dd bb 3d 2e 00 8b 3d 25 39 41 bd 25 3c 9c bc
       0.0917312 0.06787144 -0.047173638 -0.019071648
0001b0 5d ad 06 bd 10 b8 1e be 62 56 16 be cd c7 c5 bb
       -0.032880176 -0.15499902 -0.1468139 -0.006035781
0001c0 a4 4f 19 3e 99 d0 50 bd 5d ee 5d 3d f4 58 29 3d
       0.14971787 -0.050980184 0.0541824 0.041344598
0001d0 93 43 32 be b2 0b 80 3d bd 34 6c 3d 2e 71 06 be
       -0.1740859 0.06252231 0.057667483 -0.13129112
0001e0 7a 98 f1 bd c9 9e 08 be ef 24 cf bd ee ca b3 bd
       -0.11796661 -0.13341822 -0.101144664 -0.0877894
0001f0 d8 1f 53 bd 0c 47 8b 3c 11 a0 00 be 48 00 1e be
       -0.05154404 0.017001651 -0.1256106 -0.15429795
000200 4c f6 18 be d9 d1 da bd e5 5d b0 3b 1e 30 ac bd
       -0.14937705 -0.106845565 0.005382287 -0.08407615
000210 47 f3 dc bd 08 9c 18 3e 93 48 3b bd f6 31 25 be
       -0.10788589 0.14903271 -0.04572351 -0.1613234
000220 94 54 ab 3d d7 46 63 bd ed c8 24 be 93 84 0a 3e
       0.08365741 -0.05548748 -0.16092272 0.13527136
000230 b4 99 78 bd 44 10 03 be 67 76 21 bd 27 7e 4a bd
       -0.060693458 -0.12799174 -0.039419558 -0.049436715
000240 28 5a fd 3d bb 38 6d 3d 05 6b d7 bc 5b 94 4f bd
       0.123707116 0.05791543 -0.026296148 -0.050678592
000250 6e fe 54 3c d9 02 0b bc 9e ca f0 bd bd d0 52 3c
       0.013000114 -0.008484566 -0.11757396 0.01286715
000260 95 64 2c 3d 5e cc 43 3e 01 3e 35 be 32 70 2d be
       0.04208811 0.19120929 -0.17699434 -0.1693733
000270 9a 33 24 be 8d 16 7d be 3c 12 b9 bd 20 1e f2 3c
       -0.1603531 -0.24715634 -0.09036681 0.02955538
000280 9d 21 cb bd 9c d8 b1 3d 02 97 36 3e e5 40 ac 3d
       -0.099185206 0.08683893 0.17831042 0.08410815
000290 3d e0 73 be 12 b1 56 3d 7b 7c ef 3d 7b d5 07 3e
       -0.23816009 0.05241496 0.11693665 0.1326503
0002a0 a1 93 2f be fc 70 e0 3d 15 8b f7 3c 22 aa bc 3c
       -0.1714616 0.1095905 0.030217687 0.023030344
0002b0 b9 81 af 3d 7f 74 d0 bd bf b0 5e be 90 13 2f be
       0.085696645 -0.1017847 -0.21747111 -0.17097306
0002c0 aa ac 2e be 42 ad d5 bd 57 70 c7 3d 69 46 ea 3d
       -0.17058054 -0.10433437 0.09738224 0.11439211
0002d0 04 9c fd 3c 37 f5 de bd a7 a5 e2 3c 80 1d d6 bd
       0.030958183 -0.10886615 0.02766688 -0.104548454
0002e0 b0 2e 78 bc b2 8b 68 be 71 69 11 be 2e 87 46 bd
       -0.01514785 -0.2270954 -0.14200379 -0.04846876
0002f0 75 75 48 3d 7f 5f 50 be 4d 0a 7e be 71 dd ea bd
       0.04894014 -0.20348929 -0.24808617 -0.11468018
000300 74 be 5a bd eb 39 c4 3d 10 1a 4c 3d 7e ca 33 be
       -0.053404287 0.095813595 0.049829543 -0.17557713
000310 e9 5e 9f bd a7 ec 9a be 0c 53 ef bd 0e eb dd bd
       -0.077817746 -0.30258676 -0.11685762 -0.10835849
000320 5e 58 f3 be a9 f5 e8 bd d1 41 92 bd 85 28 9d 3d
       -0.47528356 -0.11374981 -0.0714146 0.07673744
000330 28 06 63 3e 15 9d d9 3d bf 1e 63 bd 74 c5 7e 3d
       0.22170317 0.10625664 -0.055449244 0.062200025
000340 3e df 66 be 30 8d 22 3d 96 db 18 3d ed 2d bc bd
       -0.22546098 0.03968543 0.03731879 -0.09188447
000350 2a 27 0a be 99 22 33 bd 8f e2 9d 3d 83 2d 75 be
       -0.13491502 -0.043734167 0.07709228 -0.23943143
000360 a9 ec 2c bd 67 1c 16 be cd b7 a2 bd e2 8c a6 be
       -0.042217884 -0.14659272 -0.079452135 -0.3252936
000370 29 28 e8 be d7 37 d9 3b 1e 2c 7f 3c 74 bc 3e be
       -0.4534314 0.006628971 0.015574483 -0.18626577
000380 68 1a 98 be e0 4e be be 32 45 39 be 09 7f 95 3c
       -0.29707646 -0.37169552 -0.18092802 0.018249052
000390 0f eb 36 bd e2 76 23 bd 88 48 f2 3d d5 03 c1 bd
       -0.044657763 -0.039908297 0.118302405 -0.09424559
0003a0 d5 ea 7c 3c 91 46 90 3d 41 ae 3e bb 49 24 f0 bd
       0.015436848 0.070447095 -0.0029095563 -0.11725671
0003b0 12 2c 67 bd 8d 1d 86 be 05 54 ae bd 57 0b 70 3d
       -0.056438513 -0.2619442 -0.08512119 0.058604565
0003c0 e3 45 17 be ae d8 a0 bc 6f ce 58 be bf 82 06 be
       -0.14772753 -0.01963457 -0.21172498 -0.13135813
0003d0 c4 22 52 be 9f a5 dc bc cf 67 c3 3e 34 9e a4 3d
       -0.20521075 -0.026934443 0.38165137 0.08037987
0003e0 5b b2 a6 be ea 8a ad bd 9b c2 09 3e 44 e2 0b 3d
       -0.3255795 -0.084737614 0.13453142 0.03415133
0003f0 b3 19 b8 bd 28 22 63 bd a5 d0 08 3e a4 74 2d be
       -0.08989277 -0.055452496 0.13360842 -0.16939026

regressors.0.lins.2.bias f4 [32]
000000 a2 e8 1e be ed fe df bd bc fa 91 be f5 8a 20 be
       -0.1551843 -0.10937295 -0.28511608 -0.15678008
000010 07 59 32 be 20 7d e5 3d 54 56 43 3e a4 a4 8d be
       -0.17416774 0.11205506 0.190759 -0.27664673
000020 ff 66 57 be 46 91 59 3e 0b 0e be 3c a7 e0 b4 bb
       -0.21035384 0.21246824 0.023200056 -0.0055199447
000030 48 61 db 3e f6 e0 c0 3e a3 03 3d be ae 88 1d 3d
       0.42847657 0.37671632 -0.18458419 0.038460426
000040 f6 4b ab 3e 4e 8f a0 bd c5 1e 6d be 7f 44 91 3e
       0.3345639 -0.07839833 -0.23156269 0.2837257
000050 97 af 70 be 9f 4c 8e 3e dd e6 5d be 1e 35 00 be
       -0.23504482 0.27792832 -0.21670099 -0.12520263
000060 6b 41 c1 bd a3 6a 28 be a5 18 a4 bd 73 6d 90 3e
       -0.094363056 -0.16446929 -0.08012513 0.28208503
000070 39 58 89 bd d5 10 eb 3d 5d 43 a6 3e f6 42 84 3c
       -0.0670628 0.1147782 0.3247327 0.01614521

regressors.0.lins.3.weight f4 [1, 32]
000000 d5 af f3 3d c1 ba 71 be 7e 88 21 be b3 17 87 bd
       0.11898772 -0.23606397 -0.15774724 -0.06596317
000010 58 9b cd bd b7 92 7b bd 8d 7b 07 3e 4c cf 9b 3c
       -0.10039395 -0.061419215 0.13230725 0.019019745
000020 4a 34 71 3c 5a 29 3e 3d fa 48 5e 3a 07 17 15 be
       0.014721939 0.046426155 0.0008479502 -0.14559565
000030 53 27 70 3e c0 23 33 3e 16 53 4c be 0d 4e 26 bc
       0.23452501 0.17494106 -0.1995357 -0.010150445
000040 5e 7d de 3d 4c 7a 77 bd e0 6d a0 bc 4f db 56 3d
       0.10863756 -0.060419366 -0.019583642 0.052455243
000050 37 75 4a be cd 29 0a 3e d8 a4 91 3d 8c 2c fc 3c
       -0.19771276 0.13492508 0.071115196 0.03078296
000060 18 5a 99 3b 77 d1 12 be 30 24 28 bd 1b 2d 36 3e
       0.0046799295 -0.14337717 -0.041050136 0.17790644
000070 1a c5 7e 3c ec 19 da 3d a3 a9 87 3d 15 2b 29 bb
       0.015549922 0.106494755 0.066241525 -0.0025813032

regressors.1.lins.0.weight f4 [32, 64]
000000 5a 1b 5a 3e 3c a5 91 bd d5 85 d0 3d 40 e3 92 3b
       0.21299496 -0.07111594 0.101817764 0.0044826567
000010 5c bd 59 bd 7d c1 95 be 72 54 61 be 30 3a f2 bb
       -0.053159103 -0.29249182 -0.2200487 -0.0073921904
000020 bb 1b 21 bc 4d 60 d5 be 53 c9 43 3b ff 6a a8 bc
       -0.009833272 -0.41675034 0.0029874637 -0.020558832
000030 a4 d9 34 bf 09 d8 29 3e af b0 e6 3d b4 f3 74 be
       -0.70644593 0.16586317 0.112641685 -0.2392109
000040 25 08 53 3b 92 63 70 3d 06 36 47 3e 82 71 6c bd
       0.00322009 0.058688708 0.19454202 -0.057725437
000050 10 3a cb bd 98 81 93 3d 8f f4 c4 3c 84 79 65 be
       -0.09923184 0.072024524 0.024042396 -0.22409636
000060 cd a8 84 3d 77 06 de bd 87 0d 81 3e 88 03 a0 bd
       0.06477509 -0.10841077 0.25205633 -0.078131735
000070 40 18 2a 3d 7b 5d 87 3d d8 e6 a3 3d 10 2d 73 bc
       0.041527033 0.06609627 0.08003014 -0.014842287
000080 67 25 c8 be e8 28 80 bd f8 20 ae 3d 91 4e 30 be
       -0.39091036 -0.06257802 0.08502382 -0.1721747
000090 c5 3c e3 3d 75 f6 64 be 03 8d 50 be 44 e3 62 3d
       0.11095575 -0.22359641 -0.20366292 0.05539252
0000a0 fb 2e f7 bd 1e 9d 1d bf 32 73 a1 be d0 26 bf 3d
       -0.12069508 -0.61567867 -0.315332 0.09333575
0000b0 0c c1 62 3c 94 fd e2 3d a0 99 39 3e 44 40 b7 3d
       0.013839971 0.110835224 0.1812501 0.089478046
0000c0 b5 a4 0f 3e 4c a0 2f be 83 82 a0 bd f0 a9 8a 3d
       0.14027674 -0.17150992 -0.07837393 0.06770694
0000d0 f8 19 54 bd 24 a6 9c bd 24 85 cc be 11 4f 1d bd
       -0.05178258 -0.07648876 -0.39945328 -0.03840548
0000e0 15 b4 26 be 85 de 00 bf b2 b2 3f be 6c 37 6e 3d
       -0.16279633 -0.5033954 -0.1872051 0.058158323
0000f0 28 b2 11 3d 16 cf 62 be 0c 15 e6 3d 6f 9b eb 3d
       0.035570294 -0.2214931 0.11234483 0.11504256
000100 d4 a5 e5 bd f0 db 9f 3d 5c c6 a2 3d 96 16 ba bd
       -0.1121327 0.078056216 0.0794799 -0.09086339
000110 03 9c d6 3d 63 43 88 3e 62 c8 28 3e 85 73 0e 3d
       0.104789756 0.26613912 0.1648269 0.034778137
000120 25 67 61 bc d0 27 f0 bc 60 d0 45 3e 67 8d a0 bd
       -0.013757502 -0.02931586 0.1931777 -0.0783947
000130 b0 c7 d0 bd d8 fe 55 be 3d 79 e8 3d b7 6d 9c 3e
       -0.10194337 -0.20897996 0.11351249 0.30552456
000140 82 27 af 3c 8b d7 01 be 05 be 13 3e eb 33 ac 3e
       0.021381143 -0.1267988 0.14427955 0.3363336
000150 00 5e d2 3d e8 59 cf 3d e6 6c 89 bd 00 32 5d 3e
       0.10271835 0.1012457 -0.06710224 0.21601105
000160 b2 a1 a5 be 2d 61 19 be ec 71 2b bd 89 af ba 3c
       -0.32349926 -0.14978476 -0.04185669 0.02278878
000170 ac 29 32 bd 57 27 0a 3e 44 e2 0c bd 4b cd c8 be
       -0.043496773 0.1349157 -0.03439547 -0.39219126
000180 9d b7 3d be 68 64 b3 bc 85 15 78 bd 79 c0 5d 3b
       -0.18527074 -0.021898463 -0.060567398 0.0033836646
000190 df 7c 90 3e b6 9e 5d 3e b4 e5 89 3e 8f 6a b7 bd
       0.2822027 0.21642575 0.26933062 -0.08955871
0001a0 48 51 f8 3d eb 44 9b 3c 89 45 45 3d a6 0e 9e bc
       0.12124878 0.018953761 0.048162017 -0.019294094
0001b0 b2 5d c4 bc f4 a5 c2 3d 4e d3 f1 3d ae b1 40 be
       -0.023970459 0.09504309 0.11807881 -0.1881778
0001c0 ab 72 13 3e 76 4d 1a 3e 91 69 99 bd 5f 32 74 bd
       0.14399211 0.15068612 -0.07490838 -0.05961835
0001d0 30 b6 1d 3d 44 c2 18 bd aa f7 03 bd 68 56 de bd
       0.038503826 -0.03729464 -0.032218613 -0.108563244
0001e0 11 93 b6 be 80 d0 64 be a2 b3 74 be 8b 59 9b 3d
       -0.35659078 -0.22345161 -0.2389665 0.07585438
0001f0 04 72 28 3d 15 7f 0a bc 30 05 bb bc dc 83 1d be
       0.04112436 -0.00845315 -0.022829622 -0.15382332
000200 b0 35 46 3e 06 bf b9 3d 0e 0b 52 be be 2c 9f 3d
       0.19356418 0.09069638 -0.2051203 0.07772206
000210 f1 7c 83 3e 81 69 69 3e fa ac 75 bd 7a 86 89 3b
       0.2568126 0.22794153 -0.059979416 0.004196939
000220 10 c9 9d 3d 6b 59 12 3e ff bf e0 bc 43 f0 10 be
       0.07704365 0.14291923 -0.0274353 -0.14154153
000230 b4 33 00 3f b5 c5 81 be 6b 39 13 be 29 bf 1e 3a
       0.5007889 -0.2534615 -0.14377372 0.0006055707
000240 a5 4d aa 3d e9 ba 7f 3d 74 83 91 bc 22 32 80 3d
       0.08315591 0.06243411 -0.017762877 0.06259562
000250 e0 9b c3 3b 2e 89 87 3d df 7f 5e be 3c b9 84 be
       0.0059695095 0.06617962 -0.21728466 -0.25922573
000260 87 7d 8b be cb c4 cd 3e 2e ff f7 3d 05 1b 07 bc
       -0.27244207 0.40189204 0.121092185 -0.008246188
000270 58 b4 a8 bd c3 7b 27 3e 9a 9c ac bd ca ca 0e bd
       -0.08237523 0.16355805 -0.08428307 -0.034861363
000280 27 05 84 3d 70 11 dc bd 2e 7b 2a be f7 2a 02 3d
       0.06446295 -0.107455134 -0.16648552 0.031779256
000290 b4 c4 27 be 5e 4c 66 3e 90 46 16 be fd 3d 7f bd
       -0.1638363 0.2249007 -0.14675355 -0.062314976
0002a0 bf 81 89 be 30 84 07 3e cd e7 80 be 82 91 5e 3d
       -0.268568 0.1323402 -0.2517685 0.054337986
0002b0 75 38 38 bc bf 94 51 bd 2c 3a 12 be 1f e2 10 3e
       -0.011243929 -0.051167246 -0.14280003 0.14148758
0002c0 23 ef c6 bd ee 4e b7 bd cb 12 86 3d a1 ed b9 3d
       -0.097135805 -0.089506015 0.06546553 0.09078527
0002d0 a2 2f 91 3d 8c cd ab bd a5 79 1c be 99 56 21 3e
       0.07089163 -0.08388814 -0.15280779 0.1575569
0002e0 f2 0c 71 3e fa 55 ab bd f9 81 4d 3e 50 bd 16 bd
       0.23540094 -0.08366008 0.20069112 -0.036801636
0002f0 e0 73 c3 bb 03 29 9a 3e 88 ba fa bc b7 59 a7 3a
       -0.005964741 0.30109414 -0.030606523 0.0012767826
000300 57 1a 14 3e 28 91 17 3d 8f 1d 1e be bc a8 8b bd
       0.14463173 0.037003666 -0.15440963 -0.06819293
000310 f5 f8 7b 3d 26 4c 7b be 61 60 af be ef e5 be be
       0.06151672 -0.24540767 -0.3425322 -0.372848
000320 cb 64 a0 3d 5c 55 1f be 97 05 10 bf 01 f8 ee 3c
       0.07831725 -0.15559906 -0.5625853 0.029170992
000330 2e 75 58 bb 68 80 a2 be c3 9b 16 bd 07 95 aa 3e
       -0.003302883 -0.3173859 -0.03676964 0.33316824
000340 ae fe c6 3d eb 8b 8a bd fd 5a 7d 3d f4 7c 90 be
       0.09716545 -0.067649685 0.06185435 -0.28220332
000350 b0 8b 1f bd 28 db d4 bc 17 88 5d 3b ad c0 af be
       -0.038951576 -0.025983408 0.003380304 -0.34326687
000360 50 dd 26 be fa 8d 64 3e 23 59 74 3e 70 55 eb 3d
       -0.16295362 0.22319785 0.23862128 0.11490905
000370 9e 7f 80 bd b6 39 cb 3d e4 fa 17 3d 95 c5 6b 3d
       -0.06274341 0.09923117 0.037104502 0.057561476
000380 ab 5f 82 bd 54 30 6d bd 81 d0 58 3e 85 26 e3 3d
       -0.063659035 -0.057907417 0.21173288 0.110913314
000390 6b bf 21 be d9 fb ef bc d5 70 87 3d 1e 80 6e 3d
       -0.15795676 -0.029294895 0.06613318 0.05822765
0003a0 47 17 e0 bc 16 d1 76 bd 22 78 7e be 4b c1 4b bc
       -0.02735485 -0.060257994 -0.24850515 -0.012436221
0003b0 22 56 e7 be d4 5b 11 3e ae 2c bc bd 74 1e db bd
       -0.45182902 0.14195186 -0.091882095 -0.10699168
0003c0 07 28 69 3e f1 24 1c be 6e f5 43 be 1c 5c 40 3e
       0.22769175 -0.15248467 -0.19136593 0.18785137
0003d0 fe 15 fd 3d 94 07 cd 3d 1f 4f 98 3d 36 0d 3c 3c
       0.1235771 0.10011211 0.07436966 0.011477759
0003e0 bd da 44 bd cf f8 52 3e 36 b9 18 bf 23 15 5c be
       -0.048060168 0.20602725 -0.5965761 -0.21492438
0003f0 f4 dd 9e bd dc 90 51 be 10 7c 95 bd 81 d1 41 3e
       -0.07757178 -0.20465416 -0.07299054 0.18927576

regressors.1.lins.0.bias f4 [32]
000000 8c 40 75 bd 8e cc 23 3e a1 07 1e bd 2a cd 23 be
       -0.05987601 0.15996 -0.038581494 -0.15996233
000010 7c 5b a6 3e 8d c6 35 3e 45 aa 6f 3c 55 2b 2d be
       0.32491672 0.17751522 0.014627998 -0.16911061
000020 49 53 8f 3d 07 9e ea 3d 40 9e 09 be 1d d5 05 be
       0.06998307 0.114559226 -0.13439274 -0.13069578
000030 23 64 99 3d 32 e6 73 3e 87 f0 9c 3d 72 63 8f 3e
       0.07489803 0.23818281 0.076630645 0.28005558
000040 fa 7c 2e 3e e0 af 19 bd cd 57 17 bc 14 7a 96 3e
       0.17039862 -0.037521243 -0.009237242 0.29390013
000050 83 cc 10 3d c6 e8 91 3e 94 a2 33 be 88 49 28 be
       0.035351288 0.28497905 -0.17542487 -0.164343
000060 b6 01 62 3e a2 55 2a 3d 09 88 2f be 6f 85 36 3e
       0.22070965 0.041585572 -0.17141737 0.17824338
000070 ba 9c 52 3d 27 02 88 3e 0e 10 84 3e 57 05 ec bb
       0.051418997 0.26564142 0.257935 -0.007202785

regressors.1.lins.1.weight f4 [32, 32]
000000 01 64 98 bd 3f ae 2a bf 69 1c 25 bd 04 a6 82 3e
       -0.07440949 -0.6667213 -0.040310297 0.25517285
000010 6a 62 1d bf 6e 28 e2 be 63 a8 e0 3d 23 8d f6 3d
       -0.6147829 -0.4417147 0.10969617 0.120386384
000020 12 1e df be 90 20 04 be 1b 6a bd 3d e8 f0 df 3e
       -0.4357763 -0.12903047 0.09248754 0.43738484
000030 de 0d e1 3c 45 94 38 3d fb 30 c8 be 00 c9 9f 3d
       0.027472433 0.045063276 -0.3909987 0.078020096
000040 aa 7a 89 bc 2d 67 80 3e f9 f8 53 3d 44 fc b9 3d
       -0.016782124 0.25078717 0.05175111 0.09081319
000050 7e bc 8e 3c 8e 49 73 bf 51 49 9f bd f2 4b cb bc
       0.017423864 -0.9503411 -0.07777656 -0.024816487
000060 04 c4 2b 3e 7c 85 18 3e c3 30 0f be 37 b1 24 bc
       0.16773993 0.1489467 -0.13983445 -0.010052017
000070 32 f6 3b bf 95 fb c7 be 39 b3 94 3e 7c 1c 41 3d
       -0.7342254 -0.3905913 0.29042986 0.047146305
000080 1a 5a f1 3c 5b 3b 3e bd 3b 8e f5 bd 11 69 f2 3d
       0.02946191 -0.046443325 -0.11990019 0.11836446
000090 13 b3 ed 3c b7 de 9a 3e 4d 41 1c bd 1e 6f 0a 3e
       0.029016053 0.30248043 -0.038148213 0.1351895
0000a0 0e 7d 07 bd 38 43 44 3e 85 82 01 bf 9d 39 c0 3b
       -0.033078246 0.19166267 -0.5058978 0.005866243
0000b0 e5 8f ac 3d 46 d8 00 3e 93 f9 44 be 08 f6 81 3c
       0.08425883 0.12582502 -0.1923583 0.015864387
0000c0 c1 a5 74 be 38 ec a5 bd 8e 08 24 3e 8f 25 bc 3d
       -0.23891355 -0.08101696 0.16018888 0.09186851
0000d0 c3 7d 1d be ae 94 58 be f2 19 1d 3e 77 41 71 3d
       -0.15380006 -0.21150467 0.15341929 0.058900323
0000e0 e0 6a c2 3e 54 a4 80 bd f0 d9 6f 3e 4d a9 d7 3d
       0.37972164 -0.06281343 0.2342298 0.105303384
0000f0 a0 fe 66 3c 0d 2c 08 3e 70 c9 a6 3e 5b 30 4b 3e
       0.014098793 0.13298054 0.3257556 0.19842665
000100 8f 65 c2 3d 9d 3f 12 3e 7b 0c a7 bd 37 20 3b be
       0.09492027 0.14282079 -0.08156677 -0.18274008
000110 31 14 96 bd 5b b8 00 3e 1b ff 29 3e 42 a7 3a 3b
       -0.0732807 0.12570326 0.16601221 0.002848104
000120 0b 23 88 be 83 94 be 3e 59 dc ef 3c dd 65 c8 be
       -0.26589236 0.3722268 0.029279875 -0.39140216
000130 50 1a ec 3d 7f 8b bc bd c5 93 24 3e fc 62 bf bd
       0.11528456 -0.09206294 0.16071995 -0.09345052
000140 bd 8c cf bd 67 9b 8d be 9b f9 93 3d 8e 84 76 be
       -0.101342656 -0.27657625 0.07225343 -0.24074003
000150 dc d2 e2 3d 0c f8 78 3e 62 b2 63 3e b6 ff 1e 3e
       0.110753745 0.24313372 0.22236016 0.15527233
000160 5d f2 e7 bc 5f cf 88 3d 91 ac 6a bc c4 22 23 3d
       -0.02831381 0.06680178 -0.01432337 0.039828077
000170 0a bc 81 bd 3a f4 47 be 37 cc 0f be b7 d0 bb 3d
       -0.06334694 -0.19526759 -0.14042746 0.091706686
000180 97 3c 34 3e 18 d7 38 3d 5e 8b fc 3c 67 a9 94 3e
       0.17601238 0.045127004 0.030828174 0.29035494
000190 24 90 b8 3e 77 b8 60 3e 8d 69 01 bf 99 b4 31 3d
       0.3604747 0.21945368 -0.5055168 0.043385122
0001a0 ae 64 aa be b4 57 92 3e 0d 17 e8 3d 0e 03 5b bd
       -0.33279938 0.28582537 0.113325216 -0.05346971
0001b0 9b fc 32 bd ef 27 15 bf 0b 04 0a bf ab 63 81 3c
       -0.043697935 -0.5826406 -0.5391242 0.015794596
0001c0 27 57 c8 bd 54 a5 79 be bf 79 43 bf fe 06 b6 bd
       -0.09782248 -0.24379474 -0.76357645 -0.088880524
0001d0 37 20 e4 bc 3e 9e c2 3d 17 15 34 3c 42 2e 74 be
       -0.027847392 0.095028386 0.010991356 -0.23845771
0001e0 a5 8a 27 bf 46 ac 28 be d3 27 ae 3d 8e fb 73 be
       -0.6544593 -0.16471967 0.085036896 -0.23826429
0001f0 ff c8 84 3e 4b ac 07 3e 7a cd 9d bf 0c 9e 2e bf
       0.25934598 0.13249318 -1.2328331 -0.6820991
000200 cc 50 39 3e 9f b6 fe bc 24 1d 87 be 66 66 a0 3e
       0.18097228 -0.03109294 -0.2638942 0.31328124
000210 b0 79 9a 3c 33 47 2d 3e d2 c0 45 3e 24 67 e6 bd
       0.018856853 0.16921692 0.19311836 -0.11250141
000220 fe 81 9a 3e ab a9 6f bf c9 a9 73 be ac 37 15 3e
       0.301773 -0.9361827 -0.23795237 0.14572018
000230 d4 21 35 3e 54 11 19 3e b4 9d d1 3d f9 d3 ee bd
       0.17688686 0.14948016 0.102351576 -0.11661524
000240 b2 62 52 bf 0c 51 5d 3d ff 93 24 3e 0b fe 93 be
       -0.8218185 0.05403237 0.16072081 -0.28904757
000250 01 57 df be 8e 46 7c b9 55 69 0a bd 81 a7 04 be
       -0.43621066 -0.00024058876 -0.03379186 -0.12954523
000260 9d ec 50 bd 94 b4 76 bd 2a a4 81 be b9 01 70 bd
       -0.051006902 -0.060230806 -0.2532056 -0.058595393
000270 ce cf 70 3e c1 f6 40 3d fb 21 31 be cf 94 49 be
       0.23516771 0.047110323 -0.17298119 -0.19685672
000280 80 c4 da be 8c 44 a4 3d 44 c6 0f be 68 c9 a3 bd
       -0.42728043 0.08020887 -0.14040476 -0.079973996
000290 72 44 92 3d 8b 9b fd 3d d2 43 3f bd 10 ef 35 bd
       0.07141961 0.12383183 -0.046695538 -0.04441744
0002a0 bc 76 8c be 67 7f d0 bb 2d e2 08 be 62 67 8e 3e
       -0.27434337 -0.006362844 -0.13367529 0.2781325
0002b0 bb 27 01 bd c7 94 7b be fa d2 07 be ce 29 83 3e
       -0.03153203 -0.24568473 -0.13264075 0.25617832
0002c0 ac ca dc 3b c0 47 6f bd 39 8e 5b 3e fb af 41 3d
       0.0067380276 -0.058418036 0.21440972 0.04728697
0002d0 09 34 96 bb d4 77 62 3e a7 41 e5 bc 03 de ef 3d
       -0.00458384 0.22116023 -0.027985407 0.11712267
0002e0 ef 84 6f 3e b5 4e c8 3d ee 7d 06 be 35 ad ce bd
       0.23390554 0.09780637 -0.13133976 -0.1009163
0002f0 b6 87 70 be 1d 22 cd bd 7a 58 a6 3c 7f bc 61 3e
       -0.2348927 -0.10016272 0.02030586 0.22044562
000300 66 f5 99 3d 7b a5 64 be 1d 75 39 bd 5e 6f e8 3d
       0.07517509 -0.22328751 -0.045277704 0.113493666
000310 27 65 0d be 19 24 0b 3e ac b6 54 3c 55 0d 7d 3e
       -0.13808118 0.13587989 0.0129830055 0.24712117
000320 af 8b 8a 3c 7c c6 11 be eb 4d 46 bf 7c d8 17 3e
       0.01691231 -0.14235872 -0.77462643 0.14828676
000330 50 89 60 be 07 d9 2e be 11 16 be bd ae 93 34 3e
       -0.2192738 -0.17074977 -0.092815526 0.1763446
000340 1e 1d db 3d 7e 87 db be 63 7e 06 3e 33 0f 6c be
       0.10698913 -0.4287681 0.1313415 -0.23052673
000350 a7 2a 81 be 63 c8 e4 be ae 97 2d 3e 64 78 7e be
       -0.25227854 -0.44684133 0.16952392 -0.24850613
000360 e1 3e 13 be dc 14 7c be 42 62 c3 bd 88 f8 7a be
       -0.14379455 -0.24617332 -0.095402256 -0.2450887
000370 b2 a5 ad 3e 9e 42 c3 3d e4 0d ac 3e 7c a3 4e bd
       0.33915478 0.095341906 0.33604348 -0.05044888
000380 83 a3 69 be e0 0b d6 bd 52 e2 03 be 29 68 01 3f
       -0.22816281 -0.10451484 -0.12879303 0.5054956
000390 8a fc 88 3e aa 95 26 3e 30 33 6e be 6e 2d 83 bb
       0.26755172 0.1626803 -0.23261714 -0.0040032184
0003a0 5b 3e f3 bd 6c ca 9f bd e1 0c cb bd 3c f9 1d bd
       -0.11877128 -0.07802281 -0.09914566 -0.038567767
0003b0 2d 5c 85 3e 9e 01 56 3c 14 09 24 3e 2e 1a 44 be
       0.26046887 0.013061909 0.16019088 -0.19150612
0003c0 a6 bb af bc ce de e9 be c9 31 9c bd ce b9 49 bd
       -0.021451782 -0.456778 -0.07626683 -0.049249463
0003d0 d6 7d 0a 3d e7 12 86 bc 67 f7 92 be e7 b2 45 3d
       0.033811413 -0.016366435 -0.28704378 0.048266318
0003e0 25 74 5b 3e d0 60 fe 3d 7c f2 60 bd 14 74 e7 bc
       0.21431024 0.12420809 -0.05491875 -0.028253593
0003f0 0c d1 68 3e 68 d2 f2 3d 26 a3 67 3e 73 d6 72 3e
       0.22735995 0.11856538 0.2262083 0.23714618

regressors.1.lins.1.bias f4 [32]
000000 8d c6 3e bd 73 a3 31 bd 0c e7 2f bd da 9a 68 3c
       -0.04657607 -0.043368768 -0.042944953 0.014197076
000010 d6 a5 09 be 7c f7 b8 3e 25 89 92 3b 09 49 26 3d
       -0.13442168 0.36126316 0.0044719153 0.040596996
000020 ad e7 b1 bb 14 4e ad bd 35 b6 69 be ea ae 19 be
       -0.0054292292 -0.08462158 -0.22823413 -0.1500813
000030 e1 fb 38 3e 4f 4e e2 3d 9f 51 ee 3c 69 a0 f8 3d
       0.18064834 0.110500924 0.029091654 0.12139971
000040 ea c0 58 3d 06 7d e4 3d 8d 95 f8 bd 77 ca d5 3d
       0.052918352 0.11156659 -0.121378995 0.10439008
000050 e2 73 d6 bd 63 42 16 3e 2b 97 0e 3e d2 ec 93 3e
       -0.10471322 0.14673762 0.13924854 0.28891617
000060 4b f4 c4 bb 42 13 99 3e 29 25 98 be 14 fe 3f 3e
       -0.0060105673 0.29897505 -0.2971585 0.18749267
000070 22 c1 6e be 5a ad 98 3d 1b dc f6 3d 4a 06 75 3e
       -0.23315862 0.07454939 0.120537005 0.2392818

regressors.1.lins.2.weight f4 [32, 32]
000000 26 64 19 be f0 52 24 3e 42 a3 33 be 23 d0 1c bf
       -0.1497961 0.16047263 -0.17542747 -0.6125509
000010 39 03 e9 3e 45 17 dd 3d db 16 91 bc 50 6d 39 bb
       0.4551027 0.10795454 -0.017711094 -0.0028293915
000020 ff 60 21 bc 5f f6 ef 3d 77 05 0c be 2b e6 c5 bd
       -0.009849786 0.117169134 -0.1367396 -0.09663042
000030 d1 93 b2 3d 1a bc 86 3e 9c 02 04 be bb aa 8b be
       0.087196 0.26315385 -0.1289162 -0.27278695
000040 a2 3e 19 bd e8 c0 3c 3d 53 35 ea be 07 a3 4a 39
       -0.037413247 0.046082407 -0.45743808 0.00019324954
000050 4a 72 a1 be 7b 34 5e be 4f 7a 29 3e 16 90 47 3e
       -0.31532508 -0.21699707 0.16550563 0.19488558
000060 cc 3d 85 bd 5d 48 ce be f3 1e 9c 3c 56 04 35 3f
       -0.065059274 -0.40289584 0.019057726 0.7070974
000070 8f 6e 6e 3d 2e f9 60 3d ed a0 bd be 19 fe 16 be
       0.058210906 0.054925136 -0.3703684 -0.14745368
000080 75 78 85 bd 77 4b a7 bb d8 69 4c bd d1 6e 8c bf
       -0.06517116 -0.0051054317 -0.049905628 -1.0971318
000090 ac 80 9d 3d ca 62 a1 be ab f2 f2 3c 78 76 62 be
       0.07690558 -0.31520683 0.029656729 -0.22115505
0000a0 9f 22 73 be f8 a5 33 3e 8d d3 51 3d 5f e7 62 bd
       -0.23743676 0.17543781 0.05122714 -0.055396434
0000b0 96 29 4e 3e e1 df 26 3e fb 39 d4 bd 64 0a 10 3d
       0.20133051 0.1629634 -0.103626214 0.03516616
0000c0 49 05 b9 be 7a cf 38 bf 39 ec b4 bc 63 84 04 3d
       -0.36136845 -0.72191584 -0.022085296 0.032352816
0000d0 a5 dd d7 be 7b 28 92 3d 61 b2 47 3c be 0a 4a 3e
       -0.4216129 0.07136627 0.012188525 0.1973066
0000e0 61 75 e1 bd fa d0 b7 bc b6 45 cf 3d 37 29 05 be
       -0.110087164 -0.022438515 0.10120718 -0.13004003
0000f0 d9 a0 de be 92 46 c1 3e 13 b4 37 be 8f 7b 1b be
       -0.43482092 0.37749153 -0.17939787 -0.15183853
000100 b8 19 f4 be 8b 80 d3 3d 51 86 c1 3d 4f 53 39 bc
       -0.47675872 0.10327252 0.09449447 -0.011311366
000110 65 35 17 3e bd a2 30 3e 51 ab 86 3e 57 1a 35 3d
       0.14766462 0.1724958 0.2630258 0.044214573
000120 75 24 dd 3c 38 0a 4a be c9 7c 1b be b9 24 05 3e
       0.026994923 -0.1973046 -0.1518432 0.1300229
000130 c5 6b 8a 3d 07 dc 1a be 29 49 d7 3d 6e b1 4c 3e
       0.06758837 -0.15122996 0.10512001 0.19989559
000140 28 f3 31 3e 30 f3 ba bc 58 40 11 3c 41 eb 2a be
       0.17377913 -0.022821039 0.008865438 -0.16691305
000150 b4 39 93 bd 96 53 65 bc 11 b1 1e ba e1 f4 0c 3e
       -0.071887404 -0.013996979 -0.00060536066 0.13765289
000160 60 87 48 3e 4d e2 95 3d a9 82 92 3d 08 1d 1d 3d
       0.19582891 0.07318554 0.07153828 0.038357764
000170 22 9d 2e 3e 69 f7 80 be 0a 22 76 3e b5 cc 40 3e
       0.17052129 -0.2518876 0.24036422 0.1882809
000180 65 d6 e0 be 93 f3 09 bf 00 7c 2e bd 8c 7f 9f be
       -0.4391357 -0.5388729 -0.042598724 -0.31151998
000190 5d 4a 94 be d9 a2 bf 3d 9d eb 09 3e 04 87 25 be
       -0.28962985 0.093572326 0.13468786 -0.16164786
0001a0 30 e1 fc be cb b2 0b be 93 3e 8a bd 21 46 2d 3e
       -0.49390554 -0.13642423 -0.06750216 0.16921283
0001b0 0d fc 14 bf e8 46 8c 3e e7 7c 91 3d 24 32 f5 bd
       -0.581971 0.27397847 0.07103901 -0.11972454
0001c0 dc 5b 9c be 66 17 b8 3e 19 1e 3a bd 09 37 0f 3d
       -0.30538833 0.35955352 -0.04543886 0.034964595
0001d0 e7 20 49 3e 6f 02 b0 3c 7b ad ae bc 3e 33 d0 be
       0.19641457 0.021485535 -0.021322956 -0.40664095
0001e0 9d 05 32 3e b3 8a 94 3b f0 81 ad bc fe c0 af be
       0.17384954 0.004533136 -0.021180123 -0.3432693
0001f0 ef d0 61 3e 97 b5 24 bc 94 f6 a0 be 56 98 52 bc
       0.22052358 -0.01005306 -0.31438124 -0.0128537025
000200 06 89 92 3e df f6 15 3e 34 4a 2a 3e 1d 88 80 3e
       0.28620166 0.14644955 0.16629869 0.25103846
000210 e0 08 81 be 11 88 20 3c 2d b3 9c be c6 e1 7f 3e
       -0.25202084 0.009798066 -0.3060545 0.2498847
000220 e9 50 af be 8c 06 ab bd 11 e7 cb be f4 f4 44 be
       -0.34241417 -0.08350858 -0.39824727 -0.19234067
000230 eb 96 60 3e 9b 8d 25 bd 50 5a fc be 0f 0f 5c 3d
       0.2193257 -0.04041825 -0.49287653 0.0537253
000240 5c 24 eb 3d 09 59 36 be e3 b1 8a bd 1d c5 aa be
       0.114815444 -0.17807402 -0.067722104 -0.3335351
000250 04 5d 7d bd f8 cf 08 bf d9 01 a6 be 74 4e 19 bd
       -0.061856285 -0.53442335 -0.32423285 -0.037428334
000260 b4 80 07 3f 4b 1d b1 bd ab 86 b9 3d 13 16 b1 3e
       0.5293076 -0.08648165 0.09058889 0.34587154
000270 79 16 f3 be c1 b3 14 3d 2d fa b3 bc 1b 29 66 3d
       -0.47478083 0.03630424 -0.021969879 0.056191545
000280 d2 57 fc bd 07 c9 ec 3d c0 3a 12 be 1a 80 07 be
       -0.12321438 0.115617804 -0.14280224 -0.1323246
000290 b0 00 2b 3e fb 68 ff bd a9 c1 d2 3d 86 e2 bc 3d
       0.16699481 -0.12471195 0.10290844 0.092228934
0002a0 81 15 f0 3c e6 55 17 be 1a fd 30 bd 7c 92 70 3d
       0.029307129 -0.14778861 -0.043210126 0.05873345
0002b0 f7 a3 bd 3b d8 1d 6f 3d 0e 2c 6d 3e f3 db c7 3c
       0.0057873684 0.05837807 0.23161337 0.024396872
0002c0 d2 39 e5 3d ae 7a 1a be a0 c1 6a bb 4c 2d 3f be
       0.11192669 -0.15085861 -0.0035820976 -0.18669623
0002d0 96 42 8a bd 4a 26 27 3d a4 67 22 3a d5 b3 8a 3d
       -0.067509815 0.040808 0.0006195253 0.067725815
0002e0 be ab c2 3d f3 ba bd 3d 52 66 f4 bd b4 f0 e2 bd
       0.095054135 0.09264173 -0.119335786 -0.11081067
0002f0 cc 6a 5b bd 54 76 1e be 2a b0 97 3c 3e 1a b5 3d
       -0.053568646 -0.15474826 0.018516619 0.08842896
000300 a0 b9 05 be 27 25 d3 bc 4f 20 fd bd de 75 1a be
       -0.13059092 -0.025774552 -0.12359678 -0.15084025
000310 04 a6 27 bf f7 7b 55 bd d4 4c 31 b9 af 58 2c bd
       -0.65487695 -0.052120175 -0.00016908656 -0.042076763
000320 b8 86 fd bd 86 09 55 3e 39 fa ee bd 08 35 d5 3e
       -0.12379211 0.20804414 -0.1166882 0.41642022
000330 1f 24 52 3e 44 9a 62 3d c4 52 6b 3e b6 83 c6 3e
       0.20521592 0.0553229 0.22980791 0.38772362
000340 2f f1 2c be 9b 2a 99 bd 9d 3d 37 3e 6a 08 62 be
       -0.16888879 -0.074788295 0.17894597 -0.22073522
000350 15 94 32 be 9f a0 fa bd 3f ca 94 bd 7b 34 59 3e
       -0.17439301 -0.12237667 -0.07265138 0.21211426
000360 eb 35 74 3e 9d 2f 83 be b6 f3 1a 3c 4a 46 22 be
       0.23848693 -0.25622264 0.009457519 -0.15847126
000370 f5 cf 97 3e d5 45 0d 3d 89 14 82 3e 23 cc a3 be
       0.29650846 0.034490425 0.25406292 -0.3199168
000380 5c d3 12 3d 95 40 d5 bd b8 a6 2a be 8d 31 61 3e
       0.0358461 -0.10412709 -0.1666516 0.21991558
000390 b4 2e 5e bd 39 ee 1c 3e 87 7e e8 be b1 2c 05 bf
       -0.05424376 0.1532525 -0.45409033 -0.5202132
0003a0 e8 68 98 3c c4 8a a5 3d b9 b6 0d bd 6e c8 47 3e
       0.01860471 0.08083108 -0.034598086 0.19510052
0003b0 79 a3 40 bf aa c3 98 be bb 5b 4d 3e b5 d3 27 3e
       -0.7524944 -0.2983678 0.20054524 0.16389354
0003c0 4c 28 77 bd 12 e0 c2 be dc 2f 13 bf 9f 44 4f bf
       -0.060341164 -0.38061577 -0.574949 -0.8096408
0003d0 f7 97 e0 be d0 ff 57 bf 58 bb 95 bd 48 04 00 3e
       -0.4386594 -0.84374714 -0.073111236 0.12501633
0003e0 7a ce 39 be 96 24 53 bf 27 14 de 3c d7 30 75 bf
       -0.18145171 -0.824777 0.027109219 -0.9577765
0003f0 95 c7 52 bf 9b 41 4a be 01 b5 f4 3d 72 d7 7b 3d
       -0.8233579 -0.19751589 0.11948586 0.06148476

regressors.1.lins.2.bias f4 [32]
000000 bd b0 59 3d 97 5f f5 3d 12 39 4c 3e 3b de bd bc
       0.053147066 0.11981123 0.19943646 -0.023177257
000010 17 8a 49 be 2c df 52 3e b9 8c 76 be c7 c6 64 3e
       -0.19681583 0.20592946 -0.24077119 0.22341453
000020 b4 fa 5f be 58 db 23 be 89 72 7f 3e ec e2 15 3e
       -0.2187298 -0.16001642 0.24946035 0.14637345
000030 23 5e 89 be d2 49 7d be 99 41 2e 3e 33 4a aa 3e
       -0.26829633 -0.24735191 0.17017211 0.33259735
000040 33 0f a3 3e 68 0d ca bd f1 75 a5 3d a1 f2 bd bc
       0.31847534 -0.09865838 0.08079136 -0.023186984
000050 58 81 41 be 5c 41 e9 bd 37 17 d8 bd 0f ea dc bd
       -0.18896997 -0.113894194 -0.10551303 -0.10786831
000060 f7 35 9b 3d 03 46 cd bd 64 38 63 bd e3 3f c5 3d
       0.07578652 -0.10023119 -0.0554737 0.09631326
000070 72 26 32 bb b5 90 dd bc 34 2c bb bc b2 e7 ec 3c
       -0.002718356 -0.02704654 -0.022848226 0.028919075

regressors.1.lins.3.weight f4 [1, 32]
000000 53 31 6e 3d a3 e6 b8 bd 57 e7 14 3e 56 3c 79 be
       0.058152508 -0.090283655 0.14541374 -0.24339423
000010 a7 06 3f be 36 26 d2 3c 31 e5 80 bd 5d b9 a6 be
       -0.18654881 0.025652986 -0.06293715 -0.32563296
000020 c3 bf 0c be f2 a1 b9 bd d9 0d 6c be 50 bc 86 be
       -0.13745026 -0.09064092 -0.23052157 -0.26315546
000030 71 d0 99 bd 01 14 b3 bd fb d2 c5 bd ad 8f 2e 3d
       -0.0751046 -0.0874405 -0.09659382 0.04261749
000040 30 f3 ec 3d e6 52 be be 68 c1 8e bd 81 22 12 be
       0.11569822 -0.3717262 -0.06970483 -0.14270975
000050 95 73 c1 be 96 87 bb 3c 7a d0 99 bd b5 f7 51 bc
       -0.37783495 0.0228918 -0.07510467 -0.012815406
000060 8e 91 5c be 9c 9a f0 bd 21 6f ff bc 42 ca 42 3d
       -0.215399 -0.117482394 -0.03118092 0.04755617
000070 53 ce 9b 3b 7d 4b 4b bd 1d 05 a1 bd 35 b5 1f be
       0.0047548204 -0.049632538 -0.078623034 -0.15596469
