baseline/DLPL-CAP/models_dlpl-cap-regressor/sandwich+ultra8t_to_ssram+digtime+timing_ctrl+array_128_32_8t/dlpl-cap-regressor_nh_2_tsk_regression_ngl_4_nhl_4_hd_32_us_1_bn_0_dp_0.0_epoch_1_20250402_121858.pth (torch, 64102 bytes, 21 tensors)

regressors.0.lins.0.weight f4 [32, 64]
0	0xbdbe1414	-0.09281173
1	0xbba27d40	-0.0049587786
2	0xbd6e644f	-0.05820113
3	0x3d7e5cdf	0.062100288
4	0x3e0088ff	0.1255226
5	0x3dfb570c	0.12272462
6	0xba25c466	-0.0006323516
7	0xbd99c3e5	-0.07508067
8	0xbdf9c222	-0.12195231
9	0x3bc61aa5	0.0060456567
10	0x3a708f1d	0.0009176599
11	0x3d5bc158	0.053651184
12	0x3bb02922	0.005375997
13	0xbcb5d95f	-0.022198377
14	0xbd50ce17	-0.050977793
15	0xbcf771c8	-0.030205622
16	0xbdc75761	-0.09733463
17	0x3e82a4b6	0.2551629
18	0x3db3a399	0.08771438
19	0x3d8dc714	0.06922737
20	0xbd59e67c	-0.053198323
21	0xbc852538	-0.016253099
22	0xbd7bdf51	-0.061492268
23	0xbdcf5d01	-0.10125161
24	0x3d6d6fb7	0.057967868
25	0xbaa11fe0	-0.0012292825
26	0x3dc25f70	0.094908595
27	0xbd580d5c	-0.052747115
28	0xbdea97b6	-0.11454718
29	0x3dccaa8a	0.09993465
30	0xbdd380d2	-0.10327305
31	0xbc026729	-0.007959166
32	0xbde7740c	-0.11301431
33	0xbc4137b0	-0.011793062
34	0x3c16453a	0.009171778
35	0x3ca2894f	0.019840864
36	0x3ce72653	0.028216517
37	0x3d800617	0.062511615
38	0x3cb9c06b	0.02267476
39	0xbd6773ad	-0.0565068
40	0x3d7e700e	0.062118582
41	0x3e5a719b	0.213324
42	0x3cc11c23	0.023572987
43	0x3dce0ca1	0.100610025
44	0xbdab2701	-0.08357049
45	0x3e009cf2	0.1255987
46	0xbdad3678	-0.08457655
47	0x3debe279	0.115178056
48	0xbde76c6b	-0.11299976
49	0xbec6eb89	-0.38851574
50	0xbe2ebdf0	-0.17064643
51	0xbd76dd1f	-0.06026947
52	0xbd9da092	-0.07696642
53	0x3d3c7c78	0.04601714
54	0xbaccc31e	-0.0015622114
55	0xbc0a63dd	-0.008446661
56	0xbd12e1c9	-0.035859857
57	0x3dbf9fe1	0.09356666
58	0x3c9fc5a9	0.019503431
59	0xbc8685fb	-0.016421309
60	0xbdf4de54	-0.11956468
61	0x3ccdb6d4	0.025111593
62	0x3de76e12	0.11300291
63	0xbdac2a1f	-0.084064715
64	0xbdba44e6	-0.090951726
65	0xbc913170	-0.017723769
66	0xbdd195e4	-0.102336675
67	0xbd1ac838	-0.0377886
68	0x3dde7e1d	0.10863898
69	0xbd1d2c5c	-0.038372383
70	0xbcb794d5	-0.022409836
71	0x3dd51899	0.10405082
72	0xbd84ab20	-0.06477952
73	0xbc431c20	-0.011908561
74	0xbc2529de	-0.010080783
75	0x3d2e39fe	0.042535774
76	0xbdf1daa1	-0.11809278
77	0xbcd11014	-0.025520362
78	0x3d9b95e4	0.07596949
79	0x3d90fa95	0.07079045
80	0x3d5c7676	0.05382391
81	0xbdeb7ebe	-0.114987835
82	0xbdb8ed7e	-0.09029673
83	0xbdf95c9c	-0.12175867
84	0x3dc87e80	0.09789753
85	0x3c2442a0	0.01002565
86	0xbc56fcfe	-0.0131218415
87	0x3d96cc04	0.07363132
88	0xbd2423fd	-0.040073384
89	0x3d060abc	0.03272508
90	0x3da266ee	0.079297885
91	0xbd89ff78	-0.0673818
92	0xbcaebe48	-0.021330968
93	0xbd9fcb14	-0.07802406
94	0x3d7ff32c	0.062487766
95	0x3d83f6d3	0.06443562
96	0xbdcba0c4	-0.09942773
97	0xbd661728	-0.056174427
98	0xbdc9abb6	-0.098472044
99	0x3def9af9	0.116994806
100	0xbdf90670	-0.12159431
101	0x3d05ddc3	0.03268219
102	0xbcf55138	-0.029945955
103	0xbd2c17c8	-0.042014867
104	0xbdf858ae	-0.12126289
105	0x3d865098	0.06558341
106	0xbd6b2f4e	-0.05741816
107	0xbdc81446	-0.09769492
108	0xbd886198	-0.066592395
109	0x3d93036e	0.071783885
110	0xbd9a35f4	-0.07529822
111	0xbe03def4	-0.12878019
112	0x3dbac86c	0.09120259
113	0xbdd15cbc	-0.10222766
114	0xbdb5b331	-0.08872069
115	0x3d21e5e0	0.039525867
116	0x3cdf7138	0.027275667
117	0xbde77636	-0.11301844
118	0xbc202880	-0.009775281
119	0x3dbfda3a	0.09367795
120	0xbd7bcddc	-0.06147562
121	0x3db11bba	0.086478665
122	0x3cd61330	0.026132196
123	0x3dd4d0c1	0.10391379
124	0x3ddcd546	0.10782866
125	0xbb8e4bc0	-0.004342526
126	0x3d20375c	0.039115295
127	0xbd9440b4	-0.07238904
128	0xbd78bf0a	-0.060729064
129	0x3da18ed8	0.078885734
130	0xbe2e6a9e	-0.17032859
131	0xbd664c1e	-0.056224935
132	0x3d50531d	0.050860513
133	0x3db59311	0.08865941
134	0x3e032aa2	0.12809232
135	0x3cc8dbe3	0.024518913
136	0xbdf5bc83	-0.119988464
137	0xbd24edc5	-0.040265817
138	0xbe03e401	-0.12879945
139	0xbd61e8c0	-0.05515361
140	0xbd903219	-0.07040805
141	0xbcd898f1	-0.026440116
142	0x3cf77857	0.03020875
143	0x3d3b2d46	0.045697473
144	0xbe9ae548	-0.30253053
145	0xbd44d012	-0.048049994
146	0x3d690793	0.05689199
147	0x3e2145b4	0.15749246
148	0x3d9cfcc0	0.07665396
149	0xbd20f44c	-0.03929548
150	0x3de9511e	0.11392425
151	0x3d9ec0de	0.0775163
152	0x3e214bc7	0.15751563
153	0x3e003d2f	0.1252334
154	0x3dee9cdb	0.116510116
155	0xbdc553d6	-0.09635131
156	0x3d63e22c	0.055635616
157	0xbe71c666	-0.23610839
158	0xbd887dd6	-0.06664626
159	0x3db21676	0.0869569
160	0x3d917e9d	0.07104228
161	0xbd9c154e	-0.07621251
162	0x3e33dbbe	0.17564294
163	0xbc66a873	-0.014078247
164	0xbd31dfa9	-0.04342619
165	0xbd4a1f2b	-0.04934613
166	0xb8d28e7f	-0.00010040122
167	0xbdfa0b4c	-0.12209186
168	0x3dcbdeb3	0.09954586
169	0xbd26e621	-0.04074681
170	0x3d7b9d3b	0.061429244
171	0xbe027775	-0.12740882
172	0x3e449ac8	0.1919967
173	0xbdd94e76	-0.10610668
174	0x3d6b18d6	0.057396732
175	0xbbd04e59	-0.006356996
176	0xbccef858	-0.025264904
177	0x3dac8294	0.08423343
178	0xbbc17b08	-0.005904559
179	0x3c89969d	0.01679545
180	0x3debed24	0.1151984
181	0x3c013ad0	0.007887557
182	0x3cd5152c	0.026011072
183	0xbc896ad8	-0.01677458
184	0xbd5411a3	-0.051774632
185	0xbd0f64aa	-0.03500811
186	0x3cb9e424	0.022691794
187	0xbdf1d555	-0.11808268
188	0x3ddc1326	0.1074584
189	0x3d7df7fe	0.062004082
190	0x3cb0ba50	0.021573216
191	0xbe020dfc	-0.12700647
192	0xbdc5dd67	-0.0966137
193	0x3caaee80	0.020865679
194	0xbc30a448	-0.010781355
195	0xbd075839	-0.03304312
196	0x3ca6a671	0.020343037
197	0xbdae318d	-0.08505545
198	0xbdada3e5	-0.08478526
199	0x3d1e2827	0.03861251
200	0x39dcd970	0.00042123673
201	0xbe141cc5	-0.144641
202	0x3dd8b67b	0.105816804
203	0xbd92b7de	-0.07163976
204	0xbcbf7371	-0.023370476
205	0x3d3c8ec2	0.046034582
206	0xbef53591	-0.4789243
207	0xbd162b18	-0.03666219
208	0xbe6920b8	-0.22766387
209	0xbcbcf633	-0.023066616
210	0xbdcd7fdf	-0.10034155
211	0xbe125853	-0.14291506
212	0xbda42012	-0.080139294
213	0x3dff3a34	0.12462273
214	0xbd14ba67	-0.03631058
215	0x3d1857e8	0.03719321
216	0xbd0a0121	-0.033692483
217	0x3bf577ac	0.0074910726
218	0x3d11de93	0.035612654
219	0xbd234877	-0.03986403
220	0x3c7ecb50	0.015551403
221	0xbd8a7ab3	-0.06761684
222	0xbdbacaf0	-0.091207385
223	0x3dbc4717	0.09193247
224	0xbcb0fdf2	-0.021605466
225	0xbcc2f008	-0.023796096
226	0xbd9221c6	-0.07135348
227	0x3c9fd4b2	0.0195106
228	0xbbb1e8b0	-0.00542935
229	0x3b5f80a6	0.003410378
230	0xbd870360	-0.065924406
231	0x3e1039fb	0.14084618
232	0xbd93bb12	-0.07213415
233	0xbce1f3d0	-0.02758208
234	0xbb3d2586	-0.0028861477
235	0x3d2f6862	0.042824157
236	0x3d1ca685	0.038244743
237	0x3e2d5344	0.16926295
238	0xbe2836b2	-0.16427115
239	0x3de09811	0.10966504
240	0x3d0a7127	0.033799317
241	0xbd9e9e11	-0.077449925
242	0xbc9102b5	-0.017701486
243	0x3ded2c1b	0.11580678
244	0x3d9d5986	0.07683091
245	0xbd4a131c	-0.04933463
246	0xbd849ef2	-0.06475629
247	0x3e1229cd	0.14273758
248	0x3e06abf1	0.13151528
249	0x3dff94af	0.12479531
250	0xbd10cf04	-0.035353675
251	0x3dac5285	0.08414177
252	0x3dd00f56	0.10159175
253	0x3dd20348	0.10254532
254	0x3df651c4	0.12027314
255	0x3dad18f9	0.08452029

regressors.0.lins.0.bias f4 [32]
0	0xbd29104f	-0.04127532
1	0xbd9de4fe	-0.077096924
2	0x3da98894	0.08278003
3	0xbd9a9c9c	-0.07549402
4	0x3dd62550	0.104563355
5	0x3cf872df	0.030328212
6	0x3d98e522	0.074655786
7	0x3e03971f	0.12850617
8	0x3df11be7	0.117729
9	0xba62fd6c	-0.00086589786
10	0x3d84b29e	0.06479381
11	0xbdc91302	-0.098180786
12	0xbd45e791	-0.048316542
13	0xbd94b6e9	-0.0726145
14	0xbba96657	-0.0051696706
15	0xbcde311a	-0.027123023
16	0xbd76578d	-0.06014209
17	0xbd56ed86	-0.052472614
18	0xbdee1a6c	-0.11626133
19	0x3dcb481e	0.09925865
20	0xbd2d26ae	-0.042273216
21	0x3e323e91	0.1740668
22	0x3ddf91ab	0.10916456
23	0xbd7fccbd	-0.062451113
24	0xbc0995e2	-0.008397551
25	0xbdbde847	-0.09272819
26	0x3dd72594	0.10505214
27	0x3c5f1ba8	0.013617434
28	0x3e07b6ab	0.13253276
29	0xbdef18e1	-0.11674667
30	0x3d1e79e2	0.038690455
31	0xbdcedcf8	-0.1010074

regressors.0.lins.1.weight f4 [32, 32]
0	0xbdd198eb	-0.10234245
1	0xbcb17b1a	-0.021665145
2	0xbd70b698	-0.058767885
3	0x3e2d3cfd	0.16917796
4	0xbda36401	-0.079780586
5	0xbe8b5ebf	-0.27220723
6	0x3db77e94	0.0895969
7	0xbe1e2a19	-0.15445746
8	0xbd8c9bd5	-0.0686566
9	0x3e229c12	0.15879849
10	0x3d8114a3	0.06302764
11	0xbd9fc1aa	-0.0780061
12	0xbd4989d5	-0.049203712
13	0xbdacda83	-0.08440115
14	0xbd09126e	-0.03346484
15	0xbd4abf50	-0.049498856
16	0xbc2bc572	-0.010484086
17	0x3de67f41	0.112547405
18	0xbe038ddf	-0.12847088
19	0xbe254bcc	-0.16142195
20	0xbe8ef04c	-0.27917707
21	0x3d81394b	0.06309756
22	0xbe66893b	-0.22513287
23	0xbd2b0720	-0.04175484
24	0x3dc2d480	0.095131874
25	0x3c24b892	0.010053771
26	0xbd727918	-0.059197515
27	0xbe08825f	-0.13330983
28	0xbc311098	-0.010807179
29	0xbe1cd709	-0.15316404
30	0xbe52e38b	-0.20594613
31	0xbdad079c	-0.08448717
32	0xbe0f8db6	-0.14018902
33	0xbe0be6b6	-0.13662228
34	0x3d9f354f	0.0777384
35	0xbe7c4519	-0.24635734
36	0x3e15dba9	0.14634575
37	0xbd9e75f4	-0.077373415
38	0xbd02f299	-0.03196964
39	0x3d21e59c	0.039525613
40	0x3e0ce81b	0.13760416
41	0x3d346e56	0.044050537
42	0x3e1879dc	0.14890236
43	0xbd5c9fd1	-0.05386335
44	0x3a7d7500	0.00096686184
45	0xbd7cc325	-0.06170954
46	0x3d1026bf	0.0351932
47	0x3e265a50	0.16245389
48	0x3dc8df8c	0.09808263
49	0x3dc7530e	0.09732638
50	0xbe2ce81b	-0.16885416
51	0xbde642dd	-0.11243222
52	0x3d0f54dd	0.03499304
53	0x3d265d74	0.040616468
54	0xbe430604	-0.19045264
55	0x3c07eb30	0.008295819
56	0xbcde80a5	-0.027160952
57	0x3cf5ceb5	0.030005792
58	0x3ada3e1a	0.0016650588
59	0xbe103275	-0.14081748
60	0x3d6f88dc	0.05848013
61	0x3e235e82	0.1595402
62	0x3e0c7e5a	0.13720074
63	0x3e132350	0.1436894
64	0x3dea6763	0.11445501
65	0xbcb90edf	-0.022590099
66	0xbd9ef2bf	-0.07761144
67	0x3d98429e	0.07434581
68	0xbe1b8285	-0.15186508
69	0x3d133919	0.035943124
70	0xbe21e3ae	-0.15809509
71	0x3e416a35	0.18888171
72	0x3df3fd43	0.1191354
73	0xbe3e024e	-0.18555567
74	0xbd9cc1d2	-0.07654156
75	0x3d4beda2	0.04978717
76	0xbd8cd8d9	-0.06877298
77	0xbe444e22	-0.1917043
78	0xbd4efa20	-0.050531507
79	0xbe008fc8	-0.12554848
80	0xbd0e482a	-0.03473679
81	0x3e215d7a	0.15758315
82	0xbda06af6	-0.07832901
83	0xbd0bce8c	-0.034132525
84	0xbe2270c5	-0.1586333
85	0x3d11bb15	0.035578806
86	0x3dcde8bc	0.10054156
87	0x3c878db1	0.016547056
88	0xbc5a64bc	-0.013329681
89	0xbd676fda	-0.056503154
90	0x3e051e6e	0.12999889
91	0x3d3cfbfc	0.04613875
92	0x3d89e9d5	0.06734053
93	0xbce0f334	-0.027459718
94	0xbdaf1859	-0.08549566
95	0xbe4096e3	-0.18807559
96	0x3d6f6445	0.058445234
97	0x3ce55528	0.027994707
98	0x3dcceb61	0.100058325
99	0x3e07fa27	0.1327902
100	0xbced4159	-0.028961824
101	0x3ceb5414	0.028726615
102	0xbd9a3506	-0.07529645
103	0xbe1bf467	-0.15229951
104	0xbc61bd76	-0.013778081
105	0xbdb232fc	-0.08701131
106	0x3df594d7	0.119912796
107	0x3e2c73c7	0.1684104
108	0xbddd07eb	-0.10792526
109	0xbd509a3a	-0.050928332
110	0x3d3ea8a6	0.046547554
111	0xbe1a5917	-0.15073048
112	0x3d8af068	0.06784135
113	0x3d3a35ee	0.045461588
114	0x3c91a463	0.017778581
115	0xbe575f9e	-0.21032569
116	0x3d28787b	0.041130524
117	0xbe115329	-0.1419188
118	0x3d87a960	0.066241026
119	0x3d66a195	0.05630644
120	0xbe979edf	-0.29613397
121	0xbc65ad6e	-0.0140184
122	0xbe2f5a3a	-0.17124262
123	0xbdec5700	-0.115400314
124	0xbda162ae	-0.0788015
125	0x3d4523ae	0.04812973
126	0x3ca2f699	0.019892978
127	0xbdf25ab2	-0.11833705
128	0x3cb0e0df	0.021591602
129	0xbc6d66c4	-0.014489833
130	0x3ded36c7	0.115827136
131	0x3cb85c95	0.022505084
132	0xbd5f81a9	-0.054567013
133	0x3e554f35	0.20830996
134	0xbc96f433	-0.01842699
135	0x3dc9eb4a	0.09859331
136	0x3daf46e9	0.08558447
137	0x3e0ac18d	0.13550396
138	0x3d7fc34f	0.06244212
139	0x3dac3941	0.08409358
140	0x3d30cb72	0.04316277
141	0x3cebd251	0.02878681
142	0x3e41d690	0.18929505
143	0xbca3e54d	-0.0200068
144	0xbd36bdab	-0.044614475
145	0xbdbe993a	-0.093065694
146	0x3dc15967	0.0944088
147	0x3e22ae0b	0.15886705
148	0xbe553793	-0.20821981
149	0xbd58b0b3	-0.05290289
150	0xbe00847e	-0.12550542
151	0xbcea8795	-0.028629104
152	0xbb39a161	-0.002832495
153	0xbb865e90	-0.004100628
154	0x3a368dab	0.0006963859
155	0xbdf13200	-0.11777115
156	0x3e22bb4b	0.15891759
157	0x3db425d5	0.087962784
158	0x3c51836a	0.012787679
159	0xbda27875	-0.079331316
160	0xbd765fc3	-0.06014992
161	0x3e10e84f	0.14151119
162	0xbe80246b	-0.25027785
163	0xbd305028	-0.043045193
164	0x3df1e2bb	0.118108235
165	0x3e563afe	0.20920941
166	0xbd8d46d1	-0.06898273
167	0x3db7aff6	0.08969109
168	0x3dd19b1e	0.102346644
169	0x3d167c19	0.036739442
170	0x3df22886	0.118241355
171	0xbc11c1a5	-0.008896266
172	0x3e1e0845	0.15432842
173	0x3b71ccc5	0.0036895734
174	0x3cfcf779	0.030879723
175	0xbca9364a	-0.02065577
176	0xbddb134a	-0.106970385
177	0xbd79401c	-0.060852155
178	0xbdf3af24	-0.1189864
179	0xbe34b19c	-0.17645878
180	0xbd54e3b1	-0.051974956
181	0xbde7cb96	-0.11318128
182	0xbc477d1f	-0.012175827
183	0xbde2f806	-0.11082463
184	0x3d88e450	0.06684172
185	0xbce414f4	-0.027842022
186	0x3deeaffb	0.11654659
187	0xbdc1c4b2	-0.09461345
188	0x3c1bc5fe	0.009507654
189	0x3e03cec6	0.12871847
190	0x3ddfc5d6	0.10926406
191	0xbdbb537c	-0.09146783
192	0x3d9b4e4d	0.07583294
193	0xbdb3d8a1	-0.08781553
194	0x3de72b6a	0.112875775
195	0xbe94c519	-0.29056624
196	0xbdc050ff	-0.09390449
197	0x3e5edd12	0.21764019
198	0x3c21d7dd	0.009878126
199	0xbe05f28f	-0.1308081
200	0xbca81395	-0.02051715
201	0x3e0f4fa9	0.13995232
202	0xbd3f1682	-0.046652324
203	0xbdda5d29	-0.106623
204	0xbbe7f068	-0.007078219
205	0x3d7ed548	0.06221512
206	0x3e0b3ded	0.13597842
207	0x3e308c37	0.17240988
208	0xbe3d94da	-0.18513814
209	0x3df01232	0.117222205
210	0x3c97076a	0.018436152
211	0xbd376ca8	-0.044781357
212	0x3dcbe45b	0.09955665
213	0xbe13e560	-0.14442968
214	0xbd8e9483	-0.0696192
215	0x3e09b532	0.13448027
216	0xbdc4dcd4	-0.09612432
217	0x3d6487a3	0.055793416
218	0x3d7b6a1b	0.061380487
219	0x3dc0c713	0.094129704
220	0x3d6efd6f	0.05834716
221	0xbe32f59c	-0.17476505
222	0x3dec34f5	0.11533538
223	0xbd956a44	-0.07295659
224	0xbdbfd7b2	-0.093673125
225	0xbdcf4394	-0.101203114
226	0x3d6d890b	0.057992022
227	0x3c3de9f3	0.011591422
228	0xbd9d6a28	-0.07686263
229	0xbd5fc6d2	-0.05463297
230	0xbd7527dc	-0.059852466
231	0x3db8c7b5	0.09022466
232	0x3c27f745	0.010251825
233	0x3d27451d	0.040837396
234	0x3cfbef36	0.030753713
235	0xbe39adaf	-0.18132661
236	0xbe4f54a2	-0.20247129
237	0x3db040b1	0.08606089
238	0x3e137a56	0.14402136
239	0x3e568103	0.20947652
240	0xbe0a7587	-0.13521396
241	0xbd92dafd	-0.07170675
242	0xbcb3b78f	-0.021938113
243	0x3e440d66	0.19145736
244	0xbe2b6a4b	-0.16739766
245	0xbde7ceca	-0.11318739
246	0x3dff5101	0.12466622
247	0xbe5c6093	-0.21521215
248	0x3e251779	0.16122235
249	0xbd244fa0	-0.040115
250	0xbd22988e	-0.03969627
251	0x3bd7583c	0.0065717977
252	0xbe0df1e2	-0.13861802
253	0x3db3fc55	0.08788363
254	0x3e1dd08a	0.15411583
255	0xbe0d363d	-0.13790222

regressors.0.lins.1.bias f4 [32]
0	0xbd3fb447	-0.046802785
1	0xbe1d0634	-0.15334398
2	0xbd0437fa	-0.032279946
3	0xbe0275cf	-0.12740253
4	0xbde77e79	-0.113034196
5	0xbdcf3d02	-0.10119058
6	0xbdb3e396	-0.08783643
7	0xbde0e61f	-0.10981392
8	0x3dcb9af6	0.09941666
9	0x3e07c66e	0.13259289
10	0x3d2911fb	0.041276913
11	0xbd156b0c	-0.03647904
12	0xbe03a0b9	-0.1285428
13	0x3de8d3b9	0.11368508
14	0x3d8a6e01	0.06759263
15	0xbcb4d1ee	-0.022072759
16	0xbd78ea70	-0.060770452
17	0x3e59094e	0.21194956
18	0x3def59b6	0.11687033
19	0x3e0e9f44	0.13927943
20	0x3e49eb90	0.19718766
21	0xbdd79a4e	-0.10527478
22	0xbe36a432	-0.17836073
23	0xbda09cd5	-0.07842413
24	0xbe08f297	-0.1337379
25	0xbd80ba0f	-0.06285488
26	0xbd15d165	-0.036576647
27	0xbdab6d95	-0.083705105
28	0x3dcff4d1	0.10154117
29	0xbc93b1cf	-0.018029122
30	0x3e02e8c4	0.12784106
31	0x3dd42416	0.10358445

regressors.0.lins.2.weight f4 [32, 32]
0	0x3e1964a6	0.149798
1	0x3dd8282d	0.10554538
2	0xbd8be5ff	-0.06830978
3	0xbd929127	-0.07156592
4	0xbb6df923	-0.0036311827
5	0xbe2b107b	-0.16705506
6	0xbdd2f1ef	-0.103000514
7	0xbdce2755	-0.10066096
8	0x3e0c71cf	0.1371529
9	0xbdd80acf	-0.105489366
10	0xbddfe03b	-0.109314404
11	0xbe0601d9	-0.13086642
12	0xbc90981c	-0.017650656
13	0xbdd7b59d	-0.10532687
14	0xbe20abbe	-0.15690514
15	0x3e2f60e8	0.1712681
16	0xbd899bd7	-0.06719177
17	0xbc55bf48	-0.013046093
18	0x3cbe02ac	0.023194633
19	0x3c1aa595	0.009438892
20	0x3d523df1	0.051328603
21	0x3da1cdf6	0.07900612
22	0xbd89989a	-0.067185596
23	0xbd904874	-0.07045069
24	0xbca9ace8	-0.020712331
25	0xbe2a0c07	-0.1660615
26	0xbdc031b7	-0.09384482
27	0x3d9c3727	0.07627707
28	0xbb0b176c	-0.0021223677
29	0xbdf4115e	-0.11917375
30	0xbdeb474d	-0.11488209
31	0xbd683d24	-0.056698933
32	0x3e12e75f	0.14346074
33	0x3db25529	0.08707649
34	0xbe133845	-0.14376934
35	0x3d776651	0.06040031
36	0xbe20ab5a	-0.15690365
37	0x3e1da84c	0.15396231
38	0x3c18b164	0.009319637
39	0xbd18e1c9	-0.0373247
40	0x3e002031	0.1251228
41	0xbd1250b9	-0.035721514
42	0xbe3d66d0	-0.18496251
43	0x3ddd24e3	0.10798051
44	0xbb2b01f6	-0.0026093698
45	0xbe28de12	-0.16490963
46	0x3a699046	0.0008909743
47	0x3de2d275	0.11075298
48	0x3dae5a51	0.0851332
49	0xbe371c8f	-0.17881988
50	0xbdead1c4	-0.11465791
51	0x3e2ed494	0.1707328
52	0x3e080d57	0.13286339
53	0x3c318954	0.010835964
54	0xbd501a31	-0.050806228
55	0x3e18737d	0.14887805
56	0xbac6375d	-0.0015122701
57	0x3ddebfd0	0.10876429
58	0xbe483aef	-0.19553731
59	0xbe1126dc	-0.1417498
60	0xbc0ed374	-0.008717407
61	0xbcdcd10c	-0.02695515
62	0xbd014460	-0.031559348
63	0xbde8a5ce	-0.1135975
64	0xbd409a06	-0.04702189
65	0xbe1d04eb	-0.15333907
66	0xbd2580cf	-0.040406045
67	0xbe46e4f6	-0.19423279
68	0xbcc304c1	-0.023805978
69	0x3df06c5a	0.117394164
70	0xbdd6462e	-0.104626045
71	0xbe2ae3cf	-0.16688465
72	0xbe1b9039	-0.15191735
73	0x3d0564e7	0.03256693
74	0xbd079af6	-0.033106767
75	0x3e33ead9	0.17570056
76	0x3de5e4bf	0.112252705
77	0xbd0ccefe	-0.03437709
78	0xbe1db17f	-0.1539974
79	0x3de93505	0.11387066
80	0x3e1f09ad	0.15531035
81	0xbdc87656	-0.09788196
82	0xbe213bf7	-0.15745531
83	0xbd30f60c	-0.0432034
84	0x3cb10069	0.02160664
85	0x3d357fbb	0.044311266
86	0x3e316178	0.17322338
87	0x3e34b098	0.1764549
88	0xbe1a1b08	-0.15049374
89	0x3e137321	0.14399387
90	0x3e21b1dd	0.15790506
91	0x3c686e4e	0.014186455
92	0xbdfb66e0	-0.12275481
93	0x3e2784c3	0.16359238
94	0x3e2b7cfe	0.167469
95	0x3d1569ba	0.03647778
96	0xbdac0866	-0.084000394
97	0xbd8c6f8c	-0.068572134
98	0xbe38cd60	-0.18047094
99	0xbd0ef2f4	-0.034899667
100	0xbdc81025	-0.09768704
101	0x3e18b1ce	0.14911577
102	0xbcdcb8d6	-0.026943605
103	0x3d5b5a33	0.053552818
104	0x3dbbdd91	0.0917312
105	0x3d8b002e	0.06787144
106	0x3d64fe61	0.055906657
107	0xbc9c3c25	-0.019071648
108	0xbd06ad5d	-0.032880176
109	0xbe1eb810	-0.15499902
110	0xbde5c117	-0.112184696
111	0xbbc5c7cd	-0.006035781
112	0x3e194fa4	0.14971787
113	0xbc6b1a76	-0.0143495705
114	0x3d5dee5d	0.0541824
115	0x3d95b1e8	0.073093235
116	0xbe24c783	-0.16091733
117	0x3e106182	0.14099696
118	0x3d6c34bd	0.057667483
119	0xbd2b5022	-0.041824467
120	0xbdefc363	-0.11707189
121	0xbe089ec9	-0.13341822
122	0xbd9ad8e2	-0.07560898
123	0xbd8b1914	-0.06791893
124	0xbced6ce3	-0.028982585
125	0x3dd033bb	0.10166117
126	0xbdf644ee	-0.12024866
127	0xbdcf239b	-0.10114213
128	0xbd6373af	-0.055530246
129	0xbdd66c98	-0.10469931
130	0x3c92787f	0.017879723
131	0xbdac301e	-0.08407615
132	0xbdeb5fd4	-0.11492887
133	0x3e14d976	0.1453608
134	0xbd653457	-0.05595812
135	0xbe252b06	-0.16129693
136	0x3dab5494	0.08365741
137	0xbd4bfb6d	-0.049800325
138	0xbdd14cd6	-0.102197334
139	0x3e0a8493	0.13527136
140	0xbd9a1383	-0.07523253
141	0xbdcddb3d	-0.10051582
142	0x3d03394f	0.032037076
143	0xbd4a7e27	-0.049436715
144	0x3dfd5a28	0.123707116
145	0x3de0c882	0.10975744
146	0xbcd5ec74	-0.026113726
147	0xbd4f945b	-0.050678592
148	0x3daab027	0.0833438
149	0x3dab136a	0.08353312
150	0xbdf0ca9e	-0.11757396
151	0x3ce4369f	0.027858077
152	0x3d2c6495	0.04208811
153	0x3e20ea99	0.15714492
154	0xbdf5e75c	-0.12007019
155	0xbe127baf	-0.14304994
156	0xbd8a7028	-0.06759673
157	0xbe4958b6	-0.19662747
158	0xbcdfcda1	-0.027319731
159	0x3d8c7c45	0.0685964
160	0xbdd64020	-0.104614496
161	0x3e1baea7	0.15203343
162	0x3db6c030	0.089233756
163	0x3dce4424	0.100715905
164	0xbe054c3e	-0.13017365
165	0x3db84b52	0.08998741
166	0x3dca0e0e	0.09865962
167	0x3db83a90	0.08995545
168	0xbe14e321	-0.14539768
169	0x3d712537	0.05887338
170	0x3cc110bd	0.023567552
171	0x3b8608ae	0.00409039
172	0x3e14abd8	0.14518678
173	0xbc4416da	-0.011968339
174	0xbda3d431	-0.07999457
175	0xbe07302a	-0.13201967
176	0xbe08d3e0	-0.13362074
177	0xbd9287c9	-0.07154805
178	0x3de6eafd	0.11275289
179	0x3dad4a78	0.084614694
180	0x3d72d499	0.05928478
181	0x3d81a71a	0.063307
182	0x3ce2a5a7	0.02766688
183	0xbd93f79c	-0.07224962
184	0x3d450ea1	0.048109654
185	0xbd7ec113	-0.06219585
186	0x3d758e36	0.059950076
187	0x3d8bc793	0.06825175
188	0xbe0ea409	-0.13929762
189	0xbe13b8f1	-0.14426018
190	0xbe43c7c1	-0.19119169
191	0x3ccd142b	0.02503403
192	0xbdf34933	-0.11879196
193	0xbcad7462	-0.02117366
194	0x3d8ff0d0	0.07028353
195	0xbd07c07e	-0.03314256
196	0xbe2495a7	-0.16072713
197	0xbd61e689	-0.055151496
198	0xbca7fe69	-0.020507054
199	0xbc8d024f	-0.017213015
200	0xbe622fc0	-0.22088528
201	0xbdee1f89	-0.116271086
202	0xbce23149	-0.027611392
203	0x3d5c66bf	0.053808924
204	0x3e2f7350	0.17133832
205	0xbe10fbb6	-0.1415852
206	0x3c8ab069	0.016929822
207	0x3e1413e1	0.14460708
208	0xbdec7ed9	-0.11547632
209	0x3dd06209	0.10174949
210	0x3e0c41ba	0.13696948
211	0xbd3d81ef	-0.046266492
212	0xbd98fed5	-0.0747048
213	0x3d85502c	0.06509432
214	0xbd25c7ba	-0.040473677
215	0xbda8fe8f	-0.08251678
216	0xbe01ef59	-0.1268896
217	0x3c1754d4	0.009236533
218	0x3b36f07d	0.0027914338
219	0x3d65678c	0.056006953
220	0xbd5f1d84	-0.054471508
221	0x3d063fbb	0.03277562
222	0x3d67dc04	0.056606308
223	0x3d1cd05f	0.038284656
224	0xbe5d034b	-0.21583287
225	0xbddf1d69	-0.108942814
226	0xbe48827e	-0.19581029
227	0x3ccb8e68	0.024848178
228	0xbd547200	-0.05186653
229	0xbccc0364	-0.02490396
230	0x3dd6265a	0.10456534
231	0xbdea0e4d	-0.11428509
232	0x3d0eed44	0.034894243
233	0x3db7f1f0	0.08981693
234	0x3d812454	0.06305757
235	0xbe0265dd	-0.1273417
236	0xbdd02a31	-0.10164297
237	0xbe28c0ae	-0.16479751
238	0xbca388bc	-0.019962661
239	0x3d995608	0.07487112
240	0xbe0e0e94	-0.13872749
241	0x3d704d5b	0.058667522
242	0xbe4757e5	-0.19467123
243	0xbdd28452	-0.10279144
244	0xbdf2cf49	-0.11855943
245	0xbcc0954a	-0.023508687
246	0x3e8e76bc	0.27824962
247	0x3e27fb22	0.16404393
248	0xbe4df4cb	-0.20112912
249	0x3b0da67b	0.0021614123
250	0x3daf01bf	0.08545255
251	0x3d7a262b	0.061071556
252	0xbd7fe947	-0.06247833
253	0x3ce07e90	0.0274041
254	0x3e2cd14a	0.16876712
255	0xbe1a8313	-0.15089063

regressors.0.lins.2.bias f4 [32]
0	0xbe1ee8a2	-0.1551843
1	0x3d980412	0.07422651
2	0xbe1c0be1	-0.15238906
3	0xbd86d91b	-0.06584378
4	0xbddaa1d3	-0.10675397
5	0x3d8663ee	0.06562029
6	0x3cf982d1	0.030457886
7	0xbe345086	-0.17608842
8	0xbe07361a	-0.13204232
9	0x3c905514	0.017618693
10	0xbd99beb2	-0.07507075
11	0xbb2f3248	-0.002673285
12	0x3e24e892	0.16104344
13	0x3e03b651	0.12862517
14	0x3bcac8c6	0.006188485
15	0x3e1b18d1	0.15146185
16	0x3db515a1	0.08842016
17	0xbd2f7743	-0.042838346
18	0xbe1317b8	-0.14364517
19	0x3d83d18d	0.06436453
20	0xbe126fa9	-0.14300407
21	0x3cc5c288	0.024140611
22	0xbe0f7a42	-0.14011481
23	0xbdb02a96	-0.086018726
24	0xbd7ad35b	-0.06123672
25	0xbc4c3079	-0.012462729
26	0x3c65999a	0.014013672
27	0x3d4ad06e	0.04951518
28	0xbd2209db	-0.03956018
29	0xbe069db1	-0.13146092
30	0x3dba70ac	0.09103522
31	0x3e116758	0.14199579

regressors.0.lins.3.weight f4 [1, 32]
0	0x3df3afd5	0.11898772
1	0xbdcf5b6a	-0.10124858
2	0xbe4704d2	-0.19435433
3	0xbe0dfe7a	-0.13866606
4	0xbdda8cf9	-0.1067142
5	0xbdd260eb	-0.10272392
6	0x3e19e2a1	0.15027858
7	0xbd8d8f02	-0.06912042
8	0x3dbab304	0.09116176
9	0x3dad0bf4	0.084495455
10	0x3d9db812	0.07701124
11	0xbe1f496c	-0.15555352
12	0x3e4319bb	0.19052784
13	0x3e09a1d8	0.13440645
14	0xbe15cb3a	-0.14628306
15	0xbdcc7889	-0.09983928
16	0x3db7e616	0.08979432
17	0xbcb6d434	-0.022317983
18	0xbdcf90a5	-0.10135011
19	0x3d490ae8	0.049082667
20	0xbe1f488f	-0.15555023
21	0x3e245303	0.16047291
22	0x3e1692a1	0.14704372
23	0x3dbd7c4c	0.09252223
24	0x3da25b93	0.07927623
25	0xbdb5bbfa	-0.08873744
26	0x3b797df6	0.0038069463
27	0x3e14e19b	0.14539187
28	0x3d6a9220	0.057268262
29	0x3e1e702a	0.15472475
30	0x3d6abb33	0.057307433
31	0xbdfa4d1e	-0.1222174

regressors.1.lins.0.weight f4 [32, 64]
0	0xbda30360	-0.07959628
1	0xbd91a53c	-0.07111594
2	0x3d6650a7	0.05622926
3	0x3b92e340	0.0044826567
4	0x3c72df50	0.01482375
5	0xb9915074	-0.00027716497
6	0xbdc8665f	-0.09785151
7	0x3cdcfcf1	0.02697608
8	0xbc38d964	-0.011282299
9	0xbdd39030	-0.10330236
10	0x3d3c2019	0.04592905
11	0xbdd530a3	-0.10409667
12	0x3d5d4b47	0.05402687
13	0x3cf6b2e9	0.030114608
14	0xbcd84070	-0.026397914
15	0xbe21a37d	-0.15785022
16	0xbb45eb07	-0.0030199902
17	0x3dd1cc38	0.1024403
18	0x3d683750	0.056693375
19	0x3e399558	0.18123376
20	0xbdcb3a10	-0.09923184
21	0x3d938198	0.072024524
22	0xbd6c9cc6	-0.0577667
23	0xbded2885	-0.11579994
24	0x3d8578dd	0.065171935
25	0xbd629276	-0.055315457
26	0x3d9ec51e	0.07752441
27	0x3dc7fa1d	0.09764502
28	0x3d2a1840	0.041527033
29	0x3dce0186	0.10058884
30	0x3da3e6d8	0.08003014
31	0x3d15fcfc	0.036618218
32	0xbddb8578	-0.107188165
33	0xbd8028e8	-0.06257802
34	0xbde1ccb2	-0.11025371
35	0xbe2fe026	-0.1717535
36	0x3d8befc2	0.068328395
37	0x3d94febc	0.07275149
38	0xbdaa9fbf	-0.083312504
39	0xbcaa0933	-0.02075634
40	0xbda099ff	-0.078418724
41	0xbdfe2190	-0.12408745
42	0xbdf46df7	-0.11935037
43	0x3d6d986a	0.05800668
44	0xbdd56e41	-0.1042142
45	0x3d54b31a	0.051928617
46	0x3d5bb435	0.053638656
47	0x3d5b06a3	0.053473126
48	0x3c9c7c61	0.019102277
49	0xbdad63ae	-0.08466278
50	0xbdd7b790	-0.10533059
51	0x3dbf38ea	0.09337027
52	0xbd5419f8	-0.05178258
53	0xbd9ca624	-0.07648876
54	0xbd82078a	-0.06349094
55	0x3cf3a77a	0.029742945
56	0xbe0605e6	-0.13088188
57	0xbc3e46b3	-0.011613536
58	0x3d360181	0.044435028
59	0xbceb9c20	-0.02876097
60	0x3d11b228	0.035570294
61	0xbe108276	-0.14112267
62	0x3de6150c	0.11234483
63	0x3dc08ecc	0.09402236
64	0xbdc3f409	-0.095680304
65	0x3d9fdbf0	0.078056216
66	0x3cf93872	0.030422423
67	0xbdba1696	-0.09086339
68	0x3d980301	0.07422448
69	0x3da7e6f4	0.08198348
70	0x3dac81e1	0.0842321
71	0x3d951f89	0.072814055
72	0x3dbc9f42	0.092100635
73	0xbda9105c	-0.082550734
74	0xbcb4d99f	-0.022076426
75	0xbd9a54cb	-0.07535704
76	0xbc1b802a	-0.009491006
77	0xbd603373	-0.054736566
78	0x3d32e03f	0.04367089
79	0x3ca0a939	0.019611942
80	0x3d4edc3a	0.050502993
81	0xbd600542	-0.054692514
82	0x3e3d74c2	0.18501571
83	0xbd240653	-0.040045094
84	0x3dd25e00	0.10271835
85	0x3dcf59e8	0.1012457
86	0xbd0678c4	-0.032830015
87	0xbd238a05	-0.039926548
88	0xbe070917	-0.13187061
89	0xbe2b27e5	-0.16714437
90	0xbc7f906b	-0.015598397
91	0x3c2eb97c	0.01066434
92	0xbd3229ac	-0.043496773
93	0x392f82d0	0.00016738032
94	0xbd0ce244	-0.03439547
95	0xbdc4df00	-0.096128464
96	0xbd38e880	-0.045143604
97	0xbcb36468	-0.021898463
98	0xbdab6839	-0.08369488
99	0x3b5cb08b	0.0033674564
100	0x3dec28af	0.11531197
101	0x3d3948e8	0.045235544
102	0x3df0fe55	0.1176726
103	0xbd3a1632	-0.045431323
104	0x3d293343	0.041308653
105	0xbcfc3149	-0.03078522
106	0x3da3e870	0.08003318
107	0xbb068daa	-0.0020531216
108	0x3c4c48e5	0.012468551
109	0x3deafb47	0.114737086
110	0x3d5bdafa	0.05367563
111	0xbd971060	-0.0737617
112	0xbd663a2b	-0.056207817
113	0x3e064ecd	0.13115998
114	0xbd5a0a09	-0.053232227
115	0xbe11be47	-0.14232741
116	0x3d1db630	0.038503826
117	0xbd18c244	-0.03729464
118	0xbcf51656	-0.029917877
119	0x3c96bd3f	0.018400786
120	0xbd6772cb	-0.05650596
121	0xbd8892aa	-0.06668599
122	0xbd369313	-0.044573855
123	0xbd3adb02	-0.04561902
124	0x3d287204	0.04112436
125	0x3d1c8eb4	0.03822203
126	0xbcbb0530	-0.022829622
127	0xbd7f7074	-0.062363103
128	0x3e11c4a6	0.14235172
129	0x3db9bf06	0.09069638
130	0x3c659c56	0.014014324
131	0x3d9f2cbe	0.07772206
132	0x3d8604fb	0.06543919
133	0x3ce73986	0.028225671
134	0xbd941bbe	-0.07231854
135	0x3c8ccc40	0.017187238
136	0xbd259a26	-0.04043021
137	0x3d57e10b	0.052704852
138	0x3d6f6be3	0.0584525
139	0xbd0d8749	-0.034552846
140	0x3e2cb2e9	0.16865124
141	0xbd73975d	-0.059470523
142	0x3b114c58	0.0022170749
143	0xbc63ff37	-0.013915828
144	0x3dddd4ec	0.10831627
145	0x3d1c784e	0.03820067
146	0xbc003961	-0.00782618
147	0x3d959b39	0.07304997
148	0x3bc39be0	0.0059695095
149	0x3d87892e	0.06617962
150	0xbda8f94b	-0.08250674
151	0xb950d49c	-0.00019915629
152	0x3d6b3040	0.05741906
153	0x3e35105a	0.17682019
154	0x3cdd9f49	0.027053492
155	0xbd0c4735	-0.034247596
156	0xbda8b458	-0.08237523
157	0x3d88fb46	0.066885516
158	0xbdac9c9a	-0.08428307
159	0x3df371fe	0.11886977
160	0x3df84b09	0.12123687
161	0xbddc1170	-0.107455134
162	0xbd86250c	-0.06550035
163	0x3cfee52a	0.031115133
164	0xbd2a7059	-0.04161105
165	0x3b85c97c	0.0040828567
166	0x3db7d31c	0.08975813
167	0xbd8d9574	-0.069132715
168	0xbdb7b4f3	-0.0897006
169	0x3dc94c4d	0.09829006
170	0xbdeb0986	-0.11476426
171	0xbcf00651	-0.029299887
172	0x3d134c61	0.035961512
173	0xbc1bfe9d	-0.009521154
174	0xbe371b97	-0.17881618
175	0x3d228d75	0.039685685
176	0xbc22748a	-0.00991548
177	0xbd8a1872	-0.06742944
178	0x3d9f6dd4	0.0778462
179	0x3dba97fb	0.09111019
180	0x3d912fa2	0.07089163
181	0xbdabcd8c	-0.08388814
182	0xbdcc46b3	-0.09974422
183	0x3dcd0a2a	0.10011704
184	0x3ddc3791	0.10752786
185	0xbd4e3ac8	-0.050349027
186	0x3e16f493	0.14741735
187	0x3dcb7450	0.09934294
188	0xbbc373e0	-0.005964741
189	0x3db99bcc	0.09062919
190	0xbcfaba88	-0.030606523
191	0x3d0c0281	0.034182075
192	0x3d1b0055	0.037842114
193	0x3d179128	0.037003666
194	0xbd213055	-0.039352734
195	0xbd8ba8bc	-0.06819293
196	0xbc813b05	-0.015775213
197	0xbd8eb2b8	-0.06967682
198	0xbe14f6d7	-0.14547287
199	0xbdeb87f2	-0.11500539
200	0x3bc3b78f	0.0059728096
201	0xbdd41f0b	-0.103574835
202	0xbdb8dec0	-0.09026861
203	0xbda1e96a	-0.07905848
204	0xbdbfe016	-0.09368913
205	0xbe0288e6	-0.12747535
206	0x3c806121	0.015671315
207	0x3dcdc40b	0.10047158
208	0x3e12ab71	0.14323212
209	0x3dd7a7b2	0.10530032
210	0x3b664221	0.003513463
211	0xbe1a4d52	-0.15068558
212	0xbd1f8bb0	-0.038951576
213	0xbcd4db28	-0.025983408
214	0xbd6a23b2	-0.057162948
215	0x3b4a1559	0.0030835478
216	0x3dd05a91	0.10173524
217	0xbc63192d	-0.013860983
218	0x3df8f277	0.121556215
219	0xbd9ccef1	-0.076566584
220	0xbd807f9e	-0.06274341
221	0x3db33573	0.08750429
222	0x3d17fae4	0.037104502
223	0x3d7dabb6	0.061931334
224	0xbdcbffab	-0.09960874
225	0xbd6d3054	-0.057907417
226	0x3c7a3525	0.01527146
227	0x3de32685	0.110913314
228	0xbe1e0e6a	-0.15435186
229	0x3c6b57f7	0.014364234
230	0x3da97e69	0.08276064
231	0x3d8aed1b	0.067835055
232	0x3c5b31e3	0.013378593
233	0xbd676b1c	-0.05649863
234	0x3c89b487	0.016809715
235	0xbcdace7d	-0.02670979
236	0xbddfc0ad	-0.10925422
237	0x3dcb3286	0.09921746
238	0xbd8e96e3	-0.06962373
239	0xbd2c2e35	-0.042036254
240	0x3e218590	0.15773606
241	0xbde7e7c5	-0.113235034
242	0xbd8abf24	-0.067747384
243	0xbc511e43	-0.012763563
244	0x3dfd15fe	0.1235771
245	0x3dcd0794	0.10011211
246	0x3dfbbb72	0.12291612
247	0x3d6357d3	0.055503678
248	0xbc4c987c	-0.012487527
249	0x3e123aeb	0.14280288
250	0xbe4ef2ff	-0.20209883
251	0xbd48136e	-0.048846655
252	0xbd9eddf4	-0.07757178
253	0x3befcb2e	0.007317922
254	0xbd957c10	-0.07299054
255	0x3dc45bed	0.09587846

regressors.1.lins.0.bias f4 [32]
0	0x3d2fa4b0	0.042881668
1	0x3df83a8f	0.12120544
2	0xbd874541	-0.06605006
3	0xbde253c0	-0.1105113
4	0x3e0a3afe	0.13499066
5	0x3ddceda9	0.107875176
6	0x3d159219	0.036516283
7	0xbdd55756	-0.10417049
8	0x3de518f1	0.11186398
9	0x3d4a0440	0.04932046
10	0xbda8de76	-0.08245556
11	0xbd7c9852	-0.0616687
12	0x3d8c5d98	0.06853789
13	0x3e2011ef	0.15631841
14	0x3c5463b5	0.012963225
15	0x3e0c78df	0.13717984
16	0x3dac9d93	0.084284924
17	0xbd8922d2	-0.066960946
18	0xbda970e4	-0.08273485
19	0x3e1dfa50	0.15427518
20	0xbd02efa0	-0.031966805
21	0x3e1322b2	0.14368704
22	0x3a4882b8	0.0007648873
23	0xbcbc90bd	-0.023018235
24	0x3ce48c61	0.02789897
25	0x3e0b4e1f	0.1360402
26	0xbcbbf57a	-0.0229442
27	0x3e26ff93	0.16308431
28	0x3dd55ba7	0.10417872
29	0x3e153b5e	0.14573428
30	0x3e17e30c	0.14832705
31	0xbd553fc8	-0.05206278

regressors.1.lins.1.weight f4 [32, 32]
0	0x3df7876e	0.12086378
1	0xbe27f59a	-0.16402283
2	0x3af375b6	0.0018574509
3	0xbe05d9ab	-0.13071315
4	0xbe27d240	-0.16388798
5	0x3d74fbaa	0.059810318
6	0xbdd5c345	-0.10437635
7	0xbd6b15b4	-0.057393745
8	0xbdb5f319	-0.08884258
9	0xbdd97783	-0.10618498
10	0x3d5b8728	0.053595692
11	0x3e4308d7	0.19046341
12	0x3c98fc7a	0.018675078
13	0xbcd9dc1c	-0.026594214
14	0xbe0133b6	-0.12617382
15	0xbe07b2ce	-0.13251802
16	0xbdfa07c0	-0.122085094
17	0x3df11270	0.11771095
18	0xbd954dd7	-0.072902374
19	0x3d5a92b4	0.053362563
20	0x3d7ba351	0.061435048
21	0xbe107147	-0.14105712
22	0xbde915d6	-0.11381118
23	0xbd9d8538	-0.07691425
24	0xbe09ccd7	-0.13457046
25	0x3e192e94	0.14959174
26	0xbdd869f3	-0.10567083
27	0xbdc22446	-0.09479575
28	0xbe03def0	-0.12878013
29	0xbc92cab5	-0.017918924
30	0x3ea71064	0.32629693
31	0xbe2d458a	-0.16921058
32	0xbc6865e7	-0.014184452
33	0xbcbc929e	-0.023019131
34	0xbd62e0f9	-0.055390332
35	0x3d8429d2	0.06453289
36	0xbc99922e	-0.018746462
37	0x3de92a96	0.11385076
38	0x3cc7ba1b	0.024380734
39	0x3e2feab9	0.17179383
40	0x3e03950d	0.12849827
41	0x3d38c882	0.045113094
42	0xbd925619	-0.07145328
43	0x3d47473b	0.048651915
44	0xbc62ec4d	-0.013850284
45	0x3d5b0176	0.05346819
46	0x3d38b288	0.045092136
47	0xbc8e0345	-0.017335543
48	0xbdcb474f	-0.099257104
49	0xbdab8cbd	-0.08376453
50	0x3de8ed04	0.11373332
51	0x3e51fe84	0.20507246
52	0xbdfdef78	-0.12399191
53	0xbdf260bd	-0.118348576
54	0x3d272f89	0.040816817
55	0x3da81e59	0.08208913
56	0x3d89a304	0.06720546
57	0xbc7e6966	-0.015528059
58	0x3e45b8d3	0.19308786
59	0xbd9f66de	-0.07783292
60	0x3e294403	0.1652985
61	0xbcb87358	-0.022515938
62	0x3e07a37b	0.13245957
63	0x3d83ef57	0.06442135
64	0x3dae870d	0.08521853
65	0x3e2872e8	0.16450083
66	0x3c9ae832	0.018909547
67	0xbd122be0	-0.035686374
68	0xbddf5586	-0.10904984
69	0x3e65ce72	0.22442034
70	0x3e0a05cf	0.13478778
71	0xbc9fb0fd	-0.019493574
72	0xbe126d8f	-0.14299606
73	0x3e48869c	0.195826
74	0x3e2c86d5	0.1684831
75	0xbde155e0	-0.110027075
76	0x3de7e9cf	0.11323892
77	0x3bb3a278	0.0054820143
78	0x3e28cac2	0.16483596
79	0xbbf22261	-0.007389352
80	0xbd6adaf1	-0.057337705
81	0x3d05841b	0.03259669
82	0x3cc66306	0.02421714
83	0xbde8d08e	-0.11367904
84	0x3df5846d	0.11988149
85	0x3e729e95	0.23693307
86	0x3e70738c	0.23481578
87	0x3e13050f	0.14357398
88	0xbde73fb7	-0.112914495
89	0x3db73448	0.08945519
90	0xbcd396bb	-0.02582871
91	0x3cba37b4	0.02273164
92	0xbdc5d54a	-0.09659822
93	0xbd11585a	-0.03548465
94	0xbda23854	-0.079209
95	0x3cef49ff	0.029210089
96	0x3b8272e5	0.0039809817
97	0x3e1076b4	0.14107782
98	0x3d5cbccd	0.053890992
99	0x3dc3420d	0.095340826
100	0xbdc68373	-0.09693041
101	0xbba53ab8	-0.0050424
102	0xbd018594	-0.03162153
103	0x3c1f5854	0.009725649
104	0xbda64836	-0.08119242
105	0x3dadba67	0.08482819
106	0x3e217500	0.15767288
107	0x3d82b5af	0.0638231
108	0x3cab0e84	0.020880945
109	0xbc7d2a31	-0.015451954
110	0xbe11f1dd	-0.1425242
111	0xbdeef17b	-0.116671525
112	0xbdc14f6a	-0.09438975
113	0xbdba3eec	-0.09094033
114	0xbe31d00b	-0.17364518
115	0x3ce60882	0.028080229
116	0xbc896ead	-0.016776407
117	0xbad92da4	-0.0016569388
118	0x3d916f31	0.07101286
119	0xbdf80eb6	-0.12112181
120	0xbddc250d	-0.107492544
121	0xbe15b4df	-0.14619778
122	0xbd3b1f4a	-0.045684136
123	0xbd9eb9b9	-0.077502675
124	0x3dc9dfe5	0.098571576
125	0xbcb589e4	-0.022160478
126	0xbd943853	-0.072373055
127	0x3d3087b6	0.043098174
128	0xbcb289de	-0.021794256
129	0xbc16e818	-0.009210609
130	0x3d21ce6a	0.039503492
131	0x3e664eeb	0.22491042
132	0x3a940eaa	0.0011295874
133	0x3e436a46	0.19083509
134	0x3e099eb7	0.13439451
135	0xbe1549b8	-0.14578903
136	0xbcd34b30	-0.025792688
137	0xbec626b6	-0.3870141
138	0x3db43fa9	0.08801205
139	0xbd2f5d07	-0.042813327
140	0x3e2ec29e	0.17066428
141	0xbd0845e0	-0.033269763
142	0x3e3627ef	0.17788671
143	0xbe6a22bf	-0.22864817
144	0xbe9674b7	-0.2938592
145	0x3e00ad2b	0.12566058
146	0x3dcb7d95	0.09936062
147	0xbdfaed4a	-0.122522905
148	0xbe487b33	-0.19578247
149	0x3c926b1b	0.017873337
150	0x3dc7f284	0.09763053
151	0xbd87dc5f	-0.06633829
152	0xbd84f43d	-0.06491897
153	0xbddd2aec	-0.10799202
154	0xbd88ed83	-0.06685927
155	0x3d15f63e	0.036611788
156	0xbd8ad110	-0.06778157
157	0x3d1b3565	0.037892718
158	0xbdede100	-0.11615181
159	0x3d6bc83d	0.05756401
160	0xbd84994f	-0.06474554
161	0x3ddbea8e	0.10738097
162	0xbdee60b5	-0.11639539
163	0xba8d631e	-0.0010786986
164	0x3d9d5ea7	0.07684069
165	0x3df48fd0	0.119414926
166	0xbe12e5e2	-0.14345506
167	0xbd28b289	-0.04118589
168	0xbe0aa565	-0.13539656
169	0xbc06f2aa	-0.008236567
170	0xbe470adc	-0.19437736
171	0x3dc34f51	0.09536613
172	0xbcc7a7c1	-0.024371983
173	0xbe0b25cc	-0.13588637
174	0xbe481a59	-0.19541301
175	0x3e422694	0.18960029
176	0xbccc936e	-0.024972644
177	0xbddd2a1a	-0.10799046
178	0x3e267474	0.16255361
179	0x3e4db031	0.20086743
180	0xbd65b51f	-0.056080934
181	0x3e3ef783	0.18649106
182	0xbca4594a	-0.020062108
183	0x3e1ff94c	0.15622443
184	0x3ce9a3f0	0.028520554
185	0x3d9b6ae3	0.075887464
186	0xbd92ea75	-0.071736254
187	0xbd1520bb	-0.036408167
188	0xbd98495a	-0.07435866
189	0xbe211221	-0.15729572
190	0x3dd586c7	0.10426097
191	0x3c8d5c6a	0.01725598
192	0x3e20195c	0.15634674
193	0xbb654741	-0.0034985098
194	0x3dbe787a	0.09300323
195	0x3db09dfa	0.08623882
196	0x3dc7461f	0.097301714
197	0x3d7443d0	0.059634984
198	0x3d021f11	0.03176791
199	0x3ddaecd8	0.106897056
200	0x3e0e864a	0.13918415
201	0xbd845cdd	-0.06463025
202	0x3da661aa	0.08124097
203	0x3d57e31d	0.052706826
204	0x3db98dc9	0.090602465
205	0xbdc29203	-0.09500506
206	0xbc6b6793	-0.014367956
207	0x3c15b46f	0.009137257
208	0x3d39dfd1	0.045379464
209	0x3c94065c	0.018069439
210	0x3dbfa529	0.09357674
211	0xbdc7f3da	-0.09763308
212	0xbd40ebbc	-0.047099814
213	0xbe69970a	-0.22811523
214	0x3de71aaa	0.11284383
215	0xbe39873c	-0.18117994
216	0x3ce39f3f	0.027785895
217	0xbe1c8ca3	-0.15288024
218	0x3ce1669a	0.027514745
219	0xbde7cc37	-0.11318248
220	0x3db7f087	0.08981424
221	0xbe1dd2af	-0.154124
222	0x3dcbf9e2	0.09959771
223	0xbd7379d1	-0.059442345
224	0xbe0a09c4	-0.13480288
225	0xbd88aa39	-0.066730924
226	0xbd8128f9	-0.06306643
227	0x3e0419af	0.12900423
228	0x3e5c5b83	0.21519284
229	0x3e0e144a	0.13874927
230	0x3c925881	0.017864468
231	0x3d4459e1	0.047937278
232	0xbdef4a00	-0.11684036
233	0xbdbef3b0	-0.093238235
234	0x3e45ccce	0.19316408
235	0x3e418338	0.18897712
236	0x3dd06468	0.10175401
237	0x3d9dc057	0.077027015
238	0x3e32554b	0.17415349
239	0xbe074bb3	-0.1321247
240	0x3ce69c4b	0.028150698
241	0xbde1e02b	-0.11029085
242	0x3d81aa1f	0.06331276
243	0xbbf998df	-0.0076171006
244	0xbcb933f2	-0.022607777
245	0x3e273919	0.16330375
246	0xbd372408	-0.044712096
247	0x3df5a621	0.11994577
248	0x3d8a1fbe	0.067443356
249	0x3e43fd6f	0.19139646
250	0x3c178243	0.009247365
251	0xbcf0fddc	-0.029417925
252	0x3de1d531	0.11026991
253	0x3dbee2f2	0.0932063
254	0x3df30ac1	0.118672855
255	0xbcc547be	-0.02408206

regressors.1.lins.1.bias f4 [32]
0	0xbc2eea4e	-0.01067598
1	0xbd8c0a5e	-0.06837915
2	0xbde599c2	-0.112109676
3	0xbd3f824f	-0.04675513
4	0xbd84e15e	-0.06488298
5	0x3e69737c	0.2279796
6	0x3da39e1c	0.07989141
7	0x3b3eb781	0.0029101076
8	0x3d25138e	0.040301852
9	0x3bcdc32c	0.00627937
10	0xbdccbd03	-0.099969886
11	0xbe1cfa5a	-0.15329877
12	0x3de8a77a	0.113600686
13	0x3dd5bcc1	0.104363926
14	0xbda0b6db	-0.07847377
15	0x3dbbe6f3	0.091749094
16	0xbc8efb12	-0.017453704
17	0x3e0db175	0.13837226
18	0xbdd70788	-0.10499483
19	0x3ddef6a5	0.108868875
20	0xbd91f0f1	-0.07126034
21	0xbd16cca4	-0.036816254
22	0x3da731a6	0.081637666
23	0x3de94d3d	0.11391685
24	0xbc16a9ac	-0.009195726
25	0x3e45e9b5	0.19327433
26	0xbe40200e	-0.18762228
27	0x3e0ae399	0.13563384
28	0xbe245dac	-0.16051358
29	0x3d3970b9	0.045273516
30	0x3dbcddad	0.09221969
31	0x3dbfa94f	0.09358465

regressors.1.lins.2.weight f4 [32, 32]
0	0x3bb31bde	0.0054659685
1	0x3e1214ab	0.14265697
2	0xbde7ce99	-0.11318702
3	0xbe13cf59	-0.14434566
4	0x3eeaef16	0.45885533
5	0x3e107e45	0.14110668
6	0x3cb1f9c8	0.02172555
7	0x3dd0583d	0.1017308
8	0xbdc82aba	-0.097737744
9	0x3deff65f	0.117169134
10	0xbe3beb20	-0.18351412
11	0xbd26ad19	-0.040692423
12	0x3cb2fcbc	0.021849029
13	0x3db2c085	0.087281264
14	0x3e2d7f25	0.16943033
15	0xbe33fa4e	-0.17575952
16	0x3d7db2b7	0.061938014
17	0x3d345148	0.04402283
18	0xbde86f90	-0.11349404
19	0x3dc181e5	0.094486035
20	0x3d82439c	0.06360552
21	0xbe4db270	-0.200876
22	0x3e1054f5	0.14094909
23	0x3d8ca410	0.0686723
24	0xbdac4391	-0.08411325
25	0xbe08b3f0	-0.1334989
26	0xbd7d101b	-0.061782937
27	0x3e92c5d8	0.28666568
28	0xbccaa6f7	-0.024737818
29	0xbc8bece1	-0.017080726
30	0x3cf3cd09	0.029760854
31	0xbdce0470	-0.1005944
32	0x3d5dddfb	0.054166775
33	0x3dc00925	0.09376744
34	0xbd6abd79	-0.0573096
35	0xbe0dc1c7	-0.13843451
36	0x3e077c10	0.1323092
37	0xbe090154	-0.13379413
38	0x3c4d89e1	0.01254508
39	0xbdfa975f	-0.12235903
40	0xbe21a933	-0.157872
41	0x3e105e16	0.14098391
42	0x3dc67162	0.09689595
43	0x3dd67718	0.10471934
44	0x3e59a26a	0.21253362
45	0x3e0bd365	0.1365486
46	0x3beca57c	0.0072218757
47	0xbba18bc7	-0.004929993
48	0xbe234ba5	-0.15946825
49	0xbdc2c252	-0.0950972
50	0x3d9bb167	0.07602196
51	0xbd68561f	-0.056722756
52	0x3e0ba210	0.1363604
53	0x3d0b48ea	0.034005083
54	0x3db345ad	0.08753524
55	0xbb6ab19e	-0.0035811434
56	0xbe007bbc	-0.12547201
57	0xbd8f93de	-0.07010625
58	0x3dfef74c	0.12449512
59	0x3c36af5c	0.011150207
60	0xbdc049ea	-0.09389098
61	0x3d9576d0	0.07298052
62	0xbda9a909	-0.08284194
63	0xbd5c0ab4	-0.053721145
64	0xbe24310d	-0.16034336
65	0x3d885b1a	0.06658001
66	0x3d925bbf	0.071464054
67	0x3d52d333	0.051470947
68	0x3e4339ff	0.19065093
69	0x3e3c62a6	0.18397006
70	0x3e07fb55	0.1327947
71	0x3d705ed6	0.058684193
72	0x3d7957e9	0.060874853
73	0xbe16ff6b	-0.14745872
74	0xbe0ee3b1	-0.13954045
75	0x3dc1764e	0.09446393
76	0x3dee37d4	0.11631742
77	0xbe030c06	-0.12797555
78	0x3d85aa3d	0.06526611
79	0x3e111c3c	0.14170927
80	0x3e2b3e2c	0.16722935
81	0x3d852a7b	0.06502243
82	0x3d6c6868	0.057716757
83	0xbe4b13d1	-0.19831778
84	0xbd917338	-0.07102054
85	0x3d1bd510	0.03804499
86	0xbc25042e	-0.010071797
87	0x3da7c8cd	0.081925966
88	0x3e41d53a	0.18928996
89	0x3dda570d	0.10661135
90	0x3d93d9b0	0.07219255
91	0x3da9f133	0.08297958
92	0x3e27dad0	0.16392064
93	0xbdcf75fd	-0.10129926
94	0x3e9661ac	0.29371393
95	0x3e362228	0.17786467
96	0xba006afd	-0.0004898755
97	0xbe2315ef	-0.15926336
98	0xbd8cb5c9	-0.0687061
99	0x3e240ae8	0.16019785
100	0x3d461c2a	0.048366703
101	0x3e328d1e	0.17436644
102	0x3e11ae85	0.1422673
103	0x3ccde7a3	0.025134867
104	0xbb6cf618	-0.0036157425
105	0xbe0bb2cb	-0.13642423
106	0x3d92c910	0.07167256
107	0xbcfe6d1e	-0.03105789
108	0xbe3bf2ab	-0.18354289
109	0x3d35327d	0.044237603
110	0xbb896e9a	-0.004194093
111	0x3db3c120	0.0877707
112	0x3da6e0e6	0.08148365
113	0xbb326a12	-0.0027223867
114	0xbe0d8931	-0.13821866
115	0xbd480890	-0.04883629
116	0x3e068d83	0.1313992
117	0xbdc04fe7	-0.0939024
118	0x3cca7342	0.024713162
119	0xbe2db3ca	-0.16963115
120	0x3d42d107	0.047562625
121	0xbdc4e70c	-0.09614381
122	0x3e12a1b3	0.14319496
123	0xbe549e98	-0.20763624
124	0x3dbeb573	0.093119524
125	0xbe05aff7	-0.13055407
126	0xbdcf91f2	-0.10135259
127	0x3dcc2182	0.099673286
128	0xbd40bc5e	-0.04705464
129	0x3c3700a7	0.011169589
130	0x3e0f83e5	0.14015158
131	0x3c19bd63	0.009383532
132	0xbd9a64e9	-0.07538778
133	0x3d53b2d1	0.051684204
134	0xbe32a443	-0.17445473
135	0x3e0a24e6	0.13490638
136	0xbe29e0ef	-0.16589712
137	0xbdab068c	-0.08350858
138	0xbd44d366	-0.048053168
139	0xbe31b166	-0.17352828
140	0x3e39743d	0.18110748
141	0xbe076781	-0.13223077
142	0x3ae24c52	0.0017265177
143	0x3c77da23	0.015127691
144	0x3c66c690	0.014085427
145	0x3df017b7	0.11723273
146	0xbe3cabe0	-0.1842494
147	0xbe8340bc	-0.25635326
148	0x3da9e371	0.08295334
149	0xbd1b2ec5	-0.0378864
150	0xbe51e824	-0.20498711
151	0x3dc07c26	0.093986794
152	0x3d9d8371	0.07691086
153	0xbdf02fe9	-0.11727888
154	0x3db986ab	0.09058889
155	0xbd010b77	-0.031505074
156	0x3c9dba2d	0.019253815
157	0x3bfd99c5	0.007739278
158	0x3d8982e7	0.06714421
159	0x3e0c114e	0.13678476
160	0x3cf0f28b	0.029412528
161	0x3dc5803e	0.09643601
162	0xbe1cf39f	-0.15327309
163	0x3bf5ed36	0.0075050844
164	0x3e7523ea	0.23939481
165	0xbdd9a8f3	-0.10627928
166	0xbd65d4ee	-0.05611127
167	0x3e2158b2	0.15756491
168	0x3da45129	0.080232926
169	0xbdbddca1	-0.09270597
170	0x3ce8f4fd	0.028437132
171	0x3daa13c6	0.08304553
172	0x3ddac9c6	0.106830165
173	0x3df1f286	0.11813836
174	0x3e7a4844	0.2444163
175	0xbc5ffe41	-0.013671459
176	0x3e1024e7	0.14076577
177	0xbddf8a9b	-0.10915109
178	0x3da58f28	0.080839455
179	0xbe40a275	-0.18811972
180	0xbd8b64f9	-0.068063684
181	0x3e0c88ce	0.13724062
182	0x3d13103a	0.035904147
183	0x3da2397c	0.079211205
184	0x3e038e99	0.12847365
185	0x3e4dbcd2	0.2009156
186	0xbdf276bf	-0.11839055
187	0xbd69519a	-0.056962587
188	0xbd7b1658	-0.061300606
189	0xbc7d60b6	-0.015464952
190	0x3dee3511	0.11631215
191	0x3e0ac5ca	0.13552013
192	0x3df0051e	0.11719726
193	0x3e05b18c	0.1305601
194	0x3da9afb0	0.08285463
195	0x3bd903a2	0.0066227475
196	0xbe451a38	-0.19248283
197	0xbd3fd73e	-0.04683613
198	0xbd89448b	-0.06702527
199	0x3e29553a	0.16536418
200	0xbd158cbb	-0.036511164
201	0x3e0907c6	0.13381872
202	0x3d8e1cf0	0.06939113
203	0xbd4766b9	-0.04868195
204	0x3ea05db2	0.31321484
205	0x3dfd287a	0.12361236
206	0x3cb181f9	0.021668421
207	0x3df335d6	0.11875503
208	0xbe0b8ac4	-0.13627154
209	0x3dcae91d	0.09907744
210	0x3e29ef75	0.16595252
211	0x3c43db12	0.011954086
212	0xbe0c5299	-0.13703384
213	0xbdbfd65a	-0.09367056
214	0xbe08ebd5	-0.13371213
215	0x3e3c422d	0.18384619
216	0x3dfc61a1	0.12323309
217	0x3d20506c	0.039139196
218	0x3da15f6d	0.07879529
219	0xbdf8d0a1	-0.12149168
220	0x3decab16	0.115560696
221	0x3d4c33b2	0.049853988
222	0x3dd4ef73	0.10397234
223	0xbe3cc1ea	-0.18433347
224	0x3d939f44	0.07208112
225	0xbd36a797	-0.04459342
226	0xbd4f8b16	-0.050669752
227	0xbe259bce	-0.16172716
228	0xbad6839b	-0.0016366126
229	0x3dd650fe	0.10464667
230	0xbd4ccdca	-0.050000943
231	0xbdd70152	-0.10498299
232	0x3c4b52c7	0.012409872
233	0x3da58ac4	0.08083108
234	0xbe3f1569	-0.18660511
235	0x3dce441b	0.10071584
236	0xbef089fc	-0.46980274
237	0xbe390980	-0.1807003
238	0xbcb382c3	-0.021912938
239	0xbd8c4b58	-0.06850308
240	0xbd8805af	-0.06641709
241	0xbd984cfe	-0.0743656
242	0xbe188caf	-0.14897417
243	0xbe446373	-0.19178562
244	0x3def1854	0.11674562
245	0xbc67adc8	-0.014140554
246	0xbc10a6da	-0.008828843
247	0x3d090f26	0.033461712
248	0xbe431d6a	-0.1905419
249	0xbd5452e9	-0.05183688
250	0x3dde763a	0.10862394
251	0xbd0cd55a	-0.034383155
252	0xbd4428a0	-0.047890306
253	0xbe3d0d22	-0.18462041
254	0xbb768f8c	-0.0037622182
255	0x3dd76268	0.105168164

regressors.1.lins.2.bias f4 [32]
0	0xbc680970	-0.014162406
1	0x3dece953	0.115679406
2	0x3b5c1777	0.0033583322
3	0x3d8ea019	0.0696413
4	0xbe56ce63	-0.20977168
5	0x3d6991e3	0.057023894
6	0xbdf45691	-0.11930574
7	0x3e0b249a	0.13588181
8	0xbdbd5c3d	-0.09246109
9	0xbd34a5f9	-0.044103596
10	0x3e2ba8f2	0.16763666
11	0x3e0d5c73	0.13804798
12	0xbe0c5ba2	-0.1370683
13	0xbe334592	-0.17507008
14	0x3ddf005b	0.1088874
15	0x3e51d023	0.20489554
16	0x3dfe2a31	0.12410391
17	0xbca423a0	-0.020036519
18	0x3e086d26	0.13322887
19	0xbd187643	-0.03722216
20	0xbdbd9da8	-0.09258586
21	0x3caad4e6	0.020853471
22	0xbd8e684a	-0.06953485
23	0xbde349d5	-0.11098067
24	0x3d8da30b	0.069158636
25	0xbc380ff0	-0.011234269
26	0xbc2da899	-0.010599279
27	0xbd2d6805	-0.04233553
28	0xbd28d54e	-0.04121905
29	0x3d09defa	0.033659913
30	0x3d66598b	0.05623774
31	0x3d980796	0.07423322

regressors.1.lins.3.weight f4 [1, 32]
0	0x3dba6b5d	0.09102509
1	0xbda535d4	-0.080669075
2	0x3e4a5aee	0.1976125
3	0xbd40a6f6	-0.047034226
4	0xbd9ffcbf	-0.07811879
5	0x3dca43f1	0.0987624
6	0xbcb70079	-0.022339093
7	0xbdcf5228	-0.10123092
8	0xbdbf23d4	-0.093330055
9	0xbe26084d	-0.16214104
10	0xbe94d980	-0.2907219
11	0xbe0f02b1	-0.1396587
12	0xbe1f00d3	-0.15527658
13	0xbe2b0f3f	-0.16705035
14	0xbbc23d29	-0.005927701
15	0x3d4fc34e	0.050723366
16	0x3e1266d6	0.14297041
17	0xbe26ae5b	-0.16277449
18	0xbd8839a1	-0.06651617
19	0xbe7d3922	-0.24728826
20	0xbd9839f1	-0.074329264
21	0x3bfe7ffc	0.007766722
22	0xbe6d8e83	-0.23198895
23	0x3d7f0233	0.062257957
24	0xbde91e4b	-0.11382731
25	0xbdc29afd	-0.09502218
26	0xbd9dd792	-0.077071324
27	0x3e0d356c	0.1378991
28	0x3d9d8f11	0.076933034
29	0xbd87bf8c	-0.066283315
30	0xbdbac9b6	-0.091205046
31	0xbe206661	-0.15664054
