baseline/DLPL-CAP/models_dlpl-cap-regressor/sandwich+ultra8t_to_ssram+digtime+timing_ctrl+array_128_32_8t/dlpl-cap-regressor_nh_2_tsk_regression_ngl_4_nhl_4_hd_32_us_1_bn_0_dp_0.0_epoch_13_20250402_163443.pth (torch, 64130 bytes, 21 tensors)

regressors.0.lins.0.weight f4 [32, 64]
0	0x3b517975	0.0031963263
1	0x3d959762	0.073042646
2	0xbcd87c0e	-0.026426341
3	0x3d7e7d2b	0.06213109
4	0x3e5dad89	0.2164823
5	0x3d658755	0.056037266
6	0x3d9746d9	0.0738656
7	0xbd0c6bb5	-0.034282405
8	0xbead0ed3	-0.33800372
9	0xbe40922e	-0.18805763
10	0xbf0225db	-0.5083901
11	0x3df875ac	0.12131819
12	0xbde5d277	-0.112217836
13	0x3d8f20d2	0.06988682
14	0xbe834d90	-0.25645113
15	0xbe85fcd4	-0.26169455
16	0xbda2c815	-0.07948319
17	0x3d504cd5	0.050854523
18	0x3e540ef9	0.20708837
19	0xbe0c05b8	-0.13674057
20	0xbd59e67c	-0.053198323
21	0xbc852538	-0.016253099
22	0x3cf83d5c	0.030302696
23	0xbe5a769a	-0.21334305
24	0x3e0eec53	0.13957338
25	0xbdfaf836	-0.12254374
26	0xbdf1c6ae	-0.11805473
27	0xbe34241d	-0.17591901
28	0xbdea97b6	-0.11454718
29	0x3e36b78e	0.17843458
30	0xbdd380d2	-0.10327305
31	0x3dbc06f7	0.09181016
32	0xbd18c37e	-0.03729581
33	0x3c75bf37	0.014999202
34	0xbcc3579c	-0.023845486
35	0x3ca22134	0.019791223
36	0xbd9e680e	-0.077346906
37	0x3e5e78ad	0.21725722
38	0xbc833ae1	-0.016019287
39	0x3e3da096	0.1851829
40	0x3e0547ae	0.13015625
41	0x3e32195c	0.17392486
42	0x3d74b20b	0.059740108
43	0x3e0ba3d3	0.13636713
44	0xbeb03e99	-0.34422758
45	0x3e33476a	0.17507711
46	0xbe81c560	-0.25345898
47	0xbd2398a5	-0.039940495
48	0xbe39a24a	-0.18128315
49	0xbf2b04a3	-0.6680395
50	0xbebc4ea0	-0.36778736
51	0xbefc4384	-0.4927026
52	0xbd9da092	-0.07696642
53	0x3d3c7c78	0.04601714
54	0xbe35561f	-0.17708634
55	0xbe4794a3	-0.19490294
56	0xbe6eb542	-0.23311332
57	0xbe1785fc	-0.14797205
58	0x3bfe5254	0.007761279
59	0xbe26ec08	-0.16300976
60	0xbdf4de54	-0.11956468
61	0x3e568411	0.20948817
62	0x3de76e12	0.11300291
63	0xbdb224dd	-0.08698437
64	0xbdf076cf	-0.11741411
65	0xbc913170	-0.017723769
66	0xbdd195e4	-0.102336675
67	0xbd1ac838	-0.0377886
68	0x3da6e72a	0.0814956
69	0xbd1d2c5c	-0.038372383
70	0xbd36a953	-0.044595074
71	0x3daab6d9	0.08335657
72	0xbd84ab20	-0.06477952
73	0xbc431c20	-0.011908561
74	0xbcf2663c	-0.029589765
75	0x3c8575fb	0.016291609
76	0xbe17f4c5	-0.14839466
77	0xbd4b22d5	-0.049593765
78	0x3d9b95e4	0.07596949
79	0x3d90fa95	0.07079045
80	0x3c167e13	0.009185332
81	0xbe09a26b	-0.13440864
82	0xbdb8ed7e	-0.09029673
83	0xbdf95c9c	-0.12175867
84	0x3dc87e80	0.09789753
85	0x3c2442a0	0.01002565
86	0xbd2d3b4b	-0.042292874
87	0x3d57f7aa	0.052726425
88	0xbd8c92e9	-0.068639584
89	0x3bba3383	0.00568241
90	0x3da266ee	0.079297885
91	0xbd89ff78	-0.0673818
92	0xbcaebe48	-0.021330968
93	0xbd9fcb14	-0.07802406
94	0x3d7ff32c	0.062487766
95	0x3d2a1bf5	0.04153057
96	0xbe023732	-0.12716368
97	0xbd661728	-0.056174427
98	0xbdc9abb6	-0.098472044
99	0x3def9af9	0.116994806
100	0xbe146415	-0.14491303
101	0x3d08d6bd	0.033407915
102	0xbd43d516	-0.047810636
103	0xbda2e91e	-0.0795462
104	0xbdb8b2ea	-0.090185
105	0x3d865098	0.06558341
106	0xbdb6d886	-0.08928017
107	0xbdfdf4ed	-0.124002315
108	0xbd67bbfc	-0.05657576
109	0x3d4de1a3	0.050264012
110	0xbd9a35f4	-0.07529822
111	0xbe0742d8	-0.13209093
112	0x3d91eaa2	0.07124831
113	0xbe0830fb	-0.13299935
114	0xbdee9daa	-0.11651166
115	0x3d21e5e0	0.039525867
116	0x3cdf7138	0.027275667
117	0xbde77636	-0.11301844
118	0xbd713e9a	-0.058897592
119	0x3d979250	0.07400954
120	0xbd93db4a	-0.072195604
121	0x3d28d733	0.041220855
122	0x3cd61330	0.026132196
123	0x3dd4d0c1	0.10391379
124	0x3ddcd546	0.10782866
125	0xbd22262a	-0.039587177
126	0x3d20375c	0.039115295
127	0xbddbe0b9	-0.10736222
128	0x3d97a662	0.07404782
129	0xbd719188	-0.05897668
130	0xbe8d11f5	-0.27552763
131	0xbd664c1e	-0.056224935
132	0x3e080721	0.1328397
133	0xbe573a24	-0.21018273
134	0x3e6b6d98	0.22991025
135	0xbe1f0a00	-0.15531158
136	0xbe98cc8c	-0.29843557
137	0x3c88111f	0.016609726
138	0xbe678232	-0.2260826
139	0xbd95752d	-0.0729774
140	0xbe6db848	-0.23214829
141	0x3e3710e5	0.17877539
142	0x3e2ffd94	0.17186576
143	0xbe783fdf	-0.24243115
144	0xbe8ed2fe	-0.2789535
145	0xbe822aeb	-0.2542337
146	0xbe569fe0	-0.20959425
147	0x3e2222f8	0.15833652
148	0x3d9cfcc0	0.07665396
149	0xbd20f44c	-0.03929548
150	0xbd07a6fd	-0.033118237
151	0x3e62f6b5	0.22164424
152	0xbc5e46a2	-0.013566645
153	0x3d4dd2d3	0.050249886
154	0xbd0dc63f	-0.03461289
155	0xbe7dea47	-0.24796401
156	0x3d63e22c	0.055635616
157	0xbf045b03	-0.5170137
158	0xbd887dd6	-0.06664626
159	0x3d6aad75	0.057294328
160	0x3bdde1fb	0.0067713237
161	0xbd9c154e	-0.07621251
162	0x3dc25f03	0.09490778
163	0xbc52b315	-0.012860079
164	0xbdc8f5bf	-0.09812497
165	0xbea81c34	-0.32834017
166	0x3e784ea6	0.24248752
167	0xbe654a79	-0.2239169
168	0x3ddc3be4	0.10753611
169	0x3e270f3f	0.1631441
170	0x3dbac356	0.091192886
171	0xbe99acf9	-0.3001478
172	0x3e7db563	0.24776225
173	0xbd918523	-0.07105472
174	0x3c984e82	0.018592123
175	0x3c46450c	0.012101423
176	0x3da82350	0.0820986
177	0x3e148e7e	0.14507481
178	0xbd99e13a	-0.07513662
179	0x3daf1a8c	0.08549985
180	0x3debed24	0.1151984
181	0x3c013ad0	0.007887557
182	0xbd771812	-0.06032569
183	0xbb1792ad	-0.0023128197
184	0xbe2ed6c3	-0.17074113
185	0xbed0e58a	-0.40800124
186	0xbe2d0b4c	-0.1689884
187	0xbdde0beb	-0.10842117
188	0x3ddc1326	0.1074584
189	0xbc036426	-0.008019483
190	0x3cb0ba50	0.021573216
191	0xbe5222a2	-0.20521024
192	0xbd6eca5a	-0.058298446
193	0xbe1aaf31	-0.15105893
194	0xbf18f0c4	-0.5974238
195	0xbd057ae4	-0.0325879
196	0xbcb527e6	-0.022113752
197	0xbe137445	-0.14399822
198	0xbdd6c848	-0.10487419
199	0x3d1f8318	0.03894338
200	0x3e2eb111	0.17059733
201	0xbed5d81b	-0.41766438
202	0x3e0a708b	0.13519494
203	0xbd9d41a0	-0.076785326
204	0xbde1dc52	-0.11028351
205	0x3e577c28	0.21043456
206	0xbf5b84c5	-0.85749465
207	0xbd10fbe3	-0.035396468
208	0xbef589df	-0.4795675
209	0xbd373132	-0.04472465
210	0xbe8c8f3c	-0.2745303
211	0x3e07b4f4	0.13252622
212	0xbda42012	-0.080139294
213	0x3dff3a34	0.12462273
214	0xbe9ff1af	-0.31239077
215	0x3e93461a	0.2876442
216	0x3bbd83a3	0.0057835146
217	0xbd3c7cc9	-0.046017442
218	0x3eb31176	0.3497426
219	0x3d1864b2	0.037205406
220	0x3c7ecb50	0.015551403
221	0xbea88209	-0.3291171
222	0xbdbacaf0	-0.091207385
223	0x3d034105	0.03204443
224	0x3dec4f43	0.115385555
225	0xbd7b8939	-0.061410163
226	0xbdf73572	-0.12070741
227	0x3ca0f82b	0.019649586
228	0xbdabee69	-0.083950825
229	0xbe6a7dcb	-0.22899549
230	0xbcca6898	-0.024708077
231	0x3e326a7a	0.1742343
232	0xbe07c08c	-0.13257045
233	0xbe11fd1e	-0.14256713
234	0xbc223b58	-0.009901844
235	0x3db22fb4	0.08700505
236	0xbe423141	-0.18964101
237	0x3e4b512e	0.19855186
238	0xbf292c65	-0.66083366
239	0x3d3dc47c	0.04632996
240	0x3d71e896	0.0590597
241	0xbdc1295f	-0.09431719
242	0xbd7b70fc	-0.061387047
243	0x3e12ab5e	0.14323184
244	0x3d9d5986	0.07683091
245	0xbd4a131c	-0.04933463
246	0xbe72e4de	-0.23720118
247	0x3e239d30	0.15977931
248	0x3e214855	0.15750249
249	0x3d911256	0.070835754
250	0xbd14c594	-0.036321238
251	0x3da11ba1	0.07866598
252	0x3dd00f56	0.10159175
253	0x3e46403a	0.19360438
254	0x3df651c4	0.12027314
255	0x3ca9c72a	0.020724852

regressors.0.lins.0.bias f4 [32]
0	0xbcd3ce03	-0.02585507
1	0xbdd23c32	-0.102653876
2	0x3da3f266	0.08005218
3	0xbdac974d	-0.08427296
4	0x3e05b06d	0.13055582
5	0xbc51a404	-0.012795452
6	0x3dba69b5	0.09102193
7	0x3e189132	0.14899138
8	0x3e1e9bb6	0.15489087
9	0x3a10d921	0.0005525519
10	0x3d5ce5b4	0.05393
11	0xbda95b93	-0.082694195
12	0xbcba2e9f	-0.022727309
13	0xbddddd2b	-0.108332
14	0xbc30f533	-0.010800648
15	0xbddfc10d	-0.109254934
16	0xbd3169c8	-0.04331377
17	0xbe00b21b	-0.12567942
18	0xbe13f5dc	-0.14449257
19	0x3e258bc8	0.16166604
20	0xbde9ccbb	-0.11416002
21	0x3e71d50e	0.2361643
22	0x3e34a54d	0.17641182
23	0xbe3dc2b2	-0.18531302
24	0xbdd682ad	-0.10474143
25	0xbe01af1e	-0.12664458
26	0x3e1c7968	0.15280688
27	0xbc7806e9	-0.015138366
28	0x3e1bb239	0.15204705
29	0xbe0063ad	-0.12538023
30	0x3dca0517	0.09864252
31	0xbe3679db	-0.17819922

regressors.0.lins.1.weight f4 [32, 32]
0	0xbf1c4399	-0.61040646
1	0x3c123609	0.008924016
2	0xbee3f9f5	-0.4452664
3	0x3d82c25c	0.06384727
4	0xbe9f1c79	-0.3107641
5	0xbe372e33	-0.17888717
6	0x3e09072e	0.13381645
7	0xbf0d5a50	-0.5521593
8	0xbefe751c	-0.49698722
9	0x3d8e2727	0.069410615
10	0xbc6bec49	-0.0143995965
11	0xbe7b7131	-0.24554898
12	0x3e1525c7	0.14565192
13	0xbbf4eef1	-0.007474773
14	0x3bd127a3	0.006382899
15	0x3e5a915d	0.21344514
16	0xbd8c3cad	-0.068475105
17	0x3ca47dc8	0.020079508
18	0xbcac94c2	-0.021067027
19	0xbe2fbb15	-0.1716121
20	0xbe4c26f2	-0.19936731
21	0x3d55e44b	0.05221967
22	0xbd1d1728	-0.03835216
23	0x3e84eff3	0.25964317
24	0x3defa975	0.11702243
25	0xbd6ce1da	-0.057832576
26	0xbe81a23b	-0.25319085
27	0xbd7e0b85	-0.062022705
28	0x3c6e8f54	0.014560539
29	0xbe1cd709	-0.15316404
30	0xbd6919d0	-0.056909382
31	0x3dfceba3	0.12349632
32	0xbecb739f	-0.3973665
33	0xbe0be6b6	-0.13662228
34	0xbd8fed1a	-0.070276454
35	0xbed5be33	-0.41746673
36	0x3e654e1a	0.22393075
37	0xbd7273f1	-0.0591926
38	0xbdd72234	-0.105045706
39	0xbddcc382	-0.10779478
40	0x3e283ebf	0.16430186
41	0x3dc8373b	0.097761594
42	0x3df59fe3	0.119933866
43	0xbdd51a68	-0.10405427
44	0x3dbd35a5	0.092387475
45	0x3e6b6c80	0.22990608
46	0xbe03a9c1	-0.12857725
47	0x3dd3ae94	0.103360325
48	0xba5650ad	-0.0008175474
49	0xbefa5cfc	-0.48899066
50	0xbe1c50e9	-0.1526524
51	0xbe4c9bab	-0.19981258
52	0x3e1de329	0.15418686
53	0x3dc67e31	0.09692038
54	0xbe79a58a	-0.24379554
55	0xbdf5835a	-0.11987944
56	0xbd6de279	-0.05807731
57	0xbdb79834	-0.08964577
58	0xbc389873	-0.0112668155
59	0xbe969493	-0.29410228
60	0x3dbcc827	0.092178635
61	0x3eb18bf4	0.34677088
62	0x3c85b674	0.016322352
63	0x3e137446	0.14399824
64	0x3e857494	0.26065505
65	0xbcb90edf	-0.022590099
66	0xbe903bf4	-0.2817074
67	0xbeccb299	-0.3998001
68	0xbf634edc	-0.88792205
69	0xbd497979	-0.04918811
70	0xbcda2f89	-0.026633995
71	0xbda2c9d1	-0.0794865
72	0x3c9035ca	0.017603774
73	0xbe508f98	-0.20367277
74	0xbe2aedcf	-0.1669228
75	0x3d9e7b70	0.077383876
76	0xbef2092e	-0.4727263
77	0xbec56fdd	-0.38561907
78	0xbdd00165	-0.10156516
79	0xbe68b691	-0.22725894
80	0xbccc956f	-0.0249736
81	0x3dad6d05	0.084680595
82	0x3d0bc40a	0.034122504
83	0xbdfaa249	-0.12237985
84	0xbf173360	-0.5906277
85	0xbe9f472a	-0.3110898
86	0x3dac06de	0.08399747
87	0xbd2abf59	-0.04168639
88	0xbdecad1a	-0.11556454
89	0x3dbb1cd2	0.091363564
90	0x3d9b26c1	0.07575751
91	0xbe15dfc8	-0.14636147
92	0x3de99616	0.1140558
93	0xbda06598	-0.078318775
94	0xbe3e2400	-0.1856842
95	0xbe4eaa99	-0.20182265
96	0x3dadb37d	0.084815
97	0x3ce55528	0.027994707
98	0x3cb36fa4	0.02190382
99	0x3e2f9abb	0.17148869
100	0xbe8e2076	-0.2775914
101	0xbe56ab2c	-0.20963734
102	0xbebd41ea	-0.3696435
103	0xbe6de5ba	-0.23232165
104	0x3cc895a1	0.024485411
105	0xbdcdd0d6	-0.10049598
106	0xbe0a370b	-0.1349756
107	0x3d4c7d1d	0.049924005
108	0xbdae92d0	-0.08524096
109	0xbefee505	-0.49784103
110	0xbec0794c	-0.37592542
111	0xbe043983	-0.12912564
112	0x3d940355	0.07227198
113	0xbd9b5ab6	-0.07585661
114	0x3dec5500	0.1153965
115	0xbf14d30b	-0.58134526
116	0xbeb54f9c	-0.354123
117	0xbe0a21b1	-0.13489415
118	0x3d4b32a8	0.049608856
119	0x3dae0c1a	0.08498402
120	0xbe8178b6	-0.25287408
121	0xbd2c181f	-0.04201519
122	0xbeeb438f	-0.4594998
123	0xbeba4e19	-0.3638771
124	0xbe3bf760	-0.18356085
125	0x3a673487	0.0008819778
126	0xbd4208f3	-0.047371816
127	0xbeb654f3	-0.35611686
128	0x3c8f870e	0.017520454
129	0x3c0eae13	0.008708495
130	0xbce97e29	-0.02850254
131	0x3cdf21b1	0.027237745
132	0xbdbbd50d	-0.091714956
133	0x3e318411	0.17335536
134	0x3da9b28c	0.08286008
135	0x3d3f42b2	0.046694465
136	0xbd29cb86	-0.04145386
137	0x3d2c4c37	0.04206487
138	0xbd162560	-0.036656737
139	0xbd21b4c8	-0.039479047
140	0xbd015c71	-0.0315823
141	0x3d7ead04	0.06217672
142	0x3e235e80	0.15954018
143	0x3d4e0f93	0.05030782
144	0xbe622728	-0.2208525
145	0xbd90d8c4	-0.07072595
146	0x3e49a70c	0.1969263
147	0x3cdff968	0.027340606
148	0xbdb3ec65	-0.08785323
149	0xbd9930c0	-0.074800014
150	0xbe8b4c44	-0.27206624
151	0xbdeb3342	-0.11484386
152	0xbd64f46a	-0.055897154
153	0xbdae7cae	-0.085198745
154	0xbd7e2435	-0.06204625
155	0xbdcb38d5	-0.09922949
156	0x3ca28e3e	0.019843217
157	0x3e20de81	0.15709879
158	0xbe4f9eaf	-0.20275377
159	0x3bb068ca	0.0053835856
160	0xbf141883	-0.578499
161	0x3e10e84f	0.14151119
162	0xbf241bc7	-0.64104885
163	0x3c834f7a	0.016029108
164	0xbcb78182	-0.022400621
165	0x3dfb357a	0.12266059
166	0x3d11b1c3	0.035569917
167	0xbe9f0370	-0.3105731
168	0x3e188495	0.14894326
169	0x3d1574c9	0.036488328
170	0xbe25a3ad	-0.16175719
171	0xbcac8cb2	-0.021063183
172	0x3e582b5d	0.21110292
173	0x3cb4ca25	0.022069046
174	0xbec19b5c	-0.37813842
175	0x3e13b820	0.14425707
176	0xbe1c5036	-0.15264973
177	0xbd5d887c	-0.05408524
178	0xbe6f33a4	-0.23359543
179	0xbea9dcc4	-0.33176243
180	0x3c905e2e	0.017623033
181	0xbea1b62a	-0.31584293
182	0x3d3a70a9	0.045517597
183	0xbec89027	-0.3917248
184	0x3e39d732	0.18148497
185	0xbc2c226e	-0.010506256
186	0x3de59a18	0.11211032
187	0xbeaccb23	-0.3374873
188	0x3d90bd20	0.07067323
189	0x3cafcdeb	0.021460494
190	0x3e01bbd9	0.12669314
191	0xbeb7c9d6	-0.35896176
192	0x3d9971aa	0.07492383
193	0xbdb3d8a1	-0.08781553
194	0xbd2b93d0	-0.04188901
195	0xbe5ebc1d	-0.21751447
196	0xbe60c36f	-0.21949552
197	0x3e0f81ea	0.14014402
198	0xbdbac0e0	-0.09118819
199	0xbc8e49e3	-0.017369216
200	0xbda7c99f	-0.08192753
201	0x3d962d69	0.0733288
202	0x3e1d9921	0.15390445
203	0xbea8d603	-0.32975778
204	0xbe678a67	-0.2261139
205	0x3d88c740	0.06678629
206	0x3e1c6c15	0.15275605
207	0x3d6b791f	0.057488557
208	0xbe6cba1d	-0.23117872
209	0x3dacbd41	0.08434535
210	0x3daba29e	0.08380626
211	0x3df77288	0.12082392
212	0x3de8f0f2	0.11374082
213	0xbee53711	-0.44768575
214	0xbedca115	-0.43091646
215	0x3d6a888d	0.05725913
216	0xb8711c65	-5.7485322e-05
217	0x3d2a3a43	0.04155947
218	0x3d6db5f7	0.058034863
219	0x3d130387	0.035892036
220	0xbe4d96b8	-0.20077026
221	0xbe32f59c	-0.17476505
222	0x3dbb1a4a	0.091358736
223	0xbdd64c15	-0.1046373
224	0xbd9fedd1	-0.07809032
225	0xbdc88526	-0.09791021
226	0x3e3c3d85	0.18382843
227	0x3d987ed9	0.07446069
228	0xbe1d92a6	-0.15387973
229	0xbdb6b9c7	-0.08922153
230	0xbe83a709	-0.25713375
231	0x3d8376b0	0.06419122
232	0xbd3fdf32	-0.046843715
233	0x3bb75f44	0.0055960733
234	0xbd0e2cd3	-0.034710716
235	0xbe4d7a47	-0.20066176
236	0xbe679898	-0.22616804
237	0x3e0a837a	0.13526717
238	0x3c419553	0.011815387
239	0x3e7c45bf	0.24635981
240	0xbe6ca5b5	-0.23110087
241	0xbe9a7c48	-0.30172944
242	0x3e884b12	0.26619774
243	0x3e2484fd	0.16066356
244	0xbdef20c6	-0.11676173
245	0xbde8ef29	-0.11373741
246	0x3e126cd2	0.14299324
247	0xbf50fad1	-0.81632715
248	0x3e2117b4	0.15731698
249	0xbd2cbb0e	-0.042170577
250	0xbd4c902e	-0.049942188
251	0xbd998dc4	-0.07497743
252	0xbe86eda9	-0.26353195
253	0x3f0711a8	0.52761316
254	0x3d9d469d	0.07679484
255	0xbcf1b5bf	-0.029505609

regressors.0.lins.1.bias f4 [32]
0	0xbdc44342	-0.09583141
1	0xbdbe684d	-0.092972375
2	0xbdaf10ea	-0.08548148
3	0xbe19e74a	-0.15029636
4	0xbe7b681b	-0.24551432
5	0xbe67abe0	-0.22624159
6	0xbda2e5a4	-0.07953957
7	0xbcfca5a4	-0.030840702
8	0x3e007ce2	0.12547639
9	0xbdaf4cb6	-0.08559553
10	0x3e47c1eb	0.19507568
11	0xbe1c77cd	-0.15280075
12	0xbe9aec34	-0.30258334
13	0xbd88ebaa	-0.06685574
14	0x3e5f4ee1	0.21807434
15	0xbe846f8c	-0.25866354
16	0xbe2214f1	-0.15828301
17	0x3eb356c2	0.35027128
18	0xbc1e4dbb	-0.009662087
19	0x3dd16d20	0.10225892
20	0x3e884972	0.26618534
21	0x3cd6cc80	0.02622056
22	0xbec3a098	-0.3820846
23	0xbd9e2554	-0.077219635
24	0xbe1c5dda	-0.15270177
25	0xbdef9a09	-0.11699302
26	0xbcfcc303	-0.030854708
27	0xbe820ddb	-0.25401196
28	0x3d9fe146	0.078066394
29	0x3d48f1a4	0.04905857
30	0x3de4d2e9	0.111730404
31	0x3e15296d	0.14566584

regressors.0.lins.2.weight f4 [32, 32]
0	0x3e1964a6	0.149798
1	0x3dd8282d	0.10554538
2	0xbd8be5ff	-0.06830978
3	0xbd929127	-0.07156592
4	0xbb6df923	-0.0036311827
5	0xbe2b107b	-0.16705506
6	0xbdd2f1ef	-0.103000514
7	0xbdce2755	-0.10066096
8	0x3e0c71cf	0.1371529
9	0xbdd80acf	-0.105489366
10	0xbddfe03b	-0.109314404
11	0xbe0601d9	-0.13086642
12	0xbc90981c	-0.017650656
13	0xbdd7b59d	-0.10532687
14	0xbe20abbe	-0.15690514
15	0x3e2f60e8	0.1712681
16	0xbd899bd7	-0.06719177
17	0xbc55bf48	-0.013046093
18	0x3cbe02ac	0.023194633
19	0x3c1aa595	0.009438892
20	0x3d523df1	0.051328603
21	0x3da1cdf6	0.07900612
22	0xbd89989a	-0.067185596
23	0xbd904874	-0.07045069
24	0xbca9ace8	-0.020712331
25	0xbe2a0c07	-0.1660615
26	0xbdc031b7	-0.09384482
27	0x3d9c3727	0.07627707
28	0xbb0b176c	-0.0021223677
29	0xbdf4115e	-0.11917375
30	0xbdeb474d	-0.11488209
31	0xbd683d24	-0.056698933
32	0x3d391e35	0.045194823
33	0x3e9dc81b	0.3081673
34	0xbe095b88	-0.13413823
35	0xbe0150b0	-0.12628436
36	0xbe92e758	-0.28692126
37	0x3e0e0b4f	0.13871501
38	0xbe5c85ce	-0.21535417
39	0xbe677f1d	-0.22607084
40	0xbe3b974a	-0.18319431
41	0xbd1250b9	-0.035721514
42	0xbe996484	-0.299595
43	0x3d13d533	0.036091994
44	0xbb439474	-0.0029843124
45	0xbe938815	-0.2881476
46	0x3cf4eb22	0.029897276
47	0x3d373a40	0.044733286
48	0x3ed43da1	0.4145327
49	0xbd0195b1	-0.031636897
50	0xbe00b54a	-0.12569156
51	0x3e2ed494	0.1707328
52	0x3e33ac6e	0.17546245
53	0x3d8b2d78	0.06795782
54	0x3dd5ca66	0.10438995
55	0x3e4dde05	0.20104225
56	0x3c86ff97	0.016479297
57	0x3d566dd2	0.052350827
58	0xbe99c2a0	-0.300313
59	0xbe1f7c64	-0.15574795
60	0xbdd4e4e7	-0.10395222
61	0xbdb94744	-0.09046796
62	0x3d21930d	0.03944688
63	0x3d881a9a	0.06645699
64	0x3dbcfb59	0.09227628
65	0xbe2bd834	-0.16781694
66	0xbe3a389a	-0.18185654
67	0xbe079806	-0.13241586
68	0x3c2b11e4	0.010441277
69	0x3e15398d	0.14572735
70	0xbe99f028	-0.30066037
71	0xbe9eec3d	-0.3103961
72	0xbec36c8c	-0.38168752
73	0x3db56634	0.08857384
74	0x3d9e1045	0.07717947
75	0x3de03521	0.109476335
76	0x3e296a8e	0.16544554
77	0xbbe4f187	-0.0069868
78	0xbd3126d6	-0.043249927
79	0x3ea86907	0.3289263
80	0x3e9a71ed	0.30165043
81	0x3d907c97	0.070550136
82	0xbd836b6f	-0.06416976
83	0xbdfa9cab	-0.12236913
84	0x3ddfde99	0.10931129
85	0x3cf13130	0.0294424
86	0x3e7c9c94	0.24669105
87	0x3e804b24	0.25057328
88	0xbebf4bf1	-0.37362626
89	0x3cda2d72	0.026632998
90	0x3eac8643	0.33696184
91	0x3c5d791a	0.013517642
92	0xbde69bda	-0.11260195
93	0x3e3a3faf	0.18188356
94	0x3d7d3046	0.061813615
95	0xbb2cbc1e	-0.0026357244
96	0xbdac0866	-0.084000394
97	0xbd8c6f8c	-0.068572134
98	0xbe38cd60	-0.18047094
99	0xbd0ef2f4	-0.034899667
100	0xbe0408e7	-0.12894021
101	0x3d98b17a	0.07455726
102	0xbd64215b	-0.055695873
103	0xbc63a869	-0.013895133
104	0x3dbbdd91	0.0917312
105	0x3d8b002e	0.06787144
106	0xbd413925	-0.047173638
107	0xbc9c3c25	-0.019071648
108	0xbd06ad5d	-0.032880176
109	0xbe1eb810	-0.15499902
110	0xbe165662	-0.1468139
111	0xbbc5c7cd	-0.006035781
112	0x3e194fa4	0.14971787
113	0xbd50d099	-0.050980184
114	0x3d5dee5d	0.0541824
115	0x3d2958f4	0.041344598
116	0xbe324393	-0.1740859
117	0x3d800bb2	0.06252231
118	0x3d6c34bd	0.057667483
119	0xbe06712e	-0.13129112
120	0xbdf1987a	-0.11796661
121	0xbe089ec9	-0.13341822
122	0xbdcf24ef	-0.101144664
123	0xbdb3caee	-0.0877894
124	0xbd531fd8	-0.05154404
125	0x3c8b470c	0.017001651
126	0xbe00a011	-0.1256106
127	0xbe1e0048	-0.15429795
128	0xbe18f64c	-0.14937705
129	0xbddad1d9	-0.106845565
130	0x3bb05de5	0.005382287
131	0xbdac301e	-0.08407615
132	0xbddcf347	-0.10788589
133	0x3e189c08	0.14903271
134	0xbd3b4893	-0.04572351
135	0xbe2531f6	-0.1613234
136	0x3dab5494	0.08365741
137	0xbd6346d7	-0.05548748
138	0xbe24c8ed	-0.16092272
139	0x3e0a8493	0.13527136
140	0xbd7899b4	-0.060693458
141	0xbe031044	-0.12799174
142	0xbd217667	-0.039419558
143	0xbd4a7e27	-0.049436715
144	0x3dfd5a28	0.123707116
145	0x3d6d38bb	0.05791543
146	0xbcd76b05	-0.026296148
147	0xbd4f945b	-0.050678592
148	0x3c54fe6e	0.013000114
149	0xbc0b02d9	-0.008484566
150	0xbdf0ca9e	-0.11757396
151	0x3c52d0bd	0.01286715
152	0x3d2c6495	0.04208811
153	0x3e43cc5e	0.19120929
154	0xbe353e01	-0.17699434
155	0xbe2d7032	-0.1693733
156	0xbe24339a	-0.1603531
157	0xbe7d168d	-0.24715634
158	0xbdb9123c	-0.09036681
159	0x3cf21e20	0.02955538
160	0xbe1e4226	-0.15454921
161	0x3d9baed9	0.07601709
162	0x3e263c37	0.16233908
163	0x3dac40e5	0.08410815
164	0xbe9186a4	-0.28423035
165	0x3d45201e	0.048126332
166	0x3dd05933	0.101732634
167	0x3ddcedd7	0.10787552
168	0xbe4887f6	-0.19583115
169	0x3de070fc	0.1095905
170	0x3d2e1b12	0.042506285
171	0x3cbcaa22	0.023030344
172	0x3da23753	0.079207085
173	0xbe1a7bd9	-0.15086307
174	0xbe3d1eb4	-0.18468744
175	0xbe2f1390	-0.17097306
176	0xbe2eacaa	-0.17058054
177	0xbe135cb7	-0.14390837
178	0x3d7c3309	0.06157211
179	0x3d479df0	0.048734605
180	0x3b2b47fb	0.0026135433
181	0xbe03f3cb	-0.12885968
182	0x3ce2a5a7	0.02766688
183	0xbd96dd0a	-0.073663786
184	0xbca92cbd	-0.020651216
185	0xbe6953d2	-0.22785881
186	0xbe182744	-0.14858729
187	0xbe05a140	-0.13049793
188	0xbbc42c5d	-0.005986734
189	0xbe75344b	-0.2394573
190	0xbe77f5c4	-0.24214846
191	0xbe197c41	-0.14988805
192	0xbd5d2f38	-0.05400011
193	0x3d792e9c	0.060835466
194	0x3d4e12ff	0.050311085
195	0xbd9b98ee	-0.075975284
196	0xbdaaf22a	-0.083469704
197	0xbebc5946	-0.3678686
198	0xbdcc8bc4	-0.09987596
199	0xbe0a5f50	-0.13512921
200	0xbead8874	-0.33893168
201	0xbde8f5a9	-0.11374981
202	0xbda8bd19	-0.082391925
203	0x3d9d2885	0.07673744
204	0x3e679c00	0.22618103
205	0x3dfaca82	0.122456565
206	0xbd5129e3	-0.051065337
207	0x3da30402	0.07959749
208	0xbe71b4c4	-0.23604113
209	0x3d3b9fe1	0.04580677
210	0xbc3f1438	-0.011662535
211	0xbd6bd981	-0.057580475
212	0xbe0d2ce9	-0.13786663
213	0xbce651d9	-0.0281152
214	0x3d9de28f	0.07709228
215	0xbe9b0b4a	-0.3028205
216	0xbcc4b064	-0.02400989
217	0xbe1f5da3	-0.15563063
218	0xbcecf8c2	-0.02892721
219	0xbea22d88	-0.31675363
220	0xbed1ed25	-0.4100124
221	0x39b5c594	0.00034670217
222	0x3d11adfd	0.03556632
223	0xbe47f6de	-0.19527766
224	0xbe981a68	-0.29707646
225	0xbebe4ee0	-0.37169552
226	0xbe394532	-0.18092802
227	0x3c957f09	0.018249052
228	0xbd36eb0f	-0.044657763
229	0xbd2376e2	-0.039908297
230	0x3df24888	0.118302405
231	0xbdc103d5	-0.09424559
232	0x3c7cead5	0.015436848
233	0x3d904691	0.070447095
234	0xbb3eae41	-0.0029095563
235	0xbdf02449	-0.11725671
236	0xbd672c12	-0.056438513
237	0xbe861d8d	-0.2619442
238	0xbdae5405	-0.08512119
239	0x3d700b57	0.058604565
240	0xbe1745e3	-0.14772753
241	0xbca0d8ae	-0.01963457
242	0xbe58ce6f	-0.21172498
243	0xbe0682bf	-0.13135813
244	0xbe5222c4	-0.20521075
245	0xbcdca59f	-0.026934443
246	0x3ec367cf	0.38165137
247	0x3da49e34	0.08037987
248	0xbea6b25b	-0.3255795
249	0xbdad8aea	-0.084737614
250	0x3e09c29b	0.13453142
251	0x3d0be244	0.03415133
252	0xbdb819b3	-0.08989277
253	0xbd632228	-0.055452496
254	0x3e08d0a5	0.13360842
255	0xbe2d74a4	-0.16939026

regressors.0.lins.2.bias f4 [32]
0	0xbe1ee8a2	-0.1551843
1	0xbdd56e4b	-0.10421427
2	0xbe960eb6	-0.293081
3	0xbe208af5	-0.15678008
4	0xbe325907	-0.17416774
5	0x3de7134f	0.1128298
6	0x3e483451	0.19551207
7	0xbe8da4a4	-0.27664673
8	0xbe5766ff	-0.21035384
9	0x3e5a5830	0.21322703
10	0x3b2cc2ba	0.0026361183
11	0xbcbb56b9	-0.022868501
12	0x3ee06b0a	0.43831664
13	0x3ec535bd	0.38517562
14	0xbe3bd354	-0.18342334
15	0x3d1d88ae	0.038460426
16	0x3eaf0091	0.3418012
17	0xbda08f4e	-0.07839833
18	0xbe6d1ec5	-0.23156269
19	0x3e933b3b	0.28756127
20	0xbe70af97	-0.23504482
21	0x3e9110b5	0.2833306
22	0xbe7d320e	-0.24726126
23	0xbe00351e	-0.12520263
24	0xbdc1416b	-0.094363056
25	0xbe2e1ed4	-0.17003947
26	0xbdbeace3	-0.09310319
27	0x3e9314be	0.28726763
28	0xbdaef926	-0.08543615
29	0x3df97709	0.12180907
30	0x3ea947c7	0.33062574
31	0x3c8442f6	0.01614521

regressors.0.lins.3.weight f4 [1, 32]
0	0x3df3afd5	0.11898772
1	0xbe83d252	-0.257464
2	0xbe15d506	-0.14632043
3	0xbd8717b3	-0.06596317
4	0xbdcd9b58	-0.10039395
5	0xbd52b3cd	-0.051441003
6	0x3de197a7	0.110152535
7	0x3c9bcf4c	0.019019745
8	0x3c71344a	0.014721939
9	0x3d243c77	0.040096726
10	0xbc2e8158	-0.010650955
11	0xbe1050cf	-0.14093326
12	0x3e73a570	0.23793578
13	0x3e2b07d3	0.16702203
14	0xbe42e26a	-0.19031683
15	0xbc264e0d	-0.010150445
16	0x3dddb076	0.10824673
17	0xbd777a4c	-0.060419366
18	0xbca06de0	-0.019583642
19	0x3d498984	0.04920341
20	0xbe4a7537	-0.19771276
21	0x3e087c03	0.13328557
22	0x3d280957	0.041024532
23	0x3cfc2c8c	0.03078296
24	0x3b995a18	0.0046799295
25	0xbe1c19b4	-0.1524418
26	0xbd78be6d	-0.06072848
27	0x3e27f570	0.1640222
28	0x3c11c99a	0.008898163
29	0x3dced09a	0.10098381
30	0x3d87239e	0.0659859
31	0xbb292b15	-0.0025813032

regressors.1.lins.0.weight f4 [32, 64]
0	0x3e773aec	0.2414357
1	0xbe20fdf4	-0.15721875
2	0x3de02bbb	0.10945841
3	0x3b92e340	0.0044826567
4	0xbd9f44b1	-0.07776774
5	0xbe99735e	-0.2997083
6	0xbe68bfc6	-0.22729406
7	0x3d2cd9df	0.042199966
8	0xbc3f2988	-0.011667617
9	0xbeeb262d	-0.45927563
10	0x3c96dd8a	0.018416185
11	0x3c204e2f	0.009784265
12	0xbf64f2ff	-0.8943328
13	0x3e3890ad	0.1802394
14	0x3e0e720a	0.1391069
15	0xbe6f6d54	-0.23381549
16	0x3c86808b	0.016418716
17	0x3dcf719c	0.10129091
18	0x3e1dff2d	0.15429373
19	0xbd6c7182	-0.057725437
20	0xbdcb3a10	-0.09923184
21	0x3d938198	0.072024524
22	0xbbd98461	-0.0066380952
23	0xbe401a78	-0.18760097
24	0x3e447276	0.19184288
25	0xbe0be188	-0.13660252
26	0x3e84d305	0.25942245
27	0xbd6e51be	-0.058183424
28	0x3d2a1840	0.041527033
29	0x3d6fb66f	0.05852359
30	0x3da3e6d8	0.08003014
31	0xbc732d10	-0.014842287
32	0xbec6a988	-0.38801217
33	0x3cec4d28	0.028845385
34	0x3d2e350c	0.04253106
35	0xbe304e91	-0.1721747
36	0x3dd3ffbd	0.103515126
37	0xbe653fe0	-0.22387648
38	0xbe618fe1	-0.22027542
39	0x3d9b22fa	0.075750306
40	0xbdfa2756	-0.12214534
41	0xbf151550	-0.58235645
42	0xbeb008ba	-0.34381658
43	0x3e0e9195	0.13922723
44	0x3b4d5bc2	0.003133521
45	0x3e0ef3d7	0.13960205
46	0x3e370fe5	0.17877157
47	0x3da79c44	0.08184102
48	0x3e0f9bc1	0.14024259
49	0xbe190162	-0.14941934
50	0xbe1a7cda	-0.1508669
51	0x3d38b44e	0.045093827
52	0xbd5419f8	-0.05178258
53	0xbd9ca624	-0.07648876
54	0xbef2b9bc	-0.4740733
55	0xba2fd754	-0.00067078066
56	0xbe4ec78e	-0.20193312
57	0xbef176ef	-0.47161052
58	0xbe2ad90d	-0.16684361
59	0x3cf72c12	0.030172382
60	0x3d11b228	0.035570294
61	0xbe3751ce	-0.179023
62	0x3de6150c	0.11234483
63	0x3df3a29f	0.11896252
64	0xbe12b597	-0.14327084
65	0x3e50b98d	0.20383282
66	0x3dc7e67f	0.097607605
67	0xbdba1696	-0.09086339
68	0x3ded88ea	0.1159838
69	0x3e8d0310	0.275414
70	0x3e1a6769	0.1507851
71	0x3d019b60	0.031642318
72	0xbb51c403	-0.0032007701
73	0xbcb9dd46	-0.02268852
74	0x3e196bc2	0.14982513
75	0xbd9d5f6e	-0.076842174
76	0xbe0572b5	-0.13032039
77	0xbe710493	-0.23536901
78	0x3e12c086	0.14331254
79	0x3e9b0bcb	0.30282435
80	0x3d2cd0ec	0.04219143
81	0xbe0cd7e6	-0.13754234
82	0x3e3874f0	0.18013358
83	0x3e8cfc1f	0.27536103
84	0x3dd25e00	0.10271835
85	0x3dcf59e8	0.1012457
86	0xbdad50b9	-0.08462662
87	0x3e68aa69	0.22721256
88	0xbe981a95	-0.2970778
89	0xbe18a2b6	-0.1490582
90	0xbc487367	-0.012234545
91	0x3d100766	0.035163306
92	0xbd3229ac	-0.043496773
93	0x3e1ff31b	0.15620081
94	0xbd0ce244	-0.03439547
95	0xbedeeac3	-0.43538484
96	0xbe3d0867	-0.18460236
97	0xbd53793c	-0.05162929
98	0xbd9495e6	-0.07255153
99	0x3b5dc079	0.0033836646
100	0x3e941441	0.28921703
101	0x3e5815ee	0.21102116
102	0x3e8f817a	0.2802847
103	0xbdcad94a	-0.09904726
104	0x3df9f0ad	0.122041084
105	0x3c8c85b8	0.017153606
106	0x3d5f9162	0.054582007
107	0x3b89916e	0.004198245
108	0xbd043569	-0.0322775
109	0x3dc3b861	0.09556652
110	0x3dcf913b	0.101351224
111	0xbe433baf	-0.19065736
112	0x3e1126cc	0.14174956
113	0x3e3df4f3	0.18550472
114	0xbdd8038d	-0.10547552
115	0xbd6d4f65	-0.057937045
116	0x3d1db630	0.038503826
117	0xbd18c244	-0.03729464
118	0xbcb2768b	-0.021785041
119	0xbe127b5a	-0.14304867
120	0xbebd1aa7	-0.36934397
121	0xbe566597	-0.20937191
122	0xbe818079	-0.2529333
123	0x3d9940b6	0.07483046
124	0x3d287204	0.04112436
125	0xbc266cb8	-0.0101577565
126	0xbcbb0530	-0.022829622
127	0xbe01a88b	-0.1266195
128	0x3e55ce32	0.20879439
129	0x3e1d9397	0.15388332
130	0xbe5cf4df	-0.21577786
131	0x3d9f2cbe	0.07772206
132	0x3e8e4162	0.27784258
133	0x3e7cb22c	0.24677342
134	0xbda24da6	-0.079249665
135	0x3c0c794b	0.00857384
136	0x3da4c726	0.08045797
137	0x3e216f9f	0.15765236
138	0xbd530f71	-0.051528398
139	0xbe182b00	-0.14860153
140	0x3ef3d474	0.47623026
141	0xbe811279	-0.25209406
142	0xbe2d783b	-0.16940396
143	0xbc9ecdde	-0.019385274
144	0x3d8be4e6	0.06830768
145	0x3d5a9c50	0.053371727
146	0xbc1a9932	-0.009435939
147	0x3a9773a9	0.0011554855
148	0x3bc39be0	0.0059695095
149	0x3d87892e	0.06617962
150	0xbe85e693	-0.26152477
151	0xbe94bc53	-0.2904993
152	0xbe93e16d	-0.28882924
153	0x3ebd7442	0.3700276
154	0x3df687f0	0.12037647
155	0xbb86595e	-0.004100009
156	0xbda8b458	-0.08237523
157	0x3e1568ff	0.14590834
158	0xbdac9c9a	-0.08428307
159	0xbc8c9370	-0.017160147
160	0x3d0cd4a7	0.03438249
161	0xbe4709e4	-0.19437367
162	0xbe3449ad	-0.1760623
163	0x3d022af7	0.031779256
164	0xbe282b68	-0.16422808
165	0x3e68527f	0.2268772
166	0xbe45b2c7	-0.1930648
167	0xbd90d52a	-0.07071908
168	0xbeaa4fb5	-0.33263937
169	0x3dfe93a5	0.12430505
170	0xbe80155f	-0.25016305
171	0x3d7105ff	0.05884361
172	0xbc2fe4d6	-0.010735711
173	0xbd8a6870	-0.06758201
174	0xbdbffc1c	-0.09374258
175	0x3e30f574	0.17281133
176	0xbdfa1097	-0.122101955
177	0xbd98c5ac	-0.07459578
178	0x3d65de08	0.05611995
179	0x3d9fab3c	0.07796332
180	0x3d912fa2	0.07089163
181	0xbdabcd8c	-0.08388814
182	0xbe37dd74	-0.17955571
183	0x3e27a71e	0.16372344
184	0x3e87b3f5	0.26504484
185	0xbdd4650e	-0.10370837
186	0x3e5b79f2	0.21433237
187	0xbd96a55c	-0.073557585
188	0xbbc373e0	-0.005964741
189	0x3e8ee16c	0.27906358
190	0xbcfaba88	-0.030606523
191	0xbbc92cc8	-0.0061393715
192	0x3e33d2d9	0.17560901
193	0x3e28f303	0.16498952
194	0xbe2b0831	-0.16702344
195	0xbd8ba8bc	-0.06819293
196	0x3d9847e1	0.07435585
197	0xbe49c2a6	-0.19703159
198	0xbeada07d	-0.33911505
199	0xbeb4f820	-0.35345554
200	0x3d9592d9	0.073033996
201	0xbe34d462	-0.17659143
202	0xbf130f06	-0.574448
203	0x3d0e6834	0.034767345
204	0xbc9159d3	-0.017743027
205	0xbe9e63c1	-0.3093548
206	0xbd6ef1ef	-0.058336195
207	0x3eb33cd8	0.35007358
208	0x3dc7ccfd	0.09755895
209	0xbda36641	-0.07978488
210	0x3d74ac07	0.05973437
211	0xbe9705ff	-0.29496762
212	0xbd1f8bb0	-0.038951576
213	0xbcd4db28	-0.025983408
214	0xbba7cf96	-0.0051211817
215	0xbe9f273a	-0.31084615
216	0xbe150bce	-0.14555284
217	0x3e606efc	0.21917337
218	0x3e6f7634	0.23384935
219	0x3df77e8f	0.12084686
220	0xbd807f9e	-0.06274341
221	0x3dbb4d32	0.09145583
222	0x3d17fae4	0.037104502
223	0x3e27ef71	0.16399933
224	0xbd9fc16e	-0.07800566
225	0xbdfd808f	-0.12378036
226	0x3e7d1fec	0.24719208
227	0x3de32685	0.110913314
228	0xbe0c55e0	-0.13704634
229	0xbc338da7	-0.0109590655
230	0x3dd2ce71	0.10293282
231	0x3dc20264	0.09473112
232	0xbd0b0b7e	-0.033946507
233	0xbda233e6	-0.07920055
234	0xbe7e8960	-0.24857092
235	0xbb9f706c	-0.0048656967
236	0xbefd323f	-0.49452397
237	0x3e1e7473	0.1547411
238	0xbdabb304	-0.08383754
239	0xbe2fd034	-0.17169267
240	0x3e7adc57	0.24498115
241	0xbe1c6723	-0.15273719
242	0xbe2f20d2	-0.17102364
243	0x3e6647dd	0.22488351
244	0x3dfd15fe	0.1235771
245	0x3dcd0794	0.10011211
246	0x3de8baeb	0.11363777
247	0xbc8eab75	-0.017415741
248	0xbd457511	-0.048207346
249	0x3e3ed82f	0.18637155
250	0xbf32c92c	-0.69838214
251	0xbe821a16	-0.25410527
252	0xbd9eddf4	-0.07757178
253	0xbe6f32e1	-0.23359253
254	0xbd957c10	-0.07299054
255	0x3e524eb9	0.20537843

regressors.1.lins.0.bias f4 [32]
0	0xbd48c614	-0.049017027
1	0x3e296d5e	0.16545627
2	0xbd42970b	-0.047507327
3	0xbe2a74fb	-0.16646187
4	0x3ea4c1dc	0.32179153
5	0x3e40e639	0.18837823
6	0x3c50dbf5	0.012747754
7	0xbe243e65	-0.16039427
8	0x3d97ee7b	0.074185334
9	0x3e099bf7	0.13438402
10	0xbe225469	-0.15852512
11	0xbdef0bbd	-0.11672161
12	0x3da1a884	0.0789347
13	0x3e697068	0.22796786
14	0x3dcd88b3	0.10035839
15	0x3e92f391	0.2870145
16	0x3e256ab6	0.16153988
17	0xbd1df744	-0.03856589
18	0xbcd0b3ba	-0.025476325
19	0x3e9ad614	0.30241454
20	0x3c4e4e11	0.012591855
21	0x3e9ddb07	0.30831167
22	0xbe33c202	-0.17554477
23	0xbe23815f	-0.1596732
24	0x3e514cce	0.20439455
25	0x3d12478b	0.03571276
26	0xbe43da46	-0.19126233
27	0x3e4aec08	0.19816601
28	0x3d0dda5f	0.034632083
29	0x3e8b76f0	0.2723918
30	0x3e849d92	0.25901467
31	0xbbd859e1	-0.0066025113

regressors.1.lins.1.weight f4 [32, 32]
0	0xbd405812	-0.04695899
1	0xbf2c4c62	-0.6730405
2	0xbd987764	-0.07444647
3	0x3e87f822	0.26556498
4	0xbf2ab7c0	-0.6668663
5	0xbf049562	-0.5179044
6	0x3e0cc6a5	0.13747652
7	0x3e108f6f	0.14117216
8	0xbec77379	-0.38955286
9	0xbe20e3b7	-0.15711866
10	0x3dd93d93	0.106074475
11	0x3f02c33f	0.5107917
12	0x3db75d95	0.08953396
13	0x3d3d5306	0.046221755
14	0xbeb3fbba	-0.3515299
15	0x3d8dcca3	0.06923797
16	0xbb9b9ed2	-0.0047491575
17	0x3e6ecbec	0.23319978
18	0x3d83f52b	0.064432465
19	0x3df9e635	0.12202112
20	0xbbaa8271	-0.005203538
21	0xbf83a26a	-1.028394
22	0xbdeef24d	-0.11667309
23	0xbc9c7cd6	-0.019102495
24	0x3e1a2d11	0.15056254
25	0x3e1cc396	0.15308985
26	0xbe42035d	-0.18946595
27	0xbd20cc88	-0.039257556
28	0xbf2e1b96	-0.6801084
29	0xbeb6c08f	-0.35693786
30	0x3e9fd094	0.3121382
31	0x3d8262a5	0.06366471
32	0x3d78662e	0.06064432
33	0xbd5d1bd7	-0.05398163
34	0xbdeb4bdc	-0.114890784
35	0x3e1e5611	0.15462519
36	0x3cf3251e	0.029680785
37	0x3e8f5edd	0.28002062
38	0xbcd1c8ac	-0.025608383
39	0x3e0b4702	0.13601306
40	0xbd32a658	-0.04361567
41	0x3e8133df	0.25234887
42	0xbf07b1dc	-0.53005767
43	0xbb819a34	-0.00395515
44	0x3dd97636	0.1061825
45	0x3e2e8314	0.1704219
46	0xbe565582	-0.20931056
47	0xbc5b6c95	-0.013392587
48	0xbe58e7dd	-0.21182199
49	0xbda6f170	-0.08151519
50	0x3e2d72cf	0.16938327
51	0x3db44170	0.08801544
52	0xbe0fecdf	-0.14055203
53	0xbe63f19e	-0.22260138
54	0x3e1cf6e9	0.15328564
55	0x3d9f83da	0.077888206
56	0x3ebf2f21	0.37340644
57	0xbd81856e	-0.06324278
58	0x3e3d74f9	0.18501653
59	0x3e121749	0.14266695
60	0x3baae3cf	0.005215145
61	0x3dfd68ba	0.12373491
62	0x3e9e49ce	0.30915684
63	0x3e4954f7	0.19661318
64	0x3db28db2	0.087184325
65	0x3e1fd91b	0.15610163
66	0xbdb05fde	-0.08612035
67	0xbe4ca313	-0.19984083
68	0xbdef3404	-0.11679843
69	0x3e035672	0.12825945
70	0x3e41c13c	0.1892137
71	0x3c40dd70	0.011771545
72	0xbe980340	-0.2968998
73	0x3ebf182e	0.37323135
74	0x3bf67b2b	0.007522007
75	0xbeb443bc	-0.35207927
76	0x3dce0cf2	0.10061063
77	0xbda4e003	-0.08050539
78	0x3e371fa3	0.17883162
79	0xbd6ddfcc	-0.058074757
80	0xbda42a2a	-0.08015855
81	0xbea0c10b	-0.3139728
82	0x3dac3cba	0.0841002
83	0xbe81e0e3	-0.25366887
84	0x3de551de	0.111972556
85	0x3e73c184	0.23804289
86	0x3e469a46	0.19394788
87	0x3e149872	0.14511278
88	0xbc1246c4	-0.008928005
89	0x3dabaffb	0.08383175
90	0xbbd3d19f	-0.0064641978
91	0x3d8d23e3	0.068916105
92	0xbd2b40f3	-0.041809987
93	0xbe4a120b	-0.19733445
94	0xbdd8e18d	-0.105898954
95	0x3dcf067a	0.10108657
96	0x3e511e03	0.20421605
97	0x3cf54cca	0.029943842
98	0x3d0087e0	0.03137958
99	0x3ea85724	0.32878983
100	0x3eb73383	0.35781488
101	0x3e550436	0.20802388
102	0xbf149a7e	-0.58048236
103	0x3cabe03a	0.020980943
104	0xbec2fc1e	-0.38082975
105	0x3e9499d2	0.29023606
106	0x3db1cf38	0.08682102
107	0xbd627b17	-0.05529317
108	0xbd1dedc3	-0.038556825
109	0xbf225c6e	-0.63422287
110	0xbf106df2	-0.56417763
111	0xbad4d51c	-0.0016237828
112	0xbde6a59d	-0.11262057
113	0xbe4a4f41	-0.19756795
114	0xbf4455d4	-0.76693463
115	0xbdda9b90	-0.106742024
116	0xbd19826e	-0.037477903
117	0x3da5ac07	0.08089452
118	0x3c02355e	0.007947294
119	0xbe831783	-0.25603876
120	0xbf26d62c	-0.6517055
121	0xbe32e6eb	-0.174709
122	0x3da4a30b	0.080389105
123	0xbe69edd0	-0.22844625
124	0x3e711f21	0.23547031
125	0x3e09b349	0.13447298
126	0xbfa8bcb5	-1.3182589
127	0xbf1bfb1c	-0.6093004
128	0x3e549b45	0.20762356
129	0xbd29c481	-0.041447166
130	0xbe7a5d7a	-0.24449721
131	0x3eaac159	0.33350638
132	0x3c56ce84	0.013110761
133	0x3e1c7354	0.15278369
134	0x3e05b177	0.13055979
135	0xbe1ba463	-0.15199427
136	0x3e9f2b63	0.3108779
137	0xbf80330c	-1.0015578
138	0xbe73cf18	-0.23809469
139	0x3e2fda18	0.1717304
140	0x3e0a4c64	0.13505703
141	0x3e272984	0.1632443
142	0x3dbc6a3e	0.091999516
143	0xbe2cae65	-0.16863401
144	0xbf58ff69	-0.84764725
145	0x3d7fae97	0.06242236
146	0x3e0d7d4d	0.1381733
147	0xbe845d77	-0.25852558
148	0xbedf8990	-0.4365964
149	0x3c2f0161	0.010681481
150	0xbd866e4d	-0.06564007
151	0xbe145048	-0.1448375
152	0xbd93f5e5	-0.07224635
153	0xbd8c5da1	-0.06853796
154	0xbe7b1177	-0.24518381
155	0xbdbbbfc7	-0.09167438
156	0x3e85d7c8	0.2614119
157	0xbcdb3536	-0.026758771
158	0xbe83983f	-0.25702092
159	0xbe53ecec	-0.20695847
160	0xbee99018	-0.45617747
161	0x3da6744d	0.08127651
162	0xbe1e6530	-0.15468287
163	0xbdd2e1e7	-0.10296994
164	0x3da48989	0.08034045
165	0x3dee8b98	0.11647719
166	0xbcfaa5da	-0.030596662
167	0xbcef475c	-0.029208831
168	0xbe85260d	-0.26005593
169	0x3bd477d2	0.0064840103
170	0xbdd97b72	-0.106192484
171	0x3e988611	0.29789785
172	0xbd7d94b3	-0.06190939
173	0xbe838b95	-0.2569243
174	0xbde79dd5	-0.11309401
175	0x3e887bb0	0.26656866
176	0x3bd43cca	0.006476973
177	0xbd7d9492	-0.061909266
178	0x3e67d91d	0.22641416
179	0x3da1c396	0.07898633
180	0xbc83c008	-0.016082779
181	0x3e43ab95	0.19108422
182	0xbd2182da	-0.03943143
183	0x3debdca0	0.1151669
184	0x3e6eb6ea	0.23311964
185	0x3de25b67	0.1105259
186	0xbe0e7152	-0.13910416
187	0xbe0a56c3	-0.1350966
188	0xbe61497b	-0.22000687
189	0xbdf8421c	-0.12121984
190	0xbd4f53d6	-0.05061706
191	0x3e7e5e0b	0.24840562
192	0x3d76961d	0.060201753
193	0xbe857368	-0.2606461
194	0xbdb571ca	-0.08859594
195	0x3dffed4d	0.124964334
196	0xbd674a7f	-0.05646753
197	0x3e171dfb	0.1475753
198	0xbc40a52c	-0.01175813
199	0x3e6e6646	0.23281202
200	0xbd31579f	-0.043296453
201	0xbe8596c3	-0.26091585
202	0xbf202e99	-0.625711
203	0x3e35cf83	0.1775494
204	0xbe8407f8	-0.2578733
205	0xbe04fe41	-0.12987615
206	0xbdf41159	-0.11917371
207	0x3e4d770f	0.20064948
208	0x3de6e53b	0.11274191
209	0xbefd8528	-0.49515653
210	0x3e08bb12	0.13352612
211	0xbe64e6fd	-0.2235374
212	0xbe8ff4a8	-0.28116345
213	0xbef00714	-0.468804
214	0x3e38fa90	0.18064332
215	0xbe807cba	-0.2509516
216	0xbe126476	-0.14296135
217	0xbe79edc6	-0.2440711
218	0xbda2cf27	-0.079496674
219	0xbe489c0d	-0.19590779
220	0x3ecc5370	0.39907408
221	0x3e13e003	0.14440922
222	0x3e9c9864	0.30585015
223	0xbd4ea37c	-0.05044888
224	0xbe81be45	-0.25340477
225	0xbdc1a01a	-0.09454365
226	0xbe316d50	-0.17326856
227	0x3efed21f	0.49769685
228	0x3e8e2850	0.2776513
229	0x3e21b7b3	0.15792732
230	0xbe62754c	-0.22115058
231	0xbbc0138d	-0.0058617056
232	0xbe1a36e2	-0.15059999
233	0xbd718ebc	-0.058974013
234	0xbdd2207a	-0.10260101
235	0xbc0af63f	-0.008481561
236	0x3e882c37	0.26596233
237	0xbb9a4a2b	-0.0047085485
238	0x3e4099b4	0.18808633
239	0xbe4e7dc9	-0.2016517
240	0xbd22d9fc	-0.039758667
241	0xbee380b1	-0.4443412
242	0xbdd978c6	-0.10618739
243	0xbd6cf0d0	-0.057846844
244	0x3d0d526e	0.03450244
245	0xbd002798	-0.03128776
246	0xbe93a3c7	-0.2883589
247	0x3d1d7414	0.03844078
248	0x3e35d15d	0.17755647
249	0x3e02a03c	0.12756437
250	0xbd156a79	-0.036478493
251	0xbc12ba49	-0.008955547
252	0x3e63b639	0.22237481
253	0x3e062d74	0.13103276
254	0x3e4f8a8d	0.20267697
255	0x3e6b89ec	0.23001832

regressors.1.lins.1.bias f4 [32]
0	0xbd9476fb	-0.07249256
1	0xbd684138	-0.056702822
2	0xbcc8af02	-0.024497513
3	0xba417b48	-0.0007380736
4	0xbe2827ee	-0.16421482
5	0x3ebbb51f	0.36661622
6	0x3b4af404	0.0030968199
7	0x3d59eb08	0.05320266
8	0xbc344daf	-0.011004849
9	0xbdad4e14	-0.08462158
10	0xbe75f6fb	-0.24019997
11	0xbe0b40ec	-0.13598984
12	0x3e3ac940	0.18240833
13	0x3dd46640	0.10371065
14	0x3d1e6022	0.0386659
15	0x3dfbca57	0.12294453
16	0x3d5fab29	0.05460659
17	0x3dcd05c8	0.10010868
18	0xbdef2dfe	-0.11678694
19	0x3dd553f8	0.104164064
20	0xbdad4b02	-0.08461572
21	0x3e187f8d	0.14892407
22	0x3e0aec40	0.13566685
23	0x3e936333	0.2878662
24	0xba543a19	-0.00080958154
25	0x3e9894a8	0.29800916
26	0xbe982529	-0.2971585
27	0x3e34caa4	0.17655426
28	0xbe7721d1	-0.24133994
29	0x3dbaf9ba	0.09129663
30	0x3dce7151	0.10080207
31	0x3e740201	0.2382889

regressors.1.lins.2.weight f4 [32, 32]
0	0xbe163214	-0.14667541
1	0x3e26317b	0.16229813
2	0xbe35d6cf	-0.17757724
3	0xbf03d3b9	-0.5149494
4	0x3ef7d902	0.4840775
5	0x3dce70cf	0.1008011
6	0xbd8dcb25	-0.06923512
7	0xbc96fb77	-0.018430455
8	0xbb465e4d	-0.003026861
9	0x3deff65f	0.117169134
10	0xbdeaa753	-0.11457696
11	0xbe0eb753	-0.1393712
12	0x3d8a4e0e	0.06753169
13	0x3e84d531	0.25943902
14	0xbe2f9515	-0.17146714
15	0xbebb8ec9	-0.36632374
16	0xbc2bbea2	-0.010482462
17	0x3d2e2423	0.04251493
18	0xbeeca507	-0.46219656
19	0xbba9834d	-0.005173123
20	0xbea2acec	-0.31772554
21	0xbe93f575	-0.28898206
22	0x3e12812f	0.14307092
23	0x3e656fa4	0.22405869
24	0xbd3b898d	-0.045785476
25	0xbeebb853	-0.46039066
26	0x3c9c1ef3	0.019057726
27	0x3f4118f0	0.75428677
28	0x3c4563e0	0.012047738
29	0x3d83fe65	0.06445006
30	0xbed4b840	-0.41546822
31	0xbe065fbc	-0.13122457
32	0xbe05cb7e	-0.13065907
33	0x3cfd910b	0.030952951
34	0xbd59424b	-0.053041738
35	0xbf989d51	-1.1923009
36	0x3dae7cbb	0.08519884
37	0xbea0a6a4	-0.31377137
38	0x3c892efb	0.016746035
39	0xbe3f6605	-0.18691261
40	0xbe8648e9	-0.262275
41	0x3e33a5f8	0.17543781
42	0x3d5f29bc	0.05448316
43	0xbd5a541d	-0.053302873
44	0x3e4bc913	0.19900922
45	0x3e182b89	0.14860357
46	0xbdb029d6	-0.086017296
47	0x3d185384	0.03718902
48	0xbec7907c	-0.3897742
49	0xbf5153bf	-0.8176841
50	0xbd0aba19	-0.033868883
51	0xbc099d59	-0.008399331
52	0xbed7dda5	-0.4216129
53	0x3d92a3c2	0.071601406
54	0x3c82d227	0.01596935
55	0x3e341cbc	0.17589086
56	0xbdb13881	-0.086533554
57	0x3c18d942	0.009329142
58	0x3dcf45b6	0.10120718
59	0xbe052937	-0.13004003
60	0xbed42aea	-0.4143899
61	0x3ebf6984	0.3738519
62	0xbe53b936	-0.20676121
63	0xbe096aea	-0.1341969
64	0xbf0304f5	-0.5117944
65	0x3dc38df7	0.09548562
66	0x3db7255a	0.08942671
67	0xbca5401d	-0.020172173
68	0x3e1aec10	0.15129113
69	0x3e2d9a08	0.1695329
70	0x3e7e06db	0.24807303
71	0x3d17954d	0.03700762
72	0x3c4ccc7f	0.012499928
73	0xbe4a0a38	-0.1973046
74	0xbe1be8c7	-0.15225516
75	0x3de6d0fc	0.11270329
76	0x3d93f0db	0.07223674
77	0xbe1218cf	-0.14267276
78	0x3dea397a	0.11436744
79	0x3e4a83f7	0.19776903
80	0x3e30941b	0.17243998
81	0xbcfbb35b	-0.030725172
82	0xbbf2b285	-0.007406535
83	0xbe3016f0	-0.1719625
84	0xbd925eb7	-0.07146972
85	0xbc4d4e45	-0.012530868
86	0x3c0d966d	0.008641821
87	0x3e221a1c	0.15830272
88	0x3e560b78	0.20902812
89	0x3d97a8fc	0.07405278
90	0x3d9282a9	0.07153828
91	0x3daa0054	0.08300844
92	0x3e3dd99c	0.18540043
93	0xbe865109	-0.262337
94	0x3e686894	0.22696143
95	0x3e42403e	0.18969819
96	0xbecce413	-0.40017757
97	0xbf08880d	-0.53332597
98	0xbb18673f	-0.00232549
99	0xbea53a4a	-0.32271034
100	0xbe915017	-0.28381416
101	0x3dd489a9	0.10377819
102	0x3e4e0a87	0.20121203
103	0xbe0b4568	-0.13600695
104	0xbf0e5dfa	-0.55612147
105	0xbe0bb2cb	-0.13642423
106	0xbd974553	-0.073862694
107	0x3e0334f1	0.12813164
108	0xbf220f72	-0.6330482
109	0x3e95393d	0.29145232
110	0x3d9a50ec	0.07534966
111	0xbdee99f2	-0.116504565
112	0xbea8ae0c	-0.32945287
113	0x3eef1ddb	0.46702465
114	0xbc5cbba3	-0.01347247
115	0x3dc14b69	0.094382115
116	0x3e54477f	0.20730399
117	0x3c47ad5f	0.012187331
118	0xbcfe8f98	-0.03107433
119	0xbed12d72	-0.40854985
120	0x3e22103e	0.15826508
121	0x3c6e5a1f	0.014547854
122	0xbcad81f0	-0.021180123
123	0xbeafc0fe	-0.3432693
124	0x3e4a4fc2	0.19756988
125	0xbd97aaca	-0.07405622
126	0xbe95c138	-0.29248977
127	0xbcff7616	-0.031184237
128	0x3e90d61c	0.28288352
129	0x3e12e6b4	0.14345819
130	0x3e32d719	0.17464866
131	0x3e7c18d6	0.24618849
132	0xbe6606fc	-0.22463602
133	0x3c3da9b0	0.011576101
134	0xbedc132b	-0.42983374
135	0x3e8e0637	0.27739117
136	0xbed75382	-0.420559
137	0xbdab068c	-0.08350858
138	0xbed7cee0	-0.4215002
139	0xbe57f723	-0.21090369
140	0x3e6a28ba	0.22867098
141	0xbd8665c7	-0.06562381
142	0xbee2c842	-0.4429341
143	0x3d2975ba	0.04137204
144	0x3df1c0ec	0.11804375
145	0xbe38c8fb	-0.18045418
146	0xbd51a105	-0.05117895
147	0xbe15bed5	-0.14623578
148	0xbd47dc87	-0.048794296
149	0xbf1289f5	-0.57241756
150	0xbe9e20f9	-0.3088453
151	0xbdb29986	-0.087206885
152	0x3f0bd026	0.54614484
153	0xbe220556	-0.15822348
154	0x3db986ab	0.09058889
155	0x3e9a9fe0	0.302001
156	0xbf0913dd	-0.53545934
157	0x3dfa1572	0.122111216
158	0x3cb5c521	0.022188725
159	0x3d7404a7	0.05957475
160	0xbe20d978	-0.15707958
161	0x3db88a1a	0.09010716
162	0xbe1e28f6	-0.15445313
163	0xbe1cfad2	-0.15330055
164	0x3e284eb7	0.16436277
165	0xbe0655be	-0.13118646
166	0x3d966657	0.073437385
167	0x3d8bab31	0.068197615
168	0x3a9b0b73	0.0011828974
169	0xbe1755e6	-0.14778861
170	0xbd530750	-0.051520646
171	0x3d68f6f9	0.056876156
172	0xbbceb9cf	-0.006308771
173	0x3d67ffb6	0.05664035
174	0x3e64fd53	0.2236226
175	0x3c1cc3c8	0.009568162
176	0x3dcf8911	0.10133565
177	0xbe12ce0a	-0.1433641
178	0xbd0deb8f	-0.034648474
179	0xbe498965	-0.19681318
180	0xbd92c74b	-0.07166918
181	0x3cf251cf	0.029580025
182	0xbc83be01	-0.016081812
183	0x3d919e92	0.07110323
184	0x3db3a6b5	0.08772031
185	0x3d9f346b	0.0777367
186	0xbdf46652	-0.119335786
187	0xbd9dbcdf	-0.0770204
188	0xbd4312b8	-0.047625273
189	0xbe484b5b	-0.19559996
190	0xbb46661d	-0.0030273267
191	0x3d92dc79	0.07170958
192	0xbe07d0d7	-0.1326326
193	0xbdaf4e15	-0.08559815
194	0xbe005509	-0.12532438
195	0xbe42fec4	-0.19042498
196	0xbf38bf9c	-0.7216737
197	0xbd409665	-0.047018427
198	0x3d3d2a2b	0.046182793
199	0xbd4a25b6	-0.04935237
200	0xbe059096	-0.13043436
201	0x3e550986	0.20804414
202	0xbe0e13a5	-0.13874681
203	0x3eaf6285	0.34254852
204	0x3e4d6539	0.20058145
205	0x3d12a245	0.035799284
206	0x3e74bb73	0.23899631
207	0x3ec7920c	0.38978612
208	0xbe2df25a	-0.16986981
209	0xbd0bfbb1	-0.03417558
210	0x3e4e0abe	0.20121285
211	0xbe5ea77d	-0.21743579
212	0xbe3c8c9f	-0.18413018
213	0xbddac0e1	-0.1068132
214	0xbd8b056b	-0.06788143
215	0x3e4e03c0	0.20118618
216	0x3e7b2555	0.2452596
217	0xbe946517	-0.28983375
218	0x3c1af3b6	0.009457519
219	0xbe22464a	-0.15847126
220	0x3e953891	0.2914472
221	0xbd0f6a25	-0.035013337
222	0x3e93b043	0.28845415
223	0xbe9ebcf1	-0.31003526
224	0x3d9e609c	0.077332705
225	0xbdb905de	-0.09034322
226	0xbe3d6807	-0.18496715
227	0x3e626486	0.22108659
228	0xbda94446	-0.08264975
229	0x3e1bd18d	0.15216656
230	0xbee25674	-0.44206583
231	0xbf09d1b9	-0.53835636
232	0x3cec6ded	0.02886101
233	0x3da58ac4	0.08083108
234	0xbd33c503	-0.043889057
235	0x3e106873	0.14102344
236	0xbf2c2a8e	-0.67252433
237	0xbeb3bffa	-0.35107404
238	0x3e524c9a	0.20537034
239	0x3e207a81	0.15671732
240	0xbd625ce0	-0.055264354
241	0xbeb21df0	-0.34788465
242	0xbf0aee0e	-0.5426949
243	0xbf63f900	-0.8905182
244	0xbf0b7c23	-0.5448629
245	0xbf64daec	-0.8939655
246	0xbd97e176	-0.0741605
247	0x3e0200d1	0.12695624
248	0xbe1bc835	-0.15213092
249	0xbf541bcb	-0.8285491
250	0x3cde1427	0.027109219
251	0xbf779c1a	-0.9672257
252	0xbf4487d6	-0.7676977
253	0xbe0c97bf	-0.13729762
254	0x3dcee97d	0.10103128
255	0x3d88fa7d	0.06688402

regressors.1.lins.2.bias f4 [32]
0	0x3d67590d	0.05648141
1	0x3e0d689a	0.13809434
2	0x3e55ed24	0.20891243
3	0xbc36bb9d	-0.011153129
4	0xbe40c81c	-0.18826336
5	0x3e470e00	0.19438934
6	0xbe829a58	-0.2550838
7	0x3e72ce51	0.23711516
8	0xbe5834dd	-0.21113916
9	0xbe213303	-0.15742116
10	0x3e8590f2	0.26087147
11	0x3e1731bd	0.14765067
12	0xbe8f1d33	-0.27951965
13	0xbe9095e1	-0.2823935
14	0x3e304b97	0.17216335
15	0x3ea896af	0.32927462
16	0x3ea5f86f	0.32416102
17	0xbdb04225	-0.08606366
18	0x3d68df70	0.05685371
19	0xbcaa6add	-0.02080291
20	0xbe58dabc	-0.2117719
21	0xbde65892	-0.11247362
22	0xbdd5a987	-0.104327254
23	0xbdfdf0e0	-0.12399459
24	0x3d8aaf2c	0.06771693
25	0xbdd80a48	-0.10548836
26	0xbd633864	-0.0554737
27	0x3dd0e3ba	0.101996854
28	0xbc98ed3b	-0.018667808
29	0xbcb9e85a	-0.022693802
30	0xbd05fc0c	-0.032711074
31	0x3c94661e	0.0181151

regressors.1.lins.3.weight f4 [1, 32]
0	0x3d712795	0.05887564
1	0xbdb84a4e	-0.089985475
2	0x3e10e231	0.14148785
3	0xbe6e3588	-0.23262608
4	0xbe463327	-0.1935545
5	0x3c8af5de	0.016962942
6	0xbd8b1f78	-0.067931116
7	0xbe99d2a8	-0.3004353
8	0xbe17fef3	-0.14843349
9	0xbdb8222a	-0.08990891
10	0xbe7300b3	-0.23730735
11	0xbe8ba35a	-0.27273065
12	0xbd80a614	-0.06281677
13	0xbd3f205a	-0.046661712
14	0xbda8a8e9	-0.08235342
15	0x3d24e19b	0.040254217
16	0x3de5dc42	0.112236515
17	0xbec20e0f	-0.3790135
18	0xbdb39363	-0.08768346
19	0xbe08c513	-0.13356428
20	0xbeb786b5	-0.3584496
21	0x3d658fe8	0.056045443
22	0xbd9e66de	-0.07734464
23	0xbc622beb	-0.013804416
24	0xbe524a62	-0.20536187
25	0xbde0395e	-0.10948442
26	0xbcff6f21	-0.03118092
27	0x3d28b198	0.04118499
28	0x3c0c1fca	0.008552501
29	0xbd67fbd8	-0.05663666
30	0xbd90062c	-0.07032427
31	0xbe114304	-0.1418572
